DeepWonder3D_pytorch/pth/SEG_pth/Unet4_no_end_UNet3DFFD_20240401-1432_2um/seg_155.pth (torch, 138281 bytes, 19 tensors)

Generator.conv1.conv1.0.weight f4 [8, 1, 3, 3, 3]
0	0x3de26f9f	0.11056446
1	0x3dcaf21b	0.09909459
2	0xbd5be82b	-0.05368821
3	0x3e113b5b	0.14182799
4	0xbdf53e43	-0.11974766
5	0xbdf56c0c	-0.11983499
6	0x3bc19da2	0.005908684
7	0x3b8772e7	0.0041335705
8	0x3dd43ea6	0.10363512
9	0x3d02c91a	0.031930067
10	0xbe24c8e4	-0.16092259
11	0x3db92d6a	0.09041865
12	0x3dff6ac2	0.12471534
13	0x3ddab601	0.10679246
14	0x3d1c6ba9	0.03818861
15	0xbe3fd5e7	-0.18733941
16	0x3db932c7	0.09042888
17	0xbe4ce205	-0.20008095
18	0xbdeac7d5	-0.11463896
19	0xbde80c6c	-0.11330494
20	0xbd6d1c56	-0.05788835
21	0x3d294096	0.04132136
22	0xbd411c72	-0.04714627
23	0x3d85ed87	0.06539445
24	0xbe4fe0b7	-0.20300566
25	0x3bb18505	0.0054174685
26	0x3e0aad4f	0.13542674
27	0x3e1ca1be	0.15296075
28	0x3e1a2d9e	0.15056464
29	0x3c3a05d7	0.011353931
30	0x3db3f0b8	0.08786148
31	0xbe0887e4	-0.13333088
32	0xbe3a4bef	-0.18193029
33	0x3e14a7a1	0.1451707
34	0x3ce32aa6	0.027730297
35	0xbd9961b0	-0.074893355
36	0xbdeffff9	-0.11718745
37	0x3e1d7584	0.1537686
38	0xbd3ee63a	-0.04660628
39	0xbe02fc56	-0.12791571
40	0xbd9ec368	-0.077521145
41	0x3bfbe31d	0.007686986
42	0xbe4316f5	-0.19051726
43	0xbe56abbe	-0.20963952
44	0xbc7d0d11	-0.01544501
45	0x3deb2470	0.11481559
46	0x3ce15be2	0.027509633
47	0x3e4d99ff	0.20078276
48	0x3e313b4b	0.17307775
49	0xbdb4346a	-0.0879906
50	0x3e23547d	0.15950198
51	0x3dc62bbc	0.096763104
52	0xbdfd90bb	-0.12381121
53	0xbd9860ec	-0.074403614
54	0x3d8d8e09	0.06911857
55	0xbd154866	-0.036445998
56	0xbde91b16	-0.11382119
57	0x3cf00332	0.029298399
58	0x3dcfc3ac	0.10144743
59	0xbb6c9a63	-0.0036102764
60	0xbe266843	-0.1625071
61	0xbdea6a5a	-0.11446066
62	0xbd7930f3	-0.060837697
63	0x3d20a74d	0.03922205
64	0x3dca8b02	0.09889795
65	0x3cb1eeb8	0.021720275
66	0xbd2e8722	-0.04260934
67	0x3d25f0aa	0.04051272
68	0x3d9a305c	0.07528755
69	0x3d498990	0.049203455
70	0xbaf0ee75	-0.0018381613
71	0x3b81e333	0.003963852
72	0xbe25faaa	-0.16208902
73	0x3d1ead85	0.0387397
74	0x3d2a9c05	0.041652698
75	0xbbc710f1	-0.0060750176
76	0xbd94fb5a	-0.07274504
77	0x3db3e7aa	0.08784421
78	0xbeafcebf	-0.34337422
79	0x3cb9cfc1	0.022682073
80	0xbe767e4c	-0.24071616
81	0xbdbaee5a	-0.09127493
82	0xbe17120c	-0.14752978
83	0x3e2212b4	0.15827447
84	0xbe4adf5c	-0.19811767
85	0xbd9292e1	-0.07156921
86	0xbca60343	-0.020265227
87	0x3da4a4f5	0.080392756
88	0xbde62949	-0.11238343
89	0x3d6a5d2e	0.05721777
90	0xbe5429ee	-0.2071912
91	0xbd6ed5e4	-0.05830945
92	0x3ce1fcaf	0.02758631
93	0x3dd09904	0.101854354
94	0xbe4a1a5f	-0.19736622
95	0xbe26b4b6	-0.16279873
96	0xbd16389d	-0.036675084
97	0x3e0229ec	0.12711304
98	0x3db6ff81	0.08935452
99	0xbd60e864	-0.054909125
100	0x3d829361	0.063757665
101	0x3dbbaddf	0.09164023
102	0xbd842809	-0.064529486
103	0x3d721daa	0.05911032
104	0x3da27259	0.07931966
105	0x3c7cb867	0.015424824
106	0xbe24fe28	-0.16112578
107	0xbe614682	-0.21999553
108	0x3e1102be	0.14161202
109	0xbe247077	-0.16058527
110	0xbd67f31c	-0.05662833
111	0xbdff1753	-0.124556206
112	0xbcc29f4b	-0.023757597
113	0x3c56dd40	0.013114274
114	0xbd131311	-0.035906855
115	0x3d8e364b	0.06943949
116	0x3d304bef	0.043041166
117	0xbc22f73f	-0.009946643
118	0x3dc6713a	0.09689565
119	0xbe41c66e	-0.18923351
120	0xbd63d5c4	-0.055623785
121	0xbd13f524	-0.036122456
122	0xbbe18c09	-0.0068831486
123	0x3dde6f27	0.108610444
124	0x3ca1c3d4	0.019746698
125	0x3df15598	0.11783904
126	0xbe3e162c	-0.18563145
127	0x3da0cd44	0.07851651
128	0x3deb6190	0.11493218
129	0x3dc3d201	0.095615394
130	0x3d1aa497	0.03775462
131	0xbddb6d05	-0.10714153
132	0xbe1c2c90	-0.15251374
133	0xbda16767	-0.078810506
134	0x3dd5fbd0	0.1044842
135	0x3d220f7d	0.039565552
136	0xbdd15f53	-0.1022326
137	0x3dffdf5f	0.124937765
138	0x3de1fdf5	0.110347666
139	0xbd89fe03	-0.06737902
140	0xbe02f2b0	-0.1278789
141	0xbe412e4b	-0.18865316
142	0x3e344253	0.17603426
143	0x3c4a24f1	0.012337909
144	0xbd9dad7c	-0.07699105
145	0xbe381480	-0.1797657
146	0x3d8b8561	0.068125494
147	0x3dc7636d	0.09735761
148	0xbe2c3163	-0.16815715
149	0xbe585e4b	-0.2112972
150	0xbd9e209c	-0.077210635
151	0x3d8ffc03	0.07030489
152	0x3e1242e4	0.14283329
153	0xbccaad55	-0.024740854
154	0xbd09431c	-0.033511266
155	0x3dfccba0	0.12343526
156	0x3caa54cc	0.020792387
157	0x3e26ac44	0.16276652
158	0xbdb6071c	-0.08888075
159	0xbbc9751c	-0.0061479937
160	0xbd5a2b7b	-0.053264122
161	0x3e3db68c	0.18526667
162	0xbe5755a7	-0.21028768
163	0x3e2b546c	0.16731423
164	0xbda455bb	-0.08024164
165	0x3db23dda	0.087032035
166	0x3b81ab34	0.0039571766
167	0xbd5c0a4c	-0.053720757
168	0x3d0633b0	0.032764137
169	0xbcade429	-0.02122696
170	0x3d52dbec	0.051479265
171	0x3d7b92cf	0.061419304
172	0xbd88cc5e	-0.06679605
173	0x3e62e119	0.2215618
174	0xbe5165db	-0.20449011
175	0xbdab4a3f	-0.08363771
176	0x3c92e231	0.017930122
177	0xbd58c316	-0.052920423
178	0x3df54df5	0.1197776
179	0x3d1de584	0.03854896
180	0xbd93f059	-0.07223577
181	0xbd5afb27	-0.053462174
182	0x3dc84015	0.09777848
183	0xbe13431b	-0.14381067
184	0x3d52cc42	0.051464327
185	0x3dc71888	0.09721476
186	0xbdf84529	-0.12122566
187	0xb9c25bee	-0.00037071056
188	0x3e20581a	0.15658608
189	0xbd48c8b9	-0.04901955
190	0x3e07d1f4	0.13263685
191	0x3cbff769	0.023433404
192	0x3d2fccc6	0.042919897
193	0x3dd99610	0.10624325
194	0xbe52fffc	-0.20605463
195	0xbd87e248	-0.066349566
196	0x3a1a6498	0.00058896234
197	0x3e007ec5	0.12548359
198	0xbd079ab0	-0.033106506
199	0xbd9c567c	-0.07633683
200	0xbd3dd146	-0.046342157
201	0xbe4eafc6	-0.2018424
202	0x3e099208	0.13434613
203	0xbdbf61cb	-0.093448244
204	0xbdab0e5d	-0.08352349
205	0x3e27a4cf	0.16371463
206	0x3cc152df	0.023599086
207	0xbd8c2a8f	-0.06844055
208	0xbce8c3ac	-0.028413616
209	0xbbec4277	-0.0072100717
210	0xbe5c9650	-0.21541715
211	0x3dc23140	0.0948205
212	0xbdd581e8	-0.10425168
213	0xbe379cac	-0.1793086
214	0xbdb0e21f	-0.08636879
215	0x3dd6add6	0.10482375

Generator.conv1.conv2.0.weight f4 [8, 8, 3, 3, 3]
0	0x3df11d34	0.11773148
1	0x3d2935d5	0.041311104
2	0x3d6eb95c	0.05828224
3	0xbca27b82	-0.019834284
4	0xbd6abddb	-0.057309967
5	0x3c473990	0.01215972
6	0x3e2e6074	0.17028981
7	0x3e01c032	0.12670973
8	0x3e8b0403	0.27151498
9	0x3c2c1b62	0.010504575
10	0x3c787ca9	0.01516644
11	0x3c93ca9f	0.018040953
12	0x3cdbb37b	0.026818981
13	0x3db38286	0.0876513
14	0xbce0e269	-0.02745171
15	0x3d814951	0.06312812
16	0xbcc69a5c	-0.024243526
17	0x3de09d41	0.10967494
18	0x3cfec6b8	0.031100616
19	0x3e0ae5a4	0.13564163
20	0x3df817f4	0.12113944
21	0x3dec7dd6	0.11547439
22	0x3e1321eb	0.14368407
23	0x3df0926d	0.117466785
24	0x3e13a6ed	0.14419146
25	0x3e1f8fef	0.1558225
26	0x3e313d3a	0.17308512
27	0xbe03e9d6	-0.1288217
28	0xbd835882	-0.06413366
29	0xbe0bd98a	-0.13657203
30	0xbd2d02ff	-0.042239185
31	0xbd4d7266	-0.050157927
32	0xbe1f4e91	-0.15557314
33	0xbcc20c15	-0.023687402
34	0x3d64f5f5	0.055898625
35	0xbdba20dc	-0.09088299
36	0xbde6b02a	-0.112640694
37	0x3e19a686	0.1500493
38	0xbe26eda7	-0.16301595
39	0xbd0e639c	-0.034762964
40	0x3de86948	0.11348206
41	0xbeb2b669	-0.34904793
42	0xbd115120	-0.035477757
43	0x3d82943a	0.06375928
44	0x3ca8ad33	0.0205904
45	0x3ccc51ef	0.024941413
46	0x3e3ba804	0.18325812
47	0xbe8f05c8	-0.27934098
48	0xbd413b01	-0.04717541
49	0x3dfc953d	0.123331524
50	0xbeb28f79	-0.34875086
51	0xbdb01ce2	-0.08599259
52	0x3c6a6138	0.014305405
53	0x3b24433e	0.0025064494
54	0x3df3f4b9	0.119119115
55	0x3cb52077	0.022110207
56	0x3cf02ce7	0.029318286
57	0xbba276d0	-0.004958011
58	0xbd822622	-0.063549295
59	0xbc943c8b	-0.018095275
60	0x3d40a4a3	0.04703201
61	0x3c1c3c10	0.009535804
62	0xbd40356e	-0.046925955
63	0x3e0d832c	0.1381957
64	0x3d2915a9	0.041280422
65	0x3c9cbdc8	0.019133464
66	0x3beb6fcb	0.0071849576
67	0x3d3a9072	0.04554791
68	0x3daec9f5	0.08534614
69	0x3df13dff	0.11779403
70	0x3d236074	0.039886907
71	0x3d4e355e	0.050343864
72	0x3b732160	0.003709875
73	0x3c106330	0.008812711
74	0x3d5c9acf	0.053858574
75	0xbdb539ea	-0.08848937
76	0xba7a2906	-0.0009542856
77	0xbd1bcd10	-0.03803736
78	0x3dbf98b2	0.09355296
79	0x3dcac7f0	0.09901416
80	0x3d7f0837	0.062263694
81	0xbcc456e0	-0.023967206
82	0x3d7d5945	0.061852712
83	0x3d29fb17	0.041499224
84	0x3e0f62ac	0.14002484
85	0x3b066373	0.0020506054
86	0xbbce29ae	-0.0062915897
87	0x3c05dedb	0.008170809
88	0xbd2352c0	-0.03987384
89	0x3c0ed01f	0.008716612
90	0x3caa7a81	0.020810368
91	0x3c91c85e	0.017795738
92	0x3d2e9a32	0.04262752
93	0xbd3a9e30	-0.045561016
94	0x3c726079	0.014793509
95	0x3d6b216c	0.05740492
96	0xbd0f2730	-0.03494948
97	0x3cbeba92	0.023282323
98	0x3ce5e790	0.02806452
99	0x3d88c6aa	0.06678517
100	0xbd3d7e0a	-0.04626278
101	0xbd472c4e	-0.048626237
102	0xbbfe46a6	-0.007759887
103	0x3d1c67c2	0.03818489
104	0x3d554155	0.05206426
105	0x3cf8026b	0.03027459
106	0x3d1d684e	0.03842955
107	0x3c9cf885	0.019161472
108	0x3d4b235d	0.049594272
109	0xbdfff225	-0.12497357
110	0xbdd7bb6b	-0.10533794
111	0xbd32516b	-0.043534677
112	0x3d0e0937	0.034676757
113	0xbde125c1	-0.10993529
114	0x3ccba3ea	0.024858434
115	0x3bd655e6	0.0065410016
116	0x3d884dcd	0.06655464
117	0xbdb4e2eb	-0.08832344
118	0x3c329ba7	0.010901368
119	0x3dd4d15d	0.103914954
120	0xbd093baa	-0.033504166
121	0x3daffdf2	0.08593358
122	0x3dd69133	0.10476913
123	0xbdf65193	-0.12027278
124	0x3de6eebd	0.112760045
125	0x3d821151	0.06350959
126	0xbdef0082	-0.11670019
127	0x3e2071f1	0.15668465
128	0x3dd4ac9d	0.10384486
129	0xbdb6dfe3	-0.08929422
130	0x3e1010b3	0.1406887
131	0xbc8245dc	-0.015902452
132	0xbe8a6ff7	-0.27038547
133	0x3dd0f002	0.10202028
134	0xbc8d4daa	-0.017248947
135	0x3d357929	0.044305
136	0x3ddf896a	0.109148815
137	0x3cc19024	0.023628302
138	0xbb60771d	-0.0034250685
139	0x3d61b6b3	0.055105876
140	0xbd187286	-0.037218593
141	0x3d82e13c	0.06390616
142	0xbde22c23	-0.11043575
143	0xbd472a13	-0.04862411
144	0xbe2505bc	-0.16115469
145	0x3db663e0	0.089057684
146	0x3c871d24	0.016493388
147	0xbd87d1a0	-0.0663178
148	0x3d905ace	0.070485696
149	0xbc3c7070	-0.011501417
150	0x3bbe4845	0.005806955
151	0xbc95cd16	-0.01828627
152	0xbe014ac3	-0.12626176
153	0xbd494b5f	-0.049144145
154	0x3dce0aa0	0.1006062
155	0x3d4b4840	0.04962945
156	0xbd138a5d	-0.036020625
157	0x3e1e6c07	0.15470897
158	0x3d9293c7	0.071570925
159	0xbdb53bcb	-0.08849295
160	0xbd33be25	-0.043882508
161	0xbca1e949	-0.01976456
162	0x3d63b7d5	0.055595238
163	0xbdbd607c	-0.092469186
164	0xbe0a3f95	-0.13500817
165	0x3d65f25a	0.056139328
166	0xbd845c19	-0.06462879
167	0xbda1fc7d	-0.079094864
168	0x3e03893f	0.12845324
169	0xbdf8bf2c	-0.12145838
170	0xbc0669e5	-0.008203958
171	0x3d3c9447	0.046039846
172	0xbe19d6ce	-0.15023348
173	0xbc97063f	-0.018435596
174	0x3cdc9564	0.026926704
175	0xbc16d538	-0.009206109
176	0xbd91c4e0	-0.07117629
177	0xbd465fe9	-0.04843131
178	0xbddb884d	-0.10719357
179	0xbc637925	-0.013883864
180	0x3d2e7ea5	0.042601246
181	0xbd1a5ae4	-0.037684336
182	0x3ddddc4e	0.108330354
183	0xbc318cdc	-0.010836806
184	0x3dc7c107	0.09753614
185	0x3d9f56d4	0.07780233
186	0xbd868066	-0.06567459
187	0xbe6efe46	-0.23339185
188	0xbc88b78d	-0.016689086
189	0xbc0339df	-0.008009403
190	0xbd904b53	-0.07045617
191	0x3b8ab2f1	0.0042327573
192	0x3d20fdcd	0.039304543
193	0x3ce74c14	0.028234519
194	0x3d377482	0.044788845
195	0x3d31349c	0.043263063
196	0xbd8a3542	-0.06748439
197	0x3c2e9a05	0.010656838
198	0x3af2dfeb	0.0018529868
199	0xbe5b2ed7	-0.21404587
200	0x3d3f7ba0	0.046748757
201	0xbb9d75c2	-0.0048052976
202	0xbe28d643	-0.16487984
203	0x3dd87385	0.105689086
204	0x3da16901	0.07881356
205	0xbe75e5af	-0.24013399
206	0x3d6cca87	0.057810333
207	0xbdd95faa	-0.106139496
208	0x3de9e8b1	0.114213355
209	0xbe312ee9	-0.17303051
210	0xbe1d5563	-0.15364604
211	0x3e2f679a	0.17129365
212	0xbe2f9b4c	-0.17149085
213	0xbe59d423	-0.2127233
214	0x3db8d29f	0.09024548
215	0xbe1111f0	-0.14166999
216	0x3e33919e	0.17536017
217	0x3e21e624	0.15810448
218	0x3e7bfa56	0.24607214
219	0xbb7b4ffe	-0.003834724
220	0x3d391d51	0.045193974
221	0x3deda51e	0.11603759
222	0x3e875d13	0.26438197
223	0x3e88e2c7	0.26735517
224	0x3e7bebd0	0.24601674
225	0x3dd73d9b	0.10509797
226	0x3d4831f1	0.048875753
227	0x3e270fad	0.16314574
228	0x3c36b9d2	0.011152701
229	0x3d6a3325	0.05717768
230	0x3d13456d	0.03595488
231	0x3d5b4773	0.053534936
232	0xbb80a99c	-0.003926469
233	0x3d7ddae7	0.06197634
234	0x3d923be6	0.07140331
235	0x3dc0d156	0.09414928
236	0x3cfb2f4d	0.030662203
237	0x3dc92be3	0.09822824
238	0x3da47160	0.08029437
239	0x3da9e52a	0.08295663
240	0x3d8a0929	0.067400284
241	0x3b225cf5	0.0024774645
242	0x3dd7ff81	0.105467804
243	0xbd9c9acd	-0.076467134
244	0xbd453f66	-0.048156165
245	0xbd246a09	-0.040140186
246	0xbd3d3016	-0.046188436
247	0xbda33f58	-0.07971066
248	0x3c895c9b	0.01676779
249	0x3cf3ab3e	0.02974474
250	0x3c2d1eea	0.0105664525
251	0x3c2085ae	0.009797497
252	0x3d874bdc	0.06606266
253	0xbcb3267f	-0.021868942
254	0xbbf001b3	-0.0073244213
255	0x3d881f90	0.06646645

Generator.conv2.conv1.0.weight f4 [8, 8, 3, 3, 3]
0	0x3cfdfd8a	0.031004686
1	0xbb87a3eb	-0.0041394136
2	0x3ca7e1d3	0.020493424
3	0x3e2b01be	0.16699883
4	0x3d84cfe6	0.06484966
5	0xbd6953a3	-0.056964528
6	0xbe2c2a54	-0.16813022
7	0xbcd963ec	-0.026536904
8	0x3d106aa2	0.035257943
9	0xbd9691b0	-0.073520064
10	0xbd0eb362	-0.03483904
11	0x3c0365dd	0.008019892
12	0xbda7415c	-0.08166763
13	0x3c4b49a5	0.012407695
14	0x3ccba4bb	0.024858823
15	0xbd002b2a	-0.031291164
16	0xbd9f4fe6	-0.07778911
17	0x3d911392	0.07083811
18	0x3c94bf3f	0.0181576
19	0xbd61558e	-0.055013232
20	0xbc848339	-0.016175853
21	0x381b01a7	3.695642e-05
22	0xbd36f76f	-0.044669565
23	0x3cfcf44a	0.030878205
24	0x3d0573ca	0.03258113
25	0xbcc90457	-0.024538202
26	0x3d559321	0.052142266
27	0x3d53ddbd	0.051725138
28	0xbd056334	-0.03256531
29	0xbd63f47f	-0.05565309
30	0xbb292b87	-0.0025813298
31	0xbc705e0f	-0.014670863
32	0xbd2b2f0f	-0.041792925
33	0x3d449e0d	0.04800229
34	0x3d906638	0.07050747
35	0x3bca9ce6	0.0061832545
36	0xbe14fa48	-0.145486
37	0xbe07b67a	-0.13253203
38	0xbda003c0	-0.07813215
39	0xbdb54878	-0.08851713
40	0xbd8d1cf7	-0.0689029
41	0xbd94bac1	-0.07262183
42	0x3ddd397d	0.10801981
43	0xbc102533	-0.0087979315
44	0xbcf73920	-0.030178607
45	0xbd3f69cb	-0.04673175
46	0xbd836338	-0.06415409
47	0xbe2738b6	-0.16330227
48	0x3b32ebfa	0.0027301298
49	0xbd82fa9c	-0.06395456
50	0xbdcf3008	-0.10116583
51	0x3da3bd31	0.0799507
52	0xbbde2164	-0.006778883
53	0xbd7137cd	-0.058891106
54	0xbcad0aa8	-0.021123245
55	0x3d942e7b	0.07235428
56	0x3e2cf911	0.16891886
57	0x3c78b308	0.015179403
58	0x3c50d75c	0.012746658
59	0x3e451865	0.19247587
60	0xbcadf9e8	-0.021237329
61	0xbd4ec155	-0.050477345
62	0x3d1c9be1	0.038234595
63	0xbdf89361	-0.12137485
64	0x3ccddafd	0.025128836
65	0x3d99c5dc	0.07508442
66	0xbd6bb2f4	-0.05754371
67	0x3b11fa4b	0.002227443
68	0x3db8ef35	0.0903
69	0xbe20a03c	-0.15686125
70	0xbd0d7c3c	-0.034542307
71	0x3cee26fb	0.029071322
72	0xbdf40e1a	-0.11916752
73	0xbc6b837d	-0.014374611
74	0x3dadbb8c	0.08483037
75	0xbe070b0d	-0.1318781
76	0x3d7644ed	0.060124326
77	0x3dfd3478	0.12363523
78	0xbdbe7574	-0.09299746
79	0xbd7a0721	-0.061041955
80	0x3d7f0771	0.062262956
81	0x3bfcbc34	0.0077128652
82	0xbcc3349b	-0.023828795
83	0x3d4d82ff	0.050173756
84	0xbdb4d494	-0.088296086
85	0xbd71d5a8	-0.05904165
86	0xbc4c84e0	-0.012482852
87	0xbc64c82b	-0.013963739
88	0xbd02298f	-0.031777915
89	0x3db8d9cd	0.09025917
90	0x3e1032ba	0.1408185
91	0xba6a47c6	-0.00089370867
92	0x3d7c97cc	0.061668202
93	0x3d166a11	0.036722247
94	0xbc99c79f	-0.018771945
95	0x3c78e4e6	0.015191292
96	0x3c3090f6	0.010776749
97	0xbd48d9bd	-0.049035776
98	0x3d1af8e4	0.037835017
99	0x3c8a7176	0.016899806
100	0x3c8cf541	0.01720679
101	0xbcddcaf3	-0.027074313
102	0xbdcf7747	-0.10130172
103	0xbd4acebb	-0.04951356
104	0x3d5a0a05	0.05323221
105	0xbc7fdd3f	-0.015616714
106	0xbd38df41	-0.045134787
107	0x3c468b6d	0.012118203
108	0x3d8a457e	0.06751536
109	0x3d6a4a94	0.05720003
110	0xbce7e9ec	-0.028309785
111	0x3c933905	0.017971525
112	0xbcdbb106	-0.02681781
113	0x3cc09007	0.023506178
114	0xbbaa6776	-0.005200322
115	0xb84461d6	-4.682116e-05
116	0x3ce99abc	0.028516166
117	0x3cd619b1	0.026135297
118	0x3c3c5855	0.011495669
119	0x3d7d9e3c	0.061918482
120	0x3d52f9bc	0.051507697
121	0x3d8dc7b7	0.06922858
122	0x3d9c4b8f	0.07631599
123	0x3d8cd5b7	0.068767
124	0xbcce245f	-0.025163827
125	0x3dd712bb	0.105016194
126	0xbd1d820f	-0.03845411
127	0x3c4ec685	0.012620573
128	0x3d8b18fa	0.06791873
129	0xbd679187	-0.05653527
130	0x3d108000	0.03527832
131	0x3d8162d5	0.06317679
132	0x3bd0b09a	0.006368709
133	0xbd1a6c98	-0.03770122
134	0xbd716a07	-0.058939006
135	0x3b87ca92	0.0041440213
136	0x3db94758	0.09046811
137	0x3cee4b0f	0.029088525
138	0x3be24d27	0.00690617
139	0x3da7c81b	0.08192464
140	0x3d67c707	0.05658629
141	0xbb0772da	-0.0020667822
142	0xbd879005	-0.066192664
143	0xbcdf6d32	-0.027273748
144	0xbb334110	-0.0027352013
145	0x39ea68a9	0.00044709936
146	0xbbad988c	-0.005297726
147	0xbd43e674	-0.0478272
148	0xbd7ddd8a	-0.061978854
149	0xbd36d521	-0.04463685
150	0xbd5d9a7f	-0.054102417
151	0xbdd52b63	-0.10408666
152	0x3d04f616	0.03246125
153	0xbccab6ae	-0.024745312
154	0xbc5f5bfa	-0.013632769
155	0x3c7c7421	0.015408547
156	0xbdc649e1	-0.0968206
157	0xbc8dde17	-0.017317815
158	0xbd54854b	-0.05188493
159	0xbe267d57	-0.16258751
160	0xbe478d87	-0.19487582
161	0x3d0d8e49	0.03455952
162	0x3da450ac	0.080231994
163	0x3d99cc4f	0.07509672
164	0x3dac2899	0.08406181
165	0x3d8dcb57	0.069235496
166	0x3c1c03e6	0.009522414
167	0x3ce0d41d	0.027444893
168	0x3aec332a	0.0018020619
169	0x3daf2b78	0.08553213
170	0x3c85ce77	0.016333802
171	0x3c96c1d3	0.01840297
172	0x3bab9a55	0.0052369037
173	0xbb80bb71	-0.0039285948
174	0x3d5afc58	0.05346331
175	0x3da4ed48	0.0805307
176	0x3dc5183e	0.096237645
177	0x3da8bdb2	0.082393065
178	0x3d318d67	0.043347742
179	0x3d8b66ce	0.06806718
180	0x3d83f0a2	0.064423814
181	0x3c14dfa8	0.009086527
182	0xbc7a4c79	-0.015277022
183	0xbd56a2ef	-0.05240148
184	0x3d6e8667	0.058233645
185	0xbc844ab4	-0.016148902
186	0x3d0fbcb5	0.035092074
187	0xbd6e367f	-0.05815744
188	0x3cad20b3	0.021133756
189	0xbb99fae4	-0.004699098
190	0xbc93e748	-0.01805462
191	0x3d8849b8	0.06654686
192	0xbd847a34	-0.06468621
193	0xbd5d28c7	-0.053993966
194	0x3ce152f4	0.027505375
195	0xbdd14332	-0.102178946
196	0xbd81d084	-0.06338599
197	0x3bc33b61	0.0059580063
198	0xbcf7e4bc	-0.030260436
199	0xbd877926	-0.06614904
200	0x3d5b1e98	0.053495973
201	0xbda4ee47	-0.0805326
202	0xbd0ecbfc	-0.034862503
203	0x3d3f0ff5	0.046646077
204	0xbd6e09a3	-0.05811466
205	0xbdc677a2	-0.09690787
206	0x3dbddaeb	0.09270271
207	0xbda83b46	-0.082144305
208	0xbd8382a4	-0.06421402
209	0x3d86dfa2	0.06585623
210	0xbc69ecaf	-0.014277621
211	0x3ba2c033	0.0049667596
212	0x3da7e963	0.08198812
213	0xbdb969f1	-0.0905341
214	0xbd7ba1f9	-0.061433766
215	0x3cc4855b	0.02398937
216	0xbd4b0aa8	-0.04957071
217	0xbd3d54b1	-0.046223346
218	0x3e1a3430	0.1505897
219	0xbdcb706f	-0.099335544
220	0xbb4e28f3	-0.0031457513
221	0x3d2c4115	0.042054255
222	0x3d548d10	0.05189234
223	0xbd011ca3	-0.03152145
224	0x3e0c6ee6	0.1371418
225	0xbd3cb881	-0.046074394
226	0xbcf36cbd	-0.029714936
227	0x3d828660	0.06373286
228	0xbcc17a64	-0.02361793
229	0x3c7795c4	0.0151113905
230	0x3d4a5327	0.049395707
231	0x3d225c13	0.03963859
232	0x3d9d0eba	0.076688245
233	0x3c9d5ac6	0.019208323
234	0x3c85edac	0.016348682
235	0xbdafb7db	-0.085799895
236	0xbc7922f0	-0.015206084
237	0x3d85cf4a	0.06533678
238	0x3bec3c27	0.007209319
239	0xbc51fc2a	-0.012816468
240	0x3d796f38	0.060897082
241	0x3db7e2d3	0.0897881
242	0x3c51a5ef	0.012795909
243	0xbd060ad3	-0.032725167
244	0xbc50b416	-0.012738248
245	0x3bf5f85e	0.0075064143
246	0xbd7869bd	-0.060647715
247	0x3d1b0648	0.037847787
248	0x3ce692e3	0.028146213
249	0x3c8fb465	0.017542074
250	0x3d273363	0.04082049
251	0xbcac7a45	-0.021054396
252	0xbdf9e6ee	-0.122022495
253	0xbdf7b072	-0.12094201
254	0xbd86f131	-0.06588972
255	0xbd94b1d6	-0.07260482

Generator.conv2.conv2.0.weight f4 [8, 8, 3, 3, 3]
0	0x3d7910ee	0.06080716
1	0xbd4806d3	-0.048834633
2	0x3c9dc174	0.019257285
3	0x3d76399b	0.06011353
4	0x3db52d1c	0.088464946
5	0x3d70e5e5	0.058812995
6	0x3d261caa	0.04055468
7	0x3d5961c1	0.05307174
8	0x3dd2144c	0.102577776
9	0x3dc84c5a	0.09780188
10	0xbaa5673b	-0.0012619266
11	0x3d892701	0.066968925
12	0x3c9a872d	0.018863285
13	0x3cb0cdbb	0.021582475
14	0xbd1d901b	-0.038467508
15	0x3d8f26b0	0.06989801
16	0xbd1e1149	-0.038590703
17	0x3cd599fa	0.026074398
18	0xbbae06d0	-0.0053108707
19	0xbd6459ca	-0.055749692
20	0xbccdf0f1	-0.025139304
21	0x3d54d225	0.051958222
22	0xbda7992e	-0.081835136
23	0xbda4ef99	-0.08053512
24	0xbdb50f6b	-0.08840831
25	0xbcf50c8d	-0.029913211
26	0xbd2be48e	-0.041966014
27	0x3db0e411	0.0863725
28	0x3d8f9b8a	0.070120886
29	0xbc13b942	-0.009016337
30	0x3d1e08a6	0.038582467
31	0x3d97988a	0.074021414
32	0x3e125890	0.14291596
33	0x3d97c919	0.07411403
34	0x3d4e7a74	0.05040975
35	0x3d9f1e5f	0.07769465
36	0x3d4a148f	0.049336012
37	0x3b90fba0	0.0044245273
38	0xbd31052e	-0.04321783
39	0xbb4ecc74	-0.003155497
40	0x3da58ada	0.080831245
41	0x3cb6707b	0.022270432
42	0xbc270eec	-0.010196429
43	0xbc14b57a	-0.0090764705
44	0x3db2cda1	0.08730627
45	0xbc116972	-0.008875238
46	0x3d6f9ceb	0.058499258
47	0xbcca2e61	-0.024680318
48	0x3d2e4673	0.042547654
49	0x3ced05ad	0.02893337
50	0x3ca2de7c	0.01988148
51	0xbcc413d5	-0.023935238
52	0x3d92221a	0.071354106
53	0x3cf85b99	0.030317115
54	0x3e5598c7	0.20859061
55	0x3dbe2f70	0.09286392
56	0x3cef1962	0.029186908
57	0xbd20c9b9	-0.039254878
58	0xbdc862b2	-0.0978445
59	0xbdb4d22a	-0.08829148
60	0x3d339414	0.04384239
61	0xbc3664f5	-0.0111324685
62	0xbd532002	-0.051544197
63	0xb8519db8	-4.997637e-05
64	0xbdbc5747	-0.09196334
65	0xbcaabc13	-0.020841634
66	0xbdcf18e8	-0.10112172
67	0xbdcb1471	-0.09916008
68	0xbe3e75e5	-0.1859966
69	0x3cc3da70	0.02390787
70	0xbb8f9831	-0.0043821563
71	0xbe16e9a6	-0.14737567
72	0x3b471763	0.003037893
73	0xbd1dd436	-0.03853246
74	0x3dbd0852	0.092301026
75	0xbd60c446	-0.05487468
76	0xbe0fda33	-0.1404808
77	0xbca2b047	-0.019859446
78	0x3da9916a	0.08279689
79	0x3cafdcd9	0.021467613
80	0xbd55644c	-0.052097604
81	0x3da7f320	0.08200669
82	0x3da3cd86	0.07998185
83	0x3e047d5d	0.12938447
84	0xbaf94bf9	-0.0019019834
85	0x3d4de526	0.05026736
86	0x3b4c04cf	0.0031130796
87	0x3d786586	0.060643695
88	0x3c108911	0.008821742
89	0xbb3c0fe2	-0.002869599
90	0x3e17dc20	0.14830065
91	0x3b8645a7	0.0040976587
92	0x3d844e45	0.06460241
93	0xbc0d0b07	-0.008608586
94	0xbdaa9c7d	-0.08330629
95	0xbdc30dc0	-0.09524107
96	0xbc751637	-0.01495891
97	0xbddab0e7	-0.10678273
98	0x3ce9c5b7	0.02853666
99	0xbc41dd33	-0.011832523
100	0xbdadab6e	-0.08479963
101	0x3d1bf099	0.03807125
102	0xbd990b45	-0.074728526
103	0xbd97acd8	-0.07406014
104	0xbd6afdb5	-0.05737086
105	0x3d34677f	0.044044014
106	0xbdbfe49b	-0.09369775
107	0xbcd9b61b	-0.026576092
108	0xbd0b72de	-0.034045093
109	0xbd215dc8	-0.039396077
110	0xbcfffbdb	-0.031248024
111	0x3d80bae6	0.06285648
112	0x3d6743ac	0.05646102
113	0xbbc3e67e	-0.0059784045
114	0x3dfd70a3	0.123749994
115	0x3d8fe07b	0.07025238
116	0x3daa9c33	0.08330574
117	0xbe0360c1	-0.12829877
118	0xbdd6d3d0	-0.10489619
119	0xbc0d31f4	-0.008617867
120	0xbdb72111	-0.08941854
121	0xbda48129	-0.08032448
122	0xbcce662e	-0.025195207
123	0x3d1a0462	0.037601836
124	0xbc5f3561	-0.013623566
125	0x3d4c3d97	0.049863424
126	0xbe2e7dc8	-0.17040169
127	0xbded6df6	-0.11593239
128	0xbd1af47a	-0.037830807
129	0x3dc07a4d	0.09398327
130	0x3d7a2b05	0.061076183
131	0xbd1aa661	-0.037756328
132	0x3da6f51f	0.08152222
133	0xbd033104	-0.032029167
134	0xbddb823f	-0.10718202
135	0x3ca56426	0.020189356
136	0xbe2d14bc	-0.16902441
137	0xbdc9c7eb	-0.098525845
138	0xbda8f80f	-0.082504384
139	0xbe742e90	-0.23845887
140	0xbc6a7b5d	-0.014311639
141	0xbe01378f	-0.1261885
142	0xbe25a57b	-0.16176407
143	0x3e106bdd	0.14103647
144	0x3a252d01	0.00063009566
145	0x3c3302b9	0.010925942
146	0xbd32ed96	-0.04368361
147	0xbbb5db6c	-0.0055498388
148	0xbda347ed	-0.07972703
149	0xbdd75757	-0.10514706
150	0x3dd3e233	0.103458785
151	0xbde84d57	-0.113428764
152	0xbdaa48ed	-0.08314691
153	0x3dde29c2	0.108478084
154	0x3c8fbc7e	0.017545935
155	0x3dc7b19d	0.09750674
156	0x3d840133	0.06445541
157	0xbc431a44	-0.011908118
158	0xbdf8c331	-0.12146605
159	0x3e506430	0.20350718
160	0xbcaa33a4	-0.020776577
161	0x3ce5c173	0.028046345
162	0x3dca46e7	0.09876805
163	0xbb9a3554	-0.0047060642
164	0x3e27e04a	0.16394153
165	0x3a12e1cf	0.0005603106
166	0xbd5fb68a	-0.054617442
167	0xbdb8c781	-0.09022427
168	0x3da48509	0.08033187
169	0xbd95b4b2	-0.073098555
170	0xbc4d6802	-0.012537004
171	0x3daeae35	0.08529321
172	0x3ccaca00	0.024754524
173	0x3e148a7f	0.14505957
174	0x3df765e2	0.120799795
175	0x3c121e0a	0.008918295
176	0x3a32ca97	0.00068203494
177	0xbbd0b67a	-0.006369409
178	0xbc96de6e	-0.01841661
179	0xbdcc1fa9	-0.09966976
180	0xbd3aa0eb	-0.04556362
181	0x3dabd461	0.083901174
182	0xbd12e2f7	-0.03586098
183	0x3c699570	0.01425682
184	0x3d6487c2	0.05579353
185	0xbe0411d6	-0.12897429
186	0x3d55c6c7	0.052191522
187	0xbc658eef	-0.014011129
188	0xbe020e37	-0.12700735
189	0xbd021e18	-0.03176698
190	0xbd8ec4ca	-0.06971128
191	0xbdcd431a	-0.10022564
192	0xbd98236f	-0.074286334
193	0xbda5b608	-0.0809136
194	0xbd9adb34	-0.07561341
195	0xbd170e24	-0.03687872
196	0xbbcb309e	-0.006200864
197	0x3c88808e	0.016662862
198	0xbd3669d7	-0.04453453
199	0x3bfe80f1	0.007766836
200	0xbd2b5bb8	-0.041835517
201	0xbc5f5d17	-0.013633034
202	0xbd5c4f77	-0.05378672
203	0xbbfda2f3	-0.0077403723
204	0x3d6b6a17	0.057474222
205	0x3d4e1f56	0.050322853
206	0x3c4dd976	0.012564054
207	0x3e091548	0.13387024
208	0x3dbc5eee	0.09197794
209	0x3de82ec6	0.11337046
210	0x3d144616	0.03619965
211	0x3dbc9b7b	0.09209343
212	0xbb9951c4	-0.0046789367
213	0x3e208d3c	0.15678877
214	0x3d03ad68	0.032147795
215	0x3bf5dc92	0.0075031007
216	0xbe0b095d	-0.1357779
217	0xbd8bc4be	-0.06824635
218	0x3cb88640	0.022524953
219	0xbd884a74	-0.06654826
220	0xbd6a7e67	-0.057249453
221	0xbdc1ceeb	-0.094632946
222	0xbe0e0f29	-0.1387297
223	0xbb9e89c1	-0.004838199
224	0xbca08ee7	-0.019599391
225	0x3d7bd378	0.06148097
226	0x3d4144eb	0.047184866
227	0x3b802de0	0.0039117187
228	0x3d7e1429	0.062030945
229	0x3d096aca	0.033549108
230	0x3c18c5d0	0.009324506
231	0xbc1a8286	-0.009430533
232	0xbaf473c5	-0.0018650225
233	0x3d3d1175	0.046159226
234	0x3d2fd36c	0.042926237
235	0x3dbcea2e	0.09224354
236	0x3d83ae9f	0.06429791
237	0x3e132bdc	0.143722
238	0x3dc1bd9d	0.09459994
239	0x3d78a130	0.060700595
240	0x3e02e50b	0.12782685
241	0x3c84ca59	0.016209768
242	0x3cd3643f	0.025804637
243	0xbdff6b4a	-0.12471636
244	0xbdc0df27	-0.09417563
245	0x3d6d8f6c	0.057998106
246	0xbdd22be9	-0.102622814
247	0xbd9da6c6	-0.07697825
248	0xbc3197d4	-0.010839421
249	0xbe6bd0f1	-0.23028924
250	0xbdc7b3c3	-0.09751084
251	0xbbc6b8b0	-0.006064497
252	0x3d0acf16	0.0338889
253	0x3d0ddfe1	0.034637336
254	0xbd01d5d3	-0.03169806
255	0x3d0d3cd6	0.034481846

Generator.conv3.conv1.0.weight f4 [8, 8, 3, 3, 3]
0	0x3c216fcc	0.009853315
1	0x3d99ad14	0.07503715
2	0xbc012f41	-0.007884801
3	0xbcc77405	-0.024347315
4	0x3985ab92	0.00025495567
5	0x3d299b88	0.04140809
6	0x3dbc1397	0.09183424
7	0xbc974ca7	-0.018469168
8	0x3ab5d053	0.001387129
9	0xbcdd0ba7	-0.026983095
10	0x3cccab51	0.024984034
11	0xbd6944e4	-0.056950465
12	0x3c933beb	0.017972907
13	0xbcc5a201	-0.024125101
14	0xbd9dc64c	-0.07703838
15	0xbd0f2854	-0.03495057
16	0x3d3bb4c2	0.04582668
17	0xbcdc6ef2	-0.026908372
18	0xbcf39c3b	-0.029737582
19	0x3d916910	0.07100117
20	0xbbc88925	-0.0061198645
21	0x3d405beb	0.04696266
22	0xbd929dc9	-0.071590014
23	0xbb3b031f	-0.0028535796
24	0xbd5e4b69	-0.054271135
25	0x3ca6dd8f	0.02036932
26	0xbd519b4e	-0.0511735
27	0xbd19eb4e	-0.03757792
28	0x3c4cb1ce	0.012493564
29	0x3d0c5f9a	0.03427086
30	0x3b4ccc14	0.003124957
31	0xbc01775b	-0.007901992
32	0xbd93ddaa	-0.072200134
33	0x3d84fb89	0.06493289
34	0xbd76b235	-0.060228545
35	0x3d12c76e	0.035834722
36	0x3bfeb9dd	0.0077736215
37	0x3d6ca1b8	0.057771415
38	0x3e077ea7	0.13231908
39	0xbccfdac6	-0.025372874
40	0xbcc7c926	-0.024387907
41	0xbda0b3a1	-0.078467615
42	0xbb64920e	-0.0034877094
43	0xbdd4ccf9	-0.10390658
44	0x3caeb955	0.021328608
45	0x3b7dafed	0.0038709596
46	0x3d757a86	0.0599313
47	0xbd0e4ae8	-0.034739405
48	0x3cf61373	0.030038571
49	0xbd110411	-0.03540427
50	0xbd68f2ec	-0.056872293
51	0xbcb10236	-0.0216075
52	0xbd8d9dd7	-0.06914871
53	0x3c4d96c2	0.0125481505
54	0xbd19a30c	-0.03750901
55	0xba10990d	-0.00055159704
56	0xbce5d3b6	-0.028055053
57	0xbd33a1a4	-0.043855324
58	0xbd097f3a	-0.0335686
59	0x3cf5632c	0.029954515
60	0xbc350694	-0.011048932
61	0xbcb55ff9	-0.02214049
62	0xbc130d6e	-0.00897537
63	0x3d156774	0.036475614
64	0x3d19c7b1	0.037543956
65	0x3d85cf65	0.06533698
66	0xbd042724	-0.03226389
67	0x3dc2bc29	0.09508545
68	0x3d9c1237	0.07620662
69	0xbd080765	-0.033210177
70	0x3c2d0b76	0.0105618145
71	0xbcc1e12c	-0.02366694
72	0x3cc31c63	0.023817247
73	0xbd886bfc	-0.066612214
74	0x3d12e757	0.035865154
75	0xbceead4e	-0.029135372
76	0x3d46f821	0.048576478
77	0xbc50d86d	-0.012746912
78	0x3d3541c4	0.044252172
79	0xbd4bfe77	-0.049803223
80	0xbd2a30ce	-0.04155045
81	0x3cf6239d	0.030046279
82	0x3b27e0d5	0.0025616188
83	0x3c9fec15	0.019521752
84	0xbc1833e0	-0.009289712
85	0x3c758511	0.014985339
86	0xbd1f6598	-0.038915247
87	0x3da49596	0.08036344
88	0xbc97fb70	-0.018552512
89	0x3d7c2212	0.06155593
90	0xbbdec140	-0.0067979395
91	0x3d41ac51	0.047283474
92	0x3d22fe52	0.03979332
93	0xbd3047d0	-0.043037236
94	0x3d822657	0.06354969
95	0xbd161c6b	-0.036648195
96	0xbd9af9fa	-0.075672105
97	0xbd13a2f7	-0.036044087
98	0xbc3bc68a	-0.01146091
99	0xbd3f3cb6	-0.046688758
100	0x3d63a23d	0.055574644
101	0xbc849673	-0.016185021
102	0x3d657e05	0.056028385
103	0x3dd4af67	0.10385018
104	0x3d3e9c55	0.04653581
105	0xbc0febeb	-0.008784275
106	0xbd14e1f2	-0.03634829
107	0xbdca209d	-0.09869502
108	0x3d4bf340	0.04979253
109	0xbcab9351	-0.02094427
110	0x3c0dd760	0.008657306
111	0x3d87d87c	0.06633088
112	0xbd07ac0d	-0.033123065
113	0x3ce0b549	0.027430193
114	0x3d89bbec	0.067252964
115	0x3d2dc0cc	0.042420194
116	0xbd8ecf3d	-0.06973121
117	0x3d07c292	0.03314454
118	0x3d67ee64	0.05662383
119	0x3d60f863	0.05492438
120	0xbbdebdc2	-0.0067975232
121	0x3d3a3991	0.045465056
122	0x3d90fe7b	0.07079788
123	0x3cc9a9a7	0.02461703
124	0x3d923d9d	0.07140658
125	0xbd952c4b	-0.07283839
126	0xbcb613a6	-0.022226166
127	0xbc621db9	-0.013801032
128	0x3d053376	0.03251978
129	0xbd9527ed	-0.07283006
130	0xbd556ca8	-0.052105576
131	0xbcc4c437	-0.024019344
132	0x3d3d61bd	0.04623579
133	0xbd62b7c9	-0.055351052
134	0xbd19bf61	-0.03753603
135	0xbd4a3dab	-0.049375217
136	0x3d68bdc9	0.05682162
137	0x3cb1deb5	0.02171264
138	0x3ca59d4f	0.020216612
139	0x3d6e5f66	0.058196448
140	0xbd886a5e	-0.06660913
141	0x3c51fbc2	0.012816371
142	0xbbb2420e	-0.0054400032
143	0x3ce99428	0.02851303
144	0x3c937697	0.018000884
145	0x3db11ecf	0.086484544
146	0x3cb35fa7	0.021896197
147	0xbcd1104b	-0.025520464
148	0x3d36b571	0.04460663
149	0x3bfe35de	0.0077578863
150	0xbd35310f	-0.04423624
151	0xbdad69fb	-0.0846748
152	0x3cb65c91	0.022260936
153	0xbd8fcf17	-0.07021921
154	0x3d86f18f	0.065890424
155	0xbd845bcd	-0.06462822
156	0x3c342f50	0.010997608
157	0x3d80f6e3	0.0629709
158	0x3d7f7005	0.06236269
159	0x3d21f442	0.039539583
160	0xbda1723f	-0.07883119
161	0xbd1633d5	-0.036670525
162	0xbd346a83	-0.04404689
163	0x3d314b61	0.043284778
164	0x3d62189f	0.05519926
165	0xbbdba70b	-0.0067032627
166	0xbd36aaf5	-0.04459663
167	0xbd11ab5c	-0.03556381
168	0x3e080c87	0.13286029
169	0x3cf8bad5	0.030362526
170	0x3c86a46a	0.01643582
171	0x3d3559be	0.044275038
172	0xbd67865c	-0.05652462
173	0x3d97b4b7	0.074075155
174	0x3d862749	0.06550462
175	0xbda58092	-0.080811635
176	0x3d54a0a8	0.051911026
177	0x3d439aae	0.047754936
178	0x3d0826c4	0.033240095
179	0x3d3b3b91	0.045711104
180	0x3ce7edc4	0.028311618
181	0xbd14a16a	-0.03628675
182	0xbdb889a3	-0.09010627
183	0xbabf970b	-0.0014617158
184	0x3c9029a6	0.017597985
185	0xbd358b4a	-0.04432229
186	0xbd4e15f3	-0.0503139
187	0x3da61cc6	0.08110957
188	0x3cd84dc2	0.026404265
189	0x3ca295e9	0.019846873
190	0x3b4d6df6	0.003134606
191	0x3ba08a1d	0.004899277
192	0x3b477900	0.0030437112
193	0x3d3f02ae	0.046633415
194	0xbc228e83	-0.009921673
195	0xbda93ff3	-0.082641505
196	0x3c42f78c	0.01189984
197	0x3c806670	0.015673846
198	0xbb844124	-0.0040360857
199	0xbbe60fc8	-0.0070209242
200	0xbc937961	-0.018002214
201	0x3ce66aeb	0.028127154
202	0x3e1d0073	0.15332203
203	0x3d4d60e2	0.050141223
204	0xbca77ae6	-0.020444345
205	0xbce5561d	-0.027995164
206	0x3d9e5567	0.07731133
207	0xbd06e6c6	-0.032934926
208	0xbdadfe9f	-0.08495831
209	0xbbf565b1	-0.007488929
210	0x3d76b4fa	0.060231186
211	0x3dfd98c8	0.12382656
212	0xbd97d8af	-0.07414376
213	0xbd09672b	-0.033545654
214	0xbcfad040	-0.03061688
215	0xbd33ccbe	-0.04389643
216	0x3cb8a9f6	0.022541981
217	0xbcdb2ae4	-0.02675385
218	0xbce3d4e7	-0.02781148
219	0x3d1567cd	0.036475945
220	0x3c8f1f70	0.017471045
221	0x3d6c9a09	0.057764087
222	0x3c88a4d7	0.016680164
223	0x3d05b23a	0.032640673
224	0x3a0ce77d	0.00053750706
225	0x3dad7297	0.08469122
226	0xbda1fd44	-0.07909635
227	0xbc864c38	-0.016393766
228	0x3d48e423	0.049045693
229	0x3d386fc8	0.045028478
230	0xbd8b43e1	-0.06800056
231	0xbd27c27f	-0.04095697
232	0x3d3f7cb4	0.046749786
233	0xbe1512db	-0.14557974
234	0x3cca876e	0.024722781
235	0x3cb3c3a7	0.02194388
236	0x3c4616d5	0.0120904045
237	0x3d568749	0.05237511
238	0x3cd40758	0.025882408
239	0xbd45ff3b	-0.04833911
240	0xbd31ea32	-0.043436237
241	0xbd303f69	-0.043029223
242	0x3bca49e1	0.006173358
243	0x3ccb6046	0.02482618
244	0xbd8170d2	-0.06320347
245	0xbdaf05f7	-0.085460596
246	0x3d0441e8	0.032289416
247	0x3dcc7395	0.09982983
248	0xbd85188d	-0.06498823
249	0x3d897cdd	0.06713269
250	0x3d0346fa	0.03205011
251	0x3c08fae6	0.0083606
252	0x3dbc5177	0.09195226
253	0x3d13a53d	0.036046255
254	0xbc073e3c	-0.008254584
255	0x3dfa4e70	0.12221992

Generator.conv3.conv2.0.weight f4 [8, 8, 3, 3, 3]
0	0x3d01f09f	0.031723615
1	0x3cdfa8a9	0.027302103
2	0x3cbb4cf6	0.022863846
3	0xbd95fa7f	-0.07323169
4	0x3cff22a6	0.031144451
5	0xbc20f7c1	-0.009824694
6	0xbdba98e7	-0.09111195
7	0xbc1f40f7	-0.009720079
8	0xbd581a91	-0.05275971
9	0x3d28d4a4	0.041218415
10	0xbcfa30e1	-0.030540885
11	0x3d6cbbf2	0.057796426
12	0x3c375a83	0.011191013
13	0x3d336910	0.043801367
14	0xbb173227	-0.0023070665
15	0xbd3fe70e	-0.04685121
16	0x3d13b520	0.036061406
17	0xbd092619	-0.0334836
18	0x3cb37748	0.021907464
19	0xbc495443	-0.012288156
20	0xbcc45a25	-0.023968766
21	0x3d135c45	0.035976667
22	0x3d6a326a	0.057176985
23	0x3dbc9280	0.0920763
24	0xbc3d5f26	-0.01155833
25	0x3dba21fe	0.09088515
26	0x3d34d851	0.044151608
27	0x3de5d059	0.1122138
28	0xbe052533	-0.13002472
29	0xbde96f6c	-0.11398205
30	0x3e084cd5	0.13310559
31	0xbd3cdbbd	-0.046107996
32	0xbda7ce0d	-0.08193598
33	0x3d324845	0.043525953
34	0x3d3feeed	0.046858717
35	0x3cf3141e	0.029672679
36	0x3dc42038	0.09576458
37	0xbd9aa81a	-0.07551594
38	0xbd9f706c	-0.07785115
39	0xbd9bc90a	-0.076067045
40	0xbd1298bd	-0.035790194
41	0xbcb6b51e	-0.02230316
42	0xbd569e6c	-0.052397177
43	0xbde2f64d	-0.110821344
44	0xbdc6a21e	-0.0969889
45	0x3dc4a159	0.09601087
46	0xba95bad3	-0.0011423476
47	0xbdfc7db7	-0.12328666
48	0xbd9362fc	-0.07196614
49	0xbc683551	-0.014172868
50	0xbdd18dc3	-0.10232117
51	0xbd18f9cf	-0.03734761
52	0xbd56b5c2	-0.05241943
53	0xbd3104eb	-0.04321758
54	0xbd19ce84	-0.037550464
55	0x3d010348	0.03149727
56	0xbe2a34fd	-0.16621776
57	0x3c215286	0.009846335
58	0xbc15ae1c	-0.009135749
59	0x3c993cf1	0.018705817
60	0x3c7f53d9	0.015583956
61	0x3d2390df	0.03993308
62	0x3ddd2939	0.10798878
63	0x3d986f58	0.07443112
64	0xbc9c38ab	-0.01906999
65	0x3c1e1f68	0.0096510425
66	0x3db06ab2	0.086141005
67	0x3dca412b	0.09875711
68	0xbc893a64	-0.016751476
69	0xbcd65922	-0.026165549
70	0x3e16e497	0.14735638
71	0x3c0ed98a	0.008718858
72	0x3d486bf9	0.048931096
73	0x3e18595e	0.14877841
74	0x3d79e50c	0.06100945
75	0x3d9dc467	0.077034764
76	0x3e2feaad	0.17179365
77	0x3d6e2f87	0.058150794
78	0xbd488570	-0.04895538
79	0x3b5085b1	0.0031817968
80	0x3dc8f184	0.098116904
81	0xbccde8fa	-0.025135506
82	0x3dc4b143	0.096041225
83	0x3c4e4f8d	0.012592209
84	0xbd5d8994	-0.054086283
85	0xbd245857	-0.04012331
86	0x3d59719c	0.053086862
87	0xbb92814e	-0.0044709807
88	0xbdc2e13d	-0.09515617
89	0xbc6ea716	-0.014566204
90	0xbd5e77e8	-0.05431357
91	0xbc427c68	-0.011870481
92	0x3c3ac86e	0.011400325
93	0xbdbf4b7f	-0.093405716
94	0xbe604fd1	-0.21905448
95	0x3ce2fcc6	0.027708422
96	0xbb95a3eb	-0.0045666597
97	0xbe2a80dd	-0.1665072
98	0xbd2346b5	-0.039862353
99	0xbdbab674	-0.091168314
100	0xbdccf6bc	-0.10007998
101	0x3c35f874	0.011106599
102	0xbb5efcab	-0.0034025114
103	0xbe3e8be4	-0.18608052
104	0xbd035117	-0.032059755
105	0x3d560bb4	0.052257255
106	0xbd133bf4	-0.035945848
107	0xbd3cf678	-0.04613349
108	0xbe79dfea	-0.24401823
109	0xbdebe193	-0.11517634
110	0xbded747b	-0.115944825
111	0xbd9b15c0	-0.07572508
112	0xbdcfabba	-0.10140176
113	0xbe0c33c7	-0.13691626
114	0xbe6e8bde	-0.23295543
115	0xbdc57f66	-0.0964344
116	0xbd8b4e51	-0.06802047
117	0xbc16c079	-0.0092011625
118	0xbc750813	-0.014955538
119	0x3d8007cf	0.06251489
120	0x3d7f3632	0.062307544
121	0x3ca7929e	0.020455655
122	0xbb82b244	-0.003988536
123	0xbdc852a1	-0.09781385
124	0xbc1866f2	-0.009301888
125	0x3ca391fa	0.019967068
126	0xbe9e7a83	-0.30952844
127	0xbe307577	-0.1723231
128	0xbddf5fe0	-0.109069586
129	0xbd8c01ed	-0.06836305
130	0xbd9ec8d9	-0.077531524
131	0xbdabc8de	-0.08387922
132	0xbdb1e1f3	-0.086856745
133	0xbd36a43d	-0.044590224
134	0x3d853d75	0.065058626
135	0x3db20c84	0.086937934
136	0xbc942997	-0.018086238
137	0xbe8476a1	-0.25871757
138	0xbdc87027	-0.09787016
139	0xbd4af5d0	-0.04955083
140	0xbd17b3ef	-0.037036832
141	0x3e118913	0.14212446
142	0xbd766ed0	-0.060164273
143	0x3dce46d3	0.100721024
144	0xbd939082	-0.07205297
145	0xbdd8f5e3	-0.10593774
146	0xbcb324db	-0.02186816
147	0x3ca5deb8	0.020247802
148	0x3cea3bf6	0.028593045
149	0x3d919674	0.07108775
150	0x3deaf2c7	0.11472087
151	0xbd0d5fb0	-0.034515083
152	0x3dc142e1	0.09436584
153	0x3d3c6182	0.04599143
154	0x3defac09	0.11702735
155	0xbd11015d	-0.03540169
156	0x3dca228c	0.098698705
157	0x3cc53d00	0.024076939
158	0x3d535189	0.05159143
159	0x3e0fade8	0.14031184
160	0x3a987a7e	0.0011633185
161	0x3c395001	0.011310578
162	0x3dc01428	0.093788445
163	0x3de52622	0.11188914
164	0x3db7ef4b	0.089811884
165	0xbc167021	-0.009182007
166	0xbc79578c	-0.015218627
167	0x3d62f252	0.055406876
168	0xbd877b11	-0.0661527
169	0xbe31d585	-0.17366607
170	0x3d7c0de8	0.0615367
171	0xbd0595ef	-0.03261369
172	0x3cf2b949	0.029629366
173	0x3d902e9b	0.07040139
174	0xbdd5aa0b	-0.10432824
175	0xbda64344	-0.08118299
176	0x3d9cec1e	0.07662223
177	0xbdcc680a	-0.099807814
178	0x3a5ee565	0.00085028104
179	0x3d9a5aa8	0.075368226
180	0xbe09e90b	-0.13467805
181	0xbc87dbdd	-0.016584331
182	0x3e2d7fba	0.16943255
183	0xbdfd6850	-0.12373412
184	0xbd099c7b	-0.033596497
185	0x3e496ba2	0.19669965
186	0xbd9e4d45	-0.07729582
187	0x3d86553c	0.06559226
188	0x3dba8e79	0.09109206
189	0xbd1a0b9d	-0.03760873
190	0xbcfbc979	-0.030735718
191	0x3d96491d	0.07338164
192	0xbd47b1d7	-0.048753586
193	0xbd02100f	-0.031753596
194	0x3d8a7465	0.06760482
195	0xbd133161	-0.035935763
196	0x3bb313a7	0.005464989
197	0x3e052032	0.13000563
198	0x3e15e954	0.14639789
199	0x3d4257a9	0.04744688
200	0x3db25106	0.0870686
201	0x3d1f261f	0.038854714
202	0x3cb75027	0.022377087
203	0x3cabaa54	0.020955242
204	0xbd508dcd	-0.05091648
205	0x3db57641	0.08860446
206	0x3af4a1fb	0.0018663997
207	0x3def70ec	0.1169146
208	0xbce33483	-0.027735
209	0xbc630faa	-0.013858715
210	0x3df5dd23	0.12005069
211	0x3c8ded0c	0.017324947
212	0x3cfbcb86	0.030736696
213	0x3d8c9649	0.06864602
214	0x3e050b00	0.12992477
215	0xbc35c751	-0.011094884
216	0x3d52aec3	0.051436197
217	0x3c7245f2	0.014787184
218	0xbd934ea8	-0.07192737
219	0xbc681946	-0.014166182
220	0xbd8c80db	-0.06860515
221	0xbdb479ba	-0.0881228
222	0x3c61bdfb	0.013778205
223	0x3cc1b901	0.023647787
224	0xb9485af4	-0.00019107369
225	0x3ccd95a6	0.025095772
226	0xbcfba53c	-0.030718438
227	0xbd8c428b	-0.068486296
228	0xbc9db3db	-0.0192508
229	0x3d948095	0.072510876
230	0xbd89af77	-0.067229204
231	0x3d5456be	0.051840536
232	0x3cd67654	0.02617947
233	0xbba68725	-0.0050820285
234	0x3c95ec22	0.018301073
235	0x3de4a06d	0.11163411
236	0x3d8a8630	0.067638755
237	0x3d5c5d6c	0.05380003
238	0x3d92c1af	0.071658485
239	0x3d4f467c	0.05060433
240	0x3cdfb0dc	0.027306013
241	0xbd2b8de2	-0.041883357
242	0x3c320c9a	0.010867262
243	0x3ccb01b2	0.024781082
244	0x3d780fe1	0.06056202
245	0xbe0768d1	-0.13223578
246	0x3dd7ce68	0.10537416
247	0x3dec3e1a	0.115352824
248	0x3d2fff8c	0.042968318
249	0x3e184e2f	0.14873575
250	0x3bcf7a46	0.006331715
251	0x3dbd4263	0.09241178
252	0xbc089dbe	-0.00833839
253	0x3dcb785e	0.099350676
254	0xbd9fc5ef	-0.07801425
255	0x3d9d100d	0.07669077

Generator.conv4.conv1.0.weight f4 [8, 8, 3, 3, 3]
0	0xbd03e526	-0.032200955
1	0xba49c7c1	-0.0007697307
2	0xbd7b824e	-0.061403565
3	0x3b972e39	0.0046136645
4	0x3ce1cb6a	0.027562816
5	0xbafa885d	-0.0019114126
6	0x3b1a7884	0.0023570368
7	0x3c959416	0.01825909
8	0xbce2c4cd	-0.027681733
9	0xbd34881b	-0.044075113
10	0xbc444f54	-0.011981804
11	0xbdc2650f	-0.09491932
12	0xbd940bae	-0.0722879
13	0xbc46a786	-0.012124902
14	0xbcb6c51f	-0.022310792
15	0x3dc1ed39	0.09469075
16	0x3c74f04f	0.014949872
17	0x3d265134	0.040604785
18	0x3d13418f	0.035951193
19	0x3d1c5ccf	0.038174447
20	0x3d80e587	0.06293779
21	0x3cfc875b	0.030826261
22	0xbdd23b25	-0.10265187
23	0x3c4bf2c9	0.012448021
24	0xbd526519	-0.051365945
25	0xbd0376a3	-0.032095563
26	0x3c9fd9f0	0.0195131
27	0xbcf0abcf	-0.0293788
28	0x3ca18f6c	0.01972171
29	0x3d8eb06f	0.06967246
30	0xbc280881	-0.010255934
31	0x3d79167b	0.060812455
32	0x3d84775d	0.06468079
33	0xbda1b8bd	-0.07896564
34	0x3d97c11b	0.07409879
35	0xbd2d32f8	-0.042284936
36	0x3c9da8eb	0.019245585
37	0xbcebcac3	-0.028783208
38	0xbd29b258	-0.041429847
39	0x3a886646	0.0010406456
40	0xbd0e7fe0	-0.03478992
41	0xbd87e1bd	-0.06634853
42	0xbc6741fb	-0.014114852
43	0x3d16d450	0.03682357
44	0x3d21b4f4	0.03947921
45	0x3d7269a2	0.05918277
46	0xbd03790b	-0.032097857
47	0xbc585563	-0.0132039515
48	0x3d4bedce	0.049787335
49	0xbcda6c37	-0.026662929
50	0x3cbe5524	0.023233958
51	0x3d860b88	0.06545168
52	0x3d4f1def	0.050565656
53	0x3ccbf1a0	0.02489549
54	0xbda429b1	-0.080157645
55	0xbdbb58d9	-0.09147806
56	0xbdeba125	-0.11505345
57	0xbcafa016	-0.02143864
58	0x3ce0e26a	0.027451713
59	0xbd6df5e8	-0.058095843
60	0x3d65ec09	0.056133304
61	0x3d03835d	0.0321077
62	0xbc702d74	-0.014659274
63	0x3c037e96	0.008025786
64	0xbe192694	-0.14956123
65	0xbd9123d0	-0.07086909
66	0x3ca6ed4d	0.020376826
67	0xbd954d60	-0.07290149
68	0xbc898c1c	-0.016790442
69	0x3c240f8c	0.010013472
70	0x3d7c67c3	0.061622392
71	0xbd3b997d	-0.045800675
72	0x3d79c8f1	0.06098265
73	0xbcafbc2c	-0.021452032
74	0xbb5185c1	-0.0031970593
75	0x3c15fd53	0.0091546355
76	0xbde989dd	-0.114032485
77	0x3d7031a6	0.0586411
78	0x3c1ea53a	0.009682948
79	0xbd3a44ed	-0.04547589
80	0x3ba972be	0.005171149
81	0x3c8c5e7d	0.0171349
82	0xbca0430f	-0.019563226
83	0xbd40ea15	-0.047098238
84	0x3ba518df	0.0050383653
85	0xbc7a4f46	-0.015277689
86	0xbd73b775	-0.05950113
87	0x3d43ff45	0.047850866
88	0x3cf8e8f9	0.030384528
89	0x3d9470b4	0.07248059
90	0x3c29ff66	0.010375833
91	0xbd71e908	-0.059060127
92	0xbd397e8b	-0.045286696
93	0x3cbc2249	0.022965567
94	0xbd87c2d5	-0.06628958
95	0xbc87e746	-0.016589772
96	0x3dc37d45	0.09545378
97	0x3dc0a3a6	0.094062135
98	0x3d51d513	0.051228594
99	0xbd4836a4	-0.048880234
100	0xbd9ea189	-0.07745654
101	0xbd89e676	-0.0673341
102	0xbcac1d18	-0.021009967
103	0x3cbbc333	0.022920227
104	0xbdbc6679	-0.091992326
105	0x3d94769e	0.07249187
106	0x3b05a9a0	0.0020395294
107	0x3b489267	0.003060484
108	0xbdba5c31	-0.09099615
109	0xbd96ea1a	-0.0736887
110	0x3c55ac1b	0.013041521
111	0xbccb62e9	-0.024827437
112	0x3cdb9259	0.026803182
113	0x3cec22f8	0.028825268
114	0xbc84955f	-0.016184507
115	0x3d6f78f0	0.058464944
116	0x3ce8737a	0.028375376
117	0xbc88f370	-0.016717643
118	0xbcc5224f	-0.024064211
119	0x3d96d3be	0.07364605
120	0xbd23d88e	-0.040001445
121	0xbb980878	-0.0046396814
122	0x3b72a9d1	0.0037027488
123	0x3c8de66e	0.017321791
124	0x3cb23ed0	0.021758467
125	0xbca08945	-0.019596705
126	0x3d9f4a60	0.07777858
127	0x3b31edc8	0.0027149785
128	0x3d7cccea	0.06171886
129	0xbb1bbd5f	-0.0023763997
130	0x3c16731d	0.009182719
131	0x3c87b630	0.016566366
132	0x3ca3f43d	0.020013923
133	0x3cd659fc	0.026165955
134	0x3d98b626	0.07456617
135	0xbd19da29	-0.03756157
136	0x3d4ee46b	0.050510805
137	0xbda9dcd3	-0.08294072
138	0x3c75f839	0.015012794
139	0x3dc71765	0.09721259
140	0x3b155946	0.0022788807
141	0x3d5d5c0e	0.05404287
142	0x3d752e35	0.05985852
143	0xbd85fe1e	-0.0654261
144	0x3cc93b24	0.024564333
145	0x3c91bae7	0.017789317
146	0xbbfd1f13	-0.0077246516
147	0x3bc51920	0.006014958
148	0xbd48f4b1	-0.04906148
149	0xba9a8ff1	-0.0011792165
150	0x3d39bcc9	0.045346055
151	0x3cc10251	0.023560675
152	0xbcfaf6f4	-0.030635335
153	0x3d465df7	0.048429456
154	0x3c820425	0.015871117
155	0xbce3267b	-0.02772831
156	0x3cc54492	0.024080548
157	0xbcf8f3b2	-0.03038964
158	0xbbaf1e6f	-0.005344204
159	0x3bb23c68	0.00543933
160	0xbd5694df	-0.05238807
161	0x3c8140d0	0.015777975
162	0xbda04520	-0.078256845
163	0xbccf69f3	-0.025319075
164	0xbd9bac66	-0.07601242
165	0xbbe76aab	-0.0070622764
166	0x3ddd18e5	0.10795764
167	0x3da5bfb3	0.08093204
168	0xbc0eb911	-0.008711115
169	0x3d351634	0.044210628
170	0x3d374c67	0.044750597
171	0xbd6da8ae	-0.058022194
172	0xbd0de669	-0.034643564
173	0x3c5ff642	0.013669552
174	0x3bd2f080	0.0064373612
175	0xbdd9a4f2	-0.10627164
176	0xbc817ceb	-0.015806636
177	0x3d8b42d0	0.06799853
178	0x3d422bdc	0.04740511
179	0xbc31c459	-0.010850036
180	0x3d91c9c3	0.07118561
181	0x3d9a6210	0.07538235
182	0x3c4eee6c	0.012630086
183	0xbdb6bf23	-0.08923175
184	0xbcceba9a	-0.025235463
185	0xbcc034b9	-0.02346264
186	0xbd7611db	-0.060075622
187	0xbd0233e7	-0.03178778
188	0x3c636ce6	0.013880944
189	0xbd47147f	-0.04860353
190	0xbd5f8da0	-0.054578424
191	0xbd940abd	-0.07228611
192	0xbce143f6	-0.027498227
193	0x3cf80cd3	0.030279553
194	0xbcdb39ee	-0.026761021
195	0xb918e67b	-0.0001458171
196	0x3a11c041	0.0005559959
197	0x3d191b29	0.037379418
198	0x3d3fb1c9	0.04680041
199	0xbdb01fcb	-0.08599814
200	0x3c18487c	0.009294625
201	0x3c89436f	0.016755788
202	0xbdaeb7a9	-0.08531124
203	0xbd840477	-0.06446164
204	0x3d58e098	0.052948564
205	0x3da35897	0.079758815
206	0xbd2bdc47	-0.04195812
207	0x3cc8e9ac	0.024525486
208	0x3d4dcd53	0.05024464
209	0xbd06adc0	-0.032880545
210	0x3c55d072	0.0130501855
211	0xbd83a67f	-0.06428241
212	0xbda368f2	-0.07979001
213	0x3d0bca72	0.034128614
214	0x3c620ecb	0.013797472
215	0x3cd0c245	0.02548326
216	0xbc368dea	-0.011142233
217	0x3dae8779	0.08521933
218	0x3d5e6483	0.054295074
219	0x3c84a05c	0.016189747
220	0x3dc3a4fa	0.09552951
221	0x3d499031	0.049209777
222	0xbd38ba69	-0.04509965
223	0x3cfd09a7	0.030888392
224	0x3d54a448	0.051914483
225	0x3d99bb8c	0.07506475
226	0x3d70b17f	0.058763023
227	0x3a4e202d	0.0007863071
228	0xbcf20099	-0.0295413
229	0x3d1d87c5	0.038459558
230	0x3cefff33	0.029296493
231	0x3c9778d1	0.018490227
232	0x3cce7310	0.02520135
233	0x3bd9e54c	0.006649649
234	0xbcb15a21	-0.021649422
235	0xbd989cf8	-0.074518144
236	0xbd05d5a5	-0.03267445
237	0x3d301520	0.042988896
238	0xbd7914e0	-0.060810924
239	0xbdcb94e9	-0.09940512
240	0x3d84e49f	0.064889185
241	0x3cb06f37	0.021537406
242	0xbd8a6ebb	-0.067594014
243	0xbd228464	-0.03967704
244	0x3d5a56fc	0.05330561
245	0x3d207da8	0.039182335
246	0xbda82c9c	-0.082116336
247	0x3db1d1b0	0.08682573
248	0x3d860758	0.065443695
249	0xbb862afe	-0.0040944805
250	0xbdb0ddf6	-0.08636086
251	0xbc80d220	-0.015725195
252	0x3c4748bd	0.012163338
253	0x3d2aac0f	0.041667994
254	0x3d30fdd9	0.043210838
255	0xbcaa5422	-0.02079207
