DeepWonder3D_pytorch/pth/SEG_pth/Unet4_no_end_UNet3DFFD_20240401-1432_2um/seg_298.pth (torch, 138281 bytes, 19 tensors)

Generator.conv1.conv1.0.weight f4 [8, 1, 3, 3, 3]
00000000: 1072 f43d f724 cd3d 31e9 6bbd 6548 123e
00000010: c526 f8bd 8cce 01be 51c7 32bb 677c 7abb
00000020: 68f2 bc3d 62b2 4e3d 18bd 1ebe 96a1 b33d
00000030: 891b 0a3e 1c61 e03d 4ccc 033d 2785 3dbe
00000040: 1d9a b43d c506 56be fc0f d7bd c95e ecbd
00000050: ccec 7dbd 2652 f43c 66fb 5ebd 19f6 623d
00000060: efa7 57be 86dc 343d e1a3 363e ba9d 263e
00000070: fe43 273e 7d71 ab3c 497f aa3d 7d2a 08be
00000080: 034d 3bbe 7b8c 003e 985e 593c 2257 b7bd
00000090: f96e e3bd 0323 263e 87ac 25bd 7157 06be
000000a0: da08 9cbd 7083 0c3c 6146 50be 8256 5ebe
000000b0: ea1e b6bc 422f 033e e06b 2d3d 10dd 5a3e
000000c0: 721c 323e b66e abbd 9d37 273e 8ad8 b03d
000000d0: 631d 05be a15d a4bd 7a67 803d fdfb 2dbd
000000e0: b3c6 f9bd 3c17 df3c 220a cd3d 31ee e9bb
000000f0: 9df6 1fbe 1731 debd 4183 61bd 8072 043d
00000100: 0ef2 b93d ceae 3c3c 5aab 3dbd 9a1c 153d
00000110: 15e0 8d3d 4fc0 923d f80b 7a3c 51f6 a03c
00000120: 1f27 1cbe 5534 4a3d 4e60 583d cb82 b93b
00000130: 1623 74bd 5b45 cf3d a8ac e3be 4fe4 b2bb
00000140: c07b 89be 5aee babd bbb7 19be c718 1f3e
00000150: 5cdf 4abe 76f9 96bd 66f1 b9bc f5a4 a43d
00000160: fede eabd 226a 603d ee29 54be b14d 76bd
00000170: 34ef d03c 0499 d03d 8795 4bbe 3362 28be
00000180: 9d38 16bd 9ca4 ff3d 470c b23d 64e8 60bd
00000190: 626a 7e3d 6bc8 b73d 0928 84bd 97e8 6c3d
000001a0: 4862 9f3d 67b8 7c3c bb70 27be 21da 63be
000001b0: b6db 363e 6930 2abe 7d9c 2cbd 53b1 08be
000001c0: e1f7 21bd 36cb 7a3c 14e4 28bd de9c 6f3d
000001d0: 7a8b 443d 27ab 1c3a 10a2 a53d db18 42be
000001e0: 376d 66bd 83c2 34bd 664c e43a 9f8d e43d
000001f0: 8909 8d3c e92b 053e 8b8a 3fbe 6323 883d
00000200: 6646 d93d 9ed8 c03d de21 0d3d 719a d1bd
00000210: 0588 23be 2a55 aabd 5c88 dc3d fd91 0d3d
00000220: 9440 e8bd 7495 f03d 52f3 db3d d232 93bd
00000230: 635f 03be 2b9d 3cbe b607 3e3e 5845 e43c
00000240: 72be bdbd 5b84 48be 8eb5 613d 5643 b83d
00000250: 1d9d 31be 917f 5abe 8b44 9ebd c828 a03d
00000260: 076b 1f3e bd57 14bd bc52 27bd 00ca f03d
00000270: ba97 c33c 3ad4 2f3e f818 a0bd f6d8 6f3b
00000280: 9d72 04bd ccde 563e f372 65be 1206 213e
00000290: bf09 a4bd ff48 ac3d a53c b93b 8cc7 26bd
000002a0: 9c36 e73c e35d a5bc 96b2 863d b7cf 5a3d
000002b0: ec4a 8dbd a7ef 6a3e 9863 53be dd8b a2bd
000002c0: a0de 073d 2b9d 7dbd 9dd7 f23d afb4 503d
000002d0: f8e9 9bbd 8676 57bd 0a69 dc3d 2eb4 15be
000002e0: 7cf0 5d3d 0809 e13d acc4 09be ca3c dfbb
000002f0: c3cf 263e ce19 60bd 2b06 023e 7aec a43b
00000300: fcd9 0c3d b3b3 e13d 9c59 5dbe 7687 9cbd
00000310: 2664 073c 1748 f43d 493d 1cbd e619 94bd
00000320: 400a 62bd d478 56be 1719 183e 57c4 bfbd
00000330: 4bbc bdbd bea4 3a3e 7ffb e43c 92d5 cabd
00000340: 8e44 e0bc 3fe3 92bc f495 7cbe 2ea0 d73d
00000350: 5819 dbbd d0de 5cbe 9fac 92bd 4f3e da3d
0.11935818 0.10016816 -0.057595436 0.14285429 -0.1211677 -0.12676448 -0.0027279446 -0.0038221122
0.09225923 0.050463088 -0.15501821 0.087710544 0.13487066 0.10956022 0.032177255 -0.18507825
0.08818457 -0.2090102 -0.10501096 -0.11541516 -0.061993405 0.029824328 -0.05443897 0.05541048
-0.21060155 0.04415562 0.17835952 0.16271105 0.1633453 0.020928139 0.08325059 -0.13297458
-0.18291096 0.12553589 0.013267182 -0.08952166 -0.11105151 0.16224293 -0.040447738 -0.13119294
-0.07618876 0.008576259 -0.20339347 -0.21712688 -0.022231538 0.12810996 0.042339206 0.21373391
0.17393664 -0.08370726 0.16329809 0.086350515 -0.12999491 -0.08025671 0.062697366 -0.042476643
-0.12196102 0.027232759 0.10011698 -0.0071389903 -0.15621419 -0.10849207 -0.055056814 0.03233576
0.090793714 0.011516286 -0.04630599 0.03640423 0.06927506 0.07165586 0.015261643 0.019648703
-0.15249299 0.049366314 0.05282622 0.0056613437 -0.059603773 0.101206504 -0.44467664 -0.0054593454
-0.26852226 -0.09127493 -0.15011494 0.15536796 -0.19811767 -0.073718 -0.022698116 0.080392756
-0.11468314 0.054788716 -0.2071912 -0.060132686 0.025504686 0.101854354 -0.19881259 -0.1644371
-0.036675084 0.124825686 0.08693748 -0.054909125 0.062113173 0.089737736 -0.064529486 0.057839002
0.077824175 0.015424824 -0.16351597 -0.22251178 0.1785725 -0.1662003 -0.042141426 -0.13348894
-0.039543036 0.015307238 -0.041233137 0.05849921 0.047984578 0.00059764314 0.080875516 -0.18954794
-0.0562565 -0.044130813 0.0017417788 0.111598246 0.01721646 0.13005032 -0.18705194 0.066473745
0.106091306 0.094163164 0.034456126 -0.102345355 -0.15969856 -0.08317025 0.10768196 0.034563053
-0.11340442 0.11747256 0.10739769 -0.071874276 -0.12829356 -0.1841933 0.18557629 0.027865097
-0.0926484 -0.1958174 0.055104785 0.08997218 -0.1734509 -0.21337725 -0.07727917 0.078202784
0.15568171 -0.036216486 -0.040850386 0.117572784 0.02387606 0.17170802 -0.078172624 0.0036597825
-0.032335866 0.20983428 -0.22407131 0.15724972 -0.080096714 0.084123604 0.0056529813 -0.040717646
0.028224282 -0.02018637 0.06577031 0.05342075 -0.06899056 0.22942983 -0.20643461 -0.07936833
0.033171296 -0.061917465 0.11857531 0.050953563 -0.076129854 -0.052603267 0.10762222 -0.14619514
0.054184422 0.10988051 -0.1345393 -0.0068126665 0.16290192 -0.05471211 0.12697665 0.005033073
0.034387574 0.11020603 -0.21616215 -0.076430246 0.008263623 0.119278125 -0.038144384 -0.07231502
-0.055185556 -0.2094453 0.14853321 -0.09363621 -0.0926443 0.18226907 0.027951954 -0.099040166
-0.02737644 -0.017930625 -0.24666578 0.10528599 -0.10698193 -0.21569371 -0.07161831 0.10656416

Generator.conv1.conv2.0.weight f4 [8, 8, 3, 3, 3]
00000000: 78a1 223e d44e 5c3d ee86 313d b82f b53c
00000010: 93e1 38bd ac0b 973d e6bf 333e 6cd7 153e
00000020: 0fdc 9a3e 0aa2 753c c87e 683c 90d7 603d
00000030: 2571 3c3d ab9e ca3d 5383 983c b6e3 733d
00000040: 702a a8bc 37df 103e cc67 423d c3c4 3d3e
00000050: e8ef 273e e7b5 193e fbbd 4b3e 86cb 393e
00000060: 5295 f93d c06a 183e 0e29 323e b953 14be
00000070: 37dc e7bc df50 6ebe 934d b1bd ba9f ebbc
00000080: 3cba 98be 0979 d8bc 6c32 a83d 20d9 a7bd
00000090: 9876 e6bd 8283 453e 8e68 81be f8fb bcbd
000000a0: 3ddc ff3d 2c47 0abf 6773 6fbd eaed 953d
000000b0: 462f ba3c b6fa 713d 09eb 713e 6ae0 afbe
000000c0: 4764 a6bd 9a2e 0b3e 8edf 04bf 1278 cfbd
000000d0: a14c c33c e635 2f3c 7779 8f3d 7720 b53c
000000e0: e72c f03c fe21 0dbd a10c 9fbd 6ebb b7bc
000000f0: ac31 723d a8da a93c 5c9d 1bbd b0dd 583e
00000100: e02b bfbc e3c8 483d dff6 653c 6c4f ce39
00000110: bfc0 283e 155a fd3d 1464 323d 606e 5e3d
00000120: 465a 0e3e 27b4 973d e43b db3d ac82 c6bd
00000130: 035a 893a 5424 393d bed0 ba3d a797 c73d
00000140: 8262 783d e056 c4bc 4559 7d3d 17fb 293d
00000150: ac62 0f3e 7363 063b ae29 cebb 535b 053c
00000160: c052 23bd 1fd0 0e3c 817a aa3c 5ec8 913c
00000170: 329a 2e3d 309e 3abd 7960 723c 6c21 6b3d
00000180: b81c 0fbd 8bba be3c 90e7 e53c aac6 883d
00000190: 0a7e 3dbd 4e2c 47bd a646 febb c267 1c3d
000001a0: 5541 553d 4f04 f83c 4e68 1d3d 85f8 9c3c
000001b0: a894 cfbd 86fd 60be 62a7 3bbe d944 7fbd
000001c0: f66a bdbb 272b 07be 3c7e babb 3d36 f53b
000001d0: b114 6f3d f308 73bd 16e8 153d 49e4 053e
000001e0: fbb2 bbbc ad9d 433d 31b7 a43d 6a06 7fbd
000001f0: 39c5 e73d 5e38 df3d 67d7 bbbd eabd 5d3e
00000200: b034 293e 1d3c f0bc 6a18 403e 587e e13c
00000210: efc1 51be 5963 2f3e e7ed 883d 7920 5fbc
00000220: 0469 723e 5c09 d93d e80f acbd b6b4 543d
00000230: 2f28 9abd 669e ef3b 50ea 1bbe 87cb 3fbd
00000240: 7142 42be 128f 623e 5011 d03d 65b5 f2bd
00000250: a584 be3d 8936 cbbc 9a1b 14bd 81ef d93c
00000260: e922 86bd ec02 65bd dc9d 7e3e ba8b 2f3e
00000270: 0f3f 8dbd 6ac3 5b3e a6d8 ba3d a800 2ebe
00000280: 3690 14bd a6e0 e43b c49b 8e3d deca f3bd
00000290: 3999 03be 26f8 803d 922a 90bd cb69 94bd
000002a0: a65c fb3d db2d 40be 6a12 39bb 163a 5d3d
000002b0: c596 2ebe b70b 42bc 8a8b de3c 3de3 3abc
000002c0: 0270 81bd fa42 74bd 3134 3cbe 9290 24bd
000002d0: 5898 1d3d cea7 7abd 967a f43d 38a6 b0bc
000002e0: a107 cd3d 5b64 c93d 31c6 b0bd d349 c3be
000002f0: f987 9abd 2aae 9c3c 83ef 95bd f3b2 8a3b
00000300: dc6d 923d 59ff d63c 8274 373d 1dc1 823d
00000310: d48b 8abd fb9c 2e3c 5e89 b13c 84fc aabe
00000320: d154 783d 33eb a13c 7e06 91be bc73 ec3d
00000330: d3e8 bd3d bad9 b8be c6ce 843d 7a73 d0bd
00000340: 8b6b 0b3e 815d 2dbe fba8 15be 9c36 493e
00000350: a903 2cbe 0271 69be 4c15 f23d d1c6 0abe
00000360: 07a8 153e 9982 923e 4fd0 793e 2c46 ddbc
00000370: dcee 923d da89 d13d 0923 943e 8276 963e
00000380: aeae 8c3e 3e1c 1b3e 2d42 963d cb54 573e
00000390: 41d3 613d 19ee 9c3d 6a91 a13d 0b07 953d
000003a0: d3db d5bb 7561 ab3d a57a 963d 8d87 c23d
000003b0: f253 f73c 9683 d53d 44b6 ad3d 965d b03d
000003c0: 5515 8e3d a953 0a3b 314f d73d 3e62 afbd
000003d0: f1dc 81bd 3e42 72bd 405d 82bd 672e cdbd
000003e0: aa77 bebb e85e 713c ab59 cfbb 66f4 c8bb
000003f0: e352 b03d 7f60 04bc 4056 75bb 91ad a33d
0.15881908 0.053786114 0.04334157 0.02211748 -0.045137 0.07375273 0.17553672 0.14632958
0.30246016 0.014992246 0.014190383 0.054893076 0.04600634 0.09893545 0.018617308 0.059543334
-0.020528048 0.1414765 0.04746227 0.1853209 0.1640011 0.15010796 0.1989669 0.18144044
0.12186684 0.14884472 0.17398474 -0.14485063 -0.028303249 -0.23273037 -0.08657374 -0.028762687
-0.29829586 -0.026424902 0.08212742 -0.0819571 -0.11253089 0.19288447 -0.2527508 -0.09227747
0.12493179 -0.5401485 -0.058459666 0.07320769 0.02272762 0.059076987 0.23624815 -0.34350902
-0.08124595 0.13591996 -0.5190362 -0.101303235 0.02384025 0.010694003 0.070055895 0.022110207
0.029318286 -0.034456246 -0.07766081 -0.02242824 0.059129402 0.020734146 -0.037991866 0.21178317
-0.02333635 0.049019706 0.014035909 0.00039350556 0.16479777 0.123706974 0.043552473 0.05430448
0.13901624 0.07407408 0.107047826 -0.096928924 0.0010479096 0.04520066 0.09121846 0.09745722
0.06064082 -0.023967206 0.061852712 0.041499224 0.14002484 0.0020506054 -0.0062915897 0.008139449
-0.03987384 0.008716612 0.020810368 0.017795738 0.04262752 -0.045561016 0.014793509 0.05740492
-0.034939498 0.02328231 0.02806452 0.06678517 -0.04626278 -0.048626237 -0.007759887 0.03818489
0.05206426 0.030275492 0.03842955 0.019161472 -0.10135776 -0.21971712 -0.1832557 -0.062321518
-0.005780573 -0.13200055 -0.005691318 0.0074832723 0.058369342 -0.059334707 0.036598288 0.13075365
-0.022912493 0.047757793 0.080427535 -0.062261976 0.11316914 0.10899423 -0.09171944 0.21654478
0.16524005 -0.02932554 0.18759313 0.027526066 -0.20484136 0.17127742 0.06686001 -0.013618582
0.23672873 0.10597488 -0.084014714 0.051930152 -0.07527196 0.0073125837 -0.15226102 -0.04682496
-0.18970658 0.2212489 0.10159552 -0.118510045 0.09302644 -0.024806278 -0.036159135 0.026603462
-0.06549627 -0.05591099 0.24864906 0.17143145 -0.06896793 0.21461263 0.09123354 -0.16992438
-0.036270343 0.006984788 0.06963304 -0.11903928 -0.12851419 0.062973306 -0.0703937 -0.07246741
0.12273531 -0.18767492 -0.0028239735 0.054010473 -0.17049702 -0.011843613 0.027166147 -0.011406717
-0.06320192 -0.059634186 -0.18379284 -0.040176935 0.038475364 -0.061195187 0.11937444 -0.021563634
0.10011221 0.098335944 -0.08631552 -0.3814226 -0.07545466 0.019126017 -0.07321074 0.004232758
0.0714986 0.026244806 0.044788845 0.0638449 -0.06764951 0.010657544 0.021671947 -0.3339578
0.060627762 0.019765472 -0.28325266 0.11545512 0.09272923 -0.36103612 0.064847514 -0.101782754
0.13615243 -0.169302 -0.14615242 0.19649738 -0.16798271 -0.22797015 0.11820468 -0.13552405
0.14614879 0.28615263 0.2439587 -0.027011 0.07174465 0.10231371 0.2893298 0.2938729
0.2747702 0.15147492 0.07336841 0.2102844 0.055133108 0.07662601 0.07889064 0.07276734
-0.006526449 0.08368198 0.07347611 0.094985105 0.030191395 0.10425489 0.0848203 0.086116
0.069376625 0.0021106994 0.105131514 -0.0856366 -0.06340969 -0.059145205 -0.06365442 -0.10018616
-0.005812605 0.0147321 -0.006327828 -0.00613265 0.086095594 -0.008079647 -0.0037435442 0.079920895

Generator.conv2.conv1.0.weight f4 [8, 8, 3, 3, 3]
00000000: 9ffb d13d 0ecc b6bc e67e b8bd cc82 b43e
00000010: ec5a ef3d 2663 94bd 0c6c 42be 404c 273d
00000020: 1088 ed3d 0c07 a4bd 8c58 62bd c706 02bc
00000030: 091b bcbd d1fe aabb 8407 c03c ae72 20bd
00000040: c0ae 90bd bb46 ce3d b4ac 0a3c 3525 79bd
00000050: c9af dbbc a958 7dbc cf5f 3dbd 5176 173d
00000060: ca76 7b3c 1c28 febb a7aa a83d 55c7 463d
00000070: d1b6 13bd ea11 46bd 881b 3b3c 988c 0cbb
00000080: c808 a7bc dbb2 8b3d 027d 9b3d 111d 1b3c
00000090: 5b86 2ebe d418 0bbe 4220 9ebd 89a3 c5bd
000000a0: b724 70bd 203a 35bd 04fc d03d 9d3c 22bc
000000b0: 009a e6bc a9ef 57bd d4f6 82bd f7b0 2fbe
000000c0: 65a7 453b 2656 79bd 1a85 c3bd e577 ab3d
000000d0: b233 2d3b 4f5a 57bd c3a0 8e3c 9d1d d03d
000000e0: dcc2 0e3e 5985 213d 22a4 863d 47d1 433e
000000f0: dd64 82bd 49e4 2abd b08f 013d d934 9fbd
00000100: 326b df3c d88f b93c 78ba 57bd 04bd 093c
00000110: ce71 8d3d 8315 4ebe 9e67 0bbd 0c13 083d
00000120: eadb 23bd b6e3 003d 7eb2 843d 546e a1bd
00000130: 64a9 cb3d d7da 0c3e 2c0d 0cbe 0354 63bd
00000140: c0c4 8d3d 22a0 4a3b 4900 f6bc a2cf 6a3d
00000150: 728f f3bd 5d12 9bbd 1afb 35bc 6b3f aabc
00000160: 3aee 2ebd a7a2 c23d 6e79 3f3e 0592 ea3b
00000170: b6ea a13d 1be2 a03c 3050 f4bc 82bb 363c
00000180: 96de ad3b 61c4 80bd 2216 db3c 3db2 223b
00000190: c61e da3b 76a2 053c bbbf e3bd 4436 e9bc
000001a0: 3db8 963d cd4b d439 0378 22bd 4c6b 993c
000001b0: af83 1a3d e7d5 323d e27b 35bd 1c7c 5c3b
000001c0: c57d c9bc ce55 e63c e615 c4bc 84cf 75bb
000001d0: 86d8 003d 3195 3e3d 5301 b43c de51 973d
000001e0: 0878 843d 2058 aa3d d74d c63d 189d ae3d
000001f0: 4959 34bc 6534 063e 8c3b 51bd 8bf2 1cbb
00000200: 981a 803d 74f0 85bd e3c5 013d 4c11 8f3d
00000210: a07f b33c aa01 fbbc 7952 29bd 6aef 88bc
00000220: 44f2 e33d 4a04 643d 1a4e 103b c58c cd3d
00000230: 911c a83d 03ff 10bd 61f2 b1bd 6585 60bd
00000240: d770 8dbd 3518 c5bb 3eaf 24bb 144f 98bd
00000250: 9215 80bd 7c45 10bd 3362 b1bd 5fed 02be
00000260: aa53 6b3d 15ea 99bd ac72 d9bc 44bd a5bc
00000270: 08a1 cfbd 7ef1 eabc 6363 bbbd 2d9e 1cbe
00000280: 46c4 51be 6d64 1e3e 773f 9e3d 5629 6e3d
00000290: f822 8f3d a321 ad3d 8d76 123c 739a 003d
000002a0: 078d af3c e806 b73d 456e fc3c 3f80 b73c
000002b0: f7c9 b0bb 427a f4bb c0dc 903d 2042 a63d
000002c0: 8691 cc3d 3c3e c93d cdcd 373d ce6f 983d
000002d0: 3248 363d 3ecc 1dbc 12b2 f1bc 66af 61bd
000002e0: 26f3 513d 16fd dfbc c3a4 e63c 8242 87bd
000002f0: 3673 dd3b 7ddb 71bc b99a 17bd 88f5 0c3d
00000300: 1566 9abd 9949 8dbd cd37 6a3d 656e e9bd
00000310: 0f7b adbd 5abf 9dbc 2a68 1ebd 594e 8bbd
00000320: cf70 cb3b 8c9b d4bd 08df 6fbd 67b5 1d3d
00000330: 26fd 9bbd 6f92 9fbd afc2 de3d 3733 aabd
00000340: 3f14 88bd 1f29 3d3b c404 35bd 39dd 80bc
00000350: 03f4 333c f154 abbd 7bcc 56bd e87a d33c
00000360: 1dfe 2dbe 2c50 5ebe 60b0 053e fbbd c3bd
00000370: 83ee 39bc 689b 2f3c 36a6 d03d be0d 90bc
00000380: 915c 253e c872 3bbd 7a0a eabc 9a26 173d
00000390: 1491 e3bc 61cd b03b cdaf 9c3c cefd 873d
000003a0: 1aaa c73d 4cd3 ef3c 32d6 223c 8584 c9bd
000003b0: 1594 3ebd 50f3 973d 421e ab3b 0c64 babc
000003c0: 6e1f ab3d ad7f d33d 4fba 073d 2626 dcbc
000003d0: c1c0 9d3b 2ceb 823c 20b8 9dbd 3294 303d
000003e0: 2d5a 0c3d 9531 b23b 7d2f 163d 10e0 82bc
000003f0: 423d 04be 12fd f3bd a1fb 9ebd bd35 dabd
0.10253071 -0.022314098 -0.09008579 0.3525604 0.11687264 -0.072454736 -0.18986529 0.040844202
0.115982175 -0.080091566 -0.055260226 -0.007936186 -0.09184844 -0.0052183648 0.023441084 -0.039171867
-0.07064581 0.100720845 0.008464027 -0.0608265 -0.02681722 -0.015463033 -0.04623395 0.03697807
0.015348146 -0.0077562463 0.08235674 0.04852994 -0.03606302 -0.048356928 0.011420138 -0.0021446105
-0.02038993 0.06821223 0.07592203 0.009467379 -0.1704344 -0.1358369 -0.077209964 -0.096503325
-0.058628764 -0.044244885 0.10204318 -0.009902147 -0.028149605 -0.052718792 -0.06394735 -0.1715735
0.003015959 -0.060873173 -0.095468715 0.083724774 0.0026428518 -0.05257636 0.017410642 0.10161898
0.1394152 0.03943381 0.065742746 0.19122802 -0.063668944 -0.041721616 0.03163117 -0.07773752
0.027272794 0.022651598 -0.052668065 0.008406881 0.06906472 -0.20125394 -0.034034364 0.03322129
-0.04000465 0.031467162 0.06479357 -0.078823715 0.09944418 0.13755356 -0.136769 -0.05550004
0.06922293 0.00309182 -0.030029433 0.05732692 -0.118925944 -0.07571862 -0.011107231 -0.020782193
-0.04270766 0.0950368 0.18698665 0.00715852 0.07906096 0.019639065 -0.029823393 0.011153104
0.0053060753 -0.06287456 0.026743952 0.0024825477 0.0066565005 0.0081564095 -0.11120554 -0.028468259
0.073593594 0.00040492267 -0.039665233 0.018727921 0.03772324 0.043661024 -0.044307597 0.003364331
-0.024596104 0.028117087 -0.023936223 -0.0037507722 0.031456493 0.046529 0.021973288 0.07388662
0.06468207 0.0831759 0.096828155 0.08526057 -0.011007615 0.13105924 -0.05108218 -0.0023948278
0.06255072 -0.065400034 0.03168286 0.06985721 0.021911442 -0.030640442 -0.041338418 -0.016715724
0.11130193 0.055668153 0.0022019208 0.10036615 0.082085736 -0.035399448 -0.08688808 -0.054814715
-0.06906288 -0.0060148486 -0.0025128867 -0.07436958 -0.06254114 -0.035222515 -0.08661308 -0.12785862
0.057452835 -0.07515351 -0.026543938 -0.02023185 -0.10138136 -0.028679606 -0.09149816 -0.15294714
-0.20485029 0.15467997 0.07726949 0.05814489 0.06989092 0.08453681 0.0089393975 0.031397294
0.021429552 0.08936864 0.0308143 0.02240002 -0.00539517 -0.0074608633 0.07073355 0.08118081
0.09988694 0.098263234 0.044874 0.074432 0.044502445 -0.009631215 -0.029503856 -0.055098914
0.051257275 -0.02734236 0.028154736 -0.06604482 0.006758119 -0.014761803 -0.03701279 0.034413844
-0.07539002 -0.06898803 0.057182122 -0.11398009 -0.08470737 -0.019256283 -0.038673557 -0.06802053
0.006208516 -0.10381231 -0.05856231 0.038503077 -0.076166436 -0.07791602 0.10876977 -0.0831055
-0.06644487 0.0028863621 -0.044193998 -0.015730487 0.01098347 -0.08365811 -0.0524411 0.025815442
-0.16991468 -0.2171027 0.13055563 -0.0955772 -0.0113483695 0.010718204 0.10187952 -0.017584678
0.16148593 -0.04576376 -0.028569449 0.036902048 -0.02777914 0.005395577 0.019126797 0.06640206
0.09749241 0.029275559 0.009938763 -0.09839729 -0.04652794 0.07419455 0.005222113 -0.022752784
0.08355604 0.103270866 0.033136662 -0.02687366 0.004814238 0.01598128 -0.07701135 0.04311008
0.034265686 0.0054380395 0.036666382 -0.015975982 -0.12913993 -0.11913504 -0.07762838 -0.10654781

Generator.conv2.conv2.0.weight f4 [8, 8, 3, 3, 3]
00000000: f4c1 c43d 04e8 85bd b5e6 89b9 c200 a53d
00000010: 8be0 a43d a43c 893d 3fed 733d 40a3 6a3d
00000020: 962f 003e 5c94 0b3e 8a96 9bbc ff28 5c3d
00000030: 4d23 c53c 3cc1 63bb 47fb 21bd 174d a13d
00000040: b306 46bd 32b8 113d 0262 233d 6648 87bd
00000050: 1a64 3bbd 5fda 4b3d 3ce0 cdbd 382e b9bd
00000060: 2936 c3bd 8c6e 34bd 61fa 48bd b07e 0b3e
00000070: e279 d53d c8a3 ef3c 0072 873d aeae cd3d
00000080: f895 2b3e 3e37 623d e37a 423d 2822 f43d
00000090: 65e3 d13d 17d7 093d 8e25 5f3c 406d c13c
000000a0: 240c dc3d 0be1 5a3d acd8 50ba 2b12 4c3b
000000b0: 39b1 fd3d 46c2 d43c 39ca 563d fbd5 12bc
000000c0: 0dc4 0d3d 2121 f83c 255a 243d a326 14bd
000000d0: 39a0 893d e761 1c3d 30c5 803e 9d75 ca3d
000000e0: 075c 783d c990 cbbc 5637 efbd 7d79 fcbd
000000f0: c20c 9e3d 3420 77bb 7542 91bd 662a 12bc
00000100: 829a 02be af04 a43b cbbf 01be e547 07be
00000110: 5d66 51be deb7 153d 42cd 53bc 9adf 3ebe
00000120: a93d 06bd cc1f c0bd 95fd 223e 3903 e1bd
00000130: d358 28be ef9d 733c 6af5 a73d 5c8d 143d
00000140: 26a9 b0bb 1a8e b53d 3d0b ae3d da3f 1b3e
00000150: 9511 203d ae48 203d a655 d13c 4b8b 193e
00000160: e592 9c3c 06c0 0e3c dc34 1d3e d94a a33c
00000170: aef7 c83d 7041 50bd 3b97 02be bdcd b1bd
00000180: 2411 bcbc 7bd4 11be c2ad 8c3c 7876 74bc
00000190: 9f65 65bd 13f2 9a3d fb76 ccbd edfa 9bbd
000001a0: 0290 2dbd f130 c83d 9095 91bd 378a cabc
000001b0: 3323 abbd c950 7cbd ff34 fabc d19c 5b3d
000001c0: 120f 8b3d bbe5 0e3c a135 983d f986 283d
000001d0: 25f1 163b 69da 26be 242a 00be a5ed 333c
000001e0: 5949 93bd 09d2 92bd 0f27 923c e350 063c
000001f0: 2008 00bd 7ddb 093d c6e2 17be c1a9 00be
00000200: 14ba 2a3c ef0b 1d3e a9dc 5e3d cfd6 38bc
00000210: f50c cd3d a7a7 4ebd c950 17be d97f 3a3d
00000220: 2477 75be 46af 84be d4e5 44bd 116e 61be
00000230: f4c0 93bc 9035 46be 4480 7cbe 9096 fb3d
00000240: 9fe6 763a 761a 33bc 88f0 1dbe 3523 25bc
00000250: 6287 c9bd db17 1bbe ec03 c33c 0983 56be
00000260: 9bbd 1dbe baa9 c43d e23c 8f3c 79cc 6abd
00000270: e477 8c3d 2a3d cebc 74d5 36be e44a e43d
00000280: d131 14be 9cae eebc 9aeb 0f3e 0c6c 933d
00000290: e098 693e f714 fbbc 1961 1bbd d97a d1bd
000002a0: 57de 523d 16c3 11be d9d8 96bd fc07 a23d
000002b0: 3beb 2b3d dd75 4c3e 956f b13d 0563 1ebd
000002c0: a770 94bd e618 b0bc 7c6d 87bd acd7 b7bd
000002d0: 1304 ccbc 3db8 003e 7ee9 a13d 7c42 bb3b
000002e0: 0144 93bc 9d4a 28be 25c1 183d 254d cebd
000002f0: f752 24be 48f2 83bd 3384 68bd 6359 b3bd
00000300: 2dbf aebd 74f8 96bd 1ca6 afbd 88b1 36bd
00000310: ffb7 9ebc 4686 d13c 68c8 91bd b46b 753b
00000320: 66b1 64bd 0873 15bd a434 93bd ef9f 3fbd
00000330: 3c9b e43c e8c2 813c d385 4abc 2474 2f3e
00000340: 9ed5 1f3e f1ee 2e3e 539d 523d b210 df3d
00000350: d9c7 97bc 1bde 113e 8930 553c 50e1 13bd
00000360: ff2b 3dbe d74d b6bd d423 923c d5f7 cabd
00000370: 08a6 7ebd e16a b2bd 9918 3cbe bc1c 93bc
00000380: 3927 73bc 19f4 383d 793d 423d e5a2 093c
00000390: 2f15 813d 968d 453d 0021 a73c 31fb 19bc
000003a0: abb7 6b3c 3574 663d 3263 4a3d ef3c e53d
000003b0: 9f90 b23d 6bef 283e 2b83 fe3d ce61 ad3d
000003c0: fcaf 143e 7e08 273d 126d 303d 25f3 26be
000003d0: 0643 f0bd 5a9d 8139 7440 e6bd 4cc4 babd
000003e0: dbf9 d0bc 2c14 90be 4642 f2bd 66b4 db3c
000003f0: e66b 553c 8aab ac3c 75e8 76bd 4343 ad3c
0.09607306 -0.06538394 -0.00026302566 0.08056785 0.08050641 0.067010194 0.059552427 0.057284594
0.12518153 0.13630813 -0.018992681 0.053750034 0.024064684 -0.0034752628 -0.039546277 0.07876032
-0.048346233 0.035576053 0.03988839 -0.06605606 -0.04574976 0.0497688 -0.10052535 -0.09042019
-0.095318146 -0.04405074 -0.049066905 0.13622546 0.10423638 0.029252902 0.06613541 0.10043083
0.16756427 0.055228464 0.047480475 0.11920577 0.1024845 0.03365239 0.013619794 0.023611665
0.10744503 0.053437274 -0.0007966857 0.0031138759 0.12387318 0.025971543 0.05243895 -0.00896215
0.034610797 0.030289235 0.04012503 -0.03616966 0.06720013 0.038179304 0.25150442 0.09885714
0.06063464 -0.024849312 -0.11680476 -0.123278596 0.07717277 -0.0037708404 -0.07092754 -0.008921241
-0.12754253 0.005005441 -0.1267082 -0.1321102 -0.20449205 0.036552303 -0.012927355 -0.18639985
-0.032773647 -0.09381065 0.15917046 -0.10986943 -0.16440134 0.014869197 0.08201106 0.036267623
-0.005391258 0.08864994 0.08498237 0.15161076 0.039079268 0.039131813 0.025553536 0.14994542
0.019113014 0.008712774 0.15352196 0.019933151 0.09812866 -0.050843656 -0.12753002 -0.086818196
-0.022957392 -0.14241211 0.017172698 -0.014920823 -0.056005117 0.07565703 -0.09983631 -0.0761622
-0.042373665 0.0977496 -0.07108605 -0.02472411 -0.08356323 -0.06160048 -0.030542849 0.05361635
0.06789984 0.008721764 0.07432104 0.041144345 0.0023031917 -0.16294254 -0.12516075 0.010981952
-0.07191724 -0.07168967 0.01784089 0.008197996 -0.03125775 0.033656586 -0.14832601 -0.12564756
0.010420341 0.15336584 0.054409657 -0.011281683 0.10012237 -0.050452854 -0.14776911 0.04553208
-0.2397123 -0.25914973 -0.048070744 -0.22014643 -0.018036343 -0.1935637 -0.24658304 0.12284577
0.00094185205 -0.010931602 -0.15423787 -0.010079195 -0.09840275 -0.15145819 0.023805581 -0.20948423
-0.1540436 0.09602685 0.017485086 -0.057323907 0.06858805 -0.02517565 -0.17854863 0.11147097
-0.14472128 -0.029135995 0.14054719 0.07198343 0.22812223 -0.030649645 -0.037934396 -0.102285095
0.05148157 -0.14234576 -0.07365579 0.07911679 0.04197238 0.19966836 0.08663861 -0.03866865
-0.07248049 -0.021496248 -0.06612679 -0.08976683 -0.024904286 0.12570281 0.07905863 0.0057147127
-0.017976763 -0.16434713 0.037293572 -0.10073308 -0.16047274 -0.06442696 -0.0567667 -0.087572835
-0.08532558 -0.073716074 -0.08576605 -0.0446029 -0.019374846 0.025576722 -0.071183026 0.003744823
-0.055833243 -0.036486655 -0.07187775 -0.046783384 0.027906053 0.015840009 -0.012361008 0.17134148
0.15608832 0.17083336 0.051419567 0.10891856 -0.018527912 0.14244883 0.01301206 -0.036103547
-0.18473814 -0.089015655 0.01783935 -0.099105515 -0.06217006 -0.08711792 -0.18368758 -0.017958038
-0.014840894 0.045154665 0.047421906 0.0084006535 0.063028686 0.04823073 0.020401478 -0.009398268
0.014387052 0.056263167 0.049411006 0.11193263 0.087189905 0.1649758 0.12427362 0.084659204
0.14520258 0.040779583 0.043072768 -0.1630369 -0.11731534 0.00024722033 -0.11242762 -0.09119472
-0.025509765 -0.2814039 -0.11829047 0.02681942 0.013026213 0.02107789 -0.060280282 0.021150237

Generator.conv3.conv1.0.weight f4 [8, 8, 3, 3, 3]
00000000: 9e24 573c ce53 9c3d 35fd 93bc a080 91bc
00000010: dba7 583c 9898 393d 8222 8c3d 8014 dbbc
00000020: e62f 853c 2adb c8bc a07f f73c f061 75bd
00000030: 1139 8b3c 4786 90bc 70bc b3bd 7bcf 43bd
00000040: 5460 0e3d e435 13bd dd29 13bd b451 8a3d
00000050: d453 87bc 9ebb 603d 2c23 58bd 854c 0dbc
00000060: 3c2e d5bc 17ec 013d 8950 64bd 7e7f 73bd
00000070: 5d83 d23c 5f6d f33c c2d7 5b3c 7831 c8bc
00000080: 1007 82bd 6d83 433d 4e3b 04bc ee1c 443d
00000090: 50c0 003c 8c0f 813d b774 ee3d cfe7 f5bb
000000a0: e6d5 2dbd f427 b6bd 60b5 803b e883 afbd
000000b0: be94 da3c 4d28 88bc 4c26 ca3d ad38 03bd
000000c0: 36d1 743d 9727 45bd ae51 94bd 915f d0bd
000000d0: b273 ccbd 6e00 653d a4ea 47bd 4eb4 c6bc
000000e0: 88ad 04bd 028c 51bd 4670 cdbc 3a6c bd3c
000000f0: d147 a53b dd6c 90bc eeb5 843c dbec 393d
00000100: 08a3 063d 88eb 693d a9b7 11bd c483 c03d
00000110: f5f2 5f3d 954f 14bd 13e4 c9ba 5373 d5bc
00000120: 7d14 893d f3fb 60bd a76c 9f3c daf1 343b
00000130: 59cb 943d a60c 22bd 31a3 953d c213 7cbd
00000140: f139 81bd b55f c43c 6b44 2b3a bca1 723b
00000150: cb07 c5bc cd79 1d3d a279 7abd d3c2 613d
00000160: eb14 43bc 16aa 6e3d d8c5 8abc ca30 293d
00000170: 5418 093d 6ed7 4abd 0f82 8b3d 30d9 90bd
00000180: c534 a3bd 774d acbc 4b57 34bb f999 2abd
00000190: 3a2a 6e3d f8b1 8abc ba98 993d d118 073e
000001a0: b2e3 053d ba51 6abc f6ca afbc 0795 9ebd
000001b0: 6603 a13d 928e 57bd 8120 a53b 7633 833d
000001c0: 6b21 89bd 858c 593d c464 b33d 26cf 303d
000001d0: d8c2 01bd 358d 6c3d d95d a33d 4535 823d
000001e0: 49bc 133c 90be 683d 7d80 cb3d 3d9b 2b3d
000001f0: 1fe3 943d 35bf 42bd e1a7 5cbc 22de a2bb
00000200: 69a5 9e3c d9f8 87bd e2bf 30bd 50b3 8bbc
00000210: b9f9 2a3d bc0f 42bd 86d4 12bd 66c3 8bbd
00000220: 6899 f43c 7f55 c93c eb30 6fbc c6b8 973d
00000230: 6e18 71bd 2ab5 05bd 88db 6abc ad6d f73c
00000240: ffe7 663c 6b47 953d 81a0 0d3d 86dd 30bd
00000250: e1b1 393d f5f7 4ebb a594 5ebd 7494 82bd
00000260: d4b0 173d 609a 6cbd e104 7a3d e7ad 72bd
00000270: a8f7 213d f24e ba3d 9d1b 6f3d 196a 7f3d
00000280: b788 aebd 5f87 dabc 55d2 63bd b956 4a3d
00000290: dda6 bdbb f877 a8bc 59ad 29bd 060f 0ebd
000002a0: 56ce d43d 4b56 f53a e41a d33c df0b 4c3d
000002b0: ee8d 5cbc 09c9 953d 025d 983d 1326 33bd
000002c0: b548 303d ee61 df3c 3063 773c 7243 7e3c
000002d0: da2c d23c 4b30 a0bb 6e45 f1bd 73c5 323d
000002e0: f748 e03d beb1 74bc f382 bfbd e296 cb3d
000002f0: 26b8 da3b 0b79 1dba 985e febb 1cfc ea3b
00000300: 8039 453c 90f6 183d 83bc b8bc 5af6 9ebd
00000310: 2bea 28bc 3606 11ba 9468 6ebc 457e b339
00000320: 4330 513b b11b e63c ecf4 123e ae6d 403d
00000330: eb6b 2cbc ae14 1fbd 987b 793d 2ce8 5ebd
00000340: 951e bdbd 9fd9 20bc 8cee 613d d710 eb3d
00000350: bb1c acbd df0c 13bd ab44 48bd 2188 5dbd
00000360: 1da8 3a3c 3131 28bd a12c 1cbb f07f 2f3d
00000370: 534a 3e3c ed02 353d 7257 3e3b 8635 673d
00000380: a898 1c3d 7bc4 f43d 3d31 86bd 5923 193c
00000390: f86c a43d 25d9 2a3d 9467 bcbd 6f10 12bd
000003a0: 734c 243d 26dd 32be 7cdd c33c 942a 00bc
000003b0: 1791 c33c 4bc7 643d 3283 c3bb 4ee3 3dbd
000003c0: 2d1d 67bd 0e95 6fbd 5ad0 483c a272 023c
000003d0: e9e8 e8bd bdc0 22be d779 d93c 48e7 8c3d
000003e0: 28ce 0ebe 2a5e a53d 5011 703d 21af 84bb
000003f0: 3948 8b3d c63b 173c 9330 debc 00dd c53d
0.013131289 0.07633172 -0.018065074 -0.017761528 0.013223614 0.04531154 0.06842519 -0.026743174
0.016258191 -0.024518568 0.030212224 -0.059907854 0.016994985 -0.017642153 -0.08776176 -0.04780529
0.034759834 -0.035940066 -0.035928596 0.06753865 -0.016519465 0.054866426 -0.052767918 -0.008624201
-0.026023023 0.031719293 -0.055740867 -0.059447758 0.025697405 0.029715238 0.01341814 -0.024437651
-0.06349003 0.04773276 -0.00807078 0.047879152 0.007858351 0.063017935 0.11643355 -0.0075044404
-0.042440318 -0.08894339 0.0039278716 -0.08570081 0.026682254 -0.01662078 0.09870586 -0.032036472
0.05976983 -0.04813346 -0.07242142 -0.10174478 -0.09983005 0.055908613 -0.048807755 -0.024255898
-0.032392055 -0.051158912 -0.02507795 0.023122896 0.0050439616 -0.017630035 0.016200032 0.0453919
0.032870322 0.057109386 -0.035575543 0.09400132 0.05467506 -0.036208708 -0.0015403054 -0.026055967
0.06693361 -0.054927777 0.01946099 0.0027609975 0.07265348 -0.039562844 0.07306517 -0.06154228
-0.063098796 0.023971418 0.00065333274 0.003702267 -0.024051568 0.038446236 -0.061151154 0.05511744
-0.011906843 0.058267675 -0.016940042 0.041306295 0.033470467 -0.049521856 0.06811916 -0.07072675
-0.07969049 -0.021033032 -0.002751785 -0.041650746 0.05814574 -0.016930565 0.074998334 0.1319306
0.03268785 -0.014301712 -0.021459084 -0.077432685 0.07861976 -0.0526262 0.005039275 0.064063
-0.06695827 0.053112525 0.08759454 0.043166302 -0.031679958 0.057751853 0.079768844 0.063578166
0.009017059 0.05682236 0.099366166 0.041896094 0.072698824 -0.04754563 -0.01346776 -0.004970328
0.019365983 -0.06639261 -0.043151744 -0.017053276 0.04174206 -0.047378287 -0.03584721 -0.06824379
0.029858306 0.0245769 -0.014599065 0.074082896 -0.05886119 -0.032643475 -0.014334567 0.030203665
0.014093398 0.072890125 0.034576897 -0.04318001 0.045335654 -0.00315809 -0.054340977 -0.063759714
0.03703387 -0.05776441 0.06103981 -0.059247877 0.039542824 0.09097089 0.058375943 0.062357042
-0.0852217 -0.026675878 -0.05562051 0.04939911 -0.005787714 -0.020565018 -0.041425083 -0.034682296
0.10390918 0.0018717734 0.025769658 0.04981601 -0.013461573 0.07313735 0.07439615 -0.043737482
0.04303809 0.027268376 0.015099332 0.01551901 0.025656153 -0.0048885695 -0.11780821 0.043645333
0.10951417 -0.014934955 -0.093511485 0.09940888 0.0066747842 -0.00060071115 -0.0077627413 0.007171167
0.012037635 0.037344515 -0.022550827 -0.077618316 -0.010309736 -0.00055322365 -0.014551301 0.0003423562
0.0031919635 0.028089376 0.14351243 0.0469796 -0.0105237765 -0.03883808 0.060908884 -0.054420635
-0.09234349 -0.00981751 0.055159137 0.11477821 -0.084039174 -0.035900947 -0.048893612 -0.0540849
0.01139262 -0.041062538 -0.0023830312 0.04284662 0.0116144 0.044192243 0.002904382 0.05644753
0.03823152 0.11951538 -0.0655236 0.009346806 0.08028597 0.04171099 -0.091994435 -0.035660204
0.04011197 -0.17467174 0.023909323 -0.007822651 0.023872895 0.055854123 -0.0059665674 -0.046359353
-0.05642431 -0.05849176 0.012256706 0.007961901 -0.11372549 -0.15893836 0.026547356 0.06880051
-0.1394583 0.08074601 0.05861026 -0.0040491973 0.06800885 0.00923056 -0.027122771 0.09661293

Generator.conv3.conv2.0.weight f4 [8, 8, 3, 3, 3]
00000000: 7d59 533d 1752 743c 1d8a 76bc 4161 c9bc
00000010: 6331 883d d159 1fbd 4957 8bbd 1e02 92bc
00000020: b858 babd 737c 2b3d cdf5 f0bc b3d4 633d
00000030: 2ba2 363b 5b94 6b3d 01c0 a5bc 6e80 53bc
00000040: 3122 583c a610 9cbd df08 853c 7494 0b3c
00000050: 41cc 4b3c 1838 7b3d 0f50 dc3d a497 153e
00000060: e1b5 4d3d 2342 bf3d 508c 513d 8806 ef3d
00000070: 75b8 0dbe b237 4ebe 853b 0f3e 9cdb c3bd
00000080: 2d54 b6bd b441 523d df89 aa3d 5b43 36bc
00000090: a8d2 a73d 24a7 dabd 2d1f 0fbe 327d c0bd
000000a0: ed2a bfbd ad39 5fbd 5c3f f9bd 6fb2 18be
000000b0: 99d1 43be 6831 ca3d 54d5 ecbb d8e1 13be
000000c0: 2ee0 92bc 4f54 c8bc d137 1abe 2b9b 88bd
000000d0: 3f3f 77bd d0f4 12be 9351 383d 0f9a ca3c
000000e0: cdf1 a0be 72cd 943d 35e6 3dbd ce16 123b
000000f0: 3728 e53d 4b0f 3d3e 7b2f 243d 52d1 e53d
00000100: caa8 3dbd 2ed0 b2bc 5455 ae3d 1b0f 963c
00000110: 617e 51bd 1987 c93c f28e 963e 2a41 f9bc
00000120: 7dfe 143e d921 113e c6b6 f73d 0032 033e
00000130: 1ed2 2b3e 85f5 f63d faab e2bd 6a84 ee3d
00000140: fa52 f73d a5b7 58bd 8e95 d43d 7759 abbb
00000150: ce11 8fbd e24f 4bbd 5336 573d d015 6d3d
00000160: 6047 9ebb 8508 17bd c697 06be 294a 993c
00000170: 9612 9c3b 4121 1bbe 6ec2 7abe 8e83 313d
00000180: 9aed ebba f175 2abe 688b 8ebd a4e5 38be
00000190: 474b d3bd 67d8 dabc 7ad9 93bc e14f 88be
000001a0: 94ff dfbc 36fa cf3d 9ba2 24bd 79f6 f0bc
000001b0: 281c cfbe d276 44be eaa7 c5bc 1f24 0cbe
000001c0: c0fd b0bd 2cc1 4cbd 617b a2bd e8a0 08be
000001d0: 6efe 5fbd 7c1b 88bc 554b 563c a925 403d
000001e0: 82c1 0e3d 14cb 063d edba 00bd 3d30 78bd
000001f0: f8db bc3b 7d7f dabc 969d ebbe 0484 8dbe
00000200: e63b c6bc 76f5 a1be bc86 94be 8c67 c6bd
00000210: d089 ac3d 2296 3b3c 836e a03d d964 b13c
00000220: 0058 53bb a49c 93be e903 16be b16d 3bbd
00000230: f2bf 6b3c 8900 893e 9ebf 04bd e789 ca3d
00000240: 5de2 02be f425 aabd c85d 65bd 5555 46bd
00000250: f8c3 353c 5a8a a73d e8e8 353e e58f 1abd
00000260: 802f 153e 1ed1 f73c bf5a 0a3e 746d 8ebd
00000270: a59f d33d 2533 043d 7a0e 803d 8f01 a03e
00000280: 5f04 fc3c 8f3a d2bc 7ed7 253e 9ac5 053e
00000290: 92fa 183e 13f2 c7bc 3ff6 7ebd 5d2d 9f3d
000002a0: 061f 2dbe 4ebb 3ebe 3418 243e a936 c13c
000002b0: 45e1 393d 2540 ee3d 5f06 f9bd abb5 06be
000002c0: f1c7 c83d 2923 11be 0863 c6bb aa3e ef3d
000002d0: 72ee 4fbe d5f6 76bd 55b5 163e 1028 25be
000002e0: 99fc c8bd 71ce 6d3e 106c 0cbd 1635 f73d
000002f0: 05a5 023e 4ebf 61bb cabb 05bd 0163 cc3d
00000300: 87c8 26bd 9c40 e7bc 20d7 bf3d 43a5 a2bd
00000310: d1c2 473c de97 413e 5264 333e b0bc 693d
00000320: a5cd bb3d 0da2 3e3d 0576 023d 5148 483c
00000330: 54d0 95bd 6de3 b53d 02d8 3abc 09a7 2d3e
00000340: c3c7 673c eac8 6dbc a511 283e 4636 893d
00000350: 34d3 233d fff3 ed3d 169b 293e 09c3 13bd
00000360: 4944 b3ba 8a05 94bc 11a2 49bd 0353 473c
00000370: 54ee adbd 883f c0bd 31bb 363d cfb1 98bc
00000380: 5897 3f3d 072e 1abc fa1b 67bd 73b9 52bd
00000390: 66c7 30bc 0247 2d3d c072 5ebd fd08 673d
000003a0: c972 09bc 3b96 083d 7628 f9bb 9527 ca3d
000003b0: 7f5f da3d 8f53 473d 1b1c 2f3d d0da 333d
000003c0: 1025 b73d db00 13bd a09e 813b e650 e5ba
000003d0: 0c41 ea3b a0a9 0bbe 2825 af3d 9eaf ca3d
000003e0: 096d 373d 2680 173e 8ba8 8d3c 13c0 df3d
000003f0: f89b 0d3d e51f fa3d e66a 7fbd ff45 ce3d
0.051599015 0.01491215 -0.015047577 -0.024582507 0.06650045 -0.038904015 -0.06803758 -0.017823275
-0.09098953 0.04186673 -0.029414082 0.055622768 0.0027867656 0.05751453 -0.020233156 -0.012909038
0.013191746 -0.07620363 0.016239582 0.008519281 0.012438835 0.061332792 0.107574575 0.14608628
0.05022228 0.093387865 0.051159203 0.116711676 -0.13839896 -0.20138434 0.13987549 -0.095633715
-0.08902774 0.05133219 0.08327078 -0.011124457 0.08194476 -0.10676411 -0.13976736 -0.09398879
-0.09334359 -0.054498363 -0.12170288 -0.14911817 -0.19122924 0.09872705 -0.007227579 -0.14441621
-0.017929163 -0.024454264 -0.15060355 -0.06670221 -0.06036305 -0.14351201 0.04499967 0.024731664
-0.3143448 0.07265748 -0.04636212 0.0022291425 0.11189311 0.18462865 0.040084343 0.11221565
-0.046303548 -0.021827783 0.08512369 0.01831775 -0.051145915 0.024600552 0.29405934 -0.03042658
0.14550205 0.14173068 0.12095408 0.12812042 0.16779372 0.12058548 -0.11067958 0.1164635
0.120763734 -0.052909512 0.10380088 -0.005229171 -0.06985818 -0.04963673 0.052542042 0.05788213
-0.004830286 -0.03687336 -0.13143834 0.01871212 0.004762958 -0.15149404 -0.24488232 0.04333835
-0.0017999888 -0.16646554 -0.069601834 -0.18056351 -0.103170924 -0.026714517 -0.018048037 -0.26623443
-0.027343549 0.10155146 -0.040194135 -0.029414402 -0.4045117 -0.19185951 -0.02412792 -0.13685654
-0.08642149 -0.04998891 -0.07933689 -0.13342631 -0.054686002 -0.016614668 0.013079484 0.046910916
0.034852512 0.032908514 -0.031428266 -0.06059288 0.005763527 -0.02667212 -0.46018666 -0.27639782
-0.024198484 -0.31632584 -0.29009044 -0.09687719 0.08424723 0.011449369 0.078335784 0.021654533
-0.0032248497 -0.28830445 -0.14649929 -0.045758907 0.014389025 0.2675822 -0.032409303 0.09889584
-0.12781663 -0.0830802 -0.05599764 -0.048421223 0.011094086 0.08180685 0.17764628 -0.037734885
0.14568901 0.030251082 0.1351118 -0.0695447 0.10333184 0.032275338 0.06252761 0.3125119
0.030763803 -0.025662689 0.16195485 0.1306366 0.14939335 -0.024407422 -0.062246557 0.07772324
-0.16906366 -0.18626139 0.16024858 0.023585634 0.04538085 0.11633328 -0.12159418 -0.13155238
0.09803761 -0.14173569 -0.006054286 0.11681874 -0.20305803 -0.06029399 0.1471761 -0.16128564
-0.09813804 0.23223282 -0.034282744 0.12070672 0.12758262 -0.0034446302 -0.032649793 0.09979821
-0.04071858 -0.02822905 0.09367204 -0.079416774 0.012192444 0.18905589 0.17518738 0.057064712
0.09170083 0.046541262 0.031850833 0.012224273 -0.07315126 0.08881269 -0.011404039 0.1695825
0.014146748 -0.014513234 0.16412981 0.06699805 0.03999634 0.11618804 0.16563067 -0.036074672
-0.0013676967 -0.018069047 -0.049226824 0.012165788 -0.08492723 -0.093871176 0.044612113 -0.018639473
0.046775192 -0.009410388 -0.056423165 -0.05144639 -0.010789728 0.042304046 -0.054308653 0.056405056
-0.008389183 0.033346396 -0.0076037003 0.09870831 0.10662746 0.048663672 0.042751413 0.043909848
0.08942616 -0.035889488 0.003955677 -0.0017495423 0.0071488675 -0.13638926 0.08552009 0.098967776
0.04478172 0.14794978 0.017292282 0.10925307 0.03457257 0.12213115 -0.062357806 0.100719444

Generator.conv4.conv1.0.weight f4 [8, 8, 3, 3, 3]
00000000: bd41 f0bc bd3d 9f3c 41b8 c9bc f557 40bb
00000010: 540c 563d 5564 5bba dd5c 6c3b 172e 353d
00000020: e01a e5bb 728c 39bd d248 95bc 6e23 9ebd
00000030: 7409 a0bd cb93 03bd 50f2 61bd 1f80 be3d
00000040: e3fa f93c a4ed 623d 5818 2e3d 3558 cb3c
00000050: 8d01 923d 278e 083d 23e5 01be 13bf 883c
00000060: 903e 82bd 6079 3abd 0274 a13c bc2e 04bd
00000070: 69b9 393d 89d3 aa3d 2bde 143a cf9c 823d
00000080: 336d 683d f773 b6bd 8e70 923d c52e fbbc
00000090: d559 3abc 158d eebc b0e5 60bd e126 f43a
000000a0: bf5e 00bd 137c 82bd aefa 243c f271 413d
000000b0: 3680 2a3d 1632 853d e4b4 4abd 24b9 84bd
000000c0: 6643 523d 247d 17bd cf38 483c a871 a23d
000000d0: 3b39 4f3d 73c4 d23c b4b3 06be 024e 00be
000000e0: ddb1 d4bd eb75 23bd f452 423d f6ad 5abd
000000f0: 050e 353d bcdb 493d 08aa b43c 62ea aabc
00000100: 6b5d 28be 10e8 97bd 1e1d 353c 4545 93bd
00000110: d23a a2bd 11c3 e53b e39c 923d dfbf 6a3c
00000120: 07e3 a63d d229 04bc d7c4 91bc 2989 85bc
00000130: 7e7b febd a37c f83c 275a f3bc 3738 5cbd
00000140: 3413 523b 9b30 c83c 8ff5 b9bb f1cb 31bd
00000150: 8485 ad3a 9028 02bd c27f aebd 5901 2d3d
00000160: 7ec3 d23c 2d69 8c3d 8afd b93c 64f0 41bd
00000170: dc0d c3bc d1da d9ba cd67 93bd d4e8 0fbd
00000180: ae19 e23d df5f dc3d 5e99 473d 8f5c 7abc
00000190: 4426 9ebd def6 82bd 2231 84bc 1a66 f23b
000001a0: 2eba 01be f113 bf3d 4c76 b63c aa46 873c
000001b0: 1c50 ddbd f202 a3bd 3bd8 bb3c 631e 89bc
000001c0: 81cc 6b3d 0af4 123d 6952 bd3c 8c06 873d
000001d0: f42a 773c edad a0bb 5444 44bc 5cba 413c
000001e0: 8945 d1bc 78bb c2b8 6e28 3c3d 1b75 f83c
000001f0: 859c 053c 771a 403b 5328 a63d 3ebd 06bd
00000200: 632d 863d 1680 c73c 6da9 293c 232a d3bc
00000210: 1c7e 1cbc af72 4a3d 0325 d33c d0e1 d4bc
00000220: df30 d93c 0801 cabd ab75 c63c d053 053e
00000230: 5fa4 d43c 0c01 8c3d 1e45 523d ac8b 26bd
00000240: fd53 26bc 92f4 173c 8c01 26bd 7abd 11bd
00000250: 3630 93bd 41d0 c538 06d6 893c 62ee 483c
00000260: 9e60 63bc 6c68 5b3d cd76 35bc 3cb3 dabc
00000270: 63e0 933c 8966 4bbd 22be 71bd 8454 6d3c
00000280: 918e 77bd f6ca d7bc 928d 03be 0c78 6bbc
00000290: f556 ffbd aac7 b43b ef25 ba3d 0383 ae3d
000002a0: 7357 963a 75d2 b03c 5967 5f3b 3700 dcbd
000002b0: 6303 21bd c96f 793c 86b5 01bd 3be9 0ebe
000002c0: 3bfa 07bc ab89 973d 4f02 a53d c9a7 27bc
000002d0: cdb1 c43d 5d05 013e 2d68 f03c a87a 73bd
000002e0: 1a95 0fbd 2c82 823c ffae 8abd 9d14 88bc
000002f0: 8d9a 8dbc a322 30bd 375d 6fbd c5c3 cebd
00000300: b457 92bb 6382 463c ccb1 26bd f515 af3c
00000310: 82bb 25bc f9b1 023d 6e92 a43c 2891 e9bd
00000320: 6fca be3c 8c88 c13c 5b54 60bd 98e6 dabc
00000330: 73cb b33d 2088 9f3d c69f 0cbd f5ce 523d
00000340: 074a d13b 4619 9dbd e6a5 c63b 0aa4 a4bd
00000350: 8a2c e1bd c47d 3c3c 2578 21bc f649 013d
00000360: 33a6 64bc 70aa a73d 394c 603d 85c8 c53c
00000370: e3af f43d b5af 463d e560 3abd 36b4 bc3c
00000380: 3e32 6f3d a652 463d ae71 603d ea8c 093c
00000390: a086 4fbd 9e03 0e3d 6008 613d 6834 4a3a
000003a0: 62a1 0b3c 156a 113d 2703 173c 298f 96bd
000003b0: e263 44bd 8914 413d 25f5 eabd 1fd9 f1bd
000003c0: d0bd 803d 2226 783c a07a 6abd 85b3 31bd
000003d0: c2da a23d 52a0 ad3d 25c7 a3bd cf99 f23d
000003e0: f373 cb3d 3a2c 29b9 d7b3 ddbd ecb9 35bd
000003f0: 37ec 79bb 671d 163d 88d0 413c 48e4 81bc
-0.029328221 0.019438619 -0.024623992 -0.0029349301 0.05225785 -0.00083691376 0.0036066093 0.044233408
-0.006991729 -0.045299955 -0.0182232 -0.077216014 -0.07814303 -0.03212337 -0.055162728 0.09301781
0.03051514 0.055402413 0.042503685 0.024822334 0.07129202 0.033338692 -0.12685065 0.016692674
-0.06359589 -0.04552591 0.019708637 -0.032271132 0.045342837 0.083411284 0.00056788576 0.06377565
0.056744765 -0.08908837 0.07150374 -0.03066195 -0.011373957 -0.029120008 -0.054906547 0.001862731
-0.031340357 -0.063713215 0.010069532 0.047227807 0.041626178 0.06503694 -0.049488917 -0.06480625
0.051333807 -0.036984578 0.0122205755 0.079318345 0.05059169 0.02572844 -0.13154489 -0.12529758
-0.10385487 -0.039907377 0.04744239 -0.05338856 0.044202823 0.04928182 0.022053733 -0.020863716
-0.16441886 -0.07417309 0.011054305 -0.071909465 -0.07921375 0.007011779 0.0715883 0.014327972
0.08148771 -0.008066611 -0.017794056 -0.016300755 -0.12425898 0.030332869 -0.029706074 -0.05376455
0.0032054903 0.02443724 -0.005675025 -0.043407384 0.0013238643 -0.031776965 -0.085204616 0.042237613
0.025727984 0.06855998 0.022703905 -0.047348395 -0.02381032 -0.0016620999 -0.07197533 -0.03513415
0.11040054 0.107604735 0.048730247 -0.015280857 -0.07722142 -0.063947424 -0.01613671 0.0073974254
-0.12668678 0.093299754 0.022273205 0.016513187 -0.10806295 -0.07959546 0.022930255 -0.016738122
0.057568077 0.035877265 0.023110585 0.065930456 0.015085924 -0.004903546 -0.011979181 0.011824217
-0.025545852 -9.28556e-05 0.045936994 0.030329278 0.008154993 0.002931265 0.0811316 -0.03289532
0.065516256 0.024353068 0.010355336 -0.025776928 -0.009551551 0.049425777 0.025774485 -0.025986582
0.026512561 -0.09863478 0.02422603 0.13020253 0.025957284 0.06836137 0.051335447 -0.040660545
-0.01015186 0.009274619 -0.04052882 -0.03558109 -0.0718693 9.432482e-05 0.016825687 0.012263866
-0.013878016 0.05356638 -0.011075688 -0.026696794 0.018051332 -0.049658332 -0.059019215 0.014485482
-0.060438696 -0.026341897 -0.12846974 -0.014371883 -0.124677576 0.005516966 0.090892665 0.08521082
0.0011470154 0.021584729 0.00340887 -0.107422285 -0.03930987 0.015224406 -0.031667255 -0.13956158
-0.008299406 0.07399305 0.08057081 -0.010232874 0.09604225 0.12599702 0.02934655 -0.059443146
-0.035054304 0.015931211 -0.06771659 -0.016611392 -0.01728561 -0.043001782 -0.058438506 -0.10095934
-0.0044660214 0.012116048 -0.040696904 0.021372775 -0.010115506 0.03190801 0.020089354 -0.114046395
0.023289887 0.023624681 -0.054767948 -0.026721284 0.08779039 0.07789636 -0.03433206 0.0514669
0.0063869986 -0.07670836 0.006062257 -0.080391005 -0.10994823 0.011504594 -0.009855305 0.031564675
-0.013955641 0.08186805 0.05476019 0.024143467 0.1194761 0.04850741 -0.045502562 0.02303515
0.058397524 0.048418663 0.054795913 0.008395413 -0.050665498 0.03467142 0.054939628 0.00077134976
0.008522363 0.03550156 0.00921706 -0.073515244 -0.04794682 0.047138724 -0.11472539 -0.11808991
0.06286204 0.01514581 -0.05724585 -0.043384094 0.07951881 0.08477844 -0.07996968 0.11845743
0.09934225 -0.00016133572 -0.10825317 -0.044366762 -0.003813518 0.036649134 0.011829503 -0.015855923

Generator.conv4.conv2.0.weight f4 [8, 8, 3, 3, 3]
00000000: 26ed 3c3d 0368 9a3e 4bb5 bbbd a7a8 06be
00000010: 98e0 c9bd 7f3a bb3c 4696 833d 24df 4c3d
00000020: 8dca 463e afce 2bbd 57d4 0d3e aa8d c83c
00000030: 915a 363c 4661 9abd cbbd 8abd 64db ca3d
00000040: 6928 8f3e 0f2b f53d 6675 2ebd 9c29 773d
00000050: d030 5bbd ef2b 2abd 8f36 e1bc 4bc8 783d
00000060: c908 c23d 5650 1c3e 54a6 463d 46fa 87bc
00000070: 8544 bebd bd41 413e a71e 6d3d ca22 073e
00000080: 52b5 90bc f3b0 d03d 074f f1bc 989b 44ba
00000090: e4bf e03c f75c 94bd f210 533d e0c7 15bd
000000a0: 6a13 2b3e 529c fe3c e5f2 09bd b1ee d03d
000000b0: deea bbbd 2b26 df3c 1b7d d23b 8db2 28bd
000000c0: e5ba e1bc be85 ac3c 0009 02be 422a ee3c
000000d0: 9e63 3a3e 789a 803c d6fc 60be a9dc fabc
000000e0: d47e 483e 0152 20be 57f4 19be 44e2 14bd
000000f0: b5e3 fabc c86f f63d 7eed 183e bd2f 0ebf
00000100: dee7 cebd 3637 053e 4235 04be a171 8dbd
00000110: 381e 26bd ff3e aa3d 799b cf3d 97e3 1b3e
00000120: b77e e7bd 196f 16be c1c4 343b 565b 24be
00000130: a2e8 c3bd 47f6 57bd bb9e 40bd 572e 873e
00000140: c44b 183e 39fe 2fbc 9048 31bd d2cb 223d
00000150: 3db9 04bd 6c57 1ebd 1d23 7ebd 15be 103e
00000160: 1150 bbbc 2cde afbd e9e4 00bb c04b c03c
00000170: b507 3abc 1a81 773d 1b06 723d ccd3 0f3d
00000180: 7554 c2bd 5d84 b93b 92ce 8fbd 043e 803d
00000190: 782d ae3c c7d2 3cbd d151 3c3e 4692 9d3d
000001a0: 58be 0c3d 79a7 cebd 4149 d0bd 9f07 dcbd
000001b0: 62b3 b3bd 4794 afbc 99a6 89be fef9 153c
000001c0: c8f9 a43d deed f9bd 9ae4 55bd e1e6 c2bd
000001d0: 1cdb 23be 9912 01be 9f4e b6bd 26be b2bc
000001e0: b8c5 a5bc c1b1 60be bbcf f7bd 9a72 58bd
000001f0: 05fd d5bd 3d4d b83c 70d6 07be 2334 643d
00000200: 398e 163e ee79 af3b e70c 5bbe 610a 30be
00000210: 8c6e 703d 517c 27be a356 0fbe 9883 053e
00000220: 4ccb 7abd 6e91 91bd 8f43 0ebd 78bc 06be
00000230: 8c40 30be b3ee 6fbd bef1 c03d 6d0f 3fbd
00000240: cb43 0b3e 3208 313d 98c3 913c 9bca 563e
00000250: e112 a83d d3b7 b43c 618d 043e 6383 ed3d
00000260: 9973 41bd 2636 d1be a2ac 94be f30b 1bbe
00000270: e7c2 13be fcca bf3d bba1 0f3e d051 29be
00000280: d210 703d 9999 a33d 99b4 023c 7d29 a13c
00000290: 3844 28be ac19 14bc cc69 b1bd 164a 9abd
000002a0: cd22 7e3c 90f3 1d3d e00f 203e c286 c2bd
000002b0: 0453 9dbd ef4e f2bd 3f5c 15be bf8f 4abe
000002c0: e0c4 043c 8fb0 0a3e 2710 bd3d 5a8d 373d
000002d0: 509c 0bbd 42b5 0e3d 74d6 05be e20a 9fbe
000002e0: 63cf 0e3d 470b f5bc 0a19 72be 73f1 233e
000002f0: 70be d03a b35a 01bd e236 42bc a7e3 1dbc
00000300: e04f 86bd 3c04 77be 6e75 59bc e6cf 55bd
00000310: b7ec bcbd 0b50 213b 9aae a9bb c790 25bd
00000320: c42a d03d feaa 22bd 7b54 acbd f59b 0c3d
00000330: 2beb d73c d9ad 07bd 4911 383c 9c98 d53d
00000340: 003d 883c 3c35 143e ca74 823d d4e2 38bd
00000350: fb84 093d 00ea ff3d 7a25 883c 6a19 16bc
00000360: 2586 8bbd 6dc6 fe3d b616 10bd 6a7b 3ebe
00000370: 16fe 1bbe 6857 273e bbaa 093c 68ad bcbd
00000380: 419e ff3d 139d 08be 02e6 b13c 307b e2bd
00000390: 5ef6 7fba f3fe c2bd 8704 903d e69b e63d
000003a0: a32a 8ebd 97f4 4a3d 4e4f 37bd 9545 903d
000003b0: 36b3 96bd f991 9bbc 67bb eb3d 1d72 da3d
000003c0: eb48 7c3c d836 b83c 0b23 923d 961c 5bbd
000003d0: 0903 163d 6075 e5bd 5cc7 5fbc f1c5 973e
000003e0: f5c6 38bd af46 07be 841f 413d 24c6 383e
000003f0: 0451 aa3c 8741 ab3d 36fd d73d c231 fa3c
0.0461246 0.3015748 -0.09165438 -0.13150273 -0.09857291 0.022855042 0.06425147 0.05001749
0.19413204 -0.041945156 0.13850532 0.024481613 0.011129991 -0.07538085 -0.067744814 0.09905127
0.27960518 0.119711034 -0.04259243 0.060342416 -0.053513348 -0.041545805 -0.027491836 0.06073789
0.09474332 0.1526502 0.048498467 -0.016598832 -0.09290413 0.18872733 0.05789056 0.13196865
-0.017664585 0.101900004 -0.029456628 -0.0007499992 0.02743525 -0.07244294 0.051529832 -0.03656757
0.16706625 0.031080399 -0.033678908 0.10201777 -0.09175657 0.02723988 0.006423605 -0.041185904
-0.027554939 0.021059867 -0.12698746 0.029072884 0.18202063 0.015698656 -0.2197145 -0.030622797
0.19579631 -0.15656282 -0.15034615 -0.036348596 -0.030626157 0.12033039 0.14934346 -0.5554159
-0.10102819 0.13009343 -0.12910941 -0.069064386 -0.040556163 0.08312797 0.10137076 0.15223537
-0.11303466 -0.14690818 0.0027583095 -0.16050467 -0.095658556 -0.052725103 -0.047026377 0.26402542
0.14872652 -0.010741764 -0.04328209 0.03974516 -0.03240322 -0.03865759 -0.062045205 0.1413501
-0.022865327 -0.08587298 -0.001966769 0.02347362 -0.011354377 0.060425855 0.059087854 0.035114095
-0.09488765 0.005661531 -0.07021822 0.062618285 0.021261916 -0.04609945 0.18390585 0.07693915
0.034361213 -0.100905366 -0.10170222 -0.10743641 -0.08774449 -0.021433009 -0.26884916 0.009153841
0.080554545 -0.12203573 -0.052219965 -0.09516693 -0.16001552 -0.1260475 -0.089017145 -0.021819185
-0.020235881 -0.21942808 -0.12100168 -0.052843668 -0.1044865 0.022497768 -0.13265395 0.055713784
0.14702691 0.0053551113 -0.2139164 -0.17191459 0.058699176 -0.16356017 -0.13997893 0.1303848
-0.061229035 -0.07107817 -0.034732398 -0.13157833 -0.17212123 -0.05857725 0.09421109 -0.04664557
0.1360008 0.043220706 0.017793462 0.20975725 0.08206726 0.02206031 0.12944557 0.11597326
-0.047229383 -0.40861624 -0.29037958 -0.15141277 -0.14429818 0.09364888 0.14026539 -0.16535115
0.05860979 0.07988281 0.007977628 0.019673103 -0.16432273 -0.009039324 -0.08662757 -0.07533662
0.015511227 0.038562357 0.15631056 -0.09498359 -0.076818496 -0.11831462 -0.1458597 -0.19781397
0.008103579 0.13543914 0.092315964 0.044812538 -0.034084618 0.03484083 -0.13070089 -0.3106299
0.034865748 -0.029912604 -0.23642364 0.16010074 0.0015925895 -0.03158064 -0.011853905 -0.009636796
-0.06558204 -0.24122709 -0.013272626 -0.05220022 -0.09224837 0.002461436 -0.005178285 -0.040421274
0.10164407 -0.039713852 -0.08414551 0.03432842 0.026357254 -0.03312478 0.01123459 0.104294986
0.01663065 0.14473432 0.06369932 -0.045138195 0.033574086 0.12495804 0.016619433 -0.009161333
-0.068126954 0.124401905 -0.03517791 -0.18601766 -0.15233645 0.16341937 0.008402522 -0.09212762
0.124813564 -0.13341169 0.021716122 -0.110586524 -0.00097641896 -0.09521284 0.070321135 0.11260204
-0.06941726 0.049549665 -0.044753365 0.07044522 -0.073584005 -0.018990504 0.115103535 0.10666297
0.015398244 0.022487089 0.0713559 -0.05349406 0.03662399 -0.11204028 -0.013658371 0.29643205
-0.045111615 -0.13210557 0.047149196 0.18044335 0.020790584 0.08362108 0.10546343 0.030541304
