DeepWonder3D_pytorch/pth/SEG_pth/Unet4_no_end_UNet3DFFD_20240401-1432_2um/seg_209.pth (torch, 138281 bytes, 19 tensors)

Generator.conv1.conv1.0.weight f4 [8, 1, 3, 3, 3]
0.11405842 0.09969401 -0.055121697 0.14201748 -0.12016045 -0.1226494 0.0026656587 0.0016291477
0.09987686 0.03933949 -0.15745027 0.0906149 0.12798323 0.10837966 0.03620808 -0.18717462
0.09023216 -0.20270391 -0.110963956 -0.112367295 -0.058616057 0.03370652 -0.05025876 0.05979731
-0.2145129 0.02848143 0.15922691 0.15648817 0.15535606 0.0152639635 0.08553825 -0.13373435
-0.18251622 0.13728152 0.021770503 -0.08062213 -0.11442581 0.15752696 -0.04341659 -0.12931323
-0.077128865 0.008225876 -0.19568598 -0.2127845 -0.017993523 0.12032752 0.033631254 0.20646507
0.17318723 -0.086631835 0.16097568 0.09229309 -0.12675153 -0.07688452 0.06819344 -0.03760409
-0.11603357 0.029739978 0.10174662 -0.004400108 -0.16309364 -0.115169585 -0.05924321 0.036908425
0.0964494 0.018281715 -0.043975696 0.03925885 0.07310949 0.054971546 0.0035390514 0.011000872
-0.1566345 0.044851307 0.04729197 -0.000357015 -0.06625346 0.0937944 -0.38183188 0.018571584
-0.24544153 -0.09127493 -0.14963987 0.15604419 -0.19811767 -0.073325485 -0.022157809 0.080392756
-0.11468314 0.054788716 -0.2071912 -0.059633676 0.02622371 0.101854354 -0.19832717 -0.16378284
-0.036675084 0.124825686 0.08693748 -0.054909125 0.0627342 0.0905422 -0.064529486 0.058505442
0.07863208 0.015424824 -0.16351597 -0.22251178 0.16701582 -0.16803916 -0.059723165 -0.1264315
-0.03454685 0.009537525 -0.036451213 0.06072097 0.040973853 0.00025896772 0.09104777 -0.18983549
-0.04968095 -0.038198337 -0.002265049 0.115826465 0.02016422 0.124621265 -0.18079157 0.0667757
0.1053207 0.0997905 0.033315033 -0.10693985 -0.14932966 -0.0820356 0.10589508 0.036552515
-0.106854625 0.12163818 0.11014587 -0.06849611 -0.12798828 -0.18514718 0.18099065 0.019108906
-0.082973346 -0.18579854 0.062980406 0.096450634 -0.1687229 -0.21117228 -0.0744733 0.07554636
0.14952609 -0.028917098 -0.03629124 0.12095933 0.023548022 0.1672559 -0.084133 0.00012090305
-0.043285955 0.19632588 -0.21559033 0.16366346 -0.07951721 0.08498663 0.0040896256 -0.04867139
0.030081056 -0.021185903 0.057188727 0.058527105 -0.067193575 0.22551765 -0.20581637 -0.082140505
0.024210636 -0.056815192 0.11945277 0.04398054 -0.07315345 -0.05229647 0.10282499 -0.14482434
0.052790325 0.10281002 -0.12614435 -0.0021945946 0.1600438 -0.05148645 0.13024439 0.01704803
0.040071074 0.10804083 -0.20894083 -0.06977699 0.004061488 0.12411151 -0.035138827 -0.07534646
-0.049496293 -0.20417008 0.13959831 -0.09306858 -0.08648943 0.17082708 0.025705203 -0.06841817
-0.0299546 -0.012801714 -0.21279554 0.09716394 -0.106510095 -0.18539143 -0.08225241 0.1043315
00000000: 7697 e93d 602c cc3d 4ac7 61bd 086d 113e
00000010: af16 f6bd 9c2f fbbd 55b2 2e3b 2089 d53a
00000020: 3d8c cc3d 7222 213d a53a 21be 4e94 b93d
00000030: 090e 033e 28f6 dd3d ec4e 143d b4aa 3fbe
00000040: a4cb b83d 9d91 4fbe 1241 e3bd d320 e6bd
00000050: 6417 70bd d90f 0a3d 21dc 4dbd 06ee 743d
00000060: 45a9 5bbe e351 e93c 610c 233e 6f3e 203e
00000070: a915 1f3e b415 7a3c ae2e af3d a8f1 08be
00000080: 88e5 3abe 8793 0c3e 0e58 b23c 371d a5bd
00000090: 1458 eabd bf4e 213e 98d5 31bd b06a 04be
000000a0: bdf5 9dbd d3c5 063c e861 48be 2ee4 59be
000000b0: 2767 93bc 466e f63d edc0 093d 946b 533e
000000c0: fe57 313e 086c b1bd cfd6 243e 2904 bd3d
000000d0: 27cb 01be a275 9dbd 01a9 8b3d bf06 1abd
000000e0: 02a3 edbd 41a1 f33c 8860 d03d c82e 90bb
000000f0: 0502 27be 08de ebbd 02a9 72bd 4a2d 173d
00000100: 4387 c53d 89c3 953c dc1f 34bd e3cd 203d
00000110: 6eba 953d d829 613d 6eef 673b 003d 343c
00000120: cb64 20be 01b6 373d 3ab5 413d be2d bbb9
00000130: e5af 87bd 4717 c03d 787f c3be 6f23 983c
00000140: 0655 7bbe 5aee babd 323b 19be 0cca 1f3e
00000150: 5cdf 4abe ac2b 96bd 4b84 b5bc f5a4 a43d
00000160: fede eabd 226a 603d ee29 54be 7142 74bd
00000170: 1bd3 d63c 0499 d03d 4716 4bbe b0b6 27be
00000180: 9d38 16bd 9ca4 ff3d 470c b23d 64e8 60bd
00000190: ca7a 803d 306e b93d 0928 84bd 67a3 6f3d
000001a0: db09 a13d 67b8 7c3c bb70 27be 21da 63be
000001b0: 3206 2b3e 7512 2cbe 47a0 74bd 4277 01be
000001c0: ff80 0dbd 4743 1c3c de4d 15bd 8db6 783d
000001d0: 33d4 273d 0fc6 8739 4177 ba3d 3c64 42be
000001e0: 407e 4bbd dc75 1cbd 3771 14bb 6d36 ed3d
000001f0: 6f2f a53c 6f39 ff3d 6d21 39be b3c1 883d
00000200: 61b2 d73d f65e cc3d 5875 083d 4803 dbbd
00000210: e0e9 18be 4802 a8bd 85df d83d 17b8 153d
00000220: 99d6 dabd 701d f93d 2894 e13d b047 8cbd
00000230: 5c0f 03be 3997 3dbe 9d55 393e 488a 9c3c
00000240: eeed a9bd f941 3ebe dffb 803d e987 c53d
00000250: b2c5 2cbe 8c3d 58be 7585 98bd 0db8 9a3d
00000260: 5e1d 193e 8de3 ecbc 20a6 14bd 86b9 f73d
00000270: c8e7 c03c 2145 2b3e ec4d acbd 558d fd38
00000280: 9d4c 31bd a709 493e b6c3 5cbe 6597 273e
00000290: ebd9 a2bd 780d ae3d 4402 863b a75b 47bd
000002a0: 8c6c f63c 0f8e adbc ba3e 6a3d 1eba 6f3d
000002b0: c99c 89bd 19ee 663e 87c1 52be 4839 a8bd
000002c0: 6255 c63c 0cb7 68bd a7a3 f43d f024 343d
000002d0: 7ad1 95bd d334 56bd e995 d23d d54c 14be
000002e0: ab3a 583d 0f8e d23d fc2b 01be 30d3 0fbb
000002f0: 86e2 233e 75e3 52bd c95e 053e 4fa8 8b3c
00000300: 9121 243d 8344 dd3d 96f4 55be 3de7 8ebd
00000310: 3b16 853b 2d2e fe3d bbed 0fbd 3f4f 9abd
00000320: a0bc 4abd f611 51be dcf2 0e3e bd9a bebd
00000330: 5f21 b1bd 4bed 2e3e b893 d23c d31e 8cbd
00000340: 5963 f5bc 48be 51bc 13e7 59be e3fd c63d
00000350: f721 dabd 40d7 3dbe f473 a8bd c1ab d53d

Generator.conv1.conv2.0.weight f4 [8, 8, 3, 3, 3]
0.12846309 0.046596333 0.05849296 -0.0007707849 -0.045808416 0.029552324 0.18170094 0.14390571
0.29308733 0.013702299 0.015490378 0.030836647 0.037663557 0.09519097 -0.009640564 0.07020712
-0.014528109 0.12883444 0.032093212 0.14325613 0.13727495 0.12713407 0.15849054 0.142287
0.14056191 0.15701553 0.17819141 -0.14303266 -0.052318934 -0.16710852 -0.06409592 -0.041257072
-0.2016527 -0.024881164 0.068741955 -0.0833762 -0.120137475 0.16533016 -0.19345766 -0.061374817
0.11985981 -0.4168687 -0.0467966 0.06848655 0.022293577 0.03240706 0.20326684 -0.3010867
-0.0628228 0.13119729 -0.40840146 -0.093158804 0.019686481 0.0067547574 0.096009314 0.022110207
0.029318286 -0.007023614 -0.058540072 -0.021177558 0.054890826 0.017049609 -0.040655654 0.15172485
0.015764715 0.0138326 0.013975773 0.037982665 0.111321844 0.12128046 0.042442683 0.052401017
0.05631229 0.002709674 0.09240403 -0.08508573 0.002649815 0.019879423 0.092318766 0.097869806
0.06080776 -0.023967206 0.061852712 0.041499224 0.14002484 0.0020506054 -0.0062915897 0.008180452
-0.03987384 0.008716612 0.020810368 0.017795738 0.04262752 -0.045561016 0.014793509 0.05740492
-0.034949496 0.02328231 0.02806452 0.06678517 -0.04626278 -0.048626237 -0.007759887 0.03818489
0.05206426 0.030274693 0.03842955 0.019161472 0.023044776 -0.16415322 -0.12914012 -0.049447455
0.005352374 -0.13333888 0.01817283 0.0142640155 0.049219538 -0.063888066 0.029208722 0.12310667
-0.022307957 0.075664334 0.10279801 -0.07658128 0.120657556 0.11888343 -0.08431821 0.17876486
0.12659127 -0.049716663 0.15828747 0.0036740836 -0.24034457 0.1231769 0.028814277 0.003569061
0.19186153 0.06543924 -0.04849039 0.03901287 -0.06422462 0.032768015 -0.17459898 -0.067273
-0.16735385 0.1943396 0.08509446 -0.08831136 0.07726381 -0.0137139065 -0.014957174 -0.024709325
-0.10670154 -0.042371076 0.20970042 0.1378139 -0.044776242 0.18455936 0.0877548 -0.11390908
-0.05593969 -0.014570729 0.06392998 -0.10793079 -0.13491867 0.062361408 -0.07156397 -0.0770665
0.13010551 -0.16601378 -0.0042826906 0.050693553 -0.1641604 -0.022263702 0.029378748 -0.016106715
-0.07209944 -0.049472682 -0.15380117 -0.021378448 0.042470787 -0.048449855 0.109820604 -0.012972441
0.09631503 0.08502947 -0.07096504 -0.31911543 -0.03052101 0.0047833915 -0.07045531 0.004232758
0.054837223 0.028242446 0.044788845 0.059278946 -0.06877646 0.010657269 0.010730722 -0.23699382
0.055969436 0.006748219 -0.1878621 0.11492083 0.09118501 -0.2645906 0.06607119 -0.10663847
0.07623927 -0.15886118 -0.15258984 0.13444237 -0.15697092 -0.21875173 0.053771187 -0.12327972
0.18913378 0.2497248 0.26340255 -0.0024696449 0.07218709 0.12379473 0.2857522 0.28832564
0.26658717 0.12648289 0.06088083 0.18252774 0.031513903 0.06701787 0.053216256 0.06789029
0.00016642196 0.07344962 0.07160231 0.09421319 0.02840808 0.10060772 0.08249844 0.08262945
0.06954204 0.004006538 0.10497439 -0.07651575 -0.051206175 -0.046645615 -0.05127593 -0.08710252
0.0057662306 0.025392042 0.0040587536 0.002042572 0.07745179 -0.013508666 -0.004197151 0.0745383
00000000: d48b 033e ccdb 3e3d 5096 6f3d 800e 4aba
00000010: 9ba1 3bbd b717 f23c d00f 3a3e 055c 133e
00000020: 8b0f 963e 9c7f 603c 5bcb 7d3c 239d fc3c
00000030: 1a45 1a3d 7cf3 c23d 75f3 1dbc c0c8 8f3d
00000040: 4e07 6ebc 2ded 033e 2c74 033d bcb1 123e
00000050: ce91 0c3e 6f2f 023e 584b 223e afb3 113e
00000060: 76ef 0f3e aec8 203e cf77 363e 2777 12be
00000070: 614c 56bd 7f1e 2bbe b944 83bd 2dfd 28bd
00000080: 0c7e 4ebe 95d3 cbbc 95c8 8c3d 24c1 aabd
00000090: a30a f6bd 4f4c 293e c419 46be 2964 7bbd
000000a0: 0f79 f53d d06f d5be cbad 3fbd ad42 8c3d
000000b0: 05a1 b63c 44bd 043d 2f25 503e 0928 9abe
000000c0: 3da9 80bd 9558 063e ff19 d1be 0bca bebd
000000d0: 8b45 a13c 0357 dd3b 88a0 c43d 7720 b53c
000000e0: e72c f03c 5826 e6bb b7c7 6fbd 8f7c adbc
000000f0: 34d5 603d 9fab 8b3c 8b86 26bd c25d 1b3e
00000100: 0125 813c 21a2 623c a4fa 643c b693 1b3d
00000110: b5fc e33d e461 f83d 61d8 2d3d 73a2 563d
00000120: b7a7 663d c994 313b 533e bd3d 6d41 aebd
00000130: 85a8 2d3b 2cda a23c 9f11 bd3d f76f c83d
00000140: 8f11 793d e056 c4bc 4559 7d3d 17fb 293d
00000150: ac62 0f3e 7363 063b ae29 cebb 4d07 063c
00000160: c052 23bd 1fd0 0e3c 817a aa3c 5ec8 913c
00000170: 329a 2e3d 309e 3abd 7960 723c 6c21 6b3d
00000180: 3427 0fbd 8bba be3c 90e7 e53c aac6 883d
00000190: 0a7e 3dbd 4e2c 47bd a646 febb c267 1c3d
000001a0: 5541 553d a202 f83c 4e68 1d3d 85f8 9c3c
000001b0: 66c8 bc3c c817 28be 4f3d 04be 6a89 4abd
000001c0: f862 af3b fd89 08be 30df 943c 9eb3 693c
000001d0: 6d9a 493d bfd7 82bd 2147 ef3c 5a1f fc3d
000001e0: 2dbf b6bc e7f5 9a3d c387 d23d a5d6 9cbd
000001f0: 4f1b f73d 2879 f33d 07af acbd 230e 373e
00000200: 24a1 013e b3a3 4bbd 1c16 223e e5c8 703b
00000210: e31c 76be 2c44 fc3d eb0b ec3c e8e6 693b
00000220: 5977 443e 0205 863d dc9d 46bd f6cb 1f3d
00000230: 3388 83bd c137 063d 13ca 32be 6dc6 89bd
00000240: cf5e 2bbe f600 473e 0146 ae3d 96dc b4bd
00000250: 7d3c 9e3d 4bb0 60bc ef0e 75bc 366b cabc
00000260: 5686 dabd 4b8d 2dbd b5bb 563e 161f 0d3e
00000270: 4b67 37bd 21fd 3c3e cab8 b33d 2a49 e9bd
00000280: 0421 65bd 11ba 6ebc b9ed 823d d10a ddbd
00000290: 1f28 0abe ad6e 7f3d 2190 92bd 0bd5 9dbd
000002a0: 613a 053e 84ff 29be d055 8cbb 0ba4 4f3d
000002b0: aa19 28be 5e62 b6bc b3ab f03c 3bf2 83bc
000002c0: dfa8 93bd dea3 4abd 0e7e 1dbe db21 afbc
000002d0: d9f5 2d3d 5b73 46bd a0e9 e03d 5c8a 54bc
000002e0: d040 c53d ee23 ae3d 1e56 91bd 1963 a3be
000002f0: 3207 fabc ffbd 9c3b e04a 90bd f3b2 8a3b
00000300: ff9c 603d b45c e73c 8274 373d 7bce 723d
00000310: acda 8cbd d39b 2e3c e9cf 2f3c 82ae 72be
00000320: 3540 653d 2a20 dd3b ec5e 40be 9d5b eb3d
00000330: 35bf ba3d 6b78 87be 5550 873d 4565 dabd
00000340: 5623 9c3d 81ac 22be 8340 1cbe 43ab 093e
00000350: fcbc 20be 7400 60be 2d3f 5c3d 147a fcbd
00000360: 49ac 413e dcb7 7f3e b3dc 863e c4d9 21bb
00000370: d3d6 933d 1788 fd3d 1d4e 923e 6b9f 933e
00000380: 1d7e 883e bb84 013e 2d5e 793d 8de8 3a3e
00000390: b914 013d aa40 893d 4af9 593d 100a 8b3d
000003a0: 8e81 2e39 c16c 963d 3ba4 923d d8f2 c03d
000003b0: 10b8 e83c 6c0b ce3d f1f4 a83d a139 a93d
000003c0: 0f6c 8e3d 4749 833b d0fc d63d 4ab4 9cbd
000003d0: 91bd 51bd 790f 3fbd b606 52bd ce62 b2bd
000003e0: a6f2 bc3b f902 d03c 4bff 843b acdc 053b
000003f0: 0b9f 9e3d 7453 5dbc 4188 89bb 89a7 983d

Generator.conv2.conv1.0.weight f4 [8, 8, 3, 3, 3]
0.081111774 -0.0073007657 -0.026813684 0.24489304 0.094939664 -0.07103123 -0.18211049 0.0020686015
0.06956332 -0.073007666 -0.03987626 0.0040158024 -0.08241086 0.009399186 0.02731366 -0.033105582
-0.072120644 0.08531785 0.017882464 -0.0538733 -0.016494574 -0.0043059643 -0.042547893 0.03665289
0.025025144 -0.017351516 0.06583596 0.049891774 -0.032404583 -0.05348677 0.0036834327 -0.007753909
-0.034439255 0.057682585 0.07351059 0.008356382 -0.15744087 -0.13427678 -0.07919402 -0.09157562
-0.063793026 -0.06211852 0.10525528 -0.010164564 -0.02987892 -0.047877565 -0.060979042 -0.16450375
0.0035788151 -0.061988533 -0.100251205 0.08280068 -0.0032483472 -0.057152864 0.007214614 0.0810501
0.15781105 0.037738807 0.030618874 0.18852116 -0.03468696 -0.043518063 0.0363847 -0.09690788
0.029975832 0.05570977 -0.048241034 0.0066876863 0.08338956 -0.17357306 -0.029320315 0.034001026
-0.07831392 0.0005795495 0.07755143 -0.10412622 0.0722408 0.12888062 -0.10934467 -0.06030042
0.06466504 -0.004616777 -0.030605119 0.050649107 -0.10666511 -0.06765646 -0.011888657 -0.012599991
-0.03586297 0.09180326 0.16156597 0.0031580443 0.06710767 0.029952532 -0.022128219 0.014823074
0.011508104 -0.05386554 0.033429038 0.012258457 0.010790695 -0.017215434 -0.10519715 -0.03863719
0.064597875 -0.0040492206 -0.04068819 0.015871823 0.057003636 0.05007668 -0.03683176 0.013533288
-0.027109072 0.023594705 -0.012973593 -0.0018794871 0.02714794 0.03262494 0.011423253 0.062345296
0.056401268 0.07248425 0.08200118 0.07618698 -0.01973124 0.112910755 -0.040364157 0.004456895
0.063024044 -0.059835233 0.031055078 0.062402837 0.014228852 -0.035200205 -0.0554634 -0.009443049
0.09531393 0.040999148 0.0035099767 0.0914608 0.07412428 -0.017616436 -0.06547713 -0.026156534
-0.04746746 -0.016384475 -0.012574254 -0.07251112 -0.070595995 -0.043696117 -0.06992757 -0.106042564
0.05713922 -0.06528239 -0.038780767 -0.019337608 -0.114502035 -0.037991524 -0.09639907 -0.1558904
-0.1898116 0.104956605 0.079269215 0.06855892 0.0791332 0.07569756 0.010379977 0.030204149
0.01037965 0.08821467 0.02329702 0.020437997 0.0013586425 -0.0049206065 0.060747817 0.0819282
0.09886726 0.089554355 0.04515497 0.0718325 0.056979846 0.0022189901 -0.020425783 -0.054203488
0.056555055 -0.019547107 0.032381494 -0.06010615 0.016211389 -0.011502004 -0.023569494 0.041263714
-0.065114245 -0.053074196 0.058318213 -0.11087917 -0.07025112 0.00033780676 -0.03666426 -0.06399986
0.011866311 -0.08775164 -0.038444933 0.04442312 -0.07063936 -0.08345542 0.103948876 -0.08392845
-0.06393974 0.03266305 -0.02305699 0.0035406814 0.054926205 -0.088923514 -0.05723869 0.0312098
-0.108088784 -0.13151084 0.15194926 -0.09787317 -0.0069529675 0.036876537 0.065469086 -0.036419917
0.14634153 -0.044930775 -0.025640022 0.056573536 -0.024580264 0.014127368 0.040320173 0.046738416
0.08238107 0.021036144 0.011624441 -0.09203474 -0.024968974 0.06835891 0.006079941 -0.012642477
0.06743438 0.09263859 0.022466354 -0.030224781 -0.0028349624 0.017109824 -0.06304989 0.044623535
0.034445666 0.012960887 0.038229153 -0.021860695 -0.12528783 -0.117627785 -0.067536406 -0.084832564
00000000: ee1d a63d 433b efbb 5fa8 dbbc 3ec5 7a3e
00000010: ba6f c23d d278 91bd 2c7b 3abe 6091 073b
00000020: 3777 8e3d 0b85 95bd 4a55 23bd fe96 833b
00000030: 06c7 a8bd 0bff 193c e6c0 df3c b899 07bd
00000040: fdb3 93bd 20bb ae3d 3f7e 923c 40aa 5cbd
00000050: a11f 87bc 0c19 8dbb b346 2ebd 5721 163d
00000060: 8801 cd3c c424 8ebc 01d5 863d 515b 4c3d
00000070: abba 04bd f114 5bbd bf65 713b 8114 febb
00000080: 2d10 0dbd 9344 6c3d b88c 963d 35e9 083c
00000090: 2e38 21be da7f 09be 7930 a2bd 008c bbbd
000000a0: eba5 82bd fd6f 7ebd 1590 d73d 4589 26bc
000000b0: a3c4 f4bc 441b 44bd 29c5 79bd ac73 28be
000000c0: 8e8a 6a3b b0e7 7dbd 8150 cdbd 6793 a93d
000000d0: 39e2 54bb 1f19 6abd 9268 ec3b 98fd a53d
000000e0: 3899 213e 0294 1a3d 6fd4 fa3c b10b 413e
000000f0: ea13 0ebd ff3f 32bd 2008 153d a377 c6bd
00000100: e08f f53c ee2f 643d 6498 45bd 6124 db3b
00000110: 25c8 aa3d 23bd 31be 2831 f0bc a944 0b3d
00000120: 0c63 a0bd e9ec 173a 49d3 9e3d 2140 d5bd
00000130: fcf2 933d 48f9 033e 19f0 dfbd 93fd 76bd
00000140: 1b6f 843d 5548 97bb 96b7 fabc 7075 4f3d
00000150: 3d73 dabd 788f 8abd a4c8 42bc 3170 4ebc
00000160: 0de5 12bd 5903 bc3d 8d71 253e 31f7 4e3b
00000170: bf6f 893d 035f f53c 3d46 b5bc 7bdc 723c
00000180: 7d8c 3c3c 1da2 5cbd e3ec 083d b2d7 483c
00000190: 75cb 303c 6207 8dbc 9a71 d7bd 0842 1ebd
000001a0: e44b 843d 53af 84bb a9a8 26bd a005 823c
000001b0: a57c 693d 341d 4d3d e6dc 16bd b9ba 5d3c
000001c0: d813 debc af49 c13c 318f 54bc 1f59 f6ba
000001d0: 5b65 de3c bba1 053d 9928 3b3c c85d 7f3d
000001e0: 0405 673d 9f72 943d 3cf0 a73d eb07 9c3d
000001f0: 69a3 a1bc c13d e73d e354 25bd 250b 923b
00000200: c012 813d ca15 75bd 3867 fe3c 1e9a 7f3d
00000210: 2120 693c 172e 10bd 972d 63bd 05b7 1abc
00000220: f333 c33d b9ee 273d a307 663b cd4f bb3d
00000230: 78ce 973d 5850 90bc e018 86bd 3a46 d6bc
00000240: 3d6d 42bd bc38 86bc 3e04 4ebc b680 94bd
00000250: a294 90bd b3fa 32bd 3036 8fbd d82c d9bd
00000260: d10a 6a3d c6b2 85bd 95d8 1ebd e769 9ebc
00000270: 0b80 eabd 009d 1bbd e06c c5bd bca1 1fbe
00000280: f95d 42be 7df3 d63d e657 a23d 9e68 8c3d
00000290: 9610 a23d 5307 9b3d c710 2a3c b16e f73c
000002a0: 680f 2a3c e5a9 b43d 64d9 be3c 966d a73c
000002b0: 7a14 b23a 0a3d a1bb b4d2 783d f9c9 a73d
000002c0: eb7a ca3d 4668 b73d 6bf4 383d eb1c 933d
000002d0: b363 693d 7a6c 113b f953 a7bc 7a04 5ebd
000002e0: 46a6 673d 4121 a0bc 75a2 043d de31 76bd
000002f0: bfcd 843c e772 3cbc d014 c1bc 2404 293d
00000300: 9e5a 85bd 5464 59bd 14df 6e3d 9e14 e3bd
00000310: d2df 8fbd a81b b139 432d 16bd 5c12 83bd
00000320: ea6a 423c 22b7 b3bd 6f78 1dbd 04f5 353d
00000330: 5eab 90bd adea aabd 26e3 d43d aee2 abbd
00000340: d7f2 82bd b1c9 053d 03e2 bcbc c70a 683b
00000350: 4dfa 603d 881d b6bd 1e73 6abd b2ab ff3c
00000360: a75d ddbd c7aa 06be 9698 1b3e bb71 c8bd
00000370: b8d5 e3bb da0b 173d a814 863d 0d2d 15bd
00000380: 8eda 153e 5509 38bd 060b d2bc a7b9 673d
00000390: 8d5c c9bc 7a76 673c c426 253d c870 3f3d
000003a0: 68b7 a83d fe53 ac3c 7074 3e3c b67c bcbd
000003b0: bc8b ccbc c2ff 8b3d 3e3a c73b 6422 4fbc
000003c0: 091b 8a3d 4db9 bd3d 5c0b b83c f699 f7bc
000003d0: c7ca 39bb e729 8c3c 4d20 81bd 2bc7 363d
000003e0: e616 0d3d e659 543c 2c96 1c3d 3315 b3bc
000003f0: 744b 00be d6e6 f0bd 8750 8abd b2bc adbd

Generator.conv2.conv2.0.weight f4 [8, 8, 3, 3, 3]
0.076237604 -0.054774806 0.011596902 0.07108493 0.08798283 0.06458334 0.04991783 0.058681708
0.115221694 0.11223537 -0.009952289 0.05830024 0.02168136 0.012493684 -0.03837775 0.073860556
-0.04053649 0.031430375 0.011187253 -0.06285824 -0.03847286 0.051038597 -0.08900169 -0.08437752
-0.09183244 -0.03394799 -0.042734794 0.10828671 0.08801768 0.011025515 0.05287161 0.09402441
0.16846763 0.070179194 0.055808008 0.102710724 0.07030919 0.014889161 -0.026885865 0.007627154
0.09430644 0.04065771 -0.0043865726 -0.0007213488 0.10763469 0.0023062278 0.055541944 -0.018271808
0.03942954 0.03376223 0.036579497 -0.027885819 0.06946533 0.03585797 0.22156286 0.08555327
0.044939157 -0.035947777 -0.11423624 -0.11056426 0.05713563 -0.0023494568 -0.0580714 -0.0074188043
-0.10853436 -0.004091515 -0.11351438 -0.11806344 -0.19693597 0.027108638 -0.00044242037 -0.16296549
-0.019989079 -0.06121035 0.1313701 -0.08519336 -0.15785363 -0.0043357783 0.07949828 0.03317688
-0.027871542 0.08197699 0.0775296 0.13756892 0.019582676 0.043539625 0.0103472825 0.09985174
0.01400449 0.0030632536 0.15401599 0.00968595 0.07419695 -0.015472148 -0.10129976 -0.09477886
-0.016406678 -0.120001085 0.023383679 -0.009301279 -0.06860664 0.052387305 -0.07583215 -0.07194534
-0.05234473 0.067761146 -0.08491806 -0.026676785 -0.058372494 -0.04552854 -0.027921658 0.064925246
0.066327505 0.0007446267 0.10888696 0.05209858 0.0441424 -0.14890766 -0.1140524 0.0031806757
-0.080698565 -0.07666223 -0.004420173 0.026489636 -0.036553103 0.041112624 -0.1631863 -0.11731922
-0.021534324 0.12722762 0.06249344 -0.027213221 0.10064188 -0.047626406 -0.116790876 0.02376275
-0.18595 -0.15678073 -0.07061631 -0.22805011 0.011819013 -0.14277308 -0.18028156 0.15010385
-0.0011985069 0.013652516 -0.07288622 -0.005202983 -0.07346293 -0.095825456 0.08530616 -0.12359825
-0.082065806 0.10775806 0.027921634 0.074363984 0.07155706 -0.0032243321 -0.11333971 0.18700758
-0.041678824 0.028432377 0.124128975 0.015895285 0.2005217 -0.001501961 -0.049909618 -0.09385878
0.07766268 -0.10302084 -0.06904381 0.08374425 0.03556797 0.19421019 0.10029908 -0.0008763769
-0.030441344 -0.015214248 -0.031783044 -0.10034602 -0.02461989 0.10980667 0.037192874 0.009821523
0.037817832 -0.14342128 0.053042237 -0.036490604 -0.14012703 -0.04388963 -0.06252652 -0.09280837
-0.072891586 -0.074554265 -0.08014956 -0.03703716 -0.0070529035 0.02972893 -0.05156328 0.008424617
-0.04791208 -0.01634978 -0.06147164 -0.032003704 0.0473363 0.033786964 4.5072597e-05 0.15315673
0.1231393 0.13985564 0.048571207 0.099008426 -0.021443276 0.15278502 0.022085046 -0.018725606
-0.15572506 -0.07870427 0.016053703 -0.081035465 -0.06210381 -0.095887996 -0.15908611 -0.014357183
-0.022526186 0.05736445 0.048455242 0.004966012 0.06396361 0.040162146 0.013509625 -0.009040432
0.0039851903 0.049582005 0.04657879 0.10020434 0.07186889 0.15320356 0.10710424 0.06998536
0.13525285 0.025832921 0.0320046 -0.13921426 -0.1050698 0.0353513 -0.11675847 -0.08806805
-0.030153159 -0.260356 -0.109078474 0.004558229 0.030086124 0.03181857 -0.03900298 0.02788914
00000000: 7622 9c3d 8c5b 60bd ef00 3e3c fa94 913d
00000010: 5830 b43d 4544 843d a376 4c3d 3b5c 703d
00000020: 5af9 eb3d a8db e53d ed0e 23bc 3ccc 6e3d
00000030: 1c9d b13c 4fb2 4c3c fd31 1dbd 3444 973d
00000040: 9709 26bd 23bd 003d bd4a 373c d2bb 80bd
00000050: b895 1dbd d90d 513d 8546 b6bd 1fce acbd
00000060: a512 bcbd 0c0d 0bbd ae0a 2fbd 6cc5 dd3d
00000070: 9d42 b43d 5da4 343c e78f 583d df8f c03d
00000080: c782 2c3e 1cba 8f3d f096 643d 005a d23d
00000090: 44fe 8f3d abf1 733c bf3f dcbc 34ed f93b
000000a0: bc23 c13d b388 263d 3dbd 8fbb e618 3dba
000000b0: 946f dc3d 1524 173b f37f 633d c2ae 95bc
000000c0: df80 213d 444a 0a3d 62d4 153d cd70 e4bc
000000d0: d743 8e3d cfdf 123d 60e1 623e 8e36 af3d
000000e0: 1f12 383d fa3d 13bd b1f4 e9bd 846f e2bd
000000f0: 0d07 6a3d 58f9 19bb 47dc 6dbd 7119 f3bb
00000100: 4347 debd 1e12 86bb 3a7a e8bd 3fcb f1bd
00000110: 95a9 49be ef12 de3c a8f4 e7b9 6de0 26be
00000120: 23c0 a3bc b4b7 7abd e285 063e db79 aebd
00000130: 62a4 21be 2513 8ebb ffcf a23d 7be4 073d
00000140: dc52 e4bc 8de3 a73d d7c7 9e3d dede 0c3e
00000150: d96b a03c 9b56 323d a687 293c 127f cc3d
00000160: 1773 653c dec0 483b 5eb6 1d3e d2b1 1e3c
00000170: 92f4 973d e47e 7dbc 4076 cfbd 6b1b c2bd
00000180: 4c67 86bc 21c3 f5bd 218f bf3c 6464 18bc
00000190: a381 8cbd 1294 563d e34d 9bbd 1458 93bd
000001a0: 6d67 56bd 5bc6 8a3d 85e9 adbd 4689 dabc
000001b0: ff17 6fbd 227c 3abd f6bb e4bc 87f7 843d
000001c0: b7d6 873d 0d33 433a 2000 df3d 5265 553d
000001d0: a9ce 343d 407b 18be 4e94 e9bd e272 503b
000001e0: 4a45 a5bd 1601 9dbd 19d7 90bb cb00 d93c
000001f0: b5b8 15bd b665 283d 4f1a 27be 0f45 f0bd
00000200: c068 b0bc f547 023e 1ff9 7f3d 43ee debc
00000210: 541d ce3d e813 43bd 0e30 efbd 19aa c23c
00000220: ad69 3ebe 218b 20be 499f 90bd f885 69be
00000230: 89a4 413c 1b33 12be bb9b 38be d3b4 193e
00000240: 3817 9dba cdae 5f3c 5f45 95bd c97d aabb
00000250: bc73 96bd 2340 c4bd ffb4 ae3d 1421 fdbd
00000260: 1e12 a8bd 42b0 dc3d e9bb e43c 254c 983d
00000270: 828c 923d 514f 53bb a61e e8bd ea7e 3f3e
00000280: 6ab7 2abd 04eb e83c 5537 fe3d d436 823c
00000290: 8f55 4d3e 73dd c4ba 076e 4cbd 0839 c0bd
000002a0: 9c0d 9f3d 97fc d2bd d766 8dbd 1b82 ab3d
000002b0: b8af 113d 09df 463e 9b69 cd3d a8bc 65ba
000002c0: 2060 f9bc 2e45 79bc f02e 02bd 3782 cdbd
000002d0: a7af c9bc 52e2 e03d 8e57 183d 74ea 203c
000002e0: dfe6 1a3d 07dd 12be d142 593d 2c77 15bd
000002f0: 767d 0fbe 9dc5 33bd e70d 80bd 5112 bebd
00000300: 2f48 95bd e8af 98bd 7425 a4bd 47b4 17bd
00000310: 0b1c e7bb 168a f33c 0534 53bd 6807 0a3c
00000320: 753f 44bd f9ef 85bc b0c9 7bbd 5116 03bd
00000330: b5e3 413d 3364 0a3d 550c 3d38 1ed5 1c3e
00000340: 7530 fc3d 5136 0f3e 9af2 463d eec4 ca3d
00000350: cfa9 afbc ad73 1c3e b3eb b43c 7166 99bc
00000360: 6476 1fbe b42f a1bd 0e83 833c ecf5 a5bd
00000370: 9160 7ebd ed60 c4bd 78e7 22be 643a 6bbc
00000380: d688 b8bc fcf6 6a3d 0179 463d eeb9 a23b
00000390: 5aff 823d 1081 243d 7957 5d3c 521e 14bc
000003a0: 3396 823b 8016 4b3d 67c9 3e3d ef37 cd3d
000003b0: ff2f 933d 65e1 1c3e 7859 db3d 7c54 8f3d
000003c0: b97f 0a3e 909f d33c 4117 033d 2f8e 0ebe
000003d0: d62e d7bd 86cc 103d 111f efbd 065d b4bd
000003e0: c203 f7bc 624d 85be 8964 dfbd 325d 953b
000003f0: 2d77 f63c 3054 023d 97c1 1fbd c477 e43c

Generator.conv3.conv1.0.weight f4 [8, 8, 3, 3, 3]
0.0112295905 0.07382938 -0.012557298 -0.017773623 0.004033134 0.041531745 0.09041981 -0.017945198
0.008321023 -0.027854225 0.02490033 -0.059835102 0.017259829 -0.024266928 -0.08389529 -0.03660664
0.044302523 -0.029731218 -0.031663872 0.06979228 -0.00949412 0.052840967 -0.06633274 -0.0074010324
-0.04122442 0.024182452 -0.05439738 -0.048606828 0.015591625 0.035471316 0.010092401 -0.015735991
-0.07247789 0.05784498 -0.04215276 0.046139605 0.0071943062 0.061362244 0.13249108 -0.013426325
-0.026582245 -0.08389302 -0.006147949 -0.09894809 0.02206256 -0.00037593124 0.07899615 -0.029222814
0.05435727 -0.03194273 -0.062142063 -0.05679729 -0.0835446 0.021607956 -0.043084163 -0.008660443
-0.029980345 -0.051110614 -0.03399571 0.029520124 -0.0067150933 -0.01906994 0.0009834906 0.037344433
0.03398692 0.060524922 -0.038621746 0.09266572 0.0701467 -0.03757126 0.0069192746 -0.024066383
0.042688835 -0.06302051 0.028169584 -0.013134481 0.057719536 -0.018862724 0.062030118 -0.0489813
-0.044521403 0.030119678 -0.0012167615 0.010487937 -0.0068560163 0.021689747 -0.049261507 0.083480164
-0.011484534 0.06316387 -0.010643934 0.043387346 0.035951182 -0.04412162 0.06387275 -0.051850665
-0.07086345 -0.031956293 -0.01077236 -0.040803984 0.055952467 -0.017574819 0.076768436 0.11594909
0.03846935 -0.0043025184 -0.034326423 -0.095834635 0.05913791 -0.03276197 0.0065550897 0.06976041
-0.04033454 0.03895676 0.07866657 0.049369395 -0.054814067 0.04489357 0.06855499 0.05783256
0.0017302915 0.051732015 0.08290689 0.034301415 0.075630404 -0.06540598 -0.017632404 -0.0022714958
0.02698102 -0.067654684 -0.043110833 -0.020610098 0.045360316 -0.048019733 -0.038585063 -0.057127923
0.045031685 0.01872142 0.0060065174 0.061131515 -0.058885768 0.007464701 -0.010035073 0.034038506
0.016113242 0.07957389 0.025007067 -0.033237465 0.042451974 0.0062445435 -0.042457882 -0.08145962
0.030410668 -0.06455431 0.06326885 -0.06085102 0.027601056 0.07256364 0.06782622 0.057510965
-0.082186505 -0.025514985 -0.051837813 0.043198254 0.042417686 -0.018387754 -0.044531543 -0.03416279
0.11477325 0.027763316 0.018344196 0.045895036 -0.04006743 0.07666079 0.06618608 -0.06496166
0.047713973 0.036011744 0.03270556 0.03184784 0.0271579 -0.021224061 -0.09543103 0.017315667
0.059023302 -0.038370788 -0.069856465 0.1000021 0.01507185 0.01283047 0.0010178145 0.0030075745
0.0026847075 0.041114144 -0.017071506 -0.08334945 -0.00054786936 0.006928018 -0.007126617 -0.003604467
-0.011190815 0.025876308 0.14975236 0.04768967 -0.018115418 -0.03592121 0.06613258 -0.04169589
-0.08687705 -0.007974908 0.05665601 0.12175209 -0.07690059 -0.033110444 -0.040231857 -0.052990466
0.016274948 -0.03794974 -0.012926302 0.038693376 0.013087215 0.054756187 0.017365647 0.047003552
0.020907553 0.09649195 -0.080154724 -0.006705001 0.0608171 0.03948008 -0.07923208 -0.037897743
0.042953856 -0.15768425 0.020178854 0.0051726853 0.014447236 0.051836528 0.009581982 -0.04878688
-0.04754223 -0.050257932 0.005464112 0.014067458 -0.08840835 -0.13096619 0.02857423 0.083233945
-0.1090151 0.083117306 0.049059823 0.003382234 0.084537074 0.027634509 -0.01772781 0.111300856
00000000: 51fc 373c dc33 973d 20bd 4dbc fd99 91bc
00000010: 6128 843b 311d 2a3d 052e b93d cf01 93bc
00000020: e654 083c 8b2e e4bc c7fb cb3c a715 75bd
00000030: 7c64 8d3c 70cb c6bc 4bd1 abbd d8f0 15bd
00000040: 9076 353d e28e f3bc fab1 01bd 41ef 8e3d
00000050: 3a8d 1bbc c56f 583d 76d9 87bd 5c84 f2bb
00000060: f0da 28bd 471a c63c cacf 5ebd f417 47bd
00000070: 0474 7f3c 5f4a 113d 995a 253c c4e8 80bc
00000080: 4a6f 94bd dcee 6c3d 5fa8 2cbd e2fc 3c3d
00000090: 37be eb3b fa56 7b3d beab 073e 17fa 5bbc
000000a0: 02c3 d9bc 1bd0 abbd bc74 c9bb 4ca5 cabd
000000b0: 8bbc b43c a318 c5b9 bcc8 a13d af64 efbc
000000c0: bba5 5e3d 61d6 02bd ad88 7ebd 46a4 68bd
000000d0: 6e19 abbd 2b03 b13c 0579 30bd 88e4 0dbc
000000e0: 5799 f5bc 5d59 51bd 163f 0bbd 30d4 f13c
000000f0: 490a dcbb 9038 9cbc 78e8 803a 7af6 183d
00000100: de35 0b3d fbe8 773d d631 1ebd 86c7 bd3d
00000110: 13a9 8f3d 52e4 19bd 15bb e23b dd26 c5bc
00000120: 7dda 2e3d e610 81bd e6c3 e63c 0232 57bc
00000130: 526b 6c3d 0086 9abc 4b13 7e3d 9ea0 48bd
00000140: 135c 36bd 8bbd f63c be7b 9fba 99d5 2b3c
00000150: 6fa8 e0bb b2ae b13c 6fc6 49bd a6f7 aa3d
00000160: a029 3cbc 0f5c 813d e563 2ebc eeb6 313d
00000170: 8c41 133d dfb8 34bd b7cf 823d 5d61 54bd
00000180: db20 91bd 9ae4 02bd 8d7e 30bc 1422 27bd
00000190: 6a2e 653d 11f9 8fbc c538 9d3d b776 ed3d
000001a0: 0a92 1d3d 24fc 8cbb dd99 0cbd f344 c4bd
000001b0: 983a 723d 6a31 06bd 14cc d63b 8cde 8e3d
000001c0: d535 25bd 2091 1f3d f01b a13d 9037 4a3d
000001d0: b784 60bd 52e2 373d 8f66 8c3d d6e1 6c3d
000001e0: f3ca e23a f3e4 533d 16cb a93d a47f 0c3d
000001f0: 1de4 9a3d 92f3 85bd d571 90bc 60dd 14bb
00000200: 4d07 dd3c 8a8e 8abd fc94 30bd 82d6 a8bc
00000210: bdcb 393d 57b0 44bd 5f0b 1ebd f8fe 69bd
00000220: 2573 383d aa5d 993c 52d2 c43b 0a65 7a3d
00000230: 3432 71bd 739a f43b 266a 24bc f66b 0b3d
00000240: ebff 833c a3f7 a23d 9fdb cc3c 0224 08bd
00000250: 1fe2 2d3d 079f cc3b 51e8 2dbd 4dd4 a6bd
00000260: cb1f f93c 0d35 84bd 1993 813d eb3e 79bd
00000270: 9c1b e23c 3f9c 943d 79e8 8a3d 9e90 6b3d
00000280: 6651 a8bd cd04 d1bc e353 54bd a7f0 303d
00000290: 2bbe 2d3d eaa1 96bc b566 36bd 48ee 0bbd
000002a0: 3d0e eb3d e56f e33c 9146 963c 6ffc 3b3d
000002b0: bf1d 24bd 5500 9d3d 918c 873d 9e0a 85bd
000002c0: ba6f 433d 0d81 133d 44f6 053d e172 023d
000002d0: 3f7a de3c 15de adbc 5871 c3bd 96d9 8d3c
000002e0: 6bc2 713d b02a 1dbd e810 8fbd e7cd cc3d
000002f0: ecef 763c e436 523c 3068 853a ba1a 453b
00000300: ebf1 2f3b 4e67 283d 8bd9 8bbc 1eb3 aabd
00000310: e49e 0fba 6d04 e33b 6586 e9bb ec38 6cbb
00000320: ae59 37bc 8dfa d33c af58 193e 3e56 433d
00000330: c966 94bc 1e22 13bd 8570 873d 4fc9 2abd
00000340: 98ec b1bd 30a9 02bc 2210 683d 2959 f93d
00000350: 0e7e 9dbd d19e 07bd 29ca 24bd 880c 59bd
00000360: 0a53 853c 3071 1bbd d7c8 53bc f27c 1e3d
00000370: c26b 563c 0648 603d 6742 8e3c cc86 403d
00000380: 5146 ab3c 929d c53d 2928 a4bd a0b5 dbbb
00000390: 5a1b 793d ddb5 213d 6e44 a2bd aa3a 1bbd
000003a0: 62f0 2f3d fb77 21be 204e a53c a17f a93b
000003b0: 1ab4 6c3c 8a52 543d bffd 1c3c c0d4 47bd
000003c0: a4bb 42bd 43db 4dbd 4b0c b33b 327b 663c
000003d0: 700f b5bd 001c 06be 8114 ea3c 8f76 aa3d
000003e0: 4f43 dfbd 6839 aa3d f4f2 483d 78a8 5d3b
000003f0: c621 ad3d c461 e23c ea39 91bc b4f1 e33d

Generator.conv3.conv2.0.weight f4 [8, 8, 3, 3, 3]
0.047261324 0.022524875 0.0016555443 -0.050928283 0.050177846 -0.023600066 -0.08195127 -0.008469859
-0.06410183 0.04247974 -0.0372618 0.04158649 0.01071554 0.04991109 -0.01826675 -0.036348484
0.029027471 -0.054280683 0.023078425 -0.011978638 -0.024858654 0.04898659 0.07813335 0.10151597
0.007532556 0.09321211 0.03892391 0.112042844 -0.12704505 -0.15374272 0.1329272 -0.052358843
-0.09115424 0.05427639 0.058080103 0.0015959821 0.0865977 -0.08267628 -0.10209209 -0.08138543
-0.042805165 -0.03825459 -0.081701756 -0.1317619 -0.13943164 0.09911894 -0.00122893 -0.13722314
-0.053909 -0.009649811 -0.12696584 -0.070047684 -0.06917984 -0.093500584 -0.011588642 0.028072549
-0.20901917 0.043568283 -0.019401615 -0.0042913747 0.07171495 0.09237024 0.069614366 0.08669598
-0.031058637 0.0016997702 0.098673075 0.07702294 -0.040980343 0.01783639 0.20199654 -0.028213508
0.082722776 0.15171367 0.08667412 0.10888485 0.17840755 0.0810521 -0.03838604 0.061753355
0.09981131 -0.04903904 0.106787845 0.023012538 -0.06558471 -0.059216194 0.057434246 0.043559782
-0.053758193 -0.024337336 -0.09984552 0.0072681275 0.020382706 -0.1073335 -0.24875912 0.038728863
0.023133194 -0.16886748 -0.056555472 -0.14023884 -0.094160125 0.0071825455 0.009027869 -0.22876675
-0.020737471 0.09960516 -0.033327207 -0.04350124 -0.3027666 -0.1388686 -0.058169212 -0.10263283
-0.08978947 -0.07793039 -0.174204 -0.11698512 -0.07042353 -0.018851014 -0.010019586 0.0619058
0.05024503 0.028338794 -0.0057366025 -0.080758005 0.004284455 0.002703685 -0.4102549 -0.22267003
-0.072687246 -0.17735161 -0.15684721 -0.12706773 -0.039229613 -0.02748166 0.06652036 0.044790424
-0.017863847 -0.29082763 -0.1408691 -0.059484005 7.458543e-05 0.20175368 -0.0487875 0.10523228
-0.09176651 -0.086026646 -0.0057514478 -0.010193888 0.030725893 0.11184978 0.1624963 -0.029230202
0.11137981 0.03644281 0.119106375 -0.053373955 0.100942954 0.020897092 0.06474604 0.22414726
0.007924419 -0.010095087 0.119728915 0.11995728 0.12013078 -0.00943677 -0.028826548 0.06730276
-0.109054394 -0.17136535 0.1085019 -0.015440717 0.037816104 0.09664214 -0.10449736 -0.09164304
0.082957104 -0.11810529 0.013092748 0.09743543 -0.16516314 -0.040561628 0.17560658 -0.13420972
-0.058925983 0.21052396 -0.05873371 0.11164882 0.11847984 -0.008667007 -0.016388707 0.104447335
-0.0341985 -0.019520424 0.087075055 -0.04129163 0.005814446 0.15591408 0.16460267 0.05689739
0.09505073 0.047088422 0.03044083 0.01808227 -0.04976931 0.087117195 -0.0050113793 0.14847755
0.00044224295 -0.011446526 0.1408238 0.03830712 0.026368795 0.09469563 0.13763371 -0.017344275
0.031542286 0.005672069 -0.06400679 -0.001889258 -0.07713204 -0.096605666 0.02328867 0.0031348509
0.024020668 0.010803051 -0.035854332 -0.061787404 -0.010291106 0.06979568 -0.07029499 0.055380814
0.015493627 0.01374958 0.007581598 0.10894345 0.078987606 0.05989141 0.07435292 0.03851841
0.057772703 -0.030316072 0.019852262 0.0054430673 0.039668266 -0.1526208 0.09382669 0.109067395
0.047625493 0.16380754 0.017081656 0.103119016 0.0044983225 0.11154581 -0.07465448 0.08183332
00000000: 1795 413d 1686 b83c d9fe d83a 2d9a 50bd
00000010: 4987 4d3d ed54 c1bc 11d6 a7bd 2ac5 0abc
00000020: d247 83bd 3cff 2d3d d49f 18bd 9856 2a3d
00000030: 3b90 2f3c 926f 4c3d 27a4 95bc 26e2 14bd
00000040: 05cb ed3c 6c55 5ebd f70e bd3c 0d42 44bc
00000050: 60a4 cbbc 2aa6 483d 6104 a03d 9be7 cf3d
00000060: a9d3 f63b fee5 be3d ae6e 1f3d b876 e53d
00000070: 1918 02be bb6e 1dbe 111e 083e 3a76 56bd
00000080: 13af babd eb50 5e3d 67e5 6d3d 4630 d13a
00000090: 235a b13d 2e52 a9bd a815 d1bd 68ad a6bd
000000a0: 7854 2fbd d8b0 1cbd 4053 a7bd 97ec 06be
000000b0: 2bc7 0ebe dffe ca3d 0c14 a1ba 3984 0cbe
000000c0: afcf 5cbd 3e1a 1ebc 5503 02be 2975 8fbd
000000d0: 29ae 8dbd 3c7d bfbd 4ade 3dbc 67f8 e53c
000000e0: 1f09 56be a874 323d 23f0 9ebc a99e 8cbb
000000f0: 4adf 923d 9c2c bd3d fa91 8e3d a98d b13d
00000100: af6e febc d3ca de3a 1c15 ca3d 34be 9d3d
00000110: 01db 27bd 9f1d 923c 2ed8 4e3e 0420 e7bc
00000120: 8f6a a93d d45a 1b3e 3382 b13d 05ff de3d
00000130: 78b0 363e a5fe a53d ae3a 1dbd 16f1 7c3d
00000140: df69 cc3d 29dd 48bd 96b3 da3d ca84 bc3c
00000150: 4751 86bd ae8c 72bd 2c40 6b3d be6b 323d
00000160: 8d31 5cbd 185f c7bc cf7b ccbd 7929 ee3b
00000170: a2f9 a63c abd1 dbbd b6ba 7ebe 28a2 1e3d
00000180: d381 bd3c 99eb 2cbe b6a6 67bd c59a 0fbe
00000190: 06d7 c0bd 8f5b eb3b a1e9 133c d541 6abe
000001a0: a1e1 a9bc cafd cb3d 1c82 08bd 5b2e 32bd
000001b0: 3904 9bbe 9233 0ebe d742 6ebd 2931 d2bd
000001c0: 8be3 b7bd f899 9fbd 8962 32be e595 efbd
000001d0: 363a 90bd 716d 9abc 3129 24bc f090 7d3d
000001e0: bccd 4d3d c226 e83c 1cfa bbbb 7464 a5bd
000001f0: 9d64 8c3b 4f30 313b ee0c d2be 9d03 64be
00000200: 0ddd 94bd a99b 35be 8e9c 20be 0b1e 02be
00000210: 3baf 20bd 3821 e1bc d43b 883d 2a76 373d
00000220: 3457 92bc 5ce7 94be fd3f 10be 80a5 73bd
00000230: bf6a 9c38 8498 4e3e 67d5 47bd 0684 d73d
00000240: 14f0 bbbd bd2e b0bd a476 bcbb 4404 27bc
00000250: deb4 fb3c 7f11 e53d 6e65 263e 2d74 efbc
00000260: 191b e43d 0e45 153d 0bee f33d a69e 5abd
00000270: 2ebb ce3d 6130 ab3c 9299 843d dc86 653e
00000280: 6cd5 013c dd65 25bc 6f34 f53d 2aac f53d
00000290: 2007 f63d af9c 1abc a725 ecbc 08d6 893d
000002a0: e957 dfbd 667a 2fbe 3f36 de3d 10fb 7cbc
000002b0: 0fe5 1a3d 50ec c53d b602 d6bd 59af bbbd
000002c0: 6ae5 a93d 30e1 f1bd f782 563c 3a8c c73d
000002d0: 8720 29be f323 26bd 36d2 333e 466e 09be
000002e0: 5f5c 71bd 9893 573e c292 70bd 23a8 e43d
000002f0: 8fa5 f23d 1000 0ebc 9c41 86bc 7ce8 d53d
00000300: ba13 0cbd 4ce9 9fbc 6854 b23d 6a21 29bd
00000310: 1c87 be3b f1a7 1f3e 9a8d 283e 3d0d 693d
00000320: f5a9 c23d cadf 403d 0c5f f93c 4521 943c
00000330: e7da 4bbd 806a b23d 7f36 a4bb 800a 183e
00000340: d8dc e739 368a 3bbc 1d34 103e ede7 1c3d
00000350: 5f03 d83c c8ef c13d daef 0c3e 9515 8ebc
00000360: 7c32 013d c3dc b93b fe15 83bd fba0 f7ba
00000370: 67f7 9dbd 31d9 c5bd e2c7 be3c 1272 4d3b
00000380: fec6 c43c 48ff 303c fedb 12bd ca14 7dbd
00000390: 079c 28bc 0af1 8e3d d2f6 8fbd fed6 623d
000003a0: fbd8 7d3c eb45 613c 0e6f f83b be1d df3d
000003b0: 41c4 a13d b250 753d 5846 983d 7bc5 1d3d
000003c0: 12a3 6c3d 6959 f8bc 36a1 a23c c25b b23b
000003d0: 317b 223d a148 1cbe 3528 c03d ba5e df3d
000003e0: f312 433d 2abd 273e d4ee 8b3c 1030 d33d
000003f0: aa66 933b 2172 e43d 73e4 98bd 3a98 a73d

Generator.conv4.conv1.0.weight f4 [8, 8, 3, 3, 3]
-0.021080388 0.0033664485 -0.04450246 0.0035886376 0.040751245 0.009858454 0.0015929792 0.030000309
-0.006884044 -0.04494097 -0.02421765 -0.092270605 -0.07546587 -0.022399446 -0.024012651 0.09267505
0.021837391 0.054153945 0.037344534 0.034258235 0.06670952 0.0333537 -0.123173386 0.015973965
-0.057491355 -0.038421996 0.029705752 -0.033519756 0.038373787 0.08067157 -0.0032348826 0.060753122
0.06490003 -0.09539076 0.0691216 -0.039955616 0.0141256545 -0.029618677 -0.03589968 0.0050853407
-0.03349214 -0.06705565 -0.007525617 0.043308042 0.04126815 0.06372306 -0.041118894 -0.024066752
0.060073815 -0.028880758 0.015185216 0.07220043 0.0493496 0.02628877 -0.10305918 -0.12441907
-0.10632006 -0.031952836 0.032632727 -0.054038573 0.051473536 0.033647325 -0.00049015624 0.00074689294
-0.16213408 -0.06943866 0.023250544 -0.069907434 -0.045911565 0.011967323 0.06166074 -0.015870893
0.080329634 -0.024532812 -0.006508151 0.007015794 -0.11721923 0.04716055 -0.0032349222 -0.05388731
0.013870679 0.022234317 -0.015476515 -0.048148923 0.00018605699 -0.023461767 -0.070229486 0.042687275
0.03105982 0.068403795 0.019195132 -0.05390804 -0.038716506 0.013595451 -0.07041346 -0.027282862
0.102940224 0.10274722 0.05173439 -0.03808274 -0.08233344 -0.069359235 -0.018609354 0.007142373
-0.11692927 0.08164346 0.008482546 0.0020868024 -0.104519375 -0.0864007 0.01287174 -0.022148293
0.034295443 0.03673399 -0.004288108 0.054534603 0.025010185 -0.013932244 -0.036102504 0.048416145
-0.033274677 0.00037004316 0.028090624 0.018521419 0.012402008 -0.0077171926 0.084797375 -0.031980548
0.053305715 0.010201983 -0.0001600449 -0.01852205 3.5303005e-05 0.03462299 0.05482493 -0.035246573
0.03861643 -0.08894944 0.016703889 0.104292974 0.0012481337 0.058669068 0.049558982 -0.05232375
0.014415489 -0.0041917143 -0.023261735 -0.015046716 -0.06332229 -0.015137113 0.03612547 0.019239264
-0.019425806 0.04240884 -0.0021242674 -0.030935425 0.018964544 -0.036123507 -0.043997798 0.010342337
-0.05520154 0.00071048894 -0.11343008 -0.026472218 -0.102833636 -0.0025337131 0.101647 0.09080649
-0.0047607417 0.028719284 0.021749819 -0.084869765 -0.031258475 0.014548495 -0.0039458643 -0.12348902
0.0017262686 0.06983197 0.055389542 -0.015830409 0.068869196 0.08591494 0.019317042 -0.08850758
-0.03359138 -0.009753565 -0.0732859 -0.03280531 -0.0038737666 -0.043217577 -0.05835942 -0.0787718
-0.01383042 0.021576008 -0.038602717 0.012468307 -0.006147407 0.030082561 0.02809366 -0.10113795
0.020365736 0.01986288 -0.07714971 -0.052677654 0.07194591 0.07648367 -0.039744835 0.03334426
0.02692619 -0.06621677 0.0056501226 -0.08008317 -0.11233544 0.023337083 0.0024477248 0.027773198
-0.014772819 0.0840543 0.051612984 0.017416501 0.1069687 0.053896748 -0.037885312 0.027141733
0.06340546 0.06180466 0.05104726 -0.0046445 -0.04374677 0.03666678 0.04084835 0.010857762
0.01789375 0.017535588 -0.006468337 -0.07388571 -0.03264322 0.043226793 -0.08390906 -0.10910832
0.06635469 0.021164697 -0.07070633 -0.041231863 0.06453295 0.059691105 -0.07502015 0.10970958
0.082621224 5.9424838e-05 -0.09803121 -0.03730445 0.0044410415 0.037361845 0.032099646 -0.015929827
00000000: c7b0 acbc a29f 5c3b 3648 36bd 592f 6b3b
00000010: c7ea 263d 5a85 213c 83cb d03a 35c3 f53c
00000020: 8c93 e1bb 0614 38bd 1864 c6bc 5ff8 bcbd
00000030: da8d 9abd 0b7f b7bc 2eb6 c4bc 6bcc bd3d
00000040: 54e4 b23c 87d0 5d3d 95f6 183d 5d52 0c3d
00000050: 009f 883d e49d 083d 5442 fcbd d5db 823c
00000060: 0e7c 6bbd 6260 1dbd 7a59 f33c 034c 09bd
00000070: d52d 1d3d 2337 a53d 5300 54bb 44d8 783d
00000080: 4fea 843d 3b5c c3bd a08f 8d3d 80a8 23bd
00000090: 4a6f 673c dea2 f2bc 8b0b 13bd eea2 a63b
000000a0: 0e2f 09bd 7954 89bd 7399 f6bb c663 313d
000000b0: cb08 293d 3c81 823d 496c 28bd a327 c5bc
000000c0: f60f 763d 5797 ecbc 6acb 783c d2dd 933d
000000d0: ce22 4a3d 8c5b d73c b110 d3bd 6dcf febd
000000e0: 55be d9bd fae0 02bd e5a9 053d 8d57 5dbd
000000f0: ead5 523d c7d1 093d d47d 00ba 23cb 433a
00000100: 7a06 26be db35 8ebd ed77 be3c a12b 8fbd
00000110: c40d 3cbd 9712 443c f98f 7c3d ad03 82bc
00000120: dd83 a43d 09f9 c8bc 5442 d5bb bfe4 e53b
00000130: a310 f0bd 6c2b 413d fd00 54bb f1b8 5cbd
00000140: d841 633c be24 b63c 3591 7dbc ce37 45bd
00000150: 4b18 4339 e432 c0bc 7ad4 8fbd dad8 2e3d
00000160: 2a71 fe3c 4a17 8c3d 1c3f 9d3c adce 5cbd
00000170: 3395 1ebd 74bf 5e3c ef34 90bd 4f80 dfbc
00000180: 53d2 d23d 226d d23d 71e7 533d a6fc 1bbd
00000190: 6f9e a8bd 370c 8ebd a572 98bc 910a ea3b
000001a0: 9d78 efbd b034 a73d 60fa 0a3c bcc2 083b
000001b0: 410e d6bd daf2 b0bd fee3 523c 5670 b5bc
000001c0: 6179 0c3d 6176 163d 4283 8cbb ad5f 5f3d
000001d0: 29e2 cc3c 1144 64bc 38e0 13bd 0250 463d
000001e0: 074b 08bd 5a02 c239 4f1e e63c 3bba 973c
000001f0: cb31 4b3c 81e0 fcbb 3faa ad3d 09fe 02bd
00000200: 1857 5a3d 3826 273c bad1 27b9 8ebb 97bc
00000210: 5012 1438 d6d0 0d3d 1b90 603d b65e 10bd
00000220: 432c 1e3d 202b b6bd 98d6 883c 8e97 d53d
00000230: 6b98 a33a fa4e 703d 5cfe 4a3d 6e51 56bd
00000240: f12e 6c3c a65a 89bb 658f bebc 8086 76bc
00000250: 1eaf 81bd a701 78bc 4df8 133d a99b 9d3c
00000260: de22 9fbc e4b4 2d3d 4b37 0bbb 4a6c fdbc
00000270: 885b 9b3c 3ef6 13bd 0937 34bd e872 293c
00000280: 031b 62bd 1b40 3a3a 084e e8bd 44dc d8bc
00000290: 719a d2bd a70c 26bb 4d2c d03d c1f8 b93d
000002a0: ffff 9bbb b444 eb3c ad2c b23c 33d0 adbd
000002b0: e308 00bd d05c 6e3c 4f4c 81bb d0e7 fcbd
000002c0: f643 e23a 1004 8f3d 25e0 623d c6ae 81bc
000002d0: 4b0b 8d3d 2cf4 af3d c63e 9e3c 7643 b5bd
000002e0: 1d97 09bd 6bcd 1fbc eb16 96bd dc5e 06bd
000002f0: 05df 7dbb ea04 31bd 4a0a 6fbd 1c53 a1bd
00000300: fc98 62bc 2bc0 b03c e21d 1ebd df47 4c3c
00000310: 3070 c9bb b46f f63c ad24 e63c 6a21 cfbd
00000320: 0bd6 a63c 7bb7 a23c ab00 9ebd 86c4 57bd
00000330: 6158 933d 78a3 9c3d 7bcb 22bd fe93 083d
00000340: 5094 dc3c a89c 87bd aa24 b93b a502 a4bd
00000350: 2010 e6bd 692d bf3c 026a 203b 9e84 e33c
00000360: b209 72bc a924 ac3d 2368 533d 0dad 8e3c
00000370: 6812 db3d d6c2 5c3d a12d 1bbd 5758 de3c
00000380: b9da 813d e226 7d3d ef16 513d e430 98bb
00000390: d02f 33bd e82f 163d 9950 273d c1e4 313c
000003a0: ea95 923c cba6 8f3c 58f4 d3bb 6451 97bd
000003b0: e6b4 05bd 940e 313d 83d8 abbd 2f74 dfbd
000003c0: f8e4 873d 9661 ad3c 7bce 90bd bee2 28bd
000003d0: da29 843d a97e 743d 2aa4 99bd 6baf e03d
000003e0: 5135 a93d ef3e 7938 96c4 c8bd 8dcc 18bd
000003f0: 2886 913b bc08 193d eb7a 033d 457f 82bc

Generator.conv4.conv2.0.weight f4 [8, 8, 3, 3, 3]
0.03364943 0.2839643 -0.068743706 -0.14334653 -0.066497445 -0.029701354 0.08831862 0.042308547
0.16296797 -0.026762204 0.123344295 0.01658835 0.012846103 -0.030388763 -0.065523304 0.10263635
0.21913564 0.09681788 -0.010022394 0.025964424 -0.041078202 -0.02823844 -0.02453051 0.07101092
0.047514006 0.1384675 0.0821018 -0.037204795 -0.08660211 0.14354473 0.056201126 0.10653031
-0.03028251 0.074200645 0.013231951 0.022298805 0.024887323 -0.0685403 0.043353047 -0.035764802
0.15322231 0.029213287 -0.06265155 0.09903522 -0.11116538 0.028007973 0.0046729906 -0.051946096
-0.018946007 0.014055223 -0.10712676 0.025602086 0.17354941 0.018133352 -0.14533462 -0.06456106
0.17471343 -0.16894534 -0.13522589 -0.018988634 -0.034969795 0.13772346 0.12223579 -0.47083354
-0.12770744 0.1180778 -0.17188561 -0.05431048 0.013969967 0.07196207 0.10168227 0.1573718
-0.051271662 -0.10064188 0.026593357 -0.14665584 -0.056541372 -0.02928258 0.0012788202 0.21634084
0.16219078 -0.04038252 -0.036999393 0.048544906 -0.058906984 -0.02956472 -0.051095802 0.083600365
-0.039813176 -0.094043635 -0.011188357 0.05147788 -0.017381608 0.049727082 0.062124398 0.038651235
-0.067927025 0.017227087 -0.06825221 0.06456423 0.010378634 -0.056946516 0.1731127 0.073722
0.022720875 -0.06783328 -0.05980164 -0.08745916 -0.07951672 0.008177779 -0.22875817 0.03481777
0.1478824 -0.084047064 -0.027213125 -0.060797565 -0.11643737 -0.1296305 -0.0711059 -0.014512608
-0.028922012 -0.1664043 -0.07392555 -0.035865914 -0.10035111 0.009753682 -0.07703522 0.054350916
0.13072379 0.02725018 -0.20948815 -0.12423883 0.025408432 -0.12889376 -0.10306432 0.088226184
-0.08249099 -0.051435083 -0.0525163 -0.11483353 -0.118512124 -0.047192104 0.0789294 -0.018636007
0.09212827 -0.007272085 0.0025502434 0.16987298 0.069160976 0.020338107 0.11609896 0.09131153
-0.035001766 -0.34004205 -0.23204415 -0.1290377 -0.14034285 0.05894924 0.14020932 -0.13319215
0.040376756 0.06746041 0.03599201 0.014514254 -0.16407922 -0.022254819 -0.07077251 -0.031674642
-0.029505925 0.028180882 0.1330446 -0.060625423 -0.05998277 -0.15631865 -0.16726509 -0.16508164
0.021375457 0.058670953 0.057450745 0.033184715 -0.019055543 0.03976346 -0.109692745 -0.2692371
-0.014695217 -0.07617354 -0.24347426 0.14737916 -0.053667106 -0.02260194 0.0047663 0.007617541
-0.027690075 -0.21029924 0.005823212 -0.035324298 -0.10486892 -0.0002563943 0.020679353 -0.019773677
0.094374076 -0.016776117 -0.053669713 0.035029776 0.044723954 -0.04245803 0.021910347 0.10058815
0.008937866 0.11303243 0.08257225 -0.018562134 0.036990315 0.10620016 0.031292792 0.024625849
-0.06911034 0.07136355 -0.020119056 -0.16468163 -0.16502632 0.12126253 -0.0028808857 -0.08466628
0.10821703 -0.09163321 0.06326641 -0.10063417 -0.010080256 -0.054673243 0.061435983 0.08994905
-0.04806189 0.05632242 -0.035638716 0.07659025 -0.08618466 -0.0018278066 0.1214885 0.122169815
0.05725626 0.021931076 0.075656965 -0.038201876 0.060193077 -0.10474776 -0.0043108566 0.2572874
-0.015367015 -0.13635603 0.03174327 0.1524846 0.023300849 0.08750133 0.07372597 0.034432273
00000000: fcd3 093d c563 913e 80c9 8cbd 6fc9 12be
00000010: d02f 88bd 4150 f3bc 65e0 b43d ba4b 2d3d
00000020: 13e1 263e 693c dbbc ef9b fc3d 4be4 873c
00000030: 7678 523c dbf1 f8bc 1531 86bd 0233 d23d
00000040: 1865 603e 7448 c63d f834 24bc 58b3 d43c
00000050: 9e41 28bd 4d54 e7bc 35f4 c8bc 2c6e 913d
00000060: 0c9e 423d 6dca 0d3e fd24 a83d 0e64 18bd
00000070: 725c b1bd 64fd 123e 2733 663d 902c da3d
00000080: 0713 f8bc 82f6 973d d3ca 583c fcab b63c
00000090: 80e0 cb3c db5e 8cbd f792 313d 1d7e 12bd
000000a0: 4fe6 1c3e b450 ef3c 754f 80bd fad2 ca3d
000000b0: adaa e3bd fa70 e53c e31f 993b 6ec5 54bd
000000c0: a834 9bbc e147 663c 4665 dbbd 77bb d13c
000000d0: f0b6 313e 658c 943c 99d2 14be 9738 84bd
000000e0: 14e8 323e 0200 2dbe a878 0abe 0d8e 9bbc
000000f0: 7d3c 0fbd 6107 0d3e c256 fa3d 1811 f1be
00000100: bdc5 02be c6d2 f13d c802 30be aa74 5ebd
00000110: 4ae2 643c da60 933d cb3e d03d 1326 213e
00000120: 3c02 52bd 541d cebd 50da d93c f32c 16be
00000130: ed97 67bd 05e2 efbc 169e a73a 7488 5d3e
00000140: 5715 263e 2468 25bd ad8c 17bd 06d7 463d
00000150: 7348 71bd b631 f2bc d549 51bd ab36 ab3d
00000160: 2413 23bd f399 c0bd 5f4f 37bc 78da 523d
00000170: e063 8ebc a0ae 4b3d 2776 7e3d c250 1e3d
00000180: 531d 8bbd d21f 8d3c d1c7 8bbd 403a 843d
00000190: 250b 2a3c c040 69bd 7544 313e 8ffb 963d
000001a0: 2121 ba3c 2dec 8abd 91f2 74bd ca1d b3bd
000001b0: a9d9 a2bd 17fc 053c 953f 6abe 149d 0e3d
000001c0: 7c6e 173e de20 acbd 0fee debc de06 79bd
000001d0: b776 eebd dcbd 04be f89f 91bd 4ac6 6dbc
000001e0: dbed ecbc e465 2abe 4766 97bd 23e8 12bd
000001f0: e284 cdbd e8cd 1f3c a4c4 9dbd 119f 5e3d
00000200: 75dc 053e c53b df3c 1084 56be ed70 febd
00000210: 5825 d03c bafc 03be 6313 d3bd eeaf b43d
00000220: 09f1 a8bd 98ad 52bd 551b 57bd d72d ebbd
00000230: 7cb6 f2bd 824c 41bd bda5 a13d 8aaa 98bc
00000240: bfad bc3d ac4a eebb fc21 273b 2ff3 2d3e
00000250: 45a4 8d3d 1a9c a63c 4bc5 ed3d 8a01 bb3d
00000260: 035e 0fbd fe19 aebe fb9c 6dbe 7522 04be
00000270: 09b6 0fbe c274 713d 0893 0f3e 8663 08be
00000280: 1962 253d af28 8a3d 5c6c 133d 32cd 6d3c
00000290: 6204 28be bd4f b6bc 2df1 90bd 45bd 01bd
000002a0: 69b6 f1bc 98db e63c d83c 083e 5d52 78bd
000002b0: 7eb0 75bd ff11 20be 8a47 2bbe 290b 29be
000002c0: 951b af3c f450 703d 7951 6b3d b2ec 073d
000002d0: 5f1a 9cbc 03df 223d 97a6 e0bd 72d9 89be
000002e0: 35c4 70bc df00 9cbd 5151 79be 90ea 163e
000002f0: 0ad2 5bbd b427 b9bc 9f2e 9c3b 919c f93b
00000300: 4cd6 e2bc af58 57be a5d0 be3b 36b0 10bd
00000310: 84c5 d6bd a96c 86b9 bf67 a93c 68fc a1bc
00000320: 3247 c13d 116e 89bc c6d4 5bbd 627b 0f3d
00000330: 7730 373d 79e8 2dbd 547d b33c 2901 ce3d
00000340: 2170 123c 8c7d e73d a41b a93d 9e0f 98bc
00000350: 2883 173d 787f d93d df2c 003d 26bc c93c
00000360: b989 8dbd 0e27 923d b8d0 a4bc 4da2 28be
00000370: a9fc 28be 7d58 f83d 3ecd 3cbb 8465 adbd
00000380: e4a0 dd3d 31aa bbbd d291 813d 4a19 cebd
00000390: a827 25bc 0df1 5fbd 4ca4 7b3d 3537 b83d
000003a0: 8bdc 44bd 56b2 663d e7f9 11bd 59db 9c3d
000003b0: 9581 b0bd 0393 efba f6ce f83d 2b34 fa3d
000003c0: 8a85 6a3d cda8 b33c 0af2 9a3d 9279 1cbd
000003d0: 048d 763d fe85 d6bd 1642 8dbb 2dbb 833e
000003e0: efc5 7bbc eaa0 0bbe 3b05 023d ec24 1c3e
000003f0: 6ce1 be3c e633 b33d a4fd 963d db08 0d3d
