DeepWonder3D_pytorch/pth/SEG_pth/Unet4_no_end_UNet3DFFD_20240401-1432_2um/seg_310.pth (torch, 138281 bytes, 19 tensors)

Generator.conv1.conv1.0.weight f4 [8, 1, 3, 3, 3]
000000 e2 45 f7 3d 90 9f ce 3d 1a d5 69 bd ea b8 12 3e
       0.12073876 0.10089028 -0.057087995 0.14328352
000010 ea 7b f7 bd d0 90 01 be cc bf 65 bb ef 32 94 bb
       -0.120841816 -0.12652898 -0.0035056947 -0.0045226733
000020 78 56 bb 3d d2 1e 57 3d 39 37 1e be 1f 76 b3 3d
       0.09147352 0.052519627 -0.15450753 0.08762764
000030 cb 37 0b 3e 38 a2 e0 3d 36 af 02 3d 70 2d 3d be
       0.13595502 0.10968441 0.031905375 -0.18474364
000040 3c 8d b3 3d 5f f4 56 be df 24 d5 bd 07 63 ee bd
       0.08767173 -0.20991658 -0.10407423 -0.11639982
000050 63 33 80 bd 75 22 ed 3c 33 bb 63 bd 70 55 61 3d
       -0.06259801 0.028947094 -0.05559845 0.05501312
000060 c8 23 58 be b8 4d 2f 3d 5b 2a 36 3e b4 25 27 3e
       -0.211074 0.042798728 0.17789595 0.16322976
000070 6d 22 28 3e 51 a7 b3 3c 20 58 a9 3d f1 42 08 be
       0.16419382 0.021930369 0.08268762 -0.13306786
000080 75 08 3b be d2 4a fd 3d f2 5b 42 3c 1e 4f b9 bd
       -0.18264945 0.123677865 0.011862742 -0.090482935
000090 90 0c e3 bd 98 a3 26 3e 72 95 22 bd e4 d4 06 be
       -0.110863805 0.16273344 -0.039693303 -0.13167149
0000a0 c2 0e 9c bd 9a 0e 14 3c 47 9a 51 be 21 29 5f be
       -0.07620002 0.009036684 -0.20469008 -0.21793033
0000b0 ff 37 b8 bc a0 0c 04 3e 1f 1d 32 3d 58 66 5c 3e
       -0.022487639 0.12895441 0.043484803 0.21523416
0000c0 bc 04 32 3e 36 ba aa bd 2f 1b 28 3e 97 a9 ae 3d
       0.17384619 -0.08336298 0.1641662 0.085284404
0000d0 a2 be 05 be 9f 78 a4 bd 6d de 7e 3d e0 89 2e bd
       -0.13061002 -0.08030819 0.06222384 -0.042611957
0000e0 e8 ab f9 bd f8 4e dd 3c 70 4d cd 3d 13 b0 df bb
       -0.12190992 0.027015194 0.10024536 -0.0068264096
0000f0 ac 26 21 be c0 16 e1 bd 20 01 65 bd 44 70 01 3d
       -0.15737408 -0.10990667 -0.055909276 0.031601205
000100 0f 8f b8 3d 28 fc 33 3c 3d 25 40 bd 15 0f 13 3d
       0.09011661 0.010985412 -0.046910513 0.035903055
000110 72 2f 8d 3d ef c8 92 3d 66 9c 6d 3c f9 bf 9d 3c
       0.06893815 0.07167231 0.01450262 0.019256579
000120 b7 22 1b be 23 c7 4f 3d 27 5e 5f 3d 5d 32 e6 3b
       -0.15149961 0.05072702 0.05453315 0.0070250467
000130 95 ed 6c bd 33 80 d3 3d 53 84 e7 be 14 cf 22 bc
       -0.057843763 0.103271864 -0.45218143 -0.009937067
000140 03 b3 8b be 5a ee ba bd 98 b5 19 be 48 1b 1f 3e
       -0.27285013 -0.09127493 -0.15010679 0.1553775
000150 5c df 4a be 12 f6 96 bd c0 e3 b9 bc f5 a4 a4 3d
       -0.19811767 -0.07371153 -0.022691607 0.080392756
000160 fe de ea bd 22 6a 60 3d ee 29 54 be 7e 42 76 bd
       -0.11468314 0.054788716 -0.2071912 -0.060122006
000170 27 07 d1 3c 04 99 d0 3d c1 92 4b be a8 5f 28 be
       0.025516106 0.101854354 -0.19880201 -0.1644274
000180 9d 38 16 bd 9c a4 ff 3d 47 0c b2 3d 64 e8 60 bd
       -0.036675084 0.124825686 0.08693748 -0.054909125
000190 30 7c 7e 3d 0c d1 b7 3d 09 28 84 bd 52 fb 6c 3d
       0.062130153 0.089754194 -0.064529486 0.057856865
0001a0 b5 6a 9f 3d 67 b8 7c 3c bb 70 27 be 21 da 63 be
       0.077840246 0.015424824 -0.16351597 -0.22251178
0001b0 81 ff 37 3e a8 2c 2a be bb 4d 2a bd 2e 3e 01 be
       0.17968561 -0.16618598 -0.041578036 -0.12621376
0001c0 4c d4 0b bd e1 3e b2 3c 73 85 0e bd ab 67 82 3d
       -0.03413801 0.021758499 -0.034795236 0.06367429
0001d0 1e cd 5d 3d 1e 93 0f 3a 55 2f 9f 3d 74 a2 44 be
       0.054150693 0.0005476939 0.077727 -0.19202596
0001e0 19 6e 4d bd 22 7b 27 bd 76 5e c3 3b ed c1 ef 3d
       -0.050153825 -0.040888913 0.0059621884 0.1170691
0001f0 b4 2e a8 3c 79 89 09 3e 71 85 3f be 66 3d 84 3d
       0.020530082 0.13431348 -0.18703248 0.06457023
000200 6e 9a d6 3d 1b 85 cd 3d ca fd 17 3d 8f b3 c9 bd
       0.10478674 0.100351535 0.037107266 -0.09848701
000210 85 15 1e be 71 98 a4 bd 7d bd e4 3d 99 8f 0f 3d
       -0.15437897 -0.080368884 0.111689545 0.035049055
000220 16 29 eb bd a3 c5 ed 3d 5e ef da 3d a7 ee 95 bd
       -0.11482446 0.11609962 0.10690187 -0.0732091
000230 71 0a 05 be 33 32 3c be 0b 40 3e 3e 92 ab e5 3c
       -0.12992264 -0.18378524 0.18579118 0.028035913
000240 1f 39 bc bd 7b eb 48 be 40 1e 60 3d 60 74 b8 3d
       -0.091905825 -0.19621079 0.05471635 0.09006572
000250 00 f4 31 be 38 2b 5b be fc 84 9c bd e7 26 a2 3d
       -0.17378235 -0.21403205 -0.07642552 0.07917576
000260 c6 51 20 3e 7d 91 10 bd 0e 2e 26 bd fa 20 f1 3d
       0.15656194 -0.035295 -0.040571265 0.11773868
000270 0a fb ca 3c e3 b1 30 3e 23 35 9f bd 02 5b ad 3b
       0.024777908 0.17255358 -0.07773807 0.00529039
000280 0b e2 f7 bc 7f d2 58 3e 3c d6 66 be c0 bc 1f 3e
       -0.030259153 0.21174048 -0.22542661 0.15599346
000290 70 43 a5 bd 72 ca ab 3d 4e ff b6 3b 20 39 24 bd
       -0.08069503 0.08388223 0.005584634 -0.04009354
0002a0 21 9b e7 3c d0 ea a2 bc 97 e7 88 3d 1b 5b 56 3d
       0.028272213 -0.019887358 0.06684797 0.05233298
0002b0 4b f1 8e bd 0c d9 6a 3e fa d2 53 be 3b c5 a2 bd
       -0.06979617 0.2293436 -0.2068595 -0.07947775
0002c0 58 90 0a 3d 3f f0 7f bd 59 8b f2 3d 1f d5 53 3d
       0.033829063 -0.062484976 0.11842985 0.05171692
0002d0 76 15 9d bd 69 32 59 bd 44 cf dc 3d 9d 12 16 be
       -0.07670109 -0.05302659 0.1078172 -0.14655538
0002e0 f4 2e 5d 3d 0c 12 e2 3d f2 ad 0a be 1c 4c f2 bb
       0.053999856 0.110385984 -0.13542917 -0.007394327
0002f0 09 16 27 3e 0c c2 71 bd 6c 56 01 3e 71 8c 59 3b
       0.16317 -0.05902295 0.12630624 0.0033195282
000300 9f 27 f4 3c 49 6b e3 3d 24 92 5d be 73 b2 a5 bd
       0.029804049 0.111044474 -0.2163778 -0.08090677
000310 dc 4f 19 3c fb 80 f4 3d 7d 7a 2e bd 6f 3e 93 bd
       0.009357419 0.119386636 -0.042597283 -0.07189643
000320 80 7a 64 bd b3 5c 5b be 9a 29 1a 3e f1 d4 bd bd
       -0.055780888 -0.2142208 0.15054932 -0.09269131
000330 be 6a c7 bd 94 07 3d 3e a9 bf ef 3c d4 e6 c3 bd
       -0.09737156 0.18459922 0.029266195 -0.09565511
000340 b4 f9 e9 bc fb 40 a7 bc 43 41 79 be 24 8b d8 3d
       -0.02856145 -0.020416727 -0.24341302 0.10573414
000350 0f 1d dd bd 55 d0 59 be 11 22 91 bd 1a e6 d8 3d
       -0.10796558 -0.21270879 -0.07086576 0.105907634

Generator.conv1.conv2.0.weight f4 [8, 8, 3, 3, 3]
000000 94 7b 1a 3e 55 2b 4c 3d 4e 63 1a 3d 2f 2b 18 3d
       0.15086204 0.049846012 0.03769236 0.037150558
000010 fd ef 00 bd 2d a4 b4 3d 57 9b 38 3e c4 5a 1b 3e
       -0.03147887 0.088203765 0.18028007 0.15171343
000020 14 22 9e 3e d8 1b 40 3c 65 d9 4f 3c c7 40 64 3d
       0.30885375 0.0117253885 0.012686108 0.05572584
000030 57 98 42 3d b6 d0 cf 3d 7d a6 bd 3c 4a 46 80 3d
       0.047508564 0.1014723 0.023150677 0.062634066
000040 c4 f7 88 bc c1 e9 16 3e 4d 04 0f 3d cb bf 34 3e
       -0.016719706 0.14737608 0.03491621 0.17651288
000050 ad e2 1a 3e 4e 68 15 3e e7 05 4a 3e 40 84 34 3e
       0.15125532 0.1459057 0.19728814 0.17628574
000060 cf 45 f5 3d f0 df 16 3e cc 1c 31 3e 71 fe 15 be
       0.119762056 0.14733863 0.17296141 -0.14647843
000070 0c d5 dd bc 83 65 71 be 13 dc b9 bd 17 c9 ed bc
       -0.027079128 -0.2357388 -0.09075179 -0.029026551
000080 92 2f 9d be d5 9a b4 bc d2 72 b4 3d 5f ee 99 bd
       -0.30700356 -0.022046486 0.08810963 -0.07516169
000090 ec 3d e3 bd e2 80 49 3e 9f dd 82 be 99 39 c3 bd
       -0.11095795 0.19678071 -0.25559708 -0.0953247
0000a0 bb cf 00 3e 96 e4 0d bf 94 7b 67 bd db bd 9d 3d
       0.12579243 -0.5542692 -0.056514338 0.07702228
0000b0 04 ec da 3c d0 b0 7c 3d 02 e9 75 3e 21 2d b2 be
       0.02672387 0.06169206 0.24014667 -0.34800056
0000c0 a9 f8 ab bd 44 33 0b 3e e7 fd 08 bf 6d 70 ca bd
       -0.083970375 0.13593775 -0.53512424 -0.09884725
0000d0 9d 33 e3 3c 29 59 7d 3c 9e 49 82 3d 77 20 b5 3c
       0.027734572 0.015463152 0.063616976 0.022110207
0000e0 e7 2c f0 3c 05 e6 ed bc 21 2a a1 bd e4 bb b7 bc
       0.029318286 -0.029040346 -0.078693636 -0.02242846
0000f0 d6 a7 85 3d 62 12 dc 3c 27 4c 02 bd 66 57 5d 3e
       0.06526153 0.026864234 -0.031810906 0.21615371
000100 e0 73 da bc 8e 86 4a 3d 15 7f 99 3c 53 6a 37 ba
       -0.026666582 0.049444728 0.018737355 -0.00069967395
000110 b4 5f 2a 3e c6 28 02 3e 8c 4e 40 3d b2 46 6d 3d
       0.1663807 0.12710866 0.046949908 0.05792875
000120 80 4d eb 3d c3 e9 8f 3d ee 06 a7 3d 93 4c ca bd
       0.11489391 0.070270084 0.081556186 -0.098778866
000130 76 f0 d4 38 bb 60 c0 3c d4 80 c0 3d fc a8 cd 3d
       0.00010153737 0.023483625 0.09399572 0.10041997
000140 71 b0 82 3d e0 56 c4 bc 45 59 7d 3d 17 fb 29 3d
       0.0638131 -0.023967206 0.061852712 0.041499224
000150 ac 62 0f 3e 73 63 06 3b ae 29 ce bb 53 5b 05 3c
       0.14002484 0.0020506054 -0.0062915897 0.008139449
000160 c0 52 23 bd 1f d0 0e 3c 81 7a aa 3c 5e c8 91 3c
       -0.03987384 0.008716612 0.020810368 0.017795738
000170 32 9a 2e 3d 30 9e 3a bd 79 60 72 3c 6c 21 6b 3d
       0.04262752 -0.045561016 0.014793509 0.05740492
000180 b8 1c 0f bd 8b ba be 3c 90 e7 e5 3c aa c6 88 3d
       -0.034939498 0.02328231 0.02806452 0.06678517
000190 0a 7e 3d bd 4e 2c 47 bd a6 46 fe bb c2 67 1c 3d
       -0.04626278 -0.048626237 -0.007759887 0.03818489
0001a0 55 41 55 3d 4f 04 f8 3c 4e 68 1d 3d 85 f8 9c 3c
       0.05206426 0.030275492 0.03842955 0.019161472
0001b0 2b 68 ee bd c2 da 65 be 34 85 3f be de f5 83 bd
       -0.11640962 -0.2244673 -0.18703157 -0.0644338
0001c0 04 d1 95 bc 36 85 17 be 65 61 0f bc 22 9d 22 3b
       -0.018288143 -0.1479691 -0.008751248 0.0024812897
0001d0 96 36 71 3d f2 41 59 bd d4 f6 33 3d a6 81 0d 3e
       0.058889948 -0.053041406 0.043936566 0.13818988
0001e0 e1 20 96 bc 1e c8 3d 3d a2 54 a3 3d 76 5a 89 bd
       -0.018326225 0.046333425 0.07975127 -0.06706707
0001f0 a5 56 d7 3d a2 21 d0 3d 40 e0 a4 bd 52 21 73 3e
       0.10514573 0.10162665 -0.08050585 0.2374318
000200 77 a3 3f 3e 44 e4 09 bd 76 b8 25 3e cc 68 bf 3b
       0.187147 -0.033664957 0.16183648 0.00584135
000210 d5 56 63 be 27 ac 20 3e c1 96 54 3d 7e 46 c7 bc
       -0.22201093 0.15690671 0.051901583 -0.024325605
000220 f6 9f 6f 3e da a8 c1 3d c1 51 9b bd 7e d1 88 3d
       0.23400864 0.09456034 -0.07583953 0.066805825
000230 f3 82 7d bd c3 7c 0b 3c 70 0a 13 be 1d c0 1a bd
       -0.06189246 0.008513632 -0.1435945 -0.03778087
000240 c9 e9 51 be eb b8 5d 3e 8e 5f af 3d 46 95 e2 bd
       -0.20499338 0.21652572 0.085631475 -0.11063628
000250 c4 2b dc 3d 1d 5a 3a bc 9a 87 21 bd f8 fc 14 3d
       0.10750535 -0.011374024 -0.03943596 0.036374062
000260 18 f2 60 bd 24 07 96 bd 03 6f 77 3e d5 2e 1c 3e
       -0.05491838 -0.07325581 0.24163441 0.1525224
000270 96 ef 78 bd 7d db 6a 3e 73 f4 d6 3d 36 a3 36 be
       -0.060775362 0.2293529 0.10495844 -0.17835698
000280 9c bc e2 bc c9 b5 3c 3c 93 fa 95 3d 8b 5c ed bd
       -0.027677827 0.01151795 0.07323184 -0.11589917
000290 f8 70 f6 bd 57 8d 86 3d 92 81 8c bd 93 10 8a bd
       -0.12033266 0.06569927 -0.06860651 -0.067414425
0002a0 d0 69 fd 3d ea c7 4c be 61 66 b9 bb 21 71 63 3d
       0.12373698 -0.19998136 -0.0056579565 0.05552781
0002b0 6a a6 2e be a6 d7 e1 bb ac 1f e5 3c 83 e7 43 bc
       -0.1705567 -0.0068921624 0.027969204 -0.011957052
0002c0 7b bf 78 bd 26 d6 74 bd c6 fc 4a be 19 de 3d bd
       -0.060729485 -0.05977454 -0.19822988 -0.046354387
0002d0 3c af 20 3d 94 8e 70 bd ee 6b 02 3e f8 66 b1 bc
       0.039229617 -0.058729723 0.12736484 -0.021655545
0002e0 ff 8c ce 3d e0 68 d2 3d 94 4b b3 bd c2 1b d0 be
       0.100854866 0.102739096 -0.0875465 -0.40646178
0002f0 ea ba bf bd d5 03 de 3c f7 01 96 bd f3 b2 8a 3b
       -0.09361823 0.027101437 -0.073245935 0.004232758
000300 d5 75 a3 3d b6 ff d6 3c 82 74 37 3d ae b6 90 3d
       0.07981459 0.02624498 0.044788845 0.070660934
000310 ed 84 8a bd fb 9c 2e 3c cf ed ef 3c 56 65 ac be
       -0.06763635 0.010657544 0.0292882 -0.33671063
000320 9c 6c 7e 3d 12 b2 e2 3c 26 d3 91 be 03 4b ed 3d
       0.062115297 0.027672801 -0.28481406 0.11586573
000330 07 3a cb 3d ed 93 b9 be 2e 07 85 3d e7 73 d4 bd
       0.09923177 -0.3624567 0.0649551 -0.10373669
000340 db 52 14 3e d6 37 38 be f4 8f 17 be 04 0f 53 3e
       0.14484732 -0.1799005 -0.14801008 0.20611197
000350 04 54 36 be da db 6c be 08 bd 02 3e 79 db 15 be
       -0.17805487 -0.23130742 0.12767422 -0.14634503
000360 8b 38 11 3e cc a8 98 3e 26 be 7a 3e 19 8c 22 bc
       0.14181726 0.29816282 0.24486598 -0.009921097
000370 ef 03 b2 3d 80 80 f5 3d bb b4 95 3e 60 ec 97 3e
       0.086921565 0.119874 0.2923945 0.29672527
000380 39 21 8e 3e 33 1c 20 3e 42 ad 9c 3d f6 ce 5c 3e
       0.27759722 0.15635757 0.07650234 0.21563324
000390 8c e6 77 3d 11 83 a4 3d 42 40 ac 3d 8e 50 9a 3d
       0.0605226 0.080328114 0.08410694 0.07534896
0003a0 4c ec d0 bb f5 af af 3d 54 c7 95 3d ca bf c2 3d
       -0.006375825 0.08578483 0.073134094 0.09509237
0003b0 a5 2c f1 3c 88 ee d7 3d 59 00 b1 3d fa a1 b1 3d
       0.029440233 0.10543543 0.086426444 0.08673473
0003c0 8a f5 8c 3d 60 ed c9 3a 2c a8 d4 3d 41 4d a7 bd
       0.0688277 0.0015405826 0.10383639 -0.08169032
0003d0 bc 60 75 bd 56 39 67 bd 32 a8 6f bd 53 38 c2 bd
       -0.059906706 -0.056451164 -0.058510013 -0.09483399
0003e0 11 13 17 ba f5 41 82 3c 8a 91 9f bb 24 09 8f bb
       -0.0005763034 0.015900591 -0.0048696445 -0.0043651033
0003f0 2c 13 b5 3d 72 06 cf bb ca 22 55 bb 44 14 ac 3d
       0.08841547 -0.006317907 -0.0032521957 0.08402303

Generator.conv2.conv1.0.weight f4 [8, 8, 3, 3, 3]
000000 48 36 ba 3d 1c c8 81 bc f6 8e c6 bd a6 a8 ba 3e
       0.090923846 -0.01584249 -0.096952364 0.36456794
000010 b3 f0 07 3e 2c f8 8b bd a5 83 42 be 2e 1f 3d 3d
       0.13275413 -0.068344444 -0.18995531 0.046172313
000020 62 a0 f1 3d e6 f1 aa bd e8 27 71 bd c5 99 2f bc
       0.11798169 -0.0834692 -0.05887595 -0.010717814
000030 c0 e8 c3 bd 0a fc 16 bc 5f a7 b2 3c 04 d6 2e bd
       -0.09565878 -0.009215364 0.021808324 -0.04268457
000040 08 c7 95 bd 72 ac cd 3d bf 24 b6 3b 7c 1c 81 bd
       -0.07313353 0.10042657 0.0055585797 -0.06304261
000050 3f b4 ec bc b5 92 9a bc 11 d4 44 bd 00 da 14 3d
       -0.028894542 -0.018868783 -0.048053805 0.036340714
000060 04 77 44 3c 84 31 08 bc 56 75 aa 3d 18 31 41 3d
       0.011991266 -0.008312587 0.08323161 0.04716596
000070 6e 38 1d bd bf dd 47 bd 77 99 32 3c a0 57 60 bb
       -0.038383894 -0.048795458 0.010900847 -0.0034231916
000080 fb b5 9e bc 2a 89 8b 3d 0d ea 99 3d c5 cf 16 3c
       -0.019373884 0.06813271 0.07515345 0.00920481
000090 56 b8 2f be 0e d6 0b be f0 82 9c bd 60 61 c6 bd
       -0.17160162 -0.13655874 -0.07642162 -0.096865416
0000a0 d2 fc 70 bd a5 a8 2c bd ef 61 ce 3d f4 d6 34 bc
       -0.05883486 -0.04215302 0.10077273 -0.011037577
0000b0 e5 c8 e9 bc 74 b9 5b bd cf a6 86 bd 3a 59 30 be
       -0.028538177 -0.05364366 -0.06574785 -0.17221537
0000c0 a5 0c 37 3b a0 c0 7d bd 2d fd c2 bd 67 26 ab 3d
       0.002793112 -0.06195128 -0.09520946 0.08356934
0000d0 26 97 54 3b 8f f3 54 bd 4e 1a 72 3c a4 b6 d6 3d
       0.0032438724 -0.051990088 0.014776779 0.10484055
0000e0 2c 66 12 3e 41 01 29 3d 95 80 96 3d 15 e4 4a 3e
       0.14296788 0.04126096 0.07348744 0.19813569
0000f0 c8 70 89 bd cf c7 29 bd ce 71 ff 3c 31 8e 9e bd
       -0.067109644 -0.041450318 0.031182196 -0.077419646
000100 0b cf eb 3c 72 8c c6 3c 4d 15 53 bd 8f 54 46 3c
       0.02878525 0.024236891 -0.051533986 0.012105121
000110 af a6 91 3d e2 27 50 be 6d 12 0c bd 35 a7 07 3d
       0.071118705 -0.20327714 -0.03419726 0.033118445
000120 62 b3 19 bd 7e fc 19 3d 12 dc 8a 3d f6 12 9b bd
       -0.03752459 0.03759431 0.06780256 -0.07571976
000130 f7 e9 de 3d 53 c7 12 3e 2a d9 0d be a1 c8 59 bd
       0.10884469 0.14333849 -0.13852373 -0.05316985
000140 68 3d 91 3d 3e 19 63 bb b4 a2 02 bd 5f 88 6d 3d
       0.070917904 -0.0034652497 -0.031893447 0.05799138
000150 2f e6 f8 bd 94 7b 99 bd f8 a9 15 bc 3b 56 aa bc
       -0.12153279 -0.07494274 -0.009134762 -0.020793071
000160 b1 7a 27 bd 02 c4 c6 3d 86 78 36 3e 68 82 1e 3b
       -0.040888492 0.09705354 0.17819414 0.0024186615
000170 21 bb a2 3d d0 4d 6e 3c c1 4e f5 bc 9e ba 39 3c
       0.07945848 0.014544919 -0.02994478 0.011335997
000180 04 7a d8 3a ab 17 80 bd 62 26 df 3c 68 3f bf bb
       0.0016515856 -0.06254514 0.027239982 -0.005836416
000190 aa 3a ad 3a 9c d4 1e 3c 48 06 e7 bd fb c7 d1 bc
       0.0013216336 0.009694245 -0.11280495 -0.025608053
0001a0 d1 53 9b 3d 29 b4 80 bb 68 df 18 bd 2c 6a a6 3c
       0.07584346 -0.0039277268 -0.03732243 0.020314299
0001b0 aa e9 14 3d a8 8b 35 3d aa c1 33 bd a5 5f 3a 3b
       0.036355652 0.04432264 -0.043885864 0.0028438356
0001c0 d0 bc b7 bc a8 d3 f9 3c 6f 0a ce bc 8d 96 1a bb
       -0.0224289 0.030496433 -0.02515146 -0.002358827
0001d0 f2 a0 0b 3d e4 c5 39 3d 81 6f b7 3c 52 cf 98 3d
       0.034089036 0.04535474 0.022392036 0.07461418
0001e0 73 88 82 3d 79 67 ad 3d 5a cb ca 3d 3a 2b ab 3d
       0.06373682 0.084670015 0.099020675 0.08357854
0001f0 14 cf 2e bc 34 bb 08 3e 1b 71 60 bd 9f 32 82 bb
       -0.010669488 0.13352662 -0.054795366 -0.0039733197
000200 4e 9d 7e 3d 7c 1c 89 bd 1d 1c 06 3d a4 04 93 3d
       0.062161736 -0.06694886 0.032741655 0.071786195
000210 15 90 ad 3c 01 11 f0 bc 9e 8e 1b bd 9d 94 ac bc
       0.021186868 -0.029304983 -0.037977807 -0.021066958
000220 fe b7 e6 3d d0 b9 62 3d a4 8f e0 38 55 5c cf 3d
       0.112655625 0.055352986 0.000107079075 0.10125033
000230 57 2d a8 3d f0 ff 2a bd 16 d7 b2 bd f4 ea 6e bd
       0.08211773 -0.041747987 -0.08732431 -0.058329538
000240 b0 6c 95 bd 4e 13 9c bb 23 51 47 bb ad 9e 9a bd
       -0.07296121 -0.0047630435 -0.0030413351 -0.07549796
000250 a7 7b 7e bd c7 34 10 bd 89 ff bc bd 9e 25 03 be
       -0.062129643 -0.035206582 -0.09228427 -0.12807319
000260 d7 cc 6f 3d 73 c6 99 bd 7b 8a b4 bc 06 dc b4 bc
       0.05854496 -0.07508554 -0.022038689 -0.022077572
000270 72 59 c8 bd 95 02 c7 bc a6 fb b7 bd ca 04 1f be
       -0.09782685 -0.024293223 -0.08983545 -0.1552917
000280 81 6b 4e be e7 98 1e 3e c6 f0 9b 3d eb 69 6c 3d
       -0.20158197 0.15488015 0.07614283 0.0577182
000290 51 c4 8e 3d 25 05 af 3d 49 8e 1f 3c d6 06 04 3d
       0.06971038 0.08545903 0.009738513 0.03223308
0002a0 f9 db bc 3c 03 af b9 3d 42 33 03 3d 15 10 ad 3c
       0.02305411 0.09066584 0.032031305 0.021125833
0002b0 4d 5b c8 bb 34 32 f4 bb 92 bc 91 3d 5c c2 a6 3d
       -0.0061143995 -0.0074522737 0.07116045 0.0814254
0002c0 29 c3 cc 3d 1a 3b ca 3d 4a 79 3a 3d 28 ce 98 3d
       0.09998161 0.09874554 0.045525827 0.07461196
0002d0 e2 9e 31 3d c6 c1 26 bc 49 07 f5 bc 8d 5b 5e bd
       0.043364413 -0.010178035 -0.0299107 -0.05428653
0002e0 1e eb 54 3d 7a 32 e4 bc cb 90 e9 3c 64 cc 84 bd
       0.051982038 -0.0278561 0.028511425 -0.06484297
0002f0 99 6b be 3b bd f9 83 bc 16 30 12 bd 68 5b e4 3c
       0.0058111665 -0.016110295 -0.03569039 0.027875617
000300 05 c6 a2 bd 81 66 90 bd ad e8 5a 3d 64 73 ea bd
       -0.079479255 -0.07050801 0.053444553 -0.1144779
000310 d4 79 a9 bd 1c 81 b7 bc 15 95 25 bd 8e 55 86 bd
       -0.0827519 -0.022400431 -0.04042538 -0.06559287
000320 e6 14 6a 3b 88 17 dc bd a1 fc 76 bd ed 50 0c 3d
       0.0035718023 -0.10746676 -0.06029952 0.034256864
000330 ea 05 9e bd d1 dc 97 bd ff 1d dd 3d 65 cb a9 bd
       -0.07715972 -0.07415164 0.10796737 -0.082907476
000340 ac 18 7e bd b2 d5 11 39 bc 4b 42 bd ae 74 6b bc
       -0.062035248 0.00013907885 -0.047435507 -0.01437108
000350 30 aa 0b 3c 81 fc a7 bd 29 9e 42 bd 7b a6 c9 3c
       0.008524463 -0.08202458 -0.047514115 0.024615517
000360 60 ae 37 be bc d4 7e be 5b ec 02 3e a1 e6 c5 bd
       -0.17937613 -0.24885839 0.12785475 -0.096631296
000370 88 32 47 bc c1 7b bd 3b 6e 5d d3 3d c5 05 ae bc
       -0.012158044 0.005782575 0.10320555 -0.021242986
000380 3d d3 25 3e a7 04 34 bd 86 45 d2 bc 3c 1b 0c 3d
       0.16193862 -0.04394975 -0.025667917 0.03420566
000390 69 78 cd bc e7 1b 15 3c ba e7 8b 3c 31 8e 8f 3d
       -0.02508183 0.009100891 0.01707827 0.07009543
0003a0 00 e9 ce 3d bb ae f2 3c 39 e9 a5 3b aa bf d2 bd
       0.10103035 0.029624334 0.0050632027 -0.10290463
0003b0 19 ec 57 bd 34 c9 92 3d 9f 0f 0d 3b c9 8b da bc
       -0.052715395 0.07167283 0.0021524203 -0.026677983
0003c0 ed da a3 3d 6e 9f cb 3d 6d b4 f2 3c ef 34 d4 bc
       0.08000741 0.09942518 0.02962705 -0.025904147
0003d0 fb 39 ed 3b f3 63 87 3c 1c 30 a3 bd cb 59 2b 3d
       0.007239578 0.016527152 -0.079681605 0.04183368
0003e0 d8 ca 09 3d 86 b2 8a 3b 08 8f 0f 3d d7 5c 84 bc
       0.033640712 0.0042327074 0.035048515 -0.01615755
0003f0 45 eb 03 be a5 4c ef bd 7a c9 9d bd 85 9c dc bd
       -0.12882717 -0.11684541 -0.07704444 -0.10772041

Generator.conv2.conv2.0.weight f4 [8, 8, 3, 3, 3]
000000 4f 93 c3 3d 7f f5 8b bd 0e 52 2e bb 44 99 a5 3d
       0.09549581 -0.06833934 -0.0026599201 0.08085874
000010 bb 10 a1 3d 8b 2f 89 3d ce 73 7a 3d 8b 3e 6c 3d
       0.07864519 0.06698521 0.061145596 0.057676833
000020 20 1c 02 3e f4 4f 09 3e f4 1f c0 bc 7e b5 50 3d
       0.12706041 0.13409406 -0.023452736 0.050954334
000030 04 2e b0 3c 03 f8 ec bb 0c c1 26 bd f5 d1 9f 3d
       0.021506317 -0.0072317137 -0.040711448 0.07803718
000040 9e 86 4a bd 23 a4 14 3d 95 7e 2b 3d dc ea 8a bd
       -0.049444787 0.036289345 0.041868765 -0.06783077
000050 74 ec 41 bd 62 48 4a 3d 59 4c d1 bd 3b f3 ba bd
       -0.04734464 0.049385436 -0.1021964 -0.09128424
000060 d9 c6 c2 bd 87 f1 34 bd a8 97 46 bd 24 ef 08 3e
       -0.095105834 -0.04417565 -0.048484474 0.13372475
000070 f0 72 d6 3d cc 7a f2 3c 98 e6 80 3d 6e a2 cf 3d
       0.10471141 0.02959957 0.06293982 0.10138403
000080 bf 36 2d 3e 84 d1 4a 3d 93 43 37 3d d2 b3 f5 3d
       0.16915415 0.049516216 0.04474218 0.11997189
000090 d0 e4 cc 3d 32 e5 08 3d d1 09 85 3c c3 8a a9 3c
       0.1000458 0.033421703 0.016240032 0.02069605
0000a0 e5 2c dd 3d 71 8e 63 3d ef 7f 84 bb dc e1 cc 3a
       0.107995786 0.055555765 -0.004043571 0.0015631276
0000b0 78 78 fc 3d 02 d9 bf 3c d0 2c 56 3d f6 ce 74 ba
       0.12327665 0.023418907 0.05228883 -0.0009338701
0000c0 06 17 03 3d 3c 93 f4 3c 73 3e 32 3d e1 e6 17 bd
       0.03200438 0.029855363 0.043516587 -0.037085418
0000d0 8f 45 85 3d f2 33 25 3d ab 50 85 3e 2a 91 d5 3d
       0.06507408 0.040332742 0.26038107 0.104280785
0000e0 cd dc 86 3d 9f b9 9f bc 0f c0 eb bd e9 05 f5 bd
       0.06585083 -0.01949769 -0.11511242 -0.11964018
0000f0 cc a5 a6 3d 6d 27 9d bb f9 be 91 bd c9 84 99 bb
       0.08137092 -0.0047959597 -0.07116503 -0.0046850187
000100 e6 4f 02 be 58 41 08 3c ac 33 f7 bd 1e 6f 05 be
       -0.12725791 0.00831636 -0.120704025 -0.13030669
000110 5d f5 4c be 3f 77 1f 3d 7c ee 93 bc 55 19 40 be
       -0.20015474 0.03893208 -0.018058054 -0.18759663
000120 c6 dd e3 bc 82 2e bb bd 23 68 2c 3e 15 09 d1 bd
       -0.02781571 -0.0913973 0.168366 -0.102068104
000130 a2 6c 21 be 11 1c bf 3c bc 25 aa 3d 9b 90 11 3d
       -0.15764096 0.023328813 0.083079785 0.035538297
000140 1d 81 1e 3b bc 61 c1 3d 66 97 a3 3d 65 d1 1a 3e
       0.0024185844 0.094424695 0.07987861 0.1511894
000150 8c 07 42 3d 1f ab 15 3d c8 a7 de 3c b2 c4 24 3e
       0.04737048 0.036540147 0.027179614 0.16090658
000160 22 07 a4 3c e6 a0 16 3c ef 32 1f 3e db ab 5f 3c
       0.020022932 0.009193635 0.15546773 0.013651813
000170 7b 65 cb 3d 2d 77 57 bd 53 ba 09 be 30 b6 af bd
       0.09931465 -0.05260389 -0.13449983 -0.085796714
000180 ac 2c be bc 86 c8 14 be 3e 37 88 3c 21 db 56 bc
       -0.02321466 -0.14529619 0.016627904 -0.013113768
000190 e0 5a 6e bd e9 96 9e 3d 43 1c d1 bd 97 dc a3 bd
       -0.058192134 0.077436276 -0.102104686 -0.080010585
0001a0 b8 04 26 bd dd 17 cb 3d 7f 5d 8d bd b3 9d bf bc
       -0.040531844 0.09916661 -0.069025986 -0.023390627
0001b0 f0 a4 b2 bd 40 76 59 bd cd 2f b0 bc ab 41 57 3d
       -0.087228656 -0.053091288 -0.021507168 0.05255286
0001c0 c9 79 9c 3d 8a a5 30 3c 5a b9 8f 3d e6 9a 19 3d
       0.07640416 0.010781655 0.07017775 0.03750124
0001d0 6c 7b 16 bb 67 7a 26 be de 74 e8 bd 7f cc 94 3c
       -0.0022961749 -0.1625763 -0.11350416 0.018163918
0001e0 7c 06 8e bd b2 22 6e bd b2 b0 a8 3c c9 b4 c7 3b
       -0.069348305 -0.058138557 0.020592067 0.0060945493
0001f0 51 b6 10 bd 38 42 f8 3c 67 fe 16 be 1b a9 ef bd
       -0.03533012 0.030305013 -0.14745484 -0.11702176
000200 e7 9d 93 3c 79 51 1c 3e 10 5c 79 3d 7e 3c 06 bc
       0.01801963 0.15265454 0.060878813 -0.008193133
000210 28 02 c9 3d 63 0a 5f bd 6e 93 16 be 72 a3 67 3d
       0.098148644 -0.054453265 -0.14704677 0.056552358
000220 9d cc 81 be 6f 82 85 be 08 fe 00 bd 53 58 56 be
       -0.2535142 -0.26076075 -0.031492263 -0.2093213
000230 fb de 5a bc 00 af 40 be 37 41 84 be 4d aa f9 3d
       -0.013358827 -0.18816757 -0.25831005 0.121906854
000240 62 be 09 3c 27 be b1 bc d1 72 15 be 9d a1 53 3b
       0.008407207 -0.021697117 -0.1459458 0.0032292374
000250 18 86 ab bd 07 9b 0e be 2b 0c db 3c ff 1d 56 be
       -0.08375186 -0.13926326 0.0267392 -0.2090988
000260 fd ab 1e be 03 2d c6 3d 68 98 62 ba 89 58 91 bd
       -0.15495296 0.09676554 -0.0008643926 -0.07096965
000270 c4 d7 9b 3d 1b 24 08 bd 01 80 3b be b5 27 e6 3d
       0.076095134 -0.033237558 -0.18310548 0.11238042
000280 84 39 29 be 26 40 0a bd 8f 4e 18 3e 7c ca a2 3d
       -0.16525847 -0.033752583 0.14873718 0.07948777
000290 02 18 6d 3e 4c df 14 bd 63 15 e6 bc 98 7b c1 bd
       0.2315369 -0.036345765 -0.02808637 -0.09447402
0002a0 23 d4 43 3d a4 ee 1b be 1a 4e 6a bd 81 b1 9f 3d
       0.04780973 -0.15227753 -0.05720339 0.07797528
0002b0 cc 32 3e 3d 5a 74 52 3e b1 4e 9c 3d 0f 7d 10 bd
       0.046435162 0.20552197 0.07632197 -0.035275515
0002c0 62 b0 87 bd 46 de f1 bc 91 f6 95 bd f5 3a 81 bd
       -0.06625439 -0.029524934 -0.073224194 -0.06310073
0002d0 7f 63 a6 bc 63 ae 02 3e 3d 62 af 3d 75 87 79 3b
       -0.020311115 0.12761836 0.08563659 0.0038075123
0002e0 ae 77 c9 bc 16 b2 24 be d0 5c 19 3d 63 a2 e6 bd
       -0.0245932 -0.1608356 0.03744203 -0.112614416
0002f0 14 dd 18 be 39 2b 7c bd b7 c3 4f bd 04 2d 9f bd
       -0.14928085 -0.061564658 -0.050723758 -0.07772258
000300 45 29 af bd 36 d8 94 bd b8 5a a6 bd 5a 7e 34 bd
       -0.085527934 -0.072678015 -0.08122772 -0.04406581
000310 c4 93 a8 bc fa 8c f6 3c ae 77 8f bd 49 c2 a0 3b
       -0.020578273 0.03009652 -0.07005249 0.004905973
000320 8d 16 57 bd c4 90 19 bd b9 e6 98 bd 11 e8 3d bd
       -0.05251174 -0.037491575 -0.07465882 -0.046363894
000330 24 7b e7 3c a6 f3 4d 3c 7b b2 4a bc 29 02 35 3e
       0.02825696 0.012570297 -0.012371655 0.17676605
000340 59 ae 25 3e f0 3b 37 3e d6 8c 58 3d f9 94 dd 3d
       0.1617979 0.17893958 0.052868687 0.1081943
000350 c2 4e 82 bc af b4 15 3e 6e a8 3d 3c cd d3 1a bd
       -0.015906695 0.14619707 0.011575801 -0.037799645
000360 12 b7 42 be dc 1d bc bd 4f 69 8b 3c f6 33 d1 bd
       -0.19015148 -0.09185383 0.017017988 -0.10214989
000370 b4 22 83 bd f1 b8 b1 bd 92 18 41 be 11 3a af bc
       -0.064031035 -0.08677853 -0.18857029 -0.021389993
000380 1b 34 81 bc 36 9f 2a 3d 14 7d 3c 3d e7 39 09 3c
       -0.015771916 0.04165574 0.04601772 0.008375621
000390 3d 99 7d 3d 10 38 43 3d eb 8a a8 3c e0 b5 2b bc
       0.061913718 0.047660887 0.020574054 -0.010480374
0003a0 18 4e 5b 3c 5c 68 63 3d 4d 33 45 3d 3e 09 e6 3d
       0.013385318 0.055519447 0.048144627 0.112322316
0003b0 e0 19 b5 3d c3 b2 29 3e 30 63 00 3e 9e e3 af 3d
       0.08842826 0.16572098 0.12537837 0.085883364
0003c0 50 0a 15 3e f1 48 26 3d 91 ee 2e 3d c4 dc 27 be
       0.14554715 0.040596906 0.042707983 -0.16392809
0003d0 a1 4d e5 bd e3 f6 a9 3b 22 53 e8 bd 99 0e b8 bd
       -0.11196447 0.005186902 -0.11343981 -0.08987159
0003e0 5a 8a bf bc 07 c1 93 be c4 82 ef bd 0d aa d5 3c
       -0.0233814 -0.28858206 -0.116948634 0.026082063
0003f0 da 81 46 3c 61 f3 bb 3c 6e a4 73 bd 60 fb 9f 3c
       0.01211592 0.0229432 -0.059482984 0.019529045

Generator.conv3.conv1.0.weight f4 [8, 8, 3, 3, 3]
000000 fb 22 59 3c bb 99 a0 3d 3f 3f 92 bc 6e 1f a3 bc
       0.013252969 0.07841822 -0.017852424 -0.019912448
000010 21 c6 79 3c e0 94 46 3d 8b fd 86 3d 7f 9c da bc
       0.0152449915 0.048481822 0.06591328 -0.026685951
000020 ac b8 a2 3c 69 4c ca bc 88 eb fb 3c 7a ec 74 bd
       0.019863449 -0.024694638 0.030751958 -0.059795834
000030 70 1d 74 3c 5c 8d 8a bc 62 9e b0 bd 2c 4c 47 bd
       0.014899597 -0.016913109 -0.08623959 -0.048656628
000040 09 c5 0b 3d e8 dd 11 bd 1f b4 18 bd b1 b3 87 3d
       0.034123454 -0.035612017 -0.03728115 0.0662607
000050 76 f3 8c bc e7 bc 54 3d df ea 55 bd cb ff e6 bb
       -0.017205935 0.051937964 -0.052225944 -0.007049536
000060 4d d3 ce bc 74 52 f9 3c 8d d8 6c bd a7 70 79 bd
       -0.02524724 0.030434825 -0.057823706 -0.06089845
000070 b8 52 e7 3c be b2 e3 3c 42 d8 35 3c 3c d3 d7 bc
       0.028237686 0.027795192 0.011098923 -0.026345842
000080 1a ad 71 bd b6 39 3e 3d d5 82 ef bb 3d 87 49 3d
       -0.059002973 0.046441756 -0.0073092976 0.04920124
000090 9a c3 02 3c 0a d4 81 3d 72 7a e8 3d 7f 54 f2 bb
       0.007981205 0.06339271 0.113514796 -0.0073953266
0000a0 66 74 35 bd c5 fa b7 bd 33 5c d5 3b 8b 36 a8 bd
       -0.04430046 -0.08983377 0.006511235 -0.08213528
0000b0 be 67 d2 3c 5b 13 80 bc fc fa d8 3d f6 98 07 bd
       0.025684234 -0.01563423 0.105947465 -0.03310486
0000c0 b4 11 80 3d 92 a0 3b bd 46 5b 93 bd 55 44 cc bd
       0.062533766 -0.04580743 -0.071951434 -0.09973971
0000d0 10 5b d3 bd 96 a1 63 3d a2 ee 43 bd 41 b5 d3 bc
       -0.10320103 0.055574022 -0.047835 -0.025843265
0000e0 89 84 01 bd 50 71 51 bd c3 1b ca bc ef c3 bb 3c
       -0.031620536 -0.051133454 -0.024671441 0.022920577
0000f0 7d 6d 92 3b 84 dc 93 bc 12 c6 9b 3c 37 fd 42 3d
       0.0044686184 -0.018049486 0.019015346 0.047604766
000100 5b 21 07 3d aa bf 6d 3d bc e3 09 bd 1a 7b c0 3d
       0.032990795 0.058044113 -0.03366445 0.0939848
000110 66 61 58 3d 7d b5 13 bd 05 57 19 bb 90 39 c9 bc
       0.05282726 -0.036061753 -0.0023397815 -0.02456358
000120 aa 1f 94 3d a6 19 54 bd a4 ad a5 3c 3a 16 e1 3b
       0.07232602 -0.051782273 0.0202244 0.0068691047
000130 b0 03 99 3d e8 c5 29 bd 50 91 9a 3d 60 ef 73 bd
       0.074714065 -0.041448504 0.075472474 -0.059554458
000140 9e af 7d bd b8 99 d7 3c 27 88 76 3a 3c b1 ad 3b
       -0.06193506 0.026318416 0.00094044436 0.005300669
000150 66 87 d4 bc 07 7a 25 3d e0 f6 79 bd a9 40 5c 3d
       -0.02594347 0.040399577 -0.061026454 0.053772602
000160 70 40 66 bc c7 b9 73 3d 36 8e 76 bc f5 40 28 3d
       -0.014053449 0.059503343 -0.015048554 0.041077573
000170 d5 fa 0b 3d 54 6d 4d bd 83 db 87 3d 50 70 95 bd
       0.03417476 -0.05015309 0.066336654 -0.072968125
000180 46 84 aa bd e0 c0 a7 bc 17 5d b5 b9 92 eb 1d bd
       -0.083260104 -0.020477712 -0.00034592368 -0.038554735
000190 65 dd 6c 3d 43 63 8f bc 6f 83 96 3d 10 a9 06 3e
       0.057828326 -0.017503386 0.07349288 0.1315043
0001a0 19 81 fd 3c 14 16 b1 bc 3a 62 cc bc b8 76 95 bd
       0.030945348 -0.021616973 -0.024949182 -0.072980344
0001b0 5d 3e a9 3d 67 66 56 bd 30 4d f8 3b fd 7f 77 3d
       0.08263848 -0.052343752 0.007577561 0.060424794
0001c0 a5 9c 98 bd 9a 5c 5d 3d d5 b8 b3 3d 57 d7 2f 3d
       -0.074517526 0.05404339 0.08775488 0.042929973
0001d0 5d e6 08 bd 63 64 78 3d 5a e1 a9 3d e7 40 8b 3d
       -0.033422817 0.06064261 0.082949355 0.067994885
0001e0 98 12 0e 3c 1e 14 66 3d 7c 93 cd 3d f0 74 2c 3d
       0.008671425 0.05617153 0.10037896 0.042103708
0001f0 91 e9 8e 3d 36 ce 3c bd 56 44 32 bc f7 37 7c bb
       0.06978143 -0.046095096 -0.01088055 -0.0038485506
000200 ea c7 a6 3c f9 93 89 bd 0a 67 38 bd 0f 8b 88 bc
       0.020358998 -0.06717677 -0.04502014 -0.01666787
000210 3c 40 21 3d fc 08 42 bd c3 03 0c bd 2d dc 8e bd
       0.0393679 -0.04737185 -0.034183275 -0.06975589
000220 72 0a db 3c f3 ac d4 3c f6 36 86 bc 95 19 9d 3d
       0.02673838 0.025961375 -0.01638363 0.07670895
000230 a2 e1 6c bd cb 16 22 bd e3 79 5f bc 37 ac 12 3d
       -0.057832368 -0.03957252 -0.0136399 0.035808768
000240 ac f7 64 3c 64 d9 91 3d 6a fc 10 3d 6d 8d 32 bd
       0.013975065 0.07121542 0.03539697 -0.043591905
000250 9b b5 3c 3d 2f 78 ae bb 5b 66 71 bd 19 cf 7c bd
       0.04607163 -0.0053243856 -0.058935504 -0.06172094
000260 ee 6d 32 3d 68 c3 65 bd 67 7f 74 3d 4c 9e 78 bd
       0.04356187 -0.056094557 0.059691813 -0.06069784
000270 23 26 2a 3d 0d 31 c0 3d f1 51 5d 3d b9 53 71 3d
       0.041540276 0.09384356 0.054033224 0.058917735
000280 25 d7 ad bd 4b b4 ae bc de ad 52 bd 02 b4 5e 3d
       -0.08488301 -0.021326205 -0.051435344 0.054370888
000290 fa f6 2a bc 21 94 a8 bc 3c e5 1b bd 76 29 00 bd
       -0.01043486 -0.020578446 -0.03806041 -0.03128954
0002a0 72 a9 d1 3d ee b6 62 3b b4 66 f5 3c 5f 00 5a 3d
       0.10237397 0.0034593898 0.0299562 0.05322301
0002b0 f3 bb fd bb 83 bd 96 3d 73 fc 9b 3d 7c 16 22 bd
       -0.0077433526 0.07360365 0.0761651 -0.039572224
0002c0 bc db 33 3d fa 13 dd 3c 81 87 72 3c 74 73 6f 3c
       0.043910727 0.026987065 0.014802814 0.0146149285
0002d0 ef 7d e0 3c d4 99 2a 3a 4a ba ef bd e7 f8 38 3d
       0.0274038 0.00065079075 -0.11705454 0.045159247
0002e0 d1 fe e9 3d 8e 9d 69 bc 8d d6 c1 bd 3d 8a d1 3d
       0.114255555 -0.014258755 -0.094647504 0.10231445
0002f0 ad 07 b6 3b e3 d8 95 ba 60 52 21 bc 32 bc 07 3c
       0.0055551142 -0.0011432435 -0.0098463 0.008284615
000300 c0 71 55 3c c8 a9 19 3d c2 ef bf bc fc 6c a0 bd
       0.013027608 0.03751543 -0.023429755 -0.07833287
000310 0c e1 37 bc c1 7e 26 3a a1 68 6f bc 6b 6f e2 37
       -0.011223089 0.0006351285 -0.014612348 2.6993182e-05
000320 92 e2 cc 3b 3a d0 ea 3c 62 ee 11 3e c9 5c 39 3d
       0.006252595 0.028663743 0.14251092 0.045254502
000330 f4 98 28 bc aa 16 1c bd db 42 7a 3d 30 bb 67 bd
       -0.010290373 -0.03810755 0.061098915 -0.056575
000340 1e 0e c3 bd f2 04 25 bc d1 32 5d 3d 48 d3 e9 3d
       -0.09524177 -0.01007198 0.05400354 0.11417252
000350 da d4 b2 bd 9f d4 17 bd 44 d9 46 bd 86 0a 5d bd
       -0.087320045 -0.037068006 -0.048547044 -0.053965114
000360 cd 6a 66 3c 27 f7 18 bd 95 27 79 3b 64 03 39 3d
       0.014063549 -0.037345078 0.0038017977 0.04516925
000370 5f 72 67 3c b5 82 39 3d 5a 8f 62 3b ff e4 76 3d
       0.014126389 0.045290668 0.0034570307 0.06027698
000380 fa dc 33 3d 20 ca ff 3d 29 3f 7c bd 6b 02 7e 3c
       0.04391191 0.12489724 -0.06158367 0.015503506
000390 26 ff ac 3d bf 9f 35 3d f0 e6 b5 bd 6f d7 09 bd
       0.08447103 0.0443418 -0.088819385 -0.03365272
0003a0 92 53 2d 3d d9 8a 2f be dc 14 d0 3c d9 b4 ab bb
       0.042316027 -0.1714281 0.025400572 -0.0052400646
0003b0 58 56 e0 3c f0 b0 69 3d 56 c9 18 bc aa 6a 41 bd
       0.027384922 0.057053506 -0.009325346 -0.047220863
0003c0 32 77 77 bd 74 d9 82 bd 5d 46 55 3c c5 ac 26 3c
       -0.060416408 -0.06389132 0.013017264 0.010173027
0003d0 fb 64 ef bd c7 d1 27 be a5 79 d5 3c eb 95 87 3d
       -0.11689182 -0.16388617 0.026058981 0.066203915
0003e0 ba 0c 12 be 8c 9c a6 3d 02 c8 6e 3d da 67 c0 bb
       -0.14262667 0.08135328 0.05829621 -0.005871755
0003f0 96 38 89 3d 0d 58 0b 3c e1 cf c2 bc 9d 6b c7 3d
       0.06700246 0.00850488 -0.023780765 0.097373225

Generator.conv3.conv2.0.weight f4 [8, 8, 3, 3, 3]
000000 48 b0 47 3d 0e 03 8a 3c 4a 09 71 bc 96 37 87 bc
       0.0487521 0.01684716 -0.014711687 -0.016505998
000010 63 08 9d 3d a1 ee 2b bd ea bc 84 bd fe c6 c1 bc
       0.07667615 -0.04197562 -0.06481345 -0.023654457
000020 ef e9 b4 bd fe 6d 29 3d 89 8d ca bc 71 a5 72 3d
       -0.08833682 0.041364662 -0.024725692 0.05923981
000030 94 48 02 3c 40 4d 83 3d 57 41 b4 bc dc dc ec bb
       0.007951874 0.06411219 -0.022003813 -0.007228477
000040 3a 77 24 3c a7 ac 95 bd ba 03 66 3c 0e 07 5d 3c
       0.010038191 -0.073083214 0.014038974 0.0134904515
000050 56 28 7d 3c cd 31 8f 3d 73 d4 ee 3d fa c8 1a 3e
       0.015451511 0.069919206 0.11661615 0.15115729
000060 56 f2 78 3d 81 c9 bd 3d 40 24 71 3d 6c e2 e9 3d
       0.060777985 0.092669494 0.05887246 0.1142014
000070 51 ed 08 be 91 8a 59 be bf e7 0c 3e a2 75 d2 bd
       -0.13371779 -0.21244265 0.13760279 -0.10276343
000080 31 57 c1 bd 60 8c 58 3d 7d 23 b1 3d 99 0e 4b bc
       -0.094404586 0.052868247 0.08649347 -0.012393617
000090 de 18 9a 3d 78 02 d3 bd a7 27 18 be a5 41 c3 bd
       0.07524274 -0.10303205 -0.14858876 -0.09534005
0000a0 a1 a8 c8 bd 23 eb 6b bd a3 69 fe bd 24 c3 1c be
       -0.097977884 -0.05759729 -0.12422492 -0.15308815
0000b0 df 3d 4a be 61 aa cc 3d 6c 21 73 38 22 5d 15 be
       -0.19750164 0.09993435 5.796684e-05 -0.14586309
0000c0 a4 a6 77 bc fd 3c ad bc 0b ec 19 be 58 41 89 bd
       -0.015115414 -0.021147246 -0.1503145 -0.067019165
0000d0 ca c9 71 bd a2 10 17 be 0d 68 44 3d f0 71 cf 3c
       -0.05903033 -0.14752439 0.047950793 0.025322884
0000e0 e7 ae ab be db 80 9f 3d 9a 98 38 bd a8 97 ad bb
       -0.33531877 0.07788249 -0.045067407 -0.00529762
0000f0 2b 9e f5 3d c8 13 47 3e 6b 74 15 3d e4 7d ea 3d
       0.11993059 0.1944114 0.036487978 0.11449793
000100 6a 1f 37 bd 65 c6 0f bd 20 08 ac 3d 6f 7b 7f 3c
       -0.044707693 -0.035101313 0.08399987 0.015593394
000110 40 6e 69 bd 00 ca f2 3c 2e 47 9b 3e ad 72 03 bd
       -0.05698991 0.029637337 0.30327743 -0.032091785
000120 59 62 1c 3e 9a bc 0d 3e c0 4e dc 3d e9 af 05 3e
       0.15271892 0.13841477 0.10757208 0.13055386
000130 c4 3c 25 3e 0c 1c f8 3d 7b 56 f3 bd 78 f2 e8 3d
       0.16136461 0.121147245 -0.11881729 0.11374372
000140 c8 26 00 3e fd 32 61 bd 39 4b d0 3d ca f9 41 3b
       0.12514794 -0.054980267 0.101705976 0.0029598349
000150 d1 ab 8c bd c6 6c 2f bd ee 95 62 3d ce 63 7c 3d
       -0.06868709 -0.042828344 0.055318765 0.06161862
000160 53 6b aa 3b 0c aa 17 bd 84 14 0a be 71 1a aa 3c
       0.0052007823 -0.037027404 -0.13484389 0.020764561
000170 fd b1 6d 3c e6 95 1d be 22 dc 71 be ac b3 46 3d
       0.014507768 -0.15389213 -0.2361913 0.048511192
000180 d2 2c 04 bc 60 03 2d be 2a 54 90 bd f5 4d 45 be
       -0.008067327 -0.16895819 -0.07047303 -0.1926802
000190 c6 96 d8 bd 96 d7 d5 bc f6 06 b7 bc 9e 0b 87 be
       -0.10575633 -0.026103776 -0.022342186 -0.2637605
0001a0 29 4f cb bc f5 76 c5 3d 9a c9 3f bd ab 22 07 bd
       -0.02481802 0.0964183 -0.04682312 -0.032992046
0001b0 37 2a d5 be fb e5 48 be 92 d6 a0 bc b2 82 0b be
       -0.4163377 -0.1961898 -0.019633565 -0.13624075
0001c0 7c 47 a9 bd 2b 5e 35 bd 48 33 8d bd 64 d6 09 be
       -0.08265588 -0.04427926 -0.06894547 -0.1346069
0001d0 7a 67 4d bd 90 dc 8e bc f4 ce 42 3c c2 24 26 3d
       -0.05014751 -0.017439157 0.011890162 0.0405624
0001e0 cf 2e 10 3d 53 81 00 3d 0f 21 38 bd 46 c6 5b bd
       0.03520089 0.031373333 -0.044953402 -0.053655885
0001f0 7c 35 bf 3b 9b 25 1e bd 6f 5a ec be b4 3c 8a be
       0.0058352333 -0.038610082 -0.46162745 -0.26999438
000200 ab 9a 8f bc 04 8f a4 be 30 44 98 be 74 a9 c2 bd
       -0.017529806 -0.32140362 -0.29739523 -0.09504977
000210 44 df d0 3d d2 bc 83 3c 2a 6b a4 3d 26 d7 dc 3c
       0.101988345 0.016081247 0.080282524 0.02695806
000220 83 24 c6 bb 67 89 8e be 78 46 10 be 6c 7f 3a bd
       -0.006046833 -0.27839205 -0.14089382 -0.045531675
000230 69 60 c0 3c c8 6c 8a 3e 2b 2f 19 bd b7 28 d2 3d
       0.023483472 0.27036119 -0.0373985 0.10261672
000240 c0 9a 17 be 4a 6f b8 bd d5 6d 84 bd 2b c9 83 bd
       -0.14805126 -0.09005602 -0.06466261 -0.06434854
000250 8a fe 9c b9 5c 01 99 3d 1b c2 34 3e 35 bc 32 bd
       -0.00029944285 0.074709624 0.1765217 -0.04363652
000260 4d bd 21 3e 14 d9 e5 3c 44 13 0e 3e 3f ca 81 bd
       0.15794869 0.028057612 0.13874537 -0.063374035
000270 ef 0d d2 3d dd 1a ff 3c 09 16 7f 3d c1 86 a0 3e
       0.10256564 0.03114074 0.062276874 0.3135281
000280 ef e1 ca 3c 7c e9 fb bc fa d4 28 3e e0 c3 07 3e
       0.024765937 -0.030750982 0.16487494 0.13258314
000290 3b 58 25 3e 72 fe 43 bc c0 42 76 bd 4c 24 b1 3d
       0.16146939 -0.01196252 -0.06012225 0.08649501
0002a0 68 77 29 be 46 c7 37 be df c9 33 3e 77 28 da 3c
       -0.16549456 -0.1794711 0.17557476 0.026630623
0002b0 02 23 43 3d e0 d9 03 3e ce 0a f2 bd 6a 41 03 be
       0.047640808 0.12876081 -0.11818467 -0.12817922
0002c0 c7 62 dd 3d 2c 98 10 be 8c 20 d8 ba 21 3e fc 3d
       0.10809856 -0.14120549 -0.0016489192 0.12316538
0002d0 1b 20 4e be c0 07 6d bd 30 d9 1c 3e 7f de 23 be
       -0.20129435 -0.05786872 0.15317225 -0.16002844
0002e0 71 ac c3 bd ab d4 75 3e 4b 89 00 bd 3c fa f7 3d
       -0.09554375 0.24006908 -0.031380933 0.12108275
0002f0 58 22 01 3e 5f 2c 84 bb 2c c0 29 bd 72 51 d4 3d
       0.12610757 -0.0040336098 -0.041443035 0.10367097
000300 92 14 39 bd 11 5d 04 bd e9 90 ca 3d 9d 31 b7 bd
       -0.045185633 -0.032315318 0.09890921 -0.0894501
000310 5c d7 30 3c e4 2c 46 3e 86 ac 34 3e 34 94 53 3d
       0.010793533 0.19353062 0.17643937 0.05165501
000320 09 1f c0 3d d0 bd 3b 3d 87 34 e7 3c 79 0a 42 3c
       0.093809195 0.045835316 0.02822329 0.011843317
000330 21 7f 9d bd 45 44 ae 3d 78 29 95 bc 63 dd 32 3e
       -0.076902635 0.08509115 -0.01820825 0.17467265
000340 65 d7 30 3c 0e 74 82 bc f4 6b 2d 3e 91 d2 8a 3d
       0.010793542 -0.01592448 0.16935712 0.067784436
000350 9f 1e 38 3d fb e6 f7 3d fa 34 2d 3e 28 6f 21 bd
       0.044951078 0.12104603 0.1691474 -0.039412647
000360 f3 ec e8 bb b7 31 87 bc 37 97 19 bd 85 0c 83 3c
       -0.0071083247 -0.016503198 -0.037497725 0.01599718
000370 31 a5 af bd 6a 4c c9 bd da ec 43 3d 0d e7 a6 bc
       -0.0857643 -0.09829028 0.0478333 -0.020373845
000380 f1 c2 51 3d 7a 8f 76 bc db 98 5f bd a8 07 22 bd
       0.0512113 -0.015048856 -0.054589134 -0.039558083
000390 65 f7 14 bc da bd 31 3d 74 66 55 bd 12 21 63 3d
       -0.009092187 0.043393947 -0.05209966 0.05545146
0003a0 e2 77 1e bc a2 fe 15 3d 25 a0 5a bc 68 40 cc 3d
       -0.009672137 0.03661979 -0.0133438455 0.09973222
0003b0 13 96 f3 3d 25 60 4f 3d f9 30 3e 3d e5 08 3d 3d
       0.11893859 0.0506288 0.046433423 0.04615106
0003c0 25 13 bf 3d 03 ad 04 bd 5d 5a d3 3a b6 3f 52 3b
       0.093298234 -0.03239156 0.0016124953 0.0032081432
0003d0 1e d1 b8 3b d5 8a 07 be 97 b5 ae 3d ac 1c c1 3d
       0.005640163 -0.13236554 0.08530729 0.09429297
0003e0 a5 7a 32 3d 93 b0 1b 3e 1e 7c 5f 3c 34 fc df 3d
       0.043573994 0.15204076 0.013640432 0.10936776
0003f0 57 d8 24 3d c1 fb fc 3d 87 13 71 bd ca 3f d6 3d
       0.04024538 0.12352706 -0.058856513 0.104613855

Generator.conv4.conv1.0.weight f4 [8, 8, 3, 3, 3]
000000 87 d3 0d bd 82 cc bd 3c e3 09 f3 bc e0 89 bb bb
       -0.034625556 0.023168806 -0.0296678 -0.005723223
000010 97 ba 57 3d f1 f3 c2 bb fe 7e cb 3a 35 d7 2c 3d
       0.05266818 -0.0059494902 0.0015525518 0.042197425
000020 6e 2e 61 bc db cd 3e bd bc 74 98 bc d8 db 9d bd
       -0.01374398 -0.046583038 -0.01861035 -0.077079475
000030 4d fc 9e bd 37 50 12 bd 66 4f 7a bd e8 e9 ba 3d
       -0.07762966 -0.03572103 -0.061110877 0.09126645
000040 12 9d dc 3c d2 f8 61 3d 13 da 2a 3d 78 12 be 3c
       0.026930366 0.055168934 0.041711878 0.023202166
000050 55 5b 94 3d 86 b9 0f 3d ce a4 03 be b4 da 45 3c
       0.07243983 0.03508904 -0.12855837 0.012076069
000060 94 12 8a bd c4 18 58 bd 3e 35 92 3c d4 8e 04 bd
       -0.06741825 -0.052757993 0.017847653 -0.032362774
000070 32 06 54 3d 93 40 b5 3d 89 7e f4 bb e7 8e 84 3d
       0.05176372 0.08850207 -0.007461373 0.06472569
000080 7e 84 7c 3d d7 9f c4 bd ec 0f 8b 3d 37 4f d3 bc
       0.061649792 -0.096007995 0.06790146 -0.025794609
000090 30 5f f4 bb 62 6c 07 bd ae 19 76 bd 01 82 37 39
       -0.0074576363 -0.033062346 -0.060083084 0.0001750067
0000a0 56 60 fd bc e7 c1 7a bd d8 75 0e 3c 0e 18 3c 3d
       -0.030929726 -0.061220076 0.008695088 0.045921378
0000b0 fe 4b 32 3d c1 62 89 3d 3f 58 61 bd c0 37 90 bd
       0.043529503 0.06708289 -0.0550158 -0.070418835
0000c0 05 af 42 3d 6e 97 2b bd 32 7b 0c 3c 03 a6 a1 3d
       0.047530193 -0.04189246 0.008574294 0.07892992
0000d0 ab 50 44 3d 3f 0d b7 3c ce 5a fc bd 63 a7 01 be
       0.047928493 0.022345183 -0.12322007 -0.12661509
0000e0 26 60 e4 bd 03 8d 15 bd 6c e8 4c 3d 68 15 7f bd
       -0.11151151 -0.036511432 0.050026342 -0.062276274
0000f0 8e 8a 22 3d e7 ab 45 3d 4e 1a a8 3c b7 dd 49 bc
       0.039682917 0.048259642 0.020520356 -0.012320927
000100 ff 7b 2d be 53 ae 96 bd ee 6a 72 3c 4c 83 9c bd
       -0.16941832 -0.073574685 0.014796002 -0.076422304
000110 51 65 a5 bd be 66 d0 3b 51 f1 83 3d f2 0c 7a 3c
       -0.08075965 0.006359904 0.06442512 0.015261875
000120 17 ad b9 3d e3 41 a8 3b 4e e8 03 bb 3f 46 2b bc
       0.090662174 0.0051348074 -0.0020127478 -0.01045376
000130 4d de 05 be b0 84 a7 3c 0d 14 07 bd 76 57 6d bd
       -0.13073082 0.020449013 -0.032978106 -0.057944737
000140 cd eb c4 bb 09 bc a2 3c 7c e4 cb bb ba e2 3d bd
       -0.006009555 0.019865053 -0.006222306 -0.0463588
000150 55 cc 2e ba 17 71 0d bd 0c 88 b4 bd 00 10 19 3d
       -0.0006668021 -0.03453168 -0.088150114 0.037368774
000160 97 f3 9b 3c 2e 56 86 3d dc da a7 3c 3c d7 3a bd
       0.019037051 0.06559406 0.020490102 -0.04561542
000170 eb 52 be bc 13 47 81 bb f7 be 97 bd 58 42 1e bd
       -0.023232898 -0.0039452403 -0.074094705 -0.03863749
000180 50 17 dc 3d 5f 49 d2 3d a8 79 33 3d 07 ba 89 bc
       0.10746634 0.10267901 0.043817192 -0.016812338
000190 f8 36 99 bd ba fb 7c bd ce 7a 95 bc 0b 2e b1 3b
       -0.074811876 -0.061763503 -0.018247034 0.0054071
0001a0 3f 28 04 be 64 db b8 3d 1b 5b a9 3c 0c d4 96 3c
       -0.12905978 0.090262204 0.020673325 0.018411659
0001b0 da af d0 bd e2 99 a2 bd 54 e9 e8 3c ac 17 b4 bc
       -0.10189791 -0.07939507 0.028431572 -0.021983944
0001c0 8a 35 6a 3d 73 e8 ee 3c fe 9b e9 3c 1b 53 8c 3d
       0.057179965 0.029163575 0.028516766 0.068517886
0001d0 55 d9 67 3c 68 18 8f 3a 40 d2 9f bb 24 7d bb 3c
       0.014150937 0.0010917308 -0.0048773587 0.02288682
0001e0 e9 61 cb bc 2b fb 43 bb 08 e1 41 3d 70 fa fd 3c
       -0.02482696 -0.0029904346 0.047333747 0.031003207
0001f0 c6 cd 23 3c 06 60 3b 3c 06 53 af 3d 2a bc 14 bd
       0.009997791 0.011436468 0.08560757 -0.03631226
000200 61 96 a8 3d ad dd 04 3d 02 d8 34 3c fc c7 ca bc
       0.082318075 0.03243797 0.011037828 -0.024753563
000210 9d 48 8b bb 44 3a 50 3d ab 4a 91 3c 50 6e 81 bc
       -0.0042505995 0.050836816 0.0177358 -0.015799671
000220 9e dd 12 3d d3 be c7 bd a4 1f d5 3c 1b 12 0b 3e
       0.035855882 -0.09753194 0.026016064 0.13581125
000230 28 30 fc 3c 14 6f 91 3d e0 eb 5a 3d e8 b3 11 bd
       0.030784681 0.071012646 0.053447604 -0.035571963
000240 1e 1b 43 bb 80 54 42 3c 8b fd 13 bd 27 ad 0f bd
       -0.0029770802 0.011860967 -0.03613047 -0.03507724
000250 e5 a4 8f bd ae 1a 1f bb 3a b1 64 3c 94 5f 55 3c
       -0.07013873 -0.0024277377 0.01395827 0.013023276
000260 6f 96 22 bc 6d c5 84 3d d5 28 54 bc f6 25 89 bc
       -0.0099235615 0.064829685 -0.012949188 -0.016741734
000270 c8 ba a0 3c 6e a5 6c bd 6f bf 8e bd 7a 6f 8a 3c
       0.019620314 -0.057774954 -0.06970107 0.01689886
000280 c3 87 81 bd 58 25 ee bc db 3c 0e be c4 b5 70 bc
       -0.063247226 -0.029070541 -0.13890402 -0.014691774
000290 dc 8a 05 be 69 a8 c3 3b 12 a9 bc 3d 3d 0a a7 3d
       -0.13041252 0.005971004 0.09211935 0.0815625
0002a0 55 cf 93 3a 49 97 84 3c 01 7b 81 3b c0 af db bd
       0.0011277 0.01618542 0.003951431 -0.10726881
0002b0 bc 2e 2b bd e3 04 6a 3c 9f ff 0f bd 2c d5 15 be
       -0.041792616 0.014283392 -0.03515589 -0.146321
0002c0 b1 50 11 bc cd 9b 8f 3d d6 ec 9b 3d c4 f6 ce ba
       -0.008869336 0.070121385 0.07613532 -0.0015790095
0002d0 9c a6 c7 3d 8b b2 06 3e dd 91 d7 3c b2 69 5b bd
       0.09748575 0.13154046 0.02631467 -0.053567596
0002e0 34 b4 0d bd ed ee 93 3c bd f3 92 bd b8 81 a5 bc
       -0.034595683 0.018058265 -0.07175396 -0.020203456
0002f0 ff ca 7e bc 38 a7 3c bd 16 3d 8a bd 96 80 cf bd
       -0.015551328 -0.04605791 -0.067499325 -0.10131948
000300 13 6f c2 bb 8a 10 2b 3c 08 ad 2f bd 94 76 96 3c
       -0.0059336512 0.010440955 -0.042889625 0.01836709
000310 0a 52 30 bc 6a b9 e9 3c ec 41 db 3c fd 54 fa bd
       -0.010761747 0.028530795 0.026764832 -0.122232415
000320 43 d7 da 3c a2 c0 da 3c 1f 6f 5c bd a8 6d e2 bc
       0.026713973 0.026703183 -0.05381691 -0.027640179
000330 78 7b b3 3d f1 78 96 3d c1 3d 11 bd 37 48 73 3d
       0.08763784 0.073472865 -0.035459284 0.05939504
000340 43 33 b6 3b aa db 8d bd 7d 01 04 3c 7d e1 a5 bd
       0.00556031 -0.06926663 0.008056995 -0.08099649
000350 02 30 e8 bd ca 11 27 3c ca 03 91 bc 89 79 dc 3c
       -0.11337282 0.010197112 -0.017702002 0.026913421
000360 19 13 48 bc fe 8d aa 3d cc 05 66 3d 6f b4 d2 3c
       -0.0122115845 0.08327864 0.056157872 0.025720803
000370 45 28 ef 3d 0f 1c 43 3d f2 b3 4b bd c7 86 c6 3c
       0.11677603 0.04763418 -0.049732156 0.024234189
000380 62 ea 66 3d 14 15 4c 3d f3 30 5e 3d 17 99 f7 3b
       0.05637587 0.04982479 0.0542459 0.0075560915
000390 97 3c 46 bd 83 f7 0a 3d 80 a9 6c 3d b7 8e a3 bb
       -0.048397627 0.03392745 0.057778835 -0.004991378
0003a0 b5 95 4c 3c d3 8a 1f 3d 27 a5 5a 3c 39 ab 98 bd
       0.012486865 0.038950752 0.013345039 -0.07454533
0003b0 3f 16 50 bd 9d 9a 3c 3d e2 b2 f7 bd d9 ef f4 bd
       -0.050802466 0.04604589 -0.12094666 -0.1195981
0003c0 11 41 74 3d f0 0a aa 3c 7a 34 54 bd d3 c8 48 bd
       0.059632365 0.020757169 -0.051807858 -0.049019646
0003d0 39 ac a8 3d 7e 01 b4 3d 13 ea a0 bd 85 61 f7 3d
       0.08235974 0.08789347 -0.07857146 0.12079147
0003e0 e9 28 c5 3d 33 ee dc 3a 51 e4 de bd fc fc 23 bd
       0.096269436 0.0016855657 -0.10883392 -0.040036187
0003f0 09 e0 35 bc fe 8b 16 3d ae 67 50 3c 14 eb 9f bc
       -0.011100777 0.0367546 0.012720032 -0.019521274
