DeepWonder3D_pytorch/pth/SEG_pth/Unet4_no_end_UNet3DFFD_20240401-1432_2um/seg_296.pth (torch, 138281 bytes, 19 tensors)

Generator.conv1.conv1.0.weight f4 [8, 1, 3, 3, 3]
0	0x3df579df	0.11986136
1	0x3dce69ec	0.10078797
2	0xbd69980a	-0.05702976
3	0x3e12e0b3	0.14343528
4	0xbdf6c67b	-0.12049576
5	0xbe01279d	-0.12612768
6	0xbb15f70e	-0.0022882852
7	0xbb5a7599	-0.0033334254
8	0x3dbe0662	0.09278561
9	0x3d507a92	0.050898142
10	0xbe1e2f85	-0.15447815
11	0x3db4bc92	0.088250294
12	0x3e0aa792	0.13540486
13	0x3de19f9e	0.11016773
14	0x3d065309	0.032794032
15	0xbe3d2806	-0.18472299
16	0x3db5646c	0.088570446
17	0xbe558cba	-0.20854464
18	0xbdd474be	-0.10373829
19	0xbde9fecd	-0.114255525
20	0xbd7a692b	-0.061135452
21	0x3cfe07b2	0.031009529
22	0xbd5af2b9	-0.053454135
23	0x3d65f120	0.056138158
24	0xbe5718f3	-0.21005611
25	0x3d353d96	0.044248186
26	0x3e36aa7d	0.17838474
27	0x3e269021	0.16265918
28	0x3e272e35	0.1632622
29	0x3caab7b9	0.020839559
30	0x3daabb3a	0.08336492
31	0xbe081770	-0.1329019
32	0xbe3b3cae	-0.18284866
33	0x3e00e3a4	0.12586838
34	0x3c5e45db	0.0135664595
35	0xbdb6bc0f	-0.08922588
36	0xbde36017	-0.11102312
37	0x3e2627a1	0.16226055
38	0xbd25b33a	-0.040454127
39	0xbe063f9b	-0.13110201
40	0xbd9be428	-0.07611877
41	0x3c0d4fc7	0.008624977
42	0xbe501965	-0.20322187
43	0xbe5e2ef2	-0.21697596
44	0xbcb502d0	-0.022096068
45	0x3e030a8c	0.12796992
46	0x3d2cd40a	0.042194404
47	0x3e5aab53	0.21354418
48	0x3e320dda	0.17388096
49	0xbdab8bb6	-0.08376257
50	0x3e272284	0.1632176
51	0x3db0e58e	0.08637534
52	0xbe0514ed	-0.12996264
53	0xbda44f3c	-0.08022925
54	0x3d8038e9	0.06260855
55	0xbd2dbb40	-0.042414904
56	0xbdf8f433	-0.12155952
57	0x3cdd3ab0	0.027005523
58	0x3dccde8d	0.10003386
59	0xbbe160d9	-0.006878
60	0xbe24146d	-0.16023417
61	0xbde664a9	-0.11249668
62	0xbd700141	-0.058594946
63	0x3d036b65	0.03208484
64	0x3db9c86f	0.09071433
65	0x3c410274	0.01178037
66	0xbd3f3178	-0.046678036
67	0x3d143885	0.036186714
68	0x3d8e2225	0.06940106
69	0x3d89e730	0.06733549
70	0x3c364824	0.011125598
71	0x3c835878	0.016033396
72	0xbe19deeb	-0.15026443
73	0x3d53c156	0.05169805
74	0x3d61d7f6	0.055137597
75	0x3c00fb92	0.007872479
76	0xbd6ab439	-0.05730078
77	0x3dd3f343	0.10349133
78	0xbee1eb1b	-0.44124684
79	0xbb903e4d	-0.004401958
80	0xbe88f778	-0.26751304
81	0xbdbaee5a	-0.09127493
82	0xbe19b7bb	-0.15011494
83	0x3e1f18c7	0.15536796
84	0xbe4adf5c	-0.19811767
85	0xbd96f976	-0.073718
86	0xbcb9f166	-0.022698116
87	0x3da4a4f5	0.080392756
88	0xbdeadefe	-0.11468314
89	0x3d606a22	0.054788716
90	0xbe5429ee	-0.2071912
91	0xbd764db1	-0.060132686
92	0x3cd0ef34	0.025504686
93	0x3dd09904	0.101854354
94	0xbe4b9587	-0.19881259
95	0xbe286233	-0.1644371
96	0xbd16389d	-0.036675084
97	0x3dffa49c	0.124825686
98	0x3db20c47	0.08693748
99	0xbd60e864	-0.054909125
100	0x3d7e6a62	0.062113173
101	0x3db7c86b	0.089737736
102	0xbd842809	-0.064529486
103	0x3d6ce897	0.057839002
104	0x3d9f6248	0.077824175
105	0x3c7cb867	0.015424824
106	0xbe2770bb	-0.16351597
107	0xbe63da21	-0.22251178
108	0x3e36b59c	0.17842716
109	0xbe28d900	-0.16489029
110	0xbd28b4c8	-0.04118803
111	0xbe08080b	-0.13284318
112	0xbd1c36d2	-0.03813822
113	0x3c858a32	0.016301248
114	0xbd289061	-0.041153315
115	0x3d72eaee	0.059306078
116	0x3d45ad5a	0.048261024
117	0x3a62ae4e	0.0008647189
118	0x3da92d15	0.08260552
119	0xbe40a739	-0.1881379
120	0xbd5ca116	-0.05386456
121	0xbd293cab	-0.041317623
122	0x3b889c98	0.004169058
123	0x3de833de	0.11338018
124	0x3c9eea3d	0.019398803
125	0x3e06e265	0.131723
126	0xbe437062	-0.1908584
127	0x3d86af0d	0.06576357
128	0x3dd6d457	0.10489719
129	0x3dc25e46	0.094906375
130	0x3d100a23	0.035165917
131	0xbdd16b49	-0.10225541
132	0xbe23809b	-0.15967028
133	0xbdaa0c19	-0.08303089
134	0x3ddb3bf2	0.10704793
135	0x3d0a7928	0.03380695
136	0xbded434b	-0.11585101
137	0x3deb7243	0.11496403
138	0x3ddb5b4b	0.10710772
139	0xbd96dad7	-0.07365959
140	0xbe04e8fa	-0.12979499
141	0xbe3d5cb8	-0.184924
142	0x3e3bc830	0.18338084
143	0x3cd46a90	0.02592972
144	0xbdbd3939	-0.0923943
145	0xbe49a85d	-0.19693132
146	0x3d5d1bf5	0.05398174
147	0x3db9c168	0.090700924
148	0xbe321ef4	-0.1739462
149	0xbe5abe73	-0.21361713
150	0xbd9d9d9a	-0.07696076
151	0x3d9e5d06	0.077325866
152	0x3e1ebfad	0.15502806
153	0xbd135bd5	-0.03597625
154	0xbd2bcf48	-0.041945726
155	0x3dee9604	0.11649707
156	0x3cc83b31	0.024442287
157	0x3e2f363b	0.17110531
158	0xbda0c44e	-0.07849942
159	0x3b7928fb	0.003801881
160	0xbd088187	-0.033326652
161	0x3e561980	0.20908165
162	0xbe65813e	-0.22412583
163	0x3e211790	0.15731645
164	0xbda3f8f0	-0.080064654
165	0x3dabd7c1	0.08390761
166	0x3bb53722	0.005530254
167	0xbd2774ac	-0.04088275
168	0x3ce5c8b3	0.028049802
169	0xbca63096	-0.02028684
170	0x3d865cdd	0.06560681
171	0x3d5b61e9	0.05356017
172	0xbd8cd4ca	-0.06876524
173	0x3e6b197a	0.22958937
174	0xbe535d63	-0.20641093
175	0xbda25d20	-0.079279184
176	0x3d07f1fe	0.033189766
177	0xbd7d04b5	-0.061772067
178	0x3df3385a	0.118759826
179	0x3d511099	0.05104122
180	0xbd9bf1f0	-0.07614505
181	0xbd56f706	-0.052481674
182	0x3ddc98f2	0.107713595
183	0xbe15c033	-0.146241
184	0x3d5e4129	0.05426136
185	0x3de11d6c	0.1099194
186	0xbe099b8a	-0.1343824
187	0xbbd76d1b	-0.0065742857
188	0x3e26fb0e	0.16306707
189	0xbd66ed51	-0.056378666
190	0x3e01515c	0.12628692
191	0x3b98fc82	0.004668773
192	0x3d074e96	0.03303393
193	0x3de0d1e9	0.10977537
194	0xbe5d755e	-0.21626803
195	0xbd9ef2db	-0.07761165
196	0x3c0112e8	0.007878043
197	0x3df41f4a	0.119200304
198	0xbd233785	-0.03984787
199	0xbd95ae4e	-0.073086366
200	0xbd63eef2	-0.055647798
201	0xbe57e4cf	-0.21083377
202	0x3e17922a	0.14801851
203	0xbdc02eed	-0.093839504
204	0xbdc02d40	-0.09383631
205	0x3e3a272f	0.1817901
206	0x3ce377c7	0.027767075
207	0xbdcad592	-0.099040166
208	0xbce986c6	-0.028506648
209	0xbc9b1b6f	-0.01893398
210	0xbe7c95f4	-0.24666578
211	0x3dd5cac5	0.10439066
212	0xbddc9ed7	-0.10772484
213	0xbe5cded0	-0.21569371
214	0xbd947bdf	-0.07250189
215	0x3dd8be39	0.10583157

Generator.conv1.conv2.0.weight f4 [8, 8, 3, 3, 3]
0	0x3e231630	0.15926433
1	0x3d5e54b0	0.054279983
2	0x3d2e21a9	0.04251257
3	0x3c83313b	0.016014686
4	0xbd5250ac	-0.051346466
5	0x3d8d78ff	0.06907844
6	0x3e341520	0.17586184
7	0x3e1625cc	0.14662856
8	0x3e9b053b	0.30277428
9	0x3c50e1e4	0.012749169
10	0x3c3ff2c4	0.011715595
11	0x3d55c483	0.05218936
12	0x3d3482f6	0.044070207
13	0x3dc66102	0.096864715
14	0x3c86dc71	0.016462537
15	0x3d728498	0.059208483
16	0xbcad17ee	-0.021129575
17	0x3e102ea8	0.14080298
18	0x3d0f04d2	0.034916706
19	0x3e2f6d40	0.1713152
20	0x3e1b948d	0.15193386
21	0x3e0cce06	0.13750467
22	0x3e3d7e24	0.1850515
23	0x3e2dcac4	0.1697188
24	0x3df77efb	0.120847665
25	0x3e17078c	0.14748973
26	0x3e30fe94	0.17284614
27	0xbe134f89	-0.14385809
28	0xbce7f49f	-0.028314887
29	0xbe6c86b9	-0.23098268
30	0xbdaf63b6	-0.0856394
31	0xbcec7b8f	-0.028867511
32	0xbe981e52	-0.29710633
33	0xbcd08375	-0.025453309
34	0x3da9a3a1	0.08283163
35	0xbda5ea1f	-0.08101296
36	0xbde3f775	-0.11131183
37	0x3e45c8dc	0.19314903
38	0xbe805ae3	-0.2506934
39	0xbdb9dd5e	-0.090754256
40	0x3e005efa	0.1253623
41	0xbf09b1b4	-0.5378678
42	0xbd68bdef	-0.05682176
43	0x3d98aa21	0.074543245
44	0x3cc55de9	0.024092631
45	0x3d769d40	0.06020856
46	0x3e726cf7	0.2367438
47	0xbeae4d86	-0.3404352
48	0xbda2fe6c	-0.07958683
49	0x3e0c05b6	0.13674054
50	0xbf03e1ef	-0.5151662
51	0xbdcb4023	-0.099243425
52	0x3cd2c177	0.025727017
53	0x3c4d774e	0.0125406515
54	0x3d908be3	0.07057931
55	0x3cb52077	0.022110207
56	0x3cf02ce7	0.029318286
57	0xbd0d3477	-0.034473862
58	0xbda0b245	-0.07846502
59	0xbcb7bb6e	-0.02242824
60	0x3d764415	0.06012352
61	0x3cb27ca5	0.02178795
62	0xbd16ec00	-0.03684616
63	0x3e59f7fa	0.21286002
64	0xbcbbb2ae	-0.02291235
65	0x3d47ccc4	0.048779264
66	0x3c84cec5	0.016211877
67	0x3b1d31e6	0.002398604
68	0x3e2a73ab	0.16645686
69	0x3dffff61	0.124998815
70	0x3d37bb6b	0.04485647
71	0x3d640709	0.05567077
72	0x3e0cfad0	0.13767552
73	0x3d8e6408	0.06952673
74	0x3ddeb446	0.10874228
75	0xbdc6bff5	-0.09704582
76	0xbb411165	-0.002945983
77	0x3d40273e	0.046912424
78	0x3dbd9926	0.09257726
79	0x3dca4ef3	0.098783396
80	0x3d7e1b43	0.062037718
81	0xbcc456e0	-0.023967206
82	0x3d7d5945	0.061852712
83	0x3d29fb17	0.041499224
84	0x3e0f62ac	0.14002484
85	0x3b066373	0.0020506054
86	0xbbce29ae	-0.0062915897
87	0x3c055b53	0.008139449
88	0xbd2352c0	-0.03987384
89	0x3c0ed01f	0.008716612
90	0x3caa7a81	0.020810368
91	0x3c91c85e	0.017795738
92	0x3d2e9a32	0.04262752
93	0xbd3a9e30	-0.045561016
94	0x3c726079	0.014793509
95	0x3d6b216c	0.05740492
96	0xbd0f1cb8	-0.034939498
97	0x3cbeba8b	0.02328231
98	0x3ce5e790	0.02806452
99	0x3d88c6aa	0.06678517
100	0xbd3d7e0a	-0.04626278
101	0xbd472c4e	-0.048626237
102	0xbbfe46a6	-0.007759887
103	0x3d1c67c2	0.03818489
104	0x3d554155	0.05206426
105	0x3cf8044f	0.030275492
106	0x3d1d684e	0.03842955
107	0x3c9cf885	0.019161472
108	0xbdbfcd83	-0.0936537
109	0xbe5a3921	-0.21310855
110	0xbe34f2ea	-0.1767079
111	0xbd6a84c4	-0.05725552
112	0x3a5c3260	0.00083998404
113	0xbe0103bb	-0.1259908
114	0xbb267d67	-0.0025404335
115	0x3c0a9287	0.008457786
116	0x3d72510b	0.05915932
117	0xbd64ed85	-0.05589058
118	0x3d215c09	0.039394412
119	0x3e08c13a	0.1335496
120	0xbcc079c4	-0.023495562
121	0x3d2cae67	0.04215851
122	0x3d996d70	0.07491577
123	0xbd886466	-0.066597745
124	0x3ddbcc18	0.10732287
125	0x3dd6b82f	0.10484349
126	0xbdb532e5	-0.08847598
127	0x3e5c5997	0.21518551
128	0x3e280848	0.16409409
129	0xbcc63db0	-0.024199337
130	0x3e4311d4	0.1904977
131	0x3cf97d3b	0.030455222
132	0xbe5211e8	-0.20514643
133	0x3e2c735d	0.16840883
134	0x3d80206f	0.06256186
135	0xbc6d45c7	-0.014481968
136	0x3e6f4851	0.2336743
137	0x3dd8053c	0.105478734
138	0xbd9fbab5	-0.077992834
139	0x3d65dd73	0.056119394
140	0xbd9142f3	-0.07092848
141	0x3c1ecc62	0.009692283
142	0xbe1a399a	-0.15061036
143	0xbd42c7af	-0.047553714
144	0xbe432824	-0.19058281
145	0x3e5ef663	0.21773677
146	0x3dcf0a81	0.10109425
147	0xbde83556	-0.11338298
148	0x3dc4baad	0.09605918
149	0xbcad9a78	-0.02119182
150	0xbd0bdc6a	-0.03414575
151	0x3cdfe191	0.027329238
152	0xbd84dbea	-0.06487258
153	0xbd6d3d78	-0.05791995
154	0x3e798c2b	0.24369876
155	0x3e2d979d	0.16952367
156	0xbd812744	-0.063063174
157	0x3e5f4739	0.21804513
158	0x3dc2f620	0.09519601
159	0xbe28ef5e	-0.16497561
160	0xbd00f2bc	-0.03148149
161	0x3bea33c7	0.0071472856
162	0x3d927446	0.07151084
163	0xbdf0e2be	-0.11761998
164	0xbe022b54	-0.12711841
165	0x3d853a47	0.06505256
166	0xbd8d00d5	-0.06884924
167	0xbd90c3f1	-0.07068623
168	0x3dff48e5	0.124650754
169	0xbe3f2a56	-0.18668494
170	0xbac2b0e1	-0.0014853739
171	0x3d657b61	0.056025866
172	0xbe2cd170	-0.16876769
173	0xbc294393	-0.010331052
174	0x3cf064e4	0.029344983
175	0xbc1b3680	-0.009473443
176	0xbd79e06e	-0.06100505
177	0xbd6cbca4	-0.05779709
178	0xbe3ad997	-0.18247066
179	0xbd176bf3	-0.036968183
180	0x3d26bc42	0.04070688
181	0xbd702318	-0.058627218
182	0x3df896cb	0.121381365
183	0xbc9e7de4	-0.019347139
184	0x3dd125cd	0.10212288
185	0x3dcdbf14	0.10046211
186	0xbdad2fa3	-0.084563516
187	0xbec28d14	-0.3799826
188	0xbd957ac4	-0.07298806
189	0x3caaf447	0.020868434
190	0xbd95ef83	-0.07321074
191	0x3b8ab2f3	0.004232758
192	0x3d960efe	0.07327078
193	0x3cd6ff59	0.026244806
194	0x3d377482	0.044788845
195	0x3d838a36	0.06422846
196	0xbd8a8bd4	-0.06764951
197	0x3c2e9cfb	0.010657544
198	0x3cc005bc	0.023440234
199	0xbeaa250f	-0.33231398
200	0x3d6e7a30	0.058221996
201	0x3cb0c4cc	0.021578215
202	0xbe904b1a	-0.28182298
203	0x3de792cd	0.11307297
204	0x3dbeedb8	0.09322685
205	0xbeb877e4	-0.3602897
206	0x3d8041df	0.06262564
207	0xbdcb3c47	-0.09923606
208	0x3e03878b	0.12844674
209	0xbe28543e	-0.16438386
210	0xbe132b45	-0.14371975
211	0x3e418a41	0.18900396
212	0xbe2701e3	-0.16309313
213	0xbe696b2e	-0.22794792
214	0x3de2d4a6	0.11075716
215	0xbe05ae31	-0.1305473
216	0x3e17859f	0.14797066
217	0x3e92825a	0.28615075
218	0x3e7b0275	0.24512656
219	0xbcd4b589	-0.025965469
220	0x3d9f0e4c	0.07766399
221	0x3dd58c06	0.10427098
222	0x3e966b9a	0.29378968
223	0x3e98c57d	0.29838172
224	0x3e8f0cd0	0.27939463
225	0x3e171b9d	0.14756627
226	0x3d8eee5a	0.06979056
227	0x3e53d5d1	0.20687033
228	0x3d529919	0.051415537
229	0x3d96f207	0.07370382
230	0x3d9b1aa3	0.0757344
231	0x3d945062	0.07241894
232	0xbbd6e286	-0.0065577654
233	0x3dab82ba	0.083745435
234	0x3d973725	0.07383565
235	0x3dc3a4e1	0.095529325
236	0x3cf937be	0.030422088
237	0x3dd64afc	0.10463521
238	0x3daf3620	0.085552454
239	0x3db0f610	0.08640683
240	0x3d90b1ce	0.070651636
241	0x3b70e615	0.0036758233
242	0x3dd9d990	0.106372
243	0xbdabe078	-0.083924234
244	0xbd7cb95d	-0.061700214
245	0xbd6c114d	-0.057633687
246	0xbd7bc3d0	-0.06146604
247	0xbdc8ec63	-0.09810712
248	0xbb839dce	-0.0040166145
249	0x3c9cb1a9	0.019127684
250	0xbb01785f	-0.0019755585
251	0xbaf66cb1	-0.0018800703
252	0x3db3958e	0.0876876
253	0xbbd2ba19	-0.006430876
254	0xbb0b99ab	-0.002130131
255	0x3da7c839	0.08192486

Generator.conv2.conv1.0.weight f4 [8, 8, 3, 3, 3]
0	0x3dca9984	0.09892562
1	0xbcf1378c	-0.029445432
2	0xbdc3ecd2	-0.09566654
3	0x3eb2fa30	0.34956503
4	0x3de4c565	0.111704625
5	0xbda2b201	-0.07944108
6	0xbe4310b3	-0.19049339
7	0x3d1ef05d	0.038803447
8	0x3de62489	0.11237437
9	0xbda60b65	-0.08107642
10	0xbd667c97	-0.056271162
11	0xbc1582ce	-0.009125425
12	0xbdbe0413	-0.09278121
13	0xbbc8f98e	-0.006133265
14	0x3cb5ee9d	0.022208506
15	0xbd247927	-0.040154602
16	0xbd93226d	-0.071843006
17	0x3dcaee1e	0.099086985
18	0x3c3ab121	0.01139477
19	0xbd6ed9db	-0.058313232
20	0xbcca362b	-0.024684032
21	0xbc47fbc8	-0.012206025
22	0xbd332412	-0.04373557
23	0x3d1f56b2	0.03890104
24	0x3c9439cf	0.018093972
25	0xbbc11588	-0.0058924593
26	0x3dab8cda	0.08376475
27	0x3d4f4bff	0.050609585
28	0xbd0b6c69	-0.034038935
29	0xbd3eb854	-0.046562508
30	0x3c4d96fa	0.012548203
31	0xba927738	-0.0011174446
32	0xbc9fbfd5	-0.019500652
33	0x3d8c5834	0.06852761
34	0x3d9c512b	0.07632669
35	0x3c24d6c1	0.010060967
36	0xbe2bf23e	-0.16791627
37	0xbe0875a0	-0.1332612
38	0xbd995d04	-0.074884444
39	0xbdc27182	-0.09494306
40	0xbd6984c9	-0.0570114
41	0xbd303b14	-0.04302509
42	0x3dd32fe1	0.103118666
43	0xbc11401f	-0.008865385
44	0xbcdd926f	-0.027047364
45	0xbd4bde90	-0.0497728
46	0xbd7948b6	-0.06086036
47	0xbe2c9cd4	-0.168567
48	0x3baef3b2	0.0053391093
49	0xbd7074d7	-0.058705177
50	0xbdbfe25f	-0.09369349
51	0x3daf536d	0.08560834
52	0x3b919a64	0.0044434536
53	0xbd500d7f	-0.05079412
54	0x3c8581ad	0.016297186
55	0x3dd3aaba	0.10335298
56	0x3e0d031f	0.13770722
57	0x3d1e8fc7	0.038711336
58	0x3d880164	0.0664089
59	0x3e412db6	0.18865094
60	0xbd841102	-0.064485565
61	0xbd2c56a1	-0.042074803
62	0x3cf92657	0.03041379
63	0xbda477f3	-0.08030691
64	0x3cf1062f	0.029421894
65	0x3cbcb0ad	0.023033464
66	0xbd5e5708	-0.05428222
67	0x3c1de956	0.009638151
68	0x3d8c206d	0.06842122
69	0xbe4f6978	-0.20255077
70	0xbd09fd11	-0.03368861
71	0x3d055050	0.032547295
72	0xbd2d036c	-0.04223959
73	0x3d0da3d8	0.03458008
74	0x3d87acf0	0.06624782
75	0xbda3350d	-0.07969103
76	0x3dd0f39d	0.102027155
77	0x3e0d14c1	0.13777448
78	0xbe0c2ed7	-0.13689743
79	0xbd5f0f2b	-0.054457825
80	0x3d8dbcd1	0.069207795
81	0x3a108273	0.00055126025
82	0xbcf64a13	-0.030064618
83	0x3d6a9ab5	0.057276446
84	0xbdf680f8	-0.120363176
85	0xbd9a27f7	-0.07527154
86	0xbc307086	-0.010769015
87	0xbca416ba	-0.020030368
88	0xbd2a6865	-0.041603465
89	0x3dc2cf6d	0.095122196
90	0x3e3b5228	0.18293059
91	0x3bfca5b2	0.007710182
92	0x3da1278d	0.07868872
93	0x3c8d1379	0.0172212
94	0xbcee1ce4	-0.02906651
95	0x3c3f8d7f	0.01169145
96	0x3ba250e4	0.0049534906
97	0xbd7f01de	-0.06225764
98	0x3cdc5b36	0.026898962
99	0x3a0661af	0.00051262503
100	0x3c09b4ea	0.00840495
101	0x3bec0a65	0.0072033876
102	0xbde6717c	-0.11252114
103	0xbcddc70e	-0.027072456
104	0x3d97ca78	0.07411665
105	0xb8d4d36b	-0.000101483274
106	0xbd1d378e	-0.03838306
107	0x3c9b76bd	0.018977517
108	0x3d1c61cd	0.038179208
109	0x3d350219	0.044191454
110	0xbd32f44f	-0.043690022
111	0x3b82e126	0.003994125
112	0xbcc52117	-0.02406363
113	0x3ce9ce42	0.028540734
114	0xbcbaacef	-0.02278754
115	0xbb37e0b1	-0.002805751
116	0x3d03ffb5	0.032226283
117	0x3d384770	0.044990003
118	0x3caf194b	0.021374365
119	0x3d968d90	0.0735122
120	0x3d82e9c4	0.063922435
121	0x3da9a89e	0.08284114
122	0x3dc5ace8	0.0965212
123	0x3daeea56	0.0854079
124	0xbc31eba5	-0.010859405
125	0x3e061abf	0.1309614
126	0xbd58d68e	-0.05293899
127	0xbb31ba16	-0.0027118973
128	0x3d7eb501	0.062184338
129	0xbd882614	-0.06647888
130	0x3d00bc11	0.031429354
131	0x3d8ea641	0.06965304
132	0x3caf19e0	0.021374643
133	0xbcfa84c8	-0.030580893
134	0xbd299e84	-0.041410938
135	0xbc9a6542	-0.018847112
136	0x3de1a556	0.110178635
137	0x3d5c99b8	0.053857535
138	0xba81f53d	-0.0009915006
139	0x3dca9a9c	0.09892771
140	0x3da405b1	0.08008898
141	0xbd19f8ee	-0.037590913
142	0xbdb00eea	-0.08596595
143	0xbd60f33b	-0.054919463
144	0xbd90a554	-0.07062784
145	0xbbddc100	-0.006767392
146	0xbb917531	-0.004439019
147	0xbd9f2bc5	-0.0777202
148	0xbd832f08	-0.06405455
149	0xbd1aa9c1	-0.037759546
150	0xbdb623d3	-0.08893552
151	0xbe018a4a	-0.1265041
152	0x3d630629	0.055425797
153	0xbd9c568e	-0.076336965
154	0xbcd6439b	-0.026155284
155	0xbcb2eec6	-0.021842372
156	0xbdd588d3	-0.10426488
157	0xbcf1682a	-0.029468615
158	0xbdbf50d1	-0.093415864
159	0xbe1f5cde	-0.1556277
160	0xbe4f7bd0	-0.20262074
161	0x3e1a89c9	0.15091623
162	0x3d9e7ba3	0.077384256
163	0x3d74433b	0.05963443
164	0x3d90f8e5	0.07078723
165	0x3dad1b78	0.08452505
166	0x3c29e68b	0.010369907
167	0x3d03dbe2	0.03219212
168	0x3cb1b42f	0.021692364
169	0x3db9d104	0.0907307
170	0x3d00c30e	0.03143602
171	0x3cb5ccb7	0.022192342
172	0xbb85cc62	-0.004083202
173	0xbbe2336c	-0.0069031026
174	0x3d905156	0.070467636
175	0x3da8ddc4	0.082454234
176	0x3dcdff29	0.100584336
177	0x3dc9708a	0.09835918
178	0x3d3cefa2	0.04612697
179	0x3d99c1c3	0.0750766
180	0x3d3941b6	0.045228682
181	0xbbf696cb	-0.0075253
182	0xbce83700	-0.028346539
183	0xbd5fa139	-0.054597113
184	0x3d59d53c	0.05318187
185	0xbcd641fd	-0.026154513
186	0x3cecc5d6	0.02890293
187	0xbd83849f	-0.0642178
188	0x3c006405	0.0078363465
189	0xbc8a5283	-0.016885048
190	0xbd0bbbb0	-0.03411454
191	0x3d021631	0.031759445
192	0xbd9f6aa4	-0.07784012
193	0xbd8834cc	-0.06650695
194	0x3d58d170	0.05293411
195	0xbdecf61a	-0.11570378
196	0xbda7cf9e	-0.08193897
197	0xbca30e11	-0.019904168
198	0xbd268df2	-0.040662713
199	0xbd85db77	-0.06536
200	0x3b8fb7e8	0.004385937
201	0xbdd9ce3f	-0.106350414
202	0xbd64e226	-0.055879734
203	0x3d0d2ab8	0.034464568
204	0xbd9f9e80	-0.07793903
205	0xbd9a1511	-0.07523549
206	0x3dddaa36	0.10823481
207	0xbdad7b8c	-0.0847083
208	0xbd81391a	-0.063097194
209	0xb9342d0f	-0.00017182923
210	0xbd3ae43e	-0.045627825
211	0xbc4e0667	-0.012574769
212	0x3c074aa8	0.0082575455
213	0xbdad5f71	-0.0846547
214	0xbd48cda7	-0.04902425
215	0x3cd88a56	0.026433151
216	0xbe2c259a	-0.16811219
217	0xbe5cc3c7	-0.21559058
218	0x3e028f16	0.12749895
219	0xbdc82a80	-0.09773731
220	0xbc5ffd12	-0.0136711765
221	0x3be937c9	0.007117246
222	0x3dcb16a5	0.099164285
223	0xbcaf0aea	-0.021367509
224	0x3e1f668e	0.15566465
225	0xbd3c4130	-0.045960605
226	0xbceb79e1	-0.02874464
227	0x3d12bc92	0.035824366
228	0xbce8cbad	-0.028417433
229	0x3b9bbdd5	0.0047528544
230	0x3c91a30a	0.017777938
231	0x3d85d690	0.06535065
232	0x3dc42aae	0.09578453
233	0x3cd8fbfb	0.026487341
234	0x3c5bb014	0.0134086795
235	0xbdc2cb9a	-0.0951149
236	0xbd32559f	-0.043538686
237	0x3d9e1494	0.07718769
238	0x3c054168	0.00813327
239	0xbca4e4bc	-0.0201286
240	0x3dafe17f	0.08587932
241	0x3dd70c31	0.10500372
242	0x3d0dcfaf	0.03462189
243	0xbce74625	-0.02823169
244	0x3b532723	0.0032219372
245	0x3c68843c	0.014191683
246	0xbda1d417	-0.07901781
247	0x3d2681ff	0.040651318
248	0x3d023a3d	0.03179382
249	0x3b6bb6b7	0.003596706
250	0x3d0f37a4	0.034965172
251	0xbc92f4bf	-0.01793897
252	0xbe055df9	-0.13024129
253	0xbdf644c4	-0.12024835
254	0xbda1c50e	-0.07898913
255	0xbdde2636	-0.10847132

Generator.conv2.conv2.0.weight f4 [8, 8, 3, 3, 3]
0	0x3dc03c36	0.09386484
1	0xbd884abd	-0.0665488
2	0xba875f1e	-0.001032803
3	0x3da13fc5	0.07873491
4	0x3da2c413	0.079475544
5	0x3d874939	0.06605763
6	0x3d710fa6	0.058852814
7	0x3d687cea	0.056759752
8	0x3dfe5ea8	0.12420398
9	0x3e08e07f	0.13366888
10	0xbca6e084	-0.02037073
11	0x3d569544	0.052388445
12	0x3cb5b47f	0.022180794
13	0xbb9161da	-0.0044367136
14	0xbd258bf3	-0.04041667
15	0x3d9f6b3e	0.07784127
16	0xbd4834b1	-0.048878375
17	0x3d0e1e52	0.034696884
18	0x3d151586	0.03639748
19	0xbd8bb020	-0.068207026
20	0xbd438925	-0.047738213
21	0x3d434ee4	0.047682658
22	0xbdd0bf88	-0.10192782
23	0xbdbb7713	-0.09153571
24	0xbdc49758	-0.09599179
25	0xbd3625e9	-0.044469748
26	0xbd4ac20f	-0.049501475
27	0x3e0a7a2f	0.13523172
28	0x3dd4ebcf	0.103965394
29	0x3cf424de	0.029802736
30	0x3d871bed	0.06597123
31	0x3dcef215	0.10104767
32	0x3e2de97b	0.16983597
33	0x3d66b6ae	0.05632656
34	0x3d4b8b0b	0.04969315
35	0x3df73bda	0.12071963
36	0x3dcf377b	0.10118004
37	0x3d061fe6	0.032745264
38	0x3c3ecf4f	0.011646106
39	0x3cbd6e91	0.023124011
40	0x3ddb675b	0.10713073
41	0x3d5b9e72	0.053617902
42	0xb91fe5a9	-0.00015248977
43	0x3b827aa1	0.0039819037
44	0x3e002e09	0.12517561
45	0x3ccbdebf	0.024886487
46	0x3d5662d6	0.05234035
47	0xbc279477	-0.010228268
48	0x3d0c3ac5	0.034235734
49	0x3cf531ee	0.029931035
50	0x3d2737eb	0.040824812
51	0xbd105f3e	-0.03524708
52	0x3d8c3099	0.06845207
53	0x3d263b20	0.04058373
54	0x3e80893b	0.251047
55	0x3dcdc202	0.1004677
56	0x3d7de3e4	0.06198491
57	0xbcd16e1f	-0.025565205
58	0xbdede89f	-0.116166346
59	0xbe001eb3	-0.12511711
60	0x3d9b3868	0.07579118
61	0xbbb7bfef	-0.005607597
62	0xbd9b979b	-0.07597276
63	0xbc15c521	-0.0091412375
64	0xbe02c206	-0.12769327
65	0x3bbea196	0.0058176024
66	0xbe01eefb	-0.1268882
67	0xbe0851b0	-0.13312411
68	0xbe51af01	-0.20476915
69	0x3d145126	0.0362102
70	0xbc72b52d	-0.0148137035
71	0xbe430c73	-0.19047718
72	0xbd04fe3f	-0.03246903
73	0xbdbcf364	-0.092261106
74	0x3e22b0bf	0.15887736
75	0xbde1661c	-0.11005804
76	0xbe2898aa	-0.16464487
77	0x3c7d10ee	0.015445931
78	0x3da74516	0.08167474
79	0x3d105013	0.035232615
80	0xbc1f2c70	-0.009715185
81	0x3db46221	0.08807779
82	0x3dab5b65	0.083670415
83	0x3e191e5b	0.14952986
84	0x3d1b101d	0.037857164
85	0x3d163090	0.036667407
86	0x3cc4defa	0.024032105
87	0x3e1a9d63	0.15099101
88	0x3c983f41	0.01858485
89	0x3c061483	0.008183601
90	0x3e1d933e	0.153882
91	0x3ca08d01	0.019598486
92	0x3dc6cf25	0.097074784
93	0xbd52836c	-0.051394865
94	0xbe039d3f	-0.12852953
95	0xbdb33a12	-0.087513104
96	0xbcacae4a	-0.021079201
97	0xbe120f31	-0.14263608
98	0x3c8aae87	0.016928924
99	0xbc695b8c	-0.014243018
100	0xbd5ec645	-0.054388303
101	0x3d995e1b	0.07488652
102	0xbdcf1a11	-0.10112394
103	0xbd9d1a6b	-0.076710545
104	0xbd30b7eb	-0.043144148
105	0x3dc8f529	0.098123856
106	0xbd9382fb	-0.07202717
107	0xbccd7163	-0.025078481
108	0xbdad4019	-0.08459491
109	0xbd7ea8ed	-0.06217282
110	0xbcfb0d17	-0.03064589
111	0x3d5c11a8	0.053727776
112	0x3d8ad153	0.06778207
113	0x3bd85b16	0.006602655
114	0x3d9a37b2	0.07530154
115	0x3d274e7d	0.040846337
116	0x3a2bde00	0.0006556213
117	0xbe26dbf5	-0.16294844
118	0xbdfba30c	-0.12286958
119	0x3c51b746	0.012800043
120	0xbd939600	-0.072063446
121	0xbd8fbbe1	-0.07018257
122	0x3c93d0a8	0.018043831
123	0x3c19aac2	0.009379091
124	0xbcf7bf13	-0.030242478
125	0x3d00fcb3	0.031490993
126	0xbe163858	-0.14669931
127	0xbdfd7e72	-0.12377633
128	0x3c2b717d	0.010464069
129	0x3e1c9f58	0.1529516
130	0x3d5d78a7	0.05407014
131	0xbc459692	-0.012059825
132	0x3dce44d5	0.100717224
133	0xbd558125	-0.052125115
134	0xbe1809ee	-0.14847538
135	0x3d4e2a74	0.050333455
136	0xbe6f1222	-0.23346761
137	0xbe830a5f	-0.2559385
138	0xbd34c7fb	-0.04413603
139	0xbe5f5b3b	-0.21812145
140	0xbc92549c	-0.01786261
141	0xbe4466c9	-0.19179834
142	0xbe7faabb	-0.24967472
143	0x3df7582e	0.12077366
144	0x3bb05536	0.0053812517
145	0xbc09d99d	-0.008413699
146	0xbe1c9a1d	-0.15293165
147	0xbbc47c39	-0.005996254
148	0xbdc58766	-0.09644966
149	0xbe181b99	-0.14854278
150	0x3cce0573	0.025149083
151	0xbe5b4688	-0.21413624
152	0xbe200acb	-0.15629117
153	0x3dcee542	0.10102321
154	0x3c9b19de	0.018933233
155	0xbd51ca31	-0.051218215
156	0x3d943460	0.07236552
157	0xbca50664	-0.020144649
158	0xbe306cda	-0.17229024
159	0x3dea0969	0.11427576
160	0xbe158e4b	-0.14605062
161	0xbcf2a847	-0.029621257
162	0x3e128cbe	0.14311501
163	0x3d9c288f	0.076249234
164	0x3e6ae97f	0.22940634
165	0xbce59e97	-0.028029723
166	0xbd0406b9	-0.032232974
167	0xbdcfd145	-0.10147337
168	0x3d5ae00c	0.053436324
169	0xbe0da63e	-0.13832948
170	0xbd96a781	-0.073561676
171	0x3da28793	0.07936015
172	0x3d38ad59	0.045087192
173	0x3e4e190d	0.20126744
174	0x3db5a509	0.088693686
175	0xbcfc4098	-0.03079252
176	0xbd8f4b93	-0.069968365
177	0xbcaf2f70	-0.021384925
178	0xbd80996d	-0.06279264
179	0xbdbce453	-0.09223237
180	0xbcaa9337	-0.02082215
181	0x3e06d8fc	0.1316871
182	0x3da65a96	0.08122747
183	0x3c24a6cf	0.010049536
184	0xbc0710e6	-0.008243775
185	0xbe2477dd	-0.16061349
186	0x3d22b784	0.039725795
187	0xbdc31f01	-0.09527398
188	0xbe25daf6	-0.16196808
189	0xbd8344ba	-0.06409593
190	0xbd6f27c3	-0.05838753
191	0xbdb747e3	-0.08949258
192	0xbdad978f	-0.08476173
193	0xbd9a628f	-0.0753833
194	0xbdb2854a	-0.08716829
195	0xbd3c335e	-0.045947425
196	0xbcb356e5	-0.02189202
197	0x3ccfd83c	0.025371663
198	0xbd91f5c5	-0.07126955
199	0x3abb160c	0.0014273538
200	0xbd6f853b	-0.058476668
201	0xbd16a5c6	-0.036779188
202	0xbd98f140	-0.0746789
203	0xbd4f2f35	-0.05058213
204	0x3cd00a20	0.025395453
205	0x3c41fdff	0.011840343
206	0xbc6c7006	-0.014431005
207	0x3e2f5503	0.17122273
208	0x3e1dacc9	0.15397944
209	0x3e2c0f9c	0.1680283
210	0x3d4f234f	0.050570782
211	0x3dd962ae	0.10614525
212	0xbcb6e473	-0.02232573
213	0x3e0ecc72	0.13945177
214	0x3c16f95b	0.009214724
215	0xbd1c673f	-0.0381844
216	0xbe3beda7	-0.18352376
217	0xbdb4bea6	-0.08825426
218	0x3c992162	0.018692676
219	0xbdc9633c	-0.098333806
220	0xbd7c9779	-0.061667893
221	0xbdb0a3ee	-0.08625017
222	0xbe3b64e6	-0.18300208
223	0xbc91f503	-0.017817026
224	0xbc6ad9da	-0.014334166
225	0x3d3ac3c6	0.04559686
226	0x3d42c022	0.047546513
227	0x3c0dc5e8	0.008653142
228	0x3d819952	0.06328072
229	0x3d46364e	0.048391633
230	0x3cab9ca8	0.020948723
231	0xbc1814e8	-0.009282328
232	0x3c6a9117	0.014316819
233	0x3d6879d9	0.056756828
234	0x3d4a9741	0.049460653
235	0x3de4882e	0.11158787
236	0x3db1d4df	0.0868318
237	0x3e28c049	0.16479601
238	0x3dfdebbf	0.123984806
239	0x3dad3e74	0.084591776
240	0x3e146619	0.14492072
241	0x3d253a67	0.0403389
242	0x3d308482	0.04309512
243	0xbe25a612	-0.16176632
244	0xbded9a17	-0.11601656
245	0xb8c2d08b	-9.289485e-05
246	0xbde7b144	-0.113131076
247	0xbdb9f143	-0.0907922
248	0xbcd0dd6b	-0.025496205
249	0xbe902724	-0.28154862
250	0xbdf09127	-0.117464356
251	0x3cc825ee	0.024432149
252	0x3c5b5e61	0.013389201
253	0x3ca90d32	0.020636175
254	0xbd7610f0	-0.060074747
255	0x3ca7fabf	0.020505307

Generator.conv3.conv1.0.weight f4 [8, 8, 3, 3, 3]
0	0x3c58380a	0.0131969545
1	0x3d9bb10a	0.07602127
2	0xbc8ececa	-0.01743259
3	0xbc8b9963	-0.017040914
4	0x3c64fb25	0.013975893
5	0x3d3fa43a	0.046787478
6	0x3d8e0569	0.06934626
7	0xbccecc2e	-0.025243845
8	0x3c967816	0.018367808
9	0xbccbb2f8	-0.024865612
10	0x3cf31290	0.029671937
11	0xbd743182	-0.059617527
12	0x3c8970f4	0.016777493
13	0xbc8de5b2	-0.017321441
14	0xbdb14217	-0.08655184
15	0xbd421abc	-0.047388777
16	0x3d141b1d	0.03615867
17	0xbd0b52ea	-0.03401462
18	0xbd16a318	-0.036776632
19	0x3d89208f	0.06695663
20	0xbc8959b3	-0.016766405
21	0x3d5e5d65	0.054288287
22	0xbd56f930	-0.052483737
23	0xbbfca663	-0.0077102645
24	0xbcdb0fcc	-0.026740931
25	0x3d04aade	0.032389514
26	0xbd6113fb	-0.054950695
27	0xbd742567	-0.059605982
28	0x3ccf3e66	0.025298309
29	0x3cf8e446	0.030382287
30	0x3c485139	0.012226396
31	0xbcc920c4	-0.024551757
32	0xbd82b2de	-0.063817725
33	0x3d4146bf	0.04718661
34	0xbbfe96d8	-0.007769447
35	0x3d504cba	0.050854422
36	0x3be807f6	0.007081027
37	0x3d800388	0.062506735
38	0x3defb272	0.117039576
39	0xbc0e42a0	-0.008682877
40	0xbd2a9303	-0.041644108
41	0xbdb32da7	-0.08748942
42	0x3b654b7b	0.0034987617
43	0xbdad237a	-0.08454032
44	0x3ce662d8	0.028123304
45	0xbc8e39e5	-0.01736159
46	0x3dc76c9f	0.09737515
47	0xbd0a5c41	-0.033779386
48	0x3d770f8e	0.06031757
49	0xbd3a1ebb	-0.045439463
50	0xbd911aee	-0.070852146
51	0xbdce7fb6	-0.10082953
52	0xbdc5974a	-0.09647997
53	0x3d61f8ce	0.05516892
54	0xbd45448f	-0.048161086
55	0xbcbd84d4	-0.023134626
56	0xbd0333e0	-0.032031894
57	0xbd480eaa	-0.04884211
58	0xbcbff90f	-0.02343419
59	0x3cc8e232	0.02452192
60	0x3bbeff20	0.005828753
61	0xbc8e0b91	-0.0173395
62	0x3c84d773	0.016216015
63	0x3d3d5da3	0.046231877
64	0x3d09d805	0.033653278
65	0x3d6a85a2	0.05725635
66	0xbd0855ca	-0.03328494
67	0x3dc3a4d4	0.09552923
68	0x3d650e04	0.05592157
69	0xbd0fc677	-0.03510138
70	0xbab778b1	-0.0013997761
71	0xbccf15b0	-0.025278896
72	0x3d8cf74d	0.068831064
73	0xbd5b15d4	-0.053487614
74	0x3ca35f91	0.01994303
75	0x3bdd968a	0.0067623304
76	0x3d9abae6	0.07555179
77	0xbd181247	-0.037126806
78	0x3d97a4ef	0.074045055
79	0xbd751a14	-0.059839323
80	0xbd76206c	-0.060089514
81	0x3cd3f680	0.025874376
82	0x3a6e4733	0.0009089589
83	0x3b5835df	0.0032991094
84	0xbcbc2799	-0.0229681
85	0x3d1d0ccf	0.038342293
86	0xbd79ea6b	-0.061014574
87	0x3d680cbb	0.056652766
88	0xbc4de59f	-0.012566953
89	0x3d7588ab	0.05994479
90	0xbc7b274e	-0.015329195
91	0x3d2a0ac4	0.041514173
92	0x3d06f6d9	0.032950256
93	0xbd4f334a	-0.050586022
94	0x3d89fc3a	0.067375615
95	0xbd90ab90	-0.07063973
96	0xbda24ba8	-0.079245865
97	0xbcbe71d3	-0.023247635
98	0xbac1d16c	-0.0014787144
99	0xbd218f77	-0.03944346
100	0x3d6d2b47	0.0579026
101	0xbc97a0b6	-0.01850925
102	0x3d967913	0.07347312
103	0x3e067258	0.13129556
104	0x3d040872	0.032234617
105	0xbc8f92aa	-0.01752599
106	0xbcc78c2d	-0.024358833
107	0xbd9c6d51	-0.07638038
108	0x3da0e2fd	0.078557946
109	0xbd5072fa	-0.0508909
110	0x3c01f30f	0.007931485
111	0x3d86af7d	0.065764405
112	0xbd850052	-0.06494202
113	0x3d6a0d96	0.057141863
114	0x3db9941e	0.09061454
115	0x3d34e32d	0.044161964
116	0xbcf50a54	-0.029912151
117	0x3d689091	0.056778494
118	0x3da2f864	0.07957533
119	0x3d84f29d	0.06491587
120	0x3c20d1dc	0.009815659
121	0x3d6d0466	0.057865523
122	0x3dceabca	0.1009136
123	0x3d336e77	0.04380652
124	0x3d975e3b	0.0739102
125	0xbd421866	-0.04738655
126	0xbc7e4aac	-0.015520733
127	0xbbc29fd5	-0.0059394636
128	0x3ca313fa	0.019906987
129	0xbd886c1d	-0.06661246
130	0xbd30ef38	-0.043196887
131	0xbc74c6c2	-0.014939966
132	0x3d35aecc	0.044356152
133	0xbd459af1	-0.048243467
134	0xbd103441	-0.035206083
135	0xbd89fc62	-0.06737591
136	0x3cefbd10	0.029264957
137	0x3cbc0916	0.022953551
138	0xbc65fc71	-0.0140372375
139	0x3d973b4a	0.07384355
140	0xbd738489	-0.059452567
141	0xbd10f44b	-0.035389226
142	0xbc5e6d17	-0.013575814
143	0x3d062753	0.032752346
144	0x3c6eb1f2	0.014568793
145	0x3d93cd60	0.072169065
146	0x3d08fd5d	0.03344475
147	0xbd301e03	-0.04299737
148	0x3d37f8fa	0.044915177
149	0xbb8c9de4	-0.004291283
150	0xbd729607	-0.05922511
151	0xbd84c3a8	-0.06482631
152	0x3d1e94a3	0.03871597
153	0xbd6c58de	-0.057701938
154	0x3d737389	0.059436355
155	0xbd7a5947	-0.061120298
156	0x3d216027	0.03939834
157	0x3db86a3d	0.09004638
158	0x3d6771cb	0.056505006
159	0x3d667078	0.056259602
160	0xbdadf477	-0.084938936
161	0xbcbf26c5	-0.023333916
162	0xbd6a4ee9	-0.05720416
163	0x3d43ed6f	0.047833856
164	0xbbabef2f	-0.0052470188
165	0xbc9ff8f3	-0.019527888
166	0xbd28a6a3	-0.041174542
167	0xbd0c250f	-0.03421503
168	0x3dd5b775	0.10435382
169	0x3b49605f	0.0030727608
170	0x3ccb9c39	0.024854766
171	0x3d452f10	0.048140585
172	0xbc8165e4	-0.015795656
173	0x3d910015	0.07080094
174	0x3d985337	0.07437747
175	0xbd34eef5	-0.0441732
176	0x3d2fe6e8	0.04294482
177	0x3cd84807	0.026401533
178	0x3c7a2121	0.015266688
179	0x3c662bb5	0.0140485065
180	0x3cbf7dbe	0.023375388
181	0xbc05df6a	-0.008170942
182	0xbdf809f6	-0.12111275
183	0x3d2dcfa3	0.042434346
184	0x3ddcf6bf	0.107892506
185	0xbc721050	-0.014774397
186	0xbdbe0cb3	-0.09279766
187	0x3dcb8877	0.09938138
188	0x3bb7537d	0.0055946694
189	0x3807f995	3.241895e-05
190	0xbc00e7b4	-0.007867742
191	0x3c02c238	0.007980876
192	0x3c65e0f6	0.014030686
193	0x3d1bb867	0.038017657
194	0xbca9cac6	-0.020726573
195	0xbd9c230d	-0.07623873
196	0xbc0dabff	-0.008646964
197	0x39eb98d8	0.0004493657
198	0xbc62cd5e	-0.013842909
199	0xb9a48261	-0.00031377657
200	0x3b442a42	0.0029932414
201	0x3cf3e2f0	0.029771298
202	0x3e13953f	0.14412402
203	0x3d46bd7e	0.048520558
204	0xbc220309	-0.009888419
205	0xbd1c3641	-0.038137678
206	0x3d7e7ca7	0.062130596
207	0xbd59707f	-0.0530858
208	0xbdbecd65	-0.0931652
209	0xbc1f5271	-0.009724245
210	0x3d6b45df	0.05743968
211	0x3dec5fe9	0.11541731
212	0xbda7f642	-0.08201267
213	0xbd10189c	-0.03517972
214	0xbd438b8e	-0.04774051
215	0xbd5775ef	-0.052602705
216	0x3c1d39aa	0.009596268
217	0xbd2f2f9f	-0.042770024
218	0xbb9c4b18	-0.004769694
219	0x3d2da198	0.042390436
220	0x3c3cef3f	0.01153165
221	0x3d333204	0.04374887
222	0x3b3ae1c8	0.0028515924
223	0x3d68c54c	0.056828782
224	0x3d1d5314	0.038409308
225	0x3df267b7	0.11836188
226	0xbd892479	-0.0669641
227	0x3c053673	0.0081306575
228	0x3da4329f	0.08017468
229	0x3d2bd1dc	0.041948184
230	0xbdbb9301	-0.09158898
231	0xbd11aa04	-0.03556253
232	0x3d2924db	0.041294914
233	0xbe3047a6	-0.17214832
234	0x3cc5459b	0.024081042
235	0xbc00a85e	-0.007852642
236	0x3cb826b1	0.022479387
237	0x3d671407	0.056415584
238	0xbbcdc2e9	-0.0062793386
239	0xbd411b63	-0.04714526
240	0xbd64e0cb	-0.05587844
241	0xbd6cd62f	-0.05782145
242	0x3c53c840	0.012926161
243	0x3c041c8b	0.008063446
244	0xbde931c3	-0.113864444
245	0xbe24fd6e	-0.16112301
246	0x3cdeb328	0.027185038
247	0x3d90a220	0.07062173
248	0xbe0cd663	-0.13753657
249	0x3da7121b	0.0815775
250	0x3d74ef89	0.05979875
251	0xbb3b6fd8	-0.00286006
252	0x3d8ccdd9	0.068752
253	0x3c28142c	0.010258716
254	0xbcd4758a	-0.025934953
255	0x3dc80d84	0.09768203

Generator.conv3.conv2.0.weight f4 [8, 8, 3, 3, 3]
0	0x3d672c7b	0.056438904
1	0x3c8d5c10	0.017255813
2	0xbc580065	-0.013183688
3	0xbcb51489	-0.022104518
4	0x3d84b915	0.06480614
5	0xbd24505b	-0.040115695
6	0xbd8b3a8c	-0.06798276
7	0xbc905349	-0.017617838
8	0xbdb41d5d	-0.08794663
9	0x3d3947eb	0.045234602
10	0xbcee7298	-0.029107377
11	0x3d664057	0.056213703
12	0x3b8697a6	0.0041074334
13	0x3d66cfa8	0.05635038
14	0xbca4a840	-0.02009976
15	0xbc563625	-0.0130744325
16	0x3c7188f6	0.014742127
17	0xbd950f55	-0.07278315
18	0x3c9bbb88	0.01901032
19	0x3bde7390	0.0067886785
20	0x3c5b032e	0.013367457
21	0x3d7ebc59	0.06219134
22	0x3dd86c7d	0.105675675
23	0x3e13bf1d	0.14428373
24	0x3d4bb672	0.04973454
25	0x3dbe2cf1	0.09285916
26	0x3d5977cd	0.053092767
27	0x3df49a4e	0.11943494
28	0xbe0e56eb	-0.13900344
29	0xbe50c3fd	-0.20387264
30	0x3e10b4e7	0.14131509
31	0xbdc611f3	-0.09671392
32	0xbdbac59d	-0.09119723
33	0x3d537723	0.05162729
34	0x3dac4bac	0.08412871
35	0xbc30e35b	-0.010796393
36	0x3dace4d4	0.08442083
37	0xbddd5946	-0.10808043
38	0xbe1260c1	-0.14294721
39	0xbdbc59ea	-0.09196837
40	0xbdc408d8	-0.09571999
41	0xbd669f32	-0.056304164
42	0xbdfb276f	-0.12263381
43	0xbe179b15	-0.14805253
44	0xbe41c4a6	-0.18922672
45	0x3dccfec7	0.100095324
46	0xbbea0437	-0.0071416157
47	0xbe15aba3	-0.14616255
48	0xbc8c8796	-0.017154496
49	0xbccc85c7	-0.024966134
50	0xbe19a787	-0.15005313
51	0xbd8b4450	-0.06800139
52	0xbd6f9736	-0.058493815
53	0xbe10789f	-0.14108513
54	0x3d3677d4	0.04454787
55	0x3cab6b5c	0.020925216
56	0xbea1954b	-0.31559214
57	0x3d8cf16b	0.06881984
58	0xbd3ba768	-0.045813948
59	0xb9b0986b	-0.00033682896
60	0x3de45fe4	0.11151102
61	0x3e3d2f32	0.18475035
62	0x3d198f39	0.037490103
63	0x3de51137	0.11184924
64	0xbd440327	-0.04785457
65	0xbcbddbac	-0.023176037
66	0x3da7906b	0.081818424
67	0x3caae49a	0.020860959
68	0xbd5735fa	-0.05254171
69	0x3ccea9f1	0.025227519
70	0x3e96ac12	0.29428154
71	0xbd04ed22	-0.03245271
72	0x3e12d6ba	0.14339724
73	0x3e0e004c	0.13867301
74	0x3df84fa4	0.12124565
75	0x3dff311d	0.124605395
76	0x3e2c950c	0.16853732
77	0x3df6d43c	0.12052199
78	0xbddfb087	-0.10922342
79	0x3df3f517	0.119119816
80	0x3df155a3	0.11783912
81	0xbd58e06f	-0.05294841
82	0x3dd873e5	0.1056898
83	0xb8aad651	-8.146151e-05
84	0xbd8d80b3	-0.06909313
85	0xbd3ae664	-0.045629874
86	0x3d62da3c	0.055383906
87	0x3d6f29fa	0.05838964
88	0xbb153b02	-0.0022770767
89	0xbd10b6aa	-0.035330452
90	0xbe045961	-0.1292472
91	0x3caefc69	0.021360593
92	0x3c1a0ee9	0.009402969
93	0xbe18780a	-0.14889541
94	0xbe763fb1	-0.24047734
95	0x3d3bb7e7	0.04582968
96	0xbae66ab1	-0.0017579404
97	0xbe2932b7	-0.16523252
98	0xbd8d0b2d	-0.06886897
99	0xbe3adbc5	-0.18247898
100	0xbdd419e5	-0.103565015
101	0xbcbd0fb9	-0.023078786
102	0xbc9dfff5	-0.019287089
103	0xbe870d23	-0.2637721
104	0xbccc50fa	-0.024940956
105	0x3dc9296c	0.09822354
106	0xbd293cf3	-0.04131789
107	0xbcf0ead5	-0.029408852
108	0xbecce2f8	-0.40016913
109	0xbe439abe	-0.19101998
110	0xbccd4dae	-0.025061455
111	0xbe0be450	-0.13661313
112	0xbdb1e4f4	-0.086862475
113	0xbd4cd99f	-0.050012227
114	0xbda991e5	-0.0827978
115	0xbe08ec68	-0.13371432
116	0xbd612841	-0.05497003
117	0xbc8b0c35	-0.016973594
118	0x3c31be7c	0.010848638
119	0x3d41d353	0.047320675
120	0x3d0ed3db	0.03487001
121	0x3d03422f	0.03204554
122	0xbcf2f365	-0.029657075
123	0xbd7b926d	-0.06141894
124	0x3ba1ac81	0.004933894
125	0xbce73ea3	-0.02822811
126	0xbeeaf9e0	-0.45893764
127	0xbe8bbafb	-0.27291092
128	0xbca2c00f	-0.019866971
129	0xbe9c5344	-0.30532277
130	0xbe903ac2	-0.2816983
131	0xbdc39104	-0.09549144
132	0x3db3e4c3	0.08783867
133	0x3c5a0955	0.013307889
134	0x3d9b421d	0.075809695
135	0x3cac5cdb	0.02104037
136	0xbac31ef2	-0.0014886542
137	0xbe920841	-0.28521922
138	0xbe13b8dd	-0.14425988
139	0xbd39f329	-0.04539791
140	0x3c8b6333	0.017015075
141	0x3e8a1a1a	0.2697304
142	0xbcf4ee6f	-0.02989885
143	0x3dd52d2b	0.10409006
144	0xbdfcc17b	-0.12341591
145	0xbda6672c	-0.08125147
146	0xbd50a2e8	-0.05093661
147	0xbd377bf2	-0.044795938
148	0x3c1e9461	0.009678931
149	0x3da8e680	0.082470894
150	0x3e36242b	0.17787234
151	0xbd203cbc	-0.03912042
152	0x3e166995	0.14688714
153	0x3cf838f2	0.030300591
154	0x3e0906da	0.1338152
155	0xbd8b2f74	-0.0679616
156	0x3dcfb930	0.101427436
157	0x3cf14e31	0.02945623
158	0x3d7b3787	0.061332252
159	0x3e9f3151	0.31092313
160	0x3cf9bdf5	0.030486086
161	0xbcdb9faa	-0.026809532
162	0x3e28dd6c	0.16490716
163	0x3e0ba767	0.13638078
164	0x3e1b606c	0.15173501
165	0xbcc3edba	-0.023917068
166	0xbd79d4ea	-0.060994066
167	0x3da25ad7	0.079274826
168	0xbe2cb38f	-0.16865371
169	0xbe3ed02d	-0.186341
170	0x3e25a01a	0.16174355
171	0x3cc09227	0.02350719
172	0x3d4b2de2	0.049604304
173	0x3df06a28	0.11738998
174	0xbdf8b20b	-0.12143334
175	0xbe05ba69	-0.13059391
176	0x3dc8d2ac	0.098058075
177	0xbe12f3e4	-0.1435085
178	0xbbe9ea51	-0.0071385284
179	0x3def5162	0.116854444
180	0xbe4f956e	-0.20271847
181	0xbd66736d	-0.056262422
182	0x3e1656e4	0.14681584
183	0xbe24af62	-0.16082528
184	0xbdc49711	-0.09599126
185	0x3e6e5cf2	0.23277643
186	0xbd1bfd64	-0.03808345
187	0x3df1d3b4	0.11807957
188	0x3e0185ae	0.12648651
189	0xba6d7475	-0.0009058186
190	0xbd00dfd7	-0.03146347
191	0x3dd37361	0.10324741
192	0xbd291b13	-0.041285586
193	0xbd02c6a8	-0.031927735
194	0x3dbff9af	0.09373795
195	0xbda530a3	-0.08065917
196	0x3c00d7e5	0.007863973
197	0x3e3dd61f	0.18538712
198	0x3e33c82d	0.1755683
199	0x3d64e001	0.05587769
200	0x3dc22920	0.094805
201	0x3d3ba30a	0.045809783
202	0x3cf01eee	0.029311623
203	0x3c5b9a88	0.013403542
204	0xbd975c33	-0.073906325
205	0x3db12cc3	0.08651116
206	0xbc69ecf4	-0.014277685
207	0x3e2fae3c	0.17156309
208	0x3c3caaba	0.011515314
209	0xbc48d6ec	-0.012258273
210	0x3e279e47	0.16368972
211	0x3d82b1e2	0.06381585
212	0x3d232067	0.039825823
213	0x3dec9fbf	0.11553907
214	0x3e26d9cb	0.16294019
215	0xbd1981b7	-0.03747722
216	0x39598684	0.00020744844
217	0xbc88d769	-0.016704278
218	0xbd3b7991	-0.04577023
219	0x3c6adb44	0.014334504
220	0xbdabc5f7	-0.08387368
221	0xbdbbf70f	-0.09177982
222	0x3d3c43bc	0.045963034
223	0xbc88eb4d	-0.016713763
224	0x3d46883f	0.04846978
225	0xbbbef038	-0.005826976
226	0xbd5d54eb	-0.054036062
227	0xbd39e7a6	-0.045386933
228	0xbbf8bda6	-0.007590967
229	0x3d354416	0.044254385
230	0xbd5e884c	-0.0543292
231	0x3d700c03	0.058605205
232	0xbbc02b07	-0.0058645043
233	0x3d0c4c27	0.034252312
234	0xbb938ab4	-0.0045026187
235	0x3dce325b	0.10068198
236	0x3de47cd4	0.111566216
237	0x3d56bd11	0.0524264
238	0x3d35e8bf	0.044411417
239	0x3d37207d	0.044708718
240	0x3dbad10e	0.09121905
241	0xbd0d0574	-0.03442903
242	0x3b8b6528	0.004254002
243	0xbadf21c9	-0.0017023619
244	0x3bd78e8e	0.006578273
245	0xbe0b9ef2	-0.13634852
246	0x3db2f268	0.087376416
247	0x3dd0a5fa	0.101879075
248	0x3d39f530	0.045399845
249	0x3e18c270	0.14917922
250	0x3c88939f	0.016671954
251	0x3ddfb0a8	0.109223664
252	0x3d0b73a2	0.034045823
253	0x3dfa9e72	0.12237252
254	0xbd767ed4	-0.060179546
255	0x3dcf6ed0	0.10128558

Generator.conv4.conv1.0.weight f4 [8, 8, 3, 3, 3]
0	0xbcf4c44a	-0.029878754
1	0x3ca8a5b8	0.020586833
2	0xbce32dc8	-0.027731791
3	0xbb4e6783	-0.0031494803
4	0x3d5843fc	0.05279921
5	0x3a82627e	0.0009947566
6	0x3b14a12a	0.002267907
7	0x3d3223ce	0.043491177
8	0xbc3d3697	-0.01154866
9	0xbd2bae1a	-0.041914083
10	0xbc8556cc	-0.01627674
11	0xbda09b00	-0.07842064
12	0xbd9e4d4c	-0.07729587
13	0xbd08a553	-0.03336079
14	0xbd5b1e96	-0.053495966
15	0x3dbd1f66	0.092345044
16	0x3cea690f	0.028614549
17	0x3d50f7b3	0.051017474
18	0x3d3a45c4	0.04547669
19	0x3ce5ea3b	0.028065791
20	0x3d8efd94	0.0698196
21	0x3d0ed5a8	0.034871727
22	0xbe0275b7	-0.12740217
23	0x3c8e00b0	0.017334312
24	0xbd833779	-0.06407065
25	0xbd409fb5	-0.04702731
26	0x3c8ad6f2	0.016948197
27	0xbd06c10c	-0.032898948
28	0x3d3cd073	0.04609723
29	0x3dac58fe	0.084154114
30	0x3b12f74b	0.002242523
31	0x3d81b9ec	0.0633429
32	0x3d658ded	0.056043554
33	0xbdb8bed7	-0.09020775
34	0x3d939654	0.07206407
35	0xbcfee64c	-0.031115673
36	0xbc25416e	-0.0100864
37	0xbceaf142	-0.028679494
38	0xbd60487e	-0.054756634
39	0x3b4dd327	0.0031406374
40	0xbd07fdda	-0.033201076
41	0xbd87e359	-0.0663516
42	0x3c002f80	0.007823825
43	0x3d3b0d3c	0.04566692
44	0x3d1f1343	0.03883673
45	0x3d85e711	0.06538213
46	0xbd51a206	-0.05117991
47	0xbd837093	-0.06417956
48	0x3d5437c2	0.051810987
49	0xbd244e9a	-0.040114023
50	0x3c0ce747	0.008600063
51	0x3d9edb3d	0.0775666
52	0x3d498698	0.049200624
53	0x3cc1f3c6	0.02367581
54	0xbe07c4c1	-0.1325865
55	0xbdfbb620	-0.12290597
56	0xbdd58cd6	-0.10427253
57	0xbd22b96a	-0.039727606
58	0x3d306b7f	0.043071266
59	0xbd6373e3	-0.05553044
60	0x3d2ef5e9	0.042714987
61	0x3d3ec622	0.046575673
62	0x3c957e14	0.018248595
63	0xbcb7355e	-0.022364315
64	0xbe275639	-0.16341485
65	0xbd8f0f39	-0.06985325
66	0x3c1ae6e7	0.0094544655
67	0xbd9fe81b	-0.078079425
68	0xbda6fc45	-0.08153585
69	0x3ba669de	0.0050785383
70	0x3d90352d	0.070413925
71	0x3c2cc01c	0.010543849
72	0x3da063ad	0.07831512
73	0xbbf7c7b2	-0.0075616473
74	0xbc8a780a	-0.016902942
75	0xbc9fd71f	-0.019511757
76	0xbe04230a	-0.12903991
77	0x3cf32c17	0.02968411
78	0xbd0028d4	-0.031288937
79	0xbd5c077c	-0.053718075
80	0x3b66489f	0.00351385
81	0x3cc6623d	0.024216766
82	0xbbc7c6f3	-0.0060967146
83	0xbd3520ad	-0.044220615
84	0xb92ee791	-0.00016680198
85	0xbd0b5275	-0.034014184
86	0xbdb2d328	-0.08731681
87	0x3d2440a3	0.040100705
88	0x3cca8972	0.024723742
89	0x3d868fe6	0.06570415
90	0x3cbb3632	0.02285299
91	0xbd3b8363	-0.045779597
92	0xbcc69588	-0.024241224
93	0xbb0dae8d	-0.0021618933
94	0xbd95b3d9	-0.07309694
95	0xbd18aa20	-0.03727162
96	0x3de0d252	0.109776154
97	0x3ddbeabd	0.10738132
98	0x3d3a2b18	0.045451254
99	0xbc73aa3e	-0.014872132
100	0xbd9be95d	-0.0761287
101	0xbd820938	-0.063494146
102	0xbc7a89ff	-0.01529169
103	0x3bd3de62	0.006465719
104	0xbe02fa18	-0.12790716
105	0x3dbdf2d1	0.09274829
106	0x3cac60db	0.021042278
107	0x3c657e07	0.014007098
108	0xbddc9625	-0.10770825
109	0xbd9ab13c	-0.07553336
110	0x3cafa2f6	0.02144001
111	0xbc8bf6d5	-0.017085472
112	0x3d6520fb	0.055939656
113	0x3d1272dc	0.03575407
114	0x3c994c60	0.018713176
115	0x3d7f13bc	0.06227468
116	0x3c8199ca	0.015820403
117	0xbab19732	-0.0013549088
118	0xbc39f820	-0.0113506615
119	0x3c480f4e	0.01221068
120	0xbcdd835d	-0.027040178
121	0xbaf32f60	-0.0018553548
122	0x3d44dae6	0.04806032
123	0x3cebb222	0.028771464
124	0x3be8f05b	0.0071087307
125	0x3ba2c8f3	0.0049678027
126	0x3dace7a6	0.08442621
127	0xbce918d5	-0.028454224
128	0x3d80deb2	0.06292476
129	0x3ca2d88b	0.019878646
130	0x3c180c82	0.009280326
131	0xbce7eda6	-0.028311562
132	0xbc36fff2	-0.011169421
133	0x3d3e1ada	0.046412326
134	0x3ce0bc0c	0.027433418
135	0xbcee98eb	-0.029125651
136	0x3ce3494e	0.027744915
137	0xbdcf114e	-0.101107225
138	0x3cb3ad20	0.021933138
139	0x3e04a8e9	0.12955059
140	0x3ceb4416	0.02871899
141	0x3d875786	0.06608491
142	0x3d530b78	0.05152461
143	0xbd224796	-0.03961905
144	0xbc18882a	-0.009309808
145	0x3c1ccbfe	0.00957012
146	0xbd2dce6b	-0.042433184
147	0xbd10801e	-0.035278432
148	0xbd98a8cb	-0.0745407
149	0x3a049698	0.00050578406
150	0x3c70b76c	0.014692169
151	0x3c34fe9c	0.011047032
152	0xbc7d8021	-0.015472443
153	0x3d5e5e8c	0.054289386
154	0xbc24ea5c	-0.010065641
155	0xbcc1ea81	-0.02367139
156	0x3c859616	0.016306918
157	0xbd631cc9	-0.055447374
158	0xbd6fa4d3	-0.058506798
159	0x3c4e7839	0.0126019055
160	0xbd7e64a0	-0.062107682
161	0xbcda6323	-0.0266586
162	0xbe026952	-0.12735489
163	0xbc5f9777	-0.013646952
164	0xbdffd6e0	-0.12492156
165	0x3b172a00	0.0023065805
166	0x3db8e78e	0.090285406
167	0x3db37e0a	0.087642744
168	0xbaf807d8	-0.0018923236
169	0x3c9ff79d	0.01952725
170	0x3ac1f1d3	0.0014796801
171	0xbdd49470	-0.10379875
172	0xbd13539a	-0.0359684
173	0x3c7eed25	0.015559469
174	0xbcf6b5f4	-0.030116059
175	0xbe0e180f	-0.13876365
176	0xbbdabad8	-0.0066751055
177	0x3d960e9a	0.07327004
178	0x3da1d6d0	0.079023
179	0xbc776786	-0.0151003655
180	0x3dc98120	0.09839082
181	0x3e0272f7	0.12739168
182	0x3ceff669	0.029292302
183	0xbd6dd092	-0.058060236
184	0xbd0a2dc6	-0.03373506
185	0x3c91e46c	0.017809115
186	0xbd8bbf43	-0.0682359
187	0xbc95f70d	-0.01830628
188	0xbcb038fd	-0.02151155
189	0xbd3374ea	-0.04381267
190	0xbd788de9	-0.06068221
191	0xbdd614fa	-0.1045322
192	0xbc0f6633	-0.008752394
193	0x3c1d7d84	0.009612445
194	0xbd3092cd	-0.04310875
195	0x3c89858b	0.016787311
196	0xbc5f2a30	-0.013620898
197	0x3ce09bc2	0.027418021
198	0x3cb24711	0.021762403
199	0xbde4cc8f	-0.11171829
200	0x3cb5d641	0.02219689
201	0x3ca9466a	0.020663459
202	0xbd6e96b4	-0.05824919
203	0xbcce49ca	-0.02518167
204	0x3daf812a	0.08569558
205	0x3d99fce6	0.0751894
206	0xbd19d38d	-0.037555266
207	0x3d4995c6	0.0492151
208	0x3b8d38db	0.004309756
209	0xbda699ef	-0.08134829
210	0x3b194845	0.0023389023
211	0xbda9b6c4	-0.08286813
212	0xbde220e2	-0.11041428
213	0x3c2eda02	0.010672094
214	0xbc2f874a	-0.010713408
215	0x3ce4ece2	0.027944986
216	0xbc62cdd9	-0.013843023
217	0x3da81e48	0.08208901
218	0x3d64d7de	0.05586993
219	0x3cd95fff	0.026535032
220	0x3dfabc06	0.12242894
221	0x3d48d6ba	0.049032904
222	0xbd37a276	-0.04483267
223	0x3cc82e1a	0.024436045
224	0x3d641dd5	0.055692513
225	0x3d44263e	0.047888033
226	0x3d5deb2b	0.05417935
227	0x3c06898a	0.008211503
228	0xbd46b7ed	-0.04851525
229	0x3d18e48d	0.037327338
230	0x3d61f39d	0.05516397
231	0x3a1af134	0.0005910576
232	0x3c2cb1f4	0.010540474
233	0x3d0ca4f9	0.034337018
234	0x3c075cef	0.008261903
235	0xbd9455c3	-0.0724292
236	0xbd42d3bb	-0.047565203
237	0x3d478590	0.04871136
238	0xbde4c07d	-0.11169527
239	0xbdf499c3	-0.1194339
240	0x3d786e00	0.06065178
241	0x3c6de740	0.014520466
242	0xbd707d20	-0.05871308
243	0xbd2d281a	-0.042274572
244	0x3da8b694	0.08237949
245	0x3dac52ad	0.08414207
246	0xbd9d7be7	-0.07689648
247	0x3df57090	0.1198436
248	0x3dcab0b0	0.09896982
249	0xbae529ab	-0.0017483731
250	0xbddb2bce	-0.107017145
251	0xbd403d18	-0.046933264
252	0xbb3eeb59	-0.0029131977
253	0x3d181643	0.037130605
254	0x3c4b3c1d	0.012404469
255	0xbc62908f	-0.013828411
