DeepWonder3D_pytorch/pth/SEG_pth/Unet4_no_end_UNet3DFFD_20240401-1432_2um/seg_1.pth (torch, 138281 bytes, 19 tensors)

Generator.conv1.conv1.0.weight f4 [8, 1, 3, 3, 3]
000000 64 30 f7 3d 79 3f f5 3d 52 45 c7 bc b1 a2 26 3e
       0.12069777 0.11974997 -0.024325047 0.16273
000010 34 77 c1 bd 7a 2a b0 bd 47 55 40 3d bd 34 35 3d
       -0.09446564 -0.08601852 0.046956327 0.04423975
000020 38 5d 16 3e 85 74 03 3d 9c 83 17 be c7 20 eb 3d
       0.14683998 0.032093544 -0.14796299 0.11480861
000030 1a 9f 0d 3e fc 64 01 3e b6 5b 8c 3d 79 23 1c be
       0.13830224 0.12636179 0.0685343 -0.15247907
000040 bf e6 00 3e 0d ed 22 be e1 9b 26 be 97 2e 1b be
       0.12588023 -0.1591074 -0.162704 -0.15154491
000050 cb 9f bd bd 83 25 ba 3c a5 dc 98 bd 68 24 34 3d
       -0.09258994 0.022722965 -0.074639596 0.043980032
000060 35 3f 59 be c3 53 90 bd 73 68 6f 3d 78 e8 15 3e
       -0.21215518 -0.07047226 0.05844922 0.14639461
000070 80 9c 0a 3e f6 92 9f bb 2c 17 cf 3d fb 10 08 be
       0.13536263 -0.004869814 0.101118416 -0.13287728
000080 5d 9a 3f be 79 ac 34 3e 0b 0b 3a 3d e7 34 86 bd
       -0.18711229 0.17643918 0.045420688 -0.06553059
000090 96 13 ff bd b4 d9 0b 3e 85 7b 8a bd 67 e9 f0 bd
       -0.124549076 0.13657266 -0.06761841 -0.11763268
0000a0 ee 31 a8 bd 56 24 b9 bb d2 f3 28 be 4e 87 4d be
       -0.08212648 -0.0056500835 -0.1649926 -0.20071146
0000b0 cd 80 93 bc c9 a1 c5 3d d8 10 5e ba b9 c2 2a 3e
       -0.018005753 0.09649999 -0.0008471138 0.16675843
0000c0 61 92 35 3e 17 66 ca bd f5 7c 0d 3e 53 e6 f4 3d
       0.1773162 -0.09882753 0.13817199 0.11957993
0000d0 f4 01 f2 bd 84 01 a8 bd f8 3e b9 3d 8a ed 74 bc
       -0.11816779 -0.08203414 0.090452135 -0.014949212
0000e0 af 70 bf bd be 06 32 3d 27 c3 eb 3d dd 8d 15 3c
       -0.093476646 0.04346346 0.11511832 0.009128061
0000f0 fc d2 14 be 02 ba c5 bd 11 8f 41 bd b6 71 70 3d
       -0.14533609 -0.09654619 -0.04725558 0.058702193
000100 f9 da f2 3d 23 84 25 3d f4 fe ec bc 9d cf 59 3d
       0.11858172 0.04040922 -0.028930165 0.05317651
000110 1a 98 b1 3d 29 50 4f 3d ca 6a 1f 3b 95 75 d5 3b
       0.08671589 0.050613556 0.0024325126 0.006514261
000120 5b b8 30 be 16 95 dc 3c a0 27 da 3c 44 1c a9 bc
       -0.17257826 0.026926558 0.026630223 -0.02064336
000130 1f b7 b6 bd e5 26 8c 3d 86 01 91 bd cb e0 6a 3d
       -0.08921646 0.06843356 -0.07080369 0.057343286
000140 1a 72 4d be ec bf 9d bd 5a 5d 06 be 11 34 35 3e
       -0.20063058 -0.07702622 -0.13121548 0.17695643
000150 8b 25 3e be 56 43 6c bd f8 57 8f bb 4d a4 b3 3d
       -0.18569009 -0.057681404 -0.0043745004 0.08771572
000160 4a e0 e2 bd 9e 98 7a 3d de e4 35 be 21 95 74 bc
       -0.11077936 0.061180703 -0.17763087 -0.014928133
000170 d0 28 97 3d 83 cd 04 3e 7d da 20 be 62 ec f5 bd
       0.07380831 0.12969021 -0.15708347 -0.12007977
000180 74 9e bb bc c8 62 21 3e 7b 8e f7 3d 4a 01 ce bc
       -0.022902705 0.15760338 0.12087723 -0.025147099
000190 a8 04 de 3d d2 88 0e 3e 58 c2 15 bd ed 73 cd 3d
       0.10840732 0.1391938 -0.036562294 0.10031877
0001a0 31 af fb 3d 4b 5e ee 3c 72 c9 03 be 61 03 3f be
       0.122892745 0.029097697 -0.12869814 -0.18653633
0001b0 38 68 f2 3c 04 f6 28 be 37 c5 88 bd e0 62 53 be
       0.029590711 -0.16500098 -0.06678241 -0.20643187
0001c0 8f 94 07 bc ca e1 9b 3c 0a 77 f0 bd 48 28 ad 3d
       -0.008275165 0.019028563 -0.11741455 0.08454949
0001d0 68 de 49 3d 75 24 ae bc e9 f6 0e 3e ad 8b 23 be
       0.04928437 -0.021257618 0.13961376 -0.15971251
0001e0 e9 25 81 bd ef 5c 04 3b ac b9 66 3c ab 60 bd 3d
       -0.06306059 0.0020196994 0.014082354 0.092469536
0001f0 a0 46 66 3d 93 e1 0d 3e c3 73 4a be 09 ba 02 3e
       0.056219697 0.13855581 -0.19770722 0.1276628
000200 89 1b 1b 3e 20 b7 cc 3d 21 06 b7 3d 4a 05 94 bd
       0.15147223 0.09995866 0.08936716 -0.07227571
000210 26 ba 20 be 1d eb e8 bc 3d dd 0e 3e 01 81 fc 3c
       -0.1569601 -0.028432423 0.13951583 0.030823233
000220 11 9c a8 bd 98 17 0f 3e 8c eb 04 3e e5 52 31 bd
       -0.08232892 0.13973844 0.12980479 -0.043291945
000230 c4 f3 d0 bd df 74 3a be 1d b4 34 3e 60 43 46 3c
       -0.102027446 -0.18208645 0.17646833 0.012101024
000240 73 12 bb bd 37 5c 2d be 70 5d 95 3d aa 59 e3 3d
       -0.09134378 -0.16929708 0.072932124 0.111010864
000250 37 05 1e be 0a 5b 49 be 4c 32 a0 bd 60 ff 6f 3d
       -0.15431677 -0.19663635 -0.07822093 0.058593154
000260 c2 c7 04 3e 55 a8 33 bd aa 46 04 bd d3 57 f4 3d
       0.12966827 -0.043861706 -0.032293953 0.11930814
000270 9a 59 e4 3c 50 2f 29 3e 09 89 af bd f2 2e 6f bc
       0.027874757 0.16521955 -0.08571059 -0.014598595
000280 d9 90 9d bd 8c ea 23 3e aa d9 3e be 4d 69 2c 3e
       -0.07693643 0.16007441 -0.1863772 0.16837044
000290 9a 3a da bd 15 f5 f3 3d e8 7b 02 3c 24 43 aa bd
       -0.106557086 0.1191198 0.007964112 -0.08313587
0002a0 b3 97 ae 3d 80 20 4a ba 38 5f 06 3d 37 fc 8a 3d
       0.08525028 -0.00077105314 0.03280565 0.067863874
0002b0 5a ab ac bd 82 bf 35 3e 14 a9 3c be 6a 0a bc bd
       -0.0843112 0.17748836 -0.18423873 -0.09181674
0002c0 5d 2d b7 bc 80 de ce bb 73 35 09 3e 8e db 70 3c
       -0.022360498 -0.006313145 0.13399296 0.014700783
0002d0 56 e9 9f bd b6 58 a3 bd 0f ea 47 3d 56 45 05 be
       -0.07808177 -0.07975905 0.0488072 -0.13014731
0002e0 6e d7 26 3d 17 5f 70 3d 1d cd 9b bd a6 16 88 3c
       0.040732794 0.058684435 -0.07607482 0.016612362
0002f0 36 60 0f 3e c4 32 e6 bc 7e ef 23 3e 57 9d 73 3d
       0.14001545 -0.028100379 0.16009328 0.059476223
000300 7c c4 77 3d 2e 87 02 3e 1d 2b 31 be 04 a0 60 bd
       0.060490116 0.1274688 -0.17301603 -0.054840103
000310 72 97 63 3c 86 a5 1c 3e f5 b7 52 bc 9c 8e 62 bd
       0.013891088 0.15297517 -0.012861242 -0.055311784
000320 c4 af 88 bc 08 c7 3d be 60 4d 19 3e 2d 61 87 bd
       -0.016685374 -0.18532956 0.14970922 -0.06610332
000330 90 73 95 bd 52 24 2f 3e 58 c7 39 3d d5 bb 50 bd
       -0.072974324 0.17103699 0.045356125 -0.05096038
000340 ce 82 a6 bb 8d 70 9a 3c 09 42 4c be 81 4c ea 3d
       -0.005081511 0.018852497 -0.19947065 0.11440373
000350 91 e2 a3 bd 94 0e 2c be 98 1c 97 bd 59 ae fc 3d
       -0.080021985 -0.16802436 -0.07378501 0.12337942

Generator.conv1.conv2.0.weight f4 [8, 8, 3, 3, 3]
000000 7a 7b 47 3d 15 11 e4 bc 52 3a 39 3c 1e 56 82 bd
       0.04870174 -0.027840177 0.011305409 -0.06364082
000010 26 74 88 bd 39 27 6c bd 1a 82 a8 bb 28 1e 69 bd
       -0.066627786 -0.057654593 -0.0051424624 -0.056913525
000020 32 ea 9e 3d 0f 25 ea ba e2 35 18 3c 82 b8 8d 3a
       0.07759513 -0.0017863828 0.00929019 0.0010812434
000030 3c bf f8 bb a4 d8 69 3d ae 59 5d bd 72 a0 b2 3c
       -0.0075911563 0.05709137 -0.054040603 0.021805022
000040 d1 fd 81 bd 69 05 5e 3d 0e 39 63 bd 38 5a 5c 3b
       -0.0634724 0.05420438 -0.055474333 0.003362311
000050 27 a0 46 bb 1d f1 63 3c 9f 73 5e 3c 53 25 ea bc
       -0.003030786 0.013912466 0.013577371 -0.02858225
000060 61 50 3a 3d 73 f3 76 3c 7c 5b cf 3c 23 c2 5b bc
       0.04548681 0.015072691 0.025312178 -0.013412985
000070 15 59 89 bd 39 d2 bd bc e4 ea 3b 3c 2f 08 a5 bd
       -0.06706444 -0.023171531 0.0114695765 -0.080582015
000080 c7 84 e2 bc dc 2f ea bb f1 84 73 39 f6 e2 a0 bd
       -0.027651204 -0.0071468186 0.0002322381 -0.07855789
000090 af 15 da bc a0 aa 37 3d 3c 4b 62 3c 51 85 ec 3b
       -0.026621668 0.044840455 0.013811883 0.007218041
0000a0 3a f8 1d bb 8b ee 8b bd ab 65 9b 3c a2 bb 74 bc
       -0.0024104253 -0.06832608 0.018969378 -0.014937313
0000b0 5e bf d0 3c 3b 1d 33 3d 75 91 87 3d eb 1c 87 bd
       0.025481876 0.04372905 0.066195406 -0.065973125
0000c0 c1 70 9e bc 38 5e ee 3c 03 9e 69 bd 6a be 24 bd
       -0.019340875 0.029097661 -0.057035457 -0.040220656
0000d0 27 6a 0a bd 10 d6 aa 3c db 51 73 bc 18 b0 b4 3c
       -0.03379264 0.020854026 -0.014851059 0.022056624
0000e0 1d bf ef 3c 67 5d 23 3d df c3 8c 3c 8d 55 8d 3c
       0.029265935 0.039883997 0.017183242 0.017252708
0000f0 9a 0e 24 bd 14 fb 3d bd ff 0a 7c bd ed 2b 71 bb
       -0.040052988 -0.046382025 -0.061533924 -0.0036799863
000100 0f a4 b7 3c 99 d6 fd bc 5e cf d8 bc 5f 5c 0d 3d
       0.022417096 -0.030986117 -0.026466068 0.03451192
000110 85 72 bf 3c 23 7a 22 3c 50 c8 37 bd 48 99 d5 bc
       0.023370037 0.009916815 -0.044868767 -0.026074067
000120 4e dd 1d bd 99 1c 30 bd 24 5c 4e 3d 58 70 27 bd
       -0.03854113 -0.042996023 0.05038084 -0.040878624
000130 31 68 13 3d cd 11 3b bd d2 40 61 3d 5c f3 81 3d
       0.035988037 -0.045671273 0.054993458 0.06345245
000140 1b 4f fe 3c a0 19 aa bc 71 d2 7c 3d 24 38 29 3d
       0.03104358 -0.020764172 0.06172413 0.041313305
000150 56 a0 ca 3c 7c 22 0f 3b 96 a4 d3 bb 7c 2b d1 bc
       0.024734657 0.0021840623 -0.006458829 -0.02553343
000160 9d e3 22 bd fb 5a 0f 3c 5b a7 b0 3c 2f 66 91 3c
       -0.03976785 0.008749719 0.021564176 0.01774892
000170 6d 6a 2e 3d 66 e6 1c bd 6d 93 71 3c 31 f3 6a 3d
       0.042581964 -0.038305663 0.014744622 0.05736083
000180 64 a2 30 bd 6e cb e1 3b bb 93 e3 3c c7 d5 8a 3d
       -0.043123618 0.006890706 0.027780404 0.06779056
000190 42 80 3d bd 2e 2c 47 bd 53 21 b1 39 a5 65 1c 3d
       -0.046264894 -0.048626117 0.000337849 0.038182873
0001a0 71 41 55 3d 05 78 b5 3c 89 0e ff 3c d3 f6 9c 3c
       0.052064363 0.022151956 0.03113486 0.019160664
0001b0 81 01 05 bc 60 a2 e0 bc 33 54 2e bd e2 1e 79 bd
       -0.008118034 -0.027421176 -0.042560767 -0.060820468
0001c0 e8 02 89 bd 9e 2c 52 bc ad 00 32 ba 80 ae 95 bd
       -0.066900074 -0.01282802 -0.0006790262 -0.07308674
0001d0 eb 97 93 3c 61 8b 53 bd 74 aa 41 bd 19 e5 76 3d
       0.018016776 -0.051646594 -0.047281697 0.06027708
0001e0 da c6 c3 3b 43 92 70 bd b7 85 65 3c 93 5f 51 bd
       0.0059746327 -0.058733236 0.014008931 -0.051116537
0001f0 4f 3f 90 3c 76 ee 24 3d ea 80 d1 bc 8f 6e 24 3d
       0.017608313 0.040266477 -0.025574166 0.0401445
000200 e3 b0 ba 3c f3 34 5d 3c 84 e4 dd 3c f5 f5 3f bd
       0.022789424 0.013501394 0.027086504 -0.046865422
000210 b6 9c 2e bd a5 2a 4a 3d 3b 16 d0 bc 68 e9 60 3d
       -0.04262992 0.049357075 -0.025401225 0.054910094
000220 51 7b 05 3d fb 57 ce b9 0f 5b 14 bc 0d 05 e0 3c
       0.032588307 -0.00039356932 -0.009054913 0.027346158
000230 77 71 77 3d cc 96 cd bb b0 b2 c7 bc 04 31 8a 3d
       0.060410943 -0.00627408 -0.024377197 0.0674763
000240 b0 eb 88 bd cc 63 ea 3c 72 19 d2 3c 46 0a 59 bd
       -0.06685579 0.02861204 0.025646899 -0.052988313
000250 75 98 35 bd 6a 87 a3 bc 76 55 80 3c 7e b6 b6 3c
       -0.044334847 -0.019962031 0.015665751 0.022303816
000260 b6 02 73 bd ab 8d 3a 3d 66 08 63 3d 49 b9 0e 3d
       -0.059328757 0.04554526 0.05542793 0.03484467
000270 58 ad 6d 3a 5e eb 80 3d aa 5f 2c 3d 3d bb 29 3c
       0.0009066663 0.06294893 0.04208342 0.0103595825
000280 c8 f4 e6 bc b8 74 30 3d 4e d7 21 3c 86 35 23 3d
       -0.028192893 0.04308006 0.009877993 0.039845966
000290 e9 78 6a bd 20 55 6a 3a b3 df 91 3a a6 36 18 bd
       -0.057244215 0.0008939076 0.001112929 -0.03716149
0002a0 be 3a c8 3d 0c 10 42 bc 39 d9 23 3d 6b f1 a1 bc
       0.09776829 -0.011844646 0.04000208 -0.019768437
0002b0 57 1f b9 bd 81 33 f8 3b f0 00 db bc d8 42 43 bc
       -0.09039181 0.007574499 -0.026733845 -0.011917792
0002c0 20 1d b8 bd 2d 22 a4 bd 09 1f 53 bd 5f 10 f1 3b
       -0.0898993 -0.08014331 -0.05154327 0.007356688
0002d0 12 d9 ea bc 9e cf 95 bd 33 c4 3f 3c 5e 2a 05 bd
       -0.02866796 -0.073149905 0.011704492 -0.032511108
0002e0 06 8f 86 3c 61 08 18 bd e1 71 a6 bd 24 33 9d bd
       0.01642562 -0.037117366 -0.081271894 -0.0767577
0002f0 45 90 6b bd c2 9d 80 3b 8c bc 8d bd a3 3a e8 3b
       -0.057510633 0.003925056 -0.06920728 0.007087068
000300 76 6e 4a 3d de ac b4 3c 5a e5 44 3d eb 97 95 3c
       0.04942175 0.022055086 0.04807029 0.018260917
000310 0f 65 84 bd 5b 85 76 3c 48 29 0f bb 1b 75 6b bd
       -0.06464588 0.015046443 -0.0021844674 -0.057484727
000320 5b 19 61 bd db 2b da bb 84 64 52 bc 13 b1 87 3c
       -0.05495582 -0.00665806 -0.012841348 0.016563928
000330 ba 5d 46 3d 25 6c a3 bd 15 39 cc bc 83 06 54 3c
       0.04842923 -0.07979611 -0.024929563 0.012941006
000340 6e b0 06 3d c9 92 7d bd e4 47 2c bd 4a dc 11 3d
       0.0328831 -0.061907563 -0.042060748 0.035610475
000350 8d db 1a bd aa f8 89 bd c1 e1 2f bb b5 25 0e bc
       -0.037807036 -0.06736882 -0.002683744 -0.008675982
000360 9d 29 c0 3c 1b 44 14 bd c3 67 84 3d c6 f1 74 bc
       0.023457343 -0.036197763 0.064651035 -0.014950221
000370 ea c4 dd bb f1 f9 4b 3d 17 18 55 3d b8 91 f1 3c
       -0.0067678588 0.04979891 0.052024927 0.02948843
000380 c5 9f 8e bc 99 c0 a1 3c 2e 1b 5c bc fb 93 20 3d
       -0.017410168 0.019745158 -0.0134342145 0.039203625
000390 65 a1 02 bd f1 af 11 3d bf 8f 7b bd 75 02 4b bc
       -0.0318922 0.03556818 -0.061416384 -0.0123907225
0003a0 eb 1d 44 bd a0 56 37 bd 3a d0 0a bb 98 72 c2 3c
       -0.047880094 -0.044760346 -0.0021181242 0.023736283
0003b0 23 f7 ff bc ff f7 ea 3c ae 3c 5f 3c 28 e6 c7 3c
       -0.031245774 0.028682707 0.013625307 0.02440174
0003c0 1c 9f 1c 3c 0d 00 54 bd 9c 4a 76 3d 35 7f 32 bd
       0.009559419 -0.05175786 0.060129747 -0.043578345
0003d0 48 a0 f8 bb d7 f5 8f 3b 65 0e 6b 3b b0 64 c5 bc
       -0.0075874664 0.00439332 0.0035866734 -0.024095863
0003e0 63 0f 97 3d 42 c8 a8 3d 74 ed 85 3d 88 31 6d 3d
       0.07375982 0.08241321 0.06539431 0.057908565
0003f0 ca 36 35 3d 77 d0 0c bd 2e 30 13 bc 84 31 89 3d
       0.044241704 -0.034378495 -0.008983655 0.066988975

Generator.conv2.conv1.0.weight f4 [8, 8, 3, 3, 3]
000000 ef cb 3a bd a6 db 89 bd 5f cd 85 3d 83 c1 d8 3c
       -0.045604642 -0.06731348 0.06533312 0.026459461
000010 a6 d8 b0 3b d5 30 7c bd 77 79 7b bd ec e1 7a bc
       0.0053969203 -0.061570007 -0.061395135 -0.015312653
000020 5d 6d c5 3c f2 9b 50 bd db e1 67 3b b3 01 07 3d
       0.0241 -0.05092997 0.0035382423 0.032960605
000030 5e b0 67 bd 86 04 36 3d ed ab 06 3d 90 45 89 3b
       -0.05656468 0.044437908 0.032878805 0.0041892007
000040 d3 cb 61 bd 3d 61 82 3d cf 84 0a 3d 23 76 5a bd
       -0.055126023 0.06366203 0.033818062 -0.05333532
000050 81 57 da bc fd 16 c3 3c 5e 26 3f bd b2 ed b9 3b
       -0.026653053 0.023814673 -0.04666745 0.0056740874
000060 fb 36 77 3d 10 2b 0f bd 2e d3 2b 3c e3 1e 41 3d
       0.060355168 -0.034953177 0.010487361 0.047148596
000070 f9 60 5c bc a0 e7 ba bb 5f 75 30 bd 22 ef ea 3b
       -0.013450854 -0.0057038814 -0.043080684 0.00716962
000080 02 18 28 bb 01 71 4c bd 12 a6 45 3d 6b 1e 11 3b
       -0.0025649075 -0.049912456 0.04825408 0.0022143375
000090 d4 a6 40 bd 05 0a 19 bd de f0 fc 3c 79 6b 79 bd
       -0.0470341 -0.03736307 0.030876573 -0.06089351
0000a0 4e 84 2f bc 99 7c ca bc 2a 58 6e 3d d8 7c 79 bb
       -0.010712696 -0.024717616 0.05818955 -0.0038068797
0000b0 f7 b8 13 bc fb 39 12 3d 9d 5d 1d 3d 04 e0 78 bd
       -0.009016267 0.035699826 0.038419355 -0.060760513
0000c0 b1 7a 2c 3d d4 a9 d5 3c e4 0a 20 bd bb e2 f3 39
       0.042109195 0.026081957 -0.039072886 0.000465175
0000d0 85 48 06 bd f2 8a 75 bd f8 5e 0a bd 8b 96 a8 3c
       -0.032784004 -0.05994696 -0.033781976 0.020579597
0000e0 c8 5b 8a bd c8 84 74 bc 53 29 83 bd f1 93 07 bc
       -0.06755787 -0.014924236 -0.06404366 -0.008275018
0000f0 f1 56 68 3d 6a fb 3c bc c5 73 20 3d ec 14 69 bd
       0.05672354 -0.011534551 0.039172906 -0.05690472
000100 12 20 0e 3d b5 ae 35 bd b4 49 a5 ba ab ec 98 bc
       0.034698553 -0.044356067 -0.0012610466 -0.01866754
000110 8a cc a9 bc d1 db 71 bd 3d 5f f6 3b b4 97 d2 3c
       -0.020727415 -0.059047524 0.0075186775 0.025707103
000120 1a 79 62 bd c0 e4 8c bc 54 3c 2c bd 1e df 82 bd
       -0.055291273 -0.01719892 -0.04204972 -0.063902125
000130 73 a4 f4 3c ab 7a 9d bc 38 dd 8c bc 5d 48 5e bd
       0.029863572 -0.019223532 -0.01719533 -0.05426823
000140 77 89 6e 3c e5 42 bd 3c e3 e7 fe 3b a6 dd 7f 3d
       0.014559141 0.023103187 0.007779108 0.06246724
000150 cc 92 03 bd e5 00 d4 bc d8 1d f5 bb 98 0b ec 3b
       -0.03212242 -0.025879333 -0.0074803643 0.0072035305
000160 28 ed 15 bd 40 22 85 3d e1 fc 96 3b 7b 84 b3 bc
       -0.036603123 0.06500673 0.0046077822 -0.021913758
000170 21 35 1c 3d 14 8f 16 3d 89 25 d6 bb a2 5c 93 3c
       0.038136605 0.036757544 -0.0065352363 0.017988507
000180 7e 47 e0 3c ec 25 28 bd 97 9a 13 3d 67 da 29 bd
       0.02737784 -0.04105179 0.0360361 -0.04146805
000190 cd a6 42 3d e6 67 19 bd 42 b2 7f bd f8 15 3d bd
       0.047522355 -0.0374526 -0.06242586 -0.04616353
0001a0 3e 2d 28 3d 99 35 04 3d 86 27 02 bd 63 25 7e 3c
       0.04105877 0.032277677 -0.031775974 0.015511843
0001b0 f7 9d 7c 3d d5 30 76 3d 7b 8f 32 bd fd e9 15 bc
       0.061674085 0.060105164 -0.043593865 -0.009150025
0001c0 97 0b 60 bd b8 04 9f bc 8d 3f 8b bc fc 1c 4b bc
       -0.054698553 -0.01941143 -0.016998077 -0.012397047
0001d0 a1 04 d0 bb a4 b6 a3 bc 39 f4 a3 3a 2e c5 08 3d
       -0.006348208 -0.01998455 0.0012508697 0.03339117
0001e0 af 1f a5 3c 1f 70 66 3d 9e 42 1f 3d f7 5c 5c 3d
       0.02015671 0.05625927 0.03888189 0.053799596
0001f0 34 bb 0e bd cc 34 72 3d 86 fa 14 bd 2c 48 15 3d
       -0.0348465 0.059132382 -0.03637173 0.03644578
000200 be 7a 8b 3d 8b ae f3 bc 39 66 89 3d 22 9d 89 3d
       0.068105206 -0.029746315 0.067089505 0.06719424
000210 7e 0e 62 3d a8 a9 27 3c 4f de 4c bd c2 53 34 bd
       0.055189602 0.01023332 -0.050016697 -0.04402519
000220 d4 85 3d bc 24 a3 81 bd 81 da 9e bb 7e c9 08 3d
       -0.011567552 -0.06329945 -0.004847825 0.033395283
000230 fe 83 86 3c 19 1e 1b 3d e4 1a 12 bd 13 90 8a bd
       0.01642036 0.0378705 -0.035670176 -0.06765761
000240 11 90 80 bc 79 1b 7c bd 27 4c 6c bd 2c cd 4b bc
       -0.015693696 -0.061549637 -0.057689812 -0.0124390535
000250 02 ef 4a bd e2 38 43 bd 2c bd 6f 3d 2e 81 b0 3c
       -0.04954434 -0.04766167 0.058530018 0.021545973
000260 43 9f dc 3b 2b d7 64 3b 2a ed 39 bd 04 4c ed 3b
       0.0067328527 0.003491829 -0.045392193 0.007241728
000270 f9 3e 4f bc 81 88 1e 3d 63 04 f3 39 77 06 29 bb
       -0.012649291 0.0387044 0.0004635184 -0.0025791207
000280 aa f2 26 bd da f4 70 3c 04 9f 30 3d fc 8b 99 3d
       -0.040758766 0.014706815 0.0431204 0.07497403
000290 f7 68 a0 3d 64 63 52 3c 67 6e 89 bc 13 3d f8 bb
       0.078325205 0.012841079 -0.016776277 -0.00757564
0002a0 36 5b 56 bd ea f4 64 3d 95 84 0c bd be b8 0d bd
       -0.05233308 0.05589763 -0.034306128 -0.034600012
0002b0 d1 7e c6 bb 8f fe 9e bc df 2b 49 3a 71 b3 80 3d
       -0.006057598 -0.019408492 0.0007674079 0.06284226
0002c0 39 4a 9c 3d fe 6c 45 3d 10 46 08 3d 71 2e 30 3d
       0.07631344 0.048199646 0.03326994 0.04301304
0002d0 08 1f 87 3d 04 87 ac 3c 21 55 84 bb 50 dc 3f bd
       0.065977156 0.021060474 -0.0040384685 -0.046840966
0002e0 db 34 90 3d 22 7a 67 3b 0a 7f 8b 3d 62 61 dd bc
       0.070413314 0.00353206 0.0681134 -0.027023975
0002f0 ab c8 56 3d fa dd 61 3d d4 e7 2e 3d 45 1b 6c 3d
       0.052437466 0.055143334 0.042701557 0.057643194
000300 7c df 02 bd 3e 1f 3e bb 70 30 65 3d b6 e4 12 bd
       -0.031951413 -0.002901032 0.055954397 -0.035862647
000310 37 2f 0c 3d 96 f6 e9 b8 6b dc 82 3c e8 f5 10 bd
       0.034224715 -0.00011156236 0.015974244 -0.035390764
000320 d0 42 81 3d db 53 29 bd f5 b3 fe 3c 0f 53 19 3d
       0.063115716 -0.041339736 0.03109167 0.037432726
000330 be 32 37 3c 2d c6 6f bd 58 91 44 3d e8 3e 03 bd
       0.0111815315 -0.058538605 0.047990173 -0.032042414
000340 11 d2 4a bd d1 c8 e1 3c 73 42 25 3d 11 8e 21 3d
       -0.04951674 0.027561577 0.040346574 0.039442126
000350 4e 7c a4 3c 00 ce 58 bd 65 c0 24 bd 18 00 82 bd
       0.020078804 -0.052930832 -0.040222544 -0.06347674
000360 e2 7a c1 3b f0 a6 40 bd f0 a2 1c bd 9a 3b 5f bd
       0.0059045414 -0.047034204 -0.038241327 -0.0545002
000370 69 1a 2c 3d 61 6d 64 3d 94 3e 1b bd 68 bc 72 bd
       0.042017374 0.055768374 -0.037901476 -0.05926171
000380 74 ae 4b 3d 5f a9 7b bd c6 ca dc bc 36 09 4b 3d
       0.04972692 -0.06144082 -0.026952159 0.04956933
000390 ef c0 5d bd 45 78 6d 3c 94 54 1e 3d 65 e3 1b b9
       -0.054139074 0.0144940065 0.03865488 -0.00014866663
0003a0 f3 ff 68 3d 45 f3 5a bc 56 00 fe 3c bd f2 92 bd
       0.056884717 -0.013363664 0.03100602 -0.07175205
0003b0 ae 12 ce 39 78 13 5c 3d 9e d5 d1 3b 42 07 57 bc
       0.000393053 0.053729504 0.006403639 -0.013124289
0003c0 c6 bd f2 3c ff 4b 7e 3d 36 d2 a0 bc 52 c0 be 3a
       0.029631507 0.062084194 -0.019631486 0.0014553166
0003d0 2d 3c c4 3b 47 cd 84 bd ee 3e 94 bc cf bb 2a 3d
       0.005988619 -0.06484466 -0.018096413 0.041683014
0003e0 55 2d e6 bb 0b 80 74 3d 8f 65 40 3d 65 d6 49 bd
       -0.007024447 0.059692424 0.046971854 -0.04927673
0003f0 f3 b4 b5 bd 22 5f a7 bd 23 36 d2 bd 92 7f d8 bc
       -0.08872404 -0.08172442 -0.10264232 -0.026428018

Generator.conv2.conv2.0.weight f4 [8, 8, 3, 3, 3]
000000 d2 c0 72 bc 04 e6 86 bd 61 55 d1 39 2d 11 4a 3c
       -0.01481648 -0.06586841 0.000399272 0.012333197
000010 0e 0e 89 3d e5 f2 b5 3c 65 3e b7 bb 8f 0c de 3b
       0.06692134 0.022210548 -0.005592155 0.0067763994
000020 ed 3d 3e 3d a6 23 c0 3c 67 d5 e1 ba b4 0d 84 3d
       0.046445776 0.023454498 -0.0017229737 0.06447926
000030 39 58 9f bb 3e 54 23 3d f0 fb 32 bd 8e 25 85 3d
       -0.004862812 0.03987526 -0.043697298 0.065013036
000040 0b 83 13 bd ae 54 dc 3b 88 ac 2b bd 3c 2a 0c bd
       -0.036013644 0.006723962 -0.041912585 -0.034219965
000050 ef af 64 3c 1c 01 80 3d b9 75 4d bd e0 51 3f bd
       0.013957961 0.062502116 -0.050161097 -0.04670894
000060 b1 93 1e bd 0d 6f 67 3c 3f 45 e0 bb 51 16 70 39
       -0.03871507 0.014125598 -0.0068441923 0.00022896497
000070 a6 9b c3 3a a1 c8 5e bd 07 6c 06 bd e5 8b 20 bb
       0.0014923706 -0.054390553 -0.032817867 -0.0024497446
000080 72 53 9b 3d 05 a0 0a ba 54 46 18 bd 39 6c 52 bd
       0.07584275 -0.0005288127 -0.037176445 -0.05137274
000090 12 06 ec bc 96 c8 54 bd 14 0b 83 bd ee ce 22 bd
       -0.028811488 -0.051949106 -0.06398597 -0.039748125
0000a0 ea 56 4f 3d 13 a9 9f 3b 6c e4 50 bd 3b 0e 3f bd
       0.050619997 0.00487245 -0.05099909 -0.04664443
0000b0 c4 f8 e0 3b 34 91 00 bd 0c 98 49 3d 56 d1 31 bc
       0.0068655927 -0.031388476 0.04921727 -0.010853132
0000c0 ba 4c 66 3d bf 1e ae 3c be 55 57 3c 6f 65 5a bd
       0.056225516 0.021254895 0.013143001 -0.05331939
0000d0 c5 f4 04 3d 40 4f 20 bd d4 61 17 3d 34 a1 96 3c
       0.032459993 -0.03913808 0.03695853 0.018387415
0000e0 c4 10 23 bd 31 69 9c bd 1c bd 1f bd 75 2f 38 3d
       -0.03981091 -0.07637251 -0.038998708 0.044967134
0000f0 4d 1a 0a 3c e4 97 15 3d 3c be c3 3c 3c 43 8c bd
       0.008429122 0.036521807 0.023894422 -0.068487614
000100 72 64 21 bd de 93 f6 bc ff 28 58 bd 28 1b 1b 3d
       -0.039402433 -0.030099805 -0.052773472 0.037867695
000110 0b 3e f9 bc ed e1 bb bc 50 ae 27 3d c8 7e 01 bd
       -0.030425092 -0.022934878 0.04093772 -0.03161505
000120 a2 6f bf bc dd e0 c7 ba fc 22 d7 39 ea 12 1d 3d
       -0.02336866 -0.001524951 0.0004103406 0.038348116
000130 e5 35 fd bb bc 22 df 3c 1b 72 b4 bb 9b 11 4a bb
       -0.007727372 0.027238242 -0.0055067665 -0.0030833248
000140 79 f1 a6 bd 02 89 5f bd 18 67 1e 3d 54 4d 0b 3d
       -0.08151526 -0.05457402 0.038672537 0.034009293
000150 ef 28 83 bd b0 73 70 3d bd c5 2a bd 6f e3 cd 3b
       -0.06404292 0.05870408 -0.041692484 0.0062832157
000160 cd a4 88 bc 16 0d 79 bd 54 5c 8b 3c e1 d6 dc 3c
       -0.016680146 -0.060803495 0.017011799 0.026957931
000170 46 8e 14 3c ce 78 88 3a ca 5a 39 3d 64 ad 85 bd
       0.009067124 0.0010411979 0.0452526 -0.06527212
000180 e4 f3 09 3c 17 9a eb bc 38 fa 6b 3d 11 07 29 bd
       0.008419964 -0.02876 0.057611674 -0.041266505
000190 59 e1 d1 bb 59 22 68 3c ac 75 6e bd 39 f1 42 3d
       -0.0064050374 0.014168345 -0.05821769 0.04759333
0001a0 20 88 54 bd 0a 23 97 3c a0 09 08 bd 64 46 d3 bb
       -0.05188763 0.018449325 -0.033212304 -0.0064476
0001b0 d5 e6 9f ba 79 37 93 bd 97 b3 d6 bd 57 62 2f bd
       -0.0012199531 -0.07188315 -0.10483473 -0.042818394
0001c0 78 df c0 bd 2a 63 db bd 94 d4 22 3c ac ea b0 bd
       -0.09417623 -0.107122734 0.009938378 -0.0863851
0001d0 89 2b 8e bd 93 3b 08 3d c2 96 96 bc b9 c8 63 bd
       -0.069418974 0.03325994 -0.018382434 -0.055611346
0001e0 ad 43 a3 bd 95 27 b4 bd e0 06 c5 bd 6c f2 58 3d
       -0.079718925 -0.08796612 -0.09620452 0.052965567
0001f0 27 83 03 bc e2 a9 ca 3c 93 1f 66 bd b0 21 2c bd
       -0.008026875 0.02473921 -0.056182455 -0.042024314
000200 c2 16 ac bc e9 8b f8 3c db ed f1 3c 82 13 80 bd
       -0.021006946 0.030340152 0.029532364 -0.06253721
000210 89 e8 45 3c 15 b9 67 3b 91 20 8e bd 51 10 14 bc
       0.0120793665 0.003535812 -0.06939805 -0.009037093
000220 20 7d 7d bd 38 78 b5 3c fd 6b 3b 3d 56 f8 43 bd
       -0.061886907 0.022152051 0.045757283 -0.047844253
000230 04 c3 7f 3b 3c f8 52 bd 35 b1 fb bc ac 5b 19 bc
       0.003902615 -0.051506266 -0.030724147 -0.009360235
000240 e0 18 4d bc fb 78 75 3d 98 31 6f bc d2 fc 86 3d
       -0.012518138 0.05992983 -0.014599226 0.065911904
000250 c9 54 2d 3d a7 69 59 bc b6 2c 14 3d c4 0f e7 39
       0.042317186 -0.013269818 0.036175452 0.000440715
000260 04 8b 08 bd 11 bf 5d bd f3 03 71 bd 88 fc 83 3d
       -0.0333357 -0.054137293 -0.058841657 0.06444651
000270 ef 04 f0 3c f3 3c 1e 3c ca 55 50 bd b8 b5 67 bc
       0.029299228 0.009658086 -0.050863065 -0.014142446
000280 db 8b fa bc a9 19 84 3d 35 50 07 3d 3a c7 f8 bc
       -0.030584266 0.06450207 0.033035476 -0.030368436
000290 ed 50 86 3d 6c e4 1b b8 7a 0d 98 bb d3 2e 75 3c
       0.06558404 -3.7167614e-05 -0.0046402784 0.014964777
0002a0 55 8f 19 3d d0 02 a9 bc 6a ae d7 bc 66 94 ce bc
       0.037490208 -0.020631224 -0.026328284 -0.025217246
0002b0 d7 40 89 bd ce be da 3c e1 5b 0f 3d 75 dc 6f bc
       -0.0670182 0.02670231 0.034999732 -0.014639963
0002c0 7f 89 6a 3d c8 52 8f bb 46 2b f0 3c 88 77 32 3c
       0.057260033 -0.004373882 0.02931751 0.010892756
0002d0 3b 51 17 bd bb 87 24 3d cc 18 93 3c 0b c8 41 bb
       -0.0369427 0.040168505 0.01795616 -0.0029568698
0002e0 e5 06 45 3d 9e 49 f9 3c c6 ae 12 3d b7 dd 89 3b
       0.04810228 0.030430611 0.03581121 0.0042073387
0002f0 05 57 2b 3c 91 d0 68 3d 0f f0 ab bc 73 05 83 bd
       0.010457759 0.05683953 -0.020988492 -0.06397524
000300 5c d5 2c bd 89 3c f9 bc 03 ce 48 bd 46 50 6f bd
       -0.042195663 -0.030424373 -0.049024593 -0.058426164
000310 7c 86 ea 3b fd 07 0f bd e5 09 da 38 f3 31 00 3d
       0.007157145 -0.034919728 0.00010396893 0.031297635
000320 e5 8c b1 39 c5 69 d2 bc 49 1b 4e bd 5f d2 09 3d
       0.00033865045 -0.0256852 -0.05031899 0.03364789
000330 e3 ec 8f bc 13 eb 31 3d 9e 96 f7 3b 6c 91 64 3d
       -0.017569011 0.043437075 0.0075557968 0.055802748
000340 0b 8a f2 bc 78 fa 02 bd ba 55 46 bd 06 d3 b8 3b
       -0.02960684 -0.031977147 -0.0484216 0.0056403903
000350 a3 b5 7a bd a2 cf 5e 3d 84 f5 af bc ee 1c 32 3c
       -0.06120838 0.054397233 -0.021479376 0.010871155
000360 82 bd 76 bd a6 39 92 bc 16 e1 16 3d 3f bb 72 3c
       -0.060239322 -0.017849755 0.036835752 0.014815151
000370 8f 22 94 3b 05 6c 82 bd 63 24 33 bd 79 e5 76 3d
       0.0045207213 -0.06368259 -0.043735873 0.060277436
000380 6f 5e 1c bc 4c 2a 0e 3d 1e 8a 8e 3c a6 94 ca bc
       -0.009543999 0.034708306 0.017399844 -0.024729084
000390 07 de d8 3c fd e6 03 3b 2d 73 f9 bb 6b 9a c2 bc
       0.026473058 0.0020126693 -0.007612607 -0.023755273
0003a0 41 8f 8c bc e4 42 0c 3d d7 c0 d8 bc 70 8a d1 3c
       -0.017158153 0.03424348 -0.02645914 0.025578707
0003b0 41 7d 40 3c 2f 9f 72 3d 8d 6d ab 3c 94 bb 8b 3c
       0.011748613 0.05923384 0.020926261 0.017057218
0003c0 29 3b 85 3d 65 2d 1d bd e4 d1 a1 bb 14 15 a6 3a
       0.065054245 -0.03837337 -0.004938351 0.0012671077
0003d0 33 ef b2 bc cd 32 12 3d f0 8d d3 3b a0 f4 df bb
       -0.021842575 0.03569298 0.0064561293 -0.0068345815
0003e0 0e 40 81 bc fc 0f 3e bd ff 47 84 3c 0a 5b 17 bd
       -0.015777614 -0.046401963 0.016147612 -0.036952056
0003f0 e4 2a 5d 3d d9 64 59 3d 59 af 78 bd 7d c6 52 3d
       0.05399598 0.05307469 -0.0607141 0.051458824

Generator.conv3.conv1.0.weight f4 [8, 8, 3, 3, 3]
000000 8d fc f6 bc ba 62 53 3d 3b 6a e3 bc 6c 28 75 bd
       -0.030149722 0.051607825 -0.027760616 -0.059853002
000010 fc d3 07 bc 3d cb 07 3c d7 f7 85 3d 26 88 2a bd
       -0.008290287 0.008288202 0.06541412 -0.041633748
000020 6d 52 33 bd ae 13 7b bd 0b 9d 08 b9 ef 93 50 bd
       -0.04377978 -0.061298065 -0.00013028474 -0.05092233
000030 8e 4f 94 3c 7a 11 bc ba 45 a7 71 bd 11 fb 10 bd
       0.01810434 -0.001434847 -0.05899741 -0.035395686
000040 f6 d6 4e 3d 59 ec 27 bd 43 26 26 bd 0c a2 91 3d
       0.05049797 -0.040996883 -0.040563833 0.07110986
000050 83 c7 32 3d 84 90 88 3d 9e dd ee bc 30 b0 28 3d
       0.0436473 0.06668189 -0.02915841 0.04118365
000060 47 c4 72 bd e7 c8 fc 3c 19 a2 51 bd 02 87 de bc
       -0.059269216 0.030857516 -0.05117998 -0.027163986
000070 38 b0 ed bc cd 72 05 bc ed 38 aa 3c dd 99 76 3d
       -0.029014692 -0.008145046 0.020779097 0.06020533
000080 9b 84 20 bd 62 10 86 3d fd 26 94 bc 8e d3 fb bc
       -0.039188962 0.065460935 -0.018084997 -0.030740526
000090 9e 96 aa bc 59 5e 5d bc 3f 6e 85 3d 45 72 3b bd
       -0.020823773 -0.013511264 0.065151684 -0.045763273
0000a0 16 bd 72 3c 21 61 53 bd 85 0a 64 bd 9e fe 6e bd
       0.014815589 -0.0516063 -0.055674095 -0.05834829
0000b0 97 fc f0 bc 0b 5a 93 3c ae 3b df 3c 62 1d 49 bd
       -0.02941732 0.017987272 0.027250137 -0.049100287
0000c0 98 5f 38 3d c9 58 58 3d c0 a7 b8 bb 2e f2 74 bb
       0.04501304 0.052819047 -0.0056352317 -0.0037375796
0000d0 d7 14 39 3d 70 d5 5d bc 21 67 da bc 83 eb 22 3d
       0.04518589 -0.013539657 -0.026660504 0.039775383
0000e0 57 67 b3 3b 6b 0b 64 bc e7 b2 02 bd d1 4b 55 3d
       0.0054749656 -0.013918738 -0.031908896 0.052074257
0000f0 1c 66 33 bd 0f 8e 64 bc 91 26 62 bc 95 a5 07 3d
       -0.04379855 -0.013949885 -0.01380314 0.033116896
000100 cd 80 52 3d 28 58 9a 3d ef ae 94 bc 51 74 82 3d
       0.051392365 0.07536346 -0.018149821 0.06369842
000110 51 f4 7b 3d 62 7f 8b bd 60 2f 15 3c 60 a0 02 bd
       0.061512295 -0.06811406 0.009105533 -0.031891227
000120 f3 e4 21 3d 3c b8 a5 bc 2c 8c b5 3d f7 81 f7 bb
       0.039524984 -0.020229451 0.08864626 -0.007553335
000130 0c 44 fd 3c 6e 29 2f 3c 0d 62 ad 3c d9 23 6c bb
       0.030916236 0.01069103 0.021164918 -0.003603211
000140 c5 8a ce 3c 15 ee b9 3c a4 4d b8 3c 88 93 86 3d
       0.025212655 0.022696534 0.02249796 0.06571108
000150 21 87 1f bd e6 f2 4b bc 48 fb f6 bb 62 c3 56 3d
       -0.03894723 -0.012448048 -0.0075372793 0.052432425
000160 7f 56 d3 bc 6f 3f e5 3c 41 c4 d6 b9 c8 1a 54 3d
       -0.02579808 0.027984349 -0.0004096348 0.051783353
000170 18 7c 83 3d 6d 0e 33 bd 50 6f f1 3c 6e 5e 93 bc
       0.064201534 -0.04371493 0.029472023 -0.017989364
000180 f2 13 81 bd 4a 8b cd 3b e6 28 4f 3c ed 01 68 bd
       -0.063026324 0.006272708 0.012644028 -0.05664246
000190 04 30 88 3d 7b c4 e6 3c 9e e3 c5 3c dd d1 79 3d
       0.06649783 0.028169861 0.024156388 0.060991157
0001a0 aa 6c 6f 3d d0 b9 af bc c1 36 0b 3d a2 05 c0 bc
       0.05845324 -0.021450907 0.033987764 -0.023440186
0001b0 42 d5 2d bb 1b 9f af bc db d9 2b bc 5e 6b 69 3d
       -0.0026524817 -0.021438172 -0.0104889525 0.05698716
0001c0 e8 d7 45 3c 6c b4 b5 3b fa e0 c8 3c 2e 38 f1 3c
       0.012075402 0.0055451896 0.02452134 0.029445734
0001d0 61 da 3f bd c7 42 17 bd 43 c7 13 3d 42 bf 39 3c
       -0.04683912 -0.03692892 0.036078703 0.011337103
0001e0 b7 84 0d bd 8b 92 86 3d 95 1e ff 3c b3 47 6a bd
       -0.034550395 0.065709196 0.031142512 -0.057197284
0001f0 ae 11 09 3d 4f ce 77 bd b5 99 0f bd 00 0d 6b 3b
       0.033464126 -0.060499486 -0.035058696 0.0035865903
000200 0f 88 1a 3d 52 b1 f1 bc 0a 12 22 3c 6b 78 46 bc
       0.03772741 -0.029503498 0.009891996 -0.012113671
000210 08 b0 89 3c 24 56 51 bd b7 45 e5 3c 4f d2 1f bc
       0.016807571 -0.05110754 0.027987344 -0.009754731
000220 aa ee 8c 3d a7 fa 14 3d 35 53 a9 3c a4 0d 03 3d
       0.06881459 0.036371853 0.020669559 0.03199543
000230 08 26 3c bd 54 3d e9 bc 5e 50 f4 3b 75 09 5d bd
       -0.045934707 -0.028471626 0.0074558696 -0.053964097
000240 99 8b 40 3d 57 c2 80 3d 4f 75 a7 3c f2 cc 4c bc
       0.04700813 0.062870674 0.02044168 -0.012500035
000250 7c 2f 04 bb 96 86 d0 3c 41 36 17 bd 50 41 7e bc
       -0.0020169904 0.0254548 -0.036916975 -0.015518501
000260 1b 9f 38 bb 4e d1 4b bd 0d 16 51 3d a5 25 1b bd
       -0.0028171006 -0.049760155 0.05104642 -0.037877697
000270 22 05 40 bc 59 33 c2 3a 37 e5 74 3d 4e 97 05 3d
       -0.011719974 0.0014816328 0.05978891 0.032615
000280 19 4a ed 3c 16 67 38 bd ba 00 6e bd 31 8a 6a 3d
       0.028965997 -0.045020185 -0.05810616 0.057260696
000290 b6 23 4d 3d b0 52 8e bc 83 4c 04 3d 92 5b 2b bd
       0.050082885 -0.017373413 0.03229953 -0.041835375
0002a0 aa d6 8b 3d d3 8d 07 3c 11 f6 89 3c d1 44 a7 3b
       0.06828053 0.00827356 0.016840966 0.005104639
0002b0 25 14 85 bd 36 3f 32 3d 84 cc ed 3b 10 28 50 bd
       -0.06497983 0.043517314 0.007257046 -0.050819457
0002c0 47 3f 12 3d 5a b7 5c bd 14 d0 b2 bb f6 ff 1d 3d
       0.035704877 -0.053885795 -0.0054569338 0.03857418
0002d0 26 64 5c 3d 9c e3 01 bd 13 25 3c bd f0 0c 1e bc
       0.053806446 -0.031711206 -0.045933794 -0.009646639
0002e0 fc 34 32 3c 04 fb f1 bc 26 39 12 bd 83 68 5e 3c
       0.01087689 -0.029538639 -0.035699032 0.013574722
0002f0 ee 98 36 3d 27 b0 3e 3d cb dd dd 3c 33 66 11 3d
       0.04457944 0.04655471 0.027083298 0.035497855
000300 fa db 53 ba 43 96 e0 3c 28 30 dd 3c 2d 32 56 bd
       -0.00080817903 0.0274154 0.027000502 -0.052293945
000310 ff 12 2c 3d bf 4e 54 3c 03 60 13 3b 04 73 6c bb
       0.042010304 0.012958228 0.0022487647 -0.0036079297
000320 fd 28 b4 3b 99 91 1f bc 7d ba ac 3d 2a b6 43 3d
       0.0054980502 -0.009739303 0.08434007 0.047781147
000330 df f6 c4 bc d2 03 22 bd da 7c 34 3d 5f 26 19 3c
       -0.024043499 -0.039554425 0.04406438 0.009347527
000340 99 74 1d bd 61 44 64 3d 88 74 44 3d 68 b4 9e 3d
       -0.038441274 0.055729274 0.047962695 0.077492535
000350 75 c2 0e bd ce 27 01 bb 8b 10 8f bc 08 c1 38 bd
       -0.034853417 -0.0019707563 -0.017463943 -0.045105964
000360 24 d7 3c 3c 0b 2b cf bb da 53 89 bd 3c 20 1f bd
       0.011525903 -0.00632227 -0.067054465 -0.0388491
000370 6e 19 3f bd a9 5d 24 3d 49 9d 00 3d f2 62 11 bc
       -0.04665511 0.040128384 0.0314 -0.008873688
000380 b7 39 26 3c 7f d6 2d 3d 9a 96 73 bd 27 7c 1e 3c
       0.010145596 0.042440888 -0.059469797 0.009673155
000390 fe 69 1b bd 07 c1 6d 3b 33 da de 3a eb 58 00 bd
       -0.03794288 0.0036278383 0.0017002284 -0.0313348
0003a0 6e 9b 1c 3d a6 6c c6 3a 98 73 eb 3c 6c 2e 76 3d
       0.038234167 0.0015138581 0.028741643 0.060102865
0003b0 38 7b a0 bb ed 55 88 3c d4 65 51 3b 28 95 52 bd
       -0.0048975013 0.016642535 0.0031951563 -0.051411778
0003c0 29 20 9e 3c e5 f3 15 bd 72 14 13 3d ab e2 32 3b
       0.019302445 -0.03660955 0.03590817 0.002729575
0003d0 9b 23 03 3b ee db 1f 39 ed 26 5f bd 6a 02 ff 3b
       0.0020010236 0.00015245352 -0.054480482 0.00778227
0003e0 a2 52 ce bb cd 34 4e 3d e6 0d 50 bd 0c 69 12 bd
       -0.0062964717 0.050343323 -0.050794505 -0.03574471
0003f0 63 1b 5c 3d 87 98 3a 3d e1 6d b6 3c 7b 5e 1f 3d
       0.053737056 0.045555618 0.022269191 0.038908463

Generator.conv3.conv2.0.weight f4 [8, 8, 3, 3, 3]
000000 8e 5b 7b bd d2 8d 15 3d 18 2d f4 bb 6d e9 2f bd
       -0.06136661 0.036512204 -0.0074516647 -0.04294722
000010 65 17 04 3d 41 75 89 b9 84 63 15 bd 3a 4e 0e 3c
       0.032248873 -0.00026218037 -0.03647186 0.008685643
000020 09 f0 1b bd ca b1 07 bd 13 56 0b bd c7 71 28 3d
       -0.038070712 -0.033128537 -0.034017634 0.04112413
000030 3d 81 a4 3c d5 1e a7 3c 07 3c a2 bc 0a 1e e9 bc
       0.020081157 0.020400444 -0.019804014 -0.028456707
000040 8c 59 cd 3c 12 86 6e bd 84 44 b8 bc 17 76 e4 bb
       0.025067113 -0.05823333 -0.022493608 -0.006972085
000050 81 dd 43 bd 89 3c 08 3d f0 4b ca 3c df 69 56 3d
       -0.047818664 0.033260856 0.024694413 0.05234706
000060 bd 91 75 bb 96 8a 94 3d 32 d4 c6 bb 70 02 b3 bc
       -0.00374709 0.07252996 -0.006067776 -0.021851748
000070 f4 5e 76 bd f4 e0 9b bb b4 46 33 3d d1 f1 c8 bc
       -0.060149148 -0.004757041 0.0437686 -0.02452937
000080 18 9c 1b bd bf d7 12 3b f2 bd 99 bc e7 be 18 3d
       -0.03799066 0.0022406427 -0.01876733 0.037291434
000090 6b 48 3b 3d 49 b1 77 bc e3 f6 20 3d a2 16 fd bc
       0.04572336 -0.015117952 0.03929795 -0.030894581
0000a0 f9 8e 0d bc 59 b6 66 3d 22 f5 94 3c 11 3a a8 bc
       -0.008640044 0.056326244 0.018183295 -0.0205355
0000b0 b4 c6 69 bc 8e fe 5a 3d 7a 2c 01 bc 0f 22 70 bd
       -0.014268566 0.05346542 -0.007884139 -0.05862623
0000c0 73 8c a4 3c 2a cc 02 bb 2f a3 10 bd 34 cf b6 3c
       0.020086503 -0.0019958117 -0.035311874 0.022315599
0000d0 a6 a5 aa bc d0 bc 16 3d 25 1f 8c 3c 9b 99 f7 3d
       -0.02083094 0.03680116 0.017104695 0.12089845
0000e0 a7 ac 0b ba a8 ed fd 3c d8 fc 14 3d 69 9d 1d 3d
       -0.00053281564 0.030997112 0.036373943 0.038480196
0000f0 89 02 12 bd 53 f7 06 bd 8a 3b df 3c a1 21 c0 3d
       -0.03564695 -0.03295071 0.02725007 0.09381414
000100 08 96 9f 3c 6c 0b 91 3d d9 cf 9d 3d c1 b2 c2 3d
       0.01948072 0.07082257 0.077056594 0.09506751
000110 44 3e 79 bd 4a 13 88 bd 5e 69 7e 3d b2 63 8c bd
       -0.060850397 -0.06644304 0.062112205 -0.06854953
000120 0d fd 36 3d d9 c5 15 3e c1 e6 11 3d fa d7 48 3d
       0.04467492 0.14626254 0.035620455 0.049034096
000130 2d e1 08 3e 58 44 db bc 67 f9 06 bd fd 7b 79 bd
       0.13367148 -0.026765987 -0.032952692 -0.06090926
000140 f0 00 97 bc a7 b5 a1 3c b4 81 31 3d 80 57 3d bd
       -0.018433064 0.019739939 0.043336585 -0.046226025
000150 a7 23 07 ba 36 c4 19 bd f2 d6 85 3c 8b 03 fc bb
       -0.0005155154 -0.037540637 0.016337845 -0.007690852
000160 a4 90 35 bd c9 77 79 3d a6 b1 35 3c 3b 4b 22 3c
       -0.044327393 0.06090525 0.011089718 0.009905632
000170 a5 d3 95 bb 99 d3 ef bc 08 a8 59 bd 56 c9 e3 3c
       -0.004572349 -0.029275702 -0.053138763 0.027805965
000180 ee 45 60 3c 7e fe 1f bd de f1 7b 3d fe db 17 ba
       0.013688548 -0.039061062 0.06150996 -0.0005792974
000190 e6 ab fd bc 68 24 b5 3c 79 17 60 3d e9 83 80 bc
       -0.030965757 0.022112086 0.054709885 -0.0156879
0001a0 cf 61 00 bd af 92 23 bc bb 5a 76 bc 50 34 ba 3c
       -0.031343278 -0.009983703 -0.01503628 0.022730023
0001b0 f0 15 9d bc 92 e6 06 3d fa b3 8a 3b b3 ed 7b 3d
       -0.0191755 0.032934733 0.0042328807 0.061505985
0001c0 90 a3 34 bd 40 e5 68 bd b9 4e 63 bd 41 c9 21 3d
       -0.044101298 -0.056859255 -0.055494998 0.03949857
0001d0 48 ba f1 3c f9 43 db 3c af 21 1b bd 60 dc 5b 3d
       0.029507771 0.02676581 -0.03787392 0.053676963
0001e0 c3 f6 87 3d 0a ef 32 bc a4 db 3b ba a5 3e 28 bd
       0.06638863 -0.010921249 -0.0007166213 -0.041075367
0001f0 4a fc 16 3c e2 2d 17 3c c4 26 90 bd 95 1b a0 bc
       0.009215424 0.009227248 -0.07038644 -0.019544402
000200 96 92 33 bd 2d 73 93 3d 59 61 8c ba ae ed 64 bc
       -0.043840967 0.071997024 -0.0010710164 -0.013972683
000210 56 21 87 3c 27 b4 90 bc a5 85 ac bc 1c 71 72 3d
       0.016495388 -0.017664028 -0.02105982 0.0591899
000220 32 b7 8e 3d f6 0d 26 3d 99 aa e5 3c 96 61 97 3d
       0.069685355 0.040540658 0.028035449 0.0739166
000230 f3 74 dc bc e5 93 bf 3c e3 20 e6 bc 0c ef 4f 3d
       -0.026911234 0.023385951 -0.028091853 0.050765082
000240 c0 32 81 bc ca 7f b6 3b f8 33 a9 3d e5 83 16 3d
       -0.01577127 0.005569433 0.082618654 0.03674688
000250 b4 63 65 3c 0c 92 09 bc 35 6e f3 3c 3b 18 35 b9
       0.014000822 -0.008396637 0.029715637 -0.00017270532
000260 be f1 54 3d 62 10 cf 3b 5e c9 a1 3d 98 cc 97 3c
       0.051988356 0.0063190917 0.07899736 0.018530175
000270 09 94 a7 3d d5 d6 2d 3b a8 44 1e bb 06 cf 75 bb
       0.08182532 0.0026525755 -0.002414981 -0.0037507429
000280 a9 8b 3c bd 98 a0 2e bd e7 f9 83 3d 0a d6 6c 3c
       -0.046031628 -0.042633623 0.064441495 0.014455328
000290 84 23 c6 3c 2d 64 b8 3c 26 fa 4e 3d 52 00 86 3d
       0.024186857 0.022508705 0.05053153 0.0654303
0002a0 65 36 35 3d 39 37 74 bd e2 a7 18 bd f5 84 f7 bc
       0.044241328 -0.059622977 -0.03726948 -0.030214766
0002b0 6e bf 55 3c fc 38 b6 3b 4c 7f 75 bd ca 46 82 bc
       0.013046129 0.0055609923 -0.059935853 -0.015902895
0002c0 c4 8e 39 3d 3a 06 1e bc 34 f2 67 3d 95 e0 b9 bc
       0.045302168 -0.009645039 0.056627467 -0.022690097
0002d0 7b a7 d4 bc ca a2 bb bc d4 d9 85 3d f1 72 67 bd
       -0.025958767 -0.022904772 0.06535688 -0.0565061
0002e0 eb ef 8e bc ca 23 b1 3d 4d fe 55 bd a9 6c 3b 3c
       -0.017448386 0.08649404 -0.052244473 0.011439481
0002f0 39 0a 4a bd 52 ae 18 bd d0 3a a5 3c 54 f2 46 bc
       -0.049326155 -0.03727562 0.020169646 -0.012142736
000300 87 c9 ae bb 4b 88 5c 3b f4 9f a7 3c c7 40 55 3d
       -0.0053340825 0.0033650573 0.020462014 0.05206373
000310 da 84 41 3d b1 6b b4 3d c7 ba cb 3d 66 42 8e 3c
       0.047245838 0.08809603 0.09947734 0.017365646
000320 4c 9e fa 3b 64 1b 0c 3d 57 c9 71 3c 88 4e b2 bc
       0.007648265 0.03420581 0.014757476 -0.021765962
000330 06 3b c5 3b e3 67 ce 3d de 23 9e bc c3 a4 16 3d
       0.006018999 0.100784086 -0.019304212 0.036778223
000340 37 34 91 bd 41 e1 c7 bc 42 ec b5 3d e7 f8 19 bc
       -0.07090037 -0.024399402 0.08882953 -0.009397722
000350 0a 49 83 bb f3 62 c9 3d b1 63 02 3e aa c7 b3 bc
       -0.0040065097 0.09833326 0.12733342 -0.021945793
000360 8b 3d 78 3c d5 9e 67 bd b4 e5 88 bd c4 d6 2a bc
       0.015151392 -0.05654796 -0.066844374 -0.010427181
000370 8c ce 98 bd e4 10 0f be f2 82 65 3d c9 8d ab 3d
       -0.07461271 -0.13971287 0.056033082 0.08376653
000380 e8 de d4 bd e6 c3 78 3b b8 fc bf bd df 10 3f bd
       -0.103940785 0.0037958561 -0.09374374 -0.04664695
000390 b8 12 81 bc e8 d5 6d 3d 08 4a b5 bd ab 51 bc 3d
       -0.015755996 0.058065325 -0.08852011 0.091952644
0003a0 8b 6d 8d 3d 43 87 9f bc 8c ca 67 bc 6d 96 10 3c
       0.06905659 -0.019473678 -0.014147412 0.008824927
0003b0 2b 6c 09 3d 34 d8 2e 3d 02 15 d4 3c 02 d0 44 3d
       0.033550423 0.042686656 0.025888924 0.048049934
0003c0 9e 80 38 3d a8 91 1a bc d0 6a 0a 3b 32 64 85 3c
       0.045044534 -0.009434141 0.0021120794 0.016283128
0003d0 0a 0d 25 3d e5 33 20 bb ea 90 42 3c 12 0b 9e 3d
       0.04029564 -0.0024444994 0.0118753705 0.07716955
0003e0 06 d2 89 3c 15 c6 74 3a 8c d9 99 ba 73 63 a6 bc
       0.01682378 0.0009337378 -0.0011737808 -0.020311093
0003f0 5c e7 1a bd 39 4b 59 3d 46 65 c9 bc 99 4b 65 3d
       -0.037818298 0.053050254 -0.024584424 0.0559803

Generator.conv4.conv1.0.weight f4 [8, 8, 3, 3, 3]
000000 f6 1b d3 bb c0 a2 df 3c f8 fd 08 3d 72 b3 1e 3d
       -0.006442542 0.027299285 0.03344533 0.03874535
000010 f8 69 7e bc 87 5c 99 3c 00 14 b5 bc 83 ae 03 bb
       -0.015528195 0.018720878 -0.022104263 -0.002009303
000020 4c 0b e5 bc 3c fa 23 bd 3b aa 5c 3c 89 a0 8a bd
       -0.027959488 -0.040033564 0.0134683205 -0.06768901
000030 ef 58 22 bd 66 62 7d 3d b1 e9 52 3c 8b 6f 9c 3d
       -0.039635595 0.06186142 0.012873099 0.07638463
000040 d7 b7 87 3b 98 7c 1e 3d ca a9 28 bb de 4c e7 3c
       0.0041417885 0.03869304 -0.0025735968 0.028234895
000050 45 c3 4c 3d 9b eb 5c 3d 63 bf 70 bc d3 10 47 3d
       0.04999091 0.05393563 -0.014694068 0.04860003
000060 0c df 32 bd 70 b2 b0 bc b6 af 10 bd fd 18 96 3c
       -0.043669745 -0.02156946 -0.03532382 0.018322462
000070 ba 16 46 bd 7e 80 34 3d 6e 7c 36 bd 6d 7c 8f bb
       -0.048361517 0.044067852 -0.04455226 -0.0043788464
000080 a0 15 0b 3d 8b 87 ed 3c 93 3f 38 3d 30 bb 5a bd
       0.03395617 0.028995296 0.044982504 -0.053401172
000090 02 5b 2a 3d ff 7a 09 3d 51 fa 27 bd ce 8f 57 bc
       0.041590698 0.033564564 -0.041010205 -0.013156844
0000a0 7d db 37 bd 3f ab 50 bd f7 c0 ab bc 0c b7 63 bc
       -0.044887055 -0.050944563 -0.020966036 -0.013898622
0000b0 15 b1 08 3d 99 e9 54 3c 9b 8e 54 3d 3e 80 0b 3d
       0.033372004 0.012995147 0.05189381 0.03405785
0000c0 d1 da 35 3a ae 6f 05 ba ae 0c c1 3c de 6c 78 3c
       0.0006937208 -0.0005090189 0.023565616 0.015162675
0000d0 96 72 df 3c 32 82 34 3d a2 59 9b bc 77 3d 74 bc
       0.027276319 0.044069476 -0.018963639 -0.0149072325
0000e0 f5 e9 07 bd 83 4d ac bb 41 8d 4c 3c 32 f7 99 bd
       -0.033182103 -0.0052582636 0.012484849 -0.07517852
0000f0 a3 04 ae 3d 88 f9 c7 3b 99 bb cc bc 11 ca 32 3d
       0.08496978 0.0061027445 -0.024991797 0.043649737
000100 97 2b 84 bd c6 09 95 3a 82 7f 3b 3d 51 40 21 3a
       -0.064536266 0.001137071 0.045775898 0.00061512465
000110 c0 b2 71 3c 60 aa 42 3c 99 da 4c 3d 70 42 14 bd
       0.01475209 0.011881441 0.05001316 -0.036196172
000120 23 29 6d 3d 9b ae 01 3d e0 24 84 3b 74 42 50 3d
       0.05790056 0.031660657 0.004032716 0.050844625
000130 e6 73 8c bd a5 70 0a bc 1c ae 89 3c bc e6 73 bd
       -0.068580434 -0.008449708 0.016806655 -0.059546217
000140 2c d3 0f bc 52 a3 63 3d bf 63 34 bc f2 1d 27 bb
       -0.008778375 0.055575676 -0.011010109 -0.0025500027
000150 44 ac 17 3d c8 2f cb 3b 22 95 12 bc 50 a6 2c 3d
       0.03702952 0.0062007643 -0.008946689 0.042150795
000160 57 b1 5d 3c a5 0c 7d 3d 21 03 ab 3c 49 72 16 bc
       0.013531051 0.061779637 0.020875515 -0.009182521
000170 82 da 36 bc 0b 5d 3b 3d 95 e4 70 bd d1 4b 46 3d
       -0.011160495 0.04574303 -0.058811743 0.048412148
000180 18 06 15 3d da 6c 7a 3d 4b 8c 83 3d 00 7d 55 bd
       0.036382765 0.061138965 0.06423243 -0.052121162
000190 0b a1 06 bd 29 53 d9 bc 2f b0 df 3c cd f8 6e 3d
       -0.032868426 -0.026528912 0.02730569 0.058342744
0001a0 6e 43 e3 bb 51 4d 45 3d c0 fc e9 3b fc d7 fb 3c
       -0.0069355285 0.048169438 0.007140726 0.030742638
0001b0 08 8a 85 3b eb 13 80 3c 3e 84 91 bc 30 19 9b 3c
       0.0040752925 0.015634498 -0.017763253 0.018932909
0001c0 a8 e1 a7 bc 9e 4f d5 3b ed 23 ac 3c 7e 22 4c 3d
       -0.020493343 0.0065097352 0.021013224 0.04983758
0001d0 8d cf d3 3b 8a e8 86 3c 99 81 31 bd 1e d8 06 bc
       0.006463951 0.016468305 -0.043336485 -0.008230237
0001e0 df 30 24 bd 07 c4 62 bd e5 20 2b bd 4d f7 45 3d
       -0.04008567 -0.055362727 -0.041779418 0.048331548
0001f0 3c 5d 99 3d 54 6b 81 bc 8b 46 61 3d 13 af c6 3c
       0.07488486 -0.015798248 0.054998916 0.024253404
000200 0b 75 27 bc b3 58 fe 3b 5d ed 45 bd 00 2e 63 3c
       -0.010220776 0.0077620386 -0.04832207 0.013865948
000210 7c cf 5b 3d 76 d3 b0 3c 86 00 6f 3d d3 ff 0d bd
       0.05366467 0.021585207 0.05835011 -0.0346678
000220 f7 01 58 bd 27 f5 7c 3a fe 5c 8e 3b 35 aa 7d bc
       -0.05273625 0.00096495677 0.0043445816 -0.015482475
000230 28 ba 88 bd 62 b6 90 3d b2 c0 82 3d 8e 30 4a bd
       -0.066761315 0.07066037 0.0638441 -0.04936271
000240 4b 93 72 3d 2e 4c 69 bd ce a6 f8 39 b5 1d fc 3c
       0.0592225 -0.056957416 0.00047426525 0.030775884
000250 c0 0e 48 bd ad 14 ec bb 67 78 74 3d 34 8b 37 3c
       -0.04884219 -0.007204613 0.059685137 0.011202622
000260 70 11 80 3b d6 5d 2a 3d 35 e3 b0 bc 70 ff 60 bd
       0.0039083287 0.041593395 -0.021592716 -0.054931104
000270 b8 06 39 3d 8c bd 0a bd b4 6c 10 bd 25 e0 da 3b
       0.045172423 -0.033872172 -0.035259917 0.006679552
000280 69 1f 85 bd 18 37 49 3d 63 85 60 3d ff 79 8a 3c
       -0.06500132 0.049124807 0.054814707 0.016903875
000290 5c 7a 7c 3a f6 c5 13 3b cd ae 6e 3d d7 0c b9 3c
       0.000963127 0.0022548414 0.05827217 0.02258913
0002a0 6e fc 56 bd 49 37 93 39 f7 d6 c5 3c 66 d9 d6 bc
       -0.05248683 0.00028079216 0.024150355 -0.02622671
0002b0 18 04 38 bc f9 70 30 3d 64 18 56 3d 7f a3 56 bd
       -0.011231445 0.04307649 0.052269354 -0.052402016
0002c0 fa 3e 70 bd fb 45 37 3d 37 0f 9c 3c 30 d2 e1 bc
       -0.05865381 0.044744473 0.019050224 -0.027566046
0002d0 d6 b7 48 3d 9f 89 9d 3c 4c 86 e7 3c 33 45 5e bd
       0.049003445 0.019230662 0.02826228 -0.054265212
0002e0 25 3d 69 3d a4 8d 77 3c bd 75 24 bb 57 db 81 bb
       0.056943078 0.015109453 -0.0025094592 -0.003962915
0002f0 91 06 d6 3c 96 45 ca bc 30 a9 07 bc a2 61 2c bd
       0.026126178 -0.024691384 -0.008280084 -0.042085297
000300 71 68 94 bc 3d b1 63 3d 3a 37 8e bb 31 ab 2a bd
       -0.018116208 0.05558895 -0.0043400796 -0.041667167
000310 5e f0 ff bc d8 76 3f 3c 61 db 6d 3d e2 dd 6b bd
       -0.031242546 0.011686049 0.058070544 -0.05758465
000320 5c b7 13 bc 05 9e 37 3d fa 56 10 bd 50 c8 3b bd
       -0.009015884 0.044828434 -0.035239197 -0.04584533
000330 8a 3b 71 bc 9e ff 86 3d 74 03 19 bd 4d 06 46 bd
       -0.014723668 0.06591724 -0.03735681 -0.048345853
000340 48 00 46 3d 34 3e 2e bc 68 27 47 3c 0d 11 02 bd
       0.048340112 -0.010634948 0.012155391 -0.031754542
000350 11 3d a7 bc 95 e6 89 3d d9 eb 7d 3d 9a ea 06 3c
       -0.02041486 0.06733433 0.0619925 0.008234644
000360 b1 64 b1 3b b1 0c 82 3d 34 48 1c 3d cd 08 5f 3c
       0.0054136147 0.06350077 0.038154796 0.013612938
000370 c3 d4 bd bc 6d c8 9e 3c ad ef 2f bd 3d d1 dd bc
       -0.023172742 0.01938268 -0.042953182 -0.027077312
000380 e5 46 b8 3b 46 ae ad 3d 2d 30 70 3d 51 57 48 bc
       0.0056236857 0.08480506 0.058639694 -0.012227849
000390 8b 38 4e bd 07 8a b6 bb d1 96 ba bc 5f 87 69 bc
       -0.050346892 -0.0055706534 -0.022776993 -0.014253466
0003a0 9d 95 ee bc bd 95 33 bd 21 ba 27 b9 ca f2 39 3c
       -0.029124076 -0.043843973 -0.000159957 0.011349389
0003b0 56 3e 80 3b 8f 99 75 3c a5 d6 69 3d 99 ea b0 3b
       0.003913681 0.0149902245 0.057089467 0.00539906
0003c0 07 fe 9f 3c 57 b8 72 3d 9c 75 4d bc d8 69 f8 bc
       0.01953031 0.05925783 -0.012540247 -0.030323908
0003d0 d4 df b9 bb fd c6 fa bc 60 94 1a bd 26 15 23 3d
       -0.0056724343 -0.030612463 -0.037739158 0.03981509
0003e0 27 7f 34 bc c3 8c 85 3c e7 07 5f bd d8 3b de bc
       -0.011016644 0.016302472 -0.054450896 -0.027128145
0003f0 64 c2 ff 3c 15 f7 67 3d dd 4f 5f 3d da c8 93 3b
       0.031220622 0.05663212 0.054519523 0.0045100274
