DeepWonder3D_pytorch/pth/SEG_pth/Unet4_no_end_UNet3DFFD_20240401-1432_2um/seg_234.pth (torch, 138281 bytes, 19 tensors)

Generator.conv1.conv1.0.weight f4 [8, 1, 3, 3, 3]
00000000: 6482 ea3d 1434 ca3d d21e 6abd ba34 113e
00000010: 179a f7bd d820 ffbd fda7 5c39 13c3 58ba
00000020: 3edb c53d c3fd 283d a48d 21be c670 b53d
00000030: 343c 043e 5a76 dd3d daff 0b3d 3a62 40be
00000040: b097 b53d b994 52be ff44 dbbd 6f55 e2bd
00000050: 8959 6bbd e813 0d3d 174e 49bd bc7e 753d
00000060: 54ca 5abe 01b7 143d dcb2 2b3e 3a8b 223e
00000070: 4df6 213e afe1 8b3c 8e58 ae3d 5d54 08be
00000080: 9ce8 3abe 073e 093e 6692 a03c a840 aabd
00000090: 7031 e7bd ad65 233e 2eb3 2cbd bfa3 04be
000000a0: 1454 9cbd 0e93 0d3c d284 4abe 67cb 5abe
000000b0: dd97 9bbc 37df fb3d 6259 163d 72e1 553e
000000c0: c7b4 313e 21e0 aebd 41c7 253e d554 b93d
000000d0: da88 02be ac23 9fbd aaf1 843d 1862 26bd
000000e0: b8f0 f4bd ba90 e33c b129 cd3d 7652 d5bb
000000f0: 2f2b 25be 0eca e7bd a6e7 6cbd 6890 0d3d
00000100: 9104 c03d 42ce 743c 8a5a 39bd 0a25 1b3d
00000110: bab5 913d 30c9 753d 70c3 f43b a69b 663c
00000120: 2476 1fbe c905 3c3d 4634 473d 5a51 9f3a
00000130: 150f 84bd 572c c43d a412 cfbe 3f89 373c
00000140: c44f 81be 5aee babd 6247 19be 74b9 1f3e
00000150: 5cdf 4abe bb3c 96bd c6ea b5bc f5a4 a43d
00000160: fede eabd 226a 603d ee29 54be 9177 74bd
00000170: 8748 d63c 0499 d03d 2220 4bbe 0bc5 27be
00000180: 9d38 16bd 9ca4 ff3d 470c b23d 64e8 60bd
00000190: 5d5a 803d ee48 b93d 0928 84bd a66c 6f3d
000001a0: 51e7 a03d 67b8 7c3c bb70 27be 21da 63be
000001b0: 4b5f 303e 4a4e 26be d85d 20bd a22a 07be
000001c0: 8708 21bd 7196 3a3c eee8 25bd e5c6 6a3d
000001d0: 4f71 313d a835 adbb 0112 ab3d 87b9 40be
000001e0: 3d5c 5bbd 71f9 32bd c2cb e4ba ae98 e73d
000001f0: 1546 823c 678b 003e cb73 44be 7469 6e3d
00000200: e946 c63d 488a ca3d b406 fd3c 5931 e0bd
00000210: ba48 1cbe 261e b0bd db3b d03d 1e04 143d
00000220: 9063 dfbd 18cf f43d f8af df3d 289d 8ebd
00000230: ae74 03be 6de7 3cbe 3229 3b3e cf19 b43c
00000240: 5264 b2bd 069d 42be 631d 713d 056c c03d
00000250: 29b2 2ebe ea89 59be 4c6e 9abd f46c 9c3d
00000260: 51e9 1a3e 5d08 03bd a372 1dbd e441 f33d
00000270: 694e c03c 09b3 2c3e a49a a8bd 2d24 c43a
00000280: cd91 21bd 02b7 4d3e ffd3 5fbe a234 253e
00000290: d124 a4bd bba6 ae3d cb9a ab3b 299c 3abd
000002a0: d899 f53c 8303 a6bc 90ca 773d 3a7b 663d
000002b0: 59fe 8bbd e781 673e 28c2 52be 73e6 a5bd
000002c0: c338 df3c 2dd1 6ebd 3d7c f43d 52e6 3d3d
000002d0: 6a8b 9abd 88ac 5bbd 4d2b d33d c831 15be
000002e0: cfa8 583d b66e d63d 4855 04be f2d5 82bb
000002f0: 0574 243e 63a7 59bd 843b 053e e5f6 663c
00000300: 7c33 1c3d f400 de3d 5dc2 58be d9ba 94bd
00000310: 59a9 a03b 9bba f93d ccb9 15bd cba3 96bd
00000320: c50e 4fbd 25bc 52be 715f 113e 1338 c0bd
00000330: ee40 b6bd 80ef 313e 638b d13c 0aa2 9ebd
00000340: 084e e5bc f86e 53bc 8b72 63be 4ce9 cb3d
00000350: b6df d9bd c3f7 45be cf2e a2bd 796d d73d
0.11450651 0.09873214 -0.0571583 0.1418027 -0.12089937 -0.12457436 0.00021043415 -0.00082688144
0.09660958 0.04125763 -0.15776688 0.088594005 0.1291359 0.108135894 0.034179546 -0.1878747
0.08866823 -0.20564546 -0.10706519 -0.110514514 -0.057458434 0.034442812 -0.049146738 0.059935316
-0.21366245 0.03630734 0.16767448 0.15873423 0.15816613 0.017075388 0.08512984 -0.13313432
-0.18252796 0.13402568 0.019601058 -0.083131135 -0.11288726 0.15956755 -0.042163067 -0.12953089
-0.07633224 0.008641018 -0.1977723 -0.21366654 -0.018993312 0.12298434 0.036706336 0.20886782
0.17354117 -0.08538843 0.1618929 0.090493836 -0.12747517 -0.07770476 0.06491406 -0.040620893
-0.11959976 0.027778972 0.10017718 -0.0065100743 -0.16129754 -0.11317836 -0.057838105 0.034561545
0.09375871 0.014941754 -0.04525236 0.03787712 0.0711474 0.06000632 0.007469587 0.014075195
-0.15572411 0.045903955 0.048633836 0.0012154982 -0.06448189 0.0957877 -0.4044391 0.011202156
-0.2525617 -0.09127493 -0.14968637 0.15598089 -0.19811767 -0.07335802 -0.022206675 0.080392756
-0.11468314 0.054788716 -0.2071912 -0.05968434 0.02615763 0.101854354 -0.19836476 -0.1638376
-0.036675084 0.124825686 0.08693748 -0.054909125 0.062672354 0.09047113 -0.064529486 0.058453225
0.0785662 0.015424824 -0.16351597 -0.22251178 0.17223851 -0.16240802 -0.039151996 -0.13199857
-0.039314773 0.011388407 -0.040505342 0.057318587 0.04332095 -0.0052859373 0.08353043 -0.18820773
-0.053554762 -0.043694917 -0.0017455744 0.11308418 0.015902558 0.12553178 -0.19184797 0.058206037
0.09681494 0.09889656 0.030886985 -0.10946912 -0.15262118 -0.085995 0.101676665 0.03613674
-0.10907662 0.119535625 0.10922235 -0.06963569 -0.12837479 -0.18447657 0.18277434 0.021984963
-0.08710541 -0.19005212 0.058865916 0.09395603 -0.1706015 -0.21244016 -0.07540569 0.07637969
0.15128066 -0.031990398 -0.038439404 0.11877802 0.023474889 0.16865171 -0.0823262 0.0014964395
-0.039445687 0.20089343 -0.21858214 0.16133359 -0.08014835 0.08527895 0.0052369586 -0.045559082
0.029980585 -0.020265346 0.060495913 0.05626986 -0.06835622 0.22608148 -0.20581877 -0.08100595
0.027248746 -0.058304954 0.11937759 0.04636223 -0.07546122 -0.053631335 0.10310993 -0.14569771
0.052895363 0.10470335 -0.12923157 -0.0039927894 0.16059883 -0.053138148 0.13010985 0.01409695
0.038135037 0.108400255 -0.21167894 -0.07262201 0.0049030003 0.12193795 -0.036554143 -0.0735546
-0.050551195 -0.20579584 0.14196564 -0.09385695 -0.08899103 0.17376518 0.02557916 -0.0774575
-0.02799131 -0.012904875 -0.22211663 0.09956607 -0.106383726 -0.19332795 -0.07919084 0.10518927

Generator.conv1.conv2.0.weight f4 [8, 8, 3, 3, 3]
00000000: a49a 123e 042c 793d 6ce3 863d b944 fe3b
00000010: da86 1cbd 5dd7 0a3d 246f 3a3e 3da5 163e
00000020: da8a 983e 1bb5 4d3c 65d1 003c 2ea7 083d
00000030: f420 2a3d 61e1 be3d b3d0 17bb f6da 8d3d
00000040: 50d7 8fbc adb3 083e 790f 183d d507 203e
00000050: 41f8 153e 1e3b 0d3e 1c64 343e 2f77 203e
00000060: e92b 093e cc6f 1d3e e5d2 333e bb25 12be
00000070: bb70 37bd 3c7e 3dbe 9419 8cbd fd93 13bd
00000080: 686d 64be e2b7 c5bc dbe0 973d cdca a6bd
00000090: 706f eebd 6a66 333e 10ab 55be 1c9f 8cbd
000000a0: 1f0a fd3d 6692 e6be 9fea 51bd 82f5 8e3d
000000b0: 5f91 b13c b827 2e3d 503f 5c3e fbf8 9ebe
000000c0: 2803 87bd 8b4f 0a3e 4bf2 dfbe 69a3 c5bd
000000d0: ae0d ab3c 0845 eb3b ace8 b03d 7720 b53c
000000e0: e72c f03c b979 21bb 5b6e 56bd f56e b3bc
000000f0: 44ba 6a3d 63dd 9c3c 4913 1fbd cca3 3e3e
00000100: 7f8e 133c acff 193d b8cf fa3c 328e 1e3d
00000110: 748d 0d3e 09e1 f93d 029b 2c3d 26c2 573d
00000120: c1a6 ad3d 223a cf3c 1ba3 cd3d 99f0 9fbd
00000130: a25d 4e3c 379f 003d fd0d ba3d 3088 c53d
00000140: 85ea 733d e056 c4bc 4559 7d3d 17fb 293d
00000150: ac62 0f3e 7363 063b ae29 cebb 4d07 063c
00000160: c052 23bd 1fd0 0e3c 817a aa3c 5ec8 913c
00000170: 329a 2e3d 309e 3abd 7960 723c 6c21 6b3d
00000180: 3427 0fbd 8bba be3c 90e7 e53c aac6 883d
00000190: 0a7e 3dbd 4e2c 47bd a646 febb c267 1c3d
000001a0: 5541 553d a202 f83c 4e68 1d3d 85f8 9c3c
000001b0: 573d babc 2f13 4abe 18b8 23be 9e1d 78bd
000001c0: cd95 243c 2704 09be b842 3c3c 2be4 053d
000001d0: c7a9 813d f93e 48bd 012c 303d f9cb 0c3e
000001e0: 339b c1bc 4231 673d 082e b13d 4828 79bd
000001f0: 616e ec3d f501 f63d 7b9e 94bd 6189 493e
00000200: 110e 153e bbb4 c8bc 1357 3f3e 2eb5 d83c
00000210: d8e9 5cbe af49 243e e02d 823d a27e c93a
00000220: 4b07 563e 853d bb3d 8a4b 8abd e6f5 f73c
00000230: 6520 9cbd 378b 943c 8da4 27be 9be2 6cbd
00000240: 4e2d 2dbe 9578 523e 0521 d73d b6d5 cdbd
00000250: 729d 953d 9a90 c1bc 6d52 8fbc f775 3cba
00000260: 8f03 b3bd 65e1 32bd b67e 633e 2aa4 263e
00000270: 22b5 5abd 7fd0 3f3e 9cf7 ae3d 8b6c fbbd
00000280: b614 28bd 6da9 04bc bc1d 863d e744 ddbd
00000290: c48c 04be b6c7 7f3d eb7b 88bd 7b0f 90bd
000002a0: 39fa 013e 3b05 2abe 2e27 a33b 7bf9 503d
000002b0: a531 2abe 94c1 93bc 7540 e83c f5a7 4abc
000002c0: 18ea 85bd baeb 59bd 5ca1 1dbe 1a0e 81bc
000002d0: 484d 2b3d 669a 4abd df5c f03d f584 77bc
000002e0: e81d d03d 674f c43d 5fc6 9abd e58e a6be
000002f0: 7319 c9bc 307b bf3b ae45 90bd f3b2 8a3b
00000300: f7de 663d ab83 e73c 8274 373d a14f 5e3d
00000310: 0f0b 8dbd d39b 2e3c 6e78 223c 33d9 90be
00000320: fa86 8e3d e284 d33b db11 6fbe 85ed 003e
00000330: 1e58 ad3d f417 9fbe e8d1 9b3d 866f c9bd
00000340: 9126 c73d 3818 23be 602e 13be b266 1f3e
00000350: 1760 21be a448 5fbe c6d0 9a3d 5a68 ffbd
00000360: 7532 433e ab6a 8e3e c3ca 8d3e e2d4 d0bc
00000370: 2637 8b3d cb13 cf3d 1930 923e 15e2 933e
00000380: 61dc 883e 59f8 053e 3128 803d 564e 3e3e
00000390: ba90 113d ba16 8a3d 0dce 653d dfc5 8b3d
000003a0: 77aa 02bb 4292 963d 13a5 8e3d 45c6 bc3d
000003b0: 9301 d53c e094 cb3d 55b6 a53d 0262 a53d
000003c0: 2230 8c3d e6d4 2a3b cb73 d33d 544f aabd
000003d0: ca68 70bd 19f7 60bd 270f 6fbd f193 c1bd
000003e0: 70e8 02bb b0da 9f3c 14ad 08bb a6da 8dbb
000003f0: 3301 993d 1a16 8cbc 8704 1bbc 6159 923d
0.14316803 0.060832992 0.06586346 0.007759657 -0.038214542 0.033896793 0.1820646 0.14711471
0.29793435 0.012555386 0.007862424 0.03336256 0.041535333 0.09320331 -0.0023165166 0.06926529
-0.017558724 0.13349791 0.03712413 0.15627988 0.14645483 0.13792083 0.17616314 0.15670465
0.13395657 0.15374678 0.17560919 -0.14272206 -0.044785243 -0.18505186 -0.06840816 -0.036029804
-0.2230736 -0.024135534 0.07415935 -0.0814415 -0.11642349 0.17519537 -0.20866036 -0.06866285
0.12355446 -0.45033568 -0.051249143 0.06980421 0.021675764 0.042518348 0.21508527 -0.31049332
-0.06592399 0.13506906 -0.43739542 -0.09650309 0.020880546 0.00717986 0.08638129 0.022110207
0.029318286 -0.0024639203 -0.052351337 -0.021903494 0.057306543 0.019148534 -0.03883675 0.18617171
0.009006142 0.037597343 0.030616626 0.038709827 0.13823491 0.12201125 0.042140014 0.05267539
0.084790714 0.025296275 0.100408755 -0.07809562 0.012595566 0.03140184 0.09084699 0.09645116
0.059549827 -0.023967206 0.061852712 0.041499224 0.14002484 0.0020506054 -0.0062915897 0.008180452
-0.03987384 0.008716612 0.020810368 0.017795738 0.04262752 -0.045561016 0.014793509 0.05740492
-0.034949496 0.02328231 0.02806452 0.06678517 -0.04626278 -0.048626237 -0.007759887 0.03818489
0.05206426 0.030274693 0.03842955 0.019161472 -0.022734327 -0.1973388 -0.15988195 -0.06057512
0.010045481 -0.1338049 0.011490516 0.0326883 0.063312106 -0.04888818 0.043010715 0.13749684
-0.023633575 0.05644346 0.08651358 -0.06082943 0.115444906 0.12012092 -0.0725679 0.19681312
0.14556147 -0.024500242 0.1868556 0.02645358 -0.2157358 0.16043733 0.06356406 0.0015372823
0.2090122 0.09142593 -0.06752689 0.03026862 -0.07623366 0.018132789 -0.16371365 -0.057833295
-0.16911814 0.20553811 0.10504345 -0.10050528 0.07305421 -0.023628522 -0.017495358 -0.0007189209
-0.08740913 -0.043671984 0.22216305 0.16273561 -0.053395398 0.18731879 0.085433215 -0.12276562
-0.041035376 -0.008097035 0.0654864 -0.10804158 -0.12944323 0.06244632 -0.066642605 -0.07034203
0.12693109 -0.16603558 0.004979036 0.051019173 -0.166205 -0.018036641 0.028351048 -0.012369146
-0.065387905 -0.053203322 -0.15393585 -0.015753794 0.041821748 -0.049463652 0.11736464 -0.015107383
0.10161954 0.09585457 -0.075573675 -0.32530895 -0.024548268 0.0058435425 -0.0704454 0.004232758
0.05636498 0.028261026 0.044788845 0.05427516 -0.06886875 0.010657269 0.009916408 -0.2829071
0.069593385 0.00645505 -0.23346655 0.12590607 0.08464073 -0.31072962 0.07608396 -0.098357245
0.09724153 -0.15927207 -0.1437316 0.15566519 -0.15759312 -0.21805054 0.075593516 -0.12471075
0.19062217 0.27815756 0.27693757 -0.025492135 0.06797628 0.10111197 0.2855232 0.28883424
0.26730636 0.13083018 0.06257666 0.1858457 0.035538413 0.06742616 0.05610471 0.0682485
-0.001993803 0.07352115 0.06965079 0.092175044 0.026001727 0.09940505 0.08091418 0.08075334
0.06845118 0.0026066839 0.1032482 -0.08315912 -0.058693685 -0.05492315 -0.05836406 -0.09452046
-0.001997497 0.019513458 -0.0020855116 -0.0043290434 0.07470932 -0.017100383 -0.009461529 0.07145954

Generator.conv2.conv1.0.weight f4 [8, 8, 3, 3, 3]
00000000: ab90 ba3d 56a1 3abc a1b1 63bd 90aa 873e
00000010: 1a4e b83d 058f b5bd 952b 3ebe c0a4 553c
00000020: 2e0d a23d 451d 9fbd d977 3fbd 7ff2 2ebb
00000030: e467 b5bd 31bb 183b bfee b53c 7858 1bbd
00000040: 7008 98bd c635 b13d 98c1 703c 405c 68bd
00000050: da1c aabc 9bb6 0fbc 3f98 38bd 75cc 0f3d
00000060: cc91 a63c bae6 84bc bc0b 8d3d bef4 4e3d
00000070: 161a 0bbd 1df5 61bd 4237 b73b 4248 efbb
00000080: 058c 08bd 95a0 703d e916 943d d53b df3b
00000090: 50e1 25be 9939 0abe cf1d a4bd a520 bfbd
000000a0: 6016 80bd d434 71bd 8942 d33d 0d00 42bc
000000b0: 1006 00bd 8456 43bd 8d81 70bd b468 29be
000000c0: d130 a53b f9ac 75bd b2f3 c9bd 77da aa3d
000000d0: 7bdb f0ba 9958 65bd 174c 473c 1014 b63d
000000e0: 97b6 1c3e 68d7 193d b718 283d b0de 3c3e
000000f0: a9f4 3cbd caa4 33bd a8c6 033d 0bb6 c1bd
00000100: d8f5 e63c 4f17 333d 668c 66bd 1b95 b13b
00000110: cf58 983d 59ff 3cbe afe3 01bd d066 013d
00000120: 918c 87bd ccaf 183c 6d47 9e3d 5a5c cbbd
00000130: f2b5 9d3d f8c5 053e 3298 f6bd 57c5 79bd
00000140: ba32 853d ff32 42bb 6a01 eebc f799 5f3d
00000150: 7c16 e4bd 2263 90bd b493 30bc 924d 96bc
00000160: d3fd 19bd 5745 bf3d d405 343e 2252 1c3c
00000170: d4ae 953d 7666 fd3c 91bd babc 69b9 633c
00000180: 19c8 153c dfaa 66bd f81b ff3c f8cf 1c3c
00000190: 031c 253c 086d 1dbc 348c d8bd 2030 14bd
000001a0: 8e73 8a3d 681b a4ba d5fe 28bd 317d 883c
000001b0: fbd8 533d 01a7 463d 8e5d 1ebd 7a7c 393c
000001c0: 5bcf d2bc bf99 cc3c 1e66 7fbc 1521 e9ba
000001d0: 491e e63c ee5a 213d fba3 863c 295d 8b3d
000001e0: 60aa 783d 973e 9e3d 0291 b43d 073e a83d
000001f0: 20eb 64bc c507 f83d 628e 2fbd d84e 393b
00000200: e246 833d 527d 7ebd ebe9 fb3c 9869 843d
00000210: a638 7d3c 4d1c 0cbd 2d93 57bd 8331 39bc
00000220: f3a2 cc3d c4ba 383d 8bba 0e3c 97f9 c93d
00000230: 51f9 a83d 00d4 b3bc 6955 8ebd 395c f8bc
00000240: e94c 56bd a231 5bbc 269c 23bc af9a 8abd
00000250: 7993 82bd fe40 0fbd 87a5 98bd 983e e4bd
00000260: edbb 7a3d 8942 8cbd 0dca 1ebd 9c0b c6bc
00000270: d7a8 d9bd fde6 0cbd e1ab bcbd febb 21be
00000280: b621 48be 1d67 f23d 2c2f 9d3d bd58 833d
00000290: b17b 9a3d f3e0 9c3d 3d8e 1a3c a3c4 f63c
000002a0: 36c2 483c 7c56 b53d cabf cf3c a039 a03c
000002b0: 794d f2ba 4e2e e9bb afe5 7f3d 50f7 a53d
000002c0: bfd7 c93d c19c ba3d b349 383d bd2b 943d
000002d0: 54ac 543d 948d 3ebb d1cc c6bc 5f6d 64bd
000002e0: 5d68 5c3d e81a b6bc d9db f73c 854e 80bd
000002f0: fbb7 553c 0f07 58bc b8f1 debc ca8c 103d
00000300: 4a46 88bd 75ef 5ebd a955 893d aa9b e3bd
00000310: 68c4 8fbd 692a adb9 064f 21bd f54f 81bd
00000320: d341 3c3c c967 bfbd 5a50 2abd 52f9 583d
00000330: 8a1b 93bd 3ffa 9dbd 2a03 e43d bc62 b4bd
00000340: b447 88bd bf86 b03c 9694 fcbc d2a1 bbba
00000350: d75e 2b3d 714e b3bd 8f95 57bd d025 073d
00000360: 1596 00be da87 41be 074f 163e 52d5 d0bd
00000370: a4c7 47bc f098 e43c cb7d 953d a52c f6bc
00000380: e185 183e bc17 3fbd a3bc eabc 92e5 513d
00000390: 1a93 dbbc 10a2 203c fb60 0e3d c90f 483d
000003a0: 5efa aa3d 636c ae3c 215f c13b 6874 c4bd
000003b0: 8b2d 09bd 4b5d 853d 09da 5c3b 54ba 94bc
000003c0: 1940 8b3d e446 c33d 49da c93c a051 07bd
000003d0: c489 8ebb 9f5a 793c 3f37 8fbd 43e5 2e3d
000003e0: 4ac6 083d 5a13 1a3c ef0a 1c3d 4398 a2bc
000003f0: 31b5 04be c4f3 f6bd 6fa8 91bd ad6e bebd
0.091096245 -0.011391005 -0.055589322 0.26497316 0.08999272 -0.088651694 -0.18571313 0.013039768
0.0791267 -0.077692546 -0.046745155 -0.0026694832 -0.08857706 0.0023304934 0.02220857 -0.037926167
-0.07423484 0.086528346 0.014694594 -0.0567286 -0.02076571 -0.008771564 -0.04506707 0.035107095
0.020333193 -0.0162233 0.06887004 0.050526373 -0.033960424 -0.0551654 0.005591304 -0.007302315
-0.033336658 0.058746893 0.07230932 0.0068125525 -0.16199231 -0.13498534 -0.08013498 -0.09332398
-0.06254268 -0.05888827 0.10315425 -0.011840832 -0.03125578 -0.04768993 -0.0587173 -0.16543847
0.0050412198 -0.059979413 -0.09860934 0.0834245 -0.0018375957 -0.055992696 0.012164137 0.08890545
0.15304027 0.037558943 0.041039195 0.18444324 -0.046131764 -0.043858327 0.032171875 -0.0945855
0.0281934 0.0437234 -0.056286238 0.005419386 0.07438814 -0.18456782 -0.031711277 0.03159219
-0.06618608 0.009319257 0.07728467 -0.09929724 0.07700719 0.130638 -0.12040748 -0.060979214
0.06503816 -0.0029632447 -0.029053409 0.05459019 -0.11137101 -0.07050158 -0.010777403 -0.018347535
-0.03759558 0.093393974 0.17580348 0.009541066 0.073087364 0.030932646 -0.02279547 0.013899186
0.009141945 -0.0563153 0.031141266 0.009571068 0.010077479 -0.009608515 -0.105736166 -0.036178708
0.067603216 -0.0012520375 -0.04125865 0.016661258 0.0517206 0.04849911 -0.03866344 0.011321181
-0.02573364 0.024975656 -0.0155883115 -0.0017786348 0.028090613 0.039393358 0.016435614 0.06804878
0.060709357 0.07726782 0.088167205 0.08214956 -0.013972074 0.12110857 -0.042860396 0.0028275754
0.06410004 -0.062131234 0.03075119 0.06465453 0.015455401 -0.034206677 -0.052630592 -0.011303308
0.099920176 0.04509999 0.0087114675 0.098620586 0.08250678 -0.021951675 -0.069498844 -0.030317413
-0.05231944 -0.013378533 -0.009985959 -0.06767785 -0.063757844 -0.03497409 -0.07453447 -0.11144751
0.061214376 -0.06848628 -0.03876691 -0.024175458 -0.10627907 -0.034399975 -0.09212471 -0.1579437
-0.1954411 0.118360735 0.07675013 0.0641341 0.075431235 0.07660093 0.009433326 0.03012306
0.012253335 0.08854386 0.025360007 0.019558728 -0.0018486223 -0.0071161157 0.062474903 0.08103812
0.098556034 0.0911193 0.04499216 0.07234905 0.051922157 -0.0029076086 -0.024267586 -0.055768367
0.053810466 -0.022229627 0.030256199 -0.062649764 0.013044353 -0.013185277 -0.02721487 0.035290517
-0.066540316 -0.054427583 0.067057915 -0.11113675 -0.070198834 -0.0003302873 -0.039382003 -0.06314079
0.011490303 -0.09345967 -0.041580535 0.052972145 -0.07182987 -0.07713746 0.11133416 -0.088078946
-0.06654301 0.021548627 -0.03083257 -0.0014315194 0.041838493 -0.08755196 -0.052632865 0.032995045
-0.12557252 -0.1889948 0.14678584 -0.101969376 -0.012193594 0.027904958 0.07299384 -0.030050585
0.14894821 -0.046653494 -0.028654402 0.051244326 -0.026803542 0.009804264 0.034760457 0.04884318
0.08348535 0.021291917 0.005901233 -0.09592515 -0.0334907 0.06511935 0.0033699295 -0.018155254
0.06799335 0.09535006 0.02464022 -0.033036828 -0.004349919 0.01521936 -0.06992959 0.04269911
0.03339223 0.009404028 0.038096365 -0.019847995 -0.12959744 -0.12058213 -0.07112204 -0.092984535

Generator.conv2.conv2.0.weight f4 [8, 8, 3, 3, 3]
00000000: 83c4 a63d 90b9 6bbd b653 fa3b 99d1 953d
00000010: ea91 af3d 33bd 853d 6c61 513d b74f 683d
00000020: f503 ec3d 51f6 f03d 18bf 58bc 9ac6 643d
00000030: e079 ad3c ec02 ef3b 041f 20bd ffae 963d
00000040: 8025 36bd d3d5 f63c b9c5 823c 8696 88bd
00000050: 880f 35bd e58e 433d 03ce c2bd 1b6f b5bd
00000060: 5e0d c6bd e523 26bd 1b2a 45bd e682 fc3d
00000070: efad c83d 33ad ad3c 4a4d 713d 530d c93d
00000080: 8167 2e3e 2c88 8f3d e088 673d fe72 de3d
00000090: a181 ae3d 34f1 c53c 5e8a 4abc 8c6c 753c
000000a0: 1723 cb3d 8233 373d 77af 1bba d5e8 a33a
000000b0: 1ac9 e63d bae0 4d3c 0d59 653d 95d7 2ebc
000000c0: 2fe6 253d a757 093d a7d4 263d ab73 e0bc
000000d0: cf66 8e3d 45e5 173d 72ad 723e df16 b83d
000000e0: 96a7 6a3d 4128 02bd e24b e9bd 266b d2bd
000000f0: 07e6 6f3d 2798 a3bb 3ce2 7fbd c002 5abb
00000100: 33f1 e7bd cbda d63b a01b edbd c85d f4bd
00000110: 4d56 44be a2e6 ea3c 2671 a5bb fe54 30be
00000120: e11b b9bc 17ee 8bbd 1712 183e 10c6 bfbd
00000130: 2ebc 1ebe b807 1a3c 0b8b a73d 0ea3 1d3d
00000140: 75c7 b1bc 6ebf b03d 6bd6 ad3d ca73 193e
00000150: 2a97 d33c 35a5 323d 7b8f 8b3c 6b79 de3d
00000160: e76f 5b3c 2b88 ae3b 5458 1b3e 6708 463c
00000170: 1ba6 b03d 1feb cebc 728f dfbd 9836 bbbd
00000180: d15f c6bc 516a 03be 6833 b03c efc7 4bbc
00000190: 6e88 83bd 0506 7c3d 3d5b a2bd 0761 90bd
000001a0: a45e 49bd 6619 a03d ab67 a7bd 47d7 d9bc
000001b0: 457f 79bd f70c 45bd 866b 13bd aaf3 8b3d
000001c0: 9f94 883d 13a2 14bc f1bf d83d 1cdc 3a3d
000001d0: 4a53 b63c 6f6a 19be 25b8 eabd c651 52ba
000001e0: a5f2 97bd 1d6d 9ebd 61c2 89bb c178 d53c
000001f0: 6464 29bd bfaa 053d 257f 22be 173e f0bd
00000200: 205b 43bc cb15 0e3e 600c 743d 1084 abbc
00000210: d2f7 d93d 8fab 62bd 7c8c 03be a244 173d
00000220: be4a 42be 9769 44be e9f9 62bd 014f 62be
00000230: 9c6b 033d 80ad 0cbe 66e6 48be 16de 1a3e
00000240: 973f d83b 4c46 803c 91cc e6bd 9a74 c3ba
00000250: c97f a3bd cfdb b2bd 49c4 a13d c257 0fbe
00000260: 0d76 b7bd 7260 e63d e9a6 053d 8da0 b63c
00000270: 71e7 983d 9780 62bc dbc5 edbd 4fd9 363e
00000280: 31dd 97bd 1604 cf3c ed7b fc3d 1a2b 123d
00000290: 61cc 5a3e d76a 34bc abdd 39bd d234 c0bd
000002a0: 1a2f 903d 8083 e9bd bc25 bfbd 88f4 a03d
000002b0: 4d15 253d 92bf 503e 8d8e c83d 32d1 f1bb
000002c0: 8a48 2ebd 0a62 8dbc 6ceb 10bd 8373 e0bd
000002d0: 9013 acbc e284 f73d 7196 843d 35a1 373c
000002e0: 378f 9b3c 3f0d 1abe 40ff 5c3d e8e3 60bd
000002f0: 33cd 18be 5cad 4abd 1413 82bd 0588 babd
00000300: c61e 9abd 3661 96bd 901d a0bd b806 20bd
00000310: 35f9 10bc 7a58 083d 3de7 64bd 93ab 8c3b
00000320: 6bcf 4bbd 8872 acbc 5175 81bd ff2b 09bd
00000330: 82b2 253d cb0c e63c 496e e3ba 3a3a 223e
00000340: f9e9 083e acfe 193e a265 453d cc90 d33d
00000350: 0d24 99bc 6552 173e 7491 9b3c fdcf c4bc
00000360: 1563 27be b8f9 a5bd 7879 963c abd2 b0bd
00000370: 91ea 7bbd 22c3 bbbd 6c0f 2abe 049a 72bc
00000380: c070 9cbc 2d60 5d3d ba44 433d 9994 c23b
00000390: 61a9 813d c253 2d3d 974f 823c cef8 15bc
000003a0: c9f1 f93b 67de 553d 4eed 413d dbfb d13d
000003b0: ec91 9a3d 63c2 1f3e 4f15 e43d a908 973d
000003c0: 0be3 0c3e dd0e f73c 1766 103d d2ad 19be
000003d0: d3bb d8bd c2af fa3c 0c12 f1bd 62bb adbd
000003e0: 583e c0bc 2f7a 8abe 7655 edbd 64db a73b
000003f0: f215 b33c 5e21 d83c 30d6 3dbd e4a9 c33c
0.081429504 -0.057550013 0.0076393737 0.07315368 0.08572753 0.065302275 0.0511183 0.056716647
0.11524192 0.11765731 -0.013229154 0.055853464 0.021176279 0.0072940495 -0.03909208 0.073575966
-0.044469357 0.030131256 0.015963422 -0.06669335 -0.044204265 0.047743697 -0.0951195 -0.08859082
-0.09670518 -0.040561575 -0.048135858 0.123296544 0.097988 0.021200752 0.0589116 0.098169945
0.17031671 0.070083946 0.05652702 0.10861777 0.085208185 0.024162866 -0.012362091 0.014979493
0.09918802 0.044726856 -0.0005938927 0.0012505302 0.11268826 0.012565786 0.05599313 -0.010671516
0.040502723 0.033530857 0.040730145 -0.027398905 0.06953203 0.037083883 0.23698977 0.08988737
0.05728873 -0.03177667 -0.113914266 -0.10274343 0.05856898 -0.004992503 -0.062471613 -0.00332658
-0.11325302 0.006556844 -0.11577535 -0.1193195 -0.19173546 0.028674427 -0.0050488887 -0.17219922
-0.022596302 -0.068325214 0.1485065 -0.09363949 -0.15501472 0.009401254 0.08180817 0.03848558
-0.021701554 0.08630262 0.084881626 0.14985576 0.025828917 0.043614585 0.01703619 0.108630024
0.013393379 0.005326291 0.15170413 0.012086964 0.08625432 -0.025258599 -0.10916032 -0.09141272
-0.02421561 -0.12833525 0.021508887 -0.012437805 -0.06422506 0.06152918 -0.079275586 -0.070497565
-0.049162522 0.07817344 -0.0817407 -0.02659191 -0.06091239 -0.048108067 -0.035991214 0.068335846
0.06668972 -0.009071845 0.10583485 0.04562007 0.022256512 -0.14982007 -0.11460904 -0.00080230494
-0.07419328 -0.077356555 -0.00420408 0.026058557 -0.041355506 0.03263354 -0.15868814 -0.11730593
-0.011923581 0.13875501 0.059582114 -0.020936996 0.10642971 -0.055339392 -0.1284656 0.036930688
-0.18973824 -0.19180904 -0.055414114 -0.2210045 0.032085046 -0.1373806 -0.1961914 0.15123782
0.0065993774 0.01565852 -0.11269487 -0.0014912069 -0.079833575 -0.087333314 0.078987665 -0.1399832
-0.08958063 0.11248864 0.03262988 0.022293353 0.07466019 -0.0138246035 -0.116100036 0.17856334
-0.07415236 0.025270503 0.123283245 0.035685636 0.21367027 -0.011011801 -0.045377415 -0.09385075
0.07040234 -0.11402035 -0.09333369 0.07859141 0.040303517 0.20385578 0.097928144 -0.0073796744
-0.042549647 -0.017258663 -0.035380766 -0.10959532 -0.021005422 0.12085892 0.06474007 0.011207868
0.018989189 -0.15044115 0.053954363 -0.05490485 -0.14922027 -0.049481735 -0.06351295 -0.09107975
-0.07525401 -0.0734276 -0.078181386 -0.039068907 -0.008848478 0.033287503 -0.05588459 0.004292914
-0.049758356 -0.021050707 -0.063212045 -0.033489224 0.04045344 0.028082272 -0.0017351593 0.15842524
0.13370503 0.15038556 0.048192628 0.10330352 -0.018693948 0.14777525 0.018990256 -0.024024958
-0.1634639 -0.08104271 0.018368468 -0.08633932 -0.061502997 -0.09168078 -0.16607445 -0.014807228
-0.019096732 0.0540468 0.047672965 0.0059381244 0.063311346 0.042316206 0.015907092 -0.009153558
0.0076277 0.052214053 0.047345452 0.10253116 0.07547364 0.15601496 0.11136877 0.07374699
0.13758485 0.030158455 0.03525361 -0.15007713 -0.105826996 0.030601386 -0.1177102 -0.08483006
-0.023467228 -0.27046344 -0.11588566 0.005122589 0.02186105 0.026383098 -0.046346843 0.023884721

Generator.conv3.conv1.0.weight f4 [8, 8, 3, 3, 3]
00000000: 70ef 3e3c 71fa 983d 2839 63bc 349f a1bc
00000010: 7f17 a63b 8015 223d 6842 ad3d 7ea9 a6bc
00000020: 6e2f 2b3c ef7f debc 97b1 d53c 4e90 76bd
00000030: 6f58 753c cdc0 c2bc 3a4f b4bd 99d3 20bd
00000040: 2f8f 2c3d c630 08bd c4d4 04bd 9c5c 8e3d
00000050: eb72 25bc cf98 583d b459 7ebd c233 03bc
00000060: 0f9b 04bd 8864 dc3c 50f8 5fbd 2038 60bd
00000070: aad8 853c eb29 0c3d 85c0 013c a6ba b0bc
00000080: 1a29 9dbd 940f 6e3d adf1 f0bc 51f0 3e3d
00000090: 1340 da3b 8640 793d ef34 043e 917f 5bbc
000000a0: f832 00bd 3a68 acbd 0a80 29bb 80b2 bfbd
000000b0: ed5b d03c 2be7 b3bb adf4 a53d 56c4 f0bc
000000c0: 2c82 533d 8195 20bd 28bf 82bd ea3c 89bd
000000d0: a98e bebd 8cd4 1d3d 0274 39bd bc58 3fbc
000000e0: 2e71 f7bc d3ad 5cbd 1c74 04bd 3eb3 e23c
000000f0: 9f31 dfbb 88f1 97bc f227 c33b d78e 213d
00000100: 2ec3 0b3d ae76 713d 483d 26bd 8cd9 bb3d
00000110: fb35 843d 7f54 26bd c9cc 583b bc10 c8bc
00000120: 798f 473d d357 73bd e324 cf3c ffb3 41bc
00000130: 1fff 783d 4f0a d7bc 0e63 7e3d 02b6 65bd
00000140: 737a 56bd 81e8 e23c e228 ee38 1c60 c23b
00000150: de4f 65bc 3c5b d83c 4b38 63bd c60d 953d
00000160: 95ff 5bbc 98e5 7f3d 8edd 37bc 6347 353d
00000170: 79cd 043d 0be5 3fbd ede7 843d d7fd 77bd
00000180: f240 97bd 4712 fdbc 2231 0cbc 3ca8 20bd
00000190: cd03 6b3d 34d9 a8bc 4ebd 983d fe39 f83d
000001a0: f5ee 0d3d 16bc 47bb b458 11bd 34b0 bdbd
000001b0: fda5 8a3d f6f4 1dbd e3a0 973b bce4 903d
000001c0: f88f 45bd b352 313d 627a a43d fdf9 3d3d
000001d0: b832 47bd 51cd 5a3d 295d 983d 4b9c 783d
000001e0: a312 cd3b 4ad6 5f3d 8726 ad3d face 173d
000001f0: b4cf 963d 751a 80bd 2a41 5cbc 2c2a e63a
00000200: eb9e d43c 8cd6 86bd 27e7 32bd fa13 a0bc
00000210: 554a 373d 99c7 4abd fbb8 17bd 528e 7cbd
00000220: ee05 213d 5a7f 913c 4ef5 b4bb 3085 843d
00000230: ef43 6ebd fdfd 29bc 33b9 56bc 3344 033d
00000240: 3ef7 723c 53c1 9c3d a4a7 c43c 23f6 1fbd
00000250: 1dc1 2b3d b9fd bc3a 0c75 59bd 54e3 9cbd
00000260: 33da f93c 319b 7bbd 7ab0 7d3d fcc1 87bd
00000270: 0b03 fb3c 066e 9b3d 9367 813d 240e 693d
00000280: 9607 b0bd 6a99 f4bc ae4a 55bd 965a 3d3d
00000290: 1969 113d bb89 8bbc 4a2f 42bd 9f3f 13bd
000002a0: e2c4 d13d b814 603c cd72 4c3c 514e 433d
000002b0: 43b5 06bd 2ede a33d 5870 8e3d 0a99 7ebd
000002c0: 7d75 303d 8481 e33c 5770 c63c 7f30 8e3c
000002d0: 57a3 d73c 3e0a 6bbc f950 c8bd cd54 e23c
000002e0: 2ac7 993d 70f5 0dbd 9b42 aabd 2d05 d33d
000002f0: c9a8 3c3b 8006 243c 5bf1 00bb a0e3 483b
00000300: 3a16 a43b 12e5 1f3d ae5f 9bbc f16a aabd
00000310: 366d 9cbb f7fc ce3a cfd3 f6bb 684d 24bb
00000320: c75c f9bb f1cd df3c f6de 163e d294 423d
00000330: 5f20 8abc ab59 17bd a602 803d 78f4 30bd
00000340: e180 b8bd bc04 17bc 64a8 6a3d 16ba f13d
00000350: ee9b a2bd ad30 0cbd 399e 30bd b904 68bd
00000360: 4149 933c 59ca 06bd 1c55 f9ba f96c 2b3d
00000370: 79fc 813c 2894 603d 6117 613c 72ae 4e3d
00000380: 0eea ee3c 8f90 d63d 6fa3 94bd 3383 3b3b
00000390: b4a3 8c3d 0148 2d3d 1d19 a4bd 0d93 15bd
000003a0: 4f2a 2d3d 5375 26be 7e92 b43c 1cc9 e43b
000003b0: 69f6 c03c 2516 5e3d e1e4 f63b a06f 39bd
000003c0: 5349 49bd 7afb 4ebd 60a7 143c ba82 593c
000003d0: 96e3 bebd 4ada 0cbe 4ba6 e03c fbb8 a03d
000003e0: 796f f9bd 855c ab3d 970d 5c3d ec41 daba
000003f0: f233 a43d 8093 bd3c 3028 aebc d046 d73d
0.011653766 0.07469643 -0.013868608 -0.019729234 0.005068719 0.039571285 0.084599316 -0.020344492
0.01044832 -0.027160613 0.026085658 -0.060196213 0.0149746975 -0.023773575 -0.08804174 -0.039264295
0.042128738 -0.03324964 -0.03242947 0.069512576 -0.010098199 0.052880105 -0.062097266 -0.0080079455
-0.032374438 0.026903406 -0.05468017 -0.054741025 0.016338665 0.034219664 0.007919435 -0.021573376
-0.07673855 0.058120325 -0.029412115 0.046615902 0.0066604703 0.06085255 0.12910818 -0.013397113
-0.031298608 -0.08418317 -0.002586367 -0.09360218 0.025434459 -0.005490204 0.08103309 -0.029390495
0.051637813 -0.039205078 -0.063841164 -0.067010716 -0.09304554 0.03853278 -0.04527665 -0.011678871
-0.030205335 -0.05387671 -0.032337293 0.02767336 -0.006811335 -0.018547788 0.0059556896 0.039442863
0.034121685 0.058951072 -0.040585786 0.09172353 0.064556085 -0.040607926 0.0033081046 -0.024422042
0.04872081 -0.059409928 0.025286144 -0.0118227 0.060790177 -0.026250033 0.062106185 -0.05608178
-0.05236287 0.027698757 0.000113563394 0.0059318673 -0.013996093 0.026410691 -0.055473607 0.07278018
-0.013427635 0.062474817 -0.011222256 0.044257533 0.032422516 -0.04684929 0.06489549 -0.060544815
-0.07385434 -0.030892504 -0.008556636 -0.03922294 0.05737667 -0.020611383 0.07457982 0.12120436
0.034651715 -0.0030477098 -0.035484985 -0.09262124 0.06769941 -0.03856369 0.0046273335 0.070748776
-0.048233002 0.04329176 0.08031155 0.046380986 -0.048632354 0.05341846 0.07439644 0.060695928
0.006258325 0.05464772 0.08454614 0.037062623 0.07363835 -0.06255046 -0.013443271 0.0017560176
0.025954684 -0.0658389 -0.043677475 -0.019540776 0.044748623 -0.049506757 -0.037041645 -0.061659165
0.039312296 0.017760921 -0.0055224067 0.06470716 -0.058170255 -0.010375497 -0.013105678 0.03204746
0.014829455 0.07654061 0.024005719 -0.039053094 0.041932214 0.0014418877 -0.05309014 -0.07660547
0.030499553 -0.0614273 0.06193588 -0.066287965 0.0306411 0.07589345 0.06318583 0.05689825
-0.08595197 -0.02985831 -0.052073173 0.046228968 0.03550062 -0.017033448 -0.04740838 -0.035949346
0.102426305 0.013676815 0.0124785425 0.04768211 -0.03288771 0.08001362 0.069550216 -0.06215767
0.043080796 0.027771719 0.02422349 0.01735711 0.026323004 -0.014345704 -0.09781069 0.027628327
0.07508691 -0.034657896 -0.08313485 0.103037216 0.0028787127 0.010011315 -0.001967511 0.0030653253
0.0050075324 0.039036818 -0.018966522 -0.08321179 -0.004773761 0.0015791942 -0.007532574 -0.0025070552
-0.007609937 0.02731988 0.1473349 0.047505207 -0.016861139 -0.03695075 0.06250505 -0.043201894
-0.09008957 -0.009217437 0.057289496 0.11803071 -0.079398975 -0.03422611 -0.043119643 -0.05664513
0.017979266 -0.032907818 -0.0019022557 0.04185197 0.015867459 0.054828793 0.013738484 0.050459333
0.02916434 0.10476791 -0.07257735 0.0028612136 0.068671614 0.042304996 -0.080126025 -0.03651719
0.042276677 -0.16255693 0.02204251 0.006981982 0.023554998 0.054220337 0.0075346087 -0.04527247
-0.049142193 -0.050532795 0.009073108 0.013275797 -0.09320752 -0.13755146 0.027423045 0.07847782
-0.12179465 0.08367256 0.053723898 -0.0016651726 0.0801772 0.023141623 -0.021259397 0.10511553

Generator.conv3.conv2.0.weight f4 [8, 8, 3, 3, 3]
00000000: 0079 463d 7f4d af3c d013 d7bb 6cb9 46bd
00000010: 7f85 673d 8746 02bd a6ae acbd f02d 5abc
00000020: a826 9abd ae0f 2e3d 9649 14bd 1863 273d
00000030: 7d3b cd3b 9ce9 513d 94a4 edbc 1fdd 04bd
00000040: d890 c43c 8bf7 89bd eb79 ac3c 107f 0abc
00000050: 2ff4 9bbc d110 493d d941 ae3d 55ca c93d
00000060: ff15 913c 0b10 b93d 8df0 023d 4a6c d13d
00000070: d2d6 0dbe 233d 2cbe 8399 083e 8617 8abd
00000080: 1523 c9bd e02f 3b3d c4c6 593d cea7 88bc
00000090: f4ae 9a3d 92b7 bfbd ac58 e5bd d119 a4bd
000000a0: 49f4 6cbd c624 37bd 318d c3bd 7875 0ebe
000000b0: 0acb 27be e62f bd3d aa5f 00bc 6059 12be
000000c0: a574 0ebd f87c 84bc 552a 0ebe 954d 81bd
000000d0: db7f 68bd 7fdd fdbd 17c9 60bc 81d6 c33c
000000e0: e63c 79be 65f2 443d 182d e4bc 4378 88bc
000000f0: 356b b33d 49de dc3d 079a 803d bd56 a43d
00000100: 239c 1cbd b700 8fbc 4557 b23d d17e 6f3d
00000110: b7c1 57bd dadc d03c 5051 633e a94f cbbc
00000120: fc46 b23d c5aa 173e d8b3 ad3d 7b89 d73d
00000130: ece0 2d3e d5ef ae3d 4749 48bd 8840 9a3d
00000140: 7221 e33d a847 57bd 8e7a eb3d 3558 573c
00000150: e918 93bd c5fe 5abd 0dce 4c3d c9aa 353d
00000160: 7a15 4bbd 4e12 27bd de1a dcbd a454 963c
00000170: 284e 953c 2553 f4bd 1289 79be 02df 153d
00000180: 2785 3d3c 0370 33be d539 8ebd 7919 20be
00000190: 66d4 c2bd 96fc 53bb 0d6d 4ebb cbde 72be
000001a0: a528 c6bc 8e08 c53d 09ea 3ebd 9b50 58bd
000001b0: 89a2 a6be fe9e 1fbe 92ad 39bd 8b57 e8bd
000001c0: 18a5 b8bd 7e22 8dbd db5c 0fbe e966 f2bd
000001d0: e2f2 87bd c1a8 8abc cc0d f0bb ad00 503d
000001e0: 8f79 413d ac59 d93c c394 d1bc 0d91 93bd
000001f0: 7dc5 603a 24c9 40bc 1bfc e3be 8032 76be
00000200: a98c 61bd 6d9a 6fbe 6ded 56be 3986 0abe
00000210: 2fdf 40bc 7a42 c3bc 0e32 9b3d cbcb 083d
00000220: 45c7 8cbc e9c9 95be 14e0 18be 2994 5ebd
00000230: 6032 313c 4f10 5b3e 202a 38bd c15a ec3d
00000240: 35a9 d1bd 5f55 b2bd a264 2bbc 437d acbc
00000250: e5e8 ba3c 4d36 e13d 659b 243e e5d5 1cbd
00000260: 6e7b 073e bde2 083d 160a f33d f56e 84bd
00000270: 1186 d83d eba6 ac3c 985e 813d 3de3 833e
00000280: be57 7b3c 9f2e 88bc 92c2 093e 55c7 fb3d
00000290: ec3e 0a3e ce08 25bb a234 0fbd 3c45 953d
000002a0: a25e 00be 4cf0 35be 1905 f73d 4659 b7bb
000002b0: 624e 0b3d ede0 e53d 0c7b d5bd 770a dfbd
000002c0: 9228 b53d e428 fabd 9b29 5f3a 95ce c83d
000002d0: 8b9e 38be 00e0 4cbd 9a46 2a3e b5c1 0dbe
000002e0: a1ef 9dbd b8fa 5b3e 9a6f 3bbd 37f9 ee3d
000002f0: 2863 eb3d 8f0c 4abb daea 90bc 1996 dd3d
00000300: f487 29bd 3e3c b4bc ffa0 b63d 9e57 56bd
00000310: 5d64 2d3c 14bb 303e 29d6 2e3e 7515 693d
00000320: 1a0b b73d 916b 3a3d 3af4 f23c 2482 3c3c
00000330: 173b 5fbd 14f4 b83d 3646 91bb 1ab4 213e
00000340: 1d3f 3d3b 4f83 4abc 89da 0e3e cb43 2b3d
00000350: 9552 d23c e730 c63d 3b0a 193e 7321 77bc
00000360: 231a ce3c 80e9 88bb 074e 79bd e094 933b
00000370: 0891 9dbd e416 b3bd 5a0c ed3c ed44 15bb
00000380: d23b 083d 87bc 653c 38eb 32bd b03a 81bd
00000390: e6a6 14bc 14f4 753d 7993 7abd 9d70 5e3d
000003a0: a6a3 f73b 023b ae3c ace2 1e3c f161 d93d
000003b0: 525e b23d b36e 783d b77c 823d b0c0 433d
000003c0: 5e60 853d 2ee9 f9bc ec85 b03c 800c 8339
000003d0: f0e0 e63c 2e00 1ebe 4e3c bb3d f539 e13d
000003e0: ae64 3a3d 6403 2c3e 3302 7c3c f62e d63d
000003f0: 6a83 4e3c 60df e43d 575b 9abd 731b b33d
0.04845524 0.021399258 -0.006563641 -0.048516676 0.056523796 -0.03180554 -0.08431749 -0.013316616
-0.07526904 0.042495422 -0.03620299 0.040865988 0.006263195 0.051248178 -0.029009141 -0.03243744
0.023994848 -0.06736668 0.021054229 -0.008453146 -0.019037334 0.049088303 0.08508653 0.09853045
0.017710684 0.09036263 0.03196769 0.102257326 -0.13851479 -0.16820197 0.1333981 -0.06742768
-0.098211445 0.045699954 0.053168073 -0.016681578 0.07552901 -0.09361185 -0.111985534 -0.080127366
-0.057850156 -0.044712804 -0.095484145 -0.13911998 -0.16386047 0.092376515 -0.007835308 -0.14291906
-0.03477921 -0.016172871 -0.13883336 -0.06313626 -0.056762557 -0.12395763 -0.013719819 0.023905994
-0.24339637 0.048082728 -0.027853534 -0.016658908 0.087606825 0.10784585 0.062793784 0.080243565
-0.03823484 -0.017456396 0.087080516 0.05847055 -0.052674975 0.025495935 0.22198987 -0.024818258
0.087049454 0.14811237 0.08481568 0.10524269 0.16980332 0.08541838 -0.048898008 0.075318396
0.110903636 -0.05255857 0.11497985 0.013143589 -0.071824856 -0.053465623 0.050001193 0.044352327
-0.04958103 -0.04078894 -0.10747312 0.018350907 0.018225744 -0.11929921 -0.24368694 0.03658963
0.0115673905 -0.17523198 -0.06944624 -0.15634717 -0.09513168 -0.0032346598 -0.0031498105 -0.23717801
-0.024189303 0.09620772 -0.046609912 -0.052811246 -0.3254588 -0.15587994 -0.045331545 -0.113448225
-0.09015864 -0.068913445 -0.14000265 -0.11836035 -0.06638123 -0.016926171 -0.0073258635 0.050781894
0.047235068 0.026532017 -0.02558363 -0.072054006 0.000857435 -0.011766706 -0.4452828 -0.24042702
-0.055065785 -0.23398753 -0.20989008 -0.13527764 -0.011771961 -0.02383541 0.075779065 0.033397477
-0.017184863 -0.29255608 -0.14929229 -0.054340515 0.010815233 0.2139294 -0.04496205 0.115407474
-0.10237352 -0.087076895 -0.010461004 -0.021055823 0.02281613 0.10996685 0.16074903 -0.038289923
0.13230678 0.03341936 0.11867158 -0.06466476 0.10572446 0.021075686 0.063168705 0.25759307
0.015340744 -0.016623793 0.13453129 0.12293879 0.13500565 -0.002518225 -0.034962304 0.07288596
-0.125361 -0.17767447 0.12061519 -0.005595359 0.0340103 0.11224542 -0.1042386 -0.10890668
0.08845629 -0.122148305 0.00085129746 0.098050274 -0.1802923 -0.05001831 0.16628495 -0.13843425
-0.07711721 0.2148236 -0.04576073 0.11668628 0.11493522 -0.003083024 -0.017690111 0.108196445
-0.04138942 -0.022001382 0.08917426 -0.052329652 0.0105830105 0.17258865 0.17073883 0.05690523
0.08937664 0.04551274 0.029657472 0.011505637 -0.05449971 0.09030929 -0.0044334186 0.1579136
0.002887673 -0.012360408 0.13950552 0.0418127 0.025674144 0.09677296 0.14945309 -0.0150836585
0.025158947 -0.004178226 -0.06086543 0.0045038313 -0.07693678 -0.087446004 0.028936554 -0.0022776679
0.033260174 0.014021999 -0.043681353 -0.06310022 -0.009072995 0.060047224 -0.061175797 0.054306615
0.00755735 0.021268371 0.0096975975 0.10614384 0.087093964 0.060652446 0.06371444 0.047791183
0.06512521 -0.030506697 0.021548234 0.0002499558 0.02818343 -0.15429756 0.091423616 0.109973826
0.045506172 0.16798168 0.015381384 0.10458176 0.012604574 0.11175418 -0.07536953 0.0874547

Generator.conv4.conv1.0.weight f4 [8, 8, 3, 3, 3]
00000000: 2992 e1bc 1d14 df3b df4f 18bd 524e 2ebb
00000010: d546 473d afe5 843c bc3b c139 0ff7 193d
00000020: a9d6 62bb 25e6 34bd 9447 bcbc 4687 b4bd
00000030: 9e40 adbd 6842 b8bc 26cc 9bbc 6409 ba3d
00000040: 6a23 e83c 19c0 703d 61a3 133d 6cd3 023d
00000050: a210 9e3d c77c 083d 247c f2bd 1d86 d23c
00000060: e09f 6cbd 1c18 17bd 2428 e83c 4028 18bd
00000070: 90fa 1f3d 0f98 9e3d ad69 41bb 7c5e 873d
00000080: db9e 793d 66d8 c1bd 790d 8a3d 26c4 02bd
00000090: 7ce6 693b e81d f2bc 7af7 3cbd 9361 113a
000000a0: 4750 ecbc ceea 86bd 4ecc 93bb ed13 2d3d
000000b0: a8b4 253d df97 813d 3557 1cbd 0302 fabc
000000c0: 03ec 693d 42b7 e3bc 2b31 343c 00da 963d
000000d0: cbd4 4b3d 9876 d33c 7248 e2bd 78c9 0abe
000000e0: f46a e0bd fd10 08bd f91d 0c3d e04b 5cbd
000000f0: 9ca1 3b3d 4852 293d 5574 1e3c 3abb 2abb
00000100: b85d 30be c95a 77bd 3afb a53c f031 8dbd
00000110: b3d1 79bd 87b1 6d3c 29cc 883d 7c5d 2cbc
00000120: 7eed a23d d769 dcbc 6e89 a5bb 9dc7 883b
00000130: c377 fbbd 3745 1a3d fb68 d4bb d391 58bd
00000140: d3f6 7c3c 1e8b b33c dc35 93bc 567e 45bd
00000150: b1d0 0fbb 7fbc cabc 7536 99bd 9e7a 213d
00000160: 1a38 fc3c 78ae 903d 98bf b43c 5526 59bd
00000170: 8d2e 06bd 271b 103c 563f 8cbd f0f2 ecbc
00000180: 2fd7 d23d 7a85 d23d b678 4c3d 9392 f5bc
00000190: c33f a5bd 1bd8 89bd d67f 7abc dc5f ef3b
000001a0: 5b41 fabd d320 a83d f7f0 1c3c 1814 883b
000001b0: be08 cabd f689 acbd b7e2 a63b 5504 dabc
000001c0: f4eb 193d 7854 443d 3d4f 3b3b 9fc3 4e3d
000001d0: 853c b03c 26de ea3b b9c4 acbc 0b75 2a3d
000001e0: b04d 08bd 65ca 0e3b 5fd0 213d 110e dd3c
000001f0: 60b8 be3b 0a3a 0bbc d40d ad3d 6a0e c9bc
00000200: 0d9f 463d 8bd9 4f3c 9001 2438 5c5b 01bd
00000210: 8fc6 cdba 58da 133d 6fc1 313d 2bbd 11bd
00000220: e30b 233d 802d cabd 1d4a 673c d146 e23d
00000230: 127b 343c 2396 793d 88ba 523d 14cd 46bd
00000240: b355 713c 4dd1 b13a da5f 0dbd a1b9 b2bc
00000250: 38a7 86bd aec2 9b3b 977f cd3c 73de 933c
00000260: 18ca a0bc dac8 4f3d 2dd2 18bc eb9a c2bc
00000270: 8400 883c cb77 31bd e607 30bd 446b 2b3c
00000280: bd38 6fbd 317b 04bc 40d9 f7bd 63bc a3bc
00000290: ba62 d5bd 35d0 9dba 10fd d83d d1d6 c53d
000002a0: 8c75 6bbb 595e fe3c 909d a43c 6736 b4bd
000002b0: 9563 dfbc 8b48 4c3c e0ac b1bb 4b28 03be
000002c0: e402 d4b8 0164 993d 81ae 7e3d 4c16 6bbc
000002d0: 19da a13d d8db cf3d 3b79 ce3c c258 9cbd
000002e0: bb77 06bd a839 483b da35 8ebd 7ebc d6bc
000002f0: 449e f3bb 9b2a 3abd 2188 80bd aaf6 c1bd
00000300: b93b 50bc 8a5c 6d3c e494 d3bc 9a22 1e3c
00000310: 727e ccbb 9db9 bd3c f61a f23c 8587 c1bd
00000320: dbc7 923c 2079 d83c a1c9 8abd 90e8 03bd
00000330: 3000 a23d 5751 933d 376f 3abd 674c 113d
00000340: a113 ae3c cc36 9abd ebbd 223c 73a9 a9bd
00000350: a03d ebbd 854a 9d3c 8aba 70bb 3a25 a93c
00000360: 9f28 93bc e227 aa3d 6a3d 4e3d 3a52 c73c
00000370: 6936 dc3d 8cf9 4a3d f190 1bbd be2e f13c
00000380: 37da 853d e627 7e3d 6d7c 553d c188 a6bb
00000390: 8c2b 35bd 5adb 1b3d 4e31 3a3d b252 fc3b
000003a0: 967f 993c dd3b e83c 9c28 473b 639b 90bd
000003b0: b7a5 1bbd 42bc 3c3d 0620 bbbd e083 eabd
000003c0: 1e68 863d 160e ba3c 97d4 80bd 0e2b 3abd
000003d0: 71f4 8d3d f431 913d f040 91bd 9fb8 de3d
000003e0: 12d9 ae3d a8bb 663a 571b cebd 5de6 dfbc
000003f0: 79c9 3d3a 33d4 233d ae8a ef3c baf0 8dbc
-0.027535515 0.0068078176 -0.037185546 -0.0026596976 0.048651535 0.016222803 0.00036856334 0.03758913
-0.003461281 -0.044164795 -0.02298335 -0.08814864 -0.084595904 -0.022492602 -0.019018244 0.09083822
0.0283372 0.05877695 0.036044482 0.03193991 0.07718016 0.033322122 -0.11840084 0.025698716
-0.057769656 -0.036888227 0.028339453 -0.03714776 0.039057314 0.077438466 -0.002951245 0.06609818
0.060942512 -0.09465103 0.06740851 -0.031925343 0.0035690358 -0.029555276 -0.04613445 0.0005545851
-0.028846873 -0.06587754 -0.004510439 0.04225533 0.04045549 0.06327795 -0.038169105 -0.030518537
0.057109844 -0.027797345 0.010998051 0.07365799 0.049763482 0.025813386 -0.11048974 -0.13553417
-0.109579 -0.033219326 0.03420827 -0.053783298 0.04580842 0.041338235 0.00967129 -0.0026051537
-0.17223251 -0.060389314 0.020261396 -0.068942904 -0.060991 0.014507658 0.066795655 -0.010520335
0.07955454 -0.026905937 -0.0050517833 0.0041741864 -0.12278702 0.037663665 -0.006482241 -0.052873444
0.015439707 0.021916922 -0.017970018 -0.048216186 -0.0021944458 -0.024748085 -0.0748109 0.039423577
0.03078847 0.07064527 0.022064015 -0.053015072 -0.032759238 0.008795536 -0.06848018 -0.028924435
0.10294949 0.10279365 0.049919806 -0.029977119 -0.08068802 -0.06730672 -0.0152892675 0.0073051285
-0.12219497 0.08209386 0.009578935 0.004152786 -0.09864949 -0.084247515 0.0050929445 -0.026613394
0.037578538 0.04793212 0.0028581165 0.050479528 0.021513233 0.0071675954 -0.021089898 0.041615527
-0.033277214 0.0021788117 0.03950536 0.026984246 0.005820319 -0.008497724 0.08449903 -0.024543006
0.048491526 0.012686144 3.9102102e-05 -0.031581268 -0.0015699434 0.0360969 0.043397363 -0.035580795
0.039806258 -0.0987196 0.014116791 0.110486634 0.01101567 0.060934197 0.05144742 -0.04853542
0.014729905 0.0013566405 -0.03451524 -0.02181703 -0.06574863 0.0047534322 0.025085254 0.018050408
-0.019627616 0.050728656 -0.009327454 -0.023755511 0.016601808 -0.043327134 -0.042976283 0.010462586
-0.05840372 -0.008086012 -0.12101984 -0.01998729 -0.10419221 -0.00120402 0.10595143 0.096601136
-0.0035928218 0.031050848 0.020094663 -0.08799439 -0.027269164 0.0124684675 -0.0054222196 -0.1280834
-0.00010109486 0.07489777 0.06217814 -0.014348578 0.07902927 0.10149354 0.025204292 -0.07634117
-0.032829028 0.0030551944 -0.06943865 -0.026212927 -0.007434638 -0.045450788 -0.062759645 -0.094708756
-0.0127095515 0.014487395 -0.025827833 0.009651804 -0.0062406594 0.023159796 0.029553872 -0.094496764
0.017917564 0.026424944 -0.06776739 -0.03220421 0.07910192 0.07193249 -0.04551622 0.035473254
0.021249594 -0.07529983 0.009932975 -0.08284273 -0.114863634 0.019200573 -0.003673228 0.020647634
-0.017963706 0.08308388 0.050351538 0.0243312 0.107525654 0.049554393 -0.037980024 0.029441234
0.06535762 0.06204977 0.052120615 -0.0050822203 -0.044230983 0.038050987 0.045457177 0.0077002877
0.018737596 0.028348858 0.0030389195 -0.07060888 -0.037999835 0.046077974 -0.09136967 -0.114509344
0.065628275 0.022711795 -0.06290548 -0.045451216 0.06931389 0.07089606 -0.07092464 0.108750574
0.085374966 0.00088017667 -0.100638084 -0.027331525 0.00072397996 0.03999729 0.029240932 -0.017326701

Generator.conv4.conv2.0.weight f4 [8, 8, 3, 3, 3]
00000000: 8743 f93c 9141 933e e9d0 95bd 0511 0ebe
00000010: b77a 8ebd 5f0a 0dbc f154 a53d 29ca 4e3d
00000020: b70f 393e 1239 fdbc 3acc 073e 6361 893c
00000030: 46da 453c 532a 4dbd f8c3 87bd 04be d13d
00000040: 5cbd 6f3e 2185 cd3d df05 83bc 8042 213d
00000050: 559e 4bbd b5d3 0bbd a2c1 d5bc 391e 8c3d
00000060: 7364 343d 3a04 073e 92f0 8c3d e660 aebc
00000070: 0445 b5bd 6294 1e3e 1cc9 3e3d 6cfc e83d
00000080: 6e90 b3bc 257d a43d 1b65 8cba 86e1 033b
00000090: 552a 8e3c e8ff 91bd 765b 1a3d d96f 30bd
000000a0: 2ed4 193e 1402 863c ca6e 81bd 5e34 af3d
000000b0: 82f1 ffbd 4395 103d 8bde 143c 9012 44bd
000000c0: b70a 8ebc e300 643c f8c9 f0bd 8712 f73c
000000d0: b42d 2f3e 3d5b 063c 5170 25be 1dbc 54bd
000000e0: 0e3d 3f3e 19d3 16be 2155 10be edfd d5bc
000000f0: e7ee debc d189 093e e923 043e e961 fdbe
00000100: 19e8 f2bd 61d2 043e b37b 22be bca8 7cbd
00000110: 97aa a3bb dd90 8e3d 9f43 cd3d 213e 1a3e
00000120: 360a 8abd 2e6c e9bd bae2 ad3c 89b7 1fbe
00000130: 57f2 9fbd 5d14 2bbd 39bb 8bbc 9bad 703e
00000140: b5fd 1e3e 2138 f9bc e512 1dbd 8043 4e3d
00000150: 08d9 3ebd fcfd bcbc 3c50 83bd c10f cd3d
00000160: 545d 14bd 40cd cbbd 7f65 9ebb 75ff 443d
00000170: 0b37 f6bb 2e80 453d e29d 863d 209f 153d
00000180: e9b2 a0bd 3ac8 d33b 8da0 a1bd 2a61 8a3d
00000190: 4364 8b3c d351 5fbd ac56 343e bc28 a53d
000001a0: 1408 b23c 63aa 93bd 0d47 93bd eb86 bbbd
000001b0: 2fff bfbd 3169 953b ff25 74be f166 8e3c
000001c0: 7140 033e bac7 bfbd 5523 2fbd 190b 9fbd
000001d0: 1019 04be 7ff3 05be 6439 91bd 6327 14bc
000001e0: 4ad8 0dbd 50a1 3cbe d84e a4bd 9bbd 61bd
000001f0: 2d8a f7bd 7c63 893b 399e c1bd be63 8f3d
00000200: 7a7c 1e3e 1835 963c 3721 51be c3fb 07be
00000210: eba5 123d 350f 0bbe 86d9 e7bd 38d6 e13d
00000220: 210c 85bd 2e59 4cbd 855b 18bd 6ab6 e8bd
00000230: 8aae 05be 3842 74bd 3b6d 963d c11e 08bd
00000240: a004 e83d 2a77 e7b9 71c2 25bc 7b77 413e
00000250: 6744 9a3d e540 9c3c 42bd fc3d 7bd4 c43d
00000260: abcb 18bd f664 bebe 9e54 79be df2e 1bbe
00000270: a8aa 22be ca25 8b3d 4ed6 083e a4fd 24be
00000280: 36c2 373d 6f4a a33d f49d 0a3d e9b6 8b3c
00000290: dab9 20be f7f1 14bc 4525 bbbd 37b2 26bd
000002a0: ce03 16bc 0c2c 013d 5e45 173e 94d4 abbd
000002b0: 0929 8cbd b7bb 0fbe 51ff 32be 0516 33be
000002c0: eacb c93c e689 9c3d 4e45 883d 412d 203d
000002d0: ffc0 d2bc 472e 0f3d 1e2e eabd 1236 96be
000002e0: b7ba 2abb 1b14 5ebd b83c 82be b82b fb3d
000002f0: 7300 4bbd 7ee7 c0bc 16c9 24bc c52d 33bb
00000300: 0e29 10bd 03e6 6ebe e379 b6ba 24e1 0bbd
00000310: be93 d9bd d047 1c3a 8403 8b3c 7b3d 10bd
00000320: 4ceb bd3d 517c 82bc 7dd9 9bbd cdca e73c
00000330: 19bc 463d a1a3 3bbd 04e3 a93c 41bd d53d
00000340: a59d a03b 5b76 f93d 8360 a43d e7e7 08bd
00000350: e028 093d beab ec3d 3f1c cd3c 35f1 863c
00000360: 6c47 8bbd 6711 b93d f2e9 aabc 9ada 30be
00000370: 87c4 29be e83f 0f3e 5750 903b f390 a8bd
00000380: 23b5 d53d e011 d4bd 9a09 5b3d e502 c4bd
00000390: 9016 13bc 7802 aabd dc25 853d 3d70 c93d
000003a0: 0d24 4bbd c24b 7a3d f295 38bd dba6 a73d
000003b0: 8eba 98bd 20a0 00bb e8ce da3d 9b82 dd3d
000003c0: b953 3c3d d377 c93c 3cde ad3d 819e 26bd
000003d0: 326e 653d 0b18 e7bd cbba 1dbc e47d 863e
000003e0: 5951 acbc cb42 07be cd27 023d 1641 2a3e
000003f0: b6e0 b53c bbab ab3d 0c2d a73d 723a 0a3d
0.030427707 0.2876096 -0.07315237 -0.1387368 -0.06957 -0.00860843 0.08072842 0.050485764
0.18072401 -0.030911002 0.132615 0.01677007 0.012075966 -0.05008919 -0.06629175 0.10241321
0.23412079 0.10035158 -0.01599401 0.03937006 -0.049711544 -0.034137446 -0.026093308 0.06841702
0.04404111 0.13185206 0.06881823 -0.02128644 -0.08851054 0.15486291 0.04657851 0.11376271
-0.021919455 0.08031682 -0.0010711284 0.0020123436 0.01735417 -0.07128888 0.03768488 -0.043075416
0.15022346 0.016358413 -0.063199595 0.0855491 -0.12497236 0.035298597 0.0090862615 -0.047869265
-0.017339094 0.013916227 -0.117572725 0.030160202 0.17107278 0.008200464 -0.16156127 -0.05193721
0.18675634 -0.14728965 -0.14094974 -0.026122058 -0.027213527 0.13431479 0.12904324 -0.49488762
-0.11860675 0.12970878 -0.158675 -0.061684355 -0.004994701 0.06961224 0.10022663 0.15062763
-0.06740229 -0.11397587 0.021226276 -0.15597357 -0.078098945 -0.041767467 -0.017057048 0.23503725
0.15526469 -0.030422272 -0.038348097 0.05035734 -0.046593696 -0.023070328 -0.06411788 0.100127704
-0.036221817 -0.09951258 -0.0048338766 0.048095185 -0.007513886 0.048217945 0.065730825 0.036528707
-0.078466244 0.006463078 -0.07891951 0.06756814 0.017015582 -0.054521393 0.17611188 0.0806441
0.021732368 -0.07210233 -0.07191286 -0.09156593 -0.09374844 0.004559659 -0.2384262 0.01738307
0.12817551 -0.09364267 -0.042758305 -0.077657886 -0.12900186 -0.13081168 -0.070910245 -0.009042594
-0.034630097 -0.18420911 -0.08022851 -0.055112462 -0.12086902 0.0041927677 -0.09454007 0.07001446
0.15477172 0.018335864 -0.20422827 -0.13279633 0.035802763 -0.1358002 -0.11320786 0.11027187
-0.06496454 -0.049889736 -0.037196655 -0.11362918 -0.13054863 -0.059633464 0.07345053 -0.033232454
0.11329007 -0.00044148538 -0.010117159 0.18893234 0.07532578 0.019073913 0.123407856 0.0961084
-0.037303608 -0.37186402 -0.24348685 -0.15154599 -0.15885413 0.06794317 0.13363001 -0.16112381
0.04486295 0.079731815 0.033842042 0.017054992 -0.15695897 -0.009090892 -0.09137968 -0.040697303
-0.009156181 0.031536147 0.14772555 -0.083901554 -0.06843764 -0.14036451 -0.17480208 -0.17488869
0.024633367 0.076434895 0.06653844 0.039105657 -0.025726793 0.034956243 -0.114345774 -0.29338127
-0.0026051232 -0.054218393 -0.2543695 0.12264198 -0.049560975 -0.023547884 -0.010057708 -0.0027340513
-0.035195403 -0.2332993 -0.0013921823 -0.034150258 -0.10623883 0.00059616286 0.01696945 -0.035214882
0.09273395 -0.01592842 -0.07609842 0.028294945 0.048519228 -0.045810346 0.020738132 0.10436488
0.004901605 0.12180778 0.08026221 -0.033424284 0.033486247 0.11556195 0.025037883 0.016472438
-0.06800732 0.09036522 -0.020863507 -0.1727089 -0.16578875 0.13989222 0.0044041085 -0.08230772
0.1043494 -0.10354972 0.053475954 -0.095708646 -0.008977547 -0.08301252 0.06501362 0.09835861
-0.049594928 0.061107405 -0.045064874 0.08186122 -0.074574575 -0.0019626692 0.106839955 0.10815927
0.04597828 0.02459327 0.084896535 -0.040678505 0.056013294 -0.11283883 -0.009627054 0.26267922
-0.021034883 -0.13209073 0.03177624 0.16626391 0.022201877 0.08382364 0.08162889 0.033747144
