DeepWonder3D_pytorch/pth/SEG_pth/Unet4_no_end_UNet3DFFD_20240401-1432_2um/seg_207.pth (torch, 138281 bytes, 19 tensors)

Generator.conv1.conv1.0.weight f4 [8, 1, 3, 3, 3]
000000 0c 22 e8 3d 2d cd ca 3d f0 d1 63 bd 20 9e 10 3e
       0.11334619 0.099024154 -0.055620134 0.1412282
000010 ca ce f7 bd 1f 8c fc bd da 3b fd 3a 36 75 4c 3a
       -0.12099989 -0.123314135 0.0019320205 0.0007799448
000020 51 12 cb 3d 31 61 1d 3d 90 18 22 be 80 46 b8 3d
       0.09915603 0.038422767 -0.15829682 0.08997822
000030 80 18 02 3e c8 04 dc 3d 16 4d 11 3d a0 81 40 be
       0.12704659 0.107430995 0.035473906 -0.18799448
000040 a4 f7 b6 3d e0 4d 50 be 01 6c e3 bd 55 39 e6 bd
       0.089339525 -0.20342207 -0.111045845 -0.11241404
000050 83 2c 70 bd 2e d4 08 3d b5 c1 4f bd d8 70 73 3d
       -0.0586362 0.033405475 -0.050721843 0.059433788
000060 f0 03 5d be af ce ce 3c db d9 1f 3e 20 db 1f 3e
       -0.21583533 0.025245039 0.15610449 0.15610933
000070 2a 9e 1e 3e 3a ae 77 3c d2 e0 ae 3d 18 34 09 be
       0.15490022 0.015117222 0.08538975 -0.13398778
000080 65 da 3a be 0c a3 0c 3e dd f4 b1 3c 6e 99 a4 bd
       -0.18247373 0.13734072 0.021723205 -0.08037077
000090 f6 17 eb bd 1f dd 20 3e 37 6e 32 bd e7 9c 04 be
       -0.114791796 0.15709351 -0.04356214 -0.12950478
0000a0 26 90 9e bd 37 82 06 3c 06 6a 48 be 35 0a 5a be
       -0.07742338 0.008209757 -0.19571695 -0.21292956
0000b0 b2 49 92 bc fe 74 f5 3d 3c 99 07 3d 16 2c 53 3e
       -0.017857406 0.11985205 0.03310512 0.20622286
0000c0 4b 17 31 3e ee 14 b2 bd 06 cc 24 3e 10 f0 bc 3d
       0.17294042 -0.08695398 0.16093454 0.09225476
0000d0 f2 ec 01 be e4 22 9d bd b7 4c 8a 3d d3 79 1c bd
       -0.12688044 -0.076726705 0.067529134 -0.038202118
0000e0 81 ee ee bd 52 33 ee 3c 8e 22 cf 3d aa 59 a5 bb
       -0.11666585 0.029077206 0.10114013 -0.005046089
0000f0 27 10 29 be 89 8b ef bd 26 61 7e bd e9 d2 14 3d
       -0.16510068 -0.11696536 -0.062104367 0.036333952
000100 89 59 c4 3d 3e a4 90 3c bf 79 36 bd b1 64 1e 3d
       0.0958739 0.017656442 -0.0445497 0.038670246
000110 aa 69 94 3d 77 00 59 3d d1 5a d4 3a 7d 46 04 3c
       0.07246716 0.05297896 0.0016201382 0.008073446
000120 01 b4 20 be 2d 12 36 3d 3b 05 40 3d aa af 30 ba
       -0.15693666 0.044450928 0.04687999 -0.0006740043
000130 08 8c 88 bd 07 38 bf 3d ce 05 c2 be 67 da 82 3c
       -0.06667334 0.09336858 -0.37895054 0.015973283
000140 75 fa 7d be 5a ee ba bd 32 3b 19 be 0c ca 1f 3e
       -0.24802573 -0.09127493 -0.14963987 0.15604419
000150 5c df 4a be ac 2b 96 bd 4b 84 b5 bc f5 a4 a4 3d
       -0.19811767 -0.073325485 -0.022157809 0.080392756
000160 fe de ea bd 22 6a 60 3d ee 29 54 be 71 42 74 bd
       -0.11468314 0.054788716 -0.2071912 -0.059633676
000170 1b d3 d6 3c 04 99 d0 3d 47 16 4b be b0 b6 27 be
       0.02622371 0.101854354 -0.19832717 -0.16378284
000180 9d 38 16 bd 9c a4 ff 3d 47 0c b2 3d 64 e8 60 bd
       -0.036675084 0.124825686 0.08693748 -0.054909125
000190 ca 7a 80 3d 30 6e b9 3d 09 28 84 bd 67 a3 6f 3d
       0.0627342 0.0905422 -0.064529486 0.058505442
0001a0 db 09 a1 3d 67 b8 7c 3c bb 70 27 be 21 da 63 be
       0.07863208 0.015424824 -0.16351597 -0.22251178
0001b0 55 73 2a 3e b8 c2 2b be 9c 43 73 bd da 94 01 be
       0.16645558 -0.16773498 -0.05939065 -0.12654439
0001c0 d8 48 0f bd dc 7b 11 3c c1 0e 16 bd c9 b1 76 3d
       -0.03498158 0.008879628 -0.036635164 0.060228143
0001d0 a5 1a 25 3d da cd d4 ba 93 05 b2 3d fb bf 46 be
       0.040308613 -0.0016235665 0.086924694 -0.19409172
0001e0 d5 04 4e bd f9 3f 25 bd 48 da 93 bb 6a 07 ec 3d
       -0.050297577 -0.040344212 -0.004512105 0.115248516
0001f0 0c 9a 94 3c 6e f2 fa 3d ce 5d 3b be 5b 13 7f 3d
       0.018139862 0.12253271 -0.18297502 0.06227432
000200 4a 30 cf 3d 60 b4 ca 3d 91 0a fb 3c 78 67 e0 bd
       0.10116632 0.09897685 0.030644687 -0.10957235
000210 00 aa 19 be de 0e ad bd 36 fc d3 3d 2d df 14 3d
       -0.15006256 -0.08450101 0.1035084 0.03634565
000220 7e 94 db bd 30 4b f8 3d e9 e8 e0 3d 4c 2c 8d bd
       -0.10721682 0.12123716 0.10981924 -0.068932146
000230 a4 97 03 be 0e fa 3d be 83 ce 38 3e a6 79 97 3c
       -0.12850815 -0.1855242 0.18047528 0.018490624
000240 5a 3b a9 bd 8b 15 3e be bd 5a 81 3d 3f d2 c5 3d
       -0.082632735 -0.18562905 0.06316135 0.09659242
000250 d0 bd 2c be 36 3b 58 be cc 44 98 bd b7 b4 9a 3d
       -0.16869283 -0.21116337 -0.07434997 0.07554
000260 db 12 19 3e ea 13 ea bc a1 14 14 bd a7 1a f8 3d
       0.14948599 -0.028573949 -0.036152486 0.121144585
000270 05 aa c1 3c 2d 37 2b 3e 12 62 ac bd 55 48 5f 39
       0.023640642 0.16720267 -0.08417143 0.00021293883
000280 a5 8f 31 bd 6c f9 48 3e 57 2a 5c be c6 16 28 3e
       -0.04334988 0.19626397 -0.21500526 0.16414937
000290 d2 29 a2 bd ed d7 ae 3d a5 a1 8e 3b d4 f5 46 bd
       -0.07918133 0.08537278 0.0043527656 -0.048574284
0002a0 06 b0 f9 3c 72 a5 ab bc 85 59 6a 3d d9 4a 71 3d
       0.030479442 -0.020952914 0.05721428 0.05890927
0002b0 be 23 89 bd 84 fb 66 3e 05 85 52 be 37 17 a8 bd
       -0.066962704 0.22556883 -0.20558555 -0.08207553
0002c0 9c 54 c5 3c 45 82 67 bd 7f d2 f4 3d 06 8e 33 3d
       0.024088196 -0.05652072 0.119542114 0.043836616
0002d0 8f 6c 95 bd b3 10 56 bd 37 4c d2 3d 55 2e 14 be
       -0.072960965 -0.05226202 0.10268443 -0.144708
0002e0 7a 02 58 3d ae 11 d2 3d d5 ed 00 be 98 93 0d bb
       0.052736737 0.102572784 -0.12590726 -0.0021602865
0002f0 68 af 23 3e 05 80 54 bd b4 54 06 3e 18 96 95 3c
       0.15984881 -0.0518799 0.13118249 0.018260047
000300 62 c1 21 3d 2c 6a de 3d 0e 09 55 be 5f fe 8f bd
       0.039491065 0.108600944 -0.20804235 -0.07030939
000310 e7 14 95 3b ea e9 ff 3d 2b 7e 11 bd 8e 9c 98 bd
       0.004549611 0.124957874 -0.035520714 -0.074517354
000320 cd 28 46 bd 81 a3 51 be 52 63 0f 3e b8 fc bc bd
       -0.048378754 -0.20472528 0.14002731 -0.0922789
000330 41 24 b2 bd 71 46 2f 3e 90 6f d8 3c 40 ba 91 bd
       -0.08698321 0.17116715 0.026420385 -0.071156025
000340 0d b1 ed bc a5 90 40 bc 0d ab 5c be e0 23 c8 3d
       -0.029015088 -0.011753236 -0.21549626 0.097724676
000350 91 a6 d8 bd 40 d7 3d be 21 87 a7 bd b7 f3 d6 3d
       -0.10578645 -0.18539143 -0.08180071 0.10495704

Generator.conv1.conv2.0.weight f4 [8, 8, 3, 3, 3]
000000 19 9d ff 3d a5 9b 46 3d a2 7b 7d 3d aa 4e 31 bb
       0.12481136 0.048488278 0.061885484 -0.0027054944
000010 3b 46 41 bd 41 36 00 3d 9a e7 39 3e cd 09 13 3e
       -0.047186118 0.03130174 0.18154755 0.14359207
000020 17 f1 95 3e ef fb 5c 3c c4 e4 72 3c 5e 5a fb 3c
       0.292855 0.0134878 0.01482505 0.030682739
000030 4a 17 21 3d a0 18 c5 3d 50 db 02 bc b7 07 92 3d
       0.03932885 0.096238375 -0.0079868585 0.07130378
000040 75 7c 63 bc d9 d0 04 3e ff 95 f4 3c dd 55 10 3e
       -0.013884653 0.12970294 0.02985668 0.14095254
000050 10 7c 09 3e d6 50 ff 3d 3f ae 1f 3e 3b 5d 0e 3e
       0.13426232 0.1246659 0.15593813 0.13902752
000060 4d be 0f 3e a9 72 20 3e 5f 28 36 3e 2d 58 13 be
       0.14037438 0.1566874 0.17788838 -0.14389105
000070 1a d5 5e bd b2 2c 29 be 5d 51 84 bd c5 8c 30 bd
       -0.05440245 -0.16520956 -0.06460831 -0.043103
000080 15 f4 4b be 4c 58 cc bc d7 aa 8b 3d 3d 32 aa bd
       -0.19917329 -0.024944447 0.068196945 -0.083103634
000090 c8 14 f8 bd 36 36 27 3e f8 69 44 be e4 24 7d bd
       -0.12113339 0.16329274 -0.19181049 -0.06180276
0000a0 b1 07 f2 3d 99 2e d4 be 08 3a 3d bd f4 73 8c 3d
       0.11817873 -0.414418 -0.04619792 0.06858054
0000b0 42 a1 bc 3c 37 80 fe 3c 6e 1f 4e 3e 8e 35 99 be
       0.023026112 0.031066997 0.20129177 -0.2992367
0000c0 3d 03 82 bd a5 d4 04 3e d2 b1 cf be 7b 1e bd bd
       -0.06348274 0.12971742 -0.40565354 -0.09234329
0000d0 0e 16 a5 3c 42 38 fe 3b e5 38 cc 3d 77 20 b5 3c
       0.020152118 0.0077581713 0.09971789 0.022110207
0000e0 e7 2c f0 3c 49 29 f8 bb 05 54 73 bd ff fb ae bc
       0.029318286 -0.007573281 -0.0594063 -0.021360395
0000f0 a2 a7 61 3d 6a 88 8d 3c 4c 2d 25 bd a4 3d 1f 3e
       0.055091508 0.017276961 -0.0403264 0.15550858
000100 8d 8f 52 3c 1e 0e 86 3c 71 63 5d 3c 01 7c 12 3d
       0.012851608 0.016364153 0.013512478 0.03576279
000110 3c cf e6 3d 8f de f9 3d 52 ca 30 3d bf 07 5a 3d
       0.112699956 0.12200653 0.043161698 0.053230044
000120 50 79 74 3d 58 88 fd 3b b4 5e cb 3d 72 7c b0 bd
       0.059686005 0.0077372007 0.099301726 -0.08617486
000130 5b 9d 0b 3b bf 2c d2 3c 35 c7 be 3d c0 28 ca 3d
       0.0021303508 0.025656102 0.093153395 0.09871054
000140 2a c4 7c 3d e0 56 c4 bc 45 59 7d 3d 17 fb 29 3d
       0.061710514 -0.023967206 0.061852712 0.041499224
000150 ac 62 0f 3e 73 63 06 3b ae 29 ce bb 4d 07 06 3c
       0.14002484 0.0020506054 -0.0062915897 0.008180452
000160 c0 52 23 bd 1f d0 0e 3c 81 7a aa 3c 5e c8 91 3c
       -0.03987384 0.008716612 0.020810368 0.017795738
000170 32 9a 2e 3d 30 9e 3a bd 79 60 72 3c 6c 21 6b 3d
       0.04262752 -0.045561016 0.014793509 0.05740492
000180 34 27 0f bd 8b ba be 3c 90 e7 e5 3c aa c6 88 3d
       -0.034949496 0.02328231 0.02806452 0.06678517
000190 0a 7e 3d bd 4e 2c 47 bd a6 46 fe bb c2 67 1c 3d
       -0.04626278 -0.048626237 -0.007759887 0.03818489
0001a0 55 41 55 3d a2 02 f8 3c 4e 68 1d 3d 85 f8 9c 3c
       0.05206426 0.030274693 0.03842955 0.019161472
0001b0 22 0a ce 3c c4 08 26 be bb 22 02 be 82 18 43 bd
       0.025151316 -0.16214281 -0.12708561 -0.047630794
0001c0 3c ff 30 3b 7d 7a 0a be 31 a7 a8 3c df 5f 5e 3c
       0.00270076 -0.13523288 0.020587536 0.013572662
0001d0 e8 d7 51 3d 90 b9 6f bd 77 20 0e 3d 9f ae 03 3e
       0.051231295 -0.058526576 0.03469893 0.12859581
0001e0 dc 00 a7 bc 36 3c a4 3d eb 9b db 3d 88 f2 9d bd
       -0.020386152 0.08019297 0.10723098 -0.07712275
0001f0 ad a8 f9 3d 7a 67 f9 3d 5a cb af bd 3b 8e 36 3e
       0.121903755 0.1217794 -0.08583708 0.17827694
000200 a5 0a 01 3e 80 4e 58 bd aa c3 20 3e 8a 45 31 3b
       0.12601717 -0.05280924 0.1569964 0.0027049505
000210 6a 6a 7e be bd 27 f7 3d c3 db e9 3c e7 21 f7 3b
       -0.24845281 0.12068126 0.028547173 0.0075418833
000220 1b 48 44 3e 4a d4 85 3d 79 58 35 bd b4 5d 24 3d
       0.19168131 0.065346316 -0.044273827 0.040128425
000230 55 c7 81 bd 5d 3c 13 3d 37 f5 2d be 02 49 89 bd
       -0.06336848 0.03594624 -0.16988073 -0.06703378
000240 c4 42 2a be ad ba 43 3e 67 fd a4 3d 35 49 af bd
       -0.16627032 0.1911418 0.08056145 -0.08558885
000250 6c 91 9f 3d 9b cf 48 bc 01 52 80 bc 7a dc da bc
       0.07791409 -0.012256528 -0.015664103 -0.02671646
000260 13 07 e2 bd 2b aa 2d bd 32 15 53 3e 93 ad 07 3e
       -0.110365056 -0.042398613 0.20613554 0.13249807
000270 29 53 34 bd 95 9f 3b 3e e8 b5 b2 3d ea e6 ea bd
       -0.04402462 0.18322594 0.08726102 -0.114698246
000280 36 8b 65 bd 04 37 8d bc 6d 2a 7d 3d 6a 88 db bd
       -0.056040965 -0.017238148 0.06180804 -0.10719378
000290 31 bc 08 be b6 94 77 3d ef ac 8f bd 68 76 99 bd
       -0.1335304 0.060444556 -0.07015406 -0.07493287
0002a0 bf e2 02 3e bc bc 26 be 0e 8c 57 3a c1 f0 47 3d
       0.1278181 -0.16282934 0.0008222469 0.048813585
0002b0 52 a9 26 be 18 5b a8 bc 15 ae e2 3c 10 2a 68 bc
       -0.16275528 -0.02055125 0.0276709 -0.014170185
0002c0 3f f4 8e bd 08 14 54 bd ef 34 1a be d7 4f 8e bc
       -0.0698018 -0.051776916 -0.15059255 -0.017372055
0002d0 7e 4b 26 3d 0d d9 42 bd 63 7f e2 3d 15 9d 72 bc
       0.04059934 -0.047570277 0.11059453 -0.014807959
0002e0 5c 20 c7 3d 3b d0 af 3d 35 5a 96 bd 3f 7c a5 be
       0.09722969 0.08584639 -0.073414244 -0.32321355
0002f0 62 2f 0f bd 26 6e 9f 3b e0 4a 90 bd f3 b2 8a 3b
       -0.034957297 0.0048654256 -0.07045531 0.004232758
000300 3a df 60 3d f7 4f e8 3c 82 74 37 3d 3a 14 6f 3d
       0.054900385 0.028358443 0.044788845 0.0583689
000310 9f 8e 8d bd d3 9b 2e 3c f5 e8 37 3c 22 ea 76 be
       -0.069119684 0.010657269 0.011224975 -0.24112752
000320 19 8a 63 3d 75 a3 eb 3b 01 be 44 be 5f 89 ea 3d
       0.055551622 0.0071911165 -0.19213106 0.11451983
000330 2b 9b b9 3d b7 a5 89 be cd 9d 86 3d ff 94 db bd
       0.09062799 -0.26884243 0.06573067 -0.10721778
000340 27 22 a3 3d f6 c4 20 be 59 e5 1c be cc b3 0c 3e
       0.079654984 -0.15700135 -0.15321864 0.13740462
000350 d8 dc 1e be 99 fa 61 be 8b d6 67 3d 90 ad f8 bd
       -0.15513933 -0.22068252 0.05660109 -0.121424794
000360 d7 c6 4a 3e 61 ca 7a 3e 0a 1a 8a 3e ef e3 66 ba
       0.19802414 0.24491264 0.2697299 -0.00088077685
000370 66 a5 93 3d f6 2a 01 3e 86 d0 92 3e 02 29 94 3e
       0.072092816 0.12614045 0.28674716 0.28937536
000380 3a 01 89 3e 62 e7 01 3e 74 cb 7a 3d d5 3e 3c 3e
       0.26758748 0.12685922 0.061229184 0.18383344
000390 44 0f 03 3d be fb 89 3d b1 bb 5f 3d 4b da 8c 3d
       0.03199698 0.06737469 0.054622356 0.068775736
0003a0 f9 54 90 3a 3a ee 99 3d 7c 8b 90 3d a3 43 bf 3d
       0.0011011652 0.07516141 0.070578545 0.093390726
0003b0 83 64 df 3c d4 45 cd 3d 84 82 a8 3d a9 37 a8 3d
       0.027269607 0.10023084 0.08228019 0.08213741
0003c0 b8 00 8e 3d 34 6e 82 3b 13 41 d6 3d 00 9e 9d bd
       0.06933731 0.0039804224 0.10461631 -0.07696152
0003d0 a4 57 53 bd f0 d7 3f bd 25 45 4f bd 6a 2a b1 bd
       -0.051597252 -0.046836793 -0.05060305 -0.08650668
0003e0 47 2f d7 3b 23 4b da 3c 1f 29 ac 3b 8b d7 56 3b
       0.006566915 0.026647156 0.0052539255 0.0032782282
0003f0 f5 03 9e 3d 60 be 60 bc 09 f7 90 bb c3 cb 99 3d
       0.077155985 -0.013717264 -0.00442398 0.075095676

Generator.conv2.conv1.0.weight f4 [8, 8, 3, 3, 3]
000000 fc 94 ad 3d ca 96 96 bb 97 3a da bc 8c 39 75 3e
       0.08475682 -0.004595612 -0.026639266 0.23947734
000010 81 64 bf 3d 05 52 93 bd 4d b9 3a be 3e ff 08 39
       0.093453415 -0.07193378 -0.18234749 0.00013065056
000020 5b 38 87 3d 54 2e 9a bd 53 df 2b bd 39 6c de 3a
       0.06602546 -0.07528368 -0.041961025 0.0016969509
000030 be e3 ad bd 88 29 e5 3b 84 1a ca 3c 63 03 12 bd
       -0.08490704 0.0069934763 0.024670847 -0.03564776
000040 4c 92 99 bd 2d db a7 3d 3f 8c 86 3c 8b b5 62 bd
       -0.07498607 0.08196101 0.016424296 -0.055348914
000050 19 dd 90 bc b5 7c c5 bb bf e7 34 bd ac 74 10 3d
       -0.017683553 -0.006026829 -0.044166323 0.035267517
000060 fa e6 be 3c 72 25 9f bc 07 b5 82 3d 79 c5 4b 3d
       0.023303498 -0.019427035 0.063821845 0.04974887
000070 01 9a 04 bd 50 b1 5d bd 94 78 63 3b 23 df 04 bc
       -0.032373432 -0.054124177 0.0034709321 -0.008109841
000080 73 e6 0f bd 64 b2 69 3d c0 a1 95 3d a8 1b 00 3c
       -0.035131883 0.057054892 0.07306242 0.007819094
000090 ba 83 20 be 5d 6e 09 be 73 44 a2 bd b5 b7 ba bd
       -0.1567525 -0.13421007 -0.07923212 -0.091170706
0000a0 91 2b 82 bd b1 7e 7e bd b1 c7 d6 3d dd 53 2c bc
       -0.06355966 -0.06213254 0.10487307 -0.010518041
0000b0 65 a3 f5 bc 88 b8 41 bd 74 6d 77 bd 6b b0 27 be
       -0.02998514 -0.047295123 -0.060407117 -0.16375892
0000c0 03 39 8c 3b 0d 3c 7a bd da 1f cb bd c5 55 a9 3d
       0.0042792573 -0.061092425 -0.099181846 0.08268312
0000d0 c6 a9 40 bb 8b ca 66 bd a1 85 fb 3b ca 11 a4 3d
       -0.0029398068 -0.056345504 0.007675842 0.080112055
0000e0 1e 21 24 3e 73 0f 1a 3d 31 d9 ee 3c 46 68 43 3e
       0.16028258 0.03761239 0.0291563 0.19082746
0000f0 9d 03 0f bd 64 06 38 bd 19 85 17 3d a6 6b c7 bd
       -0.034915555 -0.04492797 0.036992166 -0.09737329
000100 fa c1 e6 3c f9 2a 65 3d 8f ca 49 bd 4c 87 a4 3b
       0.028168667 0.055949185 -0.04926544 0.0050210115
000110 49 c5 aa 3d 81 b4 32 be 67 05 01 bd b9 ea 05 3d
       0.083384104 -0.1745167 -0.031499293 0.032694552
000120 2f 39 a3 bd 17 aa 07 b9 7d c8 a0 3d e1 39 d7 bd
       -0.07969891 -0.00012937967 0.0785074 -0.105090864
000130 70 72 92 3d f9 a9 04 3e b6 3a e0 bd 88 1c 7a bd
       0.071507335 0.12955464 -0.10948698 -0.061062366
000140 86 20 84 3d e9 69 9e ba 7d 1c f8 bc f9 06 4f 3d
       0.06451516 -0.0012086007 -0.030287022 0.05054376
000150 5f fe dc bd be 31 8d bd 22 2b 4f bc 8e c9 60 bc
       -0.10790705 -0.06894253 -0.012644561 -0.013719929
000160 18 0e 18 bd e2 61 b9 3d 7d 87 28 3e 2d 01 5f 3b
       -0.037122816 0.09051873 0.16457935 0.00340278
000170 47 3d 88 3d 46 c2 e9 3c 91 7b be bc 5d 22 66 3c
       0.06652313 0.02853502 -0.02325228 0.014046279
000180 c8 63 2b 3c e3 c1 61 bd d9 5a 04 3d 93 16 87 3c
       0.010460801 -0.055116545 0.0323132 0.016490256
000190 19 14 4d 3c 4b 73 93 bc 5d d1 d8 bd 16 30 22 bd
       0.012516999 -0.017999312 -0.10586808 -0.03959664
0001a0 a8 78 82 3d 6d 64 81 bb d0 f4 29 bd bd e7 75 3c
       0.063706696 -0.0039487393 -0.041493237 0.015008864
0001b0 05 12 6e 3d 63 a4 51 3d 10 4a 10 bd 6a 74 6b 3c
       0.058122654 0.051182162 -0.03522688 0.014371017
0001c0 c2 d9 d7 bc 38 90 c8 3c 0f a1 3e bc a6 b6 b3 ba
       -0.026348952 0.024482831 -0.011635079 -0.001371105
0001d0 54 41 e4 3c 83 af 07 3d 19 fb 49 3c ac bd 81 3d
       0.027863182 0.033126365 0.012327933 0.06335005
0001e0 53 71 68 3d ae 18 95 3d d4 44 a8 3d 14 04 9e 3d
       0.0567487 0.07280098 0.08216253 0.077156216
0001f0 87 16 9f bc 15 fb e6 3d f8 93 21 bd 30 dd b1 3b
       -0.019419922 0.11278359 -0.039447755 0.005427979
000200 24 b0 82 3d 8e db 70 bd 1a d3 00 3d a8 d3 7f 3d
       0.063812524 -0.058803134 0.031451322 0.06245771
000210 ba e4 7f 3c 04 9b 0e bd 42 84 64 bd 94 d6 06 bc
       0.0156184975 -0.034815803 -0.055790193 -0.00822987
000220 c7 da c3 3d 31 5c 29 3d 1d 78 62 3b 90 b3 b8 3d
       0.09563213 0.041347686 0.0034556456 0.09018624
000230 b5 8b 94 3d 0e 20 6c bc c0 cd 82 bd e1 96 c4 bc
       0.072532095 -0.014411939 -0.063869 -0.023997726
000240 d4 49 39 bd 47 67 85 bc 32 82 52 bc 98 cf 95 bd
       -0.045236424 -0.016284598 -0.012848424 -0.07314986
000250 64 51 94 bd 6b 2b 40 bd 74 33 88 bd c6 13 d7 bd
       -0.072420865 -0.046916407 -0.06650439 -0.10501818
000260 29 16 6b 3d 92 85 81 bd 90 2c 1f bd b5 27 a3 bc
       0.05739418 -0.06324305 -0.038860857 -0.019916395
000270 4b c3 ec bd b5 85 24 bd b5 d8 cc bd a6 46 1d be
       -0.11560687 -0.040166575 -0.10002271 -0.15358981
000280 56 84 42 be be 29 d1 3d f6 cf a1 3d c2 d7 8b 3d
       -0.18995795 0.1021304 0.079009935 0.06828262
000290 ba 1f a2 3d 8f 7d 99 3d 7e 02 1d 3c 2c 90 f3 3c
       0.079162076 0.074946515 0.009583114 0.029731832
0002a0 ad 2c 1e 3c e2 02 b3 3d f9 ae b8 3c 40 da a1 3c
       0.009654206 0.08740784 0.022544371 0.01975739
0002b0 d7 30 36 3a 1e 42 b3 bb 0d 71 74 3d 15 a7 a5 3d
       0.0006950027 -0.0054705283 0.059678126 0.08088509
0002c0 94 ba c8 3d 59 ab b5 3d 30 85 34 3d 55 ec 90 3d
       0.09801212 0.088705726 0.04407233 0.07076327
0002d0 61 d6 6a 3d 62 1d fc 3a 9c f8 a9 bc 9b d1 5e bd
       0.057333354 0.0019234831 -0.020748429 -0.054399114
0002e0 94 10 65 3d 42 5f a4 bc 7e aa 04 3d ce cc 78 bd
       0.055924013 -0.020064954 0.032389157 -0.060742192
0002f0 dc 7f 80 3c af 15 33 bc 2d ae c5 bc 69 0c 2f 3d
       0.015685968 -0.010930463 -0.024130905 0.042736445
000300 9e 6f 85 bd 50 31 5e bd 40 7f 68 3d 9d 18 e4 bd
       -0.0651543 -0.054246247 0.05676198 -0.11137507
000310 b3 81 92 bd b9 80 40 bb 59 fc 16 bd d9 ee 86 bd
       -0.071536444 -0.00293736 -0.03686175 -0.06588525
000320 2e 3f f9 3b 38 4c b4 bd 66 93 23 bd 8c 42 1c 3d
       0.0076064086 -0.088036 -0.039935492 0.0381494
000330 66 47 91 bd dd 80 af bd a3 7e c7 3d 00 37 ac bd
       -0.07093696 -0.085695006 0.09740951 -0.08408928
000340 9a 93 84 bd 7e 37 f0 3c f7 e8 b7 bc 7f 77 3b 3b
       -0.06473465 0.029323336 -0.022449953 0.002860516
000350 af 59 4f 3d a2 c9 b6 bd 5d 5a 70 bd ea fc d3 3c
       0.05062264 -0.08925177 -0.058679927 0.025877435
000360 df 6b d4 bd 76 e4 0a be 15 de 15 3e dd 0a ca bd
       -0.10372137 -0.13563713 0.14635499 -0.09865353
000370 46 f2 e8 bb 71 73 08 3d 99 fe 82 3d 36 a2 17 bd
       -0.0071089594 0.03331322 0.06396217 -0.03701993
000380 52 24 11 3e f4 6a 32 bd 5c dc ca bc b8 b9 64 3d
       0.14174011 -0.04355903 -0.024763279 0.055841178
000390 20 ca c0 bc d1 be 73 3c e4 93 20 3d e4 a0 40 3d
       -0.02353388 0.014877037 0.03920354 0.047028437
0003a0 42 eb a8 3d 86 92 9e 3c 88 83 4c 3c d4 06 bc bd
       0.08247997 0.019356977 0.012482531 -0.0918099
0003b0 b1 de cc bc f5 c6 8b 3d 33 59 b5 3b c5 5e 63 bc
       -0.025008531 0.068250574 0.005534315 -0.013877575
0003c0 80 df 88 3d 45 c3 bb 3d 03 2d aa 3c c2 1e 00 bd
       0.06683254 0.09168104 0.020773416 -0.031279333
0003d0 55 47 82 bb 70 6c 84 3c a9 4e 82 bd 73 5e 34 3d
       -0.0039757886 0.016164988 -0.063626595 0.044035386
0003e0 49 75 09 3d ba 28 4f 3c 59 34 1b 3d e5 bd bc bc
       0.033559117 0.012643987 0.03789172 -0.023039768
0003f0 cb 63 01 be ac 96 f3 bd 83 dd 8c bd 32 44 ae bd
       -0.12635724 -0.11893973 -0.068781875 -0.08509101

Generator.conv2.conv2.0.weight f4 [8, 8, 3, 3, 3]
000000 1f 1b 99 3d 0d 22 61 bd d7 e9 41 3c 0d db 8e 3d
       0.07475876 -0.054964114 0.011835537 0.06975374
000010 6a 33 b3 3d 12 21 83 3d 03 bc 45 3d 9a 54 6b 3d
       0.08750041 0.06402792 0.048275005 0.05745373
000020 c5 2e e9 3d b1 74 e1 3d e5 46 2f bc 5c 13 6d 3d
       0.11385874 0.11008585 -0.010698055 0.05787979
000030 3c c9 a6 3c 9a 23 42 3c 7e af 20 bd d7 b1 94 3d
       0.020359628 0.011849308 -0.039229862 0.07260483
000040 38 42 2a bd 10 8b f5 3c 66 b6 0e 3c 90 c0 83 bd
       -0.041567057 0.029973537 0.008710479 -0.06433213
000050 88 31 20 bd 1c 36 4a 3d 54 59 b9 bd f9 10 af bd
       -0.039109737 0.04936801 -0.09050241 -0.08548159
000060 4a 59 bf bd 0b 9f 12 bd 33 29 36 bd 95 14 dc 3d
       -0.093432024 -0.035796206 -0.044472884 0.10746113
000070 ba 1f b4 3d e2 04 26 3c c9 f3 55 3d 11 f8 bf 3d
       0.08795114 0.010133 0.052234445 0.09373487
000080 55 64 2b 3e 5c 10 91 3d 9a 0d 66 3d 78 2b d2 3d
       0.16737492 0.070831984 0.056165315 0.10262197
000090 0b 8c 8d 3d 58 3a 75 3c bd 43 e7 bc 1c 94 db 3b
       0.06911477 0.0149675235 -0.028230542 0.0067010056
0000a0 74 4b c0 3d 31 da 21 3d be 02 91 bb 04 06 22 ba
       0.093893915 0.039514724 -0.0044253757 -0.0006180706
0000b0 b0 5a dc 3d 89 5e eb 3a 45 51 64 3d 86 54 91 bc
       0.10759485 0.0017957251 0.055741567 -0.0177405
0000c0 34 cc 1c 3d 1c 5a 06 3d bc fa 16 3d ec 2c e5 bc
       0.03828068 0.03280078 0.036860213 -0.027975522
0000d0 ea 39 8e 3d fa 42 1a 3d b1 c1 61 3e 6a c8 aa 3d
       0.0694464 0.03766153 0.22046544 0.08339007
0000e0 63 35 3c 3d ff 67 0a bd 0d b5 e2 bd 36 bd d9 bd
       0.04594935 -0.033790585 -0.11069689 -0.10631792
0000f0 cb 88 72 3d 18 6a 54 bb 0f 5d 6b bd 32 e2 cb bb
       0.059212487 -0.003241187 -0.057461794 -0.006222033
000100 f2 64 e3 bd be e7 86 bb 44 e9 df bd b5 24 ea bd
       -0.11103238 -0.0041169813 -0.10933164 -0.114327826
000110 6b cf 46 be 50 c7 f4 3c 7f b2 c2 b9 25 bc 25 be
       -0.19415061 0.029880196 -0.00037135553 -0.16185053
000120 31 b3 a0 bc 32 f5 82 bd 76 c0 03 3e d0 46 a4 bd
       -0.019616695 -0.063944235 0.12866387 -0.08021319
000130 98 45 1f be 6a ec ca bb 39 7c a8 3d 68 0f 07 3d
       -0.15553892 -0.0061927335 0.082268186 0.032973677
000140 d6 e3 f6 bc 32 72 a3 3d 60 c0 97 3d 7e 71 0b 3e
       -0.030137938 0.079807654 0.074097395 0.13617513
000150 45 59 8b 3c 5c 34 26 3d 61 16 12 3c f1 5f c6 3d
       0.01701034 0.040577278 0.008916468 0.09686268
000160 17 b6 48 3c ac fa fd 3a c5 78 1c 3e 2d ba ad 3b
       0.012250445 0.0019377074 0.15280445 0.005301735
000170 55 92 93 3d 37 6f 84 bc 2a 19 d4 bd 2a 59 c5 bd
       0.07205645 -0.016166313 -0.10356362 -0.09636147
000180 bf 31 8b bc c7 f1 f7 bd 18 22 b7 3c 76 89 13 bc
       -0.016991494 -0.12106662 0.022355124 -0.009004941
000190 36 b9 93 bd 1d 93 4b 3d 56 50 99 bd 85 c2 99 bd
       -0.072130606 0.049700845 -0.07486026 -0.07507805
0001a0 ae c7 60 bd 81 de 88 3d 46 79 b3 bd fd 00 ea bc
       -0.05487793 0.06683064 -0.087633654 -0.028564924
0001b0 b0 91 69 bd 53 48 39 bd 0f ea e2 bc 8e 3c 83 3d
       -0.057023704 -0.04523499 -0.027699498 0.06408034
0001c0 5a 05 83 3d 37 a1 25 bb 06 e4 e3 3d da 4e 59 3d
       0.06397505 -0.0025273093 0.111274764 0.053053714
0001d0 35 ce 33 3d 46 01 18 be af 17 ed bd df 88 0b 3b
       0.043897826 -0.14844236 -0.11576783 0.0021291298
0001e0 63 c4 a9 bd ad d0 a6 bd 8a 75 03 bc 59 54 d7 3c
       -0.08289411 -0.081452705 -0.008023629 0.026285337
0001f0 05 90 21 bd d7 bd 20 3d bb b5 28 be 0d c8 f3 bd
       -0.03944399 0.039243545 -0.16475575 -0.11903391
000200 7c 27 a3 bc 62 8e fc 3d 97 73 72 3d ae 3e e6 bc
       -0.019916289 0.12331845 0.059192266 -0.02810606
000210 94 e1 c8 3d 93 ef 46 bd 54 3f ed bd 9a 1a b8 3c
       0.098086506 -0.04856832 -0.115843445 0.022473622
000220 26 23 3f be 16 80 1c be 77 51 8d bd 0d ad 6b be
       -0.18665752 -0.15283236 -0.06900304 -0.23015232
000230 3e 8f 90 3c b0 70 10 be c5 c7 36 be c6 f5 1d 3e
       0.017646428 -0.14105487 -0.17849644 0.15425786
000240 34 18 01 bb eb ca 6e 3c 54 7c 8b bd 8a 67 8a bb
       -0.0019698264 0.014574747 -0.06810823 -0.0042237686
000250 3e 3a 9b bd cf 78 af bd 12 07 b0 3d 0b 15 fc bd
       -0.07579468 -0.08567964 0.085950986 -0.12308701
000260 b0 0f 9e bd 1f c1 d8 3d 89 7b d8 3c 5c 01 a4 3d
       -0.07717836 0.1058371 0.026426094 0.08008072
000270 bc 26 94 3d 11 92 46 bb 54 27 d1 bd 9b df 40 3e
       0.072339505 -0.0030299465 -0.10212579 0.18835299
000280 38 ee 1f bd 9d 1c 0e 3d 88 ee fe 3d 52 ab b9 3c
       -0.039045542 0.034695257 0.1244784 0.0226647
000290 7e 44 4d 3e 4f c8 93 3a 2b 87 31 bd ca 47 bb bd
       0.20045659 0.0011274907 -0.043341797 -0.09144552
0002a0 7d 2e aa 3d f0 b6 c3 bd f8 54 8e bd ff 14 ac 3d
       0.08309648 -0.09556377 -0.069498 0.08402442
0002b0 e1 06 24 3d a0 a6 48 3e 5c b4 cf 3d 9e 5d b0 3b
       0.040045623 0.19594812 0.10141823 0.005382254
0002c0 4b 2d e5 bc 5f 6a 53 bc e7 64 cf bc 1a 42 cc bd
       -0.027975699 -0.012903779 -0.025316669 -0.09973545
0002d0 c6 cc c2 bc 6b fc e0 3d 65 c2 12 3d 5a 46 3d 3c
       -0.023779284 0.10985645 0.03582992 0.011552418
0002e0 59 5b 30 3d 07 99 13 be 36 07 6a 3d c5 c0 f3 bc
       0.043055866 -0.14413844 0.057135783 -0.029755006
0002f0 04 cc 0f be ec b1 3b bd 19 a6 86 bd 21 ff c4 bd
       -0.1404267 -0.045823976 -0.06574649 -0.096189745
000300 93 4d 9a bd 2d 88 9d bd 70 e9 a8 bd 4e 8d 20 bd
       -0.07534327 -0.07691989 -0.0824765 -0.03919726
000310 4d 32 1b bc 2e 77 e5 3c 2d 79 5c bd 9f 4f a4 3b
       -0.009472442 0.02801093 -0.0538265 0.0050143744
000320 7d 45 4e bd 00 57 9a bc af 56 83 bd 3d 34 08 bd
       -0.050359238 -0.018840313 -0.06413018 -0.033252943
000330 ce f2 3b 3d 31 39 03 3d 30 d5 62 ba 69 55 19 3e
       0.045885853 0.032036964 -0.0008652983 0.14973988
000340 7e 17 f2 3d 4b 22 0b 3e da be 3a 3d f6 26 c4 3d
       0.11820887 0.135873 0.045592166 0.09577744
000350 f3 5b bf bc 3d fd 1a 3e 72 31 a4 3c 57 49 a3 bc
       -0.023359274 0.15135665 0.020043109 -0.019932432
000360 8c c0 1e be 4b a7 a0 bd 74 e5 87 3c af 58 a4 bd
       -0.15503138 -0.078444086 0.016588904 -0.080247276
000370 fe 50 7d bd c1 8b c3 bd 30 ff 21 be 99 74 66 bc
       -0.06184482 -0.0954814 -0.15820003 -0.014065885
000380 1e dd b4 bc 03 03 6a 3d f6 e0 44 3d 20 64 9f 3b
       -0.022078093 0.05713178 0.048066102 0.0048642308
000390 df 49 82 3d 63 52 22 3d c5 73 59 3c 2b 55 19 bc
       0.06361746 0.03962935 0.0132722305 -0.0093586845
0003a0 95 b3 58 3b 3f d3 49 3d d2 33 3c 3d 03 c5 cb 3d
       0.0033066024 0.049273726 0.045947857 0.099496864
0003b0 ea 4a 92 3d 62 f6 1b 3e 7a 42 d9 3d 9a d0 8d 3d
       0.07143195 0.15230706 0.106083825 0.06924553
0003c0 6c 7b 09 3e 60 04 c9 3c f0 fc fd 3c 6a 04 0f be
       0.13425988 0.024538219 0.031004399 -0.13966528
0003d0 f7 4a d7 bd d3 c6 23 3d 20 5b ed bd 69 45 b2 bd
       -0.10512345 0.039984535 -0.11589646 -0.08704645
0003e0 5b dd d5 bc 34 c4 84 be 6b 3d e0 bd 87 e6 b5 3b
       -0.026106527 -0.2593094 -0.109492145 0.0055511626
0003f0 18 b2 ed 3c 31 fc ff 3c c3 6c 18 bd e0 f0 e4 3c
       0.029015586 0.031248184 -0.0372131 0.02794689

Generator.conv3.conv1.0.weight f4 [8, 8, 3, 3, 3]
000000 9c 7a 34 3c 15 3a 96 3d 9d 8b 4b bc c3 fd 94 bc
       0.0110155605 0.07335297 -0.012423423 -0.01818741
000010 7c 0b 5a 3b ae cd 28 3d 0d 5f b9 3d 10 e5 96 bc
       0.0033271005 0.041211776 0.090513326 -0.018419772
000020 18 25 f5 3b e9 00 e5 bc 35 fd c7 3c 91 79 76 bd
       0.0074812286 -0.027954536 0.02441273 -0.06017453
000030 3f 9e 8d 3c f4 41 ca bc e8 33 ac bd c3 20 15 bd
       0.017287372 -0.024689652 -0.08408338 -0.036408197
000040 80 ad 34 3d 6a 7b f6 bc 50 39 02 bd 41 2c 8e 3d
       0.044110775 -0.030088145 -0.03179294 0.069420345
000050 79 e7 18 bc f5 cf 58 3d ca 17 89 bd b7 22 05 bc
       -0.009332531 0.0529327 -0.066939905 -0.008125952
000060 c5 f8 24 bd f4 48 c6 3c 8b 69 60 bd fc 55 44 bd
       -0.040276308 0.024204709 -0.054788154 -0.047933564
000070 dc e7 84 3c 9f e4 11 3d 1c 1d 28 3c 1a 5c 79 bc
       0.01622384 0.03561842 0.0102608465 -0.015219713
000080 d2 1a 96 bd eb e2 70 3d aa 68 28 bd b0 44 3f 3d
       -0.07329334 0.058810156 -0.04111544 0.046696365
000090 17 00 df 3b 76 42 7b 3d bc 34 07 3e 4a 64 6f bc
       0.0068054306 0.06134268 0.1320371 -0.014611313
0000a0 9e 7c df bc 0d 5f ae bd 46 72 dd bb 85 27 cd bd
       -0.027281102 -0.08514223 -0.006758007 -0.100173034
0000b0 65 2f ac 3c 24 9a cb ba fc 21 a1 3d e8 1a eb bc
       0.021018693 -0.0015533608 0.0786781 -0.028699353
0000c0 77 59 56 3d 86 b3 07 bd f7 c2 7e bd d5 3e 62 bd
       0.052331414 -0.03313019 -0.06219765 -0.055235703
0000d0 90 91 a8 bd 63 55 a7 3c 1e b2 2f bd cb d1 08 bc
       -0.08230889 0.020426458 -0.042894475 -0.0083508
0000e0 ad 7a f8 bc 85 f5 4e bd 04 61 0a bd 34 a5 ee 3c
       -0.030331934 -0.050527114 -0.033783928 0.02913151
0000f0 31 73 ff bb 08 e7 9e bc 71 bd 65 3a d6 4f 13 3d
       -0.0077957143 -0.019397274 0.00087638857 0.03596481
000100 99 6a 08 3d f2 85 73 3d 62 28 23 bd c1 ea bc 3d
       0.033304784 0.059453912 -0.039833434 0.09224463
000110 ad 08 8e 3d ce 5f 23 bd df c6 ba 3b aa 6b cc bc
       0.069352485 -0.03988629 0.005699977 -0.024953682
000120 ce 96 20 3d 78 92 84 bd c3 f0 d8 3c 70 ca 85 bc
       0.03920632 -0.06473249 0.026481992 -0.016331881
000130 c4 7c 66 3d 9b c7 a2 bc 2d 54 6e 3d 19 99 4e bd
       0.05627133 -0.01987057 0.058185745 -0.050438974
000140 01 c0 39 bd 52 1a f8 3c 60 0d 7f ba c8 65 2b 3c
       -0.045349125 0.030285988 -0.0009729471 0.010461278
000150 83 d4 97 bb a9 1c b6 3c 45 ba 4a bd 1f bc a6 3d
       -0.0046334877 0.022230463 -0.049494047 0.0814135
000160 f5 50 36 bc 4a f6 80 3d 37 41 33 bc 6c 7f 32 3d
       -0.0111277 0.06296976 -0.010940841 0.04357855
000170 5a 24 11 3d 51 ec 33 bd c2 4e 84 3d ed 1b 56 bd
       0.03543506 -0.04392654 0.06460334 -0.052272726
000180 a2 e7 96 bd 12 36 06 bd e8 28 39 bc 68 f0 31 bd
       -0.07368399 -0.03276641 -0.011301257 -0.04344216
000190 b9 0f 63 3d d1 7c 93 bc 61 33 98 3d 3d 62 ed 3d
       0.055434916 -0.018003853 0.07431675 0.11591003
0001a0 53 f6 1a 3d ea 66 fb bb 6d dd 10 bd 52 ed c6 bd
       0.03783257 -0.0076721804 -0.035367418 -0.09713234
0001b0 21 db 79 3d 99 b9 fd bc 07 29 e3 3b f5 36 90 3d
       0.060999993 -0.030972289 0.006932381 0.07041732
0001c0 f9 e7 21 bd 9e 9d 20 3d 10 80 a0 3d d2 31 4a 3d
       -0.039527867 0.039212815 0.07836926 0.04936392
0001d0 f3 cb 5c bd 24 f5 38 3d e2 31 8a 3d c6 1b 6b 3d
       -0.05390544 0.04515566 0.06747796 0.057399534
0001e0 41 35 a0 3a 8b 79 4d 3d 1d f3 a8 3d a2 de 08 3d
       0.0012222902 0.05016474 0.08249495 0.033415444
0001f0 b8 4b 98 3d 34 76 85 bd ee 97 83 bc 01 6b 73 bb
       0.07436317 -0.06516686 -0.016063657 -0.0037142637
000200 40 d4 d7 3c f3 23 8b bd 7f a7 39 bd ff 87 a5 bc
       0.026346326 -0.06793966 -0.045325752 -0.02020645
000210 a6 76 3a 3d f1 d4 46 bd 4a 79 1b bd e6 b5 69 bd
       0.04552331 -0.04854292 -0.037957467 -0.057058237
000220 39 0c 38 3d 16 78 97 3c 45 35 ff 3b b3 48 7a 3d
       0.04493353 0.018489879 0.0077883326 0.061104488
000230 ed 30 75 bd 16 3f f7 3b 64 8b 17 bc 42 7e 06 3d
       -0.059861112 0.007545362 -0.009249542 0.032835253
000240 89 55 7e 3c 8e 10 a3 3d 17 f0 c6 3c 37 61 03 bd
       0.015523323 0.07962142 0.024284406 -0.032075133
000250 d0 c2 2f 3d a0 35 9f 3b d7 90 37 bd 95 50 a7 bd
       0.042910397 0.0048586875 -0.044815864 -0.08169667
000260 ab 36 ec 3c 5a f9 87 bd ee cb 81 3d f3 34 7a bd
       0.028834661 -0.06639357 0.063377246 -0.061085653
000270 e6 57 db 3c 8d a9 94 3d 2e 62 88 3d d4 7e 5e 3d
       0.026775312 0.07258902 0.06659351 0.05432017
000280 95 36 a9 bd e9 3f e3 bc 13 b2 53 bd 1f 2b 31 3d
       -0.08262364 -0.027740436 -0.051683497 0.043254014
000290 50 2e 2d 3d 86 a2 a2 bc fe 42 3f bd 35 b1 0d bd
       0.042280495 -0.019852888 -0.046694748 -0.034592826
0002a0 25 d1 ed 3d c8 ca dd 3c 66 42 9b 3c e8 9b 39 3d
       0.11612157 0.027074233 0.01895256 0.0453147
0002b0 e0 53 28 bd 3c de 9b 3d ff 1e 85 3d 62 35 89 bd
       -0.041095614 0.07610747 0.06500053 -0.06699635
0002c0 65 11 42 3d 21 59 13 3d f3 f6 02 3d 25 f2 04 3d
       0.04737987 0.03597367 0.03197379 0.03245749
0002d0 71 9b dc 3c fe 36 bc bc b9 a1 c5 bd ad 19 7d 3c
       0.026929589 -0.022975441 -0.09649987 0.015448016
0002e0 03 dc 5d 3d 1a eb 28 bd 03 a0 8f bd 63 49 c8 3d
       0.054164898 -0.041239835 -0.07012942 0.097796224
0002f0 f3 db 75 3c a2 a1 3e 3c 66 22 82 38 ab fc e4 3a
       0.015006053 0.011635216 6.20529e-05 0.001747032
000300 57 32 ad 3a c7 b5 23 3d dd 90 98 bc fc 31 ad bd
       0.0013213855 0.03996828 -0.018623764 -0.084567994
000310 f6 12 c4 ba 76 ad ba 3b 56 36 03 bc 35 a7 9a bb
       -0.0014959264 0.0056969477 -0.00800856 -0.0047196397
000320 48 30 50 bc 46 91 cd 3c 7d bf 18 3e cc 86 3e 3d
       -0.012706824 0.025093686 0.14916797 0.04651527
000330 1c fd 9d bc c4 e7 15 bd 32 b9 85 3d cd db 2f bd
       -0.019285731 -0.036597982 0.06529464 -0.042934228
000340 63 f6 b3 bd 91 52 1d bc 4c 65 64 3d 37 98 f8 3d
       -0.08787229 -0.009602205 0.055760667 0.12138408
000350 78 e9 9f bd a2 0c 0b bd f0 a0 25 bd c2 95 5b bd
       -0.078082025 -0.033947594 -0.040436685 -0.053609617
000360 f8 11 8b 3c da e8 14 bd 2f a4 34 bc aa e9 1f 3d
       0.016976342 -0.036354877 -0.011025473 0.0390412
000370 b1 72 5e 3c 66 3d 68 3d 97 dd 92 3c 98 5c 48 3d
       0.013577149 0.05669918 0.017927928 0.04891643
000380 74 73 c8 3c 4f 3e c6 3d b6 e5 a0 bd 4f fc 90 bb
       0.024469115 0.09679853 -0.07856314 -0.004424609
000390 9f 40 7b 3d 44 f6 26 3d ed d4 9d bd c1 31 18 bd
       0.061340924 0.0407622 -0.07706628 -0.037156824
0003a0 29 76 3a 3d 0b 68 1d be 08 79 96 3c 5d ff 94 3b
       0.045522843 -0.1537172 0.01836826 0.0045470432
0003b0 21 b8 6e 3c 8f 22 4e 3d 65 c5 10 3c 4a 43 4a bd
       0.014570267 0.050325926 0.008836125 -0.049380578
0003c0 e4 a3 47 bd aa 2a 4a bd 90 3c cc 3b de 06 4f 3c
       -0.048740283 -0.049357094 0.0062328056 0.012635915
0003d0 dc 66 b3 bd 43 63 03 be 76 a5 e3 3c 37 00 ab 3d
       -0.08759853 -0.12830834 0.027788859 0.0834965
0003e0 f0 f4 dc bd 27 0e a9 3d 33 d3 47 3d 74 37 a3 3b
       -0.107889056 0.082546525 0.0487854 0.0049809758
0003f0 fb f8 ac 3d 34 3f e6 3c f9 2f 84 bc 0c 98 e4 3d
       0.08445927 0.02810631 -0.016136156 0.11161813

Generator.conv3.conv2.0.weight f4 [8, 8, 3, 3, 3]
000000 db ff 33 3d 15 77 b0 3c 2c d9 c2 39 05 86 55 bd
       0.043945175 0.021541158 0.0003716437 -0.052129764
000010 46 06 4d 3d 07 9c cd bc 63 3b b0 bd cc 80 15 bc
       0.05005481 -0.025098814 -0.08605077 -0.009124946
000020 84 f7 89 bd b1 21 24 3d 4d 46 20 bd 5a b6 1e 3d
       -0.06736663 0.040071193 -0.039129544 0.038748123
000030 55 54 2a 3c 22 32 49 3d c9 20 ba bc 4c df 20 bd
       0.010396083 0.049120076 -0.022720711 -0.039275452
000040 c1 ec e8 3c e9 f3 6f bd 0d 69 a7 3c 2e 29 6e bc
       0.028433206 -0.05858222 0.020435834 -0.014536185
000050 1b 2b e7 bc 89 65 42 3d 73 58 9b 3d 23 1e c2 3d
       -0.028218796 0.047460113 0.0758523 0.094784044
000060 aa 36 a2 3b 83 4d bc 3d b3 7c 05 3d 2a f2 e5 3d
       0.004950364 0.09194472 0.032589626 0.1122783
000070 bf c7 01 be 69 f2 1d be e6 bb 03 3e ba a1 55 bd
       -0.12673853 -0.15424503 0.12864646 -0.052156188
000080 9f f6 be bd 37 df 25 3d a0 b8 59 3d 76 fa 81 3b
       -0.09324383 0.040496077 0.053154588 0.003966625
000090 e2 6e b1 3d 00 c9 a7 bd 55 ef d1 bd e2 5c ac bd
       0.08663727 -0.081926346 -0.10250727 -0.084161535
0000a0 a7 7a 27 bd 4c f7 1b bd cc e5 bb bd db f1 07 be
       -0.040888455 -0.038077638 -0.0917469 -0.13275854
0000b0 0e e2 09 be 9d 21 cb 3d d8 77 6e ba 74 39 0d be
       -0.1346514 0.099185206 -0.00090968376 -0.13791448
0000c0 92 30 65 bd a3 6d ee bb 16 c2 ff bd 85 73 9b bd
       -0.055954523 -0.0072762533 -0.12488191 -0.07590393
0000d0 1d 69 88 bd a9 aa ac bd 00 a2 52 bc 71 c1 e4 3c
       -0.06660674 -0.08430988 -0.012856007 0.027924271
0000e0 38 db 54 be 0a 16 27 3d 02 bd 76 bc 2f 41 b8 bb
       -0.2078675 0.040792502 -0.015059711 -0.005623005
0000f0 60 67 81 3d a2 d5 c7 3d f9 fc 95 3d 45 fc ad 3d
       0.06318545 0.09757544 0.07323641 0.08495382
000100 8c 26 01 bd f4 d7 15 bb d7 1b c4 3d f9 db a4 3d
       -0.0315309 -0.0022864314 0.095756225 0.08049769
000110 e5 cb 34 bd 94 8d 49 3c be 0e 58 3e ad 08 ca bc
       -0.04413976 0.012301821 0.21099374 -0.02466234
000120 35 84 a5 3d 96 9c 19 3e b9 ef a5 3d c5 06 d8 3d
       0.08081857 0.15001139 0.08102364 0.10548166
000130 72 2e 39 3e f6 a0 a0 3d c8 42 22 bd 9b ec 90 3d
       0.18084124 0.07843201 -0.03961447 0.07076379
000140 3d 18 ce 3d eb 11 50 bd e4 bc d2 3d 6b 5b a4 3c
       0.10063217 -0.050798338 0.10289934 0.020063123
000150 03 83 8b bd 67 d1 80 bd f1 f7 64 3d e7 25 28 3d
       -0.06812098 -0.0628994 0.055900518 0.04105177
000160 b9 b1 68 bd a7 57 db bc 5f 6e cf bd b7 ff 56 3b
       -0.056810115 -0.026775194 -0.101284735 0.0032806227
000170 7f 33 9a 3c 0f e3 e5 bd 72 cf 81 be 9a 10 16 3d
       0.018823383 -0.112249486 -0.2535358 0.036636926
000180 f4 09 b0 3c 6e 52 2e be 94 82 6e bd ff 74 12 be
       0.021489121 -0.17023632 -0.058229998 -0.14302443
000190 50 a1 cb bd dc 59 93 3b 71 98 3e 3b 1d 38 6f be
       -0.09942877 0.004496796 0.0029082561 -0.2336125
0001a0 b4 ba c5 bc c0 7d c3 3d 7e 77 1d bd 25 41 45 bd
       -0.024136879 0.09545469 -0.038444035 -0.04815783
0001b0 e2 d4 9a be 37 28 0f be a2 25 83 bd 00 d5 d2 bd
       -0.30240542 -0.13980184 -0.06403662 -0.10294533
0001c0 4f d8 b8 bd d0 1b a3 bd b8 8f 36 be 45 7f ec bd
       -0.090256326 -0.07964289 -0.17828262 -0.11547712
0001d0 b0 d5 90 bd 6b 34 a8 bc 1b 43 61 bc 79 bb 63 3d
       -0.07072008 -0.020532807 -0.013748909 0.05559871
0001e0 c2 be 4b 3d d5 79 d8 3c 6d 53 39 bc 76 f5 a6 bd
       0.049742468 0.026425282 -0.011311394 -0.08152287
0001f0 91 88 48 3b f2 d0 40 bb 08 be d3 be 3d 3e 63 be
       0.0030598978 -0.0029421416 -0.4135592 -0.22191711
000200 f6 6e 9b bd b3 74 39 be f7 99 25 be b1 04 07 be
       -0.075895235 -0.18110923 -0.16172014 -0.13185383
000210 e1 43 43 bd c2 3d 08 bd f3 b8 80 3d 79 ae 2f 3d
       -0.047672156 -0.03326202 0.06285276 0.042891
000220 00 1a 93 bc be 14 96 be cc a1 10 be 49 93 7b bd
       -0.017956734 -0.293127 -0.1412422 -0.06141976
000230 10 e8 4b bc 92 5a 46 3e 9a 5d 56 bd 71 e8 c9 3d
       -0.012445465 0.19370487 -0.05233536 0.09858788
000240 60 bf bd bd 74 c3 ae bd ca 09 a9 bb 27 90 57 bc
       -0.092650175 -0.085333735 -0.0051586377 -0.013156927
000250 01 8b f7 3c 9f 8a d9 3d 94 38 1d 3e 39 00 02 bd
       0.03021765 0.10622143 0.15353614 -0.031738494
000260 bb 0a dd 3d 81 3e 18 3d c5 56 f4 3d a2 e4 5f bd
       0.10793062 0.037168983 0.119306125 -0.0546614
000270 dd 9b d0 3d 33 79 b4 3c 12 c5 82 3d ab fd 5e 3e
       0.101859786 0.022030449 0.063852444 0.21776454
000280 67 33 0c 3c b8 08 04 bc c8 02 e8 3d 97 f5 eb 3d
       0.008557177 -0.008058719 0.113286555 0.11521452
000290 5a 39 f0 3d f8 7e 42 bc 81 e0 00 bd 45 92 86 3d
       0.11729689 -0.011871092 -0.031464104 0.065708674
0002a0 11 8a de bd 77 d4 30 be 80 75 d8 3d 1a 3f ad bc
       -0.10866178 -0.17268549 0.10569286 -0.021148253
0002b0 d8 b2 f6 3c 6c f0 bb 3d 3f d0 db bd 02 36 c5 bd
       0.030114576 0.09176716 -0.10733079 -0.09629442
0002c0 fd cd a6 3d 1a 46 f6 bd d5 a4 18 3c 74 ab c4 3d
       0.08144758 -0.120250896 0.009316643 0.096030146
0002d0 78 87 32 be 04 b1 37 bd 5d 9b 2e 3e eb d1 0d be
       -0.1743449 -0.04484655 0.17051454 -0.13849609
0002e0 df a7 83 bd 8b 1e 54 3e 07 5f 80 bd eb cd d6 3d
       -0.06428503 0.20714776 -0.06268125 0.104884945
0002f0 e1 8b ed 3d 51 57 4d bc bf 10 8e bc 59 f8 d2 3d
       0.115989454 -0.012533025 -0.01734197 0.10301275
000300 a8 d6 12 bd 8c aa a6 bc 7f 65 b3 3d 9e 91 26 bd
       -0.035849243 -0.020344995 0.08759593 -0.040666215
000310 8b 5f e4 3b ca 3a 1c 3e ee fa 25 3e c9 14 61 3d
       0.0069693974 0.15256801 0.16209003 0.054951463
000320 4a 72 bb 3d 3e 4d 3e 3d 3e 08 ee 3c d6 45 79 3c
       0.09152658 0.046460383 0.029056665 0.015214404
000330 68 4d 44 bd 48 56 b4 3d 44 e4 14 bc 7e de 13 3e
       -0.047925383 0.08805519 -0.009087626 0.14440343
000340 29 2f 1e bb a3 fe 6c bc aa 27 0e 3e c9 90 0f 3d
       -0.0024136996 -0.014465007 0.13882318 0.035050187
000350 05 89 c5 3c 3f 49 c0 3d 88 86 0b 3e 4c ef b7 bc
       0.024113188 0.093889706 0.13625538 -0.022452973
000360 f3 7f 06 3d b6 50 27 3b 46 de 8d bd 77 a8 05 bb
       0.032836866 0.0025530285 -0.06927161 -0.0020394602
000370 8c ba a3 bd 6f 73 c4 bd 69 68 b6 3c 7e 8c 98 3b
       -0.07994565 -0.0959233 0.022266584 0.00465542
000380 a2 c7 b2 3c ba 44 42 3c 45 4d 1d bd 70 bc 82 bd
       0.021823708 0.011857206 -0.038403768 -0.06383598
000390 6f 97 2c bc 57 7e 89 3d 5e 61 8a bd 73 b5 5e 3d
       -0.010534151 0.067135505 -0.067568526 0.054372262
0003a0 de f1 84 3c 2c 43 63 3c 96 f1 b8 3b cc b4 d1 3d
       0.016228613 0.0138709955 0.0056440337 0.102395624
0003b0 79 96 95 3d 2d 4d 6a 3d 45 51 8d 3d ef 5e 18 3d
       0.07304091 0.057202507 0.069002666 0.03719991
0003c0 26 ed 5d 3d 8a e4 07 bd d7 5e 9b 3c d1 f7 f1 3b
       0.05418124 -0.033176936 0.018966122 0.0073842783
0003d0 1a 64 1b 3d 10 9e 1d be 35 74 c3 3d e3 96 dd 3d
       0.03793726 -0.15392327 0.09543649 0.10819795
0003e0 f3 90 4b 3d 86 d2 26 3e d0 21 7d 3c 01 ef cf 3d
       0.04969878 0.16291246 0.015449956 0.10153008
0003f0 81 91 b4 3b 95 ee e0 3d 73 47 9d bd 73 5c a9 3d
       0.0055105095 0.10983006 -0.076796435 0.082695864

Generator.conv4.conv1.0.weight f4 [8, 8, 3, 3, 3]
000000 a2 37 b3 bc 68 f1 1a 3b 16 3b 2e bd b8 ae 02 3b
       -0.021877114 0.0023642424 -0.042536817 0.0019940566
000010 6b 49 1a 3d d9 dc d6 3b 5c f9 50 3a 74 e6 01 3d
       0.037667673 0.006557089 0.0007971728 0.031713918
000020 1c 86 04 bc 63 b7 44 bd 96 38 c5 bc 9d fe b8 bd
       -0.008088615 -0.048026454 -0.024074834 -0.09032939
000030 be ea 9f bd 62 56 cf bc 65 65 df bc ff 31 bc 3d
       -0.078084454 -0.025309745 -0.027270028 0.091892235
000040 81 b7 bb 3c 9a b2 52 3d d0 98 11 3d b9 8e 10 3d
       0.02291465 0.05143986 0.035546124 0.03529236
000050 9b fc 8b 3d 8c 6a ff 3c 2d 05 00 be 51 9a 5c 3c
       0.0683529 0.031178735 -0.12501974 0.013464526
000060 a4 35 6e bd 48 e3 17 bd bf f3 d8 3c 6b 39 0f bd
       -0.058156624 -0.037081987 0.026483415 -0.034966867
000070 b3 37 1a 3d d8 c1 a8 3d fc 0b b4 bb ec f1 77 3d
       0.037650775 0.08240098 -0.0054945927 0.06053345
000080 b7 bc 88 3d e1 66 c1 bd ec c2 8f 3d 20 53 12 bd
       0.066766195 -0.09443451 0.070196 -0.035723805
000090 c3 40 3d 3c 49 7f f8 bc 3e 65 06 bd 3d f6 1e 3b
       0.011551085 -0.030334132 -0.032811396 0.0024255656
0000a0 84 8b 0d bd 74 b7 87 bd ed 51 16 bc a1 13 38 3d
       -0.03455688 -0.06626788 -0.009174806 0.044940595
0000b0 c3 2f 31 3d f4 c7 77 3d ef b3 24 bd 3d 62 9d bc
       0.04325844 0.060493425 -0.04021066 -0.019211883
0000c0 51 5e 6b 3d be 09 f2 bc d0 8e 80 3c 93 fd 90 3d
       0.057462994 -0.029545661 0.015693098 0.070796154
0000d0 b9 b3 4e 3d 96 c4 e4 3c c8 d4 d4 bd 12 02 f5 bd
       0.050464366 0.02792577 -0.10392147 -0.119632855
0000e0 36 ee c9 bd e7 41 fd bc 27 ae 06 3d a9 61 5f bd
       -0.09859888 -0.030915214 0.03288093 -0.054536495
0000f0 af d8 59 3d 10 a1 11 3d 8c d9 c2 ba 89 f6 33 3a
       0.05318516 0.03555399 -0.0014865859 0.00068650447
000100 e2 0f 20 be 2d e1 87 bd 78 69 b1 3c 37 a0 92 bd
       -0.15631059 -0.06634746 0.021656737 -0.07159465
000110 5b 22 48 bd 70 de 50 3c 9a 33 81 3d a4 c1 a5 bc
       -0.04886089 0.012748346 0.0630867 -0.020233937
000120 47 f5 9e 3d 0d 40 b6 bc 45 25 4c bb 66 39 df 3b
       0.07761627 -0.022247339 -0.0031150144 0.0068122623
000130 08 fd ec bd de 7d 39 3d e8 ad f7 ba ea a6 53 bd
       -0.115716994 0.045286052 -0.0018896433 -0.051672854
000140 bc 80 50 3c ca 28 a7 3c 61 de 8b bc 9f 54 44 bd
       0.012726005 0.020405192 -0.017073812 -0.047932263
000150 da 9d 5f 39 54 30 b7 bc 86 57 8e bd ca 32 30 3d
       0.00021325742 -0.022361912 -0.069502875 0.043017186
000160 67 0a 04 3d 13 4f 8d 3d 40 f8 8e 3c ec 69 62 bd
       0.032236483 0.06899848 0.01745236 -0.055276796
000170 43 4a 1c bd 4d 76 54 3c ed 46 8f bd 2e 6b dc bc
       -0.03815676 0.012967658 -0.0699595 -0.026906576
000180 6c 00 d4 3d 8a 78 d4 3d ec 12 55 3d 99 a5 2e bd
       0.10351643 0.103745535 0.05202 -0.042638395
000190 b0 a4 ab bd b4 e5 8b bd 3e fb ad bc b3 77 da 3b
       -0.08381021 -0.06830922 -0.021237966 0.0066671013
0001a0 f3 08 ef bd c1 bf a5 3d eb 8c fe 3b a1 59 0a 3b
       -0.11671629 0.08093215 0.0077682636 0.0021110552
0001b0 53 ae d5 bd 33 56 aa bd dc ee 81 3c e8 e8 c3 bc
       -0.1043364 -0.083172224 0.015860967 -0.02391477
0001c0 a0 c4 04 3d 44 cc 12 3d d7 dd 5a bb bc 2a 65 3d
       0.03241408 0.035839334 -0.0033396387 0.055948958
0001d0 2c 28 d4 3c b6 4d 76 bc 1c c3 02 bd 95 13 4a 3d
       0.025898062 -0.015033176 -0.031924352 0.04933508
0001e0 67 15 0c bd 87 28 87 3a 6e 53 d0 3c a5 b1 87 3c
       -0.0342001 0.0010311761 0.025430407 0.0165642
0001f0 12 87 50 3c 89 4c 28 bc ba ca ad 3d 95 3a ea bc
       0.012727516 -0.010272154 0.08485933 -0.028592387
000200 76 08 6a 3d 45 bb 28 3c 1b 51 d4 3a 08 95 94 bc
       0.057136975 0.010298555 0.0016198488 -0.01813747
000210 71 1b 65 3a 0b ea 12 3d 14 28 59 3d 91 97 09 bd
       0.0008739746 0.035867732 0.053016737 -0.03359181
000220 87 be 3a 3d b0 ea af bd 29 74 82 3c 29 45 d2 3d
       0.045591857 -0.08589685 0.01592453 0.102670975
000230 58 19 cf ba aa 83 76 3d 9f fb 5a 3d 82 f2 55 bd
       -0.00158004 0.06018416 0.05346262 -0.052233227
000240 78 51 6a 3c 63 92 f5 3a f8 71 a2 bc 45 32 8e bc
       0.01430165 0.0018735643 -0.019829735 -0.017357955
000250 ad 8e 89 bd 3b 6b a5 bc 10 de 14 3d 36 0c a8 3c
       -0.06716666 -0.020192733 0.036344588 0.020513635
000260 5b 7a c1 bc 38 b9 24 3d d1 4a 9e 3b 17 0d fb bc
       -0.023617914 0.0402157 0.004830696 -0.03064589
000270 17 73 8e 3c 3c 81 21 bd 2f a9 49 bd e3 ce 2f 3c
       0.017388863 -0.039429888 -0.04923361 0.010730478
000280 0e 45 5e bd d4 db 5f bb ed 95 ed bd 86 d4 de bc
       -0.054265074 -0.0034158127 -0.11600862 -0.027200948
000290 47 ed d0 bd a2 21 a1 bb b0 54 cd 3d 52 b7 b8 3d
       -0.10201507 -0.0049173394 0.100259185 0.090193406
0002a0 86 78 bd bb 4b 08 fe 3c f5 26 b1 3c 01 0c b0 bd
       -0.00578219 0.031009814 0.021625021 -0.085960396
0002b0 f7 26 08 bd 13 0f 6e 3c 78 51 e1 bb d4 e2 00 be
       -0.033240285 0.014529961 -0.006876167 -0.12586528
0002c0 cc 66 7b b9 c8 09 92 3d 1d 99 61 3d 69 39 92 bc
       -0.0002397552 0.07130772 0.05507766 -0.01784964
0002d0 c2 ee 89 3d 9a 94 ac 3d c6 23 a8 3c e0 1b bc bd
       0.067349926 0.08426781 0.02052487 -0.09185004
0002e0 f8 fb 10 bd d6 ad 68 bc de 5f 96 bd 10 2f 06 bd
       -0.035396546 -0.014201602 -0.07342504 -0.032759726
0002f0 01 1a d4 bb 1f 5b 2e bd 04 f5 63 bd d6 a7 98 bd
       -0.0064728265 -0.04256737 -0.055653587 -0.07453887
000300 e7 24 7d bc 9b 0a b0 3c 2e a3 15 bd 7f 45 46 3c
       -0.015450693 0.021489432 -0.036532573 0.01210153
000310 95 b6 ad bb 64 7f eb 3c 55 12 dc 3c 85 d4 c8 bd
       -0.0053013065 0.028747268 0.02686421 -0.0980616
000320 9f 70 a4 3c d7 d3 90 3c c8 50 9e bd 8d 73 5c bd
       0.020073233 0.017679138 -0.077302516 -0.053821135
000330 f2 43 90 3d 21 68 9e 3d 83 92 30 bd 33 94 f9 3c
       0.070442095 0.07734705 -0.043108474 0.030466175
000340 3a c7 fb 3c f0 62 81 bd 44 34 52 3b af f2 a3 bd
       0.030734647 -0.06317699 0.003207461 -0.080052726
000350 da 89 e8 bd 3f c0 ae 3c f2 a6 1a 3b ae 6b ce 3c
       -0.11354418 0.021331904 0.0023598042 0.02519783
000360 16 1d 53 bc b7 b1 ab 3d 12 55 4d 3d 51 62 95 3c
       -0.012885353 0.08383506 0.050129957 0.018235357
000370 d8 3b df 3d 31 7c 5e 3d bc 35 22 bd f0 2b e3 3c
       0.10900086 0.054317657 -0.039602026 0.027730912
000380 63 85 7c 3d 10 63 85 3d 37 9f 50 3d 67 64 99 bb
       0.061650645 0.06513035 0.05093309 -0.0046811583
000390 9b c2 29 bd e6 b6 1f 3d 62 c8 2a 3d 2b a1 1e 3c
       -0.041445356 0.038992785 0.041695006 0.00968198
0003a0 18 0c 9c 3c a2 02 8d 3c 92 eb 9e bb 8f 85 97 bd
       0.019048735 0.01721317 -0.0048498595 -0.07398521
0003b0 8b 9d 07 bd 1b 97 3a 3d d5 68 a3 bd 3d b1 de bd
       -0.03310923 0.04555426 -0.079789795 -0.10873649
0003c0 18 e1 81 3d 0b 0e bd 3c c8 94 8f bd b4 40 23 bd
       0.06341761 0.023077985 -0.070108 -0.039856628
0003d0 07 f2 85 3d 12 0e 7b 3d cd d6 99 bd 5d 6e da 3d
       0.06540304 0.061292715 -0.07511673 0.106655814
0003e0 fd d8 a6 3d 0f 91 07 bb 10 92 ce bd a3 a2 22 bd
       0.08146856 -0.0020685827 -0.10086453 -0.039705884
0003f0 fa 83 05 3c 47 fd 1f 3d 01 97 06 3d d8 aa 85 bc
       0.008149141 0.039059903 0.032858852 -0.016316816
