DeepWonder3D_pytorch/pth/SEG_pth/Unet4_no_end_UNet3DFFD_20240401-1432_2um/seg_188.pth (torch, 138281 bytes, 19 tensors)

Generator.conv1.conv1.0.weight f4 [8, 1, 3, 3, 3]
0.11206 0.09869632 -0.055150818 0.1413474 -0.12096903 -0.12240488 0.003265441 0.0016039292
0.100389145 0.035741936 -0.15959665 0.089946575 0.12605858 0.10681085 0.03617943 -0.18806995
0.08921348 -0.2027047 -0.11185239 -0.11228785 -0.057622477 0.0381279 -0.048335493 0.06283531
-0.20836604 0.016410217 0.14647879 0.15499075 0.15324104 0.013713658 0.08626811 -0.13384742
-0.18229972 0.14008962 0.023771144 -0.07837203 -0.115675926 0.15580547 -0.044648476 -0.12895967
-0.077533804 0.008048285 -0.19391365 -0.21180655 -0.016892454 0.11795908 0.030941125 0.20422965
0.17292786 -0.08744374 0.16039747 0.09381719 -0.1258296 -0.07580738 0.066991195 -0.038831826
-0.11712897 0.02820015 0.10014947 -0.0058751 -0.16238065 -0.114050336 -0.060978223 0.036454022
0.09575484 0.017647708 -0.04458992 0.038313128 0.07218392 0.05321597 0.001961211 0.006824644
-0.15926018 0.04151877 0.044102173 -0.003036442 -0.0696512 0.09059067 -0.3646097 0.009816124
-0.25417757 -0.09127493 -0.14963987 0.15604419 -0.19811767 -0.073325485 -0.022157809 0.080392756
-0.11468314 0.054788716 -0.2071912 -0.059633676 0.02622371 0.101854354 -0.19832717 -0.16378284
-0.036675084 0.124825686 0.08693748 -0.054909125 0.0627342 0.0905422 -0.064529486 0.058505442
0.07863208 0.015424824 -0.16351597 -0.22251178 0.16200401 -0.16305372 -0.0537267 -0.12632559
-0.030849429 0.011725656 -0.0366929 0.06380188 0.04301887 -0.007754608 0.09195281 -0.18967804
-0.05171802 -0.03695084 -0.002593438 0.11346104 0.020752393 0.12371405 -0.18201108 0.074319564
0.112800576 0.09647971 0.03441525 -0.106774054 -0.15127532 -0.080590785 0.106293134 0.037726216
-0.10538519 0.12261549 0.10971169 -0.06879385 -0.1287465 -0.18663919 0.17865366 0.015891442
-0.08025909 -0.18349417 0.064920194 0.09630826 -0.16926624 -0.21205331 -0.07562531 0.07311232
0.14637807 -0.02677589 -0.035163783 0.12201509 0.02204372 0.16476333 -0.086735204 -0.0023552529
-0.047551822 0.19155248 -0.21331207 0.16534412 -0.079548486 0.08601305 0.0043737134 -0.050329655
0.031386483 -0.020800412 0.055328082 0.0596304 -0.06704467 0.22397445 -0.2053043 -0.08267436
0.021782521 -0.055237312 0.119711265 0.041923717 -0.07290791 -0.052867565 0.10072905 -0.14451833
0.0522107 0.10050875 -0.12419898 -0.0014146072 0.15865628 -0.04753284 0.13023247 0.018551322
0.044231348 0.10535685 -0.20986497 -0.06513828 0.0007149246 0.12255772 -0.031252585 -0.076796226
-0.049383428 -0.20001075 0.13546467 -0.095369995 -0.08174737 0.16599223 0.022725802 -0.0697815
-0.03083967 -0.01194216 -0.21705541 0.093698874 -0.10798781 -0.18668199 -0.08643 0.102156565
00000000: b77f e53d 4c21 ca3d d3e5 61bd 5fbd 103e
00000010: 9cbe f7bd 69af fabd 0201 563b ef3a d23a
00000020: d398 cd3d 2366 123d 4e6d 23be e935 b83d
00000030: 8015 013e a6bf da3d e230 143d 6995 40be
00000040: 8fb5 b63d d291 4fbe de12 e5bd 2cf7 e5bd
00000050: 8c05 6cbd 002c 1c3d 70fb 45bd cdaf 803d
00000060: e85d 55be b86e 863c 89fe 153e e5b5 1e3e
00000070: 38eb 1c3e 40af 603c 56ad b03d 4c0f 09be
00000080: c7ac 3abe a773 0f3e b4bb c23c 8481 a0bd
00000090: 80e7 ecbd 788b 1f3e 52e1 36bd 010e 04be
000000a0: 0bca 9ebd f4dc 033c 4d91 46be d1e3 58be
000000b0: 0b62 8abc 8894 f13d 3e78 fd3c 9421 513e
000000c0: 0014 313e b415 b3bd 3c3f 243e 3a23 c03d
000000d0: 7ad9 00be e640 9bbd ae32 893d 1f0e 1fbd
000000e0: 50e1 efbd 0004 e73c 2a1b cd3d e983 c0bb
000000f0: 1d47 26be 3993 e9bd 4dc4 79bd d050 153d
00000100: 1d1b c43d ed91 903c eca3 36bd 3aee 1c3d
00000110: 2ad5 933d fdf8 593d a987 003b 43a1 df3b
00000120: 1a15 23be 960f 2a3d 7ba4 343d 0bff 46bb
00000130: 4aa5 8ebd 9a87 b93d 1fae babe cfd3 203c
00000140: 9023 82be 5aee babd 323b 19be 0cca 1f3e
00000150: 5cdf 4abe ac2b 96bd 4b84 b5bc f5a4 a43d
00000160: fede eabd 226a 603d ee29 54be 7142 74bd
00000170: 1bd3 d63c 0499 d03d 4716 4bbe b0b6 27be
00000180: 9d38 16bd 9ca4 ff3d 470c b23d 64e8 60bd
00000190: ca7a 803d 306e b93d 0928 84bd 67a3 6f3d
000001a0: db09 a13d 67b8 7c3c bb70 27be 21da 63be
000001b0: 61e4 253e 8ef7 26be 8710 5cbd 7f5b 01be
000001c0: f1b7 fcbc f71c 403c 4b4b 16bd 8faa 823d
000001d0: 8e34 303d 5e1a febb c151 bc3d f63a 42be
000001e0: 46d6 53bd c459 17bd abf6 29bb 435e e83d
000001f0: ec00 aa3c cb5d fd3d 1d61 3abe db34 983d
00000200: fd03 e73d 2797 c53d 01f7 0c3d 5bac dabd
00000210: ebe7 1abe c80c a5bd 37b0 d93d ce86 1a3d
00000220: 31d4 d7bd d41d fb3d 86b0 e03d cae3 8cbd
00000230: 1fd6 03be 581e 3fbe fcf0 363e c52e 823c
00000240: e15e a4bd e5e5 3bbe e1f4 843d 443d c53d
00000250: 2154 2dbe 8124 59be 71e1 9abd e9bb 953d
00000260: 22e4 153e 1c59 dbbc e607 10bd 0ce3 f93d
00000270: 0895 b43c b8b7 283e 3aa2 b1bd 965a 1abb
00000280: b3c5 42bd 5526 443e 7b6e 5abe f84f 293e
00000290: 51ea a2bd 9c27 b03d 5e51 8f3b 7826 4ebd
000002a0: 1d8f 003d a065 aabc b39f 623d 023f 743d
000002b0: b74e 89bd 8f59 653e 4a3b 52be 2d51 a9bd
000002c0: 4271 b23c 8540 62bd 2e2b f53d 34b8 2b3d
000002d0: be50 95bd a98b 58bd 084b ce3d 9dfc 13be
000002e0: e3da 553d 88d7 cd3d 095c febd 576a b9ba
000002f0: cb76 223e ccb1 42bd a95b 053e f1f8 973c
00000300: ee2b 353d 55c5 d73d d8e6 56be 3867 85bd
00000310: c769 3b3a 8bff fa3d b602 00bd 5747 9dbd
00000320: 4746 4abd 9ecf 4cbe 40b7 0a3e 5851 c3bd
00000330: 2a6b a7bd def9 293e 762b ba3c 9ae9 8ebd
00000340: 7aa3 fcbc 0da9 43bc c643 5ebe 32e5 bf3d
00000350: b728 ddbd 9029 3fbe 3602 b1bd 7637 d13d

Generator.conv1.conv2.0.weight f4 [8, 8, 3, 3, 3]
0.13931733 0.0504946 0.06376631 -0.012322452 -0.054373655 0.026017468 0.17817761 0.1387832
0.28670457 0.008834084 0.01452983 0.021182356 0.034401074 0.09467645 -0.016259396 0.067416444
-0.01712694 0.12143593 0.039362565 0.1471444 0.13821414 0.13072135 0.15812585 0.14193556
0.14426817 0.15873006 0.17879494 -0.14021821 -0.05834253 -0.16257973 -0.058643874 -0.04639235
-0.18818775 -0.02674541 0.06274717 -0.0867184 -0.11856556 0.15842007 -0.18824258 -0.052760534
0.116167575 -0.39783427 -0.044303168 0.06579462 0.021105638 0.028385228 0.19445394 -0.29764587
-0.05809282 0.12695684 -0.39159945 -0.09217661 0.016460976 0.0043322924 0.11185931 0.022110207
0.029318286 -0.009477902 -0.06491614 -0.018070197 0.051973 0.014211016 -0.043135405 0.1456514
0.03484576 0.010235557 0.005615318 0.04288408 0.09832187 0.1197558 0.041276295 0.05119034
0.04721554 0.010393152 0.093337156 -0.09247423 -0.0032717695 0.0138637675 0.09264005 0.09802122
0.061015055 -0.023967206 0.061852712 0.041499224 0.14002484 0.0020506054 -0.0062915897 0.008180452
-0.03987384 0.008716612 0.020810368 0.017795738 0.04262752 -0.045561016 0.014793509 0.05740492
-0.034949496 0.02328231 0.02806452 0.06678517 -0.04626278 -0.048626237 -0.007759887 0.03818489
0.05206426 0.030274693 0.03842955 0.019161472 0.05004678 -0.14305343 -0.11035517 -0.035820745
0.007193283 -0.12595282 0.027699094 0.012171788 0.06431373 -0.05883825 0.037006214 0.12989348
-0.022965496 0.090883195 0.11008739 -0.11024613 0.13141972 0.09785285 -0.09158406 0.18040057
0.12880695 -0.071846604 0.14979813 -0.0033912347 -0.27559125 0.104461595 0.007656034 0.010872119
0.14570807 0.04579028 -0.028371494 0.046494298 -0.063759 0.049 -0.14937307 -0.06428705
-0.18044022 0.13390619 0.04063279 -0.072503336 0.08441303 -0.009984447 -0.0014939388 -0.016699184
-0.117007695 -0.0565558 0.14751405 0.08659278 -0.03287864 0.1830108 0.081628665 -0.09183598
-0.03948486 -0.02636817 0.061020974 -0.100272134 -0.13571453 0.060055315 -0.067344345 -0.07692475
0.1292204 -0.14279601 0.0021843836 0.048598215 -0.15793031 -0.023223849 0.027772618 -0.012954469
-0.072746694 -0.0500522 -0.1266984 -0.0135021405 0.0419899 -0.043125402 0.10726889 -0.013289127
0.09668268 0.08004558 -0.07037489 -0.28552237 -0.03212515 -0.0027451187 -0.07045647 0.0042327573
0.046479125 0.02835136 0.044788845 0.05052217 -0.06881772 0.010657093 0.0054452326 -0.21591052
0.0373969 0.00079132663 -0.1672595 0.09641162 0.08481449 -0.2435862 0.047218364 -0.11255783
0.09273031 -0.1477858 -0.15873943 0.14942466 -0.14629358 -0.22550535 0.068213455 -0.112982206
0.19508812 0.2181776 0.26949218 -0.009761437 0.04561316 0.115973845 0.2809956 0.2839385
0.2627042 0.116269276 0.05364279 0.17534637 0.021180978 0.058810398 0.04651137 0.06143446
-0.0029269631 0.07047508 0.06963431 0.09211857 0.027477657 0.09883624 0.080326974 0.08201789
0.068141304 0.0026930056 0.104691476 -0.077788755 -0.05116041 -0.044395234 -0.050869692 -0.085708104
0.009703173 0.026373211 0.0057437127 0.004316667 0.07191635 -0.017614847 -0.005906257 0.07001702
00000000: 34a9 0e3e 6dd3 4e3d e997 823d 1ce4 49bc
00000010: e9b6 5ebd 9622 d53c 3174 363e 2f1d 0e3e
00000020: f1ca 923e d5bc 103c 860e 6e3c 9f86 ad3c
00000030: 24e8 0c3d bae5 c13d 6d32 85bc a211 8a3d
00000040: cc4d 8cbc 67b3 f83d a43a 213d 06ad 163e
00000050: 0288 0d3e d1db 053e beeb 213e 8e57 113e
00000060: 09bb 133e 228a 223e 0516 373e 5d95 0fbe
00000070: 94f8 6ebd 4d7b 26be 8f34 70bd e805 3ebd
00000080: 4ab4 40be 3119 dbbc 9781 803d 6b99 b1bd
00000090: 80d2 f2bd df38 223e aac2 40be 6e1b 58bd
000000a0: 44e9 ed3d efb0 cbbe 3d77 35bd 54bf 863d
000000b0: bbe5 ac3c 2388 e83c ef1e 473e 0a65 98be
000000c0: bdf2 6dbd f900 023e b97f c8be 17c7 bcbd
000000d0: 2bd9 863c e7f5 8d3b 7e16 e53d 7720 b53c
000000e0: e72c f03c 3449 1bbc c1f2 84bd f307 94bc
000000f0: a4e1 543d 52d5 683c c0ae 30bd a425 153e
00000100: 6dba 0e3d 0ab3 273c b400 b83b 38a7 2f3d
00000110: fa5c c93d 8742 f53d 5511 293d f6ac 513d
00000120: 1565 413d 0a48 2a3c 8d27 bf3d 2163 bdbd
00000130: 2f6b 56bb db24 633c 11ba bd3d 59bf c83d
00000140: ecea 793d e056 c4bc 4559 7d3d 17fb 293d
00000150: ac62 0f3e 7363 063b ae29 cebb 4d07 063c
00000160: c052 23bd 1fd0 0e3c 817a aa3c 5ec8 913c
00000170: 329a 2e3d 309e 3abd 7960 723c 6c21 6b3d
00000180: 3427 0fbd 8bba be3c 90e7 e53c aac6 883d
00000190: 0a7e 3dbd 4e2c 47bd a646 febb c267 1c3d
000001a0: 5541 553d a202 f83c 4e68 1d3d 85f8 9c3c
000001b0: dafd 4c3d 997c 12be e401 e2bd c6b8 12bd
000001c0: a2b5 eb3b c7f9 00be 36e9 e23c 2e6c 473c
000001d0: ebb6 833d 6000 71bd d493 173d cc02 053e
000001e0: 2322 bcbc f820 ba3d 7f75 e13d b9c8 e1bd
000001f0: e492 063e 1367 c83d 6c90 bbbd edba 383e
00000200: f8e5 033e 5024 93bd ae64 193e 7a3f 5ebb
00000210: 4c1a 8dbe f6ef d53d 78df fa3b f920 323c
00000220: 7f34 153e 978e 3b3d 566b e8bc ce70 3e3d
00000230: 1494 82bd 39b4 483d 41f5 18be eea8 83bd
00000240: 52c5 38be b41e 093e 926e 263d a17c 94bd
00000250: bde0 ac3d ce95 23bc 45d0 c3ba bacc 88bc
00000260: bba1 efbd 0ea7 67bd ec0d 173e 8e57 b13d
00000270: c1ab 06bd 2f67 3b3e ee2c a73d 8114 bcbd
00000280: e0ba 21bd 0f02 d8bc 21f1 793d 7a5b cdbd
00000290: c0f8 0abe 90fc 753d d5eb 89bd b98a 9dbd
000002a0: 5a52 043e 1e39 12be e027 0f3b ec0e 473d
000002b0: 7cb8 21be f13f bebc 6783 e33c fb3e 54bc
000002c0: 38fc 94bd 8903 4dbd 3abd 01be 1538 5dbc
000002d0: 9afd 2b3d 43a4 30bd cbaf db3d a3ba 59bc
000002e0: 9201 c63d f0ee a33d b620 90bd fd2f 92be
000002f0: a995 03bd 73e7 33bb 7b4b 90bd f1b2 8a3b
00000300: e560 3e3d 1c41 e83c 8274 373d 56f0 4e3d
00000310: 4ef0 8cbd 169b 2e3c ec6d b23b a617 5dbe
00000320: 7e2d 193d 0871 4f3a 1346 2bbe 7573 c53d
00000330: 38b3 ad3d a96e 79be 0b68 413d b884 e6bd
00000340: 64e9 bd3d 2955 17be 978c 22be c702 193e
00000350: fccd 15be e0ea 66be 7fb3 8b3d 3763 e7bd
00000360: 2ec5 473e f369 5f3e e1fa 893e 6fee 1fbc
00000370: ddd4 3a3d b283 ed3d a8de 8f3e 6360 913e
00000380: 2a81 863e 961e ee3d 8bb8 5b3d 008e 333e
00000390: bb83 ad3c 2ce3 703d b582 3e3d b3a2 7b3d
000003a0: 4bd2 3fbb 3d55 903d 6f9c 8e3d a9a8 bc3d
000003b0: d318 e13c a86a ca3d 7882 a43d fff8 a73d
000003c0: ab8d 8b3d 237d 303b 7c68 d63d b64f 9fbd
000003d0: 948d 51bd c7d7 35bd bd5c 50bd bb87 afbd
000003e0: 0ffa 1e3c a20c d83c c135 bc3b d472 8d3b
000003f0: e148 933d 034d 90bc 4689 c1bb 1565 8f3d

Generator.conv2.conv1.0.weight f4 [8, 8, 3, 3, 3]
0.072078265 -0.007526723 -0.008248279 0.2043732 0.099090606 -0.06338738 -0.17692147 -0.009489127
0.054392166 -0.075477555 -0.040752456 0.0036399367 -0.084580265 0.0076674493 0.024290014 -0.0349552
-0.07812468 0.076916784 0.018999593 -0.05387179 -0.015006041 -0.0024187148 -0.042407524 0.035950046
0.028195316 -0.01979352 0.06143787 0.050271723 -0.03244148 -0.05579111 0.0005451854 -0.0109999385
-0.03934271 0.053600106 0.07099283 0.0058740983 -0.15278499 -0.13372958 -0.0794308 -0.09076662
-0.06627216 -0.066844806 0.10711342 -0.01074204 -0.031293046 -0.04564098 -0.05947356 -0.16163321
0.0025224502 -0.063123584 -0.10039144 0.082724996 -0.0043126876 -0.057703637 -0.0003301646 0.07483843
0.16214922 0.02832162 0.023059638 0.19215646 -0.032288827 -0.048350144 0.036066305 -0.11540403
0.016857995 0.057198983 -0.06229105 -0.002479343 0.082552806 -0.17383523 -0.036392193 0.028577616
-0.09767603 -0.010659254 0.080678694 -0.119424276 0.068124235 0.13012554 -0.106648594 -0.061905254
0.063083544 0.0021802124 -0.028514182 0.049944837 -0.10559401 -0.06703163 -0.013380033 -0.014719808
-0.03418909 0.09009488 0.16139965 0.004697635 0.06532996 0.032073423 -0.022225993 0.014264552
0.011198426 -0.05273918 0.033724427 0.015632454 0.015664289 -0.020630684 -0.101873145 -0.04312429
0.060401138 -0.003048369 -0.040870335 0.013756246 0.060153406 0.0528531 -0.033537325 0.014166345
-0.026620548 0.023336597 -0.010827478 -0.001189612 0.026665831 0.030519946 0.01207498 0.062479194
0.05471633 0.07193896 0.07955202 0.0733047 -0.021105858 0.10971428 -0.037968554 0.00866836
0.064756535 -0.057662852 0.03306254 0.06146068 0.010924511 -0.036015727 -0.058258094 -0.010969653
0.088152684 0.031374987 -0.006121974 0.081476435 0.058570758 -0.010662966 -0.06142513 -0.023856701
-0.033734728 -0.014446168 -0.015637903 -0.0710814 -0.07281891 -0.054259207 -0.06260694 -0.10202872
0.04987485 -0.047892146 -0.03225258 -0.012157517 -0.1149972 -0.03712454 -0.10101326 -0.1561953
-0.18896022 0.07268275 0.08013585 0.07127948 0.08107136 0.071900405 0.009665913 0.028786842
0.0056446786 0.086856395 0.02050718 0.020036735 0.002938996 -0.0046239425 0.0563257 0.08076146
0.09709964 0.08516851 0.043582443 0.06962189 0.060237356 0.0057467483 -0.017948702 -0.054878917
0.057122957 -0.019034307 0.03202076 -0.059841227 0.016992986 -0.007325507 -0.020936757 0.041599546
-0.06344086 -0.051864386 0.042414017 -0.10810481 -0.06551644 0.00046855427 -0.032734293 -0.06348966
0.02436967 -0.082416624 -0.034524135 0.05091414 -0.06523166 -0.08562495 0.100612134 -0.083412506
-0.062491365 0.038176157 -0.018744802 0.007907065 0.070863895 -0.09035071 -0.055572774 0.03072398
-0.076557994 -0.11610949 0.14711803 -0.10319908 -0.007585563 0.03445174 0.061741736 -0.033269476
0.14069967 -0.04236257 -0.025049338 0.060605854 -0.022815293 0.015928244 0.044157393 0.046380207
0.08150292 0.020943265 0.012689327 -0.09079252 -0.021986231 0.06463582 0.0040425844 -0.014372977
0.0626365 0.08879499 0.016332814 -0.0319204 -0.007845015 0.013010418 -0.06395132 0.04057042
0.030605817 0.01581107 0.040388208 -0.02148663 -0.12537977 -0.12057446 -0.068282336 -0.081471585
00000000: c59d 933d bba2 f6bb ca23 07bc 3547 513e
00000010: 04f0 ca3d 3ed1 81bd e72a 35be 4978 1bbc
00000020: 52ca 5e3d fa93 9abd 0cec 26bd 018c 6e3b
00000030: 6b38 adbd 3a3f fb3b dafb c63c 2f2d 0fbd
00000040: d5ff 9fbd 8c86 9d3d 09a5 9b3c aba8 5cbd
00000050: e6db 75bc 4d83 1ebb 83b3 2dbd 5b40 133d
00000060: ddf9 e63c 0526 a2bc 47a6 7b3d b9e9 4d3d
00000070: 5be1 04bd 3885 64bd c6ea 0e3a 1639 34bc
00000080: d225 21bd c98b 5b3d b064 913d 827b c03b
00000090: ab73 1cbe 68f0 08be 9eac a2bd dae3 b9bd
000000a0: b3b9 87bd eee5 88bd 485e db3d 62ff 2fbc
000000b0: 232d 00bd 09f2 3abd 8c9a 73bd 2d83 25be
000000c0: b14f 253b f046 81bd 079a cdbd b96b a93d
000000d0: 7251 8dbb a65a 6cbd f119 adb9 e444 993d
000000e0: 720a 263e be02 e83c 91e7 bc3c aac4 443e
000000f0: 4a41 04bd cd0a 46bd 43ba 133d f358 ecbd
00000100: c719 8a3c 7b49 6a3d e624 7fbd 797c 22bb
00000110: 7211 a93d dd01 32be fb0f 15bd 9b1b ea3c
00000120: 5f0a c8bd 27a4 2ebc df3a a53d b794 f4bd
00000130: b884 8b3d a13f 053e 946a dabd 5d90 7dbd
00000140: f231 813d e5e1 0e3b 9396 e9bc f592 4c3d
00000150: ac41 d8bd e147 89bd ed37 5bbc 592b 71bc
00000160: dc09 0cbd aa83 b83d f345 253e 9eee 993b
00000170: b7cb 853d 6c5f 033d 4913 b6bc deb5 693c
00000180: 9a79 373c 0a05 58bd a022 0a3d a20f 803c
00000190: 6552 803c ae01 a9bc dea2 d0bd 18a3 30bd
000001a0: 2f67 773d 25c7 47bb a767 27bd e161 613c
000001b0: 6b63 763d 7e7c 583d 6f5e 09bd f519 683c
000001c0: 5613 dabc 642c bf3c bc65 31bc c1ec 9bba
000001d0: 4d72 da3c f704 fa3c 23d6 453c 2fea 7f3d
000001e0: 3b1e 603d bc54 933d 2bec a23d c620 963d
000001f0: 31e6 acbc e1b1 e03d ea84 1bbd bd05 0e3c
00000200: 139f 843d e22f 6cbd 966c 073d 32be 7b3d
00000210: b8fc 323c 3a85 13bd 0aa0 6ebd 0fba 33bc
00000220: 6589 b43d 0f83 003d d79a c8bb 1edd a63d
00000230: e4e7 6f3d b9b3 2ebc eb98 7bbd 216f c3bc
00000240: 6d2d 0abd 9faf 6cbc 0f1b 80bc 2093 91bd
00000250: 1522 95bd e73e 5ebd 1138 80bd 6ff4 d0bd
00000260: 9249 4c3d 8e2a 44bd 481b 04bd 5230 47bc
00000270: a783 ebbd e70f 18bd 0ae0 cebd a9f1 1fbe
00000280: ca7e 41be b2da 943d 441e a43d fafa 913d
00000290: be08 a63d 8540 933d c75d 1e3c 62d2 eb3c
000002a0: fff6 b83b c4e1 b13d acfe a73c 1424 a43c
000002b0: 2c9c 403b 7184 97bb c7b5 663d 4466 a53d
000002c0: 2ddc c63d d46c ae3d 8183 323d ec95 8e3d
000002d0: 72bb 763d 384f bc3b 2809 93bc b7c8 60bd
000002e0: c3f9 693d d6ed 9bbc 3328 033d 131c 75bd
000002f0: e034 8b3c ce0a f0bb 9083 abbc 4964 2a3d
00000300: 48ed 81bd c06f 54bd 52ba 2d3d 0e66 ddbd
00000310: 7c2d 86bd 4aa8 f539 6514 06bd de06 82bd
00000320: e7a2 c73c 0cca a8bd 2e69 0dbd 588b 503d
00000330: 2d98 85bd 225c afbd bc0d ce3d 2dd4 aabd
00000340: f2f6 7fbd 9a5e 1c3d b38e 99bc a28c 013c
00000350: 1721 913d cb09 b9bd 47a0 63bd dbb0 fb3c
00000360: 70ca 9cbd d0ca edbd 1ca6 163e 0a5a d3bd
00000370: 5190 f8bb 451d 0d3d e7e4 7c3d 9345 08bd
00000380: 9313 103e 6084 2dbd 4534 cdbc d83d 783d
00000390: 23e7 babc f37b 823c 62de 343d 2cf9 3d3d
000003a0: 01eb a63d 3691 ab3c e5e6 4f3c 6ef1 b9bd
000003b0: 781c b4bc c95f 843d a877 843b a37c 6bbc
000003c0: 9147 803d 26da b53d 65cc 853c f7be 02bd
000003d0: 6188 00bc a629 553c e9f8 82bd 2b2d 263d
000003e0: 0db9 fa3c 3886 813c 1b6e 253d bb04 b0bc
000003f0: 8e63 00be beef f6bd 9cd7 8bbd 93da a6bd

Generator.conv2.conv2.0.weight f4 [8, 8, 3, 3, 3]
0.07304192 -0.05095306 0.015217467 0.06705024 0.08866563 0.062301237 0.0441412 0.055208165
0.10907336 0.10889007 -0.005267298 0.061756976 0.020726018 0.016172208 -0.039099984 0.07017804
-0.04108803 0.027573075 0.006809684 -0.059106816 -0.03390108 0.05198042 -0.08633614 -0.08403017
-0.09192241 -0.034245 -0.0451461 0.098376684 0.07952182 -8.185477e-05 0.0454582 0.0852928
0.15622224 0.07227914 0.053420685 0.091772154 0.062871315 0.011855576 -0.034737222 0.002228748
0.088405475 0.031772815 -0.007030784 -0.004281309 0.098510526 0.0011153071 0.059742365 -0.021596704
0.042257227 0.03428169 0.030689972 -0.024765898 0.07116153 0.032116227 0.21963383 0.0902368
0.038473487 -0.035809677 -0.1073953 -0.10288281 0.052381504 -0.007873063 -0.056614548 -0.0003027449
-0.101298295 -0.012865686 -0.10790105 -0.11195686 -0.19453602 0.025230179 -0.0048585455 -0.15681235
-0.008885022 -0.05521691 0.109810404 -0.073067866 -0.15395968 -0.016733805 0.07892075 0.02572261
-0.036356557 0.08555458 0.07854772 0.13372353 0.009523411 0.04347444 0.0057893926 0.078565225
0.008651618 -0.0010885895 0.15655686 0.007992756 0.06961908 -0.014038061 -0.0975407 -0.097208336
-0.019646043 -0.117494896 0.023211414 -0.0031527793 -0.073173866 0.04821177 -0.0722973 -0.07402456
-0.055468664 0.059337884 -0.090520956 -0.028523926 -0.04733023 -0.04383338 -0.027160326 0.06634477
0.06017609 -0.0037408124 0.12111057 0.05960786 0.05628698 -0.14077227 -0.112653054 0.00045354536
-0.08367542 -0.08344157 -0.018450238 0.036239684 -0.033983096 0.03705516 -0.16328825 -0.11396498
-0.022612793 0.11684384 0.059496876 -0.03431991 0.0978704 -0.045044836 -0.118540324 0.02551208
-0.17245078 -0.12326825 -0.07479081 -0.22905082 0.0040510823 -0.1478455 -0.1733408 0.15153833
0.004515477 0.024540894 -0.048357837 -0.00214976 -0.0659907 -0.09471079 0.08514789 -0.11911176
-0.0791611 0.10245965 0.025841959 0.099025175 0.066549376 -0.008352192 -0.10819757 0.18499209
-0.035651863 0.03655959 0.10953467 0.01132942 0.190609 0.000109559696 -0.057214014 -0.09220863
0.08685788 -0.07680362 -0.052634474 0.085677885 0.042279847 0.18916391 0.11422048 0.010328607
-0.011144682 -0.0008723797 -0.010931792 -0.101024635 -0.03815467 0.098051585 0.016144918 0.0144312475
0.04960327 -0.12955602 0.058973365 -0.015256829 -0.120918736 -0.03927612 -0.068093546 -0.102032505
-0.0738986 -0.07921306 -0.08461456 -0.039740887 -0.009760266 0.020871595 -0.046415944 0.009430904
-0.045075793 -0.013406187 -0.058429554 -0.02407605 0.050120205 0.038254067 0.0023767739 0.14718351
0.11283651 0.13328452 0.046111617 0.096714914 -0.014442095 0.15527949 0.02580162 -0.009155823
-0.14799176 -0.075147256 0.018318322 -0.07542457 -0.060557857 -0.09517056 -0.15210803 -0.011794677
-0.021855677 0.059854295 0.04839539 0.0050130794 0.06386676 0.03808894 0.012947717 -0.009637153
0.00123731 0.048287764 0.04577913 0.09737845 0.06898641 0.14990966 0.10246916 0.06717263
0.13135044 0.02113025 0.029383734 -0.13703364 -0.10251222 0.047733076 -0.11675474 -0.08701047
-0.02493476 -0.25259995 -0.10753812 0.0042617456 0.02850999 0.03164555 -0.033675734 0.02698226
00000000: 0197 953d 28b4 50bd af52 793c a351 893d
00000010: 5396 b53d 952f 7f3d 67cd 343d f521 623d
00000020: db61 df3d c201 df3d 4c99 acbb e2f4 7c3d
00000030: 9cc9 a93c 947b 843c 4e27 20bd 81b9 8f3d
00000040: ec4b 28bd eee0 e13c c523 df3b fd19 72bd
00000050: dcdb 0abd 6ce9 543d 01d1 b0bd 0318 acbd
00000060: d141 bcbd 7c44 0cbd 1eeb 38bd b779 c93d
00000070: 56dc a23d 72a9 abb8 6132 3a3d fead ae3d
00000080: b9f8 1f3e 1607 943d a6cf 5a3d 0af3 bb3d
00000090: adc2 803d e43d 423c 9e48 0ebd 3010 123b
000000a0: ee0d b53d 3624 023d 7e62 e6bb 394a 8cbb
000000b0: e3bf c93d 7f2f 923a 69b4 743d 92eb b0bc
000000c0: ea15 2d3d f56a 0c3d 8969 fb3c dae1 cabc
000000d0: 23bd 913d 4e8c 033d b1e7 603e 12ce b83d
000000e0: 6096 1d3d 2bad 12bd 11f2 dbbd 39b4 d2bd
000000f0: fd8d 563d 05fe 00bc a8e4 67bd bcb9 9eb9
00000100: 7b75 cfbd 99ca 52bc 3afb dcbd a349 e5bd
00000110: 7334 47be 85af ce3c 6f34 9fbb 6b93 20be
00000120: 7c92 11bc 202b 62bd 47e4 e03d 9ba4 95bd
00000130: 9ba7 1dbe 5515 89bc 34a1 a13d 39b8 d23c
00000140: 9dea 14bd 3d37 af3d a1dd a03d d2ee 083e
00000150: 1508 1c3c 4112 323d f2b4 bd3b cee6 a03d
00000160: 84bf 0d3c 01af 8eba 7150 203e 0cf4 023c
00000170: 7394 8e3d e5ff 65bc 6bc3 c7bd 2a15 c7bd
00000180: bdf0 a0bc 2aa1 f0bd dd25 be3c dc9e 4ebb
00000190: 2edc 95bd b479 453d 9b10 94bd 309a 97bd
000001a0: 1c33 63bd 480c 733d 0d63 b9bd 02ab e9bc
000001b0: 58dd 41bd a18a 33bd 557f debc c4df 873d
000001c0: 347b 763d 6b28 75bb d208 f83d 5f27 743d
000001d0: 2d8d 663d 9b26 10be a5b6 e6bd d4c9 ed39
000001e0: 055e abbd 6ae3 aabd f424 97bc 1070 143d
000001f0: dc31 0bbd 27c7 173d 0935 27be 7966 e9bd
00000200: 773e b9bc d34b ef3d ffb2 733d 0993 0cbd
00000210: 4770 c83d ef80 38bd 45c5 f2bd b6fe d03c
00000220: f096 30be 1074 fcbd ed2b 99bd 4c8c 6abe
00000230: f1be 843b d064 17be 4080 31be dd2c 1b3e
00000240: 91f6 933b fc09 c93c de12 46bd fde2 0cbb
00000250: 2226 87bd bbf7 c1bd 0462 ae3d def0 f3bd
00000260: 371f a2bd 5dd6 d13d 84b2 d33c b6cd ca3d
00000270: 0a4b 883d a2d7 08bc b096 ddbd 916e 3d3e
00000280: b007 12bd 82bf 153d b753 e03d 089f 393c
00000290: 012f 433e 6ac3 e538 3e59 6abd e1d7 bcbd
000002a0: 8be2 b13d 374b 9dbd 3f97 57bd e377 af3d
000002b0: a22d 2d3d 2fb4 413e 6dec e93d 5139 293c
000002c0: 2f98 36bc 69b0 64ba 421b 33bc 01e6 cebd
000002d0: 1248 1cbd 45cf c83d 5942 843c 0a71 6c3c
000002e0: cc2c 4b3d 55aa 04be 0e8e 713d c7f7 79bc
000002f0: 3ea4 f7bd ffdf 20bd a174 8bbd 6bf6 d0bd
00000300: 2658 97bd 753a a2bd 664a adbd 57c7 22bd
00000310: 86e9 1fbc e8fa aa3c a51e 3ebd 1484 1a3c
00000320: 65a1 38bd a0a5 5bbc d453 6fbd 233b c5bc
00000330: d84a 4d3d 4cb0 1c3d a6c3 1b3b 46b7 163e
00000340: d416 e73d bd7b 083e 89df 3c3d 7812 c63d
00000350: 899e 6cbc 9601 1f3e eb5d d33c 4e02 16bc
00000360: 278b 17be cee6 99bd 4e10 963c 3278 9abd
00000370: 840b 78bd c8e8 c2bd 35c2 1bbe 763e 41bc
00000380: ad0a b3bc c729 753d 3f3a 463d c244 a43b
00000390: 93cc 823d 2603 1c3d a922 543c 26e5 1dbc
000003a0: 3c2d a23a 64c9 453d e682 3b3d 5a6e c73d
000003b0: bf48 8d3d eb81 193e 5adb d13d ce91 893d
000003c0: bb80 063e 5919 ad3c 28b6 f03c 8c52 0cbe
000003d0: edf1 d1bd c283 433d 1c1d efbd 8c32 b2bd
000003e0: fb43 ccbc c854 81be f23c dcbd 1da6 8b3b
000003f0: c88d e93c c49e 013d 91ef 09bd e709 dd3c

Generator.conv3.conv1.0.weight f4 [8, 8, 3, 3, 3]
0.0101318015 0.07349693 -0.010663364 -0.021417737 0.0013743445 0.04023909 0.09294939 -0.01725555
0.005044002 -0.027930079 0.02431809 -0.058159262 0.01664598 -0.02556973 -0.0824088 -0.03491452
0.045032214 -0.029315468 -0.029574718 0.07076829 -0.0063569066 0.051980503 -0.06741395 -0.0039207055
-0.0411689 0.025922848 -0.050965194 -0.044791866 0.012774274 0.03431392 0.005356324 -0.0158569
-0.075215235 0.059062935 -0.05493723 0.0382662 0.007688572 0.058114022 0.13057113 -0.017127221
-0.026384525 -0.08205593 -0.0061895302 -0.10309879 0.020530697 0.0024822382 0.06995969 -0.03545002
0.047075596 -0.034029834 -0.059427388 -0.040600147 -0.07714107 0.017406028 -0.037662204 -0.003710509
-0.029932499 -0.04643232 -0.033213224 0.027850805 -0.0056944704 -0.019765219 -0.0044166893 0.038264725
0.034790102 0.06043834 -0.035925068 0.09344919 0.07034807 -0.035609778 0.006918687 -0.02447894
0.04221238 -0.0643397 0.027260957 -0.0159125 0.054647528 -0.020536838 0.057457183 -0.04987169
-0.04412343 0.028975217 0.0019711547 0.013150708 -0.008661437 0.018125286 -0.046970394 0.083547845
-0.016507754 0.060867965 -0.009901737 0.04523251 0.034742866 -0.042474873 0.06372901 -0.0488946
-0.07273921 -0.036848307 -0.0124775125 -0.04418276 0.056027018 -0.0212013 0.072858036 0.11260023
0.03959122 -0.004692376 -0.0352297 -0.0988623 0.053469647 -0.0273686 0.006480996 0.067603715
-0.03646477 0.034112338 0.07242866 0.044095647 -0.062306434 0.038599446 0.062808566 0.057098564
-0.0017704779 0.049436923 0.078141846 0.029041879 0.07228269 -0.06876486 -0.019463364 -0.0047159856
0.029780373 -0.07337256 -0.045675356 -0.023885876 0.04577783 -0.05424143 -0.040723376 -0.053985357
0.05070065 0.019963473 0.009181264 0.056879357 -0.06496126 0.008400554 -0.0126087265 0.032268934
0.016182713 0.08232151 0.022776347 -0.031789504 0.040996034 0.004516419 -0.04498337 -0.087748215
0.02795123 -0.06729277 0.06407193 -0.0649766 0.02171473 0.06713968 0.06332055 0.049760744
-0.08952386 -0.025942842 -0.046898857 0.044975683 0.051846266 -0.018045593 -0.050324947 -0.03203838
0.11617776 0.023093384 0.018225905 0.04526709 -0.04627945 0.0787585 0.06393308 -0.074391246
0.049648717 0.036174327 0.02938528 0.038819656 0.02760079 -0.027809177 -0.09213618 0.00872944
0.036246546 -0.044754412 -0.066909835 0.08579843 0.014912996 0.016392503 0.0017736597 0.002188687
0.0022130415 0.042835504 -0.014423014 -0.082901984 0.0028887037 0.010567274 -0.005424175 -0.0059429966
-0.015950803 0.026594803 0.14994726 0.048285343 -0.018149523 -0.03413628 0.07073906 -0.035640355
-0.08585375 -0.010350081 0.059007183 0.12172273 -0.076644406 -0.028906597 -0.03534754 -0.04787982
0.017365724 -0.03542435 -0.016571626 0.035994053 0.013354322 0.05714048 0.020201191 0.04373375
0.019760735 0.092590615 -0.07942038 -0.009869327 0.05804989 0.04181012 -0.07681154 -0.03616824
0.047359295 -0.15270399 0.019084882 0.01108972 0.012975562 0.0512225 0.016927635 -0.048603334
-0.043553747 -0.04170645 0.009886971 0.01830289 -0.074547656 -0.112833366 0.032780737 0.090494
-0.09592376 0.082026914 0.04362279 0.007835264 0.087702915 0.031873185 -0.014517243 0.11741351
00000000: dbff 253c 8f85 963d 64b5 2ebc 4074 afbc
00000010: 5923 b43a bed1 243d 405c be3d 835b 8dbc
00000020: 2848 a53b 9fcd e4bc bb36 c73c 6838 6ebd
00000030: 265d 883c 9c77 d1bc f2c5 a8bd 8702 0fbd
00000040: b373 383d fe26 f0bc ae46 f2bc f7ee 903d
00000050: 994d d0bb 82e9 543d 5310 8abd 4379 80bb
00000060: b8a0 28bd 275c d43c e1c0 50bd ad77 37bd
00000070: 304b 513c c18c 0c3d 1a84 af3b 54e6 81bc
00000080: 720a 9abd faeb 713d dc05 61bd 05bd 1c3d
00000090: 6bf0 fb3b f808 6e3d 70b4 053e 634e 8cbc
000000a0: 5c24 d8bc f00c a8bd 8bd1 cabb 7525 d3bd
000000b0: fe2f a83c 0cad 223b 0747 8f3d 0a34 11bd
000000c0: 57d2 403d de62 0bbd 226a 73bd 574c 26bd
000000d0: 23fc 9dbd 1697 8e3c af43 1abd 032c 73bb
000000e0: 0035 f5bc d12f 3ebd 970a 08bd 5f27 e43c
000000f0: ae98 babb abea a1bc e0b9 90bb 79bb 1c3d
00000100: 1180 0e3d 318e 773d 2a26 13bd 4a62 bf3d
00000110: a612 903d 8fdb 11bd 27b6 e23b 0f88 c8bc
00000120: e3e6 2c3d 88c4 83bd 5f52 df3c ee5a 82bc
00000130: 16d6 5f3d df3c a8bc 3958 6b3d 4246 4cbd
00000140: c5ba 34bd 6f5d ed3c 7d2e 013b 1176 573c
00000150: b3e8 0dbc 7b7b 943c 0764 40bd 221b ab3d
00000160: 453b 87bc b050 793d e53a 22bc b945 393d
00000170: 894e 0e3d 22fa 2dbd 5b84 823d b445 48bd
00000180: 4cf8 94bd 40ee 16bd 7b6e 4cbc fbf8 34bd
00000190: 967c 653d 59ae adbc 9836 953d f39a e63d
000001a0: 672a 223d 81c2 99bb 054d 10bd 5178 cabd
000001b0: fd02 5b3d 1d34 e0bc 895e d43b d173 8a3d
000001c0: 155c 15bd 61b9 0b3d 7a55 943d a39d 343d
000001d0: 0835 7fbd 741a 1e3d c7a1 803d 2fe0 693d
000001e0: 610f e8ba 5f7e 4a3d d508 a03d 3ce9 ed3c
000001f0: f208 943d 97d4 8cbd a271 9fbc 8e88 9abb
00000200: f8f5 f33c 5a44 96bd 1516 3bbd 50ac c3bc
00000210: 8981 3b3d 432c 5ebd 8ecd 26bd c01f 5dbd
00000220: 7cab 4f3d 708a a33c 036d 163c 54fa 683d
00000230: 690a 85bd 7aa2 093c d594 4ebc 6e2c 043d
00000240: 9c91 843c 2e98 a83d 7695 ba3c b635 02bd
00000250: 75eb 273d 78fe 933b 7b40 38bd 56b5 b3bd
00000260: faf9 e43c cbd0 89bd 2538 833d 7412 85bd
00000270: 17e3 b13c 8780 893d 34ae 813d ecd1 4b3d
00000280: 4958 b7bd 1586 d4bc 0419 40bd 6c38 383d
00000290: c05c 543d 5ad4 93bc 8821 4ebd ad3a 03bd
000002a0: 9bee ed3d 562e bd3c 7e4e 953c fc69 393d
000002b0: 858f 3dbd 234c a13d 59ef 823d 705a 98bd
000002c0: 745c 4b3d 882b 143d 66b9 f03c 5c01 1f3d
000002d0: 0d1b e23c 12d0 e3bc e5b1 bcbd ed05 0f3c
000002e0: 4277 143d 6750 37bd 0608 89bd 16b7 af3d
000002f0: a455 743c 9249 863c 257a e83a 1370 0f3b
00000300: ad08 113b 4874 2f3d 814e 6cbc 84c8 a9bd
00000310: 6850 3d3b 5c22 2d3c 47bd b1bb 78bd c2bb
00000320: 42ab 82bc 58dd d93c c68b 193e dac6 453d
00000330: 4fae 94bc 7cd2 0bbd a4df 903d 9ffb 11bd
00000340: 17d4 afbd 6393 29bc 84b1 713d c449 f93d
00000350: bef7 9cbd 87cd ecbc 95c8 10bd a11d 44bd
00000360: 9042 8e3c 2019 11bd 38c1 87bc 806e 133d
00000370: 16cc 5a3c 230c 6a3d f87c a53c 2922 333d
00000380: 44e1 a13c 26a0 bd3d 27a7 a2bd f5b2 21bc
00000390: b9c5 6d3d 1741 2b3d 5e4f 9dbd 2625 14bd
000003a0: d2fb 413d 6f5e 1cbe e657 9c3c a8b1 353c
000003b0: 7497 543c afce 513d d3ab 8a3c 4a14 47bd
000003c0: 6a65 32bd 62d4 2abd f6fc 213c f1ef 953c
000003d0: 71ac 98bd 2e15 e7bd 1845 063d eb54 b93d
000003e0: ad73 c4bd bafd a73d d0ad 323d 7b5f 003c
000003f0: 969d b33d 758d 023d bbd9 6dbc 7f76 f03d

Generator.conv3.conv2.0.weight f4 [8, 8, 3, 3, 3]
0.045200415 0.023009678 0.009733458 -0.05778984 0.043763027 -0.023066081 -0.08748476 -0.01472931
-0.066041864 0.043316424 -0.036959585 0.046987835 0.014490294 0.048181422 -0.01968019 -0.04072547
0.028048217 -0.04942203 0.024885908 -0.015191788 -0.029083826 0.046629056 0.067785196 0.08188756
0.0019397889 0.08969024 0.03386891 0.10620847 -0.11924713 -0.1337758 0.123926505 -0.045616988
-0.090196736 0.037518278 0.049897633 0.0035058355 0.082304575 -0.07500413 -0.09142863 -0.087232515
-0.033278536 -0.033567566 -0.07911808 -0.12465964 -0.12932996 0.0939219 0.0024922737 -0.13046445
-0.06735983 -0.0050034947 -0.12041205 -0.07424421 -0.062110547 -0.07755995 -0.017009811 0.03436163
-0.20308363 0.033731386 -0.016357113 -0.008349257 0.048640337 0.06363802 0.09070789 0.09180415
-0.023252787 -0.006165008 0.09765142 0.083095945 -0.043771204 -0.0030429566 0.17533572 -0.005768486
0.08035637 0.15217182 0.06130753 0.09733239 0.17468953 0.065257736 -0.044625137 0.036401343
0.11563135 -0.042222492 0.10305263 0.024480792 -0.061444554 -0.047694452 0.056927167 0.027327705
-0.071004584 -0.020418061 -0.08217669 0.00066499505 0.025794208 -0.10493636 -0.23850422 0.038825914
0.009286471 -0.1759529 -0.048640445 -0.122329965 -0.09462256 0.017558208 0.0015905395 -0.2106347
-0.019131187 0.07813159 -0.044089578 -0.047609545 -0.28259873 -0.13316812 -0.07618069 -0.09948397
-0.10246436 -0.1003071 -0.21478425 -0.12376843 -0.07519405 -0.017494958 -0.014884108 0.059752345
0.057932287 0.02669845 -0.009521547 -0.08371053 0.004358671 0.0073032402 -0.3770191 -0.2066804
-0.08911216 -0.13844892 -0.13181755 -0.126385 -0.06941668 -0.032463554 0.06588091 0.07099106
-0.0020297559 -0.27695033 -0.1255373 -0.045046907 -0.010844564 0.17416069 -0.05230056 0.102025345
-0.08432412 -0.08280595 -0.00022742512 -0.00062590285 0.04043361 0.11036019 0.14364563 -0.03320787
0.10571459 0.03953145 0.11912342 -0.0403299 0.096818134 0.022193212 0.06832852 0.18573634
-0.0037773438 -0.0013601341 0.1027038 0.11579618 0.11999813 -0.012861418 -0.027127104 0.06908104
-0.098532945 -0.17763324 0.09091954 -0.02329622 0.03259252 0.09318495 -0.10421305 -0.088850014
0.0849922 -0.11315716 0.0025868912 0.087745234 -0.15890396 -0.033610016 0.18154112 -0.13192047
-0.056373674 0.20891488 -0.06539694 0.08636289 0.10565748 -0.013303526 -0.019601343 0.09324899
-0.03962077 -0.02721497 0.07756048 -0.041352086 0.0014682111 0.14926922 0.1622135 0.053129345
0.08906551 0.046115696 0.026912669 0.012137523 -0.04820335 0.08889846 -0.002544884 0.14393707
-0.01025735 -0.018468952 0.13567117 0.02765003 0.016157184 0.08605043 0.13904433 -0.016945919
0.0323437 0.0056319577 -0.07765529 -0.004181935 -0.07298566 -0.09744775 0.021315519 0.01031105
0.007668397 0.010221848 -0.03568161 -0.072379716 -0.013519921 0.07069047 -0.07105477 0.05661055
0.018070444 0.0035956833 0.0055700745 0.11168595 0.0685021 0.05748123 0.0700852 0.037117444
0.046241593 -0.041946873 0.010420265 0.016338194 0.05681848 -0.13541226 0.08813013 0.11406627
0.045309123 0.15653539 0.01070708 0.09529867 0.003721153 0.11071447 -0.073335335 0.076457076
00000000: 1224 393d cb7e bc3c 1579 1f3c 0ab5 6cbd
00000010: dc40 333d 14f5 bcbc 362b b3bd 3453 71bc
00000020: f540 87bd 906c 313d ef62 17bd 5176 403d
00000030: b368 6d3c e259 453d 5a38 a1bc c0cf 26bd
00000040: 60c5 e53c c16e 4abd 88dd cb3c fae6 78bc
00000050: 3441 eebc 1cfe 3e3d f7d2 8a3d aab4 a73d
00000060: 8440 fe3a 84af b73d 20ba 0a3d d483 d93d
00000070: d737 f4bd 86fc 08be 2ecd fd3d e1d8 3abd
00000080: 11b9 b8bd c4ac 193d 7661 4c3d 29c2 653b
00000090: 4d8f a83d c49b 99bd ef3e bbbd f6a6 b2bd
000000a0: 134f 08bd 257e 09bd a908 a2bd 8e4d ffbd
000000b0: 136f 04be 205a c03d 6a55 233b 7998 05be
000000c0: f3f3 89bd 5bf4 a3bb 989a f6bd 590d 98bd
000000d0: a167 7ebd c0d7 9ebd 2958 8bbc c8be 0c3d
000000e0: 28f5 4fbe ec29 0a3d 5aff 85bc 52cb 08bc
000000f0: 173b 473d a654 823d 0fc5 b93d d003 bc3d
00000100: a17c bebc d603 cabb 78fd c73d 352e aa3d
00000110: 6f49 33bd 576c 47bb 358b 333e 9105 bdbb
00000120: e191 a43d eed2 1b3e 9b1d 7b3d 3456 c73d
00000130: d0e1 323e d9a5 853d d9c8 36bd 9319 153d
00000140: 21d0 ec3d 7ef1 2cbd 420d d33d f18b c83c
00000150: 49ad 7bbd 425b 43bd 762c 693d 5ade df3c
00000160: da6a 91bd c743 a7bc 414c a8bd 1053 2e3a
00000170: 604e d33c e0e8 d6bd 733a 74be ec07 1f3d
00000180: 4826 183c ff2c 34be 343b 47bd 2288 fabd
00000190: 79c9 c1bd 3bd6 8f3c a679 d03a 9fb0 57be
000001a0: 02b9 9cbc 7403 a03d 4697 34bd 3a02 43bd
000001b0: c8b0 90be 395d 08be 9f04 9cbd 40be cbbd
000001c0: d6d8 d1bd cf6d cdbd 67f0 5bbe 4d7a fdbd
000001d0: 57ff 99bd 9651 8fbc 79dc 73bc e0be 743d
000001e0: 684a 6d3d b5b6 da3c 4300 1cbc 6d70 abbd
000001f0: 2fd3 8e3b 0550 ef3b a608 c1be 07a4 53be
00000200: 7080 b6bd 8ec5 0dbe 2efb 06be 126b 01be
00000210: 552a 8ebd 81f8 04bd 92ec 863d c363 913d
00000220: a705 05bb 6fcc 8dbe da8c 00be 1b83 38bd
00000230: 66ad 31bc 2e57 323e 1d39 56bd aaf2 d03d
00000240: 20b2 acbd 2a96 a9bd f778 6eb9 a113 24ba
00000250: b79d 253d 8604 e23d d717 133e fa04 08bd
00000260: e480 d83d bbeb 213d fbf6 f33d f730 25bd
00000270: 9648 c63d 8ace b53c d3ef 8b3d ab31 3e3e
00000280: 508d 77bb 8746 b2ba 5f56 d23d 8c26 ed3d
00000290: 94c1 f53d b2b8 52bc a939 debc 5c7a 8d3d
000002a0: a4cb c9bd 7de5 35be 0634 ba3d b7d7 bebc
000002b0: bc7f 053d c0d7 be3d a76d d5bd fff6 b5bd
000002c0: 6410 ae3d f1be e7bd d588 293b c6b3 b33d
000002d0: b8b7 22be a8aa 09bd eae5 393e 2916 07be
000002e0: 15e8 66bd c8ed 553e d5ee 85bd 07df b03d
000002f0: f362 d83d 08f7 59bc ff92 a0bc 54f9 be3d
00000300: 6349 22bd eef1 debc 07d8 9e3d ce60 29bd
00000310: fd70 c03a 08da 183e 4c1b 263e 289e 593d
00000320: fa67 b63d d0e3 3c3d f577 dc3c 76dc 463c
00000330: e070 45bd 6510 b63d 12c8 26bb 3d64 133e
00000340: 720e 28bc 334c 97bc 62ed 0a3e 5182 e23c
00000350: 125c 843c 353b b03d a361 0e3e 2bd2 8abc
00000360: d47a 043d 498c b83b bd09 9fbd 9d08 89bb
00000370: 8179 95bd b092 c7bd e29d ae3c aeef 283c
00000380: 2d47 fb3b 8a79 273c e126 12bd d13b 94bd
00000390: a982 5dbc 2ac6 903d 2a85 91bd 77e0 673d
000003a0: 7808 943c 8ea5 6b3b 2c85 b63b 9abb e43d
000003b0: d44a 8c3d 7071 6b3d d488 8f3d 7608 183d
000003c0: d367 3d3d 7cd0 2bbd c2b9 2a3c add7 853c
000003d0: 7fba 683d 83a9 0abe 927d b43d 949b e93d
000003e0: 0f96 393d d04a 203e c06c 2f3c f32b c33d
000003f0: 96de 733b 45be e23d d630 96bd 8795 9c3d

Generator.conv4.conv1.0.weight f4 [8, 8, 3, 3, 3]
-0.028051129 -0.0017348239 -0.054597966 0.0031349123 0.032522406 0.0045069046 -0.0013481484 0.025130857
-0.014990135 -0.040518355 -0.019396037 -0.09360302 -0.07421611 -0.019084716 -0.021083247 0.09081563
0.022603 0.05111175 0.036850467 0.037102602 0.06580928 0.03311706 -0.11486128 0.019416364
-0.057330005 -0.034580555 0.025575612 -0.033414718 0.029274568 0.07140326 -0.011686899 0.059291385
0.060861632 -0.0929544 0.0739099 -0.038961533 0.017367674 -0.026138628 -0.043321587 -0.0026734485
-0.03394069 -0.069186404 -0.01096324 0.04319878 0.04121478 0.058594815 -0.034724746 -0.027456904
0.050939012 -0.028414063 0.015918741 0.06737369 0.04932668 0.02372881 -0.09017932 -0.1208461
-0.10668507 -0.028806308 0.025690774 -0.059697498 0.055579934 0.030577313 -0.0019357412 0.012794535
-0.15063904 -0.062957615 0.02114253 -0.07089005 -0.030298393 0.011424001 0.059642535 -0.025208669
0.08058369 -0.026878856 -0.005643834 0.00625036 -0.11513035 0.051742118 -0.004264915 -0.050982337
0.016637526 0.016336462 -0.016391441 -0.04607731 -0.00062765257 -0.018199086 -0.06801428 0.039559487
0.02855043 0.06891445 0.013002097 -0.054302223 -0.037570976 0.013523504 -0.069109924 -0.023448419
0.09899312 0.098716184 0.04987699 -0.044606157 -0.078217864 -0.06488127 -0.02179515 0.0144264875
-0.107395165 0.077968374 0.007113135 0.0021655771 -0.09593007 -0.084096625 0.0050755367 -0.025118798
0.026267039 0.03882571 -0.003505861 0.054243747 0.028736936 -0.012786952 -0.030994475 0.055133514
-0.03162977 0.000117845266 0.02195305 0.017347137 0.014739138 -0.020056508 0.080102526 -0.03177795
0.05521993 0.0058965296 0.006611748 -0.009521009 0.008655759 0.034185175 0.061698228 -0.031177506
0.043999944 -0.08924627 0.013513553 0.097514845 0.01007577 0.057329793 0.056489766 -0.05046329
0.019530097 0.008835544 -0.014704955 -0.007069947 -0.06320959 -0.0071812333 0.03675146 0.019709108
-0.021827672 0.044603556 0.005465022 -0.029109642 0.016777245 -0.031696558 -0.028638404 0.005147147
-0.055977654 0.0026657004 -0.09902379 -0.026631253 -0.094603255 -0.00446075 0.104221195 0.087118246
-0.0070953146 0.03684208 0.03372952 -0.06730647 -0.027380263 0.0144359395 -0.0020354623 -0.11658789
-0.0013103882 0.06952995 0.054147657 -0.0113806985 0.076346695 0.0852727 0.026266264 -0.0911953
-0.028546927 -0.00929565 -0.06867895 -0.028396923 0.0040225205 -0.04664725 -0.056252707 -0.082601026
-0.020042412 0.023933558 -0.03243364 0.007821512 -0.0034723089 0.035223812 0.036314797 -0.08761432
0.011837005 0.020756178 -0.07943916 -0.050360605 0.06338922 0.079018734 -0.04706868 0.022910852
0.034547675 -0.055462997 0.010727503 -0.070971124 -0.10225941 0.023784753 0.009108567 0.025544036
-0.008716364 0.08248224 0.052322745 0.0152681535 0.10815799 0.05196633 -0.037989315 0.030093411
0.057602968 0.07475073 0.051151603 -0.003987514 -0.036741827 0.040755145 0.03737118 0.016051993
0.021487953 0.010690119 -0.0036819105 -0.074697524 -0.034374103 0.047334652 -0.06775238 -0.104222335
0.0694276 0.023172436 -0.0668703 -0.039757747 0.060098194 0.055049945 -0.086911306 0.099546775
0.07839695 -0.0018990858 -0.09858649 -0.02604732 0.013659413 0.037253946 0.037349194 -0.019198218
00000000: 7bcb e5bc 0863 e3ba 1ea2 5fbd 1a73 4d3b
00000010: 3736 053d a8ae 933b 5bb4 b0ba 3adf cd3c
00000020: 2f99 75bc 93f6 25bd 70e4 9ebc f1b2 bfbd
00000030: 9efe 97bd 8d57 9cbc c6b6 acbc 8cfd b93d
00000040: ed29 b93c 8e5a 513d 84f0 163d e6f8 173d
00000050: 04c7 863d c1a5 073d 643c ebbd 110f 9f3c
00000060: ded2 6abd 57a4 0dbd f283 d13c dfdd 08bd
00000070: 38d1 ef3c df3b 923d 687a 3fbc 86db 723d
00000080: 0c4a 793d e05e bebd 135e 973d 2196 1fbd
00000090: a746 8e3c ad20 d6bc fa71 31bd 0635 2fbb
000000a0: 6505 0bbd 9ab1 8dbd 299f 33bc 34f1 303d
000000b0: d4d0 283d 1e01 703d 893b 0ebd 4ded e0bc
000000c0: 6da5 503d 9cc4 e8bc 0568 823c 38fb 893d
000000d0: c60a 4a3d ec62 c23c efaf b8bd 297e f7bd
000000e0: b47d dabd 35fb ebbc 7575 d23c 5d85 74bd
000000f0: c9a7 633d 467d fa3c b2b8 fdba 2ba0 513c
00000100: 1f41 1abe ecef 80bd 1933 ad3c cd2e 91bd
00000110: 5634 f8bc bc2b 3b3c bb4b 743d 6982 cebc
00000120: 1009 a53d 0c31 dcbc e9ef b8bb d2cf cc3b
00000130: 76c9 ebbd 8bef 533d b3c0 8bbb dbd2 50bd
00000140: 6c4b 883c 0bd4 853c 5847 86bc 90bb 3cbd
00000150: 0d89 24ba 4016 95bc 124b 8bbd 2109 223d
00000160: 97e2 e93c 0523 8d3d bf06 553c 026c 5ebd
00000170: 06e4 19bd b091 5d3c 8189 8dbd e616 c0bc
00000180: e8bc ca3d b62b ca3d d14b 4c3d f2b4 36bd
00000190: b030 a0bd 79e0 84bd be8b b2bc 135d 6c3c
000001a0: fff1 dbbd e2ad 9f3d 4d15 e93b 5bec 0d3b
000001b0: fc76 c4bd da3a acbd b050 a63b f0c5 cdbc
000001c0: f92d d73c b507 1f3d 96c2 65bb b12e 5e3d
000001d0: b969 eb3c 5d80 51bc 20e8 fdbc aed3 613d
000001e0: 388e 01bd b223 f738 e2d6 b33c 951b 8e3c
000001f0: 6d7c 713c 8c4d a4bc cb0c a43d 9829 02bd
00000200: 4b2e 623d ad37 c13b 5da7 d83b 02fe 1bbc
00000210: e2d0 0d3c c105 0c3d 48b7 7c3d f867 ffbc
00000220: 4939 343d c0c6 b6bd f367 5d3c ddb5 c73d
00000230: d814 253c a5d2 6a3d d061 673d 98b2 4ebd
00000240: 95fd 9f3c f5c2 103c 0ded 70bc 04ab e7bb
00000250: 0874 81bd 8d50 ebbb b388 163d ff74 a13c
00000260: f2cf b2bc 38b2 363d ed13 b33b 5877 eebc
00000270: 6f70 893c 40d4 01bd 169b eabc 66a9 a83b
00000280: d348 65bd 08b3 2e3b fccc cabd c929 dabc
00000290: 5abf c1bd 7c2b 92bb ec71 d53d 0d6b b23d
000002a0: d07f e8bb b9e7 163d f727 0a3d f9d7 89bd
000002b0: 934c e0bc b884 6c3c 6465 05bb a2c5 eebd
000002c0: 55c1 abba b865 8e3d efc9 5d3d 1c76 3abc
000002d0: a85b 9c3d 74a3 ae3d 592c d73c 9ac4 babd
000002e0: 3fdb e9bc c84c 18bc 8da7 8cbd aaa0 e8bc
000002f0: 59cf 833b 3011 3fbd 3d69 66bd ba2a a9bd
00000300: fc2f a4bc 4f10 c43c 23d9 04bd cd25 003c
00000310: ad8f 63bb d846 103d d3be 143d 236f b3bd
00000320: ffef 413c dc08 aa3c 00b1 a2bd ec46 4ebd
00000330: 35d2 813d 93d4 a13d 17cb 40bd 8aaf bb3c
00000340: dd81 0d3d 2b2d 63bd 69c2 2f3c 4f59 91bd
00000350: 626d d1bd 3ed8 c23c 193c 153c ba41 d13c
00000360: 15cf 0ebc 73ec a83d 6050 563d 4727 7a3c
00000370: f081 dd3d a5da 543d af9a 1bbd 7586 f63c
00000380: 17f1 6b3d e916 993d 5884 513d b1a9 82bb
00000390: 997e 16bd deee 263d 8612 193d 787f 833c
000003a0: 8107 b03c 9c25 2f3c 354c 71bb 04fb 98bd
000003b0: dccb 0cbd fbe1 413d c3c1 8abd 8572 d5bd
000003c0: 0f30 8e3d 1fd4 bd3c 4cf3 88bd 05d9 22bd
000003d0: 8629 763d 0d7c 613d 8efe b1bd 2edf cb3d
000003e0: 958e a03d bfea f8ba b7e7 c9bd 3061 d5bc
000003f0: bbcb 5f3c 9897 183d 78fb 183d 9545 9dbc

Generator.conv4.conv2.0.weight f4 [8, 8, 3, 3, 3]
0.0384941 0.28181094 -0.066048235 -0.12856254 -0.05224667 -0.03854551 0.09167165 0.03465495
0.15171725 -0.020317808 0.11806414 0.0019961302 0.019289896 -0.012821484 -0.069472276 0.110896945
0.19852337 0.08638913 -0.005695572 0.019304506 -0.04437515 -0.03024112 -0.02822402 0.067495085
0.040494557 0.12660187 0.088552 -0.045749288 -0.09578064 0.103602976 0.05905107 0.10360466
-0.032129478 0.08356792 0.03541391 0.05408829 0.037118994 -0.071634136 0.025928954 -0.036990993
0.14207537 0.0135035375 -0.04972926 0.10731074 -0.10649511 0.03348007 0.011000249 -0.043668706
-0.009195916 0.015929896 -0.0912916 0.02691067 0.1732114 0.03047043 -0.13778113 -0.06986685
0.17411955 -0.18360057 -0.13332418 -0.0252741 -0.049275473 0.13477904 0.11004177 -0.43411615
-0.118210725 0.11976819 -0.17593819 -0.056000143 0.011585105 0.06345029 0.1022553 0.15957427
-0.03333617 -0.08508998 0.028550923 -0.14995745 -0.04853856 -0.030125147 0.0041150856 0.20301329
0.168887 -0.04049468 -0.037425432 0.047162127 -0.0697616 -0.028703457 -0.049694795 0.06600962
-0.05314124 -0.10293038 -0.01001537 0.051654402 -0.019119568 0.03919775 0.061568327 0.038585644
-0.058125623 0.008020403 -0.071552485 0.07345184 0.00898291 -0.046703793 0.16724752 0.06774459
0.02689016 -0.055264007 -0.0573961 -0.08268452 -0.06105828 0.012890458 -0.2175295 0.031167148
0.13800173 -0.092074946 -0.022748273 -0.058023423 -0.11930184 -0.11289403 -0.07042028 -0.006240217
-0.027667703 -0.16203645 -0.05662844 -0.027517272 -0.091042496 0.010548154 -0.062312923 0.0451553
0.12883116 0.027193438 -0.20478879 -0.11095815 0.018493019 -0.12398257 -0.09238491 0.08998382
-0.08671906 -0.059293896 -0.05567816 -0.11728891 -0.105589315 -0.038566213 0.07029357 -0.013804647
0.09713209 -0.022731766 -0.025067475 0.14657632 0.06008138 0.018862493 0.105900995 0.081725046
-0.02627727 -0.30575067 -0.21996526 -0.12720786 -0.14737397 0.043032397 0.14532782 -0.13784815
0.025465794 0.07009359 0.048276346 0.022641527 -0.1557049 -0.028529616 -0.07493355 -0.021785911
-0.05295489 0.0035957475 0.11719407 -0.054101713 -0.068431154 -0.16469371 -0.15873304 -0.15141645
0.023124104 0.042222384 0.031833183 0.021691363 -0.010609732 0.04550638 -0.09168556 -0.26167947
-0.024328096 -0.07032411 -0.25663722 0.12856862 -0.06667887 -0.022441106 -0.0011999328 0.0025613497
-0.030845592 -0.21037905 0.010994061 -0.030796759 -0.10675302 -0.012959671 0.02711561 -0.026739586
0.08448972 -0.016683616 -0.05410215 0.030637199 0.052089684 -0.044353742 0.01738657 0.09818591
-0.0030781685 0.10254646 0.07726365 -0.020178227 0.035888292 0.10020139 0.031361587 0.02629521
-0.05607443 0.06504724 -0.011091398 -0.15334514 -0.16034137 0.11540529 -0.0167313 -0.071989864
0.1054449 -0.06888108 0.072921865 -0.0877035 -0.01684626 -0.050185572 0.05693098 0.09001458
-0.032910217 0.053195883 -0.02913408 0.07968676 -0.06964053 -0.012436885 0.10525741 0.12112045
0.07288562 0.019500038 0.0675663 -0.018175079 0.07640478 -0.10335666 0.006020973 0.26566207
0.0032160117 -0.13488558 0.033487942 0.15729772 0.025134912 0.08665923 0.06328923 0.034769498
00000000: fdab 1d3d 8649 903e 4c44 87bd e6a5 03be
00000010: 9b00 56bd e6e1 1dbd 59be bb3d 59f2 0d3d
00000020: c45b 1b3e 8871 a6bc 9dcb f13d 82d1 023b
00000030: d805 9e3c 3411 52bc 7b47 8ebd f01d e33d
00000040: b649 4b3e c9ec b03d eca1 babb 7c24 9e3c
00000050: b8c2 35bd 3abc f7bc 0f36 e7bc dd3a 8a3d
00000060: 9fdd 253d eca3 013e c05a b53d 9b63 3bbd
00000070: a428 c4bd cc2d d43d 89df 713d ae2e d43d
00000080: 339a 03bd a825 ab3d 2d0e 113d af8b 5d3d
00000090: 160a 183d ebb4 92bd f568 d43c de83 17bd
000000a0: 357c 113e f13d 5d3c e9b0 4bbd bcc5 db3d
000000b0: 1c1a dabd 6622 093d 633a 343c f5dd 32bd
000000c0: 78aa 16bc 6a7f 823c 17f7 babd c473 dc3c
000000d0: 545e 313e 209d f93c 7f16 0dbe 5a16 8fbd
000000e0: 654c 323e ca01 3cbe 2286 08be a10b cfbc
000000f0: 14d5 49bd 8403 0a3e 945d e13d 7944 debe
00000100: 7718 f2bd 0649 f53d 2429 34be 6860 65bd
00000110: 74cf 3d3c 3af2 813d 3a6b d13d 7067 233e
00000120: 828b 08bd a843 aebd a0e3 e93c 728e 19be
00000130: 5ed0 46bd 03c9 f6bc d7d7 863b b7e2 4f3e
00000140: b7f0 2c3e c0dd 25bd 694b 19bd 132d 413d
00000150: 2bdf 8ebd 8323 ebbc c58c 4bbd 0d30 873d
00000160: a1aa 59bd 2acd d2bd 8217 24bc 9193 533d
00000170: a4a0 9cbc d28d 203d 122f 7c3d fb0b 1e3d
00000180: 2215 6ebd 0268 033c 1c8a 92bd eb6d 963d
00000190: 0e2d 133c 7a4c 3fbd ef42 2b3e adbd 8a3d
000001a0: c148 dc3c 835c 62bd 2c18 6bbd 8056 a9bd
000001b0: 3f18 7abd 8032 533c 0ec0 5ebe 3f52 ff3c
000001c0: 5350 0d3e ca91 bcbd 965a babc f8a9 6dbd
000001d0: 8654 f4bd fc34 e7bd 8238 90bd bc7a ccbb
000001e0: 61a7 e2bc e2ec 25be 39f3 67bd e76b e1bc
000001f0: 7d74 babd 2ad2 2c3c d63b 7fbd c4f4 383d
00000200: 51ec 033e c6c4 de3c 27b4 51be 073e e3bd
00000210: ac7e 973c 93ea fdbd 4d34 bdbd 7049 b83d
00000220: c399 b1bd 28de 72bd c80e 64bd 2b35 f0bd
00000230: 363f d8bd 9bf7 1dbd 13f6 8f3d e32c 62bc
00000240: 30ed c63d f837 babc 4e5a cdbc 1a18 163e
00000250: e517 763d 8485 9a3c 9fe2 d83d 765f a73d
00000260: 6e43 d7bc 5a8b 9cbe 933e 61be c742 02be
00000270: 34e9 16be bd42 303d d1d0 143e 1128 0dbe
00000280: a49d d03c 3a8d 8f3d 6bbd 453d b97a b93c
00000290: 1b71 1fbe f1b6 e9bc c376 99bd 5e78 b2bc
000002a0: 3ae7 58bd a2a6 6b3b 7203 f03d c299 5dbd
000002b0: a225 8cbd 78a5 28be ea8a 22be ea0c 1bbe
000002c0: c36e bd3c 61f1 2c3d 8363 023d 16b2 b13c
000002d0: 71d4 2dbc e664 3a3d a4c5 bbbd dafa 85be
000002e0: b74b c7bc 1606 90bd f465 83be 7ea7 033e
000002f0: ee8e 88bd 69d6 b7bc 1047 9dba 51dc 273b
00000300: e5af fcbc 9b6d 57be 6f20 343c 7c49 fcbc
00000310: 54a1 dabd cd54 54bc 8e21 de3c fa0c dbbc
00000320: f208 ad3d 14ac 88bc 379a 5dbd ddfa fa3c
00000330: fe5b 553d 45ac 35bd 486e 8e3c b215 c93d
00000340: 19bb 49bb e103 d23d 683c 9e3d cf4c a5bc
00000350: 9aff 123d 6336 cd3d 0275 003d 0d69 d73c
00000360: 4dae 65bd 7d37 853d b2b8 35bc 8206 1dbe
00000370: 8730 24be 9c59 ec3d 1410 89bc 6c6f 93bd
00000380: 7ff3 d73d 8611 8dbd 0f58 953d e59d b3bd
00000390: 2b01 8abc 638f 4dbd 7630 693d 9059 b83d
000003a0: ddcc 06bd ede3 593d 98aa eebc d032 a33d
000003b0: b29f 8ebd 14c4 4bbc 3291 d73d 000e f83d
000003c0: 0e45 953d 8bbe 9f3c 3360 8a3d e7e3 94bc
000003d0: 1c7a 9c3d a8ac d3bd 954b c53b dc04 883e
000003e0: b9c3 523b 721f 0abe a72a 093d a712 213e
000003f0: bbe7 cd3c 657a b13d c99d 813d 766a 0e3d
