DeepWonder3D_pytorch/pth/SEG_pth/Unet4_no_end_UNet3DFFD_20240401-1432_2um/seg_93.pth (torch, 138281 bytes, 19 tensors)

Generator.conv1.conv1.0.weight f4 [8, 1, 3, 3, 3]
00000000: b9e1 da3d 5547 ca3d ae50 56bd 2ef5 103e
00000010: 14e9 f1bd 56a0 edbd ab85 223c 1d25 0b3c
00000020: 5305 df3d 8127 c83c d80d 28be 3e6f b83d
00000030: 06c0 f83d 19a5 d93d 0b62 273d a28c 3ebe
00000040: 0e14 be3d 417d 48be 5831 fdbd 17c1 f1bd
00000050: 6eec 78bd 3a6b 313d 636f 3fbd d9e1 8c3d
00000060: 2220 4abe 6b39 5fbc c102 ee3d 8068 173e
00000070: 9483 123e cabe cc3b 06d0 b83d 2393 09be
00000080: add0 39be d992 1e3e 3967 0b3d 7547 8abd
00000090: 29b4 f7bd 1404 173e cacc 52bd b404 01be
000000a0: 4aaf a2bd 9553 cc3b 36a9 3bbe 9a85 53be
000000b0: bea0 49bc 07ea dd3d 5794 993c be85 453e
000000c0: 052d 323e 8b94 b9bd 1cb7 203e f4e1 d43d
000000d0: c405 f7bd 6e4a 92bd 92e4 8f3d 77d7 0dbd
000000e0: 93e6 e3bd 7607 e13c 1140 cd3d d663 80bb
000000f0: 06a3 27be efb3 eabd 04ac 7cbd 28ff 293d
00000100: 943d d13d fc2e d13c 8f6a 30bd 30f7 263d
00000110: 60f3 9b3d 30c2 273d 6368 02bc b71f 11bb
00000120: 149c 2ebe d265 f53c 719f 053d 73a3 80bc
00000130: 94d5 a9bd 13cb 9e3d 5653 95be 8067 293d
00000140: b378 61be 5aee babd 6acc 15be 1bbe 233e
00000150: 5cdf 4abe 291b 91bd ae10 9dbc f5a4 a43d
00000160: b016 eabd 5282 623d ee29 54be fa94 6dbd
00000170: 7b92 ea3c 0499 d03d 1153 4abe 2e59 26be
00000180: 9d38 16bd 8f3f 003e 9032 b33d 64e8 60bd
00000190: 617a 823d 28d4 bd3d 0928 84bd 1e6f 6f3d
000001a0: a5c8 a23d 67b8 7c3c 7dcf 26be 460a 63be
000001b0: 11c8 c33d 77fe 23be b6e7 6cbd 2e71 06be
000001c0: 1a84 afbc c69d 1d3c 1a7d 2dbd 4e33 903d
000001d0: 1969 1b3d 76a3 d3bc 402b d93d d173 3cbe
000001e0: f117 74bd 08ce 09bd ced9 41bc 5797 d23d
000001f0: d409 a13c 5b1b e23d 64ee 4ebe fb37 b53d
00000200: fae1 f73d d1cc c53d eeab 343d 79e3 ddbd
00000210: 7e33 1dbe 686b 99bd 2390 ce3d 04aa 253d
00000220: 6e1c c4bd b1d7 043e 43b3 eb3d 2c74 7abd
00000230: aa6d f9bd 718c 40be 94bf 323e dece 203c
00000240: f1f7 9fbd 09c6 35be 95c1 8c3d f34e d03d
00000250: aaa2 28be e244 55be d952 9fbd 6efb 853d
00000260: 7ae7 0b3e 621c dfbc 4b3b 0fbd a256 f73d
00000270: e4c4 b73c 9344 253e 7235 b9bd 660b 20bc
00000280: 4e1f 81bd 469a 323e 1d2f 4fbe f32d 2f3e
00000290: 09b7 aabd 0066 bc3d 52a9 803b 6896 7bbd
000002a0: c9d2 253d 7dfb 9dbc c4ed 363d cba8 873d
000002b0: a653 88bd b067 5c3e e40d 4dbe 1368 adbd
000002c0: 6e59 1d3c 694b 31bd 2e23 fc3d e02f 083d
000002d0: 372a 90bd 82ef 60bd 2e5f ba3d 4b80 0fbe
000002e0: 19b0 513d 7e2f ba3d 5492 e1bd 9aff b83b
000002f0: ceea 1e3e dc78 2fbd 3eb0 0a3e 84d6 fb3c
00000300: 1fe4 513d d00c dc3d 9f15 4cbe d44a 66bd
00000310: 86dc 9339 2336 063e 074d e5bc 186c a6bd
00000320: 4f2a 3fbd 2584 47be af07 033e 9bb4 c0bd
00000330: 78d8 98bd e382 1f3e c163 b23c a20c 36bd
00000340: 2e38 13bd 2944 44bc 20c9 44be f5fd b03d
00000350: 5aa5 dfbd 0a9a 22be 4a1a c5bd 0eac c93d
0.106875844 0.09876887 -0.052323036 0.14156029 -0.11812034 -0.11602847 0.009919564 0.008492735
0.108896874 0.0244329 -0.16411531 0.09005593 0.121460006 0.10627193 0.040864985 -0.18608335
0.09281169 -0.1957903 -0.12362927 -0.11804407 -0.060772352 0.04331515 -0.046737086 0.068790145
-0.1973882 -0.013624529 0.11621619 0.14785957 0.14308006 0.0062483298 0.09024052 -0.13435034
-0.1814601 0.15485705 0.034033988 -0.067519106 -0.1209491 0.1474765 -0.051464833 -0.1259945
-0.0794359 0.0062355497 -0.18326268 -0.20656434 -0.01230639 0.10835653 0.018747492 0.192893
0.17399986 -0.090615354 0.1569485 0.1039466 -0.120616466 -0.071431026 0.07026018 -0.03462931
-0.11127963 0.027469378 0.10021985 -0.0039181514 -0.16370782 -0.11460101 -0.061687484 0.0415031
0.10216823 0.0255351 -0.043070372 0.04076308 0.076147795 0.040956676 -0.007959458 -0.0022144148
-0.17051727 0.029955778 0.03262276 -0.015702939 -0.0829269 0.07753577 -0.29165143 0.04135847
-0.220187 -0.09127493 -0.14628759 0.15990488 -0.19811767 -0.070852585 -0.019172993 0.080392756
-0.114301085 0.055300064 -0.2071912 -0.058003403 0.0286343 0.101854354 -0.1975825 -0.16244957
-0.036675084 0.12524246 0.087498784 -0.054909125 0.06370998 0.09268981 -0.064529486 0.05845558
0.07948426 0.015424824 -0.16290088 -0.22171888 0.09559644 -0.1601504 -0.057838164 -0.13129112
-0.021425296 0.009620136 -0.042355634 0.070410356 0.037942026 -0.02583478 0.106039524 -0.18403555
-0.059593145 -0.033643752 -0.011831714 0.10282772 0.019658007 0.11040374 -0.20208126 0.08848568
0.121036485 0.09658206 0.044109277 -0.108344026 -0.15351674 -0.07491189 0.10086086 0.040445343
-0.09575735 0.12972905 0.11508801 -0.061145946 -0.1217912 -0.18803574 0.17455894 0.009814946
-0.07810963 -0.17751326 0.0687286 0.10171308 -0.16468301 -0.20827058 -0.07779474 0.06542097
0.1366252 -0.027235214 -0.034968656 0.12077071 0.022432752 0.1613944 -0.09043397 -0.009768343
-0.06304799 0.17441663 -0.20232816 0.17107372 -0.083356924 0.091991425 0.0039264346 -0.061422735
0.040484224 -0.019284958 0.044660345 0.066239916 -0.0665658 0.21523929 -0.2002483 -0.08467116
0.009603841 -0.043284807 0.123113975 0.033248782 -0.07039302 -0.054915912 0.09100185 -0.14013784
0.05119333 0.0909109 -0.11014238 0.0056457045 0.15519258 -0.04283987 0.13543794 0.030741937
0.051242944 0.10744631 -0.19930123 -0.056223705 0.00028202328 0.13106589 -0.027990831 -0.08126086
-0.046671208 -0.19484003 0.127959 -0.09409448 -0.07463163 0.15577273 0.021776082 -0.04444564
-0.03594225 -0.011979141 -0.19217348 0.086421885 -0.1092021 -0.15879074 -0.09624155 0.0984727

Generator.conv1.conv2.0.weight f4 [8, 8, 3, 3, 3]
00000000: 4374 033e 94db 223d 3fe1 923d 46f7 ddbc
00000010: 7eab 73bd 1922 6c3c 104d 153e edd8 bf3d
00000020: b1ba 6f3e c5dd 353c 3378 ba3c 8587 993c
00000030: 89f8 ba3c c601 b93d 8357 01bd ecd1 773d
00000040: 10ef d6bc 3979 cb3d ff55 3d3c e11b d43d
00000050: 4c3e c33d f5e4 a33d 38b7 d13d 39a1 943d
00000060: fc16 fc3d aa3e 013e 3334 113e a7fb c9bd
00000070: 286a a0bd cdba abbd 508c a7bb 3278 7dbd
00000080: 40c1 b2bd 45fd 5ebc d089 273d 5e2d cabd
00000090: 3299 c8bd b38e f93d 0823 d4bd 642a 4cba
000000a0: 11fd bd3d 5be5 80be d093 90bc d183 4e3d
000000b0: 37cb a43c e2a0 ac3c 760a 1a3e 9b43 66be
000000c0: 1842 d5bc 54b5 d13d 4f0a 81be b51e 90bd
000000d0: 6fc0 863b afcb 723b 77f9 c83d 7720 b53c
000000e0: e72c f03c a53b edb9 96ca 7ebd dfc7 19bd
000000f0: 073b 083d 8ffe 54bb ebe9 6bbd 15c7 d93d
00000100: 3fd3 703d 178f 483c 61ba 9ebb cf55 223d
00000110: 7386 303d 5c9e e23d 6c0b 0c3d 875a 3b3d
00000120: 26ae 58ba 22c2 12bd 213c 893d dd83 a5bd
00000130: d722 95bb fa97 00bd 84f8 bd3d e086 c73d
00000140: 78aa 7b3d e056 c4bc 4559 7d3d 17fb 293d
00000150: ac62 0f3e 7363 063b ae29 cebb b18c 013c
00000160: c052 23bd 1fd0 0e3c 817a aa3c 5ec8 913c
00000170: 329a 2e3d 309e 3abd 7960 723c 6c21 6b3d
00000180: 1033 0fbd b4f2 be3c 90e7 e53c aac6 883d
00000190: 0a7e 3dbd 4e2c 47bd a646 febb c267 1c3d
000001a0: 5541 553d 6efd f73c 4e68 1d3d 85f8 9c3c
000001b0: b88b 453d 8a77 c2bd 6cf4 d3bd 42b6 47bd
000001c0: b5c5 303d 60b1 94bd 909c fb3c d969 0cbd
000001d0: 14aa 503d c7e3 0abe e601 28bd d490 5f3d
000001e0: 0a8c 83bd b8b2 2b3d b5bd a23d 7baa 13be
000001f0: 7575 ae3d 5443 e63c 8afd 24be db83 8a3d
00000200: 3105 8c3c ef63 e1bd 510b da3d 6684 37bd
00000210: 1fb5 5bbe 3e72 c73d cf6c cfbc 2465 a53d
00000220: a87e 493d 022f 773d bda6 1e3b a65b 013d
00000230: aacb 32bb 1774 5f3d a1c7 8dbd 8255 87bb
00000240: 6ac3 16be 3e95 903c 1e56 083d 7abf adbd
00000250: fd24 613b 4af3 b93c 79da 0b3b 045a 3abc
00000260: d09d d3bd b86e 3ebd 4a92 e43c e561 5a3d
00000270: 28d3 67bd 9cf8 a53d a702 aa3d a53a 32bd
00000280: 6fe9 4dbb 119b 07bc c1f5 1d3d 8466 69bd
00000290: 8e3e 05be cbbe 2c3d d23e 54bd e174 a7bd
000002a0: ea03 f83d ae49 8bbd 7c87 5dbc c51d 083d
000002b0: f9ac febd ca50 8ebc ed24 913c ec64 71bb
000002c0: 1b7b 9ebd 10b9 53bd 57d7 6abd 434e 94bb
000002d0: 90c0 fe3c 4313 f3bc f4d2 b53d 59f4 98bc
000002e0: 34e8 a93d 1cc7 3f3d ac0a 8bbd c175 c9bd
000002f0: afc5 5fbd e967 203c 4751 90bd f1b2 8a3b
00000300: 6a1b 573d c10f d23c 8274 373d e271 4f3d
00000310: 9e70 84bd 37f5 2e3c 97dc ad3c ffd9 18be
00000320: a220 933d f65b 263c 5ad9 c7bd b5a0 063e
00000330: b087 b93d 1e58 2ebe cad3 aa3d 2276 b6bd
00000340: b458 6b3d 5d7a 40be d2dc 0fbe bb68 f83d
00000350: 1867 3cbe ada4 3abe 6448 463d bd3b 21be
00000360: 301e 1e3e 8c25 f73d 5e71 613e e9e5 623c
00000370: b05c f83c 339b f93d a080 613e 7633 623e
00000380: a018 4b3e ec01 be3d c24d 573d b8d2 1a3e
00000390: be79 8e3b 9e93 873d 9a01 f43c bd28 233d
000003a0: a808 0ebb 6016 4d3d 6cb7 823d cf18 b43d
000003b0: d6c0 e63c 8eca b73d 18f5 953d 5fbf a33d
000003c0: fbec 703d 3021 92bb acc9 d13d 7aef 9fbd
000003d0: 3cb6 41bd 1f0b 15bd 3cbf 09bd 1766 83bd
000003e0: 0a62 0f3d 8a7b 273d a711 c33c 0c5a b03c
000003f0: 57c8 3a3d cf1e 21bd 4c51 91bc 830a 6f3d
0.12837319 0.039760187 0.071718685 -0.027095448 -0.05948972 0.014412426 0.14580178 0.09367547
0.23411061 0.011100237 0.022762394 0.018741379 0.022823589 0.090335414 -0.0315776 0.06050293
-0.02623704 0.09935231 0.011556148 0.1035688 0.095333666 0.080026545 0.10240024 0.07257313
0.123090714 0.1262156 0.14180069 -0.09862452 -0.07832748 -0.08385239 -0.005113162 -0.061882205
-0.08728266 -0.013610189 0.040902913 -0.09871934 -0.09794845 0.12185421 -0.10358244 -0.0007788299
0.09276784 -0.25174984 -0.017648607 0.05041868 0.020116432 0.021072809 0.15043053 -0.22486727
-0.026032493 0.10239664 -0.25203177 -0.07037107 0.0041122953 0.0037047674 0.09813207 0.022110207
0.029318286 -0.000452486 -0.06220492 -0.037544128 0.033259418 -0.0032500362 -0.05759613 0.10633675
0.05879521 0.0122411465 -0.0048439954 0.039632615 0.04309697 0.11065361 0.03419058 0.04574063
-0.0008265696 -0.03582967 0.06700922 -0.080817915 -0.0045512724 -0.031394936 0.09275916 0.09742522
0.06144187 -0.023967206 0.061852712 0.041499224 0.14002484 0.0020506054 -0.0062915897 0.007907079
-0.03987384 0.008716612 0.020810368 0.017795738 0.04262752 -0.045561016 0.014793509 0.05740492
-0.034960806 0.02330909 0.02806452 0.06678517 -0.04626278 -0.048626237 -0.007759887 0.03818489
0.05206426 0.030272212 0.03842955 0.019161472 0.04822895 -0.094954565 -0.10349354 -0.0487578
0.043157298 -0.07260394 0.030714303 -0.03428063 0.05094345 -0.13563453 -0.041017435 0.05458148
-0.06423195 0.041918486 0.0794634 -0.14420502 0.08518497 0.028108276 -0.16112342 0.06763431
0.01709232 -0.11005389 0.1064669 -0.044804 -0.21455811 0.09738587 -0.025320439 0.08075932
0.049193054 0.060347565 0.002420827 0.031581543 -0.0027282038 0.05455407 -0.06922842 -0.0041300664
-0.14722982 0.01764929 0.033285253 -0.08483787 0.0034354322 0.022699017 0.0021339937 -0.011374
-0.10332835 -0.04649231 0.027901787 0.053316016 -0.05659786 0.08104059 0.08301287 -0.04351296
-0.0031419655 -0.008276717 0.038564447 -0.056982532 -0.13012144 0.04217414 -0.051817723 -0.0817659
0.121101215 -0.06801163 -0.0135210715 0.033231515 -0.12435336 -0.017372508 0.017717803 -0.0036833836
-0.07738324 -0.05169016 -0.05733427 -0.004525931 0.03109768 -0.02967227 0.08878127 -0.018671202
0.08296242 0.046820745 -0.06789145 -0.09836913 -0.054631885 0.009790399 -0.070467524 0.0042327573
0.05251638 0.025642278 0.044788845 0.050645716 -0.064667925 0.010678581 0.02122335 -0.14926909
0.071839586 0.010153761 -0.097582534 0.13147242 0.090590835 -0.17025802 0.08341177 -0.08909251
0.05745764 -0.18796678 -0.1404908 0.12129351 -0.18398702 -0.18226881 0.04840888 -0.15745445
0.15441203 0.120677084 0.22015902 0.01384876 0.030317634 0.12187805 0.22021723 0.22089943
0.19833612 0.0927771 0.05256439 0.15119445 0.004348009 0.066199526 0.02978592 0.039833773
-0.002167264 0.050070167 0.06382641 0.08793794 0.028168123 0.08974181 0.073221385 0.079954855
0.058819752 -0.0044595227 0.10243544 -0.078093484 -0.047292933 -0.03638756 -0.03362964 -0.064159565
0.035005607 0.0408893 0.023812128 0.021527313 0.045601215 -0.039336022 -0.01773896 0.058359634

Generator.conv2.conv1.0.weight f4 [8, 8, 3, 3, 3]
00000000: 47af 2ebb d3f5 c3bc f913 3d3d e0b3 893d
00000010: f1cb be3c 1df7 46bd 92de 07be f37b f5bc
00000020: 57da ce3c 90df 92bd 4fd8 edbc b24e 433c
00000030: ce87 a1bd 59da 883c 67cf c93c 4c70 c4bc
00000040: 6dc4 9dbd 913c 843d 6fba a93c c3f7 61bd
00000050: 05d5 95bc 30c3 ef3b d575 38bd 285f c63c
00000060: cfab 373d c063 e6bc 9fa2 1e3d 6c36 6b3d
00000070: 05a3 e2bc ae2c 49bd 3ab9 0abb bc25 0bbc
00000080: 0bf4 24bd e68e 1f3d f65b 993d 7cd4 0d3c
00000090: 3434 fbbd 1939 01be d84b 94bd 139a a2bd
000000a0: f842 8bbd cd73 a7bd 2753 de3d 0978 c1bb
000000b0: c741 ebbc f9d7 28bd 1e87 86bd 12ad 21be
000000c0: aa32 863b a90b 79bd 775d c8bd cbe2 8c3d
000000d0: e97c 7abc 9d5a 87bd 883b 48bd cc9b 3e3d
000000e0: fe00 1d3e 09bb 67bc c059 bbbc d735 3e3e
000000f0: 4dd5 91bb 2af3 6cbd 5d1f 4d3d 0699 10be
00000100: dc29 c73c d435 c23d 45ab 8fbd 9ee5 e9bb
00000110: 1cbc e03d 182c 0cbe b239 19bd 09c9 223d
00000120: 18c8 06be 0a05 1cbc ac73 c73d 84cc 0abe
00000130: e1d0 553d e114 fc3d daf1 8abd 1f3b 88bd
00000140: 6a62 823d 7bb3 173d bf9b efba c039 623d
00000150: 9ec2 66bd 359a 1dbd 8376 adbb 2759 87bc
00000160: f8ec f7bc 8289 b33d ba03 c73d e9d2 b7ba
00000170: 945c 5e3d 2cdb 363d 22ea e4bb 0c4d b53c
00000180: d874 723a 2974 40bd 3df9 283d 2484 be3a
00000190: 5234 cd3c 2cbd 2dbd e7f2 b4bd 1591 61bd
000001a0: 1042 1d3d 4924 18bd 2646 74bd 2dc1 00bb
000001b0: 937b 9a3d 248f 783d b9b9 d3bc 6318 873c
000001c0: 230b 13bd a335 823c 1cf5 4bb9 9df2 39bb
000001d0: f9f6 d93c e46d 443c 4b6c dc3b c917 5c3d
000001e0: 4092 233d fde5 703d 03b8 7e3d 9031 6d3d
000001f0: 7a13 1abd 2aa5 b83d d12f 14bd 1fad 953c
00000200: 834a 843d 9f86 4bbd db7a 163d 7759 6f3d
00000210: 385c 143c 229d 18bd b94d 7cbd 6688 133d
00000220: de2b cd3d 4bc0 103d 58c3 9a3c 61b8 9f3d
00000230: 8be0 5f3d 7106 623b 59f8 95bd 6c69 08bd
00000240: 0777 193d ebd1 a23c d15e a93a 561e a5bc
00000250: 8758 55bd 9537 3ebd 6d4a f9bc 6b37 b5bd
00000260: 29f2 5e3c 0430 493b 3c89 db39 72a4 353c
00000270: b378 99bd c191 d6bb 308b 65bd 900c 19be
00000280: 5b5f 3cbe ca3f b5bc f479 983d 7f05 a03d
00000290: cf6b ae3d 8717 5f3d 844d 933b b3d2 a33c
000002a0: e172 8dbc 645c 9f3d b66f 873b 3c6b 303c
000002b0: e485 da3b ea03 aebb e0ea 2b3d 2eb5 a13d
000002c0: 2bc2 bf3d 48c8 913d 02ae 2d3d cbca 853d
000002d0: 8994 953d 88b3 743c 3104 53bc 6108 43bd
000002e0: 9e0e 793d b5df 4ebc 1548 293d 0625 58bd
000002f0: fec6 ee3c ef6e 4e3b 878f 37bc 3394 013e
00000300: 56e0 97bd 8c31 74bd 7b9d 363d 46e5 c9bd
00000310: 84ae 5dbd 9351 163d 18d9 cdbc b5d6 95bd
00000320: 97f3 a43d 9264 abbd 71d0 0fbd 0863 2f3d
00000330: 178e 4cbd 02b1 f2bd eb86 bc3d fcf0 89bd
00000340: 610a 81bd 77cc 893d ee5d a3b9 f4c7 f83b
00000350: 40cc 5f3d 8802 adbd 2196 8fbd 2040 90ba
00000360: 35ec ccbc 24ef 153d 6d00 f33d 04a1 b5bd
00000370: 5964 733c 1014 3a3d 5f37 3c3d 5611 32bc
00000380: 73f7 023e 8d0d 59bd c553 04bd 16b5 773d
00000390: 3a82 e2bc d880 963c 667f 513d 7a50 f63c
000003a0: 8144 983d 2433 573c 22d2 ae3c 8e33 a9bd
000003b0: 539f 0cbc 1486 7c3d b36f c33b be6a 5abc
000003c0: 48a9 453d fe8f 9e3d ea40 0dbb 45c9 d4bc
000003d0: ae5f 31bc 182f 063c 0279 4dbd 1391 173d
000003e0: cbc2 da3c b827 be3c c1ba 2a3d 7c55 c8bc
000003f0: 721b e4bd 7334 e6bd 110d 5abd 380c 66bd
-0.0026654766 -0.023920929 0.046161626 0.067237616 0.023290606 -0.04857551 -0.13268498 -0.02996633
0.025250597 -0.071715474 -0.029033808 0.011920618 -0.07887231 0.016705679 0.02463503 -0.023979329
-0.07703481 0.064568646 0.020718781 -0.055167925 -0.018290052 0.0073169693 -0.04503425 0.024215296
0.044841584 -0.028123736 0.038729306 0.057424948 -0.027665624 -0.049114875 -0.0021167533 -0.008492883
-0.0402718 0.038954638 0.07488243 0.008656617 -0.12265816 -0.12619437 -0.072410285 -0.079395436
-0.06799883 -0.08176384 0.10855704 -0.005904202 -0.028717889 -0.041221593 -0.0656874 -0.15788677
0.004095395 -0.060802136 -0.09783452 0.06879195 -0.01528857 -0.0660908 -0.0488849 0.0465353
0.1533241 -0.014143714 -0.022869945 0.18575226 -0.0044504763 -0.057849087 0.05007874 -0.14120874
0.024311952 0.09482923 -0.07015089 -0.007137968 0.10973379 -0.13688695 -0.03740854 0.039742503
-0.13162267 -0.009522686 0.097388595 -0.13554579 0.052201156 0.1230867 -0.06784411 -0.066519015
0.06366427 0.0370364 -0.0018280669 0.055230856 -0.056337945 -0.03847714 -0.0052936687 -0.016522003
-0.030264363 0.08766462 0.09717508 -0.0014024648 0.054287508 0.044642612 -0.0069859186 0.022131465
0.00092489785 -0.04698578 0.041253317 0.0014535231 0.025049362 -0.042416736 -0.088353924 -0.05507
0.03839308 -0.03714398 -0.05963721 -0.0019646392 0.07543101 0.060683385 -0.025845395 0.01649112
-0.035899293 0.015894717 -0.00019450899 -0.0028373369 0.026607024 0.011989091 0.0067267767 0.05373362
0.039934397 0.058813084 0.062187206 0.057908595 -0.03761623 0.090158775 -0.036178414 0.018271027
0.064595245 -0.04968893 0.036738258 0.05843493 0.00905519 -0.03725923 -0.06159756 0.03601875
0.100181326 0.035339635 0.018891975 0.07798839 0.0546575 0.0034488703 -0.07322759 -0.033303663
0.03746703 0.019875487 0.0012921934 -0.020156067 -0.05208638 -0.046439726 -0.030430997 -0.08848461
0.01360754 0.0030698786 0.00041873183 0.01108657 -0.07493725 -0.006548137 -0.056040943 -0.14946198
-0.1839575 -0.022125144 0.07445136 0.07813548 0.085166566 0.054465797 0.0044953246 0.01999793
-0.017266693 0.07781294 0.00413319 0.010767754 0.006668793 -0.005310525 0.04197204 0.078958854
0.093632065 0.07118279 0.042402275 0.0653282 0.073037215 0.014935382 -0.012879417 -0.047615413
0.060804956 -0.012626578 0.04132851 -0.052769683 0.029147621 0.0031499227 -0.011203653 0.1265419
-0.074158356 -0.059617564 0.04458378 -0.098581836 -0.05412151 0.03669889 -0.025127932 -0.07316343
0.080542736 -0.08368792 -0.035110895 0.042819053 -0.049940195 -0.11850168 0.09205421 -0.06735417
-0.06300808 0.06728452 -0.00031159766 0.0075921956 0.054638147 -0.084477484 -0.07011057 -0.0011005439
-0.025014976 0.036605015 0.118653156 -0.08868602 0.014855468 0.04542929 0.045951243 -0.010868391
0.12789707 -0.05299144 -0.03230645 0.06047543 -0.027649987 0.018371984 0.051146887 0.030067671
0.07434941 0.0131347515 0.021340434 -0.082617864 -0.008582908 0.061651304 0.0059642433 -0.013331113
0.048257142 0.07742308 -0.0021553584 -0.025974879 -0.0108260345 0.008189939 -0.05016423 0.037003588
0.026704213 0.023212299 0.04168201 -0.024454825 -0.11138047 -0.11240473 -0.053235117 -0.056163996

Generator.conv2.conv2.0.weight f4 [8, 8, 3, 3, 3]
00000000: 38a6 1b3d 245f 37bd f188 ac3c 40ef 4b3d
00000010: 4b5f bb3d b68d 5c3d c363 d83c 1a2d 393d
00000020: 012e bf3d a5ff 993d 955f fe3b 514e 933d
00000030: 2437 863c 7a7e 153d 431a 0ebd 5b6f 8a3d
00000040: e062 01bd 237e ed3c 7111 f8bc a387 52bd
00000050: 5d5c 8dbc 69c3 4f3d 2d58 97bd 98ac 9bbd
00000060: f40c abbd 0176 c1bc fbb7 12bd 677c 9e3d
00000070: b806 703d e883 89bc 0395 053d 2c4c 653d
00000080: b441 fb3d 27f2 913d 0379 073d 5c4a 283d
00000090: d535 253d 1701 ddbb b942 4cbd e05b c8ba
000000a0: 8b09 943d 8095 693c 37b3 7cbc 3d0a 9dbc
000000b0: 465d 893d e207 edba 5cc6 743d 2c6a f5bc
000000c0: 0a0b 503d 753e 6f3c 2ce7 1cbc 4d63 d5bc
000000d0: fc7e 603d 20af db3b 2a2b 3a3e a33b c83d
000000e0: 4ccd f13c 61d7 3fbd 06fb a2bd bca2 e8bc
000000f0: caf9 cd3c 62db 3dbc ea58 babc d419 28bc
00000100: c097 a1bd 80b3 9ebc 9e44 c4bd 61b9 8fbd
00000110: 58f6 f9bd 49ba 463c 035f a338 a44e d1bd
00000120: efe9 893c d0b8 f5bc 8bf8 413d ecfc d8bc
00000130: 806d e5bd a546 1bbc 58fa a63d b62e 6b3c
00000140: a6a4 a1bd baca 903d 5afc b13d f9b2 ec3d
00000150: a431 66bc e39d 8c3d 18f4 5dbb 6c32 143d
00000160: ca85 653b a83d 77bc 01a6 f43d 078d 123c
00000170: e42d 523d 9e73 27bb e519 1abd 6e30 afbd
00000180: 84e3 c3bb b1e9 aabd bc25 153d 2fc9 13bd
00000190: 5850 d6bd 266e 293b 250a d4bd 1d3e 9abd
000001a0: 878a 99bd 0e02 fbbb 7cb4 f1bd 610d 35bd
000001b0: 56ec f4bb 8ab6 a2bc a064 8dbc dfb6 283d
000001c0: f54c 223d 4c28 683c 5bd8 ef3d 39df 9c3d
000001d0: d049 023e 5303 b9bd da57 b5bd b624 8fbc
000001e0: 8e6e e3bd 5a53 b3bd 7bc0 1bbd 379a 063d
000001f0: f208 733b 9eea 903d edc9 3dbe 2ec9 15be
00000200: 19f0 78bd 943c 093c 87ae 3b3c 14be 74bd
00000210: 45fc 2e3b 5ebd 17bd eb6d acbd 03ce 5e3c
00000220: b660 febd f46d 9abd ee41 8abd 4081 23be
00000230: 9fa5 b6bd 91c3 acbd 3d68 f1bd 50fa 753d
00000240: 1814 c93a 1225 e63c c66a 89bd 76bc 423c
00000250: 775e 2bbd 7932 1ebe 71e5 fe3d 3496 aebd
00000260: 0e8c 1abe bbd9 9c3d dd4e 4bbc 6cce 1d3d
00000270: ee7a 413d 7486 d2ba a942 17be 7287 443e
00000280: 2d44 acbb 7826 18bd 7626 5e3d 2f76 e8bb
00000290: b7e1 043e 835c 0b3c d235 643b 3e38 c7bb
000002a0: 8832 343d d70e e5bc fec6 a93b 157f 4b3d
000002b0: 2edb 41bc cebb ab3d 2403 c33d 11fb e83b
000002c0: bb51 7dbb b7ca 3cbd b5e9 aa3b 17bb 05be
000002d0: 31f7 8dbd 99e8 bc3d 494e ddbc ff38 bfbb
000002e0: 128d c93d 8e8e 56bd b0d7 d83b 1c38 df3c
000002f0: 433e 93bd 6c21 9cbc 5914 96bd 3bef d2bd
00000300: 8d39 5dbd ad32 87bd 6684 95bd 9378 e8bc
00000310: a6e1 03ba eddc 3fbc d245 48bd c8bc eaba
00000320: cc93 25bd d956 a839 63cc 0abd d229 843c
00000330: f0be 873d 93db 803d c566 783c d6d5 cc3d
00000340: 73a7 213d 1026 843d c4d1 0e3d cba9 bd3d
00000350: 4932 0b3c 7a83 213e 91d1 fd3c 9525 9c3c
00000360: c1d8 e8bd 1e6b 76bd 941f 9b3c 85ab 3ebd
00000370: 20d9 49bd 0112 c0bd d1a6 e6bd dc8a 293c
00000380: d3f9 4dbc 8678 6f3d ebda 1c3d 8317 1cbc
00000390: 69e8 633d 5d6f b93c dadb a8b9 28ca 40bc
000003a0: 5f6e fabb 23c4 333d a93e ea3c 8467 973d
000003b0: 33f4 343d 7bfd 013e 1800 9c3d cf9c 3b3d
000003c0: 3e2c f23d 554b c83b 9986 a93c 36c2 cbbd
000003d0: 3b6d a2bd 058f 5d3d 1a58 bfbd 49bf 8fbd
000003e0: 0d9e 58bc 081f 3bbe dd2c 83bd de01 fd3a
000003f0: f1fb 3b3d 0a38 2b3d cbee 46bd 04b2 1d3d
0.038000315 -0.044768468 0.021061393 0.049788713 0.09149035 0.053846084 0.026414758 0.045209028
0.093349464 0.075194634 0.007762859 0.07192672 0.016383715 0.03649757 -0.034693014 0.067595206
-0.031588435 0.02899081 -0.030281754 -0.051398885 -0.017255956 0.050723467 -0.07389865 -0.07601279
-0.0835208 -0.023615839 -0.03581999 0.077385716 0.058600157 -0.01678653 0.03261281 0.055980846
0.12268391 0.07126265 0.03307439 0.04108654 0.04033454 -0.0067445147 -0.04986832 -0.001528617
0.07228383 0.014256835 -0.0154235875 -0.019169921 0.067072436 -0.0018084014 0.059759483 -0.029957853
0.050791778 0.014602293 -0.0095766 -0.026048327 0.0548086 0.006704226 0.18180528 0.09777
0.029516838 -0.04683626 -0.07958035 -0.02839791 0.025143523 -0.0115879495 -0.022747476 -0.010260064
-0.07890272 -0.019372702 -0.095834 -0.0701778 -0.122051895 0.012129375 7.790143e-05 -0.10220078
0.016835181 -0.029995352 0.04735617 -0.02648779 -0.11202526 -0.009477292 0.08153218 0.0143543985
-0.07892732 0.07069917 0.0869071 0.11557574 -0.014049921 0.06866052 -0.0033867415 0.0361809
0.0035022371 -0.015090384 0.11945725 0.008944756 0.051313296 -0.002555109 -0.03762235 -0.08554159
-0.0059780497 -0.08345354 0.03641294 -0.036080536 -0.10464543 0.0025853007 -0.103534974 -0.075313784
-0.07497125 -0.007660157 -0.11802003 -0.044202212 -0.0074744625 -0.019862432 -0.017259896 0.041190024
0.039624173 0.014169764 0.117111884 0.07659764 0.1272347 -0.09033837 -0.08854647 -0.01747356
-0.11105071 -0.087561324 -0.03802536 0.032861914 0.003708419 0.07076 -0.1853406 -0.14627525
-0.06077585 0.008376259 0.011455185 -0.059751585 0.0026700657 -0.03704583 -0.08419403 0.013598922
-0.1242079 -0.07540503 -0.06750856 -0.15967274 -0.089183085 -0.08435739 -0.1178746 0.06005317
0.0015341071 0.028093848 -0.067098185 0.011885753 -0.041838136 -0.15448941 0.12446106 -0.08524743
-0.15092489 0.07658716 -0.012408939 0.038526937 0.047236376 -0.0016061799 -0.14771523 0.19192293
-0.0052571506 -0.03714606 0.054235898 -0.0070941667 0.12976728 0.008505943 0.0034822118 -0.0060797026
0.043993503 -0.027961178 0.0051811924 0.04968174 -0.011832042 0.0838543 0.095220834 0.0071100076
-0.0038653451 -0.04609176 0.0052158483 -0.1305965 -0.06931914 0.09224052 -0.027014868 -0.005835652
0.0984136 -0.052382044 0.006617509 0.027248435 -0.0718961 -0.019058906 -0.073281 -0.10299536
-0.054009963 -0.066014625 -0.073006436 -0.028377807 -0.00050308777 -0.011710388 -0.04889471 -0.0017909044
-0.040424153 0.00032108164 -0.033886325 0.016133223 0.06628215 0.062918805 0.015161221 0.100017235
0.039466333 0.06452572 0.034868017 0.09260901 0.008495876 0.1577281 0.030983718 0.01906089
-0.113694675 -0.06016075 0.018935956 -0.046550293 -0.049279332 -0.09378434 -0.112622865 0.010348048
-0.01257177 0.05846455 0.038294714 -0.00952709 0.055641565 0.02263611 -0.0003220726 -0.011766948
-0.007642552 0.043888222 0.028594332 0.07392791 0.0441782 0.12694351 0.076172054 0.04580384
0.11824845 0.006112496 0.020694064 -0.09949152 -0.0793099 0.054091472 -0.09342976 -0.070189066
-0.013221276 -0.18273556 -0.06405041 0.0019302925 0.045894567 0.04180149 -0.048567574 0.038499847

Generator.conv3.conv1.0.weight f4 [8, 8, 3, 3, 3]
00000000: a996 ba3b 7f17 9b3d 4b52 883a b013 0abd
00000010: 3f8b 22ba 87c4 273d 70bc a93d da15 f9bc
00000020: a944 43bc 8064 afbc 76e2 f73c f607 32bd
00000030: eeff b83c 3154 7fbc 8901 86bd 71da 10bd
00000040: f70a 2b3d 7ca8 e9bc 3324 abbc e669 a23d
00000050: 9445 8c3c bafc 463d 5aec 81bd af38 823c
00000060: 4ff5 80bd 238c 733c e344 42bd 039c d8bc
00000070: 9644 773c cda6 2e3d 1cab 5d3b 40d9 0d3c
00000080: 5bc2 6fbd 9f35 9b3d aa34 94bd 03f6 6d3c
00000090: 2864 403c da9a 6e3d 3a12 033e 1155 18bd
000000a0: 34f9 a8bc 6ce9 a2bd 41d0 b1bb 4679 dbbd
000000b0: 9353 413c ed71 813c 5392 5e3d 01e2 29bd
000000c0: d317 a33c 9944 d7bc cffd 6cbd c7ca 093c
000000d0: 0f14 3bbd 0dd3 0e3c 9352 1fbd e88f 8a3a
000000e0: 3d7f 11bd 7bcb 11bd 227c febc 887a 123d
000000f0: 3dcb 00bd e8ac e8bc 09ba 81bc 932a dc3c
00000100: d1b8 153d c69c 783d d30d e4bc c8a3 c53d
00000110: 10d5 a33d 5e88 34bd 0ac9 2e3c e46f c3bc
00000120: 3c43 a43b 09a2 7bbd 4aef 303d 080a 2fbd
00000130: 1230 3e3d 4642 8aba 56e3 4f3c 488d 3cbd
00000140: 6e7c d8bc bf41 033d 4964 d539 1ab3 c83c
00000150: ce9e 36bc 3542 043c 3316 99bc 1a67 923d
00000160: 503d e8bc 6b5e 4d3d f254 1c3b caeb 533d
00000170: 5f3b 393d b789 1fbd 53aa 7c3d 03e9 8cbc
00000180: 12d2 89bd 7a3d febc 3575 0fbc c8e2 3ebd
00000190: bb41 723d 36f2 39bc d1e3 0c3d 120a b13d
000001a0: 8ae8 4f3d b726 e1bb 09be e7bc 5a41 b6bd
000001b0: c1e8 113d 4b15 dcbc 0811 3e3b 0d6e 813d
000001c0: 7452 09bd 7692 733c 57ae 6d3d 348f 023d
000001d0: a141 94bd 7e9d 903c bec0 2e3d 2703 403d
000001e0: 4027 1bbc 5e86 1f3d cc4e 7a3d 78e5 8a3c
000001f0: 9451 863d 6ba2 8fbd f666 ebbc 79e5 fdbc
00000200: 1368 223d 6a40 76bd 92e2 67bd dbc3 8bbc
00000210: 7c8c 3d3d ed02 80bd 1c2c cdbc d974 1ebd
00000220: a66e 893d 61e5 d73c e61e 133d 312d 823d
00000230: f261 62bd 0d98 ee3c 2cb1 c4ba c85b 3f3c
00000240: 5b5a 0a3d 38ff c93d 0f15 c03c 0767 52bc
00000250: 712c 4c3d fa8a 993c f0a2 9abc 0d33 98bd
00000260: 8188 c23b 49d4 7cbd bc8d 9d3d d36b 82bd
00000270: 5c79 78bc 6149 403d eed4 363d fd31 413d
00000280: 87ca 8abd 4aa5 80bd d479 43bd 7d6e dc3c
00000290: 73ed 843d b086 3a3c b34b f6bc a48e 0dbd
000002a0: a69e 233e 67e5 013d d26e e83c ec07 133d
000002b0: d3f8 aabd 4c70 923d 1929 8c3d 198f a8bd
000002c0: eaa2 5f3d 6b1b 853d 9aa6 eb3c 6936 733d
000002d0: a3c9 0f3d 1d5e 80bd b564 6dbd 6542 bebb
000002e0: 6232 33bc 526e 20bd 31e5 a4bc a3f7 4d3d
000002f0: 02d9 213d 25c5 b93c edd8 a0ba db8d 8b3b
00000300: 9e83 083c ddcd 623d ec30 6139 d35b 9fbd
00000310: d47a d03c 69c4 b93c 74f2 a0b9 f8df 29bc
00000320: 6051 c6bc 65a2 0c3d aa18 223e 7162 553d
00000330: 4c50 a7bc 6e51 aabc e20a a23d 4232 4dbc
00000340: 2abf 94bd 100d ff3a c3b7 913d 4e60 063e
00000350: edae 80bd e2d5 e1bc 5cbf 93bc 290f 1abd
00000360: 1e47 3e3d 8052 4fbb a3e3 66bd 741d 2c3d
00000370: ea27 de3c 61cc 183d b3ee a63c 9898 c53c
00000380: e3ad 27bd 7217 a33d b6fe 8dbd 6617 e3bc
00000390: c7ae 0e3d a843 603d f89d 69bd 68b0 2dbd
000003a0: 8716 633d 6d23 febd 284b ce3c a2e5 fe3c
000003b0: c3c2 d3bb e304 1a3d 51eb fc3c 1b2c 7dbd
000003c0: b931 57bd 4e8a 26bd cc0f 12ba d944 143d
000003d0: f52a dcbc 30e6 2dbd c02e ff3c 2497 e63d
000003e0: bb7b debc 43a9 243d 9698 043c a698 87bb
000003f0: c2f9 c73d 0377 2f3d 8ced 5e3b 3132 f83d
0.0056942296 0.07572841 0.0010400502 -0.03371018 -0.0006200559 0.040958907 0.08287895 -0.030405927
-0.011918225 -0.021410227 0.030259352 -0.043464623 0.022582974 -0.015584038 -0.065432616 -0.035364572
0.041758504 -0.028522722 -0.020891285 0.07930355 0.017123021 0.048580863 -0.063439086 0.01589617
-0.06296789 0.014864954 -0.047428977 -0.02644158 0.015092036 0.042639542 0.0033823913 0.0086577535
-0.05853496 0.07578587 -0.072366074 0.014523986 0.011742629 0.058253147 0.12799922 -0.0371905
-0.020626642 -0.07954678 -0.005426437 -0.107164904 0.011799711 0.015801394 0.054338764 -0.0414753
0.019908821 -0.026277827 -0.05785924 0.008410162 -0.045673426 0.008717311 -0.03889711 0.0010571452
-0.035521735 -0.035594445 -0.03106505 0.035761386 -0.031443823 -0.02840276 -0.015835779 0.02687577
0.036553208 0.060696386 -0.027838623 0.096503794 0.07999623 -0.044075362 0.010668049 -0.023857065
0.005012898 -0.061433826 0.043196954 -0.042734176 0.046432562 -0.0010548315 0.012688478 -0.046033174
-0.02642652 0.032045122 0.00040701244 0.024499465 -0.01114626 0.008072426 -0.018687343 0.07148571
-0.028349549 0.050138872 0.0023854342 0.051738538 0.045222636 -0.038949694 0.06168587 -0.017200952
-0.06729521 -0.031035174 -0.008755972 -0.046602994 0.059144717 -0.0113492515 0.03439695 0.08644499
0.050758876 -0.0068710702 -0.028288858 -0.088991836 0.035622362 -0.026865622 0.002900185 0.06319819
-0.0335259 0.014866462 0.05802759 0.03187485 -0.0723908 0.017653223 0.042664282 0.046878006
-0.009469807 0.038946502 0.061110303 0.016955122 0.065585285 -0.07013401 -0.028735619 -0.03099321
0.039650034 -0.060120024 -0.05661256 -0.017061165 0.046276554 -0.06250558 -0.025045447 -0.038685653
0.06710558 0.026354494 0.03591814 0.06356276 -0.05526919 0.029125238 -0.0015006415 0.011679597
0.033777576 0.09863132 0.023447542 -0.012841946 0.04984707 0.018743027 -0.018876523 -0.07431612
0.0059366827 -0.06172589 0.07693049 -0.06368222 -0.015165653 0.04694498 0.04463666 0.047166813
-0.0677691 -0.062815264 -0.047723606 0.026908154 0.06490602 0.011384651 -0.030065393 -0.03455986
0.15978488 0.031712916 0.028373156 0.035896227 -0.08348241 0.07150325 0.06843776 -0.08230419
0.054598726 0.0649937 0.028765965 0.05937806 0.035104405 -0.06267951 -0.05795737 -0.0058062547
-0.010937305 -0.03916771 -0.020128818 0.050284993 0.039513595 0.022677014 -0.001227168 0.004258854
0.008332161 0.055372108 0.00021475897 -0.07781186 0.025449194 0.022676663 -0.0003069822 -0.01036834
-0.024208724 0.03433456 0.15829721 0.052095834 -0.02042403 -0.020790782 0.07912232 -0.012524189
-0.07263024 0.0019458849 0.07115128 0.13122675 -0.062833644 -0.027567808 -0.018035583 -0.037612114
0.04645454 -0.0031634867 -0.056369435 0.042020276 0.027118642 0.037304286 0.020377493 0.024120614
-0.040937316 0.07963456 -0.06933348 -0.027721118 0.03483465 0.054752022 -0.057035416 -0.042404562
0.055441406 -0.12409101 0.025182322 0.031115357 -0.0064624264 0.037602317 0.030873926 -0.06180964
-0.052537654 -0.04065924 -0.0005571812 0.03619847 -0.026875952 -0.042455852 0.031150222 0.112592965
-0.027158609 0.040200483 0.00809302 -0.00413807 0.097644344 0.042838108 0.00340161 0.12118948

Generator.conv3.conv2.0.weight f4 [8, 8, 3, 3, 3]
00000000: d918 0ebd ec65 bebb 2480 2e3d 594f b7bd
00000010: 986b 51bb b2dd 63bc 36ce cdbd a796 a8bc
00000020: 1048 a2bc b1af 843b be92 3ebd b595 913d
00000030: 026b 313c 52cc e23c 382d 4cbc ea5c 61bd
00000040: 1629 fc3c b208 8ebb 2af3 51bc cb72 e7bc
00000050: 6ea2 6bbc 72ae a33c b941 003d fc4f 813d
00000060: dd12 febc ccc6 a03d c61f 693d 83c5 aa3d
00000070: 781d 2abe 8a83 0bbe e843 163e edb1 35bd
00000080: 7e18 cabd 9b26 143d 1aba 923d 586c 633d
00000090: 0de7 9a3d 581c 87bd 2ba7 51bd 633d 40bd
000000a0: 5fad a9bc dd53 e4bb 647a f8bb 69c7 86bd
000000b0: 8049 6bbd 647e 9f3d 0a9a 553c 5010 b6bd
000000c0: 4961 27bd dcfa 9cb8 81da a5bd 8510 a23c
000000d0: b631 f1ba caa0 92bc 81e9 93bd 5ecb 3b3c
000000e0: d88a cbbd 29af eebc abbc d3bc 0cb3 123d
000000f0: 42e8 30bd dfc2 843c a678 153e 2443 553d
00000100: 97b6 89bc 9eea 1b3d a0c9 713d f2f5 c03d
00000110: 60d1 18bc 18c4 66bd d0bf e63d 5028 3f3d
00000120: a90c 663b 1003 083e 4ceb 773d bfdc b63c
00000130: 34a4 0c3e 8ac2 2c3d 025f 51bd 1303 36bd
00000140: c3d2 f43d e2a6 82bc 0cfc b03d c12f e6ba
00000150: 9ac4 d2bc 3b10 f8b9 2fef 603d d379 24bd
00000160: dddb a8bd ff3f fb3b 94be d4bc 4df6 76bc
00000170: 8dd8 7f3b b8a7 8fbd ff42 20be 3354 d73c
00000180: 0441 0bbd c250 0cbe b7d9 89bc e26a 51bd
00000190: ccb0 c3bd 42e1 8f3b 95c7 233c b70d ecbd
000001a0: 24d1 1cbd 6732 e0bb 7aae 26bd 2437 38bd
000001b0: 09d3 1ebe 7307 8fbd a73b dcbd bbda 353a
000001c0: b2d1 5ebd 19fa 0bbe 8915 3abe 61c8 97bc
000001d0: 3421 f9bc 87ad 3a3c ffc9 c6bb 194c 733d
000001e0: 7c49 bc3d 380f 1b3d 18ad d6bb 9323 a9bd
000001f0: a627 7739 2e91 da3b ddb9 3bbe 4750 46bd
00000200: 1845 bbbd 59a3 2a3d 2895 063c f1df 1ebd
00000210: 2911 40bd 2adf 33bd 40b0 4e3c 07e3 b93d
00000220: 835e 28bd 2ebe 01be a024 f93b 9390 9ebc
00000230: b7cb 84bd 2849 c13d e531 80bd 8fe6 d13d
00000240: 1420 02bc a71e 14be 8d2c 12bd 6ac3 d53d
00000250: b05a fd3c c192 64bc d55c 523d fabe 04bd
00000260: 929a b33d 5a6c 993d 7b80 f53d 983e 92bc
00000270: 27b6 0f3e dd19 5d3d 5e6d 283d 3b76 a23d
00000280: d0d9 163b 853e ba3b 83ef c13d 74a6 dc3d
00000290: b8e4 853d 197b 0c3b eda9 513c 7a54 cb3c
000002a0: 3b6e ecbc 66b7 14be f1c7 82bd 3b0f d0bc
000002b0: 7649 aa3c 5748 c53c 5ec7 9fbd 3520 54bd
000002c0: 7c73 0a3d 1738 66bd 697f 9e3c 2f2a 28bc
000002d0: 7874 dbbd 2ea2 a1bc ceb2 df3d 9397 cbbd
000002e0: 7361 71bc 8f62 073e f03e 9ebd a083 0a3d
000002f0: 5122 503c 0489 9dbd 7c52 77bd fb0c 543d
00000300: e0d5 a5bd bbdf 6ebd 2fff cf3c 0575 8abc
00000310: ac14 f5ba c516 fb3d 38fe f83d 6be2 f93c
00000320: 380d 8f3d 99e5 633c 28dc e53b 1722 8aba
00000330: 807f 44bd 2fd2 a43d a541 2b3c 1907 7a3d
00000340: f07c 88bd 09df 50bb edfc 973d b729 82bc
00000350: 15f2 d23b c5c3 5a3d 544c e23d bf2c 4c3b
00000360: 83c3 a63d 7377 493d f71c 85bd df2e 90bc
00000370: 8d20 82bd b2cb c0bd be8e ab3c f61d 503d
00000380: 69fc 09bd 3a64 413d 5a38 90bc d8f3 8fbd
00000390: 9022 c8bc f4ad 863d ac08 9fbd a035 603d
000003a0: f93d 223d 4548 babc 90bc 9a3c eb16 b83d
000003b0: 4d4e e93c 7269 d53c 6094 2a3d 0143 053d
000003c0: 67c8 02bc 61e0 47bd 8a8e 2cbc 9021 163d
000003d0: d612 523d 1369 adbd 0718 ed3d 4062 fb3d
000003e0: fbad 163d d5b2 b33d 968b 5b3c 02c4 ab3d
000003f0: 9854 4dbc 4a80 9f3d 4ec8 7ebd 1a5a a23d
-0.034691665 -0.00581049 0.042602673 -0.08950681 -0.0031955 -0.013907837 -0.10049097 -0.02057965
-0.019809753 0.0040492644 -0.046526663 0.071086325 0.010828735 0.027685318 -0.012461953 -0.05502025
0.03078131 -0.0043345327 -0.0128143225 -0.02825298 -0.014381988 0.019980643 0.031312678 0.06314084
-0.031014854 0.078504175 0.056915067 0.083384536 -0.16612804 -0.13624397 0.14674342 -0.044359136
-0.09867953 0.03616963 0.07164402 0.055523247 0.07563601 -0.06597203 -0.051184814 -0.046933543
-0.020712553 -0.006968005 -0.0075829495 -0.06581003 -0.057443142 0.07787779 0.013037214 -0.0888983
-0.040864263 -7.485386e-05 -0.08098317 0.019783268 -0.0018401656 -0.017898936 -0.07222272 0.011462061
-0.09938592 -0.029136257 -0.0258468 0.035815284 -0.04319025 0.016206203 0.14596805 0.052065983
-0.016810698 0.038065545 0.059030175 0.0942191 -0.009327263 -0.056339353 0.11267054 0.046669304
0.003510276 0.13282418 0.06052713 0.022322057 0.13734514 0.042177714 -0.051115997 -0.044436526
0.11954262 -0.015948717 0.08641824 -0.0017561839 -0.025728513 -0.0004731434 0.054915603 -0.040155243
-0.082450606 0.007667541 -0.025969781 -0.015073371 0.0039038986 -0.07014412 -0.15650557 0.026285267
-0.03399755 -0.13702682 -0.016827447 -0.051127322 -0.09555206 0.0043908665 0.0099963145 -0.115260534
-0.03828539 -0.006841946 -0.040693738 -0.04497446 -0.15510191 -0.06983843 -0.10753565 0.00069371954
-0.0543992 -0.13669623 -0.18172278 -0.018528165 -0.03041134 0.011393911 -0.0060665603 0.059398744
0.091937035 0.03785631 -0.006551396 -0.08258738 0.00023570526 0.006670139 -0.1833262 -0.048416402
-0.09144038 0.041659687 0.008214273 -0.038787786 -0.046891365 -0.043913998 0.012615263 0.09076505
-0.04110576 -0.12670204 0.007603243 -0.019356048 -0.06484168 0.094377816 -0.062595166 0.10249054
-0.007942218 -0.14464818 -0.03568702 0.10437663 0.030927032 -0.0139510045 0.051358063 -0.032408692
0.08769716 0.074913695 0.11987396 -0.017852113 0.1403433 0.053979743 0.041119926 0.07932707
0.002301801 0.0056837224 0.09469511 0.10773936 0.06537765 0.0021435677 0.012796861 0.024820555
-0.028861156 -0.14523086 -0.06385792 -0.025397887 0.020786982 0.024082346 -0.07801698 -0.051788528
0.03380154 -0.056205835 0.019347863 -0.010263964 -0.10715574 -0.019730654 0.10922776 -0.0994102
-0.014732706 0.13221191 -0.07726848 0.033816934 0.012703494 -0.07692149 -0.060381398 0.05177019
-0.08097434 -0.058318835 0.025390236 -0.016901502 -0.0018698177 0.12260202 0.121578634 0.030503472
0.06984943 0.013909721 0.00701477 -0.0010538724 -0.047973156 0.08047902 0.010452663 0.061041925
-0.06664455 -0.003187122 0.07421289 -0.015889032 0.00643755 0.053409357 0.11049715 0.00311546
0.0814276 0.04918618 -0.06499665 -0.017600475 -0.06353865 -0.09413852 0.020942088 0.050809823
-0.033687983 0.047214724 -0.017604996 -0.070289314 -0.024430543 0.06576148 -0.07765326 0.05473864
0.039609883 -0.022739539 0.018888742 0.08988746 0.02847972 0.026051257 0.041645408 0.032534603
-0.00798235 -0.04879797 -0.010532031 0.0366531 0.051287495 -0.08467307 0.115768485 0.12274599
0.036787014 0.08774344 0.013399979 0.08386995 -0.012532376 0.07788141 -0.062202744 0.07927342

Generator.conv4.conv1.0.weight f4 [8, 8, 3, 3, 3]
00000000: b343 28bd f58b 9abb aaf7 4cbd a410 bc3c
00000010: 8c3b cb3c 1ef5 8bbc 7657 7fbc d0e4 293b
00000020: a8bf 09bd 8121 38bd d347 49bc e150 c9bd
00000030: 601f 5abd 00de 633c 667f 0dbd fc9c ad3d
00000040: 07ae ba3b 497b 083d 89be fb3c 3914 1a3d
00000050: f15f 793d 5438 363d 9f8a 8bbd 2983 a93b
00000060: 8b9a 72bd e421 03bd b004 7d3c 9afd 9abc
00000070: 1cf6 c0b9 25e3 903d 3e1f 1cbd 7a48 5b3d
00000080: e3c6 7c3d e14b 10bd 13b1 a83d a2c9 7bbd
00000090: 31a4 f33c f26f 3bbc 4371 3bbd fbdb ccbb
000000a0: 537c edbc 8666 8bbd 0bd4 69bc 5659 033d
000000b0: e6fa bf3c d4fa 373d 34c1 133a c70a 6b3c
000000c0: e87a b83c 496f cebc 8132 d23c 75f1 443d
000000d0: 36fe 723d 81f4 073d 13b8 5fbd 318e 7ebc
000000e0: a8e7 e0bd 44f3 76bc a97d 1a3d e244 98bd
000000f0: 8c95 823d d887 df3c dafb cebc c853 2dbb
00000100: 9930 f3bd 77fe adbd 04cd 453c c46e 36bd
00000110: b855 04bc ec1b ef3a 9681 833d 9df8 6bbd
00000120: e557 433d 192b 833b ff76 d6bc b4dc 283c
00000130: 34ae bcbd 0bf1 2b3d 03fb 6c3c ab05 11bd
00000140: 53b9 e33c 805d 763c 66c1 b2bc 2e27 e4bc
00000150: 0b56 763c f287 81bc 61be e6bc 17e2 6a3d
00000160: 906a 463c 002a 963d 1159 34bc 8e72 80bd
00000170: 2e1b 33bd 257e c53c a1bc 96bd 0814 1e3c
00000180: 6dcc a03d 67a6 973d 1155 323d e217 7ebd
00000190: 120b 7ebd 7665 76bd c0b8 7fbc cdcc 343d
000001a0: 4287 2fbd 3ba4 a23d 2ad0 163c 0db8 4b3b
000001b0: ff73 5ebd 098c f0bb 7362 a7bb 1d64 a4bc
000001c0: 4ba3 933c f0b3 143d 9b20 0cbd a802 353d
000001d0: 2c36 113c 3bdb 8eba 1cff b7bc 77ee 893d
000001e0: 6939 61bd ef64 45bc 728e c8bc a167 3f3c
000001f0: 75b2 283d 3a31 96bc bbd7 9f3d e3ab b33c
00000200: 5a5f 7c3d 1d72 3e39 7215 8dbc b3c3 413c
00000210: 948e 9f3c e890 5fbb 46b7 b93d f5ca 1dbd
00000220: 4c62 003d b2b6 68bd ce90 653c 00ec 993d
00000230: 4ef6 6dbb 1965 623d 8b06 9b3d 9662 92bd
00000240: 8d65 e33c 5bc4 bbbc e07b 6abb 8c35 c73c
00000250: c1fc 0cbd 0311 753c a1e5 753d c9ed 4b3d
00000260: 2e5e 90bc 43aa 1b3d 3ab6 70bc 032c f5bc
00000270: 2a63 ee3c f790 18bd 220b ff3b 3772 f9b9
00000280: 5706 0bbd 1843 743d 6091 56bd efa9 07bd
00000290: f79e 53bd 2143 99bc 6842 cd3d ebb5 6f3d
000002a0: 3f71 debc e606 223d eb35 923d 9222 6fbd
000002b0: 08be 30bd 1a89 6e3c a4ae f13b 9d2d afbd
000002c0: 0910 57bd caae 703d 5635 283d 629a 11bc
000002d0: eae3 633d 559a 3e3d 2a85 5c3a 6b4e bcbd
000002e0: 543f c13b 4abf fcbc 2293 13bd 2c42 7cbc
000002f0: d3cb 073d 7f4a 81bd b772 60bd ac63 b6bd
00000300: 7cc4 f6bc a884 213d e229 cdbc 0ded d5bc
00000310: 5fe1 bfbb 8e7f 393c 4c12 193d 4b45 cabd
00000320: 3180 50bc 7f93 aa3c 6f27 cabd bfa1 9abd
00000330: 295f be3c faf9 aa3d fc54 63bd e7de 07bc
00000340: b92f 663d 2118 dabc 3e60 983c 2c31 75bd
00000350: 4174 8cbd c6fb 373d 9ef3 333d 6112 183d
00000360: 0d88 28bc 992f 9d3d b511 383d 151b 893c
00000370: 8aa1 6e3d dc22 213d a8b7 4fbd fe26 bc3c
00000380: 27ce 433d 843d 9d3d 9a4b 813d 24f0 71bc
00000390: 190f 10bd 6e75 b33c 9631 053c 1b21 033c
000003a0: f40d 103c 424d 60bb 8d1c 21bd 5bdf a6bd
000003b0: f3fb 03bd 99a7 9e3c 43a6 27bd 28e3 9dbd
000003c0: 82e0 203d 1e5c 913c 457d 65bd cd6c 10bd
000003d0: 56be a43c c304 aa3b bfd5 94bd 95ee 933d
000003e0: 36e3 2e3d 8c29 2cbc 8c74 67bd ad57 00bb
000003f0: ff72 f53c 3123 413d 43eb 593d 5339 a0bb
-0.041080188 -0.004716391 -0.05004088 0.022957154 0.024808668 -0.017084654 -0.015584817 0.0025923736
-0.033630043 -0.044953827 -0.012285191 -0.098298796 -0.053252578 0.013907909 -0.034545325 0.08477208
0.005697015 0.0333207 0.030730503 0.037616942 0.060882512 0.044487312 -0.06813549 0.005173106
-0.059229415 -0.032014742 0.015443012 -0.018919755 -0.0003680446 0.070745744 -0.038115732 0.053535916
0.06171311 -0.035228614 0.08236899 -0.06147159 0.029741379 -0.011440264 -0.04576231 -0.0062518097
-0.028989946 -0.06806664 -0.014271746 0.03206762 0.023435067 0.044916943 0.00056363945 0.014345831
0.022519544 -0.02519955 0.025658848 0.048081834 0.059324466 0.03319216 -0.054618906 -0.015536831
-0.10981685 -0.0150726475 0.037717495 -0.07435013 0.0637618 0.027286455 -0.025266577 -0.0026447643
-0.11874504 -0.08495801 0.012072805 -0.044539228 -0.008077078 0.0018242574 0.06421201 -0.057610143
0.047691245 0.0040029404 -0.026179789 0.010306526 -0.09212914 0.041977923 0.014464143 -0.035405796
0.02779833 0.015036941 -0.021820735 -0.027850714 0.015035163 -0.015811894 -0.028166952 0.057344522
0.012110367 0.073322296 -0.011007563 -0.062718496 -0.043727092 0.024108002 -0.07360197 0.0096483305
0.07851491 0.074047856 0.043538157 -0.062034495 -0.062022276 -0.060155354 -0.015608013 0.044140626
-0.0428536 0.07941481 0.009204904 0.0031085045 -0.05430984 -0.0073409122 -0.0051081716 -0.020067269
0.0180222 0.036304414 -0.034210782 0.044191986 0.008863013 -0.0010899076 -0.022460513 0.06734937
-0.05498639 -0.01204799 -0.024481986 0.011682422 0.041185815 -0.01833402 0.07804819 0.021932548
0.06161437 0.00018162323 -0.01722214 0.0118264435 0.019477166 -0.003411347 0.0906816 -0.038523633
0.031343743 -0.056814857 0.014011575 0.075157166 -0.003631014 0.055272195 0.07569607 -0.0714771
0.027758384 -0.022920778 -0.0035779402 0.024317525 -0.034420732 0.014957669 0.060033444 0.049787316
-0.017623033 0.03800417 -0.014691884 -0.029928213 0.02910002 -0.037247624 0.0077833096 -0.00047578078
-0.033941593 0.059634298 -0.052384734 -0.033121046 -0.051665273 -0.018708767 0.100224316 0.0585231
-0.02715361 0.03955736 0.0713919 -0.05838258 -0.043149978 0.014559055 0.007375555 -0.08553622
-0.052505527 0.05876044 0.04106649 -0.008886905 0.055637278 0.0465339 0.0008412177 -0.091946445
0.005897442 -0.030852932 -0.03602899 -0.015396636 0.033153366 -0.06313037 -0.0547969 -0.0890573
-0.030122988 0.03943315 -0.025044385 -0.026114011 -0.0058557237 0.011321915 0.037370965 -0.09876498
-0.012725876 0.020822285 -0.098708026 -0.07550382 0.023238735 0.083484605 -0.05550097 -0.00829289
0.056197856 -0.026622834 0.01860058 -0.059861347 -0.06858111 0.044917844 0.043933503 0.037126902
-0.010286343 0.07675094 0.04493876 0.016736547 0.058259524 0.039339885 -0.050712258 0.022967812
0.047804024 0.07677749 0.06313248 -0.014766727 -0.03517065 0.02190658 0.008129498 0.008003498
0.008792389 -0.0034225737 -0.03933387 -0.081480704 -0.0322227 0.019367026 -0.040930044 -0.07709342
0.039276607 0.01774412 -0.05602767 -0.03526001 0.02011029 0.005188556 -0.07267331 0.0722324
0.042697154 -0.010507952 -0.056507632 -0.001958351 0.029962061 0.0471527 0.05320288 -0.004889646

Generator.conv4.conv2.0.weight f4 [8, 8, 3, 3, 3]
00000000: eb85 013d c2df 4b3e 7feb 86bd a5d9 bbbd
00000010: 8347 6bbc bf14 75bd 0942 4b3d 101a d6bb
00000020: 5f1c 9a3d c798 bebc 153d 4b3d 52df 9c3b
00000030: cb89 8d3d 5d78 753d c919 98bd 4354 b23d
00000040: db79 1f3e c748 673d 847f 363d fbb1 a5bc
00000050: fe35 9fba 704a 403d b506 9abc f136 7b3d
00000060: f160 683d 71c6 053e fb3c af3d 5e42 35bd
00000070: 6088 8abd f71b 73bd 2ea9 a93d 4998 173d
00000080: 8ec0 5dbd ad92 823d 6e28 b73d e88c cc3d
00000090: 44b6 363d 6022 d2bd e5d2 a7bd 380c 23bd
000000a0: d30d ac3d a86d 3abd d5ca 23bd 0851 0b3e
000000b0: 3bbc 10bd 8b49 0b3d 646c a63b 3e27 19bd
000000c0: 78e1 30ba fcc3 013b 9d1c 68bd 5509 8b3c
000000d0: 836c 0c3e 6968 633d 68ef a8bd f5ea b6bd
000000e0: 2d18 fc3d d5d0 3abe 4158 dcbd 28e2 aa3c
000000f0: 4a3c c5bd 2485 c83d 23e7 003e 23d9 8dbe
00000100: ec97 f5bd 0f64 403d ffb5 3fbe 4ecd 2abd
00000110: 2b3c 8f3c fa59 553d 1f21 a93d 174d 253e
00000120: 32d6 033c fb6e e9bc a562 803d a593 e1bd
00000130: 5000 073d 723f a1ba 5eb8 283d cdba e23d
00000140: baad 0d3e 6cb9 1fbd 1458 1fbd 7cf0 013c
00000150: 5980 a2bd 6155 3f3c fdd1 bebc 277a c63c
00000160: 88d9 31bd e08d 92bd 64d6 2dbd aa79 a6bb
00000170: 227e a8bd 1612 033c 1d4e 4c3d e6ae 173b
00000180: 22a3 2cbd 6994 3a3d 9abc 48bd 24e6 2a3d
00000190: a994 29bd 43d0 61bd 2027 0f3e dda9 523d
000001a0: 9f74 153d 69ee 94bb 93dc b4b8 0e53 e2bc
000001b0: 18d4 663b 3d87 673d 5eca 01be df18 593d
000001c0: caaa f03d a755 f1bd d01a 023c ef88 69bc
000001d0: 550b 86bd a137 67bd 93e1 56bc 9879 3cbd
000001e0: d98a 4fbd 9806 d0bd 96cc a4bc a097 37bc
000001f0: a64a 5dbd 1a92 b3bb 534a 92bb 04a6 793d
00000200: 3519 cb3d 173f 1a3c 0e47 4ebe 6436 c6bd
00000210: acd4 753c 3a58 8abd 7e9f ecbc 630a 223d
00000220: 26d6 b2bd dd7a cbbd dbe8 b1bd be98 babd
00000230: 6412 43bc b1a4 6cbc 9463 313d b4ee f73b
00000240: 1b0c 543d 047a 9bbd 4731 20bd cfbe a73d
00000250: fc3c 603d 7970 293d 4b8f d53d f9d5 a03d
00000260: c08d 3bbc 6cce 2fbe c526 38be 84e8 a4bd
00000270: b36f 7fbd 8100 cbbc 91fc 1b3e 3ce2 87bc
00000280: eaa2 023d 75f2 433d c6f3 633d c1ba 943b
00000290: fff7 08be 6531 e2bc 6367 63bc bd39 643b
000002a0: 91cd cebd 56a0 42bd 8be0 5f3d 5b2f efbc
000002b0: 8395 adbd ccc1 04be 324d acbd cedc 6fbd
000002c0: f774 033d dd3e 0ebd a321 85bc c66d 2c3b
000002d0: b43e 58bc 24d8 be3b c038 6fbb 3052 41be
000002e0: e79f efbc cba6 edbd 40df 3abe 4465 8a3d
000002f0: 78ab cdbd be14 58bd 429a 403c d44b 943c
00000300: e89b c4bc 51fb f3bd 987e 563d a9c0 803c
00000310: 7871 80bd c45e a8bc 7087 52bc 00c1 3cbc
00000320: b112 413d d7c0 b3bc aeb0 893c 62da 303c
00000330: 4c20 b73d 7932 e43b a13b d43b 24c3 263d
00000340: a137 ccbc 80c0 3d3d b6ce 4e3d f38b 203c
00000350: 3ad7 173d 0c47 e53d e5ee 393d 921d e53c
00000360: 721e 28bb 2d1e 593c 5550 7f3c c45b 9cbd
00000370: d2ac ddbd 4949 4a3d 854a a0bc fc9c cdbc
00000380: 8483 aa3d 6be3 b73c 133c 883d 8078 1abd
00000390: 03b5 093c 41de 4cbc d35e d73b 9fd0 b13d
000003a0: e09d 4f3b 712b 673d f4a4 93bc 9d97 133d
000003b0: 7df8 a9bd 7d3c 42bb e2cf 9d3d 4f03 9e3d
000003c0: f88a cd3d 7660 903c 5506 7a3d 69ac 553b
000003d0: e02a cc3d eca5 25bd 21f2 183d 9956 3a3e
000003e0: f7c6 7e3c e376 cfbd 8691 b43a bfb8 b13d
000003f0: 0d03 053d 2954 953d 63f0 883b ff52 4e3d
0.031621855 0.19909576 -0.06587886 -0.09172372 -0.014360311 -0.05983424 0.049623523 -0.0065338686
0.075249426 -0.02326621 0.0496188 0.004787364 0.069110475 0.05992924 -0.07426793 0.08707478
0.15573828 0.05646589 0.044555202 -0.02022647 -0.0012146828 0.04694599 -0.018802026 0.061331693
0.056733076 0.1306398 0.08556553 -0.044252746 -0.06764293 -0.05935284 0.082842216 0.037010465
-0.054138713 0.063756324 0.08943258 0.09987813 0.044607416 -0.10260463 -0.08194522 -0.039806575
0.08401074 -0.045514733 -0.039988358 0.1360513 -0.03533576 0.034005683 0.005078839 -0.03739094
-0.00067474646 0.0019800654 -0.056667913 0.016972223 0.13713269 0.055519495 -0.08248788 -0.08931533
0.12309299 -0.18243726 -0.107590206 0.020859793 -0.0963064 0.097910196 0.12588172 -0.27704725
-0.119918674 0.046970423 -0.1872177 -0.0416997 0.017484745 0.05208776 0.082582705 0.16142689
0.008046674 -0.028495302 0.06268815 -0.11014489 0.032959282 -0.0012302233 0.04119145 0.11070786
0.13835803 -0.03899519 -0.038902357 0.007930871 -0.079346366 0.011678071 -0.02329349 0.024228169
-0.043420345 -0.07155967 -0.042440787 -0.0050804215 -0.08227183 0.0079999175 0.049879182 0.002314502
-0.042147763 0.04555169 -0.04900799 0.041723385 -0.04140154 -0.055130254 0.13979769 0.051431525
0.03648817 -0.0045450223 -8.624154e-05 -0.027627494 0.0035221633 0.056525458 -0.12674853 0.053002235
0.117513254 -0.11783915 0.007940963 -0.014253839 -0.0654513 -0.056449536 -0.0131153045 -0.0460144
-0.050669525 -0.10157508 -0.020117085 -0.011205584 -0.05402627 -0.005480063 -0.0044644265 0.06094934
0.09916917 0.009414456 -0.20144293 -0.09678343 0.015004318 -0.06755109 -0.028884646 0.039560687
-0.08732252 -0.09935544 -0.08686992 -0.091111645 -0.01190624 -0.014443562 0.043307856 0.0075662974
0.051769357 -0.07591632 -0.039109495 0.08190691 0.05474566 0.041367028 0.104277216 0.07853312
-0.01144737 -0.17168587 -0.1798354 -0.08052161 -0.062362384 -0.024780514 0.15233065 -0.01658737
0.03189365 0.047838647 0.055652402 0.0045388644 -0.13375853 -0.027611444 -0.01387963 0.0034824454
-0.100978024 -0.04751619 0.0546575 -0.029197386 -0.08475783 -0.12964553 -0.08413161 -0.058560185
0.03209397 -0.03472792 -0.01625139 0.0026310547 -0.013198543 0.005824106 -0.0036502331 -0.18879008
-0.029251052 -0.11604079 -0.18249226 0.06757596 -0.10042471 -0.052754156 0.011755528 0.018102564
-0.024000123 -0.11913169 0.052366823 0.015716868 -0.062716424 -0.020553 -0.012849674 -0.011520624
0.047136966 -0.02194254 0.01680788 0.010794254 0.08941707 0.0069640246 0.006476835 0.040713444
-0.02492887 0.04632616 0.050490104 0.0097989915 0.03707049 0.11195192 0.045393843 0.027968202
-0.0025652912 0.013251823 0.0155831175 -0.076346904 -0.108239785 0.049386296 -0.019566784 -0.02509927
0.08325866 0.022447309 0.06652083 -0.037712574 0.008404973 -0.012504161 0.006572583 0.086823694
0.0031679794 0.056437913 -0.018022992 0.03603326 -0.082993485 -0.0029638105 0.07705666 0.07715475
0.10036272 0.017624121 0.061041195 0.0032603985 0.09969115 -0.04044144 0.037340287 0.18197097
0.015550367 -0.10130098 0.001377628 0.08677816 0.032473613 0.07291443 0.004179047 0.05037212
