DeepWonder3D_pytorch/pth/SEG_pth/Unet4_no_end_UNet3DFFD_20240401-1432_2um/seg_299.pth (torch, 138281 bytes, 19 tensors)

Generator.conv1.conv1.0.weight f4 [8, 1, 3, 3, 3]
000000 ba 81 f4 3d 20 36 cd 3d ba 73 6b bd 4c 39 12 3e
       0.11938806 0.10020089 -0.057483412 0.1427967
000010 db f2 f7 bd 45 a0 01 be 3b c2 4f bb 34 9f 85 bb
       -0.12106868 -0.12658794 -0.0031701464 -0.0040778164
000020 a0 8e bc 3d f7 1e 4f 3d 7d a0 1e be 23 f0 b3 3d
       0.09206891 0.05056664 -0.15490909 0.08786037
000030 7b fd 09 3e f9 78 e0 3d 0c 25 04 3d 21 fb 3d be
       0.13475601 0.10960574 0.032261893 -0.1855283
000040 6f 16 b4 3d 63 3e 56 be 12 ba d4 bd cf 04 ea bd
       0.08793341 -0.20922236 -0.103870526 -0.114266984
000050 49 48 79 bd 03 e3 f6 3c ed 15 5c bd 41 d4 65 3d
       -0.060859952 0.030137544 -0.053731848 0.056110624
000060 d9 f4 58 be ae 3c 33 3d fb 3f 36 3e 1e eb 26 3e
       -0.21187152 0.04375904 0.17797844 0.16300628
000070 8a 89 27 3e 8e 97 ae 3c af 00 ab 3d 33 f1 07 be
       0.1636106 0.021312501 0.0834974 -0.13275604
000080 f5 f3 3a be 29 ab 00 3e cd b0 5a 3c 0d f0 b6 bd
       -0.18257125 0.12565292 0.013347817 -0.08932505
000090 ad bb e2 bd f4 6e 26 3e 12 12 24 bd 68 fe 05 be
       -0.110709526 0.16253263 -0.040056296 -0.1308533
0000a0 e5 70 9b bd 62 ec 12 3c 45 04 50 be e4 21 5e be
       -0.07589892 0.008967491 -0.20314129 -0.21692616
0000b0 82 ac b3 bc bd aa 03 3e d2 0d 2f 3d 32 5a 5b 3e
       -0.021932844 0.128581 0.04273779 0.21421126
0000c0 61 8b 32 3e a2 b8 aa bd d2 a6 27 3e 5c 76 b1 3d
       0.17435981 -0.08335997 0.1637223 0.086651534
0000d0 3b e1 04 be cb bc a3 bd 90 78 80 3d ab 6a 2d bd
       -0.12976544 -0.07994994 0.062729955 -0.042338055
0000e0 af c5 f8 bd 89 b8 df 3c 06 6a cd 3d 21 d6 d8 bb
       -0.1214708 0.027309673 0.10029988 -0.006617323
0000f0 b4 79 23 be 9a 06 e5 bd 11 57 6d bd 75 50 04 3d
       -0.15964395 -0.111829 -0.05794436 0.032303292
000100 38 45 ba 3d 02 df 44 3c 43 a5 3d bd 09 f2 15 3d
       0.09095234 0.01201606 -0.046300184 0.036607776
000110 7e fc 8e 3d 5b 0e 8c 3d c2 2a 48 3c 7f a0 8b 3c
       0.06981753 0.068386756 0.0122172255 0.017044304
000120 6c f0 18 be 5d b2 57 3d 30 f5 65 3d 96 ec 0f 3c
       -0.14935464 0.052660335 0.056142032 0.008784434
000130 0d ab 66 bd 2b 0f d6 3d 7b f8 e3 be 31 33 41 bb
       -0.05631547 0.10452112 -0.44525513 -0.0029479975
000140 48 31 88 be 5a ee ba bd bb b7 19 be c7 18 1f 3e
       -0.266001 -0.09127493 -0.15011494 0.15536796
000150 5c df 4a be 76 f9 96 bd 66 f1 b9 bc f5 a4 a4 3d
       -0.19811767 -0.073718 -0.022698116 0.080392756
000160 fe de ea bd 22 6a 60 3d ee 29 54 be b1 4d 76 bd
       -0.11468314 0.054788716 -0.2071912 -0.060132686
000170 34 ef d0 3c 04 99 d0 3d 87 95 4b be 33 62 28 be
       0.025504686 0.101854354 -0.19881259 -0.1644371
000180 9d 38 16 bd 9c a4 ff 3d 47 0c b2 3d 64 e8 60 bd
       -0.036675084 0.124825686 0.08693748 -0.054909125
000190 62 6a 7e 3d 6b c8 b7 3d 09 28 84 bd 97 e8 6c 3d
       0.062113173 0.089737736 -0.064529486 0.057839002
0001a0 48 62 9f 3d 67 b8 7c 3c bb 70 27 be 21 da 63 be
       0.077824175 0.015424824 -0.16351597 -0.22251178
0001b0 aa 47 38 3e 91 71 2b be c8 27 31 bd 64 f4 07 be
       0.17996088 -0.16742541 -0.04325083 -0.13276821
0001c0 29 13 26 bd 73 7d 6d 3c 9b 4b 25 bd 46 8d 6c 3d
       -0.040545616 0.014495241 -0.040355306 0.057751916
0001d0 dc 73 42 3d 58 d5 10 3b 0b 2f a4 3d 69 a1 42 be
       0.047473773 0.002209982 0.08016785 -0.19006886
0001e0 c8 a4 64 bd 20 88 38 bd 8e 7a 8c 3a 23 e4 e5 3d
       -0.05582121 -0.045051694 0.0010717676 0.11225154
0001f0 5a 16 88 3c be d9 04 3e f0 0e 3d be b2 da 85 3d
       0.01661222 0.12973687 -0.1846273 0.065358534
000200 e0 9b d7 3d 75 53 c1 3d 64 da 07 3d c6 88 d3 bd
       0.10527778 0.09439746 0.033167258 -0.10328822
000210 2a 1b 23 be ab 5e ac bd 1a 4d db 3d 32 67 09 3d
       -0.15928331 -0.08416494 0.10708065 0.03354568
000220 82 7e ea bd ee 1a ee 3d 07 72 da 3d 40 f9 94 bd
       -0.11449911 0.1162623 0.1066628 -0.07274103
000230 ab 73 04 be a9 06 3d be 45 93 3d 3e 64 36 df 3c
       -0.12934749 -0.18459572 0.1851321 0.027247615
000240 09 a3 bf bd 87 7c 49 be cd 7b 5d 3d 73 eb b6 3d
       -0.09357268 -0.1967641 0.054073144 0.08931627
000250 b7 5c 32 be 85 68 5b be 8f f3 9e bd f7 79 9f 3d
       -0.1741818 -0.2142659 -0.07761299 0.07786935
000260 93 ed 1e 3e 77 ed 17 bd 43 d6 2a bd bf e4 ee 3d
       0.15520315 -0.0370917 -0.041708242 0.116647236
000270 79 f5 be 3c c6 35 2f 3e 9b 9e a1 bd 80 ef 5f 3b
       0.02331041 0.17110357 -0.0789158 0.0034169853
000280 e5 52 05 bd c9 85 56 3e d3 14 66 be 6e 3e 20 3e
       -0.032549758 0.20949472 -0.22468881 0.15648815
000290 74 ca a5 bd 20 4e ab 3d 5d c2 a5 3b 96 8d 29 bd
       -0.080952555 0.083645105 0.0050585703 -0.041394792
0002a0 63 fd e3 3c 08 28 a9 bc 94 9d 85 3d 03 5d 5a 3d
       0.027830785 -0.020648971 0.06524196 0.05331136
0002b0 fc c4 8d bd f5 9d 6a 3e c7 66 53 be 5d ca a2 bd
       -0.069223374 0.22911818 -0.20644675 -0.07948754
0002c0 fc 17 07 3d 67 70 7d bd 6a cc f2 3d c5 68 50 3d
       0.032981858 -0.061874773 0.11855395 0.050881166
0002d0 d2 a3 9c bd e4 52 59 bd 22 56 db 3d 37 fd 15 be
       -0.07648434 -0.053057566 0.10709788 -0.14647375
0002e0 bf 70 5c 3d bf 29 e0 3d 3f 06 0a be 69 f6 e8 bb
       0.05381846 0.109454624 -0.13478945 -0.0071094525
0002f0 65 78 26 3e 72 4f 5c bd 73 84 01 3e 6b e1 8d 3b
       0.16256864 -0.053786702 0.12648182 0.0043298504
000300 02 30 11 3d 07 d7 e1 3d 4f 83 5d be 28 54 9a bd
       0.035446174 0.11027341 -0.21632122 -0.07535583
000310 ce b6 07 3c a0 d8 f3 3d 3b 52 18 bd 82 7c 94 bd
       0.00828333 0.11906552 -0.037187796 -0.072503105
000320 0e b2 63 bd 09 60 55 be bf 76 18 3e bc 84 bf bd
       -0.055589728 -0.20837416 0.14889048 -0.09351489
000330 f8 89 bb bd 30 f5 3a 3e 8c 86 e5 3c 92 d5 ca bd
       -0.09157175 0.18257594 0.028018259 -0.099040166
000340 f0 9a e9 bc 33 5a 9d bc f4 95 7c be 82 5e d6 3d
       -0.028516263 -0.01920805 -0.24666578 0.10467245
000350 7d a3 dc bd d0 de 5c be ac 0f 94 bd 1c 96 d8 3d
       -0.107733704 -0.21569371 -0.07229552 0.10575506

Generator.conv1.conv2.0.weight f4 [8, 8, 3, 3, 3]
000000 ab ea 23 3e 64 07 5d 3d b8 c8 30 3d c0 9f c8 3c
       0.16007487 0.053962126 0.04316017 0.024490237
000010 1b 48 32 bd 6b 64 99 3d d3 a6 35 3e 34 fc 17 3e
       -0.043525796 0.07489856 0.1773942 0.14842302
000020 4e ce 9b 3e 94 c7 4e 3c df 18 55 3c db ae 5b 3d
       0.30430835 0.012620825 0.013006418 0.053633552
000030 cc d1 3d 3d 28 e4 cc 3d 3f 3e a1 3c d6 4d 79 3d
       0.046342656 0.10004455 0.019683002 0.060865246
000040 ac ae 97 bc 8e b0 12 3e 2d ed 2e 3d d9 42 3b 3e
       -0.018515907 0.14325163 0.042706657 0.18287219
000050 25 17 24 3e 90 1a 15 3e 99 e1 48 3e 07 82 35 3e
       0.16024454 0.14560914 0.19617309 0.17725383
000060 e5 4b fa 3d fb 33 19 3e 54 8b 32 3e a0 2d 14 be
       0.12221507 0.14961235 0.17435962 -0.1447053
000070 31 d9 e2 bc ce 1f 6d be 9f 42 b1 bd 1f 49 e7 bc
       -0.027691456 -0.23156664 -0.08655285 -0.028233109
000080 90 52 98 be 81 ab c8 bc 16 9b ac 3d 4d 25 a3 bd
       -0.2975049 -0.024495842 0.08428018 -0.07966099
000090 0a 7f e5 bd 9d 49 46 3e a0 a6 80 be 5b a5 bc bd
       -0.112058714 0.19364019 -0.25127125 -0.092112266
0000a0 f7 7e 00 3e 91 33 0a bf f8 56 69 bd e8 4f 99 3d
       0.12548433 -0.53984934 -0.056967705 0.07485944
0000b0 25 e9 c7 3c ba d5 73 3d 17 90 72 3e 34 23 af be
       0.024403164 0.059529997 0.23687778 -0.34206545
0000c0 a0 3e a6 bd 0e 8d 0b 3e 43 c3 04 bf 12 98 cc bd
       -0.081174135 0.13628027 -0.51860446 -0.099899426
0000d0 51 96 cf 3c b7 1a 4a 3c 1d 9d 97 3d 77 20 b5 3c
       0.025340231 0.012335471 0.07403014 0.022110207
0000e0 e7 2c f0 3c 73 48 08 bd 09 13 9e bd 6e bb b7 bc
       0.029318286 -0.033272218 -0.077184744 -0.02242824
0000f0 bb 87 7b 3d f0 3f bb 3c 2b 5f 13 bd 61 11 5b 3e
       0.06140874 0.022857636 -0.03597943 0.21393348
000100 8d fe b1 bc 4c 46 4f 3d a5 58 80 3c 8c 67 ed 3a
       -0.021727825 0.05060415 0.015667269 0.0018112524
000110 32 e9 29 3e 7c 64 00 3e 68 d2 38 3d cf 68 64 3d
       0.16592863 0.12538332 0.045122534 0.055764016
000120 f4 e0 09 3e 4e eb 97 3d 00 fb d4 3d f7 39 cb bd
       0.13464719 0.07417928 0.10399437 -0.09923165
000130 a1 11 c7 39 44 80 2a 3d fc ed bd 3d 82 8e ca 3d
       0.00037969372 0.04162623 0.092739075 0.098904625
000140 7c e9 7d 3d e0 56 c4 bc 45 59 7d 3d 17 fb 29 3d
       0.061990246 -0.023967206 0.061852712 0.041499224
000150 ac 62 0f 3e 73 63 06 3b ae 29 ce bb 53 5b 05 3c
       0.14002484 0.0020506054 -0.0062915897 0.008139449
000160 c0 52 23 bd 1f d0 0e 3c 81 7a aa 3c 5e c8 91 3c
       -0.03987384 0.008716612 0.020810368 0.017795738
000170 32 9a 2e 3d 30 9e 3a bd 79 60 72 3c 6c 21 6b 3d
       0.04262752 -0.045561016 0.014793509 0.05740492
000180 b8 1c 0f bd 8b ba be 3c 90 e7 e5 3c aa c6 88 3d
       -0.034939498 0.02328231 0.02806452 0.06678517
000190 0a 7e 3d bd 4e 2c 47 bd a6 46 fe bb c2 67 1c 3d
       -0.04626278 -0.048626237 -0.007759887 0.03818489
0001a0 55 41 55 3d 4f 04 f8 3c 4e 68 1d 3d 85 f8 9c 3c
       0.05206426 0.030275492 0.03842955 0.019161472
0001b0 dd 74 c8 bd 7b 38 5e be 37 7d 38 be 1d 88 76 bd
       -0.09787915 -0.21701233 -0.18016516 -0.0601884
0001c0 d3 a9 98 bb 0f b9 08 be d0 7a 88 bb 27 1a ae 3b
       -0.0046589165 -0.13351844 -0.004165031 0.005313176
0001d0 de c0 6f 3d 40 54 5f bd af 9c 29 3d 9d eb 0a 3e
       0.05853354 -0.054523706 0.04140919 0.13566442
0001e0 85 c3 b7 bc 5b 38 40 3d 86 7b a3 3d 56 2f 74 bd
       -0.022432098 0.046928745 0.079825446 -0.059615456
0001f0 55 0c e6 3d d7 f7 dc 3d 81 3b be bd 79 d7 5b 3e
       0.11232821 0.10789459 -0.09288693 0.21468915
000200 00 ad 27 3e 84 3b e8 bc ad a7 3e 3e cb 96 d7 3c
       0.16374588 -0.028348692 0.1861865 0.02631702
000210 e3 df 51 be 8d da 2c 3e c7 dd 87 3d fa 52 46 bc
       -0.20495562 0.16880246 0.066340975 -0.012104744
000220 a3 56 73 3e be 85 d9 3d 57 85 a1 bd e3 4e 65 3d
       0.23763518 0.106212124 -0.07886761 0.055983435
000230 80 b8 91 bd b9 47 3e 3c 47 2a 1d be b4 ec 41 bd
       -0.07115269 0.01161378 -0.15348159 -0.04734488
000240 b0 66 45 be e5 79 5f 3e 7c 90 c7 3d 84 f9 e9 bd
       -0.19277453 0.21823843 0.09744355 -0.114245445
000250 48 98 c6 3d 8e 4e ab bc 07 5e 0b bd 71 2a d5 3c
       0.09697014 -0.020911481 -0.03402522 0.026021214
000260 71 9c 83 bd aa 75 70 bd 38 17 7c 3e ad dc 2b 3e
       -0.06426323 -0.058705963 0.24618232 0.167834
000270 c5 62 85 bd ed d8 5f 3e 68 cc c2 3d b3 88 2f be
       -0.065129794 0.21860094 0.09511644 -0.1714199
000280 b7 ad 16 bd 3c af eb 3b 82 d6 93 3d 9d 15 ee bd
       -0.03678676 0.0071925204 0.072186485 -0.11625216
000290 7e 6a 00 be 58 4e 86 3d 12 f1 8a bd 62 4b 8e bd
       -0.12540624 0.06557912 -0.06784262 -0.06947972
0002a0 2e d7 ff 3d 28 ff 3d be e4 98 1a 3a fd db 64 3d
       0.12492214 -0.18554366 0.0005897416 0.05587386
0002b0 e4 f9 2c be 29 65 24 bc 04 b8 ed 3c fd 92 26 bc
       -0.168922 -0.010033884 0.02901841 -0.010166881
0002c0 d8 18 7c bd 2c 1a 6e bd 73 48 3c be 55 7f 1e bd
       -0.06154713 -0.05813043 -0.18387012 -0.038695652
0002d0 1e a3 23 3d 4a 01 72 bd a2 44 f9 3d ba d6 a5 bc
       0.039950483 -0.05908326 0.12171294 -0.020243991
0002e0 6b 0a cf 3d 72 69 cc 3d a7 df ae bd 5d 45 c5 be
       0.10109409 0.099810496 -0.08538752 -0.38529482
0002f0 e4 df a0 bd af dc cc 3c 83 ef 95 bd f3 b2 8a 3b
       -0.07855204 0.025007574 -0.07321074 0.004232758
000300 6f 90 9e 3d 59 ff d6 3c 82 74 37 3d 83 53 8e 3d
       0.07742392 0.026244806 0.044788845 0.06949522
000310 d4 8b 8a bd fb 9c 2e 3c 35 dc e1 3c 5e 8c ab be
       -0.06764951 0.010657544 0.027570823 -0.3350553
000320 27 66 74 3d 80 8d d2 3c 5b a1 91 be 6d 6f eb 3d
       0.059667733 0.025702238 -0.28443417 0.11495862
000330 8d 57 c9 3d 45 6d b9 be 83 f3 83 3d e8 78 c9 bd
       0.09831152 -0.3621618 0.064429305 -0.09837514
000340 56 e5 0e 3e 4f b4 2c be 83 26 12 be 6c ad 4c 3e
       0.13954672 -0.16865657 -0.14272504 0.1998803
000350 fb 3b 2b be 8e 54 66 be 32 20 f9 3d ed 88 09 be
       -0.167221 -0.22493193 0.12164344 -0.1343114
000360 25 e6 13 3e 03 27 92 3e 78 ac 78 3e 5b f1 e5 bc
       0.14443262 0.2854539 0.24284542 -0.028069189
000370 5c 2d 9d 3d 1d 01 d0 3d d8 f7 95 3e 54 4c 98 3e
       0.07674667 0.10156462 0.29290652 0.29745734
000380 72 87 8e 3e f4 86 1d 3e f8 76 9b 3d f3 bb 5a 3e
       0.27837712 0.15383512 0.07591051 0.2136076
000390 12 89 6b 3d bd 2c a3 3d de 5d a8 3d e0 07 9c 3d
       0.057503767 0.079675175 0.08221029 0.076186895
0003a0 56 91 42 bb 54 20 b4 3d d1 75 90 3d 0a c6 bc 3d
       -0.0029688678 0.087952286 0.07053722 0.092174605
0003b0 cc 3f de 3c e7 1f d0 3d 80 e0 a8 3d f7 a2 aa 3d
       0.02713003 0.10162335 0.08245945 0.08331864
0003c0 4e e7 8a 3d 96 ee 2e 3a c4 d7 d3 3d 65 17 b4 bd
       0.06782399 0.00066731253 0.103438884 -0.08793525
0003d0 2e 95 86 bd 0b 23 7b bd e9 21 87 bd ec d2 d1 bd
       -0.065714225 -0.061312716 -0.06598265 -0.10245308
0003e0 b9 05 02 bc 5d a6 7d 3c 0c 96 b1 bb 10 1d 9e bb
       -0.007935935 0.015481559 -0.0054194983 -0.004825242
0003f0 c6 ef ac 3d ab c1 20 bc 70 0b bc bb 37 3f a0 3d
       0.08444171 -0.009811799 -0.005738668 0.07824557

Generator.conv2.conv1.0.weight f4 [8, 8, 3, 3, 3]
000000 c5 0c cd 3d e5 5c c3 bc 79 7f b8 bd 05 bb b5 3e
       0.10012201 -0.023848007 -0.090086885 0.35494247
000010 c8 7a ee 3d 5c f2 93 bd de 76 3f be ee d8 32 3d
       0.116445124 -0.07223961 -0.18697688 0.04366391
000020 59 bb f2 3d 95 88 a5 bd 8c d9 65 bd c2 b0 0a bc
       0.1185214 -0.080826916 -0.056115672 -0.008464994
000030 94 9a bd bd 43 b7 cf bb d7 85 ba 3c 65 00 22 bd
       -0.09257999 -0.006338985 0.022768898 -0.039551158
000040 08 fa 91 bd 6b ab cd 3d db 42 de 3b 1e 3b 7f bd
       -0.07127768 0.10042461 0.006782872 -0.062312238
000050 f9 81 e6 bc a2 f1 8c bc b2 26 44 bd 71 5e 11 3d
       -0.028138148 -0.017205063 -0.047888465 0.035490457
000060 2c 89 69 3c 22 a2 0e bc 42 55 a7 3d 5d 53 43 3d
       0.014253896 -0.008705648 0.081705585 0.047686923
000070 c4 77 16 bd ce 25 46 bd da b5 2c 3c df bc 43 bb
       -0.03673531 -0.048375897 0.010541404 -0.0029867215
000080 bf c2 ab bc 30 e0 8c 3d 09 84 9c 3d c4 0c 22 3c
       -0.020966886 0.06878698 0.07642371 0.009890739
000090 b8 ac 2f be bc d1 0b be a2 67 9e bd b0 84 c8 bd
       -0.1715573 -0.13654226 -0.0773461 -0.09790933
0000a0 8c 6b 75 bd 14 c3 38 bd 33 1f d1 3d cd 3a 21 bc
       -0.059917018 -0.045107916 0.10211029 -0.009840679
0000b0 17 49 e5 bc a3 31 5b bd b2 91 84 bd 09 80 30 be
       -0.027988954 -0.053514134 -0.06473102 -0.17236342
0000c0 3d 7a be 3a 96 16 80 bd 0e 31 c6 bd 77 f5 ab 3d
       0.001453228 -0.06254308 -0.09677325 0.08396428
0000d0 c9 89 47 3b 14 85 55 bd 1c ca 8d 3c 3e ae d9 3d
       0.0030447117 -0.052128866 0.017308287 0.10628937
0000e0 28 9f 0f 3e 5b 1e 22 3d 8b f5 8f 3d d1 77 44 3e
       0.14025557 0.03957973 0.070292555 0.19186331
0000f0 ed da 7e bd 9b 02 1a bd 3a 92 0d 3d 97 a1 a1 bd
       -0.062220503 -0.03760014 0.03456328 -0.07892149
000100 9f 8f f2 3c 4d c1 ac 3c 98 c9 5b bd 34 a2 2c 3c
       0.0296095 0.021088267 -0.05365905 0.010536719
000110 77 56 89 3d 92 2c 4d be 5d 58 ff bc dc ec 0c 3d
       0.06705945 -0.20036533 -0.031170065 0.034405574
000120 b9 98 22 bd 24 b6 12 3d 97 cf 81 3d 2d 2f a1 bd
       -0.03969643 0.035818234 0.06338423 -0.07870326
000130 71 78 d4 3d 99 9e 0b 3e e3 20 0a be 6d 16 53 bd
       0.10374535 0.13634719 -0.13489108 -0.05153506
000140 ed 02 92 3d ff 0b 22 3b b1 a0 f6 bc c1 40 68 3d
       0.07129464 0.0024726389 -0.03010592 0.05670238
000150 70 69 f3 bd 10 36 9a bd 2e dd 35 bc b2 bc 9e bc
       -0.11885345 -0.07529843 -0.011100097 -0.019377086
000160 43 21 2b bd 79 61 c3 3d 49 ee 3c 3e ca 98 d8 3b
       -0.041779768 0.09540076 0.18450274 0.0066100108
000170 d0 2e a1 3d 18 68 9c 3c 81 e1 f4 bc 37 1f 33 3c
       0.07870257 0.019092605 -0.029892685 0.010932735
000180 be 68 bf 3b 57 d4 7f bd 4e ac db 3c c1 e6 7f ba
       0.0058413437 -0.062458362 0.02681556 -0.0009761863
000190 a5 31 c0 3b 52 03 06 3c fe c2 e5 bd bf 96 e1 bc
       0.005865293 0.008179503 -0.112188324 -0.027537702
0001a0 fd ca 97 3d a9 85 bb 3a 60 57 1c bd ed 04 a0 3c
       0.07411764 0.0014306802 -0.038169265 0.019533599
0001b0 93 98 1d 3d 6c 2f 36 3d ad 29 33 bd 7f 70 83 3b
       0.038475584 0.04447882 -0.043740917 0.0040112133
0001c0 b8 26 c2 bc 41 1d ed 3c ec dc bc bc f4 51 24 bb
       -0.023700103 0.028944613 -0.023054563 -0.0025073262
0001d0 fa 99 06 3d 1d 95 3d 3d 4a 0e b2 3c e5 82 96 3d
       0.032861687 0.046284784 0.02173533 0.07349185
0001e0 bc e0 83 3d 78 22 aa 3d 2b 24 c6 3d aa 60 ae 3d
       0.06439349 0.08307356 0.09674867 0.08514531
0001f0 85 0f 2f bc f3 b3 06 3e 90 ef 51 bd d5 62 28 bb
       -0.0106848525 0.13154583 -0.051253855 -0.0025693674
000200 cc 3f 7f 3d 0f ee 85 bd cb 06 02 3d 04 2a 8f 3d
       0.0623167 -0.06539547 0.03174476 0.06990436
000210 42 81 b7 3c b0 51 f6 bc ad 51 26 bd eb f9 81 bc
       0.022400502 -0.030068249 -0.040605236 -0.01586624
000220 40 aa e9 3d 40 d3 69 3d 20 93 19 3b 02 73 d1 3d
       0.11409426 0.05708623 0.002343364 0.10227014
000230 a3 08 aa 3d be 92 0d bd 92 f1 a8 bd 6f a6 56 bd
       0.083024286 -0.034563772 -0.08249201 -0.052404817
000240 0e 78 8c bd 03 55 58 bb 91 b3 99 ba d6 68 98 bd
       -0.06858836 -0.0033009655 -0.0011726489 -0.07441871
000250 e3 2d 79 bd 1b e9 0d bd a8 2f b0 bd 81 81 fc bd
       -0.060834777 -0.034646135 -0.0860284 -0.123293884
000260 92 c8 74 3d 96 1c 98 bd 84 c4 ba bc db e7 9e bc
       0.05976159 -0.07427327 -0.022798784 -0.019397667
000270 b5 09 ce bd 8f 82 d7 bc 64 09 ba bd ea e8 1b be
       -0.10060445 -0.026307372 -0.09083822 -0.15225568
000280 26 2e 4c be e1 64 20 3e 02 eb 9d 3d 7d 86 70 3d
       -0.19939479 0.15663482 0.0771084 0.058722008
000290 3f 2a 8f 3d 66 34 ad 3d 11 f9 1d 3c e2 3a 01 3d
       0.0699048 0.0845726 0.009641902 0.031550296
0002a0 5c 4b b0 3c ff e5 b8 3d 83 94 ff 3c c7 77 b4 3c
       0.02152031 0.09028243 0.031198746 0.02202977
0002b0 cc ca 9e bb 00 bf f3 bb e4 98 90 3d 19 65 a7 3d
       -0.0048459526 -0.0074385405 0.070604116 0.0817358
0002c0 38 db cc 3d e9 27 c9 3d ea d2 3a 3d 4b fb 98 3d
       0.1000275 0.098220654 0.0456113 0.07469805
0002d0 e4 c1 34 3d 72 96 0b bc 5a ea ee bc 90 05 61 bd
       0.04413022 -0.008519756 -0.029164482 -0.054936945
0002e0 cc 69 57 3d 80 15 dc bc 2d dd e9 3c e2 11 84 bd
       0.05259113 -0.02686572 0.028547848 -0.064487234
0002f0 51 0f ee 3b 95 fd 78 bc e3 ff 08 bd 61 14 13 3d
       0.0072650095 -0.015197177 -0.033447158 0.035908107
000300 76 e3 9c bd be b8 87 bd 40 88 65 3d 3c 52 e9 bd
       -0.07660572 -0.06627034 0.05603814 -0.11392638
000310 1a 3e a6 bd e1 86 8f bc a4 da 21 bd 95 1f 84 bd
       -0.08117314 -0.01752037 -0.039515153 -0.06451336
000320 c7 8b bd 3b ae fd d6 bd 12 b6 64 bd 64 51 12 3d
       0.005784485 -0.10497604 -0.0558377 0.03572215
000330 ab cf 9c bd 1f e8 97 bd fa d4 e1 3d 61 32 aa bd
       -0.07656797 -0.074173205 0.1102695 -0.0831039
000340 c6 4c 7c bd 1b da bf 3a 38 70 35 bd c5 e7 3d bc
       -0.061596654 0.0014637144 -0.044296473 -0.011590903
000350 1f ac 0d 3c 03 05 aa bd 55 e4 41 bd 4b e9 e6 3c
       0.008646994 -0.08301737 -0.047336895 0.028187415
000360 9c 89 2f be d8 73 5e be 84 83 04 3e 0a 2c cb bd
       -0.17142338 -0.21723878 0.12940794 -0.09920509
000370 ba 09 6e bc 6c 62 ea 3b 93 91 cf 3d 24 84 a5 bc
       -0.014528686 0.007152846 0.10135188 -0.020204611
000380 54 b5 22 3e e6 1e 32 bd 35 06 d9 bc 5c 87 1d 3d
       0.15889484 -0.0434865 -0.026492218 0.038459167
000390 2a 87 d6 bc 03 c0 e0 3b 73 d2 a5 3c c7 17 8c 3d
       -0.026187498 0.006858827 0.020241952 0.06840473
0003a0 cb 44 ca 3d b5 af f6 3c e8 a2 28 3c 77 11 ca bd
       0.098764025 0.03011308 0.010292746 -0.098666124
0003b0 c5 25 3f bd f0 53 98 3d ab c2 a0 3b cf 65 bc bc
       -0.04666688 0.07437885 0.0049060187 -0.022997765
0003c0 cd c2 ab 3d 52 b1 d2 3d 74 7f 05 3d 12 19 e4 bc
       0.08386765 0.102877274 0.032592252 -0.027843986
0003d0 13 73 6d 3b ef 09 6f 3c cf f3 a2 bd e2 7c 25 3d
       0.003623192 0.014589771 -0.07956659 0.0404023
0003e0 35 e3 01 3d 6e d1 87 3b 7f 87 10 3d 37 14 8c bc
       0.031710822 0.004144839 0.03528547 -0.017099483
0003f0 a1 03 05 be 97 2a f5 bd 21 e7 9f bd ce 0b de bd
       -0.12989666 -0.11971014 -0.07807756 -0.10842095

Generator.conv2.conv2.0.weight f4 [8, 8, 3, 3, 3]
000000 b1 cc c5 3d ef 9e 85 bd f4 19 95 b9 e4 a0 a6 3d
       0.096581824 -0.06524455 -0.0002843883 0.08136156
000010 98 af a5 3d f4 23 8a 3d 4f 62 7a 3d 7d b5 6f 3d
       0.080901325 0.06745139 0.06112891 0.05852269
000020 9a 71 01 3e a1 08 0c 3e f5 90 99 bc 1c 7a 5d 3d
       0.12640992 0.13675167 -0.018745879 0.05407153
000030 3e 4c c9 3c 11 e7 4e bb 8c f5 1f bd d9 47 a4 3d
       0.024572488 -0.0031570832 -0.03905253 0.08021516
000040 2c 3b 41 bd c7 ac 16 3d 8f d6 25 3d aa db 85 bd
       -0.04717557 0.036785867 0.040487822 -0.06536038
000050 71 3e 37 bd 0e cf 4f 3d f1 e5 cb bd 3a a9 b6 bd
       -0.044737283 0.050734572 -0.09955967 -0.08918996
000060 25 64 be bd 95 5f 2c bd 6e 07 41 bd ac f9 0b 3e
       -0.09296445 -0.04208334 -0.047126226 0.13669461
000070 00 85 d5 3d 1d 85 f4 3c bb 97 88 3d 3b ac cd 3d
       0.10425758 0.02984863 0.06669565 0.10042616
000080 69 5d 2b 3e d5 64 64 3d ad a9 42 3d 41 41 f4 3d
       0.16734852 0.055760223 0.047525097 0.11926509
000090 b9 f0 d3 3d 07 8a 0c 3d 19 63 6e 3c 9a 29 ca 3c
       0.103486486 0.03431132 0.014549994 0.02467804
0000a0 9e 00 dd 3d 53 5e 5c 3d 0e a2 4d 39 59 61 64 3b
       0.10791133 0.053800892 0.00019610694 0.0034848063
0000b0 de 7b fe 3d 5b 74 e9 3c 6b f8 63 3d 09 d4 4f bb
       0.124259695 0.028497865 0.05565683 -0.0031712076
0000c0 73 42 17 3d cc 4c 04 3d 12 28 33 3d 3e 95 0b bd
       0.036928605 0.0322998 0.043739386 -0.034077875
0000d0 b9 b1 8c 3d 00 67 29 3d 38 bf 81 3e cd 31 ce 3d
       0.068698354 0.041357994 0.253412 0.100680925
0000e0 73 35 7f 3d 46 b8 bd bc 71 27 ee bd 0f 69 ff bd
       0.062306833 -0.023159157 -0.116286166 -0.1247121
0000f0 5f 19 a2 3d 59 9e 80 bb c8 1b 94 bd 5c e0 ec bb
       0.079149954 -0.0039251265 -0.07231861 -0.007228894
000100 23 b0 00 be ab 04 ea 3b 64 01 00 be 24 6d 07 be
       -0.12567191 0.0071416697 -0.1250053 -0.13225228
000110 84 e4 53 be b6 3a 1d 3d 9c 79 6f bc 2c 2e 41 be
       -0.2069264 0.03838607 -0.014616396 -0.1886527
000120 05 c6 f4 bc 83 1b bb bd c6 fb 25 3e 40 ff db bd
       -0.02987958 -0.09136107 0.16209325 -0.107420444
000130 6e 9e 28 be a6 35 3d 3c 54 4d ab 3d 55 ff 0f 3d
       -0.16466686 0.011548435 0.083643585 0.035155613
000140 d2 a3 e5 bb c6 56 b7 3d 7e 34 ac 3d f6 53 1a 3e
       -0.0070080543 0.089520976 0.084084496 0.15071091
000150 2f f4 29 3d ec 69 20 3d ff fe d1 3c 46 54 1b 3e
       0.041492637 0.039163515 0.025634287 0.15168867
000160 9b 78 a1 3c c5 e6 15 3c ab 47 1e 3e 6e 5c 99 3c
       0.01971083 0.009149258 0.15457027 0.018720832
000170 2f 9e c7 3d 04 14 4c bd 33 02 04 be a1 58 b2 bd
       0.09746968 -0.049823776 -0.12891464 -0.08708311
000180 26 ca b4 bc 51 11 12 be 21 41 8e 3c da 5f 64 bc
       -0.022069048 -0.14264418 0.01736504 -0.013938868
000190 4b 32 67 bd 6d c9 9a 3d 39 b2 cc bd fa f3 9f bd
       -0.056444447 0.0755795 -0.09994931 -0.07810207
0001a0 ef c1 2d bd 22 3d c9 3d 83 43 91 bd 2a 4c c3 bc
       -0.042421278 0.09826113 -0.07092955 -0.023840029
0001b0 7a 7c a9 bd cf bf 74 bd 3f 1f ea bc 90 36 61 3d
       -0.08275695 -0.059753235 -0.028579352 0.054983675
0001c0 85 91 8e 3d 8c 34 2d 3c 8b 06 9c 3d b9 ab 2d 3d
       0.069613494 0.01057161 0.076184355 0.042400096
0001d0 5e 22 ac 3b ac 15 26 be 60 e4 fc bd 12 3a 35 3c
       0.0052531203 -0.16219205 -0.123482466 0.011061208
0001e0 38 cb 8f bd 4e 3f 8d bd 6a 01 9b 3c 1a 60 23 3c
       -0.07021183 -0.0689684 0.018921573 0.009971643
0001f0 5a 35 f9 bc fa 21 10 3d de a3 16 be 28 bb fb bd
       -0.030420948 0.035188653 -0.14710948 -0.122915566
000200 d1 9b 2b 3c db 75 1f 3e 33 58 6f 3d 13 78 29 bc
       0.010474161 0.15572302 0.058433723 -0.010343569
000210 e6 63 d2 3d a7 ed 47 bd 7d 6d 15 be 4b f4 38 3d
       0.1027296 -0.048810627 -0.14592548 0.04515485
000220 b9 62 77 be 0a 6c 80 be ab 0d 54 bd 1d 01 63 be
       -0.24158753 -0.25082427 -0.051770847 -0.22168393
000230 3f 65 a1 bc b6 bd 48 be 65 9b 81 be 87 0c f6 3d
       -0.019701598 -0.19603619 -0.2531387 0.12014108
000240 6a 18 06 3b 50 69 1c bc e3 b6 16 be ce 57 3d bc
       0.002046133 -0.009546593 -0.14718203 -0.011556579
000250 f8 ff c6 bd 73 e9 1a be 93 9a ba 3c 97 35 59 be
       -0.09716791 -0.15128116 0.022778785 -0.21211849
000260 15 88 1f be 59 e1 c7 3d 60 37 99 3c bb 32 46 bd
       -0.15579255 0.097597785 0.018703163 -0.048388224
000270 33 2b 8d 3d ca 21 c1 bc c9 cc 32 be 2a dd e4 3d
       0.06893005 -0.023575682 -0.17460932 0.11174996
000280 58 f4 15 be ad c9 ea bc 95 69 11 3e 60 0a 95 3d
       -0.14643991 -0.02866062 0.14200433 0.072773695
000290 27 60 6b 3e 1f 3a 08 bd 49 74 1f bd c8 20 d4 bd
       0.22985898 -0.033258554 -0.038929258 -0.10357815
0002a0 9b 45 4c 3d d4 c5 12 be 78 11 93 bd 22 ec a2 3d
       0.04987107 -0.14333278 -0.07181066 0.07955195
0002b0 a3 0f 31 3d 51 e5 4e 3e f8 94 ae 3d 4c fa 0c bd
       0.043227803 0.20204665 0.08524507 -0.03441839
0002c0 b6 15 92 bd 73 2a b8 bc 31 62 78 bd 75 4d ad bd
       -0.07133047 -0.022481179 -0.060640518 -0.084620394
0002d0 1c 4c b9 bc e7 51 01 3e 83 56 a6 3d 71 c3 b0 3b
       -0.0226193 0.126289 0.081219696 0.005394392
0002e0 14 24 78 bc 28 bd 25 be 86 61 19 3d be 08 c8 bd
       -0.01514532 -0.16185439 0.03744652 -0.097672924
0002f0 1e bc 21 be 7a b9 80 bd bc 3d 60 bd 74 43 af bd
       -0.15794417 -0.06285377 -0.054746374 -0.085577875
000300 cc a5 ad bd cc 31 95 bd 6f 97 ae bd 43 8e 36 bd
       -0.08478889 -0.072848886 -0.085249774 -0.044569265
000310 08 2d 9b bc 1c be db 3c 90 b7 8d bd b7 8b c6 3b
       -0.018942371 0.02682405 -0.069197774 0.006059136
000320 9b c8 5b bd a6 fc 10 bd 97 55 90 bd d4 a5 3b bd
       -0.05365811 -0.035397194 -0.07047575 -0.045812443
000330 52 4a e7 3c b8 b4 80 3c 6e be 3d bc 45 2b 31 3e
       0.02823368 0.015711173 -0.0115810465 0.17301662
000340 69 d8 21 3e 1c 6a 31 3e c8 97 55 3d b3 6d e0 3d
       0.1580521 0.17325634 0.052146703 0.109584235
000350 0b 36 8c bc 48 5b 12 3e 9b 4f 56 3c 5d b3 0c bd
       -0.017115613 0.14292634 0.013080503 -0.03435074
000360 84 0c 3e be f4 7f b8 bd 55 13 8c 3c 30 9b cc bd
       -0.18559462 -0.0900878 0.017099062 -0.09990537
000370 26 00 81 bd 4b 37 b3 bd 8c 47 3d be d3 26 9b bc
       -0.062988564 -0.08750781 -0.18484324 -0.018939411
000380 2e 16 7c bc 37 e2 35 3d 98 d0 3e 3d 33 87 04 3c
       -0.015386147 0.04440519 0.04658565 0.008088875
000390 28 52 80 3d f7 c5 43 3d cd 04 a7 3c 5c 95 1f bc
       0.0626567 0.047796216 0.020388031 -0.0097402
0003a0 3e 71 66 3c 7a 37 66 3d 95 85 48 3d bc e8 e3 3d
       0.014065085 0.05620525 0.04895552 0.11128375
0003b0 56 4a b2 3d 41 c2 28 3e 36 dd fd 3d e4 9c ad 3d
       0.08705585 0.16480352 0.12395708 0.0847719
0003c0 79 9b 14 3e 37 22 26 3d cf ce 30 3d ee 06 27 be
       0.14512433 0.040559974 0.043165978 -0.16311237
0003d0 c4 2a ed bd e6 74 32 3b 6a 0f e8 bd 3e d4 bb bd
       -0.115804225 0.0027230321 -0.11331065 -0.09171341
0003e0 72 9f c8 bc 93 a0 90 be 04 12 f2 bd 0a 0c db 3c
       -0.024490092 -0.28247508 -0.118198425 0.02673914
0003f0 fc 10 4e 3c ee 39 b0 3c 92 69 73 bd a1 5e a8 3c
       0.012577292 0.021511998 -0.05942685 0.020552935

Generator.conv3.conv1.0.weight f4 [8, 8, 3, 3, 3]
000000 ec be 59 3c 05 5e 9d 3d 89 7c 90 bc e4 5a 96 bc
       0.013290148 0.076839484 -0.017637508 -0.018353887
000010 5a 1f 5f 3c 65 b8 39 3d bb 36 89 3d c2 31 e6 bc
       0.013618315 0.045341868 0.06699892 -0.028099898
000020 ef 73 7b 3c 0a 47 c7 bc b1 81 fa 3c f7 97 71 bd
       0.015347465 -0.024325866 0.03057942 -0.058982816
000030 08 1e 8a 3c e7 93 8b bc 2b cc b1 bd 1c 5e 44 bd
       0.016860023 -0.017038299 -0.0868152 -0.047941312
000040 49 f3 0b 3d 83 bf 13 bd 4d f3 16 bd 9a 3c 88 3d
       0.03416756 -0.03607131 -0.036853123 0.06652184
000050 43 b0 8d bc 94 b1 5b 3d ec 90 5b bd 1a 5b 1f bc
       -0.017295962 0.05363615 -0.053605005 -0.00972631
000060 04 04 e6 bc d7 e2 e4 3c 14 87 73 bd cc 5a 73 bd
       -0.028078087 0.027940197 -0.059454992 -0.059412763
000070 18 3f d8 3c b9 43 00 3d 9c e2 51 3c 91 39 bd bc
       0.026397273 0.031314585 0.012810376 -0.023098739
000080 93 4b 7e bd ce 29 3f 3d b1 07 18 bc 21 e0 3a 3d
       -0.062083792 0.046670727 -0.0092791775 0.045623902
000090 0b f7 fe 3b 17 b6 80 3d 96 89 ef 3d b0 9b f3 bb
       0.0077809147 0.06284731 0.11696164 -0.007434331
0000a0 14 39 2b bd d0 d2 b3 bd 29 71 8d 3b 99 8e ae bd
       -0.04180248 -0.08780444 0.0043164683 -0.08523292
0000b0 59 c0 d3 3c 56 87 92 bc d3 04 c9 3d a2 7f 05 bd
       0.025848554 -0.017886799 0.09815373 -0.032592423
0000c0 1b e8 72 3d 9a b2 47 bd db b3 95 bd 11 9d ce bd
       0.059303384 -0.048754312 -0.07309695 -0.10088552
0000d0 e0 bd d1 bd 72 52 59 3d 0e a2 45 bd 05 aa c6 bc
       -0.10241294 0.05305714 -0.04825025 -0.024250994
0000e0 c8 34 02 bd f8 8a 52 bd 0e 1c cc bc 64 2b c7 3c
       -0.031788617 -0.051402062 -0.024915721 0.024312682
0000f0 95 9a a1 3b b5 bb 8c bc ed e5 8d 3c fd f7 3b 3d
       0.0049317577 -0.01717935 0.017321551 0.045890797
000100 66 52 06 3d e0 2c 6b 3d 1c 12 10 bd 11 35 c0 3d
       0.032793425 0.057415843 -0.03517352 0.093851216
000110 aa ce 61 3d cc 8d 14 bd a7 e0 bd ba ee 67 cd bc
       0.05512873 -0.03626804 -0.0014486507 -0.025073972
000120 82 d5 8a 3d bc 60 63 bd fc c9 a2 3c b9 27 31 3b
       0.06779005 -0.055512175 0.019871704 0.0027031733
000130 c9 86 94 3d 8d 2d 21 bd a3 bc 97 3d 70 87 79 bd
       0.07252271 -0.03935008 0.074090265 -0.06092018
000140 61 e9 7d bd b8 6c be 3c 96 eb 49 3a 9c 12 9b 3b
       -0.061990146 0.0232452 0.00077026465 0.004732443
000150 a2 05 da bc 32 e3 1f 3d be 16 73 bd 9c 7a 58 3d
       -0.026614014 0.03903503 -0.05934786 0.052851304
000160 b0 c8 58 bc 64 07 69 3d ec 8a 90 bc ea dc 26 3d
       -0.013231441 0.056891814 -0.017644368 0.040738024
000170 45 63 09 3d 6d 04 53 bd 78 69 8b 3d cc 9e 8f bd
       0.033541936 -0.051517893 0.06807226 -0.0701271
000180 51 54 a7 bd 31 35 b3 bc ee 5b 8e bb 6b 81 2e bd
       -0.08170379 -0.02187595 -0.004344455 -0.04260389
000190 33 33 6a 3d 32 ab 8f bc c2 3f 96 3d a8 5a 07 3e
       0.057177734 -0.017537687 0.073363796 0.13218176
0001a0 c4 50 08 3d b5 b6 73 bc 20 06 b4 bc 9e 2f a3 bd
       0.03328015 -0.014875104 -0.021975577 -0.07968067
0001b0 ee 3c a0 3d 7a 27 58 bd f0 fe 98 3b 8b 3d 81 3d
       0.078241214 -0.052772023 0.004669063 0.063105665
0001c0 bb cc 8b bd 69 19 5b 3d 12 c4 b1 3d b3 53 2f 3d
       -0.068261586 0.05349103 0.086799756 0.04280443
0001d0 4d 49 03 bd c5 3e 6a 3d ae d1 a3 3d f9 8c 80 3d
       -0.032052327 0.057188768 0.079989776 0.062768884
0001e0 6b d2 06 3c ea 8d 64 3d f9 c1 ca 3d 6f ce 28 3d
       0.0082288785 0.055799402 0.099002786 0.041212495
0001f0 1c 4e 93 3d 6d e9 43 bd 1b a9 66 bc 49 1c a6 bb
       0.071926326 -0.047830034 -0.014078404 -0.00506929
000200 5f 9f 8f 3c 4d ed 8b bd a9 51 39 bd dc 02 94 bc
       0.017532049 -0.06832371 -0.045243893 -0.01806777
000210 7c 89 21 3d 2f 9f 48 bd b0 d6 17 bd 1d ee 8c bd
       0.039437756 -0.048979934 -0.037069976 -0.06881354
000220 4a 78 f2 3c e6 b4 ce 3c ec 8c 81 bc de 2b 9a 3d
       0.029598374 0.025232743 -0.015814267 0.07527898
000230 28 a0 67 bd fe 4a 08 bd c0 3b 73 bc 4d 5e fb 3c
       -0.05654922 -0.033274643 -0.0148457885 0.030684615
000240 8b 0a 56 3c b9 d7 93 3d be c0 0d 3d f9 24 37 bd
       0.013064037 0.0721888 0.03460764 -0.044712994
000250 7e cd 3b 3d ab 4c ef ba 9f cd 5e bd 28 ca 82 bd
       0.04585027 -0.0018257102 -0.054395314 -0.063862145
000260 ee 4e 1a 3d f5 53 72 bd 8a 5b 76 3d 47 78 74 bd
       0.03767293 -0.0591621 0.060145892 -0.059685018
000270 78 12 1a 3d 47 96 bb 3d 14 a2 72 3d 10 ea 7f 3d
       0.03761527 0.091595225 0.0592366 0.06247908
000280 8c 6f ad bd f3 96 d3 bc 04 3b 62 bd b5 dc 4d 3d
       -0.084685415 -0.025828814 -0.055232063 0.05025931
000290 aa 85 b4 bb 9a 80 a1 bc e9 af 24 bd 05 d8 08 bd
       -0.005509098 -0.019714642 -0.040206823 -0.033409137
0002a0 8a f6 d2 3d d6 18 88 3b d7 9e f6 3c bc 46 4c 3d
       0.1030093 0.0041533513 0.030105038 0.049872145
0002b0 78 6d 55 bc cf 8b 95 3d 0e ab 98 3d e5 76 2e bd
       -0.013026588 0.07302057 0.07454501 -0.042593855
0002c0 ca 5f 34 3d db 50 dc 3c 16 57 8a 3c 15 75 9a 3c
       0.044036664 0.026894024 0.016887229 0.018854657
0002d0 0a df cc 3c 0b da a0 bb 03 85 f3 bd 8c b4 2e 3d
       0.025008697 -0.0049088052 -0.11890604 0.04265265
0002e0 c8 af e0 3d 6f ca 71 bc a5 68 c2 bd 9a 6c d1 3d
       0.109710276 -0.014757737 -0.094926156 0.10225792
0002f0 15 d8 29 3c a8 d1 0e ba 4c ae 04 bc ee 22 ef 3b
       0.010366459 -0.00054481113 -0.008098196 0.007297865
000300 f1 a4 47 3c 87 82 1b 3d fd 51 b1 bc bc a2 9f bd
       0.012185321 0.037966277 -0.02164554 -0.07794711
000310 6e f5 1a bc 61 6c 9d 3a 9f aa 72 bc c8 20 13 b9
       -0.009457929 0.0012010449 -0.014811187 -0.00014031224
000320 57 f3 57 3b 3b 40 e5 3c 54 e3 12 3e da 1a 44 3d
       0.0032951438 0.027984729 0.14344531 0.04787717
000330 a1 9d 2e bc 30 20 1b bd 38 a1 80 3d f1 49 63 bd
       -0.010657699 -0.037872493 0.0628075 -0.055490438
000340 de 9e be bd 6f 37 1a bc 24 05 60 3d 47 ac ea 3d
       -0.09307645 -0.00941263 0.054692402 0.114586405
000350 7d 2a ab bd d1 cc 11 bd 85 3d 42 bd 2b 6e 54 bd
       -0.08357713 -0.03559572 -0.04742195 -0.051862877
000360 11 eb 3c 3c ef 5a 26 bd 87 bd bd 38 3d a6 31 3d
       0.011530654 -0.040614065 9.0475245e-05 0.043371428
000370 7f 06 56 3c 3f 6f 3f 3d 97 f3 51 3b 0c 85 6d 3d
       0.013063072 0.046736952 0.003203606 0.05798821
000380 96 16 22 3d f0 f4 f5 3d 5e f0 84 bd 8d 5c 3c 3c
       0.03957232 0.12009609 -0.06491159 0.011496675
000390 16 60 a5 3d b1 69 2f 3d a4 f4 b6 bd 57 35 0f bd
       0.080749676 0.042825405 -0.0893338 -0.03496298
0003a0 2f 09 29 3d 30 6e 31 be b6 53 c7 3c 50 e7 de bb
       0.041268524 -0.1732719 0.024331909 -0.006802477
0003b0 84 2f db 3c 72 62 66 3d db 5c 9c bb 34 b6 31 bd
       0.026756056 0.05624623 -0.0047718114 -0.043386653
0003c0 e9 fb 65 bd 66 5a 6c bd a4 6d 56 3c 18 42 03 3c
       -0.056148443 -0.0577034 0.013087664 0.008011363
0003d0 17 05 e8 bd b7 cf 20 be ed 87 d1 3c b9 32 8e 3d
       -0.11329096 -0.15704237 0.02557751 0.06943268
0003e0 c7 82 0c be 7a 19 a4 3d 25 98 71 3d c1 bb 5e ba
       -0.13721763 0.08012672 0.058982987 -0.00084966054
0003f0 fb 7d 8b 3d 99 12 1f 3c d4 ad cf bc ad 24 c4 3d
       0.06811138 0.009709024 -0.025351442 0.09577308

Generator.conv3.conv2.0.weight f4 [8, 8, 3, 3, 3]
000000 f3 41 51 3d bc 49 61 3c 47 cf 8d bc 14 14 d4 bc
       0.051088285 0.01375049 -0.017310752 -0.02588848
000010 e2 94 8a 3d f3 09 25 bd 01 25 90 bd 33 c3 a0 bc
       0.067666784 -0.04029269 -0.07038308 -0.019624328
000020 d3 74 be bd 84 90 29 3d 9a ee f8 bc c3 b2 5f 3d
       -0.09299626 0.041397586 -0.030387212 0.05461384
000030 b3 e3 f6 3a 37 39 6d 3d d6 ac b4 bc c9 e7 60 bc
       0.001883617 0.057915892 -0.02205507 -0.013727137
000040 d7 bf 44 3c 85 ef 9e bd ef d7 75 3c cb f0 de 3b
       0.012008629 -0.077605285 0.015005096 0.006803607
000050 e5 98 3e 3c d5 b7 76 3d 9c c8 dc 3d 2b bb 12 3e
       0.011633133 0.06023391 0.10780451 0.14329211
000060 f2 9e 4a 3d 46 61 ba 3d dc fa 44 3d ed 5f e8 3d
       0.04946799 0.09100585 0.0480908 0.113464214
000070 a9 fa 0d be 70 bc 4f be e4 9a 0a 3e 20 cd ca bd
       -0.1386515 -0.20286727 0.13535649 -0.09902406
000080 9f b3 ba bd cf f3 4d 3d da f3 ab 3d 71 26 67 bc
       -0.09116291 0.050281342 0.0839612 -0.014108286
000090 3d ae a0 3d 87 92 db bd 9d 0d 11 be 6d 5a c7 bd
       0.07845733 -0.10721307 -0.1416535 -0.09734044
0000a0 98 04 c3 bd 54 21 67 bd 50 06 fb bd 98 4c 19 be
       -0.095223606 -0.05642827 -0.122570634 -0.14970624
0000b0 00 6f 45 be ca 5a c6 3d 04 50 f7 bb b4 ef 14 be
       -0.19280624 0.096852854 -0.0075473804 -0.14544564
0000c0 86 e4 a4 bc 58 6c cc bc 23 9c 1b be 62 1f 85 bd
       -0.0201285 -0.024954006 -0.1519628 -0.065001264
0000d0 85 c8 70 bd dd b2 12 be e9 b3 3a 3d 09 41 dd 3c
       -0.05878498 -0.14326043 0.045581732 0.02700855
0000e0 fa 81 9f be 4f cc 97 3d 1f 7e 3f bd 2c 6b d7 39
       -0.31153852 0.07412016 -0.046751138 0.00041087845
0000f0 5f 9d ee 3d 9c c2 3b 3e 4e 8d 20 3d 31 82 e5 3d
       0.1165111 0.18335956 0.03919726 0.11206473
000100 5e 35 38 bd 13 c2 99 bc ff 92 b0 3d 77 fb 8a 3c
       -0.04497277 -0.0187693 0.08621787 0.01696561
000110 3b 0e 5e bd aa b5 ec 3c f8 33 96 3e 06 30 fd bc
       -0.05421279 0.028895218 0.29336524 -0.030906688
000120 c5 85 15 3e 50 0c 12 3e 47 41 fe 3d bd b0 03 3e
       0.1460181 0.1426251 0.124147944 0.12860389
000130 cc 78 2a 3e 23 8e f4 3d 9b 03 e3 bd 5b 23 e8 3d
       0.16647643 0.11941173 -0.11084672 0.113348685
000140 4a 99 f9 3d 06 76 5c bd 02 b2 d1 3d d7 6e 68 bb
       0.12187441 -0.053823493 0.102390304 -0.0035466456
000150 24 57 92 bd 26 f0 52 bd 4f f1 56 3d 35 19 6f 3d
       -0.07145527 -0.051498555 0.052476224 0.05837365
000160 81 84 bc bb 88 97 20 bd d1 d0 06 be 37 75 8b 3c
       -0.0057531004 -0.03920701 -0.13165595 0.017023666
000170 7b c2 c6 3b 01 24 1d be b0 ad 7e be 25 fd 2d 3d
       0.0060656643 -0.15345766 -0.24870944 0.042477746
000180 0c a1 f9 ba b1 a1 2d be 4f 8d 93 bd 82 c1 3a be
       -0.0019045188 -0.16956212 -0.07204687 -0.1823788
000190 c7 d4 d8 bd 2a 1a e1 bc 73 8a ac bc b4 94 8a be
       -0.10587459 -0.027478296 -0.021062111 -0.27066576
0001a0 66 6f f9 bc 49 dd ce 3d b5 10 32 bd e3 01 05 bd
       -0.030448627 0.101008005 -0.043472964 -0.032472502
0001b0 d3 85 cf be 90 e9 44 be 6a ca d4 bc f0 a4 0c be
       -0.40531787 -0.19229722 -0.025975425 -0.13734794
0001c0 fb c3 ae bd fe 27 3e bd e2 25 9e bd 4e 23 07 be
       -0.08533474 -0.04642486 -0.07722069 -0.13197061
0001d0 79 55 56 bd 1f 03 8e bc 77 72 4e 3c 26 5e 3d 3d
       -0.052327607 -0.017335473 0.012600533 0.046232365
0001e0 91 5b 0c 3d f2 27 06 3d 55 de 06 bd 64 24 75 bd
       0.034267012 0.03275294 -0.032926876 -0.059849158
0001f0 5c 82 d2 3b dd ed ce bc fd e2 ed be fc 08 8e be
       0.0064242315 -0.025259906 -0.4646224 -0.2774123
000200 30 7a c9 bc b4 7f a4 be 00 4f 95 be 99 91 cd bd
       -0.024594396 -0.3212868 -0.29161835 -0.10037536
000210 58 61 a3 3d 7d d8 06 3c b7 11 a0 3d 26 f1 c2 3c
       0.07977551 0.008230326 0.07815879 0.02379663
000220 46 4e fd 39 a9 7c 92 be f9 e5 18 be 9e e9 43 bd
       0.0004831424 -0.28610733 -0.14931478 -0.047830217
000230 2b 58 50 3c 83 9c 86 3e 4f d0 13 bd 6f 6b c8 3d
       0.012716333 0.26291284 -0.03608733 0.09786116
000240 5d 47 02 be 7f 79 a9 bd 52 0f 7d bd f1 9d 4f bd
       -0.12722535 -0.08275127 -0.06178219 -0.050687734
000250 b4 3b 0b 3c 9b 1d a3 3d 58 50 34 3e af a8 26 bd
       0.008498121 0.07964631 0.17608774 -0.040688213
000260 34 78 16 3e 6a 94 fb 3c c3 2c 0b 3e 56 cc 92 bd
       0.14694291 0.030710418 0.13591294 -0.0716788
000270 2f 3b d4 3d d8 18 05 3d 29 c6 7d 3d 93 d2 a0 3e
       0.10362851 0.032494396 0.06195656 0.31410655
000280 a1 26 00 3d 49 8e cb bc 65 5b 26 3e 9f b8 06 3e
       0.03128684 -0.02484812 0.16245802 0.13156365
000290 cc 51 18 3e f0 58 c6 bc ac d2 7c bd 2d 8b a0 3d
       0.14874953 -0.02421233 -0.06172435 0.07839046
0002a0 d3 78 2f be 76 74 3d be cd 2e 26 3e 1a c8 c2 3c
       -0.17135935 -0.18501458 0.1622879 0.023777056
0002b0 42 32 3e 3d 08 e8 e9 3d 96 e2 fb bd a8 18 06 be
       0.04643465 0.114212096 -0.12299077 -0.13095343
0002c0 75 6e c8 3d a7 4d 14 be 3b 18 a1 bb ec 63 f0 3d
       0.09786693 -0.14482747 -0.0049162186 0.117378086
0002d0 d3 df 50 be 92 6c 7c bd 5e 16 14 3e 75 f0 27 be
       -0.20397882 -0.06162698 0.14461657 -0.16400321
0002e0 4b e8 cc bd bb 95 6b 3e e1 91 19 bd 6c 4a f6 3d
       -0.10005244 0.23006336 -0.037492637 0.120259136
0002f0 c3 63 01 3e 96 69 37 bb b1 f9 06 bd 5f a7 ca 3d
       0.12635712 -0.0027986518 -0.032952968 0.09895205
000300 bf 4e 2c bd e7 28 ef bc d2 cd c0 3d 83 d2 a8 bd
       -0.042067286 -0.029194308 0.09414257 -0.08243277
000310 cb e5 2f 3c a8 38 42 3e 98 e6 33 3e 3e 80 69 3d
       0.010735939 0.18966925 0.17568433 0.057007067
000320 ad ea ba 3d a3 b4 3d 3d 2e 7e 00 3d fc 19 55 3c
       0.09126792 0.046314847 0.031370334 0.013006683
000330 f8 87 98 bd 1b 6e b5 3d b8 cf 3a bc 71 65 2d 3e
       -0.07447809 0.088588916 -0.011402063 0.16933228
000340 c9 60 5d 3c 77 26 75 bc bd ff 26 3e ba eb 85 3d
       0.013511845 -0.014962784 0.16308494 0.06539102
000350 a7 5e 27 3d fb 6d e7 3d e7 38 27 3e c4 b9 19 bd
       0.040861752 0.11300274 0.163303 -0.037530676
000360 51 ea 3c bb ef e7 89 bc ca e3 39 bd da ca 44 3c
       -0.0028826187 -0.016834227 -0.045383252 0.012011254
000370 89 96 ae bd 5b 6a c0 bd e5 58 32 3d 51 44 97 bc
       -0.08524806 -0.09395286 0.043541808 -0.018465193
000380 9a d4 43 3d 57 71 1b bc 37 9a 5a bd 5d 7b 42 bd
       0.047810175 -0.009487472 -0.053369727 -0.04748093
000390 c4 34 30 bc b9 64 31 3d 84 96 54 bd fc c3 60 3d
       -0.010754768 0.043308947 -0.051901355 0.054874405
0003a0 f3 f4 ed bb 31 74 0e 3d 72 63 bf bb 72 24 d2 3d
       -0.0072618662 0.034778778 -0.005840712 0.10260858
0003b0 be 81 e2 3d da f4 4b 3d e6 85 38 3d a9 6a 3c 3d
       0.110599026 0.049794056 0.04504957 0.046000157
0003c0 67 d8 b7 3d e9 30 07 bd ea ad a7 3b d2 cf 2c ba
       0.08976822 -0.03300563 0.0051171677 -0.0006592247
0003d0 3c db 84 3b 7a b4 0c be e3 24 ae 3d b2 ff ca 3d
       0.004054455 -0.13740721 0.08503129 0.09912051
0003e0 50 7f 36 3d eb 73 15 3e 0e dc 88 3c 6c f2 df 3d
       0.04455501 0.14595 0.016706493 0.1093491
0003f0 1e 67 12 3d b8 ee f7 3d ae d0 7e bd 30 0f cb 3d
       0.03574287 0.12106079 -0.06221073 0.09915006

Generator.conv4.conv1.0.weight f4 [8, 8, 3, 3, 3]
000000 82 aa 00 bd 8e c7 a3 3c 25 5b cb bc f0 5c 60 bb
       -0.03141261 0.019992616 -0.024823735 -0.0034235083
000010 87 d1 54 3d 36 95 31 bb 7f d2 52 3b fc 87 36 3d
       0.051957633 -0.0027096993 0.0032168922 0.04456328
000020 1e c5 fa bb c3 6c 40 bd 5e 43 8c bc de cd 9a bd
       -0.0076528927 -0.046978723 -0.017121967 -0.07558797
000030 cd 10 a0 bd 5c c4 08 bd e7 41 64 bd a6 9c be 3d
       -0.078157045 -0.033390388 -0.055726912 0.09307222
000040 32 1d f5 3c e5 a4 60 3d 59 77 23 3d b2 34 c8 3c
       0.029921148 0.054844756 0.03990874 0.02443919
000050 61 fd 94 3d d9 90 08 3d da b6 02 be 03 4f 77 3c
       0.07274891 0.033341262 -0.12765065 0.015094521
000060 e7 bb 81 bd b9 ba 3c bd e1 cc 9e 3c 4a ae 09 bd
       -0.06334668 -0.04607651 0.019384803 -0.03361348
000070 96 da 42 3d 00 a7 b0 3d f7 9b 97 ba 56 30 84 3d
       0.04757174 0.08625603 -0.0011566867 0.06454532
000080 85 56 77 3d 42 51 b8 bd fc 64 93 3d 97 68 ec bc
       0.060385246 -0.08999874 0.071969956 -0.028858466
000090 20 a8 4c bc ee 57 ea bc 2c 00 54 bd 0b ea ba 38
       -0.012491256 -0.028606381 -0.051757976 8.912765e-05
0000a0 29 aa 01 bd 96 15 7e bd f5 f3 1b 3c 53 76 40 3d
       -0.031656418 -0.062032305 0.009518613 0.046987843
0000b0 58 c9 27 3d af dd 84 3d 36 42 4b bd 9e 70 83 bd
       0.0409635 0.06487595 -0.04962369 -0.064179644
0000c0 ac 94 52 3d f7 0d 18 bd f1 55 49 3c ba de a1 3d
       0.051411316 -0.037122693 0.012288556 0.0790381
0000d0 bf d8 4e 3d 29 70 d0 3c 3f 03 07 be b2 9e f8 bd
       0.050499674 0.025444107 -0.13184832 -0.12139644
0000e0 df 87 d3 bd 06 68 23 bd b4 fe 44 3d a1 9d 5d bd
       -0.1032865 -0.039894126 0.048094466 -0.054105405
0000f0 cb 1e 3c 3d 6b 0f 49 3d 56 62 9b 3c 3d 6e b4 bc
       0.045927804 0.04908697 0.018967789 -0.022025222
000100 d9 b9 29 be 22 57 8d bd 51 03 52 3c 11 08 91 bd
       -0.16574802 -0.06901385 0.0128181735 -0.07081617
000110 83 40 9f bd d1 3a 01 3c 9c 52 8f 3d ab 11 50 3c
       -0.077759765 0.007887558 0.06998178 0.012699525
000120 f6 88 a8 3d 16 dd 0a bc da e0 51 bc 74 34 45 bc
       0.08229248 -0.008475563 -0.012809956 -0.012036432
000130 9a 01 fc bd 34 df e8 3c fd 0c ef bc 81 4b 62 bd
       -0.12304993 0.028426744 -0.029180998 -0.055247787
000140 3e 70 cb 3a 33 a4 c1 3c 44 ee c1 bb cd a5 36 bd
       0.0015521122 0.023637867 -0.005918296 -0.044591714
000150 ce f6 87 b8 c8 da 03 bd b7 c8 b0 bd 44 ab 2a 3d
       -6.4832726e-05 -0.032191068 -0.08632033 0.041667238
000160 ef 5e cc 3c d8 ed 88 3d da 0b b7 3c 80 cf 40 bd
       0.024947612 0.0668599 0.022344518 -0.047072887
000170 6b 21 c2 bc a5 a1 0b bb 55 62 93 bd af f4 10 bd
       -0.023697576 -0.0021306064 -0.0719649 -0.0353896
000180 4a 96 e1 3d aa fa db 3d 37 d2 41 3d b5 bf 7b bc
       0.110149935 0.1074117 0.047319617 -0.015365531
000190 25 22 9e bd 66 a6 82 bd 31 8c 83 bc 56 6f fa 3b
       -0.07721356 -0.06379394 -0.01605806 0.007642667
0001a0 f1 20 02 be ea 0e c0 3d 40 1e bd 3c ed d6 7e 3c
       -0.12707879 0.09377845 0.023085713 0.015554172
0001b0 ec fa e2 bd a6 7e a4 bd 61 c2 b5 3c 90 be 91 bc
       -0.11083016 -0.08031969 0.022187414 -0.017791063
0001c0 0c 66 6f 3d d8 e9 0e 3d 3b b6 bd 3c 37 2a 85 3d
       0.05844693 0.03489098 0.023158183 0.065021925
0001d0 95 f4 6a 3c 06 61 9a bb d7 e1 11 bc 67 7c 67 3c
       0.014340539 -0.004711273 -0.008903942 0.014128781
0001e0 9c c8 c7 bc 87 d0 c9 39 78 ab 3f 3d 8f f3 f4 3c
       -0.02438765 0.00038493072 0.046794385 0.029901294
0001f0 26 27 e4 3b 05 31 9c 3b e1 ed a2 3d 22 19 07 bd
       0.0069626747 0.004766586 0.07955528 -0.032982953
000200 94 c5 8c 3d 38 2d e3 3c d4 f9 23 3c 8f 7f cc bc
       0.068736225 0.027731523 0.010008294 -0.024963168
000210 c2 4c fd bb 40 6a 4d 3d 48 f5 e0 3c 3c 09 cc bc
       -0.0077300975 0.050150156 0.02746071 -0.024906747
000220 5b a7 f3 3c fa 32 c8 bd 68 28 c6 3c 20 c3 05 3e
       0.029742887 -0.09775348 0.02418919 0.13062716
000230 c5 0e d7 3c 3c d2 8c 3d 86 6a 52 3d 49 5e 25 bd
       0.02625216 0.068760365 0.05137112 -0.04037312
000240 67 f3 3d bc 37 ce 29 3c a3 e0 1a bd dd 57 16 bd
       -0.011593676 0.010364107 -0.037811887 -0.036704887
000250 46 bc 94 bd 5d fa a2 3a 64 10 88 3c 8e d9 30 3c
       -0.07262473 0.0012434233 0.016609378 0.010794057
000260 ae 0b 77 bc d3 55 55 3d f6 a9 45 bc a5 04 c8 bc
       -0.015078468 0.0520838 -0.012064448 -0.024416277
000270 15 27 97 3c 17 f8 4c bd 93 b5 73 bd c6 02 6b 3c
       0.018451253 -0.050041284 -0.059499335 0.014343923
000280 4f a6 7a bd 32 08 da bc f2 52 05 be 28 b1 5b bc
       -0.06119376 -0.026615236 -0.13019922 -0.013408937
000290 1c c6 00 be bd fa bf 3b 76 08 bc 3d 48 20 a9 3d
       -0.12575573 0.0058587478 0.09181301 0.0825811
0002a0 34 db 1c 3b 76 36 ad 3c 33 72 4c 3b a3 bc dd bd
       0.0023934366 0.021144133 0.0031195998 -0.10826995
0002b0 29 4e 1f bd 22 56 85 3c 04 5b 07 bd dc 65 0f be
       -0.0388929 0.016276423 -0.033045784 -0.140037
0002c0 d2 41 1b bc a1 d4 97 3d d4 e2 a4 3d be 4a 27 bc
       -0.009476142 0.074136026 0.080510765 -0.010210691
0002d0 6b 18 c1 3d d3 f7 01 3e d0 57 fb 3c 4a 23 70 bd
       0.094284855 0.12692194 0.03068152 -0.058627404
0002e0 0a 17 11 bd 0e 69 7b 3c f7 40 89 bd 2e 59 88 bc
       -0.035422362 0.015344871 -0.06701844 -0.016644087
0002f0 74 40 8f bc f4 da 37 bd 70 5a 76 bd c0 ae d0 bd
       -0.017486788 -0.044886544 -0.06014484 -0.10189581
000300 c0 49 ca bb 0f c8 58 3c d3 fa 28 bd 1f cc a7 3c
       -0.0061733425 0.013231291 -0.04125483 0.020483075
000310 e2 30 2e bc 46 5a f7 3c b1 99 9d 3c dd 5e ec bd
       -0.010631772 0.030194413 0.019238325 -0.11541531
000320 07 0e d7 3c a0 df bd 3c 81 fd 60 bd 19 24 db bc
       0.026251806 0.023177922 -0.05492926 -0.026750611
000330 18 09 b2 3d 4a db 9c 3d bb 4c 0e bd 5d 12 4d 3d
       0.08693141 0.076590136 -0.034741145 0.05006634
000340 33 bb a2 3b e3 41 97 bd fe 2b f7 3b 57 11 a1 bd
       0.0049661635 -0.07385614 0.007543086 -0.078646354
000350 c7 b6 e0 bd 16 e1 3d 3c a5 bb 21 bc 09 4c fc 3c
       -0.10972362 0.011589309 -0.009871398 0.030797975
000360 47 51 75 bc 5b d9 a9 3d ad 64 5d 3d 13 09 e0 3c
       -0.014972991 0.082934104 0.05405109 0.027348077
000370 d0 1f f7 3d 27 a7 48 3d ad 6c 39 bd b1 bd b9 3c
       0.12066615 0.048987534 -0.045269657 0.02267346
000380 b7 04 6d 3d f7 a3 3e 3d a8 6f 5e 3d f0 c0 06 3c
       0.057865825 0.046543088 0.054305702 0.008224711
000390 94 af 49 bd be b7 0e 3d 18 c9 5e 3d ca 15 90 3a
       -0.04923971 0.0348432 0.054390997 0.0010992822
0003a0 74 a2 0b 3c bf f9 10 3d 98 38 04 3c 3c d7 96 bd
       0.008522619 0.035394426 0.008070134 -0.073652714
0003b0 bc 1a 41 bd 95 e4 42 3d 1b b0 ea bd d5 5e f2 bd
       -0.047144637 0.047581274 -0.11459371 -0.11834494
0003c0 bd 8c 82 3d 03 cb 80 3c eb 61 67 bd d5 ff 34 bd
       0.063745 0.015721804 -0.056489866 -0.044189293
0003d0 2e 8b a7 3d f4 49 b1 3d 52 80 96 bd c8 28 f5 3d
       0.08180843 0.086566836 -0.07348694 0.11970669
0003e0 9d 2f cb 3d 0c b7 04 3b 51 7a dc bd d1 3c 30 bd
       0.09921191 0.0020250706 -0.107655175 -0.04302675
0003f0 4f 82 94 bb 45 ea 1a 3d bf 50 4c 3c 21 00 4e bc
       -0.0045321356 0.037821073 0.012470423 -0.012573273
