DeepWonder3D_pytorch/pth/SEG_pth/Unet4_no_end_UNet3DFFD_20240401-1432_2um/seg_241.pth (torch, 138281 bytes, 19 tensors)

Generator.conv1.conv1.0.weight f4 [8, 1, 3, 3, 3]
0.116075985 0.09996158 -0.05601202 0.14231075 -0.12045497 -0.1242194 0.00018761294 -0.00086022523
0.096486464 0.04346335 -0.15599819 0.09009586 0.13037142 0.10918986 0.034969646 -0.1870939
0.089309 -0.20527734 -0.10660222 -0.1100309 -0.05684978 0.032599915 -0.050322678 0.058950383
-0.21455799 0.03708583 0.16864571 0.1588663 0.15845355 0.017150814 0.084541135 -0.1334512
-0.1829135 0.13269489 0.018559061 -0.08414753 -0.11295958 0.15961011 -0.042307414 -0.13010125
-0.076647274 0.00828259 -0.19882293 -0.2144104 -0.019686244 0.12316888 0.036962595 0.20893645
0.17310959 -0.08562359 0.16158718 0.0895304 -0.12818176 -0.07840736 0.06400644 -0.04125211
-0.12028717 0.027141146 0.099831544 -0.0069135237 -0.16174853 -0.113553874 -0.058420714 0.034153987
0.093795046 0.014930735 -0.04543822 0.038169898 0.07139386 0.060305916 0.008236397 0.014581208
-0.15637374 0.045754936 0.04853974 0.0007637169 -0.064421475 0.09588761 -0.4177749 0.016548982
-0.24715747 -0.09127493 -0.14994067 0.15565574 -0.19811767 -0.073571816 -0.022464383 0.080392756
-0.11468314 0.054788716 -0.2071912 -0.05999783 0.025787763 0.101854354 -0.19863263 -0.16413863
-0.036675084 0.124825686 0.08693748 -0.054909125 0.06227139 0.09004514 -0.064529486 0.05808291
0.07817383 0.015424824 -0.16351597 -0.22251178 0.17601545 -0.16050105 -0.03731672 -0.12872495
-0.03627366 0.0150068 -0.036714382 0.061047688 0.04754343 -0.0015978412 0.08554801 -0.18624002
-0.05256458 -0.04254461 3.7063583e-05 0.11479172 0.017954713 0.1281329 -0.1814603 0.06314871
0.10237513 0.101432785 0.0329428 -0.106192894 -0.14978994 -0.08320933 0.105585255 0.032240987
-0.11219665 0.116567045 0.10694313 -0.071347885 -0.12969552 -0.18626796 0.1818233 0.021516899
-0.08973933 -0.19180205 0.057295065 0.09244819 -0.17137812 -0.21286243 -0.07640807 0.07633089
0.15165675 -0.034090213 -0.03945574 0.11791278 0.022784423 0.16885544 -0.08183743 0.0012718011
-0.038608063 0.2020702 -0.21938384 0.1607195 -0.080368325 0.08481933 0.0050002616 -0.045332555
0.029458515 -0.020508515 0.060822167 0.055977076 -0.068338215 0.22653443 -0.20594752 -0.080790035
0.027970346 -0.058694497 0.119414575 0.04702382 -0.07542909 -0.053300515 0.103858 -0.14565304
0.053282406 0.10555735 -0.1295863 -0.003934666 0.16123708 -0.051878054 0.12868924 0.012192119
0.039705794 0.10769548 -0.21297044 -0.071108595 0.004349099 0.12077898 -0.035350263 -0.07421976
-0.051660817 -0.20427231 0.14201616 -0.09435915 -0.08748516 0.17397995 0.025228463 -0.07832868
-0.028465241 -0.013733698 -0.22338729 0.09970571 -0.1066854 -0.19506675 -0.07894061 0.10499199
00000000: 3fb9 ed3d a8b8 cc3d dc6c 65bd e9b9 113e
00000010: 18b1 f6bd be66 febd f7b9 4439 bd80 61ba
00000020: b29a c53d a006 323d fdbd 1fbe 2e84 b83d
00000030: 1680 053e ef9e df3d 553c 0f3d 8b95 3fbe
00000040: a3e7 b63d 3934 52be 4452 dabd e157 e1bd
00000050: 51db 68bd 7d87 053d 271f 4ebd f575 713d
00000060: 17b5 5bbe 50e7 173d 76b1 2c3e d9ad 223e
00000070: a641 223e dd7f 8c3c e723 ad3d 6ea7 08be
00000080: ad4d 3bbe 2be1 073e 2c09 983c 8a55 acbd
00000090: 5a57 e7bd d570 233e 8a4a 2dbd 4339 05be
000000a0: 3ff9 9cbd b3b3 073c 3d98 4bbe 668e 5bbe
000000b0: 0c45 a1bc f73f fc3d 1766 173d 70f3 553e
000000c0: a443 313e 6c5b afbd 1c77 253e b75b b73d
000000d0: 1442 03be 0a94 a0bd cf15 833d f9f7 28bd
000000e0: 1f59 f6bd 1c57 de3c 7b74 cc3d d78a e2bb
000000f0: 68a1 25be ef8e e8bd 8f4a 6fbd 0de5 0b3d
00000100: 9e17 c03d 0ba0 743c 6d1d 3abd 0a58 1c3d
00000110: f236 923d 5603 773d f4f1 063c 05e6 6e3c
00000120: 7020 20be 8769 3b3d 9bd1 463d 2c34 483a
00000130: 68ef 83bd b960 c43d 97e6 d5be bb91 873c
00000140: d916 7dbe 5aee babd 0c8a 19be 3864 1f3e
00000150: 5cdf 4abe d2ac 96bd 3a07 b8bc f5a4 a43d
00000160: fede eabd 226a 603d ee29 54be 49c0 75bd
00000170: dc40 d33c 0499 d03d 5a66 4bbe f513 28be
00000180: 9d38 16bd 9ca4 ff3d 470c b23d 64e8 60bd
00000190: 4910 7f3d 9669 b83d 0928 84bd 58e8 6d3d
000001a0: 9a19 a03d 67b8 7c3c bb70 27be 21da 63be
000001b0: 653d 343e 635a 24be 6bd9 18bd 79d0 03be
000001c0: b093 14bd 15df 753c d261 16bd 240d 7a3d
000001d0: e6bc 423d a76e d1ba cc33 af3d b4b5 3ebe
000001e0: f54d 57bd 4243 2ebd b874 1b38 ec17 eb3d
000001f0: c315 933c 4535 033e bbd0 39be 1c54 813d
00000200: 0daa d13d febb cf3d 08ef 063d a97b d9bd
00000210: 8962 19be a769 aabd 153d d83d 200f 043d
00000220: 5bc7 e5bd b4ba ee3d 0005 db3d d71e 92bd
00000230: e7ce 04be 07bd 3ebe e32f 3a3e 3544 b03c
00000240: 41c9 b7bd c267 44be 3bae 6a3d 7a55 bd3d
00000250: bf7d 2fbe 9cf8 59be d67b 9cbd 5f53 9c3d
00000260: e84b 1b3e 2ea2 0bbd 589c 21bd 417c f13d
00000270: 66a6 ba3c 71e8 2c3e 629a a7bd 90b2 a63a
00000280: 7d23 1ebd 7eeb 4e3e 28a6 60be a793 243e
00000290: 2698 a4bd c2b5 ad3d 3cd9 a33b a1ae 39bd
000002a0: fc52 f13c 7901 a8bc aa20 793d 3848 653d
000002b0: e8f4 8bbd a4f8 673e e8e3 52be 3f75 a5bd
000002c0: 1122 e53c a469 70bd a18f f43d 0d9c 403d
000002d0: 917a 9abd a451 5abd 81b3 d43d 1226 15be
000002e0: a73e 5a3d 742e d83d 45b2 04be 5fee 80bb
000002f0: 551b 253e 157e 54bd 1dc7 033e 74c1 473c
00000300: 8ba2 223d 738f dc3d ec14 5abe 62a1 91bd
00000310: e382 8e3b f85a f73d 70cb 10bd 8800 98bd
00000320: 4b9a 53bd c32c 51be af6c 113e 5f3f c1bd
00000330: 6b2b b3bd cd27 323e ecab ce3c c96a a0bd
00000340: f02f e9bc 4e03 61bc a3bf 64be 8232 cc3d
00000350: e07d dabd 94bf 47be 9dab a1bd 0a06 d73d

Generator.conv1.conv2.0.weight f4 [8, 8, 3, 3, 3]
0.15447995 0.060239144 0.061202098 0.0006948379 -0.04525101 0.028196486 0.17902412 0.14520445
0.29663163 0.015406667 0.010283575 0.037957408 0.0423897 0.09377067 0.0005527386 0.06722358
-0.018744405 0.13377728 0.03830329 0.15573214 0.14826635 0.13684049 0.17295359 0.1583971
0.13202448 0.15263818 0.17513798 -0.14262 -0.042047016 -0.19138291 -0.070367314 -0.034464672
-0.2329039 -0.026009915 0.07378247 -0.083588846 -0.1163627 0.17723322 -0.21486254 -0.0721643
0.12358826 -0.46102002 -0.05275528 0.06976286 0.021281388 0.04486976 0.21809468 -0.3142247
-0.06798832 0.135301 -0.44809976 -0.097731575 0.020769205 0.006943484 0.09331811 0.022110207
0.029318286 -0.008330015 -0.05879821 -0.022075884 0.05580811 0.017469386 -0.040682044 0.19347437
0.007118432 0.04258575 0.028200472 0.03573492 0.14828542 0.12222123 0.04213924 0.052645065
0.082526766 0.01764925 0.10539806 -0.08459033 0.0053588846 0.039167415 0.09077792 0.09635551
0.05944491 -0.023967206 0.061852712 0.041499224 0.14002484 0.0020506054 -0.0062915897 0.008180452
-0.03987384 0.008716612 0.020810368 0.017795738 0.04262752 -0.045561016 0.014793509 0.05740492
-0.034939487 0.02328231 0.02806452 0.06678517 -0.04626278 -0.048626237 -0.007759887 0.03818489
0.05206426 0.030274693 0.03842955 0.019161472 -0.030198423 -0.19821528 -0.16143136 -0.06032161
-0.0012357469 -0.14349587 0.0045268727 0.024740595 0.058377344 -0.06102056 0.031698976 0.12606446
-0.015103802 0.062998235 0.09391905 -0.051803045 0.12457163 0.1297027 -0.08116682 0.1933378
0.14153656 -0.026167326 0.18719064 0.027008584 -0.21169576 0.16459218 0.0656143 -0.0011593004
0.21180946 0.09378809 -0.06860742 0.03912585 -0.0733529 0.013614113 -0.16658543 -0.06485253
-0.17885256 0.20042714 0.098010674 -0.09850067 0.08866618 -0.014848039 -0.02383367 -0.005568629
-0.093260854 -0.048035156 0.22213948 0.1614188 -0.05104538 0.2029178 0.09462778 -0.12851736
-0.043102466 -0.012341336 0.065410376 -0.11112185 -0.1294935 0.062029216 -0.06884508 -0.07208091
0.12634762 -0.16808178 0.0033334922 0.05182395 -0.1657897 -0.015019276 0.02850272 -0.012967862
-0.0656872 -0.05380912 -0.16106108 -0.025022542 0.041614704 -0.051746137 0.1178835 -0.015485306
0.10018632 0.09506877 -0.076451585 -0.33514732 -0.03662975 0.004788232 -0.0704454 0.004232758
0.05562674 0.028261026 0.044788845 0.05222884 -0.06886875 0.010657269 0.009042182 -0.28832635
0.07109316 0.0058762673 -0.23879473 0.12774788 0.082573 -0.31617194 0.0779563 -0.10261026
0.08602188 -0.14288454 -0.14775352 0.14483482 -0.14117679 -0.2237856 0.06508728 -0.10763137
0.18411212 0.28441215 0.26948988 -0.023362769 0.06877333 0.103956945 0.29008746 0.2944807
0.27399522 0.14208828 0.07082435 0.19749433 0.04629523 0.0752186 0.067380235 0.07767355
0.004895732 0.08411483 0.0711575 0.09345606 0.027586631 0.100082956 0.08137498 0.081512995
0.068601504 0.0025443323 0.10367205 -0.080956645 -0.057016574 -0.053235237 -0.057000108 -0.09344212
-0.00063391344 0.023888055 0.0025282586 0.0007997493 0.07902441 -0.01345006 -0.006647081 0.07488397
00000000: fe2f 1e3e 52bd 763d 0daf 7a3d c825 363a
00000010: 2059 39bd 51fc e63c 1952 373e 7ab0 143e
00000020: 1ae0 973e 3f6c 7c3c 717c 283c 3a79 1b3d
00000030: d2a0 2d3d d60a c03d a9e5 103a 84ac 893d
00000040: de8d 99bc e9fc 083e e9e3 1c3d 3f78 1f3e
00000050: 22d3 173e ea1f 0c3e bf1a 313e d932 223e
00000060: 6d31 073e 2f4d 1c3e 5f57 333e fa0a 12be
00000070: 7e39 2cbd e2f9 43be bd1c 90bd d42a 0dbd
00000080: 5c7e 6ebe bf12 d5bc 431b 973d a130 abbd
00000090: 914f eebd a07c 353e ed04 5cbe e0ca 93bd
000000a0: d71b fd3d d10a ecbe ec15 58bd d5df 8e3d
000000b0: 4e56 ae3c 5ac9 373d 3654 5f3e 0fe2 a0be
000000c0: 763d 8bbd 588c 0a3e 556d e5be 7e27 c8bd
000000d0: 2e24 aa3c 2a86 e33b 911d bf3d 7720 b53c
000000e0: e72c f03c 9e7a 08bc 64d6 70bd 7cd8 b4bc
000000f0: 0b97 643d f51b 8f3c 37a2 26bd 251e 463e
00000100: bc41 e93b 656e 2e3d ad04 e73c c85e 123d
00000110: 22d8 173e 204f fa3d 329a 2c3d 5aa2 573d
00000120: cb03 a93d 2995 903c f0da d73d b23d adbd
00000130: 9599 af3b 036e 203d c6e9 b93d 0a56 c53d
00000140: 827c 733d e056 c4bc 4559 7d3d 17fb 293d
00000150: ac62 0f3e 7363 063b ae29 cebb 4d07 063c
00000160: c052 23bd 1fd0 0e3c 817a aa3c 5ec8 913c
00000170: 329a 2e3d 309e 3abd 7960 723c 6c21 6b3d
00000180: b51c 0fbd 8bba be3c 90e7 e53c aac6 883d
00000190: 0a7e 3dbd 4e2c 47bd a646 febb c267 1c3d
000001a0: 5541 553d a202 f83c 4e68 1d3d 85f8 9c3c
000001b0: af62 f7bc f2f8 4abe 434e 25be cb13 77bd
000001c0: c9f8 a1ba 95f0 12be 2956 943b caac ca3c
000001d0: 151d 6f3d b2f0 79bd c9d6 013d 0b17 013e
000001e0: f075 77bc 3805 813d a258 c03d 6e2f 54bd
000001f0: 691f ff3d c9d0 043e ca3a a6bd 58fa 453e
00000200: f6ee 103e dc5c d6bc e7ae 3f3e 1b41 dd3c
00000210: c6c6 58be da8a 283e ca60 863d abf3 97ba
00000220: 94e4 583e f813 c03d 0c82 8cbd 6d42 203d
00000230: 0c3a 96bd bb0d 5f3c 5f95 2abe 67d1 84bd
00000240: 2025 37be c63c 4d3e d2b9 c83d b8ba c9bd
00000250: 9d96 b53d 3045 73bc d43e c3bc 0c79 b6bb
00000260: 8cff bebd 83c0 44bd 8878 633e f84a 253e
00000270: f614 51bd afc9 4f3e 36cc c13d 0e9a 03be
00000280: 368c 30bd 5133 4abc e0f5 853d da93 e3bd
00000290: f299 04be 5912 7e3d a6fe 8cbd 289f 93bd
000002a0: 4561 013e a11d 2cbe b876 5a3b 5a45 543d
000002b0: c6c4 29be 6913 76bc 897e e93c 2877 54bc
000002c0: 0387 86bd f466 5cbd 32ed 24be 13fc ccbc
000002d0: 2e74 2a3d c2f3 53bd e86c f13d 15b6 7dbc
000002e0: 7c2e cd3d 6ab3 c23d a692 9cbd 6e98 abbe
000002f0: 1409 16bd 9ae6 9c3b ae45 90bd f3b2 8a3b
00000300: ddd8 633d ab83 e73c 8274 373d e8ed 553d
00000310: 0f0b 8dbd d39b 2e3c a925 143c 839f 93be
00000320: 4a99 913d b48d c03b 9b86 74be 57d0 023e
00000330: 081c a93d 4ae1 a1be 8da7 9f3d 5425 d2bd
00000340: 3d2c b03d 5350 12be b34c 17be 944f 143e
00000350: a690 10be 0d28 65be 7b4c 853d d66d dcbd
00000360: e387 3c3e 789e 913e 94fa 893e 4763 bfbc
00000370: 08d9 8c3d 61e7 d43d 5886 943e 2dc6 963e
00000380: 1a49 8c3e 977f 113e 5b0c 913d f43b 4a3e
00000390: 11a0 3d3d 360c 9a3d a6fe 893d 4f13 9f3d
000003a0: 606c a03b 6544 ac3d 06bb 913d e465 bf3d
000003b0: 5cfd e13c 4bf8 cc3d eda7 a63d 49f0 a63d
000003c0: f27e 8c3d d0be 263b 0352 d43d 99cc a5bd
000003d0: 368a 69bd 310d 5abd f278 69bd 955e bfbd
000003e0: 362d 26ba e2b0 c33c 24b1 253b 44a6 513a
000003f0: 8dd7 a13d a45d 5cbc c2cf d9bb c45c 993d

Generator.conv2.conv1.0.weight f4 [8, 8, 3, 3, 3]
0.089933306 -0.005021089 -0.061623715 0.27783206 0.0989952 -0.08862867 -0.18484665 0.015594955
0.08130371 -0.07658273 -0.0450733 -0.0011129044 -0.087557524 0.0044523366 0.024920635 -0.036705848
-0.07107568 0.090409465 0.014455772 -0.05660649 -0.021370798 -0.009159346 -0.04467304 0.035473425
0.019826356 -0.015484758 0.07004697 0.050941266 -0.032394055 -0.05275913 0.0069931294 -0.0044919695
-0.03036656 0.062404305 0.0746259 0.008355939 -0.16248934 -0.13295662 -0.07744514 -0.09303738
-0.059214443 -0.054796692 0.105622716 -0.008571106 -0.029031068 -0.046376582 -0.05693559 -0.1639453
0.0067541827 -0.057743434 -0.0971308 0.086033426 0.0010944245 -0.054613397 0.014301615 0.095728055
0.15441808 0.038728725 0.048406195 0.18537363 -0.047677767 -0.041234586 0.032809954 -0.0950452
0.030167706 0.04227063 -0.057922475 0.007767485 0.07403233 -0.18727882 -0.031146277 0.03274716
-0.061519608 0.010941545 0.07370775 -0.09717084 0.07845554 0.12866737 -0.122895814 -0.061177466
0.065062456 0.0025945485 -0.027581003 0.054257 -0.105448276 -0.07000507 -0.010706823 -0.015234248
-0.037595604 0.09342825 0.18236743 0.011611419 0.07413356 0.03776784 -0.021517362 0.014143882
0.013275261 -0.056146726 0.031282034 0.011738342 0.010409329 -0.009154553 -0.10440035 -0.035239093
0.06783263 0.001321081 -0.040377434 0.017873652 0.052053805 0.04908757 -0.038965117 0.011896096
-0.024961172 0.025367098 -0.016359761 -0.002126022 0.028399937 0.042829465 0.018096806 0.069076985
0.06299741 0.07845779 0.089154296 0.08237953 -0.014231994 0.12188498 -0.043811683 0.001779304
0.063219555 -0.06263992 0.030203521 0.06461899 0.014600496 -0.035239432 -0.051569946 -0.014816191
0.10104931 0.045212947 0.0027432207 0.09554173 0.07713377 -0.021960255 -0.06897015 -0.032144807
-0.05838606 -0.014083588 -0.012384308 -0.07414604 -0.0670716 -0.040992316 -0.0771124 -0.1125414
0.05908268 -0.07597716 -0.042763103 -0.032659043 -0.1122132 -0.039892707 -0.099505484 -0.15712808
-0.19610949 0.11751939 0.077973776 0.06421278 0.07513375 0.07832969 0.009856067 0.030313924
0.013828571 0.08901275 0.025937177 0.021157524 -0.0010570193 -0.0062913685 0.064414784 0.081890814
0.09928207 0.09265134 0.045819513 0.07325907 0.05171531 -0.0037319 -0.024869006 -0.055586103
0.053262994 -0.023107817 0.029913679 -0.06317787 0.012328398 -0.015293944 -0.026405044 0.0313108
-0.071507715 -0.056361496 0.05781947 -0.11042897 -0.06856703 -0.0020817707 -0.04147202 -0.061612893
0.01194067 -0.099207595 -0.042652998 0.04780396 -0.07200044 -0.07415216 0.110527456 -0.089519314
-0.06702904 0.012672621 -0.03499309 -0.0049610105 0.031160677 -0.08563148 -0.052239135 0.03125187
-0.12643687 -0.18968639 0.13692003 -0.10053867 -0.011189688 0.022207534 0.078236386 -0.024660205
0.14593227 -0.045784187 -0.027103102 0.047254372 -0.026241342 0.011014319 0.03152881 0.05122024
0.0871615 0.020780675 0.011305993 -0.093338884 -0.032718323 0.07228519 0.007859743 -0.01475133
0.07450453 0.09979056 0.028795019 -0.03239721 -0.0033207282 0.014625008 -0.07130232 0.042113304
0.032678086 0.008220519 0.03744634 -0.019860195 -0.13030258 -0.12020577 -0.07232541 -0.09525707
00000000: f42e b83d f387 a4bb 2669 7cbd 0140 8e3e
00000010: ffbd ca3d f382 b5bd 7148 3dbe fb81 7f3c
00000020: 8f82 a63d 68d7 9cbd c89e 38bd e0de 91ba
00000030: 5c51 b3bd e8e4 913b 5c26 cc3c df58 16bd
00000040: 2090 91bd 9928 b93d e7d7 6c3c 35dc 67bd
00000050: d011 afbc 1511 16bc 14fb 36bd 954c 113d
00000060: e26a a23c c8b3 7dbc c974 8f3d caa7 503d
00000070: a1af 04bd f519 58bd 9f26 e53b 5f31 93bb
00000080: 4bc3 f8bc a89b 7f3d 77d5 983d 59e7 083c
00000090: 9b63 26be c825 08be 8f9b 9ebd 628a bebd
000000a0: d88a 72bd 7f72 60bd b950 d83d d36d 0cbc
000000b0: 90d2 edbc 5ff5 3dbd 4b35 69bd 47e1 27be
000000c0: 3152 dd3b 6184 6cbd 83ec c6bd 4b32 b03d
000000d0: cb72 8f3a 4cb2 5fbd 5251 6a3c 120d c43d
000000e0: c61f 1e3e 03a2 1e3d 9345 463d 96d2 3d3e
000000f0: c349 43bd 99e5 28bd bb63 063d 0fa7 c2bd
00000100: 4422 f73c f823 2d3d 1e40 6dbd 6386 fe3b
00000110: 439e 973d 05c6 3fbe 7a26 ffbc e321 063d
00000120: fcfb 7bbd 2a44 333c 17f4 963d 8101 c7bd
00000130: 4cad a03d 61c1 033e cdb0 fbbd 3995 7abd
00000140: 773f 853d 4d09 2a3b 8ef1 e1bc 973c 5e3d
00000150: 44f5 d7bd d15e 8fbd ac6b 2fbc 1199 79bc
00000160: d9fd 19bd 4f57 bf3d 87be 3a3e d23d 3e3c
00000170: 56d3 973d 73b2 1a3d 2e45 b0bc bebb 673c
00000180: 7b80 593c 1cfa 65bd 9721 003d 2d52 403c
00000190: e48b 2a3c fafc 15bc dacf d5bd de56 10bd
000001a0: d5eb 8a3d 1f28 ad3a cf62 25bd c46b 923c
000001b0: 5f36 553d 0c10 493d e399 1fbd d8e7 423c
000001c0: 5f7b ccbc a9ce cf3c e804 86bc bb54 0bbb
000001d0: fca6 e83c f36d 2f3d c13f 943c 3c78 8d3d
000001e0: c904 813d 7aae a03d 8796 b63d 99b6 a83d
000001f0: 4f2d 69bc d59e f93d e173 33bd 8937 e93a
00000200: 4179 813d 5c49 80bd 606d f73c f656 843d
00000210: eb36 6f3c 3957 10bd 023b 53bd 9cbf 72bc
00000220: f1f2 ce3d 3631 393d 9bc7 333b 62ab c33d
00000230: 4ff8 9d3d fee5 b3bc 3940 8dbd 46aa 03bd
00000240: 3926 6fbd d9be 66bc 8de7 4abc e1d9 97bd
00000250: d65c 89bd 8fe7 27bd 1bed 9dbd 1b7c e6bd
00000260: ae00 723d ea99 9bbd 5d28 2fbd 7dc5 05bd
00000270: 09d0 e5bd 8966 23bd 88c9 cbbd 2fe6 20be
00000280: edd0 48be 02ae f03d b7b0 9f3d fd81 833d
00000290: b9df 993d 516b a03d 577b 213c e854 f83c
000002a0: 3b91 623c 514c b63d 347a d43c 8b52 ad3c
000002b0: af8b 8aba d327 cebb e6eb 833d 5fb6 a73d
000002c0: 6654 cb3d fcbf bd3d 3ead 3b3d da08 963d
000002d0: 6fd3 533d e492 74bb 16ba cbbc 41ae 63bd
000002e0: 4c2a 5a3d 9b4c bdbc 880d f53c 6663 81bd
000002f0: 0dfd 493c 7393 7abc 644f d8bc c13f 003d
00000300: a372 92bd 50db 66bd 1cd4 6c3d 9528 e2bd
00000310: df6c 8cbd 516e 08bb 91de 29bd cd5d 7cbd
00000320: cda2 433c 5a2d cbbd e9b4 2ebd 16ce 433d
00000330: f774 93bd 16dd 97bd 385c e23d e755 b7bd
00000340: 8546 89bd d3a0 4f3c ea54 0fbd f98f a2bb
00000350: ad44 ff3c 8f5f afbd b4f8 55bd f601 003d
00000360: ab78 01be 263d 42be c434 0c3e 38e7 cdbd
00000370: f454 37bc 93ec b53c 663a a03d 3304 cabc
00000380: 456f 153e 3388 3bbd 5307 debc cd8d 413d
00000390: 15f8 d6bc 6775 343c 5a24 013d 50cc 513d
000003a0: ba81 b23d 3c3c aa3c c63c 393c 7528 bfbd
000003b0: a603 06bd 420a 943d 27c6 003c 90af 71bc
000003c0: d595 983d fe5e cc3d 88e3 eb3c f0b2 04bd
000003d0: 93a0 59bb bb9d 6f3c f306 92bd 007f 2c3d
000003e0: 75d9 053d 5baf 063c 5561 193d d9b1 a2bc
000003f0: 0a6e 05be 712e f6bd 581f 94bd 2416 c3bd

Generator.conv2.conv2.0.weight f4 [8, 8, 3, 3, 3]
0.08452908 -0.057468124 0.0073579852 0.07539239 0.08516649 0.06487896 0.052359007 0.055933204
0.11483 0.119526036 -0.014188057 0.055395763 0.021391887 0.0052499664 -0.040360894 0.07328435
-0.046287835 0.028929247 0.016224232 -0.06888467 -0.046613455 0.045506753 -0.098336965 -0.091609284
-0.099973746 -0.04459281 -0.051575385 0.12810095 0.10211979 0.024505146 0.060797427 0.0986319
0.16931094 0.06849386 0.054128557 0.108300224 0.08790387 0.02729135 -0.008281285 0.016482322
0.100271605 0.043699145 -0.0012399177 -3.9050123e-05 0.11308977 0.014336155 0.05539864 -0.010915619
0.03886391 0.031352747 0.03610141 -0.029792266 0.06651706 0.03510136 0.23923165 0.08750606
0.059408516 -0.030414736 -0.11544587 -0.10224088 0.06108737 -0.0042679706 -0.062950365 -0.0048675365
-0.12121942 0.005318275 -0.11831005 -0.12494198 -0.1918161 0.028846582 -0.006601281 -0.17246777
-0.02252014 -0.07394991 0.15040176 -0.09538195 -0.15902376 0.012755084 0.080970876 0.038978294
-0.016771251 0.08207206 0.08078045 0.15091218 0.027748214 0.043966524 0.018664267 0.114489585
0.015339698 0.006081324 0.14790308 0.008311273 0.08898307 -0.02591309 -0.11099628 -0.09019016
-0.022339847 -0.12954661 0.021126904 -0.01584358 -0.06735229 0.063930154 -0.08133133 -0.07300899
-0.049213417 0.07976381 -0.082512446 -0.02787616 -0.065278776 -0.053465616 -0.040108275 0.06305467
0.061759148 -0.012461655 0.09801665 0.037789468 0.016568232 -0.15260094 -0.11676876 -0.004383534
-0.07644418 -0.07826581 -0.0020358393 0.020972334 -0.04349966 0.03172017 -0.16211703 -0.118025325
-0.01521973 0.13760604 0.058941077 -0.022900103 0.105112925 -0.055385053 -0.12959968 0.03888994
-0.19398166 -0.18826827 -0.051182892 -0.21705697 0.0440019 -0.14946757 -0.20819935 0.15482664
0.006142427 0.008822109 -0.10971573 0.00048618542 -0.08004674 -0.08230531 0.06783772 -0.15271881
-0.08959834 0.10743644 0.021665113 0.01658162 0.07749311 -0.017069 -0.1077792 0.16713363
-0.09079218 0.024203375 0.13288455 0.041982677 0.21300921 -0.010046074 -0.052022856 -0.10116716
0.07055279 -0.13135624 -0.100291446 0.0845203 0.040949307 0.200413 0.09961196 -0.01694908
-0.054444753 -0.013538585 -0.04331815 -0.11824747 -0.0112302005 0.12089442 0.059656188 0.015178749
0.007890406 -0.1613164 0.060558118 -0.06462076 -0.1627253 -0.05097093 -0.06083762 -0.08468196
-0.076176725 -0.0715513 -0.0737687 -0.03891123 -0.009355458 0.035220996 -0.059160158 0.0037045372
-0.04576258 -0.02318429 -0.06274511 -0.030426953 0.04082356 0.026921332 -0.001813343 0.15962341
0.13685906 0.15692946 0.04882498 0.10483736 -0.015873462 0.14860745 0.01785312 -0.02559496
-0.16582446 -0.0828173 0.016851135 -0.087150745 -0.061765518 -0.0918482 -0.16778047 -0.0148949
-0.018026037 0.053515352 0.04771917 0.005808178 0.0642754 0.04364174 0.01676883 -0.008491184
0.009078303 0.0538269 0.048365228 0.10415585 0.07707944 0.15821844 0.11386414 0.07601847
0.1395185 0.032470305 0.037802298 -0.15143614 -0.10750478 0.02707452 -0.119277105 -0.08707391
-0.02963234 -0.2745434 -0.11628132 0.0039862185 0.021163726 0.025855977 -0.046672147 0.022880822
00000000: 951d ad3d b263 6bbd 411b f13b 5367 9a3d
00000010: c56b ae3d 43df 843d 6676 563d 371a 653d
00000020: fe2b eb3d 11ca f43d 0675 68bc abe6 623d
00000030: 0a3e af3c e907 ac3b 7751 25bd 1b16 963d
00000040: 5098 3dbd 07fd ec3c aee8 843c 6813 8dbd
00000050: c0ed 3ebd 4a65 3a3d e464 c9bd a69d bbbd
00000060: 09bf ccbd f3a6 36bd b640 53bd e52c 033e
00000070: 2e24 d13d 04bf c83c b906 793d 86ff c93d
00000080: d95f 2d3e 8246 8c3d e8b5 5d3d 82cc dd3d
00000090: f206 b43d 1c92 df3c 3aae 07bc ef05 873c
000000a0: 335b cd3d e0fd 323d bc84 a2ba c0c9 23b8
000000b0: 9c9b e73d 31e2 6a3c afe9 623d 6dd7 32bc
000000c0: c32f 1f3d bd6b 003d 12df 133d e90e f4bc
000000d0: 193a 883d 72c6 0f3d 24f9 743e 6136 b33d
000000e0: 5856 733d 5328 f9bc e26e ecbd ab63 d1bd
000000f0: c036 7a3d 55da 8bbb 1fec 80bd db7f 9fbb
00000100: e341 f8bd ed44 ae3b 8a4c f2bd 95e1 ffbd
00000110: 716b 44be ab4f ec3c 8f4f d8bb 649b 30be
00000120: 287c b8bc 0d73 97bd eb02 1a3e 9d57 c3bd
00000130: 20d7 22be b3fa 503c 0fd4 a53d b4a7 1f3d
00000140: dd63 89bc 6515 a83d 3870 a53d b988 1a3e
00000150: 3950 e33c 3e16 343d cee5 983c 8479 ea3d
00000160: 5b53 7b3c d845 c73b e873 173e 012c 083c
00000170: c13c b63d b047 d4bc 0552 e3bd 9eb5 b8bd
00000180: 0e02 b7bc dea7 04be 5412 ad3c 65ca 81bc
00000190: ffef 89bd d0ed 823d 0a91 a6bd bd85 95bd
000001a0: 0294 49bd 355b a33d 49fc a8bd 8b5c e4bc
000001b0: e1b0 85bd c3fe 5abd 9348 24bd cf22 813d
000001c0: 29f7 7c3d f82b 4cbc f4bc c83d 21c9 1a3d
000001d0: 1aba 873c 6c43 1cbe 7624 efbd c0a3 8fbb
000001e0: c48e 9cbd d349 a0bd b76b 05bb 2cce ab3c
000001f0: b32c 32bd 02ed 013d 0202 26be 43b7 f1bd
00000200: 2d5c 79bc 99e8 0c3e 336c 713d ff98 bbbc
00000210: 7245 d73d 70db 62bd c7b5 04be 0f4b 1f3d
00000220: 21a3 46be 66c9 40be 27a5 51bd 2f44 5ebe
00000230: 563b 343d 070e 19be 3632 55be e08a 1e3e
00000240: 6a46 c93b 9b8a 103c a4b2 e0bd b4e6 fe39
00000250: 8cef a3bd b08f a8bd 81ee 8a3d 5262 1cbe
00000260: 567f b7bd a307 dc3d 097b b13c 2dd6 873c
00000270: b5b4 9e3d 4ad4 8bbc 57bb dcbd 1425 2b3e
00000280: 40f1 b9bd 2846 c63c e312 083e 07f6 2b3d
00000290: 161f 5a3e 4a98 24bc eb15 55bd ba30 cfbd
000002a0: fb7d 903d 4082 06be 9a65 cdbd fb18 ad3d
000002b0: 76ba 273d 1139 4d3e 5b01 cc3d ccd8 8abc
000002c0: 7601 5fbd f1d0 5dbc 5f6e 31bd bb2b f2bd
000002d0: e0fe 37bc 7e97 f73d 0c5a 743d 4ab0 783c
000002e0: c346 013c 2030 25be ca0b 783d e457 84bd
000002f0: 76a1 26be e5c6 50bd de30 79bd bc6d adbd
00000300: 8b02 9cbd 7d89 92bd 0b14 97bd 6261 1fbd
00000310: a347 19bc e443 103d ec51 72bd d2c7 723b
00000320: 8b71 3bbd fbec bdbc 8280 80bd f241 f9bc
00000330: 9b36 273d 208a dc3c b2ad edba 5274 233e
00000340: c824 0c3e 1eb2 203e b4fc 473d f8b4 d63d
00000350: 1009 82bc 8d2c 183e b540 923c 86ac d1bc
00000360: e3cd 29be 1e9c a9bd 640b 8a3c 177c b2bd
00000370: d7fd 7cbd e91a bcbd a5ce 2bbe bd09 74bc
00000380: 57ab 93bc ea32 5b3d 2d75 433d 8752 be3b
00000390: d2a2 833d aec1 323d c95e 893c 9b1e 0bbc
000003a0: 2abd 143c 9879 5c3d 9e1a 463d aa4f d53d
000003b0: d3db 9d3d 0404 223e 9a31 e93d 92af 9b3d
000003c0: f0dd 0e3e 95ff 043d 95d6 1a3d 1312 1bbe
000003d0: 772b dcbd 62cb dd3c 8e47 f4bd ce53 b2bd
000003e0: 85bf f2bc f490 8cbe e724 eebd d39e 823b
000003f0: 8d5f ad3c eacf d33c 4b2b 3fbd 9070 bb3c

Generator.conv3.conv1.0.weight f4 [8, 8, 3, 3, 3]
0.009967696 0.07277465 -0.014743711 -0.01981902 0.004385648 0.041273907 0.08428432 -0.020451846
0.0132416235 -0.028121892 0.02450625 -0.06158891 0.013694184 -0.024785107 -0.08833391 -0.039751396
0.04231128 -0.031967074 -0.034076847 0.06722057 -0.011559715 0.051256847 -0.061981495 -0.0064471094
-0.0292639 0.031196961 -0.05174503 -0.05847098 0.015757259 0.032286014 0.0036909827 -0.026517507
-0.077357225 0.056807537 -0.02715435 0.048196986 0.007080263 0.06045418 0.12861946 -0.014145549
-0.035694547 -0.08436867 -0.001089882 -0.09096107 0.02847194 -0.006658588 0.082901455 -0.027728995
0.05010914 -0.041367847 -0.062189337 -0.070073925 -0.091390714 0.043105625 -0.045803305 -0.013045931
-0.029905034 -0.054313682 -0.03176232 0.027512785 -0.00011726531 -0.016851174 0.0057548913 0.040718272
0.034798775 0.05997745 -0.038374107 0.09307074 0.06553044 -0.033966962 0.004875217 -0.024026383
0.04995584 -0.060038313 0.024345424 -0.010243196 0.06203696 -0.025994033 0.06948023 -0.055716988
-0.052983277 0.024455762 -0.0011290732 0.0050170664 -0.01711905 0.027643643 -0.057757184 0.07474578
-0.012657817 0.062967926 -0.010789258 0.043599427 0.032560974 -0.047672156 0.06506164 -0.06204195
-0.071139745 -0.0306824 -0.0064500365 -0.03795216 0.05674199 -0.020604143 0.0753109 0.12196047
0.035161838 0.00013087114 -0.034191232 -0.08861416 0.068315834 -0.041671775 0.005580806 0.06939313
-0.049193304 0.046309493 0.081052415 0.04943827 -0.046313528 0.053716652 0.074671425 0.062271457
0.0076190936 0.055447984 0.08704034 0.03834687 0.076406814 -0.06035816 -0.014620478 0.0022808162
0.024441937 -0.066687636 -0.044853978 -0.021166159 0.04589005 -0.047753602 -0.035640273 -0.06387879
0.03709054 0.017196972 -0.0063683894 0.065679766 -0.057457007 -0.009626554 -0.01366219 0.034168698
0.014402407 0.0755722 0.024689872 -0.03940461 0.041888185 0.0015966628 -0.053680576 -0.07796514
0.032885518 -0.06116494 0.06110299 -0.06657789 0.031008506 0.07760024 0.06634303 0.05666248
-0.088267766 -0.026027478 -0.054028586 0.04634069 0.03256448 -0.019397505 -0.048285108 -0.034784418
0.10264166 0.014743109 0.017500628 0.04665737 -0.03128396 0.079270005 0.06843822 -0.062586896
0.043080434 0.027234202 0.024035715 0.01814049 0.024846945 -0.013800787 -0.09958041 0.027891207
0.07725116 -0.03358127 -0.083289266 0.105037026 0.0028090726 0.0094940495 -0.0017102996 0.0045303064
0.0055587026 0.03906203 -0.01787275 -0.08251635 -0.0058702794 0.0015881578 -0.006938542 -0.0003016403
-0.0046796324 0.028163811 0.14802061 0.04978484 -0.015807211 -0.03714005 0.06282169 -0.044055644
-0.08974487 -0.007726195 0.05706893 0.11776068 -0.076515615 -0.03535219 -0.0444872 -0.05593264
0.017927837 -0.033883344 -0.003545894 0.040705036 0.013098023 0.05090362 0.01054547 0.04832408
0.027225895 0.108297475 -0.07067438 0.003541535 0.06973282 0.041116126 -0.083023384 -0.037073445
0.040044785 -0.16628467 0.02145968 0.002901941 0.020821285 0.05303507 0.0038962946 -0.04771536
-0.048934937 -0.051702093 0.008391353 0.013896568 -0.09474499 -0.13983719 0.027408745 0.07592262
-0.124996826 0.08329242 0.05285117 -0.0014321078 0.081489384 0.023573855 -0.019245695 0.10698656
00000000: 8c4f 233c e00a 953d 9b8f 71bc 7f5b a2bc
00000010: 7bb5 8f3b d40e 293d 429d ac3d a18a a7bc
00000020: 65f3 583c e25f e6bc 55c1 c83c a744 7cbd
00000030: 925d 603c 230a cbbc 69e8 b4bd 5cd2 22bd
00000040: 984e 2d3d e8ef 02bd 2a94 0bbd f0aa 893d
00000050: f564 3dbc b3f2 513d 4fe0 7dbd 4642 d3bb
00000060: d9ba efbc c590 ff3c 99f2 53bd 447f 6fbd
00000070: 5e15 813c 573e 043d 6ae4 713b 3e3b d9bc
00000080: 776d 9ebd 05af 683d cd72 debc 346a 453d
00000090: 8d01 e83b cd9e 773d d2b4 033e bcc2 67bc
000000a0: 7234 12bd 7bc9 acbd 5fda 8eba cc49 babd
000000b0: fc3d e93c 4930 dabb 3dc8 a93d eb27 e3bc
000000c0: 3e3f 4d3d 5571 29bd 3fba 7ebd eb82 8fbd
000000d0: 0e2b bbbd 868f 303d 3f9c 3bbd 9abe 55bc
000000e0: 67fb f4bc 0678 5ebd 3519 02bd 7e62 e13c
000000f0: 55ec f5b8 790b 8abc 8793 bc3b 34c8 263d
00000100: 2989 0e3d eaaa 753d 2b2e 1dbd df9b be3d
00000110: d334 863d f120 0bbd 49c0 9f3b fad2 c4bc
00000120: 7f9e 4c3d bcea 75bd 0e70 c73c 14d3 27bc
00000130: 781a 7e3d 70f1 d4bc a74b 8e3d 7f37 64bd
00000140: fe04 59bd 7357 c83c 69fd 93ba 3466 a43b
00000150: 403d 8cbc ec74 e23c cc92 6cbd 5114 993d
00000160: bc62 4fbc 54f5 803d 6ec5 30bc 5095 323d
00000170: a85e 053d e143 43bd 0a3f 853d b31f 7ebd
00000180: b7b1 91bd a859 fbbc d45a d3bb b973 1bbd
00000190: 4a6a 683d 05ca a8bc 9a3c 9a3d 69c6 f93d
000001a0: dc05 103d 743a 0939 1b0c 0cbd 577b b5bd
000001b0: 2ce9 8b3d 06b0 2abd 32df b63b fc1d 8e3d
000001c0: eb7e 49bd 06af 3d3d cffe a53d c97f 4a3d
000001d0: 41b3 3dbd fe05 5c3d 55ed 983d 5b10 7f3d
000001e0: 97a9 f93b 6d1d 633d 3542 b23d 9c11 1d3d
000001f0: 2d7b 9c3d 1e3a 77bd bb8a 6fbc bf79 153b
00000200: 753a c83c 8793 88bd ceb8 37bd a764 adbc
00000210: 34f7 3b3d 4899 43bd 89fb 11bd e2d2 82bd
00000220: 40ec 173d aae0 8c3c ecad d0bb 1d83 863d
00000230: 0a58 6bbd b2b8 1dbc 61d7 5fbc 7af4 0b3d
00000240: 13f8 6b3c 99c5 9a3d 6a42 ca3c ba66 21bd
00000250: f292 2b3d 1d47 d13a 2ae0 5bbd 30ac 9fbd
00000260: f7b2 063d 1788 7abd 2147 7a3d fd59 88bd
00000270: 8d05 fe3c e0ec 9e3d dbde 873d eb16 683d
00000280: bbc5 b4bd 9437 d5bc 144d 5dbd bccf 3d3d
00000290: 5562 053d 84e7 9ebc 9bc6 45bd 1b7a 0ebd
000002a0: ca35 d23d 158d 713c 7a5d 8f3c cc1b 3f3d
000002b0: 9c23 00bd 5058 a23d 5629 8c3d 8f2d 80bd
000002c0: 1c75 303d 431a df3c 8ce6 c43c 5d9b 943c
000002d0: d28b cb3c b21c 62bc d0f0 cbbd 1a7c e43c
000002e0: db35 9e3d 848c 09bd 9093 aabd a71d d73d
000002f0: 6b18 383b ee8c 1b3c 222c e0ba f772 943b
00000300: c725 b63b 82ff 1f3d e069 92bc 55fe a8bd
00000310: 795b c0bb bc29 d03a b55c e3bb 7a25 9eb9
00000320: 9a57 99bb cbb7 e63c b792 173e 30eb 4b3d
00000330: 207e 81bc 2a20 18bd a9a8 803d b173 34bd
00000340: 29cc b7bd 052c fdbb 1cc1 693d 832c f13d
00000350: 38b4 9cbd 75cd 10bd 3638 36bd a019 65bd
00000360: 66dd 923c 43c9 0abd 3b62 68bb 53ba 263d
00000370: 1799 563c 5080 503d e8c6 2c3c 78ef 453d
00000380: d708 df3c 11cb dd3d bbbd 90bd 1919 683b
00000390: 15d0 8e3d 6269 283d 2a08 aabd 53da 17bd
000003a0: 0006 243d 8746 2abe 36cc af3c 7e2e 3e3b
000003b0: 6691 aa3c 4d3b 593d fa58 7f3b 2e71 43bd
000003c0: 0070 48bd 93c5 53bd e37b 093c 6eae 633c
000003d0: a909 c2bd 7b31 0fbe 4e88 e03c 527d 9b3d
000003e0: 56fe ffbd 3795 aa3d 787a 583d 90b5 bbba
000003f0: e8e3 a63d f51d c13c 26a9 9dbc c51b db3d

Generator.conv3.conv2.0.weight f4 [8, 8, 3, 3, 3]
0.049747262 0.019284295 -0.011983652 -0.045362018 0.06208158 -0.028766293 -0.08389651 -0.011492267
-0.072673656 0.041935325 -0.035432838 0.04134371 0.006582507 0.05385607 -0.026816668 -0.031533297
0.024133109 -0.06795313 0.019689301 -0.004712759 -0.017245036 0.05154965 0.09133503 0.105385706
0.021275746 0.09177615 0.03376342 0.10076988 -0.13528338 -0.16854846 0.13084659 -0.06965376
-0.09160361 0.04892755 0.058222435 -0.020753702 0.07439393 -0.092867225 -0.11263884 -0.08611773
-0.06308647 -0.04221596 -0.09599825 -0.13908562 -0.17314187 0.09067571 -0.008430162 -0.14260177
-0.035574548 -0.019235315 -0.13977535 -0.05447188 -0.054406505 -0.13563994 -0.008915255 0.02634224
-0.26130435 0.046777368 -0.029703664 -0.01005063 0.09443283 0.11201186 0.049347773 0.0850935
-0.03621258 -0.025551258 0.08370358 0.052483875 -0.052258413 0.02902531 0.22322206 -0.03759947
0.09739729 0.15106313 0.08638195 0.11251865 0.16678464 0.090836465 -0.04678494 0.07522955
0.102326296 -0.055231825 0.10962892 0.009300364 -0.06917988 -0.0516768 0.050145477 0.049185544
-0.037049748 -0.037021678 -0.11782677 0.007899562 0.010661967 -0.123690434 -0.24460329 0.035501547
0.011875626 -0.17017138 -0.06708707 -0.1656976 -0.10413769 -0.013879229 -0.0067522554 -0.24206786
-0.027156953 0.09733719 -0.046802923 -0.044084232 -0.33424082 -0.16217996 -0.047606457 -0.1186081
-0.09050371 -0.06224228 -0.1389995 -0.122542866 -0.058979906 -0.015850268 -0.0019666238 0.052852903
0.045278788 0.025965322 -0.030885333 -0.07296797 -0.0028860802 -0.018337369 -0.4563406 -0.24376433
-0.048702925 -0.24374661 -0.21842793 -0.13080005 0.0068779266 -0.018661063 0.07294511 0.0331091
-0.018752165 -0.287813 -0.14689218 -0.05379131 0.017685857 0.22330041 -0.043173634 0.11437548
-0.10194918 -0.08812275 -0.021626286 -0.024841744 0.023027683 0.11190871 0.1588975 -0.03873107
0.13569988 0.032904126 0.11786003 -0.06940957 0.103083014 0.019267134 0.06910228 0.26470116
0.018949308 -0.011193606 0.13707641 0.12783238 0.136006 -0.0029495626 -0.031310577 0.07747217
-0.13034827 -0.1709371 0.13216539 -0.0014959112 0.0384512 0.10649002 -0.106044054 -0.1078838
0.09003056 -0.12853624 0.005154369 0.10254826 -0.17922622 -0.0525566 0.15826003 -0.13960907
-0.0817421 0.21491942 -0.047314253 0.11793119 0.11668719 -0.0010699843 -0.023623984 0.10557165
-0.041818842 -0.022940645 0.08951207 -0.062852874 0.009148352 0.1766399 0.17216972 0.0557314
0.09095729 0.044969775 0.029360045 0.0091139395 -0.062251236 0.08642527 -0.008417509 0.15997982
0.0031114966 -0.007786748 0.14271122 0.04689135 0.028093612 0.09527355 0.14944707 -0.017519012
0.020812446 0.0017031652 -0.05630053 0.007588285 -0.079401165 -0.08789797 0.0303841 -0.0048069605
0.038615435 0.010844022 -0.04071242 -0.059380878 -0.0057565724 0.056882627 -0.060946573 0.055949345
0.007227602 0.027580524 0.0063938363 0.10831105 0.094098024 0.062175058 0.059056524 0.049084242
0.0705202 -0.029823184 0.02508184 0.0031764342 0.021607986 -0.15618186 0.09243498 0.10735267
0.046215896 0.16637845 0.014392977 0.10465216 0.017284853 0.11180065 -0.07494338 0.08968318
00000000: c9c3 4b3d 19fa 9d3c 1457 44bc 86cd 39bd
00000010: 4149 7e3d 4aa7 ebbc efd1 abbd 104a 3cbc
00000020: edd5 94bd 60c4 2b3d 0622 11bd 0658 293d
00000030: 12b2 d73b 2f98 5c3d a1ae dbbc 0f29 01bd
00000040: ccb2 c53c 032b 8bbd 754b a13c 7d6d 9abb
00000050: 7645 8dbc ba25 533d dc0d bb3d 76d4 d73d
00000060: 794a ae3c 22f5 bb3d 834b 0a3d 7060 ce3d
00000070: ba87 0abe f897 2cbe a6fc 053e a1a6 8ebd
00000080: ac9a bbbd 4168 483d a67a 6e3d ab03 aabc
00000090: d85b 983d 2c31 bebd 31af e6bd 7e5e b0bd
000000a0: 7b33 81bd a4ea 2cbd bb9a c4bd 766c 0ebe
000000b0: 1a4c 31be 30b4 b93d aa1e 0abc 3306 12be
000000c0: 9eb6 11bd 6193 9dbc 4521 0fbe e81d 5fbd
000000d0: 5bd9 5ebd 32e5 0abe 4a11 12bc aecb d73c
000000e0: afc9 85be a099 3f3d 1955 f3bc 66ab 24bc
000000f0: 0066 c13d 7966 e53d e420 4a3d 8045 ae3d
00000100: a453 14bd df50 d1bc c86c ab3d 55f9 563d
00000110: eb0c 56bd 7dc6 ed3c 5394 643e e701 1abd
00000120: 3b78 c73d 4bb0 1a3e 05e9 b03d 2e70 e63d
00000130: 98c9 2a3e 7808 ba3d 91a1 3fbd f311 9a3d
00000140: 7390 d13d c43a 62bd 2185 e03d 8e60 183c
00000150: 2eae 8dbd 0dab 53bd 5865 4d3d c876 493d
00000160: 7ac1 17bd 0ba4 17bd 294f f1bd 2a6d 013c
00000170: 88af 2e3c 6951 fdbd 4979 7abe 126a 113d
00000180: fc91 423c 6841 2ebe f264 89bd a2ac 29be
00000190: 2446 d5bd b565 63bc 0642 ddbb a3e0 77be
000001a0: 4278 debc b858 c73d 6cb4 3fbd ab91 34bd
000001b0: 9d21 abbe 8112 26be fdfe 42bd cee8 f2bd
000001c0: 025a b9bd c3f1 7ebd e355 0ebe c1f7 fabd
000001d0: ea94 71bd 6cd8 81bc 79e2 00bb 497c 583d
000001e0: 4076 393d 3ab5 d43c 3d03 fdbc 3b70 95bd
000001f0: 6424 3dbb 4038 96bc 7aa5 e9be 5b9d 79be
00000200: b87c 47bd b698 79be 92ab 5fbe 73f0 05be
00000210: 3b60 e13b 16df 98bc 3f64 953d 689d 073d
00000220: 249e 99bc 3a5c 93be e76a 16be 4754 5cbd
00000230: eee1 903c dda8 643e d6d6 30bd b13d ea3d
00000240: bbca d0bd b379 b4bd 9c29 b1bc ea80 cbbc
00000250: 8da4 bc3c 6530 e53d 07b6 223e 78a4 1ebd
00000260: e9f4 0a3e 7ac6 063d 9960 f13d 9b26 8ebd
00000270: 301d d33d 1cd6 9d3c 7f85 8d3d e986 873e
00000280: 943b 9b3c 6365 37bc c25d 0c3e 7ee6 023e
00000290: 2845 0b3e 734d 41bb 853f 00bd bba9 9e3d
000002a0: 047a 05be 230a 2fbe 5d56 073e 7312 c4ba
000002b0: 017f 1d3d 7117 da3d a02d d9bd 2ff2 dcbd
000002c0: f161 b83d 019f 03be fbe5 a83b d204 d23d
000002d0: 1487 37be 9745 57bd eb0e 223e aef5 0ebe
000002e0: 6768 a7bd d613 5c3e 97cc 41bd e885 f13d
000002f0: b2f9 ee3d b73e 8cba 1687 c1bc f335 d83d
00000300: 3c4a 2bbd 05ee bbbc 1b52 b73d 02b9 80bd
00000310: f8e2 153c 17e1 343e 424d 303e 9c46 643d
00000320: d147 ba3d 3a32 383d 7a84 f03c a252 153c
00000330: 27fb 7ebd bbff b03d 97e9 09bc c0d1 233e
00000340: 40ea 4b3b fa27 ffbb e422 123e 2511 403d
00000350: 9324 e63c c71e c33d a708 193e 0884 8fbc
00000360: dd7e aa3c be3c df3a 629b 66bd 26a7 f83b
00000370: 149d a2bd da03 b4bd 13e8 f83c b583 9dbb
00000380: 382b 1e3d 20ab 313c 11c2 26bd 5d39 73bd
00000390: a1a1 bcbb c2fd 683d 1da3 79bd 242b 653d
000003a0: 85d5 ec3b 8df0 e13c 6383 d13b 2fd2 dd3d
000003b0: 77b6 c03d 46ab 7e3d 41e5 713d 8f0c 493d
000003c0: e56c 903d c04f f4bc 6e78 cd3c b92b 503b
000003d0: 3b03 b13c 23ee 1fbe 8d4e bd3d b7db db3d
000003e0: e14c 3d3d 1d5f 2a3e 85d0 6b3c df53 d63d
000003f0: f798 8d3c bdf7 e43d ea7b 99bd d1ab b73d

Generator.conv4.conv1.0.weight f4 [8, 8, 3, 3, 3]
-0.027635757 0.01451219 -0.03555972 0.0034905304 0.05148717 0.014438296 0.0015287435 0.03777541
-0.0018170015 -0.045462824 -0.017984705 -0.088866085 -0.077752836 -0.019360034 -0.02045322 0.091408454
0.029224616 0.058110345 0.038505353 0.037741616 0.07587349 0.03844255 -0.1172562 0.027451808
-0.057735857 -0.03849284 0.02636125 -0.03471649 0.043510787 0.082350306 -0.0027655489 0.067299925
0.05804957 -0.09712764 0.06866687 -0.029341344 0.0032585172 -0.024754694 -0.04081463 -0.0010802454
-0.031033589 -0.06382431 -0.0034934343 0.04314833 0.04488264 0.06785426 -0.039951697 -0.02590921
0.05520247 -0.033262733 0.00960811 0.0729436 0.05027786 0.027725233 -0.11231212 -0.1255991
-0.099382706 -0.03408293 0.037186377 -0.04882555 0.04753143 0.0449002 0.011482309 -0.007407144
-0.16895375 -0.057243153 0.019956417 -0.06876179 -0.06193419 0.01262082 0.069624834 -0.00823981
0.07975196 -0.017915243 -0.004362669 0.0048614116 -0.12539868 0.033434972 -0.010232188 -0.049556337
0.017038636 0.02220471 -0.015990041 -0.04557221 -0.0022557352 -0.025865931 -0.07660146 0.04027154
0.032654695 0.070730045 0.023598483 -0.051697806 -0.030931707 0.007445799 -0.068962984 -0.02851603
0.10468637 0.10609621 0.052137654 -0.028956966 -0.081513815 -0.06592363 -0.015516589 0.006797452
-0.1224367 0.083376385 0.012092753 0.0061908215 -0.09915692 -0.08260336 0.010137469 -0.026064025
0.03861548 0.047314238 0.0077413437 0.05037471 0.020955186 -0.000317976 -0.02292449 0.037663393
-0.032916054 0.003832214 0.03941104 0.02981358 0.005946247 -0.011074222 0.08469742 -0.02025758
0.045942508 0.012616302 -0.0020311812 -0.032290947 -0.002011729 0.036015432 0.0463796 -0.035769034
0.04754164 -0.10102516 0.023344 0.115191825 0.01439321 0.06459528 0.050930068 -0.048043933
0.00892397 0.009276132 -0.041794762 -0.02073789 -0.06297777 0.0036358135 0.025382401 0.018775236
-0.019289708 0.050815597 -2.9529041e-05 -0.025162507 0.014782806 -0.044621482 -0.04497551 0.011212796
-0.05743478 -0.010793988 -0.12412368 -0.013909642 -0.10602953 -0.0015481439 0.1109621 0.09767336
-0.0023723128 0.03522579 0.018839244 -0.09353512 -0.023508782 0.009072477 -0.0054910323 -0.124962434
0.002312415 0.07508231 0.06695809 -0.011089507 0.08082163 0.106744595 0.019262664 -0.07021732
-0.030309534 0.006530541 -0.068117715 -0.023187552 -0.0064963866 -0.048192963 -0.058832355 -0.09025935
-0.014208238 0.014179324 -0.025329776 0.01095839 -0.0074744895 0.022308134 0.025202272 -0.09811151
0.018178865 0.023720112 -0.066564016 -0.032267157 0.081008315 0.07181448 -0.0435041 0.040093143
0.025393838 -0.07873661 0.008736706 -0.082414575 -0.11603378 0.01981906 -0.0038438104 0.025061442
-0.02136445 0.0823901 0.051545136 0.021430006 0.10665635 0.0498288 -0.037397422 0.030360643
0.062337376 0.056715548 0.04870073 -0.0046097212 -0.046025515 0.035333786 0.045535926 0.009711833
0.01987975 0.02930353 0.0035510347 -0.07313044 -0.040401783 0.044707853 -0.09516291 -0.11773886
0.06683764 0.023744898 -0.0640564 -0.051366914 0.072011255 0.07216341 -0.07915359 0.11106525
0.08658877 0.0029005494 -0.10210896 -0.030837545 -0.002693022 0.03890354 0.025553182 -0.020395942
00000000: 6264 e2bc 89c4 6d3c 12a7 11bd 62c1 643b
00000010: 36e4 523d 9a8e 6c3c 1f60 c83a 63ba 1a3d
00000020: 7428 eeba 3a37 3abd a954 93bc 6cff b5bd
00000030: e13c 9fbd ef98 9ebc 838d a7bc 5b34 bb3d
00000040: 7668 ef3c 1d05 6e3d cab7 1d3d f496 1a3d
00000050: 8f63 9b3d ef75 1d3d 0524 f0bd 9de2 e03c
00000060: 6f7c 6cbd abaa 1dbd 8cf3 d73c e132 0ebd
00000070: 5e38 323d 47a7 a83d 363e 35bb 8bd4 893d
00000080: 63c5 6d3d dbea c6bd 37a1 8c3d 425d f0bc
00000090: d98c 553b 5bca cabc 3e2d 27bd 0597 8dba
000000a0: 273a febc 52b6 82bd 1af2 64bb 4ebc 303d
000000b0: dcd6 373d 2df7 8a3d 64a4 23bd 8d3f d4bc
000000c0: fc1b 623d 813e 08bd 566b 1d3c 7463 953d
000000d0: 28f0 4d3d 0720 e33c e603 e6bd 0d9d 00be
000000e0: 2989 cbbd 8b9a 0bbd be50 183d 4dfd 47bd
000000f0: 51b0 423d 46e9 373d 4b20 3c3c a1b7 f2bb
00000100: 3602 2dbe cc77 6abd a47b a33c fbd2 8cbd
00000110: b5ae 7dbd 8ec7 4e3c 7797 8e3d 4500 07bc
00000120: ff54 a33d fdc2 92bc b8f4 8ebb 7a4c 9f3b
00000130: 8368 00be 1cf3 083d e8a4 27bc 96fb 4abd
00000140: 9c94 8b3c a7e6 b53c 8cfd 82bc eda9 3abd
00000150: f5d4 13bb cae4 d3bc 3ae1 9cbd c5f3 243d
00000160: eec0 053d eada 903d 9b51 c13c 14c1 53bd
00000170: 7e64 fdbc e4fb f33b 773c 8dbd 739a e9bc
00000180: cf65 d63d f848 d93d 4b8e 553d 2937 edbc
00000190: b7f0 a6bd f802 87bd 4b39 7ebc 29bd de3b
000001a0: 18c0 fabd 3dc1 aa3d af20 463c 60dc ca3b
000001b0: c912 cbbd f32b a9bd a017 263c 3984 d5bc
000001c0: 442b 1e3d 93cc 413d 19ab fd3b b655 4e3d
000001d0: 36aa ab3c 04b6 a6b9 24cc bbbc ee44 1a3d
000001e0: fcd2 06bd e225 7b3b 786d 213d 9c3b f43c
000001f0: bcd8 c23b a770 35bc d775 ad3d 39f3 a5bc
00000200: 362e 3c3d 9bb4 4e3c 911d 05bb 8343 04bd
00000210: 36d7 03bb eb84 133d 89f8 3d3d 8d82 12bd
00000220: 06bb 423d 47e6 cebd eb3b bf3c b1e9 eb3d
00000230: 80d1 6b3c 884a 843d 0c9c 503d b7c9 44bd
00000240: d835 123c ebfa 173c fc30 2bbd 82e2 a9bc
00000250: 7dfa 80bd d446 6e3b c1ee cf3c 86ce 993c
00000260: 7305 9ebc 0424 503d 22b5 f7b7 9a21 cebc
00000270: 9533 723c 04c5 36bd 3e38 38bd e0b5 373c
00000280: bb40 6bbd 44d9 30bc 8e34 febd 44e5 63bc
00000290: 0326 d9bd 17eb caba 1940 e33d f808 c83d
000002a0: ce78 1bbb eb48 103d c254 9a3c 578f bfbd
000002b0: 7d95 c0bc baa4 143c 1eee b3bb 4eec ffbd
000002c0: e38b 173b c1c4 993d 5321 893d c3b0 35bc
000002d0: d085 a53d e99c da3d bccc 9d3c 19ce 8fbd
000002e0: b34b f8bc 26fe d53b 4d81 8bbd d2f3 bdbc
000002f0: a4df d4bb fc65 45bd 32fa 70bd e5d9 b8bd
00000300: abc9 68bc 6550 683c 6480 cfbc d28a 333c
00000310: 90ec f4bb 8cbf b63c ff74 ce3c b0ee c8bd
00000320: d8eb 943c ae50 c23c b752 88bd 912a 04bd
00000330: b0e7 a53d 7813 933d 5b31 32bd b538 243d
00000340: bd06 d03c a940 a1bd 6724 0f3c f9c8 a8bd
00000350: 1ea3 edbd 955b a23c 70e8 7bbb a74d cd3c
00000360: 8004 afbc 24bc a83d fe20 533d fb8d af3c
00000370: a56e da3d 4919 4c3d 0a2e 19bd e2b6 f83c
00000380: 7a55 7f3d 904e 683d 6b7a 473d 250d 97bb
00000390: 4085 3cbd 29ba 103d e183 3a3d 611e 1f3c
000003a0: dcda a23c f50d f03c 7ab8 683b 6ac5 95bd
000003b0: 577c 25bd 951f 373d c6e4 c2bd 1221 f1bd
000003c0: 2ce2 883d a984 c23c 0030 83bd 1d66 52bd
000003d0: a37a 933d 69ca 933d 471b a2bd 2e76 e33d
000003e0: 7455 b13d 2517 3e3b 811e d1bd 059f fcbc
000003f0: 697d 30bb 5159 1f3d e854 d13c 6415 a7bc

Generator.conv4.conv2.0.weight f4 [8, 8, 3, 3, 3]
0.035770047 0.29142198 -0.07631996 -0.13516463 -0.0692834 -0.009353402 0.075852886 0.052448172
0.1880594 -0.03034532 0.13444854 0.020030754 0.009888971 -0.051165283 -0.06873825 0.102351524
0.24361531 0.107522085 -0.016426817 0.04113591 -0.04681961 -0.03884308 -0.025541285 0.066096455
0.050224844 0.14174326 0.072298385 -0.021484157 -0.097730696 0.15816948 0.04909806 0.10714613
-0.03177274 0.086351775 -0.0072961194 -0.007089471 0.02047119 -0.07026358 0.045348078 -0.035143964
0.15688415 0.019224655 -0.045193285 0.09711406 -0.11373843 0.03752746 0.012472018 -0.043653548
-0.017233567 0.01565518 -0.1163411 0.034492902 0.17382307 0.009635167 -0.16626707 -0.05058524
0.18538518 -0.1473455 -0.14528042 -0.027907044 -0.02609741 0.12960942 0.12733287 -0.4982888
-0.11552817 0.12737814 -0.15475112 -0.060556937 -0.0038148288 0.072799586 0.10156966 0.15285753
-0.07631882 -0.12002891 0.015079488 -0.16004287 -0.08330868 -0.04287981 -0.023441728 0.2350286
0.15699172 -0.029143218 -0.042042866 0.051760975 -0.038914997 -0.02045293 -0.05794636 0.106177926
-0.032612946 -0.09473774 -0.004580959 0.04413053 -0.006893481 0.05264872 0.06571597 0.040244333
-0.079680614 0.0047932793 -0.07682372 0.06371185 0.015237273 -0.05115348 0.18238968 0.080394804
0.022651816 -0.07171517 -0.07401821 -0.09355285 -0.09267176 -0.00206773 -0.2476552 0.016339308
0.12912464 -0.102022104 -0.035179764 -0.07613387 -0.13068464 -0.12826215 -0.07859803 -0.0063415854
-0.032619875 -0.18961093 -0.07518172 -0.054333735 -0.114860006 0.016964646 -0.092947505 0.06902745
0.159366 0.015556633 -0.20714448 -0.12945816 0.034265403 -0.13685967 -0.11770053 0.11088392
-0.06395763 -0.048931077 -0.039674256 -0.11821083 -0.14292386 -0.055105064 0.08392861 -0.030213298
0.12330956 0.012378999 -0.0012706415 0.18977816 0.07602488 0.021072647 0.12403144 0.10553539
-0.027580563 -0.37319213 -0.24731053 -0.15195633 -0.1604188 0.064123526 0.12850899 -0.1639319
0.046385996 0.08636731 0.02608922 0.009735345 -0.15768474 -0.005292646 -0.08620627 -0.043151166
0.0021450692 0.030424325 0.14333041 -0.09013938 -0.08371732 -0.14783223 -0.17615075 -0.17940298
0.016845852 0.08710206 0.069022946 0.03890274 -0.03630014 0.017840499 -0.13285223 -0.29107398
0.010735255 -0.060941324 -0.24267368 0.1314248 -0.038047828 -0.020796686 -0.0065363697 -0.0035739446
-0.038792413 -0.23125903 9.306532e-05 -0.031667035 -0.104325116 0.00077189936 0.01727367 -0.033268917
0.09648339 -0.014235419 -0.074994676 0.032828674 0.047842953 -0.04781209 0.02004641 0.10555933
0.00785772 0.12647587 0.08095033 -0.032858644 0.038253307 0.119498156 0.024394244 0.013185866
-0.06436324 0.08623514 -0.02304375 -0.17870459 -0.1641364 0.14397699 0.0012379478 -0.0850315
0.099666685 -0.10917119 0.052178968 -0.09800588 -0.014665447 -0.08329684 0.066738 0.09779261
-0.05490462 0.054857086 -0.048677366 0.079701744 -0.074880175 -0.010614218 0.11601931 0.11197809
0.045000687 0.022280166 0.076393925 -0.04174993 0.054443255 -0.1067428 -0.00835931 0.268714
-0.02441002 -0.1278851 0.043146327 0.17219481 0.020724658 0.084095724 0.08673384 0.031174056
00000000: 9d83 123d 4335 953e a44d 9cbd 9968 0abe
00000010: 75e4 8dbd 033f 19bc c258 9b3d e5d3 563d
00000020: a592 403e c096 f8bc e1ac 093e 8917 a43c
00000030: 5a05 223c b092 51bd a4c6 8cbd ad9d d13d
00000040: 4b76 793e 8a34 dc3d 8891 86bc 217e 283d
00000050: ebc5 3fbd ec19 1fbd f53b d1bc 945d 873d
00000060: 91b8 4d3d 2525 113e 2d11 943d 8bff afbc
00000070: 0827 c8bd 2ef7 213e 0c1b 493d 6e6f db3d
00000080: 2224 02bd 33d9 b03d 4914 efbb cb4e e8bb
00000090: 32b3 a73c 5ae6 8fbd e8be 393d 1ef3 0fbd
000000a0: 3da6 203e 067d 9d3c 981c 39bd bce3 c63d
000000b0: b2ef e8bd 65b6 193d 6f57 4c3c 10ce 32bd
000000c0: 692d 8dbc 4b3f 803c 3e44 eebd 6e48 0d3d
000000d0: adfe 313e d2dc 1d3c ea41 2abe 7832 4fbd
000000e0: 9dd5 3d3e bde1 16be 64c4 14be 509d e4bc
000000f0: 3cca d5bc 55b8 043e 8c63 023e b61f ffbe
00000100: 089a ecbd 6a6f 023e 1477 1ebe 8d0a 78bd
00000110: 3502 7abb f317 953d c103 d03d af86 1c3e
00000120: 0b4d 9cbd b8d1 f5bd f50f 773c 47e2 23be
00000130: be9d aabd bda2 2fbd de08 c0bc 56ab 703e
00000140: 70c2 203e c2bd eebc 2435 2cbd 5103 543d
00000150: 5565 1fbd e78c a7bc 2a59 6dbd d073 d93d
00000160: 2795 05bd dc05 c2bd df1b 96bb 37c2 343d
00000170: b6e2 e1bb 2fa6 573d 1896 863d 3ed7 243d
00000180: 972f a3bd f110 9d3b c155 9dbd 5c7b 823d
00000190: c1a5 793c 5086 51bd 5cc4 3a3e 08a6 a43d
000001a0: 4d90 b93c 67df 92bd dc96 97bd a398 bfbd
000001b0: b1ca bdbd c182 07bb 5399 7dbe 03da 853c
000001c0: 4039 043e f7f0 d0bd a818 10bd 13ec 9bbd
000001d0: 32d2 05be 2757 03be 01f8 a0bd 13cd cfbb
000001e0: 6b9c 05bd 5e29 42be e0f8 99bd 0d8d 5ebd
000001f0: b93b ebbd 71f9 8a3c 435b bebd 445e 8d3d
00000200: d730 233e 3fe1 7e3c af1d 54be ae90 04be
00000210: e159 0c3d f124 0cbe fa0c f1bd 1c17 e33d
00000220: 38fc 82bd f46b 48bd 7981 22bd 8518 f2bd
00000230: a25a 12be d9b5 61bd c3e2 ab3d e181 f7bc
00000240: b989 fc3d 49d1 4a3c a78b a6ba 3555 423e
00000250: efb2 9b3d 8ba0 ac3c 3204 fe3d f022 d83d
00000260: a2f0 e1bc 0a13 bfbe f93e 7dbe 719a 1bbe
00000270: d344 24be 3253 833d dc97 033e c4dd 27be
00000280: 3eff 3d3d 58e1 b03d 0fb9 d53c ff80 1f3c
00000290: 1c78 21be ef6d adbb ea8c b0bd 47bf 30bd
000002a0: 4a94 0c3b 6f3c f93c 35c5 123e ff9a b8bd
000002b0: fc73 abbd 5561 17be dd60 34be 6ab5 37be
000002c0: 5000 8a3c 9162 b23d e75b 8d3d 7b58 1f3d
000002d0: 75af 14bd 3d26 923c 6a0a 08be a607 95be
000002e0: ece2 2f3c 9c9d 79bd 737f 78be 3994 063e
000002f0: 0ad8 1bbd d05d aabc 0b2f d6bb d738 6abb
00000300: cbe4 1ebd 2bcf 6cbe 102c c338 4bb5 01bd
00000310: 68a8 d5bd 4a59 4a3a 8381 8d3c fd44 08bd
00000320: 1599 c53d ad3b 69bc cf96 99bd 5c77 063d
00000330: f9f6 433d 9cd6 43bd 5e38 a43c 7d2f d83d
00000340: abbd 003c e482 013e 49c9 a53d c996 06bd
00000350: 80af 1c3d 73bb f43d 70d6 c73c 8809 583c
00000360: e0d0 83bd 0d9c b03d 3fc6 bcbc 56fe 36be
00000370: 5f13 28be b46e 133e a342 a23a ff24 aebd
00000380: 0c1e cc3d 2595 dfbd 9db9 553d 4fb7 c8bd
00000390: 5847 70bc 8997 aabd efad 883d 7e47 c83d
000003a0: abe3 60bd d3b1 603d eb61 47bd ab3a a33d
000003b0: c75a 99bd 42e7 2dbc 889b ed3d c554 e53d
000003c0: a452 383d e584 b63c 6b74 9c3d f901 2bbd
000003d0: e4ff 5e3d f89b dabd 7df5 08bc e294 893e
000003e0: 86f7 c7bc 50f4 02be 34ba 303d d653 303e
000003f0: c2c6 a93c 613a ac3d 83a1 b13d bc60 ff3c
