DeepWonder3D_pytorch/pth/SEG_pth/Unet4_no_end_UNet3DFFD_20240401-1432_2um/seg_199.pth (torch, 138281 bytes, 19 tensors)

Generator.conv1.conv1.0.weight f4 [8, 1, 3, 3, 3]
00000000: 2097 e53d ed3c c93d 2479 65bd 26ec 0f3e
00000010: 89f9 f8bd e5f1 fcbd 5be4 193b 9008 953a
00000020: b365 cc3d b1c7 153d 0654 23be 7cf0 b63d
00000030: 24e2 003e 0c31 da3d 7bea 0f3d fbb9 40be
00000040: 05c6 b63d 27ee 4fbe 4a1c e7bd b6ce e8bd
00000050: 0aa5 74bd c2c5 0a3d b899 50bd 3736 733d
00000060: d439 5abe 0803 c03c 20af 1d3e f80d 1f3e
00000070: 40a0 1d3e 737c 663c b7f0 ae3d 596f 09be
00000080: d743 3bbe 4d6f 0d3e 6049 b63c e6f0 a3bd
00000090: 7a85 ecbd 2601 203e 325e 36bd b5b3 04be
000000a0: 0f34 9fbd 7a82 fb3b 81f6 47be 8ad5 59be
000000b0: 81bf 92bc 2f38 f33d 9bc1 023d a6ce 513e
000000c0: 48cc 303e 42f8 b2bd a21e 243e bbc2 bd3d
000000d0: d3ae 01be db2b 9dbd c5dd 893d 20c5 1dbd
000000e0: 6287 f0bd da24 eb3c 1615 ce3d a517 c6bb
000000f0: c8aa 25be b86c e8bd 04c0 78bd a41f 143d
00000100: a9a8 c33d 4fd1 893c 939d 37bd 4757 1c3d
00000110: c84e 923d 092f 623d e005 843b 470e 0a3c
00000120: b807 22be ff72 2f3d a791 393d 42a2 03bb
00000130: 87fa 8bbd 21e8 bb3d 85e4 bcbe f162 723c
00000140: 7e1f 7fbe 5aee babd 323b 19be 0cca 1f3e
00000150: 5cdf 4abe ac2b 96bd 4b84 b5bc f5a4 a43d
00000160: fede eabd 226a 603d ee29 54be 7142 74bd
00000170: 1bd3 d63c 0499 d03d 4716 4bbe b0b6 27be
00000180: 9d38 16bd 9ca4 ff3d 470c b23d 64e8 60bd
00000190: ca7a 803d 306e b93d 0928 84bd 67a3 6f3d
000001a0: db09 a13d 67b8 7c3c bb70 27be 21da 63be
000001b0: 28d0 273e 3a8a 2abe 0ee3 64bd cdec 03be
000001c0: de58 0fbd c9f3 103c 3e3e 20bd a0bd 753d
000001d0: 44f4 243d 851e 79bb cc72 b63d 184d 43be
000001e0: 8ac5 57bd fc5d 24bd 773d 8bbb 1e06 e73d
000001f0: ecf9 943c 85ed fa3d 3093 39be 617d 8c3d
00000200: f143 dc3d d418 c23d 9ce3 fa3c 43d5 e0bd
00000210: 173b 1dbe a9bd acbd 0cb0 d33d 1e1e 133d
00000220: 1cbc dabd 74fd f83d ad3a df3d 3800 8ebd
00000230: 0f4c 04be b347 3fbe bd7e 373e f71e 893c
00000240: 9073 a9bd e9ac 3dbe 9316 823d ac38 c33d
00000250: fcce 2dbe 1386 59be 5ea2 9bbd 0700 973d
00000260: f4d3 163e fd95 edbc 209e 14bd 770b f83d
00000270: 5acd b13c 0944 293e 077d b0bd 35f0 06bb
00000280: 0442 3cbd 2004 463e 58a8 5bbe 305c 283e
00000290: ca07 a3bd ab30 af3d 71d6 8a3b aca9 4abd
000002a0: 186d fc3c 1bbc abbc e69c 663d 3cb1 713d
000002b0: 0ab8 89bd 2efe 653e 6b8a 52be e300 a9bd
000002c0: bb6d bb3c 8aea 65bd ac8d f43d b657 2f3d
000002d0: 556b 95bd 9871 57bd ee4c d03d 0d15 14be
000002e0: 93dc 563d 160c d03d 723c 00be 242a 00bb
000002f0: ab0a 233e c6f3 42bd 2abe 053e 183f 933c
00000300: 5000 343d 84f2 db3d 03e7 55be 4757 86bd
00000310: 5c75 4d3b f1b4 fd3d a9d3 ffbc 08cc 9abd
00000320: 1262 49bd f60f 4dbe 5aa5 0d3e e0c0 bfbd
00000330: 1666 a8bd c14e 2d3e ec67 cb3c 88a2 8ebd
00000340: 47d2 f4bc 264b 44bc c622 5bbe 712c c53d
00000350: 8e2d dabd aa03 3abe acf0 aabd ccee d43d
0.112104654 0.09826074 -0.05602373 0.14054927 -0.1215697 -0.12350825 0.0023482058 0.001137035
0.09980335 0.036567394 -0.15950021 0.089325875 0.12586266 0.10653886 0.035135727 -0.18820946
0.08924488 -0.20305692 -0.112846926 -0.11367552 -0.059727706 0.033880003 -0.050927848 0.059377875
-0.21311122 0.023438945 0.15398836 0.15532672 0.15393162 0.014067757 0.085420065 -0.13421382
-0.18287598 0.13811989 0.022251785 -0.08004932 -0.11548896 0.15625438 -0.044523425 -0.12959178
-0.07773601 0.007675466 -0.19527628 -0.21272865 -0.017913582 0.118759505 0.031922918 0.20488986
0.17265427 -0.08738758 0.1602731 0.092656575 -0.12664346 -0.076743804 0.06731752 -0.03851807
-0.11744572 0.028704096 0.100626156 -0.006045299 -0.16178429 -0.113488615 -0.060729995 0.036162987
0.09553654 0.016823439 -0.04482801 0.03816917 0.071439326 0.055220637 0.0040290207 0.008426256
-0.15823257 0.04283428 0.04530492 -0.0020085727 -0.06834894 0.091751345 -0.36893097 0.014794097
-0.24914357 -0.09127493 -0.14963987 0.15604419 -0.19811767 -0.073325485 -0.022157809 0.080392756
-0.11468314 0.054788716 -0.2071912 -0.059633676 0.02622371 0.101854354 -0.19832717 -0.16378284
-0.036675084 0.124825686 0.08693748 -0.054909125 0.0627342 0.0905422 -0.064529486 0.058505442
0.07863208 0.015424824 -0.16351597 -0.22251178 0.16387999 -0.16654292 -0.0558806 -0.12883301
-0.03499686 0.008847185 -0.03912186 0.059995294 0.040272012 -0.0038012576 0.089086145 -0.19072378
-0.052678622 -0.040128693 -0.0042492705 0.11280464 0.018185578 0.122523345 -0.18122554 0.06859852
0.10755146 0.09477392 0.03062611 -0.109781764 -0.15354572 -0.08434612 0.10336313 0.035917394
-0.1068041 0.12157717 0.108998634 -0.069336355 -0.12919639 -0.18679695 0.1791944 0.016738398
-0.08273995 -0.18522991 0.06351962 0.09532294 -0.1697349 -0.21242552 -0.075993285 0.07373052
0.14729291 -0.029002184 -0.036283612 0.12111562 0.021704365 0.1652986 -0.08617597 -0.0020589952
-0.045961395 0.19337511 -0.21450937 0.16441417 -0.0796047 0.085542046 0.004236989 -0.049478218
0.030813739 -0.02096372 0.056301974 0.059006914 -0.06724556 0.22460243 -0.20560615 -0.08252122
0.022879472 -0.056131877 0.11941084 0.042808257 -0.072958626 -0.052598566 0.10170923 -0.14461155
0.05245645 0.10158555 -0.12523058 -0.0019556368 0.15922038 -0.04759576 0.13060823 0.017974421
0.04394561 0.107396156 -0.20888905 -0.065596156 0.003135047 0.123880275 -0.031228857 -0.07558447
-0.049165793 -0.2002562 0.13832608 -0.0936296 -0.08222596 0.16924573 0.024829827 -0.06964594
-0.029885424 -0.011980807 -0.21399984 0.09627617 -0.1065322 -0.1816546 -0.08346686 0.103971094

Generator.conv1.conv2.0.weight f4 [8, 8, 3, 3, 3]
00000000: 9cdf f53d 01d5 403d 5601 743d 0d0c 853b
00000010: 3012 1ebd 919e 1c3d c8e6 3a3e d73a 133e
00000020: 0ebb 953e 7928 193c 331a 3b3c 5908 c63c
00000030: 3bd5 133d fd64 c03d 52a0 5dbc e3f0 903d
00000040: ad60 73bc 833d 023e 7fae 0b3d 2692 133e
00000050: 5202 0c3e 67a1 053e b224 263e 73fd 103e
00000060: 340c 123e c6bb 213e 09e8 363e a188 10be
00000070: 9c54 61bd 450c 28be 6398 76bd 7d4b 30bd
00000080: a82b 47be 2d14 c4bc c763 8a3d 62f8 a9bd
00000090: 294f f4bd f9f2 253e e89a 41be e8de 67bd
000000a0: c4e4 f23d 2fc4 cfbe 4932 3bbd 5cb2 893d
000000b0: b5ca b33c 36f8 f93c 29d4 4b3e ca66 99be
000000c0: 9cf0 75bd 5cad 043e 85e4 ccbe 5448 bebd
000000d0: 9cfd 933c 6529 b93b c1b8 db3d 7720 b53c
000000e0: e72c f03c 4094 0b3a 9266 4dbd 5a74 9dbc
000000f0: f8fa 613d e772 8f3c 9ceb 23bd 7b0a 173e
00000100: 29a1 8d3c c9ea 0e3c 76b7 9a3c f447 2f3d
00000110: 2894 ce3d 5ca2 f63d 0f32 2b3d f15a 543d
00000120: 05f5 4e3d 0592 153c cc35 c63d 8226 a2bd
00000130: 8ec0 183c 16e5 953c 1a16 bc3d 398e c73d
00000140: ae85 773d e056 c4bc 4559 7d3d 17fb 293d
00000150: ac62 0f3e 7363 063b ae29 cebb 4d07 063c
00000160: c052 23bd 1fd0 0e3c 817a aa3c 5ec8 913c
00000170: 329a 2e3d 309e 3abd 7960 723c 6c21 6b3d
00000180: 3427 0fbd 8bba be3c 90e7 e53c aac6 883d
00000190: 0a7e 3dbd 4e2c 47bd a646 febb c267 1c3d
000001a0: 5541 553d a202 f83c 4e68 1d3d 85f8 9c3c
000001b0: f978 223d c7d2 1bbe 1d0b f1bd b10e 15bd
000001c0: 9779 f43b f467 04be 512a e83c eb51 5f3c
000001d0: 9628 713d ac36 71bd 0eae 113d 3f9d 033e
000001e0: a87f a1bc de44 b63d dad4 df3d 1913 c5bd
000001f0: fe1f 013e 99f0 b73d cfec b2bd 075b 323e
00000200: 16ea fc3d 1347 7cbd 2b37 1d3e 1c38 4539
00000210: d86b 84be 00cd d03d f563 1f3c df7e 973b
00000220: 151f 333e 848c 623d 50eb 0ebd 4925 4a3d
00000230: 9113 7fbd eed7 283d ac87 1dbe 7b97 82bd
00000240: eaa9 34be 3aa3 2c3e 85a2 833d 8d3e 9abd
00000250: ba73 b43d bb0a fabb ba06 c8ba a5ab 49bc
00000260: f9a1 dbbd c83f 58bd 218b 3b3e 8335 ea3d
00000270: 4308 11bd f8d1 433e 1381 b63d 460a c6bd
00000280: 1c6a 26bd e52b 88bc 8309 743d 0d26 dabd
00000290: fe33 0abe 3479 6f3d 0c5c 8fbd f76f 9bbd
000002a0: b628 023e 9bdf 1fbe 6e13 0f39 caac 3f3d
000002b0: e122 29be f16c ccbc 34dc d33c d1fe 8dbc
000002c0: 64b5 97bd b499 53bd 5de3 0fbe 9bc7 82bc
000002d0: 036b 233d 46d9 48bd 72be da3d 81fd 7cbc
000002e0: 305e c03d 13cc a53d 6ce3 93bd 6f03 9cbe
000002f0: 32c7 05bd 1e41 dfba e04a 90bd f3b2 8a3b
00000300: 7a3c 443d 584d e83c 8274 373d cf3f 5c3d
00000310: 090f 8dbd d29b 2e3c 45ba a63b c567 6ebe
00000320: f482 253d 3a7b 393a 7fae 3cbe 02bd cb3d
00000330: 4546 b13d 7192 85be 2f1c 4f3d 4a14 e1bd
00000340: bbbb af3d fad4 1fbe 31cf 1fbe 4dd3 113e
00000350: 58fb 1dbe e2d3 61be 59b3 7a3d ed4b f8bd
00000360: 1a84 4a3e e379 673e 333f 8b3e 8f6e 313a
00000370: c0dd 8d3d 3f80 023e 6f6a 8f3e 51b8 903e
00000380: b0be 853e 8228 ff3d 80d2 733d 53ec 3a3e
00000390: 0e12 f43c 96c1 863d c314 5b3d 9553 893d
000003a0: a185 5739 6fd4 983d d50a 8b3d 4e4c b93d
000003b0: 617d cb3c bbf9 c73d 3ed0 a23d 52ab a33d
000003c0: 5309 883d 2da6 7c3a 1531 d13d c8d5 a0bd
000003d0: 8391 59bd b182 44bd 69d0 54bd 1bae b3bd
000003e0: 931b c93b f704 c03c 17ba 103b 1007 9839
000003f0: e4f4 973d 3d72 86bc 8fde d0bb 621b 943d
0.12005541 0.047078136 0.059571587 0.0040602745 -0.038591564 0.03823716 0.18252099 0.14377914
0.29244274 0.009348028 0.011419821 0.024173902 0.036092024 0.09394262 -0.013526993 0.070771955
-0.014854592 0.12718777 0.03410196 0.1441122 0.1367276 0.13049851 0.16224936 0.14159183
0.14262468 0.15794286 0.17861952 -0.1411462 -0.05501233 -0.1641093 -0.06020392 -0.04304074
-0.19450247 -0.023935402 0.06757312 -0.082993284 -0.11929161 0.16205968 -0.18906748 -0.056609064
0.1186004 -0.40579364 -0.045702253 0.067234725 0.021947244 0.030513864 0.19905151 -0.29961234
-0.060043916 0.12956756 -0.40018097 -0.09291139 0.018065266 0.0056506866 0.107285984 0.022110207
0.029318286 0.000532452 -0.050146647 -0.01922052 0.055170983 0.017510844 -0.040019616 0.14750092
0.017288761 0.008722969 0.01888631 0.04279323 0.10086852 0.12042686 0.041795786 0.05184454
0.050526638 0.009129052 0.0967823 -0.07917501 0.009323252 0.018297713 0.09183903 0.09743924
0.06043022 -0.023967206 0.061852712 0.041499224 0.14002484 0.0020506054 -0.0062915897 0.008180452
-0.03987384 0.008716612 0.020810368 0.017795738 0.04262752 -0.045561016 0.014793509 0.05740492
-0.034949496 0.02328231 0.02806452 0.06678517 -0.04626278 -0.048626237 -0.007759887 0.03818489
0.05206426 0.030274693 0.03842955 0.019161472 0.03966615 -0.15217124 -0.11769698 -0.036390964
0.0074607837 -0.1293028 0.02834049 0.013630371 0.058876596 -0.05889003 0.035566382 0.12852953
-0.019714192 0.08899854 0.1092927 -0.09622783 0.1260986 0.08981437 -0.08736574 0.17417537
0.12349336 -0.06159122 0.15353076 0.00018808286 -0.25863528 0.10195351 0.009728421 0.0046232785
0.17492326 0.055309787 -0.03489238 0.049351964 -0.06227452 0.04122155 -0.15383786 -0.06376549
-0.17642942 0.16859141 0.064274825 -0.07531462 0.088111356 -0.0076306737 -0.0015260794 -0.01230899
-0.10724253 -0.0527952 0.18314792 0.11435988 -0.03540827 0.19123065 0.08911338 -0.09669928
-0.040628538 -0.016622493 0.059579384 -0.10651789 -0.13496396 0.058465198 -0.069999784 -0.07589715
0.12710842 -0.15612642 0.00013644781 0.046795644 -0.16517211 -0.024954291 0.025861837 -0.01733342
-0.074076444 -0.051660255 -0.14051576 -0.01596432 0.039896976 -0.049035333 0.10680856 -0.015441299
0.09392965 0.08095565 -0.07221112 -0.3047137 -0.03266067 -0.0017032956 -0.07045531 0.004232758
0.047909237 0.028357193 0.044788845 0.05377179 -0.06887633 0.010657268 0.005088123 -0.23281772
0.04040809 0.0007075552 -0.1842594 0.0994816 0.08655981 -0.26088288 0.050563987 -0.10990198
0.085807286 -0.15608588 -0.15606381 0.14240761 -0.15427911 -0.22053483 0.061206196 -0.12123857
0.19776955 0.2260509 0.27196655 0.00067684887 0.06927061 0.12744235 0.2801089 0.28265622
0.26122046 0.12458898 0.05952692 0.18254213 0.029793765 0.06579892 0.053486597 0.06705395
0.00020553778 0.074623935 0.067891754 0.09047757 0.024840059 0.09764429 0.07949875 0.07991661
0.066424035 0.0009637799 0.1021444 -0.078532755 -0.053117286 -0.0479762 -0.051956568 -0.08773442
0.0061373203 0.023439867 0.0022083574 0.0002899696 0.07419756 -0.016411895 -0.0063741873 0.07231785

Generator.conv2.conv1.0.weight f4 [8, 8, 3, 3, 3]
00000000: b4db b23d 58bf a4bc 786a 67bc 680a 733e
00000010: 6e94 c63d ccdc 7cbd d9ae 36be 4b25 7abb
00000020: 625e 853d 964e 94bd 5442 21bd eb1e ba3b
00000030: 56b2 a7bd 0a8c 203c 60cf e13c 05e2 05bd
00000040: 029c 98bd d83f a93d 642c 8e3c 28c6 64bd
00000050: f2fc 88bc b43e 9abb f8b8 34bd c8ad 103d
00000060: 0cab ce3c 54d3 a7bc d8cc 7f3d 9c9b 423d
00000070: 68db 13bd bcd4 6cbd 43e3 bdb9 2899 3dbc
00000080: 3698 1ebd f5e9 5c3d 66f4 903d d58c c63b
00000090: 1ec8 20be 88a8 0cbe 7110 a7bd 78a4 bdbd
000000a0: fa40 88bd b86a 85bd 3c1b d63d da92 44bc
000000b0: 173e 01bd 9447 47bd 8e88 81bd 48a4 29be
000000c0: 2831 a73a e703 84bd a057 d0bd 7a07 a73d
000000d0: 94a5 9fbb 85fd 6cbd c439 013b a33e 963d
000000e0: 17bc 223e fa03 fa3c 5a15 c03c b736 433e
000000f0: f0f3 13bd 6953 45bd 1103 143d 4a03 d8bd
00000100: 87a7 b13c 0ad2 683d e0a2 66bd a6c0 8b3a
00000110: 4ebf ac3d d5b5 35be 227d 11bd 17fb fa3c
00000120: 08a8 b6bd d0de 00bc 1c41 a03d 0d9e eabd
00000130: 511f 8a3d ed15 043e 699e e1bd 5e4b 80bd
00000140: 0dff 813d 07f0 bdbb 02d2 f4bc bbb1 4f3d
00000150: 7f6b debd b827 89bd 8594 4abc 22a7 6fbc
00000160: 554e 14bd 8ad5 b83d 22de 233e 5a59 b93b
00000170: dd9b 893d 351f f23c 3432 acbc ff7b 733c
00000180: d012 2b3c b770 5dbd 9161 063d 111b 0b3c
00000190: 7b3a 623c e0e9 8fbc db21 ddbd 6799 22bd
000001a0: 09ce 823d d8d9 93bb 28b5 26bd baa2 6e3c
000001b0: 1e7b 6e3d d3a2 523d 680b 10bd e46d 6b3c
000001c0: fa52 d9bc 222e c03c 6404 41bc f661 f7ba
000001d0: a5e2 d83c b74b 013d 5c10 4c3c 95d2 803d
000001e0: 3862 653d 3333 953d f0a7 a53d 9040 9a3d
000001f0: 68c1 a6bc 6e60 e33d c02e 23bd 1c7c e53b
00000200: e4dd 833d fe21 70bd 4d59 043d 08e4 7c3d
00000210: b836 503c e93c 14bd e99d 6cbd 6731 82bc
00000220: e298 b03d 742c fb3c c403 73bb da3f ab3d
00000230: b859 803d b0db 80bc da42 87bd 850b ebbc
00000240: 5770 41bd 40c9 b2bc abe5 b3bc 8e2b 99bd
00000250: 33ff 99bd eb0a 5ebd aa59 8abd 2d90 dbbd
00000260: defa 453d f2ba 85bd 58bb 37bd 2d75 dcbc
00000270: 4608 f1bd 2c7b 27bd 38a2 d4bd 7fc6 21be
00000280: 85a5 45be 59d1 ac3d 0f52 a23d 7be5 8e3d
00000290: df45 a43d 6f83 963d df29 213c 5623 f23c
000002a0: abd0 f73b 6832 b23d 2923 b23c 39ba a23c
000002b0: f2ff fa3a 38a2 9ebb 6381 6e3d 8349 a63d
000002c0: 5d91 c83d 9016 b23d 6a8d 333d ac8c 903d
000002d0: 5a33 6b3d d48a 5e3b 6273 a0bc b9b7 63bd
000002e0: d3e3 663d fa7e a0bc 3b04 fe3c ecba 78bd
000002f0: b17b 843c fff2 38bc 03c3 ccbc ca82 1b3d
00000300: d95b 87bd fd9c 61bd 3b19 553d bfe9 e4bd
00000310: 2ece 90bd 873d 42bb 2be5 17bd ef96 88bd
00000320: 663f 683c 9e22 b3bd 24ba 20bd 55cb 483d
00000330: 2fe6 8fbd c00a b5bd 7de4 c53d 075d b1bd
00000340: 88b9 85bd 603d 043d 8c80 bfbc adfe 8c3b
00000350: 327f 803d ce72 bcbd c743 6ebd fc76 df3c
00000360: 6a86 bdbd 1f83 03be c1ed 173e 84d7 cebd
00000370: 087e cfbb 5597 0e3d e290 813d 0d58 0ebd
00000380: 8f57 123e d4da 32bd bb37 d5bc 52c4 6b3d
00000390: d45d c8bc c97d 623c 3348 273d 6764 3d3d
000003a0: 01ac a63d fcaf a73c f8f6 743c 95ef b6bd
000003b0: a66c a9bc fa28 8e3d 2108 f83b 815d 2dbc
000003c0: 78a5 893d ac13 be3d 2978 b83c e927 01bd
000003d0: e41d c6bb a82e 623c 4920 81bd 42de 2f3d
000003e0: efc5 053d 8b93 653c d0bc 213d 6722 afbc
000003f0: 88c5 00be 3a52 f5bd 1310 8cbd 18c7 aabd
0.08733311 -0.020110771 -0.014124505 0.23734438 0.096962795 -0.061734006 -0.17840137 -0.00381692
0.06512143 -0.072415516 -0.039369896 0.0056799552 -0.08188312 0.009799013 0.027564704 -0.032686252
-0.07451631 0.0826413 0.017355151 -0.05585304 -0.016722176 -0.004707182 -0.044121712 0.03532198
0.025228046 -0.020486511 0.062451214 0.047511682 -0.036097914 -0.057820067 -0.00036218212 -0.01157216
-0.03871938 0.053934056 0.07077865 0.006059269 -0.15701339 -0.13736165 -0.08157433 -0.092598855
-0.06653018 -0.065144956 0.10454413 -0.011997903 -0.031553354 -0.048652247 -0.06324874 -0.16566575
0.0012755739 -0.06446057 -0.10172963 0.08155723 -0.0048720334 -0.057858963 0.001971827 0.07336166
0.15892063 0.030519474 0.023447681 0.19063841 -0.03612131 -0.04817525 0.036135737 -0.10547502
0.021686329 0.056840934 -0.056307673 0.0010662272 0.08434926 -0.17745145 -0.035519727 0.030637307
-0.08918768 -0.007865623 0.07824919 -0.11455927 0.067442544 0.12898989 -0.110165425 -0.06264375
0.06347475 -0.0057964358 -0.029885296 0.050706606 -0.10860347 -0.06697029 -0.012364511 -0.01462725
-0.036207516 0.09025104 0.16002706 0.0056564035 0.06719182 0.029555896 -0.021020032 0.014861106
0.010441497 -0.05406257 0.03280789 0.00849034 0.013807888 -0.017567575 -0.10797473 -0.039697077
0.06386954 -0.004512053 -0.040700108 0.014565164 0.058222882 0.051424813 -0.035167128 0.014369462
-0.026528824 0.023459498 -0.011780832 -0.0018873799 0.02647526 0.031566348 0.012455072 0.06290165
0.05600187 0.07285156 0.08088672 0.075318456 -0.020355895 0.11102377 -0.039839506 0.0070033204
0.06438807 -0.058626167 0.032311726 0.061740905 0.0127083585 -0.0361909 -0.057767782 -0.015892697
0.0862291 0.030660845 -0.0037081102 0.08361788 0.062671125 -0.015729755 -0.06604548 -0.028692016
-0.047226276 -0.02182448 -0.0219601 -0.074790105 -0.075193785 -0.05420963 -0.06755383 -0.10720859
0.04833495 -0.065297976 -0.0448564 -0.026911343 -0.11769156 -0.04088895 -0.10382503 -0.15798377
-0.19301422 0.084383674 0.07925808 0.06977364 0.08021139 0.07349288 0.009836643 0.029557865
0.007562717 0.087010205 0.021745281 0.019864189 0.0019149764 -0.0048411153 0.05822886 0.0811949
0.09793351 0.0869571 0.043836035 0.07058081 0.05742202 0.003395726 -0.019586269 -0.055595133
0.056369614 -0.019591797 0.031007877 -0.060725138 0.016172262 -0.0112884035 -0.024995333 0.037966527
-0.066093154 -0.055081356 0.052026015 -0.11177396 -0.07070576 -0.0029638724 -0.037083786 -0.06669413
0.014175272 -0.08746837 -0.039240018 0.049022038 -0.07026326 -0.08839941 0.09662721 -0.08660322
-0.06529528 0.032285094 -0.023376726 0.0043028207 0.062742606 -0.09201585 -0.058170106 0.027278416
-0.09254153 -0.12842987 0.1483679 -0.100997 -0.006332163 0.03481229 0.06326462 -0.03475194
0.14291213 -0.043665722 -0.02602755 0.057560273 -0.024458803 0.013823935 0.04084034 0.04623833
0.08138276 0.020469658 0.01495146 -0.089324154 -0.02068169 0.069414094 0.0075693284 -0.010581375
0.06721014 0.09281096 0.022518234 -0.031532202 -0.0060460437 0.013805069 -0.06304986 0.04293657
0.032659467 0.014012228 0.039486706 -0.021378709 -0.12575352 -0.11978574 -0.068390034 -0.08338755

Generator.conv2.conv2.0.weight f4 [8, 8, 3, 3, 3]
00000000: 3b3b 9a3d 2304 56bd 5a7d 5e3c 265a 8f3d
00000010: e9ca b63d 05cf 823d 013d 413d b3fa 693d
00000020: f929 e53d 5a43 e23d 87c2 02bc 140e 753d
00000030: eabd a93c e13d 653c 5c60 1fbd f81e 913d
00000040: 5373 2bbd 4dca ea3c d77e 053c 9918 7cbd
00000050: 9dc9 13bd 2357 493d 859a b6bd f2b4 adbd
00000060: 882a c3bd bffc 15bd 8c42 3abd b6fa d53d
00000070: bfa2 ad3d 786d 003c e97a 4f3d c0c5 ba3d
00000080: bc58 283e 1a6d 963d 974f 683d c5c8 cd3d
00000090: a20e 8b3d 1927 643c 5aa8 eabc 8c1d c53b
000000a0: 26b9 bd3d fcf2 1f3d cd0d 69bb 25a2 85b9
000000b0: 07a2 db3d 677d e939 6eaf 6a3d 2234 92bc
000000c0: 7166 1b3d 20a3 063d 439f 0f3d e8a3 e5bc
000000d0: 9e20 8e3d 195c 153d 2cd5 5f3e c5e0 ba3d
000000e0: 7735 493d a220 14bd 8f90 d6bd c16a cebd
000000f0: 3777 6e3d f3a8 b2ba b90d 61bd e856 7cbb
00000100: 258d ccbd 258c e1b9 aeae dcbd 94ae dabd
00000110: adfc 43be 9cc0 fc3c 661c f63a ceea 21be
00000120: 376b 8dbc 2fee 67bd f7df 003e c60b 9cbd
00000130: f058 18be 8127 11bc 9e27 a83d cedd 003d
00000140: 396f 08bd e1f8 9e3d f704 9f3d 29f0 0b3e
00000150: 9557 2a3c ed35 323d 019d 163c 755b b83d
00000160: e74b 4e3c 8933 093b 3c45 1c3e 65c2 283c
00000170: ef6c 943d f0e6 90bc c65a ccbd 3b4a c4bd
00000180: 5c7b 9dbc 6796 f3bd 32f7 be3c d882 b5bb
00000190: 2128 88bd 6403 5a3d ac38 99bd 2a6b 97bd
000001a0: 4bc8 5cbd e360 7f3d 9a0e b8bd 13bf eabc
000001b0: 33d1 54bd aa9a 3bbd 1708 f9bc 686d 873d
000001c0: 736e 733d 3c81 c5bb 5968 f03d d90a 623d
000001d0: f763 503d ed47 15be 0048 f0bd d045 543b
000001e0: 1ce2 acbd d099 afbd 252c 5dbc 99af fd3c
000001f0: 1bcb 0dbd 0dc9 263d ee93 28be 8106 f1bd
00000200: b287 57bc 4a6b f53d 9933 6c3d 1a93 dbbc
00000210: 1288 ce3d c056 2bbd 5ca3 e5bd 992b e13c
00000220: ef16 36be bdf5 0dbe 0e7d 93bd b210 6fbe
00000230: 9ee9 d53b abf0 14be 13c8 34be 8deb 1c3e
00000240: 7088 a83b 3ac3 b93c 266d 79bd b1bf 86ba
00000250: 6dc6 8ebd 101e bfbd 6652 aa3d 0d66 f4bd
00000260: 268b a3bd bcc7 df3d 484b 023d 96bb b03d
00000270: f5c7 963d 0761 58bb 090b d5bd 4b35 3d3e
00000280: 1ffe 25bd 4050 173d f001 f13d fb82 ba3c
00000290: 4c0d 483e 443c 5cb9 28cd 39bd ecfd bebd
000002a0: 4c96 ae3d 8a45 9bbd 65e6 7abd be09 ad3d
000002b0: c46f 303d 3015 463e c4d7 db3d b2dc 343c
000002c0: d552 a8bc 64d4 f5bb c33a 85bc 30e9 cfbd
000002d0: 1a9b f5bc c316 eb3d fdef e23c c786 243c
000002e0: 7647 573d ef2b 0abe 5f94 633d a53d a7bc
000002f0: f5eb 05be b584 31bd 2ed6 87bd 7ac9 c8bd
00000300: 270e 9bbd b30d 9dbd 231c a6bd 63c6 22bd
00000310: a678 cbbb 35de e23c 2e99 4ebd 3da5 0e3c
00000320: 1126 3ebd 3158 8cbc 2006 76bd ec42 e9bc
00000330: 317c 463d 984e 193d 9c00 153b 9fa1 183e
00000340: a4ea f33d 7096 0b3e f41c 3e3d 84f4 c93d
00000350: ac7d 90bc e91d 1e3e 7f9e d33c cb93 55bc
00000360: 2e6d 19be 0cfc 99bd 2541 9e3c 8da2 9cbd
00000370: 1063 74bd 970f bfbd 5494 1ebe 6091 4abc
00000380: e07b aabc aa57 743d b603 4b3d 8220 d63b
00000390: 7ccd 843d 26c6 243d 0f66 743c 8f07 13bc
000003a0: 671e 4a3b e28d 4c3d ee6c 413d ac47 cc3d
000003b0: 7164 933d a806 1c3e cb35 d83d 0a8d 8f3d
000003c0: f0bf 083e eb08 c23c d029 013d 2687 0ebe
000003d0: 5e52 d9bd 2a80 293d 65c5 eebd 7f1a b5bd
000003e0: 6e85 e2bc ca55 83be b5ae e1bd 18f5 993b
000003f0: 8d27 f23c 749a fd3c c3eb 12bd eb33 e73c
0.075308286 -0.05225004 0.013579691 0.06999616 0.08925421 0.06387142 0.04717732 0.05712385
0.11189646 0.110480025 -0.007980949 0.05982788 0.02072044 0.013991804 -0.038910255 0.07085985
-0.04185803 0.028660918 0.008147917 -0.061546896 -0.036080945 0.049155366 -0.08916191 -0.08481778
-0.095295966 -0.03661799 -0.04547362 0.1044821 0.08478307 0.007838599 0.050654326 0.09119749
0.164401 0.07345028 0.056716528 0.100480594 0.067899 0.013925337 -0.02864473 0.006015485
0.0926383 0.039050087 -0.0035561204 -0.00025488544 0.10724264 0.00044534655 0.05729621 -0.017847124
0.037939493 0.032870412 0.035063993 -0.028032258 0.06939815 0.036464784 0.21858662 0.09124903
0.049123254 -0.036163934 -0.10476791 -0.100789554 0.05821916 -0.0013630673 -0.054944728 -0.0038503949
-0.09987859 -0.0004301976 -0.10775505 -0.106778294 -0.19139357 0.030853562 0.0018776774 -0.15812227
-0.017263038 -0.056623634 0.12585436 -0.07619433 -0.14877677 -0.008859516 0.082106814 0.03146153
-0.033309195 0.07762314 0.07764619 0.13665833 0.010396858 0.04350846 0.009192706 0.09001819
0.012591339 0.0020935258 0.15260786 0.0103002535 0.0724734 -0.017688245 -0.09978251 -0.09584471
-0.019223861 -0.11893921 0.023311231 -0.0055392794 -0.06648279 0.05322589 -0.074815124 -0.07393487
-0.05390195 0.062348258 -0.0898716 -0.028655564 -0.05195732 -0.045801796 -0.030399365 0.066126645
0.059431504 -0.006027369 0.11738653 0.055186126 0.050876584 -0.14578219 -0.11732483 0.0032390244
-0.084415644 -0.08574259 -0.013499294 0.03096752 -0.034617525 0.04071908 -0.1646268 -0.11768819
-0.013154911 0.119833544 0.057666395 -0.026803542 0.10084547 -0.041830778 -0.11212799 0.02748661
-0.17782186 -0.13863273 -0.07201587 -0.23346213 0.0065280935 -0.14544933 -0.17654447 0.1532423
0.0051432177 0.0226761 -0.060895108 -0.0010280517 -0.069714405 -0.09331906 0.083164975 -0.11933527
-0.07985525 0.10926768 0.031810075 0.08629529 0.073623575 -0.0033016817 -0.104024954 0.18477361
-0.040525552 0.036941767 0.11767948 0.022767534 0.19536322 -0.00021003286 -0.045361668 -0.093257755
0.085247606 -0.07581623 -0.061254878 0.08449124 0.043075338 0.1934402 0.107345134 0.011038946
-0.02054731 -0.0075021256 -0.016263371 -0.10151899 -0.029981185 0.11478951 0.027702326 0.010041899
0.052558385 -0.13493322 0.05556142 -0.020415137 -0.13078292 -0.04333945 -0.066326484 -0.098040536
-0.07571059 -0.076686285 -0.081108354 -0.039739978 -0.006209451 0.027693847 -0.050439052 0.008706388
-0.04642302 -0.017131897 -0.060064435 -0.028474294 0.048458282 0.03742847 0.002273596 0.14905404
0.119099885 0.13631606 0.04641433 0.09861091 -0.01763805 0.15441097 0.025832413 -0.013035725
-0.14983055 -0.07518777 0.019318173 -0.076481916 -0.059664786 -0.093291454 -0.1548627 -0.012363762
-0.020811021 0.059653915 0.049564086 0.006534637 0.064845055 0.04022803 0.014916911 -0.00897397
0.0030840875 0.049939997 0.047223024 0.09974608 0.07196892 0.15236914 0.10557135 0.07009323
0.13354468 0.023685893 0.031534016 -0.13918743 -0.106114134 0.041381992 -0.11658744 -0.08842944
-0.027651515 -0.2565139 -0.11019651 0.004698407 0.029559875 0.030957438 -0.03586937 0.028222999

Generator.conv3.conv1.0.weight f4 [8, 8, 3, 3, 3]
00000000: 9a2f 363c 2d28 983d 4e14 3ebc c6f4 9cbc
00000010: 0e22 233b d416 283d 334f bc3d 373c 90bc
00000020: 79fb 023c c9b0 e8bc f95b cb3c 29e1 6ebd
00000030: 28d2 853c 252e cdbc ce67 a7bd 4b5f 12bd
00000040: 400f 383d 15ac e0bc 0c5a 00bd 8e8b 8f3d
00000050: 0cec 08bc f6ee 4f3d 5814 8bbd 65ca 99bb
00000060: 01dd 2dbd dc55 c33c 3138 4fbd 6623 44bd
00000070: fe60 643c 1846 153d 71b2 be3b 01c9 8dbc
00000080: 7bbb 96bd bc75 6f3d 01bb 3cbd b2bb 383d
00000090: 832f e73b 8924 783d 938c 083e 7a6c 80bc
000000a0: 8546 d5bc 4f0d a5bd 5363 d4bb 04dc cdbd
000000b0: d7e3 bf3c 9f70 4a3a 27b1 9b3d 2038 f0bc
000000c0: 11c4 523d ec8b 03bd 84f3 6dbd a50c 50bd
000000d0: ddfd a6bd b9da a83c 2de9 2abd f560 fabb
000000e0: 2b50 f1bc 5762 4dbd 7f12 0cbd c304 f43c
000000f0: f9b4 d5bb 76e6 9dbc cb7d a4ba c9c0 163d
00000100: 5ebd 0a3d b0df 783d 203b 1abd f396 be3d
00000110: e730 923d 371e 19bd 917c e03b 3977 c7bc
00000120: 64e8 243d b8c8 84bd 6116 e53c 63f2 6dbc
00000130: 3831 683d f2d5 8cbc d0e7 713d 08ee 48bd
00000140: d21a 37bd 0846 e23c bf0a 8eba 9fc8 4d3c
00000150: 0839 a1bb 9037 a33c e4e6 4abd d582 a73d
00000160: c356 65bc 346a 773d a79f 43bc bc3d 323d
00000170: dd63 133d 5b19 2dbd bd5f 813d 590d 52bd
00000180: 33b0 99bd 613e 11bd 72e8 62bc d9c1 2ebd
00000190: 596f 653d abe5 90bc 4ef2 9d3d eecd eb3d
000001a0: df28 223d 3cfe dabb f180 15bd fb57 cbbd
000001b0: 9741 703d dba6 f1bc 4696 ab3b ec92 8e3d
000001c0: 026d 18bd 737c 1a3d 6ae0 9f3d 2619 473d
000001d0: 7cda 5bbd fd04 333d c157 873d fada 683d
000001e0: 49a6 f43a 57fb 523d d831 a63d b064 073d
000001f0: 9d3b 993d 9d62 82bd 7cb9 85bc 6363 56bb
00000200: 5859 ea3c d49d 8cbd 3cb2 2cbd 9e55 97bc
00000210: 5202 433d 8ac3 40bd ac51 09bd fe81 6fbd
00000220: 79fa 413d e8a9 a33c f571 e93b 14bc 713d
00000230: 14c9 84bd 3f9d d33b 0e4f 59bc 2f73 ed3c
00000240: 5aae 603c beac a43d 4b30 c73c 259f 0ebd
00000250: c43e 273d a058 673b 8206 46bd 5205 b7bd
00000260: 81b6 cd3c ba6b 8abd 282b 823d dc8f 7bbd
00000270: c4c9 c63c 4333 8f3d db33 863d 0c47 4a3d
00000280: 0ddc b9bd c1bc f3bc c5e5 46bd 4281 3b3d
00000290: b616 363d 29ab adbc 8891 4abd 9f2b 0abd
000002a0: 1838 e93d a9c5 ca3c c1d9 af3c 6ba0 413d
000002b0: 0ac8 23bd 3dab 9e3d d3f0 843d fd6d 8cbd
000002c0: 6de4 483d 757f 153d aff8 053d 520c 243d
000002d0: e3a9 eb3c 1da5 abbc f8f5 babd 30ee 4f3c
000002e0: 73e7 493d 7a15 21bd 6bc8 8bbd 9420 c73d
000002f0: e18d c73c 8e4e 653c f9ba ba3a 60cb 1c3b
00000300: e7b6 983a 9716 2a3d 2efc 6ebc 14ea acbd
00000310: ba7e 303a 670a 083c 0587 ebbb ad5b 98bb
00000320: ef23 6cbc 24db c93c 6002 193e a40d 463d
00000330: 1364 a5bc c0fd 13bd 3c8f 8b3d 4dd8 24bd
00000340: 6e84 b1bd d771 32bc bc3d 673d e7d0 f83d
00000350: df86 9cbd 6285 09bd 4dfa 1fbd 7d75 50bd
00000360: 6caa 7d3c d834 12bd d37d 87bc e9c5 0f3d
00000370: 1a37 593c 8784 5f3d 4f82 743c 50f1 3c3d
00000380: ccc5 aa3c c10e c43d b49e 9cbd c011 06bc
00000390: 2f18 733d 68c6 2d3d 39cc 9fbd 1be7 1dbd
000003a0: ca51 3e3d 3535 1ebe 42dc 903c f8d0 0e3c
000003b0: 7e42 513c f30f 4c3d 0b30 593c 6cb5 4fbd
000003c0: e32f 47bd 249e 42bd bd54 803b d33a 993c
000003d0: 4e26 a4bd 1a92 fdbd f539 f33c cada b23d
000003e0: e0e8 d2bd ed9c a33d 805a 393d a045 083b
000003f0: 2774 b33d ed43 023d 7062 6fbc 1d90 e93d
0.011119748 0.07429538 -0.011601521 -0.019159686 0.0024892124 0.041037396 0.091947936 -0.017606838
0.007994526 -0.02840461 0.02482413 -0.0583202 0.016335562 -0.025046417 -0.08174096 -0.03573541
0.04493642 -0.027425805 -0.031335875 0.0700904 -0.008357059 0.050765 -0.0679099 -0.0046933168
-0.042447094 0.023844652 -0.050590698 -0.04788532 0.01393914 0.0364438 0.0058196117 -0.01730776
-0.07359978 0.05846189 -0.04607678 0.045100875 0.0070552244 0.060581718 0.13334875 -0.015676726
-0.026034603 -0.08059179 -0.006481567 -0.1005173 0.023424072 0.00077224703 0.076021485 -0.029323637
0.051456515 -0.03211586 -0.058093563 -0.05079331 -0.08153889 0.020612108 -0.04172628 -0.0076409527
-0.029457172 -0.050142612 -0.034197327 0.029787427 -0.0065218178 -0.019274931 -0.0012549696 0.036804948
0.033872 0.0607602 -0.037654042 0.09306135 0.07138234 -0.03738233 0.006850787 -0.024348842
0.040260687 -0.064835966 0.027964773 -0.0145231215 0.056687564 -0.01719186 0.059058964 -0.04905513
-0.044703312 0.027621284 -0.0010836943 0.012560039 -0.0049201287 0.019923955 -0.0495366 0.08179251
-0.013997736 0.060404018 -0.01193992 0.043515906 0.03598391 -0.04226051 0.06317089 -0.05128226
-0.075043105 -0.03545988 -0.013849365 -0.042665336 0.056014393 -0.01768764 0.077122316 0.11513887
0.03958976 -0.006683139 -0.03649992 -0.0992889 0.0586563 -0.029498508 0.00523642 0.06961617
-0.037213333 0.03771634 0.078064755 0.048607968 -0.05367516 0.04370593 0.066085346 0.056849457
0.001866528 0.051509228 0.08114976 0.033055007 0.074820735 -0.06366465 -0.016323797 -0.0032713048
0.028607056 -0.06866041 -0.042162165 -0.018473443 0.047609635 -0.04706148 -0.033525154 -0.05847358
0.04735801 0.019978479 0.0071241804 0.059017256 -0.06483665 0.006457954 -0.013263477 0.028985588
0.013713444 0.080407605 0.02431502 -0.03481974 0.040831342 0.0035300627 -0.04834605 -0.08936562
0.025111439 -0.067588285 0.06355888 -0.061416492 0.024266131 0.06992199 0.065528594 0.04938416
-0.090751745 -0.02975309 -0.04855897 0.045777567 0.044455253 -0.02119978 -0.049455196 -0.033733007
0.11387652 0.024752455 0.021466138 0.047272127 -0.039985694 0.07747505 0.06491246 -0.06856916
0.04904597 0.036498506 0.032707866 0.040050812 0.028767532 -0.020952756 -0.09128946 0.012691066
0.049292993 -0.039327122 -0.06825336 0.09723011 0.024359645 0.01399578 0.0014246396 0.0023924932
0.0011651189 0.04152545 -0.0145864915 -0.08443084 0.0006732751 0.008303261 -0.0071877264 -0.0046496005
-0.014412864 0.024640627 0.14942312 0.048352852 -0.02018932 -0.036130667 0.06814429 -0.040245343
-0.08667837 -0.010891399 0.05645536 0.1214922 -0.07642912 -0.03357447 -0.039057065 -0.050893296
0.015482526 -0.035694927 -0.01653949 0.03510085 0.013257766 0.054569747 0.014923646 0.04612857
0.02084627 0.095731266 -0.07647458 -0.008182943 0.059349235 0.042425543 -0.07802624 -0.038550477
0.04646472 -0.15449984 0.017683152 0.008716814 0.012772201 0.049819898 0.013256083 -0.050710127
-0.048629653 -0.047514096 0.0039163516 0.018704807 -0.080151185 -0.12381382 0.029690722 0.08733137
-0.10298324 0.079889156 0.045252323 0.0020793453 0.08762389 0.03180306 -0.014610872 0.114044406

Generator.conv3.conv2.0.weight f4 [8, 8, 3, 3, 3]
00000000: 8647 363d d71b a13c 31b5 baba 2ca6 6fbd
00000010: e7fb 3e3d f172 cbbc de21 b3bd 5e40 74bb
00000020: 4db5 8dbd 364c 2c3d d02d 23bd 05af 243d
00000030: fb5e 143c beb2 453d 4d43 adbc e9c7 25bd
00000040: 6555 073d b936 66bd 0db0 bc3c 8ef6 8cbc
00000050: 20b5 fcbc 7acb 363d 5528 953d dbe6 ba3d
00000060: 54cd 4e3b fe62 c13d 0736 0b3d b5cd da3d
00000070: d3d7 01be 85f0 16be 96f6 003e d4b9 38bd
00000080: 09dc b5bd 0734 283d 0b63 6b3d a387 d73b
00000090: eb44 a73d d94f aabd 530f ccbd 94fe b3bd
000000a0: 2337 19bd 5ad8 16bd 15ca adbd 42cd fdbd
000000b0: 527f 05be e158 c13d 2598 c3ba 4767 0bbe
000000c0: 17a1 84bd 596e f9bb 92f0 00be c396 96bd
000000d0: 6c90 81bd fc83 a7bd 8408 a8bc 84ec ed3c
000000e0: 765a 51be 7efe 263d 6a7f 05bc 7135 ebbb
000000f0: 9d6a 743d 4f1e ba3d 1c69 963d e75d a83d
00000100: 1eb4 ebbc 5199 19bb f9c9 c73d ced3 b03d
00000110: 8306 36bd 61ac c13b 3f1d 4f3e 94cd cfbc
00000120: 38a7 963d 5918 1a3e f250 953d e24f d33d
00000130: 4c69 3a3e 95a4 933d d6f6 27bd 69ab 883d
00000140: 7455 c93d 38d2 1ebd 6bd4 db3d 4686 bb3c
00000150: 2f3c 7abd 5f8b 6abd e190 5e3d f627 223d
00000160: 3359 84bd 21e6 d9bc ae1f aebd c355 cb3b
00000170: 0974 b33c 903a d5bd 6057 7dbe 9529 123d
00000180: ce4a 9e3c 6011 33be 3cb0 68bd 6e58 ffbd
00000190: e406 bcbd 917e 6f3c 21bc 313c b7d3 62be
000001a0: 0d2e a6bc ccd5 b83d e200 28bd 74c3 47bd
000001b0: 94aa 97be 57bb 0ebe cb0f 9bbd 984d d4bd
000001c0: 2213 c9bd 965d c4bd 2d37 48be eb89 f9bd
000001d0: 7c39 96bd f820 acbc 325c 73bc a00c 663d
000001e0: 2676 533d 88f0 c73c ec82 3cbc 5832 b1bd
000001f0: 6c1a 1aba 98ca f63a 86f5 c9be 59ea 58be
00000200: 22fd aebd ef1d 27be 2c52 18be c07a 04be
00000210: 5a0f 62bd 0356 eebc 8713 893d 7a42 3d3d
00000220: 9974 8cbc f117 94be 411c 07be f6fa 59bd
00000230: 6e6a 4ebc 5464 433e b890 45bd d023 c83d
00000240: b2ef babd 9647 b0bd a874 dfbb 7f1e bdbb
00000250: 23c3 283d 19ab dc3d 6903 1e3e b5a2 d4bc
00000260: 79ed d73d 1165 0c3d 9a10 f13d f9f4 59bd
00000270: bccd c33d 9aa1 ad3c d3fc 833d e8a8 523e
00000280: 2954 043c db0e 29bc 2b80 de3d fed0 dd3d
00000290: 2742 e33d 51d9 62bc 6864 03bd ef6b 823d
000002a0: 7a25 d8bd 1e50 37be d4b7 cb3d 9c82 b1bc
000002b0: e7dd dc3c 0356 b13d a8e1 dabd 60d8 bfbd
000002c0: dee5 a23d fe60 f8bd 29b5 993b 75f1 c13d
000002d0: 7300 2dbe 4763 31bd 7f62 2f3e 83f8 09be
000002e0: c09b 81bd b27e 523e f033 8bbd b9f8 be3d
000002f0: d296 e53d adfb 58bc 82bc a3bc 0724 c63d
00000300: 5a0c 25bd 949d bdbc 3378 a73d bdf3 1ebd
00000310: fc28 3a3c 9adb 1a3e eec4 243e cc98 5b3d
00000320: d62d b73d a903 313d 705b de3c 5de2 643c
00000330: ad94 50bd 6210 b83d de2c ccbb 7481 133e
00000340: 97df cfbb c552 95bc 2131 0a3e 32e2 033d
00000350: 230e ba3c a184 bd3d 9cdd 113e 8bab 9dbc
00000360: 2f86 043d 59cc 713b 90be 8cbd 5bcb 0a3b
00000370: d058 9dbd 6489 babd d85a a63c ceb3 3c3b
00000380: 773d 833c 1c0a 423c 8e87 1ebd 2d32 83bd
00000390: a58c 2bbc 3459 8b3d a180 82bd d183 613d
000003a0: c749 7b3c 5501 2a3c b6aa 163c 2847 dd3d
000003b0: 25c2 a03d ee7d 763d 507f 933d 107b 363d
000003c0: 60ee 573d 8fb2 12bd eb69 943c 199d 943c
000003d0: d5b6 4c3d 425c 14be 86b5 cc3d abd2 dd3d
000003e0: 15da 393d 758d 233e fde8 e53b 646b c73d
000003f0: 5466 173c 3f9e e33d 98ee 99bd c08e ab3d
0.044501804 0.019666595 -0.0014244673 -0.058508083 0.04662695 -0.024835082 -0.08746694 -0.003726981
-0.06919346 0.042064868 -0.039838612 0.040205974 0.009055848 0.048266165 -0.021150256 -0.040473852
0.033040423 -0.05620453 0.023033166 -0.01720741 -0.030848086 0.044627644 0.07283083 0.091260634
0.003155549 0.094427094 0.03398707 0.10683767 -0.12679987 -0.14740188 0.12594065 -0.045099095
-0.08879859 0.041065242 0.0574675 0.0065774485 0.08167442 -0.08316011 -0.0996386 -0.08788791
-0.037406098 -0.036827423 -0.0848581 -0.123926654 -0.1303685 0.094407804 -0.0014922662 -0.13613616
-0.06476038 -0.0076120314 -0.1259177 -0.07352974 -0.063263744 -0.08179471 -0.020511873 0.029043444
-0.20444664 0.040770046 -0.008148054 -0.0071780016 0.059671987 0.09087812 0.07344267 0.082210355
-0.02877241 -0.002343733 0.0975532 0.086341485 -0.044439804 0.0059104417 0.20226 -0.025366582
0.07356113 0.1504835 0.0729083 0.10317971 0.1820423 0.07209126 -0.041006885 0.06673319
0.09830752 -0.0387747 0.10733875 0.022891175 -0.06109255 -0.05726182 0.054337386 0.03958889
-0.06462326 -0.026598992 -0.08502136 0.006205292 0.021905916 -0.104115605 -0.24740362 0.035684187
0.019322779 -0.17487097 -0.056808695 -0.124680385 -0.09181002 0.014617578 0.010848076 -0.22151075
-0.02028563 0.090251535 -0.041016467 -0.048770383 -0.29622328 -0.13938652 -0.07571372 -0.10366362
-0.098181024 -0.095881626 -0.19552298 -0.12184509 -0.07335183 -0.021011814 -0.014853524 0.056164384
0.051626347 0.024406686 -0.011505824 -0.086521804 -0.0005878571 0.0018828688 -0.39445132 -0.21183147
-0.08544375 -0.16320013 -0.14875096 -0.1293745 -0.05519042 -0.029093748 0.06693178 0.046205975
-0.017145442 -0.28924516 -0.13194372 -0.05321785 -0.012598617 0.19081241 -0.048233718 0.09772456
-0.091277495 -0.08607404 -0.0068193264 -0.0057714577 0.041201722 0.10774822 0.15430988 -0.025956491
0.10543341 0.034276072 0.117707446 -0.05321214 0.09560725 0.021195222 0.06444707 0.20572245
0.008076706 -0.010318483 0.1086429 0.10830878 0.11096602 -0.013845758 -0.032078177 0.06368243
-0.10554023 -0.17901656 0.09947172 -0.021668725 0.02696128 0.086589836 -0.10687572 -0.09367442
0.07954 -0.12127875 0.0046907854 0.094698824 -0.16894703 -0.04330757 0.17127417 -0.13473706
-0.06328535 0.20556143 -0.06797016 0.09324784 0.11210407 -0.013243598 -0.019987348 0.096748404
-0.040294982 -0.023146428 0.08177223 -0.038806666 0.0113623105 0.15122834 0.16090748 0.053612515
0.089442894 0.04321638 0.02714321 0.013969985 -0.05092304 0.089875 -0.0062309345 0.14404851
-0.0063437927 -0.018227944 0.13495304 0.03219814 0.022711819 0.092538126 0.14244694 -0.019246837
0.03235453 0.0036895482 -0.068722844 0.0021178338 -0.07682955 -0.091082364 0.02030699 0.0028793695
0.01602052 0.011843231 -0.038703494 -0.06406055 -0.010470544 0.068041235 -0.0637219 0.05505735
0.015337414 0.010376294 0.009195974 0.108045876 0.0784953 0.06017869 0.07202017 0.044550955
0.052717566 -0.035814818 0.018116912 0.018141316 0.04997905 -0.14488319 0.0999556 0.10831197
0.045373995 0.1597193 0.0070162998 0.0973728 0.0092407055 0.111141674 -0.07516211 0.08376837

Generator.conv4.conv1.0.weight f4 [8, 8, 3, 3, 3]
00000000: 7cc3 c9bc 548d 2e3a 3bea 43bd e8f1 0c3c
00000010: 486c 1a3d 3490 a13a c44c ab3b 8fb6 f23c
00000020: 6ab8 28bc 3dd5 3cbd 1f29 c7bc b8e7 bfbd
00000030: ffc5 95bd f199 bdbc 14cb eebc 8bf2 c23d
00000040: c2de bf3c 1c88 523d 72c4 0a3d 6ac4 133d
00000050: 003d 883d a0a7 093d 670e f9bd c90e 513c
00000060: 030b 60bd f2a5 0ebd a7ae d63c 28a0 0dbd
00000070: f9d5 143d afe2 9f3d 2c70 e8bb bc00 753d
00000080: cbd4 7a3d 2f3a bbbd fc27 913d db63 1bbd
00000090: 92a1 493c 3b12 f3bc 0114 1fbd 2a8a 503b
000000a0: 2c7c 13bd d674 8dbd 8a9b dcbb 7c48 333d
000000b0: 1876 2c3d 454d 783d 3372 16bd 8641 c8bc
000000c0: b700 703d f7e3 edbc bc87 843c 54f2 913d
000000d0: 8bac 493d 02a6 cf3c 44c0 d4bd 065c f8bd
000000e0: fadf dabd f93a e7bc 37df e03c 7952 78bd
000000f0: 4a83 633d 7ad1 0c3d b4ba 16bb d62d a13b
00000100: 416b 1fbe 01be 93bd c9a6 bd3c c96c 93bd
00000110: 857b 16bd 0648 923c d645 803d ecd1 c3bc
00000120: 6c54 9e3d 712e b4bc 4e8c 0cbc 38ae 1f3c
00000130: c550 e7bd 6b0b 4d3d 544c 34b9 2167 4dbd
00000140: 2dfb 553c c9b7 c43c cf79 6dbc c059 43bd
00000150: 172d 373b c152 9fbc d13e 91bd ea27 2e3d
00000160: e7a2 0b3d 09d6 8f3d 8745 a43c 9bb4 5cbd
00000170: 1fbf 1ebd 9a6b 873c cf82 8dbd 0642 dcbc
00000180: 4979 d23d 3f1f d53d f612 573d 536f 2cbd
00000190: 043d a4bd e84a 8abd 6f6c 9bbc ae93 163c
000001a0: 044a ebbd f61d a43d 0f27 063c e4ae 443b
000001b0: 7c7f d4bd 32b9 a9bd f58b c83b 5142 b0bc
000001c0: 71e9 013d 5ca9 213d f6be be3a 0dff 6d3d
000001d0: 5df6 e53c 8cc5 9dbc 0883 02bd c993 3a3d
000001e0: a91f 03bd 2c7d b63b fcfd d93c 0d4c b43c
000001f0: 01e5 703c 90a0 6ebc 73ef a23d 0ab6 09bd
00000200: 240e 3a3d 25de 1e3c f573 063c eb2e 43bc
00000210: c8bd 023b a486 173d af48 6d3d 77e0 13bd
00000220: 4d85 2e3d c6ab b6bd 8990 8c3c 7fc1 ce3d
00000230: baa9 7eba 4d89 723d 2f0f 533d d607 4fbd
00000240: 84bc 383c c2c6 d13b 4ff8 91bc 4d4a 20bc
00000250: adb3 84bd 0ee0 6bbc e8d6 1a3d e65d 9b3c
00000260: fc9a adbc d51b 1d3d a7e6 f83b a142 ecbc
00000270: 05a8 a13c 5810 f8bc b1d8 24bd 91ee 3c3c
00000280: d8ca 5fbd 661b 09ba 310b d6bd c98b b9bc
00000290: 5d52 c7bd 6333 24ba 5c85 d53d 6f7a bb3d
000002a0: 4fb4 b4bb d46b 0d3d 6844 f13c 0cab 95bd
000002b0: 1121 ecbc 3cc0 123c cba6 ceb9 cf0d f5bd
000002c0: b99f 3cbb e9b2 943d b0fb 623d 5fad 40bc
000002d0: f873 903d 7774 b33d 4956 cb3c 3dbb b0bd
000002e0: a142 ffbc 99f2 8bbc de90 8dbd 6662 febc
000002f0: bfe9 94ba d98b 34bd 7150 5fbd 7cab 99bd
00000300: bba8 7fbc 579b ad3c 71e6 06bd 83b5 4d3c
00000310: 352f 03bb b584 0c3d f9ed ee3c f1f9 bcbd
00000320: 5cef 8a3c 0976 b03c d5df a2bd 8acd 63bd
00000330: a04b 8a3d de8c 9d3d 74cb 35bd 2069 e63c
00000340: 4a8e 103d 9f7b 75bd 67bf 283c cdb4 97bd
00000350: bbd3 e5bd bf5d b43c 68ed 963b 0435 b63c
00000360: 49df 32bc 3f85 b23d 78d5 543d ee28 773c
00000370: b29e dd3d 377d 5e3d 58b0 14bd 00b2 003d
00000380: 3af9 7a3d eeed 8e3d 937f 553d c1e8 73bb
00000390: 24a2 25bd 1904 253d 2e4c 2b3d 6406 453c
000003a0: 8a4c b03c 7249 8b3c f009 34bb 2cfb 94bd
000003b0: 21d3 09bd 1e38 3c3d 447e 96bd b062 d6bd
000003c0: 0715 873d 1f58 d73c 2680 89bd 0bd8 27bd
000003d0: 3eca 7d3d 134e 6c3d ff47 a4bd 1b96 d63d
000003e0: ab69 a63d 6569 b3bb 5aec cabd aef4 13bd
000003f0: 953a 253c 3e8e 223d 6131 0a3d a337 8ebc
-0.024629347 0.0006658633 -0.0478308 0.008602597 0.03770092 0.0012326301 0.005227657 0.029628066
-0.010297874 -0.046101797 -0.0243116 -0.09370369 -0.073131554 -0.023144694 -0.02914957 0.09518918
0.023421649 0.051399335 0.03387875 0.036075987 0.0665226 0.033607125 -0.1216095 0.012759873
-0.054698 -0.034826227 0.026206328 -0.034576565 0.036336873 0.07806908 -0.00709345 0.059815153
0.06123809 -0.09141957 0.070877045 -0.037937026 0.012306588 -0.029671779 -0.038837437 0.0031820633
-0.03600709 -0.0690705 -0.006732409 0.0437703 0.04210481 0.060620565 -0.036730003 -0.024445307
0.05859443 -0.029039366 0.016178004 0.071262985 0.049236815 0.025347713 -0.10388234 -0.12126927
-0.106872514 -0.028226363 0.027450187 -0.060625527 0.05554513 0.03437946 -0.0022999467 0.004918794
-0.15568258 -0.07213975 0.023150818 -0.071984835 -0.03673889 0.01785661 0.0626332 -0.02390381
0.07730946 -0.021994801 -0.008578373 0.009746127 -0.112947024 0.050059717 -0.00017194572 -0.05014718
0.013060373 0.024013417 -0.014494373 -0.047693014 0.002795046 -0.01944864 -0.070920594 0.042518534
0.034090903 0.07023246 0.020052684 -0.053883176 -0.038756486 0.0165308 -0.069097154 -0.026886951
0.102770396 0.1040635 0.052508317 -0.042098355 -0.0801945 -0.067525685 -0.018972604 0.009190483
-0.11488727 0.08013527 0.008188023 0.003001147 -0.10375878 -0.08287276 0.0061202 -0.021515997
0.031716768 0.039468154 0.001455276 0.058104564 0.028071577 -0.019259237 -0.031863242 0.045551095
-0.032012615 0.005569121 0.026610367 0.02200892 0.014703036 -0.014564648 0.079558276 -0.03362087
0.04542364 0.009696518 0.008206357 -0.011913042 0.0019949544 0.036993638 0.057930645 -0.03610274
0.042607594 -0.08919482 0.017158763 0.100955 -0.0009714622 0.05921297 0.051528152 -0.050544582
0.011275414 0.0064018676 -0.017818598 -0.00978334 -0.06479583 -0.0143966805 0.037802607 0.018965673
-0.021192066 0.03835662 0.0075958553 -0.028840365 0.019733438 -0.03028123 -0.040245716 0.011531488
-0.054636806 -0.0005230218 -0.10451353 -0.022649663 -0.097325064 -0.0006263761 0.10425827 0.09154212
-0.0055146585 0.03452666 0.029451564 -0.07308015 -0.028824361 0.008956965 -0.00039415652 -0.119655244
-0.0028781726 0.07260687 0.05541581 -0.011760085 0.07053369 0.08762448 0.024821417 -0.08629463
-0.0311597 -0.017083453 -0.06912397 -0.03105278 -0.0011361166 -0.04407868 -0.054520074 -0.07503411
-0.015604193 0.021192236 -0.03293461 0.012555483 -0.0020017151 0.034306247 0.029166209 -0.0922736
0.016959839 0.021540659 -0.07952849 -0.05561594 0.067527056 0.07692884 -0.04438348 0.0281263
0.035291947 -0.059932347 0.01029954 -0.07407532 -0.11222025 0.022017358 0.0046059377 0.022242077
-0.010917493 0.08716821 0.051961392 0.015085442 0.10821284 0.054318633 -0.036300987 0.031419754
0.061272837 0.06978975 0.052123617 -0.003721759 -0.040437832 0.04028711 0.041820697 0.012025449
0.021520872 0.017002795 -0.0027471744 -0.0727447 -0.033648614 0.045951955 -0.07348302 -0.10468042
0.065958075 0.026287137 -0.067138955 -0.04097752 0.06196045 0.057691645 -0.08021545 0.10477849
0.08125623 -0.0054752105 -0.09908362 -0.036122017 0.010084768 0.039686434 0.033738498 -0.017360514

Generator.conv4.conv2.0.weight f4 [8, 8, 3, 3, 3]
00000000: 67cb 223d 796c 933e 6b29 81bd 865b 09be
00000010: 2ffb 70bd 607c 11bd 0585 c23d 77f1 2d3d
00000020: 1fc5 213e 80c5 a0bc 8c49 003e f4bc 463c
00000030: 7a02 a93c 89a5 babc be0e 8bbd 9c3f ec3d
00000040: 8b1b 5c3e 82d0 bb3d 9511 5abb c3f3 ca3c
00000050: 1588 41bd 0abd f2bc f0c7 ecbc ba0a 8b3d
00000060: 3476 353d 36cd 083e b807 af3d b226 43bd
00000070: c9ca cfbd a649 f63d 361e 883d e562 e13d
00000080: ba5a 0bbd 3af8 a03d b9cf 0f3d 94ab 193d
00000090: 1114 df3c 5c44 8ebd 107c 0b3d d18d 12bd
000000a0: 7deb 163e 2d4f b93c 532c 7fbd ad2e d13d
000000b0: 4579 dabd c5cc ec3c 28d5 df3b 640a 4ebd
000000c0: 9132 8fbc 20b4 543c c38e cabd 1b17 ab3c
000000d0: 8099 2c3e 76ce cb3c 2354 11be 06e5 7dbd
000000e0: f977 3b3e 9d26 2ebe 4404 02be 1d94 93bc
000000f0: 1c99 17bd f1c8 083e 04cd eb3d e015 e9be
00000100: d836 ecbd 47d7 ff3d 3674 2fbe 1e04 50bd
00000110: 91a8 333c c3cb 903d 7828 c43d 01fe 1d3e
00000120: 9d2f 56bd c040 c5bd 16b3 c33c 4eec 18be
00000130: b680 60bd 3888 0ebd 08db 2e3b 491b 513e
00000140: 02e1 253e abf6 2abd 2686 28bd 895c 353d
00000150: 5dbd 8abd 1b9b eabc 9e24 5fbd 7a37 983d
00000160: 6cbe 49bd 46ce d2bd ad5c 23bc 6c8f 473d
00000170: df3f aebc f32a 223d ee08 803d a4e4 0f3d
00000180: 8a99 88bd 31f2 503c 2f42 95bd a918 873d
00000190: 291f cc3b de9d 60bd 0fdb 273e 0842 913d
000001a0: bc8d a63c 429b 83bd 7b88 61bd 7328 adbd
000001b0: 38fe 96bd 6595 1d3b 7e4a 67be 83f7 fc3c
000001c0: 5644 113e 58a3 b1bd d03a c8bc 54a9 55bd
000001d0: 73d0 e8bd c019 f8bd cf57 97bd 24f5 40bb
000001e0: c485 ddbc 70d1 29be ecbf 83bd 3039 ddbc
000001f0: 55c3 c6bd 1e83 f93a 246a 96bd b5da 433d
00000200: 7335 083e bcf7 fd3c acc0 51be 672d eabd
00000210: 97ac f13c fb49 fdbd 83a7 d5bd 9be1 a23d
00000220: abad 9fbd cfeb 36bd 9eeb 62bd b4d7 f3bd
00000230: 4e89 ebbd 32e6 12bd c1b7 a23d 66fd 9bbc
00000240: 59d9 cc3d f00a f9bb 5d61 d3bb 028d 293e
00000250: 717b 833d b1df 3c3c 40f2 e83d e2eb aa3d
00000260: c37a 12bd e1dc a4be da81 60be 059a 03be
00000270: c4b5 10be e13f 4f3d fde7 0e3e dfd1 10be
00000280: 1096 b03c e718 803d 9db1 1f3d 5ee2 c83c
00000290: d23b 24be e5d9 f7bc 2c9d 86bd 46e7 b9bc
000002a0: 9211 03bd 5182 7c3c ad4b ff3d 86ab 73bd
000002b0: 2d5d 83bd 9a0f 24be 5d16 26be 8fa0 1abe
000002c0: a2b6 fb3c 280c 6d3d 0e2c 233d 0db9 f73c
000002d0: 7170 f8bc 2ba1 223d 56d9 dfbd 2ca3 90be
000002e0: 3daa 75bc bc17 8fbd 1c4f 75be b018 0f3e
000002f0: e902 73bd e630 b0bc 541c 243b cf15 c23b
00000300: 5be5 dabc 71b7 58be b3bd f93b b62f 0dbd
00000310: 3d18 e2bd 89ed 0fbb 0bd1 db3c 49e6 b2bc
00000320: 16c8 bb3d aaee 1cbc 99af 5fbd 5390 f83c
00000330: 3b67 513d 8996 32bd d704 ad3c 7e4a ce3d
00000340: 2cd8 783b dcbd de3d 2d64 a73d 5954 a8bc
00000350: b15b 143d 373e d23d dfa1 fb3c a828 f03c
00000360: 5705 8dbd ce36 933d 357d 8abc 6602 2ebe
00000370: bf55 2bbe 531d e73d 045d 4abc 185d a7bd
00000380: dcd5 db3d fdec b4bd 82bb 8a3d b951 c6bd
00000390: 6852 9cbc a58c 65bd 6f5d 5a3d e0e4 b53d
000003a0: c5d7 2fbd 54eb 663d b9ea 1abd fb62 943d
000003b0: 2be9 a2bd c5c9 42bc 6a45 e33d 11df fc3d
000003c0: 734a 713d cfc8 613c 4523 993d 0b7c f6bc
000003d0: 72a6 983d f0f0 d3bd 6bbc 66bb 20f3 853e
000003e0: 976b 19bc 0df0 0cbe 5f34 f83c ffc9 193e
000003f0: 0542 cd3c 2b24 b43d 1258 913d 327a 0f3d
0.03974476 0.28793696 -0.06306728 -0.1341382 -0.058833297 -0.035519004 0.09498028 0.042466607
0.15797852 -0.019625425 0.12528056 0.012130011 0.020631064 -0.022784011 -0.06789921 0.1153557
0.21494882 0.09170629 -0.003327464 0.024774438 -0.04724892 -0.029631156 -0.028903931 0.06789155
0.04430218 0.13359532 0.08546394 -0.047644325 -0.101461 0.12025766 0.06646387 0.11005191
-0.03402207 0.078598455 0.03511021 0.037517145 0.027231248 -0.06946632 0.034053862 -0.035779778
0.14738269 0.022620762 -0.06229813 0.10213981 -0.106676616 0.028906235 0.00683083 -0.050302878
-0.017480167 0.012982398 -0.09890511 0.020885041 0.1685543 0.024878722 -0.14192252 -0.061985992
0.18307485 -0.17006917 -0.1269694 -0.018014962 -0.03701125 0.13357903 0.11513713 -0.45524502
-0.11533898 0.12492233 -0.17134175 -0.050785176 0.010965482 0.070701145 0.09578031 0.15428926
-0.0522915 -0.09631491 0.023889106 -0.14933893 -0.05481025 -0.034797877 0.0026680846 0.20420565
0.16199115 -0.041739147 -0.04114356 0.0442777 -0.067743994 -0.028638413 -0.05447828 0.07432456
-0.049253866 -0.1029325 -0.009970826 0.048720762 -0.02127069 0.03959174 0.06251703 0.035130158
-0.0666991 0.012753055 -0.07288014 0.065965004 0.0062293005 -0.054838054 0.16392158 0.070926726
0.020331256 -0.064260975 -0.0550618 -0.08454981 -0.07372707 0.0024045345 -0.2258701 0.030879742
0.14186224 -0.086737335 -0.024442106 -0.052163437 -0.113678835 -0.121142864 -0.07389795 -0.002944299
-0.027041323 -0.165838 -0.064330906 -0.027004808 -0.097052254 0.0019036268 -0.073444635 0.047815997
0.1330164 0.031001918 -0.20483655 -0.11434441 0.029501243 -0.12367626 -0.10432341 0.07953187
-0.077967964 -0.04465848 -0.055400483 -0.119063765 -0.11500798 -0.035864063 0.079452045 -0.019041728
0.10002393 -0.007600181 -0.0064508156 0.16557696 0.06420029 0.011527942 0.113743305 0.08345772
-0.035761606 -0.32199767 -0.21924534 -0.12851723 -0.14131838 0.05059803 0.13955684 -0.1414256
0.02155593 0.0625475 0.038987745 0.024522003 -0.16038445 -0.030255267 -0.06572947 -0.022693288
-0.03199918 0.015411929 0.12465606 -0.05948975 -0.06414256 -0.16021577 -0.16219468 -0.1510031
0.030726735 0.05787292 0.039836936 0.030239606 -0.030327054 0.039704483 -0.109301254 -0.2824949
-0.014994201 -0.06986949 -0.23955959 0.13974261 -0.059328947 -0.021507692 0.00250413 0.00592301
-0.026720693 -0.21163727 0.007621491 -0.03446933 -0.11039779 -0.002196165 0.026833078 -0.021838324
0.09169023 -0.009578386 -0.054610822 0.030342257 0.05112384 -0.043600593 0.021120472 0.10072802
0.0037970645 0.108760566 0.08173404 -0.020548033 0.036220256 0.10265773 0.030716835 0.029316261
-0.06885784 0.071881875 -0.016905406 -0.16993102 -0.16731928 0.1128489 -0.012351278 -0.08172053
0.1073415 -0.088342644 0.067740455 -0.09683556 -0.019082263 -0.056042332 0.05331176 0.08881545
-0.042930383 0.05637677 -0.037821505 0.072454415 -0.079546295 -0.011888926 0.11097224 0.12347234
0.05890889 0.013780787 0.0747743 -0.030088445 0.07453622 -0.103486896 -0.003520752 0.26162052
-0.00936403 -0.13763447 0.03029841 0.15018462 0.025055895 0.08795961 0.07096876 0.035028644
