DeepWonder3D_pytorch/pth/SEG_pth/Unet4_no_end_UNet3DFFD_20240401-1432_2um/seg_43.pth (torch, 138281 bytes, 19 tensors)

Generator.conv1.conv1.0.weight f4 [8, 1, 3, 3, 3]
000000 0d c1 d9 3d 03 0f d0 3d 18 26 46 bd 06 00 13 3e
       0.10632525 0.10159113 -0.048376173 0.14355478
000010 86 72 e9 bd 1b 75 e2 bd ce 89 96 3c b8 78 90 3c
       -0.11398797 -0.11057492 0.018376257 0.017635688
000020 44 65 f3 3d 75 9b a7 3c 63 db 27 be eb 15 bd 3d
       0.11884549 0.02045987 -0.16392283 0.09232696
000030 c2 c0 f7 3d 5f 31 de 3d 80 da 38 3d ee f2 37 be
       0.120973125 0.108492605 0.045130253 -0.17963764
000040 89 b0 cd 3d 80 16 3f be aa ea 0f be 51 e5 06 be
       0.10043437 -0.18660927 -0.14054361 -0.13173415
000050 6e ba 9b bd b2 d8 17 3d dd 8d 5d bd 2f ef 77 3d
       -0.07603918 0.03707189 -0.05409037 0.060530838
000060 2d 8c 4e be 4a fc 03 bd fd ca c5 3d 35 ff 14 3e
       -0.2017066 -0.032223023 0.096578576 0.14550479
000070 a9 97 0d 3e 65 49 28 3b 5a b1 c0 3d cf 08 09 be
       0.13827385 0.0025678512 0.09408827 -0.13382266
000080 6e 3a 39 be 0f c2 28 3e e3 a9 26 3d fe 72 7b bd
       -0.18088695 0.16480277 0.04068936 -0.061388962
000090 18 c9 fc bd e5 5b 11 3e 76 95 69 bd dd f9 fb bd
       -0.12343043 0.14195211 -0.057027303 -0.12303517
0000a0 6f 47 a5 bd f5 5b 78 3b e6 65 33 be d2 e1 4f be
       -0.080702655 0.0037896608 -0.1751934 -0.20300987
0000b0 be 05 2c bc 0b 73 d2 3d 03 81 20 3c 79 62 3b 3e
       -0.010499416 0.10275849 0.009796384 0.18299283
0000c0 de 5a 33 3e ee 88 c0 bd 1a 23 1b 3e df 48 e3 3d
       0.17515132 -0.09401117 0.15150109 0.110978834
0000d0 18 ca f2 bd 33 5f 93 bd 50 21 98 3d 92 99 fb bc
       -0.118549526 -0.07195892 0.07428229 -0.030712876
0000e0 39 79 dd bd 18 6a ef 3c 11 cc cf 3d 20 93 5e bb
       -0.10814137 0.029225394 0.101463445 -0.0033962205
0000f0 bb 72 22 be be f7 e1 bd f6 8e 71 bd e3 be 2d 3d
       -0.15864079 -0.11033581 -0.05897423 0.042418372
000100 0f 73 d3 3d ae 23 d5 3c 7a 9c 33 bd e8 fb 21 3d
       0.1032468 0.02601799 -0.0438504 0.039546877
000110 46 f7 97 3d 00 32 22 3d 0c 30 1a bc 82 52 8e bb
       0.074202105 0.039598465 -0.009410869 -0.004343332
000120 1b 9f 33 be 70 8e d3 3c a3 d2 dd 3c 9e b2 ac bc
       -0.17541163 0.025824755 0.027077978 -0.021081265
000130 e1 ec b3 bd f4 b8 91 3d 7b 24 48 be 3b 7c b1 3d
       -0.087854154 0.07115355 -0.19545166 0.08666273
000140 83 cf 31 be 6a f2 b8 bd 12 63 11 be bd 99 28 3e
       -0.17364316 -0.09030612 -0.14197949 0.16464897
000150 0c 21 4a be d5 2b 87 bd 8a 4b 64 bc f5 a4 a4 3d
       -0.19739169 -0.06600157 -0.013934026 0.080392756
000160 b6 22 e9 bd 11 39 64 3d 75 3b 53 be f7 ef 43 bd
       -0.11383574 0.055718485 -0.2062815 -0.04783627
000170 3b 06 20 3d 6c e4 d1 3d 75 01 3f be ea a0 1a be
       0.03906844 0.10248646 -0.186529 -0.15100446
000180 9d 38 16 bd 1f d6 00 3e fc 46 b4 3d a8 12 5d bd
       -0.036675084 0.1258168 0.08802602 -0.05397287
000190 dc c6 98 3d 24 00 d4 3d 0a dd 82 bd 81 08 90 3d
       0.074598044 0.10351589 -0.06389816 0.07032872
0001a0 b7 2d bb 3d 67 b8 7c 3c 99 5c 26 be 1e 9a 62 be
       0.09139579 0.015424824 -0.1624626 -0.22129104
0001b0 fe 54 14 3d 95 c9 28 be de 0d 86 bd b6 71 43 be
       0.036213867 -0.16483147 -0.06545614 -0.19086346
0001c0 61 3f a3 bc 22 48 01 3c 5f 79 cf bd b3 42 92 3d
       -0.019927682 0.007890733 -0.101305716 0.07141628
0001d0 46 11 14 3d e5 c4 a7 bc 7a 59 ed 3d 85 3d 38 be
       0.036149286 -0.020479629 0.11589332 -0.17992218
0001e0 89 ed 94 bd 4d 7b e9 bc 59 84 58 bc 6f 4b ba 3d
       -0.07271869 -0.028501177 -0.013215148 0.09096419
0001f0 5d b9 cf 3c 04 d6 e0 3d c2 61 49 be 40 50 cd 3d
       0.025356943 0.1097832 -0.19666198 0.10025072
000200 90 6e 02 3e a9 5b b9 3d b9 87 61 3d d1 06 d4 bd
       0.12737489 0.09050686 0.055061076 -0.103528626
000210 61 1a 22 be 3e 0b 81 bd 62 d1 da 3d fb 02 2e 3d
       -0.15830375 -0.063009724 0.10684468 0.04248331
000220 a2 93 b3 bd 97 5b 0a 3e 99 17 fd 3d 07 12 52 bd
       -0.08768393 0.13511501 0.123580165 -0.051286723
000230 a9 66 ec bd d6 be 3b be 27 a5 35 3e 90 d7 0d 3c
       -0.11543018 -0.18334517 0.17738782 0.008657351
000240 03 44 a1 bd 48 a8 31 be 04 e0 8e 3d f7 c2 db 3d
       -0.078743 -0.1734935 0.06976321 0.10730546
000250 50 45 23 be 9f d5 53 be ba a5 9c bd 8f 4b 81 3d
       -0.1594441 -0.20686959 -0.07648797 0.0631324
000260 3b 36 05 3e 60 de f6 bc de eb 0e bd 36 33 f1 3d
       0.13008969 -0.030135334 -0.03489291 0.11777346
000270 b4 e9 cc 3c 85 e0 25 3e d7 0f c0 bd 2d 4d 3f bc
       0.025013782 0.16198929 -0.09378021 -0.011676115
000280 9d 7a 8f bd 69 00 27 3e 33 5c 44 be 34 c5 33 3e
       -0.070058085 0.1630875 -0.19175796 0.17555696
000290 57 e9 b0 bd 86 02 d1 3d ba 0f d1 3b 1f 74 8b bd
       -0.08638256 0.102055594 0.0063800486 -0.06809258
0002a0 a4 03 67 3d 2b 6f 4d bc 19 93 25 3d 65 83 8d 3d
       0.056399956 -0.012538712 0.040423486 0.06909827
0002b0 ae 3b 8f bd b2 a9 51 3e 95 8b 48 be a5 7e b3 bd
       -0.06993805 0.2047489 -0.19584496 -0.0876439
0002c0 de 23 ee ba d7 6e fc bc d6 c4 01 3e 43 6a d9 3c
       -0.0018168648 -0.030814571 0.12672743 0.026539927
0002d0 11 7a 94 bd 2c 44 7d bd cb c1 a0 3d bb 14 0e be
       -0.07249845 -0.061832592 0.07849463 -0.13875096
0002e0 da 08 40 3d 75 a1 a3 3d 37 90 ca bd 64 64 20 3c
       0.04688344 0.0798978 -0.09890788 0.00978956
0002f0 ed 80 1a 3e 0b e2 0b bd 8a 99 07 3e 00 92 fd 3c
       0.15088244 -0.03415112 0.13242164 0.030953407
000300 c1 ab 6e 3d 9d 06 d4 3d 8f 5a 4b be 8e b5 56 bd
       0.058269266 0.10352824 -0.19858764 -0.052419238
000310 f6 19 cc bb 31 5b 05 3e d4 ae 9a bc 66 b3 ac bd
       -0.0062286807 0.13023068 -0.018882193 -0.08432655
000320 76 5f 3e bd f3 27 40 be 7b a3 fe 3d 93 81 be bd
       -0.046477757 -0.1876524 0.12433525 -0.09302058
000330 3b d0 90 bd 99 22 19 3e 2e a9 ae 3c 20 cc 3a bd
       -0.07070967 0.14954604 0.021320906 -0.045604825
000340 d7 60 1c bd 55 29 66 bc 47 bb 46 be b7 e3 ac 3d
       -0.03817829 -0.01404794 -0.19407378 0.08441871
000350 32 de e1 bd 04 0e 29 be 5a 63 cd bd ad 43 c4 3d
       -0.110287085 -0.16509253 -0.100287154 0.09583221

Generator.conv1.conv2.0.weight f4 [8, 8, 3, 3, 3]
000000 61 83 d9 3d 81 6d 68 3c d6 6d 5e 3d 32 5a 3e 3b
       0.10620762 0.014186264 0.054303966 0.002904546
000010 7a 24 57 bc 15 0a 12 3c bc 32 40 3d f4 42 da bb
       -0.013131255 0.008913537 0.046923384 -0.0066608135
000020 6a 4f 0a 3e 99 2d b4 3b 70 4a a0 3c a2 84 39 3c
       0.13506857 0.0054985997 0.019566745 0.011323126
000030 00 3f 95 3c 19 3d b5 3d 14 ff 1c bd 6f 46 59 3d
       0.018218517 0.08849544 -0.0383292 0.053045686
000040 2a 5a 03 bd 63 cd b4 3d f5 5c 4a bd 49 b2 06 3d
       -0.03206841 0.08828237 -0.049405057 0.03288487
000050 79 d9 c5 3c 78 c4 be 3c 51 ef 56 3d c4 ff 85 b9
       0.02415155 0.023287043 0.052474324 -0.00025558297
000060 e0 31 53 3d ca f9 36 3d 70 d2 72 3d 49 91 8f bd
       0.051561236 0.04467181 0.05928272 -0.07010133
000070 08 f0 c3 bd 47 53 74 bd c2 45 fb 3c 07 5a 9b bd
       -0.09567267 -0.059649732 0.030672912 -0.07585531
000080 c1 10 50 bd 89 82 60 3b 9e 50 c6 3c dc 6b bf bd
       -0.050797228 0.0034257493 0.024208363 -0.093467444
000090 4a a6 b4 bd 87 b8 a5 3d 16 b4 77 3b 1e 00 e1 3c
       -0.088207796 0.080918364 0.0037796549 0.027465876
0000a0 93 65 71 3d d4 be ca bd 11 ee ec b9 11 ff b2 3c
       0.05893476 -0.09899679 -0.000451908 0.02185014
0000b0 ea 1f ee 3c bb e3 a6 3c d1 ad df 3d 99 4d ec bd
       0.029067952 0.020372262 0.10921825 -0.11538238
0000c0 2d 0a 64 bb 4a 51 92 3d 27 05 d3 bd e7 94 5e bd
       -0.0034796104 0.07144411 -0.10303717 -0.054341223
0000d0 ba 6f a2 bc 3b 56 7c 3c 16 cf bd 3a b0 43 b5 3c
       -0.019828666 0.015401418 0.0014481272 0.022127002
0000e0 ab b7 f0 3c 89 6d 6f 3d c7 65 79 ba 31 c9 1d bc
       0.029384455 0.05845407 -0.0009513762 -0.009630487
0000f0 aa 81 98 3c 35 be 9d bc ad 41 95 bd 14 6b 87 3d
       0.018616516 -0.019255737 -0.07287917 0.066122204
000100 f4 ac 63 3d 0a 0f 7a 3b 25 c3 8f 3a 09 fe 41 3d
       0.055584863 0.0038155937 0.0010968192 0.047361407
000110 82 22 fd 3c c0 bf c7 3d 7d c7 d6 3c 06 b5 1f 3d
       0.030900244 0.0975337 0.02621817 0.038990997
000120 e6 73 17 bc bd 48 b1 bc 40 f2 a6 3d 21 70 be bc
       -0.009243941 -0.02164113 0.08151674 -0.023246827
000130 63 60 4a 3d 67 44 bf bc 47 ea bb 3d 82 c3 be 3d
       0.049408328 -0.023348046 0.09175544 0.09314634
000140 6f ca 67 3d e0 56 c4 bc 45 59 7d 3d 17 fb 29 3d
       0.05658954 -0.023967206 0.061852712 0.041499224
000150 b6 62 0f 3e 73 63 06 3b ae 29 ce bb 8e ba 03 3c
       0.14002499 0.0020506054 -0.0062915897 0.008040084
000160 c0 52 23 bd 1f d0 0e 3c 81 7a aa 3c 5e c8 91 3c
       -0.03987384 0.008716612 0.020810368 0.017795738
000170 32 9a 2e 3d 30 9e 3a bd 79 60 72 3c 6c 21 6b 3d
       0.04262752 -0.045561016 0.014793509 0.05740492
000180 b8 3c 0f bd 3e 1e c0 3c 90 e7 e5 3c aa c6 88 3d
       -0.034970015 0.02345192 0.02806452 0.06678517
000190 0a 7e 3d bd 4e 2c 47 bd a6 46 fe bb c2 67 1c 3d
       -0.04626278 -0.048626237 -0.007759887 0.03818489
0001a0 55 41 55 3d bd 50 f7 3c 0f 68 1d 3d 85 f8 9c 3c
       0.05206426 0.030189866 0.038429316 0.019161472
0001b0 0d 36 c3 3d 19 89 ab bc 3e aa 52 bd 80 41 7d bb
       0.09531794 -0.020939397 -0.051431887 -0.0038643777
0001c0 f0 93 ba 3d b8 56 29 bc d5 08 45 3d 0b 46 7d bd
       0.09110248 -0.010335617 0.048104126 -0.061834376
0001d0 27 67 0c 3d fe 75 2e bd c6 60 1a bd 93 e8 6d 3d
       0.03427806 -0.042592995 -0.037689947 0.05808313
0001e0 4f 1c 6d 3c 8f a2 f3 bb 3e 98 e0 3c 81 3b 81 bd
       0.014472081 -0.00743515 0.027416345 -0.063101776
0001f0 eb 1d 4a 3d d2 2e 55 3d c2 c7 84 bd 14 36 57 3d
       0.04934494 0.052046604 -0.06483413 0.052541807
000200 8c 78 ba 3c 39 2c b4 bc 7b 9b 7b 3d 31 07 40 bd
       0.02276256 -0.021993743 0.061427575 -0.04688186
000210 85 92 ae bd fb e5 95 3d ec 3d d0 bc 36 5d 03 3e
       -0.0852404 0.07319256 -0.025420152 0.12828526
000220 7c 39 4d 3d 30 9a 8c 3d 88 22 1b 3d 7a 0e 85 3d
       0.05010365 0.068653464 0.03787473 0.06496902
000230 fe 09 28 3d 1e ec 21 3d 4f b8 5b bd 40 c0 a5 3c
       0.041025154 0.03953182 -0.053642567 0.020233274
000240 9b 99 b3 bd d5 dd da 3b a5 0f e9 3c c0 02 74 bd
       -0.08769532 0.0066792765 0.028449843 -0.059572935
000250 7f 68 a1 bc de 78 d6 bc 3f ed 32 3c 02 e3 74 3b
       -0.019703148 -0.02618068 0.010920822 0.0037366753
000260 5d 58 98 bd f0 56 34 3c 0f 0a 84 3c 75 d1 1c 3d
       -0.07438729 0.011007056 0.016118078 0.03828569
000270 71 ee ea bc f3 41 66 3d 37 e9 02 3d 89 ee 6c bc
       -0.02867815 0.056215238 0.031960692 -0.014461168
000280 c2 3f a2 bc 8a 2f b1 3c 19 b9 43 3c 23 8f 0a bc
       -0.019805793 0.021629114 0.011945986 -0.008456978
000290 17 f6 d4 bd c2 4d 86 3c d4 a9 b3 bc a8 51 86 bd
       -0.103985004 0.0163945 -0.021931566 -0.065585434
0002a0 60 92 c7 3d 57 95 01 bd 33 17 c1 3b fe 19 03 3c
       0.09744716 -0.031636562 0.005892658 0.0080018025
0002b0 39 a3 c9 bd 42 f7 44 bc 50 c6 cf bb 45 5d 9d 3b
       -0.098455854 -0.0120218415 -0.0063407794 0.0048023784
0002c0 0f 6a a4 bd ab d8 95 bd 42 53 0d bd 5f 42 07 3c
       -0.080280416 -0.07316717 -0.03450323 0.00825557
0002d0 1e fa b9 3a 95 40 26 bd a9 e1 18 3d 14 80 3b bd
       0.0014188921 -0.040588934 0.03732458 -0.04577644
0002e0 ac a5 50 3d 95 dd 5d bc 79 6a bb bd f1 27 20 bd
       0.050939247 -0.013541599 -0.091511674 -0.03910059
0002f0 42 d6 89 bd 30 5f 9a 3d 23 49 90 bd f3 b2 8a 3b
       -0.067303196 0.07537687 -0.070452 0.004232758
000300 50 0c e7 3d 55 36 f0 3c 82 74 37 3d 90 22 ab 3d
       0.11281645 0.029322783 0.044788845 0.08356202
000310 89 b5 78 bd 33 e4 2e 3c cf 3b 92 3d 33 32 e2 bd
       -0.06072 0.010674524 0.07140314 -0.11044731
000320 49 ea a3 bc cc 21 61 3d 98 b6 7f bd 08 07 28 3d
       -0.020009177 0.05496387 -0.062429994 0.04102233
000330 da 6d eb 3d ff 46 01 be 22 09 e1 bb 95 3d 5b 3c
       0.11495562 -0.12624739 -0.006867544 0.0133813815
000340 b7 48 37 3d 14 01 a0 bd 89 89 2b bd 53 17 a8 3d
       0.04474708 -0.07812706 -0.04187921 0.08207574
000350 6b 37 9e bd 7e c0 9c bd 32 b3 f2 3c 0b b7 44 bd
       -0.07725414 -0.076539025 0.029626463 -0.048026126
000360 ab d6 dc 3d bc 45 66 3d 93 e4 26 3e 19 ab 74 bc
       0.10783132 0.056218848 0.16298132 -0.014933371
000370 e7 99 c6 3c 57 ee 94 3d cc 4a a5 3d 23 a0 8d 3d
       0.024243308 0.07272022 0.08070907 0.06915309
000380 11 cf 06 3d 7c 94 84 3d c2 f6 0f 3d f4 f1 cb 3d
       0.032912318 0.06473634 0.035147436 0.09958258
000390 ef 94 c5 bc 1d 92 67 3d 72 87 b2 bc 3c c8 1b 3c
       -0.024118869 0.05653583 -0.021793101 0.009508189
0003a0 79 b8 d0 bc 67 cb d1 bb 60 5e 7f 3d cc bc b2 3d
       -0.025478588 -0.0064024213 0.062345862 0.087274164
0003b0 ce ba fe 3c ba fe b1 3d cf 6c 92 3d fa f0 a6 3d
       0.031094935 0.08691163 0.0714966 0.081514314
0003c0 d3 e7 72 3d 61 16 4f bb f6 e1 db 3d 0b 0c 78 bd
       0.059303116 -0.0031599032 0.10736458 -0.06055836
0003d0 c0 5f f7 bc 4b 04 a0 bc 2e 6d 45 bc ab cf 33 bd
       -0.030197024 -0.019533297 -0.012049956 -0.04389922
0003e0 9b 40 5d 3d ec 0f 82 3d 08 09 38 3d 87 37 27 3d
       0.05401669 0.06350693 0.044930488 0.04082444
0003f0 c5 6d 43 3d 7e 54 18 bd 5c ba 67 bc b0 f8 89 3d
       0.047712106 -0.037189953 -0.014143553 0.067368865

Generator.conv2.conv1.0.weight f4 [8, 8, 3, 3, 3]
000000 39 c5 03 bd 7b 4d ec bd ee 11 8e 3d 8a df ba 3c
       -0.032170508 -0.11538216 0.069370136 0.02281167
000010 e6 f3 b8 bd 33 8f 02 bd 3c 10 9f bd 91 fc cc bc
       -0.09030895 -0.031874847 -0.07766768 -0.025022777
000020 39 eb ed 3c 12 cc 6c bd 86 c3 67 bc f9 f3 cd 3c
       0.029042827 -0.057811804 -0.0141457375 0.02514075
000030 5c aa 88 bd 3e ed e1 3c 29 0f 02 3d 24 f9 01 bc
       -0.066731185 0.027578946 0.03175274 -0.007932935
000040 ad 9c 8a bd 66 6d 89 3d 89 d6 16 3d 06 0f 3a bd
       -0.06768165 0.06710319 0.03682569 -0.045424484
000050 6c fd 4a bc cd a9 b5 3c 4b 97 21 bd 75 e3 bb 3c
       -0.012389522 0.022175694 -0.039450925 0.022935608
000060 31 62 78 3d ce 5c d0 bc b4 59 00 3d 68 f7 72 3d
       0.060640518 -0.025434878 0.031335548 0.059317976
000070 09 ca 08 bd 95 92 3a bd 4d 11 a9 bb 8e 6c 28 bc
       -0.0333958 -0.045549948 -0.005159533 -0.010279788
000080 79 56 1c bd 02 73 b2 3c bc 4b 94 3d 5e 68 17 3c
       -0.038168404 0.021783356 0.07241008 0.009241192
000090 79 5a ca bd fe f2 fb bd fc 99 6f bd f7 5f 9d bd
       -0.098805375 -0.123022065 -0.05849646 -0.076843195
0000a0 4a 17 a7 bd 53 7c bf bd 39 e1 c1 3d f7 8c 51 bc
       -0.08158739 -0.09349885 0.09466786 -0.012789956
0000b0 fb 43 e7 bc 66 93 e3 bc f3 fd 6e bd 1e 38 0c be
       -0.028230658 -0.027780246 -0.058347654 -0.13693282
0000c0 f0 a3 92 3b 8f 9e 77 bd a2 0c c1 bd c3 5a 2b 3d
       0.0044751093 -0.060453948 -0.09426238 0.041834604
0000d0 12 b7 07 bd 1e 36 93 bd b2 1b 83 bd 2f 7f 03 3c
       -0.033133574 -0.071880564 -0.06401767 0.008025928
0000e0 a0 b8 97 3d 70 93 97 bc 9b 24 6e bd e1 ad e8 3d
       0.07408261 -0.01850292 -0.05814038 0.1136129
0000f0 3f dd ef 3c ee 56 18 bd 89 d4 6b 3d 39 e8 f2 bd
       0.029280303 -0.037192278 0.057575736 -0.11860699
000100 1d bd 63 3c 8b 84 94 3d f1 46 40 bd e0 b7 92 bc
       0.013900069 0.07251843 -0.046942655 -0.017909944
000110 ae 68 b6 3d ce 19 cf bd 59 d4 af bc e7 f9 41 3d
       0.08906685 -0.10112344 -0.02146356 0.047357466
000120 38 4d c7 bd 3e 22 8a bc 1b 6f 85 3d 39 c7 c8 bd
       -0.09731525 -0.016862031 0.06515332 -0.09803624
000130 71 65 27 3d 90 df a8 3d 2c 01 18 bd d6 96 77 bd
       0.040868226 0.08245766 -0.037110493 -0.060446583
000140 bb 1b 52 3d 16 42 6d 3d e9 36 65 3c 07 1f 95 3d
       0.051295977 0.057924353 0.013990142 0.072813086
000150 7c 32 33 bd 6e af d4 bc ae 63 15 3c 74 62 bd bc
       -0.043749318 -0.025962558 0.009118004 -0.023118235
000160 78 67 0f bd 41 05 b2 3d f2 e3 94 3d 55 44 ff ba
       -0.035010785 0.08692408 0.072700396 -0.0019475321
000170 d2 01 6a 3d 62 c6 3b 3d 15 bf 44 3b 23 91 13 3d
       0.057130642 0.04584349 0.003002112 0.036027085
000180 7b b4 f4 3a 0d 50 27 bd 17 a8 56 3d cd 83 f0 39
       0.001866951 -0.040847827 0.052406397 0.00045874566
000190 e8 ba 32 3d 3e 83 10 bd db 7e 97 bd 2d 92 4e bd
       0.04363528 -0.035281412 -0.07397243 -0.050432373
0001a0 29 c5 33 3d d9 d0 af bc 01 07 5c bd e1 7d db 3b
       0.0438892 -0.021461891 -0.053717617 0.0066983555
0001b0 e4 a5 89 3d 4f ed 5f 3d e0 31 04 bd 2f 25 70 3a
       0.06721094 0.054669674 -0.032274127 0.0009160814
0001c0 d2 1b 5a bd 8c 3b 0e ba e4 c2 64 bc 15 9b 9e bc
       -0.053249188 -0.00054257433 -0.013962481 -0.019361058
0001d0 5e d9 49 3c 80 72 43 3b 3f 33 a6 3b e3 91 51 3d
       0.012319891 0.0029822886 0.005072027 0.05116452
0001e0 f7 d6 0d 3d 15 5e 65 3d f3 9b 69 3d 24 98 6b 3d
       0.034628835 0.055997927 0.05703349 0.05751814
0001f0 e4 e7 29 bd be d1 aa 3d 09 db 04 bd b7 8b c9 3c
       -0.041480914 0.083407864 -0.03243545 0.024602754
000200 8f 2f 87 3d 97 1d 18 bd bb 9b 3f 3d 50 9b 80 3d
       0.06600868 -0.037137594 0.046779376 0.062796235
000210 09 12 e9 3c f4 89 bf bc b0 8d 58 bd 90 5d 8c 3c
       0.028450983 -0.02338121 -0.0528695 0.017134458
000220 7e ca 8a 3d 49 69 e0 3b 04 8f bc 3c bd 92 84 3d
       0.067769036 0.0068484885 0.023017414 0.064733006
000230 d7 09 48 3d cb 38 a8 3c a8 e7 85 bd cc 34 ea bc
       0.04883751 0.020534893 -0.065383255 -0.028589629
000240 38 f8 1b 3d c8 06 8b 3b 59 f1 f4 bb 1e 30 17 3b
       0.038078517 0.0042427517 -0.00747506 0.0023069452
000250 a0 41 2d bd 1d 02 12 bd 33 90 66 3c 7d 31 3e bd
       -0.042298913 -0.035646547 0.014072466 -0.046433914
000260 d0 cf d7 3c 07 7d 06 3d c1 07 09 3c 11 b8 fd 3c
       0.02634421 0.03283408 0.008363665 0.030971559
000270 26 93 d0 bc d6 c3 de 3c fc 5f 82 bc 4a 01 a6 bd
       -0.02546079 0.027192991 -0.01591491 -0.081057146
000280 d9 7e 00 be 59 0c cd 3b 84 b6 78 3d 2e 8a a0 3d
       -0.12548389 0.0062575755 0.060720935 0.07838856
000290 53 a7 b1 3d a3 7e 03 3d ed aa 92 bb d4 68 32 3c
       0.08674493 0.032103192 -0.0044759423 0.010889251
0002a0 4d 72 30 bd c1 16 84 3d 03 66 54 bc fb a8 01 bc
       -0.043077756 0.064496525 -0.012963775 -0.007913823
0002b0 42 27 32 3b ed ef 0a bc c5 26 bc 3c 1f 3b 97 3d
       0.0027184044 -0.008480054 0.022967706 0.07384323
0002c0 c7 ca b8 3d 0d 9c 5f 3d 36 8b 18 3d 0f c4 72 3d
       0.09023052 0.05459218 0.037242137 0.059269007
0002d0 98 8e 97 3d fb 9f a5 3c 63 94 e8 bb 83 91 39 bd
       0.074002445 0.020217886 -0.007097767 -0.045304786
0002e0 0f 2a 89 3d d9 42 ba ba 86 0d 4d 3d b2 ad 2c bd
       0.06697475 -0.0014210596 0.050061725 -0.042157836
0002f0 08 7b 36 3d 04 9f 7a 3c 2e 3a 07 bc ff aa b9 3d
       0.044550925 0.015296701 -0.008253617 0.09065818
000300 1c c5 98 bd fc 9b 81 bd c7 34 86 3d 79 8d 9c bd
       -0.07459471 -0.0632858 0.06553035 -0.07644171
000310 ab e0 09 bd db a2 28 3d 0f b0 93 bc b4 b9 b3 bd
       -0.033661526 0.041170936 -0.018028287 -0.087756544
000320 75 2e ad 3d 4c d8 a3 bd 7e 89 13 bd 06 8d 49 3d
       0.084561266 -0.0800024 -0.036019795 0.049206756
000330 17 81 cd bc 2c ec 01 be 2c 3b a6 3d f9 9b 6b bd
       -0.025085969 -0.12687749 0.08116755 -0.057521794
000340 2f 1c 99 bd c5 f8 c2 3c ae ea 20 3c df f1 44 3a
       -0.07476079 0.023800263 0.009821577 0.0007512848
000350 6f 2c 04 3c c5 07 9a bd 08 9b a7 bd e3 de 4a bd
       0.008067234 -0.07521013 -0.08183867 -0.049528968
000360 6f 97 24 bd 6d 71 87 3d e3 ef da bb 02 81 6a bd
       -0.04018348 0.06613431 -0.0066814288 -0.057251938
000370 22 f9 90 3d c6 ac 1d 3d b6 6d 63 3d 67 b0 fe 3b
       0.07078768 0.038494848 0.05552455 0.0077724936
000380 78 c0 ad 3d fd 7a 96 bd 3c 19 39 bd 23 63 15 3d
       0.08483976 -0.07347677 -0.04519008 0.036471497
000390 b7 74 31 bd 5e b3 76 3c 9c 2e 2a 3d dc b3 35 3c
       -0.0433242 0.015057413 0.041548356 0.011090245
0003a0 9c 84 7e 3d 14 68 f9 bb b6 78 69 3c 48 61 b1 bd
       0.062138185 -0.007611284 0.014249971 -0.08661133
0003b0 33 03 5b bc ef 23 51 3d 1d 12 ff 3a b8 aa 8f bc
       -0.013367462 0.05105966 0.0019460354 -0.01753746
0003c0 f4 29 07 3d 0b 67 82 3d 82 63 98 bc e7 49 ca bc
       0.032998994 0.0636731 -0.018602137 -0.024693443
0003d0 7f d7 84 bc de 26 32 bc 3f 8c f8 bc f2 e4 34 3d
       -0.016216038 -0.0108735245 -0.030340312 0.04416365
0003e0 b7 41 be 3c 25 54 40 3d a6 06 4f 3d 0a 67 cb bc
       0.023224695 0.046955246 0.05054345 -0.024829406
0003f0 9d 0f ea bd 0e 6d e9 bd 5b cc 7b bd 3c c4 14 bd
       -0.11428759 -0.11397754 -0.061474185 -0.036319956

Generator.conv2.conv2.0.weight f4 [8, 8, 3, 3, 3]
000000 0d c3 1a 3c 91 a8 53 bd d3 7e 2a 3c 1a f7 ec 3c
       0.009445918 -0.05167443 0.010406214 0.028926421
000010 9a a9 ad 3d 94 10 27 3d 0b c1 6d ba ba 17 c3 3c
       0.084796146 0.040787295 -0.0009069598 0.023815025
000020 07 9d 8b 3d 12 44 52 3d b0 5e d4 3b 93 03 86 3d
       0.0681706 0.05133445 0.006481014 0.065436505
000030 df 61 ff 3b c3 5b 39 3d 71 b7 0f bd 2c 00 7d 3d
       0.0077936496 0.045253526 -0.035087053 0.061767742
000040 ee 34 ef bc 08 f5 cb 3c 83 58 1b bd af 94 3b bd
       -0.029200044 0.024897113 -0.03792621 -0.045796093
000050 37 80 36 bc fe 4a 5c 3d 28 b0 80 bd 52 c9 85 bd
       -0.011138967 0.053782456 -0.06283599 -0.065325394
000060 42 a4 8d bd 9c 83 d1 bb 5a 37 a4 bc 65 d6 85 3d
       -0.06916095 -0.006393863 -0.020045925 0.06535033
000070 86 d9 4b 3d 58 86 7d bc 00 58 e9 3c 61 75 37 3d
       0.049767993 -0.015473925 0.028484344 0.044789676
000080 ec 9a dd 3d c4 1d 85 3d 46 85 53 3c 96 5c f0 3a
       0.10820565 0.06499818 0.012910193 0.001833814
000090 13 e7 c4 3c f8 3c ad bc 17 d4 32 bd 0f 58 30 3b
       0.024035966 -0.021147236 -0.043659296 0.0026907956
0000a0 7f 9c 8f 3d 42 7d 68 3c 3e 4d 58 bc 6d be c6 bc
       0.07012271 0.01419002 -0.01320201 -0.024260724
0000b0 a7 82 3a 3d 8b 1a f9 3b d6 cd 60 3d df 4a 21 bc
       0.045534756 0.007602041 0.0548838 -0.009844511
0000c0 1d c1 61 3d fc 3d cb ba 49 03 b2 bc 22 aa c1 bc
       0.055115808 -0.0015506144 -0.021730082 -0.023640696
0000d0 d5 d6 2f 3d 04 3f 01 bc f0 5c ca 3d 1f 27 b7 3d
       0.04292949 -0.007888559 0.09881008 0.08943009
0000e0 67 e6 25 3d d2 84 82 bd 93 8b 4c bd f7 8b ec 3c
       0.040502932 -0.0637299 -0.049937796 0.028875334
0000f0 57 d7 47 3c 72 59 6a bb 34 00 dc ba 8d ad 87 bd
       0.012197337 -0.003575888 -0.0016784729 -0.06624899
000100 e1 44 3a bd aa d1 46 3c 39 a8 c2 bd 71 ac 9e bc
       -0.045475844 0.012134949 -0.09504742 -0.019369336
000110 f9 b4 67 bd 22 5b 56 bc 04 b7 fe 3a df 75 9b bd
       -0.056569073 -0.013083251 0.0019433205 -0.075908415
000120 26 c8 09 bd e0 14 79 bc f6 2b 31 3d 45 00 3f bc
       -0.033638142 -0.015202731 0.043254815 -0.011657779
000130 c4 be 97 bd 26 2b c0 3b 0f 87 1e 3d a2 0f b2 bc
       -0.074094325 0.0058645187 0.03870302 -0.02173597
000140 fa f4 fe bd f0 5e 22 3d 3c 4a ce 3d 88 90 d9 3d
       -0.12449069 0.03964132 0.10072753 0.1062327
000150 e2 48 df bc fd 01 ab 3d e9 ce 04 bc b5 e1 12 3b
       -0.027256433 0.083499886 -0.008105972 0.0022412364
000160 5e 25 5b bc 52 90 15 bd a4 0e 99 3d 15 e2 0a 3d
       -0.013375608 -0.036514588 0.074734956 0.033907015
000170 a8 4a 23 3d 95 9d a2 bb 2b 71 4d 3c ba b2 99 bd
       0.03986612 -0.004962633 0.012539188 -0.075047925
000180 8d bc a3 bc 78 f2 8b bd 08 f1 28 3d 54 db 3b bd
       -0.019987369 -0.068333566 0.04124549 -0.045863464
000190 b5 8d 79 bd b0 c4 05 3b 95 a4 d9 bd 40 42 1f bd
       -0.060926158 0.0020411424 -0.10627095 -0.03888154
0001a0 1f 42 b6 bd 67 ae 52 bd a6 7f f9 bd fc 13 62 bd
       -0.0889933 -0.051435854 -0.1218255 -0.05519484
0001b0 1e 89 9c 3c 6f b9 2f bc 89 7d 27 bd ef 75 e9 3c
       0.019108351 -0.010725363 -0.040891204 0.028498618
0001c0 8a f0 87 3c f2 6f a1 bc b3 39 cf 3d 14 15 3e 3d
       0.01659419 -0.0197067 0.10118427 0.04640682
0001d0 88 4e d2 3d e5 8c c9 bc 76 29 95 bd 89 c7 54 bd
       0.10268885 -0.024603317 -0.07283299 -0.051948104
0001e0 0d 21 b8 bd 7b 91 b7 bd 36 c8 a0 bd cb dd 75 3d
       -0.08990679 -0.08963295 -0.07850687 0.06002597
0001f0 55 68 4a 3c e5 be 87 3d 96 c3 1b be 4f 4e 29 be
       0.012353976 0.06628207 -0.15211329 -0.16533779
000200 ba 1d 87 bd 40 4e 85 bc 24 1a d7 bc 2a 58 b2 bd
       -0.06597467 -0.016272664 -0.026257582 -0.08708222
000210 9a f8 f7 bb 42 fe a0 bc 16 72 82 bd 16 5d ee bc
       -0.0075674774 -0.01965249 -0.063694164 -0.029097121
000220 54 58 d4 bd 98 4a 25 bd 6a d0 83 bd 72 95 10 be
       -0.1036841 -0.04035434 -0.06436236 -0.14119509
000230 0e e4 ea bd 46 85 9b bd 5a c3 ba bd 95 d5 9c bc
       -0.11469279 -0.07593779 -0.091192916 -0.019144813
000240 0b eb 24 bd f6 86 2b 3d 05 61 88 bd ef 79 cc 3b
       -0.040263217 0.041876756 -0.0665913 0.0062401216
000250 10 12 2e bd 3f c3 23 be f2 f9 8d 3d 2e d2 8b bd
       -0.042497694 -0.15992449 0.06932439 -0.06827198
000260 78 ee 26 be 80 1a 19 bd c9 79 a1 bd b6 78 3c 3a
       -0.16301906 -0.037378788 -0.07884557 0.0007189618
000270 99 8e 0d bd 23 c1 44 bd 08 52 33 be b4 2f 34 3d
       -0.03455982 -0.048035752 -0.17511761 0.043990806
000280 14 ba a0 bd 68 cc 9d bd 4c a3 0a 3d ad 9a 38 3a
       -0.078479916 -0.07705003 0.03384714 0.00070420915
000290 ca a9 e1 3d 36 36 1f bd eb 48 21 3c 17 b7 c9 bc
       0.11018713 -0.03887006 0.009844045 -0.024623437
0002a0 5e 85 a1 3c 9c c9 d6 bb 79 2c 3a bc c5 98 f7 bb
       0.019716915 -0.0065547954 -0.011363142 -0.0075560533
0002b0 1c 20 2d bd 80 40 c3 3c a0 38 3b 3d 2f a7 27 bb
       -0.04226695 0.023834467 0.0457083 -0.0025581827
0002c0 68 c1 63 3c ab e8 68 bd 47 08 e7 3c af 8e c3 bd
       0.013901092 -0.056862514 0.02820219 -0.09548699
0002d0 79 91 3d bd f2 1d a9 3d 3d 16 a5 3c b0 2b 20 bd
       -0.04628131 0.08257665 0.020152206 -0.039104164
0002e0 df 04 a5 3d f5 70 12 bd 74 58 46 3d 68 08 3f 3d
       0.0805757 -0.035752255 0.0484242 0.046638876
0002f0 17 04 11 3d 3f 64 f7 3b 10 3a 88 bd 30 9c 82 bd
       0.03540429 0.007549792 -0.066516995 -0.06377447
000300 83 9a 04 bd a3 95 5f bd 27 48 3e bd 85 97 03 bd
       -0.032373916 -0.054586064 -0.04645553 -0.032126922
000310 e4 c8 cf bb 4d db 08 bd 97 f0 19 bd 05 88 0d 3c
       -0.0063410867 -0.033412267 -0.03758296 0.008638387
000320 89 dc 15 3b 9c 88 86 3c 0f 57 73 bc 44 c4 4d 3d
       0.0022867045 0.016422562 -0.014852299 0.050236
000330 25 26 78 3d 6d 13 84 3d 28 08 27 3c 22 4e 82 3d
       0.060583252 0.06449018 0.010194816 0.06362559
000340 3d 0b 13 3b 67 f8 23 3d 5c 95 a9 3c e9 81 b2 3d
       0.0022437118 0.040031817 0.020701103 0.08716185
000350 03 ec 55 3c 33 56 0f 3e d3 68 b0 3c 32 13 cb 3c
       0.013056758 0.13997726 0.02153436 0.024789426
000360 9e b1 ce bd 2e dc 5f bd 26 20 38 3c c5 9f 07 bd
       -0.100924715 -0.05465334 0.011238134 -0.033111352
000370 87 a7 28 bd c4 72 c2 bd ca f8 c8 bd 2d 34 b0 3c
       -0.04117539 -0.09494546 -0.09813078 0.021509254
000380 8c 64 3b bc 2e 35 45 3d 0b 76 db 3c 5c 63 ce bc
       -0.011437546 0.04814642 0.026789686 -0.025193863
000390 e6 65 3a 3d 84 1e 49 3c ca 13 2a bc 22 30 8f bc
       0.045507334 0.012275342 -0.010380695 -0.017479006
0003a0 ac 02 46 bc 77 63 28 3d 03 6b 9f 3b c8 ec 53 3d
       -0.012085598 0.041110482 0.0048650517 0.051739484
0003b0 96 1d c5 3c 97 a4 d5 3d d2 cc 67 3d 6d 54 07 3d
       0.02406196 0.10431784 0.056591816 0.0330395
0003c0 c8 50 d3 3d 07 3d 97 bb 8f 28 91 3c 8e a8 a1 bd
       0.10318142 -0.0046154293 0.017719535 -0.078934774
0003d0 77 0e 95 bd 12 75 11 3d eb 2d 9f bd 79 fc 82 bd
       -0.072781496 0.035512038 -0.0777243 -0.063958116
0003e0 7f c5 da bc 02 00 1f be d3 50 4a bd 66 81 dc ba
       -0.026705502 -0.15527347 -0.049393486 -0.0016823232
0003f0 09 df 5e 3d 23 be 3d 3d 6c 1f 84 bd c9 f7 49 3d
       0.05441192 0.046323907 -0.06451306 0.049308572

Generator.conv3.conv1.0.weight f4 [8, 8, 3, 3, 3]
000000 75 3d dd bb 0d 79 8e 3d c7 39 c8 ba a5 4b 43 bd
       -0.006751711 0.06956682 -0.0015276008 -0.047679562
000010 6a c0 d5 bb 64 a6 1a 3d bf 8c a3 3d 91 ac 12 bd
       -0.0065231817 0.03775634 0.079858296 -0.035809103
000020 5d 41 5c bc 81 54 d3 bc a7 53 f7 3c f3 1e 12 bd
       -0.013443318 -0.02579713 0.030191256 -0.035674047
000030 9b 68 a3 3c dd 5e 3b bc 88 bc 61 bd 60 2e 02 bd
       0.01994734 -0.011436191 -0.055111438 -0.031782508
000040 d9 2f 2a 3d 1d f9 c6 bc 2d 28 91 bc 6a 35 b0 3d
       0.041549537 -0.024288708 -0.017719353 0.08603938
000050 a7 50 0c 3d 4a 84 4d 3d 7c 18 5f bd 42 08 f3 3c
       0.034256604 0.05017499 -0.05446671 0.029667024
000060 05 48 7c bd e1 e5 8e 3c c2 19 16 bd 3f 77 a0 bc
       -0.06159212 0.0174436 -0.03664566 -0.019588111
000070 77 43 a7 3c aa 52 55 3d 33 e8 a1 3c a0 f5 e5 3c
       0.020417912 0.052080788 0.019764042 0.028071225
000080 72 cb 20 bd b6 c2 dc 3d 00 93 51 bd bd 4e 1e 3c
       -0.03925652 0.10779326 -0.05116558 0.009662327
000090 5c a3 34 3c 8e 2f 69 3d b1 f5 03 3e 9c 58 28 bd
       0.011025276 0.056930117 0.12886693 -0.04110013
0000a0 09 a8 68 bc ab 80 8d bd ba e5 d6 ba 22 be c8 bd
       -0.014200219 -0.06909307 -0.0016395368 -0.0980189
0000b0 85 a0 66 3b 71 a1 c3 3c e1 5a 59 3d 9e 62 28 bd
       0.0035190892 0.023880692 0.053065185 -0.041109674
0000c0 62 3c 93 3c 1f cf 92 bc eb 0f 6d bd f1 77 6d 3c
       0.017973129 -0.017921029 -0.05787651 0.014493928
0000d0 20 5d bd bc 08 2b 9b ba 2e 76 2f bd e1 6d e3 3b
       -0.023115695 -0.0011838386 -0.042837314 0.006940589
0000e0 fb 24 f0 bc 9b 65 c4 bc f2 09 c2 bc 0a bd 4a 3d
       -0.029314509 -0.02397423 -0.023686383 0.049496688
0000f0 b9 8d e6 bc d7 0f 05 bd 57 b2 90 bc 01 0b 73 3c
       -0.02814375 -0.03248581 -0.017663164 0.0148341665
000100 f9 30 12 3d f2 0e 7b 3d 3e 62 b1 bc 83 81 c1 3d
       0.035691235 0.06129355 -0.02165329 0.094485305
000110 e4 fd ac 3d 98 b2 44 bd b9 c4 cb 3a c5 d6 dd bc
       0.08446863 -0.048021883 0.0015546299 -0.02707995
000120 51 5f cf bb e8 d5 5d bd 4c 11 63 3d c3 81 24 bd
       -0.0063285013 -0.054159075 0.055436417 -0.040162813
000130 85 c8 2c 3d cb 0c 1c 3c 79 79 e3 3a e9 5a 59 bd
       0.042183418 0.009524534 0.0017354927 -0.053065214
000140 c2 cb a6 bc aa cb 4c 3c 00 f8 83 ba 6b 48 fe 3c
       -0.020360831 0.012499729 -0.0010068417 0.031040391
000150 ad 20 ed bc 5d c3 b7 3b 19 98 87 bb f0 73 b6 3d
       -0.028946245 0.005608006 -0.0041380045 0.08908832
000160 16 fd 2b bd 21 d8 13 3d 13 6e 04 bc 2f 66 56 3d
       -0.04198941 0.03609479 -0.008082884 0.052343544
000170 bb 2e 5b 3d 77 21 42 bd 46 c0 79 3d 05 83 72 3b
       0.053511363 -0.047395196 0.060974382 0.0037004363
000180 2b 29 2e bd 36 72 c6 bc 6c 17 9b 3b 1d 23 7b bd
       -0.04251973 -0.024224382 0.0047330167 -0.061312784
000190 19 6e 7b 3d e1 2a 1c 3b 99 e6 cf 3b a8 81 9f 3d
       0.061384294 0.0023829269 0.006344628 0.07788402
0001a0 b4 56 81 3d 9e eb c4 bb 25 05 a7 bc 84 00 81 bd
       0.063153654 -0.006009533 -0.020388195 -0.062989265
0001b0 fd 47 ee 3c ba 72 eb bc de d6 f0 3b 71 ab 90 3d
       0.029087061 -0.02874123 0.007349833 0.0706395
0001c0 ca 70 bc bc 57 d0 c6 3c d0 ad 9f 3d 3d 6c 25 3d
       -0.023003 0.024269266 0.07796824 0.040386427
0001d0 92 f9 5f bd 6f 78 ee 3b 7e 93 27 3d 0a 9e 42 3d
       -0.05468137 0.0072775404 0.040912144 0.047514
0001e0 d5 b9 0f bc 79 ab 3a 3d 0a 6b 84 3d 9f bb ae 3c
       -0.008772333 0.045573685 0.064657286 0.0213297
0001f0 d3 a5 81 3d 86 18 6f bd 34 90 ed bc 3c 16 c1 bc
       0.063304566 -0.058372997 -0.028999425 -0.023570172
000200 ef 2c 5d 3d 20 98 47 bd ee c5 29 bd 15 6f b5 bb
       0.05399793 -0.048729062 -0.041448526 -0.0055369237
000210 c4 e6 66 3d 22 0d 6b bd 1e d4 e2 bb fb 39 43 bd
       0.05637242 -0.05738557 -0.006922259 -0.047662716
000220 d0 7b 9f 3d dd 53 9f 3c df 76 b3 3b 00 a1 7c 3d
       0.07787287 0.019449169 0.005476817 0.06167698
000230 eb 6d 61 bd 5c 00 cc 3c 70 14 66 bc 46 ac 0d bc
       -0.055036467 0.024902515 -0.014042959 -0.00864703
000240 45 03 06 3d 47 8a d9 3d 80 2c ae 3c f1 d0 fb bc
       0.03271796 0.106220774 0.021261454 -0.03073928
000250 7e 53 3c 3d e5 c2 ca 3c 9c d3 92 bc d5 a2 8c bd
       0.04597806 0.024751136 -0.017923169 -0.06866995
000260 02 50 2f ba 8a b2 72 bd 30 ed b0 3d 7a c6 6f bd
       -0.00066876423 -0.0592523 0.0863899 -0.05853889
000270 13 d0 33 bd f0 34 0c 3d 69 ff 16 3d f6 20 0b 3d
       -0.043899607 0.034230173 0.03686467 0.03396698
000280 d5 62 51 bd 18 4f 7c bd cb 2f 66 bd 79 b2 ee 3b
       -0.051119644 -0.061598867 -0.056197923 0.007284459
000290 7e 58 81 3d b2 53 e9 3c 9a ce 15 bc 5b f6 c3 bc
       0.06315707 0.028482292 -0.009143496 -0.023921182
0002a0 82 8c 2a 3e cf be a0 3c 45 9b 4c 3d 72 78 b5 3c
       0.16655162 0.019622235 0.049952764 0.02215216
0002b0 39 ee c8 bd ac 2a 8d 3d ed c7 8b 3d 97 98 8c bd
       -0.09811062 0.06892905 0.06825242 -0.06865042
0002c0 9a 9d 87 3d bc ff 4f 3d f1 3a 50 3c 76 f4 97 3d
       0.06621857 0.050780997 0.012709365 0.07419674
0002d0 c5 ff 29 3d 98 44 76 bd 5d d9 10 bd 0f 4f 81 3b
       0.041503686 -0.06012401 -0.035363544 0.003946192
0002e0 ff 0f 9b bb 74 f4 c7 bc 37 45 41 bc f3 ac 9f 3c
       -0.0047321315 -0.024408557 -0.011796287 0.019491648
0002f0 8b 78 3f 3d 92 ea c5 3c f1 b7 13 bb b7 7d 24 bc
       0.046745818 0.024159703 -0.0022540058 -0.010039738
000300 8e 48 aa 3c 23 69 8d 3d 53 be d3 3b 40 e2 92 bd
       0.02078655 0.06904819 0.0064618974 -0.0717206
000310 b8 77 08 3d 48 6c c6 3c a2 70 2f bb c9 fa 41 bc
       0.033317298 0.024221554 -0.0026770015 -0.011839577
000320 c9 6f 15 bd 48 c4 1e 3d f1 2a 25 3e b8 b8 58 3d
       -0.03648356 0.038761407 0.16129662 0.052910537
000330 ac af db bc 35 22 b6 bc 9f bc 98 3d a4 ee 8d bb
       -0.026817165 -0.022233108 0.074578516 -0.0043314267
000340 b3 7a 7c bd c9 7f 67 3b dc 84 a1 3d d3 50 0b 3e
       -0.061640453 0.0035323969 0.07886669 0.1360505
000350 37 3f 5d bd 39 8d 0a bd e4 c3 a6 bc f4 fe 29 bd
       -0.054015364 -0.033826087 -0.02035708 -0.041502908
000360 71 57 32 3d a4 85 4a bb 8c 06 a6 bd 28 c3 e9 3c
       0.043540422 -0.003090241 -0.081067175 0.02853544
000370 27 b9 80 3c 55 9e ff 3c fd c0 cc 3c 91 bf f0 3c
       0.015713288 0.031203428 0.024994368 0.029388221
000380 fa d0 3f bc 28 75 8f 3d 54 c5 92 bd 52 4c 21 bd
       -0.011707539 0.07004768 -0.071665436 -0.039379425
000390 8d 05 b1 3c 98 c3 39 3d b0 e9 30 bd 19 0a 22 bd
       0.021609092 0.04535255 -0.04319161 -0.03956041
0003a0 66 6c 80 3d 85 4a 77 bd 41 82 7c 3c fc f6 f4 3c
       0.06270675 -0.0603738 0.015411914 0.029902928
0003b0 7f 09 e6 bc 33 51 00 3d f0 53 d4 3c 5c a0 8c bd
       -0.0280807 0.031327438 0.02591893 -0.068665236
0003c0 4a b5 16 bd 94 05 cb bc a5 c1 ad 3c 7a c5 7c 3d
       -0.036793984 -0.024782933 0.021210501 0.061711766
0003d0 d4 b7 14 bb 86 f1 c4 bc 9c a3 32 3d fe f0 e0 3d
       -0.0022692578 -0.024040949 0.04361306 0.109834656
0003e0 23 70 05 bc b5 c1 ee 3c a4 98 10 bd 75 9c 04 bd
       -0.008144411 0.029145101 -0.03530182 -0.03237577
0003f0 94 b7 c1 3d f8 2f 35 3d f3 b2 b8 3a 88 31 f8 3d
       0.09458843 0.0442352 0.0014091417 0.12118822

Generator.conv3.conv2.0.weight f4 [8, 8, 3, 3, 3]
000000 fa 04 87 bd 98 88 09 bb ed 2e cc 3c eb b3 98 bd
       -0.06592746 -0.0020985957 0.02492472 -0.07456192
000010 b6 7c 10 3c 4f 27 a1 bc 93 5e b4 bd 44 10 d0 bc
       0.008818796 -0.019672064 -0.08807101 -0.025398381
000020 5f d9 b4 bc f3 e7 25 bd 08 a1 85 bd c8 32 53 3d
       -0.022076307 -0.040504407 -0.06524855 0.0515621
000030 4d 83 8a 3c 3b c2 dc 3c e2 9b e5 bc 15 d4 44 bd
       0.016908312 0.026948085 -0.028028432 -0.04805382
000040 16 6c dd 3c f7 19 b1 bc 7a d6 0e bd 69 8f 11 bd
       0.027029078 -0.021618826 -0.03487251 -0.035537157
000050 46 d8 16 bd 37 e6 09 3d 90 3f 18 3d 93 f4 32 3d
       -0.03682735 0.033666816 0.037169993 0.043690275
000060 5e ae b7 bc 9f ae 9f 3d 1d 10 db 3c f9 22 43 bd
       -0.022422012 0.07796978 0.026741082 -0.047640774
000070 5d 37 1e be ed 4f dd bd 1b a6 7f 3d 04 c6 e9 bd
       -0.15450807 -0.1080626 0.06241427 -0.114147216
000080 9b aa 0d be 57 e3 62 3d 09 b4 32 3c 79 10 6c 3d
       -0.13834612 0.05539259 0.010907182 0.057632897
000090 dc c8 a8 3c 55 c5 1e bd 0a 79 0c bc 7d 5a 8f bd
       0.02060359 -0.03876241 -0.00857378 -0.06999681
0000a0 cb 4a 06 bd 3f 07 1a 3c 25 21 63 3d db 67 24 bd
       -0.032786172 0.009401142 0.05545153 -0.040138107
0000b0 98 ee dd bc dc 91 36 3d 09 fa 33 3b 64 cb a1 bd
       -0.02709131 0.044572696 0.0027462265 -0.07900122
0000c0 0f 91 9b bc 86 5c 14 bc b5 c2 88 bd 90 ac 2c 3d
       -0.018990068 -0.009055262 -0.066777624 0.042156756
0000d0 0f c2 02 bd 7c 30 66 3b 94 96 8b bd 4d 4a 38 3d
       -0.03192335 0.0035124114 -0.0681583 0.044992734
0000e0 f7 85 a6 bd d1 d3 e1 bc dc 44 b7 bc be cd 68 bc
       -0.081310205 -0.027566822 -0.022371702 -0.014209209
0000f0 87 7c aa bd bd 3e 90 bd 4d 76 1f 3e 75 36 1d 3d
       -0.08324533 -0.070432164 0.15572472 0.038382012
000100 53 48 2e bc d6 bd b3 3c 69 3f 47 3d a5 19 ae 3d
       -0.010637361 0.021941107 0.048644457 0.08500985
000110 89 db 8d bd 0c f8 b9 bd f9 1f 37 3d d4 c3 49 3d
       -0.06926639 -0.09080514 0.044708226 0.049259022
000120 d5 25 e7 3b 7b 3e 0c 3e 37 4f 53 3c fa 7f d9 3c
       0.0070540705 0.1369571 0.012897304 0.026550282
000130 d4 5b 08 3e 71 2d b0 bc 01 db 90 bd f0 73 d0 bd
       0.1331628 -0.021506043 -0.07073022 -0.10178363
000140 02 e0 b1 3d 26 c9 3d bc 3c 95 7d 3d 95 60 6d bc
       0.08685304 -0.011583602 0.0619099 -0.014488359
000150 41 19 00 bd 88 40 c8 3b d5 94 00 3d 41 25 7c bc
       -0.031274084 0.0061112083 0.031391937 -0.015389741
000160 10 ab 30 bd 27 a6 ba 3c e1 69 e6 bb 5b 06 17 bb
       -0.043131888 0.022784306 -0.0070316647 -0.002304456
000170 17 aa 40 3c f1 be 8d bd 82 e5 ef bd 1b d3 8d 3c
       0.011759303 -0.06921185 -0.11713697 0.017312577
000180 c0 f8 00 bc 2c 78 af bd fe c4 20 3c 21 e8 65 bc
       -0.007871807 -0.08567843 0.009812592 -0.014032395
000190 44 a7 7d bd 45 cb 1d 3d 1a c3 8d 3c fa 6f ad bd
       -0.061927095 0.03852393 0.017304946 -0.084686235
0001a0 e8 03 1c bd 76 14 94 bb 27 87 bc bc 3c 6a 8e bb
       -0.038089663 -0.0045190407 -0.023013664 -0.00434616
0001b0 8f 7a c7 bd 05 82 38 bd 2d 95 5a bd fa 5a 49 3d
       -0.09740173 -0.04504587 -0.05336492 0.049159028
0001c0 9a 21 17 bd ba c4 d3 bd 66 d7 db bd 00 bb 61 3c
       -0.03689728 -0.10340257 -0.10734443 0.013777494
0001d0 4c ef 96 bc 72 1b 9e 3b 96 43 da bc 93 42 83 3d
       -0.018424653 0.004825049 -0.026643556 0.064091824
0001e0 08 ab ce 3d 06 f3 22 3d 87 1a e6 bb c4 05 44 bd
       0.10091215 0.039782546 -0.0070222053 -0.04785706
0001f0 32 ec b1 3c a3 e5 8e 3b c0 8a a8 bd 5a 59 2d 3c
       0.021719072 0.004360871 -0.082295895 0.010580385
000200 06 e6 4f bd d7 68 ea 3d 64 ac 9b 3d 0e 83 dc 3c
       -0.050756477 0.11445778 0.0760124 0.02691796
000210 ff ad ae 3a 25 53 02 bc ed 0b cd bb b4 a4 93 bb
       0.0013327001 -0.0079543935 -0.006257525 -0.004505718
000220 2d 7f 57 bd 0c f9 6b bd 4e fa 2b bd 18 49 4d bd
       -0.05261152 -0.057610556 -0.041986756 -0.050118536
000230 8f 48 02 be 6a e0 64 3d e2 45 c1 bd 15 22 92 3d
       -0.12722991 0.05587808 -0.09437157 0.07135407
000240 60 3a a4 bd c8 04 af bd b7 b7 b9 3b 9d 6c dc 37
       -0.08018947 -0.08545834 0.0056676525 2.627662e-05
000250 6a 96 05 bd d4 ad 62 bd b1 5c af 3b 10 d7 64 bd
       -0.03261415 -0.055341557 0.005351626 -0.055869162
000260 c9 af 8c 3d c3 25 21 bc 99 9b 52 3d cb c5 b7 bc
       0.06869466 -0.009835663 0.05141792 -0.022433182
000270 df 94 9c 3d 9f e4 30 3c a6 9e e6 bb dc 8e 9a bc
       0.076455824 0.010796695 -0.0070379553 -0.018866949
000280 e3 0e 84 bd ed f2 18 bd 17 76 85 3d 8f ec 78 3d
       -0.06448152 -0.037341047 0.065166645 0.060772475
000290 50 60 69 3d b9 0f c7 3a 10 fc 65 3c c9 cd a4 3c
       0.056976616 0.0015187181 0.014037147 0.020117657
0002a0 04 fb 21 ba 90 3f f1 bd 45 43 f5 bd 9e 6a 04 bd
       -0.0006179067 -0.11779702 -0.11975721 -0.03232824
0002b0 b6 d9 41 bb d6 8a e8 3b a5 33 88 bd a9 65 43 bd
       -0.0029579229 0.0070966287 -0.066504754 -0.047704373
0002c0 5b be a5 3c 30 a6 c4 bc 02 4e 1c 3d 8c 0a 60 bd
       0.02023237 -0.024005026 0.03816033 -0.05469756
0002d0 df 2b 86 bd 1b 25 5d bd c5 56 8d 3d 3a 14 89 bd
       -0.065513365 -0.053990465 0.069013156 -0.06693311
0002e0 08 ab c5 bc cc 51 c9 3d ca 04 5a bd a9 f4 f7 3c
       -0.024129406 0.09830055 -0.053227223 0.03026803
0002f0 3c 34 d5 bc b2 29 81 bd 44 29 ef bc d2 c9 1e 3d
       -0.026025884 -0.06306781 -0.029194482 0.03876669
000300 29 19 76 bd ca 26 34 bd c0 d7 91 bb 65 38 95 bc
       -0.06008259 -0.043982305 -0.004450768 -0.018215368
000310 5c 26 bc bb 91 70 a8 3d 8a 20 d3 3d 36 f6 0c bb
       -0.0057418775 0.08224595 0.10308941 -0.0021509058
000320 27 5e 40 3d 5f 0a 8d 3c cd 41 d8 3b 15 e9 e4 bc
       0.04696479 0.01721686 0.006599641 -0.027943173
000330 4f 58 09 bd 90 49 ac 3d 0b 74 eb bb 98 20 52 3d
       -0.033531483 0.084124684 -0.0071854643 0.051300615
000340 93 10 b3 bd 48 f3 8a 3b 6b 54 a4 3d 67 dc 1d bc
       -0.08743396 0.004240427 0.08023914 -0.009635068
000350 0a da 28 bc fd 6d 81 3d 5b fa ee 3d 11 37 63 bc
       -0.010305891 0.06319807 0.11668845 -0.013868109
000360 a2 c7 a5 3d 31 26 0b 3d c6 0e ac bd 38 c1 52 bb
       0.080947176 0.03397197 -0.08401255 -0.0032158624
000370 6f f5 8c bd 34 08 0c be 51 cc 65 3d 17 0d b0 3d
       -0.0688275 -0.13675004 0.056103054 0.08596247
000380 9f da ba bd 39 dc 4d 3d 62 b5 09 bd 09 d0 ab bd
       -0.0912373 0.05025885 -0.033620246 -0.08389289
000390 d1 d4 46 bc 06 d9 44 3d d0 d9 d0 bd d6 be b0 3d
       -0.0121357 0.048058532 -0.101977944 0.08630149
0003a0 06 79 70 3d 25 17 22 bd 3a 93 75 3c ba 45 5f 3d
       0.058709167 -0.039572854 0.014988715 0.054509856
0003b0 80 e7 81 3b b7 39 a8 3c ff 96 5c bc 39 7d 84 3c
       0.0039643645 0.020535333 -0.013463735 0.016172992
0003c0 36 15 64 3b 21 5a 71 bd da c6 e9 bc e2 5b 14 3d
       0.0034802682 -0.058923844 -0.028537203 0.03622044
0003d0 94 b4 0a 3d 5f 35 1e bd b1 70 bc 3d ef d3 fc 3d
       0.03386362 -0.038625117 0.09201182 0.123451106
0003e0 32 6c 23 3d 7d 08 be 3c 02 37 da bb 5a fd 94 3d
       0.039898105 0.023197407 -0.0066593895 0.072748855
0003f0 a4 0a 31 bb 35 6f 88 3d 6c fe 1f bd b1 00 be 3d
       -0.00270144 0.06661836 -0.039060995 0.092774756

Generator.conv4.conv1.0.weight f4 [8, 8, 3, 3, 3]
000000 b2 98 3a bd 32 51 12 3c e3 4e 5b bc a6 5d ae 3c
       -0.045555778 0.008930491 -0.013385507 0.02128489
000010 75 eb 86 3c 24 be e2 bb 94 6c f8 bc d4 22 ea bb
       0.016469697 -0.006919639 -0.030325212 -0.007145265
000020 75 6b 26 bd ca 32 67 bd 09 71 32 bc f7 b0 b9 bd
       -0.040629823 -0.05644492 -0.0108912075 -0.090669565
000030 2c 4e 7e bd 0f f6 2f 3d b7 b2 77 bc f2 c9 8b 3d
       -0.06208627 0.04295927 -0.0151182925 0.068256274
000040 38 aa 0f 3b 39 f0 fe 3c 7d 44 6e 3c 4f 68 05 3d
       0.0021921527 0.031120406 0.014542696 0.03257018
000050 f8 ee 57 3d 64 7d f7 3c e2 c5 14 bd 47 74 2c 3d
       0.052718133 0.030211158 -0.03632153 0.04210308
000060 03 8f 9a bd af cc b4 bc 87 24 b5 b9 b3 b1 41 bc
       -0.075468086 -0.022070257 -0.00034550225 -0.011822152
000070 67 76 d3 bc 73 d5 74 3d da 00 3b bd 8f b5 28 3d
       -0.025813295 0.059773874 -0.04565511 0.041188773
000080 18 6b 08 3d 60 93 6e 3a 78 79 ca 3d 26 84 97 bd
       0.033305258 0.000910094 0.098864496 -0.07398252
000090 8c cb b6 3c 49 e5 cf 3b cc 97 1c bd 7e df 3b bc
       0.022313856 0.0063444716 -0.038230702 -0.011466859
0000a0 dc 75 ef bc 0c da 8c bd 4a ca 15 bc c7 a1 25 3d
       -0.029231004 -0.06877527 -0.009142468 0.040437486
0000b0 0f 26 ad 3c ba ad 1a 3d f6 f9 34 3d c4 72 4f 3d
       0.021136312 0.037763335 0.044183694 0.05064656
0000c0 aa a9 06 3c be 96 9d bc df 4e 2d 3d e1 ec ee 3c
       0.008219162 -0.019236919 0.042311545 0.029165687
0000d0 6c 8f 80 3d 65 a9 56 3d 08 3e 4d bd 95 55 db 3b
       0.062773556 0.05240764 -0.050107986 0.006693552
0000e0 bb be 95 bd e6 61 b4 3a 85 a1 46 3d 78 d4 98 bd
       -0.073117696 0.0013762086 0.04849388 -0.074624
0000f0 99 de 96 3d 52 9a bc 3c 09 47 02 bd 30 1b 98 3c
       0.07366676 0.023022804 -0.031806026 0.018567652
000100 5f d3 b0 bd a7 de 11 bd 6c e7 db 3c 56 21 81 bc
       -0.08634066 -0.03561273 0.026843749 -0.015762966
000110 c7 94 b6 3b 0d bf c0 ba a7 0b 99 3d e3 14 2d bd
       0.005571935 -0.0014705375 0.07472926 -0.042256247
000120 09 be 70 3d 56 81 0f 3d db 54 41 bb 36 12 7f 3c
       0.05877498 0.035035454 -0.002950004 0.015568307
000130 56 6f af bd 8b da 19 3d 92 47 57 3b 0e 7e e2 bc
       -0.085661575 0.037561934 0.0032849056 -0.027647998
000140 d8 73 ae 3c 74 24 ed 3c 61 00 cf bc 12 2b 22 bc
       0.021295473 0.028948046 -0.025268735 -0.009897964
000150 43 89 01 3d 9e b9 be bc 58 32 31 bc bd 06 48 3d
       0.031625044 -0.023281869 -0.010815226 0.04883455
000160 bc be c4 bb be 19 99 3d 17 0c 25 bc 01 1a 43 bd
       -0.0060041826 0.07475613 -0.010073683 -0.04763222
000170 ff 20 8b bc 1c 72 01 3d b4 3e ae bd d2 48 f2 3c
       -0.016983507 0.031602964 -0.085080534 0.029575739
000180 25 57 5a 3d 81 65 45 3d 2b bd 4f 3d 97 02 96 bd
       0.053305764 0.048192505 0.050717514 -0.07324713
000190 a0 6a 3d bd 0a b5 c1 bc f3 9d 49 bc d1 de 2e 3d
       -0.046244264 -0.023645896 -0.012305724 0.042692963
0001a0 5e e1 e2 bc 06 81 5e 3d 03 68 11 bc b3 f0 97 3b
       -0.027695354 0.054322265 -0.008874896 0.004636848
0001b0 c2 9a d9 bc b6 2f dc 3c 87 cf cb bc 3b 9d 87 3b
       -0.026563052 0.02687822 -0.02487923 0.0041386164
0001c0 a8 f6 08 3d d2 0b 1f 3d 74 c0 71 bc 97 14 6e 3d
       0.033438355 0.038829632 -0.014755357 0.058125105
0001d0 84 fc e8 bb ec 57 97 3c 03 25 43 bd 71 5d 9e ba
       -0.0071101803 0.018474542 -0.04764272 -0.0012082291
0001e0 e1 d0 69 bd 75 ce 19 bd b8 d7 f5 bc 09 a1 b9 3c
       -0.057083968 -0.03755041 -0.03001009 0.022659795
0001f0 76 db 9f 3d af f5 b8 bc e2 9e b9 3d 46 58 2c 3d
       0.07805531 -0.022578089 0.090635076 0.04207637
000200 90 6c a2 3c 2b 06 26 bc 01 26 45 bd f3 72 39 3d
       0.019827157 -0.0101333065 -0.048131946 0.04527564
000210 08 02 b7 3c 98 be 9a 3c 6c 5c ad 3d 84 58 66 bd
       0.022339836 0.01888971 0.08464894 -0.05623676
000220 a7 b9 d1 bb d7 5d 22 bd 9b 20 86 3c a1 85 20 3d
       -0.0064003053 -0.039640274 0.01637297 0.03918994
000230 5c f2 44 bd 57 1f 83 3d c6 2f 91 3d 45 a4 91 bd
       -0.048082694 0.06402462 0.0708919 -0.0711141
000240 1b 41 01 3d db 4f 80 bd 2c 30 95 bc 3d 9e c1 3c
       0.03155623 -0.06265231 -0.018211447 0.023635024
000250 ef 11 1b bd 02 2b 14 bb de 54 6d 3d fa 1d 1e 3d
       -0.0378589 -0.0022608642 0.057942264 0.038602807
000260 67 da 3e bc c5 81 37 3d 53 ca b7 bc 8c a3 48 bd
       -0.011648751 0.044801492 -0.022435343 -0.048984095
000270 b1 79 82 3c 38 ad 2c bd 57 b8 b2 ba 30 b4 e4 bb
       0.015927168 -0.04215738 -0.001363526 -0.006979488
000280 df 65 11 bd 68 ab 82 3d 6a 0a b8 bc c1 27 02 bd
       -0.035497542 0.063803494 -0.022465903 -0.031776194
000290 46 8e 1e bd e1 d3 7f bc af b3 87 3d b6 b4 ed 3c
       -0.0387099 -0.015614481 0.06626069 0.029016834
0002a0 16 58 00 bd 00 f9 68 3c a3 ff 57 3d 7c a8 a2 bd
       -0.031334005 0.0142195225 0.05273403 -0.07942292
0002b0 e6 54 73 bd 1d 5e 7c 3c 62 8a 1c 3c f1 d0 aa bd
       -0.059407137 0.015403298 0.009554477 -0.08340634
0002c0 9e 94 83 bd a4 c0 5a 3d c4 e2 b8 3c ec b9 a3 bc
       -0.06424831 0.053406373 0.022569068 -0.019986115
0002d0 3d 0c 0b 3d 97 11 b6 3b 55 a7 0c 3c 64 ba b5 bd
       0.03394722 0.005556296 0.008584817 -0.08873442
0002e0 2f 59 e3 3c da 27 7f bb f4 56 50 bc 9a 6f 4e bc
       0.027752487 -0.0038933665 -0.012716044 -0.01259985
0002f0 4a 69 fa 3c 2e 91 90 bd 4b 14 31 bd fd c0 c0 bd
       0.030567784 -0.07058941 -0.043232244 -0.094118096
000300 bd 54 06 bd 33 b4 64 3d 48 c5 f8 bc 6f 25 1e bd
       -0.032795656 0.055835914 -0.030367509 -0.03860992
000310 a2 a0 00 bd 8e a2 45 bc c4 66 2f 3d 04 18 da bd
       -0.03140319 -0.012062682 0.042822614 -0.10649112
000320 8a 4e 21 bd 27 1c 97 3c 18 6b b7 bd df 2e b2 bd
       -0.03938154 0.018446041 -0.089559734 -0.08700346
000330 dd 45 0f ba af a0 94 3d 3e 9b 9c bd e8 cf 15 bc
       -0.00054654275 0.072572105 -0.076467976 -0.009143807
000340 9c 3a 67 3d c4 2b 93 bc 63 0f 1c bc 89 e3 56 bd
       0.05645238 -0.017965205 -0.009525153 -0.05246309
000350 16 d6 15 bd 7c aa 43 3d 0a 23 88 3d c7 b9 69 3c
       -0.03658112 0.04777001 0.06647308 0.014265484
000360 31 5f 33 bc f1 9f 8a 3d 4f 8a fb 3c 7d 87 7b 3c
       -0.010947988 0.06768788 0.0307056 0.015352127
000370 ca 43 1e 3c 32 05 19 3d ec 88 57 bd da b9 ed bb
       0.009659717 0.03735847 -0.052620813 -0.0072548212
000380 96 8a c2 3c 3d 05 9a 3d 60 dc 82 3d e3 0a a5 bc
       0.023747724 0.075205304 0.063896894 -0.020146793
000390 bd f2 25 bd 55 01 59 3c 2a 4d 20 3a 20 78 f5 bb
       -0.040514696 0.0132449465 0.0006115014 -0.0074911267
0003a0 99 52 4d bc 06 ad 9e bc 31 f9 37 bd c1 8a 6a bd
       -0.0125319 -0.019369613 -0.04491538 -0.057261232
0003b0 75 7a 07 bd 9d ca e2 bb c9 44 ed 3b 1c da 00 bd
       -0.03307577 -0.006921126 0.007240866 -0.031458005
0003c0 25 99 9b 3c cf 45 06 3d ab 21 c3 bc 96 df d4 bc
       0.018993923 0.03278142 -0.023819765 -0.02598552
0003d0 17 72 bb bb ee e4 84 3b 27 fa 88 bd eb f4 0b 3d
       -0.0057203877 0.004055611 -0.06688338 0.03416912
0003e0 b3 44 9c 3c 29 2f db 3a 16 79 2f bd 80 8b 05 bc
       0.019075727 0.0016722429 -0.042840086 -0.008150935
0003f0 78 77 4a 3d 4a 34 73 3d 93 2f 98 3d 3b 38 2b 3c
       0.04943034 0.05937604 0.07430949 0.010450418
