DeepWonder3D_pytorch/pth/SEG_pth/Unet4_no_end_UNet3DFFD_20240401-1432_2um/seg_135.pth (torch, 138281 bytes, 19 tensors)

Generator.conv1.conv1.0.weight f4 [8, 1, 3, 3, 3]
000000 be e6 df 3d 1f 62 ca 3d ed ee 5a bd 02 b5 11 3e
       0.109326825 0.09881996 -0.053450514 0.14229205
000010 ba f0 f3 bd f1 d1 f2 bd fc 65 fe 3b 13 5a bc 3b
       -0.11911149 -0.118564494 0.0077636223 0.0057480424
000020 14 14 d8 3d 37 40 f2 3c 98 e9 25 be 90 b8 b8 3d
       0.105507046 0.029571636 -0.1620239 0.090195775
000030 ae 9b fe 3d e7 ce da 3d 6d 99 20 3d 2f d7 3e be
       0.12432037 0.10683995 0.03920882 -0.18636774
000040 6d 3b bb 3d e4 41 4b be 5a cb ef bd 0f 17 eb bd
       0.09142194 -0.19849354 -0.11708708 -0.114790075
000050 db c4 70 bd b7 e9 32 3d 62 0f 3f bd 2e ad 88 3d
       -0.058781486 0.04367992 -0.04664553 0.066736564
000060 4b 91 49 be 62 5e 80 b9 dc b8 04 3e 9e 29 1a 3e
       -0.19684331 -0.00024484383 0.12961143 0.15054938
000070 25 16 17 3e d2 03 1a 3c a7 a0 b3 3d 42 9d 09 be
       0.14754541 0.009400325 0.087708764 -0.13438895
000080 69 93 3a be 6d cb 16 3e 28 e3 ec 3c 11 9f 95 bd
       -0.18220295 0.14726038 0.02891691 -0.0730573
000090 86 7b f3 bd a9 15 1b 3e 01 24 45 bd 40 03 03 be
       -0.118887946 0.15144981 -0.04813004 -0.12794209
0000a0 ae df a0 bd 37 70 e9 3b 8a 80 41 be cf 3f 56 be
       -0.078551635 0.0071239728 -0.1889669 -0.20922779
0000b0 3f 1a 71 bc 06 30 e6 3d 1e 62 c9 3c 43 4d 4b 3e
       -0.01471573 0.112396285 0.024582919 0.19853692
0000c0 0f 0f 31 3e c3 54 b6 bd 74 ac 22 3e 81 ac c9 3d
       0.172909 -0.08902886 0.15886098 0.09847356
0000d0 88 38 fc bd 61 83 96 bd b9 42 90 3d 12 96 0e bd
       -0.1231547 -0.07349277 0.07043976 -0.034811087
0000e0 a5 9e e4 bd c9 e2 f2 3c 32 25 d1 3d 83 f1 17 bb
       -0.111630715 0.029649155 0.102121726 -0.0023184724
0000f0 f7 9f 24 be 60 4f e5 bd 4b 01 6f bd 9d ca 28 3d
       -0.16076647 -0.1119678 -0.058350842 0.041208852
000100 c8 55 cf 3d 0f 4c c9 3c 5a 2d 2a bd 13 90 2b 3d
       0.10123783 0.0245724 -0.041547157 0.041885447
000110 6e 1e 9e 3d b3 40 47 3d cb a1 bd ba 47 e5 96 3b
       0.07720648 0.048645686 -0.0014467774 0.0046049687
000120 48 c0 28 be fd ac 12 3d bd 1f 1f 3d a1 42 19 bc
       -0.164796 0.035809506 0.038848627 -0.0093542645
000130 41 37 9c bd 9a 16 ad 3d b4 d6 a4 be 77 36 d4 3c
       -0.07627726 0.084515765 -0.32195055 0.025904877
000140 57 ec 72 be 5a ee ba bd 0c 12 17 be b4 12 22 3e
       -0.23722969 -0.09127493 -0.14752978 0.15827447
000150 5c df 4a be e1 92 92 bd 43 03 a6 bc f5 a4 a4 3d
       -0.19811767 -0.07156921 -0.020265227 0.080392756
000160 49 29 e6 bd 2e 5d 6a 3d ee 29 54 be 37 d9 6e bd
       -0.11238343 0.05721777 -0.2071912 -0.05831262
000170 c1 f4 e1 3c 04 99 d0 3d 4d 1b 4a be c5 b5 26 be
       0.027582528 0.101854354 -0.19736977 -0.16280277
000180 9d 38 16 bd ec 29 02 3e 81 ff b6 3d 64 e8 60 bd
       -0.036675084 0.12711304 0.08935452 -0.054909125
000190 0a 91 82 3d 12 ab bb 3d 09 28 84 bd af 18 72 3d
       0.0637532 0.091634884 -0.064529486 0.05910557
0001a0 83 6f a2 3d 67 b8 7c 3c 28 fe 24 be 82 46 61 be
       0.079314254 0.015424824 -0.16112578 -0.21999553
0001b0 c1 22 fd 3d e0 a0 23 be 0e 0d 6d bd dd f3 00 be
       0.123601444 -0.15979338 -0.057873778 -0.12593026
0001c0 8e c1 af bc 03 16 4e 3c ec b5 1b bd 96 55 90 3d
       -0.021454599 0.01257849 -0.03801529 0.07047574
0001d0 9b 09 28 3d 4a d3 93 bc be 03 cf 3d 37 cd 3f be
       0.041024785 -0.018045086 0.10108136 -0.18730627
0001e0 77 b8 64 bd 8e ae 0c bd cd 83 06 bc 16 12 db 3d
       -0.055839982 -0.034346156 -0.008210135 0.10696809
0001f0 30 29 a2 3c be fe ea 3d c4 06 47 be bd 51 a9 3d
       0.01979503 0.114743695 -0.19436175 0.082675435
000200 0c f4 ef 3d 54 ee c6 3d 08 3c 26 3d 71 cf db bd
       0.1171647 0.09713426 0.040584594 -0.10732926
000210 aa 15 1c be d6 2d 9f bd 36 e7 d1 3d 20 cf 24 3d
       -0.15242639 -0.077724144 0.10249178 0.040236592
000220 0a 6e cc bd 7c a7 01 3e b3 e5 e3 3d ef 1f 87 bd
       -0.09981926 0.12661546 0.11127796 -0.06597888
000230 a5 b1 01 be 5e 31 42 be 5a 8e 32 3e 6f 11 27 3c
       -0.12665422 -0.18964145 0.17437115 0.010197028
000240 f7 c1 98 bd b5 d3 34 be 41 83 90 3d 25 e0 cc 3d
       -0.07458871 -0.17658885 0.07056285 0.1000369
000250 d0 e2 29 be 03 54 56 be da 27 9d bd 1b f4 8d 3d
       -0.16590428 -0.20930485 -0.07673617 0.06931325
000260 6b b1 10 3e 1c 2f bd bc dd a9 02 bd e7 d7 fe 3d
       0.1413018 -0.023093753 -0.031900275 0.12443524
000270 97 48 b5 3c 64 dc 26 3e 4f f3 b5 bd 80 7b e9 bb
       0.02212934 0.1629501 -0.08884298 -0.007125318
000280 35 ac 66 bd 85 2b 3a 3e b3 0b 54 be 9a 7a 2d 3e
       -0.056316573 0.18180664 -0.20707588 0.169413
000290 af 86 a4 bd 7e 2c b6 3d c8 9f 95 3b 86 2b 63 bd
       -0.08033501 0.08895205 0.0045661665 -0.05546143
0002a0 f1 d6 0f 3d 02 a3 a6 bc 1d f9 4b 3d fc 27 81 3d
       0.035117093 -0.0203414 0.04979812 0.063064545
0002b0 0d 09 88 bd 6c 2e 61 3e 14 39 50 be e3 e5 ab bd
       -0.06642351 0.21990365 -0.20334274 -0.08393457
0002c0 9b 0e 7d 3c 70 c7 4e bd b8 de f6 3d c4 ce 16 3d
       0.015445377 -0.050483167 0.12054199 0.03681828
0002d0 4c 8e 92 bd a3 ca 5b bd 7b 8a c4 3d 09 3a 12 be
       -0.07156047 -0.053660046 0.095967256 -0.14279951
0002e0 0e bd 52 3d 57 6d c3 3d c2 03 f2 bd 16 d6 b7 3a
       0.051449828 0.09542339 -0.11817123 0.0014025595
0002f0 13 f9 1f 3e 4a 95 38 bd f3 4b 09 3e 93 b0 d3 3c
       0.15622358 -0.04506425 0.13407879 0.025841033
000300 0b b6 3f 3d 77 ca d9 3d ec a1 51 be c2 9f 7c bd
       0.04680447 0.1063432 -0.20471925 -0.061675794
000310 a9 b6 8b 39 b3 67 01 3e b1 de f3 bc 5e 6b 9e bd
       0.00026648238 0.12637214 -0.029769273 -0.077353224
000320 f9 ba 3d bd 83 6b 4b be f3 2d 07 3e 78 6c c1 bd
       -0.04632089 -0.19865231 0.13201122 -0.09444517
000330 ac e2 a2 bd 67 d0 24 3e 83 97 b5 3c 3b 98 89 bd
       -0.079533905 0.16095124 0.022166973 -0.06718489
000340 58 02 fd bc f1 55 0c bc dd 48 5b be 1a cb ba 3d
       -0.030884907 -0.008565412 -0.21414514 0.0912077
000350 b7 51 da bd 41 79 34 be 6e 2e b9 bd 0b dd d0 3d
       -0.10660117 -0.1762438 -0.09042059 0.101984106

Generator.conv1.conv2.0.weight f4 [8, 8, 3, 3, 3]
000000 8b ea 05 3e f2 64 6a 3d a7 81 a1 3d 8d 35 f4 bc
       0.13077752 0.057225175 0.07886057 -0.029810691
000010 12 96 81 bd f6 b0 fa b8 00 f5 27 3e 57 ed f0 3d
       -0.06327452 -0.000119538905 0.16402054 0.11764019
000020 e3 80 85 3e b1 8c 36 3c b8 35 98 3c 53 08 94 3c
       0.26074895 0.011141942 0.018580303 0.018070376
000030 7a 15 db 3c 9e 5d b8 3d f7 e0 e5 bc 1c ea 81 3d
       0.02674364 0.09002231 -0.028061373 0.06343481
000040 fe e3 c1 bc ba 5b da 3d fd 0b 07 3d 17 4a 07 3e
       -0.023668285 0.10662027 0.032970417 0.13211857
000050 79 e4 f7 3d 8f 6c e5 3d de 26 0b 3e bb 9d e6 3d
       0.121041246 0.112023465 0.13589045 0.112605534
000060 4e 89 0d 3e 8e 0b 17 3e 1f c6 28 3e 5e 7a f9 bd
       0.13821909 0.14750502 0.16481827 -0.12181543
000070 90 7d 8f bd 59 3d ea bd 7d 3f 06 bd 6c 68 61 bd
       -0.07006371 -0.114374824 -0.03277539 -0.055031225
000080 4c 15 02 be d6 d5 bd bc 7f f0 4b 3d bf a7 c0 bd
       -0.12703437 -0.023173254 0.0497899 -0.09406995
000090 a6 3e df bd 69 37 11 3e 8e 14 11 be 9c fd cb bc
       -0.10900621 0.14181294 -0.14167997 -0.024901204
0000a0 aa f6 dc 3d a1 24 a1 be a6 2c 06 bd db b2 70 3d
       0.10789235 -0.31473258 -0.032757424 0.05876432
0000b0 05 75 96 3c 2c 91 b4 3c ff 8c 31 3e 17 56 87 be
       0.018366346 0.02204188 0.17338942 -0.2643287
0000c0 e7 ca 2a bd 7a f9 f0 3d 53 c4 a2 be 5b 69 ac bd
       -0.04169741 0.11766334 -0.31790408 -0.084185325
0000d0 02 d9 22 3c 2b 43 21 39 d6 68 0c 3e 77 20 b5 3c
       0.009939434 0.00015379179 0.13711867 0.022110207
0000e0 e7 2c f0 3c 2f 61 dd bb 9f 4f 8c bd 3f fb b3 bc
       0.029318286 -0.00675597 -0.06851124 -0.02197039
0000f0 67 e8 2e 3d 94 63 b1 3b 59 8c 4f bd 3c 10 0a 3e
       0.042702105 0.005413482 -0.050670955 0.13482755
000100 99 4b 4d 3d a1 69 a7 3c 5d 48 05 3b 0b 8d 2b 3d
       0.050120924 0.02043611 0.0020337321 0.041882556
000110 32 0f 95 3d 08 57 eb 3d ae 60 19 3d db f0 43 3d
       0.07278289 0.11491209 0.037445717 0.04783712
000120 c1 ba 05 3c b8 89 3e bc 10 b7 99 3d 6e d3 b8 bd
       0.008162201 -0.011629514 0.075056195 -0.09024702
000130 56 da ef bb 18 63 aa bc ed 6e bb 3d 6c 5e c6 3d
       -0.007319729 -0.020799205 0.09152017 0.09685978
000140 51 d2 76 3d e0 56 c4 bc 45 59 7d 3d 17 fb 29 3d
       0.060259167 -0.023967206 0.061852712 0.041499224
000150 ac 62 0f 3e 73 63 06 3b ae 29 ce bb db de 05 3c
       0.14002484 0.0020506054 -0.0062915897 0.008170809
000160 c0 52 23 bd 1f d0 0e 3c 81 7a aa 3c 5e c8 91 3c
       -0.03987384 0.008716612 0.020810368 0.017795738
000170 32 9a 2e 3d 30 9e 3a bd 79 60 72 3c 6c 21 6b 3d
       0.04262752 -0.045561016 0.014793509 0.05740492
000180 30 27 0f bd 92 ba be 3c 90 e7 e5 3c aa c6 88 3d
       -0.03494948 0.023282323 0.02806452 0.06678517
000190 0a 7e 3d bd 4e 2c 47 bd a6 46 fe bb c2 67 1c 3d
       -0.04626278 -0.048626237 -0.007759887 0.03818489
0001a0 55 41 55 3d 6b 02 f8 3c 4e 68 1d 3d 85 f8 9c 3c
       0.05206426 0.03027459 0.03842955 0.019161472
0001b0 23 cb 42 3d 13 ad 02 be ad 48 e3 bd f5 af 4c bd
       0.047557008 -0.12761335 -0.11097846 -0.049972493
0001c0 a2 4c d2 3c 5f 73 d4 bd 4e b9 d8 3c 8d eb 5f bc
       0.025671307 -0.10373568 0.026455548 -0.0136669995
0001d0 64 17 94 3d a4 c6 cb bd 14 11 22 ba 64 98 bd 3d
       0.07231024 -0.09949997 -0.00061823544 0.09257582
0001e0 92 fb 4d bd 6d 2e a2 3d 87 95 ca 3d c8 38 f4 bd
       -0.050288744 0.07919011 0.09891801 -0.11924893
0001f0 a1 e0 c5 3d dc c8 2f 3d 29 20 08 be a6 3f 0a 3e
       0.09661985 0.042916164 -0.13293518 0.13500842
000200 0a 81 a9 3d cf f3 d3 bd e6 76 00 3e b6 55 fb bc
       0.082765654 -0.10349237 0.12545356 -0.030680519
000210 58 f8 78 be 9d 90 d1 3d 6f ff 49 bc 5f 0e 8f 3d
       -0.24313486 0.10232661 -0.0123289665 0.06985163
000220 d5 15 aa 3d ca ca 3f 3d ff de 07 3c 6b df 53 3d
       0.083049454 0.046824254 0.0082929125 0.05172674
000230 43 40 09 bd 3b 6d 94 3d 1e c9 c9 bd 43 99 45 bd
       -0.03350855 0.072473966 -0.09852813 -0.048241865
000240 4e b0 15 be da 4d 6a 3d 3d ee 08 3d 3f 57 82 bd
       -0.14618036 0.05720315 0.033430327 -0.06364297
000250 76 41 6c 3d 5f 75 a0 bb d1 a1 b9 3c 76 cf 85 38
       0.057679616 -0.004896804 0.022660168 6.380577e-05
000260 67 b9 d9 bd a0 ed 21 bd 8d 89 8b 3d 38 e2 7c 3d
       -0.10631066 -0.039533257 0.06813345 0.061739177
000270 78 1d 12 bd 51 42 0c 3e 71 0a 98 3d 9d 61 6b bd
       -0.035672635 0.13697173 0.074238665 -0.05746614
000280 c5 27 8a bc cf eb 2c 3b a7 a1 4e 3d 9d 97 b1 bd
       -0.016864667 0.002638567 0.050447132 -0.08671496
000290 fc d2 0b be 76 7a 55 3d 8c ad 82 bd ad 70 a7 bd
       -0.13654703 0.05211874 -0.06380758 -0.08175788
0002a0 e4 c9 01 3e df 89 e3 bd de 78 6c bc 52 42 2c 3d
       0.12674671 -0.11110281 -0.014433114 0.042055435
0002b0 c2 c5 17 be b5 e1 b4 bc 4a 6d c6 3c c4 a9 36 bc
       -0.14821532 -0.022080282 0.024222035 -0.011148874
0002c0 80 1a 9b bd 84 a9 47 bd 6d 4d c7 bd 10 fe 84 bc
       -0.07573414 -0.048745647 -0.09731565 -0.016234428
0002d0 cb fc 21 3d 71 4b 1f bd 26 57 cf 3d 94 96 4e bc
       0.039547723 -0.038890306 0.10124044 -0.012609143
0002e0 50 5d bc 3d 9f 7b 8c 3d ae 9d 85 bd 30 cc 45 be
       0.091974854 0.06859516 -0.06524216 -0.19316173
0002f0 e5 38 c3 bc 76 34 65 bb 53 4b 90 bd f1 b2 8a 3b
       -0.02383084 -0.0034973896 -0.07045617 0.0042327573
000300 50 31 2d 3d c6 3b e7 3c 82 74 37 3d 9a d9 48 3d
       0.042283356 0.028226744 0.044788845 0.049035646
000310 5a eb 87 bd de 99 2e 3c d2 88 fc 3b 0f 9d 47 be
       -0.066366866 0.010656802 0.00770674 -0.19493507
000320 b8 35 69 3d 29 04 f3 b9 ca 14 15 be a1 5c eb 3d
       0.056935996 -0.0004635167 -0.14558712 0.11492277
000330 08 6b af 3d 94 71 61 be 04 03 88 3d ef 9a cb bd
       0.085653365 -0.22015983 0.066412 -0.099416606
000340 f7 a6 c0 3d 66 32 2d be 77 d5 17 be fb 1e 1b 3e
       0.09406846 -0.16913757 -0.14827524 0.15148537
000350 0b 64 2a be be 6f 43 be a8 f2 92 3d 72 c4 0e be
       -0.16639726 -0.19085595 0.07175189 -0.13942125
000360 34 34 42 3e 12 bb 18 3e 7c ce 83 3e 60 01 40 3c
       0.18965226 0.14915112 0.25743473 0.011719078
000370 1c 64 18 3d 19 00 04 3e c2 f7 84 3e c2 3b 86 3e
       0.037204847 0.12890662 0.25970274 0.26217467
000380 b8 6a 76 3e 29 ca c6 3d a7 7a 46 3d 43 c2 1f 3e
       0.24064147 0.09706528 0.048456814 0.15601449
000390 db b6 d5 3b 41 5e 71 3d 21 a6 01 3d 7e 93 42 3d
       0.006522042 0.05892778 0.031652573 0.04750394
0003a0 23 6d 6e bb ff 2a 69 3d 6d 29 8e 3d ca 74 be 3d
       -0.0036380969 0.05692577 0.06941495 0.092996195
0003b0 ad 1e fc 3c 36 95 c5 3d fd 73 a2 3d ae bd aa 3d
       0.030776346 0.096476 0.07932279 0.0833696
0003c0 ca c4 84 3d f1 76 65 3a 5e 01 d7 3d f8 dc 9e bd
       0.06482847 0.00087533804 0.10498308 -0.0775699
0003d0 06 bf 45 bd 2e e2 20 bd e0 ef 2d bd 93 bc 98 bd
       -0.048277877 -0.0392782 -0.04246509 -0.07457843
0003e0 fa 91 be 3c 65 53 09 3d f4 e5 80 3c 2e f2 7a 3c
       0.023262966 0.033526797 0.01573465 0.015316529
0003f0 9f 26 75 3d f1 f1 dc bc c3 05 26 bc b6 30 84 3d
       0.059851285 -0.026970835 -0.01013321 0.064546034

Generator.conv2.conv1.0.weight f4 [8, 8, 3, 3, 3]
000000 53 a1 76 3c 03 d0 c2 b9 d6 2c f9 3c 8b 57 07 3e
       0.015053111 -0.00037157544 0.030416887 0.13216989
000010 08 63 50 3d 56 7b 5d bd 4e d3 22 be 17 eb f4 bc
       0.050875694 -0.0540727 -0.15900919 -0.029897256
000020 ef 8f f2 3c 40 e3 94 bd a1 04 ff bc 49 59 24 3c
       0.029609649 -0.07269907 -0.031130137 0.010031053
000030 aa 57 a5 bd 50 fe 72 3c 8e d0 cc 3c b9 17 ed bc
       -0.08073361 0.014831141 0.02500179 -0.028941976
000040 9b 84 9e bd b5 f0 8b 3d 0e e9 9e 3c f1 55 5e bd
       -0.07740136 0.068330206 0.019398239 -0.05428118
000050 ed 2b 84 bc e6 a2 2e 3b 8f 82 36 bd 08 b5 f0 3c
       -0.016134227 0.0026647388 -0.044558104 0.029383197
000060 35 32 19 3d 44 30 cc bc 64 63 49 3d 16 5f 4b 3d
       0.037401397 -0.024925359 0.049167052 0.049651228
000070 29 1e 11 bd d6 4b 69 bd 42 7f 8b bb 8d be 6e bc
       -0.035429154 -0.05695709 -0.0042571137 -0.014571798
000080 ba be 2e bd d8 35 37 3d 2c 73 92 3d d4 61 e0 3b
       -0.04266236 0.044729084 0.071508735 0.0068475995
000090 b5 19 12 be 4c ce 08 be aa e3 a0 bd 29 8b b3 bd
       -0.14267619 -0.13359946 -0.078559235 -0.08766777
0000a0 df 38 8e bd 54 75 9a bd 57 d6 dd 3d b5 0e fb bb
       -0.06944441 -0.0754191 0.10831898 -0.0076616653
0000b0 d7 7c f2 bc d8 d9 43 bd 56 37 8b bd d5 b2 26 be
       -0.029600544 -0.047815174 -0.06797664 -0.16279157
0000c0 90 eb 11 3b 21 7a 83 bd 3e 33 ce bd 27 b1 9f 3d
       0.002226565 -0.064197786 -0.100683674 0.07797461
0000d0 47 59 05 bc 4e a2 7a bd 1a 32 06 bd 9b 32 71 3d
       -0.008138961 -0.061189942 -0.032762624 0.05888615
0000e0 57 0b 28 3e 13 3b 21 3b 8a 93 d2 ba c2 2d 44 3e
       0.16410576 0.0024601861 -0.0016065699 0.1915808
0000f0 f0 3b 83 bc 45 fe 5a bd 22 21 2a 3d a5 f0 0a be
       -0.016019791 -0.053465147 0.041535504 -0.13568361
000100 3f 38 91 3c 7b 40 a1 3d 46 00 8e bd 2a ed 11 bc
       0.017727016 0.07873627 -0.06933646 -0.008906642
000110 d1 72 c0 3d fc 76 1c be b2 b3 1b bd a6 84 f6 3c
       0.093968995 -0.15279764 -0.038013168 0.030092549
000120 d3 37 0b be 24 2f b9 bc e9 34 b5 3d 64 3f 17 be
       -0.13595514 -0.022605486 0.088479824 -0.14770275
000130 cd 6f 44 3d f6 97 00 3e 6b 3f b1 bd 91 7d 83 bd
       0.047958184 0.12557968 -0.08654674 -0.06420434
000140 9e d3 84 3d 10 9e 56 3c d1 8b 6a bc be 2f 57 3d
       0.06485675 0.0130992085 -0.014315561 0.052535765
000150 13 06 9f bd ee 15 4f bd bf 21 18 bc 1e a7 5e bc
       -0.077648304 -0.050558023 -0.009285389 -0.0135896485
000160 3b 8a fb bc 91 1d b8 3d d3 12 fa 3d 39 06 25 3a
       -0.030705562 0.08990014 0.12210622 0.0006295178
000170 f7 5d 76 3d 43 35 2b 3d 9d e5 58 bc e9 0f 94 3c
       0.060148206 0.04179884 -0.013238338 0.018073993
000180 45 05 30 3c 38 9a 40 bd 64 18 24 3d 04 4f cc 3b
       0.010743444 -0.047022074 0.040062323 0.0062350053
000190 1a 1f a2 3c bc b7 03 bd 8f c4 c2 bd 49 1b 46 bd
       0.019790221 -0.032157645 -0.09510147 -0.048365865
0001a0 e4 7f 4c 3d b5 f2 a8 bc e4 95 43 bd fd 0c 19 3c
       0.049926654 -0.020623544 -0.04775037 0.009341476
0001b0 7d 71 8e 3d 00 a9 71 3d 3f 37 e4 bc 0f 43 84 3c
       0.0695524 0.05899906 -0.027858375 0.016145257
0001c0 12 c8 f7 bc e4 cc a4 3c 39 34 9d bb 34 cd 9c ba
       -0.030246768 0.02011723 -0.004797485 -0.0011963011
0001d0 49 09 d8 3c 35 39 a6 3c 75 8d 23 3c 7c 38 72 3d
       0.026371615 0.02029095 0.009982456 0.0591359
0001e0 18 9c 40 3d e9 4c 86 3d b2 86 92 3d 83 85 84 3d
       0.047023863 0.06557638 0.07154597 0.06470778
0001f0 70 07 ed bc ec ee cd 3d 5f 57 20 bd 25 bc 68 3c
       -0.02893421 0.10055336 -0.039145824 0.014205013
000200 74 95 86 3d 7b 2c 62 bd f9 ef 11 3d 81 2c 7b 3d
       0.06571475 -0.0552182 0.035629246 0.06132174
000210 85 fc b4 3b 28 30 1d bd b6 e2 75 bd 00 0d e4 3b
       0.0055232667 -0.038376004 -0.06003066 0.0069595575
000220 1e 78 b0 3d 7d 05 d2 3c 2e f6 c6 3a e4 1d 97 3d
       0.086166605 0.025637383 0.0015179568 0.07378748
000230 f6 35 4d 3d ea 8e d7 bb 79 f4 98 bd e1 6f fc bc
       0.05010029 -0.006578316 -0.074685045 -0.030815067
000240 33 93 ad b9 b0 57 31 bb 2f ca 2c bc 9f d1 3d bd
       -0.00033106803 -0.0027060322 -0.010546251 -0.04634249
000250 b6 92 84 bd 26 3d 41 bd a6 24 51 bd 31 ba d3 bd
       -0.064732954 -0.047177456 -0.05106034 -0.103382476
000260 e1 92 e7 3c 40 8a a7 bc e8 40 7b bc 55 c4 52 3c
       0.02826828 -0.020451665 -0.015335299 0.012864192
000270 2d 5c bd bd 90 8a 82 bc 82 bf 27 bd 8a 1a 24 be
       -0.09246097 -0.015935212 -0.04095412 -0.16025749
000280 0e 34 49 be 67 fa d4 3c 80 6d a3 3d 57 1f 9d 3d
       -0.19648764 0.025998307 0.0797987 0.07671993
000290 d4 bf ab 3d 12 a4 86 3d 26 2b 0e 3c ac 4c cb 3c
       0.08386198 0.06574263 0.00867728 0.024816833
0002a0 68 47 5c bb 5e 28 ab 3d 08 d4 47 3c 9a f5 8d 3c
       -0.0033611897 0.08357309 0.012196548 0.017329026
0002b0 f1 ee cc 3b 94 ed aa bb 20 79 50 3d 49 ee a4 3d
       0.00625407 -0.00521631 0.050896764 0.08053262
0002c0 39 9b c2 3d 68 90 a3 3d 5f 7c 32 3d 24 22 89 3d
       0.095022626 0.07986528 0.04357564 0.06695965
0002d0 12 35 8e 3d b7 12 43 3c 62 34 6f bc d8 b0 46 bd
       0.06943716 0.011906317 -0.014599891 -0.048508495
0002e0 77 b1 76 3d 30 0b 70 bc 4f d9 20 3d eb e7 61 bd
       0.060227837 -0.014651105 0.03926974 -0.055152815
0002f0 8d c1 c4 3c 81 5f d9 b9 dc 36 86 bc 65 a8 95 3d
       0.024018073 -0.0004146062 -0.01638358 0.07307509
000300 80 7d 86 bd 6e 7c 66 bd e0 a8 8e bb 3f ff d0 bd
       -0.06566906 -0.05627101 -0.0043536276 -0.10204934
000310 1f c2 82 bd 7b 03 ae 3b aa 64 dc bc 75 9d 8b bd
       -0.06384682 0.0053104735 -0.02690347 -0.06817142
000320 90 38 42 3d e9 cf a1 bd 5d 71 12 bd 70 84 c6 3c
       0.047417223 -0.07900984 -0.035752643 0.024233073
000330 9d c0 68 bd 18 7e d7 bd 40 f9 a6 3d 11 60 99 bd
       -0.056824315 -0.10522097 0.081530094 -0.07489026
000340 61 7f 86 bd dc 7f 7c 3d 57 9d 02 bc e4 d9 7c 3b
       -0.06567264 0.061645374 -0.007972083 0.0038582021
000350 42 83 8b 3d 5a a0 b3 bd 55 3f 89 bd 1a 78 4d 3c
       0.06812145 -0.08770819 -0.06701533 0.0125408415
000360 d3 ca a7 bc 2c 03 9a bb 23 b3 13 3e d2 f4 c7 bd
       -0.020482456 -0.004700085 0.14423804 -0.09763493
000370 dd b2 20 ba 71 ae 2e 3d ab 67 39 3d 32 ba e9 bc
       -0.00061301683 0.04264683 0.04526488 -0.028531168
000380 4c d7 06 3e 64 59 3e bd 0d 6b ed bc 81 9c 84 3d
       0.13168067 -0.04647197 -0.02898171 0.06475163
000390 d1 1e bf bc c3 a4 8e 3c 78 3a 53 3d d1 77 19 3d
       -0.023330124 0.017412549 0.051569432 0.03746778
0003a0 08 1e 9e 3d d2 81 94 3c a3 37 a5 3c 69 be a7 bd
       0.07720572 0.01812831 0.020168131 -0.08190615
0003b0 3a fe 2f bc 5b 1b 86 3d c1 6f 09 3c d2 e4 3a bc
       -0.010741765 0.065481864 0.008388461 -0.011407094
0003c0 c2 17 6e 3d 27 96 b3 3d 2e c4 1d 3c e7 ea ee bc
       0.058128126 0.08768874 0.009629292 -0.029164745
0003d0 b3 25 26 bc 57 a7 16 3c 32 23 68 bd 65 32 21 3d
       -0.010140824 0.00919517 -0.05667419 0.0393547
0003e0 a1 b6 f6 3c 69 86 97 3c b3 a3 2d 3d 76 6e a3 bc
       0.030116381 0.018496709 0.042392444 -0.019950133
0003f0 81 8a ef bd 57 88 f0 bd 01 21 7d bd 97 df 87 bd
       -0.116963394 -0.11744755 -0.061799053 -0.06634443

Generator.conv2.conv2.0.weight f4 [8, 8, 3, 3, 3]
000000 1a 4f 5c 3d 84 63 42 bd 00 1e a5 3c e4 08 65 3d
       0.053786375 -0.047458187 0.020155907 0.055916682
000010 27 8e b6 3d bc f9 6a 3d 3e 36 10 3d 38 40 50 3d
       0.08913832 0.05736707 0.03520798 0.050842494
000020 a7 13 cc 3d 96 75 b6 3d ef 74 ea 39 b5 79 89 3d
       0.09964686 0.089091465 0.0004471908 0.06712667
000030 5d ff 84 3c 0e 72 ce 3c 6c 05 1c bd d3 c5 88 3d
       0.016235048 0.02520087 -0.03809111 0.06678357
000040 35 26 1a bd 5c 4e d6 3c 93 ca 70 bc 83 c8 61 bd
       -0.037634093 0.026160412 -0.014696735 -0.055122864
000050 27 94 c2 bc bc d1 52 3d 69 13 a2 bd c4 1e a2 bd
       -0.023752285 0.05146955 -0.079138584 -0.07916024
000060 e6 18 b4 bd 8c c6 e5 bc e3 73 24 bd 00 1a a2 3d
       -0.087938115 -0.028048776 -0.04014958 0.07915115
000070 9d d3 80 3d 08 c1 5a bc cf d9 0a 3d 69 c8 89 3d
       0.06290362 -0.013351686 0.033899125 0.06727678
000080 db 49 0d 3e 6d 0d 95 3d 28 6c 45 3d 4f 46 91 3d
       0.13797705 0.072779514 0.04819885 0.070934884
000090 90 5e 28 3d 1f cd 9d ba d8 30 49 bd 9b 01 a7 bb
       0.041105807 -0.001203928 -0.049118847 -0.005096627
0000a0 06 35 a0 3d 13 f0 a7 3c 6a 24 60 bc 8d c3 1c bc
       0.078226134 0.020500218 -0.013680557 -0.009568107
0000b0 26 ac b2 3d 81 eb 46 bc 57 e8 74 3d bb 46 d9 bc
       0.08724241 -0.012141109 0.05979189 -0.026522985
0000c0 eb b6 34 3d a8 24 e2 3c 5b 35 7f 3c 11 0e cd bc
       0.044119757 0.02760537 0.015576686 -0.025031121
0000d0 b7 70 8d 3d 34 5e f4 3c 1f b7 4e 3e ea db c9 3d
       0.06906264 0.029830076 0.20187043 0.098563984
0000e0 cd ef fc 3c ae 5c 2d bd 4f 80 b1 bd 92 27 8c bd
       0.030876065 -0.042324714 -0.08667051 -0.06843485
0000f0 33 ab 20 3d 8f 12 ed bb 19 40 22 bd 53 87 fe 37
       0.03922577 -0.0072348784 -0.03961191 3.0342175e-05
000100 80 26 aa bd 82 f0 92 bc fb cb cb bd 4d 53 ab bd
       -0.083081245 -0.017936949 -0.099510156 -0.08365498
000110 60 b8 25 be a9 60 af 3c 16 28 85 ba be 1a 04 be
       -0.16183615 0.021408396 -0.0010159041 -0.12900826
000120 72 b5 8b 3c da 73 e7 bc af 3a a9 3d 7d f7 2b bd
       0.017054293 -0.028253485 0.08263146 -0.04198407
000130 49 a6 f6 bd 73 8b 1e bc a1 56 b1 3d 75 b0 f1 3c
       -0.12043435 -0.009676802 0.08659101 0.029503087
000140 5e 20 48 bd c8 88 9e 3d 45 a8 a6 3d 38 07 f6 3d
       -0.048858993 0.07740933 0.081375636 0.120130956
000150 3b f0 f0 bb f8 d3 65 3d 27 73 97 ba 7c 0d 51 3d
       -0.0073528565 0.056110352 -0.0011554704 0.05103825
000160 54 4a d5 3b be 5d ef bb 55 bd 0f 3e fe 2d 42 3b
       0.0065091047 -0.007304876 0.14037068 0.0029629464
000170 44 7b 5f 3d 87 3f b9 bb f5 55 92 bd 04 e2 c3 bd
       0.054560915 -0.005653325 -0.07145301 -0.095645934
000180 71 9c 68 bc a8 d9 cf bd c2 1e f5 3c a6 02 85 bc
       -0.014197455 -0.101489365 0.029921893 -0.016236614
000190 3f 79 ba bd 59 95 ac 3c c1 90 98 bd 3b f6 95 bd
       -0.09105157 0.021067308 -0.074494846 -0.07322355
0001a0 df 7d 86 bd b0 63 07 3d 43 05 cc bd 9a 55 01 bd
       -0.06566977 0.033054054 -0.09961941 -0.031575777
0001b0 2a 19 da bc ac 0d 14 bd d8 8f ba bc 1b fe 69 3d
       -0.026623327 -0.03614585 -0.022773668 0.0571271
0001c0 3b 21 56 3d ae 8a 9a 3b 41 76 ff 3d aa 14 9b 3d
       0.052277785 0.004716239 0.12473727 0.07572301
0001d0 63 e9 cc 3d f4 88 f4 bd 8d 7b cf bd 98 7a d3 bb
       0.100054525 -0.11940184 -0.10130987 -0.0064538233
0001e0 35 b9 c6 bd 99 0d a2 bd ae 16 b6 bc d5 22 17 3d
       -0.09703294 -0.0791275 -0.022227611 0.036898453
0001f0 54 66 bd bb cb 5f 71 3d c8 26 34 be 21 9f fd bd
       -0.0057800207 0.058929246 -0.17592919 -0.12383867
000200 98 82 25 bd 86 8f 8c 3d a3 48 4d 3d 62 b8 25 bd
       -0.040407747 0.068633124 0.0501181 -0.040459044
000210 03 dc 75 3d 86 a3 05 bd db 8b d0 bd b4 5c a3 3c
       0.060024273 -0.03262665 -0.10182925 0.019941665
000220 c2 f0 23 be 89 d6 da bd a2 47 8e bd af ca 57 be
       -0.1600981 -0.106854506 -0.069472566 -0.21073411
000230 49 69 27 bd 34 0e cf bd b7 0f 19 be f5 b1 e9 3d
       -0.040871892 -0.10110131 -0.14947401 0.11410896
000240 8c b9 17 3b c8 96 6f 3b 38 f4 79 bd 37 d4 23 3c
       0.0023151366 0.0036558378 -0.06102392 0.009999326
000250 38 28 9b bd 29 26 09 be 2c 4e 00 3e 0e 4f d8 bd
       -0.075760305 -0.13393463 0.1252982 -0.105619535
000260 c0 0c d9 bd c6 64 d8 3d f2 af 9f bb 76 7a a3 3d
       -0.10598135 0.10566096 -0.0048732692 0.07982342
000270 c2 11 8e 3d 02 67 c3 bc 3f 0c 0a be f7 22 5d 3e
       0.06936981 -0.023852829 -0.13481234 0.2159537
000280 c3 43 85 bc 7f 20 ff 3b d8 b7 c7 3d da cf 7d bc
       -0.016267663 0.0077858563 0.09751862 -0.01549145
000290 69 b7 19 3e 34 e4 85 3c ba 69 17 bd 75 7a 93 bd
       0.15011372 0.016344167 -0.036966063 -0.07201091
0002a0 95 bd b3 3d df db 3e bd 8a bc 57 3c de cc ac 3d
       0.08776394 -0.046596404 0.01316751 0.08437513
0002b0 af 6a 85 3c 35 a3 03 3e df 40 00 3e 69 f5 7b 3c
       0.016286222 0.12855227 0.12524746 0.015378335
0002c0 b8 e6 d4 3a e0 8f 12 bc 3c 9e 03 bb ef 4a ec bd
       0.0016243076 -0.008945435 -0.0020083329 -0.1153773
0002d0 86 5e 26 bd 27 8f b1 3d c1 1b 05 bd f7 44 ae 3c
       -0.04061749 0.08669882 -0.03249717 0.02127312
0002e0 ff 76 8d 3d ba 98 de bd 41 15 58 3d 65 ed 91 3b
       0.06907462 -0.10868974 0.052754644 0.0044533485
0002f0 d4 59 de bd c6 99 e4 bc 0b 13 91 bd e5 75 d2 bd
       -0.10856977 -0.027905356 -0.0708371 -0.10276393
000300 08 d3 8c bd 3f f6 9e bd 7c 8f 9d bd 87 ba 10 bd
       -0.068761885 -0.077618115 -0.07693383 -0.035334136
000310 f9 e1 b6 bb 51 57 15 3c 77 ee 34 bd db 5e e9 3b
       -0.0055811373 0.009115056 -0.04417273 0.0071219034
000320 27 6a 2d bd 92 f2 16 bc 6f 5f 45 bd 77 b3 55 bb
       -0.042337563 -0.009213107 -0.048186716 -0.003260819
000330 b1 3d 74 3d e1 ee 55 3d dc 57 57 3c a0 94 02 3e
       0.059629146 0.052229766 0.013143506 0.12752008
000340 6a 2b a7 3d d5 37 d3 3d dc c4 16 3d 57 53 bb 3d
       0.081625775 0.103133835 0.036808833 0.09146755
000350 05 3a 32 bb cf 4a 22 3e 50 8e ef 3c 1e 89 18 3c
       -0.0027195227 0.1584885 0.029242665 0.009310035
000360 de 48 02 be 6c 3c 84 bd 6f 95 c2 3c 85 24 76 bd
       -0.12723109 -0.06456837 0.023752896 -0.06009342
000370 42 1f 61 bd 4b 21 c0 bd 66 45 06 be 98 86 85 ba
       -0.05496145 -0.0938135 -0.13112411 -0.0010187207
000380 e8 ba 93 bc 33 ad 7e 3d 5a 85 3a 3d 01 fb ea 3a
       -0.01803346 0.062176894 0.04553733 0.0017927588
000390 4a 09 7a 3d 19 65 f8 3c 81 0a df 3b 26 7e 23 bc
       0.061044015 0.030321645 0.006806672 -0.009978807
0003a0 b1 8c 8d bb da b7 36 3d 2c 12 23 3d 5c fb b2 3d
       -0.0043197502 0.04460893 0.039812252 0.08739349
0003b0 e3 96 74 3d 93 cc 0e 3e 00 d3 b6 3d 33 c9 67 3d
       0.05971421 0.13945226 0.08926964 0.056588363
0003c0 dd a1 00 3e a0 87 58 3c 98 39 c1 3c c7 a0 f4 bd
       0.12561746 0.013215929 0.023587033 -0.11944728
0003d0 07 96 b4 bd ec 0c 89 3d 41 fe d4 bd 08 d9 9f bd
       -0.08817678 0.06691918 -0.104000576 -0.07805067
0003e0 4e a8 39 bc 31 26 5e be 78 b9 b7 bd 8e fb 86 bb
       -0.011331631 -0.21694256 -0.08970922 -0.004119343
0003f0 e8 10 1a 3d 17 12 20 3d f1 c1 ef bc c3 3e 0e 3d
       0.03761378 0.03907975 -0.029267283 0.034727823

Generator.conv3.conv1.0.weight f4 [8, 8, 3, 3, 3]
000000 9a 7f 0c 3c 67 e0 97 3d b1 f2 aa bb 66 6d e0 bc
       0.008575344 0.07415848 -0.0052169194 -0.027395915
000010 90 74 98 ba 4b df 2a 3d ed fe bb 3d c4 40 b2 bc
       -0.0011631418 0.041716855 0.091794826 -0.021759398
000020 5b 89 58 bb 50 53 c3 bc 71 46 d9 3c 5a 60 59 bd
       -0.0033040855 -0.023843437 0.026522847 -0.053070404
000030 8b ac aa 3c ed 66 b2 bc 0a 7e 94 bd 79 aa 03 bd
       0.020834228 -0.021777594 -0.072506025 -0.032144997
000040 b9 c3 38 3d 9a 2e df bc b1 9e d6 bc ca 2d 92 3d
       0.04510853 -0.027243901 -0.026198717 0.0713764
000050 27 18 17 bb 58 ff 43 3d 37 6c 94 bd d6 7f 56 3b
       -0.0023055167 0.047850937 -0.07247203 0.0032730005
000060 61 a4 5a bd 7a 2a 9f 3c c5 bb 49 bd 1e 12 02 bd
       -0.05337942 0.019429434 -0.049251337 -0.03175556
000070 63 9e 69 3c fa be 25 3d f6 48 ad 3b b5 ff ba ba
       0.014258954 0.040465333 0.0052882386 -0.001426688
000080 1d a7 83 bd dc 22 92 3d 79 0c 88 bd b9 49 f7 3c
       -0.06428359 0.07135555 -0.06643004 0.03018652
000090 c5 60 36 3c 88 cf 6f 3d 27 71 06 3e 09 1a e5 bc
       0.01113147 0.058547527 0.13129102 -0.027966516
0000a0 f7 32 bf bc 6d f2 a1 bd 98 dc a0 ba 16 e0 d5 bd
       -0.023339732 -0.07907567 -0.0012272773 -0.104431316
0000b0 af 74 a2 3c b6 13 2a 3c d4 51 6e 3d a5 cb 22 bd
       0.01983103 0.010380676 0.058183506 -0.03974499
0000c0 e5 a1 d1 3c 85 c4 12 bd ac 8b 74 bd de 1c 77 bb
       0.025589893 -0.035831947 -0.059703514 -0.0037706415
0000d0 a0 44 78 bd c3 96 4e 3c 94 d3 21 bd 7f e0 b1 ba
       -0.06061232 0.012609187 -0.039508417 -0.0013570933
0000e0 bc 90 ff bc 47 0d 32 bd ef a6 0f bd 25 83 f1 3c
       -0.031196944 -0.043469694 -0.03507131 0.02948148
0000f0 07 20 b8 bc 40 34 e4 bc 10 ac 7b bc 50 ad 01 3d
       -0.02247621 -0.027856946 -0.015360847 0.031659424
000100 92 6b 16 3d ad 94 83 3d 61 2e 09 bd 8c 2a c3 3d
       0.03672368 0.06424842 -0.033491496 0.095295995
000110 e8 02 9d 3d d0 e8 23 bd a5 bb 13 3c 13 fa d7 bc
       0.0766657 -0.04001695 0.009016906 -0.026364362
000120 5c 0e 54 3c 56 45 88 bd e9 16 1f 3d cf 3b 18 bd
       0.012942877 -0.0665385 0.03884021 -0.037166413
000130 88 70 46 3d fc b3 21 bc d1 e3 ea 3c 47 af 4f bd
       0.048447162 -0.009869572 0.028673084 -0.050704267
000140 db 47 22 bd ee e7 05 3d 67 b8 0a 3b 17 98 b1 3c
       -0.039619308 0.03269189 0.0021167041 0.021678967
000150 9a 9f 89 bb 80 5e 3a 3c 32 87 02 bd 51 21 a8 3d
       -0.004199934 0.01137507 -0.031867214 0.082094796
000160 0b 73 a5 bc 3f 27 78 3d 45 1e 34 bb 55 7d 49 3d
       -0.020196458 0.060584303 -0.0027483862 0.04919179
000170 ce fb 27 3d 64 93 21 bd d9 90 81 3d 00 43 fe bc
       0.041011624 -0.039447203 0.063264556 -0.031037807
000180 40 2b 8c bd a4 a3 08 bd 61 af 17 bc e5 60 34 bd
       -0.06844187 -0.033359185 -0.009258122 -0.04403772
000190 82 1d 6a 3d 3c 27 90 bc b8 bf 5e 3d de 99 c9 3d
       0.057157047 -0.017596833 0.054382056 0.09843801
0001a0 6d 2b 39 3d 66 9a e2 38 88 fe fc bc 9f da c0 bd
       0.04520743 0.00010805279 -0.030883089 -0.09416699
0001b0 b9 e8 2f 3d 50 12 a6 bc eb ed f6 3b 03 42 85 3d
       0.04294655 -0.020272404 0.0075356863 0.06506731
0001c0 ec 95 fc bc da 92 c5 3c 4e fe 80 3d 06 02 1c 3d
       -0.030833207 0.024117876 0.06298505 0.038087867
0001d0 aa b0 96 bd 72 c4 e4 3c c6 6f 51 3d 90 64 59 3d
       -0.07357915 0.027925704 0.051131986 0.05307442
0001e0 88 cc 17 bc 84 d0 2d 3d a7 d4 8a 3d 3d 3c a1 3c
       -0.009265073 0.042435184 0.067788415 0.019682044
0001f0 e5 14 8d 3d de 49 97 bd e1 40 d9 bc 1b 0e b1 bc
       0.06888751 -0.07387136 -0.026520194 -0.021613171
000200 5f 9e 11 3d d0 64 8d bd 3c 47 5b bd 81 ab a7 bc
       0.035551425 -0.06903994 -0.05353473 -0.020467522
000210 b8 ac 36 3d 96 ba 72 bd 3b ca 09 bd ec 66 38 bd
       0.04459831 -0.059259973 -0.033640128 -0.04502003
000220 18 f6 70 3d d5 77 b1 3c 93 05 e2 3c 21 4d 6b 3d
       0.058828443 0.021663586 0.027590549 0.057446603
000230 3a 2b 85 bd 14 3c cc 3c 54 5f 9d bb a3 c8 d6 3c
       -0.065023854 0.024930991 -0.0048026238 0.026218718
000240 68 db bf 3c b6 cc b8 3d dc 86 a5 3c 91 88 8e bc
       0.02342005 0.090234205 0.020205908 -0.017399104
000250 35 aa 3d 3d e8 70 16 3c ec 5a e4 bc f7 62 ab bd
       0.0463049 0.009182192 -0.027875386 -0.083684854
000260 a5 97 a5 3c 5d 11 89 bd cb 6a 8f 3d 49 e6 8c bd
       0.020213911 -0.06692765 0.07002791 -0.06879861
000270 9b 08 14 3c c1 84 6e 3d 2e 0b 5a 3d 58 c4 4c 3d
       0.009035255 0.058232073 0.053233318 0.049991935
000280 22 42 9e bd 2a 6f 1b bd 09 22 35 bd 77 da 1c 3d
       -0.077274576 -0.03794781 -0.04422191 0.03829428
000290 aa 0f 76 3d f6 8d 6f bb 33 7f 25 bd 05 e6 0f bd
       0.060073532 -0.0036553121 -0.04040451 -0.035131473
0002a0 59 e1 0b 3e 0e 3d f8 3c e9 cd 8f 3c 9d ad 29 3d
       0.13660182 0.03030255 0.01755424 0.041425336
0002b0 9e 0f 8a bd 87 a4 96 3d 57 81 84 3d bb c0 ab bd
       -0.0674126 0.073556 0.06469982 -0.0838637
0002c0 68 9f 5e 3d df af 4f 3d 4a 1c 04 3d ee 74 4f 3d
       0.05435124 0.050704833 0.03225354 0.050648622
0002d0 2e 76 f3 3c 8f 84 5f bd 87 8f a7 bd 52 33 d7 bb
       0.029719438 -0.054569777 -0.081816725 -0.006567397
0002e0 fe e6 3e 3a 0b cb 21 bd 9f 10 2e bd 21 95 90 3d
       0.00072823453 -0.039500277 -0.04249632 0.07059694
0002f0 7c 49 0d 3d ec 1b a8 3c f5 a7 e1 3a b2 b6 a6 3b
       0.03449391 0.020521127 0.0017216193 0.005087697
000300 2e 3f 7e 3b 9f 15 45 3d be 6a d8 bb 91 56 a8 bd
       0.0038794982 0.048116323 -0.0066045215 -0.08219636
000310 7c 41 81 3c b6 cb 9e 3c 0c 69 54 bb e3 84 04 bc
       0.015778296 0.019384246 -0.0032411246 -0.008088323
000320 06 b0 a1 bc a3 1f 01 3d 41 64 1e 3e a6 7d 50 3d
       -0.019737255 0.03152431 0.15467931 0.050901078
000330 99 d8 a4 bc 4b 12 cd bc 03 89 a4 3d 95 5e d2 bc
       -0.020122813 -0.025033137 0.080339454 -0.025679866
000340 e9 a6 a4 bd a2 ee 87 bb 30 26 87 3d 5a de 00 3e
       -0.08039648 -0.0041483203 0.065990806 0.1258482
000350 c9 db 92 bd 2c 39 f0 bc 27 c7 d5 bc 95 f9 22 bd
       -0.07170827 -0.029324137 -0.02609594 -0.0397888
000360 ac 08 fe 3c 83 c0 ba bc 2a a9 31 bd 5b 56 1c 3d
       0.031009994 -0.022796875 -0.043374218 0.038168292
000370 b5 7d 96 3c 80 67 42 3d 82 8f a6 3c ff 8d fe 3c
       0.018370489 0.047461987 0.020332102 0.031073568
000380 5c 21 78 bc 58 ff a2 3d 18 7b a7 bd 46 41 d5 bc
       -0.015144672 0.07958859 -0.08177775 -0.026032101
000390 36 4c 2f 3d bc 4a 3d 3d bf 44 90 bd 15 50 27 bd
       0.04279729 0.04621385 -0.07044362 -0.040847857
0003a0 e7 6f 48 3d a7 8a 14 be 18 c9 c9 3c d3 19 af 3c
       0.048934843 -0.14506017 0.024632022 0.021374619
0003b0 15 07 b1 3b 28 6b 3d 3d b6 be ce 3c 74 fb 64 bd
       0.0054024556 0.04624477 0.025237422 -0.055903867
0003c0 c5 d6 32 bd c2 dc 2c bd 2a 49 e6 39 c5 37 e8 3c
       -0.04366185 -0.04220272 0.0004392353 0.028346905
0003d0 26 d5 65 bd ca 7e 91 bd 46 7f fd 3c cb 62 d4 3d
       -0.056111477 -0.07104261 0.030944478 0.10370406
0003e0 d4 e6 57 bd a4 62 71 3d d8 3b db 3c c7 74 89 3b
       -0.05271037 0.05893196 0.026761934 0.004194829
0003f0 8c 85 be 3d ae 5d 16 3d 6e a9 c8 bb 94 54 fa 3d
       0.09302816 0.036710434 -0.006123713 0.12223163

Generator.conv3.conv2.0.weight f4 [8, 8, 3, 3, 3]
000000 19 6d b2 3c ae f4 c7 3c 40 64 0c 3d 16 d5 95 bd
       0.021780537 0.024408665 0.034275293 -0.073160335
000010 f1 2c a4 3c 05 32 78 bc 1d 88 c1 bd 1e 32 8e bc
       0.020040961 -0.015148644 -0.0944979 -0.017357882
000020 45 28 33 bd e6 6e 0f 3d a8 8c f8 bc ba a4 86 3d
       -0.043739576 0.03501787 -0.030340508 0.06574388
000030 f4 7a 81 3c 4a 23 29 3d f0 e4 12 bc 37 56 4a bd
       0.015805699 0.04129342 -0.008965716 -0.049398627
000040 08 31 07 3d 1b 82 bc bc 06 83 83 3c 42 50 3c bc
       0.033005744 -0.023011258 0.016053688 -0.011493744
000050 d1 ad 99 bc a9 06 12 3d 7b 9c 56 3d a7 d2 a0 3d
       -0.01875964 0.035650883 0.052395325 0.07852679
000060 bc c4 82 bc 0e 6a b2 3d 8c b4 54 3d 76 50 f8 3d
       -0.01596295 0.087116346 0.051929995 0.12124722
000070 7f b2 f2 bd 5a 94 e0 bd 38 04 14 3e aa 5f e1 bc
       -0.11850452 -0.10965796 0.14454734 -0.027511436
000080 d3 17 ad bd 49 d1 15 3d b2 3b 80 3d 0c 79 2a 3d
       -0.0845181 0.036576543 0.06261386 0.041619346
000090 cd e8 d0 3d c5 a1 7a bd 57 f6 8a bd cc f1 73 bd
       0.10200653 -0.06118943 -0.06785267 -0.059556767
0000a0 9e 23 9b bc ee 84 a5 bc eb 08 40 bd c0 d8 b7 bd
       -0.018937882 -0.020204987 -0.046883505 -0.08976889
0000b0 27 32 a8 bd da a8 c2 3d cf e6 25 3c 89 c5 e2 bd
       -0.08212691 0.09504862 0.01012583 -0.11072833
0000c0 5f fd 69 bd 06 90 b8 ba ca 6e c5 bd fc 18 bf bc
       -0.0571264 -0.0014081008 -0.09640272 -0.023327343
0000d0 8e 6d c6 bc 22 33 04 bd 5b ef 1b bd 59 e1 02 3d
       -0.024222162 -0.032275327 -0.038070064 0.03195319
0000e0 28 33 17 be c7 30 15 bc f1 fe 83 bc 5b 90 9d 3c
       -0.14765608 -0.009105868 -0.016112776 0.019233873
0000f0 f9 3e 30 bc bb 25 d8 3c 98 48 01 3e 83 a5 93 3d
       -0.010757201 0.026385179 0.12625349 0.07209303
000100 ac 74 3b bc 3a 68 9c 3c 9b 93 98 3d 29 05 c8 3d
       -0.011441391 0.019092668 0.074500285 0.09766609
000110 f0 92 9b bc 1b 4f 2f bd 3f 48 05 3e 7b 81 fb 3c
       -0.018990964 -0.04280005 0.13015841 0.03070139
000120 95 39 18 3d 5b 62 1a 3e 95 bb 7a 3d cd 96 5a 3d
       0.03716429 0.15076582 0.06121405 0.05336647
000130 18 5a 23 3e 42 40 4e 3d 01 4d 67 bd 4b 89 b2 bc
       0.15952337 0.05035425 -0.05646992 -0.021793982
000140 75 30 e7 3d a6 3c ca bc b2 67 bb 3d db d3 b7 3b
       0.11288539 -0.024687123 0.09150638 0.005609972
000150 4a 81 51 bd 06 a3 ca bc c0 ae 7d 3d 73 90 ad bc
       -0.05114869 -0.024735939 0.061934233 -0.021187043
000160 b8 5a c9 bd 5a c9 53 bc 79 91 3c bd 37 2e 99 bc
       -0.09831756 -0.012926424 -0.04603717 -0.018698795
000170 70 c4 05 3c 4b 0c bc bd 49 56 4b be 1e 84 17 3d
       0.00816451 -0.09182032 -0.19857134 0.03699123
000180 aa 8b 5c bc 07 16 29 be df 39 0d bd 04 82 a1 bd
       -0.013461033 -0.16512309 -0.03447902 -0.07886127
000190 01 d6 de bd b6 49 65 3b ee 7a ee bb 00 2c 2a be
       -0.10880662 0.0034986562 -0.007277838 -0.16618347
0001a0 09 e5 cb bc d9 60 10 3d 56 73 2d bd 8f 82 57 bd
       -0.024889486 0.03524861 -0.04234632 -0.052614745
0001b0 9c 31 5c be fc 54 c3 bd 57 95 f1 bd 4b 49 5e bd
       -0.215033 -0.09537694 -0.117960624 -0.054269116
0001c0 d9 b6 bc bd b6 c6 19 be 36 cc 6d be 6c 51 a2 bd
       -0.09214563 -0.15017208 -0.23222432 -0.07925686
0001d0 71 fb 76 bd 39 c7 45 bb bb 71 19 bc dd 02 79 3d
       -0.060298387 -0.003017856 -0.009365494 0.060793746
0001e0 bf 09 93 3d 0d 01 cf 3c 5d 25 90 bb 10 7d c9 bd
       0.07179593 0.025269056 -0.0043989853 -0.09838307
0001f0 b2 0d 4f bc 04 ea 89 3c e8 11 89 be a8 e1 08 be
       -0.012637543 0.01683522 -0.26771474 -0.13367331
000200 5e 57 f7 bd be ed 09 bd e5 dc 66 bd 3d 05 aa bd
       -0.12077211 -0.033673994 -0.056363005 -0.083017804
000210 f0 9f b0 bd 20 09 5b bd d9 ad 76 3d c6 b7 c3 3d
       -0.08624256 -0.0534755 0.060224388 0.095565364
000220 78 4f 82 bc 48 fb 75 be b7 3c 85 bd 08 40 fc bc
       -0.015907034 -0.24021637 -0.06505721 -0.030792251
000230 bd 76 51 bd e9 5b 01 3e ba 96 56 bd 97 93 d8 3d
       -0.05113863 0.12632717 -0.052389838 0.105750255
000240 05 a9 51 bd 52 87 ec bd 18 e3 06 bd 5a fc 40 3d
       -0.05118658 -0.11549248 -0.032931417 0.04711566
000250 18 22 97 3c 31 22 ec 3c 09 ed c9 3d 96 89 1e bd
       0.018448874 0.028824897 0.09859664 -0.03870543
000260 47 db b1 3d 99 8b 72 3d 78 88 fc 3d 0e df e2 bc
       0.08684402 0.059215162 0.12330717 -0.027694251
000270 72 96 ea 3d 2e f8 0b 3d 4f 00 27 3d ce ca f6 3d
       0.114544764 0.03417223 0.04077178 0.12050401
000280 33 df ff ba dd 5d 0e 3c d4 74 c5 3d 69 39 fd 3d
       -0.0019521475 0.008689371 0.09641424 0.12364466
000290 5e 95 cb 3d 06 25 6c bb ea 0f 07 39 5c fa 79 3d
       0.09940599 -0.003603281 0.00012880532 0.061029777
0002a0 6c 8b 4e bd d3 d0 2a be 63 3f e5 3c 02 f5 de bc
       -0.05042593 -0.16681223 0.027984327 -0.027216438
0002b0 b9 59 0f 3d f3 37 8b 3d 11 f7 b9 bd 6f 57 82 bd
       0.034997676 0.06797781 -0.09080327 -0.06364333
0002c0 e8 1e a0 3d fb 28 a3 bd a1 e9 20 3c de 41 7d 3d
       0.07818395 -0.07966801 0.0098213265 0.061830394
0002d0 1e 07 f6 bd 89 fe 23 bc 2a f7 21 3e 92 41 e2 bd
       -0.12013076 -0.010009416 0.15816942 -0.11047663
0002e0 b3 cf a0 bc c4 fb 3c 3e a7 89 9c bd e7 22 6e 3d
       -0.019630289 0.18455416 -0.076434426 0.058138754
0002f0 d4 97 9a 3d 62 d3 38 bd 96 46 1f bd 6f 49 91 3d
       0.0754849 -0.045123465 -0.038885675 0.070940845
000300 b4 8d 5a bd 14 64 20 bd 7b 26 61 3d 17 75 e5 bc
       -0.053357795 -0.039157942 0.05496834 -0.028009934
000310 c9 0f 8b 3a 0d 22 00 3e 8a 0d 11 3e 8a e3 31 3d
       0.0010609563 0.1251299 0.14165321 0.04342989
000320 39 2b b0 3d e3 e6 11 3d 0b 3a ad 3c cb e2 ae 3c
       0.08601994 0.03562058 0.021145841 0.021348378
000330 cb 4e 44 bd 50 9c b3 3d 09 0e 31 3c 35 a2 d0 3d
       -0.047926705 0.087700486 0.010806569 0.101871885
000340 2b 80 35 bd e1 dc 5d bc 87 b8 da 3d 60 17 eb 3b
       -0.044311684 -0.013541431 0.10679727 0.0071744174
000350 ff 96 bd 3c ca aa 69 3d 7a 57 f8 3d 40 77 24 bb
       0.02314329 0.057047643 0.1212606 -0.0025095493
000360 b8 a9 7d 3d 52 50 dd 3c 8f 46 82 bd a8 bb 5b bc
       0.061929435 0.027015839 -0.06361114 -0.01341144
000370 6d a0 84 bd 3a 97 b1 bd 58 6c 25 3c 23 c5 ef 3c
       -0.06475911 -0.08671422 0.010096632 0.029268807
000380 a3 7a 37 bc 49 1e 07 3d 12 4b c3 bc 03 d7 8a bd
       -0.0111986725 0.032987867 -0.023839507 -0.067792915
000390 59 19 a7 bc a7 a4 94 3d e3 38 90 bd d8 0e 46 3d
       -0.020397829 0.072579674 -0.070421 0.048354
0003a0 bd 8f e7 3c 10 99 3d bc 67 3f a2 3c f3 9d de 3d
       0.028266782 -0.0115721375 0.019805623 0.1086997
0003b0 ed ba 65 3d 3f a4 38 3d 08 f1 80 3d b1 4c 2d 3d
       0.05608647 0.045078512 0.06295973 0.042309467
0003c0 37 f8 4c 3c 33 f1 44 bd f5 e8 3c 3b 19 68 ae 3c
       0.012510351 -0.048081588 0.0028825377 0.021289872
0003d0 92 7d 6c 3d a0 da f9 bd b8 13 e2 3d e4 e2 ec 3d
       0.05773694 -0.121999025 0.11038917 0.115667135
0003e0 ab e3 20 3d 36 0f 16 3e 70 68 19 3c b5 30 b4 3d
       0.03927962 0.1465424 0.009363279 0.08798353
0003f0 59 0a 7f bc 6a e1 bd 3d c2 2b 98 bd d7 54 97 3d
       -0.015566432 0.0927151 -0.07430221 0.07389229

Generator.conv4.conv1.0.weight f4 [8, 8, 3, 3, 3]
000000 b1 b9 08 bd 3f 56 12 bc b9 be 76 bd 1a c3 a2 3b
       -0.033380214 -0.0089316955 -0.06024048 0.0049671056
000010 b5 a6 c9 3c b8 54 c4 bb 6f 2a 82 bb 84 5a 39 3c
       0.024615625 -0.0059915446 -0.0039723436 0.0113130845
000020 61 b3 02 bd 39 85 31 bd 25 4c 69 bc 10 e2 b4 bd
       -0.03190935 -0.04333994 -0.014239346 -0.088321805
000030 a9 39 8e bd a9 9e 87 bb c8 96 e1 bc e2 20 b8 3d
       -0.069445916 -0.004138787 -0.027537718 0.08990647
000040 ab 78 21 3c 75 fb 01 3d e0 0a 11 3d f3 33 1a 3d
       0.00985543 0.03173395 0.03541076 0.0376472
000050 68 56 74 3d fb 71 0d 3d 3b 6c b8 bd 98 98 29 3c
       0.059652716 0.03453253 -0.09005018 0.010351323
000060 79 06 58 bd f2 c0 06 bd f9 bf 80 3c 87 47 ed bc
       -0.052740548 -0.03289885 0.01571654 -0.028964771
000070 05 c6 53 3c 84 20 88 3d 2b c9 8b bc 82 62 76 3d
       0.0129256295 0.06646827 -0.017063698 0.060152538
000080 a4 64 84 3d 6a be 87 bd cd 95 a1 3d 80 95 45 bd
       0.06464508 -0.066281155 0.078899 -0.048238277
000090 4d b6 97 3c ae 4f dd bc 5a 42 2c bd 66 52 48 bb
       0.018519545 -0.027015533 -0.042055465 -0.0030566691
0000a0 62 a5 00 bd af f8 83 bd 93 9b 23 bc 42 ba 11 3d
       -0.03140772 -0.06443917 -0.009985822 0.03557802
0000b0 b0 25 19 3d e1 3a 4d 3d 0f f1 d7 bc 30 0a 0a bc
       0.037389457 0.05010498 -0.026360063 -0.00842528
0000c0 09 44 2c 3d 8b 9a c2 bc ae f4 bb 3c 36 6d 82 3d
       0.04205707 -0.023755332 0.02294382 0.063684866
0000d0 92 71 5a 3d f4 0a c9 3c ea 22 98 bd 87 75 97 bd
       0.053330965 0.024541356 -0.07428534 -0.073954634
0000e0 ef 08 05 be c7 e5 a6 bc e2 cf bd 3c 90 9e 71 bd
       -0.12991689 -0.020373238 0.023170415 -0.058989108
0000f0 7b a9 68 3d 5c 18 f0 3c 91 2a 98 bc 0e 60 71 3b
       0.056802254 0.02930849 -0.018574985 0.0036830935
000100 ee e0 0b be 90 da b8 bd d2 ec 99 3c 2c b5 87 bd
       -0.13660023 -0.090260625 0.018789683 -0.06626353
000110 95 5d 5a bc e5 78 10 3c f1 b5 7e 3d c4 5e 59 bd
       -0.013327976 0.008817886 0.06218523 -0.05306889
000120 5e 53 6f 3d a9 cf 43 bc 92 cc 83 bc c1 f7 59 3c
       0.058429115 -0.0119513655 -0.016088758 0.013303698
000130 fc 75 d9 bd 5e f4 5d 3d 27 25 17 3c 3a 71 26 bd
       -0.10618207 0.054188125 0.009225166 -0.040635325
000140 de 34 54 3c c5 7c 25 3c 4b b0 ad bc f3 77 22 bd
       0.012952058 0.010100548 -0.021202227 -0.039665174
000150 e5 ad 08 3c 02 42 82 bc 1e d8 3d bd f6 16 47 3d
       0.008342241 -0.015900616 -0.046348684 0.04860588
000160 d2 ec c9 3c 1b cf 9a 3d 3a b4 67 ba 4a 86 81 bd
       0.024649058 0.075590335 -0.00088388065 -0.06324442
000170 d7 45 43 bd 85 44 d3 3c 45 d9 90 bd e5 5e 11 bc
       -0.047674026 0.025789509 -0.07072691 -0.008872722
000180 d6 b6 b8 3d 12 6b b3 3d 1e 01 54 3d fc 1e 64 bd
       0.09019248 0.087606564 0.051758878 -0.05569361
000190 96 61 99 bd 7b 13 84 bd 9b 19 8f bc cd bb dd 3c
       -0.07489316 -0.06449028 -0.017468264 0.02706709
0001a0 40 52 9d bd 45 7d 93 3d 48 3e 36 3b 09 e0 79 3b
       -0.076817036 0.07201628 0.0027808119 0.003812792
0001b0 c1 de ad bd 1d 40 74 bd a7 ec c6 3b cc 15 04 bd
       -0.084897526 -0.059631456 0.0060706916 -0.03224735
0001c0 91 19 87 3c ab 6e ed 3c ce c8 d6 bc 64 48 57 3d
       0.016491683 0.028983435 -0.026218798 0.05255927
0001d0 5e c8 f1 3c 61 2a 79 bc b7 dd ff bb 3f 45 a7 3d
       0.029514488 -0.015207858 -0.007808413 0.081675045
0001e0 7e 51 3b bd 9b 83 07 bc 95 26 7f bc 0e cf 3c 3c
       -0.045732014 -0.008271123 -0.0155731635 0.011523975
0001f0 fc 89 d2 3c 56 f0 b0 bc ce 16 9f 3d 64 8b 62 3c
       0.025700562 -0.021598976 0.077680215 0.013827179
000200 fc 91 77 3d e9 78 12 bc e1 b1 55 bb 8b a1 41 3c
       0.060441956 -0.00893996 -0.0032607245 0.0118183
000210 25 59 95 3c 44 b7 a4 3c 6e 98 a3 3d b9 81 29 bd
       0.018230984 0.02010692 0.07988058 -0.04138348
000220 d6 93 20 3d 93 e2 aa bd 45 ef 00 3c 08 1b a0 3d
       0.039203487 -0.08343997 0.007869546 0.07817656
000230 88 7d b4 3b 45 ad 52 3d be 70 7d 3d 9a ad 91 bd
       0.0055081286 0.051434774 0.061875097 -0.0711319
000240 a7 7b b6 3c d3 c6 a4 3b 7f d8 c4 bb e1 cb 01 3c
       0.022275759 0.0050285845 -0.0060072537 0.007922144
000250 43 a9 37 bd 13 ed 07 3c df 22 44 3d 06 8f 03 3d
       -0.044839155 0.008296269 0.04788482 0.03211882
000260 6b ea 01 bd ab 16 39 3d ef fc 11 3c 73 91 eb bc
       -0.0317177 0.045187633 0.008910402 -0.028755879
000270 4f 2b d9 3c 3c 2a 00 bd ce c5 87 3b 8c 4f fe 3a
       0.026509909 -0.031290278 0.004143453 0.0019402369
000280 70 f7 36 bd eb d5 dc 3c fe b9 8e bd 10 a2 e8 bc
       -0.04466957 0.026957473 -0.06969069 -0.02839759
000290 40 94 84 bd 58 50 0e bc 96 67 e6 3d 86 ce 98 3d
       -0.06473589 -0.008686148 0.11250226 0.07461266
0002a0 2c f9 5d bc 9e e1 2d 3d b1 a7 6e 3d f8 64 62 bd
       -0.013548177 0.042451493 0.05826539 -0.055272073
0002b0 d3 00 27 bd 35 b0 94 3c c3 fe 0c 3c b9 d8 c6 bd
       -0.04077227 0.018150428 0.008605662 -0.09709305
0002c0 82 4c ff bc 96 c2 84 3d fe be 2b 3d 89 65 3c bc
       -0.031164411 0.06482427 0.04193019 -0.011498817
0002d0 7e d7 80 3d 91 0e 82 3d 56 04 e2 3b d2 c9 b9 bd
       0.06291102 0.063504346 0.0068974895 -0.09071697
0002e0 7a 8b 8c bc a5 7f 06 bd ca 33 58 bd 35 73 ee bc
       -0.017156351 -0.032836575 -0.052783765 -0.02910767
0002f0 35 dc 9e 3c 46 ff 56 bd 20 42 83 bd 0f 99 9e bd
       0.019392112 -0.05248954 -0.06409097 -0.07744037
000300 0e c4 07 bd de 4d 12 3d 09 03 c2 bc ee 80 28 bc
       -0.033145957 0.03571879 -0.023683088 -0.0102846455
000310 2d 84 0a 3b 8d ee 0c 3d bb 1a 3c 3d 96 44 b5 bd
       0.0021135912 0.034407187 0.04592393 -0.08850972
000320 04 88 68 3b df 83 82 3c fc 06 b7 bd a0 0b a2 bd
       0.0035481462 0.015932022 -0.08936879 -0.079123735
000330 bb 28 2a 3d fb a0 a3 3d 3e c2 46 bd 5c 4b 98 3c
       0.04154275 0.07989689 -0.048525088 0.018590622
000340 fa 47 6e 3d e1 b9 0f bd 7e f3 ab 3c 53 67 7d bd
       0.05817411 -0.035089377 0.02099013 -0.061866116
000350 4e 0a a8 bd 5f 2b 19 3d ba a2 c5 3c 29 3c d7 3c
       -0.082050905 0.037394878 0.024125446 0.026273804
000360 c2 7d 2d bc 43 06 aa 3d 1c 8e 54 3d 18 fc b4 3c
       -0.010589065 0.083019756 0.05189334 0.022092864
000370 97 6b b8 3d 67 ce 42 3d 93 f0 43 bd 38 67 fb 3c
       0.09004896 0.047560122 -0.04783685 0.030688867
000380 c5 4b 58 3d a4 32 a0 3d 0f f4 7a 3d 16 16 a8 ba
       0.052806634 0.07822159 0.06126791 -0.0012823965
000390 92 50 af bc 1f c9 19 3d 06 68 d2 3c 53 cb 93 3c
       -0.021400724 0.03754532 0.025684368 0.018041288
0003a0 f5 31 b7 3c 3c f1 83 3b c0 b0 c4 bc 0f 8a 93 bd
       0.022362689 0.00402656 -0.024010062 -0.07204067
0003b0 4e 8b d2 bc 3f b9 38 3d 6d 99 45 bd e1 86 b6 bd
       -0.025701191 0.04509854 -0.04824202 -0.08912445
0003c0 91 e8 74 3d 35 6a 8f 3c 1b 9c 87 bd 27 d7 f7 bc
       0.059792105 0.017506698 -0.06621572 -0.03025396
0003d0 f5 cb 2f 3d b4 d5 aa 3c 8d 4b b4 bd 82 4a 9e 3d
       0.042919118 0.020853855 -0.08803473 0.07729055
0003e0 2a be 78 3d 2b 33 28 bc c4 f3 a4 bd f6 7d 2f bc
       0.06072823 -0.010266106 -0.08054307 -0.010711184
0003f0 71 ba 9a 3c 91 90 2a 3d 7f 20 21 3d 1c e6 b2 bc
       0.01888773 0.041641776 0.03933763 -0.02183824
