DeepWonder3D_pytorch/pth/SEG_pth/Unet4_no_end_UNet3DFFD_20240401-1432_2um/seg_232.pth (torch, 138281 bytes, 19 tensors)

Generator.conv1.conv1.0.weight f4 [8, 1, 3, 3, 3]
000000 79 1b ec 3d f6 f4 cb 3d e8 26 66 bd 00 c8 11 3e
       0.115286775 0.09958832 -0.056189448 0.1423645
000010 7a 26 f6 bd f9 6c fd bd 07 34 f0 3a d2 19 6e 3a
       -0.120190576 -0.123743005 0.0018326052 0.0009082827
000020 4a 6e c9 3d a0 bf 2b 3d b2 af 20 be 99 7c b7 3d
       0.09835489 0.041930795 -0.15692022 0.08959312
000030 72 95 04 3e aa a8 de 3d 01 03 0f 3d 7e f2 3e be
       0.12947634 0.10872014 0.034914974 -0.18647191
000040 0f e7 b8 3d 29 e3 50 be 3f 2a e2 bd ca a3 e8 bd
       0.09028446 -0.20399155 -0.11043214 -0.11359365
000050 ba 9b 76 bd 60 9f f8 3c ac d7 57 bd d4 75 68 3d
       -0.060207106 0.030349433 -0.052695915 0.056752995
000060 89 f3 5f be 91 f2 0a 3d a4 41 29 3e 4d cf 21 3e
       -0.21870245 0.033922736 0.16528946 0.15801735
000070 d7 34 21 3e 88 08 89 3c 34 50 ad 3d b8 ec 08 be
       0.15742813 0.0167277 0.08462563 -0.13371551
000080 d8 21 3b be b1 ed 08 3e 51 2c 9d 3c 80 6b aa bd
       -0.18274629 0.13371922 0.01918617 -0.08321285
000090 a5 86 e8 bd f9 b2 22 3e 4d 08 2e bd d0 2d 05 be
       -0.113538064 0.15888585 -0.042488385 -0.13005757
0000a0 f2 95 9d bd 7b ed 08 3c 87 f3 4a be 40 59 5b be
       -0.076946154 0.008357401 -0.19819461 -0.21420765
0000b0 bc 86 9d bc b5 62 fa 3d 9d 41 13 3d cf 73 55 3e
       -0.019229285 0.12225858 0.035951246 0.20844959
0000c0 8e 19 31 3e d2 40 b0 bd 14 6a 25 3e 66 56 b8 3d
       0.17294905 -0.086061135 0.16153747 0.09000854
0000d0 22 24 03 be 09 bd 9f bd cc c2 86 3d 09 fb 21 bd
       -0.12806752 -0.077997275 0.06580123 -0.039546046
0000e0 81 41 f2 bd a8 d7 e9 3c 18 1d cf 3d 15 14 ae bb
       -0.118289 0.028545216 0.10112971 -0.0053124526
0000f0 d3 49 23 be 41 94 e3 bd db 32 63 bd 93 c5 10 3d
       -0.1594613 -0.111122616 -0.05546842 0.03534467
000100 65 44 c2 3d e9 5c 85 3c 51 7c 36 bd 6c 40 1f 3d
       0.094857015 0.016279655 -0.04455215 0.038879797
000110 78 3e 94 3d cf 8d 7c 3d 0f 65 1b 3c c7 62 86 3c
       0.072384775 0.061658677 0.009484543 0.016404523
000120 8b 04 21 be 99 7e 36 3d e5 47 41 3d 3d 04 b3 b9
       -0.1572439 0.044554327 0.047187705 -0.00034144698
000130 4a e4 86 bd 78 26 c1 3d 6b 1c cc be a4 0f 7f 3c
       -0.065865114 0.094311655 -0.3986543 0.015567694
000140 4c 24 7e be 5a ee ba bd 62 47 19 be 74 b9 1f 3e
       -0.24818534 -0.09127493 -0.14968637 0.15598089
000150 5c df 4a be bb 3c 96 bd c6 ea b5 bc f5 a4 a4 3d
       -0.19811767 -0.07335802 -0.022206675 0.080392756
000160 fe de ea bd 22 6a 60 3d ee 29 54 be 91 77 74 bd
       -0.11468314 0.054788716 -0.2071912 -0.05968434
000170 87 48 d6 3c 04 99 d0 3d 22 20 4b be 0b c5 27 be
       0.02615763 0.101854354 -0.19836476 -0.1638376
000180 9d 38 16 bd 9c a4 ff 3d 47 0c b2 3d 64 e8 60 bd
       -0.036675084 0.124825686 0.08693748 -0.054909125
000190 5d 5a 80 3d ee 48 b9 3d 09 28 84 bd a6 6c 6f 3d
       0.062672354 0.09047113 -0.064529486 0.058453225
0001a0 51 e7 a0 3d 67 b8 7c 3c bb 70 27 be 21 da 63 be
       0.0785662 0.015424824 -0.16351597 -0.22251178
0001b0 47 1b 34 3e f8 36 24 be 65 94 1b bd 29 7e 04 be
       0.1758853 -0.16036594 -0.037983317 -0.12938751
0001c0 59 7c 1c bd f5 81 46 3c 70 4d 1a bd 3a 74 70 3d
       -0.038204525 0.012115945 -0.037671506 0.058704592
0001d0 8f ea 35 3d 6e 78 f3 ba 43 02 b2 3d e3 06 3e be
       0.044413146 -0.001857532 0.08691838 -0.18557315
0001e0 7b f7 56 bd e2 26 2f bd ee 75 95 ba 38 6b ea 3d
       -0.05248211 -0.04276169 -0.0011402944 0.114462316
0001f0 98 02 8c 3c 8c 84 01 3e ec 43 41 be 42 b2 77 3d
       0.01709108 0.12648219 -0.18873566 0.060472734
000200 d4 03 cb 3d 97 bd cb 3d b2 73 00 3d 0b 76 de bd
       0.099128395 0.09948271 0.031360336 -0.10862359
000210 f2 0b 1b be d5 49 ae bd 74 dc d2 3d f2 6d 10 3d
       -0.15141276 -0.08510176 0.10295954 0.035261102
000220 32 de de bd 08 73 f5 3d a5 e9 dd 3d f3 e8 8e bd
       -0.10882224 0.11984831 0.1083558 -0.06978025
000230 8d 7c 03 be c4 f1 3d be 65 aa 3a 3e 1b b9 b0 3c
       -0.12840481 -0.18549258 0.18229063 0.02157264
000240 85 d6 b2 bd 91 ff 41 be 7b d4 73 3d d2 39 bf 3d
       -0.087323226 -0.18945147 0.05952881 0.093372
000250 92 b1 2e be 24 66 59 be b9 f0 9b bd ed cf 9b 3d
       -0.17059925 -0.2123037 -0.076142736 0.07608018
000260 02 b6 1a 3e 0a 1a 04 bd 9a a4 1b bd 55 62 f4 3d
       0.15108493 -0.032251395 -0.037998773 0.11932818
000270 90 2a ba 3c ae 76 2c 3e 07 b9 a8 bd a3 75 22 3a
       0.022725374 0.16842148 -0.08238416 0.0006197339
000280 48 84 23 bd 38 5f 4d 3e b8 88 5f be 85 6f 25 3e
       -0.039921075 0.20055854 -0.21829498 0.16155823
000290 27 fa a3 bd da f7 ae 3d 67 a5 ad 3b e8 25 3b bd
       -0.08006697 0.08543368 0.0052992585 -0.045690447
0002a0 14 ba f8 3c d2 f7 a3 bc 12 b6 77 3d c8 1e 67 3d
       0.030362166 -0.02001563 0.06047637 0.05642584
0002b0 40 ce 8b bd cb 7b 67 3e 21 a3 52 be 2c d3 a5 bd
       -0.068264484 0.22605817 -0.20570041 -0.080969185
0002c0 82 34 de 3c 5f 0e 6d bd 1e 1c f5 3d e4 1d 3e 3d
       0.027124647 -0.057875033 0.119682536 0.046415225
0002d0 29 ce 99 bd c5 72 5a bd ac 8e d3 3d 2d cd 14 be
       -0.07510025 -0.05333211 0.10329947 -0.14531393
0002e0 88 e7 59 3d 4e bc d6 3d d8 95 03 be 74 cc 5d bb
       0.05319932 0.10485135 -0.1285013 -0.0033843787
0002f0 d0 d2 24 3e ba 33 59 bd 70 ec 04 3e 13 bf 64 3c
       0.16096044 -0.053027846 0.12980819 0.013961571
000300 8a 09 1d 3d c6 51 de 3d be 6a 58 be e7 62 94 bd
       0.038339175 0.10855441 -0.21134469 -0.072454266
000310 0b 1f a3 3b 4f 45 fa 3d 5c 88 15 bd ad 31 97 bd
       0.004978066 0.12220251 -0.036506996 -0.07382522
000320 7a 63 4f bd 55 9b 52 be f0 8c 11 3e 41 70 bf bd
       -0.050631978 -0.20567067 0.1421392 -0.093475826
000330 9a 10 b6 bd 77 06 32 3e f3 09 d4 3c 0a a2 9e bd
       -0.08889885 0.17385279 0.02588365 -0.0774575
000340 29 5e e9 bc 9a 96 58 bc 8b 72 63 be 75 cd cb 3d
       -0.028487282 -0.0132195 -0.22211663 0.09951297
000350 6d 8e d9 bd c3 f7 45 be 0c 7b a2 bd 1d 91 d7 3d
       -0.10622869 -0.19332795 -0.079336256 0.10525725

Generator.conv1.conv2.0.weight f4 [8, 8, 3, 3, 3]
000000 fe 73 08 3e 2b 71 87 3d 59 42 91 3d 4f 61 c2 ba
       0.13325498 0.06613382 0.07092733 -0.0014830026
000010 6b f9 41 bd 2c 31 13 3d 32 68 37 3e 67 a5 13 3e
       -0.047357004 0.035935566 0.17910841 0.14418565
000020 2e 18 97 3e 4c 2e 60 3c a6 be 1f 3c c5 16 0c 3d
       0.29510635 0.013682913 0.009750044 0.034201402
000030 21 6e 2c 3d 1b ac c0 3d 83 d9 e8 ba bb 96 8c 3d
       0.042097215 0.094078265 -0.0017765019 0.06864687
000040 97 6e 90 bc 4c ca 07 3e 7b 16 07 3d 35 13 1c 3e
       -0.017630858 0.13260764 0.032980423 0.15241702
000050 47 28 12 3e 43 41 07 3e 44 a4 2c 3e 2b 05 1d 3e
       0.14273177 0.13208489 0.16859537 0.15334003
000060 6a a8 07 3e 47 fe 1b 3e 54 7b 32 3e d9 db 11 be
       0.13247839 0.15233718 0.17429858 -0.14244021
000070 8a 25 39 bd 64 ec 3e be d3 e2 8b bd 00 37 15 bd
       -0.045201816 -0.18644863 -0.06830373 -0.036429405
000080 76 39 64 be c0 a3 d1 bc 93 84 94 3d 9f 48 ab bd
       -0.22287545 -0.025590777 0.07251849 -0.08363461
000090 1b 9d ef bd 7d 26 32 3e ed 99 58 be 67 3d 8d bd
       -0.11699887 0.17397495 -0.21152468 -0.06896477
0000a0 b0 1d fb 3d 18 d0 e6 be d0 d8 53 bd 4d 32 8d 3d
       0.12261522 -0.45080638 -0.05172044 0.0689436
0000b0 50 34 a8 3c e4 06 2b 3d 03 20 5b 3e f8 4a 9f be
       0.020532757 0.04175462 0.2139893 -0.31111884
0000c0 27 f2 87 bd 28 78 09 3e 6e 2a df be 27 17 c6 bd
       -0.06637984 0.13424742 -0.4358706 -0.09672385
0000d0 08 53 a6 3c 97 34 d3 3b 46 58 b5 3d 77 20 b5 3c
       0.020303264 0.006445478 0.088547274 0.022110207
0000e0 e7 2c f0 3c 70 f2 37 bc f8 16 7c bd 9e 33 b3 bc
       0.029318286 -0.011227235 -0.061545342 -0.021875199
0000f0 15 58 61 3d de 48 8a 3c 04 28 28 bd 35 9a 3e 3e
       0.055015642 0.016880449 -0.041053787 0.18613513
000100 55 57 38 3c 9e c0 19 3d 16 8a cd 3c 4e 2c 18 3d
       0.01125129 0.03753721 0.025090259 0.037151627
000110 e1 cf 0d 3e d1 e3 f7 3d b3 00 29 3d 4b c4 53 3d
       0.13848831 0.121039994 0.041260432 0.05170087
000120 25 c3 a9 3d e5 7e bd 3c 93 54 c8 3d f5 0c b2 bd
       0.08289174 0.023131797 0.09781756 -0.086938776
000130 ce c9 6f 3b bf 0d f5 3c bf 52 b8 3d 4f d2 c3 3d
       0.003658879 0.029913781 0.090001576 0.095615976
000140 91 78 70 3d e0 56 c4 bc 45 59 7d 3d 17 fb 29 3d
       0.05870873 -0.023967206 0.061852712 0.041499224
000150 ac 62 0f 3e 73 63 06 3b ae 29 ce bb 4d 07 06 3c
       0.14002484 0.0020506054 -0.0062915897 0.008180452
000160 c0 52 23 bd 1f d0 0e 3c 81 7a aa 3c 5e c8 91 3c
       -0.03987384 0.008716612 0.020810368 0.017795738
000170 32 9a 2e 3d 30 9e 3a bd 79 60 72 3c 6c 21 6b 3d
       0.04262752 -0.045561016 0.014793509 0.05740492
000180 34 27 0f bd 8b ba be 3c 90 e7 e5 3c aa c6 88 3d
       -0.034949496 0.02328231 0.02806452 0.06678517
000190 0a 7e 3d bd 4e 2c 47 bd a6 46 fe bb c2 67 1c 3d
       -0.04626278 -0.048626237 -0.007759887 0.03818489
0001a0 55 41 55 3d a2 02 f8 3c 4e 68 1d 3d 85 f8 9c 3c
       0.05206426 0.030274693 0.03842955 0.019161472
0001b0 18 88 cf bc 01 ea 50 be c3 ab 2a be 18 fa 52 bd
       -0.02533345 -0.20401765 -0.16667084 -0.05150804
0001c0 3e 9a 5d 3b fb 02 0a be 44 f9 a3 3c 8a 06 05 3d
       0.003381386 -0.134777 0.02001632 0.03247694
0001d0 2b 80 84 3d eb 7b 56 bd f9 78 21 3d 90 23 09 3e
       0.064697586 -0.05236427 0.03942201 0.13392472
0001e0 f1 d2 b9 bc b6 c3 60 3d 44 6f ad 3d 6b c8 5c bd
       -0.022683593 0.054874144 0.08468488 -0.05390207
0001f0 6d 3c ef 3d 02 3f f3 3d 87 07 91 bd 60 83 49 3e
       0.11681447 0.11877252 -0.07081514 0.19679022
000200 c8 d4 14 3e 38 ac a1 bc 90 e5 36 3e 29 c6 99 3c
       0.14534295 -0.01973544 0.17861009 0.018771248
000210 47 1c 57 be 70 54 1f 3e 41 da 77 3d 2e a5 48 ba
       -0.2100688 0.15559554 0.060510878 -0.0007654008
000220 0a e1 50 3e fb 82 b1 3d 2c 33 7b bd 48 55 0f 3d
       0.20398346 0.08667561 -0.0613281 0.03499344
000230 c9 dd 8e bd d6 35 a1 3c 6a 14 29 be 51 96 5a bd
       -0.06975896 0.019678991 -0.16511694 -0.05336601
000240 d3 b2 2f be 38 83 4d 3e 66 a5 ce 3d 95 59 c2 bd
       -0.1715806 0.20069587 0.10090141 -0.09489743
000250 11 da 9d 3d 06 7b 9a bc b3 39 81 bc 5f 73 2f bb
       0.077076085 -0.01885749 -0.015774583 -0.0026771647
000260 a1 2a b8 bd e1 65 3a bd 4f d6 5e 3e 6c 04 23 3e
       -0.08992506 -0.045507316 0.2176144 0.15919656
000270 68 2f 43 bd 83 1c 44 3e 6b ae b9 3d 08 88 f5 bd
       -0.047652632 0.19151501 0.09066471 -0.119888365
000280 d7 af 1d bd 5e 2c f8 bb a2 75 84 3d cf ce df bd
       -0.038497772 -0.0075736484 0.06467749 -0.109281175
000290 50 9a 06 be cc b5 7c 3d c8 5b 8c bd 9f be 94 bd
       -0.13144803 0.061696813 -0.068534434 -0.072629206
0002a0 e3 ad 01 3e 56 83 29 be 21 92 98 3b 95 39 4e 3d
       0.12663989 -0.16554007 0.004656092 0.050347883
0002b0 e5 f6 29 be 40 27 96 bc a0 80 e2 3c 75 7a 56 bc
       -0.16598089 -0.018329263 0.027649224 -0.0130907195
0002c0 d2 32 88 bd a8 f9 5b bd 87 7e 1d be 11 ea 8b bc
       -0.06650318 -0.053704888 -0.15380298 -0.017079385
0002d0 17 8f 26 3d 56 00 4f bd 3f 05 ed 3d 9a f9 84 bc
       0.040663805 -0.05053743 0.11573266 -0.0162323
0002e0 9d 6f cc 3d c1 cd bf 3d f6 45 9c bd c7 18 a6 be
       0.09982226 0.09365416 -0.076305315 -0.3244078
0002f0 eb 59 cd bc 89 bf 04 3c ae 45 90 bd f3 b2 8a 3b
       -0.02506729 0.008102306 -0.0704454 0.004232758
000300 46 23 70 3d ab 83 e7 3c 82 74 37 3d d0 09 68 3d
       0.05862739 0.028261026 0.044788845 0.056649983
000310 0f 0b 8d bd d3 9b 2e 3c 95 da 49 3c 43 77 8e be
       -0.06886875 0.010657269 0.01232018 -0.27825364
000320 31 1c 8a 3d 20 66 11 3c 7f 6d 6a be f1 2e fd 3d
       0.06743658 0.008874446 -0.22893332 0.12362469
000330 18 9f b2 3d de c4 9c be 03 5c 97 3d 4a 21 c6 bd
       0.08721751 -0.30618948 0.07390597 -0.09674318
000340 0c 5a c3 3d 89 72 27 be d2 78 11 be b7 cc 1d 3e
       0.095386595 -0.16352285 -0.14206246 0.15410124
000350 84 a1 25 be c7 6b 5d be 9a 87 97 3d c8 d4 03 be
       -0.16174895 -0.21623145 0.07398911 -0.12874138
000360 ef a6 48 3e a5 a1 8d 3e ab 27 90 3e 3d 3f b8 bc
       0.1959493 0.27662387 0.28155264 -0.022491092
000370 a7 46 95 3d cc d7 d3 3d cd e4 92 3e 8f 97 94 3e
       0.072888665 0.10343894 0.28690186 0.2902188
000380 9f 82 89 3e 08 eb 06 3e 43 67 82 3d c7 f5 3f 3e
       0.26857468 0.13175595 0.06367352 0.187461
000390 e4 99 15 3d 5f e0 8d 3d 21 e2 6c 3d 11 d0 8e 3d
       0.036523715 0.06927561 0.05783284 0.06973279
0003a0 19 18 82 b9 28 0b 9b 3d d3 92 91 3d ab 01 c0 3d
       -0.00024813486 0.07570487 0.071080826 0.09375318
0003b0 c5 fa df 3c 5c ad ce 3d 84 7c a9 3d fb 59 a8 3d
       0.027341256 0.100916594 0.082757026 0.082202874
0003c0 73 54 8f 3d ac 3d 8d 3b 4e 68 d6 3d 6a 03 a6 bd
       0.06998529 0.0043103304 0.10469113 -0.0810612
0003d0 53 aa 67 bd de 36 57 bd e1 ec 66 bd e4 6d bd bd
       -0.05655892 -0.05254256 -0.05637825 -0.092494756
0003e0 75 71 88 39 72 0b b4 3c 5b 0b f8 39 3f c0 d0 ba
       0.00026024473 0.021978114 0.00047310707 -0.0015926434
0003f0 dc 8d 9c 3d 44 0b 7b bc ba 46 f8 bb 89 a4 95 3d
       0.07644245 -0.01532251 -0.0075767906 0.07306773

Generator.conv2.conv1.0.weight f4 [8, 8, 3, 3, 3]
000000 82 37 b0 3d e6 e3 58 bc 99 9f 70 bd 52 ba 8b 3e
       0.08604337 -0.013237929 -0.058745954 0.2729059
000010 21 a3 b4 3d a3 cc bb bd 27 11 3e be 7d e3 44 3c
       0.08820177 -0.09169891 -0.1856123 0.012017128
000020 85 9a 9c 3d 99 2f 9c bd c5 68 39 bd 95 dd 90 ba
       0.0764666 -0.07626266 -0.04526593 -0.0011052365
000030 07 f0 b1 bd 54 28 79 3b 42 b2 c1 3c 7b a3 15 bd
       -0.0868836 0.0038018422 0.02364457 -0.03653286
000040 bc dd 95 bd 4f ec b2 3d 1f 47 7f 3c 8a 0d 64 bd
       -0.07317683 0.087364785 0.015580921 -0.055676974
000050 fc f2 a2 bc f5 35 f4 bb 81 37 34 bd a6 f5 12 3d
       -0.019891255 -0.0074527212 -0.043998245 0.0358788
000060 f5 1b af 3c 80 dc 7c bc ad 9b 8d 3d e3 2d 57 3d
       0.021375636 -0.015433431 0.069144584 0.052533995
000070 0d cb 00 bd 33 3c 58 bd 2c 5b e5 3b d1 84 c6 bb
       -0.031443644 -0.052791785 0.006999394 -0.0060583134
000080 fa e1 03 bd aa ab 74 3d 52 f9 96 3d 90 0e 06 3c
       -0.03219793 0.059734024 0.07371773 0.008182183
000090 32 ef 23 be 45 36 08 be 67 b8 9f bd 6d 4d bc bd
       -0.16009215 -0.13301952 -0.07798844 -0.09194455
0000a0 2b 34 7b bd 89 75 6b bd a7 b4 d5 3d 78 82 28 bc
       -0.061329048 -0.057485137 0.10434847 -0.010285012
0000b0 db 5f f2 bc b0 98 3f bd de fc 6b bd 1f f6 27 be
       -0.029586723 -0.046776474 -0.0576142 -0.16402481
0000c0 db 66 bf 3b 01 9b 71 bd c4 d9 c7 bd d1 09 ad 3d
       0.0058411187 -0.058985714 -0.09758332 0.08449138
0000d0 10 e6 a7 b9 6b 2a 5f bd 28 6d 53 3c 94 1d b6 3d
       -0.00032024132 -0.054483812 0.012904443 0.0889236
0000e0 50 20 1d 3e 6c 42 23 3d 6d 6e 27 3d 0a 83 3d 3e
       0.15344357 0.039858267 0.040876795 0.18507019
0000f0 b4 4d 35 bd 3f b1 2e bd 6a 50 08 3d a4 9d bd bd
       -0.044263557 -0.042649504 0.033279814 -0.09258583
000100 4f 45 f4 3c 1f 07 3e 3d 99 87 5b bd 2b ac e6 3b
       0.029818205 0.04639351 -0.053596113 0.007039567
000110 d1 35 9c 3d d1 ce 3a be d4 61 f4 bc e6 45 08 3d
       0.07627452 -0.18242957 -0.029831804 0.033269785
000120 3d ed 86 bd 57 97 15 3c 19 0f a1 3d ba 95 c9 bd
       -0.06588218 0.0091303205 0.07864208 -0.09843011
000130 1c 8f 9e 3d ef ac 06 3e 4f 23 f3 bd 29 b0 74 bd
       0.0774214 0.13151906 -0.11871969 -0.059738312
000140 a4 39 87 3d 63 eb 40 bb 24 ff f1 bc 60 d9 5b 3d
       0.06602791 -0.0029437176 -0.029540606 0.0536741
000150 a5 e0 e1 bd 59 2c 90 bd cd f0 32 bc 87 25 83 bc
       -0.11029176 -0.07039709 -0.010921669 -0.016009105
000160 56 b9 18 bd f9 6a be 3d 01 d9 32 3e be 85 19 3c
       -0.037286125 0.09297747 0.17465593 0.0093702655
000170 04 51 94 3d 2c 3c 05 3d 39 35 b2 bc 21 d5 69 3c
       0.07242015 0.032528087 -0.021753894 0.014272005
000180 bd e3 41 3c ad be 62 bd 12 ac 00 3d c1 e7 27 3c
       0.011834082 -0.055357624 0.0314141 0.0102481255
000190 f1 ad 34 3c eb 6f 35 bc aa a7 d4 bd af 9b 11 bd
       0.011027799 -0.011074047 -0.10383542 -0.035548862
0001a0 21 fe 89 3d e6 27 5e 3a 5f 07 26 bd 73 52 89 3c
       0.06737924 0.0008474573 -0.040534373 0.016762948
0001b0 bf 4a 57 3d e2 87 46 3d d5 15 1f bd 28 93 42 3c
       0.052561518 0.04846943 -0.03883918 0.011875905
0001c0 0b f1 d4 bc 27 61 c9 3c 6e 6d 76 bc 9e 55 d9 ba
       -0.025993844 0.024582459 -0.0150407385 -0.0016581302
0001d0 e7 2a e4 3c 35 29 25 3d 38 60 86 3c df 47 8a 3d
       0.027852489 0.0403225 0.016403303 0.067519896
0001e0 6e 1e 7b 3d 2b be 9d 3d 25 5b b3 3d f6 b2 a8 3d
       0.061308317 0.07702287 0.08757619 0.08237259
0001f0 b3 27 6c bc c2 0f f6 3d 70 57 26 bd b9 a1 51 3b
       -0.014413762 0.12014724 -0.04061073 0.0031987263
000200 cc 70 82 3d a3 a7 79 bd cc da fb 3c 86 4b 83 3d
       0.063691705 -0.060950886 0.030743979 0.06410889
000210 4a 7c 80 3c 4c e5 0d bd 95 f7 59 bd 40 78 31 bc
       0.015684266 -0.034642503 -0.05321463 -0.0108318925
000220 77 79 ca 3d e8 0d 35 3d b6 3c f4 3b 97 fc c5 3d
       0.09886449 0.044202715 0.0074535264 0.09667318
000230 aa e9 a4 3d 64 67 b8 bc 1d e6 8d bd 54 03 00 bd
       0.080523804 -0.022510238 -0.06928656 -0.031253174
000240 c8 50 58 bd f9 f2 7a bc cc fa 42 bc cd 1f 8f bd
       -0.052811414 -0.015316718 -0.011900615 -0.069884874
000250 52 da 87 bd 78 95 18 bd b5 bc 9b bd 36 dd e5 bd
       -0.06633438 -0.03725192 -0.076043524 -0.11223833
000260 eb 56 6b 3d 40 1a 91 bd 1e 0b 2f bd fc 1a e8 bc
       0.05745594 -0.07085085 -0.04273521 -0.02833318
000270 77 3b e1 bd 6a 7c 1b bd c5 c2 c3 bd 65 75 25 be
       -0.1099767 -0.037960447 -0.09558634 -0.16158064
000280 dd f5 49 be 5c 81 da 3d ce e2 9e 3d 1b d2 84 3d
       -0.19722696 0.106692046 0.07758103 0.06485387
000290 c1 c6 9c 3d cb 2f 9e 3d 2d 94 20 3c 23 be fb 3c
       0.07655097 0.077239595 0.009800953 0.030730313
0002a0 41 23 53 3c 2e cd b5 3d 60 7b d1 3c 0b 9b a8 3c
       0.012886823 0.088770255 0.025571525 0.020581743
0002b0 c1 45 5e ba f9 30 c3 bb 1e dc 81 3d 5f 43 a7 3d
       -0.0008479022 -0.0059567657 0.06340812 0.08167147
0002c0 dc 8e cb 3d 04 49 bc 3d 6e 2e 3a 3d 93 50 95 3d
       0.09939358 0.09193614 0.045454435 0.07290759
0002d0 68 ec 59 3d ec 46 e3 ba 63 02 bd bc a6 2a 60 bd
       0.05320397 -0.0017339862 -0.023072427 -0.054728173
0002e0 64 e2 5f 3d 9d 6d ad bc b7 d3 fe 3c ad ce 7d bd
       0.054659262 -0.021170432 0.031106813 -0.06196468
0002f0 de 9a 64 3c d1 98 5b bc 1d 5b e1 bc 36 e5 17 3d
       0.013952939 -0.0134031335 -0.027509267 0.037083827
000300 f5 82 89 bd 8a b4 63 bd cb ee 82 3d 02 bc e4 bd
       -0.06714431 -0.055592097 0.063932024 -0.11168672
000310 88 c6 90 bd 9f dd c2 ba 86 bd 22 bd 4b 45 82 bd
       -0.07069117 -0.0014867074 -0.039731525 -0.06360873
000320 b9 57 50 3c 0d 60 c0 bd 6c da 2d bd 8f 23 4e 3d
       0.012716227 -0.0939332 -0.04244463 0.05032688
000330 84 e8 94 bd d9 9d a0 bd d7 ca e0 3d c4 7f b4 bd
       -0.07270911 -0.07842607 0.10976189 -0.08813432
000340 a4 53 88 bd 54 06 c0 3c b2 0f 00 bd 8d 56 e5 ba
       -0.06656578 0.023440517 -0.03126497 -0.0017497108
000350 6a a4 24 3d 80 ab b5 bd 01 83 58 bd 14 38 03 3d
       0.04019586 -0.08870602 -0.05285931 0.032035902
000360 61 fb f8 bd fe 73 43 be b9 a5 12 3e 05 96 ce bd
       -0.12157322 -0.19087216 0.1432103 -0.10087208
000370 e0 20 3c bc 5f 4e d8 3c a8 0a 94 3d 8a 56 fe bc
       -0.011482447 0.026404558 0.07228595 -0.031047124
000380 f5 aa 14 3e db 3d 3b bd 9e 6b ed bc 49 57 51 3d
       0.1451834 -0.045713287 -0.02898198 0.051108632
000390 51 91 cf bc 0a 05 28 3c c0 10 10 3d 5e 5f 4a 3d
       -0.025337847 0.010255108 0.035172224 0.049407355
0003a0 ab d0 a9 3d 9c 9c aa 3c 69 e5 19 3c 96 4a bd bd
       0.082917534 0.02082663 0.009393075 -0.09242742
0003b0 79 c0 fc bc 43 6b 8c 3d 6f b6 e7 3b 80 ee 7c bc
       -0.030853497 0.06856396 0.0070713083 -0.015437722
0003c0 c9 7f 8f 3d 6f a6 c7 3d e0 f6 d3 3c a6 a0 01 bd
       0.07006795 0.097485416 0.025874555 -0.031647347
0003d0 74 76 3b bb d8 ac 87 3c 57 5b 8b bd b1 0a 35 3d
       -0.002860454 0.01656191 -0.06804531 0.04419965
0003e0 3c a1 0d 3d bc 7c 1c 3c f0 fc 1b 3d 44 70 a5 bc
       0.034577593 0.009551223 0.038083017 -0.020195134
0003f0 1b 11 03 be 88 3a f4 bd f0 65 8e bd 82 54 ba bd
       -0.12799494 -0.119252264 -0.06953037 -0.0909815

Generator.conv2.conv2.0.weight f4 [8, 8, 3, 3, 3]
000000 4f d0 a3 3d 44 6b 6f bd 31 3a dc 3b c1 5e 92 3d
       0.07998716 -0.058451906 0.006720804 0.07146979
000010 5c 42 ad 3d b9 c3 83 3d 9d 25 48 3d 5f c6 62 3d
       0.08459923 0.064338155 0.048863996 0.055364963
000020 ea 3c ea 3d ef 04 ef 3d 69 3a 61 bc 08 a9 61 3d
       0.114374 0.11670863 -0.013746836 0.05509284
000030 7a 94 a3 3c 91 32 db 3b 6e b0 22 bd ed 8c 92 3d
       0.01996826 0.0066893776 -0.039719038 0.07155786
000040 1f 64 3a bd 55 90 f0 3c ff 32 7a 3c ea 35 8a bd
       -0.04550564 0.029365698 0.0152709475 -0.067485645
000050 1a 84 39 bd 1b b0 3e 3d 19 95 c4 bd d0 02 b7 bd
       -0.045291997 0.046554666 -0.095987506 -0.08936083
000060 ad 98 ca bd f1 a1 2b bd d7 d7 48 bd 16 f4 fa 3d
       -0.09892402 -0.041902486 -0.049033966 0.12253587
000070 22 ca c6 3d a4 8c ab 3c 30 17 6e 3d 30 67 c8 3d
       0.097065225 0.020941086 0.058127582 0.097853065
000080 7a a6 2f 3e 58 33 8e 3d b3 9a 68 3d ad e3 e0 3d
       0.1715335 0.06943387 0.056788158 0.10980926
000090 74 ff ac 3d da 9f bb 3c b1 5f 4d bc ca c7 64 3c
       0.08447161 0.022903372 -0.012535022 0.013963649
0000a0 34 44 c9 3d 6a 2f 38 3d eb e8 ba ba 24 ed 3e 3a
       0.09827462 0.044967093 -0.0014260089 0.00072832615
0000b0 e9 45 e7 3d d8 20 2d 3c 37 7e 5e 3d 7d e2 29 bc
       0.11292631 0.010566913 0.054319587 -0.01036894
0000c0 96 13 1d 3d 91 82 01 3d d6 b3 26 3d a1 06 ef bc
       0.038348757 0.03161866 0.04069885 -0.029177966
0000d0 eb a8 89 3d 5c a6 12 3d 2a 0e 73 3e ae 69 b7 3d
       0.06721672 0.035803184 0.23735872 0.08955704
0000e0 4d 1a 6f 3d 9c 24 ff bc c2 2b e8 bd 3b 3c d1 bd
       0.05837469 -0.031145386 -0.11336471 -0.10216566
0000f0 46 a0 71 3d 8a e4 5a bb b1 28 79 bd 4b 73 69 bb
       0.05899074 -0.003340038 -0.060829822 -0.0035621698
000100 f1 5e ea bd 31 80 e8 3b c4 32 ee bd ad 0c f4 bd
       -0.1144389 0.0070953597 -0.116307765 -0.1191648
000110 90 7e 43 be b2 41 e4 3c c1 90 88 bb 40 ae 2e be
       -0.19091249 0.027863357 -0.0041676466 -0.17058659
000120 37 37 a6 bc 12 8c 8c bd fe ac 18 3e 2e e3 bc bd
       -0.02029 -0.06862654 0.14909741 -0.092230186
000130 0d b8 1d be b5 26 2a 3c 79 b2 a6 3d 92 bf 21 3d
       -0.15402241 0.010385205 0.0813951 0.039489336
000140 f6 e5 a7 bc c6 d1 b1 3d 8a 75 ae 3d 32 17 18 3e
       -0.020495396 0.08682589 0.085185125 0.14852598
000150 23 e6 ce 3c cc 83 2f 3d c6 ab 82 3c df ee da 3d
       0.025256222 0.0428503 0.015951049 0.10690092
000160 c9 93 40 3c 39 36 8b 3b 8d f7 1b 3e dd 26 68 3c
       0.011753985 0.004248407 0.15231152 0.014169422
000170 75 d1 ae 3d 0a 31 c5 bc 5e ef dc bd 46 3a bc bd
       0.085360445 -0.024071235 -0.10787843 -0.09190802
000180 ae 2e cf bc 9d 54 04 be aa 9d ab 3c c3 87 2d bc
       -0.025290813 -0.12922902 0.020949204 -0.01059145
000190 3f fb 7b bd 9b 29 7a 3d 3c 10 9d bd 23 bf 8a bd
       -0.061518904 0.061074834 -0.07669112 -0.06774738
0001a0 53 6c 4c bd bb 2d 9c 3d 68 e3 ab bd 25 a1 e2 bc
       -0.049907994 0.0762591 -0.08392984 -0.02766473
0001b0 05 57 80 bd c5 5b 45 bd c9 0d 17 bd 81 93 87 3d
       -0.06266598 -0.04818322 -0.03687838 0.06619931
0001c0 d3 56 8a 3d 6f b0 1d bc ec 0d d6 3d 6b 6b 3d 3d
       0.06754842 -0.009624585 0.10451874 0.04624502
0001d0 5a 30 b5 3c 20 d3 1b be 30 af ee bd 32 12 93 ba
       0.022117782 -0.15217257 -0.11654508 -0.0011220633
0001e0 9b 1e 9f bd 8c 61 a1 bd 9b 36 c2 bb 89 7f bc 3c
       -0.077695094 -0.07879934 -0.0059269196 0.023010032
0001f0 94 50 2f bd 66 84 f5 3c ef b8 26 be 8c 29 f6 bd
       -0.042801455 0.029970359 -0.16281484 -0.12019643
000200 7e 71 53 bc db b9 08 3e 71 86 6c 3d a5 41 ba bc
       -0.012905477 0.13352148 0.0577454 -0.02273638
000210 af 81 d0 3d 0a 7c 6e bd 54 df 06 be 01 98 22 3d
       0.10180985 -0.05822376 -0.1317113 0.039695743
000220 50 fc 40 be 59 5e 3a be d7 d5 61 bd 2b bd 5f be
       -0.1884625 -0.18200053 -0.055135574 -0.21849506
000230 ff 6a 21 3d c4 22 0e be 93 bb 43 be 01 98 23 3e
       0.03940868 -0.1388045 -0.19114523 0.15975954
000240 20 9d dc 3b 53 3d 58 3c 12 d7 d9 bd a7 7b 1a bb
       0.006732598 0.013198215 -0.106367245 -0.0023572238
000250 5e 28 a1 bd fd 51 a4 bd 2e 4c 9c 3d 45 5b 0c be
       -0.078690276 -0.080234505 0.076317176 -0.13706692
000260 61 82 a3 bd 81 a8 e6 3d c2 3e fe 3c 4e 34 ca 3c
       -0.07983852 0.11262608 0.031035785 0.024683144
000270 de f7 96 3d 78 85 3b bc c0 33 dd bd d7 7d 34 3e
       0.07371496 -0.011445396 -0.10800886 0.17626129
000280 c7 c0 90 bd e3 b3 0b 3d 03 b9 f8 3d c4 ac 07 3d
       -0.07068019 0.0341071 0.12144663 0.033123747
000290 10 c0 59 3e 82 ab 54 bc c5 1b 3e bd 6c 19 bf bd
       0.21264672 -0.012980344 -0.0464132 -0.09331021
0002a0 be 81 89 3d c8 dc e6 bd 8e 3d b8 bd cd 2d 9e 3d
       0.067141995 -0.112725794 -0.089961156 0.077235796
0002b0 27 cd 16 3d 9f e0 4e 3e 01 73 c3 3d d1 5e 57 bc
       0.036816742 0.20202874 0.0954342 -0.013145165
0002c0 db d8 30 bd 15 9c a9 bc 10 65 22 bd c3 e4 e1 bd
       -0.04317556 -0.020704309 -0.039647162 -0.11029961
0002d0 dd 2b b9 bc 55 9d ed 3d 1a d2 76 3d d5 40 09 3c
       -0.022603923 0.11602274 0.060258962 0.008377274
0002e0 be 59 4d 3c 27 82 20 be 33 b5 54 3d 1b 6d 62 bd
       0.012533603 -0.15674649 0.051930618 -0.055279832
0002f0 3b f5 1c be 53 8f 4d bd f7 10 83 bd 7b f6 b8 bd
       -0.15327923 -0.050185513 -0.0639972 -0.090313874
000300 dd c8 9c bd a6 9c 9a bd b8 ac a2 bd 1b df 24 bd
       -0.07655499 -0.075494096 -0.079431 -0.040251832
000310 a6 fb 31 bc 66 d3 00 3d 8c f0 68 bd af 71 85 3b
       -0.01086322 0.031451605 -0.05687003 0.00407239
000320 94 a8 44 bd 3d 27 b0 bc 48 59 84 bd 1b e5 08 bd
       -0.04801233 -0.021503085 -0.064623415 -0.033421617
000330 c5 e3 26 3d 69 30 dc 3c 05 9b 49 bb 04 6f 20 3e
       0.04074456 0.026878553 -0.0030762565 0.15667349
000340 1c 30 08 3e dd fb 1a 3e 39 76 41 3d 96 2f d1 3d
       0.13299602 0.1513514 0.047231887 0.102141544
000350 46 c6 94 bc 6d 49 17 3e 01 22 93 3c c1 7b cd bc
       -0.01816095 0.14774103 0.01796055 -0.025083425
000360 3f b0 26 be 98 8b a6 bd 1d bd 8e 3c 87 b0 af bd
       -0.1627817 -0.08132094 0.01742416 -0.08578592
000370 7f fe 7d bd 47 5e be bd 27 7b 29 be 17 89 78 bc
       -0.062010285 -0.09295326 -0.16550885 -0.0151694035
000380 de b0 a4 bc e2 26 60 3d 47 5e 43 3d 2c 7a b5 3b
       -0.020103868 0.05472458 0.04769733 0.0055382457
000390 7c 74 82 3d c8 e8 2b 3d f5 0a 77 3c da 9d 12 bc
       0.06369874 0.041970044 0.015078296 -0.008948768
0003a0 23 f2 e6 3b 55 1a 52 3d 25 4b 44 3d cf 46 d2 3d
       0.007047908 0.051294643 0.047923226 0.10267412
0003b0 e0 00 9a 3d 18 03 20 3e e7 b1 e3 3d 3a d6 95 3d
       0.07519698 0.1562618 0.111179166 0.07316251
0003c0 39 f3 0c 3e 7a 73 f3 3c 4e 60 0d 3d b1 b5 19 be
       0.13764657 0.02971815 0.03451567 -0.15010716
0003d0 06 e2 dd bd 10 25 f0 3c 70 18 f3 bd b8 33 b2 bd
       -0.10834126 0.029314548 -0.118698955 -0.08701271
0003e0 b6 7e d7 bc 1d 89 8a be b3 fa ee bd 1f 0d a4 3b
       -0.026305538 -0.27057734 -0.11668911 0.005006447
0003f0 b3 8b bf 3c 6c d0 dc 3c ff 5d 36 bd af 56 c7 3c
       0.023382043 0.026954852 -0.044523235 0.024333326

Generator.conv3.conv1.0.weight f4 [8, 8, 3, 3, 3]
000000 28 db 2c 3c 33 58 95 3d b8 11 7d bc 74 97 a0 bc
       0.010550298 0.07292213 -0.015446119 -0.019603468
000010 08 de 97 3b 86 25 22 3d cb 2f af 3d 36 f2 a6 bc
       0.0046346225 0.039586566 0.08554038 -0.020379167
000020 8d 3f 2e 3c cb 60 e5 bc 2d a7 c8 3c 63 b2 7e bd
       0.010635269 -0.028000256 0.024493778 -0.06218184
000030 f2 26 73 3c 51 96 c9 bc 17 9d b4 bd e3 43 20 bd
       0.014840828 -0.02460781 -0.08819025 -0.03912724
000040 40 a8 2b 3d 1d d5 07 bd cb e5 08 bd a5 98 88 3d
       0.041908503 -0.033162225 -0.033422273 0.0666974
000050 25 8f 6c bc 7f 36 52 3d e7 a3 85 bd 00 7d 2c bc
       -0.014438425 0.051321503 -0.065254025 -0.010527849
000060 da c5 0f bd b5 4d c6 3c 27 d9 63 bd 5e c3 60 bd
       -0.035100795 0.024206975 -0.055627014 -0.054873817
000070 07 35 7e 3c 1b 50 06 3d a1 0f 0d 3c a3 20 ad bc
       0.015515572 0.03279124 0.008609683 -0.021133726
000080 49 0b 9b bd 8e 31 6a 3d da a3 ee bc 7c 87 45 3d
       -0.07570512 0.057176165 -0.029130865 0.04822491
000090 f4 e5 dc 3b 68 19 7a 3d b1 72 04 3e ab 7d 55 bc
       0.0067412797 0.061059386 0.12934376 -0.01303045
0000a0 73 69 f7 bc 3e 5f aa bd ec be 20 bb c9 3c bf bd
       -0.03020165 -0.08318947 -0.002452786 -0.09337766
0000b0 b3 8c d2 3c b2 23 b1 bb 75 6e a5 3d fe 7b ef bc
       0.025701856 -0.0054058665 0.08077709 -0.029233929
0000c0 0f 6d 52 3d 97 b8 20 bd ab 66 7a bd a9 48 88 bd
       0.051373538 -0.03923854 -0.061133068 -0.06654484
0000d0 d7 45 bb bd a2 3e 23 3d 14 3a 37 bd 9c 8a 3d bc
       -0.0914418 0.039854653 -0.044733122 -0.011568692
0000e0 1d 8d f5 bc 5b ac 59 bd 46 d6 03 bd 59 0f ec 3c
       -0.029974515 -0.053142887 -0.03218677 0.028815912
0000f0 69 af 7e bb 31 a7 8d bc e1 9a d6 3b 6c 58 24 3d
       -0.0038861877 -0.017291637 0.0065492247 0.04012339
000100 35 66 0d 3d 0a a9 74 3d 43 7d 23 bd 60 d1 bd 3d
       0.0345213 0.05973152 -0.03991438 0.09268451
000110 02 71 87 3d f5 81 1a bd d1 93 b4 3b e4 f0 bc bc
       0.066133514 -0.037721593 0.005510785 -0.023064084
000120 d3 b9 49 3d a5 fc 71 bd 89 cc da 3c ae fe 38 bc
       0.04924948 -0.05907883 0.026708858 -0.011291189
000130 e5 f9 7d 3d 49 26 c4 bc 02 ee 86 3d 62 8e 5a bd
       0.062005896 -0.023944037 0.06588365 -0.053358443
000140 46 08 4b bd c9 52 dc 3c db 7a 90 ba 05 99 9d 3b
       -0.049568437 0.026894944 -0.0011022942 0.004809501
000150 8f 50 57 bc b6 96 cb 3c 4d af 64 bd 8f dd 96 3d
       -0.013141765 0.024852138 -0.055831242 0.07366478
000160 dd 66 4d bc 3a 1c 82 3d a4 cc 38 bc 55 b2 33 3d
       -0.012536732 0.0635304 -0.011279259 0.043871243
000170 f5 ac 03 3d fe 4a 3f bd bb a0 84 3d d1 5f 76 bd
       0.032147367 -0.046702377 0.064759694 -0.06014997
000180 31 d8 93 bd e6 93 f4 bc 64 ae 06 bc 90 f5 23 bd
       -0.072189696 -0.02985568 -0.008220289 -0.04002911
000190 fa 90 69 3d 36 c3 ab bc 97 f9 97 3d 22 d9 f5 3d
       0.057023026 -0.020967107 0.07420652 0.120043054
0001a0 d6 3d 0f 3d 03 e7 a9 ba df 38 13 bd f3 90 bc bd
       0.03497108 -0.0012962524 -0.03594291 -0.09207334
0001b0 12 3b 89 3d 04 fc 1a bd 6e ae b2 3b b3 1a 93 3d
       0.0670072 -0.037837997 0.0054529225 0.07182827
0001c0 e2 65 3d bd b1 59 33 3d f2 78 a8 3d 4f 70 41 3d
       -0.04623974 0.04378671 0.082261935 0.047226246
0001d0 b1 79 41 bd 36 c7 56 3d fe ee 97 3d d4 2c 78 3d
       -0.047235195 0.052436076 0.07418631 0.060589626
0001e0 89 f1 da 3b 77 3d 62 3d 65 18 af 3d 51 03 1e 3d
       0.0066816253 0.0552344 0.08549575 0.03857738
0001f0 7c 28 99 3d 16 b3 79 bd 62 21 67 bc b2 fc 19 3b
       0.07478425 -0.060961805 -0.01410708 0.0023496565
000200 6a bc db 3c 70 6e 85 bd 5f d9 2f bd de 65 8b bc
       0.026823241 -0.06515205 -0.04293191 -0.017016347
000210 67 c7 43 3d 80 4c 43 bd 26 f8 0b bd 78 8c 7f bd
       0.047797587 -0.047680378 -0.0341722 -0.06238982
000220 38 9d 1e 3d 0c 7a 82 3c fd 6d bf bb 6b fa 80 3d
       0.038724154 0.015927337 -0.005841969 0.062977634
000230 02 a2 72 bd 79 13 b9 bb fe eb 4b bc b4 ec 0a 3d
       -0.059236534 -0.0056480733 -0.012446402 0.033917144
000240 39 0e 6c 3c b9 aa 9b 3d 21 56 b9 3c d2 99 1e bd
       0.014407688 0.07600922 0.022624077 -0.038720913
000250 65 62 29 3d ec b3 9a 3a 4a 7e 49 bd 0e 97 9b bd
       0.041353602 0.0011802888 -0.049192704 -0.07597171
000260 c7 bb 05 3d c2 2b 7f bd 4a 25 7c 3d 74 89 89 bd
       0.03264978 -0.06229759 0.061559 -0.0671567
000270 76 f3 ef 3c 8d c9 99 3d b6 98 80 3d 1e ad 71 3d
       0.029290896 0.07509146 0.06279127 0.059002988
000280 0a dc af bd fb 3c d3 bc 05 8c 57 bd 46 c6 3a 3d
       -0.08586891 -0.025785914 -0.052623767 0.045599245
000290 3c 38 13 3d a0 19 97 bc 26 ca 46 bd 4b 17 11 bd
       0.0359423 -0.018444836 -0.048532628 -0.035422605
0002a0 54 77 d6 3d ba 4b 8c 3c 2e cc 76 3c 02 d0 40 3d
       0.10471979 0.017125953 0.015063329 0.04707337
0002b0 b4 33 06 bd 0c ca a4 3d 65 3f 8d 3d 05 8e 7c bd
       -0.03276415 0.0804635 0.06896857 -0.061658878
0002c0 17 e5 38 3d 33 cd ee 3c f2 00 e3 3c 89 87 b1 3c
       0.045140352 0.029150581 0.027710412 0.021671074
0002d0 53 7f d4 3c e1 8b 6d bc 31 c1 c4 bd a4 c5 d9 3c
       0.02593962 -0.014498682 -0.09607161 0.0265835
0002e0 5f ba 97 3d 97 ee 06 bd ee 05 a3 bd cb 3d dc 3d
       0.07408594 -0.03294238 -0.079601154 0.107539736
0002f0 6a 7b 1f 3c 32 81 2b 3c 92 19 b9 ba 51 60 6b 3b
       0.009734014 0.010467814 -0.0014122 0.0035915563
000300 e2 7a af 3b df b9 1f 3d ae 66 98 bc 9d df a7 bd
       0.005355225 0.03899562 -0.018603649 -0.08196948
000310 e2 7f 81 bb 33 ba 2e 3b 1a ef ff bb cd a9 25 bb
       -0.0039520124 0.0026661276 -0.0078104855 -0.002527821
000320 1a 5c ed bb 58 b6 e2 3c 3c 58 17 3e 35 8e 43 3d
       -0.0072436454 0.027674839 0.14779752 0.04774304
000330 95 c6 81 bc 83 5b 14 bd 66 5d 82 3d 13 c6 2b bd
       -0.015841762 -0.036220085 0.063654706 -0.041936945
000340 01 c7 b7 bd 7e 20 08 bc f1 6e 70 3d 6a ad f3 3d
       -0.08973504 -0.008308528 0.058699552 0.118983105
000350 90 9a 9f bd cc 7f 05 bd 78 76 2c bd b3 1d 60 bd
       -0.07793152 -0.03259258 -0.042105168 -0.054715823
000360 83 f3 89 3c bf 6c 08 bd 60 60 76 bb 11 43 28 3d
       0.016839748 -0.033306833 -0.0037594065 0.041079585
000370 14 47 7e 3c 85 1e 5b 3d 84 1d 63 3c a9 a7 51 3d
       0.015519876 0.053495903 0.013862018 0.051185284
000380 41 60 e8 3c 47 8c d6 3d c2 28 93 bd 6b 4b 6a 3b
       0.02836621 0.104759745 -0.07185508 0.003575052
000390 50 f2 8c 3d 7f 99 2f 3d 1f 3d a2 bd f5 9f 12 bd
       0.06882155 0.042870995 -0.07921814 -0.03579708
0003a0 44 03 36 3d 63 a8 23 be 58 a9 b2 3c fd 60 e1 3b
       0.044436708 -0.15982203 0.021809265 0.006878017
0003b0 48 38 b8 3c 25 df 5b 3d ea 8a 03 3c 69 43 3f bd
       0.022487774 0.053679604 0.008028725 -0.046695147
0003c0 bc 99 4d bd 3c 3a 49 bd 8d 9a 16 3c a7 2a 52 3c
       -0.05019544 -0.049127802 0.009192121 0.012827552
0003d0 75 e1 bf bd 89 fc 0c be b9 5e eb 3c fe aa a3 3d
       -0.093691744 -0.1376821 0.02873169 0.079915985
0003e0 3e 04 f5 bd 2b 24 b0 3d d1 9a 66 3d 0c 5b 2f 3b
       -0.119637 0.086006485 0.05629999 0.002675715
0003f0 5f 56 a8 3d 22 25 d1 3c ca e7 96 bc cd da d9 3d
       0.08219599 0.025530402 -0.018421073 0.10637436

Generator.conv3.conv2.0.weight f4 [8, 8, 3, 3, 3]
000000 52 b3 45 3d 11 b7 9d 3c 95 af 06 bc 79 af 46 bd
       0.048266716 0.019252332 -0.008220573 -0.048507188
000010 3e 18 5c 3d cd 34 02 bd bb 99 b0 bd 26 d5 80 bc
       0.053734057 -0.031788636 -0.08623072 -0.015726637
000020 e9 19 94 bd bd 46 2c 3d 4f 7d 19 bd af 10 1f 3d
       -0.072315045 0.04205965 -0.03747302 0.03883427
000030 ab f6 e5 3b 5c e5 4e 3d 5e 61 ea bc d3 69 07 bd
       0.0070179305 0.050511703 -0.028610881 -0.033059906
000040 d8 31 cd 3c 3b c4 81 bd 92 19 ab 3c 09 22 2a bc
       0.025048181 -0.06336256 0.020886216 -0.010384091
000050 fc ff af bc 9f f4 47 3d e8 af ab 3d 44 e3 c5 3d
       -0.021484368 0.048817273 0.08383161 0.09662488
000060 c6 49 8a 3c 72 45 bb 3d b8 44 0a 3d c6 77 d8 3d
       0.016880881 0.09144105 0.03375694 0.1056972
000070 9f 12 10 be b5 0d 2e be d4 a7 08 3e cf 5a 93 bd
       -0.14069603 -0.16997416 0.13345271 -0.07195055
000080 b6 cc c2 bd 04 3e 42 3d c0 89 4f 3d a9 d1 46 bc
       -0.09511702 0.047422424 0.050668478 -0.012134948
000090 94 68 a2 3d f5 db bf bd 0b ca e5 bd 05 6f a9 bd
       0.07930103 -0.09368125 -0.11220177 -0.082731284
0000a0 1e 44 72 bd 29 e6 1e bd ff 2f c0 bd 0a ea 10 be
       -0.059146993 -0.038793717 -0.093841545 -0.14151779
0000b0 d9 3c 21 be c5 ea c3 3d ad dd e5 bb 1e 3d 12 be
       -0.15745868 0.09566263 -0.007014951 -0.14281127
0000c0 c8 a2 1a bd 52 af 8c bc 97 fe 09 be cf b0 7e bd
       -0.037752897 -0.017173443 -0.13476025 -0.062180337
0000d0 b7 98 6f bd 58 27 f3 bd c2 08 77 bc 69 a0 bb 3c
       -0.05849525 -0.118727386 -0.015077772 0.022903638
0000e0 66 25 77 be 11 cd 23 3d c5 8e e3 bc 2e 50 68 bc
       -0.2413536 0.03999049 -0.027778039 -0.014179273
0000f0 96 67 ab 3d 48 83 e3 3d e5 4d 89 3d 71 16 a6 3d
       0.08369367 0.11109024 0.0670431 0.08109749
000100 60 b0 20 bd c4 3a 9f bc 66 7a a5 3d 2c df 70 3d
       -0.039230704 -0.019437201 0.08079986 0.058806583
000110 15 e0 52 bd ea a0 c2 3c fd ad 64 3e c8 9a a2 bc
       -0.051483233 0.02375837 0.22331996 -0.019849196
000120 42 31 b5 3d 6e a2 17 3e b3 5b a7 3d a1 6e c5 3d
       0.08847286 0.14808056 0.08171787 0.096402414
000130 44 49 2f 3e f6 b8 b1 3d b6 1b 40 bd 03 c3 9e 3d
       0.17117792 0.086778566 -0.046901427 0.07752039
000140 03 20 eb 3d 16 f7 50 bd 83 c2 f0 3d c6 a3 90 3c
       0.11480715 -0.05101689 0.1175585 0.017656218
000150 ab 1f 92 bd 87 e4 54 bd 83 ff 55 3d 4b a9 36 3d
       -0.071349464 -0.051975753 0.052245628 0.044595044
000160 cd 9f 4c bd ab e9 24 bd 58 a8 d7 bd 39 87 9e 3c
       -0.049957085 -0.040261906 -0.10530156 0.019351589
000170 04 57 ad 3c 00 9e f4 bd 43 0b 79 be a0 be 17 3d
       0.021159656 -0.119441986 -0.24320702 0.03704703
000180 ac f5 49 3c 86 d8 34 be 85 69 91 bd c1 9a 1a be
       0.012326639 -0.17660722 -0.071002044 -0.15098096
000190 8b d6 be bd d9 2f bb ba f0 18 97 ba ee 03 70 be
       -0.093182646 -0.0014281227 -0.0011527818 -0.23438999
0001a0 75 99 c1 bc 83 dd c9 3d 75 1c 37 bd 58 45 5a bd
       -0.023632744 0.09856703 -0.044704873 -0.053288788
0001b0 82 ea a4 be 73 23 1f be 5f 49 48 bd 86 b9 e4 bd
       -0.32210165 -0.15540867 -0.048898097 -0.11168198
0001c0 75 ca b9 bd b1 53 8e bd 93 12 11 be 62 b5 ea bd
       -0.09071819 -0.069495566 -0.14167242 -0.11460377
0001d0 58 47 81 bd b9 ba 85 bc 2c 5b da bb 71 c8 4e 3d
       -0.06312436 -0.016324388 -0.0066637006 0.050484125
0001e0 61 f5 46 3d f0 93 e9 3c fb 94 c2 bc 08 a9 90 bd
       0.048573855 0.028512925 -0.02375268 -0.0706349
0001f0 3f f1 ab 3b c5 50 1d bc 76 68 e1 be 5b 00 75 be
       0.0052472646 -0.0096017765 -0.4402501 -0.23925917
000200 a0 d2 7b bd 89 58 6b be 2e 33 4e be 8c 64 0a be
       -0.061480165 -0.22982992 -0.20136711 -0.13514918
000210 25 55 ed bb bb dd 8b bc 4a 0b 9f 3d bf 0c fa 3c
       -0.007242816 -0.017073503 0.07765825 0.030523656
000220 24 66 a6 bc 2f d9 96 be 23 48 18 be 5e 3e 53 bd
       -0.020312376 -0.29462573 -0.14871268 -0.05157315
000230 6b 57 24 3c 2b c9 5c 3e 19 2d 29 bd b1 0f ea 3d
       0.010030608 0.21561114 -0.041302774 0.11428774
000240 7a 9a d6 bd ad 17 b5 bd 5f 05 0f bc f2 a4 bb bc
       -0.10478683 -0.088424064 -0.008729308 -0.0229058
000250 44 9b d8 3c 96 ed ec 3d da d2 24 3e 19 4a 0e bd
       0.026441224 0.115687534 0.16096058 -0.034738634
000260 b6 aa 0a 3e af 61 06 3d b3 3f f0 3d d0 a8 8a bd
       0.13541684 0.032808002 0.117309 -0.0677048
000270 5d f0 d5 3d 97 7a ab 3c c0 b6 87 3d 7d fe 81 3e
       0.10446236 0.020932479 0.06626654 0.25389472
000280 29 ef 8a 3c 65 0d 1d bc b9 56 06 3e c1 13 fc 3d
       0.016959744 -0.009585713 0.1311902 0.12308455
000290 30 df 09 3e f0 35 9d bb 0e 37 02 bd 82 52 98 3d
       0.13464046 -0.0047976896 -0.031790785 0.07437612
0002a0 d9 22 f7 bd 0f 1b 31 be 6c 33 f8 3d d3 8a f4 bb
       -0.120671935 -0.17295478 0.12119183 -0.007462838
0002b0 21 40 06 3d 3c 61 e1 3d e0 e3 d6 bd d6 ee db bd
       0.032776 0.11004874 -0.104926825 -0.10738914
0002c0 2e fa b3 3d 40 e3 f3 bd e0 6d 21 3b fe 24 c8 3d
       0.08787952 -0.11908579 0.002463214 0.09772681
0002d0 d9 50 36 be 21 3e 46 bd 7a 1b 2c 3e 15 74 0a be
       -0.17804278 -0.048399094 0.16807356 -0.13520844
0002e0 d6 d8 98 bd f8 b1 5b 3e c0 c2 31 bd 80 ad f1 3d
       -0.07463233 0.21454608 -0.04339862 0.118006706
0002f0 be a2 e9 3d 7d d3 b6 bb c9 72 90 bc 15 56 d6 3d
       0.11407994 -0.0055794106 -0.017632859 0.104656376
000300 f7 ef 32 bd 85 df ce bc c1 6d b3 3d 42 68 5d bd
       -0.04368588 -0.025253067 0.08761168 -0.054054506
000310 37 84 22 3c ee 02 33 3e af 0e 2e 3e 52 fc 6a 3d
       0.009919218 0.17481586 0.16997789 0.057369538
000320 9b 31 b0 3d 00 9c 39 3d be c6 ee 3c 0b e9 1b 3c
       0.086032115 0.04531479 0.029147502 0.009516011
000330 8b 08 61 bd 79 b9 b9 3d d9 c2 08 bb 5c f6 20 3e
       -0.054939788 0.09068579 -0.0020868091 0.15718979
000340 37 a6 2f 3b ce 42 86 bc 76 79 0e 3e 11 4c 25 3d
       0.0026801953 -0.016389277 0.13913521 0.040355746
000350 ed ab b9 3c 9f 04 c6 3d c0 95 19 3e a0 85 59 bc
       0.022664988 0.0966885 0.14998531 -0.013276488
000360 1c 6d cf 3c 1a 7f 2e bb 7f ef 72 bd 96 b2 a4 3b
       0.025320582 -0.0026626051 -0.059310433 0.005026172
000370 ab 7f 9d bd fa b5 b2 bd d8 3b e6 3c d9 fa 0b bb
       -0.07690366 -0.087261155 0.028104708 -0.0021359234
000380 81 8a 08 3d b5 2e 67 3c e5 09 2e bd e2 cf 74 bd
       0.033335213 0.014110257 -0.042489905 -0.059768565
000390 fe 91 e1 bb 56 d8 80 3d 60 5f 70 bd ab 3c 60 3d
       -0.0068838587 0.06291263 -0.058684707 0.054745357
0003a0 6b 12 06 3c 7c 48 ae 3c df 6d 1c 3c 27 b0 d9 3d
       0.008183102 0.021274798 0.00954768 0.106293015
0003b0 b3 b2 b6 3d 5d 5d 80 3d d1 dd 87 3d 16 30 48 3d
       0.08920803 0.06267808 0.06634105 0.048873983
0003c0 aa 5c 83 3d 96 d1 f9 bc d4 1e b6 3c 75 ad 9f 3b
       0.06414159 -0.030495446 0.022231497 0.0048729726
0003d0 28 21 ee 3c de 80 1b be a5 48 be 3d 78 e6 e1 3d
       0.029068545 -0.15185878 0.092911996 0.110302866
0003e0 11 37 43 3d 1c 20 2a 3e 26 91 6b 3c fa 1f d8 3d
       0.047659937 0.16613811 0.014377868 0.10552974
0003f0 c8 43 76 3c 19 bc e5 3d bf 49 95 bd 15 55 b6 3d
       0.015030809 0.112175174 -0.072894566 0.08902947

Generator.conv4.conv1.0.weight f4 [8, 8, 3, 3, 3]
000000 1a 5a d2 bc 65 5d ac 3b 56 11 1c bd 9e fc 99 3a
       -0.02567773 0.005260157 -0.03810247 0.001174826
000010 f3 a7 4f 3d da c0 72 3c 86 fa f5 3a 76 65 12 3d
       0.05069728 0.014816487 0.0018766678 0.035741292
000020 5f 62 0c bb df 27 38 bd 1c 33 d3 bc cd d3 b7 bd
       -0.0021420938 -0.0449599 -0.025781207 -0.08975945
000030 f4 34 a7 bd b1 62 a6 bc d9 d6 9a bc 7b 79 be 3d
       -0.08164397 -0.020310732 -0.018901275 0.09300514
000040 b5 a5 da 3c 8f c4 74 3d 0f e8 11 3d 07 a1 f0 3c
       0.026690343 0.059757765 0.0356217 0.029373659
000050 94 c7 9a 3d 93 07 14 3d a2 8b f0 bd 94 f1 cf 3c
       0.07557598 0.036140036 -0.11745383 0.025383748
000060 c5 c7 65 bd 28 8d 19 bd 9a d8 e8 3c 7d 10 0e bd
       -0.05609872 -0.037488133 0.028423596 -0.034683693
000070 99 d0 37 3d d6 73 a4 3d 69 4b cd bb 11 f5 84 3d
       0.04487667 0.080299065 -0.006265093 0.06492055
000080 fa b5 71 3d 48 ea c0 bd 15 1f 88 3d 46 b3 f9 bc
       0.059011437 -0.094196856 0.066465534 -0.030480992
000090 66 c4 96 3b 62 24 e4 bc ab a8 42 bd f7 bd a6 ba
       0.0046010492 -0.02784938 -0.047524136 -0.0012721409
0000a0 68 42 f3 bc 1c ab 8b bd 7a a9 55 bb 68 a5 2e 3d
       -0.02969475 -0.06819746 -0.0032602237 0.042638212
0000b0 8b cd 2b 3d 05 7f 83 3d 8e 03 15 bd dd 58 fa bc
       0.041944068 0.064207114 -0.036380343 -0.030559951
0000c0 d4 07 69 3d f7 35 d6 bc b7 0b 4e 3c 31 5f 9a 3d
       0.05689223 -0.02614878 0.012576035 0.075376876
0000d0 60 80 52 3d b9 f9 e2 3c 44 12 dd bd 3a 1d 07 be
       0.05139196 0.027706968 -0.107944995 -0.13194743
0000e0 73 4c dd bd 39 0f 14 bd 4a b9 08 3d 64 e0 5f bd
       -0.10805597 -0.03614733 0.03337983 -0.054657355
0000f0 e8 3d 4a 3d 5d 31 2d 3d 4b b1 5d 3c ee 56 4c bb
       0.049375445 0.042283405 0.0135310395 -0.0031179744
000100 a4 f0 30 be 7d 79 87 bd e6 1f a0 3c 53 50 8b bd
       -0.17279297 -0.06614969 0.01954646 -0.0680243
000110 8b 19 78 bd 90 31 84 3c 3c 55 8a 3d ae 86 fa bb
       -0.060571235 0.016136914 0.067545384 -0.0076454496
000120 b3 c3 a9 3d 5d 3e b5 bc 07 32 15 bc 7f f3 83 3b
       0.0828928 -0.022124464 -0.009106166 0.0040268297
000130 a0 71 f9 bd 21 a2 20 3d 34 71 e8 bb 86 f6 48 bd
       -0.121798754 0.03921712 -0.007093573 -0.049063228
000140 e8 ba 6b 3c 9c fe b4 3c f1 78 96 bc dc 81 46 bd
       0.014387824 0.022094063 -0.018368216 -0.048463687
000150 59 3e ce ba 22 14 c3 bc 92 49 95 bd c2 08 24 3d
       -0.0015735134 -0.023813311 -0.07289423 0.040047415
000160 19 d7 03 3d a1 5d 93 3d 21 e1 b1 3c 66 da 5f bd
       0.032187555 0.07195593 0.021713795 -0.05465164
000170 6e 45 08 bd fa 38 25 3c 41 84 8a bd b9 73 e6 bc
       -0.03326934 0.010084385 -0.06763507 -0.028131353
000180 a3 d4 d2 3d 8f 95 d5 3d de 40 4d 3d 98 42 01 bd
       0.102944635 0.10428917 0.05011069 -0.03155765
000190 5d b2 a7 bd 3a ac 89 bd 41 f1 79 bc e9 a3 0b 3c
       -0.08188317 -0.06722303 -0.015255273 0.008522966
0001a0 f5 15 f6 bd 4c 10 a8 3d ea e7 26 3c 81 17 90 3b
       -0.12015907 0.082062334 0.010187129 0.004397333
0001b0 52 4b c6 bd da a8 a6 bd 5b 2d e5 3b 87 74 da bc
       -0.09682335 -0.08137675 0.006993932 -0.026666893
0001c0 07 22 1e 3d f6 e1 49 3d db 7d 98 3b 1b 62 56 3d
       0.03860667 0.04928776 0.004653675 0.052339654
0001d0 20 8e d5 3c a5 92 9f 3b c1 0e b9 bc 21 f6 2f 3d
       0.026068747 0.0048697763 -0.022590043 0.042959336
0001e0 bb 3c 0e bd 6d 9e 46 3b 82 d2 21 3d b7 09 e1 3c
       -0.034725886 0.0030306831 0.039507397 0.027470453
0001f0 8f 51 f3 3b 22 88 81 bb 72 7c b0 3d bf 27 cb bc
       0.007425494 -0.003952996 0.08617486 -0.024799226
000200 b5 df 56 3d 9c 98 77 3c 52 02 81 3a 85 4c f6 bc
       0.052459437 0.0151120685 0.000984261 -0.030065784
000210 a8 3d 6f b5 a1 df 13 3d 68 2e 3e 3d b9 39 fc bc
       -8.912416e-07 0.03610194 0.046430975 -0.030789243
000220 0a 46 2d 3d 11 38 c6 bd a9 ab 59 3c f8 e9 e2 3d
       0.042303123 -0.096786626 0.013285556 0.11079782
000230 a0 68 19 3c 6a 1e 78 3d bc 07 4a 3d 7f 2d 38 bd
       0.009363323 0.06057588 0.049323782 -0.044965263
000240 18 10 94 3c 4c e3 c2 39 21 e7 0b bd 24 53 ad bc
       0.01807408 0.00037171913 -0.03415597 -0.021157809
000250 a5 93 84 bd 8d 3d f1 36 b3 8a d9 3c 30 cb 8a 3c
       -0.064734735 7.189525e-06 0.026555395 0.01694259
000260 96 f4 7e bc fd 09 58 3d 2c 3f 03 bc 3b d6 d2 bc
       -0.0155612435 0.0527439 -0.008010667 -0.025736919
000270 6a 23 98 3c c2 2a 2e bd 22 df 34 bd d4 be 3a 3c
       0.018571574 -0.042521246 -0.04415811 0.011398036
000280 d5 d8 6e bd 83 d2 9e bb 93 22 f9 bd 61 24 de bc
       -0.058312256 -0.0048468723 -0.12164798 -0.027116956
000290 6e 18 db bd 47 b9 81 3a 75 84 d5 3d 75 44 c9 3d
       -0.10698019 0.0009897136 0.10425655 0.0982751
0002a0 2f d3 34 bb c4 07 00 3d 12 48 ba 3c 1b 0e bd bd
       -0.0027591696 0.031257406 0.022739444 -0.09231206
0002b0 e2 dd 0e bd 70 17 15 3c 94 be 87 bb 7b 03 05 be
       -0.034879573 0.009099826 -0.0041425917 -0.12989609
0002c0 d9 87 ea 3a 03 c1 9c 3d 61 8a 77 3d d2 f4 7a bc
       0.0017893269 0.076540016 0.060434703 -0.015317159
0002d0 3d a6 9b 3d c4 9f c1 3d 33 dd ae 3c e9 78 9f bd
       0.07600067 0.09454301 0.02134571 -0.07786734
0002e0 6c e3 16 bd 70 78 4e 3b dc 54 8d bd 65 93 e7 bc
       -0.03683798 0.0031504892 -0.06900951 -0.028268525
0002f0 2f 45 b9 bb a4 fe 37 bd 3e 4b 87 bd d1 a2 c5 bd
       -0.0056539993 -0.04492058 -0.06606148 -0.096501954
000300 24 e8 45 bc 7d 6f 74 3c 1d fd ed bc ac d7 1a 3c
       -0.012079272 0.014919159 -0.029051358 0.009450834
000310 a6 d3 c1 bb e1 f2 ca 3c c7 9f ee 3c de 09 cc bd
       -0.005915123 0.024774017 0.029128922 -0.099628195
000320 8b 5b 81 3c c9 4b dd 3c d8 a5 8a bd 39 28 0d bd
       0.015790721 0.027013676 -0.067699134 -0.034462187
000330 bc d7 a2 3d d1 3b 95 3d 3d e8 3a bd 2d 61 16 3d
       0.07951304 0.072868 -0.045631636 0.036713768
000340 5f 66 af 3c 95 ec 99 bd eb d3 60 3c 8b a2 a8 bd
       0.021411119 -0.075158276 0.0137224 -0.082341276
000350 05 4c ea bd 7a 31 aa 3c f8 e9 5c bb fb bb ac 3c
       -0.11440281 0.020775545 -0.0033708792 0.02108573
000360 9a 85 9a bc 77 ea a8 3d 40 03 4c 3d ad 9a c0 3c
       -0.018862534 0.082478456 0.049807787 0.023511255
000370 18 b9 dc 3d 58 15 4c 3d be 33 13 bd 25 19 eb 3c
       0.10777491 0.049825042 -0.035938017 0.028698513
000380 06 b2 82 3d fc b4 78 3d 44 54 4f 3d 6c 9c dd bb
       0.063816115 0.060719475 0.05061747 -0.0067630317
000390 fe 4e 38 bd ec 51 1a 3d a6 79 34 3d 16 9d 1a 3c
       -0.044997208 0.037675783 0.044061325 0.009436866
0003a0 16 c5 8f 3c 62 e4 c7 3c 82 f5 24 3b 5c f2 8f bd
       0.017550033 0.024400894 0.0025170748 -0.07028648
0003b0 06 4b 20 bd 4c 6f 3e 3d 6f 90 b5 bd fc cb e9 bd
       -0.039134048 0.04649286 -0.08865439 -0.1141586
0003c0 9a 79 8b 3d bd 05 b9 3c be d9 84 bd a6 a1 47 bd
       0.06810303 0.022585744 -0.064868435 -0.048738144
0003d0 c5 d6 8e 3d b5 bb 8d 3d 89 04 97 bd 86 2c e2 3d
       0.06974558 0.06920568 -0.07373912 0.110436484
0003e0 f8 31 b0 3d 22 d9 a1 3b 46 0e d2 bd 74 96 04 bd
       0.08603281 0.0049392143 -0.10256629 -0.032370046
0003f0 2d 53 6b bb 52 46 1d 3d 09 67 e4 3c 60 10 9d bc
       -0.003590773 0.03839714 0.027881162 -0.019172847
