DeepWonder3D_pytorch/pth/SEG_pth/Unet4_no_end_UNet3DFFD_20240401-1432_2um/seg_16.pth (torch, 138281 bytes, 19 tensors)

Generator.conv1.conv1.0.weight f4 [8, 1, 3, 3, 3]
000000 25 db e0 3d ae fd da 3d 3c 3b 29 bd 42 39 19 3e
       0.109792985 0.10692917 -0.041316256 0.14963248
000010 1c 02 dd bd 8b 63 d3 bd 8f 83 e6 3c a5 71 d6 3c
       -0.10791418 -0.10321721 0.028138904 0.026177237
000020 d1 42 02 3e 4a 0f b2 3c 52 33 24 be db f3 c8 3d
       0.12720801 0.021735806 -0.16035202 0.09812137
000030 ad 9b 00 3e 43 f2 e7 3d 93 2e 53 3d 5e f2 2e be
       0.12559386 0.11325505 0.05155809 -0.17084643
000040 14 7d dd 3d 28 ea 36 be 63 4d 21 be 14 9a 16 be
       0.108148724 -0.17862761 -0.15752177 -0.14707214
000050 ab 3a b9 bd a4 20 d0 3c 23 76 8d bd 27 73 40 3d
       -0.09044393 0.02540619 -0.069072984 0.046984818
000060 26 dc 56 be db 4d 6d bd bc c3 90 3d 09 a4 16 3e
       -0.20982417 -0.057935577 0.07068583 0.14711012
000070 a0 ad 0c 3e 2c 88 83 3a 1a 9b ca 3d b6 a9 07 be
       0.13738108 0.0010035089 0.098928645 -0.13248333
000080 97 c4 39 be 89 ab 30 3e ac 5e 37 3d f6 22 75 bd
       -0.181414 0.17252935 0.04476802 -0.059847794
000090 13 63 fc bd e9 7c 0e 3e 12 ba 7a bd 34 7d f4 bd
       -0.123235844 0.13914837 -0.061212607 -0.11937943
0000a0 da 5e a6 bd 5c 52 1a 3a eb 94 2c be 69 ae 4d be
       -0.0812356 0.00058869063 -0.16853683 -0.20086063
0000b0 d2 2b 40 bc 93 c1 cb 3d d8 81 4e 3b f7 80 32 3e
       -0.011729198 0.09949031 0.0031510498 0.17432009
0000c0 4c cc 34 3e 78 0b c7 bd af 6d 14 3e ff 6d ee 3d
       0.17656058 -0.09718984 0.14494966 0.11642074
0000d0 ea e5 f1 bd 17 f8 9a bd 6b af 98 3d 62 4c f8 bc
       -0.11811431 -0.07566851 0.07455333 -0.03030986
0000e0 ee cd df bd e8 f9 ec 3c 42 0e cf 3d de 3f b2 bb
       -0.1092795 0.028927758 0.10110141 -0.0054397425
0000f0 13 94 1f be 6b fd db bd 1f 96 6e bd f6 c4 2b 3d
       -0.1558383 -0.10741695 -0.058248635 0.041935883
000100 48 8a d1 3d c1 f8 c2 3c af ad 35 bd 54 b8 1c 3d
       0.10231453 0.023800256 -0.04435509 0.038261726
000110 2a 2a 92 3d 6b 5b 24 3d c0 23 21 bc cd 4b cd bb
       0.071369484 0.040126245 -0.009835184 -0.0062651397
000120 ca a6 35 be 5d ac ba 3c 15 d3 b7 3c 43 cd c6 bc
       -0.17739406 0.022787267 0.022439519 -0.024267798
000130 b0 db bc bd 1f 9d 85 3d 58 90 91 bd 6e 76 80 3d
       -0.092215896 0.06524109 -0.071076095 0.06272589
000140 24 f6 47 be 2b 1c a0 bd 16 aa 03 be 97 ff 36 3e
       -0.19527489 -0.078178726 -0.12857851 0.17870937
000150 4d 13 3f be 78 f4 5b bd de 6c 8b ba 1d 59 b2 3d
       -0.18659706 -0.05369994 -0.0010637303 0.08708403
000160 04 ee f3 bd 1f b0 56 3d 4b d5 3e be 64 97 ee bc
       -0.11910632 0.052414056 -0.18636052 -0.029124923
000170 05 db 6f 3d c5 f4 f8 3d 74 44 2d be 48 36 08 be
       0.058558483 0.12156061 -0.16920644 -0.13301957
000180 3b 53 fb bc 5a 5f 05 3e 46 b4 be 3d 58 8e 0a bd
       -0.030679336 0.13024655 0.09311728 -0.033827156
000190 dd 21 c0 3d 12 0e fd 3d 5a bf 36 bd aa 39 b4 3d
       0.09381459 0.12356199 -0.04461608 0.08800061
0001a0 fc cd e0 3d 7c e4 af 3c e5 9d 1f be 16 42 5b be
       0.109767884 0.021471255 -0.15587576 -0.21411929
0001b0 93 b0 f5 3c bb 97 30 be 07 45 98 bd 1d 65 54 be
       0.029991424 -0.1724538 -0.07435041 -0.20741697
0001c0 c4 3d a6 bc dc 5c e1 3b ae 63 f2 bd 4c 40 93 3d
       -0.020293124 0.006877525 -0.11835419 0.07189998
0001d0 b3 98 15 3d 94 bd 01 bd aa 24 f3 3d 62 07 39 be
       0.03652258 -0.031674936 0.118722275 -0.18069223
0001e0 36 ca aa bd c5 c7 ce bc 10 3c 59 bc 9c 9f 95 3d
       -0.0833935 -0.025241742 -0.013258949 0.07305834
0001f0 35 fb eb 3c 20 60 e3 3d 54 ff 54 be 79 77 d8 3d
       0.028806308 0.11102319 -0.20800525 0.105696626
000200 66 8a 04 3e 3c 72 a3 3d 3c 82 7a 3d 0c ee cd bd
       0.1294342 0.07980773 0.061159357 -0.100551695
000210 69 6b 34 be a0 11 68 bd e0 a7 e3 3d 0b ce 1e 3d
       -0.17619099 -0.056657434 0.11116004 0.038770717
000220 15 7b ad bd 71 db 0b 3e 3e 2f 05 3e c9 d6 37 bd
       -0.08470742 0.13657929 0.13006303 -0.04488257
000230 8d 99 e4 bd b1 3a 39 be 6d 2d 35 3e 52 d4 a2 3b
       -0.111621 -0.18088795 0.1769311 0.004969158
000240 73 a9 aa bd a5 e8 2f be 40 bf 8e 3d 2b ea e4 3d
       -0.08333101 -0.1717859 0.06970072 0.111774765
000250 11 5c 1f be 81 d7 52 be 2f b6 9c bd c8 bc 73 3d
       -0.15562464 -0.2059002 -0.07651936 0.059506208
000260 29 fa fb 3d dc 38 13 bd 67 07 0f bd 94 7d ed 3d
       0.12303574 -0.035942897 -0.03491917 0.11596218
000270 e2 c5 e4 3c 55 88 27 3e f0 ca c2 bd e6 1f 5d bc
       0.02792639 0.163606 -0.095113635 -0.013496375
000280 36 fb 9b bd 9b 23 1d 3e df 73 3d be 74 62 34 3e
       -0.07616274 0.15345614 -0.18501233 0.17615682
000290 cb 42 be bd a5 5f e8 3d 4c a5 20 3c 7c 4d 97 bd
       -0.092900835 0.11346368 0.009805035 -0.07387826
0002a0 68 3d 98 3d 10 73 83 bb cb 29 1b 3d 85 71 90 3d
       0.07433587 -0.0040115193 0.037881654 0.07052902
0002b0 b2 57 99 bd 23 9f 45 3e 35 59 41 be 4b 6b b5 bd
       -0.0748743 0.19298987 -0.18881686 -0.08858355
0002c0 ec 0c 3d bc 31 70 85 bc 58 1f 07 3e e6 0c ad 3c
       -0.011538725 -0.016288849 0.1319555 0.021124315
0002d0 34 59 98 bd 8c 1c 8e bd 15 42 85 3d a3 45 09 be
       -0.07438889 -0.06939039 0.06506745 -0.1340547
0002e0 ca 4e 36 3d f6 09 8f 3d 34 80 af bd 00 bb 71 3c
       0.044508733 0.06984322 -0.08569375 0.014754057
0002f0 15 e5 15 3e c9 ad bc bc 00 47 02 3e 52 3d d1 3c
       0.14638169 -0.023032086 0.12722397 0.025541935
000300 4f d1 87 3d 7b a8 c6 3d d5 9d 51 be ee fe 43 bd
       0.06631719 0.09700104 -0.20470364 -0.04785054
000310 4a 07 70 bc 56 3e fb 3d d7 d1 fc bb b2 0e b5 bd
       -0.014650175 0.12267749 -0.0077154445 -0.088406935
000320 10 3d 50 bd eb bb 37 be 0a b9 f3 3d 75 be c8 bd
       -0.050839484 -0.17942779 0.11900528 -0.09801952
000330 04 fc 86 bd 8a aa 11 3e 12 ed 72 3c a5 83 52 bd
       -0.06591037 0.14225212 0.01482703 -0.051395077
000340 bd 58 22 bd dc e2 7f bc 3c b4 4c be a7 1f a8 3d
       -0.03963541 -0.015618052 -0.19990629 0.08209162
000350 73 22 e6 bd 46 ff 2b be 30 97 d5 bd c2 1b bd 3d
       -0.112370394 -0.16796598 -0.10429227 0.0923381

Generator.conv1.conv2.0.weight f4 [8, 8, 3, 3, 3]
000000 ec 26 9f 3d 69 e9 15 bc c1 cc 03 3d 4f d5 0d bd
       0.07771096 -0.009149888 0.03217769 -0.034627255
000010 f8 e6 16 bd fc fc 22 bd af c8 9d 3b f9 24 47 bd
       -0.036841363 -0.039792046 0.004815183 -0.048619244
000020 53 77 a1 3d f3 a0 6b b8 41 f1 48 3c 65 75 62 3b
       0.078840874 -5.617826e-05 0.012264551 0.0034554836
000030 4c 40 12 3c d9 bc 9d 3d 61 2c 4f bd 62 b1 32 3d
       0.008926462 0.077020355 -0.050579432 0.043626197
000040 a7 20 33 bd 35 0d 9a 3d 5d d1 6a bd 72 9e c9 3a
       -0.04373231 0.0752205 -0.05732857 0.0015382303
000050 06 a0 21 bb 79 a0 64 3c 39 28 c8 3c 09 6d e5 bc
       -0.0024662032 0.013954275 0.024433242 -0.028006094
000060 65 96 36 3d 3a 37 61 3c d9 b5 d5 3c 8c 8e 53 bd
       0.04457702 0.013746077 0.026087688 -0.051649615
000070 1e c5 ac bd 1c c5 21 bd a0 0a 02 3d 2f 8e 9e bd
       -0.084360346 -0.03949462 0.031748414 -0.07741963
000080 1c a7 31 bd bc de 70 bb 5c b4 86 3c 0a 2d bc bd
       -0.04337226 -0.0036753854 0.016443424 -0.09188278
000090 62 f1 85 bd 8a b8 31 3d a6 af 90 3c cf ee c3 3c
       -0.06540181 0.04338888 0.01766188 0.023917584
0000a0 5b 72 df 3c f6 ae 9e bd 3e 26 9e bb 3d 60 25 bb
       0.027276209 -0.07748215 -0.004826336 -0.0025234364
0000b0 10 a3 46 3c 5b 3a bb 3c 40 15 84 3d e2 fe a0 bd
       0.012123838 0.022854974 0.064493656 -0.07861115
0000c0 8f ca 51 bc 87 2c 11 3d 06 29 87 bd e6 40 70 bd
       -0.012804641 0.035442855 -0.065996215 -0.058655642
0000d0 d6 bc 34 bd c8 20 84 3c 6f 1f 6f bc b0 43 b5 3c
       -0.0441254 0.016128913 -0.014594897 0.022127002
0000e0 c9 b6 f0 3c 11 5e 8c 3d 00 b2 90 3c e4 8a 52 3c
       0.029384034 0.06853879 0.017663002 0.012850497
0000f0 71 f9 af 3b a1 c7 e7 bc 42 3c a5 bd aa e6 15 3d
       0.005370312 -0.028293433 -0.08068134 0.03659693
000100 d0 f4 45 3d 92 ab 94 bb f6 90 80 bc db 35 27 3d
       0.048329175 -0.0045370543 -0.015694123 0.040822845
000110 fc 84 ca 3c c2 b8 83 3d 98 ab 97 3b 11 04 ac 3c
       0.024721615 0.06431724 0.00462861 0.020998033
000120 82 fe 1e bd 10 b3 3a bd 88 79 4e 3d 84 d7 eb bc
       -0.038816936 -0.045580924 0.05040887 -0.02878929
000130 ee 10 32 3d 9e 17 3b bd bf c7 80 3d ad ae 89 3d
       0.043473177 -0.04567682 0.062880985 0.0672277
000140 d9 ae 08 3d 2b 6d bf bc 45 59 7d 3d 17 fb 29 3d
       0.033369873 -0.023367485 0.061852712 0.041499224
000150 73 e7 d4 3d 73 63 06 3b ae 29 ce bb 59 1c c6 bc
       0.10395708 0.0020506054 -0.0062915897 -0.02418344
000160 13 5f 23 bd 1e fe 0e 3c a5 00 b1 3c 5e c8 91 3c
       -0.03988559 0.008727578 0.021606753 0.017795738
000170 32 9a 2e 3d 31 c1 1c bd 92 60 72 3c 6d 21 6b 3d
       0.04262752 -0.03827018 0.014793532 0.057404924
000180 c1 a6 30 bd 78 d6 e1 3b 8a 84 e3 3c c4 d5 8a 3d
       -0.04312778 0.0068920217 0.02777316 0.06779054
000190 0a 7e 3d bd 4e 2c 47 bd d9 20 b1 39 c2 67 1c 3d
       -0.04626278 -0.048626237 0.00033784544 0.03818489
0001a0 55 41 55 3d fe 77 b5 3c 9d 19 ff 3c 6e f6 9c 3c
       0.05206426 0.022151943 0.031140143 0.019160476
0001b0 2c 9b 2e 3d d4 87 5a bc 61 94 35 bd 21 15 64 bd
       0.042628452 -0.013338048 -0.04433096 -0.055684213
0001c0 1b 28 63 3c 41 13 91 bc 18 76 ce bb e8 f4 9a bd
       0.013864542 -0.017709376 -0.006300699 -0.075662434
0001d0 d6 48 38 3c b6 9d 37 bd aa 80 41 bd 16 ef 76 3d
       0.011247834 -0.04482814 -0.047241844 0.060286604
0001e0 e4 28 ce 3b 17 89 6b bd 67 aa 65 3c 17 53 51 bd
       0.0062914956 -0.057503786 0.014017678 -0.05110463
0001f0 24 43 90 3c 60 d3 24 3d 1a 84 d1 bc bb 72 24 3d
       0.01761014 0.040240645 -0.025575686 0.040148478
000200 27 89 ba 3c be 2b 5d 3c b0 e4 dd 3c 6b 08 40 bd
       0.022770477 0.0134991985 0.027086586 -0.046883028
000210 c3 9f 2e bd 02 20 4a 3d ec 3d d0 bc 2d 34 98 3d
       -0.04263283 0.04934693 -0.025420152 0.07431827
000220 95 d1 56 3d 96 54 34 3c 37 7e 25 bc ba 15 a6 3d
       0.052445967 0.011006495 -0.010100893 0.08109613
000230 38 b6 62 3d 57 10 84 bc d3 89 0d bd d4 54 63 3d
       0.05534956 -0.016121073 -0.034555268 0.05550082
000240 36 22 80 bd 29 cb 1b 3d 56 82 9f 3c 9a 22 30 bd
       -0.06256525 0.038035545 0.019471329 -0.04300175
000250 9c 2c 77 bb f6 56 ed bc ab f4 65 3c 94 70 9c 3c
       -0.0037715798 -0.02897213 0.014035384 0.01909665
000260 51 2e 88 bd 7b 48 3c 3d e9 5b 41 3d 39 40 0e 3d
       -0.06649459 0.04596756 0.047206793 0.034729216
000270 a5 61 5a 3b d6 b5 93 3d 04 51 2d 3d 0b e9 2c 3c
       0.003332236 0.07212417 0.04231359 0.010553609
000280 d5 a2 e6 bc dc af 30 3d fd cd a9 3b e6 f2 92 3c
       -0.028153816 0.043136463 0.0051820264 0.017938089
000290 a2 5b 8a bd 53 1b be 3b 34 8f 68 bb 96 b9 19 bd
       -0.06755759 0.005801597 -0.0035485746 -0.037530504
0002a0 84 8c ac 3d df c1 a5 bc 13 56 cf 3c 64 84 20 3b
       0.08425239 -0.020234047 0.025309598 0.0024492973
0002b0 8b fe bb bd 14 02 eb ba 5f 7b 91 bc d8 5b 22 3b
       -0.091794096 -0.0017929696 -0.017759023 0.0024773981
0002c0 78 fa a0 bd 92 9f ae bd e3 d9 1d bd c6 70 02 3c
       -0.07860273 -0.08526529 -0.03853787 0.007961458
0002d0 75 31 c3 bc 27 a3 93 bd 13 a7 8e 3b 84 ff 58 bd
       -0.023827294 -0.07208853 0.004353413 -0.052978054
0002e0 49 2b 99 3c c8 91 31 bd 07 96 cf bd 30 16 a3 bd
       0.018697398 -0.04335192 -0.10136037 -0.07963216
0002f0 bc 72 9f bd bd 82 b8 3c 94 84 90 bd f3 b2 8a 3b
       -0.07785556 0.022523278 -0.07056537 0.004232758
000300 f5 95 7d 3d 61 44 c8 3c bd 74 37 3d 01 1d 04 3d
       0.06191059 0.024446668 0.044789065 0.032254223
000310 da 51 7b bd ad 00 2f 3c fd 48 8d 3c 6c 60 80 bd
       -0.061357357 0.010681313 0.017246718 -0.06268391
000320 61 ae 89 bd 8d 9e 29 3b ed 25 87 bc 32 d5 e5 3a
       -0.06722713 0.0025881857 -0.016497577 0.0017534851
000330 5f eb 7b 3d 59 33 9b bd 5c dc 28 bd 65 99 50 3c
       0.061503764 -0.07578153 -0.041225776 0.012731885
000340 37 69 fc 3c ac 8a 7d bd 82 06 2d bd 63 d8 0c 3d
       0.03081189 -0.061899826 -0.042242534 0.03438605
000350 80 f3 1a bd d7 57 8a bd 4e f9 a2 bb 21 79 0e bc
       -0.037829876 -0.06755035 -0.004973567 -0.008695872
000360 8b ce 01 3d 98 f0 cc bc 6f 1e a6 3d 43 68 8f bc
       0.031691115 -0.025017068 0.081112735 -0.01750577
000370 0f b9 ac ba 5c 51 7c 3d c8 c7 51 3d 3d f1 de 3c
       -0.001317771 0.061601028 0.051215917 0.02721464
000380 f5 14 b4 bc dd 44 e5 3c 84 80 e5 ba 58 34 68 3d
       -0.02198265 0.027986938 -0.0017509614 0.056690544
000390 40 75 0a bd 08 4d 32 3d e6 31 37 bd 9a e2 56 bc
       -0.033803225 0.043530494 -0.04472532 -0.013115549
0003a0 a5 33 4c bd 92 e5 4b bd df 42 19 3d 03 fd 80 3d
       -0.04985394 -0.049779482 0.03741729 0.06298258
0003b0 27 e3 18 3c cc 38 83 3d 5d d5 49 3d cf 38 7c 3d
       0.009331501 0.064073175 0.049275745 0.061577614
0003c0 62 7b 1f 3d 71 43 ba bc b9 0c b8 3d 11 36 6a bd
       0.038936026 -0.022737237 0.08986802 -0.057180468
0003d0 4e 7b d0 bc 9a f0 56 bc 32 f3 c0 bb 75 2a 18 bd
       -0.025449421 -0.013118887 -0.005888366 -0.037149865
0003e0 f1 11 7c 3d 79 6b 91 3d 2b 73 55 3d c2 6e 43 3d
       0.061540548 0.07100577 0.052111786 0.04771305
0003f0 0a f7 2e 3d 30 69 27 bd c3 ee 83 bc 87 e0 87 3d
       0.042716064 -0.0408718 -0.016105061 0.06634622

Generator.conv2.conv1.0.weight f4 [8, 8, 3, 3, 3]
000000 72 5c 4e bd b3 05 b0 bd 13 4c 81 3d c1 28 c1 3c
       -0.05038113 -0.08594837 0.06313338 0.023579003
000010 20 fb 44 bc d9 5c 7e bd 33 f0 86 bd 60 8b d8 bc
       -0.0120227635 -0.062100265 -0.06588783 -0.026433647
000020 4d a4 da 3c 4e d5 41 bd 61 7b 82 3b 4a 21 19 3d
       0.026689673 -0.047322564 0.003981993 0.037385263
000030 b3 be 5c bd 67 47 3d 3d c0 eb 27 3d 62 34 f5 3b
       -0.053892802 0.046210673 0.040996313 0.007483051
000040 cc a8 4f bd fe 27 97 3d 9d 7d 25 3d 79 f8 36 bd
       -0.050698087 0.07380675 0.040402997 -0.044670556
000050 50 67 64 bc 9d 18 d2 3c 56 a8 24 bd e3 35 92 3c
       -0.013940647 0.025646502 -0.0401996 0.01784796
000060 60 fc 83 3d b6 d6 d6 bc a2 40 d2 3c 42 24 fb 3c
       0.06444621 -0.026225429 0.025665585 0.030656938
000070 92 22 67 bd 3b c3 46 bd d1 aa 0e bd f5 e2 d9 bc
       -0.056429453 -0.04852603 -0.034830872 -0.02659748
000080 50 54 26 bd fc f8 41 bc 84 d0 62 3d fa 43 f1 3a
       -0.04060775 -0.011839148 0.055374637 0.0018407099
000090 65 0c b7 bd cf 5b df bd d0 6f fd bc f0 dc 99 bd
       -0.08937911 -0.10906183 -0.030937105 -0.075128436
0000a0 af f1 92 bd db e1 9c bd 6e 13 a7 3d c6 23 38 bc
       -0.07175004 -0.07660266 0.08158003 -0.011238998
0000b0 37 f1 98 bc a6 2f b0 bc 5f cf 42 bd bc e5 f6 bd
       -0.018669708 -0.021507096 -0.047561046 -0.12055537
0000c0 73 1e d9 3b 86 67 4b bd be 34 ad bd b2 1f ab 3c
       0.0066259443 -0.049659275 -0.084573254 0.020889137
0000d0 b0 04 1e bd bb 56 87 bd 9f 83 46 bd 17 a6 b4 3c
       -0.03857869 -0.066083394 -0.048465367 0.022051854
0000e0 aa 5a 0c 3c ce 3f 0d bc 1c e0 47 bd a4 88 53 3d
       0.008566538 -0.008621169 -0.04879771 0.051643983
0000f0 f4 5e 3c 3d 47 38 9a bc 39 b0 4b 3d 9c 0c 8f bd
       0.04598899 -0.018825663 0.049728606 -0.06984827
000100 98 bf 20 3d 5c 0a cd 3c 43 8b 16 bb 60 89 f3 ba
       0.039245218 0.025029354 -0.002297119 -0.001858037
000110 38 51 1d 3d 82 aa 98 bd 7c a9 a3 ba a2 72 1a 3d
       0.038407534 -0.07454397 -0.0012486423 0.03770698
000120 69 dc 81 bd 75 97 17 bc d0 5b f2 3c 47 18 8c bd
       -0.06340868 -0.009252419 0.029584795 -0.06840568
000130 a2 38 36 3d a4 13 2a 3d ff 47 d5 bc 85 52 65 bd
       0.044487603 0.041522637 -0.026035307 -0.0559869
000140 b6 35 0a 3d 0a 7d 39 3d 3f d4 70 3c b3 35 93 3d
       0.03374263 0.045285262 0.014699041 0.07187977
000150 72 53 2a bd 66 cf bb bc f0 73 21 3c 7c 4a f5 bc
       -0.041583486 -0.022926044 0.009854302 -0.029942743
000160 56 97 36 bd 9a 1d a1 3d 98 02 23 3d 31 99 34 bc
       -0.04457792 0.07866974 0.039797395 -0.011022852
000170 09 6a 4e 3d 43 b9 13 3d 4e 63 97 3a 2e 66 1d 3d
       0.05039409 0.03606535 0.0011549981 0.038427524
000180 4d 00 b9 bb e5 8f 36 bd 6a b8 53 3d f2 a8 1b bc
       -0.005645788 -0.044570822 0.051689543 -0.009500729
000190 10 b8 58 3d e6 29 eb bc cd 63 85 bd 34 c7 28 bd
       0.05290991 -0.028706502 -0.06513176 -0.0412056
0001a0 03 ce 6d 3d 8b b0 ae bb ae 98 25 bd 9b 3c c9 3c
       0.058057796 -0.005331104 -0.04042881 0.024565032
0001b0 11 f8 83 3d bd ce 67 3d 60 d7 1a bd 6f c6 4a bc
       0.06443799 0.056593645 -0.037803054 -0.012376412
0001c0 82 8f 75 bd 2b 16 3b bc 8d 5c 01 bd c1 1e e6 bc
       -0.059951313 -0.0114188595 -0.031582404 -0.028090836
0001d0 6d b0 8a bb 4e fa 43 bc 69 18 89 3a 3f 38 2e 3d
       -0.0042324574 -0.011961533 0.0010459545 0.04253411
0001e0 7e 8f 98 3c 61 49 54 3d aa 62 47 3d 3f 42 20 3d
       0.01862311 0.051827792 0.048678078 0.039125677
0001f0 66 b4 4b bd 3c 67 85 3d a1 a5 01 bd 26 c7 07 3d
       -0.04973259 0.06513831 -0.031652097 0.033148907
000200 87 4b 94 3d a9 9c 0d bd a9 e8 71 3d aa 92 94 3d
       0.07240968 -0.03457323 0.059059773 0.072545364
000210 43 27 06 3d ae 8a 35 bc 90 13 4b bd b0 1c 9f bc
       0.032752287 -0.011080427 -0.049579203 -0.019422859
000220 04 f5 a8 3c 9b fc 4e bd 9d 45 35 3b 45 1c 2c 3d
       0.020624645 -0.050533872 0.00276599 0.042019147
000230 d7 27 34 3c 78 ba 9d 3c 42 fb 70 bd 36 2c 71 bd
       0.010995827 0.019253954 -0.058833368 -0.058880053
000240 61 16 12 3c c7 56 03 bd f5 37 52 bd 3f 9b 07 bc
       0.008916468 -0.03206518 -0.051322896 -0.00827676
000250 ed 5d 47 bd 7d 51 75 bd 74 83 02 3d a3 1d 4e bc
       -0.04867356 -0.059892166 0.031863645 -0.012580308
000260 42 07 6a 3c 32 84 d6 3c c2 10 76 bc 6c 24 33 3c
       0.014283957 0.026186083 -0.015018644 0.010933977
000270 46 13 34 bc a6 6b 1f 3d fe 0f 8d bc f2 64 16 bd
       -0.010990923 0.03892102 -0.01721954 -0.036717363
000280 3f 1f a0 bd e9 ae b4 3c 01 34 5b 3d be 38 ac 3d
       -0.0781846 0.02205606 0.05351639 0.0840926
000290 1f 70 b3 3d 7e 45 95 3c c1 c0 dc bb 97 a0 b7 3b
       0.0876162 0.018221613 -0.0067368452 0.0056038606
0002a0 73 bf 73 bd 29 6d 6d 3d f6 85 be bc de 10 a8 bc
       -0.059508752 0.05796543 -0.023257237 -0.020515855
0002b0 b7 3f b6 3b 47 29 0b bc 68 f7 03 3c 68 a7 96 3d
       0.0055617946 -0.008493728 0.008054592 0.07356149
0002c0 06 69 b6 3d 11 91 26 3d 95 c7 0e 3d e8 2c 5b 3d
       0.089067504 0.04066569 0.034858305 0.053509623
0002d0 7c 3a 9b 3d f9 33 00 3d 3f 70 95 3b 02 1b 33 bd
       0.075795144 0.031299565 0.0045605 -0.04372693
0002e0 1c 2b a0 3d ea 0f 4a 3c 1f 6b 60 3d e3 78 f6 bc
       0.078207225 0.012332896 0.05478966 -0.03008694
0002f0 86 a5 68 3d 4d b4 0e 3d f0 36 b6 3c 76 b4 84 3d
       0.05679848 0.034839917 0.022242993 0.06479733
000300 1d 1f 5e bd a1 06 e1 bc 1c 2d 7a 3d c2 f4 6f bd
       -0.05422889 -0.027468981 0.061078176 -0.05858303
000310 82 83 e8 3b 52 fb 48 3c ed 90 25 bb 65 e2 67 bd
       0.007095755 0.012266951 -0.0025263384 -0.05661239
000320 76 f7 a1 3d 3a 5f 7c bd 98 80 a9 3b 6a 41 43 3d
       0.079085276 -0.061614253 0.0051728003 0.047669806
000330 8b 9c f9 bb ee 10 b1 bd bd a3 7d 3d 97 63 4a bd
       -0.0076175383 -0.08645807 0.06192373 -0.049411383
000340 de c2 87 bd d1 5d 37 3d ec 4b a9 3c f6 10 97 3c
       -0.06628965 0.044767205 0.020666085 0.018440705
000350 b8 ff e8 3c 0c bb 8f bd b1 b2 80 bd f9 19 51 bd
       0.028442249 -0.07018098 -0.06284083 -0.05105016
000360 dc 4d 01 bd 83 5d 0a bb c4 69 78 bd 30 22 0c bd
       -0.031568393 -0.0021112866 -0.06064774 -0.03421229
000370 0a f0 8b 3d 0b ef 81 3d 23 df 6b 3c 93 7a b3 bc
       0.06832893 0.06344422 0.014396462 -0.021909034
000380 b0 36 93 3d 5b 03 96 bd 41 88 1e bd a2 be 25 3d
       0.07188165 -0.07324859 -0.03870416 0.040465005
000390 18 c4 32 bd a7 8d ad 3c 61 1e 3d 3d 47 f3 05 3c
       -0.04364404 0.02118571 0.04617155 0.008175678
0003a0 9d 26 81 3d 05 e8 f9 bb d3 1d 8d 3c 2a 64 aa bd
       0.06306193 -0.007626536 0.017226135 -0.08319886
0003b0 a6 d3 16 bc 9d 31 57 3d 81 6d 96 3b c4 cc 70 bc
       -0.009205734 0.05253755 0.0045906906 -0.014697257
0003c0 fe 1d 06 3d 6b 86 83 3d cc 79 95 bc 33 4c ac bc
       0.032743447 0.064221226 -0.018246554 -0.021032428
0003d0 b7 31 a4 bc a5 68 1c bd 7e ec 2d bc 63 65 52 3d
       -0.020043237 -0.038185734 -0.010615466 0.05136622
0003e0 64 c7 32 3c 1c b9 8b 3d 44 e8 6a 3d 31 60 0c bd
       0.010911796 0.06822416 0.057350412 -0.034271423
0003f0 52 90 e8 bd 2a cb ec bd ac 00 af bd f5 84 a3 bc
       -0.11355652 -0.11562188 -0.0854505 -0.01996086

Generator.conv2.conv2.0.weight f4 [8, 8, 3, 3, 3]
000000 70 6d 4b bb 29 c4 66 bd 33 2a 9d 3a ea 47 ac 3c
       -0.0031040572 -0.056339417 0.0011990726 0.021030385
000010 0c b4 a6 3d 44 4d 02 3d 6a b0 04 bc f1 65 85 3c
       0.0813981 0.031811967 -0.008098701 0.016283961
000020 31 2a 61 3d 2c 21 1d 3d 2b 52 01 3c a8 f9 82 3d
       0.054971877 0.038361713 0.0078931255 0.063952744
000030 eb 62 92 3b 64 1c 55 3d 00 c7 0e bd 4b 1f 7f 3d
       0.0044673583 0.05202903 -0.03485775 0.062285703
000040 29 f0 db bc 3a ff 93 3c 87 89 e6 bc d3 2c d7 bc
       -0.026847916 0.018066037 -0.02814175 -0.026266491
000050 17 89 16 3c 60 11 90 3d 0f 18 22 bd af 22 2e bd
       0.009187958 0.07034564 -0.039573725 -0.042513546
000060 74 03 39 bd 53 13 9b 3c 19 5c 64 b9 6f f1 57 3d
       -0.04516931 0.018930113 -0.00021778083 0.052720483
000070 2d 69 1d 3d 9c 41 27 bd c5 41 ca 3c 1d b4 2f 3d
       0.03843038 -0.040834054 0.024689564 0.04289638
000080 82 90 b4 3d d7 6c 4f 3d fc 0f 35 3a 38 39 18 bd
       0.08816625 0.050640907 0.0006906984 -0.037163943
000090 40 17 84 3c 91 20 cc bc b2 9f 64 bd 81 b2 df 3b
       0.016124368 -0.024917873 -0.05581636 0.0068266992
0000a0 e8 22 a5 3d 69 52 02 3c 3b b0 ad bc 1c e8 d2 bc
       0.080632985 0.007954218 -0.021202197 -0.025745444
0000b0 13 4d 6f 3c 2e 6a f1 3c ab 54 99 3d 5b 8f 0a 3b
       0.014605778 0.029469576 0.07486852 0.0021142575
0000c0 29 00 af 3d 5b 42 f1 3c f6 34 b5 bb aa 15 e9 bb
       0.085449524 0.029450586 -0.005529995 -0.0071131783
0000d0 e1 43 82 3d c9 93 94 bc 38 8c 4f 3d 94 38 62 3d
       0.06360603 -0.018136876 0.050670832 0.05522974
0000e0 2e 6e 25 3c a8 f3 94 bd f8 6f 43 bd 54 14 2b 3d
       0.01009707 -0.07273036 -0.047714204 0.041767433
0000f0 7c 59 93 3c c2 82 ae 3c 78 82 ad 3c 60 37 ad bd
       0.017987005 0.021302585 0.021180376 -0.084578276
000100 64 0a 15 bd a1 fa 77 3a 61 8e a6 bd de 9a 07 3c
       -0.036386862 0.0009459649 -0.08132625 0.008276669
000110 70 8f 26 bd 59 27 d4 bc 71 c3 8d 3c da d8 47 bd
       -0.040664136 -0.025897669 0.017305108 -0.04879079
000120 5f e5 26 bd c5 97 45 ba d9 20 0d 3d c2 42 02 3c
       -0.04074609 -0.0007537569 0.034455154 0.007950487
000130 2f 72 24 bd 47 ea be 3c 70 e7 1a 3c 72 f6 51 bc
       -0.040147956 0.023305072 0.009454593 -0.012815105
000140 f4 74 c3 bd 71 f1 a1 bc c3 99 8d 3d 0c 7c 5d 3d
       -0.095437914 -0.019768449 0.06914093 0.05407338
000150 2d 9f 5e bd 83 4e 98 3d 8b e7 d4 bc 44 ab ad bc
       -0.05435102 0.0743685 -0.025989315 -0.02119983
000160 e0 e3 e3 bc 51 19 55 bd 0a 88 0e 3d 67 cf 25 3d
       -0.02781862 -0.052026097 0.034797706 0.040480997
000170 42 c3 62 3c f4 8e b7 bb b1 23 2b 3d 4b 19 86 bd
       0.013840498 -0.005601758 0.041782085 -0.06547793
000180 a6 9b c4 bc 68 97 56 bd 1a 82 59 3d 2f 36 c1 bc
       -0.024 -0.052390486 0.05310259 -0.023585407
000190 38 61 22 3b 85 0b 8c 3c 89 c3 6d bd 40 0b 28 3d
       0.0024777185 0.017095337 -0.058047805 0.041026354
0001a0 a4 d1 53 bd d8 b7 0d bc b7 95 81 bd 75 a2 64 bc
       -0.0517136 -0.008649789 -0.06327384 -0.013954748
0001b0 4f 61 bd 3c a2 31 a2 bc 19 83 e8 bd 5f ba 9b 3c
       0.02311769 -0.019799057 -0.1135313 0.019009767
0001c0 32 24 07 bb 23 b7 a0 bd 1a cd 9f 3d d1 40 20 3c
       -0.002062094 -0.078474306 0.07802792 0.009781078
0001d0 55 e9 fb 3c f2 d1 a0 3c b3 ab 22 bd 79 da cc bd
       0.03075091 0.01963136 -0.039714526 -0.10002608
0001e0 00 3f 6e bd cd fe 83 bd d6 4e f6 bd f0 1e a2 3d
       -0.05816555 -0.06445084 -0.120267555 0.07916057
0001f0 55 56 91 3c 3f 84 ab 3c 61 04 ad bd f7 15 c3 bd
       0.017741362 0.020937083 -0.08448101 -0.09525674
000200 3f 83 9e bd 9d 7c 11 3d f0 d6 e9 3c 2f 3e d9 bd
       -0.07739877 0.03551923 0.028544873 -0.10607564
000210 22 9e 00 3d f2 e1 a2 3c 2c fa a5 bd 7f cf 52 bc
       0.031400807 0.01988313 -0.08104357 -0.012866854
000220 94 8d 83 bd 5f 17 cf 3c b0 3a a1 3c 82 37 8a bd
       -0.06423488 0.025279699 0.019681305 -0.067488685
000230 11 ce f5 bc b0 7c 7c bd 21 b8 52 bd 46 7a 11 bd
       -0.030005487 -0.06164235 -0.05144513 -0.035517
000240 71 67 d0 bb 04 21 9a 3d e1 09 b8 bc 2d 4c 3c 3d
       -0.0063599874 0.075258285 -0.022465648 0.045971084
000250 b6 49 97 3c 5e 77 6b bd a6 bf b4 3c fe a7 b2 bc
       0.018467765 -0.057486884 0.022064041 -0.02180862
000260 a4 3f 99 bd 17 1f 1f bd de be 53 bd 47 9a 7c 3d
       -0.074828416 -0.03884801 -0.051695697 0.061670568
000270 c0 9d 6e b8 a5 d1 ed ba f1 fa aa bd 58 a4 54 bc
       -5.6890538e-05 -0.0018144144 -0.083486445 -0.012978636
000280 52 0b 4b bd 53 6a 37 3c 4f d2 06 3d fe 3f 59 bc
       -0.049571343 0.011194783 0.03291541 -0.013259886
000290 46 ea b9 3d 3b 71 38 bc 9d 81 c9 b9 40 17 7c 3c
       0.09077887 -0.011257465 -0.00038434277 0.015386403
0002a0 41 37 d0 3c a2 80 a1 bc 1b 6c c9 bc a3 58 dd bc
       0.025416972 -0.019714657 -0.024587682 -0.027019804
0002b0 49 8d 4f bd dc 5e f4 3c 05 03 e5 3c fc 38 c6 bb
       -0.05067185 0.029830389 0.027955541 -0.0060492735
0002c0 b8 70 4b 3d 48 17 54 bc 55 45 16 3d e3 45 59 ba
       0.049668044 -0.012945004 0.036687214 -0.0008288307
0002d0 ae 80 e3 bc 1c db 82 3d 8d 20 2a 3d 79 b7 30 bb
       -0.02777132 0.06389448 0.04153495 -0.0026964827
0002e0 4b 68 85 3d c4 22 17 3d c9 9c 33 3d 37 50 b6 3c
       0.06514033 0.03689839 0.043850694 0.022255046
0002f0 9f 26 06 3d 93 57 13 3d af e7 39 bd d9 04 65 bd
       0.032751676 0.03597219 -0.045386966 -0.055912826
000300 15 32 1d bd a0 e7 5e bd da a5 6f bd 5d 17 4d bd
       -0.03837784 -0.054420114 -0.058507778 -0.05007111
000310 d8 56 24 bb 3a e2 1e bd 5c e7 b9 bc d1 69 6e 3c
       -0.0025076177 -0.038789965 -0.022693329 0.014551596
000320 89 7d 0e 3c 0c 1c 85 bc cc 0e 61 bd c2 cc 02 3d
       0.008696922 -0.016248725 -0.054945752 0.031933554
000330 fa 36 1c 3b c8 ce 40 3d 62 33 ea 3b ed 35 6c 3d
       0.002383648 0.047072202 0.0071472386 0.057668615
000340 c7 78 27 bc b0 c3 7e 3c bd 2e 59 bc 43 e4 34 3d
       -0.010221667 0.015549585 -0.013255772 0.044163
000350 1a 6e 84 bc f3 ba ca 3d 26 08 68 3c f2 6a 1b 3d
       -0.016165782 0.09898939 0.014162099 0.037943788
000360 44 bc 93 bd 65 57 0e bd 2e 5c 53 3c 70 07 68 3b
       -0.07213643 -0.034751315 0.012900395 0.0035404824
000370 c1 05 38 bc d0 af aa bd e7 87 87 bd 63 c3 2d 3d
       -0.011231841 -0.08334315 -0.06617718 0.042422663
000380 b1 64 9f bc 27 59 27 3d 62 52 89 3c ec 1d 23 bd
       -0.019457193 0.040856507 0.016762916 -0.039823458
000390 82 48 20 3d ee 21 bd 3b c1 4d 94 bc 2b 74 cb bc
       0.03913165 0.005771867 -0.018103482 -0.024835667
0003a0 b6 42 ac bc b1 58 d7 3c 29 ad 87 bc 9f b7 f0 3c
       -0.021027904 0.026287409 -0.016562061 0.029384432
0003b0 f1 99 1d 3b fd cf a2 3d 03 69 06 3d dc 61 58 3c
       0.0024048055 0.07949827 0.03281499 0.013206925
0003c0 be e9 9a 3d 45 5d 04 bd 94 da 03 bc c3 78 8d bc
       0.07564114 -0.03231551 -0.008047719 -0.017269498
0003d0 1f f3 3b bd ad 9c cf 3c f0 9d 3d bc 88 00 d1 bc
       -0.045886155 0.025343264 -0.0115733 -0.025512949
0003e0 2c c0 45 bc 04 6e cf bd 8a 6e 1b bd 00 e7 65 bd
       -0.012069743 -0.10128406 -0.037947215 -0.056128502
0003f0 85 c4 86 3d 4a b0 1d 3d d0 7c c0 bd 38 d8 85 3d
       0.06580452 0.0384982 -0.09398806 0.06535381

Generator.conv3.conv1.0.weight f4 [8, 8, 3, 3, 3]
000000 9e a7 65 bc 50 71 8e 3d 39 18 15 bc d4 54 8e bd
       -0.014017014 0.069552064 -0.009100013 -0.069497734
000010 b4 13 aa bc 1f 03 b7 3c 54 0d 99 3d ac 13 14 bd
       -0.020761348 0.022340355 0.07473245 -0.036151573
000020 81 b0 8f bc bf b7 fb bc 02 a5 e8 3c 15 a3 0c bd
       -0.017540218 -0.030727265 0.028398994 -0.034335215
000030 2d c7 f3 3b 18 36 91 bc 99 a4 5c bd 5c a5 06 bd
       0.007439515 -0.01772599 -0.05386791 -0.032872543
000040 09 f9 38 3d 13 a7 af bc 60 ea 5b bc 72 84 c0 3d
       0.045159373 -0.021441972 -0.013422579 0.09400262
000050 60 95 4d 3d 2d a6 4b 3d 3a 74 48 bd 17 49 2a 3d
       0.050191283 0.049719024 -0.048938967 0.04157361
000060 98 28 70 bd 1b 64 d2 3c 7d 4d f6 bc c1 bf a7 bc
       -0.058632463 0.0256825 -0.030066246 -0.020477178
000070 39 89 ab 3c 7d 17 37 3d 83 47 99 3a b0 b2 ec 3c
       0.020939456 0.044700135 0.0011694286 0.028893799
000080 33 6e 6f bd 0e 37 fe 3d 89 6b 8b bc 28 a6 0b 3b
       -0.058454704 0.124128446 -0.01701905 0.0021308754
000090 2a 43 8d 3b a8 46 44 3d d1 54 f8 3d d8 7a 7b bd
       0.004310985 0.047918946 0.121255524 -0.06139645
0000a0 b6 20 68 bc bf d8 93 bd b9 e5 9c 39 9a a8 81 bd
       -0.014167955 -0.072190754 0.00029925795 -0.06330986
0000b0 a7 30 73 3b ab 1e e1 3c 82 bc 6e 3d f2 f7 d0 bc
       0.0037107856 0.027480444 0.058285244 -0.025508855
0000c0 21 66 39 3c 51 e0 d4 3a ef 29 2c bd ce b2 da 3c
       0.011315853 0.0016241168 -0.04203218 0.026696589
0000d0 13 04 f0 3c f1 e5 1b 3c 51 6b 4f bd 08 e2 a8 3c
       0.029298818 0.0095152715 -0.050639454 0.020615593
0000e0 5f e1 80 bc 87 95 fd bc a7 d1 4a bc d5 13 8a 3d
       -0.015732465 -0.03095509 -0.012379087 0.06742064
0000f0 cf b1 c6 bc 53 93 e4 bc 61 9c 6a bc 2b 0a 2c 3c
       -0.024254708 -0.02790228 -0.01431951 0.010500471
000100 a4 82 2a 3d 78 65 82 3d f4 1c e6 bc 30 33 c3 3d
       0.041628495 0.0636701 -0.028089978 0.095312476
000110 ef a8 b2 3d 4c 14 4d bd 49 a1 66 ba 2a b5 fe bc
       0.08723628 -0.050068185 -0.0008797837 -0.031092245
000120 68 b7 32 3c a7 c2 0f bd cc 64 92 3d e9 e9 07 bd
       0.010907985 -0.035097744 0.07148132 -0.03318206
000130 ae f6 4e 3d fa 38 c8 3c 91 4d 5b 3c 13 1f 18 bd
       0.05052822 0.024441231 0.0133851925 -0.03713901
000140 93 4c 90 3a da 99 db bb 4b dd 2f 3c 0f ab 51 3d
       0.0011009149 -0.00670169 0.010733913 0.051188525
000150 a0 43 85 bd 3d e9 46 3b 56 82 8c 3c f0 3c b8 3d
       -0.06507039 0.0030351423 0.017151993 0.08995998
000160 6c 14 68 bd a7 88 8b 3c ff bc 9e bc 77 d5 64 3d
       -0.0566601 0.017032934 -0.01937723 0.05586764
000170 87 f7 7f 3d 75 cc 8f bd 7f 49 6d 3d d5 03 94 3c
       0.06249192 -0.07021419 0.05793142 0.018068234
000180 b0 32 06 bd 8a 4e df bc d3 89 96 b9 71 aa 8e bd
       -0.032763183 -0.02725913 -0.00028712917 -0.06966103
000190 ac 2e 8b 3d 1c 71 a0 3c 57 cb 14 bc 9a 2b a1 3d
       0.06796011 0.019585185 -0.009081683 0.078696445
0001a0 4c d9 a6 3d f3 88 d9 bb c1 10 34 bc 8d 8c 4f bd
       0.08146915 -0.00663864 -0.010990323 -0.05067115
0001b0 f7 69 e3 3c 93 1f dc bc 60 6a 4c 3c 80 8c 8d 3d
       0.027760489 -0.026870525 0.012476534 0.06911564
0001c0 c6 a3 b6 bc 36 12 e6 3c 89 c1 d9 3d 2e d0 44 3d
       -0.02229489 0.028084856 0.10632617 0.048050098
0001d0 19 d1 3f bd cd 22 b1 38 86 a9 31 3d 65 46 49 3d
       -0.04683027 8.4465e-05 0.04337456 0.0491394
0001e0 dc 95 7a bc 5f 53 3c 3d c1 72 87 3d cf 38 09 3d
       -0.015294518 0.045977946 0.066136844 0.033501443
0001f0 4e c4 7e 3d 39 84 65 bd 28 fe 7e bc 8c 4a b5 3a
       0.06219893 -0.0560343 -0.015563525 0.0013831421
000200 e6 ab 92 3d 0c 44 07 bd cd 5b be bc 99 ba 34 3c
       0.07161693 -0.03302388 -0.023237133 0.0110308165
000210 eb 5a ae 3d 10 e8 28 bd d5 ad 6e 3c 1d f5 04 bd
       0.08513435 -0.041236937 0.014567812 -0.03246032
000220 e7 6d d2 3d 2f 46 c2 3c 89 c4 8d bc 72 65 87 3d
       0.102748685 0.023715107 -0.01730563 0.06611146
000230 19 5c 2d bd 2b ac 42 bc 7f 40 2a bd d8 71 1e bd
       -0.04232416 -0.011881868 -0.041565415 -0.03868279
000240 bc de 2d 3d 5a c5 e8 3d bd 04 89 3c 58 ce 3d bd
       0.042448744 0.11365767 0.016725892 -0.046339363
000250 31 36 2c 3d 69 4f fe 3c 09 a1 21 bd 5f 26 aa bd
       0.04204387 0.031043725 -0.039460216 -0.083081
000260 14 a1 24 bc 80 fa 52 bd 4c 5b c3 3d 17 df 58 bd
       -0.01004817 -0.051508427 0.09538898 -0.05294713
000270 f7 d0 66 bd 4a 38 04 3d 0f 19 40 3d ba de 89 3c
       -0.05635163 0.032280244 0.046898898 0.016829837
000280 9b 4e 31 bd 32 23 6c bd 36 cc 57 bd 6e f6 3f bb
       -0.043287855 -0.057650752 -0.052684985 -0.002929117
000290 90 1b 29 3d 7d 4e cc 3c 6f 72 86 bb fa 97 b4 bc
       0.04128605 0.02493977 -0.004102997 -0.022045124
0002a0 34 c4 03 3e b4 b0 99 bb 8a 18 4e 3d 7d 2b 9b 3c
       0.12867814 -0.004690254 0.05031637 0.018941635
0002b0 a4 a8 d6 bd b7 cd 58 3d 01 9c 6a 3d 56 be 88 bd
       -0.104813844 0.05293056 0.057277683 -0.06676929
0002c0 9d a3 8d 3d 02 5c 48 3b 2c e3 60 bc 1e 09 99 3d
       0.069159724 0.003057242 -0.013726037 0.07472442
0002d0 4e 55 56 3d 5a 82 68 bd d3 eb 1f bd ac 84 3a 3b
       0.052327447 -0.056764938 -0.03904326 0.0028460426
0002e0 d5 e4 8e bb eb ae 90 bc 86 7c fe bc 1c aa ae bb
       -0.004360775 -0.017661532 -0.031065237 -0.005330337
0002f0 89 9d 4a 3d 15 ed dc 3c 07 f8 f0 b9 b8 0a 20 bd
       0.049466643 0.026968518 -0.00045961162 -0.039072722
000300 50 14 ca 3c 9b 16 ab 3d c9 32 7a 3c 30 4a a4 bd
       0.024667889 0.08353921 0.015270897 -0.08021963
000310 80 21 1c 3d 87 f5 0b 3d 0e 22 ae bb f8 97 8a bc
       0.038117886 0.0341697 -0.005314118 -0.016918167
000320 fb e2 7f bd aa b2 05 3d 07 71 22 3e a8 a5 51 3d
       -0.062472325 0.03264109 0.15863429 0.051183373
000330 0b fe 3a bd ba 24 03 bd 8b d7 95 3d 08 35 7f 3b
       -0.04565243 -0.032017447 0.07316502 0.0038941521
000340 5c 59 62 bd 07 08 e2 bb d8 36 9e 3d 4e 99 0c 3e
       -0.055261 -0.0068979296 0.07725304 0.13730356
000350 a2 c0 2d bd 0f 63 2e bd be 0f bf bc 08 45 0a bd
       -0.042420037 -0.04257494 -0.023322936 -0.03375724
000360 b7 22 ee 3c 12 ef 98 bc 81 a6 ac bd d7 2d c4 3a
       0.029069288 -0.018668685 -0.084301956 0.0014967275
000370 d0 f7 32 bc b8 d1 40 3d 7b 96 9b 3c 58 7d 9f 3c
       -0.010923341 0.047075003 0.018992653 0.019468948
000380 46 69 14 3d 17 5d 5c 3d 6a ba a4 bd 7c b4 b0 bc
       0.03623321 0.053799715 -0.08043368 -0.021570437
000390 63 82 d5 ba a1 46 de 3c 67 b7 e9 bb 17 c1 27 bd
       -0.0016289469 0.027133288 -0.007132459 -0.04095563
0003a0 ce 04 74 3d 02 0d 56 3c d9 43 c4 3c 88 af e3 3c
       0.059574895 0.013064625 0.023958134 0.02779366
0003b0 d9 9a 1b bd ff d9 1f 3d 11 a1 87 3c e6 48 84 bd
       -0.03798947 0.039026257 0.016556295 -0.06459217
0003c0 be 19 d7 bb f6 8f a3 bc 66 e1 4f 3d bb 05 3a 3d
       -0.006564348 -0.019966107 0.050752066 0.04541562
0003d0 47 44 7f bc 30 23 bc bc 3b e8 b1 3c e9 2b a5 3d
       -0.015580243 -0.022965997 0.021717181 0.08065016
0003e0 83 e6 8b 3c da 24 c5 3b af 1d a9 bd 94 3f 63 bd
       0.01707769 0.006016356 -0.08257615 -0.055480555
0003f0 3e d1 96 3d 21 81 b6 3c 11 f5 0b bc 73 dc d7 3d
       0.073641285 0.02227837 -0.008542315 0.10540094

Generator.conv3.conv2.0.weight f4 [8, 8, 3, 3, 3]
000000 d1 01 b6 bd 61 5e 36 3b c6 35 22 bc 8b d0 70 bd
       -0.08887065 0.002782725 -0.009900516 -0.058792632
000010 d4 ff 01 3d 82 9d 6f bc 38 62 92 bd 2f e9 2e bb
       0.031738117 -0.014624955 -0.0714764 -0.0026689281
000020 c0 92 03 bd 6b 80 55 bd 8a e5 7f bd b5 d0 ba 3c
       -0.032122374 -0.052124422 -0.062474765 0.022804597
000030 47 77 a6 3c 97 0d 09 3d b6 16 09 bd c7 6d 3a bd
       0.020320548 0.033460226 -0.033468924 -0.045514848
000040 a5 97 01 3d cd 27 34 bd 18 f2 25 bd 5a f4 13 bd
       0.03163876 -0.04398327 -0.04051408 -0.036121704
000050 0a bc 8d bd 0f 64 0a 3d cb c6 15 3d 6c b4 fb 3c
       -0.06920631 0.03378683 0.036566537 0.03072568
000060 10 4d be bc f5 37 9f 3d 4b eb c6 3a a6 c9 b6 bd
       -0.023230106 0.07774345 0.0015176324 -0.0892518
000070 c9 6f b3 bd c6 19 2b bd 84 d7 83 bb 5f 36 95 bd
       -0.08761556 -0.041772626 -0.004023494 -0.07285761
000080 a1 a9 b0 bd df e4 88 3d aa 81 07 bd 40 d7 1f 3c
       -0.08626104 0.06684279 -0.03308264 0.009755909
000090 85 7f ab 3c bb e6 2c bb 16 a1 11 3d 5a e4 7e bd
       0.02093483 -0.0026382643 0.035554014 -0.06222949
0000a0 7e 18 9d bc 7d db 2e 3d c4 8a b9 3d 92 51 02 bd
       -0.019176718 0.04268979 0.090596706 -0.031816073
0000b0 51 2e 2f bd b4 a3 33 3d cd 50 10 3c c3 3d 7a bd
       -0.04276878 0.04385729 0.008808327 -0.061094057
0000c0 8c 9f 54 bb 38 a9 15 bc 6c e2 47 bd 86 78 79 3d
       -0.003244373 -0.009134583 -0.048799917 0.060905956
0000d0 96 47 28 bd 7a 7e 32 3b 81 4f 14 bd 5f 67 c8 3d
       -0.041083895 0.002723603 -0.036208633 0.097853415
0000e0 5a c0 30 bd af 52 e6 bb 40 71 a4 3c 77 66 0a 3b
       -0.04315219 -0.0070288996 0.020073533 0.0021118203
0000f0 27 dd 90 bd 0b d0 94 bd 3f 61 4d 3d 91 e1 5a 3d
       -0.070734315 -0.072662435 0.05014157 0.053437773
000100 88 42 72 3c 65 7d 18 3d 56 00 4d 3d b9 40 ca 3d
       0.01478637 0.03722896 0.05004915 0.09875626
000110 e5 bc 9c bd 4f c7 c4 bd d3 f9 15 3d 13 ab 2e bd
       -0.07653216 -0.096083276 0.036615204 -0.042643618
000120 17 77 4d 3c 76 2d 14 3e 23 c1 e4 3b 1e 4e a8 3c
       0.0125406 0.14470467 0.0069810315 0.020545062
000130 b1 ca 09 3e ea 6d 2a bd 4a ea 9e bd d0 f3 c9 bd
       0.13456227 -0.04160873 -0.07759531 -0.09860957
000140 20 7a be b9 ce 8f b3 3b 3d 91 08 3d 09 72 22 bd
       -0.00036330614 0.0054797893 0.033341635 -0.039659534
000150 8d 6a 04 bd bb 4f 95 bd f8 a2 33 3b dc ba 8c bc
       -0.032328177 -0.07290598 0.002741037 -0.017178945
000160 16 a2 82 bd 22 d8 d3 3c 5f 50 10 3c 05 f1 d2 bb
       -0.06378572 0.025859896 0.008808224 -0.006437423
000170 4d 56 9a 3b 5a 06 56 bd 6d f0 d5 bd bd d1 8b 3c
       0.004709995 -0.05225215 -0.10446248 0.017067784
000180 85 02 1b 3c 57 6b 80 bd 56 f9 fb 3c 14 66 89 b9
       0.00946105 -0.062704735 0.030758541 -0.0002620673
000190 e3 ea 58 bd b1 56 1d 3d 9e 28 14 3d c7 83 7e bd
       -0.05295838 0.038412753 0.036171548 -0.06213739
0001a0 c1 4f 17 bd 42 c0 9b ba 6f 9e c0 bc 53 c3 b7 3b
       -0.036941294 -0.0011882859 -0.023513047 0.0056080013
0001b0 69 1f 41 bd de f5 16 3a 3d 1d a5 bc 24 5b 78 3d
       -0.047149096 0.0005758683 -0.020155543 0.060633793
0001c0 18 b2 f6 bc 49 37 8c bd 59 0d a6 bd 4e d6 f9 3c
       -0.030114219 -0.06846482 -0.081080146 0.030497696
0001d0 f6 07 63 3c 52 18 49 3c d9 1b 80 bd 97 ba f3 3c
       0.0138568785 0.012273865 -0.062553115 0.029752059
0001e0 00 c6 94 3d 81 88 ad 3b 30 d3 87 bc b2 ff 70 bd
       0.07264328 0.0052958135 -0.016580194 -0.0588376
0001f0 a9 4d 85 3b e5 75 e6 bb 63 1e b1 bd c4 42 4d bd
       0.0040680957 -0.007033097 -0.08648374 -0.0501125
000200 a6 b6 7b bd 7e 28 8a 3d d2 4b 34 3b 62 38 2c bd
       -0.061453484 0.067460045 0.0027511013 -0.04204596
000210 07 72 a3 bc f5 62 1f bd 87 6e 54 bd e8 17 35 3c
       -0.019951833 -0.038912732 -0.05186322 0.011053063
000220 09 70 20 3c ef 34 81 bc 60 59 a9 bc 60 8e 12 3d
       0.009792336 -0.015772311 -0.0206725 0.03578031
000230 3e 55 60 bd 66 48 31 3c 09 a0 a6 bd de 5b ea 3c
       -0.054768793 0.010820484 -0.08135993 0.028608259
000240 f9 be 11 bd 0c 51 91 bc 42 9a 6c 3d 76 58 bc 3c
       -0.035582516 -0.017738841 0.0577643 0.0229914
000250 93 bb aa 3c 21 ae 85 3a 97 c9 ad 3c b3 49 d9 bc
       0.020841395 0.0010198989 0.02121429 -0.0265244
000260 47 34 2e 3d ed 6a be bb 59 58 7d 3d a3 19 bc bb
       0.042530324 -0.0058110864 0.061851833 -0.005740361
000270 fc a8 96 3d 6e 5e 82 3c f7 d1 11 3c b4 23 b9 bc
       0.0735645 0.015914168 0.008900157 -0.022600032
000280 6d 0d 8e bd 88 2d 46 bd 9c 63 87 3d 40 2f 5d 3b
       -0.069361545 -0.048383266 0.06610796 0.0033750087
000290 6f 1e 9f 3c 5b d3 8e 3c cb d0 db 3c 3a a2 e7 3c
       0.019423692 0.017434767 0.026832959 0.028275598
0002a0 28 18 b5 3c 64 c4 bf bd c0 81 d3 bd 48 57 01 bd
       0.022106245 -0.093636304 -0.10327482 -0.03157738
0002b0 79 b7 5c bc f9 ff b9 39 68 8b 5f bd a2 b4 b2 bc
       -0.013471478 0.00035476664 -0.054576308 -0.021814648
0002c0 f2 7f 30 3d 6b 15 24 bc e4 45 6b 3d 34 48 0d bd
       0.04309077 -0.010014872 0.0574397 -0.034492686
0002d0 dd b5 42 bd ff c7 66 bd 5b 0f 67 3d dd b6 4d bd
       -0.04753672 -0.056343075 0.05641113 -0.05022322
0002e0 31 a4 60 bc 9c 09 cd 3d 22 7e 3d bd d5 e7 e1 3c
       -0.013711021 0.100115985 -0.046262868 0.027576366
0002f0 9b 87 01 bd ff 05 3d bd 4b 63 45 bb f6 45 77 bc
       -0.031623464 -0.046148296 -0.0030118998 -0.015092364
000300 6a 06 cd bc 36 0c 84 bb c5 9f 2a 3c 0c 2c 60 3c
       -0.025027473 -0.004029776 0.010414069 0.013682377
000310 af 5f f0 3c 5c 53 a1 3d c8 e2 ca 3d f5 c4 37 bb
       0.0293425 0.07877228 0.09906536 -0.002804098
000320 77 27 b0 ba fa f9 eb 3c 3c 5a a1 3c 7e a8 e0 bc
       -0.0013439496 0.028805722 0.019696347 -0.027424093
000330 0c 0e 91 bc dc 3b c9 3d a0 0c 91 bc 35 66 0b 3d
       -0.017706893 0.098258704 -0.017706215 0.03403302
000340 d1 33 ca bd db 8e 2c bd 64 00 a7 3d d1 a5 04 bc
       -0.098731644 -0.042128425 0.081543714 -0.008096174
000350 bb fe 93 bc f2 d6 8f 3d f1 b8 f8 3d 79 4c e2 bc
       -0.0180658 0.070234194 0.1214465 -0.027624356
000360 bb 7c 30 3d 65 87 f7 bb 56 94 15 bd 04 d2 b2 3b
       0.043087702 -0.007553982 -0.036518417 0.0054571647
000370 ac f2 cd bd af 81 38 be 5b 8d a3 3d 58 8d ca 3d
       -0.100560516 -0.1801822 0.07985946 0.098902404
000380 2d 67 1e be 6b 8a be 3c e6 b9 6f bd df 87 b2 bc
       -0.15469046 0.023259362 -0.058526896 -0.021793304
000390 5f 7d cb ba ed a3 ae 3c fa c7 08 be 0c f6 e6 3d
       -0.0015525034 0.0213184 -0.13357535 0.112773985
0003a0 e4 26 95 3d 29 11 ad bd f6 3e 06 3b 1b b0 25 3d
       0.072828084 -0.08450539 0.0020484305 0.04045115
0003b0 b8 dc 63 3d 5e 40 31 3d 83 05 ce bc cc fc 30 3b
       0.055630416 0.043274276 -0.025149113 0.0027006147
0003c0 dc 9f 35 3d 3b c9 12 bd da b6 8e bd 3f 28 e8 3c
       0.044341907 -0.03583644 -0.0696847 0.028339503
0003d0 8a 7e ff 3c c8 3e c1 bc 95 dd 98 3c de 82 d8 3d
       0.031188268 -0.023589507 0.018660346 0.10571836
0003e0 5c 59 11 3d f6 05 6d bd 8a 78 af bc 53 0c 78 3d
       0.03548561 -0.057867013 -0.021419782 0.06055863
0003f0 cd c8 fe bb 8b 5d 75 3d e1 73 02 bd 20 38 9c 3d
       -0.007775402 0.059903663 -0.031848792 0.076278925

Generator.conv4.conv1.0.weight f4 [8, 8, 3, 3, 3]
000000 cf 3d e9 bc 1c 17 8d 3b eb 8a b8 3b 08 82 f4 3c
       -0.028471855 0.0043057334 0.0056317947 0.02984716
000010 60 4f a8 bc 4c 1f 3c 3c 03 33 0b bd 4c 61 3f bc
       -0.020545661 0.011482071 -0.033984195 -0.011680912
000020 f8 bb 63 bd 20 2c 84 bd 08 60 50 bc ca 19 b7 bd
       -0.055599183 -0.06453729 -0.012718208 -0.08940466
000030 ba c7 77 bd 2c 81 39 3d d5 e0 9d 3b e1 54 8b 3d
       -0.06049321 0.045289204 0.004818062 0.06803299
000040 38 25 15 3c eb 05 da 3c 8a 1b ad bc 3b 5d 15 3c
       0.009103112 0.02661415 -0.021131296 0.009116466
000050 a2 31 10 3d 67 23 01 3d 88 92 d1 bc 82 81 72 3d
       0.035203584 0.031527903 -0.025582567 0.05920554
000060 69 ad 53 bd 2d c0 a7 bb 5a eb aa bc f4 fe 67 3c
       -0.05167905 -0.0051193447 -0.020864177 0.014159907
000070 9d d4 00 bd d2 2e 42 3d b1 1d 31 bd 72 55 7c 3c
       -0.031452764 0.047407933 -0.043241207 0.015401231
000080 0d 74 6b 3c 59 07 48 3c 31 62 94 3d 46 c0 a3 bd
       0.01437093 0.012208783 0.07245291 -0.079956576
000090 93 ce b6 3c e4 e4 de 3c b9 f6 37 bd dd a0 c0 bc
       0.0223153 0.027208753 -0.044913027 -0.023514206
0000a0 6c 8d 3b bd a4 59 88 bd 62 8d d9 bc db c4 64 3c
       -0.045789167 -0.066577226 -0.026556674 0.01396295
0000b0 c0 e4 db 3c af fb a7 3b 11 10 73 3d 85 dd 51 3d
       0.026842475 0.0051264386 0.059341494 0.051236648
0000c0 8e 66 a4 bb 27 30 bf 3b 52 97 50 3d 92 b2 89 3c
       -0.0050171083 0.0058345976 0.05092556 0.016808782
0000d0 60 ce 8a 3d 26 ba 8a 3d c1 30 80 bc 28 16 81 bc
       0.06777644 0.06773786 -0.015648248 -0.015757635
0000e0 e8 ea 3d bd 70 11 18 3c 1a 93 78 3c 33 10 af bd
       -0.046366602 0.009281501 0.0151717905 -0.08548012
0000f0 03 2f 94 3d 0e dd 49 3c 8c 16 67 bd b5 9f dd 3c
       0.07235529 0.01232077 -0.056417987 0.027053693
000100 4c ee b5 bd b2 2e 3f bc 80 4e 1f 3d 20 a9 2b bc
       -0.08883342 -0.011668848 0.038893223 -0.010477334
000110 51 87 ee 3b ae 01 4d bb 36 ff 95 3d ec 07 36 bd
       0.0072793146 -0.0031281519 0.07324068 -0.04444115
000120 73 b6 f7 3c 44 bd 5a 3c 6e 75 c4 3b d0 8f 0f 3d
       0.030238366 0.0133507885 0.005995444 0.03504926
000130 08 d3 88 bd 27 85 07 3d 30 64 8c 3c fb 51 c1 bc
       -0.06680876 0.03308597 0.017137617 -0.023598662
000140 f9 27 75 3c 2e b9 16 3d 1e 36 aa bc ee 65 2c bc
       0.0149631435 0.036797695 -0.020777758 -0.010522349
000150 a7 66 06 3d 00 05 47 bc 4a 8f 80 bc 74 6a 2e 3d
       0.03281274 -0.012147188 -0.015693326 0.04258199
000160 95 75 83 3a 89 58 6a 3d 9f dd f6 ba f9 a3 c1 bc
       0.0010029549 0.05721334 -0.0018834359 -0.023637759
000170 66 52 6e bc dc ee 1e 3d 3d cd 91 bd 44 f2 25 3d
       -0.0145460125 0.038802013 -0.07119224 0.040514246
000180 6d 0b 36 3d 51 74 80 3d 68 8c 7f 3d c7 24 8e bd
       0.04444449 0.062721856 0.06238976 -0.069406085
000190 a2 ff 19 bd f6 d3 c6 bc 04 07 9c 3c 42 7f 71 3d
       -0.037597306 -0.024270993 0.019046314 0.058959253
0001a0 ab bc e5 bb 05 a4 6e 3d 96 6a 64 3c 22 58 06 3d
       -0.0070110164 0.05826189 0.013941428 0.032798894
0001b0 b7 62 c2 bb 57 eb 8f 3c c3 83 8a bc 12 61 a6 3c
       -0.005932178 0.017568273 -0.016908532 0.020309959
0001c0 ad ca 8d bb 11 18 cf 3c c3 16 17 bb ef 53 50 3d
       -0.0043271394 0.02528003 -0.0023054339 0.050861295
0001d0 86 dc a3 bc 2d 87 eb b9 95 40 5a bd e2 ee c2 bb
       -0.020002615 -0.00044923407 -0.053284246 -0.005948887
0001e0 f3 02 67 bd 3c 47 5e bd 61 5e d6 bc 31 4a ff 3c
       -0.056399297 -0.054267153 -0.02616805 0.031163307
0001f0 11 17 af 3d 95 6b c5 bc 39 09 28 3d 3e ee 7d 3c
       0.085493214 -0.02409915 0.04102442 0.015498696
000200 10 80 0d 3b 28 83 62 bc 19 1e 47 bd 7e 8a 73 3d
       0.0021591224 -0.013825215 -0.048612688 0.05945825
000210 dd 13 39 3d ef 55 35 3d 9c 8c ac 3d f7 80 23 bd
       0.04518496 0.044271406 0.084252566 -0.039917912
000220 8c 99 71 bd 45 da 94 bc 76 71 99 3c c0 25 98 bc
       -0.058984324 -0.018170485 0.01873086 -0.018572688
000230 8e e8 95 bd 3f e7 7c 3d 1f bb 6c 3d d1 c5 ab bd
       -0.07319747 0.06174397 0.05779564 -0.0838734
000240 4b 83 0f 3d 28 1e b7 bd 2d 00 92 bc 34 46 b0 3c
       0.03503732 -0.08941299 -0.01782235 0.02151785
000250 fe 7f 89 bd cf 87 86 bc ff 85 56 3d 2d e0 d3 3c
       -0.06713866 -0.01642218 0.052373882 0.025863731
000260 99 5e 51 bc 2c 40 76 3c 59 14 53 bd 46 a6 88 bd
       -0.0127789015 0.015029948 -0.051533077 -0.06672339
000270 61 1b c1 3c 08 84 3a bd 01 62 87 bc 4c b2 86 3b
       0.023572626 -0.04553607 -0.016526224 0.00411061
000280 e7 dc 0d bd a6 e6 55 3d 65 e7 a6 3c 41 70 04 bc
       -0.034634497 0.052221917 0.02037401 -0.008083404
000290 64 e6 f2 bc 25 2f 2a bc 32 b6 5d 3d 25 b3 75 3c
       -0.029650874 -0.010387217 0.054128833 0.014996325
0002a0 6b 4d 4a bd 7f 24 c5 bb 09 a7 9f 3c fc 58 74 bd
       -0.049390238 -0.0060163136 0.019488828 -0.059655175
0002b0 3f de 0f bd 00 a8 9d 3c 24 db e6 3c d7 49 80 bd
       -0.03512406 0.019245148 0.028180666 -0.06264084
0002c0 31 6c 85 bd 61 dc 38 3d 93 9f 84 3c af 25 01 bd
       -0.065147765 0.045132045 0.016189372 -0.03153008
0002d0 4b 5c 6e 3c 60 6b 14 bc 8c 8f 6c 3b fd 96 a4 bd
       0.014548372 -0.009058803 0.0036096303 -0.08036611
0002e0 4d 55 53 3d 12 1d 68 3c b7 c9 a7 bb de 79 c7 3a
       0.05159502 0.014167087 -0.005120482 0.0015218814
0002f0 3c a1 09 3d 5e 65 2d bd b2 4d 04 bd 8c 98 92 bd
       0.03360103 -0.042333 -0.03230066 -0.07158002
000300 ea 89 b1 bc 5c 4a 29 3d b9 cd 6c bc d3 0e 49 bd
       -0.021672208 0.04133068 -0.014453345 -0.049086403
000310 a9 5e 21 bd 4c 75 96 bc b3 93 16 3d 3c 20 ae bd
       -0.039396916 -0.018366478 0.03676195 -0.08502242
000320 5d b0 09 bd 9b 47 ea 3c 42 d8 6d bd d6 c8 7d bd
       -0.03361546 0.028598597 -0.058067568 -0.06195911
000330 20 c8 77 bc 86 a8 96 3d 4e b3 77 bd 9f 4e 4a bd
       -0.015123397 0.07356362 -0.060473733 -0.049391385
000340 94 c3 25 3d d2 4b a5 bc a2 96 70 3b 90 92 0f bd
       0.04046972 -0.020177756 0.0036710878 -0.035051882
000350 59 c8 7a bc f7 07 84 3d b3 bc a4 3d 75 3d 73 3c
       -0.015306556 0.06446832 0.08043804 0.0148461955
000360 e6 e4 c9 ba 7e f7 71 3d 80 78 15 3d 74 8b 51 3c
       -0.00154033 0.059073918 0.03649187 0.012789596
000370 fa 46 2a bc b3 de eb 3c 2f f2 39 bd e8 bf d9 bc
       -0.010392899 0.028792715 -0.04539698 -0.026580766
000380 6e 59 0c 3c 42 cf 98 3d 77 aa 4f 3d 4a fb 9e bc
       0.008566244 0.07461406 0.050699677 -0.019406933
000390 a2 77 4b bd 9c d9 c0 3b 2b f5 64 bc 24 7a 2f bc
       -0.049674638 0.005885316 -0.013974468 -0.010710273
0003a0 05 68 d6 bc ef 71 1f bd 56 51 00 bd 27 be fe bc
       -0.026172647 -0.038927015 -0.031327568 -0.031096531
0003b0 95 27 d9 bb 1b 20 24 bb 1f ce 31 3d 0d 9f 6f 3a
       -0.006627033 -0.002504355 0.043409463 0.0009140827
0003c0 46 32 f8 3c 30 22 43 3d a4 98 80 bc fb e5 1f bd
       0.03029741 0.047640026 -0.015697785 -0.039037686
0003d0 0d f8 72 bb 68 da d2 bc 12 bd 7b bd 65 94 df 3c
       -0.003707412 -0.02573891 -0.06145961 0.02729244
0003e0 99 88 69 bb 85 5c 7c 3c 11 b7 47 bd 7c 3b 9f bc
       -0.0035634397 0.015402918 -0.04875857 -0.019437544
0003f0 b6 61 f2 3c f5 a9 80 3d 85 dc 80 3d 74 9e 59 ba
       0.029587608 0.06282417 0.06292061 -0.00083015044
