DeepWonder3D_pytorch/pth/SEG_pth/Unet4_no_end_UNet3DFFD_20240401-1432_2um/seg_284.pth (torch, 138281 bytes, 19 tensors)

Generator.conv1.conv1.0.weight f4 [8, 1, 3, 3, 3]
0	0x3df2107e	0.11819552
1	0x3dcc376d	0.09971509
2	0xbd6e2d58	-0.058148712
3	0x3e12aa91	0.14322878
4	0xbdf71cc7	-0.12066036
5	0xbe0158be	-0.12631509
6	0xbabba059	-0.0014314755
7	0xbb32ff93	-0.0027312979
8	0x3dbf5db5	0.09344045
9	0x3d45c8dc	0.048287258
10	0xbe1f766f	-0.15572523
11	0x3db2b32b	0.0872558
12	0x3e08e15e	0.13367221
13	0x3ddfb81a	0.109237865
14	0x3d0357cf	0.032066163
15	0xbe3dfb1b	-0.1855282
16	0x3db4fdf1	0.08837498
17	0xbe557212	-0.20844296
18	0xbdd775d1	-0.105205186
19	0xbde8a8ce	-0.11360322
20	0xbd7a09c4	-0.06104447
21	0x3d0084aa	0.03137652
22	0xbd57be81	-0.052671913
23	0x3d66734a	0.056262292
24	0xbe56b71f	-0.20968293
25	0x3d2f1231	0.042741958
26	0x3e34670f	0.17617439
27	0x3e258c82	0.1616688
28	0x3e25f6e1	0.16207458
29	0x3ca39ba8	0.019971684
30	0x3daad04e	0.08340512
31	0xbe086822	-0.13320974
32	0xbe3b5a92	-0.18296269
33	0x3e02358f	0.12715743
34	0x3c6d31a7	0.01447717
35	0xbdb4b925	-0.08824376
36	0xbde47e86	-0.11156945
37	0x3e257d13	0.16160993
38	0xbd274f64	-0.040847197
39	0xbe06362e	-0.13106605
40	0xbd9c6075	-0.07635585
41	0x3c0bba49	0.008528301
42	0xbe4f4514	-0.20241195
43	0xbe5db6eb	-0.21651809
44	0xbcb0f9f7	-0.021603568
45	0x3e01f09b	0.1268944
46	0x3d2820eb	0.041047018
47	0x3e59aeba	0.21258059
48	0x3e31ce74	0.17363912
49	0xbdac7ccb	-0.0842224
50	0x3e26c244	0.16285044
51	0x3db24c48	0.08705956
52	0xbe04aebc	-0.12957281
53	0xbda379de	-0.07982229
54	0x3d830a21	0.06398416
55	0xbd28e441	-0.041233305
56	0xbdf6da69	-0.12053377
57	0x3ce6a326	0.028153967
58	0x3dced21d	0.1009867
59	0xbbc766ff	-0.006085276
60	0xbe231d48	-0.15929139
61	0xbde4d668	-0.11173707
62	0xbd6c8619	-0.057745073
63	0x3d0827d0	0.033241093
64	0x3dbc2be1	0.09188057
65	0x3c509e3d	0.012733039
66	0xbd3b2a12	-0.04569442
67	0x3d182a66	0.03714981
68	0x3d8fa836	0.070145056
69	0x3d899c7a	0.06719299
70	0x3c3e20f8	0.01160454
71	0x3c88ec96	0.016714375
72	0xbe1a21ea	-0.15052
73	0x3d52a69a	0.051428415
74	0x3d5ed8ff	0.054406162
75	0x3bf1fd8b	0.007384961
76	0xbd6ce6d2	-0.057837315
77	0x3dd1fd3d	0.102533795
78	0xbee30b71	-0.44344667
79	0xba7d0eb8	-0.00096533773
80	0xbe872c05	-0.26400772
81	0xbdbaee5a	-0.09127493
82	0xbe19b7bb	-0.15011494
83	0x3e1f18c7	0.15536796
84	0xbe4adf5c	-0.19811767
85	0xbd96f976	-0.073718
86	0xbcb9f166	-0.022698116
87	0x3da4a4f5	0.080392756
88	0xbdeadefe	-0.11468314
89	0x3d606a22	0.054788716
90	0xbe5429ee	-0.2071912
91	0xbd764db1	-0.060132686
92	0x3cd0ef34	0.025504686
93	0x3dd09904	0.101854354
94	0xbe4b9587	-0.19881259
95	0xbe286233	-0.1644371
96	0xbd16389d	-0.036675084
97	0x3dffa49c	0.124825686
98	0x3db20c47	0.08693748
99	0xbd60e864	-0.054909125
100	0x3d7e6a62	0.062113173
101	0x3db7c86b	0.089737736
102	0xbd842809	-0.064529486
103	0x3d6ce897	0.057839002
104	0x3d9f6248	0.077824175
105	0x3c7cb867	0.015424824
106	0xbe2770bb	-0.16351597
107	0xbe63da21	-0.22251178
108	0x3e340717	0.1758083
109	0xbe2a514b	-0.16632573
110	0xbd349342	-0.04408575
111	0xbe059fee	-0.1304929
112	0xbd1fee04	-0.03904535
113	0x3c66b8b6	0.014082124
114	0xbd204a72	-0.039133497
115	0x3d6eca40	0.05829835
116	0x3d3d2835	0.046180923
117	0xbb500a2a	-0.003174434
118	0x3da605e2	0.08106591
119	0xbe43b901	-0.19113542
120	0xbd5d5667	-0.054037478
121	0xbd31cd6d	-0.0434088
122	0x3a5836eb	0.00082479295
123	0x3de746ab	0.11292776
124	0x3c8c8478	0.01715301
125	0x3e0389c8	0.12845528
126	0xbe47de91	-0.19518496
127	0x3d73ff33	0.05956955
128	0x3dc971f8	0.09836191
129	0x3dcb5fda	0.099303916
130	0x3d0be6f8	0.034155816
131	0xbdd46f62	-0.10372807
132	0xbe1ea5f4	-0.15492994
133	0xbdaba48e	-0.08380996
134	0x3dd8c3f7	0.10584252
135	0x3d0a9c82	0.033840664
136	0xbdeb3074	-0.11483851
137	0x3ded588a	0.11589153
138	0x3dd7cf87	0.105376296
139	0xbd995dc3	-0.07488587
140	0xbe06241f	-0.13099717
141	0xbe3f6cb3	-0.18693809
142	0x3e399d70	0.18126464
143	0x3cc24b1f	0.023717461
144	0xbdb9099c	-0.09035036
145	0xbe472c07	-0.19450389
146	0x3d66a1a6	0.056306504
147	0x3db96e21	0.090542085
148	0xbe3212ad	-0.17389937
149	0xbe5aaa36	-0.21353993
150	0xbd9e84f6	-0.07740204
151	0x3d9cc360	0.07654452
152	0x3e1ddae7	0.15415536
153	0xbd0c61d3	-0.03427298
154	0xbd24d227	-0.04023948
155	0x3df22296	0.11823003
156	0x3cc0da22	0.023541514
157	0x3e2e2ddc	0.17009681
158	0xbda28c2b	-0.07936891
159	0x3b32ff2d	0.002731274
160	0xbd0f6856	-0.035011612
161	0x3e545c1e	0.20738265
162	0xbe638a74	-0.22220784
163	0x3e229c5c	0.15879959
164	0xbda2e12d	-0.07953105
165	0x3dadbdd9	0.08483476
166	0x3bc35484	0.005961003
167	0xbd29c30e	-0.041445784
168	0x3ced1405	0.02894021
169	0xbca32ebe	-0.01991975
170	0x3d84ddc7	0.06487613
171	0x3d5e83a0	0.054324746
172	0xbd8c78ca	-0.06858976
173	0x3e6a611a	0.22888604
174	0xbe5338e4	-0.20627171
175	0xbda33f1e	-0.07971023
176	0x3d02890b	0.031868976
177	0xbd7ab3e2	-0.061206706
178	0x3df31d2f	0.11870801
179	0x3d4c9440	0.04994607
180	0xbd9aaa65	-0.075520314
181	0xbd566baf	-0.05234879
182	0x3ddb3cfb	0.107049905
183	0xbe1551f4	-0.14582044
184	0x3d5e13e0	0.054218173
185	0x3ddf57d5	0.109054245
186	0xbe086504	-0.13319784
187	0xbbc1a341	-0.005909354
188	0x3e26a6a9	0.16274513
189	0xbd52c148	-0.05145386
190	0x3e026595	0.12734063
191	0x3bd0df1f	0.0063742544
192	0x3d1f2c1e	0.038860433
193	0x3de0f00e	0.10983287
194	0xbe5cb43c	-0.21553129
195	0xbd939ff1	-0.07208241
196	0x3bf8f07e	0.0075970283
197	0x3df4f8fc	0.119615525
198	0xbd0ec182	-0.034852512
199	0xbd944b15	-0.07240883
200	0xbd5e5ef7	-0.054289784
201	0xbe51df71	-0.20495392
202	0x3e172079	0.14758481
203	0xbdbf922c	-0.09354052
204	0xbdb4ce72	-0.08828439
205	0x3e3948fe	0.1809425
206	0x3ce2c703	0.027682787
207	0xbdcad592	-0.099040166
208	0xbce68a8c	-0.028142236
209	0xbc8f1d7c	-0.017470114
210	0xbe7c95f4	-0.24666578
211	0x3dd44ab2	0.103658095
212	0xbddb9faa	-0.10723813
213	0xbe5cded0	-0.21569371
214	0xbd96ab23	-0.073568605
215	0x3dd91296	0.10599248

Generator.conv1.conv2.0.weight f4 [8, 8, 3, 3, 3]
0	0x3e20008a	0.15625206
1	0x3d511406	0.051044486
2	0x3d41fdb7	0.047361102
3	0x3c18d01d	0.009326962
4	0xbd5f1af9	-0.054469083
5	0x3d82b220	0.06381631
6	0x3e33544f	0.1751263
7	0x3e153122	0.14569524
8	0x3e99aa7e	0.30012888
9	0x3caaa0fc	0.020828716
10	0x3c9e5688	0.01932837
11	0x3d6ed6a1	0.058310155
12	0x3d45c2c0	0.04828143
13	0x3dcec14c	0.10095462
14	0x3c9eaab7	0.019368513
15	0x3d7f976d	0.06240027
16	0xbc942b75	-0.018087128
17	0x3e10dfc2	0.14147857
18	0x3d3b0f6a	0.045668997
19	0x3e36646c	0.17811745
20	0x3e21f860	0.15817404
21	0x3e150288	0.14551747
22	0x3e41e426	0.18934688
23	0x3e31c817	0.17361484
24	0x3dfb03e9	0.12256605
25	0x3e184e09	0.14873518
26	0x3e3075b7	0.17232405
27	0xbe116900	-0.1420021
28	0xbcf56f03	-0.029960161
29	0xbe652218	-0.22376287
30	0xbda5b9ce	-0.0809208
31	0xbceaea61	-0.028676214
32	0xbe91577a	-0.28387052
33	0xbcca7717	-0.02471499
34	0x3da72c5e	0.08162759
35	0xbda81dbd	-0.08208797
36	0xbde3e80a	-0.11128242
37	0x3e42c12b	0.19019
38	0xbe7c3535	-0.24629672
39	0xbdaff817	-0.08592241
40	0x3e005756	0.12533316
41	0xbf065f33	-0.5248901
42	0xbd666907	-0.056252506
43	0x3d955738	0.07292026
44	0x3cb3f4d0	0.021967322
45	0x3d6cb115	0.057786066
46	0x3e6e5189	0.2327329
47	0xbead78ae	-0.33881134
48	0xbd9c8c61	-0.07643963
49	0x3e0b8ba1	0.13627483
50	0xbf014ece	-0.5051087
51	0xbdcc33ae	-0.099707946
52	0x3cc032d7	0.023461742
53	0x3c18f7be	0.00933641
54	0x3dc8540c	0.09781656
55	0x3cb52077	0.022110207
56	0x3cf02ce7	0.029318286
57	0xbca8d2d4	-0.020608343
58	0xbd9cfda3	-0.07665565
59	0xbcb71a02	-0.022351269
60	0x3d6fa9d6	0.058511578
61	0x3ca1b9a6	0.019741844
62	0xbd20663e	-0.039160006
63	0x3e5e89a3	0.21732192
64	0xbc5e171f	-0.013555317
65	0x3d66ccce	0.05634766
66	0x3ca225a6	0.019793343
67	0x3c3c0a48	0.011477061
68	0x3e33232a	0.17493883
69	0x3dfb88b8	0.122819364
70	0x3d2d58c1	0.04232097
71	0x3d57e687	0.052710082
72	0x3e12c63a	0.1433343
73	0x3d9afcc8	0.075677454
74	0x3decd3e0	0.115638494
75	0xbdc51cd6	-0.09624641
76	0x3b2c9f75	0.002634016
77	0x3d6f5676	0.058432065
78	0x3db95362	0.09049107
79	0x3dc522ee	0.09625803
80	0x3d722120	0.05911362
81	0xbcc456e0	-0.023967206
82	0x3d7d5945	0.061852712
83	0x3d29fb17	0.041499224
84	0x3e0f62ac	0.14002484
85	0x3b066373	0.0020506054
86	0xbbce29ae	-0.0062915897
87	0x3c055b53	0.008139449
88	0xbd2352c0	-0.03987384
89	0x3c0ed01f	0.008716612
90	0x3caa7a81	0.020810368
91	0x3c91c85e	0.017795738
92	0x3d2e9a32	0.04262752
93	0xbd3a9e30	-0.045561016
94	0x3c726079	0.014793509
95	0x3d6b216c	0.05740492
96	0xbd0f1cb8	-0.034939498
97	0x3cbeba8b	0.02328231
98	0x3ce5e790	0.02806452
99	0x3d88c6aa	0.06678517
100	0xbd3d7e0a	-0.04626278
101	0xbd472c4e	-0.048626237
102	0xbbfe46a6	-0.007759887
103	0x3d1c67c2	0.03818489
104	0x3d554155	0.05206426
105	0x3cf8044f	0.030275492
106	0x3d1d684e	0.03842955
107	0x3c9cf885	0.019161472
108	0xbdbb17eb	-0.09135421
109	0xbe6596d6	-0.2242082
110	0xbe3faf4d	-0.18719216
111	0xbd477bc2	-0.04870201
112	0xbaa49b59	-0.0012558504
113	0xbe0a070e	-0.13479254
114	0x3a7a2389	0.00095420383
115	0x3b96f315	0.0046066144
116	0x3d71973b	0.058982115
117	0xbd7b5acc	-0.061365888
118	0x3d0eaea1	0.034834508
119	0x3e046f96	0.12933192
120	0xbcfec231	-0.031098457
121	0x3d1a28d7	0.037636604
122	0x3d8e1aac	0.06938681
123	0xbd913284	-0.07089713
124	0x3dfa57fd	0.12223814
125	0x3dece856	0.11567752
126	0xbdb0a09f	-0.08624386
127	0x3e5af253	0.21381502
128	0x3e275729	0.16341843
129	0xbc9ac243	-0.01889146
130	0x3e591a3c	0.21201414
131	0x3d50fc69	0.051021967
132	0xbe57a2e1	-0.21058227
133	0x3e45d8df	0.19321011
134	0x3db2efdc	0.08737156
135	0xbc23d8f1	-0.010000453
136	0x3e684d2b	0.22685687
137	0x3dc61752	0.09672417
138	0xbd899a2c	-0.06718859
139	0x3d6f4511	0.058415476
140	0xbd8a2cb4	-0.06746808
141	0x3c797a6a	0.01522694
142	0xbe156452	-0.1458905
143	0xbd3b1742	-0.045676477
144	0xbe42476d	-0.1897256
145	0x3e56b876	0.20968804
146	0x3dba3acb	0.09093245
147	0xbdd6247b	-0.10456177
148	0x3dc71c1a	0.09722157
149	0xbc9f2ff2	-0.019432042
150	0xbcf25801	-0.02958298
151	0x3cf51d65	0.029921243
152	0xbd770ac6	-0.06031301
153	0xbd6a4f6e	-0.057204656
154	0x3e709edc	0.234981
155	0x3e22597e	0.15854451
156	0xbd60e4cb	-0.054905694
157	0x3e5ed352	0.217603
158	0x3dc3e282	0.09564687
159	0xbe219e77	-0.15783106
160	0xbcd49a3c	-0.02595245
161	0x3c067082	0.008205535
162	0x3d92f138	0.07174915
163	0xbdeaef21	-0.114713915
164	0xbe03b4bf	-0.12861918
165	0x3d87ba12	0.06627287
166	0xbd8cff59	-0.06884641
167	0xbd956806	-0.072952315
168	0x3e02698a	0.12735572
169	0xbe30b7bf	-0.17257594
170	0x3b5b61d4	0.0033475058
171	0x3d665aef	0.056239065
172	0xbe2cbbd6	-0.16868529
173	0xbc608ccf	-0.013705446
174	0x3cfb3dac	0.030669056
175	0xbc49c62f	-0.012315317
176	0xbd859e1c	-0.065242976
177	0xbd5fff11	-0.05468661
178	0xbe3023a2	-0.17201093
179	0xbcf7ed76	-0.030264597
180	0x3d2a86b8	0.041632384
181	0xbd6eff41	-0.058348898
182	0x3df1e040	0.118103504
183	0xbc8d33fe	-0.017236706
184	0x3dcbaf1c	0.09945509
185	0x3dc46e2f	0.09591328
186	0xbda52c3f	-0.0806508
187	0xbebba2da	-0.36647683
188	0xbd85405d	-0.06506417
189	0x3c9c7a4b	0.019101283
190	0xbd95ef82	-0.07321073
191	0x3b8ab2f3	0.004232758
192	0x3d922980	0.07136822
193	0x3cd6ff62	0.026244823
194	0x3d377482	0.044788845
195	0x3d80a406	0.06281285
196	0xbd8a8bd4	-0.06764951
197	0x3c2e9cfb	0.010657544
198	0x3cb5ddbf	0.022200463
199	0xbea54817	-0.32281563
200	0x3d86493c	0.06556937
201	0x3ca58d13	0.020208871
202	0xbe8b1c11	-0.2716985
203	0x3df656ba	0.120282605
204	0x3dbc7d8a	0.09203632
205	0xbeb3636d	-0.35036793
206	0x3d8ee2fe	0.06976889
207	0xbdc79725	-0.097456254
208	0x3e081d42	0.13292411
209	0xbe23b89b	-0.1598839
210	0xbe115d74	-0.14195806
211	0x3e465435	0.1936806
212	0xbe21d5fc	-0.15804285
213	0xbe679258	-0.2261442
214	0x3deb2106	0.11480908
215	0xbe00064e	-0.12502405
216	0x3e236062	0.15954736
217	0x3e99defa	0.3005293
218	0x3e8330e7	0.25623247
219	0xbca3f2de	-0.020013269
220	0x3d9a4174	0.075320154
221	0x3de17c0c	0.11009988
222	0x3e9401ea	0.2890771
223	0x3e964aab	0.29353842
224	0x3e8c5356	0.2740733
225	0x3e15b9ed	0.14621706
226	0x3d8f7874	0.070053965
227	0x3e515c03	0.20445256
228	0x3d4df5ea	0.05028335
229	0x3d96c75d	0.07362244
230	0x3d96f6f0	0.07371318
231	0x3d93e222	0.07220866
232	0xbbb48f3b	-0.0055102385
233	0x3da7850d	0.08179674
234	0x3d9bbdab	0.07604536
235	0x3dc8c59a	0.098033145
236	0x3d03c30b	0.03216843
237	0x3ddb476b	0.10706981
238	0x3db459fc	0.08806226
239	0x3db4c32d	0.08826289
240	0x3d9473bf	0.07248639
241	0x3bbba2ee	0.00572621
242	0x3ddbef43	0.10738995
243	0xbda95ea9	-0.08270008
244	0xbd75340c	-0.05986409
245	0xbd64a30e	-0.055819564
246	0xbd732220	-0.059358716
247	0xbdc442e7	-0.09583073
248	0xbaffc45b	-0.0019513475
249	0x3c7b8cdc	0.015353408
250	0xbbc077f3	-0.005873674
251	0xbbd23460	-0.006414935
252	0x3db13700	0.086530685
253	0xbbeddf6c	-0.0072593
254	0xbb1d6c36	-0.0024020798
255	0x3da82547	0.08210235

Generator.conv2.conv1.0.weight f4 [8, 8, 3, 3, 3]
0	0x3de0fb79	0.109854646
1	0xbca394dd	-0.019968444
2	0xbdb7d7ae	-0.089766845
3	0x3eb0ad38	0.34507155
4	0x3ddbf2f1	0.10739697
5	0xbdabaadc	-0.08382198
6	0xbe3d8e6d	-0.18511362
7	0x3d145e92	0.036223
8	0x3ddaf424	0.106910974
9	0xbda6f3a4	-0.081519395
10	0xbd61a434	-0.055088237
11	0xbc06f64a	-0.008237431
12	0xbdbf31ca	-0.093356684
13	0xbba4c932	-0.005028867
14	0x3cb1f5a8	0.021723583
15	0xbd24e487	-0.040257003
16	0xbd94116f	-0.07229888
17	0x3dc592ce	0.096471414
18	0x3c039dab	0.008033196
19	0xbd7bb56e	-0.06145232
20	0xbcd784bc	-0.02630841
21	0xbc801b2c	-0.015637957
22	0xbd4282ea	-0.04748813
23	0x3d11fd47	0.035641935
24	0x3c7a1ef6	0.015266171
25	0xbc338c69	-0.010958769
26	0x3da0e1bc	0.078555554
27	0x3d46f9cf	0.04857808
28	0xbd0e83d5	-0.034793694
29	0xbd41c01a	-0.047302343
30	0x3c20be50	0.009810999
31	0xbb084cb8	-0.002079768
32	0xbcacc7ae	-0.021091308
33	0x3d88bdbc	0.06676814
34	0x3d9bbc37	0.076042585
35	0x3c23075c	0.009950485
36	0xbe2cfbe1	-0.16892959
37	0xbe0934e3	-0.13399081
38	0xbd9a7d87	-0.07543474
39	0xbdc2af76	-0.09506123
40	0xbd6961e7	-0.056978133
41	0xbd3b7652	-0.045767136
42	0x3dd42d14	0.103601605
43	0xbc0b936b	-0.008519034
44	0xbcde9d88	-0.027174726
45	0xbd504ca2	-0.050854333
46	0xbd7af488	-0.06126836
47	0xbe2bd54d	-0.16780587
48	0x3bceea20	0.006314531
49	0xbd6c03cb	-0.057620805
50	0xbdc19b38	-0.09453434
51	0x3db158f4	0.086595446
52	0x3b986aca	0.004651402
53	0xbd50e61b	-0.051000696
54	0x3c770373	0.015076506
55	0x3dd3de1f	0.103451006
56	0x3e0e4da4	0.13896805
57	0x3d1df250	0.038561165
58	0x3d828bb0	0.063742995
59	0x3e3fa03a	0.18713465
60	0xbd75b232	-0.059984393
61	0xbd28cb02	-0.04120923
62	0x3cfffb58	0.03124778
63	0xbdb277ab	-0.08714231
64	0x3ce66d5a	0.028128315
65	0x3cc48073	0.02398703
66	0xbd65fa76	-0.05614706
67	0x3c022b5c	0.007944908
68	0x3d8cc470	0.06873405
69	0xbe4b6502	-0.1986275
70	0xbd05e961	-0.03269327
71	0x3d09aa8b	0.033609908
72	0xbd4c48b2	-0.049874015
73	0x3ce07939	0.027401553
74	0x3d840264	0.064457685
75	0xbdadc8be	-0.08485554
76	0x3dc3a289	0.095524855
77	0x3e0af1a5	0.13568743
78	0xbe07c3f1	-0.1325834
79	0xbd65ca08	-0.056100875
80	0x3d8f00be	0.069825634
81	0xba19e223	-0.0005870184
82	0xbcf00c82	-0.02930284
83	0x3d69390f	0.05693918
84	0xbdecaff6	-0.115569994
85	0xbd9b3184	-0.07577804
86	0xbc48a927	-0.01224736
87	0xbc8dc822	-0.017307345
88	0xbd294bbb	-0.041331988
89	0x3dbf6495	0.093453564
90	0x3e3da138	0.18518531
91	0x3c1df02d	0.009639782
92	0x3d9ec729	0.077528305
93	0x3cc8a7c8	0.024494067
94	0xbcefdc42	-0.029279832
95	0x3c32ea4c	0.010920119
96	0x3bd5c35e	0.0065235337
97	0xbd80a9ca	-0.06282385
98	0x3cdba759	0.026813196
99	0x3bbcff38	0.005767729
100	0x3c156cad	0.009120149
101	0x3b6ea275	0.003641275
102	0xbdde8e01	-0.10866929
103	0xbcf96eee	-0.030448403
104	0x3d9474f4	0.072488695
105	0x399bfa98	0.0002975061
106	0xbd276020	-0.040863156
107	0x3c97b886	0.018520605
108	0x3d2408d6	0.04004749
109	0x3d36b85e	0.04460942
110	0xbd313868	-0.043266684
111	0x3ba09491	0.004900523
112	0xbcc9dafb	-0.02464055
113	0x3cde3027	0.02712257
114	0xbcb95486	-0.022623312
115	0xbb69ab2b	-0.0035655003
116	0x3cf6fdfc	0.030150406
117	0x3d3a302c	0.045456097
118	0x3ca85ff8	0.020553574
119	0x3d945753	0.07243218
120	0x3d837edb	0.0642068
121	0x3da77807	0.0817719
122	0x3dc133f7	0.0943374
123	0x3dade6b4	0.08491269
124	0xbc46d0d6	-0.012134751
125	0x3e0385a0	0.12843943
126	0xbd4ddf4d	-0.050261784
127	0xbb108cba	-0.0022056536
128	0x3d7faabf	0.062418696
129	0xbd87d990	-0.06633294
130	0x3cf45481	0.02982545
131	0x3d89fe03	0.06737902
132	0x3c92a6ad	0.017901743
133	0xbd0a2178	-0.033723325
134	0xbd383333	-0.044970702
135	0xbc827b32	-0.015927885
136	0x3de3b817	0.11119097
137	0x3d5f7d34	0.054562762
138	0x3b7fdb7b	0.0039040733
139	0x3dd214a1	0.10257841
140	0x3da9f6f6	0.08299057
141	0xbd0a0337	-0.033694472
142	0xbda79e80	-0.08184528
143	0xbd512c76	-0.051067792
144	0xbd8776cc	-0.066144556
145	0xbb980807	-0.004639629
146	0xbb75dbdc	-0.003751508
147	0xbd9341a6	-0.07190256
148	0xbd7363fe	-0.05942153
149	0xbd0b8be3	-0.034068953
150	0xbdae3b12	-0.085073605
151	0xbdfbd5e2	-0.12296654
152	0x3d5e2a80	0.05423975
153	0xbd948966	-0.07252769
154	0xbcbdb583	-0.02315784
155	0xbc99788e	-0.018734243
156	0xbdcd2c47	-0.10018211
157	0xbcd55400	-0.02604103
158	0xbdb7f5cd	-0.0898243
159	0xbe1cdf42	-0.15319541
160	0xbe4c218f	-0.19934677
161	0x3e129d36	0.14317784
162	0x3d9cc98d	0.0765563
163	0x3d75da9c	0.060022935
164	0x3d91be51	0.07116378
165	0x3da88dd3	0.08230176
166	0x3c171c2e	0.009223027
167	0x3cfce44a	0.030870575
168	0x3c9c327f	0.019067047
169	0x3db65cda	0.08904429
170	0x3cef4292	0.029206548
171	0x3cafe27e	0.021470305
172	0xbb6b0934	-0.003586364
173	0xbbdbe80a	-0.006711011
174	0x3d8ce8d3	0.06880345
175	0x3da74aa8	0.081685364
176	0x3dcd66b8	0.10029358
177	0x3dc5d8ce	0.09660493
178	0x3d395e6e	0.04525607
179	0x3d989781	0.07450772
180	0x3d3b47ce	0.045722775
181	0xbbee792a	-0.0072776275
182	0xbcdffa86	-0.027341139
183	0xbd636259	-0.055513714
184	0x3d56ca9f	0.05243933
185	0xbcd03378	-0.025415167
186	0x3ce87c6c	0.028379641
187	0xbd84bd2a	-0.06481393
188	0x3c0db368	0.008648731
189	0xbc93d34a	-0.018045086
190	0xbd01e0f1	-0.03170866
191	0x3d0e65ab	0.034764927
192	0xbd9d39a3	-0.07677009
193	0xbd821eca	-0.06353529
194	0x3d6a03f3	0.057132673
195	0xbdebed87	-0.11519914
196	0xbda299b3	-0.07939472
197	0xbc75fd26	-0.015013969
198	0xbd2f40f4	-0.042786554
199	0xbd81e706	-0.06342892
200	0x3b9d573c	0.004801659
201	0xbdd8ad4d	-0.105799295
202	0xbd548749	-0.05188683
203	0x3d2a1abd	0.041529406
204	0xbd9f2ec8	-0.07772595
205	0xbd976f5c	-0.07394287
206	0x3de35ee9	0.11102087
207	0xbdb17b15	-0.08666054
208	0xbd800efd	-0.06252859
209	0x3bb7a1f9	0.0056040254
210	0xbd334c72	-0.043774076
211	0xbc2df264	-0.010616872
212	0x3c95a98f	0.018269328
213	0xbdb0aad6	-0.08626334
214	0xbd4b0e31	-0.04957408
215	0x3d015c18	0.031581968
216	0xbe254d3d	-0.16142745
217	0xbe4cc299	-0.19996108
218	0x3deca428	0.11554748
219	0xbdcadedc	-0.09905788
220	0xbc567c22	-0.013091119
221	0x3b4c07b8	0.003113253
222	0x3dc51427	0.096229844
223	0xbcbced68	-0.023062423
224	0x3e116f15	0.1420253
225	0xbd2a6569	-0.04160062
226	0xbcc161b2	-0.023606155
227	0x3d21e0b9	0.039520953
228	0xbcc72f0e	-0.02431443
229	0x3c272a6c	0.010202985
230	0x3cb4cd3e	0.022070523
231	0x3d854ac9	0.06508405
232	0x3dc58401	0.09644318
233	0x3cc69725	0.024241993
234	0x3c3e31ad	0.011608523
235	0xbdc634ee	-0.09678064
236	0xbd399663	-0.045309436
237	0x3d9785a5	0.073985375
238	0x3bbf9840	0.005847007
239	0xbcc505d7	-0.024050636
240	0x3da68e9b	0.081326686
241	0x3dceae32	0.10091819
242	0x3ce59c7f	0.028028725
243	0xbceed139	-0.0291525
244	0x3ae89c9d	0.001774687
245	0x3c587c86	0.013213282
246	0xbd9acf8b	-0.07559117
247	0x3d2f2e85	0.042768974
248	0x3d07db82	0.033168323
249	0x3ba412d6	0.005007128
250	0x3d11e83a	0.03562186
251	0xbc9b1f4f	-0.018935828
252	0xbe066734	-0.13125306
253	0xbdf7e852	-0.121048585
254	0xbda07d82	-0.07836439
255	0xbdd5d090	-0.10440171

Generator.conv2.conv2.0.weight f4 [8, 8, 3, 3, 3]
0	0x3dc045e0	0.093883276
1	0xbd812b77	-0.063071184
2	0x3a81606b	0.0009870654
3	0x3da2fbbe	0.07958172
4	0x3da69ffd	0.08135984
5	0x3d8620cc	0.06549224
6	0x3d6f2a0f	0.05838972
7	0x3d68c8b0	0.056832016
8	0x3df95bb3	0.12175693
9	0x3e0773a3	0.13227706
10	0xbc90a4c7	-0.017656697
11	0x3d5cef99	0.053939436
12	0x3cbc5e3a	0.02299415
13	0xbae11915	-0.0017173613
14	0xbd253303	-0.04033185
15	0x3d9eb1eb	0.07748779
16	0xbd44e3c5	-0.04806878
17	0x3d08f1ea	0.033433832
18	0x3d0a8b63	0.033824336
19	0xbd86335e	-0.06552766
20	0xbd3a1c01	-0.045436863
21	0x3d44b53b	0.048024397
22	0xbdcc13ad	-0.0996469
23	0xbdba6b30	-0.09102476
24	0xbdc4b77a	-0.09605308
25	0xbd31f47e	-0.043446057
26	0xbd4afd61	-0.049558047
27	0x3e0c0fee	0.13677952
28	0x3dd51db5	0.10406057
29	0x3cf59043	0.029976016
30	0x3d8ba5f4	0.068187624
31	0x3dd09275	0.101841845
32	0x3e2e7283	0.1703587
33	0x3d776be6	0.060405634
34	0x3d4f2ff4	0.05058284
35	0x3dea4c66	0.11440353
36	0x3dcfac7a	0.10140319
37	0x3d0648f7	0.03278443
38	0x3c07ba06	0.008284098
39	0x3cc936d6	0.02456228
40	0x3dd9c193	0.106326245
41	0x3d4e072c	0.05029981
42	0x38df1ce4	0.0001063885
43	0x3b053421	0.002032526
44	0x3df0a688	0.11750513
45	0x3ce1a770	0.02754566
46	0x3d76263c	0.060095057
47	0xbb6b2a2a	-0.0035883286
48	0x3d29862d	0.041387726
49	0x3d0f3ab8	0.034968108
50	0x3d2b75e3	0.041860472
51	0xbd01d088	-0.03169301
52	0x3d8c9385	0.068640746
53	0x3d0cdd05	0.03439047
54	0x3e7381f2	0.23780039
55	0x3db52add	0.08846066
56	0x3d7e56f3	0.06209464
57	0xbcfe45f4	-0.031039216
58	0xbde99176	-0.114046976
59	0xbdef9145	-0.1169763
60	0x3d939bf8	0.07207483
61	0x3a99388d	0.0011689827
62	0xbd8d40fa	-0.06897159
63	0xbc82b96d	-0.015957559
64	0xbe0857df	-0.1331477
65	0x3bf19b1a	0.007373226
66	0xbe03ceea	-0.128719
67	0xbe06f61a	-0.13179818
68	0xbe4b0456	-0.19825873
69	0x3d13a8c4	0.03604962
70	0xbbba683e	-0.005688696
71	0xbe37ca05	-0.17948158
72	0xbd029437	-0.03187963
73	0xbdbaabc7	-0.09114795
74	0x3e24f524	0.16109139
75	0xbdd99876	-0.10624783
76	0xbe238a2e	-0.1597068
77	0x3cb67e59	0.022277044
78	0x3dafe05e	0.085877165
79	0x3d3ba8e0	0.04581535
80	0x3b688c13	0.0035483881
81	0x3dab0736	0.08350985
82	0x3da9b7be	0.08286999
83	0x3e1c1d86	0.15245637
84	0x3d160901	0.03662968
85	0x3d1e18d6	0.038597904
86	0x3cba3da3	0.022734469
87	0x3e1335df	0.14376019
88	0x3c98d3ff	0.018655775
89	0x3bf60749	0.0075081927
90	0x3e15a547	0.1461383
91	0x3c4c44b5	0.012467553
92	0x3dc2e547	0.095163874
93	0xbd424973	-0.047433328
94	0xbe02f0b7	-0.12787138
95	0xbdb5e714	-0.08881965
96	0xbcad5240	-0.021157384
97	0xbe0ff281	-0.14057352
98	0x3c91a8eb	0.017780742
99	0xbc924896	-0.017856877
100	0xbd7c4405	-0.061588306
101	0x3d95f0bb	0.07321306
102	0xbdc91460	-0.09818339
103	0xbda33db7	-0.079707555
104	0xbd37475c	-0.044745788
105	0x3dc703d6	0.097175285
106	0xbd96774b	-0.07346972
107	0xbcc847f9	-0.024448382
108	0xbda79c5c	-0.0818412
109	0xbd7e2c43	-0.06205393
110	0xbd04d769	-0.032431994
111	0x3d63a97e	0.055581562
112	0x3d847f13	0.0646955
113	0x3b3c6fdc	0.0028753197
114	0x3da476d6	0.08030479
115	0x3d11bd71	0.035581056
116	0xbb452321	-0.0030080753
117	0xbe26b410	-0.16279626
118	0xbdfbe6b6	-0.12299864
119	0x3c1ea63c	0.009683188
120	0xbd947a9e	-0.0724995
121	0xbd955abd	-0.072926976
122	0x3c804707	0.015658868
123	0x3c429fda	0.011878932
124	0xbd1b96ec	-0.037985727
125	0x3ce10b3e	0.027471181
126	0xbe1896aa	-0.14901224
127	0xbdf936c4	-0.12168649
128	0x3baad023	0.0052128
129	0x3e1cd8a1	0.15317012
130	0x3d6f73ac	0.058459923
131	0xbc6131e7	-0.013744808
132	0x3dd690a5	0.104768075
133	0xbd6a6d48	-0.057233125
134	0xbe160adf	-0.14652584
135	0x3d38bce1	0.045102004
136	0xbe651a4a	-0.2237331
137	0xbe75c4fb	-0.24000923
138	0xbd4faeb0	-0.050703704
139	0xbe591523	-0.2119947
140	0xbbc62144	-0.006046446
141	0xbe41a0ff	-0.18909071
142	0xbe69a282	-0.22815898
143	0x3e11df28	0.14245284
144	0x3ac585bb	0.0015069762
145	0xbbcd6174	-0.006267721
146	0xbe145c32	-0.14488295
147	0xbc27fa22	-0.010252507
148	0xbdb42aec	-0.08797249
149	0xbe1433f0	-0.14472938
150	0x3cec2c23	0.02882964
151	0xbe41b4fe	-0.189167
152	0xbe043dd7	-0.12914215
153	0x3dd5e277	0.10443585
154	0x3cb70ecf	0.022345928
155	0xbd0b03f6	-0.033939324
156	0x3d8dbd7c	0.06920907
157	0xbc80d9f2	-0.015728924
158	0xbe2a0700	-0.16604233
159	0x3e01ac4e	0.12663385
160	0xbdfc787a	-0.123276666
161	0xbae7ff77	-0.0017700036
162	0x3e1118b2	0.14169577
163	0x3d8c589f	0.06852841
164	0x3e663814	0.2248233
165	0xbcbc24a8	-0.022966698
166	0xbd0e5bfe	-0.0347557
167	0xbdc467e3	-0.09590127
168	0x3d6fb0dd	0.05851828
169	0xbe17b218	-0.14814031
170	0xbda1d695	-0.079022564
171	0x3da204a7	0.079110436
172	0x3d2d055b	0.042241435
173	0x3e4f7cb6	0.20262417
174	0x3db6567b	0.089032136
175	0xbce85f23	-0.028365677
176	0xbd764256	-0.060121857
177	0xbcaa9b0c	-0.020825885
178	0xbd826fdd	-0.063689925
179	0xbdbaffcb	-0.0913082
180	0xbc66c825	-0.014085804
181	0x3e059abf	0.13047312
182	0x3da3fe6d	0.08007512
183	0x3c61c540	0.013779938
184	0xbb8a2231	-0.0042155017
185	0xbe1ff745	-0.1562167
186	0x3d3745a8	0.044744164
187	0xbdc254f5	-0.094888605
188	0xbe1c3f0f	-0.1525843
189	0xbd831c06	-0.064018294
190	0xbd76c6e7	-0.06024828
191	0xbdadeec9	-0.0849281
192	0xbda84b5c	-0.08217499
193	0xbd9587ca	-0.0730129
194	0xbda56471	-0.08075798
195	0xbd2fa3d4	-0.042880848
196	0xbc93dc8f	-0.018049506
197	0x3cddf80f	0.027095823
198	0xbd91888e	-0.07106124
199	0x3abab8c8	0.0014245743
200	0xbd55cb67	-0.052195933
201	0xbd090274	-0.033449605
202	0xbd91a061	-0.07110668
203	0xbd30f70e	-0.04320436
204	0x3cfcdce1	0.030867042
205	0x3c764736	0.015031626
206	0xbc586a72	-0.013208972
207	0x3e2b64b9	0.16737641
208	0x3e1a0dfc	0.15044397
209	0x3e2ceddd	0.16887613
210	0x3d56fd4f	0.052487668
211	0x3dded1ad	0.10879836
212	0xbc83379a	-0.016017724
213	0x3e14221e	0.1446614
214	0x3c674995	0.014116664
215	0xbd05b9f2	-0.032648034
216	0xbe37b2ab	-0.1793925
217	0xbdb06b5e	-0.08614229
218	0x3c9d9282	0.0192349
219	0xbdc59d74	-0.096491724
220	0xbd7e648d	-0.06210761
221	0xbdb360d4	-0.08758703
222	0xbe38b3c7	-0.1803733
223	0xbc9568bc	-0.018238418
224	0xbc841412	-0.016122852
225	0x3d404079	0.046936486
226	0x3d4359e8	0.047693163
227	0x3c061f0d	0.008186114
228	0x3d806881	0.062699325
229	0x3d3f6dbb	0.046735507
230	0x3c9f2e65	0.019431302
231	0xbc266d86	-0.010157948
232	0x3c46ae79	0.012126558
233	0x3d6243ad	0.055240322
234	0x3d489335	0.048968513
235	0x3de102c8	0.109868586
236	0x3dad6961	0.08467365
237	0x3e268630	0.16262126
238	0x3df79c74	0.12090388
239	0x3da7af6e	0.081877574
240	0x3e123536	0.14278111
241	0x3d199195	0.037492353
242	0x3d289904	0.041161552
243	0xbe1fcf8c	-0.15606517
244	0xbde497c5	-0.1116176
245	0x3c00c65e	0.007859794
246	0xbde2d372	-0.11075486
247	0xbdb3ac7f	-0.087731354
248	0xbcda715b	-0.02666538
249	0xbe8da600	-0.2766571
250	0xbdef39b2	-0.116809264
251	0x3caea7f1	0.021320315
252	0x3c839781	0.016063454
253	0x3cb83fed	0.02249142
254	0xbd66c99f	-0.056344625
255	0x3cb58df3	0.022162413

Generator.conv3.conv1.0.weight f4 [8, 8, 3, 3, 3]
0	0x3c3b2b0a	0.0114238355
1	0x3d951dc1	0.07281066
2	0xbca78585	-0.02044941
3	0xbca83303	-0.020532137
4	0x3c1256a3	0.008931789
5	0x3d2972c2	0.041369207
6	0x3d920db5	0.07131521
7	0xbcce085a	-0.025150467
8	0x3c82edc8	0.015982524
9	0xbcda6ce3	-0.02666325
10	0x3cdde51e	0.02708679
11	0xbd7deff1	-0.061996404
12	0x3c76687d	0.01503956
13	0xbca4199a	-0.020031739
14	0xbdb5f72a	-0.088850334
15	0xbd3e854b	-0.046513837
16	0x3d17471b	0.036933046
17	0xbd0b0bff	-0.033946987
18	0xbd176411	-0.036960665
19	0x3d87ce1d	0.0663111
20	0xbc8adc35	-0.016950706
21	0x3d56f898	0.05248317
22	0xbd61f800	-0.05516815
23	0xbc31fff2	-0.010864245
24	0xbcdad908	-0.026714817
25	0x3d0a065c	0.03369747
26	0xbd587b27	-0.052851822
27	0xbd730c33	-0.059337806
28	0x3cc5f8bd	0.02416646
29	0x3cffb465	0.031213949
30	0x3c23766f	0.009976967
31	0xbcd1a095	-0.025589267
32	0xbd904ff9	-0.070465036
33	0x3d51e0fd	0.051239956
34	0xbc37c910	-0.011217371
35	0x3d40cda9	0.047071133
36	0x3bbdd464	0.005793141
37	0x3d7b13a4	0.061298028
38	0x3df09ffd	0.11749265
39	0xbc318d05	-0.010836844
40	0xbd2c17ac	-0.042014763
41	0xbdb987ed	-0.09059129
42	0xb9f81183	-0.00047315293
43	0xbdb4395b	-0.08800002
44	0x3cc94fa8	0.024574116
45	0xbc801d27	-0.0156389
46	0x3dc4b29a	0.09604378
47	0xbcec741d	-0.02886396
48	0x3d7054e9	0.058674727
49	0xbd3bbcdd	-0.04583441
50	0xbd931e4d	-0.07183514
51	0xbdc3c35d	-0.09558747
52	0xbdbe4ffb	-0.09292599
53	0x3d55fb30	0.052241504
54	0xbd3cba11	-0.046075884
55	0xbcb4acef	-0.022055117
56	0xbd07f095	-0.03318842
57	0xbd616938	-0.055031985
58	0xbcd3cf5d	-0.025855714
59	0x3cc34e75	0.023841122
60	0x3aacb9b4	0.0013177902
61	0xbc893dc5	-0.016753087
62	0x3c4c3e81	0.012466074
63	0x3d30310d	0.04301553
64	0x3d02999c	0.031884775
65	0x3d653d01	0.05596638
66	0xbd1e3ed0	-0.03863412
67	0x3dbf8a0f	0.093525045
68	0x3d66a445	0.056309003
69	0xbd1bc28a	-0.038027324
70	0xbab07a0a	-0.0013464105
71	0xbce446b1	-0.02786574
72	0x3d8af87b	0.06785675
73	0xbd5c023d	-0.053713072
74	0x3cbff763	0.023433393
75	0x3ad1d73a	0.0016009577
76	0x3d9a6317	0.07538431
77	0xbd0292eb	-0.031878393
78	0x3d9f05b6	0.07764761
79	0xbd5faabf	-0.054606196
80	0xbd6b1a0c	-0.057397887
81	0x3cc62f18	0.024192378
82	0x3a0f51b1	0.000546719
83	0x3b3284a2	0.00272397
84	0xbcce585b	-0.025188616
85	0x3d1ae08f	0.037811812
86	0xbd78f47a	-0.060780026
87	0x3d6c154d	0.0576375
88	0xbc5a5161	-0.013325066
89	0x3d70682d	0.0586931
90	0xbc8490d7	-0.016182346
91	0x3d2a13b8	0.04152271
92	0x3d062e28	0.03275886
93	0xbd57e6e4	-0.05271043
94	0x3d8b974b	0.06815966
95	0xbd902a00	-0.07039261
96	0xbda5e668	-0.08100587
97	0xbcd4ed15	-0.025991956
98	0xbb9850be	-0.004648297
99	0xbd2c30cf	-0.042038735
100	0x3d706c3a	0.058696963
101	0xbc84d112	-0.016212974
102	0x3d951498	0.072793186
103	0x3e06b74f	0.13155864
104	0x3d054d31	0.03254432
105	0xbc5907b4	-0.0132464655
106	0xbcba64be	-0.022753116
107	0xbda491f4	-0.08035651
108	0x3d9a83ba	0.07544656
109	0xbd4ee373	-0.05050988
110	0x3b7b66dc	0.003836087
111	0x3d7fb4d8	0.062428325
112	0xbd846f96	-0.06466596
113	0x3d41c357	0.04730543
114	0x3dac0874	0.0840005
115	0x3d364a34	0.04450436
116	0xbd0b53a2	-0.034015305
117	0x3d60c05b	0.054870944
118	0x3d9be316	0.076116726
119	0x3d772c65	0.060345072
120	0x3baeb0fb	0.0053311563
121	0x3d608a65	0.054819483
122	0x3dbf3ea3	0.09338119
123	0x3d1d671d	0.038428415
124	0x3d93d395	0.072180904
125	0xbd542795	-0.05179556
126	0xbc6fc09f	-0.014633327
127	0xbad3fcbb	-0.0016173342
128	0x3ca3bd19	0.01998763
129	0xbd8c120d	-0.068393804
130	0xbd3732ef	-0.04472631
131	0xbc8b36c3	-0.016993886
132	0x3d4784ea	0.04871074
133	0xbd3efbbc	-0.04662679
134	0xbcfcead6	-0.030873697
135	0xbd85ce11	-0.06533445
136	0x3cf5dfb8	0.030013904
137	0x3cada7fa	0.021198262
138	0xbc3ee41e	-0.011651067
139	0x3d93c42e	0.07215153
140	0xbd73c528	-0.059514195
141	0xbcf473f9	-0.029840456
142	0xbc821953	-0.015881216
143	0x3cebeae0	0.02879852
144	0x3c710b64	0.014712188
145	0x3d9603bb	0.0732493
146	0x3d04a3fe	0.032382958
147	0xbd267c59	-0.04064593
148	0x3d3a811b	0.04553328
149	0xbb52cfc5	-0.0032167297
150	0xbd619745	-0.055075902
151	0xbd8d6b19	-0.06905193
152	0x3d0c90a0	0.034317613
153	0xbd6ee595	-0.058324415
154	0x3d7ae592	0.06125409
155	0xbd753882	-0.059868343
156	0x3d1fdcc1	0.039028887
157	0x3db44329	0.08801872
158	0x3d70d71b	0.05879889
159	0x3d74a889	0.05973104
160	0xbdadf23b	-0.084934674
161	0xbce2e501	-0.027697088
162	0xbd652742	-0.055945642
163	0x3d41d134	0.047318652
164	0xba68a858	-0.0008875183
165	0xbc892ec0	-0.016745925
166	0xbd22b4dc	-0.039723262
167	0xbcf62ec8	-0.030051604
168	0x3dd66553	0.10468545
169	0x3bfd9cef	0.007739655
170	0x3cd13c88	0.025541559
171	0x3d40088e	0.04688316
172	0xbca82f81	-0.020530464
173	0x3d897a54	0.06712785
174	0x3d957ab4	0.072987944
175	0xbd4140e2	-0.047181018
176	0x3d393c3a	0.045223452
177	0x3cd2fd0d	0.02575543
178	0x3c92f9ff	0.017941473
179	0x3c8f16ec	0.017466985
180	0x3cc6acfa	0.024252404
181	0xbbe6d8c1	-0.007044882
182	0xbdf62014	-0.12017837
183	0x3d1e3dd1	0.03863317
184	0x3dd645d2	0.10462536
185	0xbc77a058	-0.0151139125
186	0xbdbb897f	-0.09157085
187	0x3dd4f8d4	0.10399023
188	0x3c227e28	0.009917773
189	0x3b1b60a0	0.0023708716
190	0xbc05755e	-0.008145658
191	0x3b87a7f4	0.0041398946
192	0x3c36c674	0.011155713
193	0x3d1d5c20	0.038417935
194	0xbca5a0cd	-0.020218277
195	0xbd9c9440	-0.07645464
196	0xbc0370d2	-0.008022504
197	0x3a4b0d42	0.0007745811
198	0xbc52b05b	-0.012859429
199	0xbb0ccd5d	-0.002148471
200	0xbae6af0f	-0.0017599779
201	0x3ce13056	0.027488869
202	0x3e144bf8	0.14482105
203	0x3d45da63	0.048303973
204	0xbc41d9b2	-0.011831688
205	0xbd21421d	-0.03936969
206	0x3d771140	0.060319185
207	0xbd479471	-0.04872555
208	0xbdbcf99e	-0.09227298
209	0xbc1eb8ae	-0.009687586
210	0x3d648454	0.05579026
211	0x3df01c8a	0.117241934
212	0xbd9fcefd	-0.07803152
213	0xbd050db6	-0.03248378
214	0xbd3de31a	-0.04635916
215	0xbd599e58	-0.053129524
216	0x3c81e396	0.015855592
217	0xbd1d32d0	-0.038378537
218	0xbbe0dc2f	-0.0068621854
219	0x3d2b1c46	0.04177501
220	0x3c48352a	0.012219707
221	0x3d2d56d7	0.042319145
222	0x3b9161b0	0.004436694
223	0x3d61f3ec	0.055164263
224	0x3d117b3a	0.03551791
225	0x3df58f4d	0.11990223
226	0xbd82a135	-0.06378404
227	0x3c1591a4	0.009128962
228	0x3da22544	0.07917264
229	0x3d32c3f2	0.0436439
230	0xbdb7e092	-0.0897838
231	0xbd0b8399	-0.03406105
232	0x3d315da1	0.043302182
233	0xbe2e524f	-0.17023586
234	0x3cd0d5a4	0.025492497
235	0xbab254be	-0.0013605577
236	0x3cb8b13b	0.022545448
237	0x3d624d48	0.055249482
238	0xbb0bb48c	-0.002131733
239	0xbd4d07c4	-0.050056234
240	0xbd5be68e	-0.05368667
241	0xbd5fd91b	-0.054650407
242	0x3c271983	0.010198954
243	0x3c2318e1	0.009954662
244	0xbdddb246	-0.108250186
245	0xbe2455e0	-0.16048384
246	0x3cd2068f	0.025637893
247	0x3d931e40	0.07183504
248	0xbe0e5f9a	-0.13903657
249	0x3da6672f	0.081251495
250	0x3d6e7e06	0.058225654
251	0xbc0e8a84	-0.008700017
252	0x3d90f138	0.07077259
253	0x3c80deec	0.015731297
254	0xbcd2ec77	-0.02574752
255	0x3dcc930c	0.099889845

Generator.conv3.conv2.0.weight f4 [8, 8, 3, 3, 3]
0	0x3d650407	0.055912044
1	0x3c81aef3	0.015830493
2	0xbcb7a9a9	-0.022419767
3	0xbceaa72b	-0.028644165
4	0x3d7070e2	0.058701403
5	0xbd1b6892	-0.037941523
6	0xbd9361ac	-0.07196364
7	0xbc90773d	-0.017634982
8	0xbd9d5d5d	-0.07683823
9	0x3d31e44a	0.043430604
10	0xbd06e7ea	-0.032936014
11	0x3d4210a9	0.04737917
12	0x3a71a23e	0.00092175964
13	0x3d554229	0.05206505
14	0xbcb4f16f	-0.02208778
15	0xbc9dad13	-0.019247567
16	0x3c6c43ac	0.014420431
17	0xbd87f422	-0.066383615
18	0x3ca1360b	0.01967909
19	0x3b1a8131	0.002357554
20	0x3b506b85	0.0031802368
21	0x3d672c24	0.05643858
22	0x3dcbe3cd	0.09955559
23	0x3e0e14ba	0.13875094
24	0x3d2d7776	0.042350255
25	0x3dbd6e3a	0.0924954
26	0x3d633012	0.055465765
27	0x3de69882	0.11259557
28	0xbe11dcf8	-0.14244449
29	0xbe521633	-0.20516281
30	0x3e0a7d3a	0.13524333
31	0xbdc11f11	-0.094297536
32	0xbdc8c372	-0.09802903
33	0x3d423ef6	0.047423325
34	0x3da2575b	0.07926818
35	0xbc4636b8	-0.012098007
36	0x3da2475d	0.07923768
37	0xbdddebbb	-0.10835978
38	0xbe0fcdbd	-0.14043327
39	0xbdc65370	-0.09683883
40	0xbdb9f826	-0.09080534
41	0xbd614626	-0.05499854
42	0xbdfa6ade	-0.122274145
43	0xbe149112	-0.14508465
44	0xbe3a00b0	-0.18164325
45	0x3dc4e33d	0.09613655
46	0xbc180e92	-0.009280818
47	0xbe17981a	-0.14804116
48	0xbcd2ad35	-0.025717357
49	0xbcb247c5	-0.021762738
50	0xbe17f9f3	-0.14841442
51	0xbd8ac28d	-0.06775389
52	0xbd5a51b5	-0.05330058
53	0xbe0f306e	-0.13983318
54	0x3d01a664	0.031652823
55	0x3c990eeb	0.018683871
56	0xbe98af38	-0.2982118
57	0x3d874ae5	0.06606082
58	0xbd39a57e	-0.04532384
59	0xbb8d2f3b	-0.004308609
60	0x3de616fc	0.11234853
61	0x3e385c3a	0.18003932
62	0x3d5643f1	0.052310888
63	0x3dd5e27a	0.104435876
64	0xbd43afde	-0.047775142
65	0xbc943bdf	-0.018094955
66	0x3dafbc9b	0.085808955
67	0x3ce5d152	0.028053913
68	0xbd542661	-0.051794413
69	0x3cfca0ef	0.030838458
70	0x3e963060	0.29333782
71	0xbc94ee37	-0.018179996
72	0x3e08c344	0.13355738
73	0x3e0f4244	0.13990122
74	0x3df3e644	0.11909154
75	0x3e04211d	0.12903257
76	0x3e3022c9	0.1720077
77	0x3df9332c	0.121679634
78	0xbdb76e7d	-0.08956621
79	0x3dfe8e68	0.124295056
80	0x3dfa502a	0.12222321
81	0xbd614a77	-0.055002656
82	0x3dddef09	0.10836608
83	0x3b94d1cc	0.0045416113
84	0xbd863b24	-0.06554249
85	0xbd420b41	-0.047374014
86	0x3d6b0b6d	0.057383943
87	0x3d834070	0.06408775
88	0xbbaa4945	-0.0051967227
89	0xbd0dd0c5	-0.034622926
90	0xbe01582a	-0.12631288
91	0x3cdba4ef	0.026812045
92	0x3c758859	0.014986121
93	0xbe0f0ffa	-0.13970938
94	0xbe7813ed	-0.24226351
95	0x3d3bcc16	0.04584893
96	0x3bc638e1	0.006049261
97	0xbe2954b9	-0.16536225
98	0xbd8ac8a9	-0.06776554
99	0xbe360f73	-0.17779331
100	0xbdc8d198	-0.09805602
101	0xbc934a55	-0.01797978
102	0xbc647021	-0.013942749
103	0xbe872477	-0.26395008
104	0xbcd86f38	-0.02642022
105	0x3dca93bd	0.0989146
106	0xbd1ff5a4	-0.03905262
107	0xbd185f96	-0.037200533
108	0xbec61ecd	-0.38695374
109	0xbe3efd1e	-0.18651244
110	0xbce2c67f	-0.027682541
111	0xbe0b655e	-0.13612887
112	0xbdb83af3	-0.08995619
113	0xbd49612c	-0.049164936
114	0xbdc70614	-0.09717956
115	0xbe02ae9d	-0.12761922
116	0xbd57e25a	-0.0527061
117	0xbc8b7444	-0.017023213
118	0x3bf62338	0.0075115226
119	0x3d4225a9	0.047399197
120	0x3d15e2a4	0.036593094
121	0x3cfbc7ce	0.030734923
122	0xbcd6912c	-0.02619227
123	0xbd88ec10	-0.0668565
124	0x3b52b874	0.00321534
125	0xbca6d8c8	-0.020367041
126	0xbee82ed0	-0.45348215
127	0xbe8adec3	-0.2712308
128	0xbcec8374	-0.028871275
129	0xbe97509c	-0.29553688
130	0xbe89e98c	-0.26935995
131	0xbdc620c3	-0.096742176
132	0x3d83c78a	0.064345434
133	0x3b5bfa2a	0.0033565857
134	0x3da01221	0.07815958
135	0x3d0b682f	0.034034904
136	0xbb810f03	-0.003938557
137	0xbe94c8b6	-0.2905938
138	0xbe10d66a	-0.14144292
139	0xbd3e66b0	-0.04648465
140	0x3c24c9a7	0.010057843
141	0x3e84a83a	0.25909597
142	0xbce85726	-0.028361868
143	0x3dd70090	0.10498154
144	0xbde3b46e	-0.111183986
145	0xbdaa3a9a	-0.083119586
146	0xbd5f48ca	-0.054512776
147	0xbd33caf7	-0.043894734
148	0x3b9731a7	0.0046140733
149	0x3db80abc	0.089864224
150	0x3e25a4d4	0.16176158
151	0xbd2f0a12	-0.042734213
152	0x3e195a0d	0.14975758
153	0x3d0abf0b	0.0338736
154	0x3e060f15	0.13091691
155	0xbd9f7c69	-0.07787401
156	0x3dd792e9	0.10526068
157	0x3cddfe11	0.027098687
158	0x3d6fcdba	0.058545806
159	0x3e9a4db2	0.30137402
160	0x3cf7c5f1	0.030245753
161	0xbca7eab8	-0.020497665
162	0x3e216604	0.15761572
163	0x3e0531fe	0.13007352
164	0x3e161cf1	0.14659478
165	0xbca383a8	-0.01996024
166	0xbd624bf7	-0.055248227
167	0x3d9b0a01	0.075702675
168	0xbe1d3736	-0.15353093
169	0xbe37648e	-0.17909452
170	0x3e18dded	0.14928408
171	0x3c9d1325	0.019174168
172	0x3d357052	0.04429657
173	0x3df36de3	0.118861936
174	0xbded84ed	-0.11597619
175	0xbe00a7cb	-0.12564008
176	0x3dc3d46d	0.095620014
177	0xbe0a8776	-0.13528237
178	0xbb5eb7b2	-0.0033984003
179	0x3de1e610	0.11030209
180	0xbe4d4cf7	-0.20048891
181	0xbd69a5ca	-0.057042874
182	0x3e1c9c80	0.15294075
183	0xbe1e7796	-0.15475306
184	0xbdbd0a7e	-0.09230517
185	0x3e6bc6fd	0.23025127
186	0xbd0f0a52	-0.03492195
187	0x3dfa879b	0.12232896
188	0x3e00c37b	0.1257457
189	0xbac597a9	-0.0015075105
190	0xbd09a518	-0.03360471
191	0x3dd009a4	0.10158089
192	0xbd38bde7	-0.04510298
193	0xbd1382cd	-0.036013413
194	0x3dc3dcc5	0.09563593
195	0xbd9856c7	-0.074384265
196	0x3bdd3fa6	0.0067519723
197	0x3e403f80	0.18774223
198	0x3e31e2f1	0.17371728
199	0x3d5c464f	0.05377799
200	0x3dbd156c	0.092326015
201	0x3d339e49	0.043852124
202	0x3cdb243f	0.026750682
203	0x3c8f22dc	0.017472677
204	0xbd8b25e5	-0.06794337
205	0x3db19046	0.08670096
206	0xbc17bd2a	-0.009261409
207	0x3e2b7d60	0.16747046
208	0x3bca3050	0.00617031
209	0xbc490a22	-0.012270482
210	0x3e1eba96	0.15500864
211	0x3d670e22	0.056409962
212	0x3d25638c	0.04037814
213	0x3de843ca	0.11341055
214	0x3e213fa6	0.15746936
215	0xbd056185	-0.032563705
216	0x3c281323	0.010258469
217	0xbc0e7fa2	-0.008697422
218	0xbd46c6bc	-0.04852937
219	0x3c33e36c	0.010979515
220	0xbda59bba	-0.08086343
221	0xbdbab64d	-0.09116802
222	0x3d266816	0.040626608
223	0xbc01d6e1	-0.007924766
224	0x3d4e555b	0.05037437
225	0xb980e6d0	-0.0002458603
226	0xbd45b9b1	-0.048272792
227	0xbd527761	-0.05138338
228	0xbc2762fe	-0.010216473
229	0x3d48299d	0.04886781
230	0xbd6af4d6	-0.0573624
231	0x3d67bb0f	0.056574877
232	0x3a878bbf	0.001034133
233	0x3d12ab07	0.035807636
234	0xbb2fc16e	-0.0026818174
235	0x3dceff57	0.10107296
236	0x3dd0214e	0.10162602
237	0x3d52b49c	0.051441774
238	0x3d36bdfd	0.04461478
239	0x3d25ca69	0.040476236
240	0x3da9cf2d	0.08291469
241	0xbcf6de1e	-0.03013521
242	0x3c3650fb	0.011127706
243	0x3b885062	0.004159973
244	0x3c1c3b1d	0.009535578
245	0xbe081a5d	-0.13291307
246	0x3db1b454	0.08676973
247	0x3dcb449a	0.09925194
248	0x3d435061	0.047684077
249	0x3e1b13f3	0.15144329
250	0x3c449ee9	0.012000778
251	0x3ddfb0bf	0.109223835
252	0x3d03f70b	0.03221802
253	0x3df65383	0.12027647
254	0xbd73468a	-0.059393443
255	0x3dc9db83	0.09856322

Generator.conv4.conv1.0.weight f4 [8, 8, 3, 3, 3]
0	0xbce9c3eb	-0.028535804
1	0x3c53091b	0.012880589
2	0xbce900bb	-0.028442731
3	0xbba91d9b	-0.005161
4	0x3d4f73c7	0.050647523
5	0x3b1bd107	0.0023775713
6	0x3ba7b38a	0.0051178383
7	0x3d28884d	0.04114561
8	0xbc388e93	-0.011264461
9	0xbd3b9d07	-0.04580405
10	0xbcd2a14b	-0.025711676
11	0xbda86914	-0.08223167
12	0xbda2f952	-0.0795771
13	0xbd0177dd	-0.03160845
14	0xbd5a096a	-0.053231634
15	0x3dc02f2e	0.09383999
16	0x3cd41ca7	0.025892569
17	0x3d4eb421	0.050464753
18	0x3d1e251e	0.038609616
19	0x3cb01d87	0.021498455
20	0x3d8ab0e9	0.06772024
21	0x3cfdd60a	0.03098585
22	0xbe008335	-0.12550052
23	0x3c50f30d	0.01275326
24	0xbd7d2959	-0.06180701
25	0xbd403acd	-0.046931077
26	0x3c8c64c2	0.017137889
27	0xbcfb350b	-0.030664941
28	0x3d366d8f	0.044538077
29	0x3d9498ac	0.07255682
30	0xbb01359e	-0.0019715796
31	0x3d8aa7d9	0.06770296
32	0x3d6be05d	0.057587016
33	0xbdba578f	-0.09098732
34	0x3d8bac25	0.06819943
35	0xbce36124	-0.027756281
36	0x39f79f3e	0.00047230156
37	0xbcf53b88	-0.029935613
38	0xbd776bdd	-0.0604056
39	0x3ac8c3f4	0.0015317188
40	0xbcf5250d	-0.029924894
41	0xbd7a68cf	-0.06113511
42	0x3bb667b0	0.0055665597
43	0x3d308f24	0.04310526
44	0x3d3a0a53	0.045420002
45	0x3d8a7987	0.06761461
46	0xbd586b4c	-0.0528367
47	0xbd7078f7	-0.05870911
48	0x3d5c89da	0.053842403
49	0xbd16ec71	-0.03684658
50	0x3c4b4087	0.012405521
51	0x3d9fe120	0.07806611
52	0x3d43cf3a	0.04780505
53	0x3cea12fd	0.028573507
54	0xbe005eae	-0.12536117
55	0xbdfecd7d	-0.124415375
56	0xbddc9f49	-0.10772569
57	0xbd0d7af2	-0.034541078
58	0x3d437ffc	0.047729477
59	0xbd3bc7b0	-0.045844734
60	0x3d37d2fc	0.044878945
61	0x3d24fcca	0.04028014
62	0x3c7bfc83	0.015380028
63	0xbc830185	-0.015991936
64	0xbe26b155	-0.16278584
65	0xbd8b4c2d	-0.06801639
66	0x3c8a17ed	0.016857112
67	0xbd97c1e2	-0.07410027
68	0xbd892b80	-0.0669775
69	0x3bfe5b0e	0.0077623194
70	0x3d886dcd	0.06661568
71	0x3bb03565	0.005377459
72	0x3da7302c	0.08163485
73	0xbbdcdc87	-0.006740156
74	0xbc990adc	-0.018681936
75	0xbc20c13e	-0.0098116975
76	0xbdfefb0b	-0.124502264
77	0x3d269ced	0.040677
78	0xbcda7ccf	-0.026670842
79	0xbd6756b3	-0.056479167
80	0x3c1bf5e5	0.009519075
81	0x3cca70fc	0.024712078
82	0xbc215030	-0.009845778
83	0xbd2c5ecf	-0.042082604
84	0x3ac059c4	0.001467519
85	0xbd0e2a2d	-0.03470819
86	0xbdadcfa3	-0.08486869
87	0x3d1b23d7	0.037875976
88	0x3cc42f00	0.023948193
89	0x3d87dd24	0.06633976
90	0x3cbf840a	0.02337839
91	0xbd47694a	-0.048684396
92	0xbcdacd22	-0.026709143
93	0xbab45148	-0.0013757134
94	0xbd99ec91	-0.075158246
95	0xbd16653c	-0.03671764
96	0x3dd60e60	0.104519606
97	0x3dd5ed6b	0.104456745
98	0x3d39b68d	0.04534011
99	0xbcb2e033	-0.021835422
100	0xbda74045	-0.08166555
101	0xbd8adbd6	-0.06780212
102	0xbc8660e5	-0.016403625
103	0x3b48bdc0	0.0030630678
104	0xbe045623	-0.12923484
105	0x3db69b83	0.0891638
106	0x3c80d495	0.015726367
107	0x3c2d49e7	0.010576702
108	0xbdc8f5a1	-0.09812475
109	0xbd9b1b13	-0.07573523
110	0x3cc1993a	0.023632634
111	0xbc6868c9	-0.014185139
112	0x3d691f14	0.056914404
113	0x3d08189a	0.033226587
114	0x3cca5641	0.024699332
115	0x3d812c30	0.06307256
116	0x3c856245	0.01628221
117	0xbb4ed503	-0.003156007
118	0xbc8d5860	-0.017254055
119	0x3c651693	0.013982433
120	0xbccba9dc	-0.024861269
121	0x3a129d0b	0.0005592859
122	0x3d2a2b48	0.041545182
123	0x3d03cdea	0.032178797
124	0x3c199c44	0.009375636
125	0x3bba462b	0.005684634
126	0x3dadb0a9	0.08480961
127	0xbce01e11	-0.027358087
128	0x3d498854	0.04920228
129	0x3cbb70bd	0.022880906
130	0x3c3e4a4e	0.011614395
131	0xbd0473ec	-0.032337114
132	0xbbd4d875	-0.0064955303
133	0x3d4d43e2	0.050113566
134	0x3d1174b9	0.035511706
135	0xbce22dd8	-0.02760975
136	0x3cd57f60	0.026061714
137	0xbdca7d24	-0.0988715
138	0x3cc35fec	0.02384945
139	0x3e095d94	0.13414603
140	0x3ca0de96	0.019637387
141	0x3d896aec	0.06709847
142	0x3d667cf6	0.056271516
143	0xbd114ae1	-0.0354718
144	0xba4478cc	-0.0007494807
145	0x3a64f402	0.000873387
146	0xbd221eda	-0.039580204
147	0xbcfd83dc	-0.030946665
148	0xbd866eeb	-0.06564125
149	0xbb95f9e1	-0.004576907
150	0x3c8a517c	0.016884558
151	0x3c77fc44	0.015135828
152	0xbc11548d	-0.008870256
153	0x3d705014	0.05867012
154	0xbc0d1c6a	-0.0086127315
155	0xbcb1e090	-0.021713525
156	0x3c866f91	0.01641062
157	0xbd4f38e9	-0.050591383
158	0xbd753e63	-0.05987395
159	0x3c3345c2	0.0109419245
160	0xbd755a7e	-0.059900753
161	0xbca2f3b0	-0.01989159
162	0xbe02ca4a	-0.1277248
163	0xbc5aadbd	-0.0133470865
164	0xbde50b0e	-0.11183749
165	0xb9ab5061	-0.0003267555
166	0x3dbeb788	0.093123496
167	0x3dc9763d	0.09837005
168	0xbb3503fe	-0.0027620788
169	0x3cb5b1aa	0.022179443
170	0x3c43eb28	0.011957921
171	0xbdcd3117	-0.10019129
172	0xbce62bfb	-0.028097143
173	0x3ca1ac16	0.019735377
174	0xbcbb8920	-0.022892535
175	0xbe0acec6	-0.1355544
176	0xbb0cf93f	-0.0021510867
177	0x3d947542	0.07248928
178	0x3d98073d	0.074232556
179	0xbc129b78	-0.008948199
180	0x3db6590a	0.089037016
181	0x3defece4	0.11715105
182	0x3cc1ec5f	0.02367228
183	0xbd74b77b	-0.059745293
184	0xbcf6dabe	-0.030133601
185	0x3c72f9cf	0.014830067
186	0xbd88f900	-0.06688118
187	0xbca5ea91	-0.020253452
188	0xbc9a5030	-0.018837065
189	0xbd1d3458	-0.038379997
190	0xbd887b2d	-0.06664119
191	0xbdbd56f9	-0.09245104
192	0xbb881fba	-0.0041541727
193	0x3c7e3c81	0.015517355
194	0xbd1b824c	-0.037966058
195	0x3c8eaef7	0.017417414
196	0xbc2058e5	-0.009786819
197	0x3ce4dacd	0.027936364
198	0x3cb69392	0.022287164
199	0xbdf4b0f2	-0.11947812
200	0x3cc7956e	0.024363246
201	0x3cd2c178	0.025727019
202	0xbd7487d6	-0.059699856
203	0xbcf1647c	-0.02946686
204	0x3db39edd	0.08770535
205	0x3d9bae4a	0.076016024
206	0xbd15bc44	-0.036556497
207	0x3d3f794b	0.046746533
208	0x39c64e0d	0.00037823655
209	0xbdad27f7	-0.08454888
210	0x3bb4f89a	0.0055227997
211	0xbda2250c	-0.079172224
212	0xbde9dc18	-0.11418933
213	0x3c75b651	0.014997081
214	0xbc16d050	-0.009204939
215	0x3d0436f1	0.03227896
216	0xbc754f3a	-0.014972502
217	0x3da6032f	0.08106076
218	0x3d50dc8f	0.05099159
219	0x3cba8e03	0.022772795
220	0x3ded5561	0.1158855
221	0x3d4b8bc5	0.04969384
222	0xbd379fb0	-0.044830024
223	0x3ce2c036	0.027679544
224	0x3d56166c	0.052267477
225	0x3d63a9f3	0.055581998
226	0x3d5a6104	0.053315178
227	0x3a90309a	0.0011000813
228	0xbd46b472	-0.04851193
229	0x3d0bcb94	0.034129694
230	0x3d5ee56d	0.054418016
231	0x3a974314	0.0011540377
232	0x3c6253b9	0.013813906
233	0x3d01ccf4	0.0316896
234	0x3c502064	0.012703035
235	0xbd911665	-0.070843495
236	0xbd41aee5	-0.047285933
237	0x3d4d9fe0	0.050201297
238	0xbde1a751	-0.11018241
239	0xbdf12e16	-0.11776368
240	0x3d80c04c	0.06286678
241	0x3ca68774	0.020328261
242	0xbd76c9f1	-0.06025118
243	0xbd4b0d1e	-0.049573056
244	0x3da2e347	0.07953506
245	0x3da51837	0.08061259
246	0xbda60dfa	-0.081081346
247	0x3df75868	0.12077409
248	0x3dc8f8eb	0.09813102
249	0xb9a84a0b	-0.00032098623
250	0xbdd847dc	-0.10560581
251	0xbd1aad1e	-0.037762754
252	0xbbd675a5	-0.006544786
253	0x3d1cabf8	0.03824994
254	0x3c8480c5	0.016174683
255	0xbcac128f	-0.021004943
