DeepWonder3D_pytorch/pth/SEG_pth/Unet4_no_end_UNet3DFFD_20240401-1432_2um/seg_129.pth (torch, 138281 bytes, 19 tensors)

Generator.conv1.conv1.0.weight f4 [8, 1, 3, 3, 3]
0	0x3ddf4fcc	0.10903892
1	0x3dca6530	0.09882581
2	0xbd5aeeb6	-0.05345031
3	0x3e113ce3	0.14183383
4	0xbdf471ba	-0.11935754
5	0xbdf343aa	-0.1187814
6	0x3c021ca1	0.007941396
7	0x3bc3e6f8	0.0059784614
8	0x3dd8717f	0.10568523
9	0x3ced88ee	0.028995957
10	0xbe26172f	-0.16219781
11	0x3db899c8	0.090137064
12	0x3dfd52be	0.123692974
13	0x3dda28b8	0.10652298
14	0x3d1fde88	0.03903058
15	0xbe3edb4d	-0.18638344
16	0x3dbb7f3c	0.091551274
17	0xbe4b11e6	-0.19831046
18	0xbdf48feb	-0.11941513
19	0xbdeefa47	-0.1166883
20	0xbd7857dd	-0.060630668
21	0x3d2aa91c	0.04166518
22	0xbd46df14	-0.048552588
23	0x3d850935	0.06495897
24	0xbe4ad966	-0.19809493
25	0xbb6dd7d5	-0.0036291976
26	0x3e0112af	0.12604783
27	0x3e1a305e	0.15057513
28	0x3e16cb1d	0.14725919
29	0x3c0dd799	0.0086573595
30	0x3db52cf2	0.08846463
31	0xbe093f31	-0.13403012
32	0xbe3ac294	-0.18238288
33	0x3e1839c1	0.14865781
34	0x3cf531f2	0.029931042
35	0xbd94c03b	-0.072632276
36	0xbdf357f0	-0.11882007
37	0x3e1acd5a	0.15117398
38	0xbd489153	-0.048966717
39	0xbe025807	-0.12728892
40	0xbda08148	-0.078371584
41	0x3bd96c27	0.006635207
42	0xbe40583f	-0.18783663
43	0xbe559a30	-0.20859599
44	0xbc728071	-0.014801131
45	0x3de5a30a	0.11212738
46	0x3cc4593d	0.023968333
47	0x3e4a0613	0.1972888
48	0x3e3190dd	0.17340417
49	0xbdb64f5a	-0.08901854
50	0x3e21ed82	0.15813258
51	0x3dcbe0dd	0.09954999
52	0xbdfb1402	-0.122596756
53	0xbd96f6d3	-0.07371297
54	0x3d8e09f7	0.069354944
55	0xbd13b212	-0.036058493
56	0xbde76e24	-0.113003045
57	0x3ce88164	0.02838201
58	0x3dce2a2a	0.10066636
59	0xbb80554a	-0.0039164172
60	0xbe23d565	-0.15999372
61	0xbde49735	-0.11161653
62	0xbd6f4e90	-0.058424532
63	0x3d23df1c	0.040007696
64	0x3dcc619b	0.09979554
65	0x3cbc625f	0.022996126
66	0xbd2fa24b	-0.042879384
67	0x3d24e850	0.040260613
68	0x3d9a7063	0.07540967
69	0x3d47e83c	0.04880546
70	0xbaec0fb1	-0.0018010047
71	0x3b7d8bf8	0.0038688164
72	0xbe2bd26e	-0.16779491
73	0x3d05b757	0.03264555
74	0x3d129dfb	0.035795193
75	0xbc490746	-0.0122698005
76	0xbda28aa3	-0.07936599
77	0x3da6f866	0.08152847
78	0xbea66a1d	-0.32502833
79	0x3c6d6578	0.014489524
80	0xbe7e873d	-0.24856277
81	0xbdbaee5a	-0.09127493
82	0xbe17120c	-0.14752978
83	0x3e2212b4	0.15827447
84	0xbe4adf5c	-0.19811767
85	0xbd9292e1	-0.07156921
86	0xbca60343	-0.020265227
87	0x3da4a4f5	0.080392756
88	0xbde62949	-0.11238343
89	0x3d6a5d2e	0.05721777
90	0xbe5429ee	-0.2071912
91	0xbd6ed937	-0.05831262
92	0x3ce1f4c1	0.027582528
93	0x3dd09904	0.101854354
94	0xbe4a1b4d	-0.19736977
95	0xbe26b5c5	-0.16280277
96	0xbd16389d	-0.036675084
97	0x3e0229ec	0.12711304
98	0x3db6ff81	0.08935452
99	0xbd60e864	-0.054909125
100	0x3d82910a	0.0637532
101	0x3dbbab12	0.091634884
102	0xbd842809	-0.064529486
103	0x3d7218af	0.05910557
104	0x3da26f83	0.079314254
105	0x3c7cb867	0.015424824
106	0xbe24fe28	-0.16112578
107	0xbe614682	-0.21999553
108	0x3e0646e4	0.1311298
109	0xbe23eca2	-0.16008237
110	0xbd6ad5ab	-0.057332676
111	0xbe003ad8	-0.12522447
112	0xbcb52a56	-0.022114914
113	0x3c4f2108	0.012642153
114	0xbd1663e8	-0.03671637
115	0x3d906bb5	0.070517935
116	0x3d2b7ebb	0.041868906
117	0xbc658221	-0.014008076
118	0x3dce33b0	0.10068452
119	0xbe3f7d0e	-0.18700048
120	0xbd6b6fc5	-0.05747964
121	0xbd13d86a	-0.03609506
122	0xbc18ae22	-0.00931886
123	0x3dd93dcb	0.10607489
124	0x3c99aa13	0.018757856
125	0x3dea43c4	0.114387065
126	0xbe43024c	-0.19043845
127	0x3da8b3d2	0.08237423
128	0x3df0ace0	0.11751723
129	0x3dc3c1ae	0.09558426
130	0x3d20f847	0.039299276
131	0xbddd4807	-0.10804754
132	0xbe1ce07c	-0.15320009
133	0xbda0539b	-0.078284465
134	0x3dd20645	0.10255102
135	0x3d2867b3	0.04111452
136	0xbdc91ad1	-0.09819568
137	0x3e02f436	0.12788472
138	0x3de58bc7	0.11208301
139	0xbd849828	-0.06474334
140	0xbe00b915	-0.12570603
141	0xbe41af42	-0.18914512
142	0x3e333005	0.17498787
143	0x3c2be592	0.010491746
144	0xbd97f922	-0.07420565
145	0xbe33cb68	-0.17558062
146	0x3d91d524	0.071207315
147	0x3dcda8cc	0.10041961
148	0xbe292e5f	-0.16521595
149	0xbe55ee54	-0.20891696
150	0xbd9d1830	-0.07670629
151	0x3d8e087f	0.06935214
152	0x3e1064c7	0.14100944
153	0xbcbaa938	-0.022785768
154	0xbcff0d4c	-0.03113427
155	0x3dffc7a4	0.1248925
156	0x3cb6d683	0.022319084
157	0x3e2733d9	0.16328372
158	0xbdb5cd7c	-0.08877084
159	0xbbefde21	-0.007320181
160	0xbd680f22	-0.056655057
161	0x3e398355	0.18116505
162	0xbe53692e	-0.20645592
163	0x3e2dd515	0.16975816
164	0xbda517de	-0.08061193
165	0x3db6eeb7	0.0893225
166	0x3b963f37	0.0045851725
167	0xbd65e87a	-0.05612991
168	0x3d128d4e	0.03577929
169	0xbca50455	-0.020143667
170	0x3d4981b2	0.049195953
171	0x3d82b1a8	0.063815415
172	0xbd8743d0	-0.06604731
173	0x3e60e251	0.21961333
174	0xbe4f76fb	-0.20260231
175	0xbdab48a7	-0.08363467
176	0x3c761286	0.015019065
177	0xbd495e41	-0.049162153
178	0x3df86391	0.12128366
179	0x3d16483b	0.036689978
180	0xbd912ca1	-0.070885904
181	0xbd5a2ad9	-0.05326352
182	0x3dc42bf7	0.09578698
183	0xbe1149c0	-0.1418829
184	0x3d55056f	0.052007135
185	0x3dc341b7	0.095340185
186	0xbdee89ad	-0.11647353
187	0x3b28b270	0.0025741123
188	0x3e205ed9	0.15661182
189	0xbd2a257a	-0.041539647
190	0x3e08dede	0.13366267
191	0x3cd34d66	0.025793742
192	0x3d52960d	0.05141263
193	0x3dd91009	0.105987616
194	0xbe519621	-0.20467426
195	0xbd68672c	-0.056739017
196	0xb9567f32	-0.00020456014
197	0x3e0158c2	0.12631515
198	0xbcd81d05	-0.026381025
199	0xbda04c89	-0.07827098
200	0xbd3fcf44	-0.046828523
201	0xbe46e16f	-0.19421934
202	0x3e064a70	0.13114333
203	0xbdc247c6	-0.09486346
204	0xbd991de0	-0.07476401
205	0x3e23c9e8	0.1599499
206	0x3cb12d85	0.02162815
207	0xbd7d79a7	-0.061883595
208	0xbd042ac7	-0.03226736
209	0xbc1c60ba	-0.009544546
210	0xbe55c583	-0.20876126
211	0x3db7fb35	0.08983461
212	0xbddc3104	-0.107515365
213	0xbe2ebe78	-0.17064846
214	0xbdbc4f0b	-0.09194764
215	0x3dcea920	0.10090852

Generator.conv1.conv2.0.weight f4 [8, 8, 3, 3, 3]
0	0x3e052c4e	0.13005182
1	0x3d34e529	0.044163857
2	0x3d89637f	0.067084305
3	0xbcb477d5	-0.022029797
4	0xbd64db50	-0.055873215
5	0x3b9f702a	0.004865666
6	0x3e26bd44	0.16283137
7	0x3ded271f	0.115797274
8	0x3e846509	0.25858334
9	0x3c6326b1	0.013864205
10	0x3caf6528	0.02141054
11	0x3ca924fa	0.020647515
12	0x3cdd9cfc	0.027052395
13	0x3db98c97	0.090600185
14	0xbce7dfde	-0.02830499
15	0x3d83ce76	0.06435864
16	0xbcbd65ff	-0.023119925
17	0x3dda69f8	0.10664743
18	0x3cd68ae3	0.026189273
19	0x3dfe5f24	0.124204904
20	0x3de76869	0.112992115
21	0x3dd5c5a1	0.10438085
22	0x3e04acad	0.12956496
23	0x3dce5a53	0.10075822
24	0x3e0c609c	0.13708729
25	0x3e1529e9	0.14566769
26	0x3e269379	0.16267194
27	0xbdef3679	-0.11680312
28	0xbd8b8200	-0.06811905
29	0xbdd5400d	-0.10412607
30	0xbcdd8cbd	-0.027044648
31	0xbd59aef4	-0.053145364
32	0xbdf4cbb3	-0.11952915
33	0xbca1752f	-0.019709198
34	0x3d5333f2	0.05156321
35	0xbdbe2c13	-0.0928575
36	0xbdd8f0db	-0.105928145
37	0x3e119939	0.14218606
38	0xbe0b4bc2	-0.13603118
39	0xbca044a2	-0.019563977
40	0x3ddf49ab	0.10902723
41	0xbe9ca7a7	-0.3059666
42	0xbce9bc8b	-0.028532287
43	0x3d7984c8	0.060917646
44	0x3ca538a8	0.020168617
45	0x3cc1c72e	0.023654547
46	0x3e3198ac	0.17343396
47	0xbe8437fb	-0.2582396
48	0xbd18ebba	-0.03733418
49	0x3df37c65	0.11888961
50	0xbe9dfd53	-0.30857334
51	0xbda486f9	-0.080335565
52	0x3c4909af	0.012270375
53	0x3b000db6	0.0019539422
54	0x3e087b24	0.13328224
55	0x3cb52077	0.022110207
56	0x3cf02ce7	0.029318286
57	0x3ae1bf93	0.0017223231
58	0xbd7867e4	-0.060645953
59	0xbcb8b77d	-0.022548432
60	0x3d31fa96	0.043451868
61	0x3bc8afc5	0.006124469
62	0xbd4b83b6	-0.049686156
63	0x3e09b8f6	0.13449463
64	0x3d526659	0.051367138
65	0x3cb1df4b	0.02171292
66	0x3c1f0151	0.009704904
67	0x3d3e9416	0.046527945
68	0x3d91ac2c	0.07112917
69	0x3deeb222	0.1165507
70	0x3d1ff5f8	0.039052933
71	0x3d4b56b2	0.049643226
72	0x3b54e7f2	0.0032486883
73	0xbc45e2f8	-0.012078039
74	0x3d927a84	0.07152274
75	0xbda6e7dc	-0.081496924
76	0x3a66eb6a	0.0008808883
77	0xbccb1f8b	-0.024795314
78	0x3dbf88e1	0.093522795
79	0x3dca2905	0.09871105
80	0x3d7edf3c	0.06222461
81	0xbcc456e0	-0.023967206
82	0x3d7d5945	0.061852712
83	0x3d29fb17	0.041499224
84	0x3e0f62ac	0.14002484
85	0x3b066373	0.0020506054
86	0xbbce29ae	-0.0062915897
87	0x3c05dedb	0.008170809
88	0xbd2352c0	-0.03987384
89	0x3c0ed01f	0.008716612
90	0x3caa7a81	0.020810368
91	0x3c91c85e	0.017795738
92	0x3d2e9a32	0.04262752
93	0xbd3a9e30	-0.045561016
94	0x3c726079	0.014793509
95	0x3d6b216c	0.05740492
96	0xbd0f2730	-0.03494948
97	0x3cbeba92	0.023282323
98	0x3ce5e790	0.02806452
99	0x3d88c6aa	0.06678517
100	0xbd3d7e0a	-0.04626278
101	0xbd472c4e	-0.048626237
102	0xbbfe46a6	-0.007759887
103	0x3d1c67c2	0.03818489
104	0x3d554155	0.05206426
105	0x3cf8026b	0.03027459
106	0x3d1d684e	0.03842955
107	0x3c9cf885	0.019161472
108	0x3d458847	0.048225667
109	0xbe010b19	-0.1260189
110	0xbdde42a4	-0.108525544
111	0xbd4ba93f	-0.049721953
112	0x3cbfbfa6	0.023406815
113	0xbddcd981	-0.10783673
114	0x3cd361cd	0.025803471
115	0xbc93be59	-0.0180351
116	0x3d8e064c	0.06934795
117	0xbde0ff37	-0.10986178
118	0xbc390d4b	-0.011294673
119	0x3da7fac1	0.082021244
120	0xbd50d780	-0.050986767
121	0x3d8009f4	0.062518984
122	0x3da9ed13	0.082971714
123	0xbe00ec57	-0.12590156
124	0x3dc0f1b1	0.09421099
125	0x3d220a23	0.03956045
126	0xbe0e0daa	-0.138724
127	0x3df29363	0.11844518
128	0x3d87f8f3	0.0663928
129	0xbdd0cd05	-0.10195354
130	0x3e00029b	0.12500994
131	0xbcfb06d4	-0.030642904
132	0xbe7ed0b2	-0.24884298
133	0x3dd1af01	0.102384575
134	0xbc6e76e8	-0.014554717
135	0x3d91bcae	0.07116066
136	0x3d93ee59	0.072231956
137	0x3d0ee2b9	0.03488419
138	0x3be14fe5	0.0068759792
139	0x3d313ce8	0.043270975
140	0xbd3c80d9	-0.046021316
141	0x3d92f49d	0.071755625
142	0xbdd0d369	-0.10196573
143	0xbd539ab0	-0.051661193
144	0xbe18e900	-0.14932632
145	0x3d3e47d7	0.04645523
146	0x3ca7473a	0.020419706
147	0xbd8c31c0	-0.068454266
148	0x3d353776	0.044242345
149	0xbc8f55d4	-0.01749698
150	0x3c90f050	0.017692715
151	0xbc2e267e	-0.010629294
152	0xbdde1e06	-0.1084557
153	0xbd330cfa	-0.043713547
154	0x3d6dfe4f	0.058103856
155	0x3d41dec5	0.04733159
156	0xbd2a5d4d	-0.041592885
157	0x3e00e303	0.12586598
158	0x3d84fe5d	0.064938284
159	0xbd76b0c6	-0.060227178
160	0xbc9078b6	-0.017635684
161	0x3ab5e8e1	0.0013878607
162	0x3d536dda	0.051618434
163	0xbda5bbc2	-0.080924526
164	0xbe07a636	-0.13246998
165	0x3d5a57b2	0.05330629
166	0xbd79d1bc	-0.060991034
167	0xbda1fcd7	-0.079095535
168	0x3e0330c4	0.12811571
169	0xbde34dbd	-0.11098812
170	0xbc95aa73	-0.018269753
171	0x3d31d283	0.04341365
172	0xbe133cb5	-0.14378627
173	0xbc9f533d	-0.01944887
174	0x3cd206cf	0.025638012
175	0xbc137470	-0.008999929
176	0xbd979fe9	-0.07403547
177	0xbd41acf5	-0.047284085
178	0xbdc7fef3	-0.097654246
179	0xbca2afe8	-0.01985927
180	0x3d28044a	0.041019715
181	0xbd124a07	-0.03571513
182	0x3dd10c02	0.102073684
183	0xbc331e49	-0.0109325135
184	0x3dbf257f	0.09333324
185	0x3d8d2392	0.0689155
186	0xbd822e5f	-0.06356501
187	0xbe4289d6	-0.18997893
188	0xbd209cff	-0.039212223
189	0xbbb4e326	-0.0055202423
190	0xbd904b53	-0.07045617
191	0x3b8ab2f1	0.0042327573
192	0x3d243480	0.04008913
193	0x3ce7cfb9	0.028297292
194	0x3d377482	0.044788845
195	0x3d343cb6	0.04400321
196	0xbd87da52	-0.06633438
197	0x3c2f0257	0.01068171
198	0x3bd56939	0.0065127877
199	0xbe42d75d	-0.19027467
200	0x3d84767f	0.06467914
201	0xbaf50f04	-0.0018696492
202	0xbe103f74	-0.14086705
203	0x3dfbef13	0.12301459
204	0x3da7f277	0.082005434
205	0xbe5c5ed1	-0.21520545
206	0x3d985829	0.0743869
207	0xbdd1af32	-0.10238494
208	0x3dbbf7b8	0.09178108
209	0xbe34ef1b	-0.17669336
210	0xbe1aff1e	-0.15136382
211	0x3e19466a	0.14968267
212	0xbe308e13	-0.17241697
213	0xbe4b85b4	-0.19875222
214	0x3d909d1a	0.07061215
215	0xbe1632cb	-0.14667813
216	0x3e36af9b	0.17840426
217	0x3e10f499	0.14155807
218	0x3e7b118e	0.24518415
219	0x3b8807b5	0.0041513094
220	0x3d069456	0.032856308
221	0x3df68037	0.12036174
222	0x3e7b7328	0.24555647
223	0x3e7e2b45	0.24821194
224	0x3e682ff5	0.22674544
225	0x3dcc405d	0.09973214
226	0x3d53fa30	0.05175227
227	0x3e201b6f	0.15635465
228	0x3c1acd8d	0.009448421
229	0x3d812b20	0.063070536
230	0x3d0418ed	0.032250334
231	0x3d42c990	0.047555506
232	0xbb2872ae	-0.002570312
233	0x3d632f72	0.05546517
234	0x3d8d1333	0.068884276
235	0x3dbdcb8a	0.092673376
236	0x3cf94c3d	0.030431861
237	0x3dc28559	0.0949809
238	0x3d9fd018	0.078033626
239	0x3da7c6f8	0.08192247
240	0x3d818b7f	0.06325435
241	0xba1dbe3b	-0.0006017421
242	0x3dd3b045	0.10336355
243	0xbd9eb419	-0.07749195
244	0xbd44fd96	-0.0480934
245	0xbd212e9d	-0.039351095
246	0xbd2f3c38	-0.04278204
247	0xbd99dc73	-0.075127505
248	0x3cb3f165	0.021965692
249	0x3d042a25	0.032266755
250	0x3c686dc3	0.0141863255
251	0x3c4f789b	0.012663032
252	0x3d6e5c4e	0.058193497
253	0xbce710d1	-0.02820626
254	0xbc3594ae	-0.011082811
255	0x3d7fedc4	0.06248261

Generator.conv2.conv1.0.weight f4 [8, 8, 3, 3, 3]
0	0x3b11af6f	0.002222981
1	0xbc2ef5b2	-0.0106786955
2	0x3cc48338	0.023988351
3	0x3df5dc13	0.120048665
4	0x3d2681f0	0.04065126
5	0xbd7c675d	-0.061622012
6	0xbe1d607f	-0.15368842
7	0xbcf5804e	-0.029968407
8	0x3cdece8e	0.027198102
9	0xbd9a4636	-0.07532923
10	0xbd07cac9	-0.033152375
11	0x3bfd9b44	0.0077394564
12	0xbdaa97a0	-0.083297014
13	0x3c4e1147	0.012577361
14	0x3cb5e17b	0.022202244
15	0xbcfbf706	-0.030757438
16	0xbda34e8a	-0.079739645
17	0x3d8588fa	0.06520267
18	0x3ca9fba7	0.02074988
19	0xbd598bd9	-0.053111885
20	0xbc7585c6	-0.014985507
21	0x3b9acca9	0.0047241044
22	0xbd30a747	-0.043128278
23	0x3cf7790b	0.030209085
24	0x3d23c74f	0.039984997
25	0xbcc2bde6	-0.023772191
26	0x3d49f146	0.049302362
27	0x3d4aca08	0.04950908
28	0xbd101ddb	-0.035184722
29	0xbd667517	-0.05626401
30	0xbba9d024	-0.005182283
31	0xbc6e6756	-0.014551004
32	0xbd2f602b	-0.042816322
33	0x3d3099ad	0.043115307
34	0x3d90fa11	0.070789464
35	0x3bd447f7	0.0064783054
36	0xbe0ff59a	-0.14058533
37	0xbe0826c6	-0.13296041
38	0xbd9f0d79	-0.077662416
39	0xbdb3843e	-0.087654576
40	0xbd8d98be	-0.06913899
41	0xbd9b8cfc	-0.0759525
42	0x3ddcee80	0.10787678
43	0xbbfca969	-0.007710625
44	0xbcf05fbe	-0.029342528
45	0xbd3edf10	-0.046599448
46	0xbd8a267d	-0.06745622
47	0xbe257a7d	-0.16160007
48	0x3b446c3b	0.0029971737
49	0xbd80be6b	-0.06286319
50	0xbdca421f	-0.09875893
51	0x3d9f537c	0.07779595
52	0xbc029a2e	-0.00797133
53	0xbd7675fc	-0.060171112
54	0xbd17bd1b	-0.03704558
55	0x3d78d19d	0.060746778
56	0x3e26c3cd	0.1628563
57	0xbb0be153	-0.002134402
58	0xba901459	-0.0010992392
59	0x3e455bc8	0.19273293
60	0xbc64dfe7	-0.013969398
61	0xbd53c8a3	-0.051705014
62	0x3d331096	0.04371699
63	0xbe0d50f5	-0.13800414
64	0x3cb722a5	0.022355387
65	0x3da964a4	0.08271149
66	0xbd9149f1	-0.07094181
67	0xbbac9be5	-0.0052676075
68	0x3dc7d392	0.09757151
69	0xbe186c2a	-0.14885011
70	0xbd0d39dd	-0.03447901
71	0x3d086fed	0.033309866
72	0xbe0ed1ad	-0.13947172
73	0xbc8f02cd	-0.01745739
74	0x3dbdb050	0.092621446
75	0xbe183732	-0.14864805
76	0x3d557bca	0.052120008
77	0x3e037cc4	0.12840563
78	0xbdaa600f	-0.08319103
79	0xbd7b7eda	-0.061400272
80	0x3d88cf1e	0.066801295
81	0x3c60d5cc	0.013722848
82	0xbc52f75d	-0.012876359
83	0x3d57443a	0.0525553
84	0xbd9996f6	-0.07499497
85	0xbd488b24	-0.04896082
86	0xbc19a797	-0.009378335
87	0xbc60e1b0	-0.013725683
88	0xbcfbc604	-0.03073407
89	0x3db68fed	0.089141704
90	0x3deb5d47	0.114924006
91	0x38e18b3d	0.00010754771
92	0x3d703e40	0.058653116
93	0x3d26b365	0.040698428
94	0xbc57478b	-0.013139616
95	0x3c913c88	0.017729059
96	0x3c032f0b	0.008006821
97	0xbd45bba6	-0.04827466
98	0x3d1faf16	0.038985334
99	0x3b86879f	0.0041055228
100	0x3cb2ec67	0.021841241
101	0xbd0b70ea	-0.03404323
102	0xbdbf4648	-0.09339577
103	0xbd446c8b	-0.047955077
104	0x3d4594a1	0.048237447
105	0xbcc85715	-0.024455586
106	0xbd4dd21f	-0.050249215
107	0x3be55aab	0.006999334
108	0x3d91ab73	0.071127795
109	0x3d77185c	0.060325965
110	0xbcd6f5b3	-0.026240205
111	0x3c89317f	0.016747234
112	0xbcf3d4d0	-0.029764563
113	0x3cac62bf	0.02104318
114	0xbb441f68	-0.0029925946
115	0x37b6a070	2.17708e-05
116	0x3ce2ccd7	0.027685566
117	0x3c8d95b8	0.017283306
118	0x3c0ff6be	0.008786855
119	0x3d6e4705	0.0581732
120	0x3d3564a5	0.044285435
121	0x3d82dc13	0.06389632
122	0x3d8f8a3f	0.0700879
123	0x3d7f0741	0.062262777
124	0xbcfcc576	-0.030855875
125	0x3dc9e4c0	0.09858084
126	0xbd235e24	-0.0398847
127	0x3c739146	0.014866179
128	0x3d87c02f	0.06628453
129	0xbd635eba	-0.05551026
130	0x3d128227	0.035768654
131	0x3d7c71b3	0.06163187
132	0x3ba53b6a	0.005042483
133	0xbd1e5078	-0.03865096
134	0xbd76aa9e	-0.060221307
135	0x3c20e51e	0.009820251
136	0x3db820d5	0.08990637
137	0x3ce5cb6e	0.028051104
138	0x3b239391	0.0024959783
139	0x3d9b57ee	0.07585131
140	0x3d50b826	0.050956868
141	0xbb52ba5a	-0.0032154531
142	0xbd920945	-0.07130674
143	0xbce6dfcd	-0.028182888
144	0x3bdc0dfc	0.0067155343
145	0x3b8827f3	0.004155153
146	0xbbcd58da	-0.0062666954
147	0xbd2a0406	-0.041507743
148	0xbd72d17c	-0.05928181
149	0xbd3834ae	-0.044972114
150	0xbd3d05b5	-0.04614802
151	0xbdc83e8a	-0.097775534
152	0x3cf1172a	0.02942999
153	0xbc70e23a	-0.014702374
154	0xbc112484	-0.008858804
155	0x3c81dfbe	0.015853759
156	0xbdb2ed76	-0.08736698
157	0xbc27f4a0	-0.010251194
158	0xbd1bedcc	-0.038068578
159	0xbe1ff554	-0.15620929
160	0xbe44e1a2	-0.19226697
161	0x3cd244ac	0.02566751
162	0x3da10436	0.07862131
163	0x3d9fb021	0.07797266
164	0x3daddd59	0.08489484
165	0x3d835dd9	0.064143844
166	0x3c156c62	0.009120079
167	0x3ccd4ab3	0.025060033
168	0xbbad1050	-0.0052814856
169	0x3dab4f20	0.08364701
170	0x3c423be8	0.011855103
171	0x3c81428a	0.015778799
172	0x3be1c354	0.00688974
173	0xbb9e6dc6	-0.0048348634
174	0x3d48f08a	0.04905752
175	0x3da58404	0.080818206
176	0x3dc319cd	0.095264055
177	0x3d9ff72a	0.07810815
178	0x3d333cd8	0.043759197
179	0x3d8976a1	0.0671208
180	0x3d8ef8bc	0.06981036
181	0x3c5f9b32	0.013647841
182	0xbc58a296	-0.013222357
183	0xbd460a26	-0.048349522
184	0x3d7bb0d7	0.061447944
185	0xbc544268	-0.012955286
186	0x3d220a25	0.039560456
187	0xbd5d3d4b	-0.05401353
188	0x3cd470a2	0.025932614
189	0xbb4893fa	-0.003060578
190	0xbc50e6c1	-0.0127503285
191	0x3da65f80	0.08123684
192	0xbd8e9d18	-0.06963557
193	0xbd61b2c9	-0.055102143
194	0xb900abf1	-0.00012271084
195	0xbdd94c06	-0.106102034
196	0xbd78ed65	-0.060773272
197	0x3c57662c	0.013146918
198	0xbcf76339	-0.03019868
199	0xbd8873f9	-0.06662745
200	0x3d608f49	0.054824147
201	0xbda9838a	-0.08277042
202	0xbd099465	-0.033588786
203	0x3cf64384	0.03006149
204	0xbd747e2a	-0.059690632
205	0xbdd939b7	-0.10606711
206	0x3db576b2	0.0886053
207	0xbda04261	-0.07825161
208	0xbd82ad85	-0.063807525
209	0x3d8bb33e	0.06821297
210	0xbc2e3393	-0.010632413
211	0x3bcb3c42	0.0062022517
212	0x3d96385d	0.07334969
213	0xbdbbfed2	-0.091794625
214	0xbd8657f4	-0.065597445
215	0x3c8315df	0.01600164
216	0xbcab0f12	-0.02088121
217	0x3be563d3	0.0070004254
218	0x3e17f944	0.14841181
219	0xbdca1ef0	-0.09869182
220	0xba65cac8	-0.00087658735
221	0x3d3844bd	0.04498743
222	0x3d418b12	0.04725177
223	0xbccc4948	-0.024937287
224	0x3e0b837e	0.13624379
225	0xbd3e07b1	-0.046394054
226	0xbce88f78	-0.028388724
227	0x3d87dcac	0.06633887
228	0xbcc21cd9	-0.023695396
229	0x3c924276	0.017853957
230	0x3d58d595	0.052938063
231	0x3d1c3230	0.0381338
232	0x3da0efe7	0.07858258
233	0x3ca5299b	0.02016144
234	0x3c93a0f8	0.018021092
235	0xbdac0479	-0.083992906
236	0xbc3dc74e	-0.0115831625
237	0x3d801fcd	0.062560655
238	0x3bb656aa	0.0055645304
239	0xbc5cbe3a	-0.013473088
240	0x3d645c69	0.05575219
241	0x3dae4f97	0.08511274
242	0x3beff9c2	0.0073234746
243	0xbcecafe7	-0.02889247
244	0xbc2751c5	-0.0102123665
245	0x3c12fa86	0.008970862
246	0xbd63036a	-0.055423178
247	0x3d1fd3dd	0.039020408
248	0x3cf39c50	0.029737622
249	0x3c9d0359	0.019166635
250	0x3d2ddabe	0.042444937
251	0xbca39736	-0.019969564
252	0xbded23a1	-0.11579061
253	0xbdeec607	-0.116588645
254	0xbd79262f	-0.06082743
255	0xbd8424a6	-0.06452303

Generator.conv2.conv2.0.weight f4 [8, 8, 3, 3, 3]
0	0x3d5ba2f7	0.053622212
1	0xbd394d8b	-0.045239966
2	0x3cb8020c	0.022461914
3	0x3d65b2fa	0.05607889
4	0x3db961da	0.09051867
5	0x3d6cd18e	0.057817034
6	0x3d0bf5af	0.03416985
7	0x3d509078	0.050919026
8	0x3dcb965d	0.09940789
9	0x3db32b65	0.08748511
10	0x3b0186ec	0.0019764258
11	0x3d8c484f	0.06849729
12	0x3c84655a	0.01616161
13	0x3cdd01fb	0.026978483
14	0xbd195a5a	-0.03743968
15	0x3d87009b	0.06591912
16	0xbd171e5c	-0.036894187
17	0x3cd89fab	0.026443323
18	0xbc90962a	-0.017649729
19	0xbd5d89a2	-0.054086335
20	0xbcaff3bb	-0.021478524
21	0x3d516ce9	0.051129255
22	0xbd9f8d98	-0.07790679
23	0xbd9ee781	-0.077589996
24	0xbdb462e7	-0.088079266
25	0xbcde3fa7	-0.027129961
26	0xbd1fbac0	-0.038996458
27	0x3da608f2	0.08107175
28	0x3d804c69	0.06264574
29	0xbc4be98e	-0.0124458205
30	0x3d0f1a06	0.034936927
31	0x3d859f93	0.06524577
32	0x3e0af832	0.13571241
33	0x3d970f1f	0.07375931
34	0x3d3d736b	0.04625265
35	0x3d88b900	0.06675911
36	0x3d2fef9a	0.04295311
37	0xb9cae52d	-0.00038699192
38	0xbd3f7d68	-0.046750456
39	0xbb5ac1b2	-0.0033379612
40	0x3da01cbe	0.07817982
41	0x3ca66236	0.020310502
42	0xbc601dca	-0.013678977
43	0xbc294b0e	-0.010332836
44	0x3dae3984	0.08507064
45	0xbc25ae3e	-0.010112343
46	0x3d79a963	0.060952555
47	0xbcc08267	-0.02349968
48	0x3d3efb1a	0.046626188
49	0x3cdf7f2c	0.02728232
50	0x3c69b7cd	0.014265013
51	0xbcc5e1d3	-0.024155533
52	0x3d8c38be	0.0684676
53	0x3cefc9d3	0.029271042
54	0x3e4c9e9b	0.19982378
55	0x3dc97cee	0.098382816
56	0x3cf8ef46	0.030387532
57	0xbd2f4591	-0.042790953
58	0xbdaf57a1	-0.08561636
59	0xbd83bbfe	-0.06432341
60	0x3d1678b9	0.036736224
61	0xbbff726e	-0.0077956235
62	0xbd1c1012	-0.038101263
63	0xbac5a78a	-0.0015079838
64	0xbdaac625	-0.08338574
65	0xbc9e1e73	-0.019301629
66	0xbdcd7071	-0.10031212
67	0xbda9bb3f	-0.082876675
68	0xbe22d2a7	-0.1590067
69	0x3c989dad	0.018629873
70	0xbb06e885	-0.002058537
71	0xbe0192ab	-0.12653606
72	0x3c91c7cf	0.017795471
73	0xbcde51e4	-0.027138658
74	0x3da16315	0.078802265
75	0xbd234f1b	-0.039870363
76	0xbdf52d2f	-0.11971509
77	0xbc415134	-0.0117991455
78	0x3db308da	0.08741923
79	0x3ce7374b	0.028224608
80	0xbd5d456d	-0.054021288
81	0x3d9b24cb	0.07575377
82	0x3da66a66	0.08125763
83	0x3df365ec	0.118846744
84	0xbc549ec5	-0.012977307
85	0x3d63ccb2	0.055615135
86	0xbaf894e5	-0.0018965272
87	0x3d2fcffd	0.042922962
88	0x3b5ca0b3	0.003366512
89	0xbc0be2e6	-0.0085379835
90	0x3e0d4070	0.13794112
91	0x3b8b6993	0.004254529
92	0x3d5d1feb	0.053985517
93	0xbc14626b	-0.009056668
94	0xbd8c175c	-0.06840393
95	0xbdc1ec57	-0.094689064
96	0xbc92a891	-0.017902644
97	0xbdcfbf85	-0.10143951
98	0x3cfcf147	0.030876769
99	0xbc97abbd	-0.018514508
100	0xbdc0b354	-0.09409204
101	0x3c8e6ca8	0.017385796
102	0xbda4e1f7	-0.08050912
103	0xbd9bb451	-0.07602752
104	0xbd88175d	-0.06645081
105	0x3cd00ee6	0.02539773
106	0xbdd7a294	-0.10529056
107	0xbd04031e	-0.032229535
108	0xbcc84a02	-0.024449352
109	0xbd0cbacc	-0.03435783
110	0xbcc829f3	-0.024434065
111	0x3d60299c	0.05472718
112	0x3d4b138b	0.049579185
113	0x3ba3c0c2	0.0049973438
114	0x3e004a92	0.12528446
115	0x3d9d1de1	0.076717146
116	0x3dd48635	0.103771605
117	0xbded0bb8	-0.11574501
118	0xbdcc0a02	-0.09962846
119	0xbc16c197	-0.009201429
120	0xbdcab230	-0.09897268
121	0xbda1961c	-0.07889959
122	0xbcbc1670	-0.022959918
123	0x3d1cbd45	0.03826644
124	0xb9dbfc6c	-0.00041959004
125	0x3d7b8b1f	0.061411973
126	0xbe350994	-0.17679435
127	0xbe0001b5	-0.12500651
128	0xbd3580cc	-0.044312283
129	0x3d805c93	0.06267657
130	0x3d4a3c76	0.049374066
131	0xbd26c372	-0.040713735
132	0x3d5cc48b	0.053898375
133	0xbce628c9	-0.02809562
134	0xbdc9fee3	-0.09863069
135	0x3c843b2c	0.016141497
136	0xbe20e31e	-0.15711638
137	0xbdcdf207	-0.10055929
138	0xbd97530c	-0.07388887
139	0xbe5704ff	-0.20998
140	0xbd192904	-0.03739263
141	0xbdd0d381	-0.10196591
142	0xbe163e84	-0.14672285
143	0x3df460e0	0.1193254
144	0xba2a55c0	-0.0006497763
145	0x3ba597af	0.0050534825
146	0xbd7b3aac	-0.06133525
147	0x3bee4bb5	0.0072722086
148	0xbd960c10	-0.073265195
149	0xbe049bab	-0.12950008
150	0x3e00a1c3	0.12561707
151	0xbdcfeede	-0.10152982
152	0xbdd2a689	-0.1028567
153	0x3dca2a37	0.09871333
154	0xbbcf4407	-0.006325248
155	0x3d9ee011	0.07757581
156	0x3d83735d	0.06418488
157	0xbca98664	-0.020693965
158	0xbe06b636	-0.13155445
159	0x3e5a18d2	0.2129853
160	0xbc7508cb	-0.01495571
161	0x3bcce7cd	0.0062532187
162	0x3db668ed	0.08906732
163	0xbc5c680b	-0.01345254
164	0x3e19a473	0.15004139
165	0x3c49142b	0.012272875
166	0xbd0994e5	-0.033589263
167	0xbd80b9fb	-0.06285473
168	0x3da69610	0.08134091
169	0xbd399da9	-0.045316372
170	0x3c7ecd77	0.015551916
171	0x3da1b500	0.07895851
172	0x3c3e8a99	0.011629724
173	0x3dfe4290	0.124150395
174	0x3dfd9d74	0.123835474
175	0x3c6afe89	0.0143429125
176	0x3b7fb103	0.003901542
177	0xbc61681f	-0.013757735
178	0xbb7f9e34	-0.0039004209
179	0xbdf22f0d	-0.118253805
180	0xbd3a4c19	-0.04548273
181	0x3dae4d79	0.085108705
182	0xbcd0392a	-0.025417883
183	0x3c696d4a	0.014247248
184	0x3d8acf14	0.06777778
185	0xbdde0aed	-0.10841928
186	0x3d3f721e	0.04673969
187	0x3b72c78b	0.0037045206
188	0xbdd1bc96	-0.10241048
189	0xbcd95734	-0.02653084
190	0xbd936295	-0.071965374
191	0xbdd22d0a	-0.10262497
192	0xbd87f210	-0.06637967
193	0xbd9cf52b	-0.076639496
194	0xbd9a4e76	-0.075344965
195	0xbd0dd4c0	-0.034626722
196	0xbbab0c4e	-0.0052199727
197	0x3bf23262	0.00739126
198	0xbd315e49	-0.043302808
199	0x3bd4a812	0.006489762
200	0xbd293137	-0.0413067
201	0xbbdb08f6	-0.006684418
202	0xbd3f09bd	-0.046640147
203	0xb900c6c7	-0.00012281082
204	0x3d771be2	0.060329325
205	0x3d58d899	0.05294094
206	0x3c67e700	0.014154196
207	0x3e0105c3	0.12599854
208	0x3d9f2e0b	0.07772454
209	0x3dcd521b	0.10025426
210	0x3d184e8f	0.037184294
211	0x3db9d479	0.09073729
212	0xb9f8131c	-0.00047316484
213	0x3e216c76	0.15764031
214	0x3cdcd281	0.026955845
215	0x3c2b32de	0.010449139
216	0xbdfff664	-0.12498167
217	0xbd824939	-0.06361622
218	0x3cc65aa7	0.024213148
219	0xbd6d66c8	-0.057959348
220	0xbd5d925a	-0.05409465
221	0xbdbedef5	-0.093198694
222	0xbe03955e	-0.12849948
223	0x390b2a64	0.00013271865
224	0xbc90410d	-0.017609144
225	0x3d7e9bec	0.062160417
226	0x3d38632e	0.04501646
227	0x3ab3f01b	0.0013728173
228	0x3d77b449	0.060474668
229	0x3cf0e10a	0.029404182
230	0x3bd3f53b	0.0064684427
231	0xbc2744df	-0.010209291
232	0xbba43339	-0.005010989
233	0x3d35e099	0.044403646
234	0x3d202954	0.039101914
235	0x3db0a807	0.08625799
236	0x3d70d0fb	0.05879305
237	0x3e0d6aae	0.13810226
238	0x3db3b2f4	0.08774367
239	0x3d64d2a8	0.05586496
240	0x3dff7c0f	0.12474834
241	0x3c467e4c	0.012115072
242	0x3cbf28c0	0.02333486
243	0xbdece58a	-0.115672186
244	0xbdb29f98	-0.08721846
245	0x3d87d7a6	0.066329286
246	0xbdd014c2	-0.10160209
247	0xbd9ad33e	-0.075598225
248	0xbc194c90	-0.009356633
249	0xbe5a73c8	-0.2133323
250	0xbdb44978	-0.088030756
251	0xbc0f542a	-0.008748094
252	0x3d212e43	0.03935076
253	0x3d2090e5	0.039200682
254	0xbd01f7ac	-0.03173034
255	0x3d1189e7	0.035531905

Generator.conv3.conv1.0.weight f4 [8, 8, 3, 3, 3]
0	0x3c00f7a0	0.007871538
1	0x3d97e480	0.0741663
2	0xbb1e3b1f	-0.0024144126
3	0xbcea578e	-0.028606202
4	0xbaf63cef	-0.001878647
5	0x3d2bdb3b	0.04195712
6	0x3dba99ac	0.09111342
7	0xbcbc410a	-0.022980232
8	0xbb9c5cdb	-0.0047718114
9	0xbcc07e3f	-0.023497699
10	0x3cdc4be3	0.026891654
11	0xbd4e70c0	-0.050400496
12	0x3ca876e0	0.020564497
13	0xbcb1d718	-0.02170901
14	0xbd91f244	-0.071262866
15	0xbd0447a1	-0.032294873
16	0x3d368daa	0.044568695
17	0xbcdda97a	-0.027058352
18	0xbccfab91	-0.025350364
19	0x3d9522be	0.07282017
20	0x3b26a59e	0.0025428305
21	0x3d41d9dd	0.04732691
22	0xbd92e379	-0.07172293
23	0x3bb0d2a2	0.005396203
24	0xbd5f17d9	-0.054466102
25	0x3c99de78	0.01878284
26	0xbd478469	-0.04871026
27	0xbd015e6f	-0.0315842
28	0x3c5a5b03	0.013327363
29	0x3d28f0d5	0.0412453
30	0x3b4c2885	0.0031152081
31	0xba94b054	-0.0011344054
32	0xbd850551	-0.06495155
33	0x3d916bb0	0.07100618
34	0xbd8f22f9	-0.069890924
35	0x3cd4155d	0.025889093
36	0x3c24cb0b	0.010058175
37	0x3d6be7f2	0.057594247
38	0x3e05a8f1	0.13052727
39	0xbcf6b3a7	-0.030114962
40	0xbcbc15c5	-0.0229596
41	0xbda3895f	-0.07985186
42	0xbad806e3	-0.0016481545
43	0xbdd5b95f	-0.10435747
44	0x3c96493c	0.018345468
45	0x3c25f128	0.010128297
46	0x3d6c91b4	0.05775614
47	0xbd1b1c94	-0.03786905
48	0x3cced6ce	0.025248911
49	0xbd037c0c	-0.032100722
50	0xbd744d25	-0.059643883
51	0xb84c5685	-4.8717968e-05
52	0xbd677720	-0.05651009
53	0x3c55f10e	0.01305796
54	0xbd206d5f	-0.039166804
55	0xbac35434	-0.0014902414
56	0xbd0404bf	-0.03223109
57	0xbd2e313d	-0.042527426
58	0xbd0dbfb8	-0.034606665
59	0x3cf8c6af	0.030368177
60	0xbcb64555	-0.022249857
61	0xbcda2eae	-0.026633587
62	0xbc7e93d0	-0.015538171
63	0x3cfdf764	0.031001754
64	0x3d13394a	0.035943307
65	0x3d8147a1	0.0631249
66	0xbd07cb83	-0.03315307
67	0x3dc3a4fe	0.09552954
68	0x3d9e1116	0.07718103
69	0xbd1eba59	-0.038751934
70	0x3c2b717d	0.010464069
71	0xbcd4edce	-0.0259923
72	0x3c480c53	0.01220997
73	0xbd8a4a8d	-0.06752501
74	0x3d1e7d49	0.0386937
75	0xbd19c402	-0.037540443
76	0x3d46f077	0.04856917
77	0xbc0443a9	-0.008072772
78	0x3cf803cd	0.03027525
79	0xbd420163	-0.047364604
80	0xbd17a12c	-0.03701894
81	0x3d028a15	0.031869967
82	0x3a5b1583	0.00083573925
83	0x3cb52c13	0.022115743
84	0xbbb91910	-0.0056487396
85	0x3c21ae95	0.009868284
86	0xbcf9429e	-0.030427273
87	0x3da48456	0.080330536
88	0xbcae8b43	-0.02130664
89	0x3d68b3d0	0.056812108
90	0xbb143ae4	-0.002261811
91	0x3d48c43e	0.049015276
92	0x3d2ac3bb	0.04169057
93	0xbd20fdad	-0.039304424
94	0x3d81d4cd	0.06339417
95	0xbceb5537	-0.028727157
96	0xbd8d2297	-0.06891363
97	0xbd07a820	-0.03311932
98	0xbc3b9625	-0.011449371
99	0xbd36ea36	-0.044656955
100	0x3d66f972	0.056390233
101	0xbc8c0db2	-0.017096374
102	0x3d54e557	0.051976528
103	0x3dc76892	0.09736742
104	0x3d3e9a1f	0.0465337
105	0xba21f861	-0.0006178674
106	0xbcf506b5	-0.029910425
107	0xbdc75458	-0.09732884
108	0x3d243f4c	0.040099427
109	0xbcbdb24e	-0.023156311
110	0x3bb2d7df	0.0054578627
111	0x3d828acc	0.0637413
112	0xbd076e1d	-0.033063997
113	0x3cabda77	0.020978196
114	0x3d7aa173	0.061189126
115	0x3d162fcc	0.036666676
116	0xbd95a419	-0.0730669
117	0x3cd028d2	0.02541009
118	0x3d45963c	0.048238978
119	0x3d531c76	0.051540814
120	0xbc2622c6	-0.010140127
121	0x3d238ad7	0.03992733
122	0x3d8563c4	0.065131694
123	0x3c9c3fe8	0.019073442
124	0x3d8cf961	0.06883503
125	0xbd978c86	-0.073998496
126	0xbcddab73	-0.027059292
127	0xbcc724ae	-0.024309482
128	0x3d12c465	0.035831828
129	0xbd89db30	-0.0673126
130	0xbd60705f	-0.054794665
131	0xbcaf1cab	-0.021375975
132	0x3d40f6dd	0.047110427
133	0xbd6f1c6d	-0.05837672
134	0xbd0b1bf8	-0.03396222
135	0xbd3b73f1	-0.045764867
136	0x3d71da2a	0.059045948
137	0x3cd2d098	0.02573423
138	0x3cde0d2e	0.027105894
139	0x3d6cba8e	0.0577951
140	0xbd7af07e	-0.061264507
141	0x3ccf2e10	0.025290519
142	0xbbaec1b9	-0.005333152
143	0x3cab5b99	0.0209177
144	0x3cbd4f09	0.023108976
145	0x3db9bb09	0.09068877
146	0x3cbb07ce	0.02283087
147	0xbc966ee5	-0.018363426
148	0x3d40b8bf	0.047051188
149	0x3c471545	0.012151067
150	0xbce4821e	-0.027894076
151	0xbdae3389	-0.08505923
152	0x3c691999	0.014227294
153	0xbd8ced39	-0.06881184
154	0x3d8e7650	0.0695616
155	0xbd85fb1a	-0.065420344
156	0x3b9ec61e	0.0048453948
157	0x3d69dc09	0.057094608
158	0x3d60ca69	0.054880533
159	0x3d4847f7	0.048896756
160	0xbda1bf13	-0.07897773
161	0xbd40ffe7	-0.047119047
162	0xbd39c73d	-0.045356024
163	0x3d14124a	0.036150254
164	0x3d7d41ec	0.061830446
165	0xbb327536	-0.0027230508
166	0xbd1e2c3b	-0.0386164
167	0xbd05caef	-0.032664236
168	0x3e0f37c8	0.13986123
169	0x3cff8362	0.031190578
170	0x3c9d5f27	0.019210411
171	0x3d25e3e3	0.040500533
172	0xbd90a6e4	-0.07063082
173	0x3d978010	0.07397473
174	0x3d86a20d	0.065738775
175	0xbdab9a00	-0.083789825
176	0x3d663dc7	0.05621126
177	0x3d5c8b39	0.05384371
178	0x3d02f4a3	0.031971585
179	0x3d58ca83	0.052927505
180	0x3cee0ba2	0.029058281
181	0xbd71573d	-0.058921088
182	0xbda045e9	-0.07825834
183	0xbbc88037	-0.0061188
184	0xbb1602e0	-0.0022889897
185	0xbd1b75e8	-0.03795424
186	0xbd19d581	-0.03755713
187	0x3d88277f	0.06648158
188	0x3d17d92a	0.03707234
189	0x3cae568d	0.021281505
190	0x3a8ac026	0.0010585829
191	0x3ba5d9a0	0.0050613433
192	0x3b76707c	0.0037603667
193	0x3d4a17a4	0.04933895
194	0xbb98ac1a	-0.004659188
195	0xbda797c8	-0.08183247
196	0x3c8d94e2	0.017282907
197	0x3ca90862	0.02063388
198	0xbb209daa	-0.0024508038
199	0xbc1482fc	-0.009064432
200	0xbcad785b	-0.021175554
201	0x3d010949	0.031502996
202	0x3e1f8069	0.15576328
203	0x3d549efc	0.05190943
204	0xbca10d62	-0.019659702
205	0xbcc54935	-0.02408276
206	0x3da6ed38	0.08150715
207	0xbcc1d3ac	-0.023660503
208	0xbda476a9	-0.08030445
209	0xbb849a8a	-0.004046743
210	0x3d87ca52	0.066303864
211	0x3e023450	0.12715268
212	0xbd8c7aad	-0.06859336
213	0xbce3e34d	-0.027818346
214	0xbcc31513	-0.02381376
215	0xbd189f0b	-0.03726105
216	0x3d02c562	0.03192652
217	0xbcb202fd	-0.02172994
218	0xbd460dee	-0.048353128
219	0x3d16faca	0.036860265
220	0x3c958b18	0.018254802
221	0x3d2e2b78	0.042521924
222	0x3c7fed6d	0.015620572
223	0x3cdb61c0	0.02678001
224	0xbcb098d4	-0.02155725
225	0x3d9f1920	0.07768464
226	0xbda463a8	-0.080268204
227	0xbce196fa	-0.027537812
228	0x3d2a25a9	0.04153982
229	0x3d47ad77	0.048749413
230	0xbd8e3d13	-0.06945243
231	0xbd325a9b	-0.04354344
232	0x3d497360	0.049182296
233	0xbe120eb2	-0.14263418
234	0x3cd2ad98	0.025717542
235	0x3cd11e41	0.025527121
236	0x3bd86267	0.0066035273
237	0x3d412a4b	0.047159474
238	0x3cf2bac5	0.029630074
239	0xbd58c86b	-0.05292551
240	0xbd38b203	-0.04509164
241	0xbd26b6f2	-0.040701814
242	0x3b9bd9fb	0.00475621
243	0x3cd55c92	0.026045118
244	0xbd570472	-0.052494474
245	0xbd84e3e2	-0.06488778
246	0x3cfa31bd	0.030541295
247	0x3dd91c7c	0.10601136
248	0xbd3d4c81	-0.046215538
249	0x3d640a88	0.055674106
250	0x3cc3fa0e	0.023922946
251	0x3b2cb784	0.00263545
252	0x3db93f49	0.09045274
253	0x3d12e89c	0.035866365
254	0xbbc27e9a	-0.0059355022
255	0x3df821fd	0.12115858

Generator.conv3.conv2.0.weight f4 [8, 8, 3, 3, 3]
0	0x3c9dfa31	0.01928434
1	0x3c902664	0.017596431
2	0x3d14057b	0.03613804
3	0xbd9e08b3	-0.07716503
4	0x3c819a45	0.015820632
5	0xbc0bd634	-0.008534957
6	0xbdc48bb4	-0.09596959
7	0xbc87031e	-0.016480979
8	0xbd1a97df	-0.03774249
9	0x3d07aa68	0.033121496
10	0xbd1261b3	-0.035737704
11	0x3d877009	0.06613166
12	0x3c674014	0.0141143985
13	0x3d225081	0.039627556
14	0xbb70bba1	-0.003673293
15	0xbd4a71a2	-0.049424775
16	0x3d12172b	0.035666626
17	0xbc759464	-0.014988992
18	0x3c589b46	0.013220614
19	0xbc943fc6	-0.018096816
20	0xbc9c68ee	-0.019093003
21	0x3d0280d2	0.031861134
22	0x3d44ac21	0.048015717
23	0x3da37b3b	0.07982489
24	0xbc9673eb	-0.01836582
25	0x3db2cd67	0.08730584
26	0x3d696fd6	0.05699142
27	0x3df98d54	0.12185159
28	0xbe007e02	-0.12548068
29	0xbde04622	-0.10950877
30	0x3e0f1553	0.13972978
31	0xbcf2dc41	-0.02964604
32	0xbdaf3efe	-0.08556937
33	0x3d01094f	0.031503018
34	0x3d84a8df	0.06477522
35	0x3d32f22f	0.043687996
36	0x3dd29554	0.10282388
37	0xbd81a78d	-0.06330786
38	0xbd83b36f	-0.064307086
39	0xbd78d1ff	-0.060747143
40	0xbc9a696f	-0.018849103
41	0xbc8e3a91	-0.017361911
42	0xbd405bd5	-0.046962578
43	0xbdb1dc5a	-0.08684607
44	0xbda27cf8	-0.07933992
45	0x3dc3871e	0.09547256
46	0x3c25f8cc	0.010130119
47	0xbdda8103	-0.10669138
48	0xbd72a04a	-0.059234895
49	0xbaf22a64	-0.0018475768
50	0xbdbce585	-0.09223465
51	0xbcb86134	-0.022507288
52	0xbcb69965	-0.022289941
53	0xbcff64aa	-0.03117593
54	0xbd35a3c6	-0.04434564
55	0x3ce8709c	0.028374009
56	0xbe08a9ad	-0.13345976
57	0xbc51f98e	-0.012815846
58	0xbc5faaa6	-0.013651526
59	0x3ccd6069	0.025070386
60	0xbc7be2df	-0.0153739145
61	0x3cc45011	0.02396396
62	0x3e07bea7	0.13256322
63	0x3d8b090c	0.06788835
64	0xbc37164c	-0.01117475
65	0x3cf357ff	0.029705046
66	0x3d94d28c	0.07266721
67	0x3dcd7ce9	0.1003359
68	0xbc2fae1e	-0.010722665
69	0xbd2b6512	-0.041844435
70	0x3e01a2c9	0.12659754
71	0x3d181e7d	0.03713845
72	0x3cff634e	0.031175282
73	0x3e17fbf8	0.14842212
74	0x3d8fc26b	0.07019504
75	0x3d4ec97d	0.050485123
76	0x3e229638	0.15877616
77	0x3d6ccb6a	0.05781118
78	0xbd5148ae	-0.051094703
79	0xbccc7b70	-0.024961203
80	0x3ded928e	0.11600219
81	0xbcab67db	-0.020923546
82	0x3dbaf4f1	0.0912875
83	0x3b2d37ef	0.0026431044
84	0xbd3c3d19	-0.045956705
85	0xbca67a54	-0.020322002
86	0x3d812ce2	0.06307389
87	0xbcbf4451	-0.023348005
88	0xbdc8c4c2	-0.098031536
89	0xbc22f047	-0.009944982
90	0xbd24e3f7	-0.040256467
91	0xbc9a878e	-0.018863466
92	0x3b477d02	0.00304395
93	0xbdb79a09	-0.08964927
94	0xbe470f12	-0.19439343
95	0x3d127be4	0.035762683
96	0xbc8ebffd	-0.017425532
97	0xbe2a2385	-0.16615112
98	0xbd0a7820	-0.033805966
99	0xbd93f394	-0.07224193
100	0xbddcc3b2	-0.107795134
101	0xbb420837	-0.0029606947
102	0xbba17597	-0.004927348
103	0xbe25ce9c	-0.16192096
104	0xbce159ff	-0.027508734
105	0x3cece8ab	0.028919538
106	0xbd345755	-0.0440286
107	0xbd638e6a	-0.05555574
108	0xbe54e160	-0.20789099
109	0xbdbee7fa	-0.0932159
110	0xbe002b05	-0.1251641
111	0xbd3d5151	-0.046220127
112	0xbdabb4ca	-0.08384092
113	0xbe1a707c	-0.15081972
114	0xbe6648a8	-0.22488654
115	0xbd87b971	-0.06627167
116	0xbd4ab9ca	-0.04949359
117	0xbae91364	-0.0017782268
118	0xbc26b591	-0.010175125
119	0x3d70512d	0.058671165
120	0x3d9b410b	0.07580765
121	0x3ce65801	0.028118135
122	0xbbe83382	-0.0070862183
123	0xbdc1ad14	-0.0945684
124	0xbc1ed62b	-0.009694616
125	0x3c89d884	0.016826876
126	0xbe81fa6f	-0.25386378
127	0xbe0173f9	-0.12641896
128	0xbde72674	-0.11286631
129	0xbcad1a29	-0.021130638
130	0xbd3abadc	-0.04558836
131	0xbd9999ee	-0.07500063
132	0xbda6acfc	-0.08138463
133	0xbd4ff4bb	-0.050770503
134	0x3d6a180e	0.057151847
135	0x3dcd1d4e	0.10015355
136	0xbc868ff4	-0.016426064
137	0xbe636583	-0.22206692
138	0xbd66fe13	-0.056394648
139	0xbd004b17	-0.03132161
140	0xbd584539	-0.05280039
141	0x3df026be	0.117261395
142	0xbd617a58	-0.055048317
143	0x3dd7ad72	0.10531129
144	0xbd2b2acd	-0.041788865
145	0xbdee2840	-0.11628771
146	0xbd02644c	-0.03183393
147	0x3d639de6	0.055570506
148	0x3c9fb699	0.019496249
149	0x3cb7807f	0.022400139
150	0x3db89dfa	0.09014507
151	0xbd225933	-0.03963585
152	0x3db12ce5	0.08651141
153	0x3d81a0b0	0.06329477
154	0x3dff85b1	0.124766715
155	0xbcd4f75f	-0.025996862
156	0x3df64b13	0.12026038
157	0x3d268c43	0.040661108
158	0x3d3ec8be	0.04657816
159	0x3ded951a	0.116007045
160	0xbadea9f1	-0.0016987902
161	0x3c154604	0.009110931
162	0x3dc83271	0.09775246
163	0x3dfda5c2	0.123851314
164	0x3dca7ee2	0.09887482
165	0xbaca85cb	-0.001545125
166	0x3c03776e	0.00802408
167	0x3d6ceb08	0.05784133
168	0xbd3c2183	-0.045930397
169	0xbe2569d2	-0.16153648
170	0x3c8c5482	0.01713014
171	0xbce4d942	-0.027935628
172	0x3cfac948	0.030613557
173	0x3d7aedb8	0.061261863
174	0xbdb5ba9e	-0.08873485
175	0xbd84aad1	-0.06477893
176	0x3d8da1ed	0.069156505
177	0xbd9cb49a	-0.076516345
178	0x3c11378e	0.008863343
179	0x3d4e752e	0.05040472
180	0xbdfae20e	-0.12250148
181	0xbc564c7a	-0.013079757
182	0x3e184116	0.14868578
183	0xbde31c19	-0.110893436
184	0xbcb3cc3e	-0.021947976
185	0x3e2feddb	0.17180578
186	0xbd9e7eb6	-0.07739012
187	0x3d56c3ad	0.052432705
188	0x3d80c98f	0.06288444
189	0xbd432831	-0.04764575
190	0xbd288074	-0.041138127
191	0x3d8adca6	0.067803666
192	0xbd5f5274	-0.054521993
193	0xbd21133f	-0.039324995
194	0x3d745368	0.059649855
195	0xbcb46a98	-0.022023484
196	0x3b89c7c9	0.0042047244
197	0x3e06a8be	0.13150308
198	0x3e0e7cfe	0.13914868
199	0x3d28609b	0.041107755
200	0x3da5708b	0.080781065
201	0x3d0ad4af	0.033894237
202	0x3cad429b	0.021149924
203	0x3cbe2a11	0.023213418
204	0xbd38c004	-0.045104995
205	0x3db62b63	0.08894994
206	0x3c832002	0.016006473
207	0x3dc58b89	0.09645755
208	0xbd44bfff	-0.048034664
209	0xbc4976d8	-0.012296401
210	0x3dd21b46	0.10259108
211	0x3bb70a4f	0.0055859457
212	0x3cd184db	0.025576046
213	0x3d6be410	0.057590544
214	0x3df7f741	0.12107707
215	0x3b2afa50	0.002608914
216	0x3d73fee8	0.05956927
217	0x3ce8df48	0.028426781
218	0xbd8105b0	-0.06299913
219	0xbc9293c6	-0.01789273
220	0xbd8b2811	-0.067947514
221	0xbdb28779	-0.087172456
222	0x3c3f4458	0.011674009
223	0x3d0dfb16	0.034663282
224	0xbc2fd326	-0.010731494
225	0x3cfa4472	0.030550215
226	0xbcc062cc	-0.02348461
227	0xbd870fc4	-0.06594804
228	0xbcc3a56f	-0.023882596
229	0x3d8b542a	0.068031624
230	0xbd94670a	-0.07246216
231	0x3d4c1b5f	0.04983079
232	0x3d027293	0.031847548
233	0xbc3957de	-0.011312453
234	0x3c9cf106	0.019157898
235	0x3ddd7759	0.108137794
236	0x3d6ab373	0.057300042
237	0x3d2c25d7	0.042028274
238	0x3d6e1843	0.058128607
239	0x3d33de97	0.04391345
240	0x3c56b412	0.013104456
241	0xbd3f08ad	-0.046639133
242	0x3b315ba1	0.0027062672
243	0x3cd70d77	0.026251538
244	0x3d5affd8	0.053466648
245	0xbdfa3827	-0.122177415
246	0x3dddec08	0.10836035
247	0x3dedd2a5	0.11612443
248	0x3d225db9	0.039640162
249	0x3e068e49	0.13140215
250	0x3c531633	0.012883711
251	0x3db62b18	0.08894938
252	0xbc86696e	-0.016407695
253	0x3db4a12d	0.08819804
254	0xbd9a2857	-0.075272255
255	0x3d94bbe6	0.07262401

Generator.conv4.conv1.0.weight f4 [8, 8, 3, 3, 3]
0	0xbcf81dbc	-0.030287616
1	0xbb90841d	-0.0044102804
2	0xbd7abe12	-0.06121642
3	0x3b7e60d8	0.0038815048
4	0x3cdc6738	0.026904687
5	0xbbc75b61	-0.0060838913
6	0xbc1409cc	-0.009035539
7	0x3c3c1d00	0.0114815235
8	0xbd0a8688	-0.033819705
9	0xbd2be349	-0.041964803
10	0xbc1d2fac	-0.009593885
11	0xbdbcc2f3	-0.09216871
12	0xbd8b6d08	-0.068079054
13	0x3b18ef5d	0.002333603
14	0xbce2b7df	-0.027675567
15	0x3db44932	0.088030234
16	0x3c2b3349	0.010449239
17	0x3d04488e	0.032295756
18	0x3d163954	0.036675766
19	0x3d34b0a0	0.044113755
20	0x3d745a3a	0.05965636
21	0x3d117d06	0.035519622
22	0xbdacb53a	-0.08433004
23	0x3c0e352b	0.008679668
24	0xbd5a60e1	-0.053315047
25	0xbd05998d	-0.03261714
26	0x3c91c3a5	0.017793486
27	0xbcf14303	-0.029450899
28	0x3c8ef418	0.017450377
29	0x3d827e55	0.06371752
30	0xbcc6fab9	-0.024289476
31	0x3d6f5b4f	0.058436688
32	0x3d76d81d	0.060264695
33	0xbd925be6	-0.071464345
34	0x3d99dd3c	0.075129
35	0xbd429eee	-0.04751485
36	0x3ca4cd26	0.020117354
37	0xbcab8306	-0.0209365
38	0xbd481e44	-0.04885699
39	0xbba91f71	-0.005161219
40	0xbd00b754	-0.031424835
41	0xbd8b22cd	-0.06793747
42	0xbc763365	-0.015026902
43	0x3d099864	0.033592597
44	0x3d15c9d0	0.036569417
45	0x3d447834	0.047966197
46	0xbc9db835	-0.019252876
47	0xbc0dc04c	-0.008651804
48	0x3d28f0a7	0.04124513
49	0xbcc301a1	-0.023804488
50	0x3ca62d76	0.02028535
51	0x3d840f96	0.06448285
52	0x3d58fdaf	0.052976307
53	0x3cd02bd3	0.025411522
54	0xbd954f9a	-0.072905734
55	0xbd7f1868	-0.062279135
56	0xbe139edb	-0.14416067
57	0xbca93184	-0.020653494
58	0x3cb7534a	0.022378583
59	0xbd8eceda	-0.069730476
60	0x3d4c1159	0.04982123
61	0x3cf45e97	0.02983026
62	0xbc9ade0f	-0.018904714
63	0x39368536	0.00017406497
64	0xbe06f374	-0.13178807
65	0xbdc77601	-0.09739304
66	0x3c8c70eb	0.017143687
67	0xbd80b4f7	-0.06284516
68	0xbc93abe3	-0.018026298
69	0x3be6fc16	0.007049094
70	0x3d80ca7f	0.06288623
71	0xbd574a74	-0.05256124
72	0x3d5f8a69	0.054575358
73	0xbc458ad7	-0.012057028
74	0xbcd6911c	-0.02619224
75	0x3c34cb78	0.011034839
76	0xbddf1291	-0.10892213
77	0x3d38adfb	0.045087796
78	0x3c31deb9	0.010856324
79	0xbd2b83ed	-0.04187386
80	0x3caea609	0.021319406
81	0x3c40d705	0.011770015
82	0xbc94eae6	-0.018178415
83	0xbd0b8646	-0.0340636
84	0x3c288567	0.010285712
85	0xbc808138	-0.015686616
86	0xbd2fba42	-0.04290224
87	0x3d448009	0.047973666
88	0x3cb01ba9	0.021497564
89	0x3d9d4f10	0.076810956
90	0xbaebcbaf	-0.001798978
91	0xbd7ab89f	-0.061211225
92	0xbd35f667	-0.04442444
93	0x3cda2743	0.02663005
94	0xbd924ce1	-0.0714357
95	0xbbdf424a	-0.006813322
96	0x3db44931	0.08803023
97	0x3dadc394	0.08484569
98	0x3d5a21f0	0.05325502
99	0xbd697fa7	-0.057006504
100	0xbd94d3bb	-0.07266947
101	0xbd7a21fc	-0.061067566
102	0xbc7984b6	-0.015229395
103	0x3cf07da6	0.029356789
104	0xbd9226d2	-0.07136311
105	0x3d94a4ce	0.072579965
106	0x3acfa7ac	0.0015842817
107	0x3bb06050	0.005382575
108	0xbd9da952	-0.07698311
109	0xbd56184f	-0.052269276
110	0xba9f8b3f	-0.0012172236
111	0xbcf31a2f	-0.029675571
112	0x3c8c31ca	0.017113585
113	0x3cc6edb7	0.024283273
114	0xbd00c1d3	-0.031434845
115	0x3d5e5cc0	0.054287672
116	0x3cdba478	0.026811823
117	0xbc4f9909	-0.012670764
118	0xbb9e8d9b	-0.004838658
119	0x3da451fc	0.0802345
120	0xbd472a15	-0.048624117
121	0xbc0a2282	-0.008431079
122	0xbc97be43	-0.018523341
123	0x3c47edf3	0.012202728
124	0x3cec0f09	0.028815763
125	0xbc9e441f	-0.019319592
126	0x3d98d9f1	0.07463444
127	0x3c4b1b2a	0.012396613
128	0x3d736c94	0.05942972
129	0xbc453c8f	-0.012038364
130	0xbc12351a	-0.008923793
131	0x3be89db3	0.0070988773
132	0x3c955f80	0.018234015
133	0x3c8fda9b	0.017560294
134	0x3db1503c	0.086578816
135	0xbd1c9595	-0.03822859
136	0x3d206b29	0.039164696
137	0xbdb12c18	-0.08650988
138	0x3b940633	0.0045173406
139	0x3d965cb6	0.07341902
140	0x3b4d5bcb	0.003133523
141	0x3d3e3fed	0.046447683
142	0x3d8554d6	0.06510322
143	0xbd8eac5a	-0.06966467
144	0x3cdc19a7	0.0268677
145	0x3b8cc39e	0.0042957803
146	0xbc2f2745	-0.010690515
147	0x3c350542	0.011048617
148	0xbd3b019b	-0.045655828
149	0x3bc0a178	0.0058786236
150	0x3d46eb2e	0.04856413
151	0x3d109bc2	0.035304792
152	0xbcfb3a84	-0.03066755
153	0x3d3a01c6	0.045411848
154	0x3c0c7d15	0.008574744
155	0xbd0074ee	-0.031361513
156	0x3cd36737	0.025806053
157	0xbd186948	-0.03720978
158	0x39fd2c07	0.00048288723
159	0x3ad9b77b	0.0016610468
160	0xbd30a239	-0.043123458
161	0x3d05337f	0.032519814
162	0xbd829d04	-0.063776046
163	0xbcef03f6	-0.029176693
164	0xbd806df3	-0.06270971
165	0xbc2e6e2d	-0.010646385
166	0x3ddd6b5b	0.10811492
167	0x3d94bd42	0.072626606
168	0xbc7bf8e4	-0.015379164
169	0x3d2a99d1	0.041650597
170	0x3d70d2b8	0.058794707
171	0xbd5d78b2	-0.054070182
172	0xbd23a0b0	-0.039948165
173	0x3c7f61f8	0.015587322
174	0x3bdeb051	0.006795921
175	0xbdc714a5	-0.097207345
176	0xbd06596c	-0.032800123
177	0x3d80f0d8	0.06295937
178	0x3d2a7b67	0.041621592
179	0xbc4f04d5	-0.012635429
180	0x3d7621ba	0.060090758
181	0x3d786f74	0.060653165
182	0x3b88f39b	0.0041794307
183	0xbdc32d6e	-0.095301494
184	0xbc8ff6df	-0.017573772
185	0xbd01b9d3	-0.031671356
186	0xbd5bd3ba	-0.053668715
187	0xbce9320f	-0.028466253
188	0x3ca9654d	0.020678187
189	0xbd4d189c	-0.050072297
190	0xbd75e7cf	-0.060035523
191	0xbda96dfd	-0.08272932
192	0xbcf7336f	-0.030175893
193	0x3d0b2c81	0.03397799
194	0xbcdcbe13	-0.026946103
195	0xbc5e78c9	-0.013578602
196	0x3b45bd49	0.0030172637
197	0x3cfd431a	0.030915786
198	0x3d3db9b8	0.046319693
199	0xbdb20fe9	-0.08694441
200	0x3a857fcc	0.0010185181
201	0x3c86d2cf	0.016457943
202	0xbdbcca41	-0.09218264
203	0xbda04a8a	-0.07826717
204	0x3d231ae4	0.039820567
205	0x3da7d74d	0.08195362
206	0xbd4e94c9	-0.05043486
207	0x3c77d3aa	0.015126148
208	0x3d746874	0.059669927
209	0xbd132165	-0.03592052
210	0x3c9340d4	0.017975248
211	0xbd819629	-0.06327469
212	0xbdaa620c	-0.08319482
213	0x3d1c8010	0.038208067
214	0x3ce437f1	0.027858706
215	0x3cf44ff1	0.029823275
216	0xbc169d64	-0.009192798
217	0x3dabbf8c	0.08386144
218	0x3d533a35	0.051569182
219	0x3cabe57f	0.020983456
220	0x3dad1d78	0.08452886
221	0x3d48e21e	0.049043767
222	0xbd50f6dd	-0.051016677
223	0x3cf0c54b	0.029390952
224	0x3d5cc348	0.053897172
225	0x3d9dd822	0.0770724
226	0x3d7b39e9	0.061334524
227	0xbb887245	-0.0041640126
228	0xbccbbe61	-0.024871053
229	0x3d0e4ad7	0.03473934
230	0x3cc8a40b	0.024492284
231	0x3c887f3e	0.016662236
232	0x3cb12737	0.021625144
233	0x3b95c7a9	0.0045709205
234	0xbcd7658b	-0.026293537
235	0xbd9683d8	-0.07349366
236	0xbce13a9a	-0.027493764
237	0x3d303cf9	0.043026898
238	0xbd4236cb	-0.047415536
239	0xbdb2e92f	-0.087358825
240	0x3d6e5db4	0.05819483
241	0x3c937e84	0.018004663
242	0xbd848e57	-0.06472462
243	0xbcf009ef	-0.029301612
244	0x3d291c6c	0.04128687
245	0x3c94eeef	0.018180339
246	0xbda1d08c	-0.07901105
247	0x3d9c8a8c	0.07643613
248	0x3d70924a	0.058733262
249	0xbc2088ff	-0.009798287
250	0xbda5b6cc	-0.08091506
251	0xbc3d57eb	-0.011556606
252	0x3cacfd0c	0.021116756
253	0x3d2ea9f1	0.042642538
254	0x3d300deb	0.042982023
255	0xbc83e452	-0.016100083
