DeepWonder3D_pytorch/pth/SEG_pth/Unet4_no_end_UNet3DFFD_20240401-1432_2um/seg_285.pth (torch, 138281 bytes, 19 tensors)

Generator.conv1.conv1.0.weight f4 [8, 1, 3, 3, 3]
00000000: 45e3 f33d 94ed cd3d 63df 6abd 62bb 123e
00000010: 2ee6 f6bd 8e50 01be 3cfa a6ba b0a6 23bb
00000020: 08a9 bf3d d7b7 493d 6c79 1ebe 0695 b43d
00000030: a32d 093e 1386 e03d 009d 043d 4797 3dbe
00000040: ac0d b63d 1906 55be 1783 d8bd d96d e9bd
00000050: 3d3c 7bbd 9bef ef3c 266e 5ebd b8fd 5f3d
00000060: c890 59be 14c7 273d 6196 323e bbe1 253e
00000070: f04c 263e fe80 a73c 313e ab3d 5a2d 08be
00000080: 49f1 3abe c733 023e d76e 6d3c e242 b4bd
00000090: 4de1 e3bd b4ce 253e e555 25bd a2fc 05be
000000a0: 57dd 9bbd fc37 133c d237 4fbe 129f 5dbe
000000b0: 6542 aebc ca47 023e 259c 293d 973f 5a3e
000000c0: 620e 323e 75df abbd 034e 273e 4678 b23d
000000d0: db86 04be 029c a2bd bef4 813d e96a 2bbd
000000e0: 4b42 f8bd f53c e23c 8485 cd3d 4393 debb
000000f0: 35e4 21be 08ac e2bd 9daf 68bd 157b 063d
00000100: 9a0b bb3d 9f4e 463c 55e3 3cbd dcd1 153d
00000110: cf4f 8e3d 825e 8c3d 7be2 4f3c eb86 903c
00000120: e23f 1bbe 8d21 4e3d 3573 5a3d ed3e cd3b
00000130: 9889 71bd bcbe cf3d 19e8 e2be ea3d d3ba
00000140: 1883 87be 5aee babd bbb7 19be c718 1f3e
00000150: 5cdf 4abe 76f9 96bd 66f1 b9bc f5a4 a43d
00000160: fede eabd 226a 603d ee29 54be b14d 76bd
00000170: 34ef d03c 0499 d03d 8795 4bbe 3362 28be
00000180: 9d38 16bd 9ca4 ff3d 470c b23d 64e8 60bd
00000190: 626a 7e3d 6bc8 b73d 0928 84bd 97e8 6c3d
000001a0: 4862 9f3d 67b8 7c3c bb70 27be 21da 63be
000001b0: b95b 333e 8258 2bbe 17ae 38bd 0789 06be
000001c0: c1ba 22bd baf8 5c3c 0d78 24bd 2b54 6b3d
000001d0: 58f3 393d a7d0 6bbb d391 a53d b6ee 43be
000001e0: bd17 5fbd 7dd3 31bd f3f3 6b3a 9f1f e63d
000001f0: e31c 8b3c 596b 033e 0d0d 48be 60cd 733d
00000200: 5a4e c93d facb ca3d 3579 0c3d 7905 d4bd
00000210: 730b 1fbe 36a3 abbd b7d3 d83d 1498 013d
00000220: 65aa ebbd 20d4 ec3d 6179 d83d b5cd 95bd
00000230: 3063 04be d449 3fbe 1e1c 3b3e 3232 ce3c
00000240: 1608 bebd 4214 48be 3a04 633d 1b95 b83d
00000250: 6d51 31be 47ed 59be 00b8 9fbd 77c5 9d3d
00000260: fd5c 1e3e 986c 16bd f0b9 28bd 5a26 f03d
00000270: 0027 bd3c 8cd7 2e3e 344f a1bd b14a 093b
00000280: 38cf 0dbd 98bd 543e 107c 64be bac8 213e
00000290: eb32 a4bd 5987 ab3d de09 a43b 41e9 2cbd
000002a0: a642 e43c 630d abbc ab4a 833d cb56 5a3d
000002b0: 6e30 8ebd dfb9 693e 5775 54be f451 a5bd
000002c0: b5a8 fe3c 59cc 7fbd 88f4 f03d a63c 493d
000002d0: 01ce 9cbd 1c12 5abd 97cd d93d 699f 16be
000002e0: de92 593d fe89 dd3d 8cc3 09be 4fbd e7bb
000002f0: 9ab1 253e ad46 5fbd 3ee9 003e 7835 ae3b
00000300: 58ea 123d 9d6b de3d 2997 5dbe 8885 99bd
00000310: dd4b d13b 9b3d f33d b752 1bbd 57eb 96bd
00000320: 990f 62bd f4f0 54be a408 163e a10a c1bd
00000330: 86b4 babd f032 383e 93fa dc3c 92d5 cabd
00000340: 37a1 eabc 82f9 93bc f495 7cbe 1ea8 d33d
00000350: 5381 dcbd d0de 5cbe fc5d 97bd f522 d83d
0.119085826 0.1005508 -0.057341944 0.14329293 -0.12055622 -0.12628385 -0.001273937 -0.002497118
0.09358412 0.04924759 -0.15476006 0.088174865 0.13396315 0.10963073 0.03237629 -0.18514739
0.088893265 -0.20803107 -0.105718784 -0.11397905 -0.061336745 0.029289057 -0.054304264 0.054685324
-0.21246636 0.04096134 0.17440178 0.1619939 0.16240287 0.02044725 0.083614714 -0.1329855
-0.18256105 0.12715064 0.014491758 -0.088018194 -0.11126957 0.16192132 -0.04036512 -0.13084653
-0.076105766 0.008985516 -0.20236138 -0.21642712 -0.021271894 0.12722698 0.041408677 0.2131332
0.17388299 -0.083922304 0.16338353 0.087143466 -0.12942068 -0.079399124 0.06345509 -0.041850004
-0.121220194 0.027616957 0.10035232 -0.0067924573 -0.1580971 -0.110679686 -0.056808103 0.032832224
0.09133072 0.012103706 -0.04611524 0.03657709 0.06948816 0.068539634 0.0126882745 0.017642459
-0.15161088 0.050324965 0.053332526 0.006263605 -0.05896911 0.101438016 -0.443177 -0.0016116474
-0.26467204 -0.09127493 -0.15011494 0.15536796 -0.19811767 -0.073718 -0.022698116 0.080392756
-0.11468314 0.054788716 -0.2071912 -0.060132686 0.025504686 0.101854354 -0.19881259 -0.1644371
-0.036675084 0.124825686 0.08693748 -0.054909125 0.062113173 0.089737736 -0.064529486 0.057839002
0.077824175 0.015424824 -0.16351597 -0.22251178 0.17515458 -0.16732982 -0.0450879 -0.1313821
-0.039728884 0.013487035 -0.04015355 0.057453316 0.045398086 -0.003598252 0.080844544 -0.1913403
-0.054465998 -0.04341458 0.000900089 0.112365 0.016981548 0.12833919 -0.19536228 0.059522033
0.098293975 0.09902187 0.03429528 -0.10352606 -0.15531711 -0.083807394 0.105872564 0.031639174
-0.115071096 0.11563897 0.10570026 -0.07314626 -0.12928462 -0.18680507 0.18272445 0.02517042
-0.09278886 -0.19538978 0.055423953 0.090128146 -0.17316218 -0.2128192 -0.07798767 0.07703679
0.1546516 -0.036724657 -0.04119295 0.11726065 0.023089886 0.17074412 -0.07876435 0.002094906
-0.034621447 0.2077545 -0.22312951 0.15799227 -0.08017524 0.08375425 0.005006059 -0.042214636
0.027863812 -0.020880407 0.06410726 0.05330543 -0.06942831 0.2282481 -0.20747887 -0.08072272
0.031086305 -0.06245074 0.11765391 0.049130104 -0.076564796 -0.053239927 0.10634916 -0.14709248
0.05311858 0.108173355 -0.13453501 -0.007072128 0.16181031 -0.05451076 0.12588975 0.0053164326
0.03586802 0.10860369 -0.21639694 -0.07496172 0.0063872174 0.11876985 -0.03792068 -0.07369106
-0.055190656 -0.20795041 0.14651734 -0.094258554 -0.09116463 0.17988181 0.026974952 -0.099040166
-0.028641326 -0.01806331 -0.24666578 0.103348 -0.10766854 -0.21569371 -0.07390973 0.105535425

Generator.conv1.conv2.0.weight f4 [8, 8, 3, 3, 3]
00000000: 1f04 1f3e e3b3 4c3d e418 3d3d 1a57 233c
00000010: 630d 61bd c743 883d 19d3 333e ec7c 153e
00000020: a5a4 993e c5c0 a53c c57f 953c 489b 6a3d
00000030: 5fe9 413d 9bcf cb3d c719 933c bc81 7d3d
00000040: e8d7 9bbc 4ebd 0f3e 3cbd 363d bc71 343e
00000050: 5ad2 203e 6c3f 133e bb58 3f3e 2635 303e
00000060: 070b fa3d 7eaa 173e 69ba 2f3e 459d 11be
00000070: 261e f8bc 4aad 65be 41bd a6bd e91b efbc
00000080: 541d 92be c498 cebc c4d8 a53d dcf9 a8bd
00000090: 5bcd e3bd aeab 423e afa4 7cbe 468c b0bd
000000a0: bf12 003e fcc2 06bf 2b57 67bd 339a 943d
000000b0: 691d b23c 3bd2 6d3d ae57 6e3e 89a0 adbe
000000c0: 96ab 9cbd 7c62 0b3e ac98 01bf 3c21 ccbd
000000d0: effe be3c 4a56 193c 3f37 c03d 7720 b53c
000000e0: e72c f03c 6edb bbbc 5339 a0bd e31d b7bc
000000f0: 024c 6f3d c504 a13c 17e9 20bd c7f9 5c3e
00000100: 225e 76bc 5353 603d 4589 943c 9f1d 253c
00000110: 9a4d 323e 1b64 fb3d cd18 2d3d 8ea2 573d
00000120: b09e 0d3e 9833 923d 5bb7 e53d 8493 c9bd
00000130: 50b8 b1ba 2991 593d c440 b93d 1c0c c53d
00000140: d401 723d e056 c4bc 4559 7d3d 17fb 293d
00000150: ac62 0f3e 7363 063b ae29 cebb 535b 053c
00000160: c052 23bd 1fd0 0e3c 817a aa3c 5ec8 913c
00000170: 329a 2e3d 309e 3abd 7960 723c 6c21 6b3d
00000180: b81c 0fbd 8bba be3c 90e7 e53c aac6 883d
00000190: 0a7e 3dbd 4e2c 47bd a646 febb c267 1c3d
000001a0: 5541 553d 4f04 f83c 4e68 1d3d 85f8 9c3c
000001b0: 0cba bdbd 6f19 65be ac03 3fbe 8d0d 59bd
000001c0: c3fd a4ba 6374 0abe f0fa 2d3a 15f3 963b
000001d0: 3b97 713d 14c8 7ebd cbed 0a3d c775 033e
000001e0: 4499 0dbd 3436 0c3d 450f 873d fe76 91bd
000001f0: adc9 f73d 21d0 ea3d 0598 b2bd 4f4a 593e
00000200: 3263 253e d729 adbc 6ae6 553e 53ae 413d
00000210: e1e8 58be e56f 433e 5ef8 ad3d a71e 38bc
00000220: 6820 683e 173a c33d ef83 89bd 22e4 733d
00000230: b2b7 89bd a164 813c ecaa 11be 2f39 32bd
00000240: d7ef 41be 1f93 573e a173 ba3d 44d0 d7bd
00000250: 9688 c63d d882 a5bc ef58 e8bc 2adb 043d
00000260: 044b 74bd 6c4e 6abd 7767 713e 4158 223e
00000270: a9ea 62bd 8d3d 5f3e 49f1 c33d ed84 21be
00000280: 9edc c1bc ade8 0c3c c319 8d3d 063f efbd
00000290: 3c4d 05be 908c 813d 8b42 91bd 14e2 98bd
000002a0: 6a8d fe3d 1596 36be 9586 aaba e3d2 5b3d
000002b0: 3344 2ebe 92e6 6cbc a4b0 e43c 02e4 5fbc
000002c0: 5565 87bd 7ecc 6bbd f5a1 35be b29b 0cbd
000002d0: 39d9 203d aec9 74bd 9f1b f13d 95f2 a1bc
000002e0: 0873 c93d 5dc4 c33d f08d aabd e402 bebe
000002f0: 979a 89bd b7f1 643c 82ef 95bd f3b2 8a3b
00000300: e8a0 873d 62ff d63c 8274 373d 1919 6f3d
00000310: d48b 8abd fb9c 2e3c fe37 8b3c cb4c a5be
00000320: c3ee 813d 8a29 753c 332b 8bbe 83a4 f13d
00000330: 1638 b33d b071 b3be 9738 8a3d 2033 cfbd
00000340: 183e 053e a809 23be e22d 15be 7ba3 433e
00000350: d11e 21be d076 6abe 936b e63d 8561 febd
00000360: 70a7 223e d963 9a3e 37e9 823e de0a 92bc
00000370: ac62 a33d d645 e63d 116d 943e 0598 963e
00000380: 0b8f 8c3e 5470 113e c466 863d 0e07 4d3e
00000390: 75b7 3d3d 9fde 8e3d 90de 8e3d 4a14 8b3d
000003a0: 0f08 24bc 83b1 9e3d 2d42 9f3d c856 cc3d
000003b0: eac1 0a3d 04a0 de3d 97ed b73d 001b b83d
000003c0: 65e9 973d fdbc f33b d851 df3d 1de2 a6bd
000003d0: 6dad 70bd e17e 60bd 5a1a 6ebd 3bce c1bd
000003e0: 9f23 57ba 1e35 823c b24a b0bb 2c9b c0bb
000003f0: f9bd b33d bc19 c5bb d9db 9bba a4d4 aa3d
0.15528916 0.04997624 0.046166316 0.009969497 -0.054944407 0.066535525 0.17560996 0.14598435
0.30008426 0.020233521 0.018249402 0.057276994 0.0473417 0.09951707 0.017956628 0.061891302
-0.01902385 0.14037058 0.04461406 0.17621511 0.15705243 0.14379662 0.18686192 0.17207775
0.122091345 0.14811131 0.17160954 -0.1422015 -0.030287813 -0.22429386 -0.08141566 -0.029188113
-0.28538 -0.025219329 0.080979854 -0.08250782 -0.11123153 0.19010803 -0.24672197 -0.08620505
0.12507151 -0.5264127 -0.056479614 0.07255974 0.02174254 0.05806182 0.23275635 -0.3391154
-0.07649915 0.13611788 -0.50623584 -0.099672765 0.023314921 0.009358952 0.09385537 0.022110207
0.029318286 -0.02293178 -0.07823434 -0.022353118 0.058422096 0.019655595 -0.03928479 0.21579657
-0.015037091 0.054766964 0.018131861 0.010077863 0.17412415 0.12274953 0.04225998 0.05264526
0.13830066 0.07138747 0.11216613 -0.098425895 -0.0013558958 0.05311695 0.09045556 0.0962145
0.059083775 -0.023967206 0.061852712 0.041499224 0.14002484 0.0020506054 -0.0062915897 0.008139449
-0.03987384 0.008716612 0.020810368 0.017795738 0.04262752 -0.045561016 0.014793509 0.05740492
-0.034939498 0.02328231 0.02806452 0.06678517 -0.04626278 -0.048626237 -0.007759887 0.03818489
0.05206426 0.030275492 0.03842955 0.019161472 -0.09264001 -0.22372983 -0.18653744 -0.05299144
-0.0012587834 -0.1352096 0.0006636819 0.0046066144 0.058982115 -0.062202528 0.033918183 0.12837897
-0.034569994 0.03423138 0.06594709 -0.07102774 0.120990135 0.11465479 -0.08720402 0.21219753
0.16151121 -0.021138115 0.20888677 0.04728539 -0.21182586 0.19085653 0.08494638 -0.011237777
0.22668612 0.09532564 -0.067146175 0.059543736 -0.0672449 0.015795054 -0.14225358 -0.043511566
-0.18939148 0.21052216 0.09104086 -0.105377704 0.096940205 -0.020203993 -0.02836272 0.032435574
-0.059641853 -0.057203695 0.23574625 0.15853979 -0.05539957 0.21800824 0.09567506 -0.15773363
-0.023664769 0.008600396 0.06889679 -0.11681943 -0.13017744 0.06325638 -0.0709277 -0.07464996
0.12429316 -0.17830689 -0.0013010079 0.053667914 -0.17018203 -0.014459269 0.02791626 -0.013665201
-0.066111244 -0.057568066 -0.17737563 -0.03432817 0.03926966 -0.05976265 0.117728464 -0.019768992
0.098363936 0.09558938 -0.08327854 -0.3711158 -0.06718939 0.013973645 -0.07321073 0.004232758
0.06622487 0.026244823 0.044788845 0.058373544 -0.06764951 0.010657544 0.016994473 -0.3228515
0.06344368 0.014963517 -0.27181396 0.11798956 0.08750932 -0.35047674 0.06749075 -0.10117173
0.13011968 -0.15921652 -0.14568284 0.19105332 -0.15734412 -0.22896886 0.11250987 -0.12420944
0.15884185 0.30154303 0.25568554 -0.017827448 0.079778045 0.11243789 0.2898946 0.29412857
0.27452883 0.14203006 0.0656257 0.20022222 0.046317536 0.06976055 0.06976044 0.06790979
-0.010011687 0.077487014 0.07776294 0.0997749 0.033876337 0.10870364 0.089808635 0.08989525
0.07417563 0.0074383006 0.10904282 -0.081485964 -0.05875914 -0.0548085 -0.0581306 -0.094631635
-0.0008206907 0.015894469 -0.005379998 -0.005877873 0.08776469 -0.0060150307 -0.0011891081 0.08341339

Generator.conv2.conv1.0.weight f4 [8, 8, 3, 3, 3]
00000000: ac64 e13d 3504 a7bc cba3 b7bd 995a b23e
00000010: 2bb2 d93d 7922 abbd e2d8 3ebe ed71 113d
00000020: 54de da3d 9039 a4bd d120 5ebd c16a f5bb
00000030: beb7 bcbd 2b6d 8cbb d800 b83c d6b1 20bd
00000040: 8890 92bd 0d60 c73d 56ed 2e3c 5e69 71bd
00000050: 8e75 c2bc ac8e 54bc 2837 38bd 76a5 1c3d
00000060: 8dc0 8f3c 9fef 0bbc fdff a53d a12f 473d
00000070: 1c4f 10bd d157 46bd d9bb 1d3c b9a5 3bbb
00000080: 6fec b3bc b0e3 873d e35d 9a3d a996 173c
00000090: c9d7 2cbe 32d3 09be 664d 9dbd ca6e c3bd
000000a0: 891b 6ebd 91da 3fbd 6aeb d23d 7e15 1abc
000000b0: 4cdb e4bc 25fe 50bd b2b4 7dbd 2ef8 2cbe
000000c0: 561e b83b 8ac5 70bd 5f13 c4bd 16f5 af3d
000000d0: 0dc0 753b ab07 54bd 4eb7 a53c 55a4 cf3d
000000e0: 52a7 0b3e f97b 323d 1566 7c3d f74c 3d3e
000000f0: a97a 71bd 78ea 2dbd cf06 f43c 4f4c a8bd
00000100: 2b1d d13c d622 b23c 1ef7 53bd 0c64 b03b
00000110: 3fa5 893d 677c 4abe 1a60 0cbd 1bb5 033d
00000120: d2eb 34bd a26b dc3c 59d9 853d 220a a2bd
00000130: a030 c33d 0acb 0b3e 4871 06be 0ba8 67bd
00000140: b62c 8e3d e550 1339 e1e7 f9bc 7a6f 683d
00000150: 3b81 ecbd aa01 9cbd cf27 49bc 19d2 8bbc
00000160: ad1d 2abd e4a6 bf3d 5c06 3e3e 0a3d 043c
00000170: 7d5c 9d3d f07d ca3c e4a6 f3bc 640d 2c3c
00000180: a52e fc3b 4c9b 80bd bcd6 db3c c8ae cd3b
00000190: ee7f c43b ae81 033b 4f95 ddbd 6bb6 01bd
000001a0: 3272 923d 78b3 d93a e86c 28bd 7336 963c
000001b0: 3eed 253d 3823 363d 150b 32bd 4e80 a83b
000001c0: 7084 cabc 2699 dd3c f37a b5bc dfcc 56bb
000001d0: 1057 f93c 117d 3c3d caeb a83c 0e92 943d
000001e0: 1722 843d b29f a73d 5aab c13d 2c6a af3d
000001f0: 963d 3fbc f6d6 033e 4702 4cbd 2ae7 0ebb
00000200: 9270 803d 89ff 86bd 6678 f63c a01b 8b3d
00000210: bce1 9d3c 21b7 06bd 8208 35bd 9e10 71bc
00000220: 053e df3d 909b 583d 33e8 ad3a 6812 c83d
00000230: 616c a03d ae55 03bd 7640 adbd 822a 5bbd
00000240: 517f 82bd ad7e d1bb 6fb3 99bb 60a6 97bd
00000250: ffa7 83bd ade9 1fbd 9566 a7bd cfa1 00be
00000260: bbc3 543d 1eca 8ebd 9184 cabc bd7a 9fbc
00000270: cae6 cfbd 4182 f6bc d7e1 c0bd 67d2 17be
00000280: 89ce 4cbe 7d9f 143e a978 9f3d eb72 743d
00000290: 7f9d 913d 4313 ab3d 4992 133c d808 fd3c
000002a0: b52b a63c 6312 b63d 5e33 f03c 1774 b83c
000002b0: bff1 87bb 5a4f e4bb 37f5 8e3d ab54 a63d
000002c0: b2ec cc3d 0be7 c73d 71bb 373d 3137 983d
000002d0: 0745 3d3d 49c2 07bc 6aa0 e4bc fd2e 61bd
000002e0: 1f2c 533d c3a7 d4bc 1f6a ed3c f26f 86bd
000002f0: 595a 053c 72fa 42bc a211 07bd e79b 0b3d
00000300: cb34 93bd ba05 86bd 9661 5e3d c258 dfbd
00000310: cd14 a5bd 461e 7abc b4dc 13bd 3a13 84bd
00000320: 14ba 9c3b 1834 cdbd 8396 5cbd 8157 1d3d
00000330: 0fd4 92bd ddc8 99bd cf71 e33d 1091 a6bd
00000340: 0a9d 82bd 11dd fb3b ab55 23bd c5fb 4fbc
00000350: ae46 853c a226 a6bd 8b2d 50bd f073 033d
00000360: 54e1 26be d446 4bbe 00e4 eb3d 97c9 c8bd
00000370: 2f19 46bc 60d5 5d3b 7254 c13d 527f d8bc
00000380: 66b6 0f3e 8aff 2cbd 26f0 c6bc ecfe 1d3d
00000390: 1bc8 cbbc 2f6c 1c3c 63f5 ad3c 8e78 833d
000003a0: 4519 c33d e67a bd3c 5a58 4b3c 1e25 c4bd
000003b0: 8650 36bd 99a4 993d cd07 df3b 4c66 bbbc
000003c0: 06e7 a73d e9a8 cf3d 7800 ed3c 2d64 d9bc
000003d0: 387a 933b 6af8 803c c7d7 95bd b4a1 393d
000003e0: 6d4f 123d 855a d13b fa71 173d abec 8ebc
000003f0: 47e4 03be d9b4 f2bd 1559 9bbd 4836 d1bd
0.1100553 -0.020387748 -0.08966788 0.34834746 0.10629686 -0.083561845 -0.18637422 0.03550904
0.10686937 -0.08018792 -0.054230515 -0.0074895327 -0.092147335 -0.004285475 0.02246134 -0.039232098
-0.071564734 0.09735117 0.0106767025 -0.058938377 -0.023737695 -0.012973469 -0.044974476 0.038243733
0.01754787 -0.008541017 0.081054665 0.048629407 -0.035231695 -0.048423592 0.009627306 -0.0028632714
-0.021963326 0.06635225 0.07537439 0.009252229 -0.1687919 -0.13459471 -0.07680778 -0.09542616
-0.05813173 -0.0468393 0.10298808 -0.009404538 -0.0279366 -0.05102362 -0.061939903 -0.16891548
0.0056188507 -0.058782138 -0.09574007 0.08591668 0.0037498504 -0.051765125 0.020229008 0.10138766
0.13638046 0.04357526 0.06162079 0.18486391 -0.05895487 -0.042459935 0.029788403 -0.0821768
0.025526604 0.021745127 -0.05174934 0.0053830203 0.06720971 -0.19774018 -0.034271337 0.032155138
-0.04417021 0.026906792 0.065355964 -0.07912089 0.09530759 0.13651672 -0.13129151 -0.056556743
0.06942122 0.00014049148 -0.030506076 0.056746937 -0.11548086 -0.07617505 -0.0122775575 -0.017067956
-0.041532207 0.09358004 0.18557113 0.0080711935 0.07683656 0.024718255 -0.029742666 0.010501239
0.00769599 -0.062796205 0.026835792 0.006276939 0.0059966957 0.0020066309 -0.10819494 -0.031668108
0.07150687 0.0016609272 -0.041119486 0.01833651 0.040509455 0.04446718 -0.0434676 0.0051422482
-0.024721354 0.027050566 -0.022153353 -0.0032775921 0.030437022 0.04601771 0.020620245 0.0725442
0.064518146 0.08184756 0.09456511 0.085651726 -0.011672398 0.1287497 -0.04980686 -0.0021805265
0.06271471 -0.06591708 0.030086707 0.067923784 0.019272678 -0.03288949 -0.044197567 -0.0147134345
0.10900501 0.05288273 0.0013268053 0.09769136 0.07833172 -0.032064132 -0.084595606 -0.053507335
-0.0637194 -0.0063932748 -0.0046905796 -0.074047804 -0.06428527 -0.03904121 -0.08173863 -0.12561725
0.051944476 -0.069721445 -0.024721416 -0.019467706 -0.101514414 -0.030091407 -0.094180755 -0.14826356
-0.20000662 0.14513965 0.07786686 0.059679907 0.07110118 0.08353283 0.009007045 0.030888006
0.020284513 0.08890226 0.029321369 0.022516293 -0.0041486914 -0.0069674673 0.06980365 0.08121618
0.100060835 0.09760865 0.044856492 0.07432402 0.046208408 -0.008286067 -0.027908523 -0.054976452
0.05155575 -0.025958901 0.028981267 -0.065643206 0.008139216 -0.011900531 -0.0329758 0.034084227
-0.07187804 -0.06544061 0.054292284 -0.10905601 -0.08060608 -0.015266007 -0.03609915 -0.0644898
0.0047829244 -0.10019702 -0.053854477 0.03841353 -0.07169353 -0.07509015 0.11105692 -0.08133137
-0.06377609 0.0076862653 -0.03987662 -0.012694304 0.016269054 -0.081128374 -0.050824683 0.03209299
-0.16296893 -0.19851238 0.11518097 -0.09804075 -0.012090965 0.0033849105 0.09439935 -0.026427899
0.14034423 -0.04223589 -0.024284434 0.03857319 -0.024875691 0.009547277 0.021235174 0.06419478
0.09526304 0.023129892 0.012411201 -0.09577392 -0.044510387 0.07502098 0.00680635 -0.022875927
0.08198361 0.10139639 0.028930888 -0.026537025 0.0045006536 0.015743453 -0.07316547 0.045320228
0.035720278 0.0063889646 0.03697393 -0.017446836 -0.1288005 -0.118509 -0.075853504 -0.102154315

Generator.conv2.conv2.0.weight f4 [8, 8, 3, 3, 3]
00000000: 5867 be3d d5d5 82bd 4e6d 3f3a ee80 a13d
00000010: 2b43 a53d 20d8 853d 71cf 6d3d a6ef 663d
00000020: 9428 f93d fcb8 063e 9175 97bc 34d4 5b3d
00000030: ed65 b63c a2b3 23bb 0c60 26bd 331f 9e3d
00000040: 70d1 46bd 17f9 073d 9296 043d d018 89bd
00000050: 7449 3cbd d727 3f3d a55e cebd 6358 bbbd
00000060: 0b97 c6bd a445 35bd 9516 4cbd 35ce 0a3e
00000070: d564 d23d 8246 f13c 7f4a 893d dca4 cd3d
00000080: 5da3 2d3e f15b 753d 00f1 4c3d 72b7 ea3d
00000090: ae54 ce3d a2bf 023d 303b 193c 3937 be3c
000000a0: f7ab d73d 947e 4f3d 9cc5 edb9 7d2a df3a
000000b0: 11a8 f03d 6c3d cf3c 4483 6a3d d18e 8ebb
000000c0: 8c3d 1c3d 2d58 043d b3cd 2a3d b503 09bd
000000d0: a87c 8b3d 0455 123d 4cf5 773e 1afa b13d
000000e0: 5ed6 713d 3479 fbbc 4a57 f0bd 3349 f6bd
000000f0: b79c 923d 333b 57bb 4349 93bd f0e0 46bc
00000100: 7791 09be b233 9d3b ffe8 02be 1c7a 0abe
00000110: 963f 4ebe 248b 133d 970c 2bbc 35d4 3bbe
00000120: f4ab edbc 1eb6 c0bd 148e 203e f7a7 d6bd
00000130: 5162 27be 5507 923c 54b1 ae3d 0138 253d
00000140: 9611 11bb 58e7 a33d 01a4 a13d d31e 1a3e
00000150: 7ee7 073d 0b89 143d 4875 b53c 6008 113e
00000160: bf7b 8d3c 6eff e03b 7d9e 123e 19a2 0b3c
00000170: c2ee be3d 9ea1 4fbd 215c 05be 41bf b7bd
00000180: 3af9 bcbc 2888 11be 545e 893c 16b1 9fbc
00000190: 310a 85bd 7852 8f3d 0d66 ccbd ba0d a8bd
000001a0: 7919 3dbd 701f c53d dcd0 99bd b47f d2bc
000001b0: d37e a8bd 0d73 82bd 1162 0bbd 427c 5f3d
000001c0: 5224 803d 093c 8439 a7c2 a23d 11bb 0f3d
000001d0: d70f a4bb 6e6d 26be 5a26 ffbd 7679 223c
000001e0: 1c49 95bd f165 9abd 3be8 703c 145d 363c
000001f0: 1c21 1dbd 27ea df3c a4c2 18be bf0e fabd
00000200: 0b2f 033c d3fe 1b3e 25fb 6c3d 5002 52bc
00000210: f2d1 d53d 3c7e 62bd 6cfd 14be 66f6 3b3d
00000220: ea48 62be 4022 77be 2f41 56bd c460 59be
00000230: c40b d0bb 656f 43be c7a3 6cbe 8823 113e
00000240: 667a 1e3a 4bd3 1ebc 1ff3 17be 49e9 4cbc
00000250: 2b99 babd 9a78 16be b1e9 d83c 4cf2 44be
00000260: 1134 08be 515b d83d 7ef3 bf3c db43 0fbd
00000270: 98c8 8d3d 6e8a 81bc a51f 2bbe 991e 003e
00000280: 9c66 01be 61a3 d3bb 42a0 103e 1448 8a3d
00000290: f9f4 643e 06e7 babc fa74 17bd adcc c8bd
000002a0: 4a39 6f3d 7b72 1bbe b375 a2bd fb7b a33d
000002b0: 5b28 193d dec5 4b3e d990 b93d e511 09bd
000002c0: 77d8 84bd 9b0f 98bc ea44 87bd 7911 bebd
000002d0: 1144 84bc a19f 013e 0428 9d3d cae8 653c
000002e0: 7868 aebb e4c5 21be 72ce 363d 8b30 c6bd
000002f0: e414 1fbe 5c4f 85bd 0bd0 7cbd 8075 b2bd
00000300: adb5 aabd 1b5b 98bd 23ac a8bd 257d 38bd
00000310: 0666 9fbc dda9 da3c e8b1 93bd 6cc8 8538
00000320: 05cd 5ebd 0495 0ebd 6790 94bd f682 37bd
00000330: 3d58 e63c a7f1 593c 821e 63bc 487f 2a3e
00000340: 93cf 183e 0535 2b3e 46ca 513d c8c3 db3d
00000350: 7b6f 90bc e9e7 113e 6278 463c 19eb 09bd
00000360: d067 36be cc80 aebd c865 a83c e835 c3bd
00000370: 4463 7abd b447 b0bd 11a5 37be 7c66 8cbc
00000380: e002 6cbc a2ce 443d 3c17 473d 5814 193c
00000390: 3ebb 823d 8a94 433d 030c aa3c 2a6b 15bc
000003a0: 612e 583c 920e 683d 85e2 4c3d 831f e33d
000003b0: 2e18 b03d 31a1 273e ecc8 f93d ff80 aa3d
000003c0: e030 133e db87 1d3d 434c 2e3d 9726 20be
000003d0: f9c3 e6bd f6d4 c23b cb9e e3bd 50ce b4bd
000003e0: 5a24 d8bc 0f1d 8ebe b6b6 eebd 39e7 b43c
000003f0: 9818 863c dacb bb3c 9aae 66bd 83b0 b73c
0.09297055 -0.063884415 0.00073023594 0.078859195 0.08069452 0.06535363 0.05805916 0.05638089
0.12165943 0.13156503 -0.018488677 0.05366917 0.022265399 -0.0024978896 -0.04061894 0.077207945
-0.04853958 0.033196535 0.032370158 -0.06694186 -0.045968488 0.046668854 -0.10076646 -0.09147718
-0.09696778 -0.044255868 -0.049826223 0.13555224 0.102731384 0.029452566 0.06703662 0.1004121
0.1695685 0.059902135 0.050034523 0.11460771 0.10074745 0.031921037 0.00935249 0.023219692
0.105308466 0.050657824 -0.00045351393 0.0017026212 0.11750806 0.025297843 0.05725409 -0.004350521
0.038144633 0.032310653 0.041700076 -0.0334508 0.06810886 0.03572561 0.24214667 0.08690281
0.059042327 -0.030697443 -0.11735399 -0.120256804 0.07158797 -0.0032841682 -0.07191708 -0.01213859
-0.13434397 0.0047974223 -0.12784193 -0.13523144 -0.20141444 0.036021367 -0.010440013 -0.1834267
-0.029012658 -0.09409736 0.15679199 -0.104812555 -0.16346098 0.017825762 0.085299164 0.040336613
-0.0022135726 0.0800311 0.078926094 0.15050821 0.033179753 0.036263507 0.02215065 0.14163351
0.01727092 0.006866387 0.14318271 0.008522534 0.09322883 -0.05069124 -0.13023426 -0.08972026
-0.02306806 -0.14212096 0.016768612 -0.01949362 -0.064960845 0.069981515 -0.09980402 -0.08205743
-0.04616687 0.09625137 -0.0751054 -0.02569566 -0.08227315 -0.063696004 -0.03402907 0.05456186
0.062569275 0.00025221732 0.07947283 0.03509051 -0.005006771 -0.16252682 -0.12458487 0.009916654
-0.07289335 -0.07538975 0.014703806 0.01113059 -0.038361654 0.027333332 -0.14918 -0.12209844
0.008006821 0.15233926 0.057856698 -0.012817934 0.104404345 -0.055296168 -0.14549798 0.04588928
-0.22098127 -0.24134159 -0.052308258 -0.2122832 -0.006349059 -0.19085462 -0.23109351 0.1417371
0.00060454605 -0.009693931 -0.14838837 -0.012506791 -0.09111246 -0.14694443 0.02647862 -0.19233054
-0.13301112 0.10564292 0.023431536 -0.03497682 0.06923026 -0.015813079 -0.1671129 0.12511672
-0.12636799 -0.0064586853 0.14123634 0.06752029 0.22359075 -0.022815239 -0.036976792 -0.09804664
0.058404244 -0.1518039 -0.079326056 0.07982632 0.037392 0.19899699 0.090608306 -0.03346433
-0.064866 -0.018562129 -0.06604941 -0.092806764 -0.016145738 0.1265855 0.07673648 0.014032552
-0.0053225122 -0.15798146 0.044630475 -0.096772276 -0.15535313 -0.06509277 -0.061721843 -0.087138176
-0.08335433 -0.07439252 -0.082359575 -0.045041222 -0.019457828 0.026692325 -0.07211667 6.379266e-05
-0.05439474 -0.03481008 -0.07254105 -0.04480263 0.028118247 0.013302243 -0.013862254 0.16650116
0.14922933 0.16719444 0.051218294 0.10730702 -0.017631283 0.14248623 0.012113662 -0.033671472
-0.17813039 -0.0852066 0.020556346 -0.09531766 -0.061129823 -0.08607426 -0.17934062 -0.017138712
-0.014404982 0.048048623 0.048606142 0.009343229 0.0638337 0.04774908 0.02075768 -0.009119788
0.013194651 0.05665452 0.050020713 0.11089995 0.08598362 0.16370083 0.12196526 0.08325385
0.14374113 0.03845964 0.042553198 -0.15639721 -0.112678476 0.005945797 -0.11114272 -0.088284135
-0.026384521 -0.27756545 -0.11655943 0.022082912 0.01636915 0.022924352 -0.056318857 0.022423035

Generator.conv3.conv1.0.weight f4 [8, 8, 3, 3, 3]
00000000: 6666 473c 413c 963d 2127 9bbc 4170 a0bc
00000010: 7d43 213c 6e50 2e3d eec0 943d 5ba3 c6bc
00000020: ace6 893c 1446 d1bc 068a e53c 79dc 77bd
00000030: c0c9 813c b731 9dbc 1e2f b4bd 4301 3bbd
00000040: 648e 193d 14c2 08bd a111 12bd 35c5 893d
00000050: 0e95 7fbc 2bc3 5a3d 7a62 5fbd bb99 2ebc
00000060: 6e5c dabc 41fc 083d 6053 5abd 8312 70bd
00000070: e27f ca3c 5f2d 053d c241 1e3c 8e35 d3bc
00000080: 92a3 8cbd a7b4 4d3d 8f98 3dbc 65dc 3e3d
00000090: fc98 e03b af24 803d 6abf f33d dfb1 26bc
000000a0: 6148 2abd 6b6c b7bd 52fd 143a 3cf2 b3bd
000000b0: 2ad2 cc3c b966 73bc 8822 c83d ca06 debc
000000c0: 24dd 703d 98a2 3cbd d4c2 91bd fc18 c4bd
000000d0: 4abd bfbd 8c46 573d 0ea8 39bd 3bf9 b4bc
000000e0: 5181 04bd 91d0 60bd c3d1 ddbc 356e bf3c
000000f0: 648e 1c3a 53a3 97bc 3ab6 5b3c b021 343d
00000100: 193d 033d d073 683d dbdd 1ebd ea9b bd3d
00000110: 1d29 663d e410 20bd e97b 37bb 8b2d e1bc
00000120: 51ba 8e3d b0f3 5bbd 5677 ca3c 6a59 bf3a
00000130: 7f17 973d d0b1 01bd f57e 9a3d 7cbe 66bd
00000140: 7e42 65bd 6249 ce3c 6b43 fbb8 e192 423b
00000150: c647 d7bc 1c77 143d fb31 76bd 6ad8 623d
00000160: 8951 56bc 699c 743d f856 7abc 28c2 293d
00000170: f59e 093d aa56 58bd 3349 8a3d 909e 8ebd
00000180: 5246 abbd 72ab d3bc 2426 7dbb 9927 26bd
00000190: 639d 6f3d dbdb 7cbc 8789 923d 4928 063e
000001a0: d4cc 083d ddac 8abc 91a4 bdbc 2c84 a3bd
000001b0: a644 9b3d efb6 4bbd da59 8a3b c555 823d
000001c0: 4451 83bd ea65 423d 477e ae3d 03df 383d
000001d0: c004 09bd a103 633d 7f29 9c3d e666 773d
000001e0: 8a59 ca3b d5f9 613d cfe7 bd3d d54c 203d
000001f0: eda5 933d abce 54bd 6ac1 4ebc a4fa 17bb
00000200: bcd8 a13c 3273 88bd 4202 34bd db5c 93bc
00000210: b35f 453d 4164 41bd 2cc8 02bd 9fc8 87bd
00000220: 0229 f33c 8c93 bc3c d7a8 65bc 4107 913d
00000230: bfce 73bd 2c13 02bd b3e4 66bc 7b71 fa3c
00000240: e2a6 6c3c fd34 963d ed59 0b3d 9483 2cbd
00000250: 29dd 373d ac23 54bb f8b9 67bd e76a 89bd
00000260: 8f97 123d b78b 6ebd 1bdc 7a3d 9b88 6cbd
00000270: ac53 1d3d bfc4 b33d 9c8a 723d e0db 6c3d
00000280: 65a1 aabd 6f74 d2bc 3fa2 65bd fb87 413d
00000290: 68fc 4dba c0d7 8fbc 153d 27bd 44c5 ffbc
000002a0: 2491 d63d 074f bf3b f412 bc3c f999 423d
000002b0: b510 a4bc 58ca 8b3d 664b 963d c2cb 41bd
000002c0: 950b 383d 01c7 d93c ef50 873c 99dd 803c
000002d0: 91b4 ca3c 8f18 d9bb 09bc f2bd a6dd 203d
000002e0: 1a2b d53d d41d 83bc 6e26 bcbd d436 d03d
000002f0: cb81 d73b 9ca1 4c3b 08e6 f6bb cc86 c53b
00000300: a337 423c 58b6 1c3d 341a 99bc 6724 9bbd
00000310: f7c1 f7bb 9974 2b3b 7999 46bc b9c0 a2ba
00000320: 2aee 8db9 8fb9 e83c 1c5d 143e 6839 4b3d
00000330: bb43 39bc e5e5 20bd f3d5 7e3d 3210 46bd
00000340: fb66 bbbd 61ef 04bc 5e7d 693d 006c ef3d
00000350: f034 9cbd 5e43 05bd 5b43 3dbd d75b 51bd
00000360: a088 483c 66cc 2bbd f694 09bc 380a 1f3d
00000370: fa78 203c 167f 283d af20 1e3b a178 5b3d
00000380: 397c 0d3d 66b9 f43d 7650 84bd 7655 133c
00000390: 8f69 a13d cd3e 313d 60a3 b7bd a7f0 0abd
000003a0: 7262 313d 3766 2ebe 52f3 b73c 013b b8bb
000003b0: f82f a13c 226d 573d f0f0 afbb 98be 54bd
000003c0: 3dc7 64bd 7894 6cbd b6bd 023c d7af 013c
000003d0: 60d9 e4bd fc6d 27be e60d c83c fd3b 903d
000003e0: 6450 0fbe 8b9a a53d 6f64 6d3d 9fd5 07bc
000003f0: 5115 933d fcb0 833c 4bb3 c5bc 3153 ce3d
0.01217041 0.07335711 -0.018939557 -0.019584777 0.009842751 0.042557172 0.07263361 -0.024247816
0.016833626 -0.025546111 0.028019916 -0.060512993 0.015843272 -0.019188745 -0.087980494 -0.0456555
0.03748931 -0.033388212 -0.035661343 0.067270674 -0.015599502 0.053408783 -0.054537274 -0.010656769
-0.026655402 0.033443693 -0.05330217 -0.058611404 0.024719182 0.032513972 0.009659233 -0.025782373
-0.06867136 0.05022111 -0.011572017 0.046596903 0.0068541747 0.06256997 0.11901744 -0.010174244
-0.041572932 -0.08956226 0.00056834996 -0.08786437 0.025002558 -0.014856034 0.09772211 -0.027102847
0.058804646 -0.0460535 -0.07117239 -0.09575078 -0.09362276 0.052557513 -0.045326285 -0.022091499
-0.03234989 -0.054886404 -0.027077561 0.02336798 0.00059721456 -0.018510496 0.013410145 0.04397744
0.03204069 0.056751072 -0.038785797 0.09258254 0.056191552 -0.03907861 -0.002799744 -0.027487537
0.06969131 -0.053699195 0.024715107 0.0014598791 0.073775284 -0.031663716 0.075437464 -0.056334004
-0.055971615 0.025181476 -0.0001198117 0.0029689597 -0.026279341 0.036246404 -0.06010626 0.05538217
-0.013080963 0.059719477 -0.015279524 0.041444927 0.03359886 -0.052817024 0.06752243 -0.06963837
-0.08363022 -0.025838587 -0.003862747 -0.040565107 0.058499705 -0.015433277 0.071551375 0.13101305
0.033398464 -0.01692813 -0.02314976 -0.07984194 0.07581453 -0.049735006 0.004222137 0.063640155
-0.064119846 0.047460474 0.08520179 0.045134556 -0.033451796 0.055423383 0.07625102 0.060400866
0.0061752247 0.0551699 0.092727296 0.039135773 0.07209382 -0.051954906 -0.012619356 -0.0023190165
0.019756667 -0.06662597 -0.043947466 -0.017988613 0.04818697 -0.04721475 -0.03192918 -0.06630062
0.02968264 0.023019575 -0.014017305 0.07081462 -0.05952334 -0.031756565 -0.014092612 0.03057169
0.014444085 0.073343255 0.034021307 -0.04211767 0.04488865 -0.0032369895 -0.056573838 -0.06709843
0.03578907 -0.05823871 0.061245065 -0.057747465 0.038409874 0.08777761 0.05921422 0.057826877
-0.08331565 -0.025690285 -0.056062933 0.04724882 -0.0007857741 -0.017558932 -0.040829737 -0.031221993
0.10476902 0.005838278 0.022958256 0.04751012 -0.020027498 0.068257034 0.073386 -0.04731346
0.04493292 0.02658415 0.016518084 0.015730666 0.024744304 -0.006625242 -0.11852271 0.03927388
0.104086116 -0.016005434 -0.091870174 0.10166708 0.006576752 0.0031224256 -0.007534746 0.006028032
0.011854085 0.038259834 -0.018689252 -0.075753026 -0.007560964 0.0026162027 -0.012121552 -0.0012417055
-0.00027071062 0.028408794 0.14488643 0.049615294 -0.011307652 -0.039281745 0.062215757 -0.04835529
-0.09150501 -0.008113713 0.057004325 0.11690521 -0.076272845 -0.03253495 -0.046206813 -0.051112976
0.012239605 -0.041942976 -0.008397331 0.038828105 0.009794468 0.041136824 0.0024128368 0.053581838
0.034542296 0.119494244 -0.06460659 0.008992543 0.07881462 0.043272782 -0.08966708 -0.03392091
0.043306775 -0.1703118 0.022454891 -0.005622268 0.019676194 0.05259431 -0.005369298 -0.051939577
-0.05585407 -0.05775878 0.007979801 0.007915459 -0.111742735 -0.1635055 0.02442069 0.07042692
-0.1399551 0.08086117 0.05795711 -0.008290677 0.071818 0.016075604 -0.024133345 0.10074461

Generator.conv3.conv2.0.weight f4 [8, 8, 3, 3, 3]
00000000: 1b8d 613d 10f3 8e3c 3280 97bc e223 e8bc
00000010: 2a7a 7e3d cb1e 12bd 3be1 93bd 784f 8ebc
00000020: d4b1 a1bd fb89 2e3d 0049 03bd f7f3 493d
00000030: c41d ac3a db09 5d3d a677 adbc bf86 9abc
00000040: 2dce 693c b49d 8dbd 1af4 993c a62b 773b
00000050: 49b0 d73b 0c00 6c3d 0574 d03d 1857 0f3e
00000060: e924 333d 1d6d bd3d e1c1 5b3d 4ace df3d
00000070: a8a6 11be cd7d 50be 9025 083e f295 c0bd
00000080: 7dca c9bd 494b 4c3d ac50 ab3d d1cb 05bc
00000090: c05a 9c3d be14 dfbd d2ec 0ebe a256 cbbd
000000a0: 9a47 b9bd 5589 68bd d85e f6bd a564 10be
000000b0: 77d4 37be 6363 c43d d1f6 03bc 5c09 16be
000000c0: 3d6a d2bc 6e79 adbc 707b 18be 8ae0 81bd
000000d0: 79f8 52bd 3da7 0cbe 3334 0e3d b437 b33c
000000e0: 4a5d 97be 8851 853d 6ba6 39bd 9c95 7dbb
000000f0: a7b0 f03d c820 3b3e 9a4f 5e3d 3c20 da3d
00000100: fc69 39bd 8abc 70bc 70be ad3d a80d dd3c
00000110: e728 4fbd 6707 0b3d 437b 973e 7506 7bbc
00000120: b45d 0a3e 5d25 113e 7871 ff3d 56b8 023e
00000130: 9515 2f3e 10d2 fc3d 36ee afbd 9037 023e
00000140: a453 003e 66c8 6cbd 4883 d43d 2eed 963a
00000150: 61f5 88bd 1c94 4abd a1f0 653d ed55 833d
00000160: e23a cabb 49ce 07bd 34c1 02be 63a0 b83c
00000170: d0f3 343c 3734 10be 0e4f 7abe dc21 333d
00000180: 0eeb ab3b 5be4 2abe f477 8bbd 69fa 35be
00000190: 8abe d1bd a5e8 afbc 360e 57bc 066e 88be
000001a0: 666c e7bc b01e cb3d a64e 2cbd 61fd 19bd
000001b0: d948 c6be 925c 3dbe 25fc dbbc 16b4 09be
000001c0: cc3a b0bd 7826 42bd db15 c0bd 5de9 00be
000001d0: c0c0 53bd 4be1 8abc b518 043c e2b4 403d
000001e0: ea13 193d 7e58 033d 1166 cebc f9e7 86bd
000001f0: 289e 6c3b 21b8 9cbc 1b56 eabe 1f56 8abe
00000200: e60b dabc 38f6 99be 9e1e 8bbe 2651 c7bd
00000210: 026f 783d 0bfc 443b 7ab8 a03d 9682 fd3c
00000220: 7d02 ceba a20f 93be 0f7c 10be d1d6 3dbd
00000230: d3f9 1d3c d692 863e c4f6 e2bc a28f d53d
00000240: 07c6 ecbd be7f afbd 9f5b 5ebd 2265 46bd
00000250: e347 063b 4366 b33d 7202 283e a90c 2abd
00000260: 9859 183e 00e4 0b3d e54c 083e d36e 97bd
00000270: 2e36 d83d 2670 e63c baac 703d 6fcc 9b3e
00000280: d0bb 013d eb4c b0bc 9474 213e 1ea5 043e
00000290: ba18 153e e15f 96bc 5fdb 5dbd 7e57 9b3d
000002a0: 9c4a 1ebe 7ddf 38be 6b98 183e 342d 9d3c
000002b0: b4c5 283d c669 ec3d 8314 edbd 8b7f 00be
000002c0: df60 c33d f988 0cbe d33c 86bb 5c70 e23d
000002d0: eccc 4cbe 693c 6fbd ef4e 193e e26c 1dbe
000002e0: 9192 babd 0b65 6a3e 2ed5 0ebd f299 f73d
000002f0: e126 fd3d 0163 5bb9 88ca ffbc babb d23d
00000300: 4369 33bd d7dc 03bd 177f c63d 96c2 97bd
00000310: dd53 123c 9882 3e3e b71a 333e 5fa6 633d
00000320: 47a9 c13d f8ed 393d eaba f03c 2cd2 a43c
00000330: 78ec 89bd d94b b53d 219b 28bc 35c6 2c3e
00000340: ae98 193c 9820 31bc 7507 213e 3b5d 793d
00000350: 091c 2f3d 70ab e93d aca5 243e 98b3 06bd
00000360: 2b41 2d3c 0dc2 e8bb d4df 42bd 5b07 3f3c
00000370: d24a a5bd 937e b7bd 8868 1f3d 9a39 1cbc
00000380: 4e43 4f3d 1962 bab8 8c31 3dbd ef9a 4cbd
00000390: b824 19bc ad0d 4c3d 6b06 60bd abdb 633d
000003a0: 54f4 f339 0908 153d 7dfc 5ebb 16fc d43d
000003b0: c3d8 d23d e6eb 573d 187e 3c3d 586c 2b3d
000003c0: bb96 aa3d 5d8b f3bc e712 503c 48aa c93a
000003d0: 541b 033c b1dd 09be 9700 ac3d 8754 c43d
000003e0: bd2e 413d d6fa 163e 22ed ef3b b055 df3d
000003f0: 6aa4 043d c6ce f53d 234a 75bd 0f4e ca3d
0.05506621 0.017449886 -0.018493745 -0.028337423 0.062128223 -0.035673898 -0.07220694 -0.017371878
-0.07895246 0.042612057 -0.03205204 0.04930493 0.001313143 0.053964477 -0.021175217 -0.01886308
0.014270348 -0.06914845 0.018793155 0.0037715225 0.006582294 0.057617232 0.10178379 0.13998067
0.043736372 0.09249327 0.053651694 0.109280184 -0.1422373 -0.20360489 0.13295579 -0.094036
-0.09853075 0.049876485 0.08364996 -0.008166269 0.07634497 -0.10892628 -0.13957527 -0.09928633
-0.0904686 -0.056771595 -0.12029809 -0.14100893 -0.17952143 0.09589269 -0.008054451 -0.14652008
-0.025685424 -0.021176066 -0.14890838 -0.063416556 -0.051506493 -0.13735671 0.03471775 0.021877147
-0.2956336 0.065096915 -0.045324724 -0.003869391 0.11752444 0.18274224 0.054275133 0.106506795
-0.04526709 -0.014693389 0.08483589 0.02698405 -0.050576117 0.033942606 0.2958623 -0.015321364
0.13512307 0.14174409 0.12472814 0.12765631 0.17098077 0.12344754 -0.08590357 0.12716508
0.12531906 -0.057808302 0.103766024 0.0011514777 -0.06687427 -0.049457654 0.056137685 0.064128734
-0.00617157 -0.033155713 -0.12769014 0.022537416 0.011044458 -0.14082418 -0.2444422 0.043733463
0.0052465266 -0.16688673 -0.068099886 -0.17771305 -0.102414206 -0.021473238 -0.013125947 -0.2664644
-0.02824993 0.099179626 -0.042067192 -0.037595157 -0.38727453 -0.18492344 -0.02685363 -0.13447604
-0.086049646 -0.047399968 -0.093791686 -0.12589021 -0.051697493 -0.016953131 0.008062531 0.047047503
0.037372507 0.032066815 -0.025195153 -0.06587214 0.003610501 -0.019130768 -0.45768818 -0.2701883
-0.026617002 -0.30070662 -0.27171797 -0.09732275 0.06065274 0.0030057456 0.07847686 0.030946057
-0.0015717294 -0.28722864 -0.14109825 -0.046347443 0.009642082 0.26283902 -0.027705558 0.104277864
-0.11561208 -0.08569287 -0.054286595 -0.04843629 0.0020489625 0.08759739 0.16407183 -0.04151598
0.14877927 0.034152985 0.13310583 -0.07394185 0.10557209 0.028129648 0.058758475 0.30429408
0.031673253 -0.021521052 0.15767127 0.12953612 0.14560214 -0.018356266 -0.054164287 0.07585047
-0.15458149 -0.18054004 0.14901893 0.019186594 0.04120417 0.11543612 -0.11576178 -0.12548654
0.09539961 -0.13724126 -0.0040966063 0.11056587 -0.20000046 -0.05840722 0.14971517 -0.15373567
-0.091099866 0.22890107 -0.034871273 0.120899096 0.12360931 -0.0002092235 -0.031224504 0.10289712
-0.043801557 -0.03219303 0.09692209 -0.07410161 0.008931127 0.18604505 0.1749066 0.055578586
0.09456115 0.04539296 0.029386003 0.020119749 -0.06734556 0.088523574 -0.010290892 0.16872485
0.009374781 -0.010810994 0.15725501 0.060879927 0.042751346 0.11409652 0.16078824 -0.032886118
0.010574619 -0.007103211 -0.04757674 0.0116594685 -0.080709115 -0.08959689 0.03891805 -0.009535218
0.050601296 -8.887443e-05 -0.04618983 -0.049952444 -0.009347133 0.04981773 -0.05469362 0.055629414
0.0004653061 0.036384616 -0.0034025006 0.10399644 0.1029525 0.052715205 0.04601869 0.04185137
0.08329531 -0.02972954 0.012699819 0.0015385831 0.008002121 -0.13463475 0.0839855 0.09586435
0.047163714 0.14744124 0.0073219696 0.109050155 0.03238336 0.120023295 -0.059885155 0.0987817

Generator.conv4.conv1.0.weight f4 [8, 8, 3, 3, 3]
00000000: 8678 e6bc ef37 733c 2271 ddbc 435f d9bb
00000010: 9569 533d 1f52 883b 27fb 533b bc91 253d
00000020: eeb5 0dbc 2611 35bd f12f babc c427 a6bd
00000030: c69c a5bd c8e5 fdbc 3158 4dbd 85d2 be3d
00000040: 5c2c d33c 33a8 593d c48a 273d d4ec c13c
00000050: 2b30 8c3d 7469 023d 1507 00be cd12 793c
00000060: 7e2b 80bd 0b1d 44bd bc4f a03c d1e0 fbbc
00000070: f3b3 2e3d de3a 9a3d afac 3bbb 7bcb 833d
00000080: e6d4 733d e622 babd 41e7 853d ce09 d6bc
00000090: 30bc 89ba e63b 02bd 59e5 6cbd 3f72 0ab8
000000a0: 5b78 09bd 1d27 78bd eeff d53b 7997 2b3d
000000b0: 62d1 3c3d e228 8c3d 8125 5bbd 40ca 6fbd
000000c0: 14bf 573d 4d55 24bd bc40 403c d43f a03d
000000d0: 8983 3f3d 3c89 ec3c 5c65 01be 5970 fbbd
000000e0: a8be e0bd ac75 1abd 2ca0 343d 5b9e 3bbd
000000f0: 981b 2e3d fd2e 213d 5dab 913c 8e52 8ebc
00000100: 7adf 23be 8d8c 8dbd 6e0b 6a3c af60 9cbd
00000110: 601f 86bd a2a8 e23b 02cd 853d 5a0f ef3b
00000120: ae9a ab3d aa12 01bc b8ce 91bc 4257 26bc
00000130: 64a4 01be 3813 263d 132a edbc 1540 6ebd
00000140: 7b7a 263c 39d9 c13c 9a98 23bc d7e9 29bd
00000150: e38c f7b9 665e 11bd 0647 aabd a204 153d
00000160: 6dbd b93c b814 853d 5cd3 b93c c0a9 48bd
00000170: 9442 d5bc 984c 17bb 38eb 99bd fe79 0fbd
00000180: 8049 d43d b461 d53d 8da5 363d 7cae aabc
00000190: 9e7f a5bd 7bbb 88bd 751f 8dbc f91f 3d3b
000001a0: d776 02be 5b9f b53d 840f 7e3c 7c5a 253c
000001b0: 9197 c8bd 8048 99bd 74e2 ba3c bdb2 87bc
000001c0: 92c8 663d e9a7 0b3d 1e17 c03c 7585 803d
000001d0: b42c 9c3c 37a3 dcba 0273 69bc c85e 753c
000001e0: de6c e0bc 512f 7eba 17e6 363d 1449 053d
000001f0: 98e7 113c 937c 0b3c 4148 b23d ed4c e2bc
00000200: 0b0b 513d 3d9a bc3c 5584 3c3c 85a2 ebbc
00000210: 2a9d 03bc 75a1 473d 38ea 163d c9f1 f1bc
00000220: 686b d43c 5bdc cabd 30bb b83c 8e5f 093e
00000230: beb6 b03c 56e1 863d 235d 643d 517f 07bd
00000240: 15e5 80ba 699a b63a 6902 1dbd e87f 0cbd
00000250: e018 87bd d90e caba 63c9 813c 6438 6b3c
00000260: 4b77 e3bb 9517 733d ac61 18bc dd5b acbc
00000270: 5a3d 803c 3fa1 53bd 6d93 6abd 895a 2c3c
00000280: 62c8 78bd 4641 a8bc 01c6 02be 661c 57bc
00000290: c7fd e3bd 2333 9fba 96a9 bf3d 9dfa cc3d
000002a0: 72d6 7bbb e363 b33c 0f2f 4c3c 4e5d cdbd
000002b0: 617e e7bc 1e0e aa3c e7e9 c5bc eaaa 0bbe
000002c0: 6be1 9938 4b8c 923d 6940 963d 52c6 13bc
000002d0: dda3 b53d 6844 f33d 6e55 d03c 19b0 79bd
000002e0: 12c8 febc 517d 9b3c 787d 8abd dab6 a7bc
000002f0: d820 93bc 5500 27bd ef61 8abd de44 c1bd
00000300: a385 07bc 6dfb 533c 44c1 1abd f4f7 803c
00000310: 1263 25bc 73fa ed3c 080d ba3c 2531 f1bd
00000320: d5b7 d03c 9cfa c33c 3231 77bd a611 dcbc
00000330: 0a3b b43d 26a8 9c3d bfe1 11bd c158 493d
00000340: 2ea7 083a 6834 a9bd 8da5 723b 2d89 a3bd
00000350: fa5c e2bd 8181 5d3c b15b 1dbc 1244 093d
00000360: 0ecc 6dbc 7281 a43d 28c1 5b3d 7f21 ba3c
00000370: 07ef ed3d 9e23 503d 942c 33bd bbcc e53c
00000380: af67 533d d3b4 643d 6723 563d 3c28 4c3b
00000390: 06e8 46bd 1255 0b3d 3f94 633d 5c07 343b
000003a0: 1130 713c 450d 003d d31c 613c ba05 91bd
000003b0: f29b 39bd 53d7 4c3d 0584 e1bd 9533 edbd
000003c0: cb79 833d 7f1f b13c 2be2 78bd 5654 48bd
000003d0: b827 a13d 1b25 a43d 1064 a8bd 3ec2 f33d
000003e0: 74a2 c83d c442 a33a 4cf5 d4bd f7ca 24bd
000003f0: 2c62 8dbb 3ae5 153d 9216 7c3c 6dd0 a9bc
-0.028133642 0.014844879 -0.027031485 -0.0066336705 0.051614363 0.00416018 0.0032345743 0.040422186
-0.008649332 -0.044205807 -0.022727938 -0.081130534 -0.08086543 -0.030993357 -0.050132934 0.09317497
0.025777988 0.053138923 0.04090382 0.023672499 0.06845125 0.03183885 -0.12502702 0.015202236
-0.062582955 -0.04787926 0.01956927 -0.03074685 0.04265208 0.07530759 -0.0028636863 0.06435295
0.059529208 -0.090886876 0.06538249 -0.026127722 -0.0010508355 -0.031795405 -0.05783591 -3.3008164e-05
-0.033562046 -0.060584176 0.0065307533 0.041892502 0.04609812 0.06843735 -0.053502563 -0.05854249
0.05267246 -0.04012041 0.011734184 0.07824674 0.0467563 0.028874032 -0.12636322 -0.12277288
-0.10973865 -0.037709877 0.044098064 -0.045805316 0.042506784 0.039351452 0.017781908 -0.01737335
-0.16003218 -0.069115736 0.014284952 -0.076356284 -0.06548953 0.0069170753 0.06533243 0.007295531
0.08379112 -0.007877985 -0.017798766 -0.01015264 -0.12660366 0.040545672 -0.028950727 -0.058166582
0.010161038 0.02366315 -0.0099851135 -0.041482773 -0.0004721648 -0.035490416 -0.08314328 0.03638137
0.022673333 0.064980924 0.022683792 -0.04899001 -0.026032723 -0.0023086425 -0.075155675 -0.03502845
0.103655815 0.10419026 0.044591475 -0.020835154 -0.08080982 -0.06676384 -0.017226914 0.0028858169
-0.12740646 0.08868285 0.015506629 0.010092374 -0.09794534 -0.074845314 0.02281306 -0.016564721
0.056343623 0.03409568 0.023448523 0.06275455 0.019064285 -0.001683331 -0.014248611 0.014976211
-0.027395662 -0.0009696382 0.044653025 0.032540396 0.008905314 0.0085135875 0.087051876 -0.027624572
0.051035922 0.023022765 0.01150616 -0.028764019 -0.008033076 0.04873796 0.036844462 -0.029534237
0.025930122 -0.09905311 0.022550195 0.13415357 0.021571513 0.06585948 0.055752885 -0.033080403
-0.0009833897 0.0013931516 -0.038332377 -0.03430167 -0.065965414 -0.0015415802 0.015843099 0.014356706
-0.006941711 0.05934866 -0.009300631 -0.021039898 0.015654255 -0.051667448 -0.057269502 0.010519632
-0.060737975 -0.020538937 -0.12770845 -0.013129329 -0.111323886 -0.0012145977 0.09358518 0.10008738
-0.003842738 0.021898216 0.0124623915 -0.10027562 -0.028258504 0.020758685 -0.024159385 -0.13639417
7.337596e-05 0.07155665 0.07336504 -0.009019451 0.08869145 0.11878282 0.025431361 -0.060958955
-0.03110126 0.018980654 -0.067622125 -0.020472933 -0.017959997 -0.0407718 -0.067569606 -0.094369635
-0.008271608 0.012938363 -0.03778197 0.015743233 -0.010094421 0.029050088 0.022711292 -0.11776952
0.025478283 0.02392321 -0.06034965 -0.026863884 0.08800323 0.07649259 -0.03561568 0.049156908
0.00052129 -0.08261949 0.0037024945 -0.079851486 -0.1105289 0.013519646 -0.0096043805 0.033512183
-0.014513982 0.08032502 0.053651005 0.02272105 0.116178565 0.050815217 -0.043743685 0.028051725
0.051612552 0.05583651 0.052279856 0.0031151911 -0.04856112 0.034016676 0.0555613 0.0027470207
0.014720933 0.031262655 0.013739782 -0.070811704 -0.045314737 0.050010037 -0.11011509 -0.11582104
0.064197145 0.021621464 -0.060762566 -0.048908554 0.07868904 0.0801489 -0.082222104 0.11902283
0.097966105 0.0012455811 -0.10398349 -0.040232625 -0.0043146815 0.03659556 0.015386241 -0.020729268

Generator.conv4.conv2.0.weight f4 [8, 8, 3, 3, 3]
00000000: 93e8 1c3d 0f76 993e 2a3e bcbd 8c0d 0bbe
00000010: fc6a c4bd 6fdd c13b a146 833d 8c2a 333d
00000020: 1b35 3c3e 6eb5 26bd 97ed 093e 7b5c b73c
00000030: 9c2a 143c 9206 9abd 2fa9 a9bd d68f be3d
00000040: 5397 873e 8904 e13d 6747 24bd bbce 5c3d
00000050: 0da7 55bd 2d22 31bd 1ff0 f8bc 249d 553d
00000060: 1500 993d 6d78 133e 82b0 3e3d 60a6 43bc
00000070: bf58 b8bd 36db 423e 0cec 7e3d 3ba7 fb3d
00000080: b6e4 87bc 3b3c d23d c870 bdbc 09e7 29bb
00000090: 187a dc3c d918 97bd e24e 443d 2654 0dbd
000000a0: 8e82 253e c5e7 dc3c 682d 1fbd 47fa c93d
000000b0: c7a1 cebd 99ad 163d 305e 7a3c e60a 2abd
000000c0: b4b7 d3bc 8929 c53c 2c15 f7bd 38d7 e33c
000000d0: 20c5 3c3e 868c a53c f7b7 58be f9fc f5bc
000000e0: 5429 453e d0e4 24be 62d7 20be 9372 12bd
000000f0: abbc 14bd 4bff f33d 4eb2 0e3e a6e3 0cbf
00000100: dd78 c4bd 4eba 0a3e 2601 0abe cc37 8abd
00000110: 04f6 d7bc 5be3 a63d 5fc7 d03d ae8d 1d3e
00000120: 3346 d2bd c6a1 09be 9fc5 90ba 49d0 2ebe
00000130: 1e06 cabd bb7f 5cbd 31bd 39bd ec85 823e
00000140: b6ad 153e d0fc f7bb 4eae 10bd 5486 4c3d
00000150: 2233 dbbc f965 e4bc afe0 70bd 1f7f 103e
00000160: 2fca 76bc 6f39 a6bd 941f e137 55fe e93c
00000170: 5e22 26bc 4d42 703d 8481 753d 4b7d 113d
00000180: f800 bebd cb14 293c 851a 94bd 47b2 853d
00000190: c319 b93c 2937 29bd 7429 433e 422c ae3d
000001a0: ec67 173d a867 b5bd bb2c a7bd 529a c5bd
000001b0: e65d c3bd 55d4 c6bc 8e1d 85be 1883 333c
000001c0: 18a5 ce3d 389c dfbd 098b 5bbd 5a3c bbbd
000001d0: e9d3 1dbe 0a7a f5bd a012 abbd 92cf a0bc
000001e0: 5105 cabc 8ed3 64be 62d1 f1bd ce41 75bd
000001f0: e113 f5bd 1c68 b33c ebc0 f4bd 9939 863d
00000200: ed92 1e3e edb9 0cbb 5fd6 5fbe 8041 20be
00000210: 207f 5d3d 92d3 23be 182c 09be 0e74 f73d
00000220: 793b 90bd 4209 82bd 6299 1ebd 3fe5 06be
00000230: 11b9 32be 2e2d 86bd 2a13 ba3d 8188 3ebd
00000240: dd90 053e dd78 033d ac8b 123c 5b77 593e
00000250: c7a1 ab3d a823 873c 9a02 fe3d e62b e73d
00000260: 1f7c 3bbd 2048 d4be b7e1 92be e392 16be
00000270: a682 18be fdd2 b23d 1adf 0b3e 3d7a 33be
00000280: 49e9 4d3d 06de 9f3d c3ad 2b3c 2438 d53c
00000290: 658f 26be 5ce4 4a3b c71b b0bd 5e51 93bd
000002a0: 1ed0 b03b 4aa0 093d 2865 1d3e 8b00 b6bd
000002b0: cd25 99bd b5f7 04be 6503 20be 38dc 3dbe
000002c0: a214 ce3c 6103 f93d 49ef c03d 485a 6c3d
000002d0: c5a4 b3bc 7779 083d 53d3 0bbe 10e4 9cbe
000002e0: 52d8 073d be6d 9ebc 1101 7cbe 1201 163e
000002f0: 2028 9fbb 0675 e8bc 8c22 3bbc 9cec 93bb
00000300: 9b2a 77bd 334f 73be 6c69 8abb 957b 43bd
00000310: 1185 b4bd 3435 1c3c bd92 403b a8ee 25bd
00000320: 99b3 cc3d 81f1 0fbd ef64 b3bd bd8d 193d
00000330: d707 fb3c 1cc3 03bd f38b 8f3c 29fe d83d
00000340: c878 743c d9db 103e c294 8b3d 73ff 39bd
00000350: 3830 1d3d cdcf f83d 9213 c63c d96b b23b
00000360: 3fea 78bd 841b e93d ccdf 28bd 4bb3 38be
00000370: 153d 1abe 4168 243e 279d b33b 1c1b b7bd
00000380: eebf e73d aa89 ffbd 75b3 e33c b24a edbd
00000390: a0b9 5c3b 5033 bebd 30eb 893d e979 dc3d
000003a0: fce0 7cbd e7c3 493d 87c6 35bd ca91 933d
000003b0: 54c9 a7bd 8220 7abc 8753 dc3d 73d8 dd3d
000003c0: a516 843c fa8b aa3c 14e6 8b3d 0d81 3fbd
000003d0: 0fc4 323d eee1 e2bd c1ee d4bb 1e2d 953e
000003e0: f5e5 1cbd c2d2 0cbe 93ab 343d 2ba4 373e
000003f0: c7bc a73c 2bbc a93d f34a ce3d 3ddd 003d
0.038307738 0.29972884 -0.09191544 -0.13579386 -0.09590718 0.0059162895 0.06409956 0.043741748
0.18379633 -0.04070037 0.1346954 0.022382965 0.009043362 -0.075207844 -0.08284222 0.09304778
0.2648264 0.10987193 -0.040107157 0.05390809 -0.052161265 -0.043245483 -0.030387936 0.052151814
0.07470719 0.14401408 0.04655505 -0.011941522 -0.09001302 0.19028935 0.06223683 0.12287756
-0.01658855 0.10265394 -0.023125067 -0.0025925061 0.026913688 -0.07377786 0.04792679 -0.03450408
0.16163084 0.026965985 -0.038861662 0.0986219 -0.1008945 0.03678665 0.015281245 -0.0415143
-0.025844432 0.024067657 -0.12064585 0.027812585 0.18434572 0.020208608 -0.21163927 -0.030027853
0.19254047 -0.1610291 -0.15707162 -0.035753798 -0.03631274 0.11913928 0.13935205 -0.55034864
-0.09593365 0.13547632 -0.13477 -0.06748924 -0.026362427 0.08148833 0.10194277 0.15386078
-0.10267296 -0.13440618 -0.0011045224 -0.17071642 -0.09864448 -0.05383275 -0.045346443 0.254928
0.14617047 -0.0075679794 -0.03532248 0.049932793 -0.02675778 -0.027880656 -0.058808025 0.14110993
-0.015062853 -0.08116423 2.6836795e-05 0.028563658 -0.01014003 0.05865698 0.05993797 0.03551988
-0.092775285 0.010319899 -0.07231621 0.06528144 0.022595292 -0.04131237 0.19058782 0.08504535
0.036964342 -0.088576615 -0.081628285 -0.09648575 -0.09539394 -0.02427117 -0.2599911 0.010956548
0.10090083 -0.10918468 -0.05359939 -0.091423705 -0.15412869 -0.11986168 -0.08353162 -0.019630227
-0.024660738 -0.22346327 -0.11807515 -0.05987721 -0.11966682 0.02190023 -0.11950859 0.06553955
0.15485735 -0.0021473125 -0.2185912 -0.15649986 0.054076314 -0.15998676 -0.13395727 0.120826825
-0.070425935 -0.06349422 -0.038720496 -0.13173388 -0.1745341 -0.06551586 0.090856865 -0.0465169
0.13043542 0.032097686 0.008944433 0.21236937 0.08380466 0.016496494 0.1240284 0.1128767
-0.045772668 -0.41461277 -0.28687832 -0.1470447 -0.14893588 0.08731649 0.13659325 -0.17527099
0.050271306 0.078060195 0.01047844 0.026027746 -0.16265638 0.0030958867 -0.08599048 -0.07193254
0.0053959033 0.03360013 0.1537062 -0.08886822 -0.07477913 -0.12985118 -0.15626295 -0.18541038
0.025156323 0.121588476 0.0942064 0.057703286 -0.021929154 0.033318963 -0.13654833 -0.30642748
0.033165284 -0.019339439 -0.24609782 0.14648846 -0.004857078 -0.028376114 -0.011421811 -0.00451429
-0.060343366 -0.23760681 -0.004223993 -0.04772528 -0.08814443 0.009534169 0.0029384338 -0.040510803
0.09995193 -0.035142425 -0.08759486 0.037488688 0.030643387 -0.032168493 0.017522788 0.10595352
0.014921375 0.14146365 0.06815483 -0.04540963 0.038376063 0.1214901 0.024179254 0.0054449853
-0.06077027 0.11382201 -0.041229054 -0.18037145 -0.15062363 0.16055395 0.0054813805 -0.089407176
0.113159046 -0.12477429 0.027795533 -0.115865126 0.0033679977 -0.09287131 0.067343116 0.1076544
-0.061738 0.049259093 -0.044378784 0.072055414 -0.08192697 -0.0152665395 0.10758119 0.108323
0.016124079 0.0208187 0.06830993 -0.04675393 0.043644007 -0.11078249 -0.0064981882 0.29135984
-0.03830524 -0.13752273 0.04410894 0.17933719 0.020475758 0.08287843 0.10072889 0.03146099
