DeepWonder3D_pytorch/pth/SEG_pth/Unet4_no_end_UNet3DFFD_20240401-1432_2um/seg_100.pth (torch, 138281 bytes, 19 tensors)

Generator.conv1.conv1.0.weight f4 [8, 1, 3, 3, 3]
0.107823335 0.099220864 -0.05212618 0.14232133 -0.11777438 -0.11600095 0.0099880975 0.008349746
0.10859306 0.025745891 -0.1634012 0.090402074 0.12250721 0.10680657 0.04097191 -0.18577906
0.09281586 -0.1960618 -0.12297658 -0.118000016 -0.060950905 0.043198682 -0.047112595 0.06794926
-0.19772471 -0.011851697 0.11762956 0.14867195 0.1442281 0.00682051 0.09000574 -0.13413197
-0.18171419 0.15354681 0.033166915 -0.068788 -0.12019843 0.14862108 -0.050750826 -0.12610875
-0.07900419 0.0063367723 -0.18424286 -0.20698121 -0.0129987225 0.10942493 0.020218445 0.19405414
0.17404546 -0.09002197 0.15730435 0.10305121 -0.120949656 -0.07197955 0.07078985 -0.03444007
-0.11085389 0.028242163 0.100632876 -0.003312125 -0.16227923 -0.11364344 -0.06049688 0.04201293
0.10216943 0.025789566 -0.042358335 0.040976305 0.07658337 0.043102935 -0.0065432796 -0.0006507127
-0.17012034 0.030018972 0.03288934 -0.015201269 -0.08273195 0.07792342 -0.30033937 0.029410053
-0.23267835 -0.09127493 -0.14585525 0.16037165 -0.19811767 -0.07055886 -0.018806916 0.080392756
-0.114301085 0.055300064 -0.2071912 -0.057527293 0.029170211 0.101854354 -0.19724455 -0.1620443
-0.036675084 0.12524246 0.087498784 -0.054909125 0.064274125 0.09331102 -0.064529486 0.05892061
0.079997726 0.015424824 -0.16290088 -0.22171888 0.09792527 -0.16011935 -0.057755407 -0.12941338
-0.020536005 0.011082068 -0.04079565 0.071270816 0.03941238 -0.023131842 0.10566765 -0.18389824
-0.057721622 -0.032837532 -0.010024955 0.10473087 0.020551575 0.11236609 -0.19929822 0.088115335
0.12114216 0.09871863 0.044879563 -0.10660865 -0.15131919 -0.07406579 0.10274588 0.04154421
-0.09577182 0.1299104 0.11456753 -0.062128887 -0.12248736 -0.18768485 0.17492919 0.0105788885
-0.07619167 -0.1764702 0.06999478 0.10155288 -0.16497691 -0.2081955 -0.076976165 0.06659914
0.13828765 -0.02485833 -0.033170138 0.12276001 0.022851352 0.16197574 -0.089492485 -0.008363468
-0.061010767 0.17693347 -0.20278709 0.17128944 -0.08222808 0.09166316 0.004399555 -0.059890967
0.039728064 -0.019144868 0.04600342 0.06558046 -0.06645694 0.21628669 -0.20099907 -0.0845379
0.01080604 -0.04469771 0.12268226 0.034037925 -0.070616625 -0.054521352 0.09215033 -0.14065339
0.051397838 0.091983475 -0.111503474 0.0051067797 0.15566479 -0.040907796 0.13518533 0.029644903
0.052491844 0.10706486 -0.20070373 -0.055255547 1.079581e-05 0.12964906 -0.02576777 -0.08083695
-0.047083482 -0.1932681 0.12824783 -0.094831295 -0.07340136 0.15618247 0.021031715 -0.039040264
-0.035357557 -0.011449575 -0.18701601 0.0868798 -0.10890184 -0.15857656 -0.09564548 0.098856404
00000000: 7bd2 dc3d 4f34 cb3d 4382 55bd afbc 113e
00000010: b233 f1bd e891 edbd 1ea5 233c 5fcd 083c
00000020: 0a66 de3d 0ce9 d23c a552 27be b924 b93d
00000030: 0fe5 fa3d 67bd da3d 29d2 273d de3c 3ebe
00000040: 3e16 be3d 6dc4 48be 25db fbbd fea9 f1bd
00000050: a8a7 79bd 1af1 303d 23f9 40bd fb28 8b3d
00000060: 5978 4abe 9f2d 42bc c4e7 f03d 763d 183e
00000070: 88b0 133e 967e df3b ee54 b83d e459 09be
00000080: 4913 3abe 603b 1d3e 08da 073d b9e0 8cbd
00000090: 982a f6bd 2030 183e 19e0 4fbd a722 01be
000000a0: f3cc a1bd b3a4 cf3b 29aa 3cbe e2f2 53be
000000b0: 98f8 54bc 2d1a e03d 27a1 a53c 21b6 463e
000000c0: f938 323e 705d b8bd 6414 213e 830c d33d
000000d0: 74b4 f7bd 046a 93bd 45fa 903d 0811 0dbd
000000e0: 5d07 e3bd 1c5c e73c 9c18 ce3d 3d10 59bb
000000f0: 872c 26be e4bd e8bd 94cb 77bd c015 2c3d
00000100: 353e d13d a444 d33c ef7f 2dbd c5d6 273d
00000110: bed7 9c3d b48c 303d 0269 d6bb 9794 2aba
00000120: 0734 2ebe 59ea f53c f9b6 063d be0e 79bc
00000130: 5e6f a9bd 5096 9f3d 15c6 99be 5aed f03c
00000140: 3c43 6ebe 5aee babd 145b 15be 7738 243e
00000150: 5cdf 4abe 2a81 90bd f610 9abc f5a4 a43d
00000160: b016 eabd 5282 623d ee29 54be bda1 6bbd
00000170: 5ef6 ee3c 0499 d03d 7afa 49be f1ee 25be
00000180: 9d38 16bd 8f3f 003e 9032 b33d 64e8 60bd
00000190: 27a2 833d d919 bf3d 0928 84bd bd56 713d
000001a0: d9d5 a33d 67b8 7c3c 7dcf 26be 460a 63be
000001b0: 0b8d c83d 54f6 23be ef90 6cbd f184 04be
000001c0: 203b a8bc 9091 353c 5719 27bd 6ff6 913d
000001d0: e06e 213d fd7e bdbc 4868 d83d d24f 3cbe
000001e0: 826d 6cbd a680 06bd b53f 24bc 237d d63d
000001f0: c75b a83c 3120 e63d d514 4cbe d075 b43d
00000200: 6119 f83d fe2c ca3d a2d3 373d a355 dabd
00000210: 6bf3 1abe ceaf 97bd 6f6c d23d 432a 2a3d
00000220: 0424 c4bd 3b07 053e 62a2 ea3d dc7a 7ebd
00000230: a7da fabd 7530 40be a320 333e 1353 2d3c
00000240: 610a 9cbd 9bb4 34be 6c59 8f3d f5fa cf3d
00000250: b5ef 28be 3331 55be aea5 9dbd 2165 883d
00000260: 479b 0d3e b2a3 cbbc 69dd 07bd 9a69 fb3d
00000270: c232 bb3c f8dc 253e d647 b7bd ed06 09bc
00000280: 6de6 79bd 0c2e 353e 6ba7 4fbe 8066 2f3e
00000290: 3267 a8bd e5b9 bb3d 242a 903b 3b50 75bd
000002a0: e5b9 223d b3d5 9cbc 156e 3c3d 0c4f 863d
000002b0: 931a 88bd 427a 5d3e b3d2 4dbe 3522 adbd
000002c0: d10b 313c f214 37bd d640 fb3d 5a6b 0b3d
000002d0: 739f 90bd c851 5fbd 50b9 bc3d 7107 10be
000002e0: 8a86 523d d561 bc3d ef5b e4bd c656 a73b
000002f0: 9766 1f3e ef8e 27bd 066e 0a3e ded9 f23c
00000300: b001 573d d244 db3d 4785 4dbe a453 62bd
00000310: a71f 3537 b9c2 043e ee16 d3bc d88d a5bd
00000320: 9cda 40bd 13e8 45be 6653 033e e936 c2bd
00000330: 7453 96bd 4cee 1f3e b44a ac3c afe8 1fbd
00000340: 16d3 10bd 0097 3bbc 2081 3fbe 09ee b13d
00000350: ee07 dfbd e561 22be c7e1 c3bd 3a75 ca3d

Generator.conv1.conv2.0.weight f4 [8, 8, 3, 3, 3]
0.12578785 0.043797433 0.07569126 -0.024861116 -0.0582768 0.005815625 0.14992045 0.09897338
0.23966324 0.012504231 0.023625216 0.020299606 0.024897385 0.091835335 -0.029481316 0.06282374
-0.023993667 0.10247765 0.013126561 0.1048227 0.096575856 0.08188888 0.1041485 0.072834685
0.12299055 0.1272289 0.14293349 -0.10460527 -0.0780396 -0.084223814 -0.0118149 -0.06210618
-0.09192389 -0.016572442 0.041116625 -0.09668999 -0.1018261 0.12464782 -0.10504141 -0.0067006126
0.0945912 -0.2596442 -0.021655824 0.05097838 0.019988049 0.019485194 0.15380964 -0.22962624
-0.030272093 0.104395546 -0.26230648 -0.074045524 0.0043793344 0.0031826722 0.112193376 0.022110207
0.029318286 -0.0011926695 -0.06318685 -0.047784694 0.037109893 0.00017371443 -0.05444231 0.11345128
0.06033846 0.016506786 -0.00050901 0.043217 0.049244612 0.11302724 0.03611631 0.04758164
-0.0037083505 -0.033026613 0.06853878 -0.08247733 -0.005226923 -0.02915603 0.09332761 0.0979249
0.06188483 -0.023967206 0.061852712 0.041499224 0.14002484 0.0020506054 -0.0062915897 0.007937985
-0.03987384 0.008716612 0.020810368 0.017795738 0.04262752 -0.045561016 0.014793509 0.05740492
-0.034961242 0.02330909 0.02806452 0.06678517 -0.04626278 -0.048626237 -0.007759887 0.03818489
0.05206426 0.030270778 0.03842955 0.019161472 0.046259113 -0.10638364 -0.10298357 -0.04784524
0.037313186 -0.07685785 0.030165596 -0.031761494 0.04886919 -0.12411378 -0.032029524 0.06326733
-0.060937982 0.04466507 0.07525636 -0.14915097 0.080220506 0.029455084 -0.15989484 0.06269059
0.011485953 -0.106492355 0.10205831 -0.049728878 -0.22566108 0.09181676 -0.025405634 0.06884038
0.050676715 0.05784915 -0.004537028 0.0244464 -0.007889335 0.05255189 -0.084726796 -0.028053904
-0.15532319 0.019751234 0.03285974 -0.08639349 0.0010407489 0.022215491 -0.0136294495 -0.0118422005
-0.11403319 -0.04773732 0.030343797 0.05402454 -0.05496672 0.07867473 0.08999282 -0.06259148
-0.009173579 -0.011431886 0.03907855 -0.060404547 -0.12767535 0.0423616 -0.052145112 -0.07805696
0.12067243 -0.07097949 -0.010068345 0.032895423 -0.1286288 -0.016360026 0.016999474 -0.005018638
-0.0749508 -0.05289944 -0.061976407 -0.002872307 0.030699488 -0.032555815 0.09177401 -0.019525154
0.08319128 0.051770773 -0.06925419 -0.1266986 -0.04751911 0.006464472 -0.07045265 0.0042327573
0.049922314 0.025789773 0.044788845 0.049450144 -0.06576047 0.010699222 0.018553803 -0.16078049
0.078293085 0.008243378 -0.11032103 0.13780034 0.08934021 -0.18252061 0.0892087 -0.09216331
0.062746026 -0.19522868 -0.14307514 0.12033128 -0.19103898 -0.19282818 0.04105038 -0.16452247
0.16075137 0.120703146 0.22921231 0.004051441 0.02243701 0.114635564 0.22444852 0.22535805
0.20315102 0.098305665 0.056781292 0.15541916 0.00905495 0.06950891 0.032989785 0.04414425
0.00088647933 0.053045217 0.06823023 0.09226418 0.031641565 0.09448994 0.07786139 0.083663866
0.06307681 -0.00035481047 0.1055535 -0.07947255 -0.048810475 -0.03808872 -0.03675171 -0.06749369
0.03141885 0.039591376 0.022328738 0.019994967 0.047083963 -0.03799939 -0.016968044 0.058244497
00000000: 88ce 003e f064 333d 0504 9b3d 8aa9 cbbc
00000010: a7b3 6ebd 0091 be3b bf84 193e 8eb2 ca3d
00000020: 486a 753e 8cde 4c3c ab89 c13c 5c4b a63c
00000030: 9af5 cb3c 2a14 bc3d cd82 f1bc bca9 803d
00000040: 5e8e c4bc cddf d13d ca10 573c 49ad d63d
00000050: 90c9 c53d 5bb5 a73d cf4b d53d 5a2a 953d
00000060: 78e2 fb3d 4b48 023e 285d 123e 4a3b d6bd
00000070: 3ad3 9fbd 897d acbd 4893 41bc 0d63 7ebd
00000080: 9842 bcbd eec2 87bc e869 283d 6705 c6bd
00000090: 348a d0bd 5b47 ff3d f31f d7bd d090 dbbb
000000a0: 08b9 c13d 16f0 84be 8e67 b1bc b5ce 503d
000000b0: fabd a33c 6a9f 9f3c 4680 1d3e 2423 6bbe
000000c0: 2efd f7bc 55cd d53d 094d 86be 2ea5 97bd
000000d0: 8580 8f3b 6194 503b a4c5 e53d 7720 b53c
000000e0: e72c f03c 5953 9cba 1b68 81bd e2b9 43bd
000000f0: 8b00 183d 1d27 3639 e6fe 5ebd 2559 e83d
00000100: 7625 773d 3d39 873c 156f 05ba 4f04 313d
00000110: b8b4 493d d37a e73d b2ee 133d f7e4 423d
00000120: cc07 73bb ea46 07bd 0f5e 8c3d e0e9 a8bd
00000130: 9c46 abbb a0d8 eebc 8c22 bf3d da8c c83d
00000140: f37a 7d3d e056 c4bc 4559 7d3d 17fb 293d
00000150: ac62 0f3e 7363 063b ae29 cebb 520e 023c
00000160: c052 23bd 1fd0 0e3c 817a aa3c 5ec8 913c
00000170: 329a 2e3d 309e 3abd 7960 723c 6c21 6b3d
00000180: 8533 0fbd b4f2 be3c 90e7 e53c aac6 883d
00000190: 0a7e 3dbd 4e2c 47bd a646 febb c267 1c3d
000001a0: 5541 553d 6cfa f73c 4e68 1d3d 85f8 9c3c
000001b0: 327a 3d3d aadf d9bd 0de9 d2bd 5ff9 43bd
000001c0: b6d5 183d a667 9dbd d71d f73c 5718 02bd
000001d0: 0f2b 483d 5e2f febd 6431 03bd 4d92 813d
000001e0: 1b9a 79bd b8f2 363d 0220 9a3d 08bb 18be
000001f0: a64a a43d ca4b f13c 79bb 23be ed63 803d
00000200: 942f 3c3c aa18 dabd f203 d13d 82b0 4bbd
00000210: b313 67be 6d0a bc3d 7a1f d0bc 2ffc 8c3d
00000220: 6392 4f3d 3bf3 6c3d 59ab 94bb d143 c83c
00000230: 4542 01bc a740 573d 3e85 adbd 4dd1 e5bc
00000240: 0b0d 1fbe 57cd a13c ef97 063d 12ef b0bd
00000250: bd69 883a 43fd b53c 0e4e 5fbc ca05 42bc
00000260: 3c8a e9bd 3588 43bd 8e93 f83c d648 5d3d
00000270: c924 61bd 3820 a13d 284e b83d f62f 80bd
00000280: c74c 16bc ce4c 3bbc d410 203d c26a 77bd
00000290: 54bd 02be 5b83 2d3d 1d96 55bd 54dc 9fbd
000002a0: 1b23 f73d b25d 91bd b3f5 24bc 5abd 063d
000002b0: 45b7 03be 7605 86bc 7b42 8b3c 6373 a4bb
000002c0: ce7f 99bd 15ad 58bd f9da 7dbd 513d 3cbb
000002d0: 7e7d fb3c 3f59 05bd 03f4 bb3d 37f3 9fbc
000002e0: 3160 aa3d 970d 543d 24d5 8dbd 47bd 01be
000002f0: 66a3 42bd ecd3 d33b 7b49 90bd f1b2 8a3b
00000300: 577b 4c3d 1345 d33c 8274 373d 3c8c 4a3d
00000310: 6dad 86bd ca4b 2f3c 25fe 973c a4a3 24be
00000320: 2058 a03d 3c0f 073c feef e1bd 881b 0d3e
00000330: 00f8 b63d afe6 3abe 0db3 b63d 1ec0 bcbd
00000340: fd80 803d 07ea 47be 4a82 12be 3f70 f63d
00000350: b99f 43be c074 45be 7124 283d 9478 28be
00000360: 029c 243e 3633 f73d a2b6 6a3e f3c1 843b
00000370: d2cd b73c 0dc6 ea3d d5d5 653e 43c4 663e
00000380: d206 503e 7b54 c93d 8093 683d 3326 1f3e
00000390: 375b 143c b05a 8e3d 4c20 073d 9ad0 343d
000003a0: 9f62 683a f145 593d 4abc 8b3d 01f5 bc3d
000003b0: 969a 013d f183 c13d cb75 9f3d f657 ab3d
000003c0: 6a2e 813d db05 bab9 6f2c d83d 81c2 a2bd
000003d0: 7eed 47bd eb02 1cbd f688 16bd 223a 8abd
000003e0: 0db1 003d 912a 223d c2ea b63c 7ccc a33c
000003f0: 1ddb 403d 40a5 1bbd 9100 8bbc c891 6e3d

Generator.conv2.conv1.0.weight f4 [8, 8, 3, 3, 3]
-0.003412787 -0.017129522 0.041187655 0.071554944 0.025408264 -0.053505585 -0.13533859 -0.028362423
0.026842384 -0.071099415 -0.028205246 0.01264108 -0.07847735 0.01709516 0.025234783 -0.023851644
-0.075859085 0.06631513 0.018672394 -0.056478918 -0.018993616 0.0048446646 -0.04659283 0.023701828
0.042431615 -0.028416535 0.039744496 0.054072574 -0.030005634 -0.05026964 -0.0038498272 -0.009975544
-0.040766794 0.03991875 0.07505482 0.009452502 -0.12817973 -0.12860046 -0.073751904 -0.08218718
-0.06866926 -0.08119461 0.10838818 -0.0053889533 -0.028162286 -0.043869294 -0.06782885 -0.16041714
0.0025304258 -0.0636932 -0.10010831 0.0700395 -0.013979376 -0.064916596 -0.044508107 0.0509052
0.15966938 -0.009846253 -0.019413289 0.18901174 -0.003545635 -0.053775474 0.05178175 -0.13784885
0.026778847 0.09446204 -0.06813924 -0.006298749 0.10711947 -0.13594814 -0.03344291 0.041151445
-0.13657153 -0.011432092 0.09635763 -0.14147402 0.04992297 0.12268044 -0.069200106 -0.06406809
0.06548339 0.0307406 -0.0020261477 0.05525633 -0.061246827 -0.039636154 -0.0052014873 -0.016890218
-0.029594583 0.08925059 0.099118635 0.00039257374 0.05614948 0.043554828 -0.006571087 0.022777997
0.0021442089 -0.045688264 0.04276204 0.0016035812 0.024783554 -0.040572118 -0.091013126 -0.051582728
0.041814663 -0.037132736 -0.05614145 0.0017038997 0.075685285 0.06242023 -0.02466776 0.01798618
-0.03279142 0.018100081 0.0003304671 -0.00049749686 0.02707053 0.014801204 0.009530648 0.056307323
0.04251025 0.06241784 0.06547009 0.060387842 -0.033617966 0.093557656 -0.03599057 0.019553643
0.066562854 -0.049856216 0.03875869 0.060542412 0.008824036 -0.03573218 -0.060131643 0.035772264
0.10146156 0.037231367 0.01911766 0.07989536 0.05466569 0.005156069 -0.07019151 -0.031101022
0.03787963 0.021868462 0.0036214048 -0.019182809 -0.05011085 -0.044300508 -0.030529719 -0.088499665
0.017373092 0.0022068357 3.4816162e-06 0.012445705 -0.07784573 -0.009198801 -0.056397136 -0.15644321
-0.19004956 -0.017509585 0.07689063 0.079218745 0.08522345 0.05761135 0.0064373165 0.021157065
-0.013981788 0.079950064 0.0059449333 0.013666276 0.008262172 -0.0046147504 0.044888116 0.080819406
0.09457787 0.07375982 0.04424235 0.06633378 0.07278477 0.014911542 -0.013702198 -0.047355942
0.06138231 -0.013271963 0.041127667 -0.05243375 0.027989948 0.0033973225 -0.010858687 0.11858146
-0.07157909 -0.058599506 0.03184494 -0.099690445 -0.05477235 0.03736719 -0.023502307 -0.070181936
0.07064544 -0.081076965 -0.033577997 0.0330809 -0.04945746 -0.11394025 0.09519091 -0.06759032
-0.062079888 0.06337069 -0.00054475456 0.008607135 0.049933106 -0.08353394 -0.067193285 0.005028732
-0.017220734 0.033489794 0.121727645 -0.09121114 0.011377771 0.04341452 0.041332036 -0.017428521
0.124448165 -0.050185397 -0.029938206 0.06263849 -0.025773969 0.019313546 0.052013196 0.032836244
0.07680552 0.015518711 0.01871015 -0.08495299 -0.011915419 0.059122045 0.0031007195 -0.016457433
0.046986327 0.07643826 -0.003600612 -0.025701605 -0.010020246 0.008987362 -0.050236538 0.038498808
0.028464103 0.02119108 0.04119407 -0.024365688 -0.11125303 -0.11233196 -0.054045476 -0.05716289
00000000: 11a9 5fbb 3653 8cbc 63b4 283d 668b 923d
00000010: fe24 d03c ac28 5bbd 3396 0abe 5058 e8bc
00000020: 8fe4 db3c 929c 91bd b00e e7bc 881c 4f3c
00000030: bcb8 a0bd 260b 8c3c 2db9 ce3c 8664 c3bc
00000040: 025c 9bbd 3ad0 873d d9f6 983c 7056 67bd
00000050: 8098 9bbc febf 9e3b 20d8 3ebd 562a c23c
00000060: c6cc 2d3d cbc9 e8bc 20cb 223d 347b 5d3d
00000070: 60ce f5bc 8ae7 4dbd 624d 7cbb 7770 23bc
00000080: 15fb 26bd d881 233d 57b6 993d abde 1a3c
00000090: 8c41 03be d7af 03be 3d0b 97bd c151 a8bd
000000a0: 78a2 8cbd 5c49 a6bd 9ffa dd3d d195 b0bb
000000b0: 98b4 e6bc 4ab0 33bd dae9 8abd 6444 24be
000000c0: 80d5 253b 9571 82bd 9605 cdbd df70 8f3d
000000d0: c109 65bc fef2 84bd 224e 36bd f981 503d
000000e0: 5f80 233e 2e52 21bc 9e08 9fbc 4b8c 413e
000000f0: e25d 68bb ac43 5cbd 1a19 543d 4028 0dbe
00000100: 505f db3c 5075 c13d 968c 8bbd bc65 cebb
00000110: 7461 db3d fd35 0bbe 6ffb 08bd 6b8e 283d
00000120: 68d9 0bbe ab4d 3bbc 2657 c53d 91de 10be
00000130: 077c 4c3d e23f fb3d c9b8 8dbd 2136 83bd
00000140: 281c 863d b6d3 fb3c 1ec9 04bb 7654 623d
00000150: f4dd 7abd 8559 22bd 3d71 aabb 5b5d 8abc
00000160: 5770 f2bc 03c9 b63d b6fe ca3d 5bd2 cd39
00000170: fffc 653d 8c66 323d 4652 d7bb ec98 ba3c
00000180: db85 0c3b 9e23 3bbd 4027 2f3d 422f d23a
00000190: e106 cb3c f32e 26bd 1765 babd 6948 53bd
000001a0: da45 2b3d 7f18 18bd 94f4 65bd 6355 df3a
000001b0: e300 9b3d 5bac 7f3d 0b14 cabc c157 933c
000001c0: 4c50 06bd 9f46 943c 8b42 ad39 736a 02ba
000001d0: 04c3 dd3c c080 723c 6f26 1c3c 82a2 663d
000001e0: 3a1f 2e3d d9a9 7f3d 2f15 863d 3e59 773d
000001f0: feb2 09bd 289b bf3d d96a 13bd f62e a03c
00000200: 1b52 883d 0836 4cbd 6fc1 1e3d 52fb 773d
00000210: b192 103c e85b 12bd 994c 76bd f085 123d
00000220: 14cb cf3d eb7f 183d a49c 9c3c 2ea0 a33d
00000230: 21e9 5f3d 3ef4 a83b 91c0 8fbd 92c7 febc
00000240: ac27 1b3d 7d25 b33c 1755 6d3b 4425 9dbc
00000250: 0941 4dbd 7374 35bd 7619 fabc 503f b5bd
00000260: 0452 8e3c 8fa0 103b b6a5 6936 12e9 4b3c
00000270: 956d 9fbd 91b6 16bc af00 67bd a632 20be
00000280: 5a9c 42be 4370 8fbc d678 9d3d 703d a23d
00000290: a289 ae3d e1f9 6b3d 20f0 d23b 9551 ad3c
000002a0: df13 65bc dcbc a33d b7cd c23b 84e8 5f3c
000002b0: 105e 073c 5537 97bb 9adc 373d a584 a53d
000002c0: 0bb2 c13d 630f 973d 7737 353d 01da 873d
000002d0: 2e10 953d 8a4f 743c 2f7f 60bc 4ef8 41bd
000002e0: 046c 7b3d a672 59bc 7c75 283d c6c4 56bd
000002f0: 2d4b e53c 9da5 5e3b a2e8 31bc d6da f23d
00000300: 0f98 92bd 0906 70bd d76f 023d 812a ccbd
00000310: f958 60bd 570e 193d e987 c0bc 8cbb 8fbd
00000320: 8eae 903d ae0b a6bd 1589 09bd d67f 073d
00000330: e893 4abd 8159 e9bd 74f3 c23d cb6c 8abd
00000340: 7b47 7ebd 7ec8 813d dccd 0eba f104 0d3c
00000350: a886 4c3d d813 abbd a29c 89bd 10c8 a43b
00000360: 7f12 8dbc 982c 093d 584c f93d e8cc babd
00000370: d569 3a3c 6cd3 313d c84b 293d 42c6 8ebc
00000380: aede fe3d 348f 4dbd f840 f5bc 9c48 803d
00000390: ee23 d3bc 7137 9e3c ca0b 553d 4c7f 063d
000003a0: 364c 9d3d 3142 7e3c 0746 993c d5fb adbd
000003b0: e438 43bc f529 723d 7135 4b3b bdd1 86bc
000003c0: bc74 403d aa8b 9c3d 3ff8 6bbb 2c8c d2bc
000003d0: f52b 24bc ba3f 133c d4c4 4dbd edb0 1d3d
000003e0: 8d2d e93c ea98 ad3c 1dbb 283d 8d9a c7bc
000003f0: a1d8 e3bd 4c0e e6bd ca5e 5dbd a223 6abd

Generator.conv2.conv2.0.weight f4 [8, 8, 3, 3, 3]
0.042633668 -0.04315277 0.022383414 0.052565448 0.09290423 0.055597458 0.028899383 0.047742542
0.09507754 0.078639746 0.008105667 0.07193395 0.017872032 0.03625262 -0.034353726 0.06809186
-0.031397566 0.029004818 -0.02901181 -0.052168183 -0.01899591 0.050975226 -0.07398204 -0.076380044
-0.084860526 -0.024069477 -0.036785364 0.080467746 0.059977777 -0.018489305 0.03467324 0.057801127
0.12213523 0.07378679 0.037006136 0.044656 0.042193197 -0.0064733494 -0.05280094 -0.0014212658
0.071508564 0.0103965495 -0.013922428 -0.0180587 0.06744629 -0.004487187 0.05730886 -0.033386786
0.04920366 0.0146177085 -0.010484837 -0.024458133 0.05640568 0.007302022 0.18422341 0.099642076
0.03092147 -0.04674612 -0.08103312 -0.036558244 0.025057292 -0.014255481 -0.026002703 -0.0072137904
-0.07712769 -0.017953468 -0.0956632 -0.07128562 -0.12969536 0.013003708 -0.0013569291 -0.10636757
0.019353615 -0.02611581 0.055039484 -0.028011875 -0.11255141 -0.009042703 0.083108604 0.019376952
-0.071206726 0.06881055 0.0857113 0.116858184 -0.016448056 0.067292795 -0.0016955473 0.037891585
0.0046432833 -0.011898863 0.119872965 0.0045502684 0.050322115 -0.007706941 -0.043702085 -0.086773
-0.010402858 -0.085864626 0.03658883 -0.035967287 -0.10957368 0.0017453351 -0.10153973 -0.07656375
-0.07292008 -0.0019774076 -0.1138332 -0.040732276 -0.007964758 -0.023296872 -0.01633738 0.04553414
0.040743172 0.0132664535 0.12231905 0.07646026 0.1221913 -0.09263063 -0.09013526 -0.012361124
-0.10761898 -0.08720785 -0.03383018 0.036928896 0.0021548204 0.06967737 -0.18115757 -0.13884282
-0.054540318 0.020791752 0.018550038 -0.053273093 0.016081776 -0.035578217 -0.08351675 0.013056777
-0.13552357 -0.08451232 -0.07145934 -0.17440549 -0.080629624 -0.08013139 -0.11574373 0.07473568
-0.0030823601 0.015591946 -0.07661266 0.006707393 -0.055200975 -0.15579574 0.13156135 -0.08250367
-0.14081885 0.0772089 -0.019567395 0.03866131 0.04743178 -0.014964266 -0.15370677 0.20207117
-0.0053199646 -0.030438563 0.06782988 -0.007125161 0.13987127 0.012909652 -0.0013600632 -0.014436389
0.05959157 -0.027743539 0.015827417 0.062018245 -0.006200405 0.0912844 0.10868979 0.013536994
0.0020143827 -0.032693252 0.0068179755 -0.13216281 -0.06344094 0.091142945 -0.03159277 -0.002843953
0.09332328 -0.07400162 0.019666228 0.028684026 -0.07644038 -0.020488601 -0.071416765 -0.10260629
-0.05664952 -0.06556602 -0.07215901 -0.028345343 0.0012717948 -0.006946915 -0.0472657 0.0019932427
-0.040180404 -0.0002816855 -0.033518504 0.015148726 0.06704705 0.06382746 0.01619596 0.1062261
0.048652563 0.0722099 0.035804104 0.0942572 0.008435287 0.15941359 0.033439092 0.018953683
-0.11237952 -0.058219273 0.021559782 -0.04638744 -0.048586555 -0.09284974 -0.11434382 0.0088672675
-0.013705638 0.062218588 0.042166144 -0.0058228797 0.05896152 0.025655791 0.0017572069 -0.009953177
-0.0064480077 0.043702085 0.03365533 0.07903446 0.04876697 0.13157189 0.0804394 0.04870055
0.12135963 0.0083942255 0.020953624 -0.09975133 -0.07946442 0.054838393 -0.09213856 -0.06966755
-0.013551873 -0.18611 -0.066690706 -0.0029507703 0.04726406 0.043382548 -0.04563265 0.041075416
00000000: a4a0 2e3d f5c0 30bd 6c5d b73c de4e 573d
00000010: 9344 be3d 29ba 633d 66be ec3c af8d 433d
00000020: 03b8 c23d e00d a13d a2cd 043c 1b52 933d
00000030: 5e68 923c a17d 143d 7eb6 0cbd bf73 8b3d
00000040: bc9a 00bd 839b ed3c 2daa edbc 4eae 55bd
00000050: 509d 9bbc 66cb 503d e583 97bd 246d 9cbd
00000060: 5bcb adbd 5a2d c5bc 40ac 16bd 46cc a43d
00000070: 42ab 753d e276 97bc 8705 0e3d e0c0 6c3d
00000080: 0922 fa3d 871d 973d bf93 173d 36e9 363d
00000090: c6d2 2c3d 641e d4bb cc45 58bd c449 baba
000000a0: 1573 923d 4a56 2a3c e51a 64bc d7ef 93bc
000000b0: 4821 8a3d 4109 93bb b2bc 6a3d 95c0 08bd
000000c0: c789 493d 1d7f 6f3c 98c8 2bbc 6c5c c8bc
000000d0: a409 673d cd45 ef3b 10a5 3c3e 2511 cc3d
000000e0: 064f fd3c dc78 3fbd b1f4 a5bd 19be 15bd
000000f0: f344 cd3c d28f 69bc 9f03 d5bc a961 ecbb
00000100: 1ff5 9dbd 2713 93bc 11eb c3bd 32fe 91bd
00000110: dcce 04be 810d 553c fcda b1ba 3ed7 d9bd
00000120: 798b 9e3c d3f0 d5bc 1571 613d 2979 e5bc
00000130: 5b81 e6bd d827 14bc d834 aa3d 6abc 9e3c
00000140: d5d4 91bd 8cec 8c3d 6889 af3d 5853 ef3d
00000150: 13be 86bc ced0 893d 203d deba 3534 1b3d
00000160: af26 983b 73f3 42bc f57f f53d 6b1a 953b
00000170: 901e 4e3d 828a fcbb f500 33bd 0bb6 b1bd
00000180: c070 2abc cbd9 afbd 2bde 153d 6f52 13bd
00000190: 2a68 e0bd bac3 e43a 10f4 cfbd 75cd 9cbd
000001a0: 1f57 95bd 6597 01bb 6121 e9bd e3d6 26bd
000001b0: 9e7e 02bc 15d9 bebc f8d5 85bc 0282 3a3d
000001c0: 50e2 263d 8a5b 593c 6982 fa3d 3297 9c3d
000001d0: 6f3f fa3d 21b5 bdbd d698 b8bd 5086 4abc
000001e0: 5767 dcbd 079a b2bd 8491 0abd c142 173d
000001f0: e337 0d3b 02b3 8e3d 5f81 39be d02c 0ebe
00000200: ab65 5fbd 7753 aa3c 40f6 973c e334 5abd
00000210: eebd 833c 77ba 11bd d40a abbd 18ec 553c
00000220: b1c6 0abe cc14 adbd 4659 92bd 5a97 32be
00000230: 2521 a5bd ed1b a4bd 0c0b edbd 050f 993d
00000240: 6c01 4abb 5d75 7f3c 19e7 9cbd b1c9 db3b
00000250: 6b1a 62bd eb88 1fbe 05b8 063e aff7 a8bd
00000260: d132 10be b31f 9e3d cd4b a0bc 525b 1e3d
00000270: d347 423d ae2c 75bc 4f65 1dbe bfeb 4e3e
00000280: 1953 aebb 4b5a f9bc 64ea 8a3d 2f7a e9bb
00000290: 6a3a 0f3e 0183 533c 2644 b2ba 9b86 6cbc
000002a0: 4a16 743d 6b46 e3bc 80a8 813c d806 7e3d
000002b0: c42c cbbb 51f3 ba3d c198 de3d 45ca 5d3c
000002c0: bc03 043b 5ce9 05bd 5369 df3b b055 07be
000002d0: 53ed 81bd 27a9 ba3d 6c67 01bd 9d61 3abb
000002e0: 4720 bf3d 298e 97bd 121b a13c c3fa ea3c
000002f0: c68c 9cbd b6d7 a7bc f442 92bd 3f23 d2bd
00000300: 5409 68bd 7a47 86bd 1ac8 93bd 7e34 e8bc
00000310: 5ab2 a63a f2a2 e3bb ae99 41bd 10a1 023b
00000320: 3594 24bd 30af 93b9 b34a 09bd 5d32 783c
00000330: f74f 893d f9b7 823d 64ad 843c 128d d93d
00000340: e947 473d c9e2 933d 53a7 123d eb09 c13d
00000350: 2834 0a3c 513d 233e 6ef7 083d c144 9b3c
00000360: 3c27 e6bd 5577 6ebd 249e b03c c200 3ebd
00000370: b202 47bd 0128 bebd 182d eabd 0448 113c
00000380: 9d8d 60bc ebd8 7e3d 68b6 2c3d dbcd bebb
00000390: a381 713d 182c d23c 1452 e63a a612 23bc
000003a0: cf49 d3bb f500 333d 2cda 093d d2dc a13d
000003b0: e0bf 473d c8ba 063e 6abd a43d 3a7a 473d
000003c0: 668b f83d ef87 093c efa6 ab3c 6d4a ccbd
000003d0: 3ebe a2bd 399e 603d 24b3 bcbd dcad 8ebd
000003e0: ad08 5ebc 9f93 3ebe 2395 88bd b661 41bb
000003f0: f597 413d e6b1 313d 4de9 3abd b23e 283d

Generator.conv3.conv1.0.weight f4 [8, 8, 3, 3, 3]
0.0069740177 0.0761775 0.00094249315 -0.032452505 -0.00024984108 0.04120914 0.08437827 -0.028948478
-0.010445026 -0.020361258 0.030684015 -0.044430878 0.022863906 -0.016123718 -0.06661742 -0.034992587
0.04199583 -0.02840433 -0.020327963 0.07938387 0.015142282 0.049480613 -0.06377804 0.0141011
-0.0620759 0.014535724 -0.048369497 -0.026481446 0.015431545 0.041952737 0.002098225 0.0065618535
-0.06284034 0.0703318 -0.07586421 0.012786962 0.012479241 0.058727678 0.12821174 -0.034755662
-0.020089418 -0.08053597 -0.005573016 -0.10869206 0.01105984 0.015219532 0.055373307 -0.040541932
0.021074736 -0.026578167 -0.05979004 0.0043038637 -0.05165467 0.0051393756 -0.03864724 0.0011642928
-0.03555586 -0.036693458 -0.030930888 0.034939878 -0.031167207 -0.027751138 -0.016961548 0.02784998
0.036902055 0.060884032 -0.028708102 0.097025655 0.07980299 -0.043383457 0.011135899 -0.024710491
0.00540998 -0.06247832 0.041451596 -0.043061964 0.04734543 -0.0019384923 0.014261819 -0.045941837
-0.028979184 0.032263078 0.0009171157 0.023738015 -0.011308681 0.008599922 -0.021194523 0.07008434
-0.029710492 0.0483961 0.0015131205 0.051716764 0.044080354 -0.04025409 0.062399413 -0.019737646
-0.07052019 -0.03471528 -0.012918464 -0.046561938 0.059354357 -0.012174301 0.03649892 0.08901634
0.049902238 -0.007182652 -0.032163065 -0.094678454 0.036509357 -0.026422614 0.0031977096 0.06335238
-0.03487633 0.01653515 0.057782087 0.03165229 -0.07354493 0.019686887 0.043952458 0.048495606
-0.009489376 0.037723474 0.062922046 0.017040592 0.066121995 -0.07118834 -0.027760766 -0.029751316
0.040168263 -0.061237995 -0.05791487 -0.015973797 0.045589425 -0.061853625 -0.027194086 -0.03778872
0.06586583 0.025058862 0.03571584 0.063933805 -0.058278546 0.027116904 -0.0048280414 0.008056242
0.033392176 0.09801824 0.022458283 -0.012384702 0.051341906 0.01528887 -0.022147624 -0.079357326
0.0011252587 -0.06157373 0.07633685 -0.064377226 -0.010106561 0.05127278 0.044589836 0.046717253
-0.07351432 -0.06850584 -0.04793525 0.02918936 0.06575602 0.009152207 -0.030777449 -0.033523496
0.15222935 0.029608253 0.02489227 0.035784118 -0.08158788 0.0725169 0.06791765 -0.08335591
0.055405527 0.05856711 0.026016327 0.05639115 0.033380613 -0.061641734 -0.05986511 -0.00465106
-0.008754363 -0.037306827 -0.028590823 0.050310127 0.03895982 0.022851933 -0.0008435375 0.003490091
0.007662084 0.054763477 -0.0016036404 -0.07933582 0.024136437 0.020628458 0.00021990722 -0.009557827
-0.023883605 0.034506753 0.15892853 0.051551294 -0.02028504 -0.020579899 0.078140564 -0.013450445
-0.0733934 0.000269089 0.07104945 0.13177298 -0.064759225 -0.027213007 -0.017853172 -0.039955787
0.043752775 -0.0054174555 -0.054515287 0.04073029 0.02652054 0.039438915 0.019262578 0.024961201
-0.03581849 0.07923072 -0.069066 -0.025510212 0.036830507 0.055500176 -0.05669852 -0.041907493
0.055782966 -0.12468501 0.023656804 0.029566912 -0.0039323596 0.03925203 0.031750467 -0.05960923
-0.050976485 -0.039629217 0.0009189141 0.03391524 -0.029091299 -0.045150332 0.033195473 0.114582516
-0.025011964 0.043995585 0.014595036 0.002080506 0.09696732 0.04305776 0.0041850423 0.12371745
00000000: 4d86 e43b f302 9c3d a511 773a ebec 04bd
00000010: 1afd 82b9 eaca 283d 84ce ac3d 5c25 edbc
00000020: 9d21 2bbc a7cc a6bc 0b5d fb3c 27fd 35bd
00000030: 164d bb3c e315 84bc b76e 88bd 6354 0fbd
00000040: d203 2c3d 33b0 e8bc d486 a6bc 0394 a23d
00000050: 5517 783c 2fac 4a3d 109e 82bd 4d08 673c
00000060: 4d43 7ebd 3f27 6e3c 181f 46bd 9eef d8bc
00000070: 97d4 7c3c a2d6 2b3d 6082 093b d104 d73b
00000080: 70b2 80bd 1e0a 903d b25e 9bbd 6880 513c
00000090: bb75 4c3c 6f8c 703d f049 033e f45b 0ebd
000000a0: 9092 a4bc 0bf0 a4bd d99d b6bb f199 debd
000000b0: 5534 353c 585b 793c 1fcf 623d 4c0f 26bd
000000c0: eda4 ac3c 75ba d9bc 67e6 74bd 6d07 8d3b
000000d0: d993 53bd 3568 a83b 914c 1ebd 2f9b 983a
000000e0: 05a3 11bd e14b 16bd c662 fdbc 1e1d 0f3d
000000f0: 5f52 ffbc 5b56 e3bc f2f2 8abc a425 e43c
00000100: 9c26 173d 8961 793d 412d ebbc 63b5 c63d
00000110: c06f a33d dab2 31bd 5973 363c a86d cabc
00000120: 3446 b13b 44e9 7fbd 26c9 293d be61 30bd
00000130: 48ed 413d 0215 feba 68aa 693c 822d 3cbd
00000140: c165 edbc 4a26 043d 986a 703a 3a76 c23c
00000150: 0c48 39bc b0e6 0c3c 23a0 adbc 6188 8f3d
00000160: 6b63 f3bc fd3a 463d e653 c63a f5d4 533d
00000170: 9a8d 343d 79e1 24bd 8796 7f3d d8b0 a1bc
00000180: e46c 90bd 9c31 0ebd f7a7 53bc bbb7 3ebd
00000190: 8e1d 733d b876 47bc e47f 153d 334e b63d
000001a0: 4a66 4c3d 745c ebbb 6bbd 03bd c7e6 c1bd
000001b0: d68a 153d 3d74 d8bc aa90 513b e5be 813d
000001c0: 7cda 0ebd b974 873c e9ac 6c3d d5a5 013d
000001d0: b99e 96bd 6546 a13c 7e07 343d 54a3 463d
000001e0: 5479 1bbc ee83 1a3d 46dd 803d b698 8b3c
000001f0: f86a 873d 31cb 91bd 8c6a e3bc 08b9 f3bc
00000200: 7a87 243d b1d4 7abd 2538 6dbd 7bdb 82bc
00000210: fabb 3a3d 3a5a 7dbd 22c6 debc 58c8 1abd
00000220: aae4 863d 3e48 cd3c c64a 123d baef 823d
00000230: 7cb5 6ebd 4524 de3c 8c34 9ebb 54fe 033c
00000240: 3cc6 083d c9bd c83d 6ffa b73c 35e9 4abc
00000250: e44b 523d 2b7e 7a3c ef6e b5bc 1886 a2bd
00000260: 6b7d 933a bc34 7cbd 7f56 9c3d 35d8 83bd
00000270: fd95 25bc 6803 523d d5a3 363d 975a 3f3d
00000280: ad8e 96bd ca4c 8cbd c157 44bd 861e ef3c
00000290: 18ab 863d 23f3 153c fd20 fcbc ef4f 09bd
000002a0: 03e2 1b3e 028d f23c e0ea cb3c 5e92 123d
000002b0: 8c17 a7bd be83 943d 6918 8b3d 81b6 aabd
000002c0: e8f0 623d 11e4 6f3d 3120 d53c 68fa 663d
000002d0: 1cba 083d 0b7c 7cbd 1e35 75bd eb67 98bb
000002e0: 766e 0fbc 0bcf 18bd 4d37 eabc fe11 4e3d
000002f0: 5594 1f3d fa33 bb3c d820 5dba 03ba 643b
00000300: 3812 fb3b ab4f 603d 3e31 d2ba d27a a2bd
00000310: c7b9 c53c 03fd a83c e596 6639 6f98 1cbc
00000320: 8da7 c3bc f456 0d3d 29be 223e 7327 533d
00000330: d02c a6bc 2d97 a8bc 2908 a03d 415f 5cbc
00000340: 474f 96bd 8414 8d39 6082 913d 7fef 063e
00000350: 7ca0 84bd d0ed debc d140 92bc aea8 23bd
00000360: 1c36 333d e984 b1bb 6c4b 5fbd ced4 263d
00000370: 9a41 d93c b38a 213d 8ecc 9d3c 6f7b cc3c
00000380: 69b6 12bd b743 a23d 7a72 8dbd cbfa d0bc
00000390: 96db 163d 2754 633d b53c 68bd 31a7 2bbd
000003a0: ae7c 643d db5a ffbd eacb c13c 4f36 f23c
000003b0: 06db 80bb bdc6 203d c70c 023d cf28 74bd
000003c0: b8cc 50bd 3f52 22bd 48e3 703a b5ea 0a3d
000003d0: e050 eebc 8eef 38bd faf7 073d 3daa ea3d
000003e0: e4e5 ccbc b734 343d 0520 6f3c 1959 083b
000003f0: cd96 c63d 555d 303d ae22 893b 935f fd3d

Generator.conv3.conv2.0.weight f4 [8, 8, 3, 3, 3]
-0.028511165 -0.0028319247 0.04688246 -0.08995352 0.0016978476 -0.004252551 -0.09604469 -0.019995114
-0.02665126 0.007123642 -0.045822892 0.07585433 0.009635134 0.029741397 -0.0054742065 -0.05145082
0.031576682 -0.009689424 -0.010166449 -0.028049624 -0.009181437 0.021257058 0.033628017 0.07134491
-0.026047288 0.08018543 0.05497609 0.091456674 -0.16546106 -0.13626927 0.14510253 -0.034768905
-0.09869822 0.033042878 0.07649399 0.050536048 0.082809485 -0.07181412 -0.059802268 -0.049010597
-0.018816268 -0.013385331 -0.016482953 -0.063121766 -0.06431121 0.08177412 0.0119268345 -0.09420565
-0.04637107 0.00165365 -0.08515656 0.014797663 0.0053862426 -0.022321803 -0.07137906 0.013767577
-0.099289775 -0.020866238 -0.021011561 0.03266776 -0.030047493 0.01913114 0.1425308 0.052907627
-0.015893593 0.040402886 0.0662548 0.099097095 -0.009313973 -0.04421431 0.11929462 0.045656465
0.0029896765 0.13260654 0.06417477 0.030595047 0.14333525 0.044671264 -0.041558076 -0.03720667
0.12119302 -0.010362029 0.09033458 -0.00030079874 -0.023875847 -0.0029989502 0.060377825 -0.03763866
-0.086598545 0.006736569 -0.022577101 -0.012090222 0.0048838197 -0.06714166 -0.15973347 0.03320676
-0.028609304 -0.14185974 -0.016780311 -0.048013173 -0.092084154 0.0051405253 0.015690038 -0.116233885
-0.027646417 0.004458733 -0.03670358 -0.044557095 -0.16313462 -0.07501327 -0.11205313 -0.007830497
-0.062140703 -0.14662142 -0.19220814 -0.027643852 -0.03511786 0.011846841 -0.0064251865 0.060900692
0.0906923 0.035449654 -0.009319315 -0.08342702 -0.00011584519 0.010887781 -0.1950867 -0.06617346
-0.098403655 0.03196794 -0.0034151052 -0.050225392 -0.051571686 -0.043451127 0.026869856 0.09482643
-0.046560038 -0.14919285 0.0023121836 -0.016461143 -0.057933573 0.10422144 -0.05694088 0.10565766
-0.011286487 -0.14214921 -0.03452703 0.10506315 0.027591977 -0.013780293 0.06835907 -0.033339687
0.08434 0.07322415 0.12198754 -0.015737178 0.13739915 0.053224724 0.04102202 0.08774473
0.0021378389 0.0032291524 0.0964976 0.112368576 0.07477227 0.0023482523 0.011965275 0.039114565
-0.035527326 -0.15460874 -0.04932636 -0.023265135 0.026006868 0.039341655 -0.07742155 -0.049669378
0.053960584 -0.06048584 0.014482871 0.0069311475 -0.109680556 -0.013952468 0.12388847 -0.10102568
-0.01109052 0.14953426 -0.07911509 0.034173295 0.024531856 -0.07623023 -0.05813058 0.059092797
-0.077403605 -0.057034403 0.0360465 -0.013047668 -0.0020347578 0.1208811 0.12312442 0.03136553
0.07563421 0.017581826 0.008219127 0.0052438327 -0.0449459 0.08199789 0.010171739 0.0648204
-0.06672745 -6.84762e-05 0.07906597 -0.014616576 0.011504714 0.057484217 0.11260886 0.0039360197
0.074235834 0.041603394 -0.06939236 -0.02132643 -0.06712741 -0.095416084 0.022718642 0.048356645
-0.026646296 0.041496113 -0.02166524 -0.072569475 -0.026590284 0.064778894 -0.07674931 0.056389406
0.038856618 -0.018631604 0.015852083 0.090967104 0.028892277 0.026520045 0.045791756 0.031548027
-0.0009137569 -0.047092225 -0.008860888 0.031425763 0.048521843 -0.09363763 0.11547059 0.12302997
0.03614604 0.09794737 0.01460663 0.083386436 -0.015447161 0.07929881 -0.065164365 0.078128286
00000000: 3f90 e9bc d097 39bb d307 403d 8d39 b8bd
00000010: 508a de3a fc58 8bbb 14b3 c4bd cbcc a3bc
00000020: be53 dabc 716d e93b c9b0 3bbd 8459 9b3d
00000030: aedc 1d3c 3ba4 f33c f960 b3bb 18be 52bd
00000040: 8d56 013d 64c0 1ebc 2d91 26bc 53c8 e5bc
00000050: bd6d 16bc 4823 ae3c 88bd 093d 481d 923d
00000060: 1f61 d5bc 4238 a43d 9c2e 613d a34d bb3d
00000070: a06e 29be 2c8a 0bbe c295 143e d769 0ebd
00000080: 4b22 cabd f857 073d e2a8 9c3d e3fe 4e3d
00000090: 0598 a93d 4813 93bd 39f3 74bd 56bf 48bd
000000a0: 9324 9abc 264e 5bbc 4207 87bc fc45 81bd
000000b0: 98b5 83bd 3179 a73d c568 433c e4ee c0bd
000000c0: 97ef 3dbd 49bf d83a 9066 aebd e671 723c
000000d0: 147f b03b 37dc b6bc 2f2f 92bd 6791 613c
000000e0: 7058 cbbd acef aabc 7020 acbc a1ce 053d
000000f0: 2926 f6bc e9b8 9c3c 98f3 113e abb5 583d
00000100: 4833 82bc 7f7d 253d 99b0 873d 6bf3 ca3d
00000110: a299 18bc 101a 35bd bd50 f43d 4602 3b3d
00000120: 73ee 433b 02ca 073e 106e 833d 77a2 fa3c
00000130: 7ac6 123e 37f9 363d cd38 2abd 0566 18bd
00000140: 0c34 f83d 80c5 29bc 5601 b93d 86b4 9db9
00000150: 4897 c3bc 098a 44bb bd4e 773d ff2a 1abd
00000160: 945a b1bd 70be dc3b 9df3 b8bc 1116 46bc
00000170: 7308 a03b 9181 89bd 2c91 23be d003 083d
00000180: 0f5e eabc ae43 11be dd76 89bc 76a9 44bd
00000190: 9e96 bcbd da71 a83b 6588 803c 080c eebd
000001a0: bd7a e2bc 901a 923b 7e56 16bd 8081 36bd
000001b0: c30c 27be 8fa0 99bd 1d7c e5bd 7c4b 00bc
000001c0: 4087 7ebd ed23 16be 36d2 44be 5c75 e2bc
000001d0: bfd7 0fbd 4119 423c 5f8a d2bb 0173 793d
000001e0: e2bc b93d a833 113d 0ab0 18bc c9db aabd
000001f0: eaf1 f2b8 aa62 323c cfc4 47be f385 87bd
00000200: db87 c9bd d1f0 023d f5cf 5fbb 24b9 4dbd
00000210: d53c 53bd cff9 31bd 2c1e dc3c 5c34 c23d
00000220: bdb5 3ebd 03c6 18be 0188 173b 85d9 86bc
00000230: c14b 6dbd 0d72 d53d d73a 69bd 0b63 d83d
00000240: f5ea 38bc 908f 11be 376c 0dbd 592b d73d
00000250: 9208 e23c bdc6 61bc d7ff 8b3d 328f 08bd
00000260: 73ba ac3d 8bf6 953d 9ad4 f93d 41eb 80bc
00000270: 5db2 0c3e 2b02 5a3d b506 283d 82b3 b33d
00000280: fc1a 0c3b 30a0 533b 89a0 c53d 7f21 e63d
00000290: 3422 993d 23e5 193b 000a 443c 9836 203d
000002a0: 1a85 11bd c151 1ebe 700a 4abd 8696 bebc
000002b0: 5b0c d53c b724 213d 318f 9ebd 1e72 4bbd
000002c0: c605 5d3d 00c0 77bd 9049 6d3c ae1e e33b
000002d0: 33a0 e0bd e498 64bc 3db9 fd3d 8de6 cebd
000002e0: 03b5 35bc 821f 193e 1807 a2bd 4cf9 0b3d
000002f0: 08f7 c83c 981e 9cbd 551a 6ebd 4a0b 723d
00000300: c885 9ebd e89c 69bd 7fa5 133d e3c5 55bc
00000310: 9259 05bb 8390 f73d a828 fc3d 2479 003d
00000320: 1ce6 9a3d c307 903c 84a9 063c 75d4 ab3b
00000330: 3119 38bd 82ee a73d 5ea7 263c 8fc0 843d
00000340: 67a8 88bd e19a 8fb8 57ed a13d 5d7a 6fbc
00000350: 457e 3c3c 9274 6b3d 799f e63d baf9 803b
00000360: f508 983d 5268 2a3d 951d 8ebd c4b4 aebc
00000370: 187a 89bd 8269 c3bd 721c ba3c 9e11 463d
00000380: 5549 dabc d4f7 293d 4d7b b1bc 4e9f 94bd
00000390: ded3 d9bc ccaa 843d be2e 9dbd 94f8 663d
000003a0: 1e28 1f3d 4ea1 98bc 3adc 813c f64c ba3d
000003b0: 7faf ec3c 9140 d93c 2390 3b3d 8138 013d
000003c0: 3089 6fba c7e3 40bd 422d 11bc 4db8 003d
000003d0: d7be 463d 16c5 bfbd d87b ec3d 23f7 fb3d
000003e0: df0d 143d a198 c83d a650 6f3c 82c6 aa3d
000003f0: 1716 7dbc 6a67 a23d e574 85bd b901 a03d

Generator.conv4.conv1.0.weight f4 [8, 8, 3, 3, 3]
-0.041773774 -0.009006845 -0.048007578 0.013529387 0.025571564 -0.009734945 -0.011346042 0.007350666
-0.03292544 -0.041827366 -0.012381449 -0.091691576 -0.06387763 0.011403239 -0.029889 0.0869001
0.009614718 0.033535793 0.034561124 0.040072825 0.06913044 0.037983287 -0.072011776 0.008363811
-0.057448506 -0.030485634 0.01526271 -0.021224063 0.00021244095 0.06862771 -0.037381176 0.056341786
0.06084024 -0.040389307 0.08240294 -0.06102896 0.028376697 -0.015074708 -0.04702581 -0.0073663103
-0.027753918 -0.06872314 -0.014283839 0.03413434 0.028747836 0.043702498 -0.0024049284 0.01393943
0.025530329 -0.023467151 0.024486938 0.05172093 0.05906299 0.032352023 -0.05765191 -0.032389265
-0.11192189 -0.01758174 0.038040422 -0.07343756 0.0646164 0.031967513 -0.020903109 -0.0010390469
-0.1239802 -0.08086672 0.01153708 -0.04660853 -0.007219309 0.0047135646 0.06396908 -0.05241362
0.047839865 0.0011457202 -0.021138445 0.008621036 -0.09647637 0.039548475 0.015714455 -0.037111077
0.026192134 0.011595263 -0.020933282 -0.026108857 0.014604367 -0.016149824 -0.029527593 0.05671118
0.014683768 0.07631741 -0.012470489 -0.06246968 -0.04059522 0.024773763 -0.07319555 0.0061015105
0.08058849 0.0767212 0.044767667 -0.061869122 -0.0627155 -0.058101732 -0.015723482 0.039954506
-0.050590456 0.07765972 0.008018609 0.002192949 -0.062654935 -0.031487323 -0.008607097 -0.024114609
0.015060235 0.031889062 -0.030451315 0.05282239 0.0067778793 -0.003670765 -0.029555943 0.074736476
-0.06043329 -0.01643648 -0.02459341 0.011867081 0.04134543 -0.019599179 0.07810603 0.022725537
0.07044083 -0.006727852 -0.0214309 0.0025165307 0.019497817 0.0021644628 0.08435513 -0.040480368
0.025552042 -0.055347655 0.0070715686 0.07379932 0.002456785 0.057429947 0.0769921 -0.07158134
0.027665643 -0.01988814 0.005203655 0.0163973 -0.037436705 0.017819295 0.060410608 0.050581854
-0.016944388 0.03872314 -0.0106632225 -0.021558577 0.024844019 -0.041954078 0.008860049 0.0019511007
-0.0338365 0.055410396 -0.05565063 -0.02832867 -0.049200017 -0.015779473 0.1047026 0.062023263
-0.023327053 0.043047875 0.06830972 -0.056264527 -0.037258063 0.013817813 0.007927796 -0.08158041
-0.049064558 0.061071537 0.044689305 -0.014117279 0.05797087 0.055005815 0.00037045425 -0.095050916
0.004965647 -0.03519799 -0.038448334 -0.016595308 0.02546243 -0.06347037 -0.059436023 -0.08138608
-0.034223206 0.038974788 -0.02520314 -0.020706356 0.0011096238 0.015198475 0.041314073 -0.09425179
-0.004477925 0.015695455 -0.09810438 -0.07248433 0.025963718 0.08679349 -0.056631137 -0.003833786
0.0584622 -0.019077247 0.015967377 -0.061435338 -0.07289176 0.04381483 0.041538175 0.034394264
-0.0109303985 0.07532337 0.043949958 0.020941358 0.06302949 0.041771594 -0.050668407 0.023933241
0.05093761 0.0761429 0.062739655 -0.012776606 -0.03152317 0.023955464 0.01126664 0.010754768
0.010896615 -0.0014267532 -0.03838425 -0.08203364 -0.030790506 0.025747946 -0.045428004 -0.08087245
0.041570622 0.014925357 -0.056698017 -0.030641437 0.026080908 0.006232627 -0.07456085 0.07359199
0.048364837 -0.01081539 -0.06096323 -0.005449018 0.030643992 0.04998196 0.05256596 -0.006992211
00000000: fa1a 2bbd 7291 13bc 98a3 44bd 5daa 5d3c
00000010: 757b d13c 527f 1fbc c0e4 39bc dbdd f03b
00000020: d4dc 06bd 2c53 2bbd 90db 4abc cbc8 bbbd
00000030: 46d2 82bd a7d4 3a3c c7d9 f4bc aef8 b13d
00000040: 0d87 1d3c d45c 093d f78f 0d3d 6723 243d
00000050: 4394 8d3d 5d94 1b3d e97a 93bd 5e08 093c
00000060: 204f 6bbd 02bd f9bc 7210 7a3c 16de adbc
00000070: afc2 5e39 af8c 8c3d 011d 19bd a5c6 663d
00000080: 9e33 793d 426f 25bd dfc2 a83d 81f9 79bd
00000090: 3f76 e83c e8fb 76bc 239e 40bd 1761 f1bb
000000a0: 2f5c e3bc b8be 8cbd c306 6abc 73d0 0b3d
000000b0: 9580 eb3c 6401 333d 019c 1dbb 3562 643c
000000c0: fb24 d13c 2f3e c0bc d598 c83c 53d9 533d
000000d0: 09ec 713d 8e83 043d 6924 6cbd 9baa 04bd
000000e0: 4e37 e5bd 9507 90bc 46d0 1b3d 6e66 96bd
000000f0: 9a55 843d 5ef0 023d ff3c abbc a130 88ba
00000100: 55e9 fdbd 739d a5bd 0506 3d3c 96e8 3ebd
00000110: f48f ecbb 3f74 9a3b 3902 833d aaaf 56bd
00000120: bcf3 433d fe2b 963a 882a adbc 3f3f 0d3c
00000130: 6795 c5bd 95fd 213d 9abb 803c c901 18bd
00000140: e390 d63c 0ffa 3d3c 467c abbc 3ee2 d5bc
00000150: 2847 6f3c a34c 84bc dae3 f1bc fb49 683d
00000160: 3094 703c 4d4c 9c3d 0651 4cbc 35e0 7fbd
00000170: 2c47 26bd 59f2 ca3c 8ce7 95bd 2eef c73b
00000180: 940b a53d 0120 9d3d 4d5e 373d 7a6a 7dbd
00000190: fc70 80bd 15fc 6dbd 88ce 80bc 56a7 233d
000001a0: f037 4fbd 0f0c 9f3d 7c60 033c 94b7 0f3b
000001b0: 3b51 80bd daf8 00bd c804 0dbc 008c c5bc
000001c0: 34bf 763c 1b9e 023d 0975 f9bc 4a5c 583d
000001d0: f918 de3b 3891 70bb 4e1f f2bc 700f 993d
000001e0: e688 77bd cca5 86bc 1e78 c9bc 256e 423c
000001f0: d359 293d 758e a0bc 0ef6 9f3d e82a ba3c
00000200: 4843 903d 5075 dcbb db8f afbc 61ec 243b
00000210: e3b9 9f3c a9d9 0d3b 62c2 ac3d bece 25bd
00000220: 8452 d13c 39b4 62bd 9eb8 e73b 1924 973d
00000230: 0302 213b aa3b 6b3d 09ae 9d3d 3d99 92bd
00000240: 0fa3 e23c 74ec a2bc 6c83 aa3b a153 863c
00000250: 3b57 19bd c5f9 913c 1d71 773d eb2e 4f3d
00000260: f5ce 8abc 289c 1e3d ccb4 2ebc 9d9b b0bc
00000270: af85 cb3c 0ad8 2bbd bd29 113c 13bc ff3a
00000280: 2498 0abd 03f6 623d eaf1 63bd 8711 e8bc
00000290: f585 49bd f443 81bc 516e d63d 1b0c 7e3d
000002a0: 6018 bfbc f852 303d f7e5 8b3d a275 66bd
000002b0: e99b 18bd 1c64 623c 96e3 013c a113 a7bd
000002c0: ebf7 48bd 2626 7a3d 220c 373d 294c 67bc
000002d0: dd72 6d3d c74d 613d 8739 c239 0eaa c2bd
000002e0: deb6 a23b c42b 10bd 007c 1dbd e2f2 87bc
000002f0: 9696 d03c c1fc 81bd 3073 73bd bfad a6bd
00000300: a22d 0cbd 07a4 1f3d d176 cebc 60a0 a9bc
00000310: cc70 913a 0603 793c f238 293d 1507 c1bd
00000320: 8fbb 92bb c193 803c f3ea c8bd aa72 94bd
00000330: ddb1 d43c c9c0 b13d 0df6 67bd 4140 7bbb
00000340: 0f76 6f3d e347 9cbc 04ce 823c 9fa3 7bbd
00000350: 4648 95bd 2e77 333d ef23 2a3d 00e1 0c3d
00000360: 6a15 33bc 2443 9a3d df04 343d 368d ab3c
00000370: 9b15 813d b118 2b3d ad89 4fbd a50f c43c
00000380: f5a3 503d cff0 9b3d a67d 803d f854 51bc
00000390: 711e 01bd 403e c43c b797 383c c434 303c
000003a0: b787 323c e501 bbba ce38 1dbd 4101 a8bd
000003b0: 5f3c fcbc 5bed d23c b712 3abd 74a0 a5bd
000003c0: f545 2a3d 7c89 743c 2e3c 68bd c003 fbbc
000003d0: a1a7 d53c 113b cc3b 5cb3 98bd 66b7 963d
000003e0: 351a 463d 0933 31bc 94b4 79bd ad8d b2bb
000003f0: 1c09 fb3c e2b9 4c3d 674f 573d eb1e e5bb

Generator.conv4.conv2.0.weight f4 [8, 8, 3, 3, 3]
0.038038414 0.21409315 -0.06536176 -0.09501398 -0.022605024 -0.06655319 0.0631816 -0.001568109
0.0840705 -0.01967957 0.054262083 0.0040805484 0.06270207 0.05231442 -0.07703918 0.09944339
0.15951982 0.062438797 0.041731685 -0.018344112 -0.0028340463 0.035389964 -0.0249425 0.05943712
0.061255064 0.13075233 0.09016439 -0.045145966 -0.07691165 -0.047056597 0.07885686 0.034995258
-0.060174614 0.06768357 0.090330064 0.10643688 0.048371013 -0.10255597 -0.06516882 -0.03931687
0.08978367 -0.03798897 -0.03453514 0.14675543 -0.031671166 0.03642213 0.007715179 -0.035836563
-0.0012023337 0.0029204588 -0.059084076 0.01985824 0.14122732 0.052867543 -0.09847509 -0.08933887
0.13518584 -0.18932885 -0.10794537 0.014870542 -0.09293033 0.10640234 0.1242632 -0.29265425
-0.12714836 0.05479561 -0.19032502 -0.053650506 0.01349704 0.04870131 0.08353416 0.16490364
0.0005154496 -0.031500425 0.062373247 -0.12683935 0.02191091 -0.008209911 0.035161156 0.11496372
0.14245565 -0.042880166 -0.04066145 0.0134413345 -0.082125336 0.0064213295 -0.018185347 0.026751025
-0.04931212 -0.06839987 -0.042295385 0.0007687529 -0.07151782 0.01289661 0.053705975 0.015365878
-0.04262597 0.04105686 -0.04201464 0.04138933 -0.039259557 -0.052127726 0.1448384 0.055830922
0.04313353 -0.012672861 -0.004804364 -0.026194913 0.001005798 0.058122005 -0.14018986 0.057253014
0.118573554 -0.121482424 0.009155147 -0.016402707 -0.07061084 -0.06476561 -0.014387555 -0.046707407
-0.043412432 -0.10465563 -0.020189514 -0.007719619 -0.0522611 0.0015584229 -0.007328177 0.06587491
0.1010921 0.008480883 -0.20239067 -0.10489844 0.01267575 -0.07277807 -0.041494105 0.037292056
-0.095977426 -0.09548877 -0.08516205 -0.09401011 -0.021109825 -0.007568931 0.055046454 0.013914459
0.052123617 -0.074760556 -0.039554816 0.0832595 0.051139098 0.038636614 0.10510132 0.07898558
-0.009080227 -0.18326184 -0.18770862 -0.08387371 -0.07220537 -0.026110886 0.14861976 -0.022907706
0.034334563 0.05077794 0.055139445 0.006305794 -0.134401 -0.017794147 -0.011246507 0.0070626712
-0.10291632 -0.042847227 0.052261896 -0.023800487 -0.08391307 -0.12949452 -0.08751758 -0.070062004
0.038490567 -0.027466869 -0.0049585793 0.009088979 -0.010664775 0.008578371 -0.007130223 -0.17970362
-0.030718416 -0.10485105 -0.19887015 0.077663235 -0.09544695 -0.044076174 0.014077796 0.016802434
-0.0242019 -0.12730174 0.053831786 0.013961456 -0.06389299 -0.01658324 -0.0054256665 -0.009433728
0.05079963 -0.023970585 0.0089237625 0.016868262 0.08638614 0.004766505 0.013194554 0.046253372
-0.023118788 0.04901096 0.051402397 0.004638868 0.0410115 0.11130811 0.04278704 0.032358613
-0.006170297 0.020317327 0.020557173 -0.08869799 -0.11012493 0.06039366 -0.011596327 -0.023400828
0.08338192 0.02187303 0.07279985 -0.033375222 0.00326103 -0.007321995 0.021133272 0.090003416
0.0048394674 0.058631565 -0.013765725 0.04027284 -0.07801455 -0.003929358 0.08385117 0.088801436
0.10231083 0.019659622 0.066314176 -0.007314528 0.09778563 -0.042830296 0.03287387 0.1893324
0.020551458 -0.105518974 -0.004259541 0.09140221 0.031909008 0.07361793 0.006426826 0.050603837
00000000: 2bce 1b3d 3c3b 5b3e 63dc 85bd b196 c2bd
00000010: 2c2e b9bc 0a4d 88bd 5b65 813d 0289 cdba
00000020: 282d ac3d 0d37 a1bc eb41 5e3d 1fb6 853b
00000030: f169 803d a547 563d b8c6 9dbd faa8 cb3d
00000040: 2a59 233e d3bf 7f3d d8ee 2a3d 6446 96bc
00000050: 68bb 39bb 11f5 103d 3754 ccbc 5674 733d
00000060: 97e6 7a3d f0e3 053e 1ca8 b83d faea 38bd
00000070: db83 9dbd 6bbe 40bd b57f a13d 3057 0f3d
00000080: a879 76bd af9d 8a3d f8fe b83d 94fb d93d
00000090: af20 463d dd08 d2bd 3b77 85bd ba0a 21bd
000000a0: 80e0 b73d 529a 1bbd b874 0dbd 0e47 163e
000000b0: a0b9 01bd 5f2f 153d 9dcf fc3b 5cc9 12bd
000000c0: a097 9dba 2b65 3f3b 2502 72bd bfad a23c
000000d0: e59d 103e a38b 583d 4fad c9bd 4cf7 b6bd
000000e0: 286e 0a3e 6cdf 41be 7612 ddbd 93a3 733c
000000f0: 4252 bebd 78e9 d93d b47d fe3d c7d6 95be
00000100: 2e33 02be 5d71 603d 90e4 42be a2c0 5bbd
00000110: b022 5d3c 067b 473d f513 ab3d 80dc 283e
00000120: 3d1f 073a 9706 01bd 177b 7f3d 2de2 01be
00000130: 827e b33c dd82 06bc 2505 103d 1972 eb3d
00000140: e5df 113e 1da3 2fbd 9f8c 26bd 0b39 5c3c
00000150: 5431 a8bd 046a d23b 70f9 94bc f724 db3c
00000160: 81fb 49bd 3b15 8cbd ed3d 2dbd 2286 493a
00000170: ef77 92bd 4e4c 533c ccfa 5b3d 2ac1 7b3c
00000180: 9298 2ebd 3d2b 283d 8b17 2cbd dc87 293d
00000190: a1ce 20bd e283 55bd 8450 143e f7ae 643d
000001a0: c9ac 303d d5a1 4fbc ed6d 9dbb b796 d6bc
000001b0: fbd4 833a 5711 6e3d ee8d 0fbe 2382 6a3d
000001c0: b1d6 f23d c7cb f8bd 78ff 153c f85e 86bc
000001d0: 6b9c 90bd d5a3 84bd c8b9 6bbc 4450 3fbd
000001e0: 3cd1 31bd b155 d6bd 7b64 a5bc dcf4 fcbb
000001f0: bc0f 56bd ff43 cc3a 3421 f0bb 6de9 863d
00000200: 6009 cf3d 67f3 0a3c 803f 4fbe fed4 d6bd
00000210: f3ad 4f3c ab0c 95bd b9f5 29bd 8ebf 183d
00000220: d08f c4bd 9e8f c3bd 7169 aebd 5f88 c0bd
00000230: 83ee acbc cc04 f8bb 6478 613d 79f9 633c
00000240: 937f 553d 101c 99bd 3b04 22bd f583 aa3d
00000250: 3b77 513d 6d41 1e3d 5c3f d73d 31c3 a13d
00000260: 3cc5 14bc fea8 3bbe b036 40be fbc5 abbd
00000270: 69e0 93bd 7fe6 d5bc c72f 183e f1a8 bbbc
00000280: 66a2 0c3d 87fc 4f3d e6d9 613d d6a0 ce3b
00000290: 6aa0 09be 08c5 91bc 4543 38bc fb6d e73b
000002a0: cbc5 d2bd 9380 2fbd 9210 563d 3df9 c2bc
000002b0: 9eda abbd 369a 04be 6b3c b3bd ab7c 8fbd
000002c0: 49a8 1d3d 3302 e1bc 947b a2bb f1e9 143c
000002d0: 4fbb 2ebc 4c8c 0c3c a5a4 e9bb 3a04 38be
000002e0: 30a5 fbbc 26bc d6bd 9ea4 4bbe e70d 9f3d
000002f0: b179 c3bd 3889 34bd 8ea6 663c 42a5 893c
00000300: 1043 c6bc 635b 02be b87e 5c3d 97be 643c
00000310: 54da 82bd 93d9 87bc cac9 b1bb ec8f 1abc
00000320: 4613 503d f65d c4bc f934 123c 4f2f 8a3c
00000330: 37eb b03d 5830 9c3b f82d 583c 2d74 3d3d
00000340: 9d63 bdbc b7bf 483d 528b 523d a501 983b
00000350: adfb 273d 82f5 e33d 7741 2f3d 778a 043d
00000360: 3430 cabb 8670 a63c 8467 a83c 4ba7 b5bd
00000370: 2e89 e1bd 585f 773d 85fe 3dbc 18b3 bfbc
00000380: 24c4 aa3d 122f b33c 1618 953d 75b4 08bd
00000390: 01b7 553b 59ed efbb af1f ad3c b653 b83d
000003a0: 6594 9e3b a727 703d a389 61bc 22f5 243d
000003b0: 18c6 9fbd d8c1 80bb 2aba ab3d 87dd b53d
000003c0: 5788 d13d 370d a13c bacf 873d b5ae efbb
000003d0: d543 c83d d26e 2fbd c0a6 063d 5ae0 413e
000003e0: 885b a83c 551a d8bd 9f93 8bbb 1531 bb3d
000003f0: 05b3 023d ffc4 963d 2098 d23b f845 4f3d
