DeepWonder3D_pytorch/pth/SEG_pth/Unet4_no_end_UNet3DFFD_20240401-1432_2um/seg_332.pth (torch, 138281 bytes, 19 tensors)

Generator.conv1.conv1.0.weight f4 [8, 1, 3, 3, 3]
0	0x3df96701	0.121778496
1	0x3dceec8a	0.1010371
2	0xbd6d2319	-0.0578948
3	0x3e131cf3	0.14366512
4	0xbdf6e070	-0.12054527
5	0xbe023252	-0.12714508
6	0xbbb45248	-0.0055029728
7	0xbbd0a31d	-0.006367101
8	0x3db5eae1	0.0888269
9	0x3d63a07d	0.055572975
10	0xbe1d4944	-0.1535998
11	0x3db1f57e	0.08689402
12	0x3e0d3b90	0.13792253
13	0x3de1ee87	0.110318236
14	0x3cfe0a8c	0.031010889
15	0xbe3d4c63	-0.1848617
16	0x3db0e63a	0.08637662
17	0xbe59bf8f	-0.2126448
18	0xbdcea1f0	-0.10089481
19	0xbdec8993	-0.11549678
20	0xbd7d2e55	-0.061811764
21	0x3cf32b3a	0.029683698
22	0xbd60e042	-0.05490137
23	0x3d64ce0d	0.055860568
24	0xbe58141a	-0.21101418
25	0x3d37c47a	0.04486511
26	0x3e398af1	0.18119408
27	0x3e2885b3	0.16457252
28	0x3e29f682	0.16597942
29	0x3cbbfd5d	0.022947961
30	0x3da86332	0.08222045
31	0xbe07efcc	-0.13275069
32	0xbe3b1b2e	-0.18272087
33	0x3df82250	0.121159196
34	0x3c287fad	0.0102843465
35	0xbdbcabe8	-0.09212476
36	0xbde18b72	-0.11012925
37	0x3e27af5c	0.16375488
38	0xbd215426	-0.03938689
39	0xbe07224c	-0.13196677
40	0xbd9b326d	-0.07577977
41	0x3c15d73a	0.009145552
42	0xbe531267	-0.20612489
43	0xbe5fa09a	-0.21838608
44	0xbcbbd671	-0.022929402
45	0x3e0628ec	0.13101548
46	0x3d3b57fd	0.04573821
47	0x3e5e09d9	0.21683444
48	0x3e32a15f	0.1744437
49	0xbda856a9	-0.08219654
50	0x3e28f598	0.16499937
51	0x3dad260c	0.084545225
52	0xbe05ac21	-0.13053943
53	0xbda47a86	-0.08031182
54	0x3d7c55ab	0.061605137
55	0xbd2eee62	-0.04270781
56	0xbdfa68b0	-0.12226999
57	0x3cdfea42	0.027333383
58	0x3dcf2c98	0.101159275
59	0xbbcb0ae7	-0.006196368
60	0xbe2051f8	-0.15656269
61	0xbdde6d71	-0.10860718
62	0xbd5ad498	-0.0534254
63	0x3cfd8dd9	0.030951427
64	0x3db7c6b8	0.089734495
65	0x3c2849c6	0.010271495
66	0xbd3fd00b	-0.046829265
67	0x3d14e8e0	0.0363549
68	0x3d8d7fc7	0.06909137
69	0x3d994d6a	0.07485469
70	0x3c8bffe6	0.017089795
71	0x3cba4d5b	0.022741964
72	0xbe1a0cf8	-0.1504401
73	0x3d55f450	0.052234948
74	0x3d65eae2	0.056132205
75	0x3c0a5cb1	0.008444951
76	0xbd652a5f	-0.05594861
77	0x3dd77ca9	0.10521824
78	0xbeed85d0	-0.46391153
79	0xbc39604d	-0.011314464
80	0xbe8c639b	-0.27419743
81	0xbdbaee5a	-0.09127493
82	0xbe1c1b26	-0.15244731
83	0x3e1c93be	0.15290734
84	0xbe4adf5c	-0.19811767
85	0xbd9bed2d	-0.07613597
86	0xbccdd5a1	-0.02512628
87	0x3da4a4f5	0.080392756
88	0xbdeadefe	-0.11468314
89	0x3d606a22	0.054788716
90	0xbe5429ee	-0.2071912
91	0xbd801349	-0.06253678
92	0x3cbc9063	0.023018068
93	0x3dd09904	0.101854354
94	0xbe4e1668	-0.20125735
95	0xbe2ada95	-0.16684945
96	0xbd16389d	-0.036675084
97	0x3dffa49c	0.124825686
98	0x3db20c47	0.08693748
99	0xbd60e864	-0.054909125
100	0x3d745ce5	0.059658904
101	0x3db2a815	0.08723465
102	0xbd842809	-0.064529486
103	0x3d62c35f	0.0553621
104	0x3d9a53e5	0.07535533
105	0x3c7cb867	0.015424824
106	0xbe2770bb	-0.16351597
107	0xbe63da21	-0.22251178
108	0x3e3e25f0	0.1856916
109	0xbe2d7cf5	-0.16942199
110	0xbd3988d2	-0.045296498
111	0xbe0433a0	-0.12910318
112	0xbd1e15d5	-0.03859504
113	0x3c926fe1	0.017875614
114	0xbd195bb2	-0.037440963
115	0x3d7498d2	0.059716053
116	0x3d4eb84f	0.05046874
117	0x3bf47eaf	0.007461391
118	0x3d9c162b	0.07621416
119	0xbe4679f3	-0.19382457
120	0xbd5b9bd4	-0.053615406
121	0xbd397c26	-0.045284413
122	0x3b09b097	0.0021009797
123	0x3de9578f	0.113936536
124	0x3c88f8f7	0.016720278
125	0x3e05dfc1	0.13073637
126	0xbe44dae6	-0.19224128
127	0x3d75beee	0.059996538
128	0x3dce36e1	0.10069061
129	0x3dbe7926	0.09300451
130	0x3cfdce41	0.030982139
131	0xbdd3686e	-0.10322653
132	0xbe26818f	-0.1626036
133	0xbdb21eea	-0.08697303
134	0x3dd98509	0.106210776
135	0x3d0b2d9a	0.033979036
136	0xbdec8d18	-0.11550349
137	0x3ded6378	0.11591238
138	0x3dd44d7d	0.10366342
139	0xbd9a3010	-0.075286984
140	0xbe06afd2	-0.13153008
141	0xbe3e8da5	-0.1860872
142	0x3e3e06fb	0.1855735
143	0x3ceba457	0.028764887
144	0xbdc09881	-0.09404088
145	0xbe49f299	-0.1972145
146	0x3d5d0bd4	0.05396636
147	0x3db2a4a1	0.08722807
148	0xbe335acc	-0.17515105
149	0xbe5c61e0	-0.21521711
150	0xbda08fe1	-0.07839943
151	0x3da2dde2	0.07952477
152	0x3e21573f	0.15755938
153	0xbd183e87	-0.037169006
154	0xbd26b77f	-0.04070234
155	0x3df0982c	0.117477745
156	0x3cbdfc3b	0.023191562
157	0x3e311287	0.17292224
158	0xbd9ed365	-0.07755164
159	0x3b921019	0.0044574854
160	0xbce85011	-0.028358491
161	0x3e5b10c6	0.21393117
162	0xbe683773	-0.22677402
163	0x3e1e901a	0.15484658
164	0xbda50875	-0.08058254
165	0x3dab19e0	0.08354545
166	0x3bb3fee3	0.0054930313
167	0xbd1ed90d	-0.038781215
168	0x3ce58f4a	0.028022427
169	0xbca23b46	-0.019803654
170	0x3d8c8356	0.06860988
171	0x3d562d6b	0.052289408
172	0xbd8e43f9	-0.069465585
173	0x3e6c5718	0.23080099
174	0xbe53d6ce	-0.2068741
175	0xbda1f4b5	-0.07908002
176	0x3d1198d2	0.03554613
177	0xbd820502	-0.063486114
178	0x3df1ca13	0.11806121
179	0x3d596441	0.053074125
180	0xbd9bd6d5	-0.07609335
181	0xbd561c70	-0.052273214
182	0x3de03fe2	0.10949685
183	0xbe164634	-0.14675218
184	0x3d5d59e5	0.05404081
185	0x3de4973c	0.11161658
186	0xbe0ca7c6	-0.13735875
187	0xbc0fc4a8	-0.008774914
188	0x3e275f6e	0.16344997
189	0xbd6d8700	-0.057990074
190	0x3dff936e	0.12479292
191	0xbae845f8	-0.0017721048
192	0x3cf8f6ba	0.030391086
193	0x3de29c79	0.11065001
194	0xbe61d05c	-0.22052139
195	0xbda351b0	-0.07974565
196	0x3c19bace	0.009382917
197	0x3decb099	0.11557121
198	0xbd2a2d23	-0.041546952
199	0xbd920835	-0.071304716
200	0xbd70edc7	-0.058820512
201	0xbe5ab267	-0.21357118
202	0x3e1c06b9	0.1523694
203	0xbdc1fc3a	-0.094719365
204	0xbdc4e46a	-0.09613879
205	0x3e3f6d36	0.18694004
206	0x3ce2910e	0.027657058
207	0xbdcc60c4	-0.09979394
208	0xbceb50f1	-0.02872512
209	0xbcbc2533	-0.022966957
210	0xbe7e94b0	-0.24861407
211	0x3dda71a4	0.106662065
212	0xbde0a064	-0.10968092
213	0xbe5fc7a3	-0.21853499
214	0xbd8e91c3	-0.069613956
215	0x3dd60ded	0.10451875

Generator.conv1.conv2.0.weight f4 [8, 8, 3, 3, 3]
0	0x3e1d17a7	0.15341054
1	0x3d59133c	0.05299686
2	0x3d1dc663	0.038519274
3	0x3d0ddce5	0.03463449
4	0xbcfc24d5	-0.030779282
5	0x3dcc0091	0.099610455
6	0x3e35089b	0.17679064
7	0x3e18ab95	0.14909203
8	0x3e9c7490	0.3055768
9	0xbc04c501	-0.00810361
10	0xbbb5e38a	-0.0055508064
11	0x3d188a3c	0.037241206
12	0x3cf7aa2d	0.030232513
13	0x3daefb66	0.08544044
14	0x3c0767f4	0.00826453
15	0x3d581d0c	0.052762076
16	0xbcd2e7fe	-0.025745388
17	0x3e0dc8c3	0.13846116
18	0x3d099b19	0.03359518
19	0x3e399320	0.1812253
20	0x3e1f8180	0.15576744
21	0x3e1688bc	0.14700598
22	0x3e510223	0.20410971
23	0x3e3bcf1d	0.18340726
24	0x3df10a49	0.1176954
25	0x3e15e231	0.14637066
26	0x3e2f5fb7	0.17126356
27	0xbe138301	-0.14405443
28	0xbca86413	-0.020555532
29	0xbe8095e3	-0.25114354
30	0xbdbf51cf	-0.093417756
31	0xbcd506b4	-0.026004173
32	0xbeabacbd	-0.33530226
33	0xbcc81ae0	-0.024426877
34	0x3db2fb1d	0.08739302
35	0xbda32b1c	-0.07967207
36	0xbdd86132	-0.105654135
37	0x3e512ee6	0.20428047
38	0xbe88bebc	-0.2670802
39	0xbdc8262b	-0.09772905
40	0x3e033db4	0.12816507
41	0xbf14ae89	-0.5807882
42	0xbd71dcf7	-0.05904862
43	0x3d9b984f	0.0759741
44	0x3cbf4398	0.02334766
45	0x3d8fe456	0.070259735
46	0x3e7e6a0c	0.24845141
47	0xbeb6057f	-0.35551068
48	0xbdabf335	-0.083959974
49	0x3e0d7745	0.13815029
50	0xbf0ef90e	-0.5584878
51	0xbdcf7bac	-0.101310104
52	0x3cd4c591	0.025973113
53	0x3c442a6c	0.011973005
54	0x3da26bd9	0.079307266
55	0x3cb52077	0.022110207
56	0x3cf02ce7	0.029318286
57	0xbcd3e7c9	-0.02586736
58	0xbd96cd02	-0.07363321
59	0xbcb7bbc9	-0.02242841
60	0x3d7ebc96	0.06219157
61	0x3cc1c76b	0.02365466
62	0xbd105bb4	-0.035243705
63	0x3e70062c	0.23439854
64	0xbc44c4ef	-0.012009843
65	0x3d7e5e05	0.062101383
66	0x3cf2f9a0	0.029660046
67	0x3c305e6d	0.0107647
68	0x3e3c0b8d	0.18363781
69	0x3dff7986	0.12474351
70	0x3d36effd	0.044662464
71	0x3d6378a2	0.055534966
72	0x3e0eeb62	0.13956979
73	0x3d9b328c	0.075780004
74	0x3da8e075	0.08245937
75	0xbdcda7e1	-0.10041786
76	0x3ae0cfb5	0.0017151745
77	0x3cc5c349	0.02414097
78	0x3dba83c6	0.09107165
79	0x3dc7edb9	0.09762139
80	0x3d79d1b5	0.060991008
81	0xbcc456e0	-0.023967206
82	0x3d7d5945	0.061852712
83	0x3d29fb17	0.041499224
84	0x3e0f62ac	0.14002484
85	0x3b066373	0.0020506054
86	0xbbce29ae	-0.0062915897
87	0x3c055b53	0.008139449
88	0xbd2352c0	-0.03987384
89	0x3c0ed01f	0.008716612
90	0x3caa7a81	0.020810368
91	0x3c91c85e	0.017795738
92	0x3d2e9a32	0.04262752
93	0xbd3a9e30	-0.045561016
94	0x3c726079	0.014793509
95	0x3d6b216c	0.05740492
96	0xbd0f1cb8	-0.034939498
97	0x3cbeba8b	0.02328231
98	0x3ce5e790	0.02806452
99	0x3d88c6aa	0.06678517
100	0xbd3d7e0a	-0.04626278
101	0xbd472c4e	-0.048626237
102	0xbbfe46a6	-0.007759887
103	0x3d1c67c2	0.03818489
104	0x3d554155	0.05206426
105	0x3cf807fa	0.030277241
106	0x3d1d684e	0.03842955
107	0x3c9cf885	0.019161472
108	0xbdf3f984	-0.11912826
109	0xbe5c06a0	-0.21486902
110	0xbe33ef91	-0.17571856
111	0xbd859985	-0.06523422
112	0xbcc16077	-0.023605568
113	0xbe1953b3	-0.14973335
114	0xbc0b1069	-0.008487799
115	0xbbf9f20b	-0.0076277307
116	0x3d77a79d	0.060462583
117	0xbd3ca136	-0.04605218
118	0x3d4ed3d6	0.05049499
119	0x3e1445e2	0.14479783
120	0x3c9b055f	0.01892346
121	0x3dac7686	0.08421044
122	0x3ded57f3	0.115890406
123	0xbd330ed5	-0.043715317
124	0x3ddab8c2	0.10679771
125	0x3dc050bc	0.09390399
126	0xbd9507ce	-0.07276879
127	0x3e7c29d5	0.24625333
128	0x3e4a9bba	0.19785967
129	0xbca63991	-0.020291122
130	0x3e28d597	0.16487728
131	0x3c298524	0.010346685
132	0xbe4b3e57	-0.19848
133	0x3e274476	0.1633471
134	0x3d73da72	0.059534498
135	0xbce8092b	-0.028324684
136	0x3e7f8955	0.24954732
137	0x3dcc1ea1	0.099667795
138	0xbdb9285a	-0.090408996
139	0x3d7c809b	0.061646085
140	0xbd8a34fe	-0.06748389
141	0x3be3d1c3	0.006952496
142	0xbe03d305	-0.12873466
143	0xbc387407	-0.011258132
144	0xbe4fd89c	-0.20297474
145	0x3e6eecdb	0.2333254
146	0x3db770f3	0.0895709
147	0xbde9dcf2	-0.11419095
148	0x3de257dd	0.11051915
149	0xbc126e9c	-0.008937504
150	0xbc972850	-0.01845184
151	0x3d66dfb9	0.056365702
152	0xbd019bf7	-0.03164288
153	0xbd8ea397	-0.06964796
154	0x3e84eec4	0.25963414
155	0x3e20e4ed	0.15712328
156	0xbd85e876	-0.06538479
157	0x3e6d1d58	0.23155725
158	0x3dda6845	0.10664419
159	0xbe236aed	-0.15958758
160	0x3b266ce5	0.0025394496
161	0x3d248172	0.04016251
162	0x3d93d133	0.07217636
163	0xbdf9c675	-0.12196056
164	0xbdf84f66	-0.12124519
165	0x3d80d6f9	0.06291003
166	0xbd946c1a	-0.07247181
167	0xbd8c820f	-0.06860744
168	0x3df5db33	0.120046996
169	0xbe601022	-0.21881154
170	0xbc8f09ba	-0.017460693
171	0x3d641137	0.05568048
172	0xbe31ed6b	-0.17375724
173	0xbbb56c70	-0.0055366084
174	0x3cd9c572	0.026583407
175	0xbc4c41fe	-0.012466906
176	0xbd6ff242	-0.058580644
177	0xbd7c9878	-0.061668843
178	0xbe5821f8	-0.21106708
179	0xbd5ce9c4	-0.053933874
180	0x3d21ae5b	0.03947292
181	0xbd7e3845	-0.06206538
182	0x3e03e6dc	0.12881035
183	0xbcbbadbf	-0.022909997
184	0x3dce0419	0.10059375
185	0x3dd77e72	0.105221644
186	0xbdb64c0b	-0.08901223
187	0xbed45af3	-0.4147564
188	0xbdc4a345	-0.09601454
189	0x3cd4bed6	0.025969904
190	0xbd9601d0	-0.073245645
191	0x3b8ab2f3	0.004232758
192	0x3da1ddb1	0.079036124
193	0x3cd70077	0.026245339
194	0x3d377482	0.044788845
195	0x3d997e4d	0.07494793
196	0xbd8a84ed	-0.06763635
197	0x3c2e9cfb	0.010657544
198	0x3ce20f11	0.027595075
199	0xbea6159e	-0.32438368
200	0x3d99acf7	0.075036936
201	0x3cd82aa4	0.02638752
202	0xbe8acb3b	-0.27108178
203	0x3e072697	0.13198315
204	0x3dd21a47	0.10258918
205	0xbeb29412	-0.34878594
206	0x3da65937	0.08122485
207	0xbdc93468	-0.09824449
208	0x3e0c84ae	0.13722488
209	0xbe3a338d	-0.18183728
210	0xbe113b1e	-0.14182708
211	0x3e4cdc2b	0.20005862
212	0xbe38e39b	-0.18055575
213	0xbe5e9ff1	-0.217407
214	0x3dfd8ed2	0.123807564
215	0xbe183bd2	-0.1486657
216	0x3e066fbf	0.13128565
217	0x3e9eaafb	0.30989823
218	0x3e6f28fb	0.23355477
219	0xbc35f6a5	-0.011106168
220	0x3db71681	0.08939839
221	0x3df516bd	0.119672276
222	0x3e98aeb5	0.2982079
223	0x3e9b18f9	0.3029249
224	0x3e918c44	0.28427327
225	0x3e1fa7e4	0.15591389
226	0x3d985da6	0.07439737
227	0x3e5a7f3a	0.21337596
228	0x3d75e59b	0.060033422
229	0x3d9f4beb	0.07778152
230	0x3da73dd7	0.08166092
231	0x3d90e104	0.07074168
232	0xbc4e81c4	-0.012604181
233	0x3da454da	0.08023997
234	0x3d97cce8	0.0741213
235	0x3dc55ebd	0.096372105
236	0x3cf92989	0.030415313
237	0x3ddcbe64	0.10778502
238	0x3db62ca0	0.0889523
239	0x3db662dd	0.089055754
240	0x3d8ff667	0.070294194
241	0x3b463da0	0.0030249134
242	0x3dd6e658	0.10493153
243	0xbdaab2a5	-0.08334855
244	0xbd7e03f0	-0.062015474
245	0xbd70813d	-0.058717
246	0xbd8162c9	-0.0631767
247	0xbdc9d15e	-0.09854387
248	0xbb437861	-0.002982639
249	0x3c7ad9ed	0.015310747
250	0xbb9192f4	-0.004442567
251	0xbb3695bb	-0.0027860242
252	0x3dbabcc7	0.09118038
253	0xbb84e16e	-0.0040551936
254	0xbb18f14a	-0.002333718
255	0x3dac6764	0.08418158

Generator.conv2.conv1.0.weight f4 [8, 8, 3, 3, 3]
0	0x3de4c989	0.11171252
1	0xbb9aaa0e	-0.004719979
2	0xbdd92006	-0.10601811
3	0x3ec9d9c5	0.39423957
4	0x3e1f657c	0.15566057
5	0xbd75131c	-0.059832677
6	0xbe424d95	-0.18974908
7	0x3d6313f2	0.055438943
8	0x3e02336c	0.12714928
9	0xbda849f3	-0.0821723
10	0xbd77795a	-0.060418464
11	0xbc35c1d2	-0.011093574
12	0xbdc38402	-0.09546663
13	0xbc28b0d4	-0.010296065
14	0x3cbf8626	0.023379397
15	0xbd297091	-0.041367117
16	0xbd91bf3a	-0.07116552
17	0x3dd84577	0.10560124
18	0x3c096e0a	0.008388052
19	0xbd75825d	-0.059938777
20	0xbcda931c	-0.026681475
21	0xbc8a490f	-0.01688054
22	0xbd33f15e	-0.043931358
23	0x3d270c6f	0.040783342
24	0x3c6c9327	0.014439381
25	0xbb1025ac	-0.002199511
26	0x3db939c4	0.09044221
27	0x3d3be170	0.04586929
28	0xbd1db7ec	-0.03850548
29	0xbd3e38ca	-0.046440877
30	0x3c6a4783	0.014299276
31	0xba321798	-0.0006793677
32	0xbc81ac6f	-0.015829293
33	0x3d92f057	0.071747474
34	0x3d9a9a8b	0.07549008
35	0x3c1450f1	0.009052501
36	0xbe31f5ca	-0.17378917
37	0xbe0aaafe	-0.13541791
38	0xbd97ed70	-0.074183345
39	0xbdc11eec	-0.09429726
40	0xbd5f1af5	-0.054469068
41	0xbd13fc98	-0.036129564
42	0x3dd15f29	0.102232285
43	0xbc2a6283	-0.010399464
44	0xbce58ac7	-0.028020276
45	0xbd5e9892	-0.05434472
46	0xbd8635b7	-0.06553214
47	0xbe306c9c	-0.17228931
48	0x3bd3da8c	0.006465262
49	0xbd6e765f	-0.058218356
50	0xbdba8471	-0.091072924
51	0x3daf74a9	0.08567173
52	0x3bb251d7	0.005441885
53	0xbd4c5adb	-0.049891334
54	0x3c90b6de	0.017665323
55	0x3dd9076d	0.105971195
56	0x3e0e63d0	0.13905263
57	0x3d399907	0.045311954
58	0x3da6a11a	0.081361964
59	0x3e513d48	0.20433533
60	0xbd90b400	-0.07065582
61	0xbd1d18ba	-0.03835366
62	0x3d068c9c	0.03284894
63	0xbd8b5c94	-0.06804767
64	0x3cf5e202	0.030014995
65	0x3ca2c692	0.019870076
66	0xbd41c032	-0.047302432
67	0x3c6b90cc	0.014377784
68	0x3d93166b	0.0718201
69	0xbe5300b8	-0.20605743
70	0xbd0478a4	-0.032341614
71	0x3d0cbf87	0.034362342
72	0xbced1049	-0.02893843
73	0x3d2c4c16	0.04206475
74	0x3d7318f2	0.05934996
75	0xbd8e07ca	-0.069350794
76	0x3de6caf4	0.11269179
77	0x3e12509d	0.14288564
78	0xbe12f29f	-0.14350365
79	0xbd562346	-0.052279733
80	0x3d9282f8	0.071538866
81	0x3c1755e6	0.009236788
82	0xbd074d69	-0.03303281
83	0x3d710b9c	0.058848962
84	0xbdf4fff6	-0.11962883
85	0xbda26a46	-0.07930426
86	0xbc27f2db	-0.010250772
87	0xbcc76165	-0.024338434
88	0xbd32e3fb	-0.04367445
89	0x3dc9835d	0.09839509
90	0x3e43c5a4	0.19118363
91	0x3b811bb1	0.0039400687
92	0x3da92617	0.08259218
93	0x3c9ebf7f	0.019378422
94	0xbd039226	-0.0321218
95	0x3c292fc8	0.010326333
96	0xbb382882	-0.0028100316
97	0xbd852c66	-0.06502609
98	0x3cda2e67	0.026633454
99	0xbb966bb1	-0.0045904745
100	0x3b3ade7d	0.002851396
101	0x3c7070f3	0.014675367
102	0xbde7f366	-0.113257214
103	0xbcbf32ff	-0.023339747
104	0x3d9f7cd6	0.077874824
105	0xbc2ea383	-0.010659101
106	0xbd1e4462	-0.038639434
107	0x3ca7708b	0.020439407
108	0x3d038743	0.032111418
109	0x3d2795b2	0.040914245
110	0xbd45e3f6	-0.048313104
111	0xb90130c5	-0.00012320567
112	0xbcc30773	-0.023807263
113	0x3cf48b43	0.029851561
114	0xbcda85a2	-0.02667505
115	0xbb2b978b	-0.0026182856
116	0x3d12a96c	0.035806105
117	0x3d4e31a1	0.0503403
118	0x3cbc5445	0.022989402
119	0x3d9912a0	0.074742556
120	0x3d84ea63	0.06490018
121	0x3dada2f0	0.084783435
122	0x3dcd7414	0.10031906
123	0x3dad89b9	0.08473534
124	0xbc1a8b1e	-0.009432582
125	0x3e0c29ef	0.13687871
126	0xbd5a2f2f	-0.053267654
127	0xbbbcdf9c	-0.005763961
128	0x3d764492	0.060123987
129	0xbd8a2fd2	-0.06747402
130	0x3d027e63	0.031858813
131	0x3d94e412	0.072700635
132	0x3cbc80c3	0.023010617
133	0xbce47c28	-0.027891234
134	0xbd0fa1a2	-0.035066254
135	0xbcbbd36d	-0.022927964
136	0x3de9da3b	0.11418577
137	0x3d6d16cd	0.057883073
138	0xbb9f198c	-0.0048553403
139	0x3dca21e7	0.098697476
140	0x3da78a41	0.08180667
141	0xbd4d13e3	-0.050067794
142	0xbdbef2e4	-0.093236715
143	0xbd87b0c1	-0.0662551
144	0xbd9bc542	-0.07605983
145	0xbb5ca86e	-0.0033669728
146	0xba6f795c	-0.00091352104
147	0xbda42b3f	-0.08016061
148	0xbd8362b0	-0.064153075
149	0xbd159c7d	-0.036526192
150	0xbdca9f0b	-0.09893616
151	0xbe0988f4	-0.1343115
152	0x3d5e19e8	0.054223925
153	0xbd90b9f8	-0.07066721
154	0xbc5b1977	-0.0133727705
155	0xbc6e064b	-0.014527868
156	0xbdc47065	-0.0959175
157	0xbcada2b4	-0.021195747
158	0xbdb2a3ed	-0.087226726
159	0xbe2214d5	-0.1582826
160	0xbe4e7bb1	-0.20164372
161	0x3e29836c	0.1655404
162	0x3d9d1526	0.07670049
163	0x3d6701c4	0.05639817
164	0x3d8d4d36	0.068994924
165	0x3db31397	0.08743971
166	0x3c28fb46	0.0103138145
167	0x3d0bafe5	0.034103293
168	0x3ccff1b1	0.025383802
169	0x3dbce29b	0.09222909
170	0x3d1143a8	0.035464913
171	0x3cbedcb6	0.023298603
172	0xbbd58461	-0.006516025
173	0xbbd58095	-0.0065155723
174	0x3d970855	0.07374636
175	0x3da867ad	0.082228996
176	0x3dcfdecd	0.10149918
177	0x3dcdeea4	0.10055283
178	0x3d3eaa79	0.046549294
179	0x3d9d1816	0.0767061
180	0x3d29970c	0.041403815
181	0xbc498ac0	-0.012301147
182	0xbcfb1471	-0.030649396
183	0xbd5ed6b7	-0.054403987
184	0x3d53c556	0.051701866
185	0xbcebe946	-0.028797757
186	0x3cdda766	0.02705736
187	0xbd84acb2	-0.064782515
188	0x3b99eddd	0.004697545
189	0xbc7c53b6	-0.015400818
190	0xbd188392	-0.03723485
191	0x3cf933a8	0.03042014
192	0xbda87205	-0.082248725
193	0xbd967e37	-0.07348292
194	0x3d57a157	0.0526441
195	0xbde3e813	-0.11128249
196	0xbda6dacb	-0.081472
197	0xbce17864	-0.027523227
198	0xbd286836	-0.04111501
199	0xbd878c74	-0.06618586
200	0x3c033b13	0.00800969
201	0xbde33aec	-0.11095223
202	0xbd853c3b	-0.06505629
203	0x3d0a4634	0.033758357
204	0xbd9b569f	-0.07584881
205	0xbd9193d8	-0.07108277
206	0x3dda4631	0.10657919
207	0xbdad0e24	-0.08449963
208	0xbd81e3c1	-0.06342269
209	0xbb06a1b9	-0.0020543172
210	0xbd608354	-0.054812744
211	0xbc8ca23a	-0.0171672
212	0x3b912deb	0.0044305227
213	0xbda14b4b	-0.07875689
214	0xbd37e543	-0.044896375
215	0x3cb78eb7	0.022406919
216	0xbe4035e6	-0.1877056
217	0xbe8f5f3a	-0.2800234
218	0x3debd601	0.115154274
219	0xbdbf76ee	-0.09348856
220	0xbc8294c4	-0.015940078
221	0xbba3523b	-0.004984168
222	0x3dd6cdaa	0.10488446
223	0xbcadff98	-0.02124004
224	0x3e22cd28	0.15898573
225	0xbd25ef1b	-0.040511232
226	0xbcc3d043	-0.023903018
227	0x3d0a606f	0.033783372
228	0xbcb7bfb8	-0.022430286
229	0x3c1d1c07	0.009589202
230	0x3c85420f	0.01626685
231	0x3d98e337	0.07465213
232	0x3dd60192	0.10449518
233	0x3d050818	0.032478422
234	0x3bef6bdc	0.007306559
235	0xbdcd36a9	-0.10020191
236	0xbd63c177	-0.055604424
237	0x3d9d86cb	0.07691725
238	0x3bccaa4d	0.0062458874
239	0xbcd812ac	-0.026376091
240	0x3daf7de0	0.085689306
241	0x3dd76372	0.105170146
242	0x3d055241	0.032549147
243	0xbccc752a	-0.024958212
244	0x3c15da08	0.009146221
245	0x3c88ec2f	0.016714184
246	0xbdae2556	-0.08503215
247	0x3d240fc8	0.040054113
248	0x3d016781	0.03159285
249	0x3af0e060	0.0018377416
250	0x3d0ac6ec	0.033881113
251	0xbc807af3	-0.015683627
252	0xbe05142e	-0.12995979
253	0xbdedd3da	-0.11612673
254	0xbda02f3f	-0.078215115
255	0xbde98292	-0.114018574

Generator.conv2.conv2.0.weight f4 [8, 8, 3, 3, 3]
0	0x3dc6b8d1	0.0970322
1	0xbd92490d	-0.071428396
2	0xbba78d96	-0.005113314
3	0x3daa071f	0.083021395
4	0x3d9cf129	0.07663185
5	0x3d8addd5	0.06780592
6	0x3d82f318	0.06394023
7	0x3d6ae9d7	0.057351913
8	0x3e042cf5	0.12907775
9	0x3e0fe952	0.14053848
10	0xbcc17bed	-0.023618663
11	0x3d58afbf	0.05290198
12	0x3cc67599	0.024225997
13	0xbc18cd29	-0.009326258
14	0xbd1e3d44	-0.038632646
15	0x3da61378	0.08109182
16	0xbd4c4688	-0.04987195
17	0x3d1c2824	0.03812422
18	0x3d43f464	0.04784049
19	0xbd8bbb09	-0.068227835
20	0xbd409530	-0.047017276
21	0x3d4a6c44	0.049419656
22	0xbdd485c4	-0.10377076
23	0xbdb8896e	-0.09010588
24	0xbdc23eb3	-0.09484615
25	0xbd394efa	-0.045241334
26	0xbd4aeeb7	-0.049544062
27	0x3e105e1c	0.140984
28	0x3de4e99b	0.11177369
29	0x3d0d4694	0.034491137
30	0x3d83a445	0.06427816
31	0x3dd1f0c5	0.10251001
32	0x3e2d351f	0.16914795
33	0x3d2acc26	0.041698597
34	0x3d28f321	0.04124749
35	0x3e026bce	0.12736437
36	0x3ddcdb1d	0.1078398
37	0x3d2c7834	0.042106822
38	0x3d1af54f	0.0378316
39	0x3ccc00bc	0.024902694
40	0x3deaf221	0.11471964
41	0x3d87a658	0.066235244
42	0xbbe9b42d	-0.0071320743
43	0x399bafe5	0.00029694955
44	0x3e032456	0.1280683
45	0x3caa033b	0.020753494
46	0x3d520f96	0.051284395
47	0x3c8ffbea	0.017576177
48	0x3cf89964	0.03034658
49	0x3d0b10e2	0.033951648
50	0x3d7a647b	0.061130982
51	0xbd256491	-0.04037911
52	0x3d848f51	0.06472648
53	0x3d3ef8a6	0.04662385
54	0x3e85c4df	0.26126763
55	0x3dc7322e	0.09726368
56	0x3d8ace3e	0.06777619
57	0xbcdccd82	-0.026953463
58	0xbdf5cba6	-0.120017335
59	0xbdf3f212	-0.119114056
60	0x3da04bc9	0.07826955
61	0xbb87319f	-0.0041257883
62	0xbd8ea3d2	-0.0696484
63	0xbb9705c0	-0.0046088398
64	0xbe0b43b9	-0.13600053
65	0x3b2a8eb1	0.0026024992
66	0xbe040a40	-0.12894535
67	0xbe0bd8f7	-0.13656984
68	0xbe4c8384	-0.19972044
69	0x3d0f1eb0	0.034941375
70	0xbc626f11	-0.013820426
71	0xbe3da8d1	-0.1852143
72	0xbcffb3b3	-0.031213617
73	0xbdca1d4c	-0.09868869
74	0x3e24570b	0.1604883
75	0xbde2affb	-0.11068722
76	0xbe27c7a6	-0.16384754
77	0x3c8e07d3	0.017337715
78	0x3d964f0e	0.07339297
79	0x3d14cf1d	0.03633033
80	0x3b955826	0.0045576273
81	0x3dc0118c	0.09378347
82	0x3d9f45b4	0.07776967
83	0x3e1ea23c	0.15491575
84	0x3d5dab43	0.054118406
85	0x3d0ef8ae	0.03490513
86	0x3d000232	0.031252094
87	0x3e317fb8	0.17333877
88	0x3ca5fddf	0.020262657
89	0x3c194863	0.009355637
90	0x3e1edd54	0.15514117
91	0x3c7ee10f	0.015556588
92	0x3ddaf343	0.1069093
93	0xbd664c6b	-0.05622522
94	0xbe0c5d9b	-0.13707583
95	0xbda5271a	-0.08064099
96	0xbcb39410	-0.021921188
97	0xbe17376f	-0.1476724
98	0x3c7f5a42	0.015585484
99	0xbc8b8295	-0.01703004
100	0xbd7d644e	-0.061863236
101	0x3d96f3bc	0.073707074
102	0xbde2b736	-0.11070101
103	0xbdadf533	-0.08494034
104	0xbd1b3b71	-0.037898485
105	0x3dd1e0f3	0.10247984
106	0xbd83bbc3	-0.06432297
107	0xbcb69ef2	-0.022292588
108	0xbdb737f5	-0.0894622
109	0xbd52da11	-0.051477496
110	0xbc9fa840	-0.019489408
111	0x3d4e5a75	0.050379235
112	0x3d9eae56	0.07748096
113	0x3c89f134	0.016838647
114	0x3d7c2875	0.06156202
115	0x3cfc48cc	0.030796431
116	0xbb99d449	-0.004694496
117	0xbe269eee	-0.16271564
118	0xbde4aa27	-0.111652665
119	0x3c4573d3	0.01205154
120	0xbd852b96	-0.06502454
121	0xbd710c22	-0.05884946
122	0x3cadd50a	0.021219749
123	0x3bc20601	0.005921126
124	0xbd1f6dbf	-0.03892302
125	0x3d1552dd	0.036455978
126	0xbe1a209c	-0.15051502
127	0xbdf4be8f	-0.11950409
128	0x3c9b801f	0.018981991
129	0x3e1c0dd2	0.15239647
130	0x3d48dfc0	0.04904151
131	0xbc528c75	-0.01285087
132	0x3dbe26cb	0.09284743
133	0xbd805848	-0.06266838
134	0xbe1e4613	-0.15456419
135	0x3d556aa2	0.052103646
136	0xbe8a13e2	-0.26968294
137	0xbe991589	-0.29899243
138	0xbd2fb601	-0.04289818
139	0xbe4cf703	-0.20016102
140	0xbd19cb64	-0.037547484
141	0xbe50ab14	-0.20377761
142	0xbe73a85a	-0.2379469
143	0x3dd80d97	0.10549467
144	0x3b72a62f	0.0037025323
145	0xbd0a3268	-0.033739477
146	0xbe28b14e	-0.16473886
147	0xbb99997b	-0.0046874858
148	0xbda842b8	-0.082158506
149	0xbe2cd1c1	-0.1687689
150	0x3c22c220	0.009933978
151	0xbe4cffff	-0.2001953
152	0xbe3946ed	-0.18093462
153	0x3dc17531	0.094461806
154	0xbcb9bf14	-0.022674121
155	0xbde03f04	-0.10949519
156	0x3d87a101	0.06622506
157	0xbcf5d318	-0.030007884
158	0xbe557b53	-0.20847826
159	0x3dbed1d4	0.09317365
160	0xbe336576	-0.17519173
161	0xbd7d578a	-0.061851062
162	0x3e28e2a8	0.16492712
163	0x3da4a733	0.08039703
164	0x3e62c52b	0.22145526
165	0xbd237913	-0.039910387
166	0xbc4f9b51	-0.012671308
167	0xbdde8518	-0.10865229
168	0x3d1a8660	0.037725806
169	0xbe2666fc	-0.16250223
170	0xbd74fc24	-0.059810773
171	0x3db67331	0.0890869
172	0x3d18890c	0.037240073
173	0x3e44ccf8	0.19218814
174	0x3daac1c9	0.08337743
175	0xbd1169ff	-0.035501476
176	0xbda9b936	-0.08287279
177	0xbcd8f2e3	-0.026483005
178	0xbda40ba2	-0.08010031
179	0xbd69365b	-0.056936603
180	0xbc63cb0c	-0.013903391
181	0x3e02f5e2	0.1278911
182	0x3da999c1	0.08281279
183	0x3c08b143	0.008343044
184	0xbcfeb080	-0.031090021
185	0xbe3448bf	-0.17605875
186	0x3d04cf59	0.032424305
187	0xbdeb35d5	-0.11484877
188	0xbe1fe6df	-0.15615414
189	0xbd8336fe	-0.06406973
190	0xbd440539	-0.047856543
191	0xbd9e31ed	-0.07724366
192	0xbdb2adf5	-0.08724586
193	0xbd94f381	-0.07273007
194	0xbdb065d3	-0.086131714
195	0xbd52370e	-0.051322035
196	0xbce1cfc5	-0.027564893
197	0x3cd6d971	0.026226731
198	0xbd9d0785	-0.0766745
199	0x3ae9e91d	0.0017845962
200	0xbd5d62fe	-0.054049484
201	0xbd2aa02b	-0.041656654
202	0xbd9e1eed	-0.077207424
203	0xbd41d9e1	-0.047326926
204	0x3ccb42c9	0.02481212
205	0x3c08598a	0.008322129
206	0xbc5b9e4a	-0.013404438
207	0x3e323381	0.1740246
208	0x3e2426ac	0.16030377
209	0x3e36f3f4	0.17866498
210	0x3d43f5c7	0.047841813
211	0x3dd093ed	0.101844646
212	0xbca95e3f	-0.020674823
213	0x3e107063	0.14105372
214	0x3bfea7cb	0.0077714673
215	0xbd2e9216	-0.042619787
216	0xbe49d662	-0.19710687
217	0xbdc0dc63	-0.094170354
218	0x3c937927	0.018002106
219	0xbddcab9e	-0.10774921
220	0xbd82fb9a	-0.063956454
221	0xbda994a9	-0.08280308
222	0xbe483637	-0.19551931
223	0xbcb3ea66	-0.021962356
224	0xbc3cf3fc	-0.01153278
225	0x3d1dd812	0.03853614
226	0x3d3a3741	0.04546285
227	0x3c29fb79	0.010374897
228	0x3d7a4c70	0.061108053
229	0x3d4bd13e	0.049760096
230	0x3cc756c5	0.024333367
231	0xbc2f2abd	-0.010691342
232	0x3c85ca84	0.016331919
233	0x3d7557e7	0.059898283
234	0x3d43ef98	0.047835916
235	0x3de93a87	0.11388116
236	0x3dbccb2b	0.09218439
237	0x3e2bbb13	0.16770582
238	0x3e042835	0.12905963
239	0x3db9b39b	0.0906746
240	0x3e17644c	0.14784354
241	0x3d36eb8c	0.04465823
242	0x3d43c2d3	0.04779322
243	0xbe30ed31	-0.17277981
244	0xbdf26784	-0.1183615
245	0xbbc226d0	-0.005925037
246	0xbdf44d6a	-0.11928828
247	0xbdc626eb	-0.09675392
248	0xbcb8352b	-0.02248629
249	0xbe974cd8	-0.29550815
250	0xbdf5fba9	-0.12010891
251	0x3d073cf5	0.033017118
252	0x3c08e1a7	0.008354581
253	0x3ca2fd65	0.019896219
254	0xbd8336bf	-0.06406926
255	0x3c779e0f	0.015113368

Generator.conv3.conv1.0.weight f4 [8, 8, 3, 3, 3]
0	0x3c5aeebe	0.013362585
1	0x3d9e64ad	0.07734046
2	0xbca87e84	-0.02056814
3	0xbc90426f	-0.017609803
4	0x3c88990d	0.016674543
5	0x3d5905e8	0.05298415
6	0x3d7ff0c2	0.062485464
7	0xbce74de1	-0.028235378
8	0x3cd7b079	0.026329266
9	0xbcc7d745	-0.02439464
10	0x3cf2877b	0.029605618
11	0xbd84949f	-0.0647366
12	0x3c67ce86	0.01414836
13	0xbc8e3c3f	-0.017362712
14	0xbdb30561	-0.0874126
15	0xbd512379	-0.05105922
16	0x3cfa4d47	0.030554427
17	0xbd150ccc	-0.036389157
18	0xbd187f80	-0.03723097
19	0x3d859fa9	0.065245934
20	0xbcb08561	-0.021547975
21	0x3d573711	0.05254275
22	0xbd519131	-0.051163856
23	0xbbe838d4	-0.0070868526
24	0xbcadbf75	-0.021209458
25	0x3d00b53b	0.031422835
26	0xbd612909	-0.054970775
27	0xbd6eecee	-0.058331423
28	0x3d0de746	0.034644388
29	0x3cd071cb	0.025444886
30	0x3c5004be	0.012696443
31	0xbce8095f	-0.028324781
32	0xbd841ae1	-0.06450439
33	0x3d53fa9e	0.05175268
34	0xbb8ddb63	-0.0043291315
35	0x3d3937a1	0.045219067
36	0x3c323a8d	0.010878217
37	0x3d841e84	0.06451133
38	0x3ddaaad6	0.106771156
39	0xbbd88dae	-0.0066086864
40	0xbd3c9bc4	-0.046046987
41	0xbdc2cbaf	-0.09511506
42	0x3c41226e	0.011787994
43	0xbd9cb704	-0.07652095
44	0x3cc98008	0.024597183
45	0xbc9e1bd3	-0.019300377
46	0x3de6926f	0.11258399
47	0xbd06132c	-0.032733127
48	0x3d7e3e33	0.062071037
49	0xbd3a4bb0	-0.045482337
50	0xbdafa8e7	-0.085771374
51	0xbdd8c592	-0.105845585
52	0xbdced605	-0.10099415
53	0x3d66992c	0.05629842
54	0xbd38be4d	-0.04510336
55	0xbce85fc2	-0.028365973
56	0xbd00f826	-0.031486653
57	0xbd3ae52a	-0.045628704
58	0xbca52f93	-0.020164287
59	0x3cd28e34	0.025702573
60	0x3bf17ab9	0.007369366
61	0xbc5282c8	-0.0128485635
62	0x3cddae4a	0.027060647
63	0x3d560408	0.05224994
64	0x3d0e8c34	0.034801677
65	0x3d6ffb31	0.058589164
66	0xbce68434	-0.028139211
67	0x3dc6075e	0.09669374
68	0x3d597069	0.05308572
69	0xbd12d4e1	-0.03584755
70	0x3a0da12f	0.00054027414
71	0xbca21ee4	-0.01979012
72	0x3d98b717	0.074567966
73	0xbd5754cd	-0.052571107
74	0x3c9b320b	0.01894476
75	0x3b8bdc80	0.004268229
76	0x3da2c792	0.07948221
77	0xbd2525b3	-0.040319156
78	0x3d8ecd28	0.06972724
79	0xbd674308	-0.05646041
80	0xbd80131e	-0.06253646
81	0x3cb8f291	0.022576602
82	0xbafa8d5d	-0.0019115616
83	0x3b7c1b0c	0.003846827
84	0xbce40fe3	-0.027839607
85	0x3d37943f	0.044819113
86	0xbd872c20	-0.06600213
87	0x3d461abf	0.04836535
88	0xbc14f925	-0.009092604
89	0x3d5cdf31	0.05392379
90	0xbc78282e	-0.015146298
91	0x3d220af0	0.039561212
92	0x3d08e880	0.033424854
93	0xbd58113a	-0.052750804
94	0x3d8b1712	0.0679151
95	0xbda2d875	-0.07951442
96	0xbdaef7dd	-0.0854337
97	0xbc2e7699	-0.010648393
98	0xbb8c2af6	-0.0042775823
99	0xbd1f083a	-0.038826205
100	0x3d6f6696	0.058447443
101	0xbc686181	-0.014183403
102	0x3d88eef4	0.06686202
103	0x3e0d5e89	0.13805594
104	0x3ce4e9fa	0.0279436
105	0xbcfd8e59	-0.030951666
106	0xbc91f2cf	-0.017815975
107	0xbd9b9a5c	-0.07597801
108	0x3daca7ed	0.08430467
109	0xbd6e5ff2	-0.05819697
110	0x3b34ff57	0.0027618015
111	0x3d4e91fc	0.05043219
112	0xbda9932a	-0.082800224
113	0x3d5b75a3	0.053578984
114	0x3dad2f16	0.084562466
115	0x3d2a0cfa	0.04151628
116	0xbcd98f9f	-0.026557742
117	0x3d78f132	0.060776897
118	0x3dac13d0	0.084022164
119	0x3d8734ba	0.06601854
120	0x3bc7df46	0.0060996143
121	0x3d6899c2	0.05678726
122	0x3dd0b7d5	0.10191313
123	0x3d309971	0.043115083
124	0x3d8b3724	0.067976266
125	0xbd18773d	-0.03722309
126	0xbbd221f5	-0.0064127394
127	0xbc3d71bc	-0.011562761
128	0x3c9652e0	0.018350065
129	0xbd80deb0	-0.06292474
130	0xbd425db1	-0.047452632
131	0xbc67ebca	-0.014155338
132	0x3d2ed027	0.04267898
133	0xbd33e603	-0.04392053
134	0xbcb8d6a1	-0.02256328
135	0xbd97a621	-0.074047334
136	0x3ca6189e	0.02027541
137	0x3cd4530c	0.025918506
138	0xbc86a666	-0.016436767
139	0x3da0bdb4	0.07848683
140	0xbd6bde4c	-0.057585046
141	0xbd31c15f	-0.043397304
142	0xbc7f0328	-0.015564717
143	0x3d077c7b	0.0330777
144	0x3c6b9485	0.014378672
145	0x3d8a7a95	0.06761662
146	0x3d12b2f9	0.035815213
147	0xbd303223	-0.043016564
148	0x3d397dcb	0.04528598
149	0xbc3ac41d	-0.011399296
150	0xbd754aa5	-0.05988564
151	0xbd73b31d	-0.059496988
152	0x3d24fb97	0.040278997
153	0xbd56efc5	-0.052474756
154	0x3d6fd2e5	0.058550734
155	0xbd72986d	-0.059227396
156	0x3d3dc18c	0.04632716
157	0x3dca87c4	0.098891765
158	0x3d48e151	0.049043003
159	0x3d6bec53	0.057598423
160	0xbdab5073	-0.08364954
161	0xbcfc1663	-0.030772394
162	0xbd5d33e8	-0.05400458
163	0x3d6780fb	0.05651949
164	0xbcb5f502	-0.022211555
165	0xbcd0d864	-0.025493808
166	0xbd194157	-0.03741583
167	0xbd0847e0	-0.03327167
168	0x3dd0595c	0.10173294
169	0x3b5bf5e5	0.0033563313
170	0x3d1d5e80	0.0384202
171	0x3d5e686a	0.054298796
172	0xbb13848c	-0.0022509424
173	0x3d9871bb	0.07443567
174	0x3d99e23a	0.075138524
175	0xbd156fa7	-0.036483433
176	0x3d2e06f2	0.042487092
177	0x3cde9fe9	0.02717586
178	0x3c69ac83	0.014262321
179	0x3c88187b	0.016613236
180	0x3cf46ead	0.02983793
181	0x3bcface5	0.0063377493
182	0xbdfa6c23	-0.12227657
183	0x3d48e29c	0.049044237
184	0x3df74501	0.12073708
185	0xbc3ba88e	-0.011453761
186	0xbdc362d3	-0.095403336
187	0x3dd7d80c	0.105392545
188	0x3c4ca7a8	0.012491144
189	0xbb293aa4	-0.0025822306
190	0xbc3e8b2e	-0.011629863
191	0x3c4c7669	0.012479403
192	0x3c8aedaf	0.01695904
193	0x3d19be02	0.03753472
194	0xbcb7a587	-0.022417797
195	0xbd97d663	-0.07413938
196	0xbc463463	-0.012097451
197	0xba912662	-0.0011074061
198	0xbc64ba3a	-0.0139604155
199	0x39bd64ff	0.00036124137
200	0x3c116094	0.008873124
201	0x3cfeac4a	0.031088013
202	0x3e104b97	0.14091335
203	0x3d32ab76	0.04362055
204	0xbbc47649	-0.005995546
205	0xbd1aaa99	-0.03776035
206	0x3d69a605	0.057043094
207	0xbd601338	-0.05470583
208	0xbdc7342b	-0.09726747
209	0xbc1b9ed9	-0.009498321
210	0x3d5ac509	0.053410564
211	0x3de8abb8	0.11360878
212	0xbdb1ffa6	-0.08691339
213	0xbd185f06	-0.037199996
214	0xbd43baa7	-0.047785427
215	0xbd6759c8	-0.056482106
216	0x3c241f9c	0.010017302
217	0xbd388fb7	-0.045058932
218	0x3b51889b	0.0031972292
219	0x3d3874de	0.04503333
220	0x3c1e88fa	0.009676212
221	0x3d341acf	0.04397088
222	0xbb4aa7b9	-0.0030922724
223	0x3d7ebb83	0.062190544
224	0x3d48cd45	0.049023885
225	0x3e03c4cf	0.12868045
226	0xbd7da96e	-0.06192916
227	0x3c885cf2	0.016645882
228	0x3db05bb6	0.086112425
229	0x3d2ae7fb	0.04172514
230	0xbdba2795	-0.09089581
231	0xbd1ecc25	-0.038768906
232	0x3d23101e	0.039810292
233	0xbe32b4f7	-0.17451845
234	0x3cd99d67	0.026564313
235	0xbc1af360	-0.009457439
236	0x3d0a30d6	0.03373798
237	0x3d7478b2	0.059685417
238	0xbc6a9699	-0.014318132
239	0xbd2495b6	-0.040181838
240	0xbd82de5f	-0.0639007
241	0xbd805eba	-0.06268068
242	0x3cbe7d82	0.023253206
243	0x3bcdac46	0.00627664
244	0xbdfc6ea4	-0.123257905
245	0xbe35c109	-0.17749418
246	0x3cd45fb1	0.025924535
247	0x3d7f412c	0.062318012
248	0xbe1bbc84	-0.15208632
249	0x3da88bff	0.08229827
250	0x3d7b7bdc	0.06139742
251	0xbb8ce53a	-0.004299787
252	0x3d823d8c	0.063593954
253	0x3b68b4d7	0.003550818
254	0xbcf966f7	-0.030444605
255	0x3dbfec99	0.09371299

Generator.conv3.conv2.0.weight f4 [8, 8, 3, 3, 3]
0	0x3d311f02	0.043242462
1	0x3b409fbe	0.0029392089
2	0xbcc9d641	-0.024638297
3	0xbca6324f	-0.02028766
4	0x3d8ccd3f	0.06875085
5	0xbd4d02d0	-0.05005151
6	0xbd7706d2	-0.06030924
7	0xbc99a07d	-0.018753285
8	0xbdbe63b2	-0.09296359
9	0x3d199d37	0.037503447
10	0xbcba85e7	-0.022768928
11	0x3d663a27	0.056207802
12	0x3a08ea96	0.00052229443
13	0x3d7f53de	0.06233584
14	0xbcbec6fb	-0.02328824
15	0xbb9fcf8a	-0.0048770355
16	0x3c93ded5	0.01805059
17	0xbd93c0b0	-0.072144866
18	0x3c28ca48	0.010302134
19	0x3cc482f1	0.023988219
20	0x3ca19e98	0.019728944
21	0x3d8948ed	0.067033626
22	0x3e0162d3	0.12635355
23	0x3e295e05	0.16539772
24	0x3d8c7f27	0.0686019
25	0x3dda17a1	0.10649038
26	0x3d99dfe0	0.07513404
27	0x3dfb599d	0.12272952
28	0xbe0b9ed1	-0.13634802
29	0xbe678fab	-0.22613399
30	0x3e1350c4	0.14386278
31	0xbddaf1fe	-0.106906876
32	0xbdaea578	-0.085276544
33	0x3d6c0c5f	0.057628985
34	0x3db6ae91	0.08920015
35	0xbb8e1a90	-0.0043366626
36	0x3da8c86b	0.08241352
37	0xbdd06b5b	-0.101767264
38	0xbe1c6f76	-0.15276894
39	0xbdbf67cc	-0.093459696
40	0xbdd47228	-0.10373336
41	0xbd3b25ce	-0.04569035
42	0xbe05b4d8	-0.13057268
43	0xbe251b13	-0.16123609
44	0xbe49b1cc	-0.1969673
45	0x3dca32d1	0.09872974
46	0x3a014f2e	0.0004932758
47	0xbe11ced6	-0.14239058
48	0xbbb0db2f	-0.0053972225
49	0xbce08918	-0.027409121
50	0xbe1840f8	-0.14868534
51	0xbd90cedb	-0.070707045
52	0xbd907b1c	-0.07054731
53	0xbe1f414f	-0.15552257
54	0x3d5c60ac	0.05380313
55	0x3ce88954	0.028385796
56	0xbeb80358	-0.3594005
57	0x3d9a1974	0.07524386
58	0xbd5ea631	-0.05435771
59	0x3c2e5ce8	0.010642268
60	0x3dea4f21	0.11440874
61	0x3e5ab515	0.2135814
62	0x3cf23629	0.029566841
63	0x3df44e0d	0.119289495
64	0xbd25d2a2	-0.04048408
65	0xbcfae3f8	-0.030626282
66	0x3da01486	0.078164145
67	0x3c1e77f3	0.009672153
68	0xbd15e626	-0.03659644
69	0x3c980553	0.018557226
70	0x3ea3de3c	0.3200549
71	0xbd15aad0	-0.036539853
72	0x3e2b0bd6	0.16703734
73	0x3e0ad0d5	0.13556226
74	0x3df6827a	0.12036605
75	0x3e0cf658	0.13765848
76	0x3e2e7468	0.17036593
77	0x3e17487d	0.14773746
78	0xbe1cb7d8	-0.15304506
79	0x3dffb924	0.12486485
80	0x3e08714d	0.13324471
81	0xbd7da7cc	-0.0619276
82	0x3db1b745	0.08677534
83	0x3b56582f	0.003270637
84	0xbdaadd8e	-0.083430395
85	0xbd43b183	-0.04777671
86	0x3d60b8fd	0.05486392
87	0x3d59eb20	0.05320275
88	0x3b3f0477	0.0029146948
89	0xbd216391	-0.039401595
90	0xbe14fcad	-0.14549513
91	0x3c5e1e3c	0.013557013
92	0x3c903b03	0.017606264
93	0xbe283506	-0.16426477
94	0xbe75f5a6	-0.24019489
95	0x3d4d314c	0.05009584
96	0xbc8d9bfe	-0.017286297
97	0xbe350483	-0.17677502
98	0xbd9c0f82	-0.076201454
99	0xbe54105b	-0.20709364
100	0xbdf31c54	-0.118706375
101	0xbd04251c	-0.032261953
102	0xbc912076	-0.017715674
103	0xbe8b21fc	-0.27174366
104	0xbcb89566	-0.022532176
105	0x3dc99bb8	0.09844154
106	0xbd580678	-0.052740544
107	0xbd02f1d5	-0.03196891
108	0xbee24297	-0.4419143
109	0xbe4b8ddc	-0.19878334
110	0xbc60f885	-0.013731127
111	0xbe19e795	-0.15029748
112	0xbd965eeb	-0.07342323
113	0xbd0bbb49	-0.034114156
114	0xbd76d55e	-0.060262077
115	0xbe04f1e8	-0.12982905
116	0xbd221313	-0.03956897
117	0xbc25cdba	-0.01011985
118	0x3cea2e6f	0.028586594
119	0x3d24d493	0.04024179
120	0x3d0eea68	0.034891516
121	0x3d2fe92c	0.04294698
122	0xbd221809	-0.039573703
123	0xbd48ce56	-0.049024902
124	0x3c6fed70	0.014644012
125	0xbd2a1483	-0.041523468
126	0xbeef6041	-0.46753123
127	0xbe8b552e	-0.27213424
128	0xbcb458cf	-0.022015003
129	0xbeaf4bdb	-0.3423756
130	0xbea22439	-0.3166826
131	0xbdbecdd0	-0.09316599
132	0x3e07decc	0.13268584
133	0x3cb42291	0.021989139
134	0x3dacf127	0.08444434
135	0x3c663951	0.014051751
136	0xbc3b15bd	-0.011418757
137	0xbe852077	-0.2600133
138	0xbe0afaa6	-0.13572177
139	0xbd1c33d4	-0.038135365
140	0x3d1e6a62	0.038675673
141	0x3e951100	0.29114532
142	0xbcf80b50	-0.030278832
143	0x3de281b4	0.11059895
144	0xbe133efc	-0.14379495
145	0xbdbf2c54	-0.09334627
146	0xbdb533f6	-0.088478014
147	0xbd6444ac	-0.055729553
148	0x3bd113f7	0.006380554
149	0x3d841058	0.0644843
150	0x3e3f538f	0.18684219
151	0xbd41a484	-0.047276035
152	0x3e2ae66b	0.1668946
153	0x3d12ce31	0.03584117
154	0x3e150416	0.1455234
155	0xbd9d567f	-0.076825134
156	0x3dd73808	0.10508734
157	0x3d194b09	0.037425075
158	0x3d59c184	0.053163067
159	0x3ea51780	0.32244492
160	0x3cd8e251	0.026475104
161	0xbd10bfba	-0.035339095
162	0x3e2e0484	0.1699391
163	0x3e05abaa	0.13053766
164	0x3e259ca5	0.16173036
165	0xbcc11ad4	-0.023572363
166	0xbd852a85	-0.065022506
167	0x3da4127d	0.08011339
168	0xbe3df34f	-0.18549846
169	0xbe35d649	-0.17757525
170	0x3e375472	0.17903307
171	0x3d2ff705	0.042960186
172	0x3d392b4b	0.045207303
173	0x3e090731	0.1338165
174	0xbdf13d97	-0.117793255
175	0xbe09da73	-0.13462238
176	0x3dd84075	0.10559169
177	0xbe190492	-0.1494315
178	0xbb8b6f22	-0.0042551914
179	0x3dfae19f	0.12250065
180	0xbe4c223d	-0.19934936
181	0xbd79b644	-0.060964838
182	0x3e204f53	0.1565526
183	0xbe27898b	-0.16361062
184	0xbdca7014	-0.098846585
185	0x3e77dc67	0.2420517
186	0xbd108355	-0.035281498
187	0x3df801b1	0.121096976
188	0x3dfe7acb	0.12425765
189	0xbc009a1b	-0.007849242
190	0xbd66aaf9	-0.056315396
191	0x3dc1d020	0.09463525
192	0xbd40eb99	-0.047099683
193	0xbd36f303	-0.044665348
194	0x3dc05af1	0.09392346
195	0xbdd14174	-0.10217562
196	0x3b3ccdfd	0.0028809302
197	0x3e48690f	0.19571327
198	0x3e37fb38	0.17966926
199	0x3d5eaa31	0.054361526
200	0x3db37974	0.087634
201	0x3d4441cf	0.047914322
202	0x3cfedaf7	0.03111027
203	0x3bf603ed	0.007507792
204	0xbdab478c	-0.08363256
205	0x3da48a7d	0.08034227
206	0xbcbba23e	-0.022904512
207	0x3e33f738	0.17574775
208	0x3c73faf9	0.0148913795
209	0xbc9810bb	-0.018562665
210	0x3e310939	0.17288674
211	0x3d97488d	0.07386885
212	0x3d444bf6	0.047924004
213	0x3df12bb8	0.11775917
214	0x3e25d19c	0.16193241
215	0xbd3926d8	-0.04520306
216	0xbba4378a	-0.0050115036
217	0xbc88666c	-0.016650401
218	0xbd0bd5ca	-0.034139432
219	0x3c495007	0.012287146
220	0xbdc0cbfe	-0.094139084
221	0xbdc2fd6a	-0.09520991
222	0x3d5cecf3	0.05393691
223	0xbc9a0a75	-0.018803814
224	0x3d83c6e7	0.06434422
225	0xbc284b4c	-0.010271858
226	0xbd590c5e	-0.05299031
227	0xbd114d65	-0.0354742
228	0xbc52c220	-0.012863666
229	0x3d1f4196	0.038880907
230	0xbd4a4d4f	-0.049390133
231	0x3d64fa84	0.055902973
232	0xbc5794ed	-0.013158065
233	0x3d2be533	0.04196663
234	0xbc02605c	-0.007957544
235	0x3dcb553b	0.09928366
236	0x3e039785	0.12850769
237	0x3d2c6d7c	0.0420966
238	0x3d377043	0.044784795
239	0x3d4c3aef	0.04986089
240	0x3dd28646	0.10279517
241	0xbcce6f5c	-0.025199585
242	0x3bbf4ba4	0.0058378745
243	0xbc9d8318	-0.01922755
244	0xbc05f741	-0.008176626
245	0xbe07daf5	-0.13267119
246	0x3da81190	0.08206475
247	0x3dc54683	0.0963259
248	0x3d47c36c	0.048770353
249	0x3e12e57e	0.14345357
250	0x3c2bd88f	0.010488643
251	0x3dda5c49	0.10662133
252	0x3d0fe7ad	0.035133053
253	0x3dfab1ab	0.12240919
254	0xbd75779c	-0.05992852
255	0x3dda7987	0.10667711

Generator.conv4.conv1.0.weight f4 [8, 8, 3, 3, 3]
0	0xbd3aeb5e	-0.04563462
1	0x3cc9f1f0	0.024651498
2	0xbca8a90a	-0.020588417
3	0xbc02ac43	-0.007975641
4	0x3d5469e4	0.051858798
5	0xbb293169	-0.0025816804
6	0xbaa25c14	-0.001238706
7	0x3d2e579c	0.04256402
8	0xbc4e3ba2	-0.01258746
9	0xbd4b92de	-0.04970061
10	0xbca121eb	-0.019669494
11	0xbd957273	-0.0729722
12	0xbd9b3253	-0.07577958
13	0xbd1af139	-0.037827704
14	0xbd7ff7b6	-0.062492095
15	0x3dbd7bd8	0.09252137
16	0x3ceb1002	0.028694157
17	0x3d77cffa	0.060501076
18	0x3d15fcb1	0.03661794
19	0x3c8aaa96	0.016927045
20	0x3d9f25c3	0.07770874
21	0x3d152347	0.036410596
22	0xbe045177	-0.12921701
23	0x3c96d7b9	0.018413411
24	0xbd89b67d	-0.0672426
25	0xbd64e00a	-0.055877723
26	0x3c94dd0e	0.018171813
27	0xbd28118c	-0.04103236
28	0x3d432d45	0.047650594
29	0x3db2bb49	0.08727128
30	0xbb9f9170	-0.0048696324
31	0x3d7e84ac	0.062138245
32	0x3d659cf0	0.05605787
33	0xbdca84d2	-0.09888615
34	0x3d8a1241	0.06741763
35	0xbcdc8eba	-0.026923526
36	0xbc399ccd	-0.011328888
37	0xbd1d3540	-0.03838086
38	0xbd8bd1e8	-0.06827146
39	0x3c04eada	0.008112634
40	0xbce46ca1	-0.02788383
41	0xbd68c29c	-0.05682622
42	0x3c47ee41	0.0122028
43	0x3d401420	0.046894193
44	0x3d334752	0.04376919
45	0x3d8b6e43	0.0680814
46	0xbd58ef64	-0.052962676
47	0xbda33ae5	-0.079702176
48	0x3d59be2f	0.05315989
49	0xbd2281c3	-0.03967453
50	0x3c1a8778	0.009431712
51	0x3da2befc	0.07946584
52	0x3d46a2f9	0.048495267
53	0x3cc07816	0.023494761
54	0xbdfe2f6f	-0.12411391
55	0xbe045d27	-0.1292616
56	0xbdee77e1	-0.11643959
57	0xbd1a27a5	-0.037635464
58	0x3d4d4a50	0.050119698
59	0xbd833ab6	-0.064076826
60	0x3d203327	0.039111283
61	0x3d452e7f	0.048140045
62	0x3c7eb4b8	0.015546016
63	0xbc961881	-0.018322231
64	0xbe223ad2	-0.1584275
65	0xbd912513	-0.070871495
66	0x3c82beed	0.015960181
67	0xbd80d163	-0.06289937
68	0xbd91cb78	-0.07118887
69	0x3b9a813d	0.0047151134
70	0x3d879cec	0.06621727
71	0x3c95572e	0.018230047
72	0x3db459c5	0.08806185
73	0x3c579e13	0.013160246
74	0xbc21c1d0	-0.009872869
75	0xbc96ec09	-0.018423097
76	0xbdf1cd4d	-0.11806736
77	0x3cc77564	0.024347968
78	0xbd1e18ec	-0.038597986
79	0xbd710a1d	-0.058847535
80	0xbcac0629	-0.020999031
81	0x3c81ee8f	0.015860824
82	0xbbc7ffde	-0.0061035
83	0xbd2e5bd6	-0.04256805
84	0x3b1625e7	0.0022910775
85	0xbd08a4a7	-0.03336015
86	0xbdb3b06c	-0.08773884
87	0x3d1f90e6	0.038956545
88	0x3caa7b1b	0.020810654
89	0x3d8d5a27	0.06901961
90	0x3c881b3f	0.016614554
91	0xbd46efeb	-0.048568647
92	0xbc9b4ad3	-0.018956577
93	0xbaf1c079	-0.0018444202
94	0xbd92ed5e	-0.071741804
95	0xbd17b7e4	-0.037040606
96	0x3de7ca4f	0.11317884
97	0x3dd683b0	0.10474336
98	0x3d42da32	0.04757137
99	0xbc8ccf43	-0.017188674
100	0xbd9e3ebe	-0.07726811
101	0xbd753a21	-0.05986989
102	0xbc855e8a	-0.016280431
103	0x3bc6ac02	0.0060629854
104	0xbe043c60	-0.12913656
105	0x3dc62b98	0.096762836
106	0x3ca86a85	0.020558605
107	0x3cd7d647	0.026347293
108	0xbdd54f64	-0.10415533
109	0xbda08aee	-0.07838999
110	0x3cbd8383	0.023133999
111	0xbcaf2956	-0.021382015
112	0x3d73194c	0.059350297
113	0x3ce6c8eb	0.028171977
114	0x3cfbf6e9	0.030757384
115	0x3d887ec0	0.06664801
116	0x3c94e29f	0.018174468
117	0xbbc643a6	-0.006050545
118	0xbb266054	-0.0025387006
119	0x3c41c17f	0.011825918
120	0xbcb0d307	-0.021585
121	0xbad4ffbe	-0.0016250534
122	0x3d718eb9	0.058974
123	0x3d12347f	0.035694595
124	0x3c2531a8	0.01008264
125	0x3c62e811	0.013849274
126	0x3daa854e	0.08326207
127	0xbce7c5b4	-0.028292514
128	0x3dbd4d8e	0.09243308
129	0x3d1f0942	0.03882719
130	0x3cabeed1	0.0209879
131	0xbc9dbe68	-0.019255832
132	0xbc302dd8	-0.0107531175
133	0x3d577d2b	0.052609604
134	0x3c5ac427	0.01335243
135	0xbc782d30	-0.015147492
136	0x3cbc4b1a	0.02298503
137	0xbdc51c89	-0.09624583
138	0x3cfccd03	0.030859476
139	0x3e06b4aa	0.13154855
140	0x3ce2aa75	0.02766917
141	0x3d96658e	0.07343589
142	0x3d609c11	0.054836337
143	0xbd1edbfd	-0.038784016
144	0x3a7f6d95	0.0009743807
145	0x3c8b2310	0.016984493
146	0xbd2affb2	-0.041747756
147	0xbd0d8469	-0.034550104
148	0xbd854bbe	-0.06508587
149	0xbb9040ed	-0.004402271
150	0x3c515b78	0.0127781555
151	0x3c953ca3	0.01821739
152	0xbbe62ad2	-0.0070241475
153	0x3d81fb5a	0.0634677
154	0xbcc8bfb9	-0.024505483
155	0xbc7638a7	-0.015028155
156	0x3c81e23a	0.015854944
157	0xbd4f752b	-0.05064885
158	0xbd7de8d1	-0.06198961
159	0x3ca65b57	0.020307226
160	0xbd733bc8	-0.059383184
161	0xbd0fd89d	-0.035118688
162	0xbe09512c	-0.13409871
163	0xbb29cf57	-0.0025910938
164	0xbdf10eaf	-0.11770379
165	0x3c14e0a7	0.009086764
166	0x3dc7d75e	0.09757875
167	0x3daf9de0	0.08575034
168	0xba2b87d6	-0.00065433735
169	0x3c670ae0	0.014101714
170	0x3c2fbbfd	0.010725972
171	0xbdd5274a	-0.104078844
172	0xbd3c8469	-0.046024714
173	0x3cbb7426	0.022882532
174	0xbceb84d5	-0.028749863
175	0xbe14000f	-0.14453147
176	0xbb9ca9bd	-0.0047809766
177	0x3d923e7f	0.071408264
178	0x3da603f0	0.0810622
179	0x3bb9e1fe	0.0056726923
180	0x3dcf7abf	0.10130834
181	0x3e0936a5	0.13399751
182	0x3cbe485d	0.023227865
183	0xbd144e2e	-0.03620737
184	0xbd061714	-0.032736853
185	0x3c8ea635	0.017413238
186	0xbd86afcb	-0.065764986
187	0xbca0e587	-0.019640697
188	0xbc9f7d72	-0.019468997
189	0xbd423d40	-0.047421694
190	0xbd73afc1	-0.059493784
191	0xbde4b001	-0.111663826
192	0x3a37fbfa	0.00070184434
193	0x3c10be67	0.008834458
194	0xbd34cc97	-0.044140425
195	0x3caf2805	0.021381387
196	0xbc7a0b51	-0.015261487
197	0x3d123a17	0.03569993
198	0x3ccdbf2b	0.02511557
199	0xbdfd751c	-0.123758525
200	0x3cb4c46d	0.02206632
201	0x3cfec06a	0.03109761
202	0xbd3998d9	-0.045311783
203	0xbc96cd2e	-0.018408384
204	0x3dbf09ea	0.09328063
205	0x3da0c3e1	0.07849861
206	0xbd0a92a3	-0.03383125
207	0x3d86aab2	0.06575526
208	0x3c258588	0.010102637
209	0xbd98fa99	-0.07469673
210	0x3c66f97f	0.01409757
211	0xbd99b01a	-0.07504292
212	0xbde4a82c	-0.11164889
213	0x3c04bb7c	0.00810134
214	0xbc882db9	-0.016623365
215	0x3d0f3f29	0.034972344
216	0xbc5e0324	-0.0135505535
217	0x3daf73d6	0.08567016
218	0x3d73d17b	0.059525948
219	0x3cc44289	0.023957508
220	0x3df1d5ea	0.11808379
221	0x3d4c1e13	0.04983337
222	0xbd433116	-0.047654234
223	0x3cb9b9c5	0.02267159
224	0x3d5676a7	0.05235925
225	0x3d321410	0.043476164
226	0x3d54028c	0.05176024
227	0x3c3dfa94	0.011595387
228	0xbd5a3df1	-0.05328173
229	0x3cfd709f	0.030937491
230	0x3d72d604	0.059286132
231	0xbb44d336	-0.0030033118
232	0x3c23e704	0.010003809
233	0x3d1d4693	0.038397383
234	0x3c5e453e	0.013566313
235	0xbd9eab7c	-0.07747552
236	0xbd541365	-0.05177631
237	0x3d3bb661	0.045828227
238	0xbe044b79	-0.12919416
239	0xbdf944ac	-0.12171301
240	0x3d838e33	0.06423607
241	0x3c947523	0.018122261
242	0xbd557ca6	-0.052120827
243	0xbd5778ca	-0.052605428
244	0x3db518d2	0.08842625
245	0x3dc4836c	0.09595379
246	0xbd9d586a	-0.07682879
247	0x3e00ec02	0.1259003
248	0x3dd3c7ce	0.10340844
249	0xb9ad82e4	-0.00033094652
250	0xbdd6f4a1	-0.10495878
251	0xbd2e89c0	-0.042611837
252	0xbbf44f94	-0.0074557755
253	0x3d1d4995	0.03840025
254	0x3c1166a6	0.008874571
255	0xbc86f32f	-0.01647338
