DeepWonder3D_pytorch/pth/SEG_pth/Unet4_no_end_UNet3DFFD_20240401-1432_2um/seg_8.pth (torch, 138281 bytes, 19 tensors)

Generator.conv1.conv1.0.weight f4 [8, 1, 3, 3, 3]
000000 ba 5c e6 3d 87 bf e3 3d e4 bc 0a bd 5d 3e 1c 3e
       0.11248155 0.11120515 -0.033871546 0.15258165
000010 b2 5b d6 bd 4f 18 c7 bd be c5 05 3d 15 63 f7 3c
       -0.10466708 -0.09721433 0.032659285 0.030198613
000020 a5 d8 07 3e e6 1a c3 3c 10 50 20 be 11 7f d7 3d
       0.13266237 0.023816537 -0.15655541 0.10522283
000030 f3 29 03 3e 49 d3 ed 3d 74 c3 6a 3d 4a d4 2a be
       0.12808971 0.11612565 0.057315305 -0.16682544
000040 56 fb e4 3d 07 7b 31 be 06 a4 23 be 8b 6c 18 be
       0.11180751 -0.17332087 -0.15980539 -0.14885156
000050 71 b4 b9 bd 52 d1 bf 3c 8d 5c 97 bd 3e e5 33 3d
       -0.090676196 0.023415241 -0.073906995 0.043919794
000060 11 82 5b be d3 2e 94 bd 11 79 67 3d 4b b3 17 3e
       -0.21436335 -0.072354935 0.056511942 0.14814489
000070 54 5d 0c 3e 48 5e df ba 4a 81 cf 3d c9 11 07 be
       0.13707477 -0.0017041648 0.10132082 -0.13190378
000080 ba 49 3c be e0 2e 34 3e ed 97 3d 3d 4b ca 7c bd
       -0.183875 0.17596006 0.046287466 -0.06171636
000090 c2 c2 fa bd 68 e8 0d 3e 81 88 83 bd 45 d6 ef bd
       -0.12244178 0.13858187 -0.064225204 -0.117107905
0000a0 00 97 a5 bd 34 c4 0d bb cd 1e 29 be 9d 4e 4c be
       -0.080854416 -0.0021631839 -0.16515656 -0.19951864
0000b0 e1 af 63 bc 4c 85 cb 3d 35 19 e5 3a 3f a0 2e 3e
       -0.013896913 0.09937534 0.0017478826 0.17053317
0000c0 14 97 36 3e 93 3a c7 bd aa 27 11 3e 99 fb f4 3d
       0.17831069 -0.09727969 0.14175287 0.11962051
0000d0 eb 7e ef bd b4 cc 9f bd f8 f7 95 3d 0c e0 01 bd
       -0.116941296 -0.07802716 0.07322687 -0.03170781
0000e0 fa 51 e2 bd 9b c6 dc 3c fc e7 ca 3d 71 0f ed bb
       -0.11050792 0.026950171 0.09907529 -0.007234507
0000f0 28 f9 22 be b2 bd e1 bd 21 af 77 bd 12 82 28 3d
       -0.15915358 -0.1102251 -0.06046975 0.04113967
000100 dd c5 cf 3d eb a0 bc 3c 29 76 3b bd fb a5 16 3d
       0.10145161 0.02302595 -0.045766983 0.036779385
000110 78 65 8f 3d 57 f7 14 3d a5 9d 41 bc 2d 26 ee bb
       0.070017755 0.036368694 -0.011817371 -0.0072677345
000120 3e 7a 37 be a1 b1 a9 3c 96 1c a4 3c 1f 7e da bc
       -0.17917725 0.020714583 0.020033162 -0.026671467
000130 f1 4c c2 bd 85 47 7f 3d 46 10 91 bd 10 67 6a 3d
       -0.09487332 0.062324066 -0.07083182 0.057227194
000140 89 91 4d be ee df 9d bd ec 2e 0b be 73 3e 30 3e
       -0.20075049 -0.07708727 -0.13592118 0.17211322
000150 ea 33 3e be 8f 16 7e bd b2 fe 10 bc 54 8c b3 3d
       -0.18574491 -0.062033232 -0.008849787 0.08767
000160 0a 9d ed bd 94 b7 64 3d 50 ab 3d be a9 53 e1 bc
       -0.116022184 0.055839136 -0.18522382 -0.027505713
000170 29 ee 79 3d c7 54 fa 3d 74 2a 2d be 00 71 07 be
       0.061018143 0.12223201 -0.16910726 -0.132267
000180 1b 14 f5 bc 26 96 14 3e 67 bf dd 3d 0e a3 05 bd
       -0.029916814 0.14510402 0.10827523 -0.032626204
000190 2d 93 c4 3d d1 9a 01 3e 0c c9 33 bd 65 32 b5 3d
       0.09598384 0.12656714 -0.043892905 0.088475026
0001a0 15 1c e3 3d b3 11 b6 3c be 58 10 be 45 ac 4b be
       0.110893406 0.022225237 -0.14096352 -0.19889934
0001b0 93 5d f5 3c 9f a0 34 be 5a 27 a0 bd ad 80 54 be
       0.029951846 -0.17639397 -0.07820006 -0.20752211
0001c0 58 f9 ad bc f8 6a c6 3b 8c aa f2 bd 55 71 92 3d
       -0.02123706 0.006055232 -0.118489355 0.071505226
0001d0 69 72 14 3d b4 4b 06 bd fd 3c ee 3d 1d 91 3b be
       0.036241923 -0.03278704 0.11632726 -0.18317075
0001e0 6f af 9b bd 3c 89 ba bc 17 f7 31 bc 52 1d a3 3d
       -0.07601821 -0.022770517 -0.0108621335 0.07964577
0001f0 61 f8 00 3d 44 d8 e8 3d a8 30 56 be e5 fd d5 3d
       0.031486873 0.113693744 -0.20916998 0.10448817
000200 7d 33 03 3e e9 5e b2 3d f7 8d 84 3d d7 ce c6 bd
       0.1281261 0.08709509 0.0647239 -0.0970742
000210 df c0 2d be 10 14 59 bd 77 26 eb 3d 59 b8 f4 3c
       -0.16968106 -0.05299765 0.11481946 0.02987306
000220 e5 15 b1 bd 8c 91 0a 3e 76 a5 04 3e 72 81 3e bd
       -0.08646754 0.13532084 0.12953743 -0.046510167
000230 f1 2d db bd 83 cb 3a be 92 9a 31 3e 14 73 ee 3b
       -0.10702122 -0.18241696 0.1734412 0.007276902
000240 7e 0c bd bd f4 a3 31 be dc 34 8c 3d 44 d7 e1 3d
       -0.09230898 -0.173477 0.068460196 0.11027387
000250 21 aa 21 be 55 d2 4e be 47 d6 a1 bd c2 40 62 3d
       -0.15787555 -0.20197423 -0.07902198 0.05523754
000260 cc 00 ff 3d 09 d3 37 bd 4b c7 15 bd 35 f9 ea 3d
       0.12451324 -0.044878993 -0.036567014 0.11473314
000270 7f 5b dd 3c 85 67 25 3e 78 bd ba bd 79 23 7e bc
       0.027021168 0.16152771 -0.091181695 -0.015511387
000280 d2 ab a4 bd f1 85 1e 3e d6 06 3d be 77 40 31 3e
       -0.080405846 0.15480782 -0.18459639 0.17309748
000290 4f 76 ca bd 17 a9 f3 3d 5e 9d 31 3c 1d a4 9d bd
       -0.09885847 0.11897486 0.010840742 -0.07697318
0002a0 29 8c aa 3d cf 7d ea 38 3d 11 18 3d b8 37 8f 3d
       0.08327515 0.00011181423 0.037125815 0.069930494
0002b0 e7 34 a2 bd 07 1a 3e 3e 25 86 3c be cd 69 b5 bd
       -0.079202466 0.18564616 -0.18410547 -0.088580705
0002c0 2c 31 81 bc df 79 03 bc 21 73 0a 3e 4b fa 9e 3c
       -0.015770517 -0.008024662 0.1352048 0.019406458
0002d0 cc 00 9b bd 59 34 98 bd c8 a7 6a 3d 85 d8 04 be
       -0.07568511 -0.074318595 0.057288915 -0.1297322
0002e0 20 3a 35 3d fd 34 86 3d 7f d0 9e bd 73 c9 93 3c
       0.044244885 0.065530755 -0.07754611 0.018040394
0002f0 ea 60 14 3e 60 a1 07 bd 7b 59 05 3e 57 c7 f5 3c
       0.14490095 -0.033112884 0.13022415 0.03000228
000300 84 96 63 3d b5 f3 c8 3d 43 d6 4e be 6d b3 72 bd
       0.055563465 0.098121084 -0.20198922 -0.059253145
000310 73 6a 71 bc 95 89 fe 3d c3 24 92 bc 03 7f ae bd
       -0.014734852 0.124285854 -0.017839795 -0.08520319
000320 b3 34 3d bd 35 cb 42 be 59 73 f6 3d a3 ca c2 bd
       -0.046192836 -0.1902283 0.120337196 -0.09511306
000330 74 73 9e bd eb cb 11 3e aa 2f 88 3c 7a 55 52 bd
       -0.07736865 0.14237945 0.01662429 -0.051351048
000340 87 51 00 bd 0a 65 eb bb cb a5 4c be 81 7a b5 3d
       -0.03132775 -0.0071836757 -0.1998512 0.088612564
000350 36 50 d8 bd 7e ff 2b be 2d 91 ca bd ff bd c8 3d
       -0.10562174 -0.16796681 -0.09890971 0.09801864

Generator.conv1.conv2.0.weight f4 [8, 8, 3, 3, 3]
000000 f5 f5 4f 3d 04 94 e7 bc a9 36 7b 3c c0 0e 78 bd
       0.050771672 -0.028268822 0.015332856 -0.06056094
000010 dc 46 84 bd c4 23 62 bd f1 fd 96 3b 75 83 5a bd
       -0.06458828 -0.05520989 0.004607909 -0.053348023
000020 a5 60 a3 3d ab c8 47 ba 87 03 11 3c 91 e0 b2 39
       0.07977418 -0.00076211494 0.008850939 0.0003411812
000030 d9 79 ab 3b 63 d0 89 3d d5 2f 62 bd dc a2 b1 3c
       0.005233031 0.067292 -0.055221397 0.021684103
000040 a9 05 83 bd d9 54 61 3d b1 cd 64 bd 51 d9 45 3b
       -0.06397564 0.055012558 -0.055860225 0.0030189345
000050 90 59 4a bb 5e 56 60 3c 75 0e 5c 3c db a7 ea bc
       -0.0030876137 0.013692467 0.013431181 -0.028644493
000060 a8 80 39 3d e2 17 74 3c fb 54 cf 3c 7a 3e 08 bd
       0.04528871 0.014898272 0.025309077 -0.033262707
000070 ec 07 9b bd c7 63 eb bc 14 6c e3 3c c3 57 9b bd
       -0.0756987 -0.028734101 0.027761497 -0.075850986
000080 f6 13 19 bd 87 e1 91 bc f4 c7 8d 3a 2a 23 e0 bd
       -0.03737255 -0.017807735 0.0010817037 -0.10944207
000090 26 23 81 bd 85 3a f6 3c 26 eb 68 3c 93 ce 2a 3c
       -0.06305532 0.030057201 0.01421622 0.010425228
0000a0 a7 22 56 3c e3 bd a4 bd 72 95 ea 3b fe d6 b4 ba
       0.013069785 -0.080440305 0.0071589286 -0.0013796983
0000b0 ad 5d db 3b bc 45 19 3d db 3a 7c 3d 2b 5d 89 bd
       0.0066945166 0.03742002 0.061579566 -0.067072235
0000c0 e9 84 b2 bc 4d c7 d8 3c f0 68 6d bd 1c 7b 32 bd
       -0.021791892 0.026462222 -0.057961404 -0.043574437
0000d0 d3 78 1b bd 2e ee 9b 3c 7d f0 72 bc b0 43 b5 3c
       -0.037957024 0.019034471 -0.014827845 0.022127002
0000e0 c9 b6 f0 3c 5e c4 7c 3d b8 b1 a8 3c 5c 81 b9 3c
       0.029384034 0.061710708 0.020592555 0.022644691
0000f0 2c 11 81 bc 35 c1 25 bd 8c f8 ac bd 2e 2e 72 bb
       -0.015755259 -0.04046746 -0.08445844 -0.0036953795
000100 d4 c6 b7 3c 84 dc fd bc a0 4a d2 bc b1 0a 0f 3d
       0.022433676 -0.03098894 -0.02567035 0.034922305
000110 b7 a9 bf 3c 77 39 23 3c 8c 79 37 bd 08 62 d5 bc
       0.023396356 0.009962431 -0.04479365 -0.026047722
000120 b1 f9 1e bd 44 b7 31 bd e2 35 4e 3d 28 16 25 bd
       -0.038812343 -0.043387666 0.050344355 -0.040304333
000130 f3 77 13 3d 76 46 3b bd 06 1f 60 3d f8 5b 81 3d
       0.036003064 -0.045721494 0.054717086 0.0631637
000140 f6 a7 fd 3c 0a 02 b3 bc b6 43 7d 3d 17 fb 29 3d
       0.03096388 -0.021851558 0.061832152 0.041499224
000150 88 b4 9d 3d 73 63 06 3b ae 29 ce bb 95 5b bd bc
       0.07700449 0.0020506054 -0.0062915897 -0.023114959
000160 13 5f 23 bd 1e fe 0e 3c 94 00 b1 3c 5e c8 91 3c
       -0.03988559 0.008727578 0.021606721 0.017795738
000170 34 9a 2e 3d 88 be 1c bd 83 58 72 3c d2 21 6b 3d
       0.04262753 -0.038267642 0.014791611 0.0574053
000180 ea a6 30 bd 76 d6 e1 3b ab 86 e3 3c c4 d5 8a 3d
       -0.04312793 0.006892021 0.027774176 0.06779054
000190 0a 7e 3d bd 4e 2c 47 bd d9 20 b1 39 c2 67 1c 3d
       -0.04626278 -0.048626237 0.00033784544 0.03818489
0001a0 55 41 55 3d fe 77 b5 3c 9d 19 ff 3c 6e f6 9c 3c
       0.05206426 0.022151943 0.031140143 0.019160476
0001b0 4f 50 ab 3c dc ce 61 bc 9c 34 37 bd 94 0e 8c bd
       0.020912318 -0.013782229 -0.044727907 -0.06838718
0001c0 4e 07 e6 bb f3 65 8e bc 61 a2 8b bc 71 eb 9d bd
       -0.0070199138 -0.017382598 -0.017045202 -0.077109225
0001d0 65 cc 40 3c 8b 5e 53 bd dd 80 41 bd 67 ef 76 3d
       0.011767481 -0.051603835 -0.047242034 0.060286906
0001e0 8e 9a c4 3b ed 75 70 bd 22 7c 65 3c ec 52 51 bd
       0.0059998697 -0.058706213 0.014006646 -0.05110447
0001f0 39 44 90 3c 4e d5 24 3d 1a 84 d1 bc bb 72 24 3d
       0.017610656 0.040242486 -0.025575686 0.040148478
000200 27 89 ba 3c be 2b 5d 3c b0 e4 dd 3c 6b 08 40 bd
       0.022770477 0.0134991985 0.027086586 -0.046883028
000210 c3 9f 2e bd 02 20 4a 3d ec 3d d0 bc c3 42 5f 3d
       -0.04263283 0.04934693 -0.025420152 0.05450703
000220 28 87 28 3d a9 18 95 bb 12 cc 1f bc ca ec 5e 3d
       0.04114452 -0.004550059 -0.009753244 0.05442504
000230 52 3a 55 3d 99 64 31 bc 82 ac eb bc 81 ef 78 3d
       0.05205757 -0.010827207 -0.028768782 0.060775284
000240 50 15 88 bd 57 7f f6 3c 19 90 ae 3c 04 0d 5a bd
       -0.0664469 0.030090017 0.021308945 -0.05323507
000250 ac 00 f6 bc fd b1 da bc 62 3f 67 3c fb c4 9c 3c
       -0.030029617 -0.0266962 0.014114233 0.019136896
000260 a7 6f 83 bd 4b 81 3a 3d 61 8b 62 3d 60 94 0e 3d
       -0.0641778 0.04553346 0.055308703 0.03480947
000270 45 62 6c 3a 64 e8 80 3d 15 49 2c 3d 93 b4 29 3c
       0.0009017329 0.06294325 0.042061884 0.010357994
000280 ed 0b e7 bc 11 71 30 3d 2d 6d b0 bb 84 01 94 3c
       -0.028203929 0.04307658 -0.0053841085 0.018067129
000290 28 30 82 bd 87 2a 4e bc 03 82 8d bc 0a 1e 41 bd
       -0.06356841 -0.0125833815 -0.017273908 -0.047147788
0002a0 e2 5b 96 3d 29 32 09 bd a9 52 82 3c 3a 76 f8 bb
       0.07341744 -0.033495102 0.015908556 -0.007582453
0002b0 f4 34 bd bd 6c 66 bc ba 13 15 ea bc 41 68 63 bc
       -0.09238616 -0.0014373786 -0.028574502 -0.013879837
0002c0 37 f3 c1 bd e9 ef bc bd d1 71 5f bd 36 1b 13 bc
       -0.09470218 -0.09225447 -0.054551903 -0.008978656
0002d0 50 bf 14 bd 97 3c 9b bd 41 07 27 3b 04 65 4c bd
       -0.036315262 -0.07579916 0.0025486501 -0.049901024
0002e0 1a 96 6c 3c c0 9c 32 bd f2 20 c5 bd 62 da 9d bd
       0.014440084 -0.04360652 -0.096254244 -0.07707669
0002f0 c0 62 7d bd 84 9a ef 3a 94 84 90 bd f3 b2 8a 3b
       -0.061861753 0.0018280302 -0.07056537 0.004232758
000300 48 14 50 3d ad 43 b2 3c b9 74 37 3d 01 ec b9 3c
       0.05080059 0.021760786 0.04478905 0.022695543
000310 da 51 7b bd 89 00 2f 3c 77 8f 93 bb 81 1c 69 bd
       -0.061357357 0.01068128 -0.0045031863 -0.05691195
000320 5e 26 64 bd 3d 13 2f bc 7e d1 41 bc 16 f6 82 3c
       -0.055700652 -0.010685739 -0.011829732 0.015986484
000330 52 e4 48 3d ce 36 a3 bd df 2d dc bc a4 9c 50 3c
       0.04904587 -0.079694375 -0.026877342 0.012732659
000340 60 c6 05 3d 12 b1 7d bd 6c 06 2d bd 15 34 11 3d
       0.03265989 -0.061936446 -0.042242453 0.03545006
000350 f3 16 1b bd e1 57 8a bd af ac 3b bb 28 f6 0e bc
       -0.037863683 -0.06755043 -0.0028636863 -0.00872568
000360 91 05 cc 3c 9c e9 0b bd a8 5b 8c 3d 34 95 88 bc
       0.024904998 -0.034158334 0.068534195 -0.016672708
000370 05 ae cf bb 64 a1 5a 3d 67 b9 4a 3d 2f c1 d3 3c
       -0.0063378834 0.05337657 0.04949322 0.025848953
000380 bc 50 cb bc 92 6a ac 3c 87 bc 3d bc 45 c4 2e 3d
       -0.02481877 0.02104691 -0.011580593 0.042667646
000390 71 b2 07 bd 84 f3 17 3d 3e 78 64 bd 48 03 78 bc
       -0.03312916 0.03709747 -0.055778734 -0.015137501
0003a0 32 0e 55 bd 29 02 5d bd cc 31 b3 3c a6 d6 46 3d
       -0.05201549 -0.05395714 0.021874331 0.04854455
0003b0 1a 35 97 bb ec 9a 4e 3d dd 26 15 3d 9b 77 47 3d
       -0.0046144845 0.050440714 0.036414016 0.04869805
0003c0 36 35 e3 3c 0b 99 08 bd 93 58 a1 3d 73 46 63 bd
       0.027735334 -0.03334908 0.07878222 -0.055487107
0003d0 be 39 bb bc 26 43 25 bc 23 78 61 bb 02 c9 0c bd
       -0.022854682 -0.01008681 -0.0034403882 -0.034371383
0003e0 ee bb 83 3d 41 df 97 3d 17 25 61 3d f8 92 4c 3d
       0.06432329 0.07415629 0.054967012 0.049944848
0003f0 38 ef 27 3d c2 bd 2a bd f9 59 86 bc ed d7 86 3d
       0.04099962 -0.041684873 -0.016400324 0.06584153

Generator.conv2.conv1.0.weight f4 [8, 8, 3, 3, 3]
000000 61 fa 41 bd 7b ed 8f bd 34 0c 82 3d db a3 ca 3c
       -0.04735792 -0.07027718 0.06349984 0.024736336
000010 7c 29 70 3b 24 19 81 bd 38 34 7b bd 2c 4c 82 bc
       0.003664582 -0.06303623 -0.061329097 -0.015905462
000020 af 5a be 3c f9 ff 50 bd 0c 6f 66 3b 6a cf 0b 3d
       0.0232366 -0.051025365 0.0035161404 0.034133352
000030 0a 89 68 bd 64 55 38 3d 88 45 0e 3d be a6 b1 3b
       -0.056771316 0.04500331 0.03473428 0.0054214885
000040 bf ba 5a bd 9c 88 88 3d 57 9f 1d 3d 6e 03 44 bd
       -0.05340075 0.06666681 0.038482036 -0.047854833
000050 0a 33 9d bc e7 57 da 3c cb 88 2a bd d5 8f 5a 3c
       -0.019189376 0.026653243 -0.041634362 0.013339956
000060 3e 52 86 3d bf 6b e2 bc d8 20 a6 3c 19 9a b9 3c
       0.06558655 -0.027639268 0.020279333 0.022656487
000070 e3 37 75 bd 92 c2 46 bd 1e 21 53 bd 31 df fc bc
       -0.05986775 -0.0485254 -0.051545255 -0.030868145
000080 53 db 0e bd 6c 99 fd bc 54 73 43 3d 0f 75 db 3a
       -0.034877133 -0.030956946 0.047717407 0.001674326
000090 72 4f ab bd 74 7a c6 bd f7 20 a4 bc c5 0e a5 bd
       -0.08364762 -0.09691325 -0.02003525 -0.08059458
0000a0 e1 03 7b bd f1 04 80 bd 8d 7f 8d 3d c0 57 37 bc
       -0.061282996 -0.062509425 0.06909094 -0.011190355
0000b0 c9 7f 63 bc ed 77 7b bc 5a 24 1a bd cb a5 f0 bd
       -0.013885447 -0.015348417 -0.037632324 -0.117503725
0000c0 38 46 85 3b 4a ea 26 bd ab 99 a1 bd 06 54 ac 3b
       0.0040672086 -0.04075078 -0.07890638 0.00525904
0000d0 74 72 32 bd d6 f8 84 bd 72 1a 0e bd af 37 9e 3c
       -0.043566182 -0.06492774 -0.03469319 0.019313661
0000e0 b4 54 79 bd c4 7d 80 bc 78 89 86 bd 06 47 46 bb
       -0.060871795 -0.01568497 -0.06569189 -0.0030254736
0000f0 c5 e9 5a 3d b9 d4 4d bc 27 c0 29 3d 45 86 6b bd
       0.053445596 -0.012562924 0.041443016 -0.057501096
000100 9b 8b 0a 3d b7 91 28 bd b7 f0 e4 ba 32 31 9d bc
       0.033824544 -0.04115459 -0.0017466758 -0.019188497
000110 e4 23 8b bc a2 3f 7c bd 45 7c ff 3b d7 ee ed 3c
       -0.016984887 -0.061584122 0.0077967965 0.029044552
000120 f9 67 62 bd 37 36 92 bc b2 36 17 bd f8 a5 83 bd
       -0.055274937 -0.017848117 -0.036917396 -0.064281404
000130 01 b9 ed 3c ce 0d 61 bc 26 d0 a3 bc d1 3d 5b bd
       0.02901888 -0.013736201 -0.019996714 -0.05352575
000140 ab d3 9d 3c bb 2b c7 3c 5c de fb 3b bb 57 8a 3d
       0.01926597 0.024312844 0.0076864194 0.067550145
000150 77 e9 11 bd ce 9c ca bc bb f6 64 3b 76 1d a8 bb
       -0.03562304 -0.024732973 0.0034937102 -0.005130465
000160 fc 08 20 bd 26 33 97 3d 50 f3 fb 3b cf 55 ae bc
       -0.03907107 0.07382803 0.007688917 -0.021281151
000170 3e b0 34 3d 59 3c 09 3d ce c4 89 bb 42 0a fd 3c
       0.04411339 0.033504818 -0.004204369 0.03088868
000180 7f 24 6a 3c db 99 2b bd 81 62 41 3d 53 ee 1a bd
       0.014290928 -0.041894775 0.04721308 -0.03782494
000190 45 ca 40 3d c8 c8 ff bc 77 ec 85 bd f3 92 32 bd
       0.0470679 -0.03122367 -0.06539243 -0.043597173
0001a0 03 3a 62 3d fd ec 97 3c 1a b1 05 bd c6 ab dc 3c
       0.055231106 0.018545622 -0.0326396 0.026937377
0001b0 66 1f 89 3d fb 92 7b 3d 39 46 19 bd d0 66 29 bc
       0.06695442 0.06141947 -0.037420485 -0.010339454
0001c0 04 fe 62 bd fa 62 3c bc e5 bb db bc 22 51 a5 bc
       -0.05541803 -0.011498207 -0.026822994 -0.020180289
0001d0 65 7e 4f bb de 4b 58 bc a2 e9 73 3b c4 3f 29 3d
       -0.003166103 -0.013201682 0.0037218113 0.041320577
0001e0 30 05 99 3c 7d 68 63 3d 76 34 43 3d 6c d7 2e 3d
       0.018679231 0.05551957 0.047657453 0.04268591
0001f0 b4 88 30 bd 65 45 82 3d a5 6f e7 bc 7d 7e 22 3d
       -0.04309912 0.06360892 -0.028251478 0.03967141
000200 44 b9 9e 3d 1c 34 f4 bc 9d d6 89 3d 83 ff 9f 3d
       0.0775018 -0.029810004 0.06730387 0.07812407
000210 ec 66 31 3d f3 3f ba 3a aa 0d 35 bd e3 fe 22 bd
       0.043311045 0.0014209732 -0.044202484 -0.03979386
000220 a2 31 dd bb 30 1b 93 bd da 0e c3 bb 0f bd f3 3c
       -0.0067503015 -0.0718292 -0.005952698 0.029753236
000230 42 a2 19 3c 72 70 01 3d ed 22 35 bd 61 b9 88 bd
       0.009377064 0.031601377 -0.04422276 -0.06675983
000240 36 4a 3d bc e0 a1 6a bd e7 59 8d bd f9 ae 81 bc
       -0.011553338 -0.057283282 -0.06901913 -0.015830504
000250 29 3d 66 bd 5d aa 6a bd 0b 22 4b 3d 91 60 23 3c
       -0.05621067 -0.057291377 0.049593013 0.009971754
000260 13 ff ff 3b e4 2e f1 3b fb 3d 28 bd d4 11 b5 bb
       0.0078123896 0.007360326 -0.041074734 -0.005525807
000270 92 ee 89 bc 8b 60 00 3d be 14 29 bc 9c cf 43 bc
       -0.016837392 0.03134207 -0.010319887 -0.011951353
000280 14 2f 56 bd 21 9b 8a 3c fe 1d 54 3d e0 9e af 3d
       -0.05229099 0.016919674 0.051786415 0.08575225
000290 76 cf b6 3d 29 3f 8c 3c 88 2a ef bb 52 13 9b 3b
       0.08926289 0.01711996 -0.0072987713 0.004732528
0002a0 69 f0 71 bd e0 0b 6b 3d 8b 7d d4 bc fa ad cc bc
       -0.059067164 0.05738437 -0.02593877 -0.024985302
0002b0 56 7f ba 3b 64 20 00 bc d9 74 b3 3b 6e af 94 3d
       0.005691449 -0.0078202225 0.005476576 0.07260023
0002c0 e4 13 b5 3d a3 5e 28 3d 73 46 0e 3d 6a 70 53 3d
       0.088416845 0.041105878 0.034735154 0.05162088
0002d0 82 cc 97 3d aa 96 06 3d 5d 40 02 3c 8d ba 2f bd
       0.07412054 0.03285853 0.007949916 -0.042902518
0002e0 fe dd a3 3d 21 e7 7b 3c 71 d8 73 3d 0a 70 d9 bc
       0.08001326 0.01537493 0.059532586 -0.026542682
0002f0 10 73 74 3d a8 f1 4e 3d 51 cc 09 3d c5 0d 6d 3d
       0.059680045 0.05052343 0.033642117 0.05787446
000300 7c 21 1a bd 1a fe 51 bc 63 ae 67 3d 3b fa 29 bd
       -0.03762959 -0.01281693 0.056562793 -0.041498404
000310 bc 8f c2 3c ad 67 67 3a e7 11 3c 3c 85 d1 31 bd
       0.023750179 0.00088273996 0.011478878 -0.043412704
000320 a6 a6 82 3d 86 24 40 bd 01 47 b5 3c fe 9d 1d 3d
       0.06379442 -0.04690983 0.022128584 0.03848075
000330 94 c0 b2 3b 2d 43 8b bd f5 e2 49 3d 3d 2b 1d bd
       0.005455086 -0.06799922 0.04928871 -0.038371313
000340 d6 5e 74 bd 1e 87 ec 3c 2c 04 04 3d ef 96 e6 3c
       -0.059660755 0.028873023 0.03223054 0.028148143
000350 85 28 b3 3c 3f 43 79 bd 56 8d 54 bd ec d0 79 bd
       0.021869907 -0.060855146 -0.0518926 -0.06099026
000360 c5 f0 3c bb c1 d0 60 bd e1 88 35 bd 19 4e 04 bd
       -0.0028830033 -0.054886583 -0.04431999 -0.032301042
000370 d6 9a 7a 3d 13 de 8e 3d 60 f6 73 bc 32 35 29 bd
       0.06118282 0.06975951 -0.014890283 -0.041310497
000380 7a cd 6e 3d ab 41 8e bd 43 f5 0a bd 86 8d 33 3d
       0.058301426 -0.06946119 -0.033925306 0.04383614
000390 e9 47 2b bd 52 0d cd 3c 22 92 45 3d 7b 6e 30 3c
       -0.041816626 0.025030766 0.048235066 0.010768528
0003a0 ab 67 88 3d ab f4 ca bb 67 d2 93 3c a9 1a ab bd
       0.06660398 -0.0061937175 0.018044664 -0.083546944
0003b0 42 ee 3a bc 7b 80 5c 3d 86 a3 c0 3b cf 6e 80 bc
       -0.011409344 0.053833466 0.0058788685 -0.015677838
0003c0 ce 88 ff 3c 0c 67 7f 3d c7 aa b6 bc 25 10 9d bc
       0.031193163 0.062354133 -0.02229823 -0.019172737
0003d0 c4 6e b0 bc cb f1 4f bd ee f9 2e bb ec 3e 60 3d
       -0.021537192 -0.0507677 -0.0026699263 0.054747507
0003e0 17 bc c0 3b 47 9d 8a 3d 11 a4 59 3d eb 7b 38 bd
       0.005881797 0.067682795 0.05313498 -0.045040052
0003f0 5e 8c e1 bd 65 b3 e6 bd 9f f8 be bd 47 14 36 bc
       -0.11013101 -0.112646855 -0.093247645 -0.011113233

Generator.conv2.conv2.0.weight f4 [8, 8, 3, 3, 3]
000000 e9 1e 02 bb 75 80 56 bd 55 ec df 3b c5 67 c6 3c
       -0.001985485 -0.0523686 0.006833593 0.024219403
000010 8a 36 ab 3d 10 ee 09 3d a9 37 dc ba c5 80 99 3c
       0.08360012 0.0336743 -0.0016801256 0.01873816
000020 3e 72 63 3d 2e fd 15 3d 62 3b 3b 3c bc e6 90 3d
       0.05552887 0.036618404 0.011427732 0.07075259
000030 6e 3d d8 3b 7e 95 62 3d 1f 3d 03 bd 91 60 8c 3d
       0.00659912 0.055318348 -0.03204071 0.06854356
000040 8d 04 c5 bc c1 a7 91 3c 4f 51 e2 bc c3 61 a5 bc
       -0.024050022 0.017780187 -0.027626662 -0.020188218
000050 44 3b a5 3c 8c f5 99 3d 8d cd 08 bd a9 7e 0e bd
       0.020169862 0.075175375 -0.033399154 -0.03478876
000060 c1 de 0e bd 88 a2 d9 3c b4 14 a6 3b 0a 8f 6d 3d
       -0.034880403 0.026566759 0.005068386 0.05799774
000070 aa 70 32 3d c9 66 20 bd 6d 07 fc 3c 3c 87 49 3d
       0.043564476 -0.039160524 0.03076526 0.049201235
000080 15 b7 c3 3d 62 49 57 3d 48 85 4f 3b 40 17 09 bd
       0.095564045 0.052560218 0.0031665135 -0.03346944
000090 94 6b 93 3c c7 3d ac bc 3c 61 62 bd 89 5e 2f 3c
       0.017995633 -0.021025551 -0.05526851 0.010703691
0000a0 f9 b4 b0 3d 70 b5 50 3c 06 ce b7 bc f8 c4 d4 bc
       0.08628268 0.012738571 -0.022437107 -0.025972828
0000b0 d4 f7 4e 3c 89 6d 13 3d fe 13 ab 3d fb 43 e6 3b
       0.012632329 0.035993133 0.083534226 0.007027147
0000c0 2e 6a c1 3d 38 c0 24 3d c6 4f 78 3b 32 96 8a bb
       0.0944408 0.040222377 0.0037889346 -0.0042293305
0000d0 4b 59 8b 3d d5 51 99 bc 20 c1 d7 3c 73 20 ac 3c
       0.06804141 -0.018715778 0.026337206 0.021011567
0000e0 24 52 c7 bc 0e 00 b6 bd 67 fb 78 bd e3 fb 16 3d
       -0.02433116 -0.08886729 -0.06078663 0.03686131
0000f0 04 2e 43 3b a8 72 cb 3c e5 85 05 3d 27 06 b0 bd
       0.0029782066 0.024834946 0.032598395 -0.085949235
000100 e4 b5 3e bd 25 f6 b3 bc 9f ce 9c bd 25 b0 12 3c
       -0.046560183 -0.021967957 -0.07656597 0.008953129
000110 89 99 36 bd f1 9e 10 bd bc 90 b1 3c 98 64 0d bd
       -0.044580016 -0.03530783 0.02167546 -0.03451976
000120 98 4a 36 bd 69 fa 6c bc 2d 18 fb 3b 74 8e 0b 3c
       -0.044504732 -0.014463999 0.007662794 0.00851785
000130 a1 1b 37 bd b4 97 6e 3c c5 1e 0b bc 51 d9 71 bc
       -0.044704083 0.014562536 -0.008491223 -0.014761285
000140 18 23 a9 bd 57 f5 4a bd 8d 21 46 3d 19 df 27 3d
       -0.08258647 -0.04955038 0.04837184 0.040984247
000150 ad 8f 7b bd b4 5b 84 3d 05 6f 0e bd 62 b7 41 bb
       -0.061416317 0.064628035 -0.034773845 -0.0029558768
000160 a6 c5 aa bc 54 96 62 bd 19 dd 8a 3c 80 54 fd 3c
       -0.0208462 -0.055319145 0.01695113 0.030924082
000170 47 a0 24 3c b8 ef 15 bb 19 a6 34 3d 4e 3c 85 bd
       0.010047979 -0.002287848 0.044103716 -0.06505643
000180 c9 1a 08 bb b3 0b 14 bd 5e b8 71 3d f8 89 01 bd
       -0.0020767918 -0.03614397 0.059013717 -0.031625718
000190 2b f9 02 3c a7 65 ce 3c 84 ab 4d bd 20 0c 69 3d
       0.007993977 0.025194956 -0.0502124 0.05689633
0001a0 b3 64 35 bd 59 fb a6 3c 15 ba fe bc 42 43 35 3a
       -0.044285487 0.020383524 -0.03109459 0.0006914624
0001b0 d9 c2 a2 3c ed 14 f6 bc 31 77 ff bd e3 f8 e3 3b
       0.019868301 -0.030039275 -0.12473906 0.00695716
0001c0 87 f8 a3 bc 74 7c ae bd 3a 1c 7f 3d 5c 6e 58 bc
       -0.020015968 -0.08519831 0.06228278 -0.0132099055
0001d0 fa ca 58 3c cf cc 06 3d db d2 de bc e0 a3 c8 bd
       0.013231987 0.032910164 -0.027200153 -0.09796882
0001e0 b5 bc 5f bd 6d fd 78 bd fe 4e e6 bd ff 4e a3 3d
       -0.054623324 -0.06078856 -0.11245535 0.07974052
0001f0 a0 e1 68 3c 54 63 8d 3c 6b f2 75 bd 6b 75 86 bd
       0.014213949 0.017259277 -0.06004564 -0.065653645
000200 96 16 8f bd 17 ce 45 3d b2 24 35 3d e6 d4 ad bd
       -0.0698673 0.048292246 0.04422445 -0.08487873
000210 ac fe 19 3d 8c 6a cd 3c 22 bc 96 bd 28 b3 21 bc
       0.03759639 0.02507522 -0.07360102 -0.009869374
000220 5f 7d 8a bd 16 6b 7d 3c c7 05 25 3d 35 52 52 bd
       -0.06762194 0.015467426 0.040288713 -0.05134793
000230 00 cf 11 ba 44 14 53 bd 7e 68 02 bd e0 d1 86 bc
       -0.00055621564 -0.051533 -0.031837933 -0.016457498
000240 1d 12 4a bc 7e 48 60 3d 60 4b c2 bc 3a 96 7c 3d
       -0.01233342 0.054756634 -0.023717582 0.061666705
000250 82 a5 19 3d 95 32 88 bc 7c a3 1b 3d 32 da 63 37
       0.037511356 -0.016625682 0.037997708 1.3581057e-05
000260 5b 8c 31 bd c6 6e 59 bd 8c b4 7c bd bc 0b 6f 3d
       -0.043346744 -0.053084157 -0.06169562 0.0583608
000270 0e 70 d0 3c 2b 6f ed 3b 99 f0 5c bd 95 51 55 bc
       0.025444057 0.0072459183 -0.05394039 -0.013019939
000280 05 d3 f9 bc e4 9e 48 3d b4 8b 05 3d e0 0f b0 bc
       -0.03049613 0.048979655 0.032603934 -0.021491945
000290 de ff 8d 3d e7 22 8a bb 5f a8 b7 bb b6 c7 91 3c
       0.069335684 -0.0042155865 -0.005604788 0.017795425
0002a0 8a 95 fe 3c d6 80 bc bc 18 f0 cc bc 73 46 9a bc
       0.031077165 -0.023010653 -0.02501683 -0.01883242
0002b0 d2 ce 71 bd 3e dd 0a 3d eb 50 23 3d f6 fd 39 bc
       -0.05903513 0.0339024 0.03987209 -0.011352053
0002c0 ce 19 84 3d 94 fc a4 3a f9 66 08 3d 93 7d 9b 3c
       0.06450234 0.0012587481 0.033301327 0.018980777
0002d0 bd 87 df bc 4c 7f 53 3d 62 ba eb 3c 24 4b a8 3b
       -0.027286405 0.05163507 0.028775398 0.0051359106
0002e0 a9 73 66 3d f0 02 27 3d ce 97 30 3d 55 76 3c 3c
       0.056262646 0.040774286 0.043113522 0.011502822
0002f0 1b 34 a6 3c 99 da 3f 3d bc 06 b0 bc d0 7f 6a bd
       0.020288518 0.04683933 -0.021487586 -0.057250798
000300 0e 3f 59 bd c8 76 0f bd 73 03 45 bd 02 7d 7b bd
       -0.05303865 -0.035025388 -0.048098993 -0.061398514
000310 27 3d 4b 3c 2b 56 d8 bc a2 f3 18 bc 6f 06 08 3d
       0.012404717 -0.026408276 -0.00933543 0.03320926
000320 f8 8d ff 3b 30 37 14 bd 56 ae 51 bd 4e 48 1a 3d
       0.0077989064 -0.036185443 -0.05119165 0.03766661
000330 21 b7 a8 bc a4 17 4f 3d 0b d9 96 3c 2b aa 81 3d
       -0.020595135 0.050559655 0.018414041 0.06331285
000340 ac 22 fe ba ec 08 22 3b 3e e9 26 bd dc 8c 03 3d
       -0.0019388995 0.0024724556 -0.04074978 0.032116756
000350 27 97 e7 bc 33 b2 8f 3d 33 b5 2d 3c 9a 23 3f 3d
       -0.028270317 0.07016411 0.010602283 0.04666481
000360 84 a0 64 bd 47 16 b3 bc d1 10 d0 3c 99 9b 95 3c
       -0.055817142 -0.021861209 0.025398644 0.018262671
000370 88 5b 8a 3a 38 4f 95 bd 49 45 48 bd 55 c8 56 3d
       0.0010555843 -0.072905004 -0.0488942 0.052437145
000380 b9 80 95 bc c6 a7 39 3d 90 39 9a 3c f3 6f 07 bd
       -0.018249856 0.045326017 0.018826276 -0.033065747
000390 0c 3c 19 3d 23 bb 9b 3b 76 ac 60 bc 34 3b ba bc
       0.03741078 0.004752533 -0.013712993 -0.022733308
0003a0 77 30 a9 bc c7 d6 da 3c af 73 85 bc b2 55 e2 3c
       -0.020652993 0.026713742 -0.016290514 0.027628753
0003b0 e0 26 a8 3b b7 9d 91 3d ca 9e d0 3c 2c 07 53 3c
       0.0051315874 0.0711016 0.025466342 0.012880128
0003c0 71 c4 8c 3d 0d 3d 21 bd b1 8c 32 bc c5 60 7f 3c
       0.06873406 -0.039364863 -0.010897801 0.0155870365
0003d0 48 f1 d7 bc d6 7c f7 3c 5c 04 5a 3c 49 f4 56 bc
       -0.026360169 0.030210894 0.013306703 -0.013119766
0003e0 a3 eb 9b bc aa 32 a4 bd d8 67 ea bc 2a 8b 90 bd
       -0.019033259 -0.08017476 -0.02861397 -0.070577934
0003f0 a2 b2 98 3d ed 45 2d 3d a0 d6 af bd 8b 06 87 3d
       0.074559465 0.042303015 -0.08585858 0.06593045

Generator.conv3.conv1.0.weight f4 [8, 8, 3, 3, 3]
000000 df 96 b6 bb 90 a4 a6 3d 13 87 d5 bb 5f 23 8d bd
       -0.0055721845 0.081368566 -0.0065163462 -0.06891512
000010 d4 a5 54 bc 80 aa 9c 3c dc 59 99 3d 02 89 e1 bc
       -0.01297899 0.01912427 0.074878424 -0.02753115
000020 6e e6 99 bc 28 5f 03 bd b2 64 01 3d 68 81 01 bd
       -0.018786635 -0.03207317 0.03159017 -0.031617552
000030 6e 10 ef 3b 32 a3 0f bc ce 38 51 bd 8a 0e fd bc
       0.0072956597 -0.008766936 -0.051079564 -0.030890722
000040 c7 b7 72 3d 9e fa 9a bc a1 c0 43 bc 3f e4 ce 3d
       0.059257295 -0.018918332 -0.011947782 0.10102128
000050 22 4e 6e 3d 3c 78 57 3d cf 4d 1d bd de 66 3e 3d
       0.058179982 0.0526049 -0.038404282 0.04648482
000060 40 2f 66 bd 1c f6 21 3d b2 47 e4 bc 3e d5 8f bc
       -0.056197405 0.03954135 -0.027866218 -0.017557736
000070 46 64 bc 3c 3b a0 1c 3d 34 6e 4b ba 8b 29 27 3d
       0.022997033 0.038238745 -0.0007760257 0.040811103
000080 fb 20 71 bd 4d 1f e0 3d 21 fb 5e b9 d3 70 ad 3a
       -0.058869343 0.1094347 -0.00021265123 0.0013232477
000090 32 79 3d bb 05 84 36 3d c5 15 e9 3d 49 71 8d bd
       -0.002891135 0.044559497 0.11381105 -0.06906373
0000a0 d4 e2 3d bb 2d 9f 91 bd b1 ce 8f bc 8a e9 2f bd
       -0.0028974311 -0.071104385 -0.017554613 -0.04294733
0000b0 04 7a 13 3b e4 f5 d1 3c a7 71 8a 3d 7c c4 9c bc
       0.0022503147 0.025629945 0.06759959 -0.01913666
0000c0 3a 84 47 3c 91 1f ce 3c 90 3b fd bc cf 3d 91 3c
       0.012177521 0.025161536 -0.03091219 0.017729668
0000d0 ae 93 4f 3d 74 74 24 3c c8 b3 77 bd bb 6d d4 3c
       0.050677948 0.01003753 -0.060474187 0.02593123
0000e0 6c aa 0d bc 0a 35 01 bd d5 c3 1e bc 74 b4 98 3d
       -0.008646589 -0.031544723 -0.009690245 0.07456294
0000f0 21 56 22 bd 8d ac 03 bd 51 cc 9b bc f6 fe 07 3a
       -0.03963292 -0.03214698 -0.019018324 0.00051878334
000100 16 4e 26 3d 1b d8 80 3d 13 f4 01 bd c4 e5 b7 3d
       0.040601812 0.06291219 -0.031726908 0.08979371
000110 fe 91 af 3d b1 53 83 bd 3e 9c eb bb 6a e6 16 bd
       0.08572768 -0.06412447 -0.0071902564 -0.036840834
000120 82 1c 85 3b 4a 1d 01 bd b5 68 9c 3d 28 fb 02 bd
       0.0040622363 -0.031522073 0.07637159 -0.031977803
000130 1b 8f 53 3d 70 fe fe 3c 37 9b db 3b be da 0c bd
       0.051650148 0.031127185 0.0067018527 -0.034388296
000140 5e 24 ed 3b 97 95 ed bb 7c 9c 5e 3c 84 b3 75 3d
       0.0072370013 -0.0072504985 0.0135871135 0.059985653
000150 19 0b 83 bd cb 9e d4 3a 4d ca ad 3c 92 b5 7d 3d
       -0.06398601 0.001622164 0.021214629 0.061940737
000160 6d 89 70 bd 53 2b 17 3c 1a e3 c9 bc 65 cb 4b 3d
       -0.05872481 0.009226638 -0.024644423 0.04975452
000170 17 78 7f 3d 9f 64 85 bd 0b 7f 49 3d fe aa 71 3c
       0.062370386 -0.065133326 0.049193423 0.01475024
000180 c7 71 5d bd 9a e6 cd bc 18 89 85 bb 52 f3 a0 bd
       -0.054063585 -0.025134373 -0.0040751807 -0.0785891
000190 08 5f 86 3d 6d 44 d4 3c 8f a5 b7 bb 1b 0d 99 3d
       0.065610945 0.025911534 -0.005604453 0.07473203
0001a0 7c e7 ad 3d f5 66 ec bc f8 1c 03 bc 57 5f 45 bd
       0.08491418 -0.028857687 -0.008002512 -0.048186626
0001b0 21 2c b7 3c 36 0c de bc 5f c3 14 3c 2f ba 8d 3d
       0.02235991 -0.027105432 0.009079783 0.06920277
0001c0 fa 7d 80 bc c2 8c ce 3c a0 22 c9 3d 51 46 35 3d
       -0.01568507 0.025213603 0.09821057 0.044256512
0001d0 c8 03 4c bd 50 9b 28 bc dc e6 17 3d 97 e2 11 3d
       -0.049808294 -0.010290936 0.0370854 0.035616484
0001e0 b9 f3 96 bc 2f 5e 3d 3d 59 48 62 3d e5 96 94 3c
       -0.018426763 0.0462324 0.055244777 0.018138358
0001f0 0f b5 59 3d 91 3a 7c bd 5f 44 91 bc 4d 0e 50 3b
       0.053151187 -0.06157929 -0.017732797 0.0031746805
000200 30 1c 81 3d ed e8 df bc e5 09 88 bc 4d a7 d8 3b
       0.063042045 -0.027332747 -0.01660628 0.0066117407
000210 97 1d 98 3d dd 00 3c bd 7e 3a 80 3c 66 64 84 bc
       0.07427519 -0.04589926 0.015652891 -0.016161155
000220 79 b6 e2 3d 7b 39 05 3d da d5 f3 bb 92 67 8f 3d
       0.1106996 0.03252552 -0.0074412646 0.07002176
000230 0c 54 0f bd cb 55 31 bd fc f1 05 bd 5a cb 62 bd
       -0.034992263 -0.04329471 -0.032701477 -0.055369712
000240 5f f7 3e 3d d5 23 e1 3d 22 a3 93 3c 70 dd 26 bd
       0.04662263 0.109931625 0.018022124 -0.040738523
000250 ac 45 1d 3d 82 e5 15 3d 4a 43 7b bd df 64 7d bd
       0.038396522 0.03659583 -0.06134347 -0.061863776
000260 0f da 19 bc 0a fd 4a bd 03 e1 c3 3d 38 0f 34 bd
       -0.009390368 -0.049557723 0.09564402 -0.043959826
000270 c1 ca 4b bd 01 2a 0f 3d ce 65 79 3d be 8f b1 bb
       -0.049753908 0.034952167 0.060888104 -0.0054187467
000280 ad c7 bd bc a1 21 63 bd e5 bf 61 bd 86 00 06 3c
       -0.023166502 -0.055451993 -0.055114646 0.008178836
000290 c2 2e 0c 3d 4a 54 e2 3c 58 b3 51 3c 26 ac bb bc
       0.03422428 0.027628083 0.012799107 -0.022909235
0002a0 cd 64 f7 3d d4 ef 61 ba ce 27 1e 3d 64 ae 32 3c
       0.12079773 -0.0008618806 0.03861218 0.010905836
0002b0 d9 51 cf bd 34 12 1c 3d 78 d7 48 3d e8 ce 7f bd
       -0.10123033 0.038103297 0.049033612 -0.06245318
0002c0 f9 3a 6f 3d 23 6c 9b bb 0e 61 6a bc 71 ca 74 3d
       0.05840585 -0.0047431155 -0.014305366 0.059763376
0002d0 f5 ca 45 3d 35 05 57 bd 89 26 4e bd 7c fd 33 bb
       0.048289258 -0.0524952 -0.05032972 -0.002746432
0002e0 87 6e 7b b9 0b ec bf bc 93 b9 06 bd f1 68 68 bb
       -0.000239784 -0.023427984 -0.03289182 -0.003546294
0002f0 10 55 2b 3d 41 99 ae 3c d2 1e 25 3c 5d 06 37 bd
       0.04182917 0.021313312 0.010078149 -0.044683803
000300 66 b4 ad 3c b8 f7 b1 3d 2e 01 bb 3c 14 9b bd bd
       0.021204185 0.08689827 0.022827711 -0.092580944
000310 16 f6 28 3d 04 88 ed 3c ea 5b 89 bc f1 2b 84 bc
       0.04125031 0.028995521 -0.01676746 -0.016134234
000320 44 a8 96 bd d5 9b a4 3c e8 91 19 3e 6c ab 49 3d
       -0.07356313 0.020093838 0.14997065 0.049235746
000330 42 6d 7b bd 4e 0f 16 bd 63 eb 82 3d bf f9 9e bb
       -0.061383493 -0.03663569 0.06392553 -0.0048515494
000340 d8 37 4e bd 9d 88 4c bc 6c 4c 8e 3d 58 18 09 3e
       -0.050346226 -0.012483743 0.0694817 0.13388193
000350 6c 6d 16 bd 2f e5 4b bd dd 30 b0 bc b2 bf 0d bd
       -0.036725447 -0.049779113 -0.021507675 -0.034606643
000360 e0 37 d5 3c b1 00 c3 bc 5f 2e a3 bd 30 df 44 bb
       0.02602762 -0.02380404 -0.07967829 -0.0030040257
000370 5d f0 98 bc 4e 97 71 3d 0a 53 03 3d 35 6a 19 3c
       -0.018669302 0.058982186 0.032061614 0.009363701
000380 6f 7b 12 3d 10 92 54 3d f3 14 a8 bd e4 10 45 bc
       0.035762247 0.05189711 -0.08207121 -0.012027953
000390 60 a3 1a bc 87 90 ad 3c e3 5c 22 3c f1 59 07 bd
       -0.009438366 0.02118708 0.009909841 -0.03304476
0003a0 ee 08 51 3d 50 37 9d 3c ab 17 19 3d 3a eb 13 3d
       0.051033907 0.019191414 0.037376087 0.036113
0003b0 11 90 03 bd e1 d1 3c 3d b8 01 9f 3c 67 8a 46 bd
       -0.032119814 0.046098594 0.01941 -0.048471835
0003c0 22 02 46 3c d3 e3 ba bc 58 4e 69 3d d0 41 d4 3c
       0.012085469 -0.022813713 0.05695948 0.025910288
0003d0 42 2c a4 bc 94 ae 88 bc 34 9a f2 3b f5 ee 8a 3d
       -0.020040635 -0.016684808 0.0074036364 0.06783859
0003e0 ee 30 f3 3c 2c e3 40 3c 3c 52 b5 bd 23 f7 86 bd
       0.029686417 0.011772912 -0.088535756 -0.06590106
0003f0 d6 e1 7b 3d 7c 3b 88 3c b1 94 78 bb 32 60 c5 3d
       0.06149467 0.016629927 -0.0037930424 0.096374884

Generator.conv3.conv2.0.weight f4 [8, 8, 3, 3, 3]
000000 b3 26 ac bd c7 9c 27 3c 11 f1 26 bd b8 54 43 bd
       -0.08405819 0.01023025 -0.040757243 -0.047688216
000010 06 a3 1c 3d b2 83 91 bc ac 78 6e bd e5 6a a6 3b
       0.03824141 -0.017762993 -0.05822055 0.005078661
000020 47 e0 25 bd cd 2d 56 bd bb 33 6e bd ac 1a 1a 3b
       -0.04049709 -0.052289773 -0.058154803 0.0023514433
000030 0d 44 b1 3c 99 b4 02 3d 8a e0 15 bd 44 12 2a bd
       0.021638894 0.031910513 -0.03659109 -0.041521326
000040 a7 48 fd 3c b1 2c 5d bd e0 bd 29 bd 97 ac 01 bd
       0.030918432 -0.0539977 -0.041440845 -0.031658735
000050 6e ea b6 bd 04 f0 14 3d de af 19 3d 14 cf 04 3d
       -0.08931433 0.03636171 0.037521236 0.032424048
000060 3b 1b 89 bc 47 80 a3 3d de 29 4a bb d2 96 4c bd
       -0.016736617 0.07983451 -0.0030847709 -0.04994852
000070 b2 c2 75 bd 72 40 28 bc c2 51 21 3c 8f f7 6e bd
       -0.06000013 -0.010269271 0.009846153 -0.05834156
000080 ab 89 86 bd ed ba 79 3c 0b c6 4d bd 62 47 a4 3c
       -0.06569227 0.0152423205 -0.050237697 0.02005357
000090 71 ee f3 3c 02 e2 d8 ba 33 0c 40 3d f4 ba 5c bd
       0.029776784 -0.0016546848 0.046886634 -0.05388923
0000a0 d2 27 bf bc 2d f5 47 3d 9f 14 1f 3d 78 dc 34 bd
       -0.023334417 0.048817802 0.038838025 -0.044155568
0000b0 4f 30 c2 bc 2a 31 35 3d e5 74 cc 3b 7a be 51 bd
       -0.023704676 0.04423634 0.006239521 -0.051207043
0000c0 4b 9d e1 ba 85 d7 57 bc ed 69 2a bd ad 45 dd 3c
       -0.0017213015 -0.013173942 -0.041604925 0.027010763
0000d0 8d ba 38 bd 1a 9d ca 3c 75 b9 91 bc c4 b6 f3 3d
       -0.045099784 0.024733115 -0.017788628 0.11900094
0000e0 74 95 fd bc 7c 45 ca ba 39 2f 01 3d 5e b2 c3 3b
       -0.030955054 -0.0015432085 0.031539176 0.0059721908
0000f0 7b 1c b6 bd 75 9f 8d bd 53 20 5e 3c 39 a2 73 3d
       -0.08892151 -0.0691518 0.013557511 0.05948088
000100 77 c3 ba 3c f5 48 29 3d b8 0c 42 3d 47 92 ce 3d
       0.022798283 0.041329343 0.04737541 0.10086494
000110 36 6f 9f bd 8b b2 e9 bd 47 76 24 3d a2 05 8c bd
       -0.07784884 -0.114110075 0.04015186 -0.06837012
000120 6b b4 88 3c a5 1a 1c 3e 07 d9 44 3c 4b 5f a6 3c
       0.016687592 0.15244539 0.012014634 0.020309111
000130 5d 58 0f 3e 12 ec 24 bd ef 57 b5 bd 52 ee b0 bd
       0.13998552 -0.040264197 -0.088546626 -0.08639206
000140 ba ec 82 bc df 72 ba 3c ca 32 ec 3c 0d a9 2d bd
       -0.01598202 0.022759853 0.028832812 -0.042397548
000150 50 63 39 bc cf a3 95 bd 7a fb 14 3c 86 fb c2 3a
       -0.011315182 -0.07306635 0.00909316 0.0014875985
000160 d9 80 54 bd 97 a3 55 3d 61 e3 9f 3c 4b e4 4b bb
       -0.05188069 0.052157965 0.019517602 -0.0031111415
000170 88 07 04 3b 44 ca 0c bd 88 f9 b1 bd ac 1a c2 3c
       0.002014609 -0.034372583 -0.086901724 0.023694359
000180 ec 95 d8 3c 2a a7 3b bd dc f6 5e 3d f4 c1 50 3c
       0.026438676 -0.045813717 0.054434642 0.0127415545
000190 ee 31 40 bd ff 94 13 3d be 4b 5c 3d a7 81 60 bd
       -0.046922617 0.036030766 0.05378317 -0.054811146
0001a0 96 a3 06 bd 83 a2 58 3c 8c 0c a2 bc 01 39 a4 3c
       -0.03287085 0.01322234 -0.019781373 0.020046713
0001b0 5a 9b 1c bd d2 c4 03 3c 81 b5 ed bc c5 7f 84 3d
       -0.038234092 0.008042531 -0.029017212 0.064696826
0001c0 59 1c da bc 21 a0 81 bd c7 a3 96 bd 3f cd 0c 3d
       -0.026624845 -0.0632937 -0.07355457 0.034375425
0001d0 4e 6c f4 3b f9 84 43 3c db a9 71 bd c9 6a b2 3c
       0.0074592 0.011933559 -0.058999877 0.021779435
0001e0 9c d8 8f 3d 22 3f c7 3b 99 f7 14 bc 8c c5 68 bd
       0.07023737 0.006080524 -0.009092235 -0.05682902
0001f0 bf 2f ad 3b cf 79 44 bc ff 59 ad bd 09 12 25 bd
       0.005285233 -0.011991932 -0.08464431 -0.040300403
000200 24 69 98 bd f1 6b 96 3d 05 0c 53 3c 1a 51 d1 bc
       -0.07441929 0.07344807 0.012881284 -0.025551368
000210 6f 50 41 bb e3 81 d9 bc 23 14 48 bd af e8 2a 3d
       -0.0029497405 -0.026551193 -0.04884733 0.04172581
000220 04 b2 59 3d 05 38 b7 3c 16 b6 fb 3b ae 5a 8d 3d
       0.053148285 0.02236558 0.0076816184 0.069020614
000230 ff 9e 02 bd d1 e3 6c bc af 98 78 bd b3 77 e8 3c
       -0.03188991 -0.014458613 -0.060692485 0.02837739
000240 3d 36 c3 bc 01 4e 85 ba 57 b8 92 3d 48 d8 ed 3c
       -0.023829574 -0.0010170342 0.07164066 0.029033795
000250 2b 83 cc 3c 65 60 80 3a da 53 e3 3a c7 f7 8e bc
       0.02496489 0.0009794353 0.0017343715 -0.017452134
000260 c5 7c 31 3d 2c 5c d3 ba 34 c8 92 3d ed b8 71 3b
       0.04333188 -0.0016125492 0.07167092 0.0036883906
000270 0b 55 9a 3d 24 fc 84 3c ce 97 01 3c 00 cc 07 bd
       0.07535752 0.016233511 0.007909728 -0.033153534
000280 9a 68 76 bd d1 6b 3c bd 9c c6 7a 3d 7b 0c 3e bc
       -0.06015835 -0.04600126 0.061224565 -0.011599655
000290 aa a7 4c 3c 5a 57 d3 3c 55 01 39 3d d7 83 74 3d
       0.012491146 0.025798488 0.045167286 0.059696045
0002a0 87 64 22 3d 18 3b 92 bd 15 c4 6a bd d2 d7 f5 bc
       0.03964665 -0.071401775 -0.057315905 -0.030010138
0002b0 d5 ea 53 bc 54 94 59 bb 68 d5 44 bd 4c 27 54 bc
       -0.012934406 -0.0033199983 -0.048055083 -0.012948822
0002c0 b8 91 4a 3d d0 6b 75 ba 23 59 77 3d a6 b1 cc bc
       0.049455374 -0.00093620736 0.06038774 -0.024987053
0002d0 ae 5a 19 bd b7 32 80 bd 17 28 48 3d 89 43 28 bd
       -0.037439995 -0.06259673 0.048866358 -0.04108003
0002e0 31 28 3b bc e9 bc c6 3d 60 20 20 bd 83 8a ad 3c
       -0.011423157 0.097040005 -0.039093375 0.021184212
0002f0 60 3c 1d bd 52 bb 1b bd 51 c7 57 3b 9d 7d 2f bd
       -0.038387656 -0.03802044 0.0032925198 -0.042844404
000300 61 8a fe bb 4f 6c 1b 3c d7 a1 81 3c 9c 24 03 3d
       -0.007767961 0.009486272 0.015824242 0.032017335
000310 d1 97 31 3d 3a 20 ac 3d 8d 0d ca 3d 7e 1c 90 ba
       0.043357674 0.08404584 0.09865866 -0.001099482
000320 b8 05 ee bc 73 2e 0d 3d 21 3d b9 3c 5e a0 e7 bc
       -0.029055461 0.034468126 0.022612156 -0.028274711
000330 64 04 1d bc a1 e2 cf 3d e1 8d ab bc 65 6c 11 3d
       -0.009583566 0.10150648 -0.020941677 0.035503764
000340 3d 0e be bd a1 2d 88 bd 70 b8 b7 3d 8c eb 1d bb
       -0.092800595 -0.06649328 0.089707255 -0.0024096696
000350 d2 04 73 bc 2b 80 a8 3d 3e bf 02 3e 77 e6 dd bc
       -0.014832692 0.08227571 0.12768266 -0.027087433
000360 26 6e 6d 3c 8d c0 19 bd e2 84 18 bd b2 1c 2e ba
       0.014491593 -0.037537146 -0.037236102 -0.0006641849
000370 6e 2c c4 bd 60 15 3f be c2 8c 99 3d fc de be 3d
       -0.09578787 -0.18660498 0.074975505 0.09319875
000380 bb 27 22 be 5a a1 88 3a 0a 55 a1 bd 9e 83 8c bc
       -0.15835468 0.0010424063 -0.07877548 -0.017152604
000390 71 f5 80 bb d9 bd 11 3d 31 cd 0a be a7 bd e5 3d
       -0.003935509 0.035581443 -0.13554837 0.11217814
0003a0 34 1f a0 3d b8 0b 9c bd 96 e2 9f bc a8 59 9c 3c
       0.078184515 -0.07619423 -0.019517224 0.01908572
0003b0 23 f4 6c 3d 44 cd 5c 3d d2 ce 18 ba 7d 36 5a ba
       0.057850014 0.053906694 -0.00058291585 -0.00083241594
0003c0 db de 84 3d a6 2f 6f bb de 43 63 bd 28 f8 b9 3c
       0.06487819 -0.0036496907 -0.055484645 0.022701338
0003d0 a6 aa 23 3d b3 8f 84 bc c4 74 fe 3b 88 aa b8 3d
       0.039957665 -0.016181802 0.0077653844 0.09016901
0003e0 a8 b9 00 3d 89 0b 4a bd 9e e0 e9 bc f4 3c 8f 3c
       0.031427056 -0.049327407 -0.028549489 0.01748512
0003f0 9d 93 dd bc 2a 15 66 3d 7a 63 09 bd 0c df 60 3d
       -0.027047927 0.056172527 -0.033542134 0.054900214

Generator.conv4.conv1.0.weight f4 [8, 8, 3, 3, 3]
000000 88 cb be bc 18 84 04 3c c5 e3 72 3c 05 3d e8 3c
       -0.02329041 0.008088134 0.014824812 0.028349409
000010 18 2e ac bc a7 64 19 3c b5 6e f7 bc c2 76 51 bc
       -0.021018073 0.009362376 -0.030204156 -0.012784662
000020 22 bc 4b bd 62 d0 68 bd bd 7c 9d ba 0f 55 a3 bd
       -0.049739964 -0.056839354 -0.0012015324 -0.07975208
000030 28 91 5d bd 9a 6d 6a 3d 52 21 0a 3c fb 42 92 3d
       -0.05409351 0.05723343 0.008430796 0.07141682
000040 72 94 84 3b a8 45 c0 3c 14 5e c0 bc ad e2 6e 3c
       0.0040460164 0.023470715 -0.02348236 0.014580411
000050 35 d6 26 3d 56 5b 25 3d 2e b1 7e bc 8d 0e 5e 3d
       0.040731627 0.040370308 -0.015545173 0.054213095
000060 1f 21 28 bd cf 59 0e bc fc a4 12 bd 8a 73 5e 3c
       -0.04104721 -0.008688404 -0.035801873 0.013577351
000070 71 eb 26 bd 7d db 38 3d 92 df 23 bd a3 86 0c 3c
       -0.04075188 0.045131195 -0.040008135 0.008577022
000080 c9 bf db 3c 08 c1 cd 3c 12 25 9a 3d 9b ec 5b bd
       0.026824849 0.025116459 0.07526602 -0.05369244
000090 81 29 f9 3c dd 90 12 3d 48 b0 13 bd 43 a1 8e bc
       0.030415298 0.035782684 -0.036056787 -0.01741088
0000a0 20 f8 38 bd 70 64 76 bd 5c cf d3 bc 61 d2 1e 3c
       -0.045158505 -0.06015438 -0.025855713 0.009693713
0000b0 a8 82 14 3d fd 3e 2a 3b 53 04 7c 3d 5a 76 51 3d
       0.036257416 0.0025977485 0.06152756 0.05113826
0000c0 32 65 0e 3b 8c 76 6a 3c 54 4b 34 3d 86 bf b3 3c
       0.0021727798 0.01431049 0.04401715 0.021941911
0000d0 28 de 96 3d 36 11 8b 3d 83 df d7 bc 1e 39 93 bc
       0.07366592 0.06790392 -0.026351696 -0.017971572
0000e0 43 82 42 bd cb 68 e4 b9 a8 db 1e 3c 52 4a bb bd
       -0.04748751 -0.00043565626 0.009695925 -0.09145035
0000f0 f2 f2 a9 3d a2 5e a9 3c 18 c5 09 bd 95 51 eb 3c
       0.08298291 0.020675007 -0.03363523 0.028725425
000100 ba 2e 8f bd 30 ee 7d bb c3 04 1c 3d 75 8b 08 bc
       -0.06991334 -0.0038746707 0.03809048 -0.00833403
000110 1d ed 6d 3b 84 9a 87 3b 04 8c 93 3d 6c 30 1b bd
       0.003630466 0.0041382927 0.0720444 -0.037887976
000120 a8 0a a9 3c 02 a8 cb 3c 4b 33 ca 3b 9c 19 1e 3d
       0.020634964 0.024860386 0.0061706654 0.03859864
000130 ec 9b 7c bd 2a 17 24 3c ab 32 e9 3c 0b de b3 bc
       -0.061672136 0.010015288 0.028466543 -0.021956464
000140 f9 9e 00 3c 59 f4 31 3d d4 af 68 bc 24 a3 52 bc
       0.007850402 0.04344592 -0.014202077 -0.012856279
000150 38 fc 01 3d 70 cb 89 bb 15 65 35 bc 3a 23 36 3d
       0.031734675 -0.00420516 -0.011071463 0.04446719
000160 1d 18 26 3c 96 23 68 3d ac 05 2a 3c c9 e0 fa bb
       0.010137585 0.056674562 0.010377329 -0.007656191
000170 2d ed 6e bc 23 9c 2c 3d 5f 80 83 bd d8 2b 4c 3d
       -0.014582914 0.04214109 -0.06420969 0.0498465
000180 41 71 24 3d f1 d0 85 3d a7 4d 7f 3d 2c f2 76 bd
       0.04014707 0.06533993 0.062329914 -0.060289547
000190 ce 58 eb bc 2e 5f c7 bc 4e ca ee 3c 9c 86 79 3d
       -0.028728869 -0.024337377 0.0291492 0.06091939
0001a0 8a 45 c0 3a ba ea 77 3d 08 2b 88 3c 2b e2 0e 3d
       0.0014669162 0.060526587 0.016622081 0.03488366
0001b0 49 36 a5 bb b7 41 32 3c c3 0c d0 bc a7 3a 69 3c
       -0.0050418717 0.010879925 -0.02539671 0.014235175
0001c0 5b 29 77 bc 38 6f 3f 3c 4d 11 52 3c 75 c3 67 3d
       -0.0150855435 0.011684231 0.012821508 0.056582887
0001d0 8a b9 31 b9 fa cf 51 3b 08 d3 40 bd 74 c5 01 bc
       -0.00016949154 0.0032014833 -0.047076255 -0.007920612
0001e0 13 d9 61 bd 1d 38 5b bd de 54 08 bd 23 e1 2b 3d
       -0.05513866 -0.05352031 -0.03328406 0.041962754
0001f0 74 50 b0 3d 34 72 a7 bc 68 86 05 3d dc c1 87 3c
       0.08609095 -0.020440198 0.032598883 0.016571932
000200 06 c8 c8 bb fe 1d 04 bc 4b 01 35 bd 33 80 23 3d
       -0.0061273603 -0.008063791 -0.044190686 0.039917182
000210 55 40 71 3d 65 47 51 3d 20 9b 9b 3d 3f 25 3f bd
       0.058899242 0.051093478 0.07597947 -0.04666638
000220 9a 5e 84 bd a5 92 8e bc f7 b6 c3 3a a9 9a e1 bc
       -0.06463356 -0.01740391 0.0014931847 -0.027539568
000230 25 aa ac bd 75 ca 8a 3d bb ab 87 3d 1c b6 84 bd
       -0.0843089 0.06776897 0.06624552 -0.06480047
000240 f8 3a 23 3d 4a 77 92 bd f5 01 41 bc 2c 82 8e 3c
       0.03985116 -0.07151659 -0.011780252 0.017396055
000250 7d cf 86 bd 18 e4 a7 bc 10 1b 5c 3d 5f 02 a6 3c
       -0.06582544 -0.020494506 0.053736746 0.020264803
000260 fe f6 e1 bb bd 69 9a 3b ab e6 25 bd 7e b8 88 bd
       -0.006895899 0.004712312 -0.040503185 -0.06675814
000270 41 b0 bb 3c 13 f5 33 bd fb f9 18 bd 61 bd 46 3c
       0.022911193 -0.043934893 -0.037347775 0.012130112
000280 ae e9 19 bd 7b 35 33 3d c0 41 17 3d 57 88 1f bb
       -0.03757637 0.043752175 0.03692794 -0.002434274
000290 9d bb 9c bc e0 5d c7 bb 07 53 60 3d e1 00 8e 3c
       -0.01913243 -0.006084189 0.05476668 0.017334403
0002a0 49 96 63 bd 4c d7 01 bc f0 a7 81 3c 99 d6 23 bd
       -0.055563245 -0.007924866 0.01582715 -0.03999958
0002b0 9c 82 bc bc b4 1f fd 3c d7 fc 37 3d 8c e2 51 bd
       -0.023011498 0.030898906 0.04491886 -0.051241443
0002c0 8e 7d 6a bd ac bb 32 3d c4 0b 6d 3c 88 77 05 bd
       -0.057248645 0.04363601 0.014468137 -0.032584697
0002d0 06 e6 bf 3c e9 4c 76 bb 2a 6a 26 3c f8 2e 86 bd
       0.023425113 -0.0037582463 0.010157147 -0.06551927
0002e0 ab 79 73 3d f0 b2 ad 3c 12 4a 2f bb 38 2e 14 bb
       0.059442203 0.021203488 -0.002674703 -0.0022610556
0002f0 b4 9f e8 3c 54 12 1f bd b4 32 dd bc 22 ff 7c bd
       0.028396465 -0.03883584 -0.027001716 -0.06176675
000300 80 eb ef bc 89 36 36 3d 0b 54 39 bc 1d 02 52 bd
       -0.0292871 0.044485603 -0.011311541 -0.051271547
000310 24 44 25 bd f1 48 12 bc e5 22 36 3d be 8c 92 bd
       -0.040348187 -0.008928523 0.04446687 -0.07155751
000320 87 08 b7 bc a4 de 00 3d 01 21 3a bd fd d7 51 bd
       -0.022342933 0.031462327 -0.04544163 -0.051231373
000330 f7 4e 8f bc d1 e5 87 3d 02 83 6c bd f6 3f 5a bd
       -0.017493708 0.06635631 -0.057742126 -0.053283654
000340 b1 49 3b 3d 2d a6 54 bc fd 35 2a 3c 9d 29 eb bc
       0.045724574 -0.0129790725 0.010388848 -0.028706366
000350 25 3d 4e bc 33 ef 97 3d bc ce 9a 3d 59 c6 1b 3c
       -0.01258782 0.074186705 0.07558963 0.009507739
000360 e2 1d 38 ba 03 fb 85 3d 95 c3 1e 3d f0 13 96 3b
       -0.0007023496 0.06542017 0.03876074 0.0045800135
000370 70 76 61 bc fd 4c cc 3c a3 9d 3e bd 98 b4 e5 bc
       -0.013761148 0.024939055 -0.046537053 -0.028040215
000380 6d e3 e9 3b 3a 79 9d 3d 33 52 62 3d 4a 11 8d bc
       0.007137707 0.07689138 0.055254173 -0.017220158
000390 1a 6d 61 bd be 0e 97 3b b1 28 a1 bc 4d 4e 42 bc
       -0.055035688 0.0046099117 -0.019672723 -0.011859489
0003a0 76 31 c3 bc 35 00 26 bd 21 70 a3 bc 0d 84 ee bb
       -0.023827296 -0.04052754 -0.019950928 -0.0072789253
0003b0 74 77 6f 3b 4f a8 0e 3b f9 47 6e 3d 44 15 b7 ba
       0.0036539705 0.00217678 0.058174107 -0.001396813
0003c0 a9 25 de 3c 4c 8b 7a 3d 77 c7 92 bc 34 4c 30 bd
       0.027117567 0.061168 -0.017917378 -0.043041423
0003d0 21 ad 31 bb b2 1d 02 bd 07 63 72 bd 66 48 d9 3c
       -0.002711125 -0.0317666 -0.05917647 0.02652378
0003e0 7d 97 a7 bb de 15 65 3c 9c 42 57 bd c2 be bf bc
       -0.0051144944 0.013982264 -0.052553758 -0.02340639
0003f0 4d fa d9 3c 8f a3 79 3d 94 f5 53 3d 87 18 a0 3a
       0.02660861 0.060946997 0.051747873 0.0012214341
