DeepWonder3D_pytorch/pth/SEG_pth/Unet4_no_end_UNet3DFFD_20240401-1432_2um/seg_18.pth (torch, 138281 bytes, 19 tensors)

Generator.conv1.conv1.0.weight f4 [8, 1, 3, 3, 3]
0.10977821 0.10662552 -0.04216019 0.14894375 -0.108612 -0.1043476 0.026825696 0.02501458
0.12579627 0.021824993 -0.16058685 0.0973078 0.12495139 0.11260164 0.050441105 -0.17215456
0.106991015 -0.18007016 -0.1544164 -0.14419073 -0.08769332 0.027533257 -0.06632121 0.049513265
-0.2092097 -0.055783615 0.0728579 0.14729305 0.13786513 0.0017827252 0.098763585 -0.1322419
-0.18072855 0.17205413 0.04472561 -0.059351634 -0.12292646 0.13978067 -0.06024856 -0.119441226
-0.08085521 0.0014586588 -0.16892722 -0.20077255 -0.011054115 0.10006137 0.004056322 0.17558141
0.17666742 -0.096624896 0.14603572 0.11610609 -0.11792786 -0.074856564 0.07429602 -0.030652571
-0.109636635 0.02859292 0.10072069 -0.0057941875 -0.15777048 -0.109348856 -0.060229912 0.041554943
0.1018575 0.023322206 -0.04484703 0.037741505 0.07087642 0.038227458 -0.011739185 -0.008263133
-0.17704792 0.023144756 0.022968918 -0.02387434 -0.09179646 0.065836504 -0.07586251 0.06298208
-0.19526568 -0.079900295 -0.12774992 0.17930104 -0.18806188 -0.05241773 2.7764923e-05 0.08635128
-0.122254 0.0489437 -0.1893122 -0.029410219 0.058022216 0.11882925 -0.1690015 -0.13301015
-0.031568106 0.12584876 0.08845364 -0.03684872 0.09344073 0.12292032 -0.047402978 0.08813701
0.109698534 0.02055681 -0.1603835 -0.21892941 0.029993705 -0.17196622 -0.073748246 -0.20739329
-0.020774033 0.0064591668 -0.118326716 0.07149038 0.036119673 -0.032983523 0.11868996 -0.18053408
-0.085592404 -0.026379472 -0.01425989 0.072240435 0.027825268 0.11006425 -0.2093237 0.10536905
0.12929189 0.07761295 0.05972059 -0.10185787 -0.17701082 -0.057954896 0.1098822 0.04149729
-0.084893174 0.13663456 0.1305466 -0.045275483 -0.111827955 -0.17989923 0.17740819 0.0057681263
-0.08063892 -0.17193715 0.06983039 0.112345405 -0.15586722 -0.20591003 -0.07540254 0.060193084
0.12409763 -0.03331916 -0.035022017 0.116158776 0.028468503 0.16342568 -0.09502353 -0.012391328
-0.07538852 0.1546485 -0.18516481 0.1768446 -0.091438524 0.11222674 0.009674048 -0.072916344
0.07227496 -0.004840058 0.038358357 0.0707542 -0.0737482 0.19488439 -0.1897431 -0.08835032
-0.010218519 -0.018096197 0.13142203 0.021897914 -0.07395927 -0.068126425 0.0669963 -0.13483155
0.044818506 0.071130164 -0.08741269 0.014228626 0.14705111 -0.020625843 0.12745537 0.02571417
0.06909561 0.097507715 -0.2043021 -0.04466892 -0.013919231 0.12326005 -0.0052933465 -0.0882539
-0.050739415 -0.17664443 0.11943802 -0.09768444 -0.062732525 0.14291975 0.01535313 -0.05139542
-0.0401511 -0.016075086 -0.19990663 0.08182549 -0.11260639 -0.16796598 -0.10434539 0.09228564
00000000: 66d3 e03d 7b5e da3d 2ab0 2cbd b684 183e
00000010: f86f debd 32b4 d5bd 90c1 db3c 60eb cc3c
00000020: bdd0 003e 54ca b23c e170 24be 5049 c73d
00000030: 84e6 ff3d b09b e63d 559b 4e3d 4949 30be
00000040: 1b1e db3d 5064 38be 551f 1ebe bca6 13be
00000050: 8e98 b3bd 6d8d e13c 6ad3 87bd 6cce 4a3d
00000060: 113b 56be 5c7d 64bd 8636 953d fdd3 163e
00000070: 842c 0d3e 55aa e93a 9044 ca3d 6c6a 07be
00000080: e810 39be f52e 303e 3432 373d b31a 73bd
00000090: dec0 fbbd aa22 0f3e 32c7 76bd 9a9d f4bd
000000a0: 6b97 a5bd 7830 bf3a 42fb 2cbe 5297 4dbe
000000b0: 521c 35bc faec cc3d e5ea 843b 9dcb 333e
000000c0: 4ee8 343e 46e3 c5bd 638a 153e 08c9 ed3d
000000d0: 2984 f1bd 664e 99bd 8328 983d 1a1b fbbc
000000e0: 2c89 e0bd b33b ea3c a646 ce3d 2bdd bdbb
000000f0: 968e 21be 4bf2 dfbd a4b3 76bd 8435 2a3d
00000100: aa9a d03d 360e bf3c 85b1 37bd d696 1a3d
00000110: a827 913d 6594 1c3d b655 40bc 1762 07bc
00000120: 0d4c 35be 129a bd3c 5029 bc3c 1f94 c3bc
00000130: c8ff bbbd 4ad5 863d ce5d 9bbd c0fc 803d
00000140: baf3 47be c4a2 a3bd e0d0 02be b19a 373e
00000150: 4b93 40be f9b3 56bd b8e8 e837 f1d8 b03d
00000160: 4e60 fabd 3079 483d 0fdb 41be b3ed f0bc
00000170: b4a8 6d3d c05c f33d bb0e 2dbe d033 08be
00000180: 8f4d 01bd 7fde 003e 2f27 b53d afee 16bd
00000190: da5d bf3d a6bd fb3d a029 42bd 2d81 b43d
000001a0: a0a9 e03d c166 a83c 923b 24be 082f 60be
000001b0: 5cb5 f53c ea17 30be 5209 97bd e85e 54be
000001c0: 4e2e aabc 6ba7 d33b 4755 f2bd 8c69 923d
000001d0: 39f2 133d bb19 07bd b913 f33d eddd 38be
000001e0: 124b afbd c319 d8bc 50a2 69bc cbf2 933d
000001f0: d1f1 e33c 5e69 e13d f458 56be bacb d73d
00000200: 1865 043e 8af3 9e3d 949d 743d dc9a d0bd
00000210: 5342 35be 1d62 6dbd eb09 e13d 10f9 293d
00000220: 79dc adbd eee9 0b3e 02ae 053e c972 39bd
00000230: 0e06 e5bd 8137 38be 7eaa 353e 8d02 bd3b
00000240: 0526 a5bd 4b10 30be 3c03 8f3d 5915 e63d
00000250: a89b 1fbe 14da 52be a66c 9abd 068d 763d
00000260: e626 fe3d ac79 08bd 3f73 0fbd a7e4 ed3d
00000270: c736 e93c 1059 273e b29b c2bd ff04 4bbc
00000280: 4c65 9abd 2d5c 1e3e d89b 3dbe c016 353e
00000290: 1f44 bbbd 22d7 e53d e67f 1e3c 2a55 95bd
000002a0: e504 943d 5999 9ebb a71d 1d3d 94e7 903d
000002b0: 4c09 97bd c68f 473e 044c 42be 03f1 b4bd
000002c0: 936b 27bc 7a3e 94bc 7f93 063e 4163 b33c
000002d0: f577 97bd de85 8bbd 5b35 893d 4811 0abe
000002e0: 9c93 373d b1ac 913d 6d05 b3bd 2f1f 693c
000002f0: 9194 163e 87f7 a8bc a983 023e 86a6 d23c
00000300: 0082 8d3d 20b2 c73d 9234 51be c2f6 36bd
00000310: 7c0d 64bc c46f fc3d cf73 adbb 76be b4bd
00000320: 22d4 4fbd 47e2 34be ec9b f43d c80e c8bd
00000330: e979 80bd 8e59 123e b28b 7b3c 0184 52bd
00000340: 7b75 24bd e6af 83bc 53b4 4cbe 1f94 a73d
00000350: 2e9e e6bd 46ff 2bbe 09b3 d5bd 4100 bd3d

Generator.conv1.conv2.0.weight f4 [8, 8, 3, 3, 3]
0.086377405 -0.006960179 0.033848587 -0.028752603 -0.034306005 -0.02744466 0.0013972704 -0.048271008
0.082307905 0.0006213511 0.013194801 0.0043092626 0.009885223 0.078291655 -0.049334507 0.044560835
-0.04246517 0.07652684 -0.058709722 -0.00011965987 0.00010875843 0.013403299 0.025406254 -0.02535566
0.04373367 0.012555898 0.02889318 -0.0547963 -0.08720159 -0.04233986 0.031359173 -0.077704474
-0.044021048 -0.0023168123 0.017758705 -0.09085232 -0.06879051 0.043709535 0.02216812 0.024510542
0.02792521 -0.07393351 -0.0056922184 -0.0020420032 0.015001239 0.01909112 0.06497489 -0.0852974
-0.012214309 0.036462158 -0.07155566 -0.06091775 -0.043910895 0.016008945 -0.014460249 0.022127002
0.029384034 0.06867902 0.017117834 0.011248158 0.0155408 -0.018061657 -0.07059956 0.037727006
0.04802643 -0.006104769 -0.014302038 0.041311692 0.024220364 0.0678788 0.0073745986 0.022985201
-0.040243607 -0.05066797 0.05209404 -0.028414603 0.04338058 -0.044222474 0.06761452 0.06938173
0.036778536 -0.02241122 0.061852712 0.041499224 0.1170398 0.0020506054 -0.0062915897 -0.024262361
-0.03988559 0.008727551 0.021606753 0.017795738 0.04262752 -0.038166005 0.014793509 0.057404924
-0.0431278 0.006892031 0.02777239 0.06779054 -0.04626278 -0.048626237 0.00033784544 0.03818489
0.05206426 0.022151943 0.031140143 0.019160476 0.055115484 -0.013275678 -0.044227615 -0.044496227
0.014208905 -0.017698467 0.0047241137 -0.07441332 0.011247828 -0.03436758 -0.047241844 0.060286604
0.0065434114 -0.055056214 0.014014479 -0.051092986 0.017610291 0.040240645 -0.025575686 0.040148478
0.022770477 0.0134991985 0.027086586 -0.046883028 -0.04263283 0.04934693 -0.025420152 0.08672271
0.05428691 0.011474358 0.003220669 0.080571316 0.04569095 -0.005252322 -0.049847707 0.03865003
-0.06460057 0.03779064 0.021124661 -0.042918134 -0.0043174853 -0.02809739 0.01221187 0.018814748
-0.0661555 0.044201866 0.046778522 0.03414282 0.0026711798 0.07157527 0.045162756 0.011629064
-0.028146857 0.04277946 0.006971123 0.016662505 -0.070262074 0.0077905008 -0.004450562 -0.039817575
0.086323485 -0.020864636 0.023409875 0.0032281715 -0.09180289 -0.0022030664 -0.016625687 0.0029186555
-0.07854129 -0.08417126 -0.038099166 0.008045912 -0.021739408 -0.06893481 0.0063617025 -0.054015364
0.021742702 -0.041883368 -0.10258879 -0.08269006 -0.080016896 0.035473198 -0.07056537 0.004232758
0.07362231 0.024394676 0.044789065 0.04375734 -0.061357357 0.010681313 0.029583352 -0.0635863
-0.06328087 0.014065938 -0.017601218 0.0039183404 0.07285194 -0.07712237 -0.040448975 0.012734799
0.026095508 -0.060130883 -0.04224043 0.029966278 -0.036083553 -0.06755036 -0.010377754 -0.0071934685
0.028430004 -0.027640563 0.08076619 -0.016401343 0.0015333511 0.06553622 0.05107416 0.027019493
-0.018742928 0.025231441 -0.0036599503 0.056793746 -0.030395692 0.049047932 -0.03849328 -0.013015393
-0.048309844 -0.043428726 0.039517343 0.06489975 0.0109265875 0.065520264 0.05060779 0.062691905
0.040191136 -0.02157749 0.090914205 -0.056502346 -0.02484101 -0.012663118 -0.0054687927 -0.036754895
0.061809838 0.071408294 0.052548934 0.048128072 0.044305015 -0.039355014 -0.014756705 0.06757813
00000000: a3e6 b03d 3712 e4bb d1a4 0a3d 948a ebbc
00000010: 7484 0cbd a0d3 e0bc 9d24 b73a d2b7 45bd
00000020: 0c91 a83d 2be2 223a 022f 583c b734 8d3b
00000030: a1f5 213c 6057 a03d fb12 4abd 6c85 363d
00000040: f5ef 2dbd 1bba 9c3d 9b79 70bd e7f1 fab8
00000050: 3d15 e438 8399 5b3c c720 d03c acb6 cfbc
00000060: 1422 333d 41b7 4d3c 64b1 ec3c 1672 60bd
00000070: bf96 b2bd 906c 2dbd 7a72 003d 8623 9fbd
00000080: 6a4f 34bd a9d5 17bb b47a 913c c810 babd
00000090: 0ae2 8cbd c508 333d eb99 b53c 55ca c83c
000000a0: 69c3 e43c 746a 97bd ca85 babb 21d3 05bb
000000b0: c2c7 753c fb64 9c3c 8e11 853d 67b0 aebd
000000c0: 861e 48bc 5859 153d c68b 92bd e484 79bd
000000d0: e9db 33bd 3125 833c aeea 6cbc b043 b53c
000000e0: c9b6 f03c 96a7 8c3d b33a 8c3c 324a 383c
000000f0: d79e 7e3c 0af6 93bc 8196 90bd a287 1a3d
00000100: 5db7 443d 840a c8bb 1853 6abc 7336 293d
00000110: c969 c63c 0a04 8b3d 9ea6 f13b 764b bc3c
00000120: 7bd6 24bd 3889 4fbd 8f60 553d bec5 e8bc
00000130: d6af 313d a022 35bd 7b79 8a3d 0218 8e3d
00000140: 17a5 163d bc97 b7bc 4559 7d3d 17fb 293d
00000150: 90b2 ef3d 7363 063b ae29 cebb dcc1 c6bc
00000160: 135f 23bd 01fe 0e3c a500 b13c 5ec8 913c
00000170: 329a 2e3d f553 1cbd 7960 723c 6d21 6b3d
00000180: c7a6 30bd 8cd6 e13b ec82 e33c c4d5 8a3d
00000190: 0a7e 3dbd 4e2c 47bd d920 b139 c267 1c3d
000001a0: 5541 553d fe77 b53c 9d19 ff3c 6ef6 9c3c
000001b0: c6c0 613d 3b82 59bc 0428 35bd ad41 36bd
000001c0: 78cc 683c 60fc 90bc bdcc 9a3b 0366 98bd
000001d0: cf48 383c 05c5 0cbd aa80 41bd 16ef 763d
000001e0: 1d6a d63b a082 61bd fc9c 653c e146 51bd
000001f0: 7543 903c 60d3 243d 1a84 d1bc bb72 243d
00000200: 2789 ba3c be2b 5d3c b0e4 dd3c 6b08 40bd
00000210: c39f 2ebd 0220 4a3d ec3d d0bc ad9b b13d
00000220: f35b 5e3d f2fe 3b3c dc11 533b 9302 a53d
00000230: 6f26 3b3d ac1b acbb 1c2d 4cbd 7e4f 1e3d
00000240: 4e4d 84bd 5cca 1a3d a00d ad3c edca 2fbd
00000250: b179 8dbb 7f2c e6bc 4c14 483c 6321 9a3c
00000260: 897c 87bd 040d 353d d69a 3f3d 57d9 0b3d
00000270: f60e 2f3b 0e96 923d 95fc 383d d487 3e3c
00000280: 3d94 e6bc 8439 2f3d 056e e43b ce7f 883c
00000290: 90e5 8fbd 7547 ff3b 05d6 91bb c117 23bd
000002a0: 5eca b03d 50ec aabc 11c6 bf3c bb8f 533b
000002b0: 2703 bcbd 5261 10bb 9832 88bc ea46 3f3b
000002c0: 41da a0bd fb61 acbd df0d 1cbd 00d3 033c
000002d0: d816 b2bc b22d 8dbd d475 d03b 373f 5dbd
000002e0: c01d b23c e58d 2bbd 121a d2bd 6859 a9bd
000002f0: e6df a3bd 584c 113d 9484 90bd f3b2 8a3b
00000300: 4bc7 963d 58d7 c73c bd74 373d e63a 333d
00000310: da51 7bbd ad00 2f3c c958 f23c 8939 82bd
00000320: 6799 81bd d274 663c 6e30 90bc 6c65 803b
00000330: 6633 953d 55f2 9dbd d3ad 25bd 9ea5 503c
00000340: 3fc6 d53c cd4b 76bd 4d04 2dbd d77b f53c
00000350: 59cc 13bd d857 8abd 7507 2abc 30b7 ebbb
00000360: 0ae6 e83c 766e e2bc bf68 a53d 1c5c 86bc
00000370: bafa c83a db37 863d 2333 513d fc57 dd3c
00000380: c58a 99bc 2bb2 ce3c c7db 6fbb 8fa0 683d
00000390: 6300 f9bc 7ce6 483d 21ab 1dbd 843e 55bc
000003a0: 8be0 45bd 52e2 31bd f0dc 213d 29ea 843d
000003b0: 6e05 333c 7d2f 863d 1d4a 4f3d 9d64 803d
000003c0: 769f 243d 47c3 b0bc 3a31 ba3d 016f 67bd
000003d0: 607f cbbc f778 4fbc 8f33 b3bb 4d8c 16bd
000003e0: 502c 7d3d 833e 923d 8d3d 573d f121 453d
000003f0: 2d79 353d b932 21bd 1bc6 71bc 6766 8a3d

Generator.conv2.conv1.0.weight f4 [8, 8, 3, 3, 3]
-0.044500057 -0.08921147 0.064621784 0.024819577 -0.027397277 -0.06480429 -0.0631412 -0.028363587
0.03282086 -0.04785775 0.0024635217 0.036386117 -0.05507954 0.044595204 0.040392328 0.0057199877
-0.052026775 0.07371527 0.040823776 -0.04411512 -0.012916295 0.025877291 -0.039529774 0.01905945
0.064577505 -0.02575621 0.027033115 0.03374144 -0.05494399 -0.04891223 -0.030946005 -0.025197728
-0.04102923 -0.007730561 0.057436068 0.00276733 -0.089009024 -0.11032277 -0.03328241 -0.07417462
-0.073055044 -0.07883711 0.08367308 -0.010908306 -0.019084197 -0.020599114 -0.048030384 -0.1208623
0.0075024227 -0.050486177 -0.08482826 0.023258997 -0.03767813 -0.065899685 -0.050114203 0.020787263
0.01975677 -0.0071433196 -0.048921168 0.061122015 0.04480845 -0.019804446 0.052084573 -0.07400491
0.03662694 0.036152143 -0.0047146776 -0.0025621417 0.04808833 -0.076209724 -0.0023108968 0.041058637
-0.06672102 -0.0105703 0.037514817 -0.0707724 0.044181902 0.04909299 -0.027863048 -0.057063084
0.036454428 0.047717754 0.01499856 0.072780274 -0.041827403 -0.022178296 0.011686365 -0.030722775
-0.043655176 0.08047671 0.04385348 -0.010055569 0.05170099 0.036995254 0.002634052 0.040325396
-0.005974667 -0.04368521 0.053036205 -0.007578256 0.052358102 -0.028558409 -0.066278316 -0.040951334
0.058740675 -0.0077793645 -0.041055646 0.024247788 0.06517605 0.056626562 -0.036593627 -0.010723201
-0.0599626 -0.0105525395 -0.029165588 -0.028415104 -0.0027788042 -0.0101927025 0.0013162385 0.043917947
0.020621078 0.05162926 0.04964068 0.04158723 -0.05001322 0.066892214 -0.031656288 0.03202842
0.07180065 -0.034442738 0.05738626 0.07158405 0.033202082 -0.013076882 -0.049900442 -0.007623095
0.0324803 -0.03371525 0.010747377 0.04862722 0.022300823 0.023834258 -0.056630325 -0.04768842
0.020248162 -0.021297187 -0.035491504 -0.0009787686 -0.044087686 -0.04984001 0.035091866 -0.013344736
0.024073215 0.035564378 -0.005556741 0.026434192 -0.0056477706 0.04196277 -0.008111996 -0.03552532
-0.08014269 0.03138828 0.054255344 0.08371294 0.08775141 0.019514924 -0.0064086737 0.006308972
-0.058110688 0.058599748 -0.022174554 -0.019108579 0.005459618 -0.008183087 0.0097353775 0.073976964
0.08958023 0.042152565 0.035347566 0.054340992 0.076321945 0.030762691 0.0040926402 -0.04308986
0.07783798 0.0118718855 0.055110816 -0.030554742 0.056409802 0.031912863 0.01903619 0.06756537
-0.057535928 -0.0321207 0.064642385 -0.061515607 0.00261355 0.017741501 -0.004564079 -0.060384687
0.082649596 -0.06420788 0.00014063687 0.051789407 -0.009450496 -0.09145279 0.06812093 -0.050553467
-0.06860494 0.048097532 0.018995121 0.014704421 0.03288862 -0.07077311 -0.066648304 -0.045441292
-0.03165424 0.013377511 -0.058439843 -0.030720381 0.08189091 0.066395536 0.024239032 -0.013009711
0.07711868 -0.07318031 -0.038826004 0.040543113 -0.043254178 0.02155775 0.046651274 0.008554356
0.06351623 -0.0070247925 0.016092254 -0.08412496 -0.0102528045 0.051569268 0.003587158 -0.01568811
0.031940855 0.06317578 -0.019166922 -0.021456467 -0.019625468 -0.035557825 -0.012450826 0.050481174
0.011240127 0.06766601 0.05771889 -0.032987896 -0.11370319 -0.11553953 -0.08327234 -0.0215122
00000000: b145 36bd 81b4 b6bd 6d58 843d 6d52 cb3c
00000010: 4170 e0bc 1db8 84bd 2c50 81bd c15a e8bc
00000020: 2b6f 063d 7d06 44bd 0973 213b 9c09 153d
00000030: 159b 61bd 76a9 363d 6d72 253d bc6e bb3b
00000040: 071a 55bd 08f8 963d d536 273d 0eb2 34bd
00000050: de9e 53bc 9dfc d33c f9e9 21bd 9022 9c3c
00000060: 3641 843d b0fe d2bc 8d74 dd3c 7734 0a3d
00000070: f30c 61bd 3158 48bd 7a82 fdbc 776b cebc
00000080: 440e 28bd a550 fdbb 1542 6b3d 185c 353b
00000090: 5d4a b6bd e8f0 e1bd 2353 08bd dde8 97bd
000000a0: e29d 95bd 5a75 a1bd cb5c ab3d c0b8 32bc
000000b0: 7656 9cbc 79bf a8bc 82bb 44bd a786 f7bd
000000c0: e2d6 f53b 98ca 4ebd 70ba adbd a789 be3c
000000d0: 6254 1abd 6af6 86bd 8d44 4dbd 0d4a aa3c
000000e0: f3d8 a13c 8212 eabb 9061 48bd 145b 7a3d
000000f0: 1189 373d ef3c a2bc a256 553d e38f 97bd
00000100: 2106 163d 4514 143d 957d 9abb 9be9 27bb
00000110: 45f8 443d d813 9cbd 6a72 17bb 1a2d 283d
00000120: 08a5 88bd 0d2f 2dbc 23a9 193d 1ff1 90bd
00000130: 15f8 343d bb15 493d 0c41 e4bc fbba 69bd
00000140: 3d51 153d b173 433d 85bc 753c d30d 953d
00000150: 3653 2bbd 42af b5bc 2b78 3f3c 54ae fbbc
00000160: c5cf 32bd f9d0 a43d b59f 333d 1dc0 24bc
00000170: 6bc4 533d 5688 173d 0fa0 2c3b 3e2c 253d
00000180: 24c7 c3bb 43ef 32bd 7e3c 593d 0553 f8bb
00000190: 7375 563d 53f3 e9bc edbc 87bd 96bc 27bd
000001a0: 109a 703d 0aea febb f729 28bd 4ca3 c63c
000001b0: 057b 853d 41f1 673d 33e3 15bd 5db0 2fbc
000001c0: 589b 75bd 8fe4 2cbc acec eebc cbc6 e8bc
000001d0: 991c 36bb 4bff 26bc a385 ac3a 4ee3 333d
000001e0: 89ed a83c 3479 533d 0754 4b3d 5f57 2a3d
000001f0: aada 4cbd c9fe 883d 06aa 01bd 3c30 033d
00000200: 380c 933d d413 0dbd db0d 6b3d a99a 923d
00000210: e8fe 073d 6b40 56bc 6864 4cbd 28cb f9bb
00000220: 100a 053d 0119 0abd c415 303c 562d 473d
00000230: 37b0 b63c 1040 c33c 33f5 67bd ef54 43bd
00000240: 79df a53c 7077 aebc 8a5f 11bd 064a 80ba
00000250: 4a95 34bd 0a25 4cbd 7dbc 0f3d e1a3 5abc
00000260: 3135 c53c f4ab 113d 5215 b6bb 858c d83c
00000270: ef10 b9bb 27e1 2b3d 2de8 04bc ff82 11bd
00000280: da21 a4bd ff90 003d da3a 5e3d b171 ab3d
00000290: 03b7 b33d c3dd 9f3c daff d1bb 7ebb ce3b
000002a0: 7905 6ebd 4a06 703d 69a7 b5bc 9889 9cbc
000002b0: 98e6 b23b 5b12 06bc 2281 1f3c 3c81 973d
000002c0: d775 b73d 2ba8 2c3d 9cc8 103d a994 5e3d
000002d0: ae4e 9c3d 0a02 fc3c 8e1b 863b fe7e 30bd
000002e0: 8569 9f3d 4c82 423c e1bb 613d f04d fabc
000002f0: f70d 673d 10b7 023d c9f1 9b3c b65f 8a3d
00000300: cbaa 6bbd ff90 03bd 3a63 843d caf7 7bbd
00000310: 1848 2b3b a056 913c 458e 95bb ef55 77bd
00000320: 3144 a93d 6c7f 83bd ec77 1339 2121 543d
00000330: 41d6 1abc 9a4b bbbd fc82 8b3d 2711 4fbd
00000340: bf80 8cbd eb01 453d a89b 9b3c d0ea 703c
00000350: 38b6 063d 7ef1 90bd e87e 88bd a620 3abd
00000360: e0a7 01bd 592d 5b3c 9e5e 6fbd 4fa9 fbbc
00000370: 6cb6 a73d 62fa 873d ef90 c63c af26 55bc
00000380: 66f0 9d3d 8fdf 95bd 0408 1fbd 8910 263d
00000390: 4b2b 31bd e199 b03c 6815 3f3d 9227 0c3c
000003a0: cc14 823d 3b30 e6bb e7d3 833c b549 acbd
000003b0: 61fb 27bc 4c3a 533d 8616 6b3b 5a84 80bc
000003c0: 6ad4 023d 4e62 813d f303 9dbc 79c5 afbc
000003d0: 97c5 a0bc 15a5 11bd 8dfe 4bbc 59c5 4e3d
000003e0: 8228 383c 7a94 8a3d a56a 6c3d 511e 07bd
000003f0: 38dd e8bd fd9f ecbd b08a aabd 5a3a b0bc

Generator.conv2.conv2.0.weight f4 [8, 8, 3, 3, 3]
-0.0031856066 -0.056873605 0.00045464918 0.02110876 0.081432536 0.03189765 -0.008109014 0.016679602
0.055543654 0.038628124 0.007019994 0.062514745 0.004620041 0.051534653 -0.035267916 0.06224532
-0.026782162 0.018575631 -0.02926443 -0.028377976 0.00619946 0.06925399 -0.041123617 -0.044495672
-0.046477824 0.01756265 -0.0013835507 0.052840795 0.03842981 -0.038905647 0.024742257 0.042618107
0.089209296 0.052134145 0.0014500745 -0.035036635 0.016564535 -0.025207916 -0.054373696 0.0071068453
0.079955295 0.008861598 -0.019375475 -0.025017984 0.017222594 0.028308429 0.07311709 0.0024754035
0.08402969 0.027268346 -0.0059237746 -0.0065757614 0.06285655 -0.016067538 0.058321502 0.063763104
0.01660215 -0.067993015 -0.04460978 0.042779233 0.021756664 0.022374853 0.020745877 -0.08067947
-0.032468766 0.0045529366 -0.07994098 0.007984876 -0.04063732 -0.02227119 0.018471487 -0.04969511
-0.03695375 0.0039870846 0.03880627 0.009779806 -0.039345793 0.02385883 0.014689358 -0.010951839
-0.09573758 -0.018198805 0.06897184 0.055806763 -0.056109164 0.07407692 -0.024432186 -0.022316806
-0.027575303 -0.050617587 0.034956582 0.038061876 0.013903444 -0.009337745 0.039040077 -0.06563756
-0.025520306 -0.054022506 0.05278139 -0.0295467 -0.006126476 0.013341032 -0.06751706 0.032623257
-0.054626744 -0.015200129 -0.06968311 -0.017068913 0.024040084 -0.018549772 -0.10560802 0.021624079
0.0004508973 -0.07327539 0.08309397 0.0147460215 0.038066193 0.016117472 -0.04395943 -0.09522002
-0.059914343 -0.06697635 -0.11741943 0.08003586 0.018185891 0.02532178 -0.091742 -0.10560145
-0.07605173 0.030938921 0.021900516 -0.104959644 0.030021062 0.01691306 -0.07909739 -0.00688856
-0.06406341 0.020569468 0.013923821 -0.07030197 -0.032957926 -0.057350535 -0.05156965 -0.02916553
-0.0067901346 0.07671217 -0.02992784 0.044503488 0.016531559 -0.06659724 0.027536562 -0.02380784
-0.07005798 -0.044747703 -0.0554341 0.05362967 -0.010046306 -0.007267943 -0.09283946 -0.011689569
-0.05464358 0.007932696 0.023374904 -0.010383056 0.09432433 -0.02349614 0.0023515194 0.011425341
0.016580392 -0.016816318 -0.022263955 -0.032415222 -0.047399096 0.03207759 0.024265487 -0.0027909137
0.049081575 -0.019302716 0.03897578 -0.005413301 -0.038373474 0.06664733 0.038940385 -0.014421137
0.06742599 0.03173829 0.03654999 0.02519318 0.034336284 0.03372256 -0.04953689 -0.05609979
-0.036757365 -0.057545774 -0.05915864 -0.048847806 -0.0046552904 -0.039459247 -0.024747465 0.011351836
0.008771823 -0.013118064 -0.055241622 0.031986322 0.0073760552 0.047292497 0.006440716 0.056485374
-0.0118567245 0.017243998 -0.010097462 0.0450284 -0.014437438 0.10348456 0.014284335 0.036611773
-0.075625174 -0.037137724 0.0113074435 -0.00025902787 -0.01405753 -0.08515511 -0.07022565 0.040351644
-0.01887866 0.040773526 0.017275946 -0.03979282 0.039463826 0.006342979 -0.018215321 -0.025042977
-0.020457314 0.027124278 -0.015442163 0.030857427 0.0032705956 0.081492126 0.034930777 0.014419708
0.077627294 -0.02974404 -0.005936768 -0.027597023 -0.051238086 0.02530462 -0.020037336 -0.029389821
-0.012378094 -0.10701499 -0.035738353 -0.046512675 0.062296763 0.037743058 -0.09341975 0.06331555
00000000: 9cc5 50bb 4cf4 68bd fb5d ee39 47ec ac3c
00000010: 1ac6 a63d 1ca7 023d abdb 04bc a9a3 883c
00000020: be81 633d 8638 1e3d fa07 e63b bb07 803d
00000030: b763 973b 0016 533d 1775 10bd f3f4 7e3d
00000040: 4466 dbbc ec2b 983c f5bb efbc ee78 e8bc
00000050: d724 cb3b 09d5 8d3d 3d71 28bd 1841 36bd
00000060: 885f 3ebd 8cdf 8f3c 4258 b5ba 976f 583d
00000070: 9468 1d3d 875b 1fbd 46b0 ca3c 5390 2e3d
00000080: 5db3 b63d 9d8a 553d 6d10 be3a 9382 0fbd
00000090: 59b2 873c d580 cebc f4b6 5ebd 8ae0 e83b
000000a0: 9abf a33d 3c30 113c 51b9 9ebc 84f2 ccbc
000000b0: 6616 8d3c 14e7 e73c 6abe 953d 613a 223b
000000c0: c217 ac3d de61 df3c 391c c2bb 7c79 d7bb
000000d0: efba 803d 12a0 83bc 87e2 6e3d 3b96 823d
000000e0: 3b01 883c ec3f 8bbd bfb8 36bd 4739 2f3d
000000f0: 083b b23c 784b b73c 42f3 a93c 473b a5bd
00000100: f8fd 04bd cd30 953b 19b8 a3bd ffd2 023c
00000110: 5273 26bd 1272 b6bc 8451 973c 1a8d 4bbd
00000120: d15c 17bd 17a6 823b 53f3 1e3d 7b3b 203c
00000130: 0e29 21bd 9873 c33c a2ab 703c 586f 33bc
00000140: 1012 c4bd a915 95bc 1c41 8d3d a295 643d
00000150: b9d2 65bd a4b5 973d 0226 c8bc bcd1 b6bc
00000160: 9ae5 e1bc 6354 4fbd a22e 0f3d c5e6 1b3d
00000170: 45cb 633c 57fd 18bc 7de8 1f3d fc6c 86bd
00000180: f60f d1bc b446 5dbd 4c31 583d ec0b f2bc
00000190: 9bc0 c8bb 5894 5a3c 6246 8abd f79f 053d
000001a0: 4bc0 5fbd f609 79bc 05b6 8ebd 1bd4 8bbc
000001b0: b6ef c43c b1f5 97bc 0549 d8bd fb24 b13c
000001c0: 6966 ec39 6811 96bd 2c2d aa3d 4c99 713c
000001d0: 4ceb 1b3d ca08 843c ce0e 34bd b702 c3bd
000001e0: be68 75bd e62a 89bd 9979 f0bd d7e9 a33d
000001f0: 94fa 943c 9f6f cf3c 3be3 bbbd 9345 d8bd
00000200: 02c1 9bbd 9f73 fd3c b668 b33c 15f5 d6bd
00000210: bbee f53c 428d 8a3c d0fd a1bd 6eb9 e1bb
00000220: ad33 83bd 4d81 a83c bd20 643c 7bfa 8fbd
00000230: e4fe 06bd 65e8 6abd b33a 53bd 8dec eebc
00000240: c77f debb 451b 9d3d 3b2b f5bc 4a49 363d
00000250: 316d 873c 2264 88bd 5b94 e13c a908 c3bc
00000260: 8f7a 8fbd 5e49 37bd de0e 63bd c9aa 5b3d
00000270: 4399 24bc ed27 eebb 9d22 bebd 9b85 3fbc
00000280: f2d1 5fbd 23f8 013c ba7c bf3c b11d 2abc
00000290: 1d2d c13d fa7a c0bc f31b 1a3b 5a31 3b3c
000002a0: 9ad3 873c 60c2 89bc e662 b6bc d3c5 04bd
000002b0: 8e25 42bd ca63 033d 6ac8 c63c c3e7 36bb
000002c0: c309 493d bb20 9ebc 11a5 1f3d 0f62 b1bb
000002d0: 812d 1dbd 657e 883d f47f 1f3d a246 6cbc
000002e0: a316 8a3d 0200 023d 71b5 153d ee61 ce3c
000002f0: 34a4 0c3d ab20 0a3d 32e7 4abd e5c8 65bd
00000300: e48e 16bd 1eb5 6bbd 5550 72bd a314 48bd
00000310: 688b 98bb 05a0 21bd 32bb cabc 0dfd 393c
00000320: b1b7 0f3c 26ed 56bc 0a45 62bd 1704 033d
00000330: d6b2 f13b c7b5 413d a40c d33b 355d 673d
00000340: b542 42bc 4943 8d3c d36f 25bc b36f 383d
00000350: 018b 6cbc b7ef d33d d808 6a3c 3af6 153d
00000360: 5fe1 9abd ba1d 18bd db42 393c 22ce 87b9
00000370: 8e51 66bc cd65 aebd 77d2 8fbd c447 253d
00000380: 6ba7 9abc 2402 273d 4986 8d3c ccfd 22bd
00000390: d2a4 213d c4d8 cf3b 4c38 95bc ee26 cdbc
000003a0: 1996 a7bc bc33 de3c 2001 7dbc b7c8 fc3c
000003b0: 7d57 563b 58e5 a63d 9313 0f3d a440 6c3c
000003c0: 0ffb 9e3d c6a9 f3bc 3889 c2bb 2713 e2bc
000003d0: 07df 51bd a24b cf3c 5725 a4bc ecc2 f0bc
000003e0: 7dcd 4abc ad2a dbbd 6162 12bd 1384 3ebd
000003f0: e42a 7f3d 7798 1a3d db52 bfbd 95ab 813d

Generator.conv3.conv1.0.weight f4 [8, 8, 3, 3, 3]
-0.013664485 0.06884047 -0.007929468 -0.06697186 -0.020044902 0.024233624 0.07717788 -0.035915177
-0.016064543 -0.029177714 0.028833337 -0.0334608 0.010011867 -0.01710728 -0.053005714 -0.030584164
0.04512249 -0.02048338 -0.012399723 0.093576066 0.049469277 0.05119365 -0.049429674 0.041115094
-0.057410266 0.024762752 -0.029947402 -0.02010483 0.020526644 0.046012565 0.0051845266 0.026878402
-0.05814017 0.12335802 -0.024244593 -0.0006480993 0.006851135 0.049213715 0.12277362 -0.05578015
-0.014576566 -0.07175791 0.0018519362 -0.06981984 0.0028093297 0.028728621 0.057436347 -0.027029423
0.013857826 -0.0015403145 -0.044582583 0.025365565 0.021630976 0.0061272834 -0.04782908 0.019682588
-0.016417379 -0.02881484 -0.012936173 0.06609506 -0.022510294 -0.027571082 -0.01327865 0.013853285
0.042229407 0.06456738 -0.02451025 0.096670486 0.08790397 -0.04657193 0.00068048225 -0.028941607
0.011451734 -0.03580264 0.071017824 -0.031977892 0.050593898 0.023446137 0.014342113 -0.03823578
-0.00018978796 -0.0045451107 0.010531811 0.05019383 -0.06124445 0.003894681 0.016230967 0.092551425
-0.056912534 0.020141155 -0.016503716 0.057368767 0.06294849 -0.06627878 0.05994785 0.018498024
-0.029659085 -0.028025176 0.002330514 -0.066975124 0.0689282 0.018872736 -0.0062402817 0.07979712
0.080889724 -0.0028291696 -0.012869104 -0.05040472 0.028144661 -0.027931126 0.012225249 0.06984673
-0.023459975 0.027104435 0.10442929 0.046933826 -0.047998216 0.0022829478 0.043799352 0.050594267
-0.012596393 0.046688106 0.067114465 0.03454041 0.06276542 -0.05621236 -0.01576864 -0.00019946134
0.07162809 -0.03279653 -0.024173094 0.01052745 0.08442348 -0.042674106 0.012191957 -0.03481658
0.10114139 0.023482937 -0.016438719 0.065989174 -0.043405153 -0.0065499833 -0.040117357 -0.033616476
0.042533502 0.11457988 0.018050632 -0.04424098 0.043578744 0.031097688 -0.03489032 -0.08313853
-0.0068933493 -0.050372228 0.09624034 -0.0525916 -0.054066543 0.033378825 0.046416625 0.021313079
-0.04462372 -0.05602958 -0.051926035 -0.004525049 0.04393806 0.025852256 -0.00745596 -0.021486294
0.1315171 -0.0067046615 0.05057202 0.020983398 -0.10483851 0.056404646 0.060105074 -0.06735
0.07148603 0.007106113 -0.014227789 0.07624887 0.052864034 -0.057876058 -0.036997907 0.004661755
-0.005250263 -0.016135162 -0.030273432 -0.006930519 0.049343992 0.027447935 -0.0016558864 -0.035749048
0.025933668 0.08263626 0.014501819 -0.07751152 0.037939884 0.03438281 -0.003364593 -0.016356694
-0.058476843 0.03594725 0.16027859 0.052201368 -0.041122504 -0.030108223 0.074909 0.0048088566
-0.055793893 -0.004740187 0.07987053 0.13824242 -0.042991757 -0.039868645 -0.022942115 -0.03359545
0.02837841 -0.020080576 -0.08741492 0.0029036244 -0.0103080105 0.041126262 0.017899418 0.018650709
0.028284932 0.0538802 -0.08147986 -0.025557779 8.714978e-05 0.027613552 -0.014075308 -0.041971296
0.05889096 0.0036816949 0.01946505 0.023617432 -0.04129038 0.035806686 0.01380419 -0.07028515
-0.012256669 -0.023531508 0.043053687 0.049860384 -0.0113916155 -0.018946925 0.024824804 0.08443847
0.014663056 0.00794255 -0.079158336 -0.053949352 0.07770945 0.02701522 -0.0050082863 0.107407376
00000000: 01e1 5fbc 3bfc 8c3d 99ea 01bc 8b28 89bd
00000010: 3535 a4bc 9885 c63c 700f 9e3d cb1b 13bd
00000020: ca99 83bc 1a06 efbc e433 ec3c 310e 09bd
00000030: d008 243c 9124 8cbc 851c 59bd a48b fabc
00000040: 5cd2 383d c3cc a7bc 3528 4bbc cfa4 bf3d
00000050: 4ca0 4a3d 6fb0 513d c576 4abd 4d68 283d
00000060: 0727 6bbd 41db ca3c 4154 f5bc e2b2 a4bc
00000070: 7e27 a83c ac77 3c3d f6e2 a93b 1830 dc3c
00000080: 6324 6ebd 21a3 fc3d 999c c6bc 35e5 29ba
00000090: 7c7f e03b 5294 493d bc70 fb3d ba79 64bd
000000a0: 8dd2 6ebc d0f5 92bd abbc f23a b4fd 8ebd
000000b0: bb1c 383b 4958 eb3c 6042 6b3d cf6c ddbc
000000c0: ef0b 633c 61e4 c9ba 3a9c 36bd 72cb cf3c
000000d0: 7233 b13c 61c7 c83b 6de8 43bd 613d a13c
000000e0: bd7d 86bc 190d ecbc 3ef2 53bc d95c 873d
000000f0: 8267 b8bc c0dc e1bc b28e 59bc e4f8 623c
00000100: bef8 2c3d e73b 843d b8c9 c8bc 2dfb c53d
00000110: ff06 b43d 35c2 3ebd 6462 323a f316 edbc
00000120: 0ea0 3b3c caa5 12bd cb71 913d 40fb 02bd
00000130: 8c3b 4f3d 1d12 c03c 2ffb 6a3c 1f9d 1cbd
00000140: d101 47b9 27ef 94bb 9e8d 2c3c 0c98 4d3d
00000150: 76db 7abd e83d 7f3b cef6 843c 9a8b bd3d
00000160: 1e1d 69bd 10ff a43c cd32 87bc 83fb 6a3d
00000170: 23eb 803d 2bbd 87bd e08b 753d 2b89 973c
00000180: 9cf7 f2bc 0e95 e5bc 89bb 183b 412a 89bd
00000190: 3a2a 8d3d ff9a 9a3c 477b ccbb ac6c a33d
000001a0: 83a9 a53d 9769 39bb efd8 52bc 2e75 4ebd
000001b0: a28f e63c d1cf e4bc 694c 483c cd0b 8f3d
000001c0: 222f c0bc 1f0a de3c 06df d53d af3d 403d
000001d0: c799 44bd 829d 153b f366 333d ef3b 4f3d
000001e0: 1a61 4ebc 073c 3f3d 4f73 893d 3f7a 0d3d
000001f0: 288b 803d ee3e 66bd 3c2d 81bc 7f26 51b9
00000200: c0b1 923d a755 06bd a706 c6bc 537b 2c3c
00000210: 38e6 ac3d 0bcb 2ebd c6c0 473c d59b 0ebd
00000220: 3823 cf3d 4a5f c03c 7eaa 86bc 5525 873d
00000230: 9ac9 31bd 3ea1 d6bb 1952 24bd 6eb1 09bd
00000240: 9c37 2e3d dba8 ea3d ebde 933c 0836 35bd
00000250: a07f 323d 94c0 fe3c 27e9 0ebd 8944 aabd
00000260: 9be1 e1bb 1c53 4ebd a819 c53d 4a6a 57bd
00000270: e174 5dbd 3cb8 083d 5c1f 3e3d c498 ae3c
00000280: 5dc7 36bd 467f 65bd 65b0 54bd dd46 94bb
00000290: 65f8 333d 1cc8 d33c 2051 f4bb 0604 b0bc
000002a0: 6bac 063e c7b2 dbbb 9b24 4f3d 60e5 ab3c
000002b0: 93b5 d6bd 8f08 673d bd30 763d ccee 89bd
000002c0: 4567 923d 65da e83b ac1b 69bc 5e28 9c3d
000002d0: f587 583d 720f 6dbd 1e8b 17bd a3c1 983b
000002e0: 660a acbb e32d 84bc fdff f7bc 6819 e3bb
000002f0: ed1c 4a3d 7eda e03c 540a d9ba 986d 12bd
00000300: d872 d43c 333d a93d 0a99 6d3c 5cbe 9ebd
00000310: da66 1b3d fdd4 0c3d 8180 5cbb 79fe 85bc
00000320: 6a85 6fbd 6c3d 133d 1220 243e 1ad1 553d
00000330: 1270 28bd 85a5 f6bc e469 993d 9d93 9d3b
00000340: 2388 64bd 9253 9bbb 2993 a33d 6c8f 0d3e
00000350: 2018 30bd 4e4d 23bd 1af1 bbbc 629b 09bd
00000360: d779 e83c 0580 a4bc 9806 b3bd bc4a 3e3b
00000370: eee2 28bc 0374 283d cda1 923c 5fc9 983c
00000380: cdb5 e73c 7cb1 5c3d eade a6bd 8c5e d1bc
00000390: 2fc4 b638 d135 e23c 1f9c 66bc 18ea 2bbd
000003a0: a637 713d 9748 713b 2b75 9f3c 5879 c13c
000003b0: 1a20 29bd 08aa 123d f82a 623c a9f1 8fbd
000003c0: 32d0 48bc 26c5 c0bc 1059 303d 673a 4c3d
000003d0: e6a3 3abc 9536 9bbc 635d cb3c 14ee ac3d
000003e0: 503d 703c 7821 023c c41d a2bd fff9 5cbd
000003f0: 2226 9f3d 064f dd3c 8d1c a4bb 66f8 db3d

Generator.conv3.conv2.0.weight f4 [8, 8, 3, 3, 3]
-0.08899274 0.0012376714 -0.0029591736 -0.06024491 0.029481068 -0.014621628 -0.07253105 -0.0037958114
-0.029516194 -0.051495247 -0.06326362 0.030398054 0.020946728 0.033077326 -0.03227522 -0.044346835
0.032331865 -0.040174257 -0.039230578 -0.036324963 -0.061222862 0.034951888 0.036722265 0.0325199
-0.021842903 0.07864326 0.0053639095 -0.09029044 -0.09299433 -0.048767526 -0.0037456597 -0.07509997
-0.08981064 0.066966 -0.024981111 0.012413534 0.022509333 -0.003807917 0.031870425 -0.06115188
-0.0177694 0.04152199 0.091659494 -0.024178602 -0.042491674 0.04704401 0.009524163 -0.06319896
0.0012289408 -0.006786458 -0.04906374 0.064810745 -0.036065564 0.0037954 -0.038491085 0.09302698
-0.045406222 -0.0072688144 0.017113037 0.0016126923 -0.06822486 -0.07282774 0.0677039 0.05352476
0.012525623 0.036450136 0.052185725 0.09797457 -0.07556855 -0.0921421 0.036570888 -0.02665354
0.013554759 0.14325868 0.0069594653 0.023292093 0.13411409 -0.03988329 -0.07407791 -0.099916555
0.012275659 0.0037706282 0.038005386 -0.036399413 -0.03200121 -0.0599663 0.0050967815 -0.017774498
-0.06283817 0.024797225 0.0077878926 -0.0031729483 0.008304516 -0.052858386 -0.096371464 0.019414034
0.008345177 -0.0630837 0.029883133 -0.0013977367 -0.05049347 0.04237658 0.035325468 -0.054561675
-0.0338881 -0.0014994941 -0.02106335 0.006214718 -0.050237563 -0.0009727885 -0.01444501 0.061415423
-0.03123196 -0.07230609 -0.0805494 0.030352138 0.015799325 0.0136578325 -0.059846897 0.039638165
0.07731213 0.0061544357 -0.018481703 -0.054153588 0.00564047 -0.0034437417 -0.085726425 -0.049035106
-0.052397273 0.07104606 0.003099122 -0.04399932 -0.019127695 -0.03943614 -0.047363315 0.0039866734
-0.00050082925 -0.02399235 -0.025606943 0.029139323 -0.059529852 0.020415403 -0.08271803 0.03398545
-0.039237455 -0.023315221 0.052965067 0.022847751 0.019341245 -0.00013008245 0.028322374 -0.02744553
0.044463318 -0.0059868274 0.059119508 -0.008347018 0.07554584 0.016286252 0.009004841 -0.017034333
-0.07028868 -0.047061678 0.06431693 0.00829429 0.026676951 0.014844283 0.021980729 0.024641369
0.019047325 -0.09849866 -0.10722406 -0.03336227 -0.01237743 0.003969727 -0.056388363 -0.025444059
0.040803615 -0.011165312 0.055752665 -0.03554518 -0.050369263 -0.05305105 0.060466196 -0.0518173
-0.014604191 0.100156955 -0.046137597 0.029231826 -0.029918458 -0.047276493 -0.0047954805 -0.0034481704
-0.027148658 -0.0068970365 0.009294055 0.011835718 0.027674455 0.07985072 0.09996114 -0.0032557247
0.011636371 0.029139057 0.018987874 -0.02696191 -0.017016267 0.098691225 -0.015093777 0.03553065
-0.0990303 -0.029357474 0.08227237 -0.008328687 -0.017155744 0.070992164 0.12211532 -0.024842935
0.04680481 -0.0019767957 -0.041062824 0.005124489 -0.09945887 -0.17777784 0.07977479 0.10015077
-0.1523248 0.025672412 -0.054227944 -0.027008424 -0.0017261001 0.022675328 -0.1322477 0.11238495
0.073397666 -0.082972534 0.003973235 0.044969227 0.051347144 0.041310012 -0.02558709 0.0028777088
0.040331896 -0.0398018 -0.06984742 0.02901477 0.02821301 -0.025887672 0.024448933 0.108596005
0.034931693 -0.05914352 -0.021108413 0.06307652 -0.0054479493 0.06072225 -0.030351633 0.08016938
00000000: d341 b6bd 5c39 a23a b2ee 41bb 5ec3 76bd
00000010: 4882 f13c 8e8f 6fbc 298b 94bd 26c3 78bb
00000020: f2cb f1bc aeec 52bd 5b90 81bd 5705 f93c
00000030: 7998 ab3c 177c 073d 0533 04bd 07a5 35bd
00000040: 6b6e 043d c38d 24bd 3eb0 20bd 7cc9 14bd
00000050: d3c4 7abd b629 0f3d 166a 163d 9633 053d
00000060: e3ef b2bc b80f a13d bcc3 af3b 32ea b8bd
00000070: d073 bebd 75c0 47bd be79 75bb 03ce 99bd
00000080: a4ee b7bd 7825 893d 30a5 ccbc 2362 4b3c
00000090: 7e65 b83c 3f8e 79bb 908a 023d 657a 7abd
000000a0: 2291 91bc f612 2a3d f9b7 bb3d 3412 c6bc
000000b0: c00b 2ebd 38b1 403d 3c0b 1c3c 756e 81bd
000000c0: 6914 a13a f060 debb 0ff7 48bd 7fbb 843d
000000d0: 7cb9 13bd 3fbc 783b d4a8 1dbd ee84 be3d
000000e0: e0fb 39bd 3c2f eebb a430 8c3c f960 d33a
000000f0: 7ab9 8bbd b626 95bd 58a8 8a3d c73c 5b3d
00000100: 4538 4d3c bd4c 153d b3c0 553d e4a6 c83d
00000110: afc3 9abd ffb4 bcbd 5bcb 153d 8658 dabc
00000120: c814 5e3c 67b2 123e 3a0c e43b 0fcf be3c
00000130: 3455 093e a95c 23bd 29b6 97bd 0da1 ccbd
00000140: d81f 493c a51c 773b 89ab 1b3d 8d17 15bd
00000150: b313 03bd 399f 75bd e702 a73b d39b 91bc
00000160: 4cb1 80bd 8d23 cb3c 9431 ff3b 3df1 4fbb
00000170: aa0f 083c 0982 58bd 675e c5bd 2e0a 9f3c
00000180: 36ba 083c 0732 81bd 79cd f43c 4334 b7ba
00000190: 3ed2 4ebd 1193 2d3d 70b1 103d 107c 5fbd
000001a0: 40ce 0abd ac8a c4ba 0c8d acbc d5a4 cb3b
000001b0: e7c5 4dbd bb02 7fba c3aa 6cbc bd8e 7b3d
000001c0: 2bda ffbc 3715 94bd 15f7 a4bd 0ca5 f83c
000001d0: 966d 813c 1ac5 5f3c 0522 75bd a15b 223d
000001e0: d255 9e3d 26ab c93b f166 97bc 27d0 5dbd
000001f0: b1d3 b83b 66b0 61bb 5691 afbd 09d9 48bd
00000200: 869e 56bd 9980 913d a41a 4b3b a238 34bd
00000210: afb1 9cbc ca87 21bd 0900 42bd a4a2 823b
00000220: 154a 03ba 9b8b c4bc a7c5 d1bc 97b5 ee3c
00000230: 93d5 73bd 343e a73c 1268 a9bd 5434 0b3d
00000240: 74b7 20bd 90ff bebc e6f1 583d 352b bb3c
00000250: 8871 9e3c be66 08b9 5304 e83c 73d5 e0bc
00000260: 2b1f 363d 262d c4bb 4c27 723d eec1 08bc
00000270: c7b7 9a3d bf6a 853c 0a89 133c 968b 8bbc
00000280: 83f3 8fbd bfc3 40bd 98b8 833d c6e4 073c
00000290: 9f89 da3c 7035 733c ee10 b43c b2dc c93c
000002a0: 2309 9c3c aab9 c9bd 4a98 dbbd e0a6 08bd
000002b0: b4ca 4abc 7c14 823b 7cf7 66bd 0f70 d0bc
000002c0: b121 273d b6ee 36bc e85c 643d d397 11bd
000002d0: 0050 4ebd 0f4c 59bd 67ab 773d 613e 54bd
000002e0: 6b46 6fbc 171f cd3d c7fa 3cbd 9577 ef3c
000002f0: 8e17 f5bc ffa4 41bd 6823 9dbb b3fa 61bb
00000300: dd66 debc 8900 e2bb 1846 183c 99ea 413c
00000310: 8ab5 e23c c688 a33d 6db8 cc3d ff5d 55bb
00000320: 7aa6 3e3c 08b5 ee3c 758c 9b3c 39df dcbc
00000330: b365 8bbc a01e ca3d e44b 77bc 9688 113d
00000340: 66d0 cabd 167f f0bc 6b7e a83d 0c75 08bc
00000350: 348a 8cbc 5764 913d 9917 fa3d 6983 cbbc
00000360: 67b6 3f3d 218d 01bb 7e31 28bd 54eb a73b
00000370: 18b1 cbbd 650b 36be f760 a33d d91b cd3d
00000380: 08fb 1bbe f34e d23c 1f1e 5ebd c540 ddbc
00000390: 4f3e e2ba 9cc1 b93c f16b 07be 152a e63d
000003a0: 8451 963d 81ed a9bd e931 823b a731 383d
000003b0: 6251 523d b034 293d 049c d1bc f197 3c3b
000003c0: 0f33 253d 3607 23bd 2a0c 8fbd 62b0 ed3c
000003d0: f81e e73c 6212 d4bc 2149 c83c 9567 de3d
000003e0: 8914 0f3d 7a40 72bd 8deb acbc 432e 813d
000003f0: b684 b2bb e5b7 783d fda3 f8bc d82f a43d

Generator.conv4.conv1.0.weight f4 [8, 8, 3, 3, 3]
-0.032202244 0.005797869 0.0026150155 0.027375633 -0.019069137 0.010325202 -0.034346856 -0.011894306
-0.054133754 -0.06471045 -0.014440678 -0.091513984 -0.06177324 0.042732187 0.0022233778 0.06836025
0.008351995 0.027367571 -0.018820647 0.010283035 0.034432374 0.029464833 -0.027260954 0.058975883
-0.054624002 -0.006523993 -0.016391393 0.0068358122 -0.03292198 0.0476594 -0.04496633 0.017987473
0.011643799 0.011408273 0.076676235 -0.08013243 0.01979254 0.023344867 -0.046810642 -0.024387408
-0.04593431 -0.072121 -0.026120065 0.017325502 0.025459504 0.009109378 0.058453146 0.052103113
-0.004378031 0.0032294346 0.048355635 0.018293729 0.067737296 0.069099836 -0.021923551 -0.01280621
-0.046690118 0.008990129 0.018943964 -0.086294666 0.07195964 0.012132421 -0.054995473 0.02400867
-0.09139853 -0.011806027 0.039134275 -0.010075968 0.0034971093 -0.0017187058 0.07171911 -0.042779032
0.029854603 0.012646553 0.005747709 0.0337561 -0.06782198 0.033582486 0.016098343 -0.024014441
0.018424487 0.03486925 -0.023257408 -0.00824582 0.035484128 -0.015504988 -0.016682718 0.044818684
0.0021152983 0.060948227 -0.0036294165 -0.028273296 -0.013971938 0.04069733 -0.07455795 0.0373198
0.046531178 0.062211096 0.063659705 -0.06949522 -0.03943682 -0.022301687 0.018004665 0.05729824
-0.010723658 0.058759943 0.01248238 0.034392044 -0.011264111 0.021116458 -0.015526985 0.01759493
-0.00044849137 0.025834661 -0.0023671344 0.05035923 -0.020709671 0.0006969823 -0.051681794 -0.005469038
-0.05647339 -0.05212157 -0.029428672 0.03199354 0.08452669 -0.025036987 0.04682017 0.019118886
0.0019991281 -0.015205554 -0.047685366 0.058570735 0.043608442 0.0424691 0.08663993 -0.046736628
-0.05372414 -0.018951282 0.018554224 -0.012752502 -0.07132 0.06212823 0.05746152 -0.082023785
0.03103129 -0.09063612 -0.019435765 0.022510644 -0.06483167 -0.018568078 0.054225665 0.02678646
-0.012292837 0.0156076215 -0.052333113 -0.06508566 0.023029998 -0.044993144 -0.017179811 0.0047102333
-0.034611426 0.055570643 0.012929382 -0.013440267 -0.032606382 -0.013900823 0.053124424 0.013457535
-0.047307193 -0.0026963442 0.019470181 -0.064918734 -0.040320724 0.015764628 0.023988968 -0.06619382
-0.06809931 0.04532461 0.01645988 -0.03418517 0.016440257 -0.010592287 0.0019091723 -0.08212914
0.04971274 0.011658749 -0.0049453033 0.0024498904 0.03199808 -0.04649311 -0.030814443 -0.07347312
-0.021831056 0.04307647 -0.014627292 -0.045958925 -0.038017284 -0.017127331 0.035751976 -0.08861576
-0.035431117 0.028032064 -0.062813394 -0.0666007 -0.012576142 0.07407191 -0.061468605 -0.0462893
0.04182468 -0.021851383 0.0010148896 -0.037243746 -0.015507535 0.06303949 0.08034467 0.017473806
-0.0009692435 0.058029268 0.03516238 0.014113825 -0.010038577 0.030628989 -0.046713214 -0.027407557
0.010691922 0.07506497 0.04941494 -0.020532865 -0.04801484 0.00621657 -0.012091594 -0.010686356
-0.02670976 -0.037957173 -0.031584993 -0.036558367 -0.011443827 -0.0018672766 0.03912787 -0.0009376475
0.031238351 0.04395751 -0.017062306 -0.03762094 -0.0045806644 -0.023431499 -0.06145684 0.02528988
-0.0022522819 0.013086596 -0.04853551 -0.019326553 0.03133991 0.061736453 0.06517809 2.999438e-05
00000000: 80e6 03bd 0dfc bd3b ae60 2b3b dd42 e03c
00000010: e136 9cbc 092b 293c 4aaf 0cbd 56e0 42bc
00000020: 5bbb 5dbd ea86 84bd 9898 6cbc af6b bbbd
00000030: f005 7dbd f207 2f3d 17b6 113b 7500 8c3d
00000040: ced6 083c f531 e03c c22d 9abc 2d7a 283c
00000050: f608 0d3d 3c60 f13c 5d52 dfbc b290 713d
00000060: 6bbd 5fbd 38c7 d5bb 3e47 86bc f3fe df3b
00000070: 33d9 06bd 8136 433d 9d2e 38bd 775a 933c
00000080: a2c5 3e3c c4e9 3a3c 6e08 9d3d 791c a4bd
00000090: f723 a23c bc3d bf3c 84bc 3fbd 1ac8 c7bc
000000a0: 9d25 3cbd 2db4 93bd bff9 d5bc 36ee 8d3c
000000b0: 7390 d03c 803f 153c 916c 6f3d 136a 553d
000000c0: 9675 8fbb eca4 533b 8f10 463d bbdc 953c
000000d0: dab9 8a3d 3784 8d3d 0599 b3bc 23d1 51bc
000000e0: 233e 3fbd 564b 133c 5f30 9b3c 42bb b0bd
000000f0: 935f 933d 10c7 463c ef42 61bd d5ad c43c
00000100: 272f bbbd 116e 41bc 434b 203d ac15 25bc
00000110: c22f 653b 3246 e1ba 78e1 923d 1139 2fbd
00000120: a491 f43c 7d33 4f3c 4757 bc3b d643 0a3d
00000130: 40e6 8abd ca8d 093d ace0 833c efb9 c4bc
00000140: f3ee 963c 0fd3 0e3d 5286 bebc 7a19 07bc
00000150: ce57 113d a208 7ebc 32aa 88bc cc93 373d
00000160: d1a0 0a3b d9a4 793d 81db 6dbb 669d e7bc
00000170: 8eea 64bc 3eb2 263d d7b1 98bd a6dc 183d
00000180: 7a97 3e3d 10d1 7e3d 0560 823d 8353 8ebd
00000190: 8188 21bd 07b2 b6bc 857e 933c 8fb1 6a3d
000001a0: 48b2 2fbc 44ae 703d e582 4c3c acde 0c3d
000001b0: 1b8d 38bc 6cfc ac3c e564 7ebc 3e23 903c
000001c0: 7e23 ebb9 36a3 d33c ed21 1bbb 7b45 4e3d
000001d0: 54a7 a9bc b1b5 363a 4ab0 53bd 9e35 b3bb
000001e0: a450 67bd 6d7d 55bd 6614 f1bc a80b 033d
000001f0: 541c ad3d 5e1a cdbc 82c6 3f3d 369f 9c3c
00000200: ce03 033b b720 79bc bb51 43bd dee7 6f3d
00000210: c49e 323d 14f4 2d3d 4770 b13d e86e 3fbd
00000220: d80d 5cbd b83f 9bbc 07ff 973c dfef 50bc
00000230: 3810 92bd 2c7a 7e3d c55c 6b3d 16fc a7bd
00000240: 5535 fe3c 6e9f b9bd c137 9fbc 3e68 b83c
00000250: 77c6 84bd 151c 98bc bb1b 5e3d 476f db3c
00000260: e567 49bc 1cb7 7f3c 3f5b 56bd a14b 85bd
00000270: 68a9 bc3c bb4a 38bd adbc 8cbc 4d58 9a3b
00000280: b6c4 0dbd 0b9e 633d c2d5 533c 9134 5cbc
00000290: 458e 05bd 47c0 63bc ff98 593d fe7c 5c3c
000002a0: 30c5 41bd 26b5 30bb ee7f 9f3c 1df4 84bd
000002b0: 5827 25bd d224 813c 8384 c43c a090 87bd
000002c0: a777 8bbd 4ca6 393d dfd6 863c c005 0cbd
000002d0: b8ad 863c 468b 2dbc 313d fa3a 5333 a8bd
000002e0: 969f 4b3d 5604 3f3c 360c a2bb 578e 203b
000002f0: 6b10 033d 8f6f 3ebd 926e fcbc 1379 96bd
00000300: 0bd7 b2bc f470 303d 4fa7 6fbc 6d3f 3cbd
00000310: 03b8 1bbd 9e4e 8cbc aa70 123d 2e7c b5bd
00000320: 3820 11bd 80a3 e53c 4fa4 80bd f365 88bd
00000330: 2a0c 4ebc 03b3 973d 81c6 7bbd d999 3dbd
00000340: 5b50 2b3d ac01 b3bc 0b06 853a e68c 18bd
00000350: 5113 7ebc d91a 813d bf8b a43d 3a25 8f3c
00000360: d514 7eba 19b0 6d3d 6e06 103d ac3d 673c
00000370: d878 24bc a5e9 fa3c 5b56 3fbd d085 e0bc
00000380: 2c2d 2f3c aabb 993d 5267 4a3d 8a34 a8bc
00000390: 35ab 44bd 5eb4 cb3b d21b 46bc d315 2fbc
000003a0: 6dce dabc fb78 1bbd 445f 01bd 3abe 15bd
000003b0: e47e 3bbc 68bf f4ba 8c44 203d 75cc 75ba
000003c0: 92e7 ff3c ca0c 343d 40c6 8bbc 6a18 1abd
000003d0: 6619 96bb 6af3 bfbc 2bba 7bbd b92c cf3c
000003e0: 059b 13bb 2969 563c 2ccd 46bd b852 9ebc
000003f0: 475e 003d 5ddf 7c3d 177c 853d 719c fb37

Generator.conv4.conv2.0.weight f4 [8, 8, 3, 3, 3]
0.002727217 0.1032177 -0.0399362 -0.091754965 -0.0037436902 -0.025700893 0.014512898 -0.039101057
0.030863438 -0.061838623 0.013300239 0.053532287 0.06964239 0.07667288 -0.067840435 0.015532607
0.09514575 -0.017770654 0.020664206 0.006137898 0.031436685 0.055560764 -0.03429831 0.04203427
-0.00679464 0.051713116 0.012647996 -0.024805296 0.032815658 -0.026806481 0.0678336 -0.006792696
-0.03895225 -0.018684471 0.022431975 0.010479205 0.018268999 -0.07556971 -0.059986487 0.023565158
0.04770137 -0.050281484 -0.042917535 0.054965813 -0.07147517 0.019194126 0.024240045 -0.03400634
0.02161775 0.011510642 -0.030698236 -0.013651749 0.08336637 0.06909179 -0.07813457 -0.020350771
-0.022876138 -0.025247851 -0.0027515169 -0.02743228 -0.03032469 0.024495114 0.10169883 -0.12873788
-0.05717399 -0.0034431287 -0.0666979 0.03289266 0.006510235 0.04054848 0.018426223 0.108697675
0.017714962 -0.05969055 0.038457185 -0.043284446 0.06470969 -0.010419146 -0.029059658 -0.008595217
0.030097706 -0.001448968 -0.019005354 -0.0036138943 -0.07073833 0.024219047 -0.021132143 0.03889005
-0.038230892 -0.023587719 -0.0492257 0.00319778 -0.058532227 -0.039612606 0.01355408 -0.01983584
-0.017179336 0.08149039 0.005003795 -0.059673637 -0.06877138 -0.008655329 0.053242683 0.011997551
0.021547202 0.02599485 0.058625985 0.04709022 0.04027892 0.019250223 -0.04223289 0.02753989
0.018703612 -0.07893466 0.00935621 0.033037122 -0.0127127245 0.0056971284 -0.0023540754 0.014799375
-0.044884235 -0.0657129 -0.012624648 0.0046205297 -0.015288157 -0.06567266 0.029444521 0.06453589
0.06463814 0.004895308 -0.063486435 -0.03944864 0.036557022 0.01129294 0.02556511 -0.11442867
0.015326687 -0.04348989 -0.07431142 0.009125902 0.064377494 0.057861242 0.06609979 0.082154915
-0.03813776 -0.056500364 -0.009186408 0.059138533 0.05900897 0.03039729 0.070425995 0.04887452
0.012727208 -0.06744766 -0.0630217 -0.03527415 0.0103346985 -0.04752961 0.1043005 0.029105483
0.0032965224 0.047631968 0.049985982 -0.06359031 -0.15002258 -0.039483316 0.02794167 -0.046488687
0.020111894 -0.030311959 0.034917325 0.016446754 -0.056288034 -0.047334224 -0.05434073 -0.06224713
0.029388992 -0.020350734 -0.04066609 0.033018056 -0.0034152067 -0.09600946 -0.06424541 -0.10443386
0.008299287 -0.08647856 -0.022560373 0.047516562 -0.06890979 -0.04478676 0.038746174 0.0068164244
0.04508824 -0.027994683 0.06538458 0.0039806203 -0.044475842 -0.021431226 -0.019866949 0.005518057
0.005424005 0.00532515 0.05189043 -0.00630345 0.06142632 0.040155195 0.034058373 0.03344256
-0.017961694 -0.01931742 0.05539506 0.019126525 0.02749965 0.06422818 0.06214078 0.08560269
0.049596503 -0.027236687 -0.03397361 -0.01559604 -0.02918726 0.035778847 -0.0036098512 0.011375163
0.08293199 0.029729484 0.0060515488 -0.036853403 0.018618502 0.03982159 -0.013830436 0.062908806
0.0048089214 0.06928617 -0.014721604 0.0051471395 -0.0054968125 -0.017653296 0.05791813 0.05271912
0.07208651 -0.036994588 0.06338332 -0.020295035 0.02029715 -0.054114696 0.010704946 0.040188666
-0.047565714 -0.03973635 -0.03076975 0.0598279 0.007874864 0.035717003 -0.033848967 0.043931093
00000000: 1cbb 323b cd63 d33d 2494 23bd 07ea bbbd
00000010: b358 75bb ae8a d2bc 82c7 6d3c 6e28 20bd
00000020: 52d5 fc3c 7f4a 7dbd 3fe9 593c ac44 5b3d
00000030: aba0 8e3d ac06 9d3d edef 8abd 7a7c 7e3c
00000040: c6db c23d c393 91bc fb47 a93c 6c20 c93b
00000050: c1c3 003d af93 633d 627c 0cbd 202c 2c3d
00000060: 92a5 debb 22d1 533d 8a39 4f3c 7a34 cbbc
00000070: b669 063d 4499 dbbc 58ec 8a3d 4495 debb
00000080: 658c 1fbd 2d10 99bc 43c3 b73c f9b0 2b3c
00000090: dea8 953c 4bc4 9abd 64b4 75bd b80b c13c
000000a0: 8362 433d f5f3 4dbd 4cca 2fbd d523 613d
000000b0: 9361 92bd 003d 9d3c 0f93 c63c 3b4a 0bbd
000000c0: b517 b13c 2297 3c3c de7a fbbc 96ab 5fbc
000000d0: fdbb aa3d ff7f 8d3d 0405 a0bd a9b6 a6bc
000000e0: bd66 bbbc 95d4 cebc cb52 34bb a9b9 e0bc
000000f0: 7c6b f8bc faa9 c83c 7a47 d03d ddd3 03be
00000100: 462f 6abd 1da6 61bb e998 88bd 74ba 063d
00000110: cf53 d53b 2a16 263d 97f2 963c e39c de3d
00000120: f81e 913c 147e 74bd 4885 1d3d 084b 31bd
00000130: 8486 843d 11b5 2abc 850e eebc f4d2 0cbc
00000140: 778f f63c 4ceb bdba 1eb1 9bbc 16d7 6cbb
00000150: 42df 90bd 0667 c63c 511d adbc 2c4b 1f3d
00000160: ff97 1cbd 083b c1bc e3a0 49bd d991 513b
00000170: 7dbf 6fbd d440 22bd ef11 5e3c c67e a2bc
00000180: aebb 8cbc 6fe4 a63d e0f6 a33b 586c 74bd
00000190: 02d8 8cbd 15cf 0dbc 0015 5a3d 6091 443c
000001a0: c283 b03c 27f3 d43c cd21 703d ade1 403d
000001b0: 82fb 243d a5b2 9d3c 65fc 2cbd 569b e13c
000001c0: 5138 993c 7fa8 a1bd ca4a 193c ef51 073d
000001d0: 0849 50bc faae ba3b d546 1abb 1479 723c
000001e0: 88d8 37bd 7c94 86bd 9dd7 4ebc d067 973b
000001f0: 2e7b 7abc 637f 86bd a335 f13c 652b 843d
00000200: 0061 843d d268 a03b 2d05 82bd e694 21bd
00000210: d1bc 153d 0606 393c ec6d d13c 9459 eabd
00000220: c91c 7b3c 7422 32bd 9630 98bd cf84 153c
00000230: 59d8 833d e9ff 6c3d 545f 873d d640 a83d
00000240: 5736 1cbd ed6c 67bd 9682 16bc 3f3b 723d
00000250: 64b3 713d bd03 f93c 813b 903d a630 483d
00000260: c885 503c 0022 8abd 8511 81bd a17b 10bd
00000270: de52 293c 69ae 42bd 809b d53d 9f6e ee3c
00000280: 780a 583b bd19 433d 1abe 4c3d a33b 82bd
00000290: 859f 19be 42b9 21bd eee5 e43c ec6a 3ebd
000002a0: b3c1 a43c c950 f8bc 7805 0f3d 58bb 863c
000002b0: 488e 66bd 88e1 41bd 6394 5ebd d9f6 7ebd
000002c0: 2fc1 f03c 95b6 a6bc 7c91 26bd f13d 073d
000002d0: a9d1 5fbb 9ca0 c4bd 1993 83bd 6be1 d5bd
000002e0: bcf9 073c ac1b b1bd 88d0 b8bc baa0 423d
000002f0: 9320 8dbd 5272 37bd 4fb4 1e3d 505c df3b
00000300: 72ae 383d 1b55 e5bc 5ae8 853d dd6f 823b
00000310: 4d2c 36bd 8a90 afbc 03c0 a2bc d1d0 b43b
00000320: dabb b13b 997e ae3b 0f8b 543d 2c8d cebb
00000330: 2a9a 7b3d c679 243d cb80 0b3d 11fb 083d
00000340: 6724 93bc 913f 9ebc eee5 623d 3baf 9c3c
00000350: f246 e13c 108a 833d 5587 7e3d 7750 af3d
00000360: b425 4b3d 791f dfbc e927 0bbd 8886 7fbc
00000370: 1f1a efbc d78c 123d 4193 6cbb e45e 3a3c
00000380: 3fd8 a93d 3f8b f33c 124c c63b 98f3 16bd
00000390: d485 983c f71b 233d 0e99 62bc 55d6 803d
000003a0: 2894 9d3b e8e5 8d3d e232 71bc 56a9 a83b
000003b0: 9b1e b4bb a59d 90bc 903b 6d3d 01f0 573d
000003c0: 18a2 933d a387 17bd 1dcf 813d c641 a6bc
000003d0: 3546 a63c 5fa7 5dbd cc63 2f3c df9c 243d
000003e0: 44d4 42bd 95c2 22bd d810 fcbc 1a0e 753d
000003f0: 9305 013c fe4b 123d 37a5 0abd 17f1 333d
