DeepWonder3D_pytorch/pth/SEG_pth/Unet4_no_end_UNet3DFFD_20240401-1432_2um/seg_245.pth (torch, 138281 bytes, 19 tensors)

Generator.conv1.conv1.0.weight f4 [8, 1, 3, 3, 3]
00000000: 3393 ed3d ba49 cc3d 04fe 66bd 5369 113e
00000010: b754 f7bd 5f6c ffbd 432f 4139 8548 4cba
00000020: 7dbe c53d 0e86 323d 610c 20be d857 b73d
00000030: df86 053e 4a14 df3d 55fe 0c3d b427 3fbe
00000040: 7351 b73d a21c 52be 54b3 dabd 6921 e3bd
00000050: d27e 6dbd 704b ff3c 8ff5 54bd 2f91 693d
00000060: 85fe 5dbe 1724 0f3d a5a5 2a3e 605a 233e
00000070: f60a 233e 2737 913c 91a6 ad3d 4a3e 08be
00000080: 3a0f 3bbe 718d 073e 11bf 963c 95f4 acbd
00000090: 3b47 e6bd 8b16 243e fe4a 2bbd e8f6 04be
000000a0: af1f 9cbd 92a6 0c3c c0b9 4bbe 817f 5bbe
000000b0: d69f a1bc dbb2 fd3d 22bb 1a3d fdab 563e
000000c0: d0a8 313e e846 aebd 9de7 253e 4e55 b73d
000000d0: 9e1b 03be 707b a0bd 0607 843d b9ed 28bd
000000e0: 3f35 f6bd 11bb e33c dbd5 cc3d 60a1 dcbb
000000f0: c9fb 24be d6d3 e8bd 50c9 6ebd 6423 0e3d
00000100: ad0f c03d 7b41 753c db22 37bd 4bff 1c3d
00000110: 8988 923d e033 7c3d 2d76 073c e946 723c
00000120: a685 1fbe a855 3d3d 68fc 483d 355a c13a
00000130: 0eb2 82bd 99aa c53d a4f9 d5be 50cc 593c
00000140: 6c1a 80be 5aee babd 0c8a 19be 3864 1f3e
00000150: 5cdf 4abe d2ac 96bd 3a07 b8bc f5a4 a43d
00000160: fede eabd 226a 603d ee29 54be 49c0 75bd
00000170: dc40 d33c 0499 d03d 5a66 4bbe f513 28be
00000180: 9d38 16bd 9ca4 ff3d 470c b23d 64e8 60bd
00000190: 4910 7f3d 9669 b83d 0928 84bd 58e8 6d3d
000001a0: 9a19 a03d 67b8 7c3c bb70 27be 21da 63be
000001b0: fde2 333e 1b1e 26be 248a 1bbd 587d 04be
000001c0: 31fe 17bd eb6a 7b3c 3bfa 17bd 6245 783d
000001d0: a8f8 453d d416 21bb 27fb ab3d 8244 3fbe
000001e0: 6992 57bd 900b 2ebd 06b9 9d3a ef69 eb3d
000001f0: 4e47 963c cdc5 043e d1ae 39be e178 7e3d
00000200: 0906 d03d cc32 d03d 27c9 083d 1799 d7bd
00000210: a329 19be dd14 a9bd 2faf da3d d6aa 023d
00000220: 1fca e5bd 28b5 ee3d ce67 dc3d d1d8 8fbd
00000230: d29e 03be c5d2 3dbe 58cd 3b3e f0ec bd3c
00000240: d876 b9bd 03e4 44be fe78 683d ec61 be3d
00000250: 1f93 2ebe f014 59be 4d37 9bbd accd 9e3d
00000260: ad8c 1c3e e3ed 0ebd 7821 23bd 1565 f03d
00000270: f147 c03c e611 2e3e ef85 a5bd dfa1 073b
00000280: d448 18bd 594f 503e c3a7 60be a6b6 243e
00000290: 89e7 a3bd 01fd ad3d fd0e ad3b 28a3 37bd
000002a0: b1ac f23c b32c a5bc 22b4 7b3d a3ce 633d
000002b0: bf43 8cbd f70e 683e 064b 53be 71d5 a5bd
000002c0: 91d2 e53c 14a3 72bd a1f6 f33d 76d4 403d
000002d0: 0a67 9abd 8189 59bd c17a d53d 2d4a 15be
000002e0: e957 5a3d 47b2 d83d 9421 05be cc00 88bb
000002f0: 8435 253e fc47 67bd 4cce 023e a3b3 3b3c
00000300: 0511 113d bebb da3d 9ddf 5abe 7272 9abd
00000310: 758a 763b d17c f63d 6e7c 23bd 69f7 98bd
00000320: c890 54bd e68b 55be 4606 113e 5fc6 c1bd
00000330: dff4 bbbd 111a 323e 95a1 cf3c fc63 a0bd
00000340: 40bf e0bc aab8 54bc d0c0 64be 5951 ce3d
00000350: 7109 d9bd f0de 47be fbd2 9ebd 203b d93d
0.11600342 0.09975 -0.056394592 0.14200334 -0.12076705 -0.12471842 0.0001842352 -0.00077927887
0.096554734 0.043584876 -0.15629722 0.08952302 0.1303973 0.10892542 0.034422237 -0.1866749
0.08951082 -0.20518735 -0.106787354 -0.11090357 -0.057982273 0.031163901 -0.051991995 0.057023223
-0.21679123 0.034946527 0.16664751 0.15952444 0.1592215 0.017726494 0.08479036 -0.13305011
-0.18267527 0.1323755 0.018401654 -0.08445088 -0.11244055 0.16024224 -0.041819565 -0.12984812
-0.07623231 0.008584635 -0.19895077 -0.21435358 -0.019729536 0.123876296 0.03777612 0.20964046
0.17349553 -0.08509618 0.16201635 0.089518175 -0.12803504 -0.07836044 0.06446652 -0.041242335
-0.12021875 0.027799161 0.10001727 -0.0067331046 -0.16111673 -0.113685295 -0.058297455 0.03470172
0.0937799 0.014969225 -0.044710975 0.038329404 0.07154948 0.06157291 0.008267921 0.014787414
-0.15578327 0.046224266 0.04906884 0.0014751615 -0.063816175 0.096516795 -0.41792023 0.013293341
-0.25020158 -0.09127493 -0.14994067 0.15565574 -0.19811767 -0.073571816 -0.022464383 0.080392756
-0.11468314 0.054788716 -0.2071912 -0.05999783 0.025787763 0.101854354 -0.19863263 -0.16413863
-0.036675084 0.124825686 0.08693748 -0.054909125 0.06227139 0.09004514 -0.064529486 0.05808291
0.07817383 0.015424824 -0.16351597 -0.22251178 0.17567058 -0.16222422 -0.037973538 -0.1293844
-0.03710765 0.015345315 -0.037103873 0.060613044 0.04833284 -0.0024580257 0.08397513 -0.18678477
-0.052629862 -0.042491496 0.0012033291 0.114948146 0.018344548 0.1296608 -0.18133093 0.062126998
0.10157401 0.10165939 0.03339496 -0.105272464 -0.1495729 -0.082559325 0.10677945 0.031901203
-0.11220192 0.116556466 0.10761987 -0.07023776 -0.12853554 -0.18537433 0.18340051 0.02318427
-0.09055871 -0.19227605 0.056756012 0.09296021 -0.1704831 -0.21199393 -0.07578907 0.077540725
0.15288039 -0.034894835 -0.03982684 0.1173803 0.023471804 0.16999015 -0.080821864 0.0020695848
-0.03717883 0.20342769 -0.21938996 0.160853 -0.08003146 0.08495522 0.0052813278 -0.044833332
0.029623361 -0.020162916 0.061451085 0.055616986 -0.06848859 0.22661959 -0.20634088 -0.08097351
0.028054507 -0.059237555 0.11912275 0.04707762 -0.075391844 -0.05310965 0.10423804 -0.14579077
0.053306494 0.10580879 -0.1300109 -0.0041504856 0.16133696 -0.056465134 0.12774009 0.011456403
0.03541662 0.1068034 -0.21374364 -0.0754136 0.0037619148 0.120355256 -0.039913587 -0.07469065
-0.051895887 -0.20854148 0.1416255 -0.094616644 -0.09177565 0.17392756 0.025345603 -0.078315705
-0.027434945 -0.0129834805 -0.22339177 0.100741096 -0.10597504 -0.19518638 -0.07755085 0.1060698

Generator.conv1.conv2.0.weight f4 [8, 8, 3, 3, 3]
00000000: c502 183e 679a 673d cc3d 703d 08f0 1b3b
00000010: db7a 37bd 096a ca3c dbd0 3a3e 55cf 183e
00000020: 96fc 993e c735 763c c706 163c f3c9 193d
00000030: 1817 2f3d b2fb be3d 21de 333a 732c 8c3d
00000040: 0174 8fbc a894 0a3e ade3 213d b0c2 213e
00000050: c077 193e 21b7 0e3e 98ef 333e c82b 253e
00000060: 0f8f 083e 1f35 1e3e 714e 353e c9e1 11be
00000070: a1d4 25bd c82a 45be 92f6 91bd e46b 09bd
00000080: 6912 71be c5f1 bcbc 8068 9e3d da80 a4bd
00000090: c350 ecbd 8b52 373e 867c 5cbe aba1 95bd
000000a0: bd69 fe3d 768f edbe 3aba 4fbd 6f4a 943d
000000b0: 5331 c53c 4d5a 3e3d 1aff 603e b6b2 a1be
000000c0: 1933 8cbd 47d4 0a3e 64b7 e7be df8c c3bd
000000d0: 9545 bf3c efed 1f3c 7119 c23d 7720 b53c
000000e0: e72c f03c e9e2 0dbc 3a5e 6fbd b0b5 b4bc
000000f0: ea4f 743d 329c ad3c eed2 17bd bfad 473e
00000100: cfac fb3b 417d 3d3d cfc5 ef3c 1533 173d
00000110: ea73 1c3e d64c fe3d 1f35 343d 0cf9 5e3d
00000120: 644c a63d 1c96 a43c 3ba4 d43d b5e4 aebd
00000130: da0d 9d3b aa03 143d c289 be3d f0c7 c93d
00000140: 110f 7c3d e056 c4bc 4559 7d3d 17fb 293d
00000150: ac62 0f3e 7363 063b ae29 cebb 4d07 063c
00000160: c052 23bd 1fd0 0e3c 817a aa3c 5ec8 913c
00000170: 329a 2e3d 309e 3abd 7960 723c 6c21 6b3d
00000180: b51c 0fbd 8bba be3c 90e7 e53c aac6 883d
00000190: 0a7e 3dbd 4e2c 47bd a646 febb c267 1c3d
000001a0: 5541 553d a202 f83c 4e68 1d3d 85f8 9c3c
000001b0: f0b4 0ebd f3d0 48be 7b30 23be 239d 67bd
000001c0: 2dd2 bbba bb17 0fbe b6dd ce39 0bc8 893c
000001d0: bc4d 633d 9ce1 74bd 2a27 083d fef4 023e
000001e0: ca15 8ebc f9d3 6d3d b506 b73d fffc 46bd
000001f0: d120 fe3d b1bc 033e 0746 99bd 86cd 4d3e
00000200: 3dc0 193e fefd b1bc 976d 423e ae1a 053d
00000210: e064 53be 01d7 283e 87cd 883d 9303 013b
00000220: cbf1 5e3e e27d cc3d 8088 8ebd 51b9 283d
00000230: 4a52 99bd 5c97 0b3c 5e9c 2abe e78f 81bd
00000240: 9b1d 3abe 1807 4b3e 4319 c33d 278a cabd
00000250: 6a33 b73d 1d8c 8ebc b9ea bcbc 249a 40bb
00000260: 2051 bebd 243b 49bd d64f 633e 4f87 243e
00000270: 50ba 4fbd 17d0 513e 78d6 bd3d eada 03be
00000280: ba0b 23bd efa3 6ebc 5756 853d be14 e2bd
00000290: e98a 03be ad2d 7d3d 8abd 88bd e497 8fbd
000002a0: 922f 003e 34ca 2cbe 52d7 813b bf70 563d
000002b0: e3d3 29be 0cb6 73bc 43c2 ec3c 0567 49bc
000002c0: 5b4d 85bd 3980 5dbd f74e 26be 09d4 ccbc
000002d0: e4b2 303d b6a3 4abd 7b29 f73d 29e3 66bc
000002e0: c06d d33d 879a c93d 9c3a 9bbd f39d aabe
000002f0: d2e8 0abd 0750 54b6 ae45 90bd f3b2 8a3b
00000300: d3bd 513d ab83 e73c 8274 373d e5b7 423d
00000310: 2a0b 8dbd ee9c 2e3c 3ca4 823b e50a 97be
00000320: 03de 9d3d 5623 973a 6e3a 7bbe f329 093e
00000330: 03f8 9e3d f34a a5be 1f09 ac3d b8b8 d7bd
00000340: afed b33d a5e4 1abe efc1 19be 31f2 163e
00000350: 6694 18be b445 67be 37fb 8a3d 1bb7 ecbd
00000360: 6075 323e 27fe 8f3e f139 863e 24e3 b9bc
00000370: dd38 8f3d 0465 da3d 8ef7 923e 2e5c 953e
00000380: 42ff 8a3e 000c 133e 31c2 933d 1b6e 4b3e
00000390: b649 453d 5a03 9d3d a0c7 8c3d 9f58 9e3d
000003a0: 4a78 8f3b e82a ab3d 6295 963d 8643 c43d
000003b0: bcdf f53c 41ed d33d 208b ad3d 4513 ae3d
000003c0: 0c84 913d 3538 a23b ef8c d93d de68 a4bd
000003d0: d765 66bd 420b 56bd a4ce 65bd d0fa bcbd
000003e0: af27 803a 21e4 b33c 1af2 1a3a 7a53 8bba
000003f0: ec84 a23d dc89 56bc 2c70 c5bb 6a7b 9a3d
0.14844806 0.056543734 0.058652684 0.0023794193 -0.0447949 0.024708765 0.18243735 0.14922841
0.3007552 0.01502747 0.009156889 0.03754611 0.042746633 0.09325351 0.0006861408 0.068444155
-0.01751137 0.1353327 0.03952377 0.15796924 0.14987087 0.13937046 0.17571867 0.16129982
0.13335823 0.15449952 0.17705704 -0.14246286 -0.04048598 -0.19254601 -0.07127108 -0.03355016
-0.23542179 -0.023064503 0.077347755 -0.08032389 -0.115388416 0.17902581 -0.21531877 -0.07306226
0.12422512 -0.46398515 -0.05071471 0.072407596 0.024071371 0.046472836 0.21972314 -0.31581658
-0.068456836 0.1355754 -0.45257103 -0.095483534 0.023348609 0.009761318 0.09477509 0.022110207
0.029318286 -0.008660057 -0.05843947 -0.022059292 0.059646524 0.021192644 -0.037066393 0.19499873
0.0076805125 0.04626203 0.029269127 0.03691395 0.15278593 0.12416999 0.043995973 0.05443673
0.08120039 0.020091109 0.10382887 -0.08539716 0.004792911 0.036136307 0.09303619 0.09852588
0.061537806 -0.023967206 0.061852712 0.041499224 0.14002484 0.0020506054 -0.0062915897 0.008180452
-0.03987384 0.008716612 0.020810368 0.017795738 0.04262752 -0.045561016 0.014793509 0.05740492
-0.034939487 0.02328231 0.02806452 0.06678517 -0.04626278 -0.048626237 -0.007759887 0.03818489
0.05206426 0.030274693 0.03842955 0.019161472 -0.034840524 -0.19610958 -0.15936463 -0.05654634
-0.0014329605 -0.13973896 0.0003945657 0.01681902 0.055494055 -0.05978547 0.033240475 0.1278877
-0.017344374 0.05806348 0.08936826 -0.04858112 0.12408603 0.12864949 -0.0748406 0.20097932
0.1501474 -0.021727558 0.18987118 0.032496147 -0.2064395 0.16488267 0.06679826 0.0019685968
0.21771924 0.09984948 -0.06959629 0.041192356 -0.074863985 0.008519974 -0.16661212 -0.06326275
-0.18175356 0.19826925 0.09526303 -0.09889632 0.08945353 -0.017400796 -0.023061143 -0.002938875
-0.09292817 -0.049128667 0.22198424 0.16067241 -0.05071479 0.20489536 0.09269422 -0.12876478
-0.039806105 -0.014565452 0.06510609 -0.110391125 -0.12845959 0.061811138 -0.06676777 -0.07011393
0.12518147 -0.1687401 0.0039624358 0.052353617 -0.16584735 -0.014874946 0.028901225 -0.012292628
-0.06508895 -0.05407736 -0.1624106 -0.02500345 0.043139353 -0.049472533 0.12068459 -0.014092245
0.103236675 0.09843927 -0.07579538 -0.3332363 -0.03391344 -3.1637044e-06 -0.0704454 0.004232758
0.05120642 0.028261026 0.044788845 0.047538657 -0.06886895 0.010657532 0.0039868634 -0.295005
0.07708361 0.0011530917 -0.24534008 0.13394909 0.07762148 -0.32283744 0.08400177 -0.10533279
0.08785569 -0.15126283 -0.15015386 0.14740826 -0.1490036 -0.22585183 0.06786197 -0.11558362
0.17427588 0.2812359 0.2621608 -0.022691317 0.06993268 0.106637985 0.28704494 0.2917189
0.2714787 0.14360046 0.072147734 0.1986622 0.048166 0.07666655 0.06874013 0.07731747
0.0043783532 0.08357793 0.07352711 0.095831916 0.030013911 0.10347987 0.084738016 0.08499769
0.07105264 0.004950548 0.10622584 -0.08027814 -0.056249466 -0.05225683 -0.05610527 -0.09227526
0.0009777452 0.021959366 0.000591071 -0.0010629736 0.07935509 -0.013094392 -0.006025335 0.075430706

Generator.conv2.conv1.0.weight f4 [8, 8, 3, 3, 3]
00000000: f87a c23d d440 1dbc 7476 84bd bf81 933e
00000010: 42bb c83d 07e3 b3bd 9f4b 3cbe 886d 903c
00000020: 0876 ad3d 1715 9ebd b299 40bd 21e3 4abb
00000030: 301f b5bd 2a6d 253b ce24 c03c f920 19bd
00000040: 28e4 93bd d7c1 b83d 4906 6e3c 1cb2 68bd
00000050: 3e0e b3bc cdf2 18bc 1ce3 36bd f169 113d
00000060: b226 a23c 726e 6ebc f5f4 913d 8b73 483d
00000070: 9f62 12bd b662 64bd 5e61 d23b 3e2d c8bb
00000080: ff7d 00bd 2811 7f3d 3348 973d 7fd0 053c
00000090: 95ec 28be 9fef 0bbe aae6 a4bd 50ab bfbd
000000a0: a998 78bd babb 64bd 6af9 d73d 806a 15bc
000000b0: 4368 efbc d285 45bd 2c20 74bd 0e6d 2abe
000000c0: 60f6 cc3b 3956 70bd 26ff c8bd 83f1 b03d
000000d0: 5350 a83a b9d0 5dbd 926a 6d3c 7efc c23d
000000e0: d6be 1a3e 65ab 1a3d 96e0 473d e9d6 3b3e
000000f0: cf99 49bd a96b 26bd 3d02 093d 4e8a bebd
00000100: 764d f73c 4454 243d bdcc 6fbd 2cb2 003c
00000110: b8f4 963d f235 41be 52e8 f6bc 86f0 0e3d
00000120: 3fcd 7dbd bd60 563c 2e7e 953d 1ad7 cbbd
00000130: 926c a53d 002c 053e 3bdb febd 086c 70bd
00000140: f10b 8b3d 31b3 b5ba bef2 f2bc 3335 5b3d
00000150: 970b debd 82c4 8fbd ec95 28bc 3277 90bc
00000160: 8ac0 1bbd c87f c03d 7682 353e 61ae 0b3c
00000170: c7c0 953d d1da 0b3d d7c4 b6bc fd21 643c
00000180: 407d 283c f74e 6abd 4155 ff3c b337 2c3b
00000190: 57cc bc3b 22f7 27bc c89e dbbd f06d 0bbd
000001a0: 75e1 8b3d 4d56 24ba e8f0 22bd 10a6 953c
000001b0: 5f41 4e3d 5727 443d f518 25bd 676c 313c
000001c0: 49ed cdbc f285 ce3c 88f0 88bc 439c 17bb
000001d0: e2a4 e53c 3eac 2f3d 0ddf 923c ae62 8d3d
000001e0: d4dd 803d e09c a13d acaa b73d 4d20 aa3d
000001f0: 9760 61bc 3c4f fa3d 7d28 36bd c789 983a
00000200: 4894 803d 391b 81bd ec84 f73c c2d0 843d
00000210: 2b42 743c 7e28 10bd 501a 53bd bf12 18bc
00000220: 3f96 d83d 9c93 4f3d e04b b53b f897 ca3d
00000230: df3b a73d 3e9e c6bc c217 91bd c747 0abd
00000240: 48a0 5bbd 0580 08bc ec0a afbb 7662 90bd
00000250: efe6 7ebd a544 11bd 0b88 9dbd c041 e5bd
00000260: 4d93 7b3d bda9 8ebd 51b2 09bd 0b0b a4bc
00000270: 5412 ddbd 001b 0cbd 8ecd bebd 2f3b 20be
00000280: bfbe 47be fab6 043e 1276 9d3d d27d 813d
00000290: cbff 973d 0b91 a03d db51 233c 0bab f93c
000002a0: a4a1 683c e435 b73d e037 d93c c427 a73c
000002b0: 1f16 05bb 5668 e1bb 132e 843d a5b2 a73d
000002c0: c8af cb3d fd46 be3d 7bc0 3c3d 2be7 963d
000002d0: 107b 4b3d f68f 9dbb a8f4 d1bc c644 66bd
000002e0: cdfd 593d 4240 bdbc 425a f03c a128 81bd
000002f0: 4304 4b3c f450 76bc b606 dbbc ce9e 323d
00000300: daa4 94bd b1c0 68bd 44c7 823d 3f18 e6bd
00000310: fd00 91bd 911b cbba 6d3e 2abd cf15 7fbd
00000320: 6051 923c 2b8c ccbd fdb6 33bd 3ba9 533d
00000330: 904e 97bd 3814 9bbd 2019 e63d 7e54 bbbd
00000340: aee8 89bd 41c8 9b3c 4ae4 1bbd 628e d4bb
00000350: 153a 043d 4bdc b4bd e6b1 5abd 853d 093d
00000360: f506 04be 54f9 3dbe e705 0d3e 17e3 d0bd
00000370: e26b 64bc a563 a43c f9ef 9e3d 45fe d5bc
00000380: 8469 153e a8fc 26bd 6f98 bbbc a046 523d
00000390: 21b0 b7bc 1d20 633c aaef 0a3d c87a 633d
000003a0: b162 b93d 4f55 c83c 9000 193c 53eb c2bd
000003b0: e9ae 10bd 4750 8e3d 4d56 a23b 7d08 95bc
000003c0: 4958 933d d8eb c63d 22af d63c cf21 fdbc
000003d0: 55f3 11bb 98cc 6f3c 5527 93bd f378 293d
000003e0: 03b6 013d e317 d63b da08 143d 612b a8bc
000003f0: 6112 04be eb50 f5bd ac6f 94bd 31f7 c3bd
0.09496111 -0.009597976 -0.06467906 0.28809926 0.098013416 -0.087835364 -0.18388222 0.017630354
0.08469778 -0.07718866 -0.047021575 -0.0030958133 -0.08843839 0.0025242069 0.02345505 -0.03738496
-0.07221252 0.09021347 0.014527866 -0.056810483 -0.021857377 -0.009335232 -0.044650182 0.035501424
0.019793842 -0.014552699 0.071268 0.048938315 -0.035738584 -0.0557582 0.0064202985 -0.006108909
-0.03137016 0.06227222 0.07386818 0.008167385 -0.16496499 -0.13665627 -0.08051808 -0.09358847
-0.060692463 -0.055843093 0.10545619 -0.00911963 -0.02922452 -0.048223324 -0.059600994 -0.16643164
0.006254956 -0.05867598 -0.09814291 0.08639815 0.0012841321 -0.05415413 0.01449074 0.09520815
0.1511186 0.03776111 0.048798166 0.183437 -0.04921895 -0.040630016 0.0334494 -0.09303723
0.030188303 0.040119424 -0.058544863 0.0078549795 0.07370895 -0.18868235 -0.030140076 0.03489735
-0.061963316 0.013084588 0.072994575 -0.09953137 0.08077349 0.13005066 -0.12444159 -0.058696777
0.06789387 -0.0013862607 -0.029656764 0.05351753 -0.10842054 -0.07019903 -0.01028965 -0.017634962
-0.038025416 0.09399372 0.17725548 0.008525462 0.0731216 0.034144226 -0.022310657 0.013924119
0.010283768 -0.057204213 0.031168582 0.0026278317 0.005761664 -0.010251792 -0.107236445 -0.03404039
0.06830112 -0.00062689633 -0.039780527 0.018267661 0.05035531 0.04788908 -0.040307004 0.010829068
-0.02513756 0.025210354 -0.016716257 -0.002313391 0.028032724 0.042888872 0.017928625 0.06903587
0.0629231 0.0789125 0.089681 0.08306942 -0.013755939 0.12222144 -0.044472206 0.001163774
0.062782824 -0.063040204 0.03021475 0.0648513 0.014908354 -0.035194866 -0.051538765 -0.009281813
0.10575532 0.05067788 0.0055327266 0.09892267 0.081657164 -0.024245378 -0.070846096 -0.03375986
-0.053619653 -0.0083313035 -0.005341878 -0.0705003 -0.062231954 -0.035465855 -0.07691964 -0.111941814
0.061419774 -0.06965969 -0.03361732 -0.020024797 -0.107945114 -0.034205437 -0.0931655 -0.15647577
-0.19506358 0.12960425 0.07688536 0.063228264 0.074218355 0.07840165 0.009968246 0.030477067
0.014198694 0.08945826 0.026515901 0.020404704 -0.0020307375 -0.006878893 0.064541005 0.081883706
0.09945637 0.09290884 0.046082 0.073683105 0.04967791 -0.0048084212 -0.025629357 -0.05621793
0.05322056 -0.02310193 0.029339913 -0.063065775 0.012391153 -0.015033949 -0.026736598 0.04360848
-0.072580054 -0.05682439 0.06385663 -0.11235093 -0.070802666 -0.0015495886 -0.04156344 -0.062276658
0.017861068 -0.099876724 -0.043875683 0.051675063 -0.073880315 -0.07572216 0.11235261 -0.09146975
-0.06733833 0.019016387 -0.03805951 -0.0064867 0.032281954 -0.0883108 -0.053392313 0.033505935
-0.12893279 -0.18552142 0.13771783 -0.10199564 -0.013941737 0.020067045 0.07760615 -0.026122222
0.14591032 -0.040768296 -0.022899834 0.051336884 -0.022422852 0.013862637 0.033919968 0.055537015
0.09052027 0.02445474 0.009338513 -0.09517541 -0.035323057 0.069489054 0.0049541355 -0.018192524
0.071945734 0.097129524 0.026206557 -0.03089991 -0.0022270281 0.014636181 -0.07185236 0.04137511
0.03166772 0.0065336092 0.036141254 -0.020528497 -0.12897636 -0.119783245 -0.07247862 -0.095686324

Generator.conv2.conv2.0.weight f4 [8, 8, 3, 3, 3]
00000000: b95e ae3d dea9 6cbd 2f18 da3b b80e 9d3d
00000010: 37e9 af3d 09e5 863d 3c11 603d 17c9 6b3d
00000020: 6224 ef3d 405c f73d c673 6bbc fcb1 603d
00000030: b874 b83c aeae b43b af94 23bd 6c13 9a3d
00000040: d3bc 38bd 349b f73c ba49 973c 791d 8cbd
00000050: df93 3fbd c138 413d 6b89 c7bd 3b37 babd
00000060: 9ae3 c7bd 456c 2fbd 0807 4dbd 2dc8 033e
00000070: 08e6 d03d 0c8c c53c 7962 813d 3c44 ce3d
00000080: 2566 2e3e e8ef 8b3d f497 5e3d bdda dd3d
00000090: 82f8 b33d 0aef dd3c 82e3 05bc 92aa 973c
000000a0: 5282 d23d 2812 3b3d 36de ffb9 37bf 403a
000000b0: e4cc e83d 45c2 793c 267b 633d 8f07 0abc
000000c0: 940b 293d e592 0d3d 3a7b 273d 9d07 f0bc
000000d0: e8eb 893d 83d5 0c3d 56cd 733e 1f18 aa3d
000000e0: 5601 4d3d 83da eabc 7ebf efbd 4853 e3bd
000000f0: e612 813d 573f 04bc 96b1 93bd df88 e3bb
00000100: 962b 01be 7b22 edba 67f1 f2bd d88b 01be
00000110: a2af 4bbe 9f37 ed3c e667 38bc 199a 3abe
00000120: c894 c0bc 41c4 9ebd f0f0 163e 7be3 bebd
00000130: c178 22be a176 083c afda a83d 9c98 143d
00000140: 8109 c3bc 996e a93d f8b5 a53d 1d15 183e
00000150: 7e66 ea3c da06 2c3d 10c2 953c b24d ee3d
00000160: 8ce9 623c 19df bd3b b5e2 163e 5dbf dd3b
00000170: 2447 b13d bd4a f1bc 4577 e9bd 5919 babd
00000180: f8be c6bc 31e0 06be 7857 a93c 6828 83bc
00000190: 9e45 8fbd 07b4 753d 07dd aabd 9668 9cbd
000001a0: df8d 50bd 9971 a33d 4fb6 aabd 6388 e9bc
000001b0: 20fe 86bd d01c 5cbd 49bd 29bd 633a 833d
000001c0: 9cdb 823d bf5c 51bc f89c c93d b621 1a3d
000001d0: 31b7 2d3c eda5 1cbe 380e f1bd 804f d6bb
000001e0: 60c0 97bd 94c9 9cbd 0e4d 60bb e8f2 b03c
000001f0: 1ac5 38bd 4a96 ea3c e5df 24be 3f1e f3bd
00000200: 0ff8 71bc 1da3 103e c19c 763d e5f1 adbc
00000210: ccfb d83d cd7f 68bd 1c72 05be 043e 3e3d
00000220: b79b 43be 5773 49be d7d1 29bd dea7 61be
00000230: 80fe 003d be8b 19be 48c0 5ebe 6733 163e
00000240: 4fcd 2c3c 8eaa 373c 81e5 f3bd fdde f63b
00000250: f947 a3bd 2fbf bcbd cb50 8e3d 16af 28be
00000260: 7a51 cdbd f40a e93d a286 f03c cf82 613c
00000270: 654a ab3d 7b39 62bc 5fb2 edbd d950 2c3e
00000280: 8529 d2bd a839 633c a875 043e 91ca 203d
00000290: 696f 593e fc25 52bc 668a 43bd 2785 c9bd
000002a0: dd59 8b3d 1436 08be 7014 d1bd cff9 ae3d
000002b0: cc96 283d 502c 4e3e c24f d23d d59e 53bc
000002c0: e29c 46bd 386d 2bbc fe75 3abd 4ad9 f3bd
000002d0: 4635 51bc cc72 fe3d f1ef 7e3d 116d 7a3c
000002e0: 93bf 2f3c 8e7a 21be 6920 6e3d b5f7 8dbd
000002f0: 327a 2bbe 7e41 59bd 4404 80bd 20b3 b2bd
00000300: 0197 9fbd 976d 98bd 6e24 a2bd 89a6 28bd
00000310: 7b3c 48bc 7dfb 063d 929d 7bbd 2169 d03a
00000320: 19c9 47bd 84e9 d6bc dfb5 87bd 1733 13bd
00000330: e66c 193d 9c64 c93c b1d4 54bb 62b3 233e
00000340: 3dd8 0c3e a18f 213e c949 453d 7c9b d23d
00000350: 96ba 9ebc 6a7d 163e afb4 8b3c 5da8 dfbc
00000360: a8f9 29be dec3 a5bd 40a7 9a3c 0bbf b1bd
00000370: 7ed4 73bd 3bf7 b6bd bf29 2cbe 2316 60bc
00000380: f943 86bc 5d47 5c3d 1033 4a3d c000 f73b
00000390: 8b1e 853d a185 3a3d afde 983c c9f4 04bc
000003a0: ea54 2c3c 54cb 623d dcad 493d ea78 d93d
000003b0: 0882 a23d 662a 233e e744 ed3d 62c6 9f3d
000003c0: fabb 0f3e d76d 0b3d 497a 213d d6f2 1abe
000003d0: d8ce d8bd 166b c93c 7a85 efbd da57 adbd
000003e0: c1bb 04bd b81a 8cbe 0ed4 e5bd dd73 a33b
000003f0: c2be ac3c f039 e43c 5f86 40bd cc51 c03c
0.08514161 -0.057779185 0.006655715 0.07668823 0.08589404 0.06586654 0.054703936 0.05756482
0.11676861 0.12078142 -0.014370864 0.05485724 0.022516593 0.0055139875 -0.039936718 0.07523236
-0.04510195 0.030225374 0.018467773 -0.06841559 -0.04677188 0.047173265 -0.09743007 -0.090925656
-0.097602084 -0.042827863 -0.050055534 0.1286933 0.10200125 0.024114631 0.0631761 0.100716084
0.17031153 0.06832868 0.054344133 0.10832737 0.087876335 0.027091522 -0.008171918 0.018513951
0.10278763 0.045671612 -0.0004880295 0.0007352712 0.11367205 0.015244071 0.055537365 -0.008424654
0.041270807 0.034563918 0.040889002 -0.029300505 0.06734449 0.03438331 0.23808798 0.08305382
0.050050102 -0.028668648 -0.11706446 -0.11099869 0.06302433 -0.008071742 -0.07211606 -0.0069438065
-0.12614283 -0.0018091941 -0.1186245 -0.12651002 -0.19891217 0.028957186 -0.01125524 -0.18222846
-0.023508444 -0.07752276 0.14740348 -0.09320732 -0.15866376 0.008329065 0.082448356 0.036278352
-0.023808243 0.08273048 0.080913484 0.14851804 0.028613325 0.04199872 0.018281013 0.11635913
0.013849627 0.0057944176 0.1473492 0.006767197 0.08656147 -0.029454583 -0.11399702 -0.09086866
-0.024260983 -0.1317146 0.020671591 -0.016010478 -0.069957 0.05998614 -0.08342939 -0.07637136
-0.05091655 0.079806514 -0.08335554 -0.028507417 -0.06591439 -0.053738415 -0.041440282 0.06407621
0.063895434 -0.01277846 0.098443925 0.037629806 0.010602758 -0.1529767 -0.1177029 -0.006540239
-0.074097395 -0.076556355 -0.0034225616 0.021600202 -0.045109846 0.028636117 -0.16101034 -0.11871003
-0.014768614 0.14124723 0.060208086 -0.021233508 0.105949014 -0.056762505 -0.1303181 0.04644586
-0.19102369 -0.19672905 -0.041459884 -0.22036693 0.03149271 -0.14994714 -0.21753037 0.14668046
0.010546996 0.011210097 -0.11909009 0.0075339065 -0.07972712 -0.09216153 0.06949004 -0.1647304
-0.10025306 0.11379042 0.029361073 0.013764097 0.08363799 -0.01380765 -0.11606287 0.16827716
-0.102618255 0.013868727 0.12935507 0.039255682 0.21233906 -0.012826439 -0.04773941 -0.0983985
0.068042494 -0.13301879 -0.10208976 0.08543741 0.041159436 0.20134091 0.10269119 -0.0129162865
-0.04848946 -0.0104630515 -0.045522682 -0.11906679 -0.012769049 0.124242395 0.062240545 0.0152847925
0.010726827 -0.15769407 0.058136377 -0.06932012 -0.16745833 -0.053040974 -0.062508136 -0.08725572
-0.077924736 -0.074427776 -0.07917105 -0.041174445 -0.012221451 0.03295468 -0.061429568 0.0015900471
-0.048775766 -0.026234396 -0.06626486 -0.035937395 0.03745737 0.024584107 -0.0032475407 0.15986398
0.13754363 0.15777446 0.04816607 0.102835625 -0.01937608 0.14696279 0.01705393 -0.027301962
-0.16599143 -0.08093999 0.01887858 -0.08679017 -0.05952882 -0.08933874 -0.168128 -0.013677153
-0.016389834 0.053778995 0.049365103 0.007537931 0.06499966 0.045537595 0.018660871 -0.008115002
0.010518292 0.05536969 0.04923807 0.10618766 0.07934958 0.15934142 0.11585408 0.078015104
0.14036551 0.0340403 0.03942326 -0.15131697 -0.10586327 0.024587195 -0.116953805 -0.08464022
-0.03240562 -0.27364135 -0.11222087 0.004988177 0.021087054 0.027859658 -0.047003146 0.023476504

Generator.conv3.conv1.0.weight f4 [8, 8, 3, 3, 3]
00000000: 380d 313c 718e 953d 4559 83bc b2eb a2bc
00000010: e2aa a13b 8eed 243d 3873 a83d e731 acbc
00000020: b272 3e3c 5c72 d5bc b2a9 da3c 4e76 7abd
00000030: f835 823c c65d b9bc b491 b5bd e673 24bd
00000040: 5b65 2b3d aaae 0abd eb9b 08bd cf83 8b3d
00000050: 5b8a 7ebc 8958 573d fd26 78bd 7100 33bc
00000060: 6bfb 03bd d58b e33c 0aaf 76bd 1485 6bbd
00000070: 5906 983c df01 0a3d e4bf bf3b a643 b2bc
00000080: aa41 99bd 74d0 5c3d e8c8 d8bc c6d2 353d
00000090: 5de0 083c cc83 7c3d a8b1 023e 9aef 50bc
000000a0: 42a4 09bd ddd7 afbd bd38 f3ba f128 bcbd
000000b0: 42c8 cc3c fde4 f0bb 539b ac3d a364 e4bc
000000c0: d951 4d3d c859 26bd f9be 8bbd c5e9 9fbd
000000d0: 0472 c6bd 07b2 0c3d 4d02 46bd 737c 65bc
000000e0: e53e f2bc 7e38 62bd ed66 fcbc 3731 db3c
000000f0: a597 7aba 9c1d 84bc da26 cd3b 0888 203d
00000100: d31d 0c3d f97b 763d c4d2 1ebd 4953 bf3d
00000110: 40a2 843d 65ff 0bbd 7875 b23b 7cdc c0bc
00000120: 65f0 3d3d adbf 74bd 88d0 d63c d9e7 20bc
00000130: 7c80 823d d43b d1bc 1327 913d 9043 5abd
00000140: 3bff 53bd 31e6 bc3c 5ccc 01b9 7b21 9f3b
00000150: d97a 84bc 506e fe3c bcc2 69bd 3e31 8b3d
00000160: 4ae1 47bc 85cb 813d ed79 4dbc 1240 353d
00000170: e649 073d c60e 42bd 29c6 8b3d 5787 7fbd
00000180: a809 9dbd 2ac8 efbc 5224 cabb cd57 25bd
00000190: 6fe4 6a3d e9ef a4bc 9661 9a3d 25e5 003e
000001a0: d97c 123d 617c fdbb 41bc fbbc 346e b9bd
000001b0: 714e 8e3d 45b7 2abd b43a fb3b 47e2 8e3d
000001c0: fd8b 4cbd abdb 3e3d 7ba8 a43d 684d 3e3d
000001d0: ff0c 39bd 5425 623d aad0 993d e82a 813d
000001e0: edf1 0a3c a8a4 633d e9a6 b33d 63d8 1b3d
000001f0: ac12 963d 7e5e 6ebd 35c1 5cbc 86e3 0b3b
00000200: 1d55 c03c f09e 81bd 6cf6 36bd 806b afbc
00000210: f448 3f3d 2749 4ebd e96d 01bd dfb8 83bd
00000220: efad 133d 0c0d 863c 93d5 dcbb cc26 8a3d
00000230: 68c4 6ebd 1998 73bc a648 4bbc c765 083d
00000240: f71c 6d3c 841a 9a3d 65f0 ca3c 7c9f 1ebd
00000250: f673 343d 249e 923a 3192 68bd 034d 97bd
00000260: c5b7 013d 1a12 78bd 904c 7c3d 78cd 87bd
00000270: f349 0a3d 60b5 a53d 775b 883d e7d2 613d
00000280: c15c aabd 999e efbc 6656 5bbd 5c63 483d
00000290: 5c6f f53c 378b a0bc f787 42bd ef7a 00bd
000002a0: c6f8 cf3d 8a92 7b3c 82ce 983c 3f30 433d
000002b0: de59 e4bc 1e4b a13d a906 8e3d c790 78bd
000002c0: 00b2 3c3d 43e7 e43c 431e cb3c eb5d 9c3c
000002d0: cedb c93c b5b0 2bbc a7cc d0bd eb50 e53c
000002e0: 6d16 a23d 9dfe febc 4ebd a9bd a024 d73d
000002f0: 761f 2e3a 6856 203c 672a 66ba 15ce c73b
00000300: a5a0 f13b 2e62 203d d158 8fbc 247b a5bd
00000310: 70c4 a3bb 99a7 ec3a 59a0 efbb 0709 0e3a
00000320: 4cdd 3dbb 60e1 e83c d4d5 173e a43c 4c3d
00000330: 96ed 70bc 1776 14bd edd4 7c3d 0bda 3abd
00000340: 7f51 b8bd ed0d f2bb c857 643d 2e7b f13d
00000350: 5306 9ebd 2a7d 11bd 33a9 34bd f829 71bd
00000360: dea4 8a3c 2017 0dbd 85a0 6ebb 5110 243d
00000370: ed2a 523c 3b82 493d aa70 1f3c 830e 503d
00000380: 3eca ee3c 6796 e03d 706b 8ebd 47dc 993b
00000390: e765 923d 5288 2c3d 5a43 aabd 85b3 10bd
000003a0: 1b4a 323d 7dee 27be 9d0c b33c bf11 123b
000003b0: e5ec b13c 5e86 583d 4319 3e3b e1a5 3cbd
000003c0: d3e6 4abd 1fea 48bd 2729 363c 1e89 493c
000003d0: a884 cebd 3e2d 11be 255b e13c 2e31 963d
000003e0: 56ba 03be a433 ab3d 74f6 573d 0a69 48bb
000003f0: 9b04 a33d a2ac b73c 3ec9 9ebc 26ec d63d
0.010806374 0.07302559 -0.016033778 -0.019887779 0.004933701 0.040265612 0.08225101 -0.021019889
0.011624025 -0.026055507 0.026692245 -0.06114798 0.015894875 -0.022627722 -0.08865681 -0.040149592
0.041844707 -0.03385798 -0.03335182 0.0681225 -0.015535916 0.052574668 -0.060584057 -0.010925398
-0.032222193 0.027776638 -0.060225524 -0.05749996 0.018557714 0.03369319 0.0058517326 -0.021760773
-0.074832276 0.053909734 -0.026462987 0.044390462 0.008354274 0.06164913 0.12763083 -0.012752438
-0.033603914 -0.085860945 -0.0018556338 -0.091874965 0.024997834 -0.0073515163 0.08428063 -0.027880019
0.050126884 -0.040612966 -0.068235345 -0.0780826 -0.096897155 0.034349468 -0.048342038 -0.014006722
-0.029571006 -0.055229656 -0.030810798 0.026756866 -0.000955934 -0.0161274 0.006260735 0.03919223
0.03420813 0.060176823 -0.03877522 0.09342057 0.06476259 -0.03417911 0.0054461323 -0.023542635
0.046371836 -0.05975311 0.026222482 -0.009820902 0.06372163 -0.025541224 0.07087531 -0.05328709
-0.05175708 0.023058983 -0.00012378528 0.004856286 -0.01617186 0.03105846 -0.05707048 0.067965016
-0.012199709 0.063376464 -0.012541276 0.044250555 0.03302946 -0.04737737 0.068249054 -0.06238493
-0.076678574 -0.02927025 -0.0061688805 -0.040366936 0.057346758 -0.02013393 0.07538144 0.12587412
0.035763595 -0.0077357744 -0.030729415 -0.09054223 0.06948555 -0.041678686 0.00766691 0.06976753
-0.04993819 0.04659621 0.080399476 0.04646054 -0.04517841 0.05521138 0.07510503 0.06307012
0.008480531 0.05557695 0.0877207 0.03804816 0.0732778 -0.058195584 -0.0134737985 0.0021345331
0.023478085 -0.06329143 -0.0446686 -0.021413565 0.046700433 -0.050362732 -0.03159896 -0.06431746
0.036054548 0.016363643 -0.006739327 0.06745681 -0.058292776 -0.014867806 -0.012407457 0.033300187
0.014472238 0.07524589 0.024772832 -0.038726315 0.0440559 0.0011186046 -0.056780044 -0.07387736
0.031669397 -0.060564138 0.061596453 -0.06630987 0.03376193 0.08091235 0.066580705 0.055132773
-0.08318473 -0.02925043 -0.053549193 0.04892288 0.029960327 -0.019597633 -0.047492947 -0.03136724
0.10154872 0.015354762 0.018653158 0.047653433 -0.027874883 0.078756556 0.06934864 -0.060684945
0.04606819 0.027942305 0.024794703 0.019087752 0.024640944 -0.010479142 -0.10195284 0.027992686
0.07914434 -0.031127268 -0.0828806 0.105050325 0.0006642261 0.009786226 -0.0008780122 0.006097565
0.0073738866 0.03915613 -0.017498406 -0.08080128 -0.0049977824 0.0018055319 -0.007312816 0.00054182153
-0.0028971015 0.02842778 0.14827663 0.04986252 -0.014705082 -0.03624543 0.0617265 -0.0456181
-0.08999919 -0.007386914 0.055747777 0.11791073 -0.0771605 -0.035519756 -0.044106673 -0.058877915
0.016924318 -0.03444588 -0.0036411595 0.040054623 0.012827617 0.049196463 0.009731451 0.05079509
0.029149171 0.10966187 -0.06954086 0.0046954486 0.071483426 0.042122193 -0.083136275 -0.035327453
0.043527704 -0.1639957 0.0218566 0.002228841 0.021719405 0.052862518 0.0029006756 -0.046056632
-0.049536537 -0.0490514 0.01111821 0.012300758 -0.10083896 -0.14177415 0.027509281 0.07333599
-0.1286405 0.08359459 0.05272527 -0.0030580186 0.07959863 0.022421185 -0.01938307 0.104942605

Generator.conv3.conv2.0.weight f4 [8, 8, 3, 3, 3]
00000000: b438 553d 84d7 b33c bd81 36bc d337 1ebd
00000010: 2b32 813d d84b d9bc e69a 9cbd b0ec 10bc
00000020: bef9 97bd 3875 323d b021 0abd 36e7 2e3d
00000030: 5a11 163c 747a 5f3d bbd6 c0bc 1ea1 c4bc
00000040: ba8e d93c 47a7 8dbd b0ff a63c c4b8 2fbb
00000050: c841 6ebc 9a0f 603d 1d9d bd3d b461 e33d
00000060: 6c47 e63c 4d33 c33d 8329 123d e9e8 cd3d
00000070: 651e 06be 2d1e 2ebe c3c7 053e e0b5 8bbd
00000080: a8f9 c4bd f6c5 3f3d 3e94 723d 60fe a0bc
00000090: 8428 9a3d ebef b8bd bc70 e8bd 9c4b aebd
000000a0: fc36 75bd 6a30 41bd 32f7 cbbd 5ee9 0dbe
000000b0: 44df 31be f7b0 bc3d 322b cbbb a26c 10be
000000c0: eb71 01bd 2a25 72bc a862 11be 1167 67bd
000000d0: 53cb 57bd 3dd8 0bbe 11e1 02ba 84ef cd3c
000000e0: 570e 86be f0b3 5f3d aeef e0bc d6a2 11bc
000000f0: da58 c43d 1178 f33d b06d 343d 3126 b53d
00000100: 26e8 16bd 6a84 a1bc fe89 b73d 4fba 5f3d
00000110: c7f6 5abd b958 033d ffb9 6c3e aa3c 2dbd
00000120: 3d9b d23d 742f 1b3e f0bb c13d d38d f83d
00000130: 6833 313e d830 c03d 5313 45bd 5025 a53d
00000140: 14fb ce3d 1645 62bd 456c de3d 2ab1 6e3c
00000150: 6b45 95bd 23b0 5bbd 19ac 5c3d fdef 403d
00000160: 7e72 1abd 0576 0fbd dd1e e7bd 2678 4f3c
00000170: 1171 6b3c 4b8f fcbd 4fcb 79be ebb9 233d
00000180: 0160 263c 00ea 2ebe 72b4 80bd 420f 26be
00000190: aa8f cebd 8715 3fbc df51 b2bb 5ca7 7abe
000001a0: 3ef1 bcbc 93c7 c33d f85e 46bd c814 29bd
000001b0: c7ff acbe 2e17 28be 0252 3dbd f50e f3bd
000001c0: ff37 b2bd 30bc 70bd 5628 04be cdb9 f0bd
000001d0: 76d4 79bd cdcb 80bc ce9f 28ba 8fae 5a3d
000001e0: 0e08 3a3d 01f8 df3c a5e3 fcbc 5adf 91bd
000001f0: 7a9a c8ba ca8a b1bc 8f68 efbe b0f4 7fbe
00000200: 7bc9 36bd a228 85be 989e 64be d14f 00be
00000210: 4b9a ff3b d7e2 5ebc 24b2 9a3d 71fa 103d
00000220: 85e9 62bc 58b3 92be 30fd 14be 86a1 5abd
00000230: c421 883c f068 673e bb73 27bd aec7 eb3d
00000240: 2441 c4bd 617a a8bd da74 b0bc 3c58 e4bc
00000250: f2e4 883c 4899 d63d 3776 1d3e dc51 34bd
00000260: 0534 073e 82be 153d d2a9 f93d ff54 8fbd
00000270: 6f4f d93d e954 b13c ddcb 853d a24c 8a3e
00000280: 4d0b a13c 9ef0 87bc 6629 113e cbf4 043e
00000290: 3ae8 0b3e 7af7 603a 80df 04bd 03f3 a13d
000002a0: 2712 06be 42e3 2fbe 2c6d 093e dd1e 873b
000002b0: 71a9 273d 3007 df3d 9e0c d3bd 7997 d7bd
000002c0: 90de bf3d 69e8 fcbd c853 d23b 5d5d d83d
000002d0: e1d2 33be aeb3 47bd ffdf 243e bb0c 0cbe
000002e0: 6ea5 a3bd 799d 5e3e f6f5 27bd 1c4c f53d
000002f0: 7827 ef3d feb2 5d39 f854 b7bc 301a db3d
00000300: 668f 1ebd 4605 b2bc a9c4 bd3d 6624 7ebd
00000310: 6e96 f93b 648c 323e 9abc 313e 661d 6b3d
00000320: 2bab bd3d 6955 433d 551e fa3c 64cc 3f3c
00000330: db2e 6abd bcad b23d 25c4 2bbc d384 233e
00000340: 885d 463b 4452 2abc e666 133e f09a 413d
00000350: 6490 ee3c c547 cf3d 03b9 193e 563f a5bc
00000360: 32ba a13c e6af fb3a f8c3 6ebd 289d 223c
00000370: 9c3b a2bd 3487 b1bd efab ed3c c5de e7bb
00000380: c798 193d 3919 3c3c 4303 25bd c0f6 74bd
00000390: c320 85bb 5391 603d d4aa 6fbd 834d 603d
000003a0: 5108 a63b 6e5e d43c c2db e93b dcb2 e13d
000003b0: 044a c83d f892 813d 7993 753d 7cd8 5e3d
000003c0: 1aea 8f3d 066a f3bc 3f14 ae3c 1327 8d3b
000003d0: 1ea9 a23c e6d8 1fbe da5a be3d aa89 d53d
000003e0: 1193 333d 849d 2a3e 2e5d 503c dc8f d73d
000003f0: 045e 9e3c 6f0b e83d b8e6 96bd 399a ba3d
0.05205603 0.021953352 -0.01113933 -0.038627457 0.06308397 -0.026525423 -0.07646732 -0.008845493
-0.074206814 0.04356882 -0.033723533 0.04270097 0.00915941 0.05456014 -0.023539891 -0.024002608
0.026557315 -0.06916671 0.020385593 -0.002681301 -0.014542051 0.05470238 0.092584826 0.1110262
0.028110228 0.09531269 0.03568412 0.1005419 -0.13097532 -0.17003699 0.13064484 -0.06821799
-0.09617931 0.04681965 0.059223406 -0.019652545 0.07527259 -0.09030136 -0.113496274 -0.08510515
-0.05986689 -0.047165312 -0.09959258 -0.13858554 -0.17370325 0.09213441 -0.0062002176 -0.1410394
-0.03160278 -0.014779368 -0.1419779 -0.056494776 -0.05268414 -0.13656707 -0.0004992644 0.025138624
-0.26182815 0.05461496 -0.027458038 -0.008888921 0.095872596 0.11888135 0.04404992 0.08845175
-0.036842488 -0.01971646 0.08961867 0.054621037 -0.053458 0.032067034 0.23117827 -0.042294182
0.102835156 0.1515482 0.09459674 0.12136426 0.17304766 0.09384316 -0.048114132 0.080637574
0.10106483 -0.055241667 0.108604945 0.014568606 -0.07288631 -0.053634774 0.053875063 0.04710387
-0.037706845 -0.03502466 -0.112851836 0.012662923 0.014370219 -0.123320185 -0.24393962 0.039972227
0.010154725 -0.17081451 -0.06284417 -0.16216758 -0.100859955 -0.011662847 -0.0054418887 -0.24477905
-0.023064252 0.0955955 -0.048430413 -0.041279584 -0.33788893 -0.16415092 -0.046220787 -0.11868087
-0.08702087 -0.05877322 -0.12906012 -0.11754189 -0.060993634 -0.01572218 -0.0006432504 0.05338913
0.045417838 0.027339937 -0.030870268 -0.07122679 -0.0015304827 -0.021672625 -0.4675946 -0.24995685
-0.04462574 -0.26007563 -0.22326124 -0.12530448 0.0078003756 -0.0136038875 0.07553509 0.03539509
-0.013849621 -0.28652453 -0.14549708 -0.053376697 0.016617663 0.22598624 -0.040881854 0.11512695
-0.09582737 -0.08226467 -0.021540094 -0.027874105 0.016710732 0.10478455 0.15377127 -0.04402338
0.13203438 0.036558636 0.12190594 -0.069986336 0.10610854 0.021646934 0.065330245 0.2701159
0.019658709 -0.016594227 0.14175949 0.12984006 0.13662806 0.0008581799 -0.03243971 0.07907679
-0.13092862 -0.17176536 0.13420552 0.0041235522 0.040933076 0.10890043 -0.10305141 -0.10526938
0.09368622 -0.12349016 0.006418679 0.10564683 -0.17560913 -0.04875534 0.16101073 -0.13676731
-0.079905376 0.21739759 -0.04100605 0.11977407 0.1167745 0.00021142882 -0.022379383 0.10698354
-0.038710974 -0.02173103 0.092660256 -0.06204643 0.0076168096 0.17436367 0.17357102 0.057401083
0.09261163 0.047688875 0.030532042 0.011706445 -0.05717359 0.087245435 -0.010483776 0.15968637
0.0030268151 -0.01039559 0.14394721 0.0472669 0.029121585 0.10121111 0.15011983 -0.020171802
0.019742105 0.0019202202 -0.05829236 0.009925164 -0.07921526 -0.08668366 0.029012648 -0.0070761167
0.037499215 0.011480623 -0.040286314 -0.05980563 -0.0040627434 0.054826092 -0.058512524 0.05476142
0.0050669094 0.025923934 0.007136793 0.11020443 0.09779742 0.0632686 0.059955094 0.054405674
0.07027073 -0.029713642 0.021249888 0.0043076365 0.019856032 -0.15610084 0.09294672 0.10426648
0.043841425 0.1666165 0.012717528 0.10525486 0.01933194 0.11330306 -0.07368225 0.09111447

Generator.conv4.conv1.0.weight f4 [8, 8, 3, 3, 3]
00000000: 5a5e e5bc ebe1 733c 2093 1fbd cd04 3e3b
00000010: 806c 533d b6d5 3e3c e639 2aba 2902 113d
00000020: c8d8 48bb 5144 36bd 7812 81bc 7f32 b7bd
00000030: e8fd 9ebd c1e6 a4bc f16d babc f292 b83d
00000040: cd23 e73c ed8a 6a3d 2c75 193d c394 123d
00000050: 8d5d 973d 94c7 0e3d d7a9 f0bd 0b5f ce3c
00000060: 3f12 75bd 125f 26bd 29a4 c33c e50e 17bd
00000070: c644 283d 7929 9f3d 743a 94bb 74e5 833d
00000080: cd10 5e3d 61a9 c3bd 1f6f 843d 7eca fabc
00000090: 423b 083b beaa d4bc aeb0 3ebd 6803 82ba
000000a0: 4712 ffbc ab50 89bd da1c 14ba 79a3 2b3d
000000b0: 015d 343d 5925 893d 93f9 2ebd af25 0cbd
000000c0: d5b1 643d 10af 0abd 18d3 f63b f9b1 9c3d
000000d0: d6fe 4a3d 8a9b de3c b5aa e8bd 569d 06be
000000e0: 597f d1bd b263 0bbd 8088 203d f38d 61bd
000000f0: 970c 433d 63a5 353d 6ea2 613c f67c 68bc
00000100: f174 30be 6f18 64bd 3249 873c 89fa 8cbd
00000110: 3979 86bd 99ef 6b3c 76f8 8f3d 47b6 1dbc
00000120: d1ff 9c3d 404c bcbc fcf9 b7bb 277c 1dbb
00000130: 99ec febd 261d 103d f77a 57bc 3efd 5bbd
00000140: 87a0 6d3c 0a73 a53c 5307 8ebc 4532 4bbd
00000150: 8496 d0ba 47de e9bc 07c3 a3bd c390 1e3d
00000160: 8cf0 e33c e668 8e3d cda3 b63c c721 54bd
00000170: 8506 02bd 2234 df3b e50d 8ebd 6287 f7bc
00000180: 09ce da3d f345 d63d 9875 533d 78ed f7bc
00000190: 0dea a6bd 86b2 8cbd 6b52 84bc a063 a63b
000001a0: f038 00be 1ac7 aa3d c1af 333c eb2f cf3b
000001b0: c039 c1bd 5a86 a4bd 78d6 253c 91d7 d3bc
000001c0: 3c0e 353d 0c75 3d3d 0fa5 213c f06b 663d
000001d0: 879f c13c 5297 89ba cf15 bfbc 2e72 193d
000001e0: 07e7 09bd 8488 a13b c8a6 283d 1054 003d
000001f0: e64e 2e3c 7ea1 d1bb adc0 a53d 509e ccbc
00000200: 1575 333d bfef ff3b d154 843a 7b78 0fbd
00000210: d3d0 9eba 9e4b 1e3d 9a4f 403d 74da 02bd
00000220: 1685 463d e430 d9bd 0826 af3c 408d e83d
00000230: 622c 163c 5b3d 7f3d d16d 433d 0c9c 3bbd
00000240: f09f 0e3c 67ef d33b 1cef 43bd 8cd5 cbbc
00000250: a8c0 84bd a182 84bb 7bdc af3c 9f54 883c
00000260: c9f9 95bc 1c2f 563d 062a 5abb 456a cebc
00000270: 070b 5a3c 0b1e 30bd a143 42bd ca8f 213c
00000280: a733 71bd 1263 4cbc 2f44 05be 4ff5 96bc
00000290: 79fd ebbd ec20 69bb 1c45 da3d dd56 c63d
000002a0: c7e0 a8bb 3703 f33c 9ad8 923c 1f40 c5bd
000002b0: 815c adbc c611 cf3b fbee 03bc 7a88 03be
000002c0: 6d5e 2c3a 850d 963d 222e 823d cc9d 2ebc
000002d0: 4e0f a23d 5493 dc3d 95a6 803c df27 8ebd
000002e0: 32d5 04bd b374 ce3b 37c8 8fbd 4aac d7bc
000002f0: 58b7 13bc d6b7 24bd ce2b 73bd c077 c0bd
00000300: e678 50bc c6c0 5e3c 2741 e0bc 7962 223c
00000310: fe9d 11bc e6ef d13c cdf6 ec3c 4b5f c9bd
00000320: be6b b23c ae31 c63c 524b 87bd 1ba5 e9bc
00000330: 34fe a93d 0e51 943d 4950 34bd 84ee 1f3d
00000340: f585 953c 8099 a7bd b644 963b face b1bd
00000350: 4ce3 ecbd ec29 843c 956c 36bc 2d16 b13c
00000360: 39f4 9dbc 8768 a73d 1acd 513d 0de0 b73c
00000370: dc0a de3d 3ad5 493d d3fa 16bd d434 f13c
00000380: 5464 7a3d c915 713d a9e5 4a3d 125b 55bb
00000390: 5101 33bd 556b 183d 1e03 403d 10d8 3a3c
000003a0: e571 9f3c baf1 f13c 0467 8c3b 361b 92bd
000003b0: 6506 27bd ac09 3f3d f471 c0bd da6a f0bd
000003c0: b8fd 8c3d 9e73 a13c 7172 82bd 8dc0 52bd
000003d0: 6bb8 9b3d 38dd 973d bc88 a5bd a35d e83d
000003e0: cc99 b93d ff28 093b 1f99 d4bd 2c16 fbbc
000003f0: 299f 64bb e492 2e3d daa9 cc3c 2e23 b6bc
-0.027999092 0.014885406 -0.03895867 0.002899456 0.051617146 0.011647632 -0.0006493613 0.03540245
-0.003064679 -0.044498745 -0.015755877 -0.08945178 -0.077632725 -0.020129563 -0.022757502 0.090124026
0.028215313 0.057261396 0.03746526 0.0357864 0.0739089 0.0348583 -0.117511444 0.025191804
-0.059831854 -0.04061801 0.023881989 -0.03687944 0.041081212 0.07771582 -0.0045235697 0.06440249
0.05421524 -0.09553791 0.06466507 -0.030614134 0.0020787274 -0.025960322 -0.046555214 -0.0009919228
-0.031136645 -0.06704839 -0.0005650051 0.041903947 0.044034008 0.066965766 -0.04271848 -0.034215625
0.055833656 -0.03385836 0.0075324886 0.07651133 0.049559437 0.027173776 -0.11360685 -0.13145956
-0.10229368 -0.034030624 0.039192677 -0.055067014 0.04761943 0.04434718 0.013771636 -0.014189949
-0.1723211 -0.055687364 0.016514394 -0.06883723 -0.0656609 0.014400386 0.07029812 -0.009625978
0.076659806 -0.022985578 -0.0056145173 -0.00240303 -0.12447471 0.035184048 -0.013151876 -0.053708307
0.014503605 0.020196456 -0.017337477 -0.049608488 -0.0015913998 -0.028548373 -0.07996183 0.038712274
0.027824663 0.069536015 0.022294903 -0.051790025 -0.0317445 0.0068116346 -0.06936244 -0.030215923
0.10683829 0.104625605 0.051625818 -0.030264601 -0.081501104 -0.06869988 -0.016152581 0.005077794
-0.1252172 0.08338757 0.010967196 0.006322851 -0.09434843 -0.08033438 0.010121934 -0.025859626
0.044203028 0.046254203 0.009866013 0.05625528 0.023635639 -0.0010497367 -0.023325829 0.037462406
-0.03366759 0.004929604 0.04117468 0.03133017 0.010638928 -0.006397425 0.080933906 -0.024977833
0.04381283 0.0078105624 0.0010096078 -0.03502701 -0.0012116678 0.038646333 0.046950914 -0.031946614
0.048466764 -0.10605028 0.02138044 0.11355066 0.009165855 0.062314373 0.04771215 -0.045803115
0.008705124 0.006467748 -0.047835454 -0.0248821 -0.06482059 -0.0040438925 0.021467438 0.016641913
-0.018307583 0.05229102 -0.0033289208 -0.025197158 0.013308293 -0.0429974 -0.047427777 0.009860942
-0.05888715 -0.012474792 -0.13014291 -0.01842752 -0.115229554 -0.0035572601 0.10657713 0.096845366
-0.0051537487 0.029664619 0.01792555 -0.09631371 -0.021162273 0.0063192574 -0.008052583 -0.1284503
0.000657535 0.073267974 0.063564554 -0.010657739 0.079130754 0.10770288 0.015704433 -0.069411986
-0.03242988 0.0063005327 -0.0702061 -0.026327271 -0.0090158805 -0.040214382 -0.059367947 -0.093978405
-0.012724137 0.013595765 -0.027374817 0.009911173 -0.008887766 0.025627088 0.028926278 -0.09832629
0.021779891 0.024193611 -0.06606163 -0.028521111 0.083004385 0.072420225 -0.04402188 0.039045826
0.018252352 -0.08183575 0.0045858277 -0.08682056 -0.11566791 0.016133271 -0.011134286 0.02161702
-0.019281493 0.08174234 0.05122099 0.022445703 0.10841915 0.049275614 -0.0368603 0.029444136
0.061130837 0.058858667 0.049535427 -0.0032555503 -0.043702427 0.037211735 0.046877973 0.011404052
0.019463489 0.02953421 0.0042847414 -0.07134096 -0.040777583 0.046640083 -0.09396735 -0.1173913
0.068843305 0.01970845 -0.06369484 -0.051453162 0.07603534 0.07415241 -0.08082721 0.11345985
0.090625376 0.0020928977 -0.10380768 -0.03065022 -0.0034884906 0.042620555 0.024983335 -0.022233572

Generator.conv4.conv2.0.weight f4 [8, 8, 3, 3, 3]
00000000: 3a5e ef3c 2da1 943e 7062 9fbd 8348 0abe
00000010: 0c65 93bd 4dd4 ecbb e8ed 9b3d 18b8 593d
00000020: d9b7 3d3e e47b 10bd 4190 0b3e 2f2c b13c
00000030: 7159 293c b9be 58bd b3d5 8cbd be15 d13d
00000040: 02c2 7d3e 816c d93d 6db6 b3bc 3782 303d
00000050: 529c 4cbd e178 1dbd 9c7f e0bc 9cdc 823d
00000060: de8b 633d 80b0 113e ea9b 8e3d bda5 c8bc
00000070: 2769 c5bd 5095 273e 7206 2e3d 19d8 e23d
00000080: 65a2 a0bc 9807 ab3d 3761 03bc c883 473a
00000090: e00f a03c 46d6 8fbd 39e2 353d 8da5 29bd
000000a0: 12f7 1f3e a1cd aa3c 9ec4 44bd 64c6 c53d
000000b0: 0f92 dfbd ab1a 163d 9f16 4e3c 4452 39bd
000000c0: 4b9f 9abc 0dda 853c 2dc3 f5bd 3c40 083d
000000d0: a340 333e 224c 263c 6f7f 30be 13eb 3cbd
000000e0: b4e8 3e3e 079d 15be 3e52 12be 621a e4bc
000000f0: b98a ebbc 5455 043e 1a26 073e 36c7 febe
00000100: 183d eabd 6c0c fb3d 5bca 19be 0fd7 80bd
00000110: 91b0 33bc 7c6a 9b3d 722d c73d 0073 193e
00000120: 7d21 a7bd b312 03be b022 eb3b 5cac 27be
00000130: e99b b6bd 09ac 33bd ea5b dfbc 8c88 693e
00000140: ed05 1a3e 0b92 e2bc 3add 1dbd adba 4f3d
00000150: b745 21bd 590f cebc e652 8cbd fe3e d83d
00000160: 5585 0dbd eec4 cbbd 4bdf 02bb 223b 423d
00000170: cac2 e2bb 63e7 583d 1135 813d 48a7 043d
00000180: 1a22 afbd c5af c73a 385c a8bd 5dae 863d
00000190: 65d7 a33c b0c5 51bd 29e2 3b3e ba0a a63d
000001a0: 1dfd a13c 6c7a 9cbd bd3d 9ebd dbcd c8bd
000001b0: 71e5 c0bd fc1c 80bb 7560 79be 8ee3 4a3c
000001c0: 3bd0 e83d 76ff e3bd a07d 1dbd bf3e a1bd
000001d0: 32fa 0abe 5dc4 f4bd a3ed 96bd d3df 1cbc
000001e0: 203d 0fbd d40e 48be 92f1 a4bd 7e96 5cbd
000001f0: d559 e9bd 4fd1 a13c af53 c4bd 7ebd 863d
00000200: 0793 243e 7969 643c d3a0 55be a876 09be
00000210: 54c0 093d 53e6 11be 8b63 f8bd c5bc e03d
00000220: 88cf 81bd 485f 44bd d286 2ebd 0002 f8bd
00000230: 7e42 1abe e06a 65bd 15f6 a63d a412 04bd
00000240: a9c5 fa3d 1afa 953c eae5 8bbb 816e 463e
00000250: aeb0 9a3d 57ae 563c 9e72 043e 27ed d63d
00000260: 23e3 02bd 2ce7 c4be 6b0b 83be 64ea 1bbe
00000270: 6d05 1fbe 211f 813d 1093 fb3d 7934 20be
00000280: 4c76 273d 9acc 9b3d b829 d93c 7a40 803c
00000290: afaa 1bbe d59b e03a 6245 a2bd f077 42bd
000002a0: 4227 1f3b d111 dd3c ad63 133e b77a a4bd
000002b0: 8872 a2bd 2dd3 14be 5692 2cbe 9e87 32be
000002c0: bc22 833c dedb bb3d de20 913d d61e 1d3d
000002d0: d5c1 e2bc fceb be3c 4dc2 09be fb63 93be
000002e0: 30e7 8c3c 71c2 82bd b629 79be 9db0 003e
000002f0: 16ab 37bd b2ae b2bc 0e78 34bc 7dab 48bb
00000300: 6a6e 28bd 3b1c 70be e958 74bb 7d0a 09bd
00000310: f7d6 d6bd 65be d6b9 3520 853c b2f4 0cbd
00000320: 0295 cc3d 5fea 86bc 4db9 99bd 7278 073d
00000330: 3a09 3e3d 8cac 31bd 1651 ae3c a9ed d83d
00000340: ab45 183c 8fb3 063e 59c9 a33d ded5 f7bc
00000350: 84ba 1a3d 69d2 f63d bbb3 e13c 9ec9 543c
00000360: ce7e 8cbd 0463 b93d 8890 c4bc 978d 3bbe
00000370: d672 25be c459 103e b85c 963a fe42 b0bd
00000380: 9780 c73d 4dbe efbd f5da 513d 8055 c2bd
00000390: 5aa6 64bc 78e2 adbd 2fdd 813d 83d0 bf3d
000003a0: 5ad0 77bd b293 4a3d 1dc3 59bd 2e76 a63d
000003b0: fd0a 92bd c05d 55bc 7b05 ea3d 94eb dd3d
000003c0: 2e40 113d 2d1d 823c 5220 8d3d 848b 2dbd
000003d0: 01ef 5d3d 0740 ddbd ff2e 39bc c0f0 8a3e
000003e0: f459 eabc a67d 04be 86ef 2d3d a5ad 303e
000003f0: e0e0 b83c e889 af3d 1034 b83d 6e87 053d
0.029219735 0.29029217 -0.07782447 -0.13504224 -0.071970075 -0.0072274567 0.076137364 0.05315408
0.18527164 -0.0352744 0.13629247 0.021627514 0.010336266 -0.052916262 -0.068766974 0.10209225
0.2478104 0.106163986 -0.021937573 0.043092933 -0.049953766 -0.038445357 -0.027404599 0.06389734
0.05555331 0.14227486 0.06963332 -0.024493093 -0.09639197 0.16365552 0.042486615 0.110763736
-0.019608686 0.08351058 -0.008018783 0.00076108845 0.01953882 -0.07023291 0.044405196 -0.041417647
0.15621594 0.020850005 -0.04803907 0.09656981 -0.1091653 0.036646526 0.0125786355 -0.04524447
-0.018874785 0.016339326 -0.120001175 0.033264384 0.17505126 0.010149987 -0.17236112 -0.04612262
0.18643457 -0.14610682 -0.14289185 -0.027844612 -0.028752672 0.12923175 0.13198128 -0.4976136
-0.11437434 0.12258229 -0.15018599 -0.06291019 -0.01096739 0.0758867 0.09725465 0.14985275
-0.08160684 -0.12800102 0.007175766 -0.16374344 -0.08916456 -0.043865237 -0.027265508 0.22805995
0.15041323 -0.02765753 -0.038541056 0.050715137 -0.039373126 -0.025153803 -0.06851749 0.1055889
-0.034550983 -0.09949671 -0.0019969519 0.047419675 -0.0069201933 0.052955043 0.0630895 0.032386094
-0.08551426 0.0015234879 -0.08220714 0.06576226 0.020000169 -0.05121392 0.18347992 0.08107515
0.019774014 -0.076405376 -0.077266194 -0.09804889 -0.094187625 -0.003909705 -0.24353202 0.012383355
0.11367842 -0.1113271 -0.038449883 -0.07873296 -0.13572004 -0.11951516 -0.07369544 -0.009574848
-0.034970403 -0.19536906 -0.080538884 -0.053854458 -0.11394087 0.019753126 -0.09586274 0.065791115
0.16071711 0.013941162 -0.20862131 -0.1342417 0.033630684 -0.14248018 -0.12128361 0.10973505
-0.063384116 -0.04794243 -0.042609043 -0.121097565 -0.15064427 -0.056010127 0.08152405 -0.03224434
0.12244732 0.018307734 -0.0042693513 0.19378091 0.0755323 0.013103089 0.12934348 0.10494452
-0.031954896 -0.3845762 -0.2559465 -0.15226132 -0.15529414 0.063047655 0.12283909 -0.15645017
0.0408843 0.07607384 0.02650915 0.015655745 -0.1520183 0.0017136285 -0.0792339 -0.047477663
0.0024284874 0.026986035 0.14393492 -0.080312185 -0.07932001 -0.14533682 -0.16852698 -0.17434546
0.016007774 0.09172796 0.07086347 0.038359486 -0.027680317 0.023305885 -0.13453026 -0.28787217
0.017200083 -0.06384743 -0.24332318 0.12567373 -0.044840895 -0.021811817 -0.011014951 -0.0030619793
-0.041120924 -0.23448269 -0.003728444 -0.033457268 -0.1049022 -0.00040959116 0.01625071 -0.034413047
0.099893585 -0.016469179 -0.075060464 0.03307385 0.046395518 -0.043377444 0.0212789 0.10592205
0.009293954 0.13154434 0.079973884 -0.030253347 0.03777553 0.12051851 0.027551522 0.012987522
-0.068601236 0.09052089 -0.0239947 -0.18315731 -0.16157088 0.14096743 0.0011471724 -0.08606528
0.097413234 -0.11706219 0.051234204 -0.09488964 -0.013955677 -0.08490461 0.063410155 0.09365942
-0.060501434 0.04945726 -0.05316459 0.0812801 -0.07131002 -0.01302284 0.114268266 0.108359486
0.035461597 0.015883053 0.0689093 -0.04236938 0.05418301 -0.10803228 -0.011302709 0.27136803
-0.028607346 -0.12938556 0.042464755 0.1725374 0.022568166 0.085712254 0.08994305 0.03259986
