DeepWonder3D_pytorch/pth/SEG_pth/Unet4_no_end_UNet3DFFD_20240401-1432_2um/seg_110.pth (torch, 138281 bytes, 19 tensors)

Generator.conv1.conv1.0.weight f4 [8, 1, 3, 3, 3]
0	0x3dddc2a7	0.108281426
1	0x3dcae826	0.0990756
2	0xbd573b78	-0.05254695
3	0x3e11068a	0.1416265
4	0xbdf3801b	-0.118896686
5	0xbdf0a14a	-0.117495134
6	0x3c0f6dfa	0.008754248
7	0x3be4c47e	0.0069814315
8	0x3ddb5b53	0.10710778
9	0x3cdbd7d9	0.026836323
10	0xbe26eff3	-0.16302471
11	0x3db90c10	0.09035504
12	0x3dfa844c	0.12232265
13	0x3dd954b3	0.10611858
14	0x3d2306a1	0.039801244
15	0xbe3f0b6e	-0.18656704
16	0x3dbc0df8	0.09182352
17	0xbe4a07ab	-0.19729488
18	0xbdf70a67	-0.12062531
19	0xbdee807a	-0.11645599
20	0xbd74993b	-0.059716444
21	0x3d2e53f1	0.04256052
22	0xbd43a484	-0.047764316
23	0x3d890e7c	0.06692216
24	0xbe47c9d4	-0.19510585
25	0xbbf4a858	-0.007466357
26	0x3dfa9a1f	0.122364275
27	0x3e18b5ed	0.14913149
28	0x3e14866f	0.14504407
29	0x3bfcf489	0.0077195805
30	0x3db6f59b	0.08933564
31	0xbe097e8f	-0.13427185
32	0xbe39efdb	-0.18157904
33	0x3e1b8c73	0.15190296
34	0x3d034968	0.032052428
35	0xbd8e63b9	-0.06952614
36	0xbdf56610	-0.119823575
37	0x3e18f7bd	0.14938255
38	0xbd4bc5c5	-0.049749155
39	0xbe019aef	-0.12656759
40	0xbda180b0	-0.07885873
41	0x3be29040	0.0069141686
42	0xbe3dd78a	-0.18539253
43	0xbe5476d5	-0.20748456
44	0xbc54c66a	-0.012986759
45	0x3de1f750	0.11033499
46	0x3cb000a8	0.021484688
47	0x3e4859cd	0.19565506
48	0x3e320da0	0.1738801
49	0xbdb793b1	-0.08963717
50	0x3e21f8cd	0.15817566
51	0x3dd10218	0.102054775
52	0xbdf87fbf	-0.12133741
53	0xbd9318ee	-0.07182489
54	0x3d8f77cf	0.070052736
55	0xbd0f92d0	-0.03505212
56	0xbde58529	-0.11207039
57	0x3ce67cd8	0.028135702
58	0x3dce1b8d	0.10063849
59	0xbb828701	-0.003983379
60	0xbe272697	-0.16323315
61	0xbdeb0d66	-0.11477165
62	0xbd8022fb	-0.06256672
63	0x3d272ce7	0.040814307
64	0x3dceac2c	0.10091433
65	0x3cc4b1c4	0.024010547
66	0xbd3007c0	-0.04297614
67	0x3d252f40	0.040328264
68	0x3d9a56e5	0.07536105
69	0x3d30981c	0.043113813
70	0xbbf1cb97	-0.007379006
71	0xbb266ab0	-0.002539318
72	0xbe2c5a8f	-0.1683142
73	0x3d038e7c	0.032118306
74	0x3d100d2f	0.035168823
75	0xbc57d414	-0.013173122
76	0xbda4991a	-0.08037014
77	0x3da4b86b	0.080429874
78	0xbea0629c	-0.31325233
79	0x3c814e00	0.015784264
80	0xbe7cbc40	-0.24681187
81	0xbdbaee5a	-0.09127493
82	0xbe14e9cd	-0.14542313
83	0x3e249901	0.16073991
84	0xbe4adf5c	-0.19811767
85	0xbd8f454e	-0.06995641
86	0xbc95fe62	-0.018309776
87	0x3da4a4f5	0.080392756
88	0xbde4e9f5	-0.11177436
89	0x3d6d0954	0.057870224
90	0xbe5429ee	-0.2071912
91	0xbd65c258	-0.056093544
92	0x3cf76f02	0.0302043
93	0x3dd09904	0.101854354
94	0xbe4855eb	-0.19564025
95	0xbe248680	-0.16066933
96	0xbd16389d	-0.036675084
97	0x3e02cf03	0.12774281
98	0x3db862f0	0.09003246
99	0xbd60e864	-0.054909125
100	0x3d876291	0.06610597
101	0x3dc16ccf	0.09444582
102	0xbd842809	-0.064529486
103	0x3d79c06d	0.060974527
104	0x3da737a5	0.0816491
105	0x3c7cb867	0.015424824
106	0xbe244df4	-0.16045362
107	0xbe60896a	-0.2192742
108	0x3df4ad6e	0.119471416
109	0xbe1fe4e0	-0.15614653
110	0xbd5b486c	-0.053535864
111	0xbe05e70d	-0.1307642
112	0xbca773e1	-0.020440998
113	0x3c4970ac	0.0122949295
114	0xbd2aa40f	-0.041660365
115	0x3d936071	0.07196129
116	0x3d28de47	0.041227605
117	0xbcb6377d	-0.022243256
118	0x3dd89b96	0.10576551
119	0xbe3b482a	-0.18289247
120	0xbd6768a8	-0.056496292
121	0xbd062ee4	-0.032759562
122	0xbc0b19b8	-0.008490019
123	0x3dda8756	0.106703445
124	0x3caf710d	0.021416212
125	0x3deab14a	0.114595965
126	0xbe4b359d	-0.1984467
127	0x3db430a2	0.087983385
128	0x3df9b2b0	0.12192285
129	0x3dcc36b0	0.09971368
130	0x3d36cf23	0.044631135
131	0xbdd7f017	-0.105438404
132	0xbe193169	-0.14960255
133	0xbd96bcc9	-0.07360227
134	0x3dd616b0	0.10453546
135	0x3d279c9a	0.04092083
136	0xbdc6a643	-0.09699681
137	0x3e040766	0.12893447
138	0x3de86027	0.113464646
139	0xbd814cda	-0.063134864
140	0xbdfce75b	-0.12348815
141	0xbe40875a	-0.18801633
142	0x3e338b02	0.17533496
143	0x3c372bc3	0.011179867
144	0xbd9aa744	-0.07551435
145	0xbe343a47	-0.17600356
146	0x3d90f24e	0.07077466
147	0x3dcfda82	0.10149099
148	0xbe286f33	-0.16448669
149	0xbe548d06	-0.20756921
150	0xbd9be9fc	-0.07612988
151	0x3d8c8b4a	0.06862505
152	0x3e1000db	0.14062826
153	0xbcc2e27d	-0.023789639
154	0xbd029a63	-0.031885516
155	0x3dfea5e1	0.12433983
156	0x3cbeec04	0.0233059
157	0x3e274eae	0.16338608
158	0xbdb40fd1	-0.08792079
159	0xbbe42a54	-0.0069630537
160	0xbd6dd94e	-0.058068566
161	0x3e38891c	0.18021053
162	0xbe511565	-0.20418318
163	0x3e2ee052	0.17077759
164	0xbda6de84	-0.0814791
165	0x3db95b7f	0.090506546
166	0x3b8b9d3b	0.0042606867
167	0xbd700616	-0.058599554
168	0x3d1afb78	0.037837476
169	0xbca2d782	-0.019878153
170	0x3d402466	0.046909712
171	0x3d85e18e	0.06537162
172	0xbd86ae22	-0.06576182
173	0x3e5f6958	0.21817529
174	0xbe4e2ab8	-0.20133483
175	0xbdabbaf4	-0.08385268
176	0x3c525674	0.012837995
177	0xbd3cf66a	-0.046133436
178	0x3dfac6d0	0.12244952
179	0x3d10f40a	0.035388984
180	0xbd9112e1	-0.07083679
181	0xbd5d40f0	-0.054017007
182	0x3dbfea4e	0.09370862
183	0xbe10c5b0	-0.14137912
184	0x3d52f6b4	0.051504806
185	0x3dbf0fd6	0.09329192
186	0xbde89b21	-0.113577135
187	0x3b84aacc	0.004048681
188	0x3e1fc5bc	0.15602773
189	0xbd3bc684	-0.045843616
190	0x3e0ad5d6	0.13558134
191	0x3cee3d92	0.029082093
192	0x3d4044b2	0.046940513
193	0x3ddb5982	0.10710432
194	0xbe4eae82	-0.20183757
195	0xbd7b9058	-0.061416954
196	0x39c9dc29	0.0003850174
197	0x3e03d714	0.12875015
198	0xbcfb0e53	-0.030646479
199	0xbda1f7aa	-0.07908566
200	0xbd3d9c56	-0.04629167
201	0xbe4b69de	-0.19864604
202	0x3e04b7c6	0.12960729
203	0xbdc1dc98	-0.09465903
204	0xbda2636a	-0.07929118
205	0x3e21ae86	0.15789232
206	0x3cafa7e3	0.02144236
207	0xbd506ec1	-0.050886873
208	0xbd093b36	-0.033503734
209	0xbc2366b5	-0.009973218
210	0xbe4ac847	-0.19802962
211	0x3db4cb44	0.08827832
212	0xbddd3cb5	-0.108025946
213	0xbe278df0	-0.16362739
214	0xbdc04307	-0.093877845
215	0x3dccec05	0.10005955

Generator.conv1.conv2.0.weight f4 [8, 8, 3, 3, 3]
0	0x3dcc9f4c	0.09991321
1	0x3d143dd5	0.03619178
2	0x3d84888a	0.06471355
3	0xbce46086	-0.027878057
4	0xbd7578b3	-0.05992956
5	0x3c897ca8	0.016783074
6	0x3e1caefb	0.15301125
7	0x3dd4bc7a	0.103875116
8	0x3e7aed7e	0.24504659
9	0x3c51f8ec	0.012815695
10	0x3cb8955a	0.022532154
11	0x3ca3f256	0.020013016
12	0x3cc8b80b	0.024501821
13	0x3db8616e	0.09002958
14	0xbcfa48bf	-0.030552266
15	0x3d7e924f	0.06215125
16	0xbccdad74	-0.025107123
17	0x3dd15954	0.10222116
18	0x3ce5d051	0.028053435
19	0x3dfc33da	0.123145774
20	0x3dea3efc	0.114377946
21	0x3dce3cd0	0.10070193
22	0x3dfe5c46	0.124199435
23	0x3dc6af9f	0.09701466
24	0x3e082789	0.13296331
25	0x3e0ee12f	0.13953088
26	0x3e1f5dd5	0.15563138
27	0xbde00299	-0.109379955
28	0xbd99b5f1	-0.07505406
29	0xbdb7a538	-0.0896706
30	0xbc915644	-0.01774133
31	0xbd73c5d9	-0.059514854
32	0xbdce80ab	-0.10083135
33	0xbca389f1	-0.019963237
34	0x3d2fc320	0.042910695
35	0xbdc71d5b	-0.09722396
36	0xbdd3d560	-0.103434324
37	0x3e05fb91	0.13084246
38	0xbdee70b3	-0.116425894
39	0xbc3778bd	-0.01119822
40	0x3dcc9171	0.09988678
41	0xbe8d33f7	-0.2757871
42	0xbcc65aac	-0.024213158
43	0x3d5fa7bc	0.054603323
44	0x3ca36999	0.019947814
45	0x3caa115d	0.020760233
46	0x3e247d3a	0.16063395
47	0xbe7557d8	-0.23959291
48	0xbd062492	-0.03274972
49	0x3de0601a	0.1095583
50	0xbe8e4613	-0.27787837
51	0xbd9cda27	-0.07658797
52	0x3be4bd25	0.0069805556
53	0x3b1daa6a	0.0024057874
54	0x3e0118b1	0.12607075
55	0x3cb52077	0.022110207
56	0x3cf02ce7	0.029318286
57	0xbaa9bef5	-0.0012950586
58	0xbd839b19	-0.06426067
59	0xbd0281e8	-0.03186217
60	0x3d1adef5	0.037810285
61	0x39f6b81e	0.00047057954
62	0xbd5f6bec	-0.05454628
63	0x3debeedd	0.11520169
64	0x3d5cbf36	0.05389329
65	0x3c7d96dc	0.015477862
66	0x398a4722	0.0002637441
67	0x3d2fe97d	0.04294728
68	0x3d5f3641	0.0544951
69	0x3de9f96a	0.11424525
70	0x3d170ddf	0.036878463
71	0x3d44c880	0.048042774
72	0x3c934def	0.017981498
73	0xbc8ec75b	-0.017429044
74	0x3d9f124f	0.07767164
75	0xbdaaccc4	-0.08339837
76	0xbb9a882e	-0.004715941
77	0xbca5de29	-0.020247536
78	0x3dc11599	0.094279476
79	0x3dca5ae7	0.098806195
80	0x3d8054f5	0.06266204
81	0xbcc456e0	-0.023967206
82	0x3d7d5945	0.061852712
83	0x3d29fb17	0.041499224
84	0x3e0f62ac	0.14002484
85	0x3b066373	0.0020506054
86	0xbbce29ae	-0.0062915897
87	0x3c05ced4	0.008166987
88	0xbd2352c0	-0.03987384
89	0x3c0ed01f	0.008716612
90	0x3caa7a81	0.020810368
91	0x3c91c85e	0.017795738
92	0x3d2e9a32	0.04262752
93	0xbd3a9e30	-0.045561016
94	0x3c726079	0.014793509
95	0x3d6b216c	0.05740492
96	0xbd0f34d2	-0.034962483
97	0x3cbeba92	0.023282323
98	0x3ce5e790	0.02806452
99	0x3d88c6aa	0.06678517
100	0xbd3d7e0a	-0.04626278
101	0xbd472c4e	-0.048626237
102	0xbbfe46a6	-0.007759887
103	0x3d1c67c2	0.03818489
104	0x3d554155	0.05206426
105	0x3cf7f204	0.03026677
106	0x3d1d684e	0.03842955
107	0x3c9cf885	0.019161472
108	0x3d422494	0.047398165
109	0xbdfb03c4	-0.122565776
110	0xbde91e30	-0.11382711
111	0xbd3ea301	-0.04654217
112	0x3cf1a921	0.029499592
113	0xbdc13fa7	-0.09435969
114	0x3ce512b8	0.027963027
115	0xbd0b088e	-0.033943705
116	0x3d51ae8d	0.051191855
117	0xbe02c1a1	-0.12769176
118	0xbd1cd54e	-0.03828936
119	0x3d6723b7	0.056430545
120	0xbd5b5562	-0.053548224
121	0x3d339150	0.043839753
122	0x3d901035	0.07034341
123	0xbe058010	-0.13037133
124	0x3daf354e	0.08555089
125	0x3d2afe2f	0.041746315
126	0xbe1652ef	-0.14680074
127	0x3dc38de0	0.09548545
128	0x3d32e27d	0.043673027
129	0xbdd3520c	-0.103183836
130	0x3dc6bd77	0.09704106
131	0xbd569326	-0.052386425
132	0xbe6cc82e	-0.23123237
133	0x3db28f6b	0.08718761
134	0xbcc77375	-0.024347046
135	0x3d786957	0.060647335
136	0x3d8159f1	0.06315983
137	0x3d62ea3c	0.055399165
138	0xbbbc45fb	-0.005745647
139	0x3d058664	0.032598868
140	0xbc8a3934	-0.01687298
141	0x3d4e0722	0.05029977
142	0xbdd08af2	-0.10182752
143	0xbd23a510	-0.039952338
144	0xbe22823b	-0.15869991
145	0x3d0d1a1f	0.03444874
146	0x3d01166c	0.031515524
147	0xbda08f6d	-0.07839856
148	0x3c8ae614	0.016955413
149	0x3c26a295	0.0101705985
150	0xbb00f534	-0.0019677402
151	0xbca0237c	-0.01954817
152	0xbdf10814	-0.11769119
153	0xbd50d552	-0.050984688
154	0x3d383955	0.04497655
155	0x3d6040e2	0.054749377
156	0xbd5015b7	-0.05080196
157	0x3dc37467	0.09543686
158	0x3db2ff6a	0.087401226
159	0xbd93c2e5	-0.072149076
160	0xbc6f4724	-0.014604364
161	0xbb172d41	-0.0023067745
162	0x3d343773	0.043998193
163	0xbd8d408c	-0.06897077
164	0xbe05cc1b	-0.13066141
165	0x3d3f2c35	0.04667302
166	0xbd6a2b4b	-0.057170194
167	0xbda43c96	-0.08019368
168	0x3dfdd4d8	0.12394112
169	0xbdb3a6b2	-0.08772029
170	0xbc8ea6e0	-0.017413557
171	0x3d191dad	0.037381817
172	0xbe08ffb5	-0.13378794
173	0xbc8cd18f	-0.01718977
174	0x3caaf45c	0.020868473
175	0xbbd680fe	-0.006546139
176	0xbd98da64	-0.0746353
177	0xbd4e0422	-0.05029691
178	0xbd9cac50	-0.076500535
179	0xbc43be47	-0.011947221
180	0x3d0fa92c	0.035073444
181	0xbd09b61b	-0.033620935
182	0x3dc3da17	0.09563082
183	0xbc7e87ba	-0.015535289
184	0x3db1c8aa	0.08680852
185	0x3d6d1106	0.057877563
186	0xbd87c7c2	-0.06629898
187	0xbe146709	-0.1449243
188	0xbd1c997e	-0.03823232
189	0x3bd39ca1	0.0064578806
190	0xbd904b53	-0.07045617
191	0x3b8ab2f1	0.0042327573
192	0x3d4edfc2	0.05050636
193	0x3ce7a91a	0.028278876
194	0x3d377482	0.044788845
195	0x3d4a8de1	0.049451713
196	0xbd87d61d	-0.06632636
197	0x3c2f01cd	0.010681582
198	0x3c968907	0.018375887
199	0xbe2f1cf7	-0.17100893
200	0x3db49b05	0.0881863
201	0x3c09d716	0.008413097
202	0xbdf83e3b	-0.121212445
203	0x3e175d8c	0.14781779
204	0x3db41033	0.08792152
205	0xbe4750dc	-0.19464439
206	0x3dca9304	0.09891322
207	0xbdb004b9	-0.08594651
208	0x3d8a215e	0.067446455
209	0xbe454ba9	-0.19267143
210	0xbe0bab7b	-0.13639633
211	0x3dfff7ff	0.124984734
212	0xbe3fd358	-0.18732965
213	0xbe39dc23	-0.18150382
214	0x3d4a7bbf	0.04943442
215	0xbe24657c	-0.16054338
216	0x3e1dffc9	0.15429606
217	0x3de5c34c	0.112188905
218	0x3e65acf7	0.22429262
219	0x3a84dffe	0.0010137556
220	0x3ca079b4	0.019589283
221	0x3de70b11	0.112814076
222	0x3e759994	0.23984367
223	0x3e77ab09	0.24186338
224	0x3e60d60e	0.21956655
225	0x3dc3c995	0.09559933
226	0x3d54c4a9	0.051945362
227	0x3e1e2347	0.15443145
228	0x3bcb0be7	0.006196487
229	0x3d83c421	0.06433893
230	0x3d00a636	0.03140851
231	0x3d37994a	0.044823922
232	0xba407743	-0.000734199
233	0x3d5ef00c	0.054428145
234	0x3d8ce042	0.06878711
235	0x3dbdd462	0.092690244
236	0x3d016a2c	0.031595394
237	0x3dc21b6a	0.09477885
238	0x3d9f9d77	0.07793706
239	0x3daa6836	0.08320658
240	0x3d82d56b	0.063883625
241	0x394d4dec	0.00019579352
242	0x3dd82a0a	0.10554893
243	0xbda3851c	-0.07984373
244	0xbd4b00ca	-0.0495613
245	0xbd20c097	-0.039246168
246	0xbd27392b	-0.040826004
247	0xbd93ddda	-0.07220049
248	0x3cd5c078	0.026092753
249	0x3d15d7bb	0.03658269
250	0x3c97d6bc	0.01853501
251	0x3c85ed81	0.016348602
252	0x3d5076f6	0.0508947
253	0xbd0e16a1	-0.03468955
254	0xbc762117	-0.015022538
255	0x3d6fbb4f	0.05852824

Generator.conv2.conv1.0.weight f4 [8, 8, 3, 3, 3]
0	0x3b10c982	0.0022092764
1	0xbbf33ec7	-0.007423255
2	0x3d04790a	0.032341994
3	0x3db8b7a6	0.09019403
4	0x3d05a0f0	0.032624185
5	0xbd771668	-0.060324103
6	0xbe1211c0	-0.14264584
7	0xbcf64736	-0.030063253
8	0x3cba8af9	0.022771345
9	0xbd96b050	-0.07357848
10	0xbcfd86f5	-0.030948142
11	0x3c1ba17b	0.009498949
12	0xbda6f9d4	-0.0815312
13	0x3c668826	0.014070546
14	0x3cb6e477	0.022325737
15	0xbce34d09	-0.027746694
16	0xbda0c4dd	-0.07850049
17	0x3d8326d3	0.064038895
18	0x3c8baab0	0.017049164
19	0xbd6b88bc	-0.057503447
20	0xbca207c1	-0.019779088
21	0x3b291970	0.0025802515
22	0xbd423321	-0.04741204
23	0x3cc525bb	0.024065843
24	0x3d21a590	0.039464533
25	0xbcea27ec	-0.02858349
26	0x3d29d7ce	0.041465573
27	0x3d547998	0.051873773
28	0xbd050880	-0.03247881
29	0xbd583d10	-0.05279261
30	0xbba72857	-0.0051012444
31	0xbc445f93	-0.011985677
32	0xbd2bc596	-0.04193648
33	0x3d22df74	0.039763883
34	0x3d93e451	0.07221282
35	0x3be9be6b	0.0071332953
36	0xbe0799bf	-0.13242243
37	0xbe054837	-0.13015829
38	0xbd9ab3b2	-0.075538054
39	0xbdaf0eae	-0.08547722
40	0xbd8f2426	-0.06989317
41	0xbda294da	-0.079385474
42	0x3dd9d129	0.10635597
43	0xbbf3af8d	-0.007436699
44	0xbcf1aaad	-0.02950033
45	0xbd34e026	-0.044159077
46	0xbd8ba4d2	-0.06818546
47	0xbe261246	-0.16217908
48	0x3b332af5	0.0027338837
49	0xbd827690	-0.0637027
50	0xbdcd8752	-0.10035576
51	0x3d921578	0.07133001
52	0xbc4c9d39	-0.012488657
53	0xbd839aad	-0.064259864
54	0xbd28cd29	-0.04121128
55	0x3d563eca	0.052305974
56	0x3e2e910d	0.1704752
57	0xbbe3a11d	-0.0069466964
58	0xbc8b1153	-0.016976034
59	0x3e47f9e6	0.19528922
60	0xbc14b361	-0.00907597
61	0xbd6962f8	-0.05697915
62	0x3d472293	0.048616957
63	0xbe0aa1e4	-0.13538319
64	0x3cda5b86	0.02665497
65	0x3dc6fad7	0.09715813
66	0xbd87a872	-0.06623925
67	0xbbdc8b22	-0.006730453
68	0x3ddc4f9a	0.1075737
69	0xbe0fd3cf	-0.14045642
70	0xbd11e920	-0.035622716
71	0x3d1e76e6	0.03868761
72	0xbe0c8343	-0.13721947
73	0xbc665bca	-0.01405997
74	0x3dce79bd	0.100818135
75	0xbe120cd7	-0.1426271
76	0x3d44722c	0.047960445
77	0x3e03324f	0.1281216
78	0xbd981f9d	-0.07427905
79	0xbd865b03	-0.06560328
80	0x3d875bc9	0.066093035
81	0x3cb033fb	0.021509161
82	0xbc0ee37c	-0.008721229
83	0x3d59dd03	0.05318929
84	0xbd85f9ac	-0.06541762
85	0xbd33abc0	-0.043864965
86	0xbbf766de	-0.0075501045
87	0xbc844ef4	-0.016150929
88	0xbcff9efc	-0.03120374
89	0x3db32bd2	0.087485924
90	0x3dc947da	0.09828158
91	0xbb736253	-0.0037137463
92	0x3d67cbcc	0.05659084
93	0x3d2a84cc	0.04163055
94	0xbc1b731b	-0.0094878925
95	0x3caa2349	0.020768778
96	0x3b645548	0.003484087
97	0xbd4210b7	-0.04737922
98	0x3d26064c	0.04053335
99	0xbb57bb1e	-0.0032917927
100	0x3c9e01e6	0.019288015
101	0xbd1e9f4b	-0.038726132
102	0xbdc6067e	-0.09669207
103	0xbd51a582	-0.05118323
104	0x3d371b08	0.044703513
105	0xbd129096	-0.03578242
106	0xbd61dc42	-0.055141695
107	0x3b5f42a3	0.0034066818
108	0x3d989858	0.07450932
109	0x3d7fb5a4	0.062429085
110	0xbcc02086	-0.023453008
111	0x3c93757a	0.018000353
112	0xbd017cd0	-0.03161317
113	0x3ca20e77	0.019782288
114	0xb9a61c56	-0.000316831
115	0xb99f0169	-0.00030327894
116	0x3ce94ebd	0.028479928
117	0x3c80b197	0.015709681
118	0x3c19c725	0.009385859
119	0x3d6c71e2	0.057725795
120	0x3d30d24c	0.043169305
121	0x3d809cfe	0.06279944
122	0x3d89a654	0.06721178
123	0x3d7d8286	0.061892055
124	0xbd04020b	-0.03222851
125	0x3dc5ec03	0.09664156
126	0xbd1e35d3	-0.03862555
127	0x3c8d1883	0.017223602
128	0x3d891ec9	0.06695325
129	0xbd57b50d	-0.052662898
130	0x3d18b181	0.037278656
131	0x3d7a60e9	0.061127577
132	0x3be8fe11	0.007110365
133	0xbd1766a2	-0.036963113
134	0xbd711965	-0.05886211
135	0x3cf8564c	0.030314587
136	0x3dcd5938	0.10026783
137	0x3d1d1050	0.038345635
138	0x3c8642cd	0.016389275
139	0x3da22d2d	0.07918773
140	0x3d6331bd	0.055467356
141	0x3ba2812d	0.0049592466
142	0xbd8fe709	-0.07026488
143	0xbcdd413e	-0.027008649
144	0x3cf12cd3	0.02944032
145	0x3c9134f8	0.017725453
146	0x3b4ba7b6	0.0031075305
147	0xbccc7aba	-0.024960864
148	0xbd5b8ab0	-0.05359906
149	0xbd33589f	-0.043785688
150	0xbd11bbcb	-0.035579484
151	0xbdc1f31b	-0.09470197
152	0x3cba5ee0	0.022750318
153	0xbbffb321	-0.0078033363
154	0xbbf0ec07	-0.0073523554
155	0x3c133b78	0.008986346
156	0xbdaee022	-0.08538844
157	0xbc8b7be0	-0.017026842
158	0xbd635378	-0.055499524
159	0xbe262b37	-0.16227423
160	0xbe4e177e	-0.20126149
161	0xbb6d5586	-0.0036214306
162	0x3d9d65de	0.07685445
163	0x3d9facc9	0.07796628
164	0x3daea268	0.0852707
165	0x3d722c8c	0.059124514
166	0x3bc98f94	0.006151149
167	0x3cb4a0f8	0.022049412
168	0xbc405fa1	-0.01174155
169	0x3da3acd1	0.079919465
170	0x3befa5f2	0.0073134834
171	0x3c676d7c	0.014125224
172	0x3bff788b	0.0077963523
173	0xbb77f4e0	-0.0037835166
174	0x3d3ccbe1	0.04609287
175	0x3da4a221	0.08038736
176	0x3dc3399a	0.09532471
177	0x3d99b65f	0.07505488
178	0x3d326504	0.043553367
179	0x3d88f71c	0.066877574
180	0x3d912770	0.070876
181	0x3c615b8b	0.013754736
182	0xbc57fc6b	-0.01318274
183	0xbd4655ec	-0.048421785
184	0x3d78c411	0.06073386
185	0xbc52ff29	-0.012878218
186	0x3d22b120	0.0397197
187	0xbd5c5aaa	-0.0537974
188	0x3cdff46e	0.027338233
189	0x3acc011a	0.0015564293
190	0xbc7f99a5	-0.015600597
191	0x3ddeae6a	0.108731106
192	0xbd8ecdc6	-0.06972842
193	0xbd79278d	-0.060828734
194	0x3cb1a783	0.021686321
195	0xbdcca21d	-0.09991858
196	0xbd76f214	-0.060289457
197	0x3d0185c6	0.031621717
198	0xbcd2ccaf	-0.025732366
199	0xbd9456bc	-0.07243106
200	0x3d71f7f5	0.05907436
201	0xbda6d5a4	-0.081462175
202	0xbd18821e	-0.037233464
203	0x3cc82ba8	0.02443488
204	0xbd58b177	-0.05290362
205	0xbde92484	-0.11383918
206	0x3dc02cc3	0.093835376
207	0xbd928b47	-0.07155471
208	0xbd8961f5	-0.06708137
209	0x3d8a869f	0.06763958
210	0xbb6513fd	-0.003495454
211	0x3b73fad4	0.0037228363
212	0x3d75682d	0.059913803
213	0xbdb0b51e	-0.08628295
214	0xbd8de83c	-0.06929061
215	0x3c5bcdd3	0.013415772
216	0xbc9f292c	-0.019428812
217	0x3cc5691a	0.024097968
218	0x3e056774	0.13027745
219	0xbdc3ceba	-0.09560914
220	0x3bca72fb	0.0061782575
221	0x3d2b8054	0.04187043
222	0x3d2bd807	0.041954067
223	0xbca6c71f	-0.02035862
224	0x3e036ada	0.1283373
225	0xbd4402c8	-0.047854215
226	0xbce721ce	-0.028214362
227	0x3d85016f	0.06494414
228	0xbcc9a631	-0.024615379
229	0x3ca04164	0.01956243
230	0x3d584755	0.052802403
231	0x3d10999e	0.03530275
232	0x3da09159	0.07840223
233	0x3c9670d5	0.01836435
234	0x3cb0d226	0.021584582
235	0xbda5b2aa	-0.08090718
236	0xbc09233a	-0.008370215
237	0x3d803549	0.06260163
238	0x3bedb833	0.0072546243
239	0xbc4e2fff	-0.012584685
240	0x3d5a6f0c	0.05332856
241	0x3dab87db	0.08375522
242	0x3b8e1665	0.0043361657
243	0xbcca8c1b	-0.02472501
244	0xbbfdcbf3	-0.00774526
245	0x3c314a4f	0.010820939
246	0xbd53999f	-0.051660176
247	0x3d1fbd77	0.038999047
248	0x3cec9872	0.028881285
249	0x3cb47673	0.022029137
250	0x3d2e7478	0.042591542
251	0xbcb8308c	-0.022484086
252	0xbde2ab69	-0.1106785
253	0xbde48780	-0.11158657
254	0xbd61340c	-0.054981276
255	0xbd729255	-0.059221584

Generator.conv2.conv2.0.weight f4 [8, 8, 3, 3, 3]
0	0x3d3d7abf	0.046259638
1	0xbd31413a	-0.043275096
2	0x3cc9bb45	0.02462543
3	0x3d58b518	0.05290708
4	0x3dbb01c6	0.09131198
5	0x3d6672fa	0.056261994
6	0x3cfcb593	0.0308483
7	0x3d48ab79	0.048991654
8	0x3dc67d3d	0.09691856
9	0x3da86adc	0.08223507
10	0x3beacbc7	0.0071654054
11	0x3d965459	0.07340307
12	0x3c8b8dba	0.017035354
13	0x3d078cab	0.033093136
14	0xbd0ceff2	-0.034408517
15	0x3d8af8b5	0.06785718
16	0xbd04460e	-0.03229337
17	0x3cf42a6c	0.029805385
18	0xbcd42c1d	-0.025899941
19	0xbd57be6f	-0.052671846
20	0xbc952a3b	-0.018208614
21	0x3d4b1a59	0.049585674
22	0xbd9afee3	-0.07568147
23	0xbd9c38f2	-0.07628049
24	0xbdb12d15	-0.08651177
25	0xbcca0861	-0.024662198
26	0xbd12e93a	-0.035866953
27	0x3da3b06d	0.07992635
28	0x3d7deca1	0.061993245
29	0xbc856e49	-0.01628794
30	0x3d111cd5	0.035427887
31	0x3d7fa367	0.062411692
32	0x3e03737b	0.12837021
33	0x3d9607f9	0.073257394
34	0x3d28e6c5	0.041235704
35	0x3d5ae6e7	0.053442862
36	0x3d2ac1e2	0.041688807
37	0xbb817a73	-0.0039513647
38	0xbd523c6b	-0.05132715
39	0xba4f690f	-0.0007912078
40	0x3d9bbd82	0.07604505
41	0x3c7f0660	0.015565485
42	0xbc683f0c	-0.014175188
43	0xbc76f381	-0.015072704
44	0x3d974373	0.07385912
45	0xbc07b4f8	-0.008282892
46	0x3d70ec84	0.05881931
47	0xbcf2c3bf	-0.029634355
48	0x3d4f04a4	0.050541535
49	0x3cb2fa9d	0.021848017
50	0x34ec8b0c	4.4059595e-07
51	0xbcc69c79	-0.024244534
52	0x3d78a300	0.060702324
53	0x3c773062	0.015087219
54	0x3e42e8c6	0.19034109
55	0x3dbf6e07	0.09347158
56	0x3cc15ec7	0.023604764
57	0xbd30a8ab	-0.043129604
58	0xbda8e9c2	-0.08247711
59	0xbd519e0b	-0.051176112
60	0x3cfffb9f	0.031247912
61	0xbc45003f	-0.012023984
62	0xbd0fb31f	-0.035082933
63	0xbbad5f0f	-0.005290873
64	0xbdac20e8	-0.08404714
65	0xbcba2294	-0.022721566
66	0xbdc15bd2	-0.094413415
67	0xbd961824	-0.07328823
68	0xbe1056ab	-0.14095561
69	0x3c994615	0.018710176
70	0xba09a42b	-0.0005250598
71	0xbdf150d2	-0.117829934
72	0x3c9fa7b9	0.019489156
73	0xbce8e692	-0.028430257
74	0x3d7dbf63	0.0619501
75	0xbcf2f525	-0.02965791
76	0xbde24899	-0.11049003
77	0xbc2c64b4	-0.010522056
78	0x3db22661	0.086987264
79	0x3cac35f0	0.021021813
80	0xbd94119a	-0.0722992
81	0x3d98bbfc	0.0745773
82	0x3dabd4a1	0.08390165
83	0x3df5e606	0.12006764
84	0xbc3f5132	-0.011677073
85	0x3d7d5835	0.0618517
86	0xbb02a8e0	-0.0019937083
87	0x3d2ee805	0.04270174
88	0x3b6086a8	0.003425995
89	0xbc38e9fc	-0.011286255
90	0x3e037dd3	0.12840967
91	0x3b299859	0.002587816
92	0x3d5d09b1	0.05396432
93	0xbbbc2329	-0.005741496
94	0xbd625054	-0.055252388
95	0xbdb8cc79	-0.09023375
96	0xbc2b1bdb	-0.010443653
97	0xbdbde7fd	-0.09272764
98	0x3d0a82b9	0.033816073
99	0xbcf206c1	-0.029544236
100	0xbddb09f8	-0.10695261
101	0x3c14f205	0.009090905
102	0xbdbec1ac	-0.09314284
103	0xbda52760	-0.08064151
104	0xbd91fc0d	-0.07128153
105	0x3c14593a	0.009054476
106	0xbde82933	-0.11335983
107	0xbd1c3a10	-0.03814131
108	0xbc5cdcd2	-0.013480382
109	0xbccebfd2	-0.025237951
110	0xbcbf0160	-0.023316085
111	0x3d4a337a	0.049365498
112	0x3d437321	0.047717217
113	0x3c054ff9	0.008136743
114	0x3dfe37e4	0.12413004
115	0x3da3f4b7	0.0800566
116	0x3de4c159	0.11169691
117	0xbdd381c3	-0.103274845
118	0xbdc3d219	-0.09561557
119	0xbc8595b2	-0.016306732
120	0xbddb0f28	-0.1069625
121	0xbda9d724	-0.08292988
122	0xbd025134	-0.031815723
123	0x3d1433c7	0.03618219
124	0x3b87a800	0.0041399
125	0x3d807670	0.0627259
126	0xbe3d1f4f	-0.18468975
127	0xbe0e51b9	-0.13898362
128	0xbd654e6d	-0.055982996
129	0x3d05afc4	0.032638326
130	0x3d027037	0.031845298
131	0xbd52009c	-0.051270112
132	0x3cda6390	0.026658803
133	0xbd0144c5	-0.031559724
134	0xbdc15bfc	-0.09441373
135	0x3c819a80	0.015820742
136	0xbe12d2e2	-0.14338258
137	0xbdb1b6c0	-0.08677435
138	0xbd9367cf	-0.07197534
139	0xbe3c778c	-0.18404979
140	0xbd66bc25	-0.056331772
141	0xbdb28d33	-0.08718338
142	0xbdf64dea	-0.1202658
143	0x3dd4ebc9	0.10396535
144	0xba0ffe6c	-0.0005492929
145	0x3c30b275	0.010784735
146	0xbd950477	-0.07276242
147	0x3c0619bb	0.008184846
148	0xbd8264eb	-0.06366905
149	0xbe158fbe	-0.14605615
150	0x3e05b2a0	0.13056421
151	0xbdaf35f8	-0.085552156
152	0xbdf581fb	-0.119876824
153	0x3db9a061	0.09063793
154	0xbc8c8419	-0.017152833
155	0x3d3e5428	0.046466976
156	0x3d748a29	0.059702072
157	0xbcb33275	-0.021874646
158	0xbe146a9f	-0.14493798
159	0x3e588133	0.21143036
160	0xbc12720b	-0.008938323
161	0xbc15404a	-0.009109566
162	0x3db73c3b	0.08947035
163	0xbc451289	-0.012028345
164	0x3e182e6d	0.1486146
165	0x3c977164	0.018486686
166	0xbcab9ef7	-0.020949824
167	0xbd0d54d5	-0.03450473
168	0x3d9bc524	0.07605961
169	0xbd219aed	-0.03945439
170	0x3cb5492c	0.022129618
171	0x3d9b4e3d	0.07583282
172	0xbbaf468d	-0.0053489865
173	0x3de1d2d9	0.11026544
174	0x3dfc18d0	0.1230942
175	0x3c3ebf52	0.011642294
176	0x3c4b3720	0.01240328
177	0xbca02a15	-0.019551316
178	0xbbc98973	-0.0061504184
179	0xbdf8ad95	-0.12142483
180	0xbd376fcb	-0.04478435
181	0x3da9b703	0.0828686
182	0xbcf00c75	-0.029302815
183	0x3c3de758	0.011590801
184	0x3d98de79	0.07464308
185	0xbdc1d719	-0.09464855
186	0x3d1d95ed	0.03847306
187	0x3c1fbcfc	0.009749647
188	0xbdb28771	-0.0871724
189	0xbcc89476	-0.024484854
190	0xbd9870aa	-0.07443364
191	0xbdd5e9cb	-0.10444983
192	0xbd816fb7	-0.06320136
193	0xbd97c087	-0.074097686
194	0xbd99ef77	-0.075163774
195	0xbd07e8bf	-0.03318095
196	0xbbe044ef	-0.006844155
197	0xbb91491b	-0.0044337637
198	0xbd40f57e	-0.04710912
199	0xba358da6	-0.00069257093
200	0xbd32924f	-0.043596562
201	0xbb819b59	-0.0039552865
202	0xbd2f79cd	-0.042840768
203	0x3beca2c9	0.007221554
204	0x3d82247c	0.06354615
205	0x3d5ff70e	0.05467897
206	0x3c593c14	0.013258953
207	0x3de64387	0.112433486
208	0x3d619528	0.055073887
209	0x3da46dad	0.080287315
210	0x3d11b8b5	0.03557654
211	0x3db4b3eb	0.08823379
212	0x3b10d34a	0.0022098594
213	0x3e22e077	0.15905939
214	0x3cd55ee7	0.02604623
215	0x3c5fb0d3	0.013652998
216	0xbdf07cf3	-0.11742582
217	0xbd77bb75	-0.060481507
218	0x3cb3acbd	0.021932954
219	0xbd541754	-0.05178006
220	0xbd530d52	-0.051526375
221	0xbdbff7e1	-0.09373451
222	0xbdf855d8	-0.121257484
223	0x3b8b00b7	0.0042420286
224	0xbc83b9b7	-0.016079767
225	0x3d7c7d29	0.0616428
226	0x3d2f0eba	0.042738654
227	0xbb7c71e7	-0.003852004
228	0x3d6fbe0a	0.058530845
229	0x3cd53cb6	0.026029926
230	0x3b21257e	0.0024588997
231	0xbc428a7b	-0.011873837
232	0xbbf8ff71	-0.0075988104
233	0x3d2f1e67	0.042753603
234	0x3d115ba1	0.035487775
235	0x3da722e1	0.081609495
236	0x3d55f18a	0.052232303
237	0x3e089cee	0.13341114
238	0x3da91b96	0.08257215
239	0x3d4ffed5	0.050780136
240	0x3df8fd22	0.12157656
241	0x3c10bfb8	0.008834772
242	0x3cae3784	0.021266706
243	0xbdd4d1bb	-0.103915654
244	0xbda9e512	-0.08295645
245	0x3d5e9b56	0.05434736
246	0xbdc58f99	-0.0964653
247	0xbd960dde	-0.07326864
248	0xbc8a54d3	-0.01688615
249	0xbe47cd20	-0.19511843
250	0xbd979928	-0.07402259
251	0xbc0843bf	-0.008316933
252	0x3d3b7f71	0.045775834
253	0x3d2b4698	0.04181537
254	0xbd310dbb	-0.043225985
255	0x3d203cf2	0.039120622

Generator.conv3.conv1.0.weight f4 [8, 8, 3, 3, 3]
0	0x3bcfd8c1	0.0063429778
1	0x3d9883ba	0.07447
2	0xba2d88ee	-0.00066198304
3	0xbd03325c	-0.03203045
4	0xbadd2619	-0.0016872316
5	0x3d2791ae	0.040910415
6	0x3db2866d	0.08717046
7	0xbcdabce3	-0.026701396
8	0xbc13cb51	-0.009020642
9	0xbcb6c120	-0.022308886
10	0x3ce99fab	0.028518518
11	0xbd42b457	-0.047535267
12	0x3cabed16	0.020987075
13	0xbc9fa3e8	-0.019487336
14	0xbd8f1727	-0.06986838
15	0xbd09c4af	-0.033634838
16	0x3d2ec2e4	0.04266633
17	0xbce9b548	-0.028528824
18	0xbcba4216	-0.02273659
19	0x3d9c4226	0.07629804
20	0x3c1b2a6b	0.009470562
21	0x3d42bbd5	0.04754241
22	0xbd8ae0e5	-0.067811765
23	0x3c16af16	0.009197017
24	0xbd713416	-0.058887564
25	0x3c808fd0	0.015693575
26	0xbd4de643	-0.050268423
27	0xbcf1154a	-0.029429097
28	0x3c73ecf6	0.014888039
29	0x3d28fe29	0.04125801
30	0x3a630466	0.0008660018
31	0x3b5315be	0.0032209004
32	0xbd8602c6	-0.06543498
33	0x3d9347b8	0.07191414
34	0xbd990067	-0.0747078
35	0x3c83eb4c	0.01610341
36	0x3c2a3886	0.010389453
37	0x3d6e8435	0.05823155
38	0x3e039289	0.12848867
39	0xbd0a6966	-0.033791922
40	0xbcb3026d	-0.021851743
41	0xbda6773d	-0.08128212
42	0xbb717b44	-0.0036847154
43	0xbddc3621	-0.10752512
44	0x3c595d2d	0.013266844
45	0x3c40fbe6	0.011778807
46	0x3d5ed200	0.05439949
47	0xbd2b2b35	-0.041789252
48	0x3cbcbf95	0.023040572
49	0xbcefb4b6	-0.029260974
50	0xbd764913	-0.060128283
51	0x3b78b5f8	0.0037950259
52	0xbd551b61	-0.052028064
53	0x3bb52222	0.0055277506
54	0xbd22ff3e	-0.0397942
55	0xb9c5f79d	-0.00037759254
56	0xbd0cf0e1	-0.034409408
57	0xbd21e757	-0.039527263
58	0xbd036d08	-0.032086402
59	0x3d0cfc90	0.03442055
60	0xbce2728c	-0.02764251
61	0xbcd31940	-0.025768876
62	0xbc6b0ebc	-0.014346775
63	0x3ce0741e	0.027399119
64	0x3d11ac9a	0.035564996
65	0x3d7c5283	0.061602127
66	0xbd02cec5	-0.031935472
67	0x3dc4b712	0.096052304
68	0x3da28eaa	0.07937367
69	0xbd29bfaa	-0.04144255
70	0x3c3897ea	0.011266688
71	0xbcc4bf2c	-0.02401694
72	0x3bbe38c6	0.0058051078
73	0xbd84b598	-0.06479949
74	0x3d25e08a	0.04049734
75	0xbd2f6ec7	-0.042830255
76	0x3d414603	0.04718591
77	0xbb622e88	-0.0034512598
78	0x3cac1ed1	0.021010788
79	0xbd39d977	-0.045373406
80	0xbcf0d4d4	-0.02939836
81	0x3d0171da	0.031602718
82	0x39c68cba	0.00037870352
83	0x3cc171ca	0.02361383
84	0xbc26a7ed	-0.010171873
85	0x3c08e88b	0.008356224
86	0xbcc5bb93	-0.024137294
87	0x3d9b2e1d	0.07577155
88	0xbcc30b03	-0.023808962
89	0x3d59a727	0.053137925
90	0xbb07770c	-0.0020670323
91	0x3d4ee89b	0.0505148
92	0x3d3378d4	0.043816403
93	0xbd2eee5b	-0.042707782
94	0x3d7e90f6	0.062149964
95	0xbcbae29c	-0.022813134
96	0xbd8b3c9d	-0.067986704
97	0xbd07a9f5	-0.033121068
98	0xbc3c1459	-0.011479461
99	0xbd4a5ff7	-0.049407925
100	0x3d6d35ec	0.057912752
101	0xbc5eba8f	-0.013594284
102	0x3d261034	0.040542796
103	0x3dbb254e	0.09137975
104	0x3d466062	0.04843176
105	0xbb13cff4	-0.002255437
106	0xbceb2a65	-0.028706739
107	0xbdc17c61	-0.094475515
108	0x3d13ea8b	0.03611235
109	0xbccc958a	-0.02497365
110	0x3b76b614	0.0037645148
111	0x3d7c491e	0.061593167
112	0xbd1305b8	-0.035894126
113	0x3c913aa0	0.01772815
114	0x3d6ee806	0.058326744
115	0x3d053d6d	0.032529283
116	0xbd97ad52	-0.07406105
117	0x3ca8c08e	0.02059963
118	0x3d35b95f	0.044366237
119	0x3d4a18e3	0.04934014
120	0xbc35ed05	-0.011103873
121	0x3d171ddf	0.03689372
122	0x3d824b9b	0.06362077
123	0x3c8dd00e	0.017311122
124	0x3d894a9b	0.06703683
125	0xbd93e056	-0.07220523
126	0xbce585f4	-0.028017975
127	0xbcf32887	-0.02968241
128	0x3d1f3309	0.03886703
129	0xbd82b05d	-0.06381295
130	0xbd6dc337	-0.0580475
131	0xbc9386e0	-0.01800865
132	0x3d3ca21e	0.046053044
133	0xbd7b5c49	-0.061367307
134	0xbce70e1a	-0.028204966
135	0xbd24465f	-0.040106174
136	0x3d81e32a	0.06342156
137	0x3cd002c0	0.025391936
138	0x3d08ebe3	0.033428084
139	0x3d7a6c58	0.06113848
140	0xbd739010	-0.05946356
141	0x3cf82e89	0.030295627
142	0xbb847aa3	-0.0040429397
143	0x3c4e708a	0.012600074
144	0x3cf1a19b	0.029496005
145	0x3dc46bb5	0.09590856
146	0x3cbb9dc1	0.022902371
147	0xbc779533	-0.015111255
148	0x3d4c3cc9	0.049862657
149	0x3c5d3cd0	0.013503268
150	0xbc9d5c8a	-0.019209165
151	0xbda4943b	-0.08036085
152	0x3b9c8f5b	0.0047778315
153	0xbd8633ee	-0.065528736
154	0x3d98acb7	0.07454818
155	0xbd83da0b	-0.06438073
156	0xbba6f59d	-0.0050951974
157	0x3d57fcd9	0.05273137
158	0x3d40b347	0.047045972
159	0x3d598491	0.05310494
160	0xbd980283	-0.07422354
161	0xbd81a09f	-0.06329464
162	0xbd4426ed	-0.047888685
163	0x3d072845	0.03299739
164	0x3d875dd5	0.06609694
165	0x3b60d37e	0.0034305747
166	0xbd093d15	-0.033505518
167	0xbd034d43	-0.032056104
168	0x3e162420	0.14662218
169	0x3cff041f	0.031129895
170	0x3cb46cc1	0.022024514
171	0x3d181ec1	0.037138704
172	0xbd9e74aa	-0.07737096
173	0x3d97f81e	0.074203715
174	0x3d8804e5	0.066415586
175	0xbdab6927	-0.083696656
176	0x3d6ac5e6	0.057317637
177	0x3d61f497	0.0551649
178	0x3cf20690	0.029544145
179	0x3d5ffc8c	0.054684207
180	0x3d0301cb	0.03198413
181	0xbd7b2bd0	-0.06132108
182	0xbd837ad4	-0.06419912
183	0xbba70e15	-0.0050981143
184	0xbbdcd60f	-0.006739385
185	0xbd0c3527	-0.034230378
186	0xbd018e92	-0.031630106
187	0x3d6e1e73	0.058134507
188	0x3d24a098	0.040192217
189	0x3cba253d	0.022722835
190	0xb9f25f7e	-0.00046228984
191	0x3b8f916c	0.0043813493
192	0x3bd6cc70	0.0065551326
193	0x3d593c11	0.0530358
194	0xbab138a9	-0.0013520914
195	0xbda3d769	-0.080000706
196	0x3cb61a1d	0.022229249
197	0x3cb3bafc	0.021939747
198	0xb9989469	-0.00029102273
199	0xbc154dc2	-0.009112777
200	0xbcb3ff75	-0.021972397
201	0x3d08a529	0.033360634
202	0x3e228d12	0.15874127
203	0x3d5a3ee7	0.053282645
204	0xbca0501e	-0.019569453
205	0xbcab3c11	-0.020902665
206	0x3da652b8	0.08121246
207	0xbc8af75c	-0.016963653
208	0xbd9ac1eb	-0.07556518
209	0xb92ca998	-0.00016466377
210	0x3d8dcda0	0.069239855
211	0x3e0675f3	0.13130932
212	0xbd828466	-0.06372909
213	0xbcdd7953	-0.027035391
214	0xbc9be91a	-0.01903205
215	0xbd182238	-0.03714201
216	0x3d2ea7c2	0.042640455
217	0xbc363d3c	-0.011122998
218	0xbd563e48	-0.05230549
219	0x3d222af2	0.039591737
220	0x3cbe224f	0.023209719
221	0x3d2f5de3	0.042814147
222	0x3c9b5e47	0.018965853
223	0x3cd6613a	0.026169408
224	0xbcef73d0	-0.029230028
225	0x3da719b3	0.081591986
226	0xbd93b1c1	-0.07211638
227	0xbccae312	-0.024766479
228	0x3d21472e	0.039374523
229	0x3d5c6eab	0.05381648
230	0xbd71c21b	-0.059023004
231	0xbd27e295	-0.04098757
232	0x3d5cccc5	0.05390622
233	0xbe0511ae	-0.12995026
234	0x3ccc80cf	0.024963764
235	0x3ce9a203	0.028519636
236	0xba91ee6f	-0.0011133681
237	0x3d29713a	0.041367747
238	0x3d013891	0.031548087
239	0xbd68d533	-0.056843948
240	0xbd441c7a	-0.04787872
241	0xbd205811	-0.039146487
242	0x3aed5192	0.0018105975
243	0x3d0163e3	0.0315894
244	0xbd273b2b	-0.04082791
245	0xbd726fea	-0.05918876
246	0x3d026858	0.03183779
247	0x3de28ac1	0.110616215
248	0xbd0e6c1d	-0.034771074
249	0x3d49438c	0.049136683
250	0x3c92dc77	0.017927391
251	0x3a6e1f03	0.00090836006
252	0x3dc219b9	0.094775625
253	0x3d29f81c	0.04149638
254	0x3a75b860	0.00093734823
255	0x3dff5b4f	0.124685876

Generator.conv3.conv2.0.weight f4 [8, 8, 3, 3, 3]
0	0xbc2a6a05	-0.010401254
1	0x3bc1bf58	0.0059127025
2	0x3d2c92eb	0.0421323
3	0xbdab9d6b	-0.083796345
4	0x3b8ce2eb	0.0042995117
5	0x39c4d81f	0.00037545056
6	0xbdc8772a	-0.09788354
7	0xbc8d879d	-0.01727658
8	0xbce8a3d1	-0.028398426
9	0x3c822c08	0.015890136
10	0xbd272e48	-0.04081562
11	0x3d938bd8	0.072044075
12	0x3c50cd6d	0.01274429
13	0x3d03f186	0.032212757
14	0xba93e925	-0.0011284692
15	0xbd5595e8	-0.052144915
16	0x3d07e74e	0.033179574
17	0xbc3b6c4b	-0.011439393
18	0xbb256f88	-0.002524348
19	0xbcc9578a	-0.024577875
20	0xbc6b527d	-0.014362928
21	0x3cd5107d	0.026008839
22	0x3d189bd7	0.037257995
23	0x3d9d81da	0.07690783
24	0xbcc512fb	-0.024056902
25	0x3da9111a	0.08255215
26	0x3d5dd72e	0.05416029
27	0x3de67f38	0.11254734
28	0xbe15cea7	-0.14629613
29	0xbdf427e4	-0.11921671
30	0x3e135f94	0.14391929
31	0xbcee1738	-0.029063806
32	0xbdb8ddef	-0.090267055
33	0x3ca79a26	0.020459246
34	0x3d96ab8e	0.0735694
35	0x3d54460c	0.051824614
36	0x3dcbc21d	0.099491335
37	0xbd87b1cd	-0.0662571
38	0xbd7b5b3f	-0.061366316
39	0xbd508142	-0.05090452
40	0xbc848dab	-0.016180834
41	0xbc6c8f53	-0.014438468
42	0xbd0d1bb3	-0.034450244
43	0xbd8f26b6	-0.069898054
44	0xbd8b9837	-0.06816142
45	0x3dbe467e	0.09290789
46	0x3c5ec8cd	0.013597679
47	0xbdcb3d71	-0.099238284
48	0xbd3f62ca	-0.046725072
49	0x3b0ca036	0.0021457798
50	0xbdb3cf9a	-0.08779831
51	0xbb483601	-0.0030549767
52	0xbb14b5e5	-0.0022691425
53	0xbccb9f39	-0.024856197
54	0xbd4e0319	-0.050295923
55	0x3c8beb3f	0.017079948
56	0xbdcf8182	-0.101321235
57	0xbc9332c5	-0.017968545
58	0xbc849356	-0.016183536
59	0x3d17570e	0.036948256
60	0xbd00d301	-0.03145123
61	0x3ccbb3e9	0.024866061
62	0x3e0d9fd7	0.13830505
63	0x3d8647b6	0.065566465
64	0xbc6ee55c	-0.014581051
65	0x3d2ef138	0.042710513
66	0x3d8e1bc7	0.06938892
67	0x3dce73fe	0.100807175
68	0xbbaa4deb	-0.005197277
69	0xbd464772	-0.04840798
70	0x3e00ee4b	0.12590902
71	0x3d2731ce	0.04081898
72	0x3ca112c6	0.019662272
73	0x3e0cc041	0.13745214
74	0x3d95d53b	0.07316061
75	0x3d152d88	0.036420375
76	0x3e181964	0.14853436
77	0x3d512a3a	0.05106566
78	0xbd4b1af2	-0.049586244
79	0xbcf4e311	-0.02989343
80	0x3dee33b1	0.11630953
81	0xbc82f9bf	-0.015988229
82	0x3db89a92	0.09013857
83	0xb9ceecf6	-0.00039467931
84	0xbd047173	-0.032334756
85	0xbc2ccef6	-0.01054739
86	0x3d7c69b8	0.06162426
87	0xbd1f73ef	-0.038928922
88	0xbdc20467	-0.09473496
89	0xbb7e0a85	-0.0038763594
90	0xbcf2254f	-0.029558806
91	0xbc7c1b6b	-0.015387396
92	0x3ae966e7	0.0017807157
93	0xbd9903d9	-0.07471437
94	0xbe31226a	-0.17298284
95	0x3d0a8707	0.03382018
96	0xbce931b1	-0.028466078
97	0xbe1c20ff	-0.15246962
98	0xbcdc8a3a	-0.02692138
99	0xbd63e803	-0.055641185
100	0xbdc5d688	-0.09660059
101	0xb7e7fc3f	-2.7654807e-05
102	0x3c14a019	0.009071373
103	0xbe08c16c	-0.13355035
104	0xbce4edcb	-0.02794542
105	0x3c053ade	0.008131711
106	0xbd390477	-0.045170274
107	0xbd65e61d	-0.056127656
108	0xbe355530	-0.17708278
109	0xbda6334c	-0.08115253
110	0xbdf18294	-0.11792484
111	0xbcb0314b	-0.02150788
112	0xbd8ff97c	-0.07030007
113	0xbe199b6e	-0.15000698
114	0xbe55269d	-0.20815511
115	0xbd2be161	-0.041962985
116	0xbd18f7f2	-0.037345834
117	0x3bfeb17c	0.0077726226
118	0xbbeec206	-0.007286313
119	0x3d7294f4	0.059224084
120	0x3db143e5	0.08655528
121	0x3d043036	0.03227254
122	0xbc4c631d	-0.012474802
123	0xbdb67cdd	-0.089105345
124	0xbbced0c4	-0.006311508
125	0x3bda24e8	0.0066572316
126	0xbe58baac	-0.2116496
127	0xbdb9af67	-0.090666585
128	0xbdeefaba	-0.11668916
129	0x3c731232	0.014835881
130	0xbca833a7	-0.020532442
131	0xbd8a4c17	-0.06752794
132	0xbd84b9e1	-0.06480766
133	0xbd4f7cd3	-0.05065615
134	0x3d01440f	0.031559046
135	0x3dbd1756	0.092329666
136	0xbd23279d	-0.0398327
137	0xbe3bd2f7	-0.18342195
138	0xbcc8b1e5	-0.02449889
139	0xbcb66d0b	-0.022268793
140	0xbd40d432	-0.047077365
141	0x3dd89d29	0.10576851
142	0xbd4e7653	-0.05040581
143	0x3de42983	0.1114073
144	0xbc9af15e	-0.018913921
145	0xbe0c5001	-0.13702394
146	0xbd263b2b	-0.04058377
147	0x3db30426	0.087410256
148	0x3cc3efbd	0.023918027
149	0x3ad05a09	0.0015895973
150	0x3d95efbe	0.07321118
151	0xbd0390a7	-0.032120373
152	0x3db37204	0.08761981
153	0x3d936495	0.07196919
154	0x3dfd4f5f	0.123686545
155	0xbca5b991	-0.020230087
156	0x3e0730e3	0.13202243
157	0x3d451bc7	0.048122194
158	0x3d293fcc	0.041320607
159	0x3dbd57c4	0.092452556
160	0x3a535f0a	0.0008063173
161	0x3b8d2f4d	0.004308617
162	0x3dc7e1a4	0.097598344
163	0x3dedfccb	0.11620482
164	0x3da8d321	0.08243395
165	0x3aa5bd85	0.0012644982
166	0x3c3840e5	0.011245941
167	0x3d34e68a	0.04416517
168	0xbd21821b	-0.03943072
169	0xbe22fb12	-0.15916088
170	0xbcefd982	-0.02927852
171	0xbcbd2687	-0.02308966
172	0x3ce66931	0.028126331
173	0x3d479f2a	0.048735775
174	0xbda2e525	-0.07953862
175	0xbd5c8aaf	-0.053843196
176	0x3d73f5c4	0.059560552
177	0xbd8616ab	-0.06547292
178	0x3c1727d4	0.009225804
179	0x3ca3fad3	0.020017063
180	0xbde91e18	-0.11382693
181	0xbc7cef1d	-0.015437868
182	0x3e05c4e2	0.13063386
183	0xbdd4c47e	-0.103890404
184	0xbc74ada6	-0.014933979
185	0x3e1fc039	0.15600671
186	0xbd9fb65f	-0.077984564
187	0x3d11c717	0.035590257
188	0x3d0d3d77	0.034482446
189	0xbd891902	-0.06694223
190	0xbd4c7dbb	-0.049924593
191	0x3d7c0e63	0.061537158
192	0xbd86cd04	-0.065820724
193	0xbd4bd586	-0.04976418
194	0x3d5a74c5	0.053334016
195	0xbc5b53ad	-0.013386649
196	0x3b2e3df7	0.0026587227
197	0x3e022512	0.12709454
198	0x3e0281e0	0.12744856
199	0x3d130087	0.035889175
200	0x3d9bb3b6	0.076026365
201	0x3cc8c778	0.024509177
202	0x3c559bfe	0.01303768
203	0x3c879e05	0.016554842
204	0xbd372494	-0.044712618
205	0x3dacb01f	0.0843203
206	0x3c4348d1	0.011919216
207	0x3d9fdd53	0.07805886
208	0xbd5e91e5	-0.054338355
209	0xbb5a2db6	-0.0033291406
210	0x3db74801	0.089492805
211	0xbba7fdfd	-0.0051267133
212	0x3cbd7a73	0.023129677
213	0x3d6e5c1a	0.058193304
214	0x3dee363a	0.11631437
215	0x3bd06770	0.006359987
216	0x3d927417	0.07151049
217	0x3d196c3b	0.037456732
218	0xbd982c91	-0.07430375
219	0xbcb6f195	-0.022331992
220	0xbd8f0eac	-0.0698522
221	0xbdc2e6af	-0.09516656
222	0x3c8c3261	0.017113866
223	0x3d31f836	0.043449603
224	0xbcaa592a	-0.02079447
225	0x3d24298b	0.04007868
226	0xbc9fbde4	-0.019499727
227	0xbd98cfd1	-0.07461513
228	0xbce2a60d	-0.02766707
229	0x3d884aef	0.066549174
230	0xbd9dc3fb	-0.07703396
231	0x3d580d58	0.0527471
232	0x3d159abf	0.03652453
233	0xbc900c73	-0.017584061
234	0x3c9db4f9	0.019251334
235	0x3dcdd31d	0.10050032
236	0x3d0c34b1	0.034229938
237	0x3ce5def9	0.028060423
238	0x3d4ecf49	0.05049065
239	0x3d0b5f4d	0.034026433
240	0x3aa5ce16	0.0012649919
241	0xbd4326d2	-0.047644444
242	0xbc0b4447	-0.008500165
243	0x3cff0d55	0.031134287
244	0x3d45c220	0.048280835
245	0xbdd93a27	-0.10606795
246	0x3dea6291	0.11444581
247	0x3df3c920	0.11903596
248	0x3d1e1218	0.038591474
249	0x3de2b11c	0.11068937
250	0x3c833280	0.016015291
251	0x3dae12d6	0.084996864
252	0xbc862375	-0.01637433
253	0x3da56c39	0.080772825
254	0xbd8eefaa	-0.06979306
255	0x3d9a6444	0.075386554

Generator.conv4.conv1.0.weight f4 [8, 8, 3, 3, 3]
0	0xbd2d5447	-0.0423167
1	0xbc176f94	-0.009242911
2	0xbd5cae94	-0.05387743
3	0x3c473d7b	0.012160654
4	0x3cbb31ee	0.022850957
5	0xbc0de095	-0.008659502
6	0xbc3c9f16	-0.011512538
7	0x3b7be346	0.0038435026
8	0xbcf364f1	-0.029711219
9	0xbd3cb615	-0.046072084
10	0xbc473269	-0.012158015
11	0xbdc13439	-0.09433789
12	0xbd8606e6	-0.065442845
13	0x3b919af6	0.0044435216
14	0xbce094de	-0.027414735
15	0x3db171a9	0.08664257
16	0x3c037d79	0.0080255205
17	0x3d12bd92	0.03582532
18	0x3d09f1b0	0.033677757
19	0x3d26d7f0	0.040733278
20	0x3d88e10e	0.06683551
21	0x3d214bae	0.039378814
22	0xbd9d9aed	-0.076955654
23	0x3c525993	0.012838739
24	0xbd65e2e4	-0.056124583
25	0xbd093a91	-0.03350312
26	0x3ca7cdab	0.020483812
27	0xbcae4baf	-0.021276323
28	0x3c096c5c	0.008387651
29	0x3d884d95	0.066554226
30	0xbcfa7d78	-0.030577406
31	0x3d5c7bc7	0.05382898
32	0x3d78164e	0.060568146
33	0xbd48fc04	-0.049068466
34	0x3d9aaae0	0.07552123
35	0xbd6ead57	-0.05827078
36	0x3cd50fef	0.026008574
37	0xbc8ceb88	-0.017202154
38	0xbd4f59fa	-0.050622918
39	0xbb86f036	-0.004117991
40	0xbcfd1408	-0.03089334
41	0xbd89f66f	-0.067364566
42	0xbc6fb252	-0.014629917
43	0x3d0a4a7b	0.033762436
44	0x3cf8b4ac	0.030359589
45	0x3d43c602	0.047796257
46	0xbb321eb2	-0.002717894
47	0x3c12ae12	0.008952634
48	0x3d0fc68a	0.03510145
49	0xbcaed9d2	-0.0213441
50	0x3ce80837	0.02832423
51	0x3d784bc8	0.060619146
52	0x3d6b9131	0.057511512
53	0x3cf9ebdf	0.03050798
54	0xbd709649	-0.058737073
55	0xbd37d1b2	-0.044877715
56	0xbdffb6e7	-0.12486058
57	0xbc59ad0c	-0.0132858865
58	0x3ceb1385	0.028695831
59	0xbd8fea0d	-0.070270635
60	0x3d87a20d	0.066227056
61	0x3cf8af97	0.030357165
62	0xbc856e2b	-0.016287884
63	0x3ad5096b	0.0016253417
64	0xbe058571	-0.13039185
65	0xbdb4bc4e	-0.08824979
66	0x3c937fbf	0.01800525
67	0xbd55206e	-0.05203288
68	0xbc0ed675	-0.008718123
69	0x3c21eb34	0.009882737
70	0x3d8061cb	0.062686525
71	0xbd59cd9d	-0.053174604
72	0x3d6f7318	0.05845937
73	0xbba1d3a2	-0.0049385587
74	0xbcb751b9	-0.022377836
75	0x3c5fdc75	0.013663401
76	0xbdd1159f	-0.10209202
77	0x3d3abe9e	0.045591943
78	0x3c961cdd	0.01832431
79	0xbd286cc6	-0.04111936
80	0x3cb638d4	0.022243895
81	0x3c24b081	0.010051847
82	0xbca7f223	-0.020501202
83	0xbcf4320c	-0.02980902
84	0x3c585d3b	0.013205822
85	0xbc74c0de	-0.014938561
86	0xbcf2d04e	-0.029640343
87	0x3d59c704	0.05316831
88	0x3c82714d	0.015923167
89	0x3da1d61b	0.079021655
90	0xbc394fbd	-0.011310515
91	0xbd811df1	-0.06304539
92	0xbd29f445	-0.04149272
93	0x3cd38b97	0.025823398
94	0xbd8e6998	-0.06953734
95	0x3b9e7c88	0.0048366226
96	0x3da83872	0.08213891
97	0x3da3aaae	0.07991539
98	0x3d4df99a	0.050286867
99	0xbd754bb4	-0.05988665
100	0xbd8674d3	-0.06565251
101	0xbd69fb1a	-0.057124235
102	0xbc7fea04	-0.0156197585
103	0x3d1f846f	0.038944658
104	0xbd618705	-0.055060405
105	0x3d9af6d4	0.0756661
106	0x3b8df92b	0.0043326817
107	0x3b8a9cae	0.0042301035
108	0xbd8ed83d	-0.06974838
109	0xbd2ed3d1	-0.042682473
110	0xbbbfc4e3	-0.005852328
111	0xbcb6b300	-0.02230215
112	0x3ca14d4c	0.019690178
113	0x3ce9eb5f	0.028554616
114	0xbce95806	-0.028484356
115	0x3d5f19af	0.054467853
116	0x3c8d9e50	0.017287403
117	0xbbe87199	-0.00709362
118	0xbcb5866e	-0.022158828
119	0x3da11b47	0.07866531
120	0xbd5fa767	-0.054603007
121	0xbc5cdd23	-0.0134804575
122	0xbcb81fce	-0.022476103
123	0x3c6c2872	0.01441394
124	0x3d0c4852	0.034248658
125	0xbc937fa1	-0.018005194
126	0x3da7e18a	0.08197315
127	0x3c825956	0.01591174
128	0x3d85fe8d	0.06542692
129	0xbb81b299	-0.003958058
130	0xbc78559e	-0.0151571315
131	0x3b822207	0.0039713415
132	0x3c998237	0.01873885
133	0x3bad93f3	0.005297178
134	0x3dab6d9e	0.08370517
135	0xbd3296b7	-0.043600764
136	0x3ced59f7	0.028973563
137	0xbd91591d	-0.07097075
138	0x3bd1f0ba	0.0064068707
139	0x3d876223	0.06610515
140	0x3a9d71cd	0.0012012065
141	0x3d55d4fa	0.052205063
142	0x3d87317f	0.066012375
143	0xbd82dc12	-0.06389631
144	0x3cae0c98	0.02124624
145	0xbc791e4c	-0.015204977
146	0xbbc809c1	-0.0061046784
147	0x3c86905b	0.016426256
148	0xbd3631e8	-0.044481188
149	0x3c2339d6	0.00996252
150	0x3d683ef4	0.05670066
151	0x3d258a72	0.040415235
152	0xbc95dc93	-0.018293655
153	0x3d2882e4	0.041140452
154	0x3a19ce49	0.00058672257
155	0xbcd0e423	-0.025499409
156	0x3ce4492e	0.027866926
157	0xbd206858	-0.03916201
158	0x3c03e767	0.008050776
159	0x3b5e7e8d	0.0033949942
160	0xbd2b1a27	-0.041772988
161	0x3d4174b7	0.04723045
162	0xbd7b1747	-0.061301496
163	0xbd0194c2	-0.031636007
164	0xbd63522b	-0.055498283
165	0xbc5f5259	-0.013630473
166	0x3dd55a4b	0.10417613
167	0x3d8a0e2a	0.06740983
168	0xbca77575	-0.02044175
169	0x3d2f0051	0.04272491
170	0x3d898a28	0.06715804
171	0xbd5ea44e	-0.054355912
172	0xbd27e9ce	-0.040994458
173	0x3c872e5b	0.016501596
174	0x3c1919e2	0.00934455
175	0xbdb08c5d	-0.08620522
176	0xbd2bbfcc	-0.04193096
177	0x3d7e0f78	0.06202647
178	0x3d355129	0.044266853
179	0xbc3f04be	-0.0116588455
180	0x3d6b531f	0.057452317
181	0x3d6f9cc6	0.05849912
182	0x3bd85daa	0.0066029625
183	0xbdbeb576	-0.09311955
184	0xba26c3a5	-0.0006361551
185	0xbcfd5621	-0.030924859
186	0xbd394f8e	-0.045241885
187	0xbca02081	-0.01954675
188	0x3ce13bd4	0.027494349
189	0xbd76a6fa	-0.060217835
190	0xbd6fa683	-0.058508407
191	0xbdb5e6e1	-0.08881927
192	0xbd0787f7	-0.03308865
193	0x3d13e8f9	0.036110852
194	0xbcebe9c3	-0.02879799
195	0xbc836a5d	-0.016041929
196	0x3b2d9df3	0.002649185
197	0x3cd3acce	0.025839236
198	0x3d20f57b	0.03929661
199	0xbdbd6fe4	-0.09249857
200	0xbbe117ca	-0.006869291
201	0x3c7c3714	0.015393991
202	0xbdc27f98	-0.09496993
203	0xbd98a1f0	-0.07452762
204	0x3d0057ec	0.03133385
205	0x3daa5246	0.08316474
206	0xbd5bacbc	-0.05363153
207	0x3bc30f90	0.005952783
208	0x3d734939	0.059396002
209	0xbcdb3752	-0.026759777
210	0x3c98cf96	0.018653672
211	0xbd78aab2	-0.060709663
212	0xbdaab562	-0.08335377
213	0x3d186639	0.037206862
214	0x3d02cb25	0.031932015
215	0x3ce16a69	0.02751656
216	0xbbeff2a7	-0.0073226276
217	0x3d9df1e7	0.07712155
218	0x3d46f4b2	0.048573203
219	0x3ca4ef26	0.020133566
220	0x3d92864e	0.07154523
221	0x3d4102a0	0.047121644
222	0xbd3e2f26	-0.046431683
223	0x3ccabc82	0.02474809
224	0x3d4c9add	0.049952377
225	0x3da02091	0.078187115
226	0x3d7c8953	0.0616544
227	0xbbfd3eb9	-0.0077284244
228	0xbcea560d	-0.028605485
229	0x3cee3aa4	0.029080696
230	0x3c8b3468	0.016992763
231	0x3c894436	0.016756158
232	0x3c65aca9	0.014018216
233	0xbb460f6c	-0.0030221594
234	0xbd029f20	-0.031890035
235	0xbda2bbd9	-0.07945985
236	0xbcfa416d	-0.030548776
237	0x3cfae017	0.030624432
238	0xbd37c4f0	-0.04486555
239	0xbdabbc14	-0.083854824
240	0x3d595a7c	0.05306481
241	0x3c72d44e	0.014821125
242	0xbd844c0c	-0.06459817
243	0xbcfd5bcb	-0.03092756
244	0x3d00a70d	0.031409312
245	0x3c053a48	0.008131571
246	0xbd98bc0a	-0.074577406
247	0x3d95a38d	0.073065855
248	0x3d4b814d	0.049683858
249	0xbc61eb00	-0.0137889385
250	0xbd8bbc05	-0.06822971
251	0xbbf0a8c2	-0.0073443362
252	0x3cde1c12	0.027112994
253	0x3d3ed91a	0.046593763
254	0x3d3c77da	0.046012737
255	0xbbdff8dd	-0.0068350867
