DeepWonder3D_pytorch/pth/SEG_pth/Unet4_no_end_UNet3DFFD_20240401-1432_2um/seg_192.pth (torch, 138281 bytes, 19 tensors)

Generator.conv1.conv1.0.weight f4 [8, 1, 3, 3, 3]
0	0x3de7dfab	0.11321958
1	0x3dcc22e2	0.09967591
2	0xbd5e7f55	-0.054320652
3	0x3e1186f0	0.14211631
4	0xbdf5f2d1	-0.12009204
5	0xbdf93c3d	-0.12169693
6	0x3b6521a8	0.0034962688
7	0x3b04a3cd	0.0020239234
8	0x3dce4989	0.100726195
9	0x3d18a197	0.03726348
10	0xbe22267f	-0.15834998
11	0x3dba35a7	0.090922646
12	0x3e022c9b	0.12712328
13	0x3ddcf13d	0.107882
14	0x3d1767d3	0.03696425
15	0xbe3ff1e3	-0.18744616
16	0x3db82445	0.08991293
17	0xbe4f0fb7	-0.20220838
18	0xbde2a6e7	-0.1106699
19	0xbde3c27e	-0.11121081
20	0xbd6868dc	-0.056740627
21	0x3d1a538d	0.037677336
22	0xbd44e13f	-0.048066374
23	0x3d80c675	0.06287853
24	0xbe5640ac	-0.20923108
25	0x3ca5984c	0.020214222
26	0x3e1a12ac	0.15046185
27	0x3e1f1c90	0.1553824
28	0x3e1d71af	0.15375398
29	0x3c65d5f6	0.014028063
30	0x3db0919c	0.08621523
31	0xbe08f63f	-0.13375185
32	0xbe3abdcb	-0.18236463
33	0x3e0efa2a	0.13962618
34	0x3cbffaae	0.023434963
35	0xbda17a8d	-0.07884703
36	0xbdebfa8f	-0.115224
37	0x3e2016c5	0.15633686
38	0xbd357dcc	-0.044309422
39	0xbe03ea74	-0.12882406
40	0xbd9e3b46	-0.07726149
41	0x3c060c71	0.008181677
42	0xbe46bb78	-0.19407451
43	0xbe58ea34	-0.21183091
44	0xbc8b7caa	-0.017027218
45	0x3df314b4	0.11869183
46	0x3d01f469	0.03172723
47	0x3e51c20d	0.20484181
48	0x3e316e94	0.17327338
49	0xbdb227e7	-0.08699017
50	0x3e249564	0.16072613
51	0x3dc01e55	0.093807854
52	0xbe00bdd5	-0.12572415
53	0xbd9b422f	-0.07580983
54	0x3d892dc8	0.06698185
55	0xbd1ffa31	-0.03905696
56	0xbdf0a2cc	-0.11749801
57	0x3ce7ee29	0.028311806
58	0x3dcce619	0.10004825
59	0xbbc8e1a5	-0.0061304145
60	0xbe26b23d	-0.1627893
61	0xbdeaca50	-0.11464369
62	0xbd7c6277	-0.06161734
63	0x3d151d8d	0.036405135
64	0x3dc3bb3e	0.09557198
65	0x3c8dde0b	0.017317792
66	0xbd368566	-0.044560812
67	0x3d1c8b7c	0.03821896
68	0x3d93540b	0.07193764
69	0x3d5b6903	0.053566944
70	0x3b14aed8	0.0022687223
71	0x3be57710	0.0070027187
72	0xbe22da5a	-0.15903607
73	0x3d2b03c4	0.041751638
74	0x3d357837	0.0443041
75	0xbb356f61	-0.0027684795
76	0xbd8e17b7	-0.06938117
77	0x3db9ff8d	0.090819456
78	0xbebc54d8	-0.3678348
79	0x3c8702ad	0.016480768
80	0xbe7d6d85	-0.2474881
81	0xbdbaee5a	-0.09127493
82	0xbe193b32	-0.14963987
83	0x3e1fca0c	0.15604419
84	0xbe4adf5c	-0.19811767
85	0xbd962bac	-0.073325485
86	0xbcb5844b	-0.022157809
87	0x3da4a4f5	0.080392756
88	0xbdeadefe	-0.11468314
89	0x3d606a22	0.054788716
90	0xbe5429ee	-0.2071912
91	0xbd744271	-0.059633676
92	0x3cd6d31b	0.02622371
93	0x3dd09904	0.101854354
94	0xbe4b1647	-0.19832717
95	0xbe27b6b0	-0.16378284
96	0xbd16389d	-0.036675084
97	0x3dffa49c	0.124825686
98	0x3db20c47	0.08693748
99	0xbd60e864	-0.054909125
100	0x3d807aca	0.0627342
101	0x3db96e30	0.0905422
102	0xbd842809	-0.064529486
103	0x3d6fa367	0.058505442
104	0x3da109db	0.07863208
105	0x3c7cb867	0.015424824
106	0xbe2770bb	-0.16351597
107	0xbe63da21	-0.22251178
108	0x3e2a9123	0.16656928
109	0xbe250b00	-0.16117477
110	0xbd58cb8f	-0.052928504
111	0xbdfeadce	-0.12435494
112	0xbcf33c54	-0.029691853
113	0x3c4e0639	0.012574726
114	0xbd0ed90c	-0.03487496
115	0x3d850ce2	0.06496598
116	0x3d333258	0.043749183
117	0xbb9e54a0	-0.0048318654
118	0x3dbcab55	0.092123665
119	0xbe42f078	-0.19037044
120	0xbd53ffcc	-0.05175762
121	0xbd19e7a4	-0.037574425
122	0xbb637997	-0.0034709924
123	0x3de86161	0.113466986
124	0x3ca62437	0.02028094
125	0x3dfbb87f	0.12291049
126	0xbe3d66a7	-0.1849619
127	0x3d922e90	0.07137787
128	0x3de1459e	0.109996065
129	0x3dc03b63	0.09386327
130	0x3d022fd1	0.031783883
131	0xbddf27df	-0.10896277
132	0xbe1dc233	-0.15406112
133	0xbdaa5d07	-0.08318525
134	0x3dd52375	0.104071535
135	0x3d1fbca5	0.038998265
136	0xbdd41ff9	-0.10357661
137	0x3dff2c77	0.12459653
138	0x3de63b74	0.112418085
139	0xbd86c2e7	-0.065801434
140	0xbe00fd1e	-0.12596557
141	0xbe3c4ddd	-0.18389077
142	0x3e3a332c	0.18183583
143	0x3c9b0ef4	0.018928029
144	0xbda34522	-0.079721704
145	0xbe3aa9e7	-0.18228875
146	0x3d87b217	0.06625765
147	0x3dc92463	0.09821393
148	0xbe2af0c6	-0.1669341
149	0xbe56f658	-0.2099241
150	0xbd96ba58	-0.07359761
151	0x3d9affa3	0.0756829
152	0x3e185f48	0.14880097
153	0xbcd6d2de	-0.026223596
154	0xbd0a7ff4	-0.03381343
155	0x3dfcd4e3	0.123452924
156	0x3cc549e6	0.02408309
157	0x3e2b5d1b	0.16734736
158	0xbdaccf11	-0.08437932
159	0xb92342f6	-0.00015569836
160	0xbd372412	-0.044712134
161	0x3e46e0fa	0.19421759
162	0xbe5aa843	-0.21353249
163	0x3e292bda	0.16520634
164	0xbda27dde	-0.079341635
165	0x3db05258	0.08609456
166	0x3b95fa48	0.004576955
167	0xbd4bb67b	-0.049734574
168	0x3d00f95b	0.031487804
169	0xbca8677f	-0.020557163
170	0x3d656b18	0.056010336
171	0x3d744b4a	0.059642114
172	0xbd88edd6	-0.066859886
173	0x3e65e685	0.22451217
174	0xbe520d54	-0.20512897
175	0xbda8850f	-0.08228504
176	0x3cb8fc8d	0.022581363
177	0xbd62200e	-0.05520635
178	0x3df5c90b	0.120012365
179	0x3d2eff3c	0.04272388
180	0xbd94f240	-0.07272768
181	0xbd571c15	-0.052517015
182	0x3dcfaef7	0.10140794
183	0xbe13c735	-0.1443146
184	0x3d578d82	0.052625187
185	0x3dcf7fe9	0.10131819
186	0xbdfe7a09	-0.1242562
187	0xba9b936b	-0.0011869496
188	0x3e233563	0.15938334
189	0xbd447070	-0.04795879
190	0x3e05917a	0.13043776
191	0x3c986ed6	0.018607538
192	0x3d337897	0.043816175
193	0x3dd9d29a	0.10635872
194	0xbe56179b	-0.20907442
195	0xbd863bed	-0.06554399
196	0x3af604d7	0.0018769753
197	0x3dfce10a	0.1234761
198	0xbd01e2a4	-0.031710282
199	0xbd9c8d84	-0.076441795
200	0xbd49842d	-0.04919832
201	0xbe4d47eb	-0.20046966
202	0x3e0be386	0.13661012
203	0xbdc17936	-0.09446947
204	0xbda86717	-0.08222788
205	0x3e2b4e75	0.16729148
206	0x3cc27e30	0.023741812
207	0xbd8b6d27	-0.068079285
208	0xbcf52925	-0.029926846
209	0xbc3a4b32	-0.011370467
210	0xbe5c13ca	-0.21491924
211	0x3dc3599f	0.09538578
212	0xbdda87bc	-0.106704205
213	0xbe3c6942	-0.18399528
214	0xbdad4535	-0.08460466
215	0x3dd410eb	0.10354789

Generator.conv1.conv2.0.weight f4 [8, 8, 3, 3, 3]
0	0x3e082c56	0.13298163
1	0x3d479845	0.0487292
2	0x3d767262	0.060167678
3	0xbbd3ff02	-0.0064696083
4	0xbd4490b2	-0.047989555
5	0x3d043011	0.032272402
6	0x3e37de3f	0.17955874
7	0x3e0f48c0	0.13992596
8	0x3e93c8c1	0.288641
9	0x3c1cbcfd	0.009566543
10	0x3c5a50bb	0.013324912
11	0x3ca84f07	0.020545496
12	0x3d0a3f1a	0.033751585
13	0x3dbe8652	0.09302963
14	0xbc954306	-0.018220436
15	0x3d8adab8	0.067799985
16	0xbc8ff674	-0.017573573
17	0x3dfa0343	0.122076534
18	0x3d211260	0.039324164
19	0x3e186db0	0.14885592
20	0x3e0ecb4e	0.13944742
21	0x3e07395a	0.13205472
22	0x3e25f33e	0.16206071
23	0x3e125e34	0.14293748
24	0x3e147d13	0.14500837
25	0x3e237672	0.15963152
26	0x3e38a27e	0.18030736
27	0xbe0fb5c1	-0.14034177
28	0xbd67d1be	-0.05659651
29	0xbe29acfe	-0.16569898
30	0xbd70b5b6	-0.058767043
31	0xbd364768	-0.044501692
32	0xbe46d8b8	-0.19418609
33	0xbcd3da8c	-0.025861047
34	0x3d840b49	0.06447465
35	0xbdb057c3	-0.08610489
36	0xbdf3bddc	-0.11901447
37	0x3e2411ab	0.16022365
38	0xbe42ce34	-0.19023973
39	0xbd5d1140	-0.05397153
40	0x3df14816	0.117813274
41	0xbece5aa1	-0.4030352
42	0xbd3475ca	-0.044057645
43	0x3d89cb0e	0.06728183
44	0x3cb37b4a	0.021909375
45	0x3cef9b76	0.029248934
46	0x3e4974df	0.19673489
47	0xbe9902bf	-0.29884908
48	0xbd6ee89e	-0.05832731
49	0x3e03ecd8	0.12883317
50	0xbeca636c	-0.39528978
51	0xbdbb4dcd	-0.09145699
52	0x3c955527	0.01822908
53	0x3bb7d108	0.0056096353
54	0x3df5c4de	0.1200044
55	0x3cb52077	0.022110207
56	0x3cf02ce7	0.029318286
57	0xbb41001a	-0.0029449523
58	0xbd714f01	-0.058913235
59	0xbc940161	-0.018067064
60	0x3d581edc	0.052763805
61	0x3c794537	0.015214256
62	0xbd2c3db5	-0.042051036
63	0x3e15b22f	0.14618753
64	0x3d01e065	0.03170814
65	0x3c53e6bc	0.012933429
66	0x3c2365c9	0.009972998
67	0x3d36ec8c	0.044659182
68	0x3dca22be	0.09869908
69	0x3df6c1d1	0.12048686
70	0x3d2d3893	0.04229028
71	0x3d567669	0.05235902
72	0x3d4ca42d	0.049961258
73	0x3c829d91	0.015944274
74	0x3dc5fd6b	0.09667476
75	0xbdb1d819	-0.086837955
76	0x3b4215e9	0.002961511
77	0x3c86f153	0.016472494
78	0x3dbe9a73	0.093068026
79	0x3dca6cb7	0.09884017
80	0x3d7df4f5	0.062001187
81	0xbcc456e0	-0.023967206
82	0x3d7d5945	0.061852712
83	0x3d29fb17	0.041499224
84	0x3e0f62ac	0.14002484
85	0x3b066373	0.0020506054
86	0xbbce29ae	-0.0062915897
87	0x3c06074d	0.008180452
88	0xbd2352c0	-0.03987384
89	0x3c0ed01f	0.008716612
90	0x3caa7a81	0.020810368
91	0x3c91c85e	0.017795738
92	0x3d2e9a32	0.04262752
93	0xbd3a9e30	-0.045561016
94	0x3c726079	0.014793509
95	0x3d6b216c	0.05740492
96	0xbd0f2734	-0.034949496
97	0x3cbeba8b	0.02328231
98	0x3ce5e790	0.02806452
99	0x3d88c6aa	0.06678517
100	0xbd3d7e0a	-0.04626278
101	0xbd472c4e	-0.048626237
102	0xbbfe46a6	-0.007759887
103	0x3d1c67c2	0.03818489
104	0x3d554155	0.05206426
105	0x3cf802a2	0.030274693
106	0x3d1d684e	0.03842955
107	0x3c9cf885	0.019161472
108	0x3d4ee195	0.0505081
109	0xbe200cd7	-0.15629898
110	0xbdfb3f70	-0.12267959
111	0xbce2ecc8	-0.027700797
112	0x3be4dbd5	0.006984214
113	0xbe0320bb	-0.12805454
114	0x3d18dd9a	0.03732071
115	0x3c5d519b	0.013508226
116	0x3d8557fa	0.06510921
117	0xbd7fd4d0	-0.062458813
118	0x3d0525fd	0.03250693
119	0x3e0053b1	0.12531926
120	0xbcb3f2ce	-0.021966364
121	0x3db9810a	0.090578154
122	0x3ddf13dd	0.108924605
123	0xbdd69a8e	-0.10478698
124	0x3e041fc1	0.12902738
125	0x3db3475e	0.087538466
126	0xbdba9c40	-0.091118336
127	0x3e307cb7	0.17235075
128	0x3df8bc24	0.1214526
129	0xbd814826	-0.06312589
130	0x3e1f211e	0.15539977
131	0x3b055b40	0.0020348579
132	0xbe86b2b9	-0.2630823
133	0x3dd6ef61	0.10494877
134	0x3c337bb0	0.010954782
135	0x3bdc4024	0.0067215133
136	0x3e27666f	0.16347669
137	0x3d44595c	0.047936782
138	0xbd0d1c94	-0.034451082
139	0x3d3469c0	0.044046164
140	0xbd86e6c4	-0.06586984
141	0x3d349ee5	0.044096846
142	0xbe1b063c	-0.15139097
143	0xbd81d74a	-0.06339891
144	0xbe3609c9	-0.1777717
145	0x3e1e9ecf	0.15490268
146	0x3d58e7cd	0.052955437
147	0xbd9b53a5	-0.07584313
148	0x3daa8b9b	0.08327409
149	0xbc300f69	-0.010745862
150	0x395ebe8a	0.00021242551
151	0xbc4100d3	-0.011779982
152	0xbdd714e0	-0.105020285
153	0xbd5baa21	-0.053629044
154	0x3e2cb14e	0.16864511
155	0x3dcc3cdf	0.09972548
156	0xbd1605ad	-0.036626507
157	0x3e3a455a	0.18190518
158	0x3da58f82	0.080840126
159	0xbdba9f68	-0.091124356
160	0xbd0d527a	-0.034502484
161	0xbc96b600	-0.018397331
162	0x3d78a01d	0.06069957
163	0xbdd28485	-0.10279182
164	0xbe093aaf	-0.13401292
165	0x3d74dfb2	0.059783645
166	0xbd8c1b1d	-0.06841109
167	0xbd9ac59b	-0.075572215
168	0x3e03f021	0.1288457
169	0xbe1c9d9e	-0.15294501
170	0xbaf0b450	-0.0018364284
171	0x3d48dead	0.049040485
172	0xbe22c57b	-0.15895645
173	0xbcace500	-0.02110529
174	0x3ce7e720	0.028308451
175	0xbc4ca919	-0.012491488
176	0xbd8fe37d	-0.07025812
177	0xbd4b66bd	-0.049658526
178	0xbe0b23eb	-0.1358792
179	0xbc7d21d4	-0.01544996
180	0x3d2f3a20	0.04278004
181	0xbd339511	-0.043843333
182	0x3de02775	0.10945026
183	0xbc4a33cd	-0.012341452
184	0x3dc8d2d6	0.09805839
185	0x3dab514b	0.08365115
186	0xbd8e26fa	-0.06941028
187	0xbe968f81	-0.2940636
188	0xbcde27b9	-0.02711855
189	0xbbcd526b	-0.0062659285
190	0xbd904b7b	-0.07045647
191	0x3b8ab2f3	0.004232758
192	0x3d306a4f	0.043070134
193	0x3ce819d4	0.028332628
194	0x3d377482	0.044788845
195	0x3d4b1fb5	0.049590785
196	0xbd8cf1fc	-0.06882092
197	0x3c2e9b2b	0.010657112
198	0x3adff1ec	0.0017085648
199	0xbe5f5df3	-0.21813183
200	0x3d331137	0.04371759
201	0xbb3b218b	-0.0028553929
202	0xbe2dbf2b	-0.16967456
203	0x3dd2d7f3	0.10295095
204	0x3dab3b47	0.08360916
205	0xbe7c02fd	-0.24610515
206	0x3d5c808b	0.053833526
207	0xbde6e075	-0.112732805
208	0x3dc052c3	0.093907855
209	0xbe1a4d44	-0.15068537
210	0xbe22a573	-0.15883426
211	0x3e1a174a	0.15047947
212	0xbe18e703	-0.14931874
213	0xbe63f37a	-0.22260848
214	0x3d8e6634	0.069530874
215	0xbded8de6	-0.115993306
216	0x3e48c65a	0.19606915
217	0x3e5b7b90	0.21433854
218	0x3e8a2d4b	0.2698768
219	0xbc0ee6a9	-0.008721986
220	0x3d6c4ef0	0.05769247
221	0x3df0f367	0.11765175
222	0x3e90ce1e	0.28282255
223	0x3e924096	0.285649
224	0x3e875c8b	0.26437792
225	0x3df3f4ea	0.11911948
226	0x3d630025	0.05542006
227	0x3e35db96	0.17759547
228	0x3cc59b01	0.024121763
229	0x3d7a44f4	0.061100915
230	0x3d47737b	0.048694115
231	0x3d84eb77	0.06490224
232	0xb9ab9420	-0.00032726023
233	0x3d9648f4	0.073381335
234	0x3d914022	0.070923105
235	0x3dbfa507	0.09357648
236	0x3ceb855d	0.028750116
237	0x3dcd8ffa	0.10037227
238	0x3da8282c	0.08210787
239	0x3daaeaf8	0.08345598
240	0x3d8fbaf6	0.07018082
241	0x3b9f3f7b	0.0048598624
242	0x3dda787d	0.106675126
243	0xbd9e0067	-0.077149205
244	0xbd4f307a	-0.05058334
245	0xbd34c8cb	-0.044136804
246	0xbd4e9501	-0.05043507
247	0xbdae7206	-0.08517842
248	0x3c22a0b6	0.009926012
249	0x3ce5683f	0.02800381
250	0x3bf2537f	0.0073952074
251	0x3bbe73a1	0.005812124
252	0x3d971343	0.07376721
253	0xbc813f34	-0.015777208
254	0xbb915e36	-0.0044362796
255	0x3d934909	0.07191665

Generator.conv2.conv1.0.weight f4 [8, 8, 3, 3, 3]
0	0x3da621a3	0.081118844
1	0xbc232550	-0.009957626
2	0xbc13e644	-0.009027068
3	0x3e5b9b8b	0.21446054
4	0x3dcf45cf	0.10120737
5	0xbd77b5ef	-0.06047624
6	0xbe347269	-0.17621769
7	0xbbcaba23	-0.00618674
8	0x3d72d303	0.059283268
9	0xbd95a863	-0.07307508
10	0xbd206970	-0.039163053
11	0x3bb4aa2f	0.0055134515
12	0xbda8428a	-0.08215816
13	0x3c1f977a	0.009740705
14	0x3cdb42a1	0.02676517
15	0xbd06cb01	-0.032908443
16	0xbd9ad9f6	-0.07561104
17	0x3da3aa64	0.07991484
18	0x3c92d900	0.01792574
19	0xbd618bc6	-0.05506494
20	0xbc85d667	-0.016337587
21	0xbb717410	-0.003684286
22	0xbd320bc2	-0.043468244
23	0x3d0f7901	0.035027508
24	0x3cdbb0a7	0.026817633
25	0xbca759f5	-0.020428637
26	0x3d7b6b2c	0.061381504
27	0x3d4bdafe	0.049769394
28	0xbd088b5b	-0.033336025
29	0xbd65ccfa	-0.056103684
30	0x3a31e2b6	0.0006785797
31	0xbc267c2c	-0.010161441
32	0xbd1b2166	-0.037873648
33	0x3d5e272a	0.05423657
34	0x3d94415e	0.0723903
35	0x3bf60711	0.0075081666
36	0xbe1d643e	-0.1537027
37	0xbe098417	-0.13429295
38	0xbda310fa	-0.079622224
39	0xbdba3310	-0.09091771
40	0xbd86410d	-0.06555376
41	0xbd865cec	-0.06560692
42	0x3dd9c30c	0.10632905
43	0xbc2ba2b5	-0.010475804
44	0xbcf9e877	-0.030506356
45	0xbd3caa0d	-0.04606061
46	0xbd77db42	-0.060511835
47	0xbe26ed58	-0.16301477
48	0x3b081892	0.0020766598
49	0xbd822505	-0.06354717
50	0xbdcde54a	-0.10053499
51	0x3da8b899	0.08238334
52	0xbb7c12be	-0.003846332
53	0xbd699b31	-0.057032768
54	0x3a563f5d	0.0008172894
55	0x3d9a6510	0.075388074
56	0x3e24bc13	0.1608737
57	0x3ce1633b	0.027513137
58	0x3cc8520d	0.024453187
59	0x3e44dfac	0.19225949
60	0xbd0df9c4	-0.034662023
61	0xbd43c312	-0.047793455
62	0x3d15e3b3	0.036594104
63	0xbde2b8d6	-0.11070411
64	0x3c9bbff0	0.019012421
65	0x3d6a398c	0.057183787
66	0xbd752543	-0.05984999
67	0x3a0d53ad	0.0005391192
68	0x3dabe856	0.08393924
69	0xbe34416d	-0.17603083
70	0xbd11a070	-0.035553396
71	0x3cf57ad8	0.029965803
72	0xbdc12c58	-0.09432286
73	0xbc02652d	-0.0079586925
74	0x3da21663	0.07914426
75	0xbdf321bd	-0.118716694
76	0x3d8d33dc	0.06894657
77	0x3e045c07	0.1292573
78	0xbdddd9e6	-0.108325765
79	0xbd79d97f	-0.060998436
80	0x3d836908	0.064165175
81	0xbb372004	-0.0027942667
82	0xbce7c442	-0.028291825
83	0x3d52cf1f	0.051467057
84	0xbddc1086	-0.10745339
85	0xbd85c530	-0.06531751
86	0xbc44c8db	-0.012010778
87	0xbc63d735	-0.01390629
88	0xbd0a1e0a	-0.033720054
89	0x3dba4140	0.09094477
90	0x3e21807d	0.1577167
91	0x3ba9c4b0	0.0051809177
92	0x3d890135	0.06689683
93	0x3cf7eb50	0.030263573
94	0xbca545de	-0.020174917
95	0x3c7f5a09	0.015585431
96	0x3c4a2fb2	0.012340473
97	0xbd5298a4	-0.0514151
98	0x3d0d7d34	0.03454323
99	0x3c1d2e46	0.009593552
100	0x3c80b9cf	0.0157136
101	0xbc9464a4	-0.018114395
102	0xbdd3da1b	-0.10344335
103	0xbd202fd7	-0.039108124
104	0x3d817c53	0.06322541
105	0x38dc84da	0.00010515163
106	0xbd19a704	-0.037512794
107	0x3c82e405	0.015977869
108	0x3d782d8f	0.060590323
109	0x3d5c1dc2	0.053739317
110	0xbd083fcc	-0.033263966
111	0x3c7f3455	0.015576442
112	0xbcd05ed1	-0.025435837
113	0x3cc6d268	0.024270251
114	0xbc1f3edd	-0.009719578
115	0xba2c24cc	-0.00065667625
116	0x3cdda1aa	0.027054626
117	0x3d02cd6e	0.031934194
118	0x3c5cbf90	0.013473406
119	0x3d816573	0.06318178
120	0x3d684066	0.05670204
121	0x3d96da06	0.073658034
122	0x3da64f9a	0.081206515
123	0x3d9bc89a	0.07606621
124	0xbca06aaa	-0.019582111
125	0x3de3a13a	0.11114736
126	0xbd1a6954	-0.037698105
127	0x3c19084e	0.009340359
128	0x3d85b037	0.06527751
129	0xbd66c100	-0.056336403
130	0x3d0d1442	0.034443147
131	0x3d80dd58	0.06292218
132	0x3c6dd102	0.014515163
133	0xbd0a476b	-0.033759516
134	0xbd668a84	-0.056284443
135	0xbc4f6a92	-0.012659686
136	0x3db54c95	0.088524975
137	0x3d024f70	0.03181404
138	0xbba47b60	-0.0050195903
139	0x3dabfe87	0.083981566
140	0x3d7be5dd	0.06149851
141	0xbc4de49c	-0.012566712
142	0xbd7b6bf1	-0.061382238
143	0xbcc84db0	-0.024451107
144	0xbd215b78	-0.039393872
145	0xbc83d1a5	-0.016091177
146	0xbc9510b9	-0.01819645
147	0xbd924a3e	-0.07143067
148	0xbd910af3	-0.070821665
149	0xbd554c55	-0.05207475
150	0xbd84430a	-0.06458099
151	0xbdcfefd3	-0.10153165
152	0x3d543a83	0.051813614
153	0xbd6164ca	-0.05502776
154	0xbd135b35	-0.035975654
155	0xbc9b91f1	-0.018990489
156	0xbdf049db	-0.11732837
157	0xbd175b7a	-0.036952473
158	0xbdcf6ffc	-0.10128781
159	0xbe2347a0	-0.15945292
160	0xbe4267d3	-0.18984918
161	0x3da143b6	0.07874243
162	0x3da4f319	0.0805418
163	0x3d92bc6c	0.07164845
164	0x3da731f8	0.08163828
165	0x3d964c95	0.073388256
166	0x3c2ee605	0.010674958
167	0x3cf5feb3	0.030028677
168	0x3bea0ac7	0.007142398
169	0x3db376ff	0.08762931
170	0x3cb12893	0.021625793
171	0x3caa8269	0.020814138
172	0x3b662489	0.0035116991
173	0xbb7d0bcf	-0.0038611775
174	0x3d6e56c3	0.05818821
175	0x3da83e62	0.082150236
176	0x3dc9a18d	0.098452665
177	0x3db224d1	0.086984284
178	0x3d37937b	0.044818383
179	0x3d9145e8	0.07093412
180	0x3d74209a	0.059601404
181	0x3bbec9fe	0.005822419
182	0xbc932d1c	-0.017965846
183	0xbd5e3d9b	-0.05425797
184	0x3d6df963	0.05809916
185	0xbc9685e2	-0.018374387
186	0x3d060c10	0.032726347
187	0xbd71cb78	-0.059031934
188	0x3c8eca57	0.017430468
189	0xbc087f61	-0.008331151
190	0xbcb4d7ba	-0.022075523
191	0x3d364c84	0.044506565
192	0xbd840c4e	-0.064476594
193	0xbd59f845	-0.053215284
194	0x3d398780	0.04529524
195	0xbde06785	-0.10957245
196	0xbd8acef5	-0.06777755
197	0xbaec8533	-0.0018045068
198	0xbd097404	-0.033557907
199	0xbd837099	-0.06417961
200	0x3cad6f60	0.021171272
201	0xbdab5d19	-0.08367366
202	0xbd131a14	-0.035913542
203	0x3d547bb5	0.05187579
204	0xbd89bf03	-0.06725886
205	0xbdb1525f	-0.08658289
206	0x3dca74be	0.09885548
207	0xbdadbdbc	-0.084834546
208	0xbd808006	-0.062744185
209	0x3d17be0b	0.037046473
210	0xbcac2c41	-0.021017196
211	0x3be29f1a	0.006915939
212	0x3d882681	0.06647969
213	0xbdbb0842	-0.091324344
214	0xbd66897a	-0.05628345
215	0x3cfdbc6f	0.030973641
216	0xbdad63be	-0.0846629
217	0xbde41162	-0.11136128
218	0x3e1a2edd	0.1505694
219	0xbdca7edd	-0.098874785
220	0xbb47a269	-0.0030461794
221	0x3d1d4d10	0.03840357
222	0x3d77957f	0.060445305
223	0xbd105552	-0.035237618
224	0x3e1196d2	0.1421769
225	0xbd2aba84	-0.04168178
226	0xbcc2fef4	-0.023803212
227	0x3d7a51dd	0.061113227
228	0xbcb23c39	-0.021757232
229	0x3c8d556c	0.017252646
230	0x3d37d69c	0.0448824
231	0x3d416a55	0.047220547
232	0x3da941c1	0.08264495
233	0x3cb44d6e	0.022009578
234	0x3c5a8370	0.013337001
235	0xbdb8f398	-0.09030837
236	0xbcaa42df	-0.02078384
237	0x3d894e55	0.06704394
238	0x3bd4542f	0.006479762
239	0xbc39c92b	-0.011339466
240	0x3d8343f2	0.06409444
241	0x3db8ad2d	0.09017406
242	0x3c9e25e4	0.019305177
243	0xbd0587a8	-0.032600075
244	0xbc0c6f79	-0.008571499
245	0x3c3e4cac	0.01161496
246	0xbd80d6fc	-0.06291005
247	0x3d2d0f6a	0.042251028
248	0x3d02c50f	0.03192621
249	0x3c61ab83	0.013773802
250	0x3d20ea21	0.039285783
251	0xbcb87f0d	-0.02252152
252	0xbe01ae66	-0.12664184
253	0xbdf899f8	-0.12138742
254	0xbd8eda06	-0.069751784
255	0xbda6ee18	-0.081508815

Generator.conv2.conv2.0.weight f4 [8, 8, 3, 3, 3]
0	0x3d9708c7	0.07374721
1	0xbd533900	-0.05156803
2	0x3c6e08da	0.014528478
3	0x3d8d37d0	0.06895411
4	0x3db71a28	0.08940536
5	0x3d81815a	0.063235
6	0x3d3e5799	0.04647026
7	0x3d67e1c2	0.056611784
8	0x3de23e0d	0.110469915
9	0x3de0ef46	0.10983138
10	0xbbcca30e	-0.0062450236
11	0x3d792afe	0.060832016
12	0x3cb44869	0.022007184
13	0x3c851d08	0.016249195
14	0xbd1d7ae7	-0.038447287
15	0x3d94254e	0.07233678
16	0xbd243419	-0.040088747
17	0x3cec1f40	0.028823495
18	0x3bffec4f	0.0078101526
19	0xbd760b82	-0.06006957
20	0xbd0fc7fe	-0.035102837
21	0x3d57f584	0.052724376
22	0xbdb0b0a3	-0.08627441
23	0xbdab5807	-0.08366399
24	0xbdb88f3b	-0.09011694
25	0xbd0880ef	-0.033326086
26	0xbd35dcb7	-0.044399943
27	0x3dce4334	0.10071412
28	0x3da98b99	0.08278579
29	0x3b0aef79	0.0021199866
30	0x3d438f77	0.04774424
31	0x3db5e8f9	0.08882327
32	0x3e23bfa8	0.1599108
33	0x3d976a6e	0.07393347
34	0x3d64c2ae	0.055849724
35	0x3dc4c669	0.09608156
36	0x3d8498e3	0.06474473
37	0x3c57fd10	0.013182893
38	0xbd0c4a7f	-0.034250733
39	0x3b8b82da	0.004257542
40	0x3dba991d	0.09111235
41	0x3d0fec8c	0.035137698
42	0xbb80009f	-0.003906324
43	0xba938f64	-0.0011257944
44	0x3dd3b28f	0.10336792
45	0x3a2e3c41	0.0006646552
46	0x3d6e32c2	0.058153875
47	0xbcc2cea8	-0.023780182
48	0x3d29286f	0.041298326
49	0x3d0c732c	0.034289524
50	0x3d0065a1	0.03134692
51	0xbcc40b7a	-0.023931254
52	0x3d944ba3	0.07240989
53	0x3d1070b2	0.035263725
54	0x3e66456f	0.22487424
55	0x3dc109d4	0.09425703
56	0x3d37ffd5	0.044921715
57	0xbd02003e	-0.031738512
58	0xbddb869c	-0.10719034
59	0xbdd12a3c	-0.10213134
60	0x3d6354af	0.055500682
61	0xbbdd8636	-0.006760384
62	0xbd521a9f	-0.05129492
63	0x3b9571c8	0.004560683
64	0xbdc465e1	-0.09589744
65	0xbbbc4128	-0.005745072
66	0xbdd35a7e	-0.103199944
67	0xbddf7813	-0.10911574
68	0xbe45d72f	-0.19320367
69	0x3ce7f2a3	0.02831394
70	0xbb92f59f	-0.0044848467
71	0xbe1db9d6	-0.15402922
72	0xbbf74258	-0.0075457506
73	0xbd554411	-0.052066866
74	0x3def4327	0.1168273
75	0xbd915660	-0.07096553
76	0xbe1bd1e2	-0.15216783
77	0xbc63b985	-0.013899212
78	0x3da6ee6a	0.081509426
79	0x3cd3de11	0.025862725
80	0xbd085f5f	-0.033294078
81	0x3da6ed0f	0.08150684
82	0x3d9eb9d5	0.077502884
83	0x3e0b2675	0.13588889
84	0x3be9aac5	0.007130953
85	0x3d325beb	0.04354469
86	0x3c041c9a	0.00806346
87	0x3dab7caf	0.08373391
88	0x3c4b961f	0.012425928
89	0x3aff7482	0.0019489678
90	0x3e1ecd34	0.15507966
91	0x3bfef90e	0.0077811545
92	0x3d913bbd	0.07091472
93	0xbc8ad0e2	-0.016945306
94	0xbdc7bdab	-0.09752973
95	0xbdc46196	-0.095889255
96	0xbc89e6fe	-0.016833778
97	0xbdea68c4	-0.11445764
98	0x3ccf8e24	0.025336333
99	0xbba1a1f9	-0.0049326387
100	0xbd952fd8	-0.07284516
101	0x3d4706d2	0.04859049
102	0xbd989416	-0.0745012
103	0xbd9678e7	-0.07347279
104	0xbd60409b	-0.054749113
105	0x3d828a6a	0.06374057
106	0xbdafae49	-0.08578164
107	0xbcd91b1c	-0.026502185
108	0xbd43ab73	-0.04777093
109	0xbd31d936	-0.04342004
110	0xbcdd7842	-0.027034882
111	0x3d88be10	0.066768765
112	0x3d7f1479	0.062275384
113	0xbba24ac8	-0.0049527623
114	0x3df6b1ea	0.12045653
115	0x3d7afcc1	0.0612762
116	0x3d5e1234	0.05421658
117	0xbe1107a2	-0.14163068
118	0xbde6a34f	-0.112616174
119	0x3b3f3fe8	0.0029182378
120	0xbda9cb05	-0.08290676
121	0xbda59181	-0.08084393
122	0xbc82616a	-0.015915591
123	0x3d151782	0.036399372
124	0xbcea759e	-0.028620537
125	0x3d27e198	0.040986627
126	0xbe286766	-0.16445693
127	0xbdea95fa	-0.11454387
128	0xbc8d4868	-0.01724644
129	0x3df05ff3	0.11737051
130	0x3d76f429	0.060291443
131	0xbcf95f14	-0.030440845
132	0x3dce6304	0.100774795
133	0xbd20b6f0	-0.039236963
134	0xbde6dd00	-0.11272621
135	0x3cd9da74	0.026593424
136	0xbe349b63	-0.176374
137	0xbdfca453	-0.1233603
138	0xbd966c9a	-0.07344933
139	0xbe6bf499	-0.23042525
140	0x3c0bc392	0.008530514
141	0xbe11136b	-0.14167564
142	0xbe2a8d70	-0.16655517
143	0x3e257209	0.16156782
144	0x3baa5ed4	0.0051992927
145	0x3cba2eb1	0.022727342
146	0xbd53ed53	-0.051740002
147	0xbb170600	-0.0023044348
148	0xbd891c9d	-0.06694911
149	0xbdbc3cf3	-0.09191313
150	0x3db2f1cb	0.087375246
151	0xbde2caee	-0.11073862
152	0xbd8d1f13	-0.068906926
153	0x3dd59913	0.10429587
154	0x3ceceb43	0.028920775
155	0x3dc8ff57	0.09814327
156	0x3d8a018c	0.06738576
157	0xbb75c1c7	-0.0037499534
158	0xbdd28e9c	-0.10281107
159	0x3e4008a1	0.18753292
160	0xbce6ac7d	-0.02815842
161	0x3d50f36d	0.0510134
162	0x3de513ab	0.11185392
163	0x3c7333db	0.014843906
164	0x3e46b60c	0.19405383
165	0xbabe8f7c	-0.0014538611
166	0xbd5e0c90	-0.0542112
167	0xbdbbdbb6	-0.09172766
168	0x3daefed7	0.085447006
169	0xbda29df0	-0.079402804
170	0xbd4c727b	-0.049913865
171	0x3db0c2a9	0.086308785
172	0x3d3fca26	0.046823643
173	0x3e486e34	0.19573289
174	0x3de52879	0.1118936
175	0x3c53950e	0.012913955
176	0xbc349070	-0.011020765
177	0xbb492616	-0.0030692867
178	0xbc6848bf	-0.0141775
179	0xbdc674f8	-0.09690279
180	0xbd13c887	-0.03607991
181	0x3dd9bedb	0.10632106
182	0x3cbb3d51	0.022856386
183	0x3c3bf531	0.011472032
184	0x3d5636b1	0.05229825
185	0xbe040b15	-0.12894852
186	0x3d62e46f	0.055393633
187	0xbc990706	-0.018680107
188	0xbdf83703	-0.12119868
189	0xbd2414c9	-0.040058885
190	0xbd8670a2	-0.06564452
191	0xbdc8eaf2	-0.09810437
192	0xbd958d58	-0.0730235
193	0xbd9a5dac	-0.07537398
194	0xbda467d3	-0.080276154
195	0xbd1f8c7c	-0.038952336
196	0xbbe6b7e3	-0.007040964
197	0x3ccc139f	0.0249117
198	0xbd44a1a7	-0.048005726
199	0x3c1ed00a	0.009693155
200	0xbd34db5a	-0.044154502
201	0xbc5da813	-0.013528842
202	0xbd6754e1	-0.05647743
203	0xbcbf3cbe	-0.023344394
204	0x3d4c0e9e	0.049818628
205	0x3d246517	0.04013547
206	0x3b81f567	0.003966022
207	0x3e16dbb8	0.14732254
208	0x3deb7dd5	0.1149861
209	0x3e09804f	0.13427852
210	0x3d4131ce	0.047166638
211	0x3dcc3b77	0.099722795
212	0xbc735d7c	-0.014853831
213	0x3e1e3f80	0.15453911
214	0x3ce5a442	0.028032426
215	0xbc188ea8	-0.009311356
216	0xbe175538	-0.14778602
217	0xbd96a04a	-0.073547915
218	0x3cab2bba	0.020894874
219	0xbd9951be	-0.07486294
220	0xbd71b63c	-0.059011683
221	0xbdbe709e	-0.09298824
222	0xbe1bd290	-0.15217042
223	0xbc37a64b	-0.011209081
224	0xbca87daa	-0.020567734
225	0x3d7892d4	0.0606869
226	0x3d4d8aec	0.050181314
227	0x3bf239b3	0.007392132
228	0x3d858dc1	0.06521178
229	0x3d23c8e8	0.03998652
230	0x3c75a813	0.014993685
231	0xbc099a98	-0.008398674
232	0x3b2da618	0.0026496705
233	0x3d4b758a	0.04967264
234	0x3d4117b7	0.047141757
235	0x3dcb9630	0.09940755
236	0x3d929afc	0.07158467
237	0x3e1b8442	0.15187171
238	0x3dd68636	0.104748175
239	0x3d8e5671	0.06950081
240	0x3e087e1a	0.13329354
241	0x3cbc31d6	0.022972982
242	0x3cfd3de4	0.0309133
243	0xbe0c77cb	-0.13717572
244	0xbdd1b02a	-0.10238679
245	0x3d45570a	0.04817871
246	0xbdedb957	-0.116076164
247	0xbdb088f1	-0.086198695
248	0xbcc618c6	-0.024181735
249	0xbe81bee0	-0.2534094
250	0xbdde4a8a	-0.10854061
251	0x3ba64bb8	0.0050749443
252	0x3ced0863	0.028934663
253	0x3d029d6c	0.03188841
254	0xbd071e1f	-0.03298771
255	0x3ce72815	0.028217355

Generator.conv3.conv1.0.weight f4 [8, 8, 3, 3, 3]
0	0x3c2ddace	0.010611249
1	0x3d97cf0b	0.07412537
2	0xbc32f8ec	-0.010923605
3	0xbca74078	-0.020416483
4	0x3b057da6	0.0020369082
5	0x3d27a9fc	0.040933594
6	0x3dbc8687	0.092053466
7	0xbc91c4bd	-0.017794007
8	0x3bac171a	0.0052517774
9	0xbcde7750	-0.027156502
10	0x3cd52e5e	0.026023086
11	0xbd6bc369	-0.057559405
12	0x3c8fbca3	0.017546004
13	0xbccac825	-0.02475364
14	0xbda72877	-0.08162015
15	0xbd112efb	-0.035445195
16	0x3d362e5d	0.04447781
17	0xbcf09eec	-0.029372655
18	0xbcf377a0	-0.029720128
19	0x3d923778	0.07139486
20	0xbc0707c0	-0.008241594
21	0x3d544e78	0.051832646
22	0xbd8b8f64	-0.06814459
23	0xbbc23c8b	-0.0059276274
24	0xbd36b195	-0.04460295
25	0x3cb38ace	0.021916773
26	0xbd5bd7e2	-0.05367268
27	0xbd3bcd35	-0.045849998
28	0x3c6f818f	0.0146182915
29	0x3d12849d	0.035771
30	0x3be4f57e	0.0069872728
31	0xbc7b1c88	-0.015326627
32	0xbd97ed9b	-0.074183665
33	0x3d73c967	0.059518244
34	0xbd5c0305	-0.053713817
35	0x3d2639ee	0.04058259
36	0x3c04638c	0.008080374
37	0x3d78ffcf	0.060790833
38	0x3e086be4	0.13322407
39	0xbc76609c	-0.015037682
40	0xbccb80c5	-0.024841676
41	0xbda57eae	-0.08080803
42	0xbbc04444	-0.005867513
43	0xbdd1ab25	-0.10237721
44	0x3cb3b861	0.021938505
45	0x3a50c1dc	0.00079634576
46	0x3d955ddc	0.07293293
47	0xbd0760fb	-0.033051472
48	0x3d41fccd	0.04736023
49	0xbd06ddf7	-0.032926526
50	0xbd7614e7	-0.060078528
51	0xbd418a44	-0.047251
52	0xbda5d804	-0.08097842
53	0x3c8bb232	0.017052744
54	0xbd1b8531	-0.037968818
55	0xbb8317f4	-0.004000658
56	0xbce49db8	-0.027907237
57	0xbd3fc499	-0.04681835
58	0xbd058a64	-0.032602683
59	0x3cf2fd21	0.029661717
60	0xbaf4fef3	-0.0018691703
61	0xbc9385f9	-0.01800822
62	0xbadd3104	-0.001687557
63	0x3d1b7f15	0.03796299
64	0x3d10fd7c	0.03539799
65	0x3d7e50f9	0.06208894
66	0xbd15ee68	-0.036604315
67	0x3dc0870d	0.09400759
68	0x3d92f32b	0.07175287
69	0xbd0a9a07	-0.0338383
70	0x3c061aa6	0.008185064
71	0xbcbf1652	-0.023326073
72	0x3d297b31	0.04137725
73	0xbd82a7e9	-0.063796826
74	0x3ce986f9	0.028506743
75	0xbc88944f	-0.016672282
76	0x3d625dda	0.055265285
77	0xbc9f1638	-0.019419774
78	0x3d716320	0.058932424
79	0xbd497790	-0.04918629
80	0xbd33beb8	-0.043883055
81	0x3ce1ba48	0.027554646
82	0x3b000e81	0.0019539895
83	0x3c64b9ce	0.013960315
84	0xbbe2f998	-0.0069267265
85	0x3ca82257	0.020524187
86	0xbd3d9791	-0.046287123
87	0x3dab17ea	0.083541706
88	0xbc857ad2	-0.016293917
89	0x3d7fad4f	0.06242114
90	0xbc3cf811	-0.011533753
91	0x3d3b7c2a	0.04577271
92	0x3d15901e	0.036514394
93	0xbd2b0ef5	-0.04176231
94	0x3d84eab6	0.0649008
95	0xbd4835c7	-0.04887941
96	0xbd9588d7	-0.07301491
97	0xbd16a12a	-0.03677479
98	0xbc42aeb3	-0.011882472
99	0xbd3ae17e	-0.045625202
100	0x3d679340	0.056536913
101	0xbc9e6757	-0.019336386
102	0x3d974eac	0.07388052
103	0x3de9c3a3	0.11414268
104	0x3d23dd5b	0.040006023
105	0xbbec25e4	-0.0072066654
106	0xbd18d9cd	-0.037317086
107	0xbdca571b	-0.09879895
108	0x3d681f04	0.056670204
109	0xbce58ba1	-0.028020682
110	0x3bf1164d	0.007357395
111	0x3d8f2388	0.06989199
112	0xbd0d9cc5	-0.034573335
113	0x3d122391	0.03567845
114	0x3d9a8955	0.07545725
115	0x3d3fcebc	0.046828017
116	0xbd72261b	-0.05911837
117	0x3d29948c	0.04140143
118	0x3d831bf5	0.06401817
119	0x3d6dad6e	0.058026724
120	0x3a56aebd	0.000818949
121	0x3d522257	0.05130228
122	0x3da2938f	0.07938301
123	0x3d024663	0.031805407
124	0x3d97d94e	0.074144945
125	0xbd89de76	-0.06731884
126	0xbc87d5dc	-0.016581468
127	0xbbc2aa79	-0.005940732
128	0x3cf05b95	0.029340545
129	0xbd912f8b	-0.07089146
130	0xbd34e37b	-0.044162255
131	0xbcbbddc9	-0.022932904
132	0x3d3b8d00	0.045788765
133	0xbd568c30	-0.052379787
134	0xbd21f5ba	-0.039540984
135	0xbd63815e	-0.055543296
136	0x3d523af0	0.05132574
137	0x3cafa5d9	0.021441387
138	0x3c181ee7	0.009284711
139	0x3d757e80	0.059935093
140	0xbd811617	-0.063030414
141	0x3bfdab18	0.007741343
142	0xbc482be8	-0.012217499
143	0x3d0891f8	0.03334233
144	0x3c6f8734	0.014619637
145	0x3daa4193	0.083132885
146	0x3cc39b26	0.023877691
147	0xbd01168f	-0.031515654
148	0x3d3214c1	0.043476824
149	0x3bb303da	0.0054631056
150	0xbd350c99	-0.044201467
151	0xbdb2bede	-0.08727811
152	0x3ceb082a	0.028690416
153	0xbd8ac0d1	-0.06775058
154	0x3d85c31c	0.06531355
155	0xbd832f1d	-0.064054705
156	0x3cc404b2	0.02392802
157	0x3d8f93c8	0.07010609
158	0x3d850383	0.064948104
159	0x3d50b7c2	0.050956495
160	0xbdb56b2c	-0.08858332
161	0xbcdb5d7a	-0.026777972
162	0xbd422352	-0.047396965
163	0x3d3bfbb5	0.045894343
164	0x3d4b2ada	0.049601413
165	0xbc9e0b76	-0.019292574
166	0xbd4c73f2	-0.04991526
167	0xbd033745	-0.03203513
168	0x3deb2fb2	0.114837065
169	0x3cd30ac8	0.025761977
170	0x3c9d190c	0.019176982
171	0x3d3ea569	0.046544466
172	0xbd34da40	-0.044153452
173	0x3da03697	0.07822912
174	0x3d84b770	0.064803004
175	0xbd940945	-0.072283305
176	0x3d4f3bdd	0.0505942
177	0x3d12ab47	0.035807874
178	0x3d011c2a	0.031521
179	0x3d1fbe7c	0.03900002
180	0x3ceb7e4f	0.028746752
181	0xbcd6d3f5	-0.026224116
182	0xbdbe5cb1	-0.09295023
183	0x3c311514	0.010808248
184	0x3d23411c	0.039857015
185	0xbd351f04	-0.044219032
186	0xbd89dbbc	-0.06731364
187	0x3db49d7a	0.08819099
188	0x3c640900	0.013918161
189	0x3c8139c8	0.015774623
190	0x3ae20410	0.0017243642
191	0x3b37d716	0.0028051785
192	0x3b0fc9b0	0.0021940283
193	0x3d316e0b	0.043317836
194	0xbc655187	-0.013996488
195	0xbda71c43	-0.08159687
196	0x3b5a6e09	0.0033329746
197	0x3c3a00ff	0.011352777
198	0xbbc3a534	-0.0059706215
199	0xbba5fb92	-0.00506539
200	0xbc797849	-0.015226432
201	0x3cd6e102	0.026230339
202	0x3e1a687f	0.15078925
203	0x3d476f05	0.04868986
204	0xbc8cd9e3	-0.01719374
205	0xbd09bbf9	-0.03362653
206	0x3d90d2a3	0.07071426
207	0xbd1a9aae	-0.03774517
208	0xbdb0da83	-0.08635428
209	0xbc3d2539	-0.011544519
210	0x3d6c58c5	0.057701845
211	0x3dfad994	0.12248531
212	0xbd9e552a	-0.077310875
213	0xbcf00992	-0.029301438
214	0xbd1482f1	-0.036257688
215	0xbd4afb39	-0.04955599
216	0x3c83e22a	0.016099054
217	0xbd135e27	-0.035978463
218	0xbc876587	-0.016527904
219	0x3d1219b7	0.035669055
220	0x3c45a276	0.0120626595
221	0x3d642fb1	0.055709545
222	0x3c937a99	0.018002795
223	0x3d306489	0.043064628
224	0x3c9a3896	0.01882581
225	0x3dc0092d	0.0937675
226	0xbd9fcfde	-0.078033194
227	0xbc00b01e	-0.00785449
228	0x3d71cc2e	0.05903261
229	0x3d2a868b	0.041632216
230	0xbd9c7c60	-0.0764091
231	0xbd159e8a	-0.036528148
232	0x3d3d9c73	0.04629178
233	0xbe1cd402	-0.1531525
234	0x3c727f3c	0.014800843
235	0x3bc7fb16	0.00610293
236	0x3c30ba48	0.0107866
237	0x3d3fc37c	0.046817288
238	0x3c0e5e33	0.008689451
239	0xbd59a0f5	-0.053132016
240	0xbd4db1d4	-0.05021842
241	0xbd4c5d10	-0.04989344
242	0x3b94554b	0.0045267693
243	0x3c9193a7	0.017770601
244	0xbd9f9411	-0.07791913
245	0xbdf0f773	-0.11765947
246	0x3d047f6d	0.032348085
247	0x3db424a7	0.087960534
248	0xbdcb0b75	-0.09914295
249	0x3da91140	0.08255243
250	0x3d33a3dc	0.04385744
251	0x3bc5496a	0.0060207145
252	0x3db57b0c	0.0886136
253	0x3d02f852	0.031975098
254	0xbc5a7c0f	-0.013335242
255	0x3deebef6	0.11657517

Generator.conv3.conv2.0.weight f4 [8, 8, 3, 3, 3]
0	0x3d3ca156	0.0460523
1	0x3cafe670	0.021472186
2	0x3b88694b	0.0041629425
3	0xbd6f4a41	-0.058420423
4	0x3d40ff8e	0.047118716
5	0xbcb18225	-0.021668503
6	0xbdaa9667	-0.08329468
7	0xbc078697	-0.008271835
8	0xbd8118d7	-0.06303566
9	0x3d2e63e0	0.042575717
10	0xbd1f676f	-0.038917
11	0x3d2e274a	0.042517938
12	0x3c452cd6	0.0120346155
13	0x3d4bdc39	0.049770568
14	0xbc9de777	-0.01927541
15	0xbd1b2969	-0.03788129
16	0x3cfe158d	0.031016136
17	0xbd45dbf6	-0.048305474
18	0x3cbd767c	0.023127787
19	0xbc8df68c	-0.017329477
20	0xbd0bb109	-0.03410438
21	0x3d3b2a56	0.04569467
22	0x3d910f05	0.07082943
23	0x3daf6694	0.08564487
24	0x3b8f0331	0.004364394
25	0x3dbef6d4	0.093244225
26	0x3d184cac	0.037182495
27	0x3de56e66	0.112026975
28	0xbdf51d97	-0.119685344
29	0xbe0a4c61	-0.13505699
30	0x3e081453	0.13289003
31	0xbd114c5d	-0.035473216
32	0xbdb34313	-0.08753028
33	0x3d2c3f33	0.04205246
34	0x3d70198d	0.058618117
35	0x3bf0d888	0.0073500313
36	0x3db05217	0.086094074
37	0xbd9b0cc4	-0.07570794
38	0xbdbaad9b	-0.09115144
39	0xbd9fea90	-0.07808411
40	0xbcde04f8	-0.027101979
41	0xbd090c57	-0.033459034
42	0xbd9f9bef	-0.07793414
43	0xbdf3de23	-0.119076036
44	0xbe02cd4b	-0.12773626
45	0x3dc3a20c	0.09552392
46	0x3b1f7c24	0.0024335468
47	0xbe05cd20	-0.1306653
48	0xbd7200fb	-0.059082966
49	0xbaa2e272	-0.0012427105
50	0xbdf89fd3	-0.12139859
51	0xbd8e383a	-0.06944318
52	0xbd68db7a	-0.056849934
53	0xbd9b989c	-0.07597467
54	0xbcb833b6	-0.022485595
55	0x3d01ddda	0.031705715
56	0xbe4ec0ee	-0.20190784
57	0x3d217ea6	0.039427422
58	0xbc5ebfd5	-0.013595541
59	0xbbcbd1e9	-0.0062200916
60	0x3d593980	0.053033352
61	0x3d97468b	0.07386502
62	0x3db28e3d	0.08718536
63	0x3dadc404	0.08484653
64	0xbcd264cd	-0.025682831
65	0xbb4d8252	-0.0031358195
66	0x3dcaa001	0.098937996
67	0x3daa971b	0.08329602
68	0xbd2dd655	-0.04244073
69	0x3afc1c51	0.0019234513
70	0x3e3d5f6b	0.1849343
71	0xbc285c6c	-0.010275941
72	0x3d95c55e	0.073130354
73	0x3e1b162e	0.1514518
74	0x3d8a4961	0.06752277
75	0x3dcac487	0.09900766
76	0x3e3386f0	0.17531943
77	0x3d885414	0.06656662
78	0xbd2c3b04	-0.04204847
79	0x3d3f34d7	0.04668125
80	0x3de27c17	0.110588245
81	0xbd2b74be	-0.04185938
82	0x3dd3cefc	0.103422135
83	0x3cd28835	0.025699714
84	0xbd752499	-0.059849355
85	0xbd45e791	-0.048316542
86	0x3d6e2ed6	0.058150135
87	0x3d0742c2	0.03302265
88	0xbd87779f	-0.06614613
89	0xbcbe9675	-0.023265103
90	0xbdae1f62	-0.085020795
91	0x3a343e79	0.0006875764
92	0x3cce5989	0.025189178
93	0xbdd5402e	-0.10412632
94	0xbe75dbb7	-0.24009596
95	0x3d1e8d24	0.03870882
96	0x3c60d2c9	0.01372213
97	0xbe343199	-0.17597045
98	0xbd5c1411	-0.053730074
99	0xbe0381ac	-0.12842435
100	0xbdc58379	-0.09644217
101	0x3c85f55c	0.016352348
102	0x3b372296	0.0027944199
103	0xbe5c9bb4	-0.21543771
104	0xbcb29d72	-0.021803591
105	0x3da55d6e	0.08074461
106	0xbd413f09	-0.047179256
107	0xbd5cbc9a	-0.053890802
108	0xbe93936a	-0.28823406
109	0xbe0b8890	-0.13626313
110	0xbda0872f	-0.07838284
111	0xbdd0300b	-0.101654135
112	0xbdcc1424	-0.09964779
113	0xbdc52c2a	-0.09627564
114	0xbe52f996	-0.20603022
115	0xbdf67847	-0.1203466
116	0xbd923fd1	-0.07141078
117	0xbca7c5dd	-0.02048009
118	0xbc870fbd	-0.016486997
119	0x3d68beff	0.056822773
120	0x3d6126c1	0.0549686
121	0x3ccf32ce	0.02529278
122	0xbc35b492	-0.011090415
123	0xbdaf1486	-0.085488364
124	0x3a99bed9	0.0011729851
125	0x3b768c99	0.0037620424
126	0xbec678df	-0.38764092
127	0xbe56eedb	-0.20989554
128	0xbdb35576	-0.08756535
129	0xbe16b1b9	-0.14716233
130	0xbe0ba847	-0.13638411
131	0xbdfedc4f	-0.12444364
132	0xbd8bd9ec	-0.06828675
133	0xbd093dc7	-0.03350618
134	0x3d821c27	0.06353026
135	0x3d683030	0.05668658
136	0xbbe0fa5f	-0.006865784
137	0xbe8d8728	-0.2764218
138	0xbe061113	-0.13092451
139	0xbd4ed7a0	-0.050498605
140	0xbc3c683a	-0.011499459
141	0x3e37203a	0.17883387
142	0xbd46eb94	-0.04856451
143	0x3dd1d89e	0.102463946
144	0xbdb2723d	-0.087131955
145	0xbdadce52	-0.08486618
146	0x3b0e1fe5	0.002168649
147	0xba2a01e0	-0.0006485265
148	0x3d18138b	0.037128013
149	0x3deac480	0.11463261
150	0x3e1a7ee6	0.1508747
151	0xbcf66ef6	-0.030082207
152	0x3de03e4d	0.10949383
153	0x3d196540	0.037450075
154	0x3def5aec	0.11687264
155	0xbd3ea993	-0.046548437
156	0x3dc75fd0	0.09735072
157	0x3ca6a425	0.020341942
158	0x3d870224	0.06592205
159	0x3e48fcd2	0.19627693
160	0xba237dfa	-0.00062367285
161	0xbb86ec92	-0.004117557
162	0x3dd85acb	0.105641924
163	0x3de0e7b4	0.10981694
164	0x3ded11aa	0.11575635
165	0xbc4e5d27	-0.012595451
166	0xbce12269	-0.027482228
167	0x3d88f1f8	0.06686777
168	0xbdcada2d	-0.09904895
169	0xbe2fefec	-0.17181367
170	0x3dcaf57a	0.09910102
171	0xbcba58b5	-0.022747377
172	0x3cd5933e	0.026071187
173	0x3db601ff	0.088870995
174	0xbdd49e89	-0.10381801
175	0xbdb86723	-0.09004047
176	0x3da5be69	0.080929585
177	0xbde4c7a8	-0.11170894
178	0x3bf475ff	0.0074603553
179	0x3dc09fdf	0.09405493
180	0xbe2a998a	-0.16660133
181	0xbd2987b5	-0.041389186
182	0x3e341193	0.17584829
183	0xbe08e529	-0.13368668
184	0xbd800076	-0.06250088
185	0x3e5272b0	0.20551562
186	0xbd86378a	-0.06553562
187	0x3db7a107	0.089662604
188	0x3de2de18	0.11077517
189	0xbc60fd5f	-0.013732283
190	0xbc9d6089	-0.01921107
191	0x3dbca0d1	0.09210361
192	0xbd2352ea	-0.039873995
193	0xbcc861f0	-0.024460763
194	0x3da9565d	0.082684256
195	0xbd0f3f16	-0.034972273
196	0x3c1e4b05	0.009661441
197	0x3e20de54	0.15709811
198	0x3e24798d	0.16061993
199	0x3d5a1043	0.053238165
200	0x3daf80b6	0.085694715
201	0x3d361503	0.044453632
202	0x3ce14548	0.027498856
203	0x3c7c049d	0.015381959
204	0xbd3eb5c4	-0.046560064
205	0x3dbc0492	0.09180559
206	0xb9f25ccc	-0.00046226976
207	0x3e126215	0.14295228
208	0xbc0f9d4e	-0.008765532
209	0xbcb6b960	-0.02230519
210	0x3e0a4b34	0.1350525
211	0x3cfc585b	0.03080385
212	0x3ca3e7ce	0.020007994
213	0x3db70415	0.089363255
214	0x3e123d6d	0.14281245
215	0xbc8887c9	-0.01666631
216	0x3d1741a4	0.036927834
217	0x3c304e81	0.010760904
218	0xbd8cff97	-0.068846874
219	0x39fd3336	0.00048294076
220	0xbd93f899	-0.072251506
221	0xbdc4a75c	-0.09602234
222	0x3cb53d10	0.022123843
223	0x3bd30e0b	0.006440883
224	0x3c319a14	0.010839958
225	0x3c88e9bf	0.016713021
226	0xbd02e6e2	-0.03195847
227	0xbd871cf6	-0.06597321
228	0xbc271f0b	-0.010200272
229	0x3d92faa2	0.07176711
230	0xbd8bd7ee	-0.06828295
231	0x3d6702f6	0.05639931
232	0x3c7b5f42	0.015342535
233	0x3bd25542	0.006418855
234	0x3c3f9d07	0.011695153
235	0x3de6d18a	0.11270435
236	0x3d9893fb	0.074501
237	0x3d7985b6	0.060918532
238	0x3d9061b7	0.070498876
239	0x3d195e19	0.037443254
240	0x3d472cb4	0.048626617
241	0xbd34f5e2	-0.044179805
242	0x3c3ee0ce	0.011650277
243	0x3c90632b	0.017625412
244	0x3d641293	0.055681776
245	0xbe116f88	-0.14202702
246	0x3dbfe96c	0.093706936
247	0x3de7813e	0.11303948
248	0x3d3611e1	0.044450644
249	0x3e26a16b	0.16272514
250	0x3c358770	0.011079654
251	0x3dc135f7	0.09434121
252	0x3be43ceb	0.00696527
253	0x3de6e072	0.11273278
254	0xbd98b7b0	-0.074569106
255	0x3da76a5e	0.08174585

Generator.conv4.conv1.0.weight f4 [8, 8, 3, 3, 3]
0	0xbcc2e3e3	-0.023790305
1	0xbb1ed7e6	-0.0024237572
2	0xbd55272b	-0.052039307
3	0x3bfa67d8	0.0076417737
4	0x3d13b640	0.03606248
5	0x3b84d8ee	0.0040541803
6	0x3a15ae7c	0.0005709899
7	0x3cd62fad	0.02614578
8	0xbc5a94fe	-0.013341187
9	0xbd2b3b5e	-0.041804664
10	0xbcbf0fb6	-0.023322921
11	0xbdbdd90e	-0.092699155
12	0xbd93f983	-0.07225325
13	0xbc994cd4	-0.018713392
14	0xbccc9794	-0.024974622
15	0x3db9587f	0.090500824
16	0x3cb9fadf	0.022702632
17	0x3d54d8ac	0.051964447
18	0x3d1bf2d9	0.038073394
19	0x3d143e20	0.03619206
20	0x3d8ba91c	0.068193644
21	0x3d13864d	0.03601675
22	0xbdef27df	-0.11677527
23	0x3c867f57	0.016418142
24	0xbd66c833	-0.05634327
25	0xbd06c952	-0.032906838
26	0x3cd81a21	0.026379647
27	0xbd02bfe4	-0.031921282
28	0x3d08e821	0.0334245
29	0x3d92e6b6	0.07172911
30	0xbc2cbaa3	-0.010542545
31	0x3d76784a	0.06017331
32	0x3d7ce9b2	0.061746307
33	0xbdc2de09	-0.09515006
34	0x3d946045	0.072449245
35	0xbd2e49d7	-0.042550888
36	0x3c8c0bf3	0.017095542
37	0xbcd1265c	-0.025530986
38	0xbd315ad3	-0.043299507
39	0xbb0091b4	-0.0019618096
40	0xbd135357	-0.03596815
41	0xbd8e4a09	-0.06947715
42	0xbc53cced	-0.012927276
43	0x3d33d7d1	0.04390699
44	0x3d219ce3	0.03945626
45	0x3d804982	0.062640205
46	0xbd05358a	-0.032521762
47	0xbce3bec9	-0.027800934
48	0x3d6972ab	0.05699412
49	0xbce1e428	-0.027574614
50	0x3c8dd23a	0.017312158
51	0x3d8c3ecf	0.06847917
52	0x3d534aba	0.051584937
53	0x3cc827d8	0.024433061
54	0xbdc06be4	-0.093955785
55	0xbdfbd9fe	-0.12297438
56	0xbdcf0c90	-0.10109818
57	0xbcdae27a	-0.02671932
58	0x3cd01e03	0.025404936
59	0xbd61f714	-0.055167273
60	0x3d693b26	0.056941174
61	0x3d06fded	0.032957006
62	0xbaef5b3c	-0.0018261443
63	0x3c55da4b	0.013052533
64	0xbe205b92	-0.15659931
65	0xbd8407a3	-0.06446769
66	0x3cc166a5	0.023608515
67	0xbd9111c2	-0.07083465
68	0xbcf83e30	-0.03030309
69	0x3c446626	0.011987245
70	0x3d80dbde	0.06291936
71	0xbcc331cb	-0.023827454
72	0x3daa7198	0.083224475
73	0xbcfc4a3f	-0.030797122
74	0xbc0bd2dd	-0.00853416
75	0x3c5291a7	0.012852109
76	0xbde1922d	-0.11014209
77	0x3d51ef40	0.051253557
78	0xbaf9cbe8	-0.0019057961
79	0xbd39568f	-0.045248564
80	0x3c6a86c7	0.01431436
81	0x3cb309df	0.021855293
82	0xbc62468a	-0.013810763
83	0xbd3542f3	-0.0442533
84	0x3b2f57bd	0.0026755177
85	0xbc9c8081	-0.019104244
86	0xbd8cfd58	-0.06884259
87	0x3d26c7cf	0.040717896
88	0x3ce9cf06	0.0285411
89	0x3d8aeec4	0.06783822
90	0x3c96e979	0.018421875
91	0xbd5553f0	-0.052082002
92	0xbd17b4f5	-0.03703781
93	0x3c84af1b	0.016196778
94	0xbd8d9d51	-0.06914771
95	0xbcc46f78	-0.023978934
96	0x3dce0e4d	0.100613214
97	0x3dcae0a9	0.09906132
98	0x3d53c574	0.051701978
99	0xbd23da61	-0.040003184
100	0xbd9d50b9	-0.07681412
101	0xbd841531	-0.064493544
102	0xbc9ded7d	-0.019278282
103	0x3c658e85	0.01401103
104	0xbde03ece	-0.10949479
105	0x3da53af7	0.08067887
106	0x3be2e1fb	0.0069239116
107	0x3b672300	0.0035268664
108	0xbdcc39a9	-0.09971935
109	0xbdad8b0d	-0.084737875
110	0x3b5c19ea	0.0033584782
111	0xbcc632b8	-0.024194106
112	0x3cf80b74	0.030278899
113	0x3d237f8d	0.039916564
114	0xbaaa4bb6	-0.0012992534
115	0x3d6c5518	0.05769834
116	0x3d02cbe6	0.031932734
117	0xbc887056	-0.016655128
118	0xbcf3cba0	-0.029760182
119	0x3d5684c2	0.0523727
120	0xbcfcc76e	-0.030856814
121	0x3b26f590	0.0025475956
122	0x3cbf0334	0.023316957
123	0x3c938bc9	0.01801099
124	0x3c873fb5	0.01650987
125	0xbc827285	-0.015923748
126	0x3da2058b	0.079112135
127	0xbd04c5fe	-0.032415383
128	0x3d638aa9	0.05555216
129	0x3c1cca96	0.009569785
130	0x3bafaae6	0.005360949
131	0xbc22e7a6	-0.009942925
132	0x3bd63c93	0.0065379827
133	0x3d1a39e3	0.03765286
134	0x3d73a6d9	0.05948529
135	0xbcf2680c	-0.029590629
136	0x3d349384	0.044085994
137	0xbdb9f102	-0.09079172
138	0x3c8b3081	0.016990902
139	0x3dd870b2	0.1056837
140	0x3bd925c1	0.006626815
141	0x3d6e4d05	0.05817892
142	0x3d5f799c	0.054559335
143	0xbd4e780f	-0.050407466
144	0x3c97f229	0.018548088
145	0x3beeb97b	0.0072852946
146	0xbc7055d7	-0.014668903
147	0xbc0061e7	-0.007835842
148	0xbd7b887f	-0.06140947
149	0xbc1e437c	-0.009659644
150	0x3d0e2824	0.03470625
151	0x3c99cadd	0.01877349
152	0xbcb23bb0	-0.021756977
153	0x3d3a5ba1	0.04549754
154	0x3b921adb	0.004458768
155	0xbcde069d	-0.027102763
156	0x3ca6bc27	0.02035339
157	0xbcd737c8	-0.026271716
158	0xbd0786ef	-0.033087667
159	0x3be726c3	0.0070541813
160	0xbd56db1b	-0.05245505
161	0x3b128202	0.0022355323
162	0xbdc98fa5	-0.09841851
163	0xbcc077ba	-0.02349459
164	0xbdbab753	-0.091169976
165	0xbab83ce3	-0.0014056232
166	0x3dd3bf04	0.10339168
167	0x3db6a3ce	0.08917962
168	0xbbd3d95e	-0.006465121
169	0x3d178efe	0.037001602
170	0x3d0970c3	0.033554804
171	0xbd8b3d24	-0.06798771
172	0xbcf335eb	-0.029688796
173	0x3c65f024	0.014034305
174	0xbac278db	-0.0014837043
175	0xbdf04472	-0.11731805
176	0xbb9095b3	-0.004412377
177	0x3d910431	0.070808776
178	0x3d5f844c	0.054569528
179	0xbc38f668	-0.011289217
180	0x3d9fcab8	0.078023374
181	0x3da94572	0.08265199
182	0x3ce560a2	0.02800018
183	0xbdb5d239	-0.088779874
184	0xbcfcae0c	-0.03084471
185	0xbc5a7e46	-0.01333577
186	0xbd88f2a7	-0.06686907
187	0xbce20804	-0.027591713
188	0x3b457faf	0.003013592
189	0xbd3320d3	-0.043732475
190	0xbd5a8777	-0.053351846
191	0xbd9b6392	-0.07587351
192	0xbc97b1e3	-0.01851744
193	0x3cc05c42	0.023481492
194	0xbd010528	-0.031499058
195	0x3c286a3b	0.010279234
196	0xbb8c4221	-0.004280344
197	0x3d0c54de	0.034260623
198	0x3d0ef7bc	0.034904227
199	0xbdbef04b	-0.09323176
200	0x3c793d3d	0.015212354
201	0x3ca23aa5	0.019803355
202	0xbda2e571	-0.07953919
203	0xbd5829df	-0.052774306
204	0x3d87e514	0.0663549
205	0x3da085d1	0.078380235
206	0xbd3bb096	-0.045822702
207	0x3cd76937	0.026295288
208	0x3cff1227	0.031136585
209	0xbd6957b9	-0.056968424
210	0x3c3e8a87	0.011629707
211	0xbd939cd0	-0.07207644
212	0xbdd5ff67	-0.10449105
213	0x3ccd5ea0	0.025069535
214	0x3c12fee7	0.008971906
215	0x3cbdc25f	0.023163972
216	0xbc1015c2	-0.00879425
217	0x3db07c0c	0.0861741
218	0x3d56a67e	0.052404873
219	0x3c8f4469	0.017488675
220	0x3de01b36	0.1094269
221	0x3d5793b5	0.0526311
222	0xbd1816eb	-0.03713123
223	0x3d013e3c	0.031553492
224	0x3d7d9b8a	0.06191591
225	0x3d93cec2	0.0721717
226	0x3d588d1e	0.052868955
227	0xbb2a606c	-0.0025997413
228	0xbd180843	-0.037117254
229	0x3d2828c4	0.041054502
230	0x3d1f993b	0.03896449
231	0x3c77f15a	0.015133226
232	0x3cbbae45	0.022910247
233	0x3c75ddab	0.015006463
234	0xbb486df6	-0.003058312
235	0xbd97d0ae	-0.07412849
236	0xbd0f9016	-0.03504952
237	0x3d3e5b85	0.046474
238	0xbd8d77a9	-0.06907589
239	0xbdd74b8e	-0.10512458
240	0x3d870f90	0.06594765
241	0x3cc10cd5	0.02356569
242	0xbd84025e	-0.06445764
243	0xbd16783c	-0.03673576
244	0x3d800252	0.062504426
245	0x3d639210	0.055559218
246	0xbdb12f6a	-0.08651622
247	0x3dd89e69	0.10577089
248	0x3da21004	0.07913211
249	0xbb6a9f7d	-0.0035800629
250	0xbdc8c612	-0.09803404
251	0xbcddd435	-0.027078727
252	0x3c6e4e45	0.014545028
253	0x3d1a1ce9	0.037625227
254	0x3d0dce84	0.034620777
255	0xbca1c8da	-0.019749094
