DeepWonder3D_pytorch/pth/SEG_pth/Unet4_no_end_UNet3DFFD_20240401-1432_2um/seg_303.pth (torch, 138281 bytes, 19 tensors)

Generator.conv1.conv1.0.weight f4 [8, 1, 3, 3, 3]
0.12010882 0.10055363 -0.057482123 0.14320381 -0.12073112 -0.12651162 -0.0032967334 -0.0041685468
0.09176919 0.051556524 -0.15458642 0.087708235 0.13541102 0.1099191 0.032233402 -0.18533176
0.087860376 -0.20959419 -0.10288431 -0.11400848 -0.060672224 0.03066661 -0.053069808 0.05695907
-0.21097986 0.04514245 0.17979777 0.16346397 0.16423777 0.021771606 0.08349228 -0.13255607
-0.18249683 0.1250861 0.012971576 -0.089797966 -0.11051919 0.16287202 -0.039845895 -0.13097154
-0.075812116 0.00897497 -0.20363781 -0.21721888 -0.022280257 0.1288883 0.04318686 0.2145675
0.1742915 -0.08323521 0.16379675 0.08618406 -0.13003944 -0.08026178 0.063427724 -0.04161766
-0.12097268 0.02805802 0.1011091 -0.0059850453 -0.15831624 -0.11054233 -0.056801863 0.033172783
0.091567956 0.012401024 -0.045423716 0.037279803 0.070303254 0.07008818 0.013385394 0.018004065
-0.14951673 0.052288447 0.055765107 0.008768477 -0.05651887 0.1043104 -0.44240507 -0.0087202145
-0.2716389 -0.09127493 -0.15011494 0.15536796 -0.19811767 -0.073718 -0.022698116 0.080392756
-0.11468314 0.054788716 -0.2071912 -0.060132686 0.025504686 0.101854354 -0.19881259 -0.1644371
-0.036675084 0.124825686 0.08693748 -0.054909125 0.062113173 0.089737736 -0.064529486 0.057839002
0.077824175 0.015424824 -0.16351597 -0.22251178 0.17979269 -0.17013839 -0.045862623 -0.13332018
-0.042471286 0.012873374 -0.040665075 0.056213476 0.04630692 0.0019060295 0.07727938 -0.19275904
-0.055766527 -0.04637878 7.1452654e-05 0.11247645 0.015626296 0.129128 -0.1844012 0.06250975
0.10274292 0.09462466 0.031807873 -0.10417534 -0.1589943 -0.08522381 0.1065689 0.03414606
-0.11456721 0.116266854 0.10735897 -0.072447665 -0.12918192 -0.18357135 0.18592381 0.028017467
-0.09300707 -0.19660133 0.054309864 0.09001324 -0.17374289 -0.21396714 -0.07666673 0.07869061
0.15596946 -0.036367632 -0.04121575 0.1171778 0.024330676 0.17200427 -0.07817455 0.004636875
-0.031331014 0.21064268 -0.22503662 0.15632075 -0.0807275 0.08352457 0.0050891084 -0.04099289
0.027738001 -0.020598447 0.06567654 0.053343676 -0.069011 0.2296529 -0.2063269 -0.07921567
0.0335665 -0.061887298 0.11869863 0.051373884 -0.07631507 -0.05276522 0.10767244 -0.14636174
0.05402258 0.10993785 -0.13494343 -0.0071581765 0.16284245 -0.054732274 0.12674929 0.003981948
0.034131218 0.11080166 -0.21637401 -0.07661339 0.009018073 0.119231485 -0.038239982 -0.07235019
-0.056052346 -0.20980851 0.14934464 -0.09365689 -0.092972346 0.1832679 0.02812486 -0.09782785
-0.027727459 -0.018897424 -0.24532853 0.105785884 -0.10714057 -0.21414343 -0.07094419 0.106597394
00000000: 9dfb f53d 10ef cd3d 6072 6bbd 05a4 123e
00000010: e141 f7bd 438c 01be 020e 58bb 4e98 88bb
00000020: 7cf1 bb3d ef2c 533d e74b 1ebe 60a0 b33d
00000030: 30a9 0a3e 441d e13d 2c07 043d 9cc7 3dbe
00000040: 24f0 b33d dc9f 56be 02b5 d2bd 477d e9bd
00000050: 7083 78bd 8b38 fb3c ba5f 59bd ea4d 693d
00000060: 1b0b 58be 4ae7 383d e81c 383e 1963 273e
00000070: f22d 283e 5e5a b23c 00fe aa3d c7bc 07be
00000080: 73e0 3abe 9216 003e bc86 543c ffe7 b7bd
00000090: e357 e2bd ecc7 263e 7335 23bd 671d 06be
000000a0: 6243 9bbd c10b 133c 6e86 50be a06e 5ebe
000000b0: 1685 b6bc 4bfb 033e b4e4 303d 95b7 5b3e
000000c0: 7979 323e 3977 aabd 56ba 273e 4581 b03d
000000d0: 0f29 05be 4a60 a4bd 65e6 813d 4877 2abd
000000e0: 86c0 f7bd efd9 e53c 4a12 cf3d 331e c4bb
000000f0: a71d 22be 0464 e2bd 12a9 68bd 2fe0 073d
00000100: fb87 bb3d aa2d 4b3c 380e 3abd b5b2 183d
00000110: 27fb 8f3d 648a 8f3d 694e 5b3c 437d 933c
00000120: ea1a 19be 692c 563d f469 643d a8a9 0f3c
00000130: 5580 67bd b1a0 d53d eb82 e2be 3bdf 0ebc
00000140: 4114 8bbe 5aee babd bbb7 19be c718 1f3e
00000150: 5cdf 4abe 76f9 96bd 66f1 b9bc f5a4 a43d
00000160: fede eabd 226a 603d ee29 54be b14d 76bd
00000170: 34ef d03c 0499 d03d 8795 4bbe 3362 28be
00000180: 9d38 16bd 9ca4 ff3d 470c b23d 64e8 60bd
00000190: 626a 7e3d 6bc8 b73d 0928 84bd 97e8 6c3d
000001a0: 4862 9f3d 67b8 7c3c bb70 27be 21da 63be
000001b0: 931b 383e c238 2ebe 72da 3bbd 1685 08be
000001c0: 5ff6 2dbd d8ea 523c 6c90 26bd 1a40 663d
000001d0: 53ac 3d3d bdd3 f93a a744 9e3d a062 45be
000001e0: 716b 64bd adf7 3dbd dad8 9538 0e5a e63d
000001f0: b802 803c 213a 043e abd3 3cbe 1d05 803d
00000200: e16a d23d 93ca c13d f948 023d e159 d5bd
00000210: 67cf 22be d289 aebd cc40 da3d bddc 0b3d
00000220: 37a2 eabd 511d ee3d 05df db3d 715f 94bd
00000230: 4448 04be 21fa 3bbe d062 3e3e e384 e53c
00000240: 7e7a bebd dc51 49be 0574 5e3d dd58 b83d
00000250: a8e9 31be 341a 5bbe 7203 9dbd 8b28 a13d
00000260: 75b6 1f3e 3af6 14bd d9d1 28bd eafa ef3d
00000270: 2051 c73c e321 303e fa19 a0bd edf0 973b
00000280: f354 00bd b7b2 573e 0070 66be 8c12 203e
00000290: 7654 a5bd ee0e ab3d 89c2 a63b 29e8 27bd
000002a0: ce3a e33c 13be a8bc 6c81 863d e67e 5a3d
000002b0: a455 8dbd 212a 6b3e 5c47 53be d33b a2bd
000002c0: 077d 093d 897d 7dbd 4418 f33d 6c6d 523d
000002d0: 134b 9cbd 5820 58bd 5e83 dc3d dadf 15be
000002e0: c846 5d3d 1827 e13d 9c2e 0abe 238f eabb
000002f0: 2cc0 263e f32e 60bd 91ca 013e 007b 823b
00000300: 2dcd 0b3d fbeb e23d 2691 5dbe 7be7 9cbd
00000310: 8ac0 133c a32f f43d 87a1 1cbd 562c 94bd
00000320: 2597 65bd 0bd8 56be cded 183e 2fcf bfbd
00000330: 4968 bebd 95aa 3b3e 1b66 e63c f859 c8bd
00000340: b224 e3bc c5ce 9abc 6737 7bbe 45a6 d83d
00000350: 846c dbbd 6a48 5bbe 304b 91bd bc4f da3d

Generator.conv1.conv2.0.weight f4 [8, 8, 3, 3, 3]
0.15748961 0.048589695 0.039896127 0.02674889 -0.040335182 0.079907484 0.17949124 0.15093265
0.30728993 0.015309762 0.014871754 0.055844218 0.047994662 0.101271816 0.021081904 0.062883556
-0.016701391 0.14591865 0.044309113 0.18590994 0.16061702 0.15045834 0.2023863 0.18083785
0.12394613 0.15171452 0.1764816 -0.14140426 -0.023908092 -0.23223998 -0.08417175 -0.025026342
-0.30033758 -0.021672195 0.0876116 -0.07766012 -0.10738212 0.19855496 -0.25245366 -0.08903633
0.12938039 -0.54475206 -0.054174162 0.07821985 0.026290732 0.0647097 0.24177238 -0.34283137
-0.07783406 0.13987713 -0.52351844 -0.097015575 0.0285755 0.014368856 0.06787087 0.022110207
0.029318286 -0.034277283 -0.08459235 -0.022428421 0.063616835 0.025022838 -0.03385492 0.2219474
-0.016818494 0.05685734 0.022384942 0.005965917 0.1695936 0.12754686 0.047205944 0.057851564
0.12663631 0.0782099 0.09786956 -0.10269941 0.0036072873 0.03621129 0.094646916 0.10081658
0.06389876 -0.023967206 0.061852712 0.041499224 0.14002484 0.0020506054 -0.0062915897 0.008139449
-0.03987384 0.008716612 0.020810368 0.017795738 0.04262752 -0.045561016 0.014793509 0.05740492
-0.034939498 0.02328231 0.02806452 0.06678517 -0.04626278 -0.048626237 -0.007759887 0.03818489
0.05206426 0.030275492 0.03842955 0.019161472 -0.099442236 -0.21596886 -0.17915143 -0.065093435
-0.012104134 -0.1397329 -0.0042741187 0.002815276 0.05888497 -0.057053935 0.039224096 0.13344686
-0.02888806 0.03918905 0.07196844 -0.06253717 0.10689931 0.103885986 -0.09302295 0.21780425
0.16686371 -0.03525136 0.17838135 0.018449403 -0.20865129 0.16812956 0.06483626 -0.017824078
0.2349515 0.09923282 -0.080258735 0.057494536 -0.07064764 0.0054571033 -0.15591644 -0.05031006
-0.19683869 0.21800005 0.09274601 -0.11622777 0.09775648 -0.021393308 -0.044693857 0.019526672
-0.07361675 -0.0637789 0.24494655 0.16179341 -0.065168366 0.22061755 0.09574874 -0.18063986
-0.041156378 -0.00035446847 0.07299246 -0.11885291 -0.12640625 0.06607957 -0.071604155 -0.07259276
0.12517214 -0.19401848 -0.007637988 0.056349333 -0.17066048 -0.009963272 0.029285258 -0.012380892
-0.06313039 -0.05806432 -0.19256333 -0.0477764 0.040355008 -0.060733274 0.12228985 -0.019963974
0.09920097 0.098842405 -0.08521149 -0.39475042 -0.09022428 0.021293633 -0.07321074 0.004232758
0.073806636 0.026244806 0.044788845 0.06457954 -0.06764951 0.010657544 0.023792295 -0.33280995
0.058388513 0.022024428 -0.28107134 0.11231498 0.09347255 -0.35897568 0.061967954 -0.10421382
0.14641555 -0.17069943 -0.14849852 0.20773637 -0.1687097 -0.2322275 0.12961179 -0.13671984
0.14512233 0.29006064 0.24449395 -0.021383382 0.08053391 0.10813046 0.29956523 0.30400705
0.28424606 0.15289721 0.07449578 0.2109494 0.056633674 0.07811047 0.079498306 0.07525341
-0.004647309 0.08499422 0.073705755 0.09546562 0.029976794 0.10533588 0.08616017 0.08658352
0.07126913 0.003986356 0.106318705 -0.08350742 -0.061332054 -0.05751934 -0.06095363 -0.09742472
-0.0033051253 0.020189226 -0.0008391988 -0.00039094407 0.08748198 -0.0068123043 -0.0030454833 0.0820476
00000000: f544 213e fd05 473d 1f6a 233d 7d20 db3c
00000010: 8136 25bd 89a6 a33d 8dcc 373e 178e 1a3e
00000020: 1b55 9d3e ccd5 7a3c a8a8 733c e8bc 643d
00000030: 0d96 443d 9967 cf3d f5b3 ac3c 18c9 803d
00000040: 5bd1 88bc b36b 153e 797d 353d 2d5f 3e3e
00000050: ca78 243e c011 1a3e 5b3e 4f3e 8f2d 393e
00000060: 78d7 fd3d 0d5b 1b3e 98b7 343e 47cc 10be
00000070: e7da c3bc 51d0 6dbe 3d62 acbd 0b04 cdbc
00000080: d9c5 99be e389 b1bc b66d b33d 450c 9fbd
00000090: 28eb dbbd fe51 4b3e 9b41 81be ae58 b6bd
000000a0: 4b7c 043e df74 0bbf bae5 5dbd bb31 a03d
000000b0: a95f d73c 8586 843d 2e93 773e 9887 afbe
000000c0: 7767 9fbd f33b 0f3e 4e05 06bf 1ab0 c6bd
000000d0: 2b17 ea3c 5a6b 6b3c e2ff 8a3d 7720 b53c
000000e0: e72c f03c 5666 0cbd c13e adbd cfbb b7bc
000000f0: 8b49 823d b2fc cc3c 75ab 0abd 2e46 633e
00000100: f0c6 89bc 3ee3 683d a060 b73c bd7d c33b
00000110: f2a9 2d3e a59b 023e 055b 413d c3f5 6c3d
00000120: f3ac 013e 832c a03d d66f c83d 1154 d2bd
00000130: 3d68 6c3b 4a52 143d 3ed6 c13d ec78 ce3d
00000140: 5add 823d e056 c4bc 4559 7d3d 17fb 293d
00000150: ac62 0f3e 7363 063b ae29 cebb 535b 053c
00000160: c052 23bd 1fd0 0e3c 817a aa3c 5ec8 913c
00000170: 329a 2e3d 309e 3abd 7960 723c 6c21 6b3d
00000180: b81c 0fbd 8bba be3c 90e7 e53c aac6 883d
00000190: 0a7e 3dbd 4e2c 47bd a646 febb c267 1c3d
000001a0: 5541 553d 4f04 f83c 4e68 1d3d 85f8 9c3c
000001b0: 5fa8 cbbd f126 5dbe 7973 37be b54f 85bd
000001c0: 6b50 46bc 2416 0fbe e80d 8cbb 7e80 383b
000001d0: 5e31 713d 63b1 69bd 72a9 203d 4ba6 083e
000001e0: a7a6 ecbc b384 203d 3164 933d 7d13 80bd
000001f0: 07ee da3d 2dc2 d43d d182 bebd 1408 5f3e
00000200: 52de 2a3e bb63 10bd 9aa9 363e 3423 973c
00000210: afa8 55be 282a 2c3e e0c8 843d cd03 92bc
00000220: 2097 703e 943a cb3d b15e a4bd 647f 6b3d
00000230: b6af 90bd 80d1 b23b 8fa8 1fbe ec11 4ebd
00000240: 1590 49be 683b 5f3e 9ff1 bd3d d308 eebd
00000250: 8d34 c83d 0541 afbc e810 37bd 66f6 9f3c
00000260: 61c4 96bd 839e 82bd 45d3 7a3e 2cad 253e
00000270: fe76 85bd 91e9 613e ea17 c43d a8f9 38be
00000280: 9793 28bd f4d7 b9b9 127d 953d 2869 f3bd
00000290: a470 01be ba54 873d 33a5 92bd 83ab 94bd
000002a0: 202d 003e c8ac 46be 1648 fabb 8fce 663d
000002b0: 9fc1 2ebe fe3c 23bc a3e7 ef3c 3ad9 4abc
000002c0: 824a 81bd dad4 6dbd 522f 45be 30b1 43bd
000002d0: 4b4b 253d 74c3 78bd 1a73 fa3d 7d8b a3bc
000002e0: e129 cb3d e36d ca3d 5d83 aebd ba1c cabe
000002f0: 82c7 b8bd fc6f ae3c 83ef 95bd f3b2 8a3b
00000300: ef27 973d 59ff d63c 8274 373d 4742 843d
00000310: d48b 8abd fb9c 2e3c 0fe8 c23c 1166 aabe
00000320: cb28 6f3d 936c b43c 95e8 8fbe 6505 e63d
00000330: 896e bf3d a9cb b7be 1cd2 7d3d 0e6e d5bd
00000340: f5ed 153e d5cb 2ebe ff0f 18be d8b8 543e
00000350: 3cc2 2cbe 0ccd 6dbe f4b8 043e 4900 0cbe
00000360: f39a 143e d482 943e 9f5c 7a3e 342c afbc
00000370: f6ee a43d 8173 dd3d 9d60 993e d0a6 9b3e
00000380: b388 913e 1691 1c3e 3e91 983d 1f03 583e
00000390: b6f8 673d 62f8 9f3d 02d0 a23d 761e 9a3d
000003a0: 7448 98bb 7311 ae3d 0bf3 963d 7b83 c33d
000003b0: e591 f53c 56ba d73d be74 b03d b352 b13d
000003c0: 8df5 913d fa9f 823b 9fbd d93d f005 abbd
000003d0: 5237 7bbd 6699 6bbd 83aa 79bd 9d86 c7bd
000003e0: cd9a 58bb e063 a53c aefd 5bba a0f7 ccb9
000003f0: c129 b33d c039 dfbb bb96 47bb 9208 a83d

Generator.conv2.conv1.0.weight f4 [8, 8, 3, 3, 3]
0.09570591 -0.01847368 -0.092256606 0.36011028 0.1263366 -0.06881778 -0.19197457 0.04178901
0.11619213 -0.08160215 -0.056824137 -0.00904599 -0.09346945 -0.007069788 0.022754882 -0.041250885
-0.07246855 0.10005174 0.00877374 -0.06030738 -0.026188686 -0.0156239765 -0.045654465 0.037928127
0.014486904 -0.0075295432 0.0834098 0.04796538 -0.036856413 -0.04769326 0.011580784 -0.0022014119
-0.019183708 0.06811405 0.07548156 0.009177224 -0.17115177 -0.13623874 -0.07686772 -0.09651312
-0.058397636 -0.04274179 0.101265006 -0.01060969 -0.028550902 -0.052395497 -0.063975394 -0.17163718
0.0034030392 -0.060741268 -0.094527915 0.08381355 0.0030311241 -0.052373905 0.016420592 0.103905834
0.13865668 0.039421264 0.06984867 0.19117795 -0.06678857 -0.04180771 0.029908659 -0.07772451
0.029033672 0.021984825 -0.0522442 0.010233458 0.067357674 -0.20385438 -0.03530117 0.03104152
-0.038456865 0.035656534 0.06423299 -0.07736505 0.10424626 0.13794151 -0.13872531 -0.054738086
0.06866571 0.0009124752 -0.030266179 0.058262452 -0.11603048 -0.07482137 -0.010202453 -0.018683625
-0.04156861 0.095729195 0.18063979 0.0044618053 0.07967023 0.020939952 -0.029607993 0.01142084
0.0063867494 -0.062350564 0.026959093 -0.003726582 0.0034310347 0.009307332 -0.11009313 -0.02721515
0.07519991 0.0003165637 -0.038136948 0.019667659 0.037378322 0.044585004 -0.043259006 0.003023882
-0.023360131 0.029685305 -0.024317147 -0.00218611 0.033843808 0.04563536 0.021919372 0.07422749
0.06316215 0.083147936 0.09714339 0.08301418 -0.011477962 0.13200648 -0.05322355 -0.003359094
0.062410608 -0.06692986 0.031722438 0.07022443 0.021363713 -0.030137219 -0.039676156 -0.018223684
0.11247811 0.054851156 -0.0008630447 0.09958602 0.07983944 -0.035911378 -0.08284948 -0.05386578
-0.070065685 -0.0043990924 -0.003323629 -0.07670991 -0.06325295 -0.037410643 -0.08679118 -0.12309033
0.061616167 -0.075388625 -0.024388332 -0.023320032 -0.10250034 -0.028506635 -0.09382911 -0.15334232
-0.19923124 0.15841736 0.07725798 0.05910487 0.0705527 0.0852457 0.0100997435 0.032207098
0.022388741 0.09072469 0.031813767 0.02198833 -0.0045641237 -0.0066948575 0.071091615 0.08206587
0.10054616 0.098683625 0.045970082 0.07505859 0.04406392 -0.008326832 -0.028452892 -0.0546274
0.052946974 -0.026507942 0.028669668 -0.06406639 0.007342068 -0.014800684 -0.03314483 0.02909729
-0.07778469 -0.0675736 0.05133035 -0.114253275 -0.080903344 -0.022264527 -0.038785458 -0.06331948
0.0032333662 -0.10562695 -0.056590732 0.033157833 -0.07674021 -0.07367318 0.107056156 -0.08330798
-0.06122277 -0.003219099 -0.046625942 -0.012791754 0.0058898376 -0.08397377 -0.04732207 0.024960252
-0.17946956 -0.2296261 0.12868689 -0.09823985 -0.012330856 0.007065581 0.10011798 -0.022871796
0.15786858 -0.043967605 -0.026125636 0.03744867 -0.0256532 0.008717164 0.020397397 0.068101116
0.09907705 0.029744959 0.0076715336 -0.100930445 -0.049222197 0.07336851 0.0040826844 -0.023961352
0.08213194 0.10091341 0.03086724 -0.027975798 0.004479545 0.0152783925 -0.07970009 0.041100394
0.032450356 0.004030683 0.03513532 -0.017011084 -0.12998703 -0.118862055 -0.077756494 -0.10740922
00000000: 7601 c43d 1d56 97bc 08f1 bcbd 6060 b83e
00000010: 625e 013e 56f0 8cbd fb94 44be f42a 2b3d
00000020: 24f6 ed3d 071f a7bd 6dc0 68bd a235 14bc
00000030: e96c bfbd aea9 e7bb 7268 ba3c b0f6 28bd
00000040: 646a 94bd ede7 cc3d bcbf 0f3c df04 77bd
00000050: a889 d6bc b5fb 7fbc 2d00 3bbd 865a 1b3d
00000060: 7b5a 6d3c 63ba f6bb c2d2 aa3d 5977 443d
00000070: c0f6 16bd 025a 43bd 54bd 3d3c 9045 10bb
00000080: 2727 9dbc 617f 8b3d 1396 9a3d 115c 163c
00000090: 6942 2fbe 2b82 0bbe d36c 9dbd aca8 c5bd
000000a0: 5c32 6fbd 0412 2fbd 0764 cf3d 44d4 2dbc
000000b0: 95e3 e9bc a99c 56bd 8805 83bd a8c1 2fbe
000000c0: 8605 5f3b d6cb 78bd da97 c1bd 70a6 ab3d
000000d0: d3a5 463b 0586 56bd 7a84 863c 95cc d43d
000000e0: 04fc 0d3e 3178 213d d20c 8f3d 27c4 433e
000000f0: 72c8 88bd 903e 2bbd 0103 f53c 072e 9fbd
00000100: 06d8 ed3c 8519 b43c 04fe 55bd 3caa 273c
00000110: d2f2 893d 34bf 50be f697 10bd c94a fe3c
00000120: f284 1dbd 960c 123d 968c 833d 9171 9ebd
00000130: 107f d53d 8a40 0d3e 020e 0ebe 0b35 60bd
00000140: 9ca0 8c3d 2d33 6f3a c7f0 f7bc 9ca4 6e3d
00000150: 63a1 edbd f23b 99bd 3028 27bc 670e 99bc
00000160: d943 2abd ab0d c43d a3f9 383e 5634 923b
00000170: 252a a33d 438a ab3c 768c f2bc 7a1e 3b3c
00000180: f047 d13b 4e63 7fbd 51d9 dc3c ac39 74bb
00000190: 36db 603b c87d 183c 8278 e1bd 4ef2 debc
000001a0: 6902 9a3d 76f8 a539 7d35 1cbd 121e a13c
000001b0: 031a 193d c49e 363d 5b30 31bd 522c 463b
000001c0: bf5d bfbc 992e f33c c134 c7bc d744 0fbb
000001d0: ce9f 0a3d 25ec 3a3d 4190 b33c 9504 983d
000001e0: 285b 813d 7749 aa3d 1df3 c63d 5703 aa3d
000001f0: 100e 3cbc b52c 073e f000 5abd 3f24 5cbb
00000200: 44a2 7f3d 8612 89bd 63ef 013d d3d1 8f3d
00000210: f402 af3c 54e2 f6bc 7783 22bd d649 95bc
00000220: ec5a e63d 9bab 603d f33d 62ba c1f3 cb3d
00000230: dc82 a33d cf17 13bd fdac a9bd 5da2 5cbd
00000240: 997e 8fbd 4326 90bb 3ed1 59bb 161a 9dbd
00000250: c38a 81bd e73b 19bd 93bf b1bd c816 fcbd
00000260: 3c61 7c3d 5a65 9abd 0aca c7bc a709 bfbc
00000270: b3eb d1bd bf86 e9bc 7a29 c0bd c505 1dbe
00000280: 4603 4cbe 2938 223e 6f39 9e3d f317 723d
00000290: ef7d 903d 4c95 ae3d 6579 253c 97eb 033d
000002a0: 9868 b73c decd b93d 274f 023d df20 b43c
000002b0: a58e 95bb 8960 dbbb 7b98 913d 2712 a83d
000002c0: 25eb cd3d a41a ca3d 204b 3c3d 51b8 993d
000002d0: 5e7c 343d 446d 08bc 0a16 e9bc fbc0 5fbd
000002e0: edde 583d 2f27 d9bc a7dc ea3c 3d35 83bd
000002f0: bb95 f03b 917e 72bc e0c2 07bd 715d ee3c
00000300: 944d 9fbd 0764 8abd c63f 523d 9ffd e9bd
00000310: a7b0 a5bd 1964 b6bc 80dd 1ebd a5ad 81bd
00000320: e2e6 533b f152 d8bd afcb 67bd 82d0 073d
00000330: f929 9dbd f7e1 96bd 4240 db3d 609d aabd
00000340: bac4 7abd 85f7 52bb d8fa 3ebd 8194 51bc
00000350: 8aff c03b 71fa abbd c9d4 41bd 7179 cc3c
00000360: dec6 37be 1b23 6bbe 7fc6 033e f931 c9bd
00000370: 5c07 4abc 6486 e73b a80a cd3d a25d bbbc
00000380: 4da8 213e 6017 34bd 6e05 d6bc c763 193d
00000390: a926 d2bc 70d2 0e3c 7118 a73c 9978 8b3d
000003a0: e9e8 ca3d b3ab f33c 7d61 fb3b 9fb4 cebd
000003b0: 379d 49bd 3b42 963d 0ac8 853b 994a c4bc
000003c0: ca34 a83d b1ab ce3d 4bdd fc3c 802d e5bc
000003d0: 26c9 923b 3952 7a3c cd39 a3bd e358 283d
000003e0: aaea 043d d213 843b 0eea 0f3d d45a 8bbc
000003f0: 521b 05be f36d f3bd cc3e 9fbd 5df9 dbbd

Generator.conv2.conv2.0.weight f4 [8, 8, 3, 3, 3]
0.094917096 -0.06620985 -0.00092694344 0.0805255 0.0802108 0.06720566 0.06019664 0.057514533
0.12571989 0.13499235 -0.020095857 0.053491477 0.02293778 -0.0042342404 -0.03945833 0.0786429
-0.048427224 0.035937052 0.040058244 -0.06579845 -0.044931795 0.049830116 -0.09996209 -0.08990214
-0.09471449 -0.04330562 -0.048727978 0.13779202 0.10712195 0.030598124 0.06635227 0.10173881
0.16714628 0.054894764 0.04662886 0.118431 0.104032926 0.036946964 0.01623296 0.024832137
0.10960869 0.054170858 -0.00019755612 0.002566717 0.122839406 0.027893418 0.05600867 -0.0042531923
0.036722064 0.03223372 0.040079344 -0.034034558 0.06676865 0.0352838 0.2528717 0.09717016
0.056890268 -0.025109585 -0.120910406 -0.12869243 0.07981255 -0.008507473 -0.07474675 -0.008710778
-0.1298726 0.0022853697 -0.12546535 -0.13386665 -0.20742905 0.039296187 -0.01785971 -0.1884796
-0.031147545 -0.09420762 0.15774606 -0.107787296 -0.164577 0.012155304 0.083610885 0.034344148
-0.003357212 0.08987875 0.08075702 0.15197451 0.043721993 0.03831666 0.027171908 0.15481998
0.019571105 0.009632469 0.15286155 0.013631641 0.09908187 -0.05116461 -0.13127221 -0.08534558
-0.022939775 -0.14411336 0.0176182 -0.014781064 -0.05934895 0.07763072 -0.1003669 -0.07821368
-0.039881945 0.098000035 -0.0704261 -0.022572862 -0.08106234 -0.056968767 -0.028895149 0.0547485
0.06918477 0.008330293 0.07455401 0.038514875 -0.00052927615 -0.159093 -0.11938816 0.010397229
-0.06900336 -0.06722741 0.01665773 0.008821101 -0.03270987 0.031539865 -0.144528 -0.120224826
0.008795166 0.15538618 0.056311484 -0.015048043 0.1028089 -0.052095592 -0.1497346 0.04918046
-0.24569032 -0.25186932 -0.046135377 -0.22040112 -0.026520241 -0.19248064 -0.24287146 0.12404068
-0.00053341425 -0.015969472 -0.14567505 -0.011461896 -0.102886125 -0.15647581 0.024171289 -0.20367265
-0.15304348 0.09193252 0.006905167 -0.05642721 0.06803935 -0.029970363 -0.18293864 0.11177056
-0.14710353 -0.027335346 0.14782682 0.076761484 0.23216702 -0.029152192 -0.03279781 -0.09524508
0.053393237 -0.15012987 -0.0652292 0.081813045 0.041145 0.20399113 0.08642646 -0.03636542
-0.061772864 -0.020243589 -0.07087471 -0.07230564 -0.022165172 0.12918189 0.08272467 0.0036876749
-0.016569054 -0.15450677 0.03540271 -0.10438207 -0.1493188 -0.066296995 -0.0568043 -0.08502206
-0.08950844 -0.07601633 -0.085750446 -0.04750892 -0.021250376 0.027050275 -0.072902195 0.0020401883
-0.05625923 -0.040113106 -0.07496282 -0.047878228 0.026258158 0.014307421 -0.011845475 0.17219326
0.15641119 0.17208292 0.049396966 0.10694175 -0.017677173 0.14335209 0.012989761 -0.03517308
-0.18840767 -0.092294745 0.015984593 -0.1017341 -0.06460596 -0.087770276 -0.18679488 -0.020777814
-0.015614216 0.043103598 0.045578122 0.0076559056 0.062064786 0.04697794 0.020121358 -0.010163393
0.013343408 0.05600083 0.048517317 0.11096606 0.0868811 0.16509959 0.12381774 0.0847098
0.14534582 0.040149618 0.0428195 -0.16549724 -0.11817359 0.001430454 -0.116330214 -0.09492993
-0.025114981 -0.2871119 -0.120678626 0.027311984 0.011324668 0.020053795 -0.059568826 0.017898988
00000000: e563 c23d 0899 87bd 1ffe 72ba 8eea a43d
00000010: 8f45 a43d 1fa3 893d c190 763d 5c94 6b3d
00000020: b7bc 003e 6f3b 0a3e 11a0 a4bc e119 5b3d
00000030: 03e8 bb3c 62bf 8abb 0f9f 21bd 870f a13d
00000040: a05b 46bd bb32 133d 1d14 243d 56c1 86bd
00000050: 670a 38bd aa1a 4c3d edb8 ccbd 9d1e b8bd
00000060: acf9 c1bd 3c61 31bd fd96 47bd 5a19 0d3e
00000070: c162 db3d eba8 fa3c b3e3 873d 705c d03d
00000080: 6528 2b3e 55d9 603d e7fd 3e3d f48b f23d
00000090: 370f d53d b355 173d fcfa 843c c46c cb3c
000000a0: 857a e03d 43e2 5d3d 1127 4fb9 5e36 283b
000000b0: 3a93 fb3d bd80 e43c 5969 653d 5d5e 8bbb
000000c0: e069 163d 8107 043d 3d2a 243d d267 0bbd
000000d0: 01be 883d bf85 103d 6678 813e 2601 c73d
000000e0: c505 693d 9eb2 cdbc e09f f7bd f3c7 03be
000000f0: c374 a33d ee62 0bbc d314 99bd a7b7 0ebc
00000100: 53fd 04be 24c6 153b fd79 00be 5714 09be
00000110: 4868 54be 0af5 203d 874e 92bc cc00 41be
00000120: 2329 ffbc edef c0bd 2f88 213e 96bf dcbd
00000130: e086 28be 0a27 473c 2f3c ab3d 73ac 0c3d
00000140: ac04 5cbb 5a12 b83d f063 a53d 359f 1b3e
00000150: d515 333d eef1 1c3d 9f97 de3c 2189 1e3e
00000160: 9553 a03c 81d1 1d3c bd87 1c3e 3f57 5f3c
00000170: 6feb ca3d fb91 51bd 396c 06be aac9 aebd
00000180: 32ec bbbc 7492 13be 0b54 903c 472c 72bc
00000190: e217 73bd dbfc 9e3d 298d cdbd 7e2e a0bd
000001a0: 405b 23bd 3eb4 c83d 8f3b 90bd b9ea b8bc
000001b0: 0304 a6bd 1558 69bd 85b5 ecbc f73f 603d
000001c0: bfb0 8d3d c87b 083c c6af 983d c6c1 1d3d
000001d0: 1fbf 0aba 47e9 22be c881 f4bd 2459 2a3c
000001e0: a251 8dbd 86ae 89bd cb75 883c 6186 103c
000001f0: c9fa 05bd f22f 013d 26ff 13be 6f38 f6bd
00000200: 9a19 103c 8e1d 1f3e dfa6 663d 118c 76bc
00000210: 798d d23d 3062 55bd 0754 19be 7371 493d
00000220: 3e96 7bbe 04f5 80be 73f8 3cbd d5b0 61be
00000230: fa40 d9bc a519 45be 4cb3 78be 0a09 fe3d
00000240: d3d4 0bba 69d2 82bc d72b 15be adca 3bbc
00000250: f6b5 d2bd 323b 20be de02 c63c 908f 50be
00000260: 6eb7 1cbe 1e47 bc3d bd44 e23b 3820 67bd
00000270: 3758 8b3d 6884 f5bc 4454 3bbe f7e7 e43d
00000280: 4fa2 16be 60ee dfbc ea5f 173e 2035 9d3d
00000290: 31bd 6d3e 94d0 eebc ff56 06bd da0f c3bd
000002a0: deb2 5a3d a5bb 19be e396 85bd 998d a73d
000002b0: a987 283d 0de3 503e 5b00 b13d e8f3 14bd
000002c0: 8b05 7dbd e2d5 a5bc c326 91bd fb14 94bd
000002d0: bc93 b5bc 4248 043e 8d6b a93d ebac 713b
000002e0: d3bb 87bc 0637 1ebe 6f02 113d 44c6 d5bd
000002f0: 07e7 18be b8c6 87bd a0ab 68bd 0c20 aebd
00000300: 3350 b7bd 73ae 9bbd ee9d afbd b798 42bd
00000310: 4515 aebc 8a98 dd3c bf4d 95bd aeb4 053b
00000320: 1470 66bd a44d 24bd 1b86 99bd f61b 44bd
00000330: 591b d73c ac69 6a3c 8613 42bc 6e53 303e
00000340: 412a 203e 8136 303e 7954 4a3d 4704 db3d
00000350: b8cf 90bc e4ca 123e 02d3 543c a611 10bd
00000360: f1ed 40be 0705 bdbd 1ff2 823c f859 d0bd
00000370: 2150 84bd e7c0 b3bd 2847 3fbe 3c36 aabc
00000380: c5d2 7fbc 668d 303d 20b0 3a3d 64de fa3b
00000390: a537 7e3d f16b 403d 8cd5 a43c 5c84 26bc
000003a0: 4f9e 5a3c 2061 653d 18ba 463d 2c42 e33d
000003b0: b8ee b13d de0f 293e 2894 fd3d 557c ad3d
000003c0: 89d5 143e ed73 243d 8063 2f3d 1c78 29be
000003d0: ff04 f2bd 127e bb3a 893e eebd a06a c2bd
000003e0: efbd cdbc 5500 93be 5b26 f7bd 62bd df3c
000003f0: 1a8b 393c db47 a43c 71fe 73bd e6a0 923c

Generator.conv3.conv1.0.weight f4 [8, 8, 3, 3, 3]
0.012990207 0.07699455 -0.018508704 -0.018594397 0.013615086 0.045521256 0.0678462 -0.026934493
0.016716292 -0.024966685 0.030296076 -0.06005566 0.015399015 -0.01836027 -0.0878718 -0.048192114
0.03362145 -0.037209745 -0.037125718 0.06652215 -0.017359456 0.052629307 -0.054094296 -0.011124881
-0.025832983 0.028691337 -0.06061915 -0.060330864 0.027980715 0.030928804 0.012766436 -0.025295675
-0.06410107 0.049058598 -0.0076999934 0.046675216 0.0073483223 0.063070156 0.11625007 -0.008017685
-0.042680267 -0.08827418 0.005644458 -0.083250344 0.026739474 -0.01697896 0.10129534 -0.031184023
0.06016057 -0.04763814 -0.07255239 -0.098574854 -0.09952259 0.055306803 -0.04772917 -0.02398368
-0.03080243 -0.05061381 -0.023292063 0.024694499 0.0058778184 -0.016297452 0.018340694 0.047415927
0.03399267 0.058588084 -0.033509172 0.09517267 0.055015743 -0.034262367 -0.0001263629 -0.023975205
0.07036013 -0.053080175 0.021234723 0.004714906 0.07399803 -0.039663173 0.075460054 -0.059209038
-0.062042017 0.023344083 0.0010091441 0.0052685267 -0.026214015 0.039513685 -0.062455714 0.052758496
-0.01197404 0.05797096 -0.017423006 0.04145527 0.034464315 -0.050787278 0.0669388 -0.073789366
-0.081796214 -0.020362008 -0.003043483 -0.042632256 0.057746965 -0.01693952 0.07281464 0.13080432
0.027843343 -0.018839726 -0.021834346 -0.078777075 0.08037229 -0.050451938 0.0066839964 0.063196965
-0.06958331 0.055851586 0.087299325 0.04326275 -0.030071793 0.058493577 0.081468 0.0661904
0.009872668 0.056946978 0.10140927 0.042015776 0.07185439 -0.045530062 -0.012143613 -0.00275399
0.018045533 -0.06555607 -0.044266447 -0.016550386 0.041199956 -0.04949245 -0.03526328 -0.06825095
0.02972479 0.027615145 -0.014623077 0.075628065 -0.05814433 -0.035178054 -0.012978712 0.032203842
0.014010786 0.07334589 0.037247255 -0.044116456 0.04548689 -0.0038323558 -0.056789666 -0.0628051
0.03863037 -0.057456225 0.06150461 -0.055994865 0.0391018 0.091468304 0.05705606 0.05988337
-0.085489005 -0.026974734 -0.05292737 0.05392578 -0.0049885972 -0.020555051 -0.037332296 -0.03130525
0.10310245 0.0042238836 0.028749442 0.052336305 -0.008971877 0.07539178 0.07477422 -0.040408127
0.045549035 0.026690355 0.01615989 0.015245377 0.02718845 0.0009548275 -0.11677321 0.04162502
0.11172526 -0.014026539 -0.096552595 0.10014626 0.0037067386 -2.2522476e-05 -0.007208777 0.009448862
0.012601705 0.038273193 -0.021498563 -0.0784791 -0.010778693 0.00037122844 -0.014287677 0.0009833744
0.005150376 0.02771858 0.14335153 0.047464035 -0.012330433 -0.039869066 0.061064105 -0.054257117
-0.0920118 -0.007894917 0.0535157 0.11450991 -0.083096795 -0.038082574 -0.049681555 -0.0536846
0.009937156 -0.04129877 -0.00011177525 0.043148726 0.012381858 0.04547554 0.0015133125 0.05783235
0.041505605 0.12024644 -0.06422633 0.012312706 0.08107 0.04274839 -0.0899867 -0.036266316
0.04127506 -0.1717926 0.023740284 -0.006697205 0.026552252 0.056126043 -0.00710435 -0.04560064
-0.058973957 -0.059837688 0.014354474 0.0071848314 -0.11496539 -0.15868397 0.025315998 0.06704943
-0.14041159 0.07958019 0.056770597 -0.0039201495 0.06772638 0.009803343 -0.024792349 0.09677032
00000000: e1d4 543c 52af 9d3d 919f 97bc 4753 98bc
00000010: cf11 5f3c 7f74 3a3d f3f2 8a3d baa5 dcbc
00000020: 9bf0 883c ef86 ccbc 7a2f f83c ecfc 75bd
00000030: 264c 7c3c 4768 96bc 21f6 b3bd 1865 45bd
00000040: a5b6 093d 3f69 18bd 2311 18bd c43c 883d
00000050: 6b35 8ebc d491 573d fb91 5dbd 2245 36bc
00000060: b19f d3bc 180a eb3c c94b 78bd 7f1d 77bd
00000070: d037 e53c 675e fd3c 502a 513c e038 cfbc
00000080: 6c47 83bd abf1 483d 3a50 fcbb 832e 3f3d
00000090: 32ca f03b ed2a 813d 8414 ee3d 9c5c 03bc
000000a0: 81d1 2ebd 18c9 b4bd 25f5 b83b 287f aabd
000000b0: be0c db3c 7617 8bbc ee73 cf3d a375 ffbc
000000c0: ee6a 763d 3620 43bd 5996 94bd 9de1 c9bd
000000d0: 80d2 cbbd 6389 623d aa7f 43bd 6c79 c4bc
000000e0: 6155 fcbc 6d50 4fbd ffce bebc 1e4c ca3c
000000f0: b79a c03b 3c82 85bc 393f 963c 3437 423d
00000100: e63b 0b3d 0ffa 6f3d ea40 09bd e4e9 c23d
00000110: 3058 613d b256 0cbd 4880 04b9 a667 c4bc
00000120: f918 903d 996a 59bd 71f4 ad3c 807f 9a3b
00000130: 478c 973d da75 22bd cd8a 9a3d 2d85 72bd
00000140: c51f 7ebd 173c bf3c 4245 843a 9ba3 ac3b
00000150: c6be d6bc 1ad9 213d 90d1 7fbd 4b19 583d
00000160: c42e 44bc f572 6d3d b1ba 8ebc 00cd 293d
00000170: 742a 0d3d 5206 50bd 3617 893d e11e 97bd
00000180: c684 a7bd 3ace a6bc 2c75 47bb 299f 2ebd
00000190: 1588 6c3d c0c4 8abc d81f 953d 91f1 053e
000001a0: b917 e43c c555 9abc f1dd b2bc e055 a1bd
000001b0: 3a9a a43d b1a6 4ebd 6d05 db3b 696d 813d
000001c0: b281 8ebd a2c4 643d fdc9 b23d 4834 313d
000001d0: 1f59 f6bc f696 6f3d b2d8 a63d d58e 873d
000001e0: f9c0 213c 3c41 693d aaaf cf3d bc18 2c3d
000001f0: 6528 933d bb7d 3abd 01f6 46bc 497c 34bb
00000200: 3ad4 933c 4342 86bd bc50 35bd ad94 87bc
00000210: 49c1 283d 98b8 4abd 3b70 10bd 27c7 8bbd
00000220: 6781 f33c 2839 e23c a195 6fbc e3e2 9a3d
00000230: c028 6ebd dd16 10bd aaa4 54bc 2de8 033d
00000240: 7f8d 653c 5f36 963d 9490 183d 75b3 34bd
00000250: 7650 3a3d 4328 7bbb 489c 68bd f69f 80bd
00000260: e13a 1e3d 3857 6bbd 42ec 7b3d df5a 65bd
00000270: 3629 203d bc53 bb3d 9db3 693d 4448 753d
00000280: dc14 afbd 1efa dcbc 5fca 58bd 47e1 5c3d
00000290: 6377 a3bb 1163 a8bc c0e9 18bd ef39 00bd
000002a0: 6127 d33d 8168 8a3b f383 eb3c 985e 563d
000002b0: c8fe 12bc 0167 9a3d 3a23 993d fe82 25bd
000002c0: a091 3a3d bba5 da3c bf61 843c bfc7 793c
000002d0: 50ba de3c 644d 7a3a cb26 efbd ff7e 2a3d
000002e0: 37d0 e43d 92cf 65bc 5ebd c5bd 7b19 cd3d
000002f0: c1ec 723b a6ee bcb7 9b37 ecbb 66cf 1a3c
00000300: 6277 4e3c 5ac4 1c3d c11d b0bc a6b9 a0bd
00000310: 1d99 30bc 70a1 c239 dc16 6abc 92e4 803a
00000320: 7cc4 a83b 1312 e33c beca 123e a669 423d
00000330: 9605 4abc bf4d 23bd 5b1e 7a3d b63c 5ebd
00000340: af70 bcbd af59 01bc 4733 5b3d 2c84 ea3d
00000350: a72e aabd 79fc 1bbd e37e 4bbd 62e4 5bbd
00000360: 74cf 223c e628 29bd e168 eab8 b8bc 303d
00000370: 47dd 4a3c 8f44 3a3d 575a c63a 9de1 6c3d
00000380: c801 2a3d c443 f63d 1889 83bd 3bbb 493c
00000390: 0708 a63d f018 2f3d f24a b8bd fd8b 14bd
000003a0: 0a10 293d 66ea 2fbe fc7a c23c 3a74 dbbb
000003b0: 1c84 d93c 6ce4 653d 9bcb e8bb bdc7 3abd
000003c0: ad8e 71bd 5d18 75bd 072f 6b3c bc6e eb3b
000003d0: f972 ebbd 0d7e 22be 7f63 cf3c 3651 893d
000003e0: 0ec8 0fbe f0fa a23d 4988 683d 9974 80bb
000003f0: 21b4 8a3d 339e 203c 5319 cbbc 842f c63d

Generator.conv3.conv2.0.weight f4 [8, 8, 3, 3, 3]
0.04768598 0.013337719 -0.013718494 -0.021236304 0.073051535 -0.040181946 -0.07336076 -0.023982406
-0.094181895 0.040375408 -0.029581765 0.057096045 0.003682138 0.06035819 -0.02183493 -0.01532049
0.009150639 -0.077075556 0.014154283 0.007752215 0.013512241 0.06281747 0.11040424 0.14617534
0.05039801 0.08903359 0.05011674 0.11208343 -0.13640979 -0.20580253 0.12720801 -0.10657854
-0.09822878 0.04342066 0.08315625 -0.01343598 0.077411346 -0.10506134 -0.1447901 -0.1031514
-0.10007692 -0.061499186 -0.13288824 -0.15058742 -0.19463585 0.09603391 -0.004978833 -0.14685145
-0.023072824 -0.025307925 -0.15345101 -0.0731205 -0.05782224 -0.14574532 0.045089584 0.02978898
-0.32157508 0.070874915 -0.053113703 -0.00021714823 0.11173803 0.18796246 0.040828966 0.11064341
-0.043154415 -0.026338918 0.082315244 0.011986903 -0.054536276 0.025140546 0.29977995 -0.024574954
0.14406177 0.14042324 0.11715344 0.12604947 0.15999755 0.12169877 -0.12038599 0.11607773
0.12847644 -0.058277864 0.10177192 -0.00087863137 -0.07144063 -0.048734486 0.056165405 0.06095407
-0.0012487936 -0.038615778 -0.13741429 0.019235779 0.0105873095 -0.15612161 -0.24407315 0.0468094
-0.0031741771 -0.16806516 -0.07138248 -0.18958224 -0.103889264 -0.025843503 -0.024934232 -0.26743588
-0.02767599 0.09950199 -0.044005454 -0.032371152 -0.41297105 -0.19347669 -0.025363397 -0.13889292
-0.083986804 -0.045983125 -0.07435501 -0.13116746 -0.049270846 -0.018392853 0.01061997 0.04056784
0.032571577 0.02970068 -0.041462116 -0.056846134 0.007577028 -0.02676331 -0.4618229 -0.27512452
-0.03015465 -0.31862915 -0.2955711 -0.10088347 0.094298676 0.016442392 0.08280874 0.026349587
0.003657986 -0.28080684 -0.15050265 -0.049635462 0.013316308 0.25873253 -0.041258965 0.09507034
-0.13798036 -0.085443236 -0.0635146 -0.063605614 0.0008350506 0.07561499 0.16908514 -0.04669331
0.14850181 0.029195273 0.13711923 -0.067393646 0.09983773 0.030015063 0.063762 0.3105119
0.027249323 -0.026539663 0.16220938 0.13577214 0.15788746 -0.017481226 -0.059867304 0.08249618
-0.16689327 -0.18264702 0.1665213 0.022561703 0.047182262 0.12076333 -0.12146262 -0.12999074
0.10208217 -0.14362082 -0.00406501 0.120098025 -0.20621139 -0.060043283 0.15013897 -0.16366948
-0.09746373 0.23539184 -0.038175087 0.12025731 0.1289808 -0.0032080212 -0.0361625 0.099215195
-0.04319953 -0.02901446 0.09607236 -0.08969077 0.0077603585 0.19014816 0.1757618 0.05301949
0.08943034 0.04575778 0.029122498 0.011174325 -0.076310344 0.08777024 -0.012367318 0.17050955
0.009822786 -0.019072238 0.16527097 0.06654416 0.042136 0.116274945 0.1685935 -0.03755752
-0.006460841 -0.016438471 -0.04087629 0.012367071 -0.08431223 -0.09933393 0.047183752 -0.018495683
0.050823037 -0.0116610695 -0.052459277 -0.043665543 -0.0110440245 0.04402344 -0.05615374 0.056654755
-0.0071676257 0.036974154 -0.007111532 0.10365416 0.117144346 0.04961785 0.046563238 0.04569669
0.094414614 -0.030940546 0.0066559403 -0.0021859042 0.0021610353 -0.13409254 0.0892613 0.0977788
0.043385796 0.15254894 0.019811125 0.10834636 0.03582173 0.12018869 -0.061381433 0.103548415
00000000: 6052 433d 7386 5a3c 89c3 60bc c2f7 adbc
00000010: 0b9c 953d d395 24bd 2b3e 96bd c076 c4bc
00000020: 70e2 c0bd af60 253d 7555 f2bc 8bdd 693d
00000030: 0650 713b 263a 773d 2bdf b2bc cb02 7bbc
00000040: 90ec 153c cad9 9dbd 5ee7 673c 4b06 fe3b
00000050: 7262 5d3c 72a6 803d 9e1b e23d fdae 153e
00000060: 256e 4e3d 3e57 b63d 3647 4d3d ff8b e53d
00000070: 02af 0bbe e6bd 52be d142 023e d945 dabd
00000080: 2c2c c9bd ddd9 313d d34d aa3d 9622 5cbc
00000090: d789 9e3d 662a d7bd db43 14be 0b41 d3bd
000000a0: 21f5 ccbd 92e6 7bbd db13 08be 9733 1abe
000000b0: 9f4e 47be 6dad c43d 7a25 a3bb 3a60 16be
000000c0: 3803 bdbc 9152 cfbc 4322 1dbe 33c0 95bd
000000d0: 03d7 6cbd 433e 15be dbaf 383d 0508 f43c
000000e0: 7da5 a4be de26 913d c18d 59bd 49b2 63b9
000000f0: e9d6 e43d 3b79 403e 463c 273d 0399 e23d
00000100: afc2 30bd b7c4 d7bc e594 a83d b764 443c
00000110: 6e61 5fbd 8cf3 cd3c c27c 993e 6a51 c9bc
00000120: ee84 133e 1ccb 0f3e 25ee ef3d 1d13 013e
00000130: 66d6 233e 343d f93d ee8c f6bd 29ba ed3d
00000140: 548f 033e c5b4 6ebd cc6d d03d f453 66ba
00000150: 774f 92bd d09d 47bd b20d 663d faaa 793d
00000160: 8fae a3ba 942b 1ebd 55b6 0cbe 5a94 9d3c
00000170: 6576 2d3c 58de 1fbe 50ee 79be 37bb 3f3d
00000180: db05 50bb 4619 2cbe fa30 92bd d921 42be
00000190: e5c3 d4bd c1b5 d3bc e042 ccbc 5bed 88be
000001a0: c2b8 e2bc b3c7 cb3d 103f 34bd 9d97 04bd
000001b0: f170 d3be c11e 46be e6c6 cfbc f239 0ebe
000001c0: 4601 acbd cd58 3cbd 7147 98bd c350 06be
000001d0: 3ad0 49bd 9cac 96bc 62ff 2d3c 772a 263d
000001e0: c669 053d d74e f33c 2ed4 29bd 7ed7 68bd
000001f0: b848 f83b bb3e dbbc 0d74 ecbe 1fdd 8cbe
00000200: e206 f7bc 5c23 a3be 1855 97be fe9b cebd
00000210: aa1f c13d 32b2 863c a197 a93d 17db d73c
00000220: d2ba 6f3b eac5 8fbe 5e1d 1abe 8e4e 4bbd
00000230: a52c 5a3c 9778 843e 29ff 28bd 3db4 c23d
00000240: b94a 0dbe ddfc aebd f113 82bd a943 82bd
00000250: 4ce7 5a3a 08dc 9a3d a824 2d3e 7c41 3fbd
00000260: dc10 183e ed2a ef3c fc68 0c3e ae05 8abd
00000270: b977 cc3d 26e2 f53c a795 823d 6afb 9e3e
00000280: f939 df3c b569 d9bc 371a 263e da07 0b3e
00000290: 40ad 213e ca34 8fbc 6b37 75bd c2f3 a83d
000002a0: 12e6 2abe d207 3bbe 8f84 2a3e 52d3 b83c
000002b0: 3042 413d c452 f73d 65c1 f8bd 4b1c 05be
000002c0: 7510 d13d 5611 13be c733 85bb f4f5 f53d
000002d0: 1429 53be f2ef 75bd 08be 193e f998 27be
000002e0: 109b c7bd 8f0a 713e 7b5d 1cbd 7749 f63d
000002f0: 8b13 043e aa3d 52bb 211f 14bd 5631 cb3d
00000300: fef1 30bd bcaf edbc 96c1 c43d cbaf b7bd
00000310: 9b4a fe3b 33b6 423e e7fa 333e f72a 593d
00000320: 4127 b73d 836c 3b3d 4e92 ee3c 8414 373c
00000330: 9948 9cbd e2c0 b33d 4ba0 4abc 0e9a 2e3e
00000340: c0ef 203c 623d 9cbc cb3c 293e 4e48 883d
00000350: cc96 2c3d 8f21 ee3d c6a3 2c3e ead5 19bd
00000360: 76b5 d3bb f9a9 86bc e66d 27bd 419f 4a3c
00000370: e4ab acbd 966f cbbd c043 413d 4284 97bc
00000380: d12b 503d 120e 3fbc 8adf 56bd a4da 32bd
00000390: fff1 34bc ec51 343d 7701 66bd d10e 683d
000003a0: 67de eabb 3672 173d db07 e9bb a248 d43d
000003b0: 60e9 ef3d 163c 4b3d 18b9 3e3d 742c 3b3d
000003c0: 735c c13d 0777 fdbc 131a da3b 6341 0fbb
000003d0: 28a0 0d3b 8e4f 09be a1ce b63d 4040 c83d
000003e0: 4eb5 313d ca35 1c3e f14a a23c b2e4 dd3d
000003f0: ceb9 123d 7d25 f63d 196b 7bbd 3111 d43d

Generator.conv4.conv1.0.weight f4 [8, 8, 3, 3, 3]
-0.031792488 0.022179695 -0.026917832 -0.008907641 0.0518991 -0.0032627329 0.003994912 0.04655962
-0.008403479 -0.042869054 -0.015978768 -0.076593176 -0.07994981 -0.035694998 -0.057598494 0.09461607
0.03211376 0.056472957 0.042624377 0.025473176 0.07181743 0.030888738 -0.12951744 0.016082741
-0.062430345 -0.045884065 0.02050156 -0.035364266 0.051159613 0.09197249 -0.003493158 0.065424845
0.06337184 -0.09055673 0.070228755 -0.025229169 -0.01264849 -0.029545836 -0.05133809 0.00018788764
-0.029232569 -0.06039876 0.012039571 0.04772552 0.043595497 0.0646289 -0.04949738 -0.06536981
0.050872907 -0.036311176 0.011577845 0.08231632 0.049540553 0.02597307 -0.13186559 -0.123758614
-0.105482854 -0.044947013 0.04201663 -0.059427407 0.04006992 0.045139417 0.0227922 -0.018477112
-0.1741937 -0.07666976 0.014406726 -0.07304773 -0.081044674 0.0102703255 0.06737648 0.01721891
0.08160505 -0.00934016 -0.013472885 -0.012869605 -0.12648162 0.0279013 -0.027714806 -0.055576533
0.0029390024 0.020774487 -0.006245632 -0.04322637 -0.00096140534 -0.033583395 -0.08552223 0.038945314
0.0228753 0.068810225 0.021981321 -0.04553209 -0.022622447 -0.0023823527 -0.07237014 -0.035650082
0.10813604 0.10701138 0.04884612 -0.016385136 -0.0741869 -0.061029576 -0.0160875 0.008018231
-0.12731455 0.09312113 0.023616286 0.019383315 -0.1087565 -0.08103605 0.017996134 -0.026115356
0.0540273 0.032334507 0.02083726 0.06332913 0.014458974 -0.0038609656 -0.011462185 0.012650116
-0.026272206 -0.0034953996 0.046615105 0.029272852 0.0034634827 0.0066921357 0.07988441 -0.037678618
0.06812276 0.029362284 0.01294621 -0.02614076 -0.0056379666 0.0508356 0.023218922 -0.020762773
0.033200175 -0.101199 0.022868646 0.13264666 0.028907299 0.06901725 0.053279486 -0.0343651
-0.007984689 0.013061327 -0.04250303 -0.03642376 -0.07213897 -0.0019295986 0.015021346 0.012520325
-0.0099607045 0.055575434 -0.013239073 -0.025009863 0.018511944 -0.052719135 -0.06325029 0.016288355
-0.06260278 -0.025479782 -0.13254146 -0.0149971405 -0.12498432 0.0039770696 0.089703284 0.082847245
0.0009575345 0.018521251 0.0021947771 -0.10774941 -0.036963616 0.017490422 -0.035181563 -0.14484005
-0.00812393 0.071425594 0.07883239 -0.007380986 0.096858226 0.1317385 0.031011898 -0.05581263
-0.035770524 0.017308045 -0.06696302 -0.015414287 -0.015315083 -0.04620011 -0.06326511 -0.1060099
-0.008838977 0.0110296225 -0.042207547 0.017537106 -0.00897745 0.032056175 0.023910401 -0.11820583
0.024567459 0.025457885 -0.056922797 -0.028511716 0.08780762 0.07561282 -0.033419676 0.054070037
0.009842581 -0.078160234 0.008314335 -0.07673369 -0.11109598 0.01141315 -0.010759037 0.032550152
-0.012169998 0.08580901 0.057542022 0.024433063 0.11785786 0.047556933 -0.049049567 0.023266826
0.05551776 0.049615726 0.054987974 0.010844463 -0.050821263 0.03445547 0.055601362 0.0010339947
0.01170624 0.03474941 0.011778672 -0.07125366 -0.04692934 0.047168612 -0.11542604 -0.117173895
0.064768836 0.02056142 -0.054346353 -0.047037892 0.08010917 0.08391895 -0.07923755 0.11722463
0.096217886 0.0016297699 -0.10936875 -0.04307555 -0.007999963 0.035636365 0.010160084 -0.01786182
00000000: d738 02bd 31b2 b53c c982 dcbc 5bf1 11bc
00000010: 2794 543d 93d3 55bb c0e7 823b 4db5 3e3d
00000020: bfae 09bc 7697 2fbd e8e5 82bc e2dc 9cbd
00000030: babc a3bd eb34 12bd 66ec 6bbd 12c6 c13d
00000040: b889 033d 3050 673d e696 2e3d 1fad d03c
00000050: 0415 933d 610a fd3c 38a0 04be f4bf 833c
00000060: f6b6 7fbd eef0 3bbd e3f2 a73c 1fda 10bd
00000070: be8c 513d 135c bc3d 77ed 64bb 76fd 853d
00000080: 18c9 813d cf75 b9bd 18d4 8f3d 67ad cebc
00000090: 9d3b 4fbc 1c0a f2bc e447 52bd b403 4539
000000a0: 2479 efbc b164 77bd 9f41 453c d67b 433d
000000b0: 3191 323d 285c 843d c4bd 4abd 9be0 85bd
000000c0: 1c60 503d 07bb 14bd 00b1 3d3c 7595 a83d
000000d0: 09eb 4a3d 7ac5 d43c c607 07be 2875 fdbd
000000e0: 6507 d8bd 5c1a 38bd a119 2c3d 276a 73bd
000000f0: 5b20 243d 1ce4 383d b5b6 ba3c 505d 97bc
00000100: d55f 32be 0905 9dbd 300a 6c3c 0c9a 95bd
00000110: c0fa a5bd de44 283c aefc 893d ac0e 8d3c
00000120: 8c20 a73d 7807 19bc 60bd 5cbc 09db 52bc
00000130: 6684 01be 4491 e43c 290a e3bc 38a4 63bd
00000140: 479c 403b 422f aa3c 29a8 ccbb 220e 31bd
00000150: d206 7cba be8e 09bd 4726 afbd 1f85 1f3d
00000160: fb64 bb3c 60ec 8c3d 2c12 b43c db7f 3abd
00000170: b652 b9bc 3f21 1cbb cc36 94bd d205 12bd
00000180: 6e76 dd3d c828 db3d de12 483d 1f3a 86bc
00000190: 4def 97bd 26fa 79bd efc9 83bc e65e 033c
000001a0: bf5e 02be 4ab6 be3d f176 c13c c2c9 9e3c
000001b0: babb debd 3bf6 a5bd a16c 933c dfef d5bc
000001c0: bb4b 5d3d 3071 043d e7b2 aa3c b4b2 813d
000001d0: 55e5 6c3c 4108 7dbb e3cb 3bbc 6f42 4f3c
000001e0: cf38 d7bc 1313 65bb 7bef 3e3d 9fcd ef3c
000001f0: 99fb 623b b449 db3b 709a a33d e554 1abd
00000200: f283 8b3d 2c89 f03c 571c 543c 2625 d6bc
00000210: b1be b8bb fd38 503d 9c35 be3c b116 aabc
00000220: e8fc 073d 6c41 cfbd 0757 bb3c 87d4 073e
00000230: 00cf ec3c ea58 8d3d 973b 5a3d 6bc2 0cbd
00000240: 37d2 02bc 2dff 553c a817 2ebd 1531 15bd
00000250: 99bd 93bd 96ea fcba 171c 763c 0d22 4d3c
00000260: 3932 23bc 11a3 633d b2e8 58bc 7ce1 ccbc
00000270: 5ca6 973c 05f0 57bd 5e89 81bd 286f 853c
00000280: e335 80bd faba d0bc f3b8 07be 91b6 75bc
00000290: c7f7 ffbd 1452 823b 5bb6 b73d d1ab a93d
000002a0: 0d03 7b3a e1b9 973c 40d6 0f3b b9ab dcbd
000002b0: 2967 17bd 1348 8f3c 8b1a 10bd f350 14be
000002c0: 3b1a 05bc 9547 923d e072 a13d 33dc f1bb
000002d0: 9b5d c63d 75e6 063e aa0c fe3c c99b 64bd
000002e0: 1d84 12bd 9ac9 8d3c e823 89bd 358c 7cbc
000002f0: 1dec 7abc 543c 3dbd 2391 81bd b81b d9bd
00000300: 5bd1 10bc 97b5 343c d2e1 2cbd faa9 8f3c
00000310: 2816 13bc 564d 033d bfdf c33c e615 f2bd
00000320: b241 c93c 0e8d d03c e127 69bd 6791 e9bc
00000330: 7bd4 b33d e5da 9a3d 12e3 08bd 8b78 5d3d
00000340: c742 213c 7912 a0bd d938 083c 8e26 9dbd
00000350: 4a86 e3bd 38fe 3a3c ac46 30bc 4f53 053d
00000360: ac64 47bc a2bc af3d 2fb1 6b3d d927 c83c
00000370: 765f f13d 0fcb 423d 33e8 48bd 129a be3c
00000380: 9766 633d dc39 4b3d 123b 613d f9ac 313c
00000390: f529 50bd 2e21 0d3d 41be 633d 1b87 873a
000003a0: 87cb 3f3c 6655 0e3d 55fb 403c 70ed 91bd
000003b0: fb38 40bd e033 413d 7d64 ecbd def8 efbd
000003c0: 86a5 843d 6c70 a83c 489a 5ebd ceaa 40bd
000003d0: 4710 a43d b3dd ab3d 4c47 a2bd 7813 f03d
000003e0: e20d c53d 019e d53a b9fc dfbd fd6f 30bd
000003f0: 4712 03bc 70f7 113d 7b76 263c f452 92bc

Generator.conv4.conv2.0.weight f4 [8, 8, 3, 3, 3]
0.05034726 0.30853537 -0.08574978 -0.14317864 -0.10470391 0.01993523 0.06530994 0.04995556
0.19542873 -0.046724048 0.14105299 0.031998836 0.0048001837 -0.08021661 -0.07324538 0.100431874
0.28336924 0.119846314 -0.04418491 0.06366688 -0.05056834 -0.04367569 -0.0309421 0.054444827
0.09974079 0.15169413 0.04695318 -0.018121084 -0.08921163 0.18878075 0.057078548 0.13928875
-0.018167237 0.10436787 -0.029961133 -0.0026601728 0.024939334 -0.07231101 0.05216219 -0.038871024
0.16651194 0.030526824 -0.03000424 0.10228183 -0.09245373 0.036322962 0.016958378 -0.033321634
-0.022589685 0.02649842 -0.12057478 0.03360724 0.18489608 0.018657038 -0.22384359 -0.024810333
0.19778489 -0.15941855 -0.15342915 -0.032846354 -0.03228786 0.112948045 0.15209763 -0.5488139
-0.09488246 0.13644028 -0.12204302 -0.07134146 -0.040438995 0.08818371 0.09871701 0.156234
-0.11069215 -0.14735039 0.0049210307 -0.15568154 -0.102854915 -0.059554186 -0.045894656 0.26112488
0.13923024 -0.008473631 -0.04605866 0.036758926 -0.029484214 -0.03534597 -0.05824826 0.1459506
-0.017954905 -0.07760214 -0.0020119618 0.016096344 -0.015398893 0.061198343 0.05883159 0.038625054
-0.09203665 0.0067861355 -0.06120847 0.061081327 0.01726638 -0.04748826 0.18572406 0.078733794
0.03795168 -0.09390382 -0.096147105 -0.09898835 -0.10267438 -0.029348 -0.2638994 0.012632362
0.07806198 -0.1214813 -0.05175899 -0.09018927 -0.16764486 -0.12865002 -0.08972126 -0.01971005
-0.019463101 -0.21711609 -0.1200055 -0.058184765 -0.101945065 0.01803192 -0.13270883 0.06721697
0.15761195 0.0069747046 -0.20612426 -0.1714397 0.06546012 -0.16254713 -0.1402527 0.12542523
-0.065698765 -0.06626696 -0.029950896 -0.1325975 -0.17540196 -0.055824466 0.092048 -0.053702608
0.13413063 0.045547027 0.014326816 0.21480703 0.08172843 0.011959992 0.13254605 0.116086386
-0.04973722 -0.41164133 -0.29225957 -0.15535429 -0.14168268 0.09652281 0.1312716 -0.16637205
0.06875597 0.082398385 0.007359256 0.019080615 -0.17023991 0.00073375454 -0.078427136 -0.07028411
0.019401621 0.04158451 0.15853229 -0.09265222 -0.07875781 -0.12698781 -0.140491 -0.19916438
0.023004478 0.14441778 0.09334566 0.04898379 -0.0402435 0.029664993 -0.14262226 -0.30273157
0.036158044 -0.02105894 -0.23683959 0.1558461 0.0026502039 -0.02805481 -0.013894611 -0.0076603633
-0.06665156 -0.2391075 -0.01390559 -0.04689493 -0.08514429 0.008235289 -0.0026684585 -0.04006745
0.102693975 -0.03974105 -0.08472079 0.033299405 0.02993999 -0.030273568 0.015421453 0.107844725
0.0156163685 0.14543788 0.06372377 -0.04787962 0.031006737 0.12934132 0.015568643 -0.0089927595
-0.07336992 0.12551765 -0.034349147 -0.19245476 -0.15892124 0.16054009 0.0023393673 -0.09390371
0.1188859 -0.13788442 0.018707536 -0.10919008 -0.0028236832 -0.10466758 0.0649957 0.10616948
-0.07258279 0.04364525 -0.050021097 0.074027695 -0.061702907 -0.02111431 0.11231892 0.10265491
0.007592127 0.027787039 0.068146124 -0.05049904 0.037466977 -0.10821628 -0.011683928 0.29836613
-0.03918715 -0.13629198 0.039340656 0.17947811 0.021585086 0.083405584 0.105235785 0.030464891
00000000: ee38 4e3d 59f8 9d3e 959d afbd 6c9d 12be
00000010: 016f d6bd 354f a33c 38c1 853d 349e 4c3d
00000020: 781e 483e b761 3fbd 3270 103e 3611 033d
00000030: dc4a 9d3b 9b48 a4bd ac01 96bd 3aaf cd3d
00000040: c615 913e fc71 f53d 3cfb 34bd c863 823d
00000050: bf20 4fbd 48e5 32bd 497a fdbc 8a01 5f3d
00000060: e644 cc3d b555 1b3e fa51 403d ab72 94bc
00000070: 96b4 b6bd be4f 413e 32cb 693d b6a1 0e3e
00000080: 75d3 94bc d2be d53d 0d71 f5bc 4b56 2ebb
00000090: 934d cc3c cb17 94bd 05a8 553d 3937 1fbd
000000a0: 1b82 2a3e 6413 fa3c 74cb f5bc 2379 d13d
000000b0: 6258 bdbd 63c7 143d 4cec 8a3c 447c 08bd
000000c0: 010e b9bc 3713 d93c e9ef f6bd bfa7 093d
000000d0: 6655 3d3e a5d6 983c 4137 65be 0a3f cbbc
000000e0: 1f88 4a3e 9e3e 23be 881c 1dbe e689 06bd
000000f0: 4640 04bd 4e51 e73d 7bbf 1b3e 117f 0cbf
00000100: bc51 c2bd 00b7 0b3e b1f1 f9bd 791b 92bd
00000110: 5ca3 25bd a999 b43d 252c ca3d cefb 1f3e
00000120: 91b2 e2bd 05e3 16be 9940 a13b fb6a 1fbe
00000130: 99a5 d2bd 17ef 73bd 09fc 3bbd 29b2 853e
00000140: 5f92 0e3e fcd4 0abc 01a8 3cbd 8790 163d
00000150: e188 f1bc f0c6 10bd ba95 6ebd 1374 153e
00000160: 2a16 93bc dfed 9ebd 1edb 03bb 7bdc 833c
00000170: a34b 7cbc 1dab 7a3d 65f9 703d 4e35 1e3d
00000180: b67d bcbd 3b5e de3b bcb5 7abd 6a30 7a3d
00000190: 3972 8d3c 0d83 42bd 732e 3e3e 2f3f a13d
000001a0: 3973 1b3d a550 c0bd c6e8 c4bd 67ba cabd
000001b0: f246 d2bd 386b f0bc d21d 87be f7f7 4e3c
000001c0: f6de 9f3d 30cb f8bd 3c01 54bd 27b5 b8bd
000001d0: 18ab 2bbe d5bc 03be c8bf b7bd f976 a1bc
000001e0: 1571 9fbc ae53 5ebe 72c5 f5bd 2653 6ebd
000001f0: 93c8 d0bd adb7 933c d3e4 07be 0da9 893d
00000200: 0765 213e 108c e43b 3d12 53be e48d 2fbe
00000210: f50f 863d c172 26be 679e 0fbe 796f 003e
00000220: 138d 86bd f9b6 87bd 955b f5bc a4c7 07be
00000230: 929c 33be 32a8 64bd a983 bc3d 44f7 5bbd
00000240: 8a59 093e 858f 3a3d 06bb 6a3c 60f6 5b3e
00000250: 3c61 a73d d8f3 433c 27ba 073e b3be ed3d
00000260: 41b9 4bbd a7c2 d2be 0ca3 95be 3215 1fbe
00000270: 4415 11be c0ad c53d 106c 063e 6f5d 2abe
00000280: eecf 8c3d 7cc0 a83d ea25 f13b f34e 9c3c
00000290: 5f53 2ebe 6f59 403a 689e a0bd 1ef1 8fbd
000002a0: 26f0 9e3c 8554 2a3d 4a56 223e 72c0 bdbd
000002b0: c64b a1bd 1809 02be dfdc 0fbe bff1 4bbe
000002c0: e373 bc3c 41e2 133e 022c bf3d 3aa3 483d
000002d0: 5ed6 24bd 0004 f33c 920b 12be a2ff 9abe
000002e0: 751a 143d cc83 acbc 1486 72be 1f96 1f3e
000002f0: 0baf 2d3b 33d3 e5bc 39a6 63bc c903 fbbb
00000300: 9d80 88bd 99d8 74be 46d4 63bc e614 40bd
00000310: 2160 aebd 4eed 063c 4ee1 2ebb c41d 24bd
00000320: 3851 d23d 83c7 22bd 1882 adbd f564 083d
00000330: b644 f53c 4600 f8bc 43aa 7c3c b2dd dc3d
00000340: ccdb 7f3c abed 143e 9c81 823d 6c1d 44bd
00000350: d701 fe3c 0d72 043e 9f13 7f3c 5e56 13bc
00000360: f842 96bd b387 003e b1b1 0cbd dc12 45be
00000370: 40bc 22be 9f64 243e 1250 193b 9750 c0bd
00000380: 737a f33d 9331 0dbe 8c40 993c 0c9f dfbd
00000390: 8b0d 39bb f55b d6bd 771c 853d 626f d93d
000003a0: 49a6 94bd 5dc5 323d ece2 4cbd d59b 973d
000003b0: 30bc 7cbd ebf7 acbc 7607 e63d bd3c d23d
000003c0: 61c7 f83b a5a1 e33c 3290 8b3d 15d8 4ebd
000003d0: f976 193d 7fa0 ddbd f26d 3fbc 72c3 983e
000003e0: b482 20bd 2090 0bbe ab23 213d 1cc9 373e
000003f0: 35d3 b03c 8cd0 aa3d dc85 d73d 8291 f93c
