DeepWonder3D_pytorch/pth/SEG_pth/Unet4_no_end_UNet3DFFD_20240401-1432_2um/seg_82.pth (torch, 138281 bytes, 19 tensors)

Generator.conv1.conv1.0.weight f4 [8, 1, 3, 3, 3]
0	0x3dda954d	0.10673008
1	0x3dcba4f6	0.09943573
2	0xbd51f43c	-0.05125831
3	0x3e115892	0.14193943
4	0xbdefb74b	-0.11704882
5	0xbdea728f	-0.114476316
6	0x3c4361fe	0.011925219
7	0x3c31085d	0.010805217
8	0x3de41927	0.1113761
9	0x3cc0eb82	0.023549799
10	0xbe27f317	-0.16401325
11	0x3db9e832	0.09077491
12	0x3df84449	0.12122399
13	0x3ddad9e8	0.106860936
14	0x3d2c846f	0.042118486
15	0xbe3d1301	-0.1846428
16	0x3dc1e1aa	0.0946687
17	0xbe463ab9	-0.19358338
18	0xbe0340d6	-0.12817702
19	0xbdf8ff76	-0.121581
20	0xbd829e6d	-0.063778736
21	0x3d261ce5	0.0405549
22	0xbd48b477	-0.04900023
23	0x3d898fbb	0.067168675
24	0xbe49797e	-0.19675252
25	0xbc76ad88	-0.0150560215
26	0x3dea7599	0.11448211
27	0x3e16b1e4	0.14716297
28	0x3e114ab0	0.14188647
29	0x3bb5baed	0.005545965
30	0x3dba34cf	0.09092104
31	0xbe09949a	-0.13435593
32	0xbe398997	-0.18118893
33	0x3e209c9d	0.15684743
34	0x3d10c6cd	0.03534584
35	0xbd874120	-0.066042185
36	0xbdf8e55e	-0.12153123
37	0x3e15d8f8	0.14633548
38	0xbd565b4b	-0.052333158
39	0xbe008409	-0.12550367
40	0xbda35216	-0.07974641
41	0x3bc45d9e	0.0059926054
42	0xbe3a21fb	-0.18177025
43	0xbe52df30	-0.20592952
44	0xbc3fcd00	-0.011706591
45	0x3ddbb8ad	0.107285835
46	0x3c8c4404	0.017122276
47	0x3e44005c	0.19140762
48	0x3e326cc0	0.17424297
49	0xbdbab16a	-0.0911587
50	0x3e201cc0	0.15635967
51	0x3dd7bbe0	0.10533881
52	0xbdf5f130	-0.120088935
53	0xbd917dfe	-0.07104109
54	0x3d924765	0.07142524
55	0xbd091f10	-0.03347689
56	0xbde136a0	-0.10996747
57	0x3ce62158	0.028092071
58	0x3dce4bba	0.100730374
59	0xbb54e50e	-0.003248516
60	0xbe2713ea	-0.1631619
61	0xbdeadec0	-0.114682674
62	0xbd7f0cac	-0.062267944
63	0x3d2fdc07	0.042934444
64	0x3dd49f46	0.103819415
65	0x3cdf9f20	0.027297556
66	0xbd2c864e	-0.04212027
67	0x3d2b37d8	0.041801304
68	0x3d9e3f43	0.0772691
69	0x3d24f240	0.04027009
70	0xbc0eb959	-0.0087111825
71	0xbb579a05	-0.00328982
72	0xbe2f6fc3	-0.17132477
73	0x3cf1e97f	0.029530285
74	0x3d04044c	0.03223066
75	0xbc887db1	-0.016661497
76	0xbdab23b3	-0.083564185
77	0x3d9d8906	0.07692151
78	0xbe8b2368	-0.2717545
79	0x3d700b87	0.058604743
80	0xbe4fc77b	-0.2029094
81	0xbdbaee5a	-0.09127493
82	0xbe1381cf	-0.14404987
83	0x3e2627e3	0.16226153
84	0xbe4adf5c	-0.19811767
85	0xbd8cab6f	-0.06868636
86	0xbc8a4a8f	-0.016881255
87	0x3da4a4f5	0.080392756
88	0xbdea16b0	-0.114301085
89	0x3d628252	0.055300064
90	0xbe5429ee	-0.2071912
91	0xbd64065e	-0.055670135
92	0x3cfe8271	0.031068059
93	0x3dd09904	0.101854354
94	0xbe47f382	-0.19526485
95	0xbe23da21	-0.16001178
96	0xbd16389d	-0.036675084
97	0x3e003f8f	0.12524246
98	0x3db33290	0.087498784
99	0xbd60e864	-0.054909125
100	0x3d87900c	0.06619272
101	0x3dc30aa5	0.09523515
102	0xbd842809	-0.064529486
103	0x3d79b174	0.060960248
104	0x3da8145e	0.0820701
105	0x3c7cb867	0.015424824
106	0xbe26cf7d	-0.16290088
107	0xbe630a46	-0.22171888
108	0x3dc15439	0.09439892
109	0xbe236855	-0.15957768
110	0xbd6c6934	-0.057717517
111	0xbe173d6c	-0.14769524
112	0xbcb03f77	-0.021514637
113	0x3c0a9016	0.008457204
114	0xbd6fa56d	-0.05850737
115	0x3d8f922f	0.07010304
116	0x3d16047a	0.036625363
117	0xbcde1525	-0.027109692
118	0x3dda0254	0.10644975
119	0xbe3cb0cc	-0.18426818
120	0xbd82212e	-0.06353985
121	0xbd06b763	-0.032889735
122	0xbc4a3095	-0.012340684
123	0x3dca60fb	0.09881779
124	0x3ca621a3	0.020279711
125	0x3de0dae3	0.10979249
126	0xbe5004a8	-0.20314276
127	0x3db65e5f	0.089047186
128	0x3df7d0f2	0.121004
129	0x3dcb3c90	0.09923661
130	0x3d4510a8	0.048111588
131	0xbdd81a43	-0.10551884
132	0xbe1a75a4	-0.15083939
133	0xbd9120f9	-0.07086367
134	0x3dd47a28	0.10374862
135	0x3d26938d	0.04066806
136	0xbdbee54a	-0.09321077
137	0x3e06925b	0.13141768
138	0x3defaa55	0.1170241
139	0xbd6f207e	-0.058380596
140	0xbdf54abc	-0.11977145
141	0xbe3f4ece	-0.18682405
142	0x3e33da50	0.17563748
143	0x3c23d32f	0.009999081
144	0xbda0f36a	-0.078589275
145	0xbe3452eb	-0.17609756
146	0x3d8dd8e7	0.069261365
147	0x3dd379a3	0.10325935
148	0xbe26c769	-0.16287006
149	0xbe543d1a	-0.20726433
150	0xbd9dee4a	-0.07711466
151	0x3d85f6dc	0.06541225
152	0x3e0af26a	0.13569036
153	0xbce7d8bf	-0.028301595
154	0xbd0e1122	-0.034684308
155	0x3df632a4	0.12021378
156	0x3cbe48d4	0.023228087
157	0x3e25d876	0.16195855
158	0xbdb9a3f8	-0.09064478
159	0xbc20fa70	-0.009825334
160	0xbd838ff6	-0.06423943
161	0x3e3079c5	0.17233951
162	0xbe4d8734	-0.20071107
163	0x3e2fb553	0.17159013
164	0xbdac5ce9	-0.08416159
165	0x3dbf6d86	0.09347062
166	0x3b8625a8	0.0040938444
167	0xbd809f62	-0.062804
168	0x3d305779	0.04305217
169	0xbc9565f2	-0.018237088
170	0x3d33a9f9	0.04386327
171	0x3d891974	0.06694308
172	0xbd895c3e	-0.06707047
173	0x3e5a8d1f	0.21342896
174	0xbe4c0962	-0.19925454
175	0xbdae2c92	-0.08504595
176	0x3bfd3454	0.0077271853
177	0xbd26e766	-0.040748022
178	0x3dfe1b5f	0.12407564
179	0x3d04b416	0.032398306
180	0xbd9099b5	-0.07060567
181	0xbd658221	-0.056032304
182	0x3db61293	0.088902615
183	0xbe0eff9e	-0.13964698
184	0x3d4f7211	0.05064589
185	0x3db6b291	0.089207776
186	0xbddcb9ed	-0.1077765
187	0x3bdd7add	0.006759031
188	0x3e1e949f	0.15486382
189	0xbd2f3efd	-0.04278468
190	0x3e0a7413	0.13520841
191	0x3d0396e1	0.03212631
192	0x3d559e28	0.052152783
193	0x3ddc199e	0.107470736
194	0xbe4a0deb	-0.19731872
195	0xbd639c2e	-0.055568866
196	0xb91acb7e	-0.00014762391
197	0x3e07fd5b	0.13280241
198	0xbce2f166	-0.027702998
199	0xbda94ea1	-0.082669504
200	0xbd3e3f7a	-0.046447255
201	0xbe467bc5	-0.19383152
202	0x3e01eab5	0.1268719
203	0xbdbedbfb	-0.09319302
204	0xbd9782d1	-0.07397998
205	0x3e1de8b8	0.15420806
206	0x3cb7ac5d	0.022421056
207	0xbd2f1c86	-0.04275181
208	0xbd178e64	-0.03700103
209	0xbc513ed6	-0.012771329
210	0xbe436a15	-0.19083436
211	0x3dafc507	0.08582502
212	0xbddff275	-0.10934917
213	0xbe26353f	-0.1623125
214	0xbdc714c7	-0.0972076
215	0x3dc8cc0d	0.098045446

Generator.conv1.conv2.0.weight f4 [8, 8, 3, 3, 3]
0	0x3e06effc	0.13177484
1	0x3d2810b8	0.04103157
2	0x3d9af887	0.07566934
3	0xbcb876a6	-0.022517513
4	0xbd62e425	-0.055393357
5	0x3c9ac3e1	0.01889223
6	0x3e09037d	0.13380237
7	0x3da614e9	0.08109457
8	0x3e61ff87	0.22070132
9	0x3b8255f7	0.003977533
10	0x3c7d5a07	0.015463359
11	0x3c2d2227	0.010567225
12	0x3ca090a8	0.019600227
13	0x3db1fece	0.08691178
14	0xbd134806	-0.03595736
15	0x3d657572	0.056020208
16	0xbd00182b	-0.03127305
17	0x3dbeecdc	0.09322521
18	0x3908c220	0.00013042288
19	0x3dbc99bd	0.09209011
20	0x3daa1c0e	0.08306132
21	0x3d90b36a	0.070654705
22	0x3dc0e22c	0.09418139
23	0x3d7480fd	0.059693325
24	0x3deb41c6	0.11487155
25	0x3df1680b	0.11787423
26	0x3e07ed3d	0.13274093
27	0xbdbaec5b	-0.091271125
28	0xbda61872	-0.08110131
29	0xbdb15750	-0.08659232
30	0x3b738b66	0.0037161945
31	0xbd82e3cf	-0.06391107
32	0xbda7345e	-0.08164285
33	0xbc25d09f	-0.01012054
34	0x3d1b0c89	0.03785375
35	0xbdce2e93	-0.10067477
36	0xbdbfcc6c	-0.09365162
37	0x3ded77c4	0.11595109
38	0xbdc141b3	-0.09436359
39	0x3be11f59	0.006870192
40	0x3db4be17	0.08825319
41	0xbe6bd62d	-0.2303092
42	0xbc3a5c41	-0.011374534
43	0x3d45b0d8	0.048264354
44	0x3cb40e1f	0.02197939
45	0x3cb45522	0.02201325
46	0x3e13a8f2	0.14419916
47	0xbe5781f2	-0.21045664
48	0xbca7f557	-0.02050273
49	0x3dc97de8	0.09838468
50	0xbe66c96f	-0.22537778
51	0xbd859449	-0.06522424
52	0x3b29bff4	0.0025901766
53	0x3bc0ae99	0.0058801887
54	0x3d933462	0.071877256
55	0x3cb52077	0.022110207
56	0x3cf02ce7	0.029318286
57	0x3b8db6b7	0.00432476
58	0xbd66e287	-0.056368377
59	0xbd116d90	-0.035504878
60	0x3cf83e27	0.030303074
61	0xbbdae71f	-0.006680384
62	0xbd785483	-0.06062747
63	0x3db98a5a	0.090595916
64	0x3d47c560	0.048772216
65	0x3a040759	0.0005036495
66	0xbbf638a1	-0.007514075
67	0x3d0771a2	0.033067353
68	0x3cea00da	0.02856486
69	0x3de0a8b5	0.10969678
70	0x3d065bdc	0.032802448
71	0x3d376579	0.044774506
72	0x3ae5bcd6	0.0017527591
73	0xbcd42167	-0.025894834
74	0x3d918e4f	0.07107221
75	0xbd99cfe7	-0.07510357
76	0x3a158137	0.00057031534
77	0xbd0550e3	-0.032547843
78	0x3dc23e05	0.094844855
79	0x3dc9d733	0.09855499
80	0x3d804454	0.062630326
81	0xbcc456e0	-0.023967206
82	0x3d7d5945	0.061852712
83	0x3d29fb17	0.041499224
84	0x3e0f62ac	0.14002484
85	0x3b066373	0.0020506054
86	0xbbce29ae	-0.0062915897
87	0x3c001932	0.007818507
88	0xbd2352c0	-0.03987384
89	0x3c0ed01f	0.008716612
90	0x3caa7a81	0.020810368
91	0x3c91c85e	0.017795738
92	0x3d2e9a32	0.04262752
93	0xbd3a9e30	-0.045561016
94	0x3c726079	0.014793509
95	0x3d6b216c	0.05740492
96	0xbd0f3310	-0.034960806
97	0x3cbef2b4	0.02330909
98	0x3ce5e790	0.02806452
99	0x3d88c6aa	0.06678517
100	0xbd3d7e0a	-0.04626278
101	0xbd472c4e	-0.048626237
102	0xbbfe46a6	-0.007759887
103	0x3d1c67c2	0.03818489
104	0x3d554155	0.05206426
105	0x3cf7fd6e	0.030272212
106	0x3d1d684e	0.03842955
107	0x3c9cf885	0.019161472
108	0x3d50ae54	0.050947502
109	0xbda56360	-0.08075595
110	0xbdbf5d23	-0.09343936
111	0xbd358080	-0.044312
112	0x3d6aa414	0.057285383
113	0xbd6c4524	-0.057683125
114	0x3cb17915	0.021664182
115	0xbd1ad8d0	-0.037804425
116	0x3d244da0	0.04011309
117	0xbdedef21	-0.11617876
118	0xbcfb8082	-0.030700926
119	0x3d85c91d	0.065325
120	0xbd4874fc	-0.04893969
121	0x3c6d004a	0.014465401
122	0x3d6e900a	0.058242835
123	0xbe12a9d1	-0.14322592
124	0x3d871810	0.065963864
125	0x3d04f353	0.032458615
126	0xbe14e420	-0.14540148
127	0x3d79237f	0.060824867
128	0x3c5da016	0.013526937
129	0xbdc02433	-0.093819045
130	0x3dabb1c1	0.08383513
131	0xbd465438	-0.04842016
132	0xbe3d5758	-0.1849035
133	0x3da52b68	0.0806492
134	0xbcd03e34	-0.025420286
135	0x3db06f95	0.086150326
136	0x3d219b3a	0.039454676
137	0x3d5442fc	0.051821694
138	0x3bdbd293	0.006708452
139	0x3d0afa42	0.03393007
140	0x3b5844b5	0.0032999937
141	0x3d37b049	0.044845853
142	0xbd8d4c04	-0.068992645
143	0xbafe1976	-0.001938625
144	0xbe0b571a	-0.13607445
145	0x3b956c42	0.0045600245
146	0x3c95470b	0.018222352
147	0xbd9bbb6c	-0.07604107
148	0xbbc0247b	-0.005863724
149	0x3bc03ebf	0.005866855
150	0x3c41e497	0.011834285
151	0x3a10efbd	0.0005528888
152	0xbdb88e1e	-0.09011482
153	0xbd0f6001	-0.035003666
154	0x3c6fa0be	0.014625726
155	0x3d0c9674	0.03432317
156	0xbd4610b0	-0.04835576
157	0x3d8d3db7	0.06896537
158	0x3d8eeaad	0.069783546
159	0xbd1c66be	-0.03818392
160	0xbc7d9ce4	-0.0154793
161	0x3a66522a	0.0008786047
162	0x3d0842fc	0.033267006
163	0xbd4ee22b	-0.05050866
164	0xbe07e569	-0.13271107
165	0x3d1b4f4d	0.037917424
166	0xbd4499d0	-0.04799825
167	0xbda958a5	-0.08268861
168	0x3df0f7a9	0.117659874
169	0xbd76838a	-0.06018404
170	0xbc597c02	-0.013274195
171	0x3cf6ebe5	0.03014178
172	0xbdf53e5b	-0.11974784
173	0xbcac952a	-0.02106722
174	0x3c7f51af	0.01558344
175	0xbb218acb	-0.0024649377
176	0xbda4b265	-0.080418386
177	0xbd5b48a5	-0.053536076
178	0xbd5a25e8	-0.053258806
179	0xbbb1b5c1	-0.005423278
180	0x3cefbd58	0.02926509
181	0xbce94264	-0.02847404
182	0x3da470e8	0.08029348
183	0xbca38cbb	-0.019964566
184	0x3d9e8b58	0.077414215
185	0x3d100b9d	0.035167325
186	0xbd8cdb56	-0.068777725
187	0xbdb2c131	-0.087282546
188	0xbd918bea	-0.071067646
189	0x3c837038	0.016044721
190	0xbd904b99	-0.07045669
191	0x3b8ab2f1	0.0042327573
192	0x3d6db734	0.058036044
193	0x3cd02f38	0.02541314
194	0x3d377482	0.044788845
195	0x3d286fc4	0.041122213
196	0xbd8368d6	-0.0641648
197	0x3c2eece0	0.010676593
198	0x3cc683fd	0.024232859
199	0xbe0eb358	-0.13935602
200	0x3d73ac4f	0.0594905
201	0x3c4b01ab	0.012390534
202	0xbdbafa73	-0.09129801
203	0x3df2629d	0.11835215
204	0x3da664ef	0.0812472
205	0xbe22af9f	-0.15887307
206	0x3d8fd64a	0.07023294
207	0xbd8cf4c7	-0.06882625
208	0x3d4c1075	0.049820382
209	0xbe2c1d5f	-0.16808079
210	0xbdf79d9b	-0.12090608
211	0x3dd36dcb	0.10323676
212	0xbe2bfb18	-0.16795003
213	0xbe2e9bd2	-0.17051628
214	0x3d1f58c3	0.03890301
215	0xbe0db445	-0.13838299
216	0x3e2d65eb	0.1693341
217	0x3e086659	0.13320293
218	0x3e6f5d05	0.23375328
219	0x3bdc846f	0.0067296545
220	0x3cf4df10	0.02989152
221	0x3de42a07	0.111408286
222	0x3e530c4b	0.20610158
223	0x3e52641c	0.20546001
224	0x3e3ad6d8	0.18246019
225	0x3dae93d1	0.085242875
226	0x3d466bb8	0.048442572
227	0x3e0cdf37	0.13757025
228	0xbb60a471	-0.0034277702
229	0x3d80f1c7	0.06296115
230	0x3c8612a8	0.016366318
231	0x3d022f6d	0.03178351
232	0xbbe4e07b	-0.006984768
233	0x3d147011	0.036239687
234	0x3d85f135	0.06540147
235	0x3db7f2b9	0.089818425
236	0x3cfbf7fd	0.030757898
237	0x3dbb3e65	0.0914276
238	0x3d9a24af	0.07526528
239	0x3da9688a	0.08271892
240	0x3d78c35d	0.060733188
241	0xbb11f155	-0.002226909
242	0x3dd825de	0.105540976
243	0xbd972925	-0.073808946
244	0xbd2ed69b	-0.042685132
245	0xbd025876	-0.031822644
246	0xbce2b9de	-0.027676519
247	0xbd6f7452	-0.05846054
248	0x3d256dbb	0.04038785
249	0x3d400c8c	0.046886966
250	0x3cf36c80	0.029714823
251	0x3cdd2db5	0.026999334
252	0x3d39b5a0	0.045339227
253	0xbd209523	-0.039204728
254	0xbc8897a3	-0.016673869
255	0x3d774d09	0.0603762

Generator.conv2.conv1.0.weight f4 [8, 8, 3, 3, 3]
0	0x3af103ad	0.0018387936
1	0xbcefef37	-0.029288871
2	0x3d5ee16e	0.054414205
3	0x3d700ce2	0.058606036
4	0x3ca633c1	0.02028835
5	0xbd30a78f	-0.043128546
6	0xbdf95afc	-0.12175557
7	0xbccbb021	-0.024864258
8	0x3ce149a5	0.027500937
9	0xbd8b6e6a	-0.06808169
10	0xbccd5b32	-0.0250679
11	0x3c8143df	0.015779434
12	0xbd9b8087	-0.07592874
13	0x3ca1f64c	0.019770764
14	0x3cdca129	0.026932316
15	0xbca6f3fa	-0.020380009
16	0xbd987b92	-0.07445444
17	0x3d868cfd	0.0656986
18	0x3cb76a62	0.022389594
19	0xbd5f6fc5	-0.05454995
20	0xbc955107	-0.018227113
21	0x3c0c4f45	0.008563821
22	0xbd3a2f7b	-0.045455437
23	0x3cb6b1fc	0.022301666
24	0x3d3f1b6f	0.046657022
25	0xbcef7c6f	-0.02923414
26	0x3d10d6b9	0.035361025
27	0x3d74e95f	0.059792873
28	0xbcdbc1f0	-0.026825875
29	0xbd4672f2	-0.048449464
30	0xbaec7c45	-0.0018042406
31	0xbc093cfe	-0.008376358
32	0xbd26daa7	-0.040735867
33	0x3d1b6d20	0.037945867
34	0x3d9cbec7	0.076535754
35	0x3c1e6226	0.009666955
36	0xbdf11497	-0.11771505
37	0xbe009af5	-0.12559111
38	0xbd92b700	-0.07163811
39	0xbd9ff5bd	-0.07810543
40	0xbd9085d3	-0.07056775
41	0xbdaffc0f	-0.08592998
42	0x3dde626a	0.10858615
43	0xbbb25a17	-0.0054428685
44	0xbce91f88	-0.028457418
45	0xbd293d13	-0.04131801
46	0xbd88a36c	-0.06671795
47	0xbe20ca45	-0.1570216
48	0x3b304394	0.0026895748
49	0xbd80a6a9	-0.06281788
50	0xbdcc9ecd	-0.09991226
51	0x3d859148	0.06521851
52	0xbc979430	-0.018503278
53	0xbd8c30f0	-0.068452716
54	0xbd512f93	-0.05107076
55	0x3d3235eb	0.04350845
56	0x3e13f4d8	0.14448869
57	0xbc705840	-0.014669478
58	0xbceb0ef7	-0.02869366
59	0x3e33f525	0.17573984
60	0x3b535426	0.0032246201
61	0xbd5b3128	-0.053513676
62	0x3d5dd426	0.0541574
63	0xbe0e26c7	-0.1388198
64	0x3cdab154	0.026695885
65	0x3dc3ddad	0.09563766
66	0xbd85f229	-0.06540329
67	0xbbd0fbb2	-0.0063776607
68	0x3de24c4f	0.11049711
69	0xbe04ea12	-0.12979916
70	0xbd0956b8	-0.033529967
71	0x3d30510c	0.043046042
72	0xbe00d3d5	-0.12580808
73	0xbc0216b3	-0.007939982
74	0x3dc10075	0.09423915
75	0xbe02ca48	-0.12772477
76	0x3d4fda5c	0.050745353
77	0x3def8c80	0.1169672
78	0xbd7272a6	-0.05919137
79	0xbd839bfa	-0.064262345
80	0x3d813e6f	0.063107364
81	0x3d1e64fd	0.03867053
82	0x38a7cd8a	8.001465e-05
83	0x3d69e703	0.057105076
84	0xbd53ea50	-0.05173713
85	0xbd12887a	-0.035774685
86	0xbb680f92	-0.0035409671
87	0xbc85ffa3	-0.016357249
88	0xbcfc1809	-0.03077318
89	0x3db25a0d	0.08708582
90	0x3daea7dd	0.08528111
91	0xbb856cf8	-0.004071828
92	0x3d592dcc	0.05302219
93	0x3d371987	0.04470208
94	0xbba163a6	-0.004925209
95	0x3cc1de87	0.02366568
96	0xb9aeb1dc	-0.00033320382
97	0xbd3d0dd6	-0.046155773
98	0x3d2ec44a	0.042667665
99	0xbbcebeb2	-0.0063093537
100	0x3ccd9058	0.025093243
101	0xbd34032f	-0.04394835
102	0xbdade37d	-0.084906556
103	0xbd66d2e9	-0.056353483
104	0x3d1485e7	0.03626051
105	0xbd1a40ea	-0.037659563
106	0xbd7cfe8d	-0.061766196
107	0xbb65f568	-0.00350889
108	0x3d98d8f8	0.074632585
109	0x3d785bc3	0.060634386
110	0xbcd08149	-0.025452273
111	0x3c7feba6	0.015620148
112	0xbd19cfc1	-0.037551645
113	0x3c6f6985	0.01461256
114	0xb9b6f304	-0.00034894806
115	0xbb7e5d52	-0.0038812947
116	0x3cd6ff88	0.026244894
117	0x3c2f06d4	0.01068278
118	0x3be70a52	0.007050791
119	0x3d5dc8f0	0.054146707
120	0x3d242187	0.040071037
121	0x3d716690	0.0589357
122	0x3d7da4f6	0.061924897
123	0x3d71f6a9	0.059073124
124	0xbd187ee7	-0.0372304
125	0x3db7ec98	0.089806736
126	0xbd08457a	-0.033269383
127	0x3caf6b8c	0.021413587
128	0x3d882c66	0.06649093
129	0xbd39e04f	-0.045379933
130	0x3d231284	0.03981258
131	0x3d77e4ca	0.060520925
132	0x3c687dd6	0.014190158
133	0xbd08c201	-0.03338814
134	0xbd6e3414	-0.058155134
135	0x3d2b82a3	0.04187263
136	0x3dd0986a	0.10185321
137	0x3d165ef4	0.036711648
138	0x3d004327	0.03131404
139	0x3da68794	0.08131328
140	0x3d811c60	0.0630424
141	0x3c84c38f	0.01620653
142	0xbd8a4673	-0.06751718
143	0xbcc9642a	-0.024583895
144	0x3d44a64f	0.048010167
145	0x3cd1d093	0.025612151
146	0x3c01e404	0.007927898
147	0xbbae6f76	-0.005323346
148	0xbd350b87	-0.044200446
149	0xbd0dfa71	-0.034662668
150	0xbc3fc8fe	-0.011705635
151	0xbd99691a	-0.0749075
152	0x3cbece22	0.023291651
153	0x3c954737	0.018222434
154	0x3c16fd70	0.009215698
155	0x3cb00872	0.021488402
156	0xbd628915	-0.055306513
157	0x3b7f9b1b	0.0039002362
158	0xbd14dc57	-0.036342945
159	0xbe00c0f4	-0.12573606
160	0xbe2d83ff	-0.16944884
161	0xbc28173c	-0.010259446
162	0x3d92ee67	0.07174378
163	0x3d9f230b	0.07770356
164	0x3dadb1fa	0.08481212
165	0x3d4f2867	0.05057564
166	0x3b38c68b	0.0028194513
167	0x3c93d604	0.018046387
168	0xbcb23686	-0.021754514
169	0x3d9b66b0	0.075879455
170	0x3a833461	0.0010010117
171	0x3bec2b75	0.007207329
172	0x3bb31502	0.005465151
173	0xbbd64b32	-0.0065397257
174	0x3d1f4ff4	0.03889461
175	0x3d9f99ed	0.07793031
176	0x3dbdb906	0.09263806
177	0x3d8c6f59	0.068571754
178	0x3d2be81a	0.041969396
179	0x3d8385c2	0.06421997
180	0x3d961c2b	0.07329591
181	0x3c718661	0.014741511
182	0xbc569353	-0.013096648
183	0xbd41303c	-0.04716514
184	0x3d797f78	0.06091258
185	0xbc428bdb	-0.011874164
186	0x3d2f0b88	0.042735606
187	0xbd53397d	-0.051568497
188	0x3cff9247	0.03119768
189	0x3bf91cc4	0.007602306
190	0xbc18a6e8	-0.009317137
191	0x3e0dc708	0.13845456
192	0xbd9624df	-0.07331251
193	0xbd72be6a	-0.059263624
194	0x3d77b57d	0.060475815
195	0xbdbb486e	-0.09144674
196	0xbd453684	-0.048147693
197	0x3d22f17a	0.03978107
198	0xbcb0a3e8	-0.021562532
199	0xbd9853f5	-0.074378885
200	0x3db9ae17	0.09066408
201	0xbda6e42b	-0.08148988
202	0xbd0db9fa	-0.03460119
203	0x3d55db18	0.052210897
204	0xbd32d36c	-0.04365866
205	0xbdf758a5	-0.120774545
206	0x3db689fe	0.08913039
207	0xbd800781	-0.06251431
208	0xbd833486	-0.064065024
209	0x3d8bab37	0.06819766
210	0x3b97a48a	0.004627769
211	0x3be5a4a0	0.00700815
212	0x3d4abc74	0.04949613
213	0xbda684d9	-0.081308074
214	0xbd92980a	-0.071579054
215	0xbc5a81b2	-0.013336586
216	0xbcfa3f33	-0.030547714
217	0x3d40f74c	0.04711084
218	0x3ddaab98	0.1067726
219	0xbdae0a16	-0.084980175
220	0x3cb53646	0.022120606
221	0x3d413444	0.047168985
222	0x3d430c24	0.047619
223	0xbbe1654f	-0.006878532
224	0x3dfabf14	0.122434765
225	0xbd5b5649	-0.053549085
226	0xbd0250ee	-0.03181546
227	0x3d73b912	0.05950267
228	0xbcdc9a6a	-0.0269291
229	0x3cae8e3c	0.021308057
230	0x3d5837c0	0.052787542
231	0x3cf643bc	0.030061595
232	0x3d9a81e4	0.07544306
233	0x3c441ee0	0.011970252
234	0x3c8ad381	0.016946556
235	0xbdb3a200	-0.087711334
236	0xbc618e8d	-0.013766897
237	0x3d6d1204	0.05787851
238	0x3b22361f	0.0024751497
239	0xbc8ce44f	-0.01719871
240	0x3d285ff7	0.041107144
241	0x3d8dfe14	0.06933227
242	0xbc384148	-0.011246033
243	0xbcd3c1fe	-0.025849339
244	0xbc4e6ab9	-0.012598687
245	0x3b9557ac	0.0045575704
246	0xbd3e8ceb	-0.04652111
247	0x3d196822	0.037452824
248	0x3cd420dd	0.025894577
249	0x3cc8dd27	0.024519516
250	0x3d2646ce	0.04059487
251	0xbcdbc7d5	-0.026828686
252	0xbde432db	-0.111425124
253	0xbde5dc07	-0.112236075
254	0xbd5a9316	-0.05336293
255	0xbd53745c	-0.05162464

Generator.conv2.conv2.0.weight f4 [8, 8, 3, 3, 3]
0	0x3cf57456	0.0299627
1	0xbd3ea3fa	-0.0465431
2	0x3c9c40d9	0.01907389
3	0x3d3c6292	0.04599244
4	0x3dbadd67	0.091242604
5	0x3d57d5ab	0.052694004
6	0x3cb3f0f7	0.021965487
7	0x3d2e09c2	0.042489775
8	0x3db8be05	0.09020618
9	0x3d8b43fa	0.06800075
10	0x3bdc17ac	0.006716689
11	0x3d90d3c3	0.0707164
12	0x3c71956a	0.014745096
13	0x3d1ee539	0.038792823
14	0xbd0a0978	-0.033700436
15	0x3d88c767	0.06678658
16	0xbcf99fec	-0.030471765
17	0x3cf1dc93	0.029524123
18	0xbd0cd96e	-0.034387045
19	0xbd51f939	-0.051263068
20	0xbc7e02ed	-0.015503627
21	0x3d5305b3	0.051519107
22	0xbd92499e	-0.071429476
23	0xbd950c12	-0.07277693
24	0xbda47c53	-0.080315255
25	0xbca6023a	-0.020264734
26	0xbd025e45	-0.031828184
27	0x3d957313	0.07297339
28	0x3d608b4f	0.054820355
29	0xbc9f5bf1	-0.01945302
30	0x3d06eb6d	0.032939363
31	0x3d57a38b	0.0526462
32	0x3df61f6d	0.12017713
33	0x3d91a327	0.07111197
34	0x3ce8834a	0.028382916
35	0x3d10c06b	0.035339754
36	0x3d133bc4	0.03594567
37	0xbc228cb1	-0.009921239
38	0xbd50e000	-0.050994873
39	0xb9c2f0b3	-0.00037181898
40	0x3d90de9d	0.0707371
41	0x3c63ea96	0.01391091
42	0xbc75be58	-0.014998995
43	0xbcb17380	-0.02166152
44	0x3d827cc8	0.063714564
45	0xbb906dc8	-0.004407618
46	0x3d644ed8	0.055739254
47	0xbd07b912	-0.03313548
48	0x3d50a052	0.050934143
49	0x3c1b4710	0.009477392
50	0xbc60e102	-0.013725521
51	0xbce56db2	-0.028006408
52	0x3d46bcbe	0.048519842
53	0x3b47c45b	0.0030482027
54	0x3e2ed408	0.17073071
55	0x3dc4da9a	0.096120074
56	0x3d064ee1	0.03279007
57	0xbd40421f	-0.046938058
58	0xbd9208a2	-0.07130553
59	0xbc8033af	-0.015649645
60	0x3cbe4184	0.0232246
61	0xbc49ebd6	-0.012324294
62	0xbcba0501	-0.022707464
63	0xbc78fc9e	-0.015196947
64	0xbd94729d	-0.07248423
65	0xbc3c04e0	-0.011475772
66	0xbdb4356b	-0.08799251
67	0xbd579340	-0.052630663
68	0xbdd23cde	-0.10265516
69	0x3c5cfc79	0.013487929
70	0x3bb3d957	0.0054885554
71	0xbdcbe7fe	-0.099563584
72	0x3c57cc38	0.013171248
73	0xbcdd3582	-0.027003054
74	0x3d3aa61a	0.045568563
75	0xbc5c89cf	-0.0134605905
76	0xbdc641ca	-0.09680517
77	0xbb3321c6	-0.0027333363
78	0x3da4b58c	0.0804244
79	0x3c2943b7	0.010331086
80	0xbdc1d953	-0.094652794
81	0x3d74b3b6	0.0597417
82	0x3daf7135	0.085665144
83	0x3dea32fd	0.114355065
84	0xbc9a1007	-0.01880647
85	0x3d90cab3	0.07069912
86	0xbb85075b	-0.0040597147
87	0x3ce862ae	0.028367367
88	0x3a1b4a30	0.00059238356
89	0xbc98da98	-0.018658921
90	0x3dd55576	0.10416691
91	0x3c065383	0.008198622
92	0x3d4b06d2	0.04956705
93	0xbbb6c94a	-0.0055781947
94	0xbcf0f3bd	-0.029413098
95	0xbdab3255	-0.083592094
96	0xbc24c635	-0.010057022
97	0xbda66ad2	-0.08125843
98	0x3d175e40	0.03695512
99	0xbd351b8e	-0.04421573
100	0xbdc9b099	-0.098481365
101	0x3b540548	0.003235178
102	0xbdde2ec7	-0.10848766
103	0xbd92a7f1	-0.071609385
104	0xbd9e2810	-0.07722485
105	0xbcc8a04c	-0.024490498
106	0xbdfd379a	-0.12364121
107	0xbd4570f9	-0.048203442
108	0xbb7eafc6	-0.0038862093
109	0xbca8df47	-0.02061428
110	0xbc8f3884	-0.017483003
111	0x3d168d71	0.036755983
112	0x3d17c401	0.03705216
113	0x3c7837a9	0.015149989
114	0x3deaf76c	0.11472973
115	0x3d9c1143	0.0762048
116	0x3e03dd37	0.12877356
117	0xbda1f461	-0.0790794
118	0xbdb44f32	-0.08804168
119	0xbcaf952e	-0.02143344
120	0xbde13bae	-0.10997711
121	0xbdb305b4	-0.08741322
122	0xbd2b29b6	-0.041787826
123	0x3d1902d5	0.037356216
124	0x3c1bfc9d	0.009520677
125	0x3d90da8c	0.070729345
126	0xbe3bd829	-0.18344177
127	0xbe213204	-0.15741736
128	0xbd8a78a5	-0.06761292
129	0xbb635e0d	-0.003469351
130	0xb854d02a	-5.0738607e-05
131	0xbd8d168d	-0.06889067
132	0xbbbb480a	-0.005715375
133	0xbd0ecda9	-0.0348641
134	0xbdaafaae	-0.083485946
135	0x3c7c2b2c	0.015391152
136	0xbdef9a63	-0.11699369
137	0xbd97c621	-0.07410837
138	0xbd6f990d	-0.05849557
139	0xbe1c3c4f	-0.15257381
140	0xbdd1ce7f	-0.10244464
141	0xbdb56fd6	-0.08859222
142	0xbdeb19c3	-0.11479523
143	0x3d1fc675	0.039007623
144	0x39ef596b	0.00045652254
145	0x3d0f430f	0.03497606
146	0xbd9582e7	-0.07300358
147	0x3c7f5262	0.015583606
148	0xbd153732	-0.03642959
149	0xbe3906fa	-0.18069068
150	0x3ddadaf1	0.10686291
151	0xbdb5c9f0	-0.08876407
152	0xbe351577	-0.1768397
153	0x3d6f0b54	0.058360413
154	0xbcb14813	-0.021640813
155	0x3ca40f3d	0.020026797
156	0x3d1f3548	0.038869172
157	0x3bab7a43	0.0052330806
158	0xbe2828e5	-0.1642185
159	0x3e278326	0.16358623
160	0xbc77f88e	-0.015134944
161	0xbd826be4	-0.06368235
162	0x3d6befb0	0.05760163
163	0xb9ca149b	-0.00038543795
164	0x3df9220e	0.121646985
165	0x3c2f05b5	0.010682513
166	0x3c15dc20	0.00914672
167	0xbc0a0bb2	-0.00842564
168	0x3d29f26c	0.041490957
169	0xbca352da	-0.019936968
170	0xba09b294	-0.00052527455
171	0x3d4ac01a	0.04949961
172	0xbc79dfbb	-0.015251095
173	0x3d98c4ca	0.074594095
174	0x3dc2b58c	0.095072836
175	0x3bf9ec36	0.0076270355
176	0x3985b4a2	0.0002550232
177	0xbd367cd2	-0.04455263
178	0x3c57d09e	0.013172297
179	0xbdeee50e	-0.116647825
180	0xbd97624d	-0.07391796
181	0x3db287aa	0.08717282
182	0xbd216a5a	-0.039408065
183	0xbb8d7667	-0.004317093
184	0x3dd31695	0.103070416
185	0xbd24af29	-0.04020611
186	0x3c0ae7e1	0.008478136
187	0x3d1077bb	0.035270434
188	0xbd591d37	-0.053006377
189	0xbc71efd6	-0.014766654
190	0xbd940fde	-0.07229589
191	0xbdc5c95b	-0.09657546
192	0xbd45a6a9	-0.048254643
193	0xbd7e85b2	-0.06213922
194	0xbd8c6737	-0.06855624
195	0xbcdce98e	-0.026966836
196	0x38daf9f2	0.00010441606
197	0xbc88ed8a	-0.01671483
198	0xbd4e07b8	-0.05030033
199	0xbb5f9077	-0.0034113207
200	0xbd0f2cc5	-0.034954805
201	0x3ad57f33	0.0016288519
202	0xbcfec8c1	-0.031101586
203	0x3caa6ae2	0.020802919
204	0x3d88bf8c	0.0667716
205	0x3d82e56a	0.063914135
206	0x3c53cb99	0.012926959
207	0x3db8ed0d	0.09029589
208	0x3ce61127	0.02808435
209	0x3d659b03	0.056056034
210	0x3cff9bdf	0.031202255
211	0x3dbc1379	0.091834016
212	0x3c19b208	0.009380825
213	0x3e2109eb	0.1572644
214	0x3cfe9d7e	0.031080958
215	0x3ca7cfe4	0.020484872
216	0xbde098f5	-0.10966674
217	0xbd6b451a	-0.057438947
218	0x3c9b6f67	0.01897402
219	0xbd2bdd1b	-0.04195891
220	0xbd3c06a3	-0.045904767
221	0xbdbc48a2	-0.09193541
222	0xbdda60f2	-0.10663022
223	0x3c7b18e5	0.01532576
224	0xbc1941b3	-0.009354043
225	0x3d6ac8c8	0.057320386
226	0x3d195cd1	0.037442032
227	0xbc35a301	-0.011086226
228	0x3d616608	0.055028945
229	0x3cb68391	0.022279533
230	0xb966c9d2	-0.00022009693
231	0xbc2896de	-0.010289876
232	0xbbc36278	-0.005962666
233	0x3d3c7235	0.046007354
234	0x3cc9faf2	0.024655793
235	0x3d90e83c	0.07075545
236	0x3d298e14	0.041395262
237	0x3dfdbbde	0.123893484
238	0x3d9755f4	0.07389441
239	0x3d394ae1	0.045237426
240	0x3df1a4e7	0.11799031
241	0x3bd607c3	0.006531687
242	0x3cb93cfb	0.022612086
243	0xbdc362c9	-0.09540326
244	0xbd9ec0f3	-0.07751646
245	0x3d4a37d3	0.049369644
246	0xbdb67a59	-0.08910055
247	0xbd88ca04	-0.066791564
248	0xbc5b9460	-0.013402075
249	0xbe328a64	-0.17435604
250	0xbd6c7867	-0.057732012
251	0x3b9b82d4	0.0047458205
252	0x3d4572e2	0.048205264
253	0x3d32d140	0.043656588
254	0xbd529ba7	-0.051417973
255	0x3d2bbcb6	0.041928016

Generator.conv3.conv1.0.weight f4 [8, 8, 3, 3, 3]
0	0x3b5c86fe	0.0033649798
1	0x3d9a670e	0.07539187
2	0x3ae9743e	0.0017811132
3	0xbd1343f3	-0.035953473
4	0xba71fdf1	-0.00092312606
5	0x3d26fb02	0.040766723
6	0x3da51357	0.080603294
7	0xbd07b429	-0.0331308
8	0xbc639858	-0.013891302
9	0xbcb3a9b7	-0.021931512
10	0x3d000960	0.03125894
11	0xbd25a708	-0.040442497
12	0x3cbb27d0	0.022846133
13	0xbc652156	-0.013984999
14	0xbd808947	-0.062761836
15	0xbd12bfdc	-0.035827503
16	0x3d25d639	0.0404875
17	0xbce8e458	-0.028429195
18	0xbca50d67	-0.020147992
19	0x3da63a5c	0.081166
20	0x3cb69252	0.022286568
21	0x3d49a9d1	0.049234215
22	0xbd7b9299	-0.061419103
23	0x3c9d5429	0.01920517
24	0xbd83c94f	-0.06434881
25	0x3c65494f	0.013994529
26	0xbd3da7e8	-0.046302706
27	0xbcd25b23	-0.025678223
28	0x3c780890	0.01513876
29	0x3d2e64e2	0.042576678
30	0x3b960d88	0.00457925
31	0x3c3676f3	0.011136758
32	0xbd64f742	-0.055899866
33	0x3d9ff09c	0.078095645
34	0xbd952777	-0.07282918
35	0x3c18ec65	0.009333705
36	0x3c3b2c20	0.011424094
37	0x3d70c4fc	0.05878161
38	0x3e02cc89	0.12773336
39	0xbd1c0a4e	-0.038095765
40	0xbc98fcc9	-0.018675225
41	0xbd9f7c2f	-0.07787358
42	0xbbc1d5e6	-0.0059153913
43	0xbddb265d	-0.107006766
44	0x3c110418	0.008851074
45	0x3c877e6a	0.016539771
46	0x3d5af2b4	0.053454116
47	0xbd340a45	-0.043955106
48	0x3ca61f1d	0.020278508
49	0xbcc992a3	-0.024606055
50	0xbd7b5b2f	-0.061366256
51	0x3c2587c5	0.010103171
52	0xbd2e409d	-0.04254209
53	0x3b75713f	0.0037451533
54	0xbd288fef	-0.04115289
55	0xb7b08f3c	-2.1047534e-05
56	0xbd11e4c4	-0.03561856
57	0xbd10d45c	-0.03535877
58	0xbd02bbf3	-0.031917524
59	0x3d15c509	0.03656486
60	0xbd114ca3	-0.035473477
61	0xbd051db3	-0.032499027
62	0xbca208b3	-0.019779539
63	0x3cc9a14a	0.024613041
64	0x3d10c443	0.03534342
65	0x3d77c13a	0.06048701
66	0xbcdfb954	-0.027310051
67	0x3dc385f3	0.09547033
68	0x3da46334	0.08026734
69	0xbd3f822c	-0.046755
70	0x3c018724	0.007905755
71	0xbcd66d3f	-0.02617514
72	0x39f6a822	0.00047046045
73	0xbd7c87dc	-0.061653003
74	0x3d393c89	0.045223746
75	0xbd3df692	-0.046377726
76	0x3d347d4a	0.044064797
77	0xb9e0773b	-0.00042813443
78	0x3bce2dae	0.0062920665
79	0xbd4c922a	-0.04994408
80	0xbcf09514	-0.029367961
81	0x3ce2bb37	0.027677162
82	0xbad0a7f1	-0.0015919191
83	0x3ccc90cc	0.024971388
84	0xbc83f2bf	-0.016106961
85	0x3bbc10ef	0.0057393233
86	0xbc92c933	-0.017918205
87	0x3d95c7ec	0.07313523
88	0xbd00a55c	-0.0314077
89	0x3d3ac672	0.04559941
90	0x3ad98a2f	0.0016596968
91	0x3d529efe	0.051421158
92	0x3d3df217	0.046373453
93	0xbd285403	-0.041095745
94	0x3d763680	0.06011057
95	0xbc6be03a	-0.0143967215
96	0xbd81964a	-0.063274935
97	0xbceccbe6	-0.02890582
98	0xbc079437	-0.008275083
99	0xbd45b4f9	-0.048268292
100	0x3d724c21	0.059154633
101	0xbc0dc0c4	-0.008651916
102	0x3cd8eafd	0.026479239
103	0x3da9cb1d	0.08290694
104	0x3d4e8526	0.05041995
105	0xbb7fe5c5	-0.0039046865
106	0xbcd149da	-0.02554791
107	0xbdb29272	-0.087193385
108	0x3d05a17b	0.032624703
109	0xbcf3e4df	-0.02977222
110	0x3af1ac4f	0.0018438193
111	0x3d808061	0.06274486
112	0xbd06bdef	-0.03289598
113	0x3c82fc0f	0.015989332
114	0x3d6ef348	0.05833748
115	0x3cfd347d	0.030908817
116	0xbd8e4efc	-0.06948659
117	0x3c83dc35	0.016096214
118	0x3d2c1220	0.042009473
119	0x3d403bce	0.046932034
120	0xbc124749	-0.0089281285
121	0x3d2673c5	0.04063775
122	0x3d8077f2	0.06272878
123	0x3c8c6733	0.017139053
124	0x3d85c44f	0.065315835
125	0xbd884669	-0.06654055
126	0xbcf4b0a1	-0.02986938
127	0xbd0a9ea3	-0.033842694
128	0x3d294a7f	0.04133081
129	0xbd71218b	-0.05886988
130	0xbd61484c	-0.05500059
131	0xbc6a52c7	-0.014301962
132	0x3d4170f3	0.047226857
133	0xbd80a0b8	-0.06280655
134	0xbcb6b043	-0.022300845
135	0xbd35d8b8	-0.044396132
136	0x3d8d097a	0.06886573
137	0x3cd9eccd	0.026602173
138	0x3cf720c7	0.030166997
139	0x3d80fa49	0.06297738
140	0xbd67f392	-0.05662877
141	0x3cf3a3fd	0.029741282
142	0xbab57708	-0.0013844678
143	0x3b8aae69	0.004232217
144	0x3d063fb7	0.032775607
145	0x3dcefaf5	0.1010646
146	0x3cc3d5c3	0.02390564
147	0xbc7fccc4	-0.015612785
148	0x3d4ac1ac	0.049501106
149	0x3c9fa364	0.01948709
150	0xbc8d1ba0	-0.017225087
151	0xbd91b686	-0.07114892
152	0xb823db99	-3.9066745e-05
153	0xbd8071fa	-0.06271739
154	0x3da30569	0.07960016
155	0xbd7e84b1	-0.062138263
156	0xbcb441bb	-0.022003999
157	0x3d339067	0.043838885
158	0x3d21120c	0.03932385
159	0x3d4839fd	0.048883427
160	0xbd7d3eb7	-0.061827388
161	0xbd8f1279	-0.06985945
162	0xbd4e82db	-0.050417762
163	0x3cb2f931	0.02184734
164	0x3d870f51	0.06594718
165	0x3c6f9126	0.014622008
166	0xbcd4b7d4	-0.025966562
167	0xbd0324bf	-0.032017466
168	0x3e24a440	0.16078281
169	0x3ce8b330	0.028405756
170	0x3cfed14f	0.031105665
171	0x3d046c04	0.032329574
172	0xbdb459b5	-0.08806173
173	0x3d8ea434	0.06964913
174	0x3d8960ee	0.06707941
175	0xbda61202	-0.081089035
176	0x3d653987	0.055963065
177	0x3d7f130c	0.062274024
178	0x3ccc2e7a	0.024924506
179	0x3d742de7	0.05961409
180	0x3d13a162	0.03604258
181	0xbd82f967	-0.06395226
182	0xbd58759b	-0.052846532
183	0xbbcfc379	-0.006340441
184	0xbc421c6a	-0.011847595
185	0xbd171ff3	-0.036895704
186	0xbc98f8b2	-0.018673275
187	0x3d3074be	0.043080084
188	0x3d1b19dc	0.03786646
189	0x3cae80cb	0.021301648
190	0xbacf6995	-0.0015824313
191	0x3b5d37b7	0.0033755132
192	0x3c1261f6	0.0089344885
193	0x3d6bc23f	0.057558294
194	0x3b114f45	0.0022172492
195	0xbda0c889	-0.07850749
196	0x3cdb89a3	0.026799029
197	0x3caefb18	0.021359965
198	0xbab92a1c	-0.001412693
199	0xbc2bf9ba	-0.010496551
200	0xbcd24438	-0.025667295
201	0x3d0db0ee	0.03459256
202	0x3e22f594	0.15913993
203	0x3d598d6f	0.053113397
204	0xbcba59ba	-0.022747863
205	0xbcaac697	-0.020846648
206	0x3d9dfc38	0.077141225
207	0xbc3c4b7a	-0.011492604
208	0xbd8e55d3	-0.069499634
209	0x3b664e6c	0.0035141958
210	0x3d934cac	0.071923584
211	0x3e07eb23	0.13273291
212	0xbd7929b8	-0.0608308
213	0xbcf44fc5	-0.029823193
214	0xbc970cad	-0.018438661
215	0xbd267554	-0.040639237
216	0x3d463134	0.048386768
217	0x3ad87701	0.0016514958
218	0xbd777331	-0.06041259
219	0x3d274a19	0.04084215
220	0x3ceb86f8	0.028750882
221	0x3d141b1a	0.03615866
222	0x3ca95a33	0.020672893
223	0x3cc1e801	0.023670198
224	0xbd31a8cb	-0.043373864
225	0x3da18fc9	0.07888753
226	0xbd8a0fc9	-0.06741292
227	0xbcf077d1	-0.029354008
228	0x3d07fdf6	0.03320118
229	0x3d65be6d	0.056089807
230	0xbd5af5de	-0.053457133
231	0xbd2a7f95	-0.041625578
232	0x3d6ada45	0.057337064
233	0xbded8aae	-0.11598717
234	0x3cb756d1	0.022380264
235	0x3d055509	0.0325518
236	0xbc20485e	-0.009782879
237	0x3d186f36	0.037215434
238	0x3d0b8811	0.03406531
239	0xbd75ad19	-0.059979532
240	0xbd47a1bb	-0.048738223
241	0xbd0da5c8	-0.03458193
242	0x3b9e27c5	0.0048265182
243	0x3d2247b8	0.039619178
244	0xbca18e61	-0.019721212
245	0xbd0b4c3c	-0.03400825
246	0x3d002e00	0.03129387
247	0x3de931c6	0.11386447
248	0xbccd9e4b	-0.025099894
249	0x3d1fe568	0.03903714
250	0x3b731681	0.003709227
251	0xbc544a83	-0.012957218
252	0x3dc85d1d	0.09783385
253	0x3d37e569	0.044896517
254	0x3bb386fc	0.005478738
255	0x3df7d04b	0.121002756

Generator.conv3.conv2.0.weight f4 [8, 8, 3, 3, 3]
0	0xbcff3c83	-0.031156784
1	0xbba0596d	-0.004893473
2	0x3d26072b	0.04053418
3	0xbdb918e9	-0.09037954
4	0xbb9db202	-0.00481248
5	0xbcbc6f46	-0.023002278
6	0xbdd330d2	-0.10312046
7	0xbcf08bd8	-0.029363558
8	0xbcc20a6c	-0.02368661
9	0x3bb3efaa	0.0054912167
10	0xbd38d1a4	-0.045121804
11	0x3d8dc660	0.06922603
12	0x3c3b0dad	0.011416835
13	0x3cea2d54	0.028586067
14	0xbc92aaa0	-0.017903626
15	0xbd6bec64	-0.057598487
16	0x3cdecbb0	0.027196735
17	0xbbd5543a	-0.0065102847
18	0xbc6c20f2	-0.014412152
19	0xbce415d7	-0.027842445
20	0xbc97b5ea	-0.01851936
21	0x3c94617a	0.018112887
22	0x3d034320	0.032046437
23	0x3d5d2651	0.05399162
24	0xbd12699b	-0.035745244
25	0x3d992069	0.07476885
26	0x3d580909	0.05274299
27	0x3d909f4c	0.070616335
28	0xbe365f2b	-0.17809741
29	0xbe1664bf	-0.14686869
30	0x3e230993	0.15921621
31	0xbd7338b3	-0.059380244
32	0xbdef2988	-0.11677843
33	0x3d445bd4	0.047939137
34	0x3d8a9bee	0.067680225
35	0x3d6f4072	0.05841107
36	0x3d940221	0.072269686
37	0xbd7f6c40	-0.062359095
38	0xbd34fe86	-0.044188045
39	0xbd07ea24	-0.03318228
40	0xbcc5b561	-0.02413434
41	0xbc08bd02	-0.008345844
42	0x3bd9ff2f	0.0066527347
43	0xbd7a017c	-0.06103657
44	0xbd531c63	-0.051540744
45	0x3d8f651a	0.070017055
46	0x3c4990f6	0.012302628
47	0xbdad0cc9	-0.08449704
48	0xbd07153b	-0.03297923
49	0xbb688a6e	-0.00354829
50	0xbd9e6bed	-0.07735429
51	0x3ceb9b63	0.028760618
52	0xbaf17db7	-0.0018424307
53	0xbc3d25e4	-0.011544678
54	0xbdb10738	-0.08643955
55	0x3c332a3c	0.010935362
56	0xbdd46af8	-0.10371965
57	0xbd185962	-0.037194617
58	0xbd16c80a	-0.036811866
59	0x3c2c0be8	0.010500886
60	0xbd6a88ed	-0.05725949
61	0x3b94c0c0	0.004539579
62	0x3e198bf2	0.14994791
63	0x3d2099ab	0.03920905
64	0xbc8e5989	-0.017376678
65	0x3cf3cc44	0.029760487
66	0x3d4d87bd	0.05017828
67	0x3db59258	0.088658035
68	0xbcde9b4e	-0.027173664
69	0xbd896fcf	-0.06710779
70	0x3dcff147	0.10153442
71	0x3d490a92	0.049082346
72	0xbc26a555	-0.010171254
73	0x3e07ad67	0.13249741
74	0x3d3ff328	0.04686275
75	0x3c5e8fb0	0.013584062
76	0x3e07dddb	0.13268225
77	0x3ccfb900	0.02535677
78	0xbd68b954	-0.056817368
79	0xbd6064ec	-0.054783747
80	0x3df815cc	0.121135324
81	0xbca15919	-0.019695805
82	0x3da5fb09	0.08104522
83	0xbb108e23	-0.0022057376
84	0xbcda94a2	-0.026682202
85	0x3bb663dc	0.0055661034
86	0x3d4bda99	0.049769018
87	0xbd0d8477	-0.034550156
88	0xbd8e46bb	-0.069470845
89	0x3c7b67c8	0.015344568
90	0xbcd7a725	-0.026324818
91	0xbc618d43	-0.01376659
92	0x3c13f430	0.009030387
93	0xbd90dee8	-0.07073766
94	0xbe15d3ab	-0.14631526
95	0x3cb652a9	0.022256212
96	0xbcce6425	-0.025194237
97	0xbdf73bbc	-0.1207194
98	0xbbddea6f	-0.0067723314
99	0xbd47d76b	-0.048789423
100	0xbdbea5e5	-0.093089856
101	0x3c573d08	0.01313711
102	0x3c1c75f7	0.009549609
103	0xbdd988e8	-0.10621816
104	0xbd3d6035	-0.04623433
105	0xbb09ea4f	-0.00210442
106	0xbcfa4e0b	-0.030554792
107	0xbd05f2b8	-0.032702178
108	0xbe12a729	-0.14321579
109	0xbd7a4f3e	-0.061110727
110	0xbdbb61bb	-0.091495
111	0x3c326ea2	0.010890635
112	0xbd408361	-0.047000293
113	0xbe04d556	-0.12972006
114	0xbe301343	-0.17194848
115	0xbc2ca4dc	-0.010537352
116	0xbd1962e5	-0.03744783
117	0x3c136992	0.008997338
118	0xbbc1b33b	-0.0059112585
119	0x3d7d6016	0.061859213
120	0x3dc03a50	0.09386122
121	0x3d359385	0.04433014
122	0xba448df2	-0.0007497958
123	0xbda1f123	-0.07907321
124	0x3bea5c9c	0.007152153
125	0x3bf50417	0.007477294
126	0xbe2bcf70	-0.1677835
127	0xbcef453b	-0.029207816
128	0xbda7a263	-0.0818527
129	0x3d582ae4	0.05277528
130	0x3cffcaae	0.031224575
131	0xbc7b1b54	-0.01532634
132	0xbd397930	-0.04528159
133	0xbd135cae	-0.035977058
134	0x3baff229	0.005369444
135	0x3da027ff	0.07820129
136	0xbcfc3dd8	-0.030791208
137	0xbdd2ff51	-0.10302604
138	0x3c9ccfe5	0.0191421
139	0xbd06bca4	-0.032894745
140	0xbdb48f16	-0.08816354
141	0x3db8e94e	0.09028874
142	0xbd98bcb2	-0.07457866
143	0x3dc11042	0.09426929
144	0xbc5c3ea9	-0.013442674
145	0xbe054660	-0.13015127
146	0xbc95f9a6	-0.018307518
147	0x3dd48355	0.10376612
148	0x396cd266	0.00022585093
149	0xbd2ecafa	-0.042674042
150	0x3d198177	0.037476983
151	0xbd3eb150	-0.046555817
152	0x3d9dce67	0.07705384
153	0x3d9451d3	0.07242169
154	0x3df44056	0.119263336
155	0xbc27b5bf	-0.010236203
156	0x3e0aa7e7	0.13540612
157	0x3d4cee49	0.050031934
158	0x3d04202f	0.032257255
159	0x3d797764	0.060904875
160	0xbc00bb66	-0.007857179
161	0xbb69635b	-0.00356122
162	0x3db5e4a4	0.088815
163	0x3dcb5ee4	0.09930208
164	0x3d833fa1	0.064086206
165	0x3a0f9d28	0.0005478435
166	0x3c7263f0	0.014794335
167	0x3cb7524b	0.022378108
168	0xbccfaec8	-0.025351897
169	0xbe11d52f	-0.1424148
170	0xbdb67b8c	-0.089102834
171	0xbccbbe7d	-0.024871105
172	0x3c891792	0.016734872
173	0x3c992d66	0.018698405
174	0xbd968de7	-0.073512845
175	0xbd3c8395	-0.046023924
176	0x3cd58a49	0.026066916
177	0xbd4b51a2	-0.049638398
178	0x3cc08c3b	0.023504367
179	0xbcf398e1	-0.029735984
180	0xbdca8c94	-0.098900944
181	0xbcc8c115	-0.024506131
182	0x3dcd30e9	0.100190945
183	0xbdb943f5	-0.09046165
184	0xbc2d736e	-0.010586603
185	0x3dfb8899	0.12281913
186	0xbd9743fd	-0.073860146
187	0x3d09e8d5	0.03366931
188	0xba6b56d2	-0.0008977476
189	0xbd901791	-0.07035745
190	0xbd4de460	-0.050266623
191	0x3d54ee8d	0.051985312
192	0xbdb5c08e	-0.088746175
193	0xbd89a689	-0.06721217
194	0x3bba2498	0.005680632
195	0xbcb7f9db	-0.022458008
196	0xbc2e3f36	-0.010635188
197	0x3ddedbf9	0.108818
198	0x3df98ff4	0.1218566
199	0x3d0f016e	0.034913473
200	0x3d8aaefa	0.067716554
201	0x3c175a15	0.009237786
202	0x3bb6b245	0.0055754506
203	0xbc37b889	-0.01121343
204	0xbd4d5903	-0.050133716
205	0x3d9e974a	0.077437
206	0x3bbf2008	0.005832676
207	0x3d6f24f1	0.05838484
208	0xbd848e85	-0.06472496
209	0xbbb818bf	-0.0056181843
210	0x3d89fc93	0.06737628
211	0xbc8d2033	-0.017227268
212	0xbc1bed19	-0.009516978
213	0x3d4ea0ad	0.0504462
214	0x3dddd3d7	0.10831421
215	0xbb35abc8	-0.0027720798
216	0x3db0f612	0.08640684
217	0x3d45dba5	0.048305172
218	0xbd8e9341	-0.0696168
219	0xbc864d9f	-0.016394434
220	0xbd723263	-0.059130084
221	0xbdc11f62	-0.09429814
222	0x3cdd0ca4	0.026983567
223	0x3d75556d	0.05989592
224	0xbd2bdbe2	-0.041957743
225	0x3d542d08	0.051800758
226	0xbc9fb92e	-0.01949748
227	0xbd9fcd99	-0.078028865
228	0xbcc78b2e	-0.024358358
229	0x3d867558	0.0656535
230	0xbd9e9b49	-0.07744462
231	0x3d7609dc	0.060067996
232	0x3d3e42c4	0.04645039
233	0xbcb221c7	-0.021744622
234	0x3cacfeb0	0.021117538
235	0x3da137a0	0.07871938
236	0x3c4374c6	0.011929696
237	0x3ca47fe3	0.020080512
238	0x3d040cf6	0.032238923
239	0x3ce3d116	0.02780966
240	0xbc1e056b	-0.009644846
241	0xbd40c3e5	-0.04706182
242	0xbc274bf6	-0.010210982
243	0x3d12092b	0.035653275
244	0x3d586094	0.05282648
245	0xbd87bc6a	-0.06627734
246	0x3ddd70e1	0.108125456
247	0x3e00c51f	0.12575196
248	0x3d1dff9a	0.03857384
249	0x3d998750	0.07496512
250	0x3c5e4216	0.013565561
251	0x3dadfbe4	0.0849531
252	0xbc1e792b	-0.009672443
253	0x3d9d42d0	0.07678759
254	0xbd5f73ed	-0.054553915
255	0x3da4c73f	0.08045816

Generator.conv4.conv1.0.weight f4 [8, 8, 3, 3, 3]
0	0xbd4a8cbc	-0.04945062
1	0xbbea51e3	-0.007150875
2	0xbd184793	-0.037177633
3	0x3c9fc1ae	0.019501533
4	0x3cb12741	0.021625163
5	0xbcb48117	-0.022034211
6	0xbc847cef	-0.016172854
7	0x3a8cf8b4	0.0010755272
8	0xbd0a4b20	-0.03376305
9	0xbd5b5e0f	-0.0535565
10	0xbc984bc0	-0.018590808
11	0xbdc19135	-0.09451524
12	0xbd70673a	-0.058692195
13	0x3c889b54	0.016675629
14	0xbd183d39	-0.03716776
15	0x3da8c5ba	0.08240838
16	0x3b73db07	0.0037209408
17	0x3d0cbc77	0.03435942
18	0x3cce842a	0.025209505
19	0x3d0be429	0.034153137
20	0x3d83ea40	0.06441164
21	0x3d3085c7	0.04309633
22	0xbd787f66	-0.06066837
23	0x3c0af54c	0.008481335
24	0xbd760717	-0.060065355
25	0xbcf494ee	-0.029856171
26	0x3c817003	0.015800482
27	0xbc696f7c	-0.014247771
28	0xbc1b4588	-0.009477027
29	0x3d84ab3f	0.06477975
30	0xbd2c1170	-0.042008817
31	0x3d528912	0.05140025
32	0x3d5eec22	0.054424413
33	0xbce312ca	-0.02771892
34	0x3db182d8	0.086675346
35	0xbd8fb5a5	-0.07017068
36	0x3d0c126e	0.034197263
37	0xbc41ba8b	-0.0118242605
38	0xbd4656a9	-0.04842249
39	0xbc2a2666	-0.010385131
40	0xbcee05ba	-0.029055465
41	0xbd8d9337	-0.06912845
42	0xbc3af5ad	-0.011411113
43	0x3d12ac36	0.035808764
44	0x3c94013f	0.018067
45	0x3d44dc4e	0.04806166
46	0x3c0c381a	0.0085582975
47	0x3ca4285d	0.020038778
48	0x3ca5e8ae	0.020252552
49	0xbcb68475	-0.022279957
50	0x3cd960ab	0.026535353
51	0x3d42e871	0.047584955
52	0x3d80bdb3	0.06286182
53	0x3d0d8aac	0.034556076
54	0xbd4126de	-0.047156207
55	0xbb313029	-0.0027036762
56	0xbdc5f4fe	-0.09665869
57	0xbc6dd942	-0.01451713
58	0x3d39b4c2	0.0453384
59	0xbd94e676	-0.072705194
60	0x3d90a3dd	0.070625044
61	0x3cbdb37e	0.023156878
62	0xbcdccfe1	-0.026954593
63	0x3bd8ac1d	0.0066123144
64	0xbddd9311	-0.10819066
65	0xbd8956e6	-0.06706028
66	0x3c33db56	0.010977587
67	0xbd1e2e74	-0.03861852
68	0xbc03b6f1	-0.008039222
69	0x3b18c737	0.00233121
70	0x3d7d81c3	0.06189133
71	0xbd553a8d	-0.05205779
72	0x3d50cb25	0.050974984
73	0x3c8571b7	0.016289575
74	0xbc5f8613	-0.013642806
75	0x3be365d9	0.0069396314
76	0xbdafb4dc	-0.08579418
77	0x3d44811e	0.0479747
78	0x3c696e29	0.014247456
79	0xbd00ae73	-0.031416368
80	0x3cde0553	0.027102148
81	0x3c987db2	0.018614624
82	0xbcc9fdb4	-0.024657108
83	0xbcc994ba	-0.024607051
84	0x3cbbce00	0.022925377
85	0xbc8c5bdf	-0.017133651
86	0xbcb4a383	-0.022050625
87	0x3d66c101	0.056336407
88	0x3bf651ec	0.00751709
89	0x3d96feb6	0.07372801
90	0xbc4e7fb4	-0.012603689
91	0xbd82135a	-0.06351347
92	0xbd2b3820	-0.04180157
93	0x3cfc71a0	0.0308159
94	0xbd9c26bc	-0.076245755
95	0x3c84a7bd	0.016193265
96	0x3d9d41de	0.07678579
97	0x3d8cb6fa	0.068708375
98	0x3d30426f	0.043032106
99	0xbd816aff	-0.06319236
100	0xbd73373d	-0.05937885
101	0xbd5d1c78	-0.053982228
102	0xbc0e4426	-0.00868324
103	0x3d3d4cce	0.046215825
104	0xbd08cc79	-0.033398125
105	0x3da3721f	0.07980751
106	0x3c1d8e40	0.009616435
107	0x3b63167d	0.0034650855
108	0xbd2806a8	-0.041021973
109	0x3c57fb4a	0.013182471
110	0xbbad12e7	-0.0052817944
111	0xbc78613b	-0.0151599
112	0x3cb803be	0.022462722
113	0x3d16b053	0.03678925
114	0xbcfff15b	-0.031243017
115	0x3d3c20f2	0.045929857
116	0x3b7f4386	0.003895016
117	0x3bd2eca9	0.0064369035
118	0xbd036507	-0.03207877
119	0x3d634075	0.055481393
120	0xbd68df6c	-0.056853697
121	0xbca3a92f	-0.019978134
122	0xbce4109c	-0.027839951
123	0x3c315fc8	0.010826059
124	0x3d3c7292	0.0460077
125	0xbc7d0960	-0.01544413
126	0x3db1ffe2	0.08691384
127	0x3cd17364	0.025567718
128	0x3d7781b6	0.060426436
129	0x3b137a4c	0.0022503315
130	0xbcb3367e	-0.02187657
131	0x3cc5c2a0	0.024140656
132	0x3ca8864b	0.020571848
133	0x3aaa58ea	0.0012996469
134	0x3dbfea96	0.093709156
135	0xbd2b3339	-0.041796897
136	0x3cd81b0a	0.02638008
137	0xbd568433	-0.05237217
138	0x3c339b07	0.010962254
139	0x3d8cd437	0.06876414
140	0xbc89172a	-0.016734678
141	0x3d75f71d	0.06005012
142	0x3d9c4b62	0.07631566
143	0xbd95960e	-0.07304011
144	0x3ce21303	0.027596956
145	0xbd1409dd	-0.03614222
146	0xbb8063f6	-0.0039181663
147	0x3cadb945	0.021206507
148	0xbd07da3f	-0.03316712
149	0x3c388564	0.011262272
150	0x3d80c698	0.06287879
151	0x3d4217bd	0.04738592
152	0xbc9891e4	-0.018624254
153	0x3d230770	0.039802015
154	0xbcbd1d18	-0.023085162
155	0xbd04ac26	-0.032390736
156	0x3cbda025	0.023147652
157	0xbd162c48	-0.036663324
158	0x3b77126a	0.0037700185
159	0x3a5ef502	0.0008505137
160	0xbd0a8d49	-0.033826146
161	0x3d76c68e	0.06024795
162	0xbd543387	-0.051806953
163	0xbd2112df	-0.039324638
164	0xbd375f57	-0.044768658
165	0xbc8287fb	-0.015933981
166	0x3db9f8bc	0.090806454
167	0x3d52e73a	0.051490046
168	0xbce081dd	-0.027405674
169	0x3d05c573	0.032659005
170	0x3d9558b8	0.072923124
171	0xbd8a5962	-0.0675533
172	0xbd597dc7	-0.053098466
173	0x3c60af0a	0.013713608
174	0x3c087f6e	0.008331163
175	0xbdb9dde6	-0.09075527
176	0xbd6bd513	-0.05757625
177	0x3d76d131	0.060258094
178	0x3d2376c3	0.039908182
179	0xbba4d4d5	-0.0050302544
180	0x3d55b649	0.052175794
181	0x3d1d28ce	0.038368993
182	0x3bcae5e7	0.0061919573
183	0xbdaf3577	-0.085551195
184	0x3c488b5b	0.012240256
185	0xbcd306a8	-0.02576001
186	0xbcd8c6da	-0.026462007
187	0xbc4bb915	-0.012434264
188	0x3d1afeb1	0.03784055
189	0xbd876f9e	-0.06613086
190	0xbd5710f3	-0.0525064
191	0xbdbdc213	-0.09265532
192	0xbcf4bd9e	-0.029875573
193	0x3d371212	0.044694968
194	0xbcf7e795	-0.030261794
195	0xbcebb2de	-0.028771814
196	0xbc6aa4f9	-0.014321559
197	0x3b316619	0.0027068912
198	0x3d10ad17	0.03532132
199	0xbdda0b72	-0.10646714
200	0xbcafeacf	-0.02147427
201	0x3ca2748b	0.019830963
202	0xbdceefaf	-0.1010431
203	0xbda19b20	-0.07890916
204	0x3c99ff67	0.018798543
205	0x3da07c7f	0.07836246
206	0xbd70dc20	-0.058803678
207	0xbc156c85	-0.009120111
208	0x3d5c3274	0.053759053
209	0xbca94d4c	-0.02066674
210	0x3c400d10	0.011721864
211	0xbd6db98c	-0.05803828
212	0xbd5fc175	-0.054627854
213	0x3d3d5a56	0.04622873
214	0x3d43c44c	0.047794625
215	0x3d0fd382	0.03511382
216	0xbc11e88e	-0.008905543
217	0x3d93b89a	0.07212944
218	0x3d35788f	0.044304427
219	0x3c9bc261	0.019013586
220	0x3d3c30eb	0.04594509
221	0x3d2c0739	0.041999076
222	0xbd57dfc0	-0.05270362
223	0x3c5daa27	0.013529337
224	0x3d2bf6e2	0.041983493
225	0x3d9dc312	0.07703222
226	0x3d7c535b	0.06160293
227	0xbc5c6963	-0.0134528605
228	0xbd0d544f	-0.03450423
229	0x3c85e007	0.016342176
230	0x3c07f2ad	0.0082976045
231	0x393c1ee7	0.00017940589
232	0x3a6259d3	0.00086346007
233	0xbc0b920c	-0.008518707
234	0xbd2befd8	-0.04197678
235	0xbdabb9ee	-0.08385073
236	0xbd0a8952	-0.033822365
237	0x3c15a6d4	0.009134013
238	0xbd258104	-0.040406242
239	0xbd924f6c	-0.07144055
240	0x3cc80e3a	0.024420846
241	0x3c810a42	0.015751962
242	0xbd5475cc	-0.051870152
243	0xbcfd8008	-0.03094484
244	0x3c822c09	0.015890138
245	0x3bccb94e	0.006247676
246	0xbd79fd3d	-0.061032522
247	0x3d9402e7	0.07227116
248	0x3d23af59	0.039962146
249	0xbbc1f35c	-0.0059189033
250	0xbd552203	-0.05203439
251	0xbb221676	-0.0024732626
252	0x3d1798c8	0.037010938
253	0x3d54c341	0.05194402
254	0x3d8138d1	0.06309665
255	0x3b9e1835	0.004824663
