DeepWonder3D_pytorch/pth/SEG_pth/Unet4_no_end_UNet3DFFD_20240401-1432_2um/seg_6.pth (torch, 138281 bytes, 19 tensors)

Generator.conv1.conv1.0.weight f4 [8, 1, 3, 3, 3]
0.11434732 0.11337974 -0.031170325 0.15389024 -0.10327605 -0.09530074 0.03625413 0.033667438
0.13630803 0.025732279 -0.1543377 0.10795827 0.12945387 0.11755255 0.059252854 -0.16319968
0.1152988 -0.16964677 -0.16124173 -0.15017731 -0.09173857 0.021508044 -0.07590072 0.042212345
-0.21491475 -0.07319215 0.055709552 0.14808443 0.13682824 -0.0024786757 0.1017946 -0.13180938
-0.18450963 0.17679107 0.046651535 -0.06221105 -0.122664556 0.1381836 -0.065136656 -0.11676096
-0.08088986 -0.0029216597 -0.16442575 -0.19926852 -0.014504822 0.098767705 0.0010139024 0.16934302
0.17838642 -0.09753585 0.14082238 0.120190054 -0.11681012 -0.07871955 0.07527949 -0.029866997
-0.10862192 0.02864775 0.10058099 -0.00564167 -0.1554376 -0.10654666 -0.057117518 0.04327007
0.10337645 0.024970107 -0.044001654 0.038355302 0.07165391 0.040210344 -0.0079122735 -0.0036938305
-0.17871778 0.020977361 0.020396627 -0.026493205 -0.09487056 0.062467046 -0.07083068 0.057340145
-0.2006361 -0.07707344 -0.1321942 0.17594229 -0.18573196 -0.05856683 -0.0052864556 0.08767797
-0.1120205 0.059923775 -0.18459176 -0.022983128 0.06567018 0.12281717 -0.16493317 -0.12798353
-0.029683111 0.14950465 0.11276066 -0.0319915 0.1004873 0.13119347 -0.043306544 0.09261758
0.11513919 0.022459973 -0.13662325 -0.19447978 0.029953133 -0.17047955 -0.07227064 -0.20753454
-0.015206751 0.012090748 -0.11850288 0.07760793 0.042344928 -0.030664898 0.12438832 -0.17502141
-0.07398291 -0.014695382 -0.0027148188 0.081586756 0.03952141 0.12178511 -0.20703433 0.112588264
0.13631701 0.08914267 0.07282992 -0.08889175 -0.16773444 -0.044947784 0.12293159 0.03006046
-0.08611145 0.13581932 0.12914322 -0.046853304 -0.10616492 -0.18277664 0.17293802 0.007975807
-0.09211941 -0.17310522 0.06897555 0.11032436 -0.15791015 -0.20081416 -0.078935444 0.055034615
0.12550709 -0.044676695 -0.03615611 0.11528786 0.027129035 0.16155529 -0.0899693 -0.015368539
-0.08055947 0.15584044 -0.18497404 0.1716883 -0.1012002 0.119437814 0.010127695 -0.07887768
0.08469382 0.00031282046 0.03594613 0.069441244 -0.080813475 0.18303105 -0.18373391 -0.08946305
-0.01790776 -0.0066889226 0.13525975 0.018030226 -0.07638558 -0.07613694 0.05446575 -0.12952434
0.043215264 0.06325799 -0.076322444 0.01801573 0.14346938 -0.032619476 0.14066869 0.040367894
0.056045488 0.108234994 -0.19194049 -0.0587852 -0.0048985416 0.13406603 -0.017350603 -0.07477645
-0.035848204 -0.18974811 0.1304342 -0.08508374 -0.076900534 0.15219821 0.026384598 -0.05135102
-0.020738522 0.0034927947 -0.19985119 0.0988834 -0.095247686 -0.1679668 -0.08890843 0.10812886
00000000: ed2e ea3d a333 e83d e958 ffbc 6795 1d3e
00000010: 6582 d3bd 092d c3bd 367f 143d dee6 093d
00000020: 5594 0b3e 80cc d23c b40a 1ebe 3a19 dd3d
00000030: 8e8f 043e 64bf f03d 1fb3 723d d11d 27be
00000040: c721 ec3d e2b7 2dbe 8d1c 25be 15c8 19be
00000050: 6ee1 bbbd a331 b03c d671 9bbd dae6 2c3d
00000060: 9d12 5cbe c4e5 95bd b32f 643d 72a3 173e
00000070: b41c 0c3e 4771 22bb b079 d03d 0af9 06be
00000080: 18f0 3cbe b808 353e ae15 3f3d 04d1 7ebd
00000090: 8e37 fbbd 0080 0d3e 5e66 85bd 5f20 efbd
000000a0: 95a9 a5bd 5179 3fbb 395f 28be 0c0d 4cbe
000000b0: a2a5 6dbc b946 ca3d ebe4 843a 4268 2d3e
000000c0: eeaa 363e e0c0 c7bd be33 103e 3426 f63d
000000d0: 253a efbd b737 a1bd 222c 9a3d a2ab f4bc
000000e0: 2b75 debd b0ae ea3c 68fd cd3d c2dd b8bb
000000f0: 092b 1fbe 2335 dabd 0ff4 69bd f53b 313d
00000100: 08b7 d33d 1c8e cc3c 143b 34bd 731a 1d3d
00000110: 49bf 923d 9ab3 243d 7ba2 01bc 3114 72bb
00000120: cb01 37be b7d8 ab3c d416 a73c 4708 d9bc
00000130: 7f4b c2bd 72dd 7f3d ad0f 91bd 80dd 6a3d
00000140: 8d73 4dbe aed8 9dbd eb5d 07be 372a 343e
00000150: 8530 3ebe c6e3 6fbd 013a adbb 8290 b33d
00000160: 016b e5bd a272 753d 9f05 3dbe 1d47 bcbc
00000170: 167e 863d 9287 fb3d 3ee4 28be 1d0e 03be
00000180: ff29 f3bc bf17 193e 10ef e63d 8509 03bd
00000190: 49cc cd3d 9557 063e 3462 31bd 49ae bd3d
000001a0: 18ce eb3d fafd b73c f7e6 0bbe b525 47be
000001b0: 4660 f53c 3192 2ebe a102 94bd ef83 54be
000001c0: bd25 79bc 4618 463c a3b1 f2bd e8f0 9e3d
000001d0: e071 2d3d f434 fbbc 4ebf fe3d d038 33be
000001e0: 5a84 97bd e6c4 70bc 1aeb 31bb f516 a73d
000001f0: 34e1 213d 796a f93d cf00 54be ad94 e63d
00000200: b096 0b3e 6f90 b63d da27 953d e10c b6bd
00000210: 94c2 2bbe 2b1b 38bd 8fc3 fb3d 5b41 f63c
00000220: 335b b0bd 3814 0b3e 1f3e 043e 40e9 3fbd
00000230: fe6c d9bd cd29 3bbe aa16 313e f6ac 023c
00000240: 1aa9 bcbd 7f42 31be 0e43 8d3d bdf1 e13d
00000250: 33b3 21be 3aa2 4dbe e8a8 a1bd fa6b 613d
00000260: ee84 003e e9fe 36bd 6e18 14bd 0b1c ec3d
00000270: b63d de3c c06e 253e d341 b8bd 53cc 7bbc
00000280: 5dfc a4bd a394 1f3e d669 3dbe 0fcf 2f3e
00000290: 0d42 cfbd d09b f43d a2ee 253c 9f8a a1bd
000002a0: f473 ad3d 0d02 a439 403c 133d 3637 8e3d
000002b0: 8981 a5bd 7e6c 3b3e be24 3cbe 6738 b7bd
000002c0: 4bb3 92bc c02e dbbb 8881 0a3e 20b4 933c
000002d0: 0b70 9cbd afed 9bbd 7a17 5f3d 07a2 04be
000002e0: 7d02 313d 688d 813d f14e 9cbd b995 933c
000002f0: a3e9 123e 009c 05bd 740b 103e ce58 253d
00000300: f48f 653d 4faa dd3d 0c8c 44be c0c8 70bd
00000310: f283 a0bb 9b48 093e da22 8ebc 6524 99bd
00000320: 91d5 12bd 544d 42be 8b90 053e 6240 aebd
00000330: 077e 9dbd d9d9 1b3e 8324 d83c 7255 52bd
00000340: d5e3 a9bc 5fe7 643b caa5 4cbe 6183 ca3d
00000350: 3811 c3bd 7dff 2bbe 9f15 b6bd aa72 dd3d

Generator.conv1.conv2.0.weight f4 [8, 8, 3, 3, 3]
0.04957383 -0.028570531 0.014856806 -0.06369042 -0.06931535 -0.05554956 0.006927593 -0.04965994
0.08000364 -0.00076192373 0.0088629285 0.00035496292 0.0035815176 0.06567836 -0.056507457 0.021775568
-0.06419296 0.05378451 -0.055788405 0.0030875194 -0.003084226 0.013685069 0.013384251 -0.02864598
0.04530754 0.014912827 0.025314458 -0.033372723 -0.077715084 -0.028047292 0.02019006 -0.08011031
-0.04338025 -0.014644844 0.0022778823 -0.10900215 -0.05146056 0.03944225 0.014794391 0.009566095
0.017216938 -0.07850864 0.021153592 0.012019864 0.011495765 0.04118945 0.065756515 -0.06595533
-0.019923674 0.029435994 -0.057202145 -0.040744223 -0.03403507 0.020035952 -0.0148279015 0.022127002
0.029384034 0.05599702 0.016918415 0.017226929 -0.0102665685 -0.037772276 -0.08388245 -0.003679323
0.022428079 -0.030985685 -0.02611202 0.034682952 0.02337031 0.010054224 -0.044741627 -0.025996868
-0.038810845 -0.043342207 0.050344463 -0.04073208 0.035867438 -0.04572132 0.055009954 0.0634459
0.031154446 -0.020520201 0.061999798 0.041499157 0.07372825 0.0020506054 -0.0062915753 -0.02446613
-0.0398888 0.008724839 0.02160713 0.017796164 0.04262787 -0.03826159 0.014791732 0.057405468
-0.043104373 0.0069153104 0.027798673 0.06779054 -0.04626278 -0.048626237 0.00033784544 0.03818489
0.05206426 0.022151943 0.031140143 0.019160476 0.021816524 -0.013855723 -0.044697873 -0.066371195
-0.015280414 -0.017370284 -0.014835622 -0.07728735 0.011758268 -0.051609915 -0.047237348 0.060298886
0.006013258 -0.05869229 0.0140253445 -0.05109477 0.017620234 0.04026112 -0.025575686 0.040148478
0.022770477 0.0134991985 0.027086586 -0.046883028 -0.04263283 0.04934693 -0.025420152 0.057769723
0.040267073 -0.004578015 -0.0069049415 0.04219669 0.052062426 -0.007983642 -0.02876879 0.060775228
-0.06646719 0.030641064 0.021266608 -0.05333182 -0.037939865 -0.026693407 0.014114233 0.019136896
-0.064177975 0.045533575 0.055350512 0.034808844 0.00090167584 0.06294455 0.04206197 0.010357994
-0.028203925 0.043076523 -0.0056992834 0.02031213 -0.061432503 -0.012716065 -0.013521345 -0.043750048
0.07355228 -0.029647226 0.019245595 -0.007274921 -0.090080485 0.00029400765 -0.025385665 -0.011503721
-0.09241411 -0.08853107 -0.05194454 -0.0062857866 -0.03213767 -0.07477895 0.0047552525 -0.038061503
0.0151708545 -0.041069854 -0.08374011 -0.07704028 -0.057863664 0.0015064543 -0.07056537 0.004232758
0.049167752 0.021761684 0.04478905 0.021153824 -0.061357375 0.01068128 -0.004728786 -0.057068095
-0.05595073 -0.0123097785 -0.011976106 0.015764695 0.047495656 -0.07958882 -0.0270686 0.012735155
0.032690056 -0.061936446 -0.042241096 0.035457708 -0.037863597 -0.06754979 -0.002856721 -0.008725691
0.024858141 -0.03421339 0.0684327 -0.015785512 -0.0065432917 0.051617675 0.049419813 0.025720581
-0.025089987 0.020978272 -0.011667605 0.04251392 -0.03268153 0.03604107 -0.058828663 -0.015221208
-0.052158087 -0.054257125 0.010417976 0.037542827 -0.01516553 0.03933103 0.025579572 0.038101204
0.017425776 -0.043398373 0.0688884 -0.0510301 -0.018229404 -0.0048579285 0.0011454149 -0.029825438
0.06914784 0.07978382 0.060229626 0.055197697 0.044042565 -0.038418908 -0.012444805 0.06925209
00000000: ee0d 4b3d bf0c eabc f669 733c 1f70 82bd
00000010: 35f5 8dbd ef87 63bd dd00 e33b 3968 4bbd
00000020: f3d8 a33d d6bb 47ba d135 113c 511a ba39
00000030: e5b7 6a3b 6082 863d 5d74 67bd ad62 b23c
00000040: 9977 83bd 254d 5c3d 6282 64bd fb57 4a3b
00000050: ba20 4abb 5737 603c 9e49 5b3c f9aa eabc
00000060: 6694 393d ee54 743c 4460 cf3c d6b1 08bd
00000070: 1629 9fbd 6fc3 e5bc a065 a53c e010 a4bd
00000080: 7daf 31bd eef0 6fbc 8648 153b 853c dfbd
00000090: 4fc8 52bd 328e 213d 2c64 723c 1cbb 1c3c
000000a0: 890a 8d3c 23c9 a0bd 4c4a ad3c f7ee 443c
000000b0: bc58 3c3c 45b6 283d 5aab 863d 9713 87bd
000000c0: f936 a3bc c123 f13c cc4c 6abd 6ae3 26bd
000000d0: 5c68 0bbd 7022 a43c baf0 72bc b043 b53c
000000e0: c9b6 f03c 225d 653d 7d98 8a3c 7d1f 8d3c
000000f0: 1c35 28bc 1ab7 1abd 90ca abbd cc20 71bb
00000100: 17bb b73c b1d5 fdbc e0e8 d5bc b60f 0e3d
00000110: 1873 bf3c 79ba 243c ff42 37bd 62f7 d4bc
00000120: 1ff8 1ebd 9987 31bd ff35 4e3d aed6 26bd
00000130: bce9 123d 4746 3bbd 1e52 613d edef 813d
00000140: 9c37 ff3c fb19 a8bc 80f3 7d3d 05fb 293d
00000150: d6fe 963d 7363 063b 8f29 cebb 326d c8bc
00000160: 7062 23bd a1f2 0e3c 7001 b13c 43c9 913c
00000170: 909a 2e3d 2fb8 1cbd 0559 723c ff21 6b3d
00000180: 368e 30bd d499 e23b 0bba e33c c4d5 8a3d
00000190: 0a7e 3dbd 4e2c 47bd d920 b139 c267 1c3d
000001a0: 5541 553d fe77 b53c 9d19 ff3c 6ef6 9c3c
000001b0: 91b8 b23c 1d03 63bc 1e15 37bd 9fed 87bd
000001c0: b45a 7abc 204c 8ebc 1c11 73bc d548 9ebd
000001d0: c0a5 403c eb64 53bd f37b 41bd f7fb 763d
000001e0: dd0a c53b 5467 70bd 8fca 653c c048 51bd
000001f0: 4f58 903c d8e8 243d 1a84 d1bc bb72 243d
00000200: 2789 ba3c be2b 5d3c b0e4 dd3c 6b08 40bd
00000210: c39f 2ebd 0220 4a3d ec3d d0bc f29f 6c3d
00000220: 16ef 243d 2c03 96bb d942 e2bb 70d6 2c3d
00000230: 693f 553d d2cd 02bc 87ac ebbc 72ef 783d
00000240: f31f 88bd f802 fb3c 4f37 ae3c 7772 5abd
00000250: d566 1bbd 22ac dabc 623f 673c fbc4 9c3c
00000260: be6f 83bd 6a81 3a3d 38b7 623d b893 0e3d
00000270: 715e 6c3a 12e9 803d 2c49 2c3d 93b4 293c
00000280: eb0b e7bc 0271 303d 0ec1 babb a065 a63c
00000290: a6a0 7bbd 0b57 50bc a288 5dbc 4033 33bd
000002a0: 94a2 963d bdde f2bc f0a8 9d3c 7662 eebb
000002b0: 1e7c b8bd 0a25 9a39 99f5 cfbc 1a7a 3cbc
000002c0: 9c43 bdbd c74f b5bd ccc3 54bd 00f9 cdbb
000002d0: caa2 03bd b525 99bd f3d1 9b3b 61e6 1bbd
000002e0: 2d8f 783c dd38 28bd ef7f abbd 4bc7 9dbd
000002f0: 7302 6dbd 3874 c53a 9484 90bd f3b2 8a3b
00000300: 2064 493d 8f45 b23c b974 373d c94a ad3c
00000310: df51 7bbd 8900 2f3c eff3 9abb 3cc0 69bd
00000320: 982c 65bd f4ae 49bc 6e37 44bc f624 813c
00000330: ce8a 423d 77ff a2bd f8be ddbc 1da7 503c
00000340: 02e6 053d 12b1 7dbd 0005 2dbd 1a3c 113d
00000350: dc16 1bbd 8b57 8abd d337 3bbb 33f6 0ebc
00000360: 4da3 cb3c 5723 0cbd 7226 8c3d 9e50 81bc
00000370: 1c69 d6bb 0e6d 533d 6e6c 4a3d f8b3 d23c
00000380: 8489 cdbc a0da ab3c 7b29 3fbc 1423 2e3d
00000390: 11dd 05bd cd9f 133d 53f6 70bd 6062 79bc
000003a0: b8a3 55bd b83c 5ebd 29b0 2a3c 82c6 193d
000003b0: d878 78bc 9319 213d 408c d13c 0210 1c3d
000003c0: 80c0 8e3c 7ec2 31bd 5d15 8d3d f004 51bd
000003d0: d555 95bc 422f 9fbb bf21 963a 7a54 f4bc
000003e0: 629d 8d3d b365 a33d 57b3 763d fb16 623d
000003f0: fa65 343d 255d 1dbd 4ce5 4bbc 0ad4 8d3d

Generator.conv2.conv1.0.weight f4 [8, 8, 3, 3, 3]
-0.047130406 -0.06950808 0.06350399 0.02480242 0.0037314934 -0.06310978 -0.0612172 -0.015357803
0.023910284 -0.052103918 0.0024451353 0.03240648 -0.058063537 0.043465942 0.03257082 0.0041887104
-0.054717686 0.06458529 0.03478455 -0.05262741 -0.025049927 0.023748582 -0.046111863 0.0069687944
0.06264649 -0.032337792 0.013694022 0.045950126 -0.032003287 -0.02203483 -0.03769186 -0.008712477
-0.01427037 -0.029904995 0.052928906 0.0073058065 -0.05245775 -0.06111419 0.011783709 -0.05856745
-0.028982693 -0.03676634 0.07628466 -0.0003575389 -0.0052705733 0.020147625 0.0022567885 -0.084941216
0.0334758 -0.0025099001 -0.052537184 0.015764667 -0.030626707 -0.055806078 -0.034292895 0.019354155
-0.06561816 -0.015384781 -0.06588911 -0.006958103 0.056601893 -0.010746163 0.041576903 -0.057338946
0.03377796 -0.043119397 -0.0015960836 -0.019609064 -0.019127276 -0.058208574 0.009498574 0.029519942
-0.05515093 -0.017767327 -0.04028167 -0.063816816 0.028764581 -0.017594943 -0.016848862 -0.052682742
0.017726636 0.02110931 0.0060430528 0.06490761 -0.03461422 -0.02659043 -0.0025914428 0.0036824418
-0.037470743 0.069400825 0.0017264043 -0.024192665 0.040420946 0.03317603 -0.0076871044 0.023080956
0.022625161 -0.042150207 0.04094696 -0.044753976 0.045062076 -0.033724155 -0.06652332 -0.046953477
0.04804549 0.026890358 -0.032693513 0.021778084 0.06285861 0.06077009 -0.040503576 -0.011229129
-0.056002248 -0.016900122 -0.022987818 -0.017357944 -0.0062021697 -0.018758645 0.0020701308 0.03701362
0.016853904 0.054124255 0.04107772 0.045848195 -0.04109757 0.058891788 -0.03354924 0.038793243
0.073942415 -0.03138903 0.06643486 0.07178142 0.047619823 0.0044998596 -0.048517913 -0.043202456
-0.009993959 -0.06525816 -0.0065165656 0.030280171 0.014900527 0.03582157 -0.03912632 -0.06628242
-0.015824674 -0.060570065 -0.060646426 -0.016211415 -0.05488078 -0.050448004 0.055122714 0.016345432
0.008374986 0.0035828217 -0.0440711 0.0037655558 -0.016232656 0.03342968 -0.002232923 -0.0059230616
-0.045495093 0.01728883 0.052327666 0.08695611 0.09098474 0.017947182 -0.00720399 0.0045057917
-0.056395866 0.05846159 -0.02606433 -0.025241252 0.006270712 -0.006722624 0.0056717223 0.07214242
0.087685615 0.04350073 0.03548226 0.051041875 0.074905574 0.03417492 0.009987896 -0.041629974
0.080504306 0.015686972 0.063231476 -0.024539705 0.06040384 0.052046876 0.037725877 0.057846084
-0.035602067 -0.008394309 0.05651591 -0.03948333 0.028699664 0.0011960774 0.0127364965 -0.039812844
0.064055845 -0.045228202 0.026121145 0.038812645 0.00712414 -0.063595586 0.049867082 -0.03665173
-0.055726532 0.028818198 0.03461467 0.032346517 0.02193869 -0.058620833 -0.04726603 -0.060428165
0.0058182944 -0.046898518 -0.03921014 -0.035965156 0.058275186 0.068828456 -0.021109527 -0.04562057
0.056704704 -0.06991653 -0.034243636 0.04235282 -0.04317913 0.024075475 0.04620931 0.007886553
0.06343818 -0.01072362 0.018293085 -0.083426714 -0.0124250045 0.054527637 0.006992333 -0.015366577
0.028975863 0.060645968 -0.02466576 -0.02467463 -0.028901715 -0.063240245 -0.005256345 0.051857587
0.0035547027 0.060875952 0.047103673 -0.049492333 -0.11423582 -0.11568044 -0.101098016 -0.012430263
00000000: d00b 41bd 415a 8ebd 610e 823d 722e cb3c
00000010: 128c 743b b33f 81bd e3be 7abd 4b9f 7bbc
00000020: 80df c33c eb6a 55bd 903e 203b a8bc 043d
00000030: 08d4 6dbd 5809 323d fb68 053d 7341 893b
00000040: a71f 60bd 4b45 843d 3f7a 0e3d d78f 57bd
00000050: 8135 cdbc 638c c23c cbdf 3cbd 7c5a e43b
00000060: ce4c 803d a274 04bd e45c 603c 3336 3c3d
00000070: e115 03bd 6382 b4bc c862 1abd c7be 0ebc
00000080: 45ce 69bc 52fb f4bc fbcb 583d 8c65 ef3b
00000090: f0dd 56bd df52 7abd 7510 413c 6ce4 6fbd
000000a0: 1d6d edbc 4d98 16bd 223b 9c3d 0f74 bbb9
000000b0: c6b4 acbb a20c a53c a1e6 133b a9f5 adbd
000000c0: ec1d 093d 237d 24bb 3b31 57bd e724 813c
000000d0: dce4 fabc ea94 64bd b576 0cbd 9b8c 9e3c
000000e0: d062 86bd 7310 7cbc dff0 86bd cc00 e4bb
000000f0: 63d7 673d ad10 30bc 8b4c 2a3d 3edc 6abd
00000100: c25a 0a3d f79d 30bd ae33 d1ba 30a3 a0bc
00000110: ceb0 9cbc 1d6c 6ebd e89f 1b3c ced3 f13c
00000120: f1e5 61bd c98c 91bc 64fe 24bd 64b2 82bd
00000130: b3a3 eb3c 4523 90bc a006 8abc dcc9 57bd
00000140: 7337 913c 6fed ac3c cd04 c63b 48ee 843d
00000150: a4c7 0dbd 2cd4 d9bc 32d5 29bb 1f55 713b
00000160: ec7a 19bd 0522 8e3d 8448 e23a b22f c6bc
00000170: 6f90 253d 97e3 073d 1be4 fbbb 4614 bd3c
00000180: 6758 b93c b2a5 2cbd 00b8 273d f24f 37bd
00000190: 0393 383d 5722 0abd 613d 88bd 4a52 40bd
000001a0: 59cb 443d 2b49 dc3c a2e9 05bd f467 b23c
000001b0: 04bc 803d 0fea 783d 14e7 25bd 61fa 37bc
000001c0: 9d62 65bd 2072 8abc f350 bcbc 3f32 8ebc
000001d0: 923b cbbb bbab 99bc 08ab 073b 989b 173d
000001e0: 3311 8a3c 65b1 5d3d 1c41 283d 51cb 3b3d
000001f0: ed55 28bd 8438 713d ee6a 09bd aae5 1e3d
00000200: 1f6f 973d c991 00bd 000f 883d 2302 933d
00000210: 010d 433d 8f73 933b b8ba 46bd 0ff5 30bd
00000220: b4bd 23bc 12a6 85bd ea88 d5bb 1f0e f83c
00000230: 5721 743c a3b9 123d ec42 20bd 14bf 87bd
00000240: bfa2 81bc 5118 78bd 6368 78bd cdcd 84bc
00000250: abca 60bd 91a2 4ebd 5bc8 613d dbe6 853c
00000260: 3d37 093c c6cd 6a3b e683 34bd 8bc7 763b
00000270: 59fa 84bc 8fed 083d 3b56 12bb 3e16 c2bb
00000280: 1059 3abd 4ea1 8d3c 8955 563d 0c16 b23d
00000290: 3556 ba3d f805 933c 730f ecbb 52a5 933b
000002a0: 5aff 66bd 6c75 6f3d dd84 d5bc bec6 cebc
000002b0: 8b7a cd3b 7549 dcbb dbd9 b93b 68bf 933d
000002c0: 8494 b33d d22d 323d d955 113d 4911 513d
000002d0: 1868 993d 00fb 0b3d 46a4 233c 3184 2abd
000002e0: 71df a43d f781 803c 817f 813d 7e07 c9bc
000002f0: 046a 773d 1b2f 553d 7386 1a3d 04f0 6c3d
00000300: 79d3 11bd 4988 09bc 3a7d 673d 46b9 21bd
00000310: 8f1b eb3c b3c5 9c3a bdac 503c cb12 23bd
00000320: b62f 833d 3541 39bd 03fc d53c 02fa 1e3d
00000330: 9e71 e93b 673e 82bd 6d41 4c3d 2020 16bd
00000340: 8141 64bd 2414 ec3c 1dc8 0d3d c87d 043d
00000350: c5b8 b33c 661c 70bd 069a 41bd 8683 77bd
00000360: 64a7 be3b a918 40bd d09a 20bd 3350 13bd
00000370: f6b1 6e3d eff5 8c3d e3ed acbc a3dc 3abd
00000380: 3143 683d 6630 8fbd 0e43 0cbd 277a 2d3d
00000390: 99dc 30bd ee39 c53c f945 3d3d 9a36 013c
000003a0: e0eb 813d 1fb2 2fbc 61db 953c a0db aabd
000003b0: 3f92 4bbc 5f58 5f3d f11f e53b 18c4 7bbc
000003c0: ca5e ed3c e867 783d d90f cabc 7322 cabc
000003d0: 4ac3 ecbc 1a84 81bd 6b3d acbb 9f68 543d
000003e0: 04f6 683b 1059 793d c8ef 403d 79b8 4abd
000003f0: 78f4 e9bd dee9 ecbd 7a0c cfbd 4da8 4bbc

Generator.conv2.conv2.0.weight f4 [8, 8, 3, 3, 3]
-0.0057918113 -0.054747075 0.0060967063 0.021260751 0.08042215 0.031004563 -0.002822883 0.016098605
0.052325107 0.03215733 0.008779726 0.06997964 0.003210088 0.052081104 -0.034938928 0.0670278
-0.027100641 0.0137480805 -0.031436734 -0.02208056 0.020372987 0.07237704 -0.03593936 -0.03665422
-0.035622556 0.024488935 0.0020647938 0.05236215 0.041712943 -0.036673505 0.023853658 0.044720903
0.0959069 0.048932664 0.0012994347 -0.030994557 0.008165596 -0.02675107 -0.057878964 0.0006337983
0.07842875 0.008434482 -0.030059846 -0.03285148 0.00982184 0.026744656 0.07814224 0.0037162763
0.084673144 0.031824596 -0.0030955882 -0.012381416 0.059620403 -0.025542405 0.024197612 0.013995381
-0.034747183 -0.089647785 -0.05875633 0.037487805 0.0049842824 0.03078176 0.033919193 -0.08296443
-0.046721373 -0.027434254 -0.071030274 0.016687179 -0.041512534 -0.030762073 0.029287815 -0.03126578
-0.041973 -0.015257794 0.000887751 0.01355426 -0.03754487 0.01753733 -0.006270689 -0.007969165
-0.07854854 -0.054914955 0.04044822 0.035890132 -0.06332839 0.059581514 -0.038972184 0.0027819076
-0.018865388 -0.057356115 0.014526358 0.02688262 0.0083794 -0.0016990787 0.04246058 -0.066077806
0.0033077647 -0.033464078 0.059088748 -0.035744447 0.0024568008 0.023140183 -0.05227748 0.053301673
-0.045352966 0.023721516 -0.02938036 0.0014559273 0.0147277145 -0.033375878 -0.11136826 -0.0076883337
-0.03935438 -0.09558594 0.049715437 -0.02713078 0.009219757 0.032628 -0.021214372 -0.07398303
-0.063987955 -0.07049991 -0.108969994 0.07171345 0.006932891 0.019711519 -0.056982573 -0.05408325
-0.042479396 0.04281483 0.039276347 -0.07602547 0.032190226 0.020905595 -0.06776638 -0.008687287
-0.06726679 0.01818364 0.040458314 -0.050838318 0.00044186495 -0.05102725 -0.03079671 -0.016052809
-0.011595509 0.055002972 -0.01902014 0.061883833 0.038087767 -0.016092755 0.03739828 7.817624e-05
-0.042507995 -0.05318573 -0.061887465 0.061544675 0.02554132 0.007277237 -0.053607084 -0.013434201
-0.03062156 0.053134143 0.03121511 -0.02766051 0.066080034 -0.0030007216 -0.004303078 0.015455555
0.03397897 -0.020940581 -0.025739957 -0.025930205 -0.0662367 0.026843835 0.03387483 -0.014512953
0.057607766 -0.0054063518 0.029654825 0.011539982 -0.034344852 0.044725254 0.02199403 -0.0017224204
0.051019717 0.033473738 0.036760822 0.0065428885 0.012880315 0.04899501 -0.019838993 -0.0571075
-0.0525194 -0.029761218 -0.041417204 -0.065471455 0.012561423 -0.024100967 -0.007661746 0.033782262
0.0077190893 -0.03628786 -0.048495546 0.042760093 -0.024951153 0.049508672 0.01990416 0.061782636
-0.005900963 -0.0016613912 -0.044483338 0.03022165 -0.027030574 0.062153343 0.006565091 0.04715581
-0.05672552 -0.020581855 0.028572364 0.01737098 0.002266687 -0.070153035 -0.046997547 0.05495728
-0.01598863 0.042046368 0.017870072 -0.031210778 0.03292015 0.003003913 -0.012440013 -0.024131354
-0.020253774 0.02851406 -0.019972833 0.026098538 0.00605841 0.06536468 0.022233848 0.012872315
0.06537926 -0.04071209 -0.010149978 0.0177556 -0.018000308 0.04296056 0.015228119 -0.00512206
-0.005713187 -0.0766473 -0.023355607 -0.06747173 0.06681846 0.044389747 -0.07866592 0.05573658
00000000: 3cc9 bdbb 783e 60bd e1c6 c73b 072b ae3c
00000010: 5eb4 a43d 48fd fd3c 1e00 39bb 39e1 833c
00000020: da52 563d 68b7 033d d7d8 0f3c 7c51 8f3d
00000030: 5760 523b ff52 553d 1f1c 0fbd df45 893d
00000040: 2a02 debc a13f 613c cec3 00bd 4ae2 b4bc
00000050: 40e5 a63c 6a3a 943d 2635 13bd bc22 16bd
00000060: f5e8 11bd 059d c83c 7e51 073b b279 563d
00000070: 31db 2a3d f536 16bd bf68 c33c 442d 373d
00000080: d66a c43d 9e6d 483d cb51 aa3a 4ce8 fdbc
00000090: fec8 053c 0f25 dbbc 7e12 6dbd 7c25 263a
000000a0: 419f a03d c830 0a3c 1140 f6bc 468f 06bd
000000b0: c8eb 203c 9c17 db3c 0a09 a03d c58c 733b
000000c0: 1d69 ad3d 825a 023d 5adf 4abb 6cdb 4abc
000000d0: 8634 743d 4e3e d1bc 123a c63c e24c 653c
000000e0: 1053 0ebd 4299 b7bd 7aaa 70bd d08c 193d
000000f0: 3153 a33b 082a fc3c daee 0a3d 41e9 a9bd
00000100: e95e 3fbd cdbd e0bc 5278 91bd 8db3 883c
00000110: 0c09 2abd be00 fcbc 00ed ef3c 8c10 00bd
00000120: e1eb 2bbd d4fb 79bc f6b7 683a b012 5e3c
00000130: a6c8 19bd 72aa 8f3c 5a7a cdbb 1a91 02bc
00000140: 0fde a0bd 81ee 60bd 08ad 253d 8801 133d
00000150: 51b2 81bd bf0b 743d 4ca1 1fbd aa50 363b
00000160: 968b 9abc 3fee 6abd f6ff 6d3c f138 dc3c
00000170: c049 093c 9fb3 deba 25eb 2d3d cd53 87bd
00000180: 15c7 583b a111 09bd 0b07 723d c568 12bd
00000190: 4702 213b 7b90 bd3c e920 56bd db52 5a3d
000001a0: 08c4 39bd a053 c23c 15af f0bc d0d4 be3a
000001b0: 834c 713c 25b5 08bd 0b15 e4bd 6bee fbbb
000001c0: 0f32 21bd 90c2 c3bd 6aa2 4b3d 5f41 debc
000001d0: 770e 173c f0a4 053d c3c9 adbc 6a84 97bd
000001e0: 1e0c 83bd 4262 90bd a92b dfbd 80de 923d
000001f0: 4e2d e33b 0d7a a13c 8f66 69bd 6686 5dbd
00000200: e0fe 2dbd 9a5e 2f3d 3ce0 203d 3eb3 9bbd
00000210: e6d9 033d 3642 ab3c 1ac9 8abd 1f55 0ebc
00000220: 2cc3 89bd dbf5 943c 9eb7 253d d73b 50bd
00000230: 1caa e739 f301 51bd 6249 fcbc 2e81 83bc
00000240: 17fb 3dbc cc4a 613d 20d0 9bbc e779 7d3d
00000250: eb01 1c3d f4d4 83bc f02e 193d 8df2 a338
00000260: dd1c 2ebd 48d9 59bd b67d 7dbd 4516 7c3d
00000270: 083c d13c e375 ee3b 1a93 5bbd 1f1b 5cbc
00000280: 11da fabc 30a3 593d d5b6 ff3c 4b98 e2bc
00000290: f854 873d c1a7 44bb d600 8dbb 4c39 7d3c
000002a0: 882d 0b3d 958b abbc 9adc d2bc 956b d4bc
000002b0: 1ba7 87bd 9ae7 db3c 55c0 0a3d bdc7 6dbc
000002c0: 1ff6 6b3d c427 b1bb adee f23c 3112 3d3c
000002d0: 30ad 0cbd d431 373d d32c b43c d7c2 e1ba
000002e0: 0dfa 503d c21b 093d 8492 163d ba65 d63b
000002f0: f507 533c feae 483d 6285 a2bc 8ee9 69bd
00000300: 951e 57bd cccd f3bc 16a5 29bd e615 86bd
00000310: 6dce 4d3c 646f c5bc 620f fbbb 455f 0a3d
00000320: 6af0 fc3b 94a2 14bd 44a3 46bd 3525 2f3d
00000330: 5c66 ccbc 9bc9 4a3d 0d0e a33c ca0f 7d3d
00000340: de5c c1bb 0ac3 d9ba 2934 36bd 6593 f73c
00000350: 396f ddbc 8194 7e3d fa1f d73b 7326 413d
00000360: 0559 68bd 479b a8bc 9710 ea3c 964d 8e3c
00000370: b38c 143b 65ac 8fbd 8080 40bd e31a 613d
00000380: 96fa 82bc d038 2c3d 4264 923c bfad ffbc
00000390: 47d7 063d 4cdd 443b 32d1 4bbc 1eaf c5bc
000003a0: 3eeb a5bc 5196 e93c 119e a3bc 9acc d53c
000003b0: a085 c63b ebdd 853d c223 b63c 67e6 523c
000003c0: 90e5 853d b8c1 26bd 184c 26bc 3174 913c
000003d0: 6275 93bc 6af7 2f3d 5c7f 793c f4d6 a7bb
000003e0: b035 bbbb 42f9 9cbd 4254 bfbc 9e2e 8abd
000003f0: 1ed8 883d 06d2 353d 991b a1bd 0a4c 643d

Generator.conv3.conv1.0.weight f4 [8, 8, 3, 3, 3]
-0.003113567 0.08098872 -0.011325773 -0.064904034 -0.009762945 0.0137211075 0.07870875 -0.021982824
-0.021108376 -0.035727225 0.026315162 -0.037633225 0.011369773 -0.0052261213 -0.054731254 -0.024938077
0.06681654 -0.020366646 -0.015043274 0.09693166 0.05410459 0.056806635 -0.035337914 0.043000203
-0.050737794 0.046254173 -0.029582698 -0.019624691 0.01747153 0.025533255 -3.171622e-05 0.04076428
-0.067600034 0.10478412 0.004988021 -0.003740046 -0.012826201 0.03434883 0.09734463 -0.070938684
-0.0046404237 -0.08075509 -0.020346072 -0.036901955 -0.0029528425 0.018354546 0.06353277 -0.028696166
0.015597659 0.031850547 -0.035097767 0.017738586 0.058494978 0.006008424 -0.06316498 0.028023908
-0.0041031186 -0.029594349 -0.010421746 0.07547164 -0.044864558 -0.030344078 -0.018947465 -0.0031716584
0.038840733 0.06330373 -0.032211374 0.08479451 0.082783885 -0.06836379 -0.006612831 -0.038095593
0.0021010202 -0.031744324 0.078365125 -0.029686943 0.049204547 0.031094905 0.006093108 -0.030679625
0.00997878 -0.0065274606 0.014309988 0.06341944 -0.058407065 0.0013028788 0.020967709 0.054106858
-0.05350014 0.013555818 -0.025835486 0.045847166 0.0615082 -0.05951734 0.044568315 0.010180883
-0.058495015 -0.018954184 -0.00082848896 -0.079733044 0.06261871 0.026657498 0.0014999944 0.07184968
0.08232923 -0.030315716 -0.0009764991 -0.044012766 0.015540234 -0.028386073 0.0061892313 0.06847493
-0.012911158 0.020902801 0.09121006 0.040275466 -0.050724782 -0.022795903 0.030478358 0.026067156
-0.023083085 0.044763654 0.04483145 0.0075717345 0.047107052 -0.06508383 -0.025109032 0.0002291222
0.055102784 -0.025878571 -0.013870806 -0.0010770082 0.068720914 -0.047539815 0.01600638 -0.012977062
0.10944608 0.033254642 -0.005643286 0.065593936 -0.040093705 -0.04982614 -0.0189072 -0.056461778
0.043877207 0.10357933 0.015972624 -0.041330677 0.030604826 0.030808512 -0.062059928 -0.044620182
-0.0069023976 -0.053121693 0.090759575 -0.0427233 -0.048234183 0.03004386 0.05958964 -0.0058054198
-0.0075632352 -0.054671932 -0.055924945 0.01605313 0.035669584 0.026291298 0.017950738 -0.025371373
0.11801126 0.0005612346 0.032104313 0.007486332 -0.09767678 0.03389843 0.04308696 -0.062619254
0.050484765 -0.007826367 -0.0142941 0.051292438 0.051243022 -0.04725066 -0.051351946 -0.0019846596
0.0027810482 -0.026133755 -0.02828714 0.001579352 0.04174393 0.019493412 0.017050426 -0.0367301
0.018987816 0.08544159 0.02543913 -0.09178297 0.044395156 0.02478755 -0.02226764 -0.013486846
-0.0684886 0.013065013 0.14349926 0.047967006 -0.061604522 -0.036216456 0.057544734 -0.008835393
-0.046483293 -0.006246915 0.06466234 0.12946023 -0.035355434 -0.0463696 -0.01879983 -0.037637778
0.02382312 -0.023788316 -0.078091055 -0.005891134 -0.023982896 0.059103247 0.035018776 0.00051732844
0.028702674 0.04987091 -0.079671055 -0.008720122 -0.014776144 0.015700363 0.009136033 -0.033085857
0.041865125 0.012236056 0.03391215 0.04100897 -0.027367957 0.038545582 0.009982304 -0.05202855
0.011854372 -0.039506014 0.041228935 0.009389273 -0.025735589 -0.024320433 -0.0051713926 0.05636627
0.023880146 0.010928094 -0.09438277 -0.07299285 0.055305634 0.015740344 -0.005743331 0.087072454
00000000: fc0c 4cbb 6add a53d bc8f 39bc 68ec 84bd
00000010: c2f4 1fbc 7fce 603c 0e32 a13d 5315 b4bc
00000020: 79eb acbc b656 12bd e592 d73c 4c25 1abd
00000030: 4948 3a3c e23f abbb e12d 60bd f04a ccbc
00000040: 1cd7 883d f4d7 a6bc 1078 76bc 1b84 c63d
00000050: c69c 5d3d 13ae 683d 7dbe 10bd fb20 303d
00000060: 6fd2 4fbd 0475 3d3d 6a57 f2bc f6c3 a0bc
00000070: 7420 8f3c 1e2b d13c 0807 05b8 72f8 263d
00000080: e371 8abd 0f99 d63d 8e72 a33b 8f1b 75bb
00000090: fc24 52bc 5cb1 0c3d 9f5c c73d 4d48 91bd
000000a0: b20e 98bb ed62 a5bd ceac a6bc 8126 17bd
000000b0: 7a84 41bb 465c 963c 781d 823d 3914 ebbc
000000c0: 538d 7f3c b875 023d adc2 0fbd 8350 913c
000000d0: 6e98 6f3d 50e2 c43b a45c 81bd 6592 e53c
000000e0: 7473 86bb d96f f2bc f9bf 2abc e090 9a3d
000000f0: e6c3 37bd 2594 f8bc b737 9bbc 99db 4fbb
00000100: 7617 1f3d 63a5 813d 13f0 03bd bea8 ad3d
00000110: 998a a93d 5102 8cbd 72b0 d8bb 200a 1cbd
00000120: 45b1 093b 5606 02bd e57d a03d 0832 f3bc
00000130: b58a 493d beba fe3c b2a8 c73b d653 fbbc
00000140: 097e 233c 4fe4 d5bb 7174 6a3c 0de2 813d
00000150: 3f3c 6fbd 5cc5 aa3a 79c4 ab3c 279f 5d3d
00000160: f622 5bbd 3919 5e3c f1a4 d3bc 3dca 3b3d
00000170: 06f0 7b3d 74c8 73bd 448d 363d b8cd 263c
00000180: 7898 6fbd ce45 9bbc f42e 59ba 144b a3bd
00000190: 3d3e 803d d360 da3c 769b c43a ed25 933d
000001a0: 3a9c a83d aa58 f8bc bffb 7fba bb46 34bd
000001b0: 779c 7e3c e989 e8bc 09cf ca3b 963c 8c3d
000001c0: 5289 53bc 5a3c ab3c 57cc ba3d e3f7 243d
000001d0: cac4 4fbd 79be babc c0ad f93c ca8a d53c
000001e0: bd18 bdbc 185a 373d 2fa1 373d 501c f83b
000001f0: 53f3 403d ac4a 85bd 75b1 cdbc 8640 7039
00000200: 75b3 613d 4cff d3bc 6142 63bc 662a 8dba
00000210: 8dbd 8c3d 1cb9 42bd d01f 833c be9d 54bc
00000220: 4425 e03d 0536 083d 50eb b8bb 1d56 863d
00000230: 4c39 24bd 7f16 4cbd 46e3 9abc 7744 67bd
00000240: 96b8 333d 6621 d43d 05d9 823c 5b4a 29bd
00000250: f9b6 fa3c 2262 fc3c 8d32 7ebd a7c3 36bd
00000260: 822d e2bb 2296 59bd 28e0 b93d a1fe 2ebd
00000270: 3591 45bd 8b1e f63c 4414 743d 643b bebb
00000280: 04d5 f7bb adef 5fbd 8e11 65bd db81 833c
00000290: 451a 123d d960 d73c 6d0d 933c a0d7 cfbc
000002a0: e3af f13d d11f 133a d07f 033d e84f f53b
000002b0: c30a c8bd 15d9 0a3d f47b 303d 863e 80bd
000002c0: 1dc9 4e3d 2a3a 00bc cd31 6abc 0518 523d
000002d0: 34e4 513d e889 41bd 6b56 52bd 1011 02bb
000002e0: 3f42 363b 7516 d6bc 6fba e7bc 4202 cf3a
000002f0: affb 2a3d a6b0 9f3c 56ad 8b3c 4d72 16bd
00000300: 568c 9b3c 00fc ae3d b965 d03c b6f8 bbbd
00000310: b2d7 353d 430f cb3c a06a b6bc eff7 5cbc
00000320: c043 8cbd a30e 563c 78f1 123e 0d79 443d
00000330: 0655 7cbd b557 14bd 07b4 6b3d 53c2 10bc
00000340: 4465 3ebd ecb2 ccbb b06d 843d 3991 043e
00000350: dcd0 10bd 0dee 3dbd 1a02 9abc 122a 1abd
00000360: b428 c33c b7df c2bc 34ee 9fbd 6a0a c1bb
00000370: c777 c4bc 3f16 723d d96f 0f3d 539d 073a
00000380: df21 eb3c 7045 4c3d 942a a3bd d8de 0ebc
00000390: a417 72bc 0c9e 803c 4daf 153c 0985 07bd
000003a0: c47a 2b3d bd79 483c 77e7 0a3d 06f9 273d
000003b0: c432 e0bc f9e1 1d3d d18c 233c e41b 55bd
000003c0: d738 423c 0fd1 21bd acdf 283d 77d5 193c
000003d0: 71d3 d2bc a53b c7bc c974 a9bb 51e0 663d
000003e0: 4ca0 c33c c00b 333c c14b c1bd 467d 95bd
000003f0: 2988 623d e5f1 803c 8d32 bcbb 0b53 b23d

Generator.conv3.conv2.0.weight f4 [8, 8, 3, 3, 3]
-0.07901983 0.014880607 -0.038881656 -0.043861933 0.03888399 -0.0149579365 -0.05268799 0.007697874
-0.03886575 -0.04940927 -0.054637786 0.008644019 0.020696575 0.028436441 -0.034014035 -0.04075801
0.028662583 -0.05417702 -0.038437113 -0.027715515 -0.08251637 0.035748776 0.035189684 0.036997154
-0.015623889 0.07781833 -0.002655634 -0.033894632 -0.05157428 -0.0043647643 0.021428335 -0.047983453
-0.05855511 0.012448986 -0.038524777 0.030154979 0.036962997 -0.003852807 0.04501578 -0.04543867
-0.021868281 0.04895913 0.034139432 -0.033199366 -0.013958033 0.047212966 0.0023238375 -0.052761152
0.0052086627 -0.013229813 -0.040810008 0.02663705 -0.035041947 0.034991287 -0.01137862 0.12190093
-0.028677817 -0.00070973835 0.031322986 0.008485781 -0.093917236 -0.065981805 0.0184591 0.060164995
0.019175528 0.038196202 0.042914797 0.094248675 -0.08149041 -0.12253616 0.038867235 -0.06647543
0.016136939 0.14852461 0.008988399 0.016950728 0.13443053 -0.043875463 -0.09389842 -0.08607119
-0.016148623 0.028278412 0.03622165 -0.037994783 -0.0017320792 -0.059968125 0.015520566 0.0096807815
-0.04281576 0.061282907 0.020603403 0.0041459245 0.0055383607 -0.028092587 -0.07218928 0.030455908
0.03325382 -0.03508758 0.06441931 0.013621258 -0.040805105 0.038470123 0.058689516 -0.043155473
-0.026969567 0.01905404 -0.011355874 0.028721873 -0.03811956 0.0106087765 -0.027518056 0.064501554
-0.028611494 -0.06299048 -0.07220902 0.03414093 0.0092842 0.011175282 -0.057284664 0.024120266
0.06785841 0.0013753999 -0.009602245 -0.057630133 0.0020506864 -0.011568381 -0.08327609 -0.036581032
-0.07078275 0.07444476 0.011617682 -0.023171978 -0.0003024728 -0.026591469 -0.046115063 0.04908157
0.06100128 0.02766361 0.015137562 0.07459259 -0.02857531 -0.010887684 -0.052663475 0.033906728
-0.022500161 -0.0006339856 0.07124149 0.029541494 0.021706197 -0.0024835265 0.0018386223 -0.015173485
0.04625497 -0.0025564663 0.06985301 0.0018317266 0.07361175 0.010585677 0.0027294732 -0.034425333
-0.060513332 -0.046364654 0.060723964 -0.0046050986 0.017455297 0.029511841 0.053986795 0.070831515
0.046837274 -0.0604253 -0.03952796 -0.030356336 -0.0056672962 0.00023506372 -0.04824161 -0.009948744
0.053380482 0.0011583073 0.06445234 -0.015213632 -0.034117 -0.056721367 0.050384674 -0.03970974
-0.010311558 0.09636413 -0.038030043 0.020493492 -0.037994042 -0.035634175 0.0058084354 -0.041649852
-0.0027119948 0.011674349 0.016869871 0.038461875 0.047141727 0.08603569 0.098413356 0.0012069747
-0.024484692 0.0351042 0.020999582 -0.028656662 -0.0068524764 0.10111004 -0.021401064 0.036394697
-0.088256344 -0.05907948 0.090997525 -0.0025891757 -0.012993011 0.08567668 0.1279417 -0.026464447
0.01945622 -0.032192573 -0.035478916 -0.0017028687 -0.087567985 -0.17653678 0.072899714 0.09285352
-0.14801726 0.0066218334 -0.07104642 -0.013701844 -0.0051717707 0.04585649 -0.12323438 0.10950416
0.07892697 -0.06343461 -0.013822324 0.024532449 0.06017212 0.05598427 0.011682367 0.00889866
0.06617045 0.0015263299 -0.0432221 0.024583014 0.043180536 -0.011421602 0.0142060965 0.08974614
0.030448107 -0.029934715 -0.020689543 0.010785275 -0.030915702 0.055719 -0.031429578 0.05410925
00000000: 26d5 a1bd cacd 733c 5f42 1fbd 92a8 33bd
00000010: d244 1f3d 2212 75bc 5dcf 57bd 733e fc3b
00000020: b131 1fbd 6061 4abd dfcb 5fbd a59f 0d3c
00000030: dd8b a93c 8af3 e83c 4d52 0bbd dff1 26bd
00000040: cbcd ea3c b9e8 5dbd 3c70 1dbd a60b e3bc
00000050: 58fe a8bd 4f6d 123d 0f23 103d 548a 173d
00000060: 57fb 7fbc 375f 9f3d 250a 2ebb 19d5 0abd
00000070: 8d3f 53bd 4c06 8fbb 7a8a af3c 4c8a 44bd
00000080: 7cd7 6fbd d5f6 4b3c 28cc 1dbd 9307 f73c
00000090: 8366 173d 607f 7cbb 7762 383d e61d 3abd
000000a0: 1c25 b3bc 5e89 483d cad5 0b3d 0ffc 07bd
000000b0: 3cb0 64bc 6262 413d 864b 183b 141c 58bd
000000c0: 6ead aa3b dcc1 58bc 6528 27bd f135 da3c
000000d0: 2588 0fbd 0653 0f3d 646d 3abc 32a7 f93d
000000e0: beed eabc bc0d 3aba 884c 003d f207 0b3c
000000f0: ae57 c0bd 7821 87bd 8a37 973c 926f 763d
00000100: ff15 9d3c 9f73 1c3d 6dc7 2f3d 7305 c13d
00000110: 72e4 a6bd 3df4 fabd 4033 1f3d 4524 88bd
00000120: 9d31 843c d616 183e 1444 133c 41dc 8a3c
00000130: 28a8 093e c2b6 33bd d14d c0bd 1846 b0bd
00000140: 1e4a 84bc 21a8 e73c 275d 143d 6ba0 1bbd
00000150: ef06 e3ba 23a1 75bd f949 7e3c 249c 1e3c
00000160: 945f 2fbd c903 7b3d 78c8 a83c 89da 873b
00000170: 237b b53b 6d22 e6bc f9d7 93bd ab7e f93c
00000180: 2835 083d ffb7 0fbd 45ee 833d b22b 5f3c
00000190: 4123 27bd d992 1d3d 6b64 703d cbc3 30bd
000001a0: 48ef dcbc 3817 9c3c fd0d 3abc 224a eb3c
000001b0: 4123 1cbd 6fd0 2d3c 8c6d e1bc 6419 843d
000001c0: a762 eabc 2701 81bd 53e2 93bd 5cd7 0b3d
000001d0: c21c 183c 8818 373c 53a3 6abd dd97 c53c
000001e0: 5af9 8a3d c346 b43a bc52 1dbc 930d 6cbd
000001f0: cf64 063b 4f89 3dbc a88c aabd fed5 15bd
00000200: 8cf6 90bd 7f76 983d 1758 3e3c 29d3 bdbc
00000210: 3695 9eb9 5ad6 d9bc 26e3 3cbd c209 493d
00000220: 7adc 793d cc9e e23c 8903 783c 00c4 983d
00000230: c516 eabc 4262 32bc a8b5 57bd c8e1 0a3d
00000240: 4252 b8bc 0e32 26ba 0fe7 913d 0101 f23c
00000250: 32d1 b13c a9c2 22bb edfd f03a 359a 78bc
00000260: da75 3d3d 638a 27bb 180f 8f3d 8c16 f03a
00000270: c2c1 963d 8c6f 2d3c f6e0 323b 9401 0dbd
00000280: d4dc 77bd dde8 3dbd b1b9 783d 5ee6 96bb
00000290: 69fe 8e3c d1c2 f13c 4221 5d3d 1d10 913d
000002a0: 71d8 3f3d 8580 77bd 12e8 21bd daad f8bc
000002b0: bab4 b9bb 707b 7639 ff98 45bd 0f00 23bc
000002c0: 7ea5 5a3d 58d2 973a 97ff 833d 9942 79bc
000002d0: 44be 0bbd aa54 68bd 2960 4e3d aea6 22bd
000002e0: cff1 28bc 8f5a c53d 64c5 1bbd f8e1 a73c
000002f0: a49f 1bbd 24f5 11bd b054 be3b 0999 2abd
00000300: b9bb 31bb c545 3f3c af32 8a3c 338a 1d3d
00000310: af17 413d 7b33 b03d f18c c93d 5a33 9e3a
00000320: 1f94 c8bc 6cc9 0f3d 5107 ac3c 60c1 eabc
00000330: bd8a e0bb c812 cf3d 4951 afbc 9b12 153d
00000340: bebf b4bd 53fd 71bd e95c ba3d 29af 29bb
00000350: a3e0 54bc 4177 af3d 2603 033e f8cb d8bc
00000360: a762 9f3c 5cdc 03bd 5752 11bd cb32 dfba
00000370: d856 b3bd 0fc6 34be 724c 953d fc29 be3d
00000380: d691 17be f7fb d83b c980 91bd b37d 60bc
00000390: f577 a9bb 04d4 3b3d 4e62 fcbd b843 e03d
000003a0: 77a4 a13d 01ea 81bd 0777 62bc 46f8 c83c
000003b0: 0a77 763d c34f 653d 6667 3f3c afcb 113c
000003c0: 5f84 873d 220f c83a a809 31bd 5162 c93c
000003d0: 13de 303d ac21 3bbc b0c0 683c d3cc b73d
000003e0: 4f6e f93c a639 f5bc 1e7d a9bc b9b4 303c
000003f0: ed42 fdbc 9b39 643d 4dbc 00bd a9a1 5d3d

Generator.conv4.conv1.0.weight f4 [8, 8, 3, 3, 3]
-0.021983068 0.008741755 0.016267857 0.027511071 -0.019660125 0.0124494145 -0.025375923 -0.004750077
-0.04321273 -0.05386001 -0.00071332813 -0.08026342 -0.054042872 0.060097497 0.010776327 0.07318199
0.0061983177 0.026133426 -0.016908906 0.016090605 0.040736448 0.042150658 -0.011922211 0.055713017
-0.040770367 -0.007790456 -0.034978963 0.015411723 -0.04246063 0.043560658 -0.039023057 0.011145299
0.033302292 0.03223042 0.08383213 -0.04329667 0.03277924 0.037079114 -0.03871916 -0.01945202
-0.04170492 -0.05582925 -0.02524074 0.010992736 0.037803583 0.0073923958 0.06492754 0.049149208
-0.0018224042 0.015904099 0.043421168 0.018919095 0.07193214 0.06488847 -0.02488784 -0.019715762
-0.04572034 -0.000901951 0.014319607 -0.08393007 0.09285396 0.0329452 -0.023728069 0.032118194
-0.06981032 -0.004814782 0.03678029 -0.0042466302 0.008389275 0.009078899 0.07317093 -0.03501265
0.029798089 0.027100988 0.0023132602 0.034443133 -0.05811391 0.009082144 0.029359825 -0.024855642
0.004503852 0.04312072 -0.012879201 -0.010944963 0.0332745 0.0010761177 -0.008760058 0.04950964
0.015355793 0.058776848 0.011084114 -0.0065131686 -0.013958606 0.042480074 -0.061224014 0.051295243
0.040667895 0.06643727 0.06328381 -0.058182888 -0.026901502 -0.024378894 0.029475715 0.062376812
0.0017569775 0.060656633 0.016512057 0.035402916 -0.003126536 0.010739539 -0.027085489 0.013832199
-0.014077322 0.01325897 0.020540202 0.06825857 0.0087749185 0.006920798 -0.04614642 -0.012021522
-0.054814596 -0.05058473 -0.03262941 0.045178995 0.089712195 -0.017990101 0.03969383 0.01917742
-0.010671745 -0.00820086 -0.040268537 0.03845428 0.058460988 0.053460836 0.07326203 -0.045231026
-0.06520589 -0.015653178 0.00029197743 -0.024195297 -0.078932285 0.07665724 0.07676414 -0.056829836
0.0439632 -0.070134446 -0.012686294 0.016265506 -0.061020177 -0.016615443 0.056549255 0.020679144
-0.005271876 0.013388911 -0.03817363 -0.06903706 0.021313783 -0.04007811 -0.036635093 0.013719249
-0.04034824 0.041294962 0.03954195 -0.00012754757 -0.01757295 -0.0044012344 0.057119895 0.019549519
-0.050913207 -0.0013426413 0.020714505 -0.037964623 -0.022037674 0.031058189 0.047138084 -0.04943671
-0.05651706 0.046235174 0.018791523 -0.028963743 0.026009863 -0.0019864354 0.009847645 -0.06258226
0.06164531 0.021030374 -0.00082799274 0.0009421603 0.030924655 -0.038135998 -0.026302313 -0.059906952
-0.029937016 0.046124447 -0.008484629 -0.046833023 -0.034052882 -0.002764299 0.04629223 -0.07113264
-0.022879358 0.03065498 -0.04318719 -0.04898793 -0.017407708 0.06658977 -0.054824587 -0.04952507
0.04763062 -0.011982295 0.01121366 -0.025915245 -0.010737192 0.07422758 0.07560685 0.0111412415
0.0009178081 0.06526016 0.03582843 0.005508036 -0.014066493 0.02452388 -0.046330985 -0.026660537
0.0076336293 0.078933224 0.055954356 -0.019456722 -0.054120596 0.0035502252 -0.02031534 -0.01011496
-0.022470538 -0.04011703 -0.01700621 -0.0030681815 -0.002460986 0.0025027597 0.059320536 -0.0024764861
0.023532474 0.061486475 -0.018063605 -0.04338855 -0.0015619663 -0.0329037 -0.05722919 0.027790342
-0.0042471495 0.013735488 -0.052169267 -0.023417639 0.026218196 0.060806222 0.04947741 0.0044012605
00000000: d615 b4bc 9439 0f3c 2b44 853c e65e e13c
00000010: 450e a1bc a1f8 4b3c 2be1 cfbc 89a6 9bbb
00000020: d5ff 30bd 509c 5cbd a4fe 3aba 2661 a4bd
00000030: 0f5c 5dbd cb28 763d 318f 303c 70e0 953d
00000040: 421b cb3b c415 d63c 8c84 8abc 72d0 833c
00000050: 43db 263d 2ba6 2c3d 6155 43bc 5533 643d
00000060: d4fe 26bd 1547 ffbb 1a46 0fbd 7481 7c3c
00000070: 33eb 2dbd a96c 323d a4d6 1fbd c69a 363c
00000080: fc67 083d 0b04 043d 2eb0 ab3d d957 31bd
00000090: 8643 063d 45e0 173d fb97 1ebd d859 9fbc
000000a0: c7d2 2abd 36ad 64bd abc5 cebc e01a 343c
000000b0: eed7 1a3d e93b f23b bbf8 843d ae50 493d
000000c0: bddd eeba 5049 823c 65da 313d 38fc 9a3c
000000d0: 2851 933d 3fe4 843d 95e1 cbbc f382 a1bc
000000e0: 4045 3bbd e870 6cba c99c 6a3c 87e3 abbd
000000f0: 382a be3d 8cf1 063d 5e61 c2bc 5e8e 033d
00000100: b7f8 8ebd 52c5 9dbb eea6 163d 5127 8bbb
00000110: 2b73 093c aabf 143c a4da 953d 6d69 0fbd
00000120: 1f1b f43c e402 de3c 119a 173b 3e14 0d3d
00000130: da08 6ebd 46cd 143c 0484 f03c 0f9e cbbc
00000140: 0d95 933b 5a9f 303d 4903 53bc 8152 33bc
00000150: d84a 083d 850c 8d3a 5986 0fbc 9fca 4a3d
00000160: dd96 7b3c febf 703d 259a 353c 6b6c d5bb
00000170: a3b2 64bc 96ff 2d3d 08c6 7abd f61a 523d
00000180: 6193 263d 4310 883d f19a 813d 2e51 6ebd
00000190: 8a60 dcbc 3fb6 c7bc 0e77 f13c d47e 7f3d
000001a0: 624a e63a 1773 783d 4b44 873c a602 113d
000001b0: 92e6 4cbb e4f4 2f3c 63e2 ddbc 73a0 623c
000001c0: 91a4 66bc 273c 593c ed43 a83c 26cb 8b3d
000001d0: adc4 0f3c ddc7 e23b 0704 3dbd ebf5 44bc
000001e0: 4585 60bd ef31 4fbd 6ba6 05bd 9c0d 393d
000001f0: 07bb b73d fa5f 93bc ff95 223d f719 9d3c
00000200: 8bd8 2ebc e65c 06bc 9ff0 24bd 3c82 1d3d
00000210: ca74 6f3d c0f9 5a3d 670a 963d 2b44 39bd
00000220: aa8a 85bd 183b 80bc 8c14 9939 3735 c6bc
00000230: 40a7 a1bd 79fe 9c3d 8436 9d3d 67c6 68bd
00000240: c212 343d a6a2 8fbd 2cda 4fbc 3d3f 853c
00000250: 4bf0 79bd 1c1d 88bc 31a0 673d 4f67 a93c
00000260: b4bf acbb 2a5d 5b3c f45b 1cbd 4d63 8dbd
00000270: 3e9a ae3c f228 24bd ae0e 16bd b3c6 603c
00000280: 3244 25bd e824 293d bdf6 213d 4abe 05b9
00000290: 26f5 8fbc 3b38 90bb 8df6 693d 5026 a03c
000002a0: 5e8a 50bd 91fb afba 77b1 a93c cb80 1bbd
000002b0: 5a88 b4bc be6d fe3c dd13 413d 267e 4abd
000002c0: 6f7e 67bd 1861 3d3d aef0 993c 5f45 edbc
000002d0: a312 d53c db2e 02bb 0458 213c 212b 80bd
000002e0: cb7f 7c3d e447 ac3c a70d 59ba 4ffb 763a
000002f0: b455 fd3c 7e34 1cbd f377 d7bc fe60 75bd
00000300: 793e f5bc fdec 3c3d 1d03 0bbc fcd3 3fbd
00000310: 097b 0bbd 3e29 35bb ec9c 3d3d fdad 91bd
00000320: 7e6d bbbc 2720 fb3c 0de5 30bd 91a7 48bd
00000330: 9c9a 8ebc 3860 883d bf8f 60bd cdda 4abd
00000340: 5318 433d 6351 44bc 80b9 373c 354c d4bc
00000350: 0ceb 2fbc a104 983d c4d7 9a3d c189 363c
00000360: 0f99 703a 1ea7 853d d5c0 123d c17c b43b
00000370: 2677 66bc 4ee6 c83c 8fc5 3dbd 3367 dabc
00000380: 8623 fa3b bea7 a13d 6530 653d b463 9fbc
00000390: 8fad 5dbd e5aa 683b 5b6c a6bc 38b9 25bc
000003a0: 2214 b8bc c151 24bd 9b50 8bbc 8b13 49bb
000003b0: 7e48 21bb 5705 243b 17fa 723d 8b4c 22bb
000003c0: 2dc7 c03c 3ed9 7b3d 20fa 93bc 31b8 31bd
000003d0: e4ba ccba 08c6 06bd 2869 6abd 92a8 e33c
000003e0: ac2b 8bbb d00a 613c 71af 55bd 59d6 bfbc
000003f0: 8bc7 d63c f20f 793d d3a8 4a3d 7338 903b

Generator.conv4.conv2.0.weight f4 [8, 8, 3, 3, 3]
0.0058563794 0.07026064 -0.032585915 -0.07079657 0.001030836 0.0046701482 0.006771674 -0.046599057
0.040020168 -0.056703668 0.0047016097 0.07778242 0.07343116 0.081664585 -0.03998324 -0.012353968
0.06515763 -0.015137678 0.030257815 0.010427087 0.05123899 0.060855854 -0.025345182 0.06070098
-0.029118083 0.027625259 0.01150951 -0.008341965 0.049223967 -0.010487381 0.043318693 -0.00819646
-0.07246473 -0.020938575 0.016320033 0.021520311 0.03820095 -0.0684765 -0.062077306 0.0136916265
0.047445726 -0.09533137 -0.040172644 0.050286602 -0.06912904 0.03182425 0.02653286 -0.049693026
0.017958503 0.005154803 -0.060795754 -0.0065299594 0.085826546 0.07167978 -0.07331201 -0.017050415
-0.05042991 -0.01131833 -0.0118432315 -0.06787242 -0.027497413 0.0036546283 0.06591056 -0.09939021
-0.025999554 0.009263192 -0.049499966 0.03507961 -0.016948119 0.030539602 -0.013229872 0.07305797
0.02965334 -0.050491743 0.05417389 -0.032991067 0.050078277 -0.04414313 -0.040424965 -0.040369637
-0.017395398 0.0045495993 -0.02350427 0.0040859063 -0.050299995 0.012603454 -0.018673899 0.013708296
-0.0660064 -0.035152648 -0.050353143 0.0074785515 -0.037340425 -0.039730437 0.0014552701 -0.018778449
-0.035657257 0.05732478 -0.0010157004 -0.08088695 -0.07182237 0.007815746 0.02383717 0.0008086425
0.017840505 0.0042745997 0.035186965 0.04028857 0.06570279 0.019314341 -0.031581514 0.011650402
-0.012499854 -0.08819079 0.009842422 0.015819896 -0.007435436 0.016690489 -0.008140572 0.0072623477
-0.050716598 -0.07954984 -0.003992828 0.016608303 -0.017639104 -0.06832719 0.025254134 0.049676824
0.05387502 -0.011801652 -0.06362215 -0.044972226 0.05250573 0.016232852 0.007511881 -0.10288711
0.043296903 -0.032620467 -0.07828616 -0.0031113494 0.0524801 0.014621702 0.031518295 0.05679814
-0.05337179 -0.02009612 0.039240025 0.040423486 0.049576618 0.029902717 0.008249313 0.014301896
-0.009940653 -0.07938477 -0.03793256 -0.013498438 0.024370361 -0.051524088 0.08641279 0.0030689498
-0.0066539203 0.029308598 0.058054864 -0.071631424 -0.12143054 -0.033043116 0.0312652 -0.03666712
0.01899829 -0.027639229 0.023927348 0.024812432 -0.049421947 0.0033901443 -0.029239535 -0.058581676
0.04639944 -0.004892385 -0.03287275 0.029445019 0.001902654 -0.08322496 0.00077010284 -0.067382045
0.015933458 -0.07154987 -0.0030134923 0.04757042 -0.07227878 -0.047155116 0.05368994 0.005053059
0.062381238 -0.018944565 0.05741083 0.005400767 -0.076035045 -0.06386895 -0.027502688 0.018390575
0.003691365 0.010615408 0.052841213 -0.018881878 0.04036282 0.0063425186 0.0032087723 0.020907188
-0.011802237 -0.026218867 0.049034815 0.008296755 0.0067507215 0.03967675 0.04439768 0.06600342
0.043086812 -0.04104533 -0.044163 -0.017798822 -0.053145893 -0.0013730931 -0.017792253 -0.005003621
0.033020724 0.03155947 -0.0066096354 -0.04224379 0.0146323275 0.022121849 -0.058652468 0.050469723
0.0010497791 0.021613643 -0.03634924 -0.01971051 0.00101417 -0.041011922 0.024672257 0.0138803115
0.05809486 -0.04032703 0.01926579 -0.024782337 0.014048273 -0.059715066 0.00900754 0.03910737
-0.058738876 -0.03734328 -0.03017465 0.06443204 -0.0001613783 0.03196402 -0.036062557 0.043895032
00000000: dfe6 bf3b cfe4 8f3d cf78 05bd cbfd 90bd
00000010: 1e1d 873a 0b08 993b ebe4 dd3b a7de 3ebd
00000020: 30ec 233d 1b42 68bd f60f 9a3b 644c 9f3d
00000030: 1363 963d c33f a73d 77c5 23bd 4c68 4abc
00000040: 5d71 853d 0604 78bc 3ddf f73c 5fd6 2a3c
00000050: fadf 513d fd43 793d b3a0 cfbc 97a1 783d
00000060: 0c89 eebc 5e4e e23c 6292 3c3c bdac 08bc
00000070: 129f 493d 44d3 2bbc f16e 313d 724a 06bc
00000080: 6368 94bd 6087 abbc 97b1 853c 5d4b b03c
00000090: 9978 1c3d 683d 8cbd c644 7ebd d852 603c
000000a0: 7356 423d 183d c3bd 128c 24bd 53f9 4d3d
000000b0: 8793 8dbd 255a 023d 715b d93c ea8a 4bbd
000000c0: b61d 933c 9fe9 a83b f804 79bd 45f9 d5bb
000000d0: d4c5 af3d d9cc 923d 9b24 96bd 50ad 8bbc
000000e0: 988f 4ebd 8470 39bc 1d0a 42bc b200 8bbd
000000f0: 4142 e1bc 7d82 6f3b 1efc 863d 188d cbbd
00000100: 04fd d4bc a5c4 173c 7ac0 4abd a3af 0f3d
00000110: c8d6 8abc 302e fa3c 1bc2 58bc 6b9f 953d
00000120: 90eb f23c 6ed0 4ebd 71e5 5d3d a421 07bd
00000130: e11e 4d3d 6dcf 34bd a694 25bd a25a 25bd
00000140: cb80 8ebc ce14 953b 078c c0bc 11e3 853b
00000150: 5e07 4ebd b87e 4e3c 01fa 98bc c398 603c
00000160: 5d2e 87bd 39fc 0fbd 193f 4ebd a30e f53b
00000170: 46f2 18bd 62bc 22bd c3be be3a 43d5 99bc
00000180: 580d 12bd 63cd 6a3d 4021 85ba 0fa8 a5bd
00000190: 9b17 93bd 9d0d 003c 2b46 c33c 14fb 533a
000001a0: 4026 923c f111 8c3b 3520 103d a105 253d
000001b0: 2f8f 863d 1c39 9e3c 9e5b 01bd 54e1 3e3c
000001c0: 30cc 4cbc 5f9d b4bd 1c42 213c ba98 813c
000001d0: f5a4 f3bb 7eba 883c 0960 05bc fdf8 ed3b
000001e0: 35bc 4fbd 07eb a2bd 45d6 82bb 230e 883c
000001f0: e27f 90bc 20ef 8bbd c2e1 ce3c ed79 4b3d
00000200: 0eac 5c3d b75b 41bc 544c 82bd cc34 38bd
00000210: 4010 573d c2fa 843c 3a26 f63b 7ab6 d2bd
00000220: 1858 313d 0a9d 05bd 7f54 a0bd c8e7 4bbb
00000230: 60f5 563d dd8f 6f3c 5419 013d 2ba5 683d
00000240: 619c 5abd 9ea0 a4bc 26ba 203d 1993 253d
00000250: da10 4b3d 8bf6 f43c 2028 073c 8052 6a3c
00000260: 1fde 22bc 7b94 a2bd 2c5f 1bbd 8d28 5dbc
00000270: 5aa4 c73c ec0a 53bd 30f9 b03d 6f20 493b
00000280: 2109 dabb 9618 f03c f0ca 6d3d 7fb3 92bd
00000290: 93b0 f8bd 3858 07bd f00f 003d 4330 16bd
000002a0: 4da2 9b3c aa6b e2bc 4903 c43c 7143 cb3c
000002b0: ab6e 4abd 2f2d 5e3b c087 efbc 57f3 6fbd
000002c0: 570d 3e3d 4d50 a0bb 94a5 06bd ae36 f13c
000002d0: 7962 f93a d971 aabd bae0 493a 99ff 89bd
000002e0: e286 823c bd88 92bd 037e 45bb 33d9 423d
000002f0: e606 94bd b925 41bd fce9 5b3d 2294 a53b
00000300: 7883 7f3d a231 9bbc 9e27 6b3d ebf8 b03b
00000310: 43b8 9bbd b9cd 82bd 514d e1bc d5a7 963c
00000320: d4ea 713b 40ec 2d3c 0770 583d 2bae 9abc
00000330: 7c53 253d e7d4 cf3b 444a 523b 8d45 ab3c
00000340: 2b5e 41bc f3c8 d6bc bbd8 483d 1def 073c
00000350: 2835 dd3b 1684 223d 57da 353d cd2c 873d
00000360: cc7b 303d 261f 28bd 43e4 34bd d6ce 91bc
00000370: 82af 59bd 5cf9 b3ba 0fc1 91bc 6af5 a3bb
00000380: bd40 073d 8144 013d a495 d8bb d307 2dbd
00000390: 6ebc 6f3c e138 b53c 923d 70bd 57b9 4e3d
000003a0: be98 893a 180f b13c f1e2 14bd ef77 a1bc
000003b0: e6ed 843a 1efc 27bd 791d ca3c 3f6a 633c
000003c0: e0f4 6d3d f52d 25bd 4ad3 9d3c 5404 cbbc
000003d0: ba2a 663c c997 74bd 5c94 133c 0d2f 203d
000003e0: 2d98 70bd 44f5 18bd d430 f7bc f2f4 833d
000003f0: a837 29b9 b4ec 023d 55b6 13bd 47cb 333d
